{"class_name": "Model", "config": {"input_layers": [["C1", 0, 0], ["C2", 0, 0], ["C3", 0, 0], ["C4", 0, 0], ["B1", 0, 0], ["B3", 0, 0], ["D1", 0, 0], ["OnOff_C1", 0, 0], ["OnOff_C2", 0, 0], ["OnOff_C3", 0, 0], ["OnOff_C4", 0, 0], ["OnOff_B1", 0, 0], ["OnOff_B3", 0, 0], ["OnOff_D1", 0, 0]], "layers": [{"class_name": "InputLayer", "config": {"batch_input_shape": [null, 4], "sparse": false, "name": "C1", "dtype": "float32"}, "name": "C1", "inbound_nodes": []}, {"class_name": "InputLayer", "config": {"batch_input_shape": [null, 3], "sparse": false, "name": "C2", "dtype": "float32"}, "name": "C2", "inbound_nodes": []}, {"class_name": "InputLayer", "config": {"batch_input_shape": [null, 4], "sparse": false, "name": "C3", "dtype": "float32"}, "name": "C3", "inbound_nodes": []}, {"class_name": "InputLayer", "config": {"batch_input_shape": [null, 4], "sparse": false, "name": "C4", "dtype": "float32"}, "name": "C4", "inbound_nodes": []}, {"class_name": "InputLayer", "config": {"batch_input_shape": [null, 4], "sparse": false, "name": "B1", "dtype": "float32"}, "name": "B1", "inbound_nodes": []}, {"class_name": "InputLayer", "config": {"batch_input_shape": [null, 4], "sparse": false, "name": "B3", "dtype": "float32"}, "name": "B3", "inbound_nodes": []}, {"class_name": "InputLayer", "config": {"batch_input_shape": [null, 3], "sparse": false, "name": "D1", "dtype": "float32"}, "name": "D1", "inbound_nodes": []}, {"class_name": "Dense", "config": {"name": "C1_0", "units": 80, "bias_regularizer": null, "activation": "relu", "kernel_constraint": null, "kernel_initializer": {"class_name": "VarianceScaling", "config": {"mode": "fan_avg", "distribution": "normal", "scale": 1.0, "seed": 3014}}, "kernel_regularizer": {"class_name": "L1L2", "config": {"l2": 0.0003000000142492354, "l1": 0.0}}, "trainable": true, "activity_regularizer": null, "bias_initializer": {"class_name": "Zeros", "config": {}}, "bias_constraint": null, "use_bias": true}, "name": "C1_0", "inbound_nodes": [[["C1", 0, 0, {}]]]}, {"class_name": "Dense", "config": {"name": "C2_0", "units": 80, "bias_regularizer": null, "activation": "relu", "kernel_constraint": null, "kernel_initializer": {"class_name": "VarianceScaling", "config": {"mode": "fan_avg", "distribution": "normal", "scale": 1.0, "seed": 3014}}, "kernel_regularizer": {"class_name": "L1L2", "config": {"l2": 0.0003000000142492354, "l1": 0.0}}, "trainable": true, "activity_regularizer": null, "bias_initializer": {"class_name": "Zeros", "config": {}}, "bias_constraint": null, "use_bias": true}, "name": "C2_0", "inbound_nodes": [[["C2", 0, 0, {}]]]}, {"class_name": "Dense", "config": {"name": "C3_0", "units": 80, "bias_regularizer": null, "activation": "relu", "kernel_constraint": null, "kernel_initializer": {"class_name": "VarianceScaling", "config": {"mode": "fan_avg", "distribution": "normal", "scale": 1.0, "seed": 3014}}, "kernel_regularizer": {"class_name": "L1L2", "config": {"l2": 0.0003000000142492354, "l1": 0.0}}, "trainable": true, "activity_regularizer": null, "bias_initializer": {"class_name": "Zeros", "config": {}}, "bias_constraint": null, "use_bias": true}, "name": "C3_0", "inbound_nodes": [[["C3", 0, 0, {}]]]}, {"class_name": "Dense", "config": {"name": "C4_0", "units": 80, "bias_regularizer": null, "activation": "relu", "kernel_constraint": null, "kernel_initializer": {"class_name": "VarianceScaling", "config": {"mode": "fan_avg", "distribution": "normal", "scale": 1.0, "seed": 3014}}, "kernel_regularizer": {"class_name": "L1L2", "config": {"l2": 0.0003000000142492354, "l1": 0.0}}, "trainable": true, "activity_regularizer": null, "bias_initializer": {"class_name": "Zeros", "config": {}}, "bias_constraint": null, "use_bias": true}, "name": "C4_0", "inbound_nodes": [[["C4", 0, 0, {}]]]}, {"class_name": "Dense", "config": {"name": "B1_0", "units": 80, "bias_regularizer": null, "activation": "relu", "kernel_constraint": null, "kernel_initializer": {"class_name": "VarianceScaling", "config": {"mode": "fan_avg", "distribution": "normal", "scale": 1.0, "seed": 3014}}, "kernel_regularizer": {"class_name": "L1L2", "config": {"l2": 0.0003000000142492354, "l1": 0.0}}, "trainable": true, "activity_regularizer": null, "bias_initializer": {"class_name": "Zeros", "config": {}}, "bias_constraint": null, "use_bias": true}, "name": "B1_0", "inbound_nodes": [[["B1", 0, 0, {}]]]}, {"class_name": "Dense", "config": {"name": "B3_0", "units": 80, "bias_regularizer": null, "activation": "relu", "kernel_constraint": null, "kernel_initializer": {"class_name": "VarianceScaling", "config": {"mode": "fan_avg", "distribution": "normal", "scale": 1.0, "seed": 3014}}, "kernel_regularizer": {"class_name": "L1L2", "config": {"l2": 0.0003000000142492354, "l1": 0.0}}, "trainable": true, "activity_regularizer": null, "bias_initializer": {"class_name": "Zeros", "config": {}}, "bias_constraint": null, "use_bias": true}, "name": "B3_0", "inbound_nodes": [[["B3", 0, 0, {}]]]}, {"class_name": "Dense", "config": {"name": "D1_0", "units": 80, "bias_regularizer": null, "activation": "relu", "kernel_constraint": null, "kernel_initializer": {"class_name": "VarianceScaling", "config": {"mode": "fan_avg", "distribution": "normal", "scale": 1.0, "seed": 3014}}, "kernel_regularizer": {"class_name": "L1L2", "config": {"l2": 0.0003000000142492354, "l1": 0.0}}, "trainable": true, "activity_regularizer": null, "bias_initializer": {"class_name": "Zeros", "config": {}}, "bias_constraint": null, "use_bias": true}, "name": "D1_0", "inbound_nodes": [[["D1", 0, 0, {}]]]}, {"class_name": "Dense", "config": {"name": "C1_1", "units": 80, "bias_regularizer": null, "activation": "relu", "kernel_constraint": null, "kernel_initializer": {"class_name": "VarianceScaling", "config": {"mode": "fan_avg", "distribution": "normal", "scale": 1.0, "seed": 3014}}, "kernel_regularizer": {"class_name": "L1L2", "config": {"l2": 0.0003000000142492354, "l1": 0.0}}, "trainable": true, "activity_regularizer": null, "bias_initializer": {"class_name": "Zeros", "config": {}}, "bias_constraint": null, "use_bias": true}, "name": "C1_1", "inbound_nodes": [[["C1_0", 0, 0, {}]]]}, {"class_name": "Dense", "config": {"name": "C2_1", "units": 80, "bias_regularizer": null, "activation": "relu", "kernel_constraint": null, "kernel_initializer": {"class_name": "VarianceScaling", "config": {"mode": "fan_avg", "distribution": "normal", "scale": 1.0, "seed": 3014}}, "kernel_regularizer": {"class_name": "L1L2", "config": {"l2": 0.0003000000142492354, "l1": 0.0}}, "trainable": true, "activity_regularizer": null, "bias_initializer": {"class_name": "Zeros", "config": {}}, "bias_constraint": null, "use_bias": true}, "name": "C2_1", "inbound_nodes": [[["C2_0", 0, 0, {}]]]}, {"class_name": "Dense", "config": {"name": "C3_1", "units": 80, "bias_regularizer": null, "activation": "relu", "kernel_constraint": null, "kernel_initializer": {"class_name": "VarianceScaling", "config": {"mode": "fan_avg", "distribution": "normal", "scale": 1.0, "seed": 3014}}, "kernel_regularizer": {"class_name": "L1L2", "config": {"l2": 0.0003000000142492354, "l1": 0.0}}, "trainable": true, "activity_regularizer": null, "bias_initializer": {"class_name": "Zeros", "config": {}}, "bias_constraint": null, "use_bias": true}, "name": "C3_1", "inbound_nodes": [[["C3_0", 0, 0, {}]]]}, {"class_name": "Dense", "config": {"name": "C4_1", "units": 80, "bias_regularizer": null, "activation": "relu", "kernel_constraint": null, "kernel_initializer": {"class_name": "VarianceScaling", "config": {"mode": "fan_avg", "distribution": "normal", "scale": 1.0, "seed": 3014}}, "kernel_regularizer": {"class_name": "L1L2", "config": {"l2": 0.0003000000142492354, "l1": 0.0}}, "trainable": true, "activity_regularizer": null, "bias_initializer": {"class_name": "Zeros", "config": {}}, "bias_constraint": null, "use_bias": true}, "name": "C4_1", "inbound_nodes": [[["C4_0", 0, 0, {}]]]}, {"class_name": "Dense", "config": {"name": "B1_1", "units": 80, "bias_regularizer": null, "activation": "relu", "kernel_constraint": null, "kernel_initializer": {"class_name": "VarianceScaling", "config": {"mode": "fan_avg", "distribution": "normal", "scale": 1.0, "seed": 3014}}, "kernel_regularizer": {"class_name": "L1L2", "config": {"l2": 0.0003000000142492354, "l1": 0.0}}, "trainable": true, "activity_regularizer": null, "bias_initializer": {"class_name": "Zeros", "config": {}}, "bias_constraint": null, "use_bias": true}, "name": "B1_1", "inbound_nodes": [[["B1_0", 0, 0, {}]]]}, {"class_name": "Dense", "config": {"name": "B3_1", "units": 80, "bias_regularizer": null, "activation": "relu", "kernel_constraint": null, "kernel_initializer": {"class_name": "VarianceScaling", "config": {"mode": "fan_avg", "distribution": "normal", "scale": 1.0, "seed": 3014}}, "kernel_regularizer": {"class_name": "L1L2", "config": {"l2": 0.0003000000142492354, "l1": 0.0}}, "trainable": true, "activity_regularizer": null, "bias_initializer": {"class_name": "Zeros", "config": {}}, "bias_constraint": null, "use_bias": true}, "name": "B3_1", "inbound_nodes": [[["B3_0", 0, 0, {}]]]}, {"class_name": "Dense", "config": {"name": "D1_1", "units": 80, "bias_regularizer": null, "activation": "relu", "kernel_constraint": null, "kernel_initializer": {"class_name": "VarianceScaling", "config": {"mode": "fan_avg", "distribution": "normal", "scale": 1.0, "seed": 3014}}, "kernel_regularizer": {"class_name": "L1L2", "config": {"l2": 0.0003000000142492354, "l1": 0.0}}, "trainable": true, "activity_regularizer": null, "bias_initializer": {"class_name": "Zeros", "config": {}}, "bias_constraint": null, "use_bias": true}, "name": "D1_1", "inbound_nodes": [[["D1_0", 0, 0, {}]]]}, {"class_name": "InputLayer", "config": {"batch_input_shape": [null, 1], "sparse": false, "name": "OnOff_C1", "dtype": "float32"}, "name": "OnOff_C1", "inbound_nodes": []}, {"class_name": "Dense", "config": {"name": "C1_o", "units": 1, "bias_regularizer": null, "activation": "relu", "kernel_constraint": null, "kernel_initializer": {"class_name": "VarianceScaling", "config": {"mode": "fan_avg", "distribution": "normal", "scale": 1.0, "seed": 3014}}, "kernel_regularizer": {"class_name": "L1L2", "config": {"l2": 0.0003000000142492354, "l1": 0.0}}, "trainable": true, "activity_regularizer": null, "bias_initializer": {"class_name": "Zeros", "config": {}}, "bias_constraint": null, "use_bias": true}, "name": "C1_o", "inbound_nodes": [[["C1_1", 0, 0, {}]]]}, {"class_name": "InputLayer", "config": {"batch_input_shape": [null, 1], "sparse": false, "name": "OnOff_C2", "dtype": "float32"}, "name": "OnOff_C2", "inbound_nodes": []}, {"class_name": "Dense", "config": {"name": "C2_o", "units": 1, "bias_regularizer": null, "activation": "relu", "kernel_constraint": null, "kernel_initializer": {"class_name": "VarianceScaling", "config": {"mode": "fan_avg", "distribution": "normal", "scale": 1.0, "seed": 3014}}, "kernel_regularizer": {"class_name": "L1L2", "config": {"l2": 0.0003000000142492354, "l1": 0.0}}, "trainable": true, "activity_regularizer": null, "bias_initializer": {"class_name": "Zeros", "config": {}}, "bias_constraint": null, "use_bias": true}, "name": "C2_o", "inbound_nodes": [[["C2_1", 0, 0, {}]]]}, {"class_name": "InputLayer", "config": {"batch_input_shape": [null, 1], "sparse": false, "name": "OnOff_C3", "dtype": "float32"}, "name": "OnOff_C3", "inbound_nodes": []}, {"class_name": "Dense", "config": {"name": "C3_o", "units": 1, "bias_regularizer": null, "activation": "relu", "kernel_constraint": null, "kernel_initializer": {"class_name": "VarianceScaling", "config": {"mode": "fan_avg", "distribution": "normal", "scale": 1.0, "seed": 3014}}, "kernel_regularizer": {"class_name": "L1L2", "config": {"l2": 0.0003000000142492354, "l1": 0.0}}, "trainable": true, "activity_regularizer": null, "bias_initializer": {"class_name": "Zeros", "config": {}}, "bias_constraint": null, "use_bias": true}, "name": "C3_o", "inbound_nodes": [[["C3_1", 0, 0, {}]]]}, {"class_name": "InputLayer", "config": {"batch_input_shape": [null, 1], "sparse": false, "name": "OnOff_C4", "dtype": "float32"}, "name": "OnOff_C4", "inbound_nodes": []}, {"class_name": "Dense", "config": {"name": "C4_o", "units": 1, "bias_regularizer": null, "activation": "relu", "kernel_constraint": null, "kernel_initializer": {"class_name": "VarianceScaling", "config": {"mode": "fan_avg", "distribution": "normal", "scale": 1.0, "seed": 3014}}, "kernel_regularizer": {"class_name": "L1L2", "config": {"l2": 0.0003000000142492354, "l1": 0.0}}, "trainable": true, "activity_regularizer": null, "bias_initializer": {"class_name": "Zeros", "config": {}}, "bias_constraint": null, "use_bias": true}, "name": "C4_o", "inbound_nodes": [[["C4_1", 0, 0, {}]]]}, {"class_name": "InputLayer", "config": {"batch_input_shape": [null, 1], "sparse": false, "name": "OnOff_B1", "dtype": "float32"}, "name": "OnOff_B1", "inbound_nodes": []}, {"class_name": "Dense", "config": {"name": "B1_o", "units": 1, "bias_regularizer": null, "activation": "relu", "kernel_constraint": null, "kernel_initializer": {"class_name": "VarianceScaling", "config": {"mode": "fan_avg", "distribution": "normal", "scale": 1.0, "seed": 3014}}, "kernel_regularizer": {"class_name": "L1L2", "config": {"l2": 0.0003000000142492354, "l1": 0.0}}, "trainable": true, "activity_regularizer": null, "bias_initializer": {"class_name": "Zeros", "config": {}}, "bias_constraint": null, "use_bias": true}, "name": "B1_o", "inbound_nodes": [[["B1_1", 0, 0, {}]]]}, {"class_name": "InputLayer", "config": {"batch_input_shape": [null, 1], "sparse": false, "name": "OnOff_B3", "dtype": "float32"}, "name": "OnOff_B3", "inbound_nodes": []}, {"class_name": "Dense", "config": {"name": "B3_o", "units": 1, "bias_regularizer": null, "activation": "relu", "kernel_constraint": null, "kernel_initializer": {"class_name": "VarianceScaling", "config": {"mode": "fan_avg", "distribution": "normal", "scale": 1.0, "seed": 3014}}, "kernel_regularizer": {"class_name": "L1L2", "config": {"l2": 0.0003000000142492354, "l1": 0.0}}, "trainable": true, "activity_regularizer": null, "bias_initializer": {"class_name": "Zeros", "config": {}}, "bias_constraint": null, "use_bias": true}, "name": "B3_o", "inbound_nodes": [[["B3_1", 0, 0, {}]]]}, {"class_name": "InputLayer", "config": {"batch_input_shape": [null, 1], "sparse": false, "name": "OnOff_D1", "dtype": "float32"}, "name": "OnOff_D1", "inbound_nodes": []}, {"class_name": "Dense", "config": {"name": "D1_o", "units": 1, "bias_regularizer": null, "activation": "relu", "kernel_constraint": null, "kernel_initializer": {"class_name": "VarianceScaling", "config": {"mode": "fan_avg", "distribution": "normal", "scale": 1.0, "seed": 3014}}, "kernel_regularizer": {"class_name": "L1L2", "config": {"l2": 0.0003000000142492354, "l1": 0.0}}, "trainable": true, "activity_regularizer": null, "bias_initializer": {"class_name": "Zeros", "config": {}}, "bias_constraint": null, "use_bias": true}, "name": "D1_o", "inbound_nodes": [[["D1_1", 0, 0, {}]]]}, {"class_name": "Multiply", "config": {"trainable": true, "name": "C1_out"}, "name": "C1_out", "inbound_nodes": [[["OnOff_C1", 0, 0, {}], ["C1_o", 0, 0, {}]]]}, {"class_name": "Multiply", "config": {"trainable": true, "name": "C2_out"}, "name": "C2_out", "inbound_nodes": [[["OnOff_C2", 0, 0, {}], ["C2_o", 0, 0, {}]]]}, {"class_name": "Multiply", "config": {"trainable": true, "name": "C3_out"}, "name": "C3_out", "inbound_nodes": [[["OnOff_C3", 0, 0, {}], ["C3_o", 0, 0, {}]]]}, {"class_name": "Multiply", "config": {"trainable": true, "name": "C4_out"}, "name": "C4_out", "inbound_nodes": [[["OnOff_C4", 0, 0, {}], ["C4_o", 0, 0, {}]]]}, {"class_name": "Multiply", "config": {"trainable": true, "name": "B1_out"}, "name": "B1_out", "inbound_nodes": [[["OnOff_B1", 0, 0, {}], ["B1_o", 0, 0, {}]]]}, {"class_name": "Multiply", "config": {"trainable": true, "name": "B3_out"}, "name": "B3_out", "inbound_nodes": [[["OnOff_B3", 0, 0, {}], ["B3_o", 0, 0, {}]]]}, {"class_name": "Multiply", "config": {"trainable": true, "name": "D1_out"}, "name": "D1_out", "inbound_nodes": [[["OnOff_D1", 0, 0, {}], ["D1_o", 0, 0, {}]]]}, {"class_name": "Add", "config": {"trainable": true, "name": "GJOA_TOTAL"}, "name": "GJOA_TOTAL", "inbound_nodes": [[["C1_out", 0, 0, {}], ["C2_out", 0, 0, {}], ["C3_out", 0, 0, {}], ["C4_out", 0, 0, {}], ["B1_out", 0, 0, {}], ["B3_out", 0, 0, {}], ["D1_out", 0, 0, {}]]]}], "name": "model_14", "output_layers": [["C1_out", 0, 0], ["C2_out", 0, 0], ["C3_out", 0, 0], ["C4_out", 0, 0], ["B1_out", 0, 0], ["B3_out", 0, 0], ["D1_out", 0, 0], ["GJOA_TOTAL", 0, 0]]}, "backend": "theano", "keras_version": "2.0.1"}