{"class_name": "Model", "backend": "theano", "keras_version": "2.0.1", "config": {"name": "model_8", "input_layers": [["C1", 0, 0], ["C2", 0, 0], ["C3", 0, 0], ["C4", 0, 0], ["B1", 0, 0], ["B3", 0, 0], ["D1", 0, 0], ["OnOff_C1", 0, 0], ["OnOff_C2", 0, 0], ["OnOff_C3", 0, 0], ["OnOff_C4", 0, 0], ["OnOff_B1", 0, 0], ["OnOff_B3", 0, 0], ["OnOff_D1", 0, 0]], "layers": [{"class_name": "InputLayer", "name": "C1", "inbound_nodes": [], "config": {"name": "C1", "dtype": "float32", "batch_input_shape": [null, 4], "sparse": false}}, {"class_name": "InputLayer", "name": "C2", "inbound_nodes": [], "config": {"name": "C2", "dtype": "float32", "batch_input_shape": [null, 3], "sparse": false}}, {"class_name": "InputLayer", "name": "C3", "inbound_nodes": [], "config": {"name": "C3", "dtype": "float32", "batch_input_shape": [null, 4], "sparse": false}}, {"class_name": "InputLayer", "name": "C4", "inbound_nodes": [], "config": {"name": "C4", "dtype": "float32", "batch_input_shape": [null, 4], "sparse": false}}, {"class_name": "InputLayer", "name": "B1", "inbound_nodes": [], "config": {"name": "B1", "dtype": "float32", "batch_input_shape": [null, 4], "sparse": false}}, {"class_name": "InputLayer", "name": "B3", "inbound_nodes": [], "config": {"name": "B3", "dtype": "float32", "batch_input_shape": [null, 4], "sparse": false}}, {"class_name": "InputLayer", "name": "D1", "inbound_nodes": [], "config": {"name": "D1", "dtype": "float32", "batch_input_shape": [null, 3], "sparse": false}}, {"class_name": "Dense", "name": "dense_246", "inbound_nodes": [[["C1", 0, 0, {}]]], "config": {"use_bias": true, "activity_regularizer": null, "bias_initializer": {"class_name": "Zeros", "config": {}}, "bias_constraint": null, "name": "dense_246", "units": 50, "kernel_constraint": null, "activation": "relu", "kernel_regularizer": {"class_name": "L1L2", "config": {"l1": 0.0, "l2": 9.999999974752427e-07}}, "kernel_initializer": {"class_name": "VarianceScaling", "config": {"mode": "fan_avg", "scale": 1.0, "distribution": "normal", "seed": 4732}}, "trainable": true, "bias_regularizer": null}}, {"class_name": "Dense", "name": "dense_251", "inbound_nodes": [[["C2", 0, 0, {}]]], "config": {"use_bias": true, "activity_regularizer": null, "bias_initializer": {"class_name": "Zeros", "config": {}}, "bias_constraint": null, "name": "dense_251", "units": 50, "kernel_constraint": null, "activation": "relu", "kernel_regularizer": {"class_name": "L1L2", "config": {"l1": 0.0, "l2": 9.999999974752427e-07}}, "kernel_initializer": {"class_name": "VarianceScaling", "config": {"mode": "fan_avg", "scale": 1.0, "distribution": "normal", "seed": 4732}}, "trainable": true, "bias_regularizer": null}}, {"class_name": "Dense", "name": "dense_256", "inbound_nodes": [[["C3", 0, 0, {}]]], "config": {"use_bias": true, "activity_regularizer": null, "bias_initializer": {"class_name": "Zeros", "config": {}}, "bias_constraint": null, "name": "dense_256", "units": 50, "kernel_constraint": null, "activation": "relu", "kernel_regularizer": {"class_name": "L1L2", "config": {"l1": 0.0, "l2": 9.999999974752427e-07}}, "kernel_initializer": {"class_name": "VarianceScaling", "config": {"mode": "fan_avg", "scale": 1.0, "distribution": "normal", "seed": 4732}}, "trainable": true, "bias_regularizer": null}}, {"class_name": "Dense", "name": "dense_261", "inbound_nodes": [[["C4", 0, 0, {}]]], "config": {"use_bias": true, "activity_regularizer": null, "bias_initializer": {"class_name": "Zeros", "config": {}}, "bias_constraint": null, "name": "dense_261", "units": 50, "kernel_constraint": null, "activation": "relu", "kernel_regularizer": {"class_name": "L1L2", "config": {"l1": 0.0, "l2": 9.999999974752427e-07}}, "kernel_initializer": {"class_name": "VarianceScaling", "config": {"mode": "fan_avg", "scale": 1.0, "distribution": "normal", "seed": 4732}}, "trainable": true, "bias_regularizer": null}}, {"class_name": "Dense", "name": "dense_266", "inbound_nodes": [[["B1", 0, 0, {}]]], "config": {"use_bias": true, "activity_regularizer": null, "bias_initializer": {"class_name": "Zeros", "config": {}}, "bias_constraint": null, "name": "dense_266", "units": 50, "kernel_constraint": null, "activation": "relu", "kernel_regularizer": {"class_name": "L1L2", "config": {"l1": 0.0, "l2": 9.999999974752427e-07}}, "kernel_initializer": {"class_name": "VarianceScaling", "config": {"mode": "fan_avg", "scale": 1.0, "distribution": "normal", "seed": 4732}}, "trainable": true, "bias_regularizer": null}}, {"class_name": "Dense", "name": "dense_271", "inbound_nodes": [[["B3", 0, 0, {}]]], "config": {"use_bias": true, "activity_regularizer": null, "bias_initializer": {"class_name": "Zeros", "config": {}}, "bias_constraint": null, "name": "dense_271", "units": 50, "kernel_constraint": null, "activation": "relu", "kernel_regularizer": {"class_name": "L1L2", "config": {"l1": 0.0, "l2": 9.999999974752427e-07}}, "kernel_initializer": {"class_name": "VarianceScaling", "config": {"mode": "fan_avg", "scale": 1.0, "distribution": "normal", "seed": 4732}}, "trainable": true, "bias_regularizer": null}}, {"class_name": "Dense", "name": "dense_276", "inbound_nodes": [[["D1", 0, 0, {}]]], "config": {"use_bias": true, "activity_regularizer": null, "bias_initializer": {"class_name": "Zeros", "config": {}}, "bias_constraint": null, "name": "dense_276", "units": 50, "kernel_constraint": null, "activation": "relu", "kernel_regularizer": {"class_name": "L1L2", "config": {"l1": 0.0, "l2": 9.999999974752427e-07}}, "kernel_initializer": {"class_name": "VarianceScaling", "config": {"mode": "fan_avg", "scale": 1.0, "distribution": "normal", "seed": 4732}}, "trainable": true, "bias_regularizer": null}}, {"class_name": "Dense", "name": "dense_247", "inbound_nodes": [[["dense_246", 0, 0, {}]]], "config": {"use_bias": true, "activity_regularizer": null, "bias_initializer": {"class_name": "Zeros", "config": {}}, "bias_constraint": null, "name": "dense_247", "units": 50, "kernel_constraint": null, "activation": "relu", "kernel_regularizer": {"class_name": "L1L2", "config": {"l1": 0.0, "l2": 9.999999974752427e-07}}, "kernel_initializer": {"class_name": "VarianceScaling", "config": {"mode": "fan_avg", "scale": 1.0, "distribution": "normal", "seed": 4732}}, "trainable": true, "bias_regularizer": null}}, {"class_name": "Dense", "name": "dense_252", "inbound_nodes": [[["dense_251", 0, 0, {}]]], "config": {"use_bias": true, "activity_regularizer": null, "bias_initializer": {"class_name": "Zeros", "config": {}}, "bias_constraint": null, "name": "dense_252", "units": 50, "kernel_constraint": null, "activation": "relu", "kernel_regularizer": {"class_name": "L1L2", "config": {"l1": 0.0, "l2": 9.999999974752427e-07}}, "kernel_initializer": {"class_name": "VarianceScaling", "config": {"mode": "fan_avg", "scale": 1.0, "distribution": "normal", "seed": 4732}}, "trainable": true, "bias_regularizer": null}}, {"class_name": "Dense", "name": "dense_257", "inbound_nodes": [[["dense_256", 0, 0, {}]]], "config": {"use_bias": true, "activity_regularizer": null, "bias_initializer": {"class_name": "Zeros", "config": {}}, "bias_constraint": null, "name": "dense_257", "units": 50, "kernel_constraint": null, "activation": "relu", "kernel_regularizer": {"class_name": "L1L2", "config": {"l1": 0.0, "l2": 9.999999974752427e-07}}, "kernel_initializer": {"class_name": "VarianceScaling", "config": {"mode": "fan_avg", "scale": 1.0, "distribution": "normal", "seed": 4732}}, "trainable": true, "bias_regularizer": null}}, {"class_name": "Dense", "name": "dense_262", "inbound_nodes": [[["dense_261", 0, 0, {}]]], "config": {"use_bias": true, "activity_regularizer": null, "bias_initializer": {"class_name": "Zeros", "config": {}}, "bias_constraint": null, "name": "dense_262", "units": 50, "kernel_constraint": null, "activation": "relu", "kernel_regularizer": {"class_name": "L1L2", "config": {"l1": 0.0, "l2": 9.999999974752427e-07}}, "kernel_initializer": {"class_name": "VarianceScaling", "config": {"mode": "fan_avg", "scale": 1.0, "distribution": "normal", "seed": 4732}}, "trainable": true, "bias_regularizer": null}}, {"class_name": "Dense", "name": "dense_267", "inbound_nodes": [[["dense_266", 0, 0, {}]]], "config": {"use_bias": true, "activity_regularizer": null, "bias_initializer": {"class_name": "Zeros", "config": {}}, "bias_constraint": null, "name": "dense_267", "units": 50, "kernel_constraint": null, "activation": "relu", "kernel_regularizer": {"class_name": "L1L2", "config": {"l1": 0.0, "l2": 9.999999974752427e-07}}, "kernel_initializer": {"class_name": "VarianceScaling", "config": {"mode": "fan_avg", "scale": 1.0, "distribution": "normal", "seed": 4732}}, "trainable": true, "bias_regularizer": null}}, {"class_name": "Dense", "name": "dense_272", "inbound_nodes": [[["dense_271", 0, 0, {}]]], "config": {"use_bias": true, "activity_regularizer": null, "bias_initializer": {"class_name": "Zeros", "config": {}}, "bias_constraint": null, "name": "dense_272", "units": 50, "kernel_constraint": null, "activation": "relu", "kernel_regularizer": {"class_name": "L1L2", "config": {"l1": 0.0, "l2": 9.999999974752427e-07}}, "kernel_initializer": {"class_name": "VarianceScaling", "config": {"mode": "fan_avg", "scale": 1.0, "distribution": "normal", "seed": 4732}}, "trainable": true, "bias_regularizer": null}}, {"class_name": "Dense", "name": "dense_277", "inbound_nodes": [[["dense_276", 0, 0, {}]]], "config": {"use_bias": true, "activity_regularizer": null, "bias_initializer": {"class_name": "Zeros", "config": {}}, "bias_constraint": null, "name": "dense_277", "units": 50, "kernel_constraint": null, "activation": "relu", "kernel_regularizer": {"class_name": "L1L2", "config": {"l1": 0.0, "l2": 9.999999974752427e-07}}, "kernel_initializer": {"class_name": "VarianceScaling", "config": {"mode": "fan_avg", "scale": 1.0, "distribution": "normal", "seed": 4732}}, "trainable": true, "bias_regularizer": null}}, {"class_name": "Dense", "name": "dense_248", "inbound_nodes": [[["dense_247", 0, 0, {}]]], "config": {"use_bias": true, "activity_regularizer": null, "bias_initializer": {"class_name": "Zeros", "config": {}}, "bias_constraint": null, "name": "dense_248", "units": 50, "kernel_constraint": null, "activation": "relu", "kernel_regularizer": {"class_name": "L1L2", "config": {"l1": 0.0, "l2": 9.999999974752427e-07}}, "kernel_initializer": {"class_name": "VarianceScaling", "config": {"mode": "fan_avg", "scale": 1.0, "distribution": "normal", "seed": 4732}}, "trainable": true, "bias_regularizer": null}}, {"class_name": "Dense", "name": "dense_253", "inbound_nodes": [[["dense_252", 0, 0, {}]]], "config": {"use_bias": true, "activity_regularizer": null, "bias_initializer": {"class_name": "Zeros", "config": {}}, "bias_constraint": null, "name": "dense_253", "units": 50, "kernel_constraint": null, "activation": "relu", "kernel_regularizer": {"class_name": "L1L2", "config": {"l1": 0.0, "l2": 9.999999974752427e-07}}, "kernel_initializer": {"class_name": "VarianceScaling", "config": {"mode": "fan_avg", "scale": 1.0, "distribution": "normal", "seed": 4732}}, "trainable": true, "bias_regularizer": null}}, {"class_name": "Dense", "name": "dense_258", "inbound_nodes": [[["dense_257", 0, 0, {}]]], "config": {"use_bias": true, "activity_regularizer": null, "bias_initializer": {"class_name": "Zeros", "config": {}}, "bias_constraint": null, "name": "dense_258", "units": 50, "kernel_constraint": null, "activation": "relu", "kernel_regularizer": {"class_name": "L1L2", "config": {"l1": 0.0, "l2": 9.999999974752427e-07}}, "kernel_initializer": {"class_name": "VarianceScaling", "config": {"mode": "fan_avg", "scale": 1.0, "distribution": "normal", "seed": 4732}}, "trainable": true, "bias_regularizer": null}}, {"class_name": "Dense", "name": "dense_263", "inbound_nodes": [[["dense_262", 0, 0, {}]]], "config": {"use_bias": true, "activity_regularizer": null, "bias_initializer": {"class_name": "Zeros", "config": {}}, "bias_constraint": null, "name": "dense_263", "units": 50, "kernel_constraint": null, "activation": "relu", "kernel_regularizer": {"class_name": "L1L2", "config": {"l1": 0.0, "l2": 9.999999974752427e-07}}, "kernel_initializer": {"class_name": "VarianceScaling", "config": {"mode": "fan_avg", "scale": 1.0, "distribution": "normal", "seed": 4732}}, "trainable": true, "bias_regularizer": null}}, {"class_name": "Dense", "name": "dense_268", "inbound_nodes": [[["dense_267", 0, 0, {}]]], "config": {"use_bias": true, "activity_regularizer": null, "bias_initializer": {"class_name": "Zeros", "config": {}}, "bias_constraint": null, "name": "dense_268", "units": 50, "kernel_constraint": null, "activation": "relu", "kernel_regularizer": {"class_name": "L1L2", "config": {"l1": 0.0, "l2": 9.999999974752427e-07}}, "kernel_initializer": {"class_name": "VarianceScaling", "config": {"mode": "fan_avg", "scale": 1.0, "distribution": "normal", "seed": 4732}}, "trainable": true, "bias_regularizer": null}}, {"class_name": "Dense", "name": "dense_273", "inbound_nodes": [[["dense_272", 0, 0, {}]]], "config": {"use_bias": true, "activity_regularizer": null, "bias_initializer": {"class_name": "Zeros", "config": {}}, "bias_constraint": null, "name": "dense_273", "units": 50, "kernel_constraint": null, "activation": "relu", "kernel_regularizer": {"class_name": "L1L2", "config": {"l1": 0.0, "l2": 9.999999974752427e-07}}, "kernel_initializer": {"class_name": "VarianceScaling", "config": {"mode": "fan_avg", "scale": 1.0, "distribution": "normal", "seed": 4732}}, "trainable": true, "bias_regularizer": null}}, {"class_name": "Dense", "name": "dense_278", "inbound_nodes": [[["dense_277", 0, 0, {}]]], "config": {"use_bias": true, "activity_regularizer": null, "bias_initializer": {"class_name": "Zeros", "config": {}}, "bias_constraint": null, "name": "dense_278", "units": 50, "kernel_constraint": null, "activation": "relu", "kernel_regularizer": {"class_name": "L1L2", "config": {"l1": 0.0, "l2": 9.999999974752427e-07}}, "kernel_initializer": {"class_name": "VarianceScaling", "config": {"mode": "fan_avg", "scale": 1.0, "distribution": "normal", "seed": 4732}}, "trainable": true, "bias_regularizer": null}}, {"class_name": "Dense", "name": "dense_249", "inbound_nodes": [[["dense_248", 0, 0, {}]]], "config": {"use_bias": true, "activity_regularizer": null, "bias_initializer": {"class_name": "Zeros", "config": {}}, "bias_constraint": null, "name": "dense_249", "units": 50, "kernel_constraint": null, "activation": "relu", "kernel_regularizer": {"class_name": "L1L2", "config": {"l1": 0.0, "l2": 9.999999974752427e-07}}, "kernel_initializer": {"class_name": "VarianceScaling", "config": {"mode": "fan_avg", "scale": 1.0, "distribution": "normal", "seed": 4732}}, "trainable": true, "bias_regularizer": null}}, {"class_name": "Dense", "name": "dense_254", "inbound_nodes": [[["dense_253", 0, 0, {}]]], "config": {"use_bias": true, "activity_regularizer": null, "bias_initializer": {"class_name": "Zeros", "config": {}}, "bias_constraint": null, "name": "dense_254", "units": 50, "kernel_constraint": null, "activation": "relu", "kernel_regularizer": {"class_name": "L1L2", "config": {"l1": 0.0, "l2": 9.999999974752427e-07}}, "kernel_initializer": {"class_name": "VarianceScaling", "config": {"mode": "fan_avg", "scale": 1.0, "distribution": "normal", "seed": 4732}}, "trainable": true, "bias_regularizer": null}}, {"class_name": "Dense", "name": "dense_259", "inbound_nodes": [[["dense_258", 0, 0, {}]]], "config": {"use_bias": true, "activity_regularizer": null, "bias_initializer": {"class_name": "Zeros", "config": {}}, "bias_constraint": null, "name": "dense_259", "units": 50, "kernel_constraint": null, "activation": "relu", "kernel_regularizer": {"class_name": "L1L2", "config": {"l1": 0.0, "l2": 9.999999974752427e-07}}, "kernel_initializer": {"class_name": "VarianceScaling", "config": {"mode": "fan_avg", "scale": 1.0, "distribution": "normal", "seed": 4732}}, "trainable": true, "bias_regularizer": null}}, {"class_name": "Dense", "name": "dense_264", "inbound_nodes": [[["dense_263", 0, 0, {}]]], "config": {"use_bias": true, "activity_regularizer": null, "bias_initializer": {"class_name": "Zeros", "config": {}}, "bias_constraint": null, "name": "dense_264", "units": 50, "kernel_constraint": null, "activation": "relu", "kernel_regularizer": {"class_name": "L1L2", "config": {"l1": 0.0, "l2": 9.999999974752427e-07}}, "kernel_initializer": {"class_name": "VarianceScaling", "config": {"mode": "fan_avg", "scale": 1.0, "distribution": "normal", "seed": 4732}}, "trainable": true, "bias_regularizer": null}}, {"class_name": "Dense", "name": "dense_269", "inbound_nodes": [[["dense_268", 0, 0, {}]]], "config": {"use_bias": true, "activity_regularizer": null, "bias_initializer": {"class_name": "Zeros", "config": {}}, "bias_constraint": null, "name": "dense_269", "units": 50, "kernel_constraint": null, "activation": "relu", "kernel_regularizer": {"class_name": "L1L2", "config": {"l1": 0.0, "l2": 9.999999974752427e-07}}, "kernel_initializer": {"class_name": "VarianceScaling", "config": {"mode": "fan_avg", "scale": 1.0, "distribution": "normal", "seed": 4732}}, "trainable": true, "bias_regularizer": null}}, {"class_name": "Dense", "name": "dense_274", "inbound_nodes": [[["dense_273", 0, 0, {}]]], "config": {"use_bias": true, "activity_regularizer": null, "bias_initializer": {"class_name": "Zeros", "config": {}}, "bias_constraint": null, "name": "dense_274", "units": 50, "kernel_constraint": null, "activation": "relu", "kernel_regularizer": {"class_name": "L1L2", "config": {"l1": 0.0, "l2": 9.999999974752427e-07}}, "kernel_initializer": {"class_name": "VarianceScaling", "config": {"mode": "fan_avg", "scale": 1.0, "distribution": "normal", "seed": 4732}}, "trainable": true, "bias_regularizer": null}}, {"class_name": "Dense", "name": "dense_279", "inbound_nodes": [[["dense_278", 0, 0, {}]]], "config": {"use_bias": true, "activity_regularizer": null, "bias_initializer": {"class_name": "Zeros", "config": {}}, "bias_constraint": null, "name": "dense_279", "units": 50, "kernel_constraint": null, "activation": "relu", "kernel_regularizer": {"class_name": "L1L2", "config": {"l1": 0.0, "l2": 9.999999974752427e-07}}, "kernel_initializer": {"class_name": "VarianceScaling", "config": {"mode": "fan_avg", "scale": 1.0, "distribution": "normal", "seed": 4732}}, "trainable": true, "bias_regularizer": null}}, {"class_name": "InputLayer", "name": "OnOff_C1", "inbound_nodes": [], "config": {"name": "OnOff_C1", "dtype": "float32", "batch_input_shape": [null, 1], "sparse": false}}, {"class_name": "Dense", "name": "dense_250", "inbound_nodes": [[["dense_249", 0, 0, {}]]], "config": {"use_bias": true, "activity_regularizer": null, "bias_initializer": {"class_name": "Zeros", "config": {}}, "bias_constraint": null, "name": "dense_250", "units": 1, "kernel_constraint": null, "activation": "relu", "kernel_regularizer": {"class_name": "L1L2", "config": {"l1": 0.0, "l2": 9.999999974752427e-07}}, "kernel_initializer": {"class_name": "VarianceScaling", "config": {"mode": "fan_avg", "scale": 1.0, "distribution": "normal", "seed": 4732}}, "trainable": true, "bias_regularizer": null}}, {"class_name": "InputLayer", "name": "OnOff_C2", "inbound_nodes": [], "config": {"name": "OnOff_C2", "dtype": "float32", "batch_input_shape": [null, 1], "sparse": false}}, {"class_name": "Dense", "name": "dense_255", "inbound_nodes": [[["dense_254", 0, 0, {}]]], "config": {"use_bias": true, "activity_regularizer": null, "bias_initializer": {"class_name": "Zeros", "config": {}}, "bias_constraint": null, "name": "dense_255", "units": 1, "kernel_constraint": null, "activation": "relu", "kernel_regularizer": {"class_name": "L1L2", "config": {"l1": 0.0, "l2": 9.999999974752427e-07}}, "kernel_initializer": {"class_name": "VarianceScaling", "config": {"mode": "fan_avg", "scale": 1.0, "distribution": "normal", "seed": 4732}}, "trainable": true, "bias_regularizer": null}}, {"class_name": "InputLayer", "name": "OnOff_C3", "inbound_nodes": [], "config": {"name": "OnOff_C3", "dtype": "float32", "batch_input_shape": [null, 1], "sparse": false}}, {"class_name": "Dense", "name": "dense_260", "inbound_nodes": [[["dense_259", 0, 0, {}]]], "config": {"use_bias": true, "activity_regularizer": null, "bias_initializer": {"class_name": "Zeros", "config": {}}, "bias_constraint": null, "name": "dense_260", "units": 1, "kernel_constraint": null, "activation": "relu", "kernel_regularizer": {"class_name": "L1L2", "config": {"l1": 0.0, "l2": 9.999999974752427e-07}}, "kernel_initializer": {"class_name": "VarianceScaling", "config": {"mode": "fan_avg", "scale": 1.0, "distribution": "normal", "seed": 4732}}, "trainable": true, "bias_regularizer": null}}, {"class_name": "InputLayer", "name": "OnOff_C4", "inbound_nodes": [], "config": {"name": "OnOff_C4", "dtype": "float32", "batch_input_shape": [null, 1], "sparse": false}}, {"class_name": "Dense", "name": "dense_265", "inbound_nodes": [[["dense_264", 0, 0, {}]]], "config": {"use_bias": true, "activity_regularizer": null, "bias_initializer": {"class_name": "Zeros", "config": {}}, "bias_constraint": null, "name": "dense_265", "units": 1, "kernel_constraint": null, "activation": "relu", "kernel_regularizer": {"class_name": "L1L2", "config": {"l1": 0.0, "l2": 9.999999974752427e-07}}, "kernel_initializer": {"class_name": "VarianceScaling", "config": {"mode": "fan_avg", "scale": 1.0, "distribution": "normal", "seed": 4732}}, "trainable": true, "bias_regularizer": null}}, {"class_name": "InputLayer", "name": "OnOff_B1", "inbound_nodes": [], "config": {"name": "OnOff_B1", "dtype": "float32", "batch_input_shape": [null, 1], "sparse": false}}, {"class_name": "Dense", "name": "dense_270", "inbound_nodes": [[["dense_269", 0, 0, {}]]], "config": {"use_bias": true, "activity_regularizer": null, "bias_initializer": {"class_name": "Zeros", "config": {}}, "bias_constraint": null, "name": "dense_270", "units": 1, "kernel_constraint": null, "activation": "relu", "kernel_regularizer": {"class_name": "L1L2", "config": {"l1": 0.0, "l2": 9.999999974752427e-07}}, "kernel_initializer": {"class_name": "VarianceScaling", "config": {"mode": "fan_avg", "scale": 1.0, "distribution": "normal", "seed": 4732}}, "trainable": true, "bias_regularizer": null}}, {"class_name": "InputLayer", "name": "OnOff_B3", "inbound_nodes": [], "config": {"name": "OnOff_B3", "dtype": "float32", "batch_input_shape": [null, 1], "sparse": false}}, {"class_name": "Dense", "name": "dense_275", "inbound_nodes": [[["dense_274", 0, 0, {}]]], "config": {"use_bias": true, "activity_regularizer": null, "bias_initializer": {"class_name": "Zeros", "config": {}}, "bias_constraint": null, "name": "dense_275", "units": 1, "kernel_constraint": null, "activation": "relu", "kernel_regularizer": {"class_name": "L1L2", "config": {"l1": 0.0, "l2": 9.999999974752427e-07}}, "kernel_initializer": {"class_name": "VarianceScaling", "config": {"mode": "fan_avg", "scale": 1.0, "distribution": "normal", "seed": 4732}}, "trainable": true, "bias_regularizer": null}}, {"class_name": "InputLayer", "name": "OnOff_D1", "inbound_nodes": [], "config": {"name": "OnOff_D1", "dtype": "float32", "batch_input_shape": [null, 1], "sparse": false}}, {"class_name": "Dense", "name": "dense_280", "inbound_nodes": [[["dense_279", 0, 0, {}]]], "config": {"use_bias": true, "activity_regularizer": null, "bias_initializer": {"class_name": "Zeros", "config": {}}, "bias_constraint": null, "name": "dense_280", "units": 1, "kernel_constraint": null, "activation": "relu", "kernel_regularizer": {"class_name": "L1L2", "config": {"l1": 0.0, "l2": 9.999999974752427e-07}}, "kernel_initializer": {"class_name": "VarianceScaling", "config": {"mode": "fan_avg", "scale": 1.0, "distribution": "normal", "seed": 4732}}, "trainable": true, "bias_regularizer": null}}, {"class_name": "Multiply", "name": "C1_out", "inbound_nodes": [[["OnOff_C1", 0, 0, {}], ["dense_250", 0, 0, {}]]], "config": {"name": "C1_out", "trainable": true}}, {"class_name": "Multiply", "name": "C2_out", "inbound_nodes": [[["OnOff_C2", 0, 0, {}], ["dense_255", 0, 0, {}]]], "config": {"name": "C2_out", "trainable": true}}, {"class_name": "Multiply", "name": "C3_out", "inbound_nodes": [[["OnOff_C3", 0, 0, {}], ["dense_260", 0, 0, {}]]], "config": {"name": "C3_out", "trainable": true}}, {"class_name": "Multiply", "name": "C4_out", "inbound_nodes": [[["OnOff_C4", 0, 0, {}], ["dense_265", 0, 0, {}]]], "config": {"name": "C4_out", "trainable": true}}, {"class_name": "Multiply", "name": "B1_out", "inbound_nodes": [[["OnOff_B1", 0, 0, {}], ["dense_270", 0, 0, {}]]], "config": {"name": "B1_out", "trainable": true}}, {"class_name": "Multiply", "name": "B3_out", "inbound_nodes": [[["OnOff_B3", 0, 0, {}], ["dense_275", 0, 0, {}]]], "config": {"name": "B3_out", "trainable": true}}, {"class_name": "Multiply", "name": "D1_out", "inbound_nodes": [[["OnOff_D1", 0, 0, {}], ["dense_280", 0, 0, {}]]], "config": {"name": "D1_out", "trainable": true}}, {"class_name": "Add", "name": "GJOA_TOTAL", "inbound_nodes": [[["C1_out", 0, 0, {}], ["C2_out", 0, 0, {}], ["C3_out", 0, 0, {}], ["C4_out", 0, 0, {}], ["B1_out", 0, 0, {}], ["B3_out", 0, 0, {}], ["D1_out", 0, 0, {}]]], "config": {"name": "GJOA_TOTAL", "trainable": true}}], "output_layers": [["C1_out", 0, 0], ["C2_out", 0, 0], ["C3_out", 0, 0], ["C4_out", 0, 0], ["B1_out", 0, 0], ["B3_out", 0, 0], ["D1_out", 0, 0], ["GJOA_TOTAL", 0, 0]]}}