{"config": {"name": "model_4", "layers": [{"config": {"dtype": "float32", "name": "C1", "sparse": false, "batch_input_shape": [null, 4]}, "inbound_nodes": [], "class_name": "InputLayer", "name": "C1"}, {"config": {"dtype": "float32", "name": "C2", "sparse": false, "batch_input_shape": [null, 3]}, "inbound_nodes": [], "class_name": "InputLayer", "name": "C2"}, {"config": {"dtype": "float32", "name": "C3", "sparse": false, "batch_input_shape": [null, 4]}, "inbound_nodes": [], "class_name": "InputLayer", "name": "C3"}, {"config": {"dtype": "float32", "name": "C4", "sparse": false, "batch_input_shape": [null, 4]}, "inbound_nodes": [], "class_name": "InputLayer", "name": "C4"}, {"config": {"dtype": "float32", "name": "B1", "sparse": false, "batch_input_shape": [null, 4]}, "inbound_nodes": [], "class_name": "InputLayer", "name": "B1"}, {"config": {"dtype": "float32", "name": "B3", "sparse": false, "batch_input_shape": [null, 4]}, "inbound_nodes": [], "class_name": "InputLayer", "name": "B3"}, {"config": {"dtype": "float32", "name": "D1", "sparse": false, "batch_input_shape": [null, 3]}, "inbound_nodes": [], "class_name": "InputLayer", "name": "D1"}, {"config": {"activity_regularizer": null, "kernel_regularizer": {"config": {"l2": 9.999999747378752e-05, "l1": 0.0}, "class_name": "L1L2"}, "trainable": true, "name": "dense_64", "kernel_initializer": {"config": {"scale": 1.0, "seed": 3014, "mode": "fan_avg", "distribution": "normal"}, "class_name": "VarianceScaling"}, "bias_regularizer": null, "units": 30, "kernel_constraint": null, "activation": "relu", "bias_constraint": null, "use_bias": true, "bias_initializer": {"config": {}, "class_name": "Zeros"}}, "inbound_nodes": [[["C1", 0, 0, {}]]], "class_name": "Dense", "name": "dense_64"}, {"config": {"activity_regularizer": null, "kernel_regularizer": {"config": {"l2": 9.999999747378752e-05, "l1": 0.0}, "class_name": "L1L2"}, "trainable": true, "name": "dense_68", "kernel_initializer": {"config": {"scale": 1.0, "seed": 3014, "mode": "fan_avg", "distribution": "normal"}, "class_name": "VarianceScaling"}, "bias_regularizer": null, "units": 30, "kernel_constraint": null, "activation": "relu", "bias_constraint": null, "use_bias": true, "bias_initializer": {"config": {}, "class_name": "Zeros"}}, "inbound_nodes": [[["C2", 0, 0, {}]]], "class_name": "Dense", "name": "dense_68"}, {"config": {"activity_regularizer": null, "kernel_regularizer": {"config": {"l2": 9.999999747378752e-05, "l1": 0.0}, "class_name": "L1L2"}, "trainable": true, "name": "dense_72", "kernel_initializer": {"config": {"scale": 1.0, "seed": 3014, "mode": "fan_avg", "distribution": "normal"}, "class_name": "VarianceScaling"}, "bias_regularizer": null, "units": 30, "kernel_constraint": null, "activation": "relu", "bias_constraint": null, "use_bias": true, "bias_initializer": {"config": {}, "class_name": "Zeros"}}, "inbound_nodes": [[["C3", 0, 0, {}]]], "class_name": "Dense", "name": "dense_72"}, {"config": {"activity_regularizer": null, "kernel_regularizer": {"config": {"l2": 9.999999747378752e-05, "l1": 0.0}, "class_name": "L1L2"}, "trainable": true, "name": "dense_76", "kernel_initializer": {"config": {"scale": 1.0, "seed": 3014, "mode": "fan_avg", "distribution": "normal"}, "class_name": "VarianceScaling"}, "bias_regularizer": null, "units": 30, "kernel_constraint": null, "activation": "relu", "bias_constraint": null, "use_bias": true, "bias_initializer": {"config": {}, "class_name": "Zeros"}}, "inbound_nodes": [[["C4", 0, 0, {}]]], "class_name": "Dense", "name": "dense_76"}, {"config": {"activity_regularizer": null, "kernel_regularizer": {"config": {"l2": 9.999999747378752e-05, "l1": 0.0}, "class_name": "L1L2"}, "trainable": true, "name": "dense_80", "kernel_initializer": {"config": {"scale": 1.0, "seed": 3014, "mode": "fan_avg", "distribution": "normal"}, "class_name": "VarianceScaling"}, "bias_regularizer": null, "units": 30, "kernel_constraint": null, "activation": "relu", "bias_constraint": null, "use_bias": true, "bias_initializer": {"config": {}, "class_name": "Zeros"}}, "inbound_nodes": [[["B1", 0, 0, {}]]], "class_name": "Dense", "name": "dense_80"}, {"config": {"activity_regularizer": null, "kernel_regularizer": {"config": {"l2": 9.999999747378752e-05, "l1": 0.0}, "class_name": "L1L2"}, "trainable": true, "name": "dense_84", "kernel_initializer": {"config": {"scale": 1.0, "seed": 3014, "mode": "fan_avg", "distribution": "normal"}, "class_name": "VarianceScaling"}, "bias_regularizer": null, "units": 30, "kernel_constraint": null, "activation": "relu", "bias_constraint": null, "use_bias": true, "bias_initializer": {"config": {}, "class_name": "Zeros"}}, "inbound_nodes": [[["B3", 0, 0, {}]]], "class_name": "Dense", "name": "dense_84"}, {"config": {"activity_regularizer": null, "kernel_regularizer": {"config": {"l2": 9.999999747378752e-05, "l1": 0.0}, "class_name": "L1L2"}, "trainable": true, "name": "dense_88", "kernel_initializer": {"config": {"scale": 1.0, "seed": 3014, "mode": "fan_avg", "distribution": "normal"}, "class_name": "VarianceScaling"}, "bias_regularizer": null, "units": 30, "kernel_constraint": null, "activation": "relu", "bias_constraint": null, "use_bias": true, "bias_initializer": {"config": {}, "class_name": "Zeros"}}, "inbound_nodes": [[["D1", 0, 0, {}]]], "class_name": "Dense", "name": "dense_88"}, {"config": {"activity_regularizer": null, "kernel_regularizer": {"config": {"l2": 9.999999747378752e-05, "l1": 0.0}, "class_name": "L1L2"}, "trainable": true, "name": "dense_65", "kernel_initializer": {"config": {"scale": 1.0, "seed": 3014, "mode": "fan_avg", "distribution": "normal"}, "class_name": "VarianceScaling"}, "bias_regularizer": null, "units": 30, "kernel_constraint": null, "activation": "relu", "bias_constraint": null, "use_bias": true, "bias_initializer": {"config": {}, "class_name": "Zeros"}}, "inbound_nodes": [[["dense_64", 0, 0, {}]]], "class_name": "Dense", "name": "dense_65"}, {"config": {"activity_regularizer": null, "kernel_regularizer": {"config": {"l2": 9.999999747378752e-05, "l1": 0.0}, "class_name": "L1L2"}, "trainable": true, "name": "dense_69", "kernel_initializer": {"config": {"scale": 1.0, "seed": 3014, "mode": "fan_avg", "distribution": "normal"}, "class_name": "VarianceScaling"}, "bias_regularizer": null, "units": 30, "kernel_constraint": null, "activation": "relu", "bias_constraint": null, "use_bias": true, "bias_initializer": {"config": {}, "class_name": "Zeros"}}, "inbound_nodes": [[["dense_68", 0, 0, {}]]], "class_name": "Dense", "name": "dense_69"}, {"config": {"activity_regularizer": null, "kernel_regularizer": {"config": {"l2": 9.999999747378752e-05, "l1": 0.0}, "class_name": "L1L2"}, "trainable": true, "name": "dense_73", "kernel_initializer": {"config": {"scale": 1.0, "seed": 3014, "mode": "fan_avg", "distribution": "normal"}, "class_name": "VarianceScaling"}, "bias_regularizer": null, "units": 30, "kernel_constraint": null, "activation": "relu", "bias_constraint": null, "use_bias": true, "bias_initializer": {"config": {}, "class_name": "Zeros"}}, "inbound_nodes": [[["dense_72", 0, 0, {}]]], "class_name": "Dense", "name": "dense_73"}, {"config": {"activity_regularizer": null, "kernel_regularizer": {"config": {"l2": 9.999999747378752e-05, "l1": 0.0}, "class_name": "L1L2"}, "trainable": true, "name": "dense_77", "kernel_initializer": {"config": {"scale": 1.0, "seed": 3014, "mode": "fan_avg", "distribution": "normal"}, "class_name": "VarianceScaling"}, "bias_regularizer": null, "units": 30, "kernel_constraint": null, "activation": "relu", "bias_constraint": null, "use_bias": true, "bias_initializer": {"config": {}, "class_name": "Zeros"}}, "inbound_nodes": [[["dense_76", 0, 0, {}]]], "class_name": "Dense", "name": "dense_77"}, {"config": {"activity_regularizer": null, "kernel_regularizer": {"config": {"l2": 9.999999747378752e-05, "l1": 0.0}, "class_name": "L1L2"}, "trainable": true, "name": "dense_81", "kernel_initializer": {"config": {"scale": 1.0, "seed": 3014, "mode": "fan_avg", "distribution": "normal"}, "class_name": "VarianceScaling"}, "bias_regularizer": null, "units": 30, "kernel_constraint": null, "activation": "relu", "bias_constraint": null, "use_bias": true, "bias_initializer": {"config": {}, "class_name": "Zeros"}}, "inbound_nodes": [[["dense_80", 0, 0, {}]]], "class_name": "Dense", "name": "dense_81"}, {"config": {"activity_regularizer": null, "kernel_regularizer": {"config": {"l2": 9.999999747378752e-05, "l1": 0.0}, "class_name": "L1L2"}, "trainable": true, "name": "dense_85", "kernel_initializer": {"config": {"scale": 1.0, "seed": 3014, "mode": "fan_avg", "distribution": "normal"}, "class_name": "VarianceScaling"}, "bias_regularizer": null, "units": 30, "kernel_constraint": null, "activation": "relu", "bias_constraint": null, "use_bias": true, "bias_initializer": {"config": {}, "class_name": "Zeros"}}, "inbound_nodes": [[["dense_84", 0, 0, {}]]], "class_name": "Dense", "name": "dense_85"}, {"config": {"activity_regularizer": null, "kernel_regularizer": {"config": {"l2": 9.999999747378752e-05, "l1": 0.0}, "class_name": "L1L2"}, "trainable": true, "name": "dense_89", "kernel_initializer": {"config": {"scale": 1.0, "seed": 3014, "mode": "fan_avg", "distribution": "normal"}, "class_name": "VarianceScaling"}, "bias_regularizer": null, "units": 30, "kernel_constraint": null, "activation": "relu", "bias_constraint": null, "use_bias": true, "bias_initializer": {"config": {}, "class_name": "Zeros"}}, "inbound_nodes": [[["dense_88", 0, 0, {}]]], "class_name": "Dense", "name": "dense_89"}, {"config": {"activity_regularizer": null, "kernel_regularizer": {"config": {"l2": 9.999999747378752e-05, "l1": 0.0}, "class_name": "L1L2"}, "trainable": true, "name": "dense_66", "kernel_initializer": {"config": {"scale": 1.0, "seed": 3014, "mode": "fan_avg", "distribution": "normal"}, "class_name": "VarianceScaling"}, "bias_regularizer": null, "units": 30, "kernel_constraint": null, "activation": "relu", "bias_constraint": null, "use_bias": true, "bias_initializer": {"config": {}, "class_name": "Zeros"}}, "inbound_nodes": [[["dense_65", 0, 0, {}]]], "class_name": "Dense", "name": "dense_66"}, {"config": {"activity_regularizer": null, "kernel_regularizer": {"config": {"l2": 9.999999747378752e-05, "l1": 0.0}, "class_name": "L1L2"}, "trainable": true, "name": "dense_70", "kernel_initializer": {"config": {"scale": 1.0, "seed": 3014, "mode": "fan_avg", "distribution": "normal"}, "class_name": "VarianceScaling"}, "bias_regularizer": null, "units": 30, "kernel_constraint": null, "activation": "relu", "bias_constraint": null, "use_bias": true, "bias_initializer": {"config": {}, "class_name": "Zeros"}}, "inbound_nodes": [[["dense_69", 0, 0, {}]]], "class_name": "Dense", "name": "dense_70"}, {"config": {"activity_regularizer": null, "kernel_regularizer": {"config": {"l2": 9.999999747378752e-05, "l1": 0.0}, "class_name": "L1L2"}, "trainable": true, "name": "dense_74", "kernel_initializer": {"config": {"scale": 1.0, "seed": 3014, "mode": "fan_avg", "distribution": "normal"}, "class_name": "VarianceScaling"}, "bias_regularizer": null, "units": 30, "kernel_constraint": null, "activation": "relu", "bias_constraint": null, "use_bias": true, "bias_initializer": {"config": {}, "class_name": "Zeros"}}, "inbound_nodes": [[["dense_73", 0, 0, {}]]], "class_name": "Dense", "name": "dense_74"}, {"config": {"activity_regularizer": null, "kernel_regularizer": {"config": {"l2": 9.999999747378752e-05, "l1": 0.0}, "class_name": "L1L2"}, "trainable": true, "name": "dense_78", "kernel_initializer": {"config": {"scale": 1.0, "seed": 3014, "mode": "fan_avg", "distribution": "normal"}, "class_name": "VarianceScaling"}, "bias_regularizer": null, "units": 30, "kernel_constraint": null, "activation": "relu", "bias_constraint": null, "use_bias": true, "bias_initializer": {"config": {}, "class_name": "Zeros"}}, "inbound_nodes": [[["dense_77", 0, 0, {}]]], "class_name": "Dense", "name": "dense_78"}, {"config": {"activity_regularizer": null, "kernel_regularizer": {"config": {"l2": 9.999999747378752e-05, "l1": 0.0}, "class_name": "L1L2"}, "trainable": true, "name": "dense_82", "kernel_initializer": {"config": {"scale": 1.0, "seed": 3014, "mode": "fan_avg", "distribution": "normal"}, "class_name": "VarianceScaling"}, "bias_regularizer": null, "units": 30, "kernel_constraint": null, "activation": "relu", "bias_constraint": null, "use_bias": true, "bias_initializer": {"config": {}, "class_name": "Zeros"}}, "inbound_nodes": [[["dense_81", 0, 0, {}]]], "class_name": "Dense", "name": "dense_82"}, {"config": {"activity_regularizer": null, "kernel_regularizer": {"config": {"l2": 9.999999747378752e-05, "l1": 0.0}, "class_name": "L1L2"}, "trainable": true, "name": "dense_86", "kernel_initializer": {"config": {"scale": 1.0, "seed": 3014, "mode": "fan_avg", "distribution": "normal"}, "class_name": "VarianceScaling"}, "bias_regularizer": null, "units": 30, "kernel_constraint": null, "activation": "relu", "bias_constraint": null, "use_bias": true, "bias_initializer": {"config": {}, "class_name": "Zeros"}}, "inbound_nodes": [[["dense_85", 0, 0, {}]]], "class_name": "Dense", "name": "dense_86"}, {"config": {"activity_regularizer": null, "kernel_regularizer": {"config": {"l2": 9.999999747378752e-05, "l1": 0.0}, "class_name": "L1L2"}, "trainable": true, "name": "dense_90", "kernel_initializer": {"config": {"scale": 1.0, "seed": 3014, "mode": "fan_avg", "distribution": "normal"}, "class_name": "VarianceScaling"}, "bias_regularizer": null, "units": 30, "kernel_constraint": null, "activation": "relu", "bias_constraint": null, "use_bias": true, "bias_initializer": {"config": {}, "class_name": "Zeros"}}, "inbound_nodes": [[["dense_89", 0, 0, {}]]], "class_name": "Dense", "name": "dense_90"}, {"config": {"dtype": "float32", "name": "OnOff_C1", "sparse": false, "batch_input_shape": [null, 1]}, "inbound_nodes": [], "class_name": "InputLayer", "name": "OnOff_C1"}, {"config": {"activity_regularizer": null, "kernel_regularizer": {"config": {"l2": 9.999999747378752e-05, "l1": 0.0}, "class_name": "L1L2"}, "trainable": true, "name": "dense_67", "kernel_initializer": {"config": {"scale": 1.0, "seed": 3014, "mode": "fan_avg", "distribution": "normal"}, "class_name": "VarianceScaling"}, "bias_regularizer": null, "units": 1, "kernel_constraint": null, "activation": "relu", "bias_constraint": null, "use_bias": true, "bias_initializer": {"config": {}, "class_name": "Zeros"}}, "inbound_nodes": [[["dense_66", 0, 0, {}]]], "class_name": "Dense", "name": "dense_67"}, {"config": {"dtype": "float32", "name": "OnOff_C2", "sparse": false, "batch_input_shape": [null, 1]}, "inbound_nodes": [], "class_name": "InputLayer", "name": "OnOff_C2"}, {"config": {"activity_regularizer": null, "kernel_regularizer": {"config": {"l2": 9.999999747378752e-05, "l1": 0.0}, "class_name": "L1L2"}, "trainable": true, "name": "dense_71", "kernel_initializer": {"config": {"scale": 1.0, "seed": 3014, "mode": "fan_avg", "distribution": "normal"}, "class_name": "VarianceScaling"}, "bias_regularizer": null, "units": 1, "kernel_constraint": null, "activation": "relu", "bias_constraint": null, "use_bias": true, "bias_initializer": {"config": {}, "class_name": "Zeros"}}, "inbound_nodes": [[["dense_70", 0, 0, {}]]], "class_name": "Dense", "name": "dense_71"}, {"config": {"dtype": "float32", "name": "OnOff_C3", "sparse": false, "batch_input_shape": [null, 1]}, "inbound_nodes": [], "class_name": "InputLayer", "name": "OnOff_C3"}, {"config": {"activity_regularizer": null, "kernel_regularizer": {"config": {"l2": 9.999999747378752e-05, "l1": 0.0}, "class_name": "L1L2"}, "trainable": true, "name": "dense_75", "kernel_initializer": {"config": {"scale": 1.0, "seed": 3014, "mode": "fan_avg", "distribution": "normal"}, "class_name": "VarianceScaling"}, "bias_regularizer": null, "units": 1, "kernel_constraint": null, "activation": "relu", "bias_constraint": null, "use_bias": true, "bias_initializer": {"config": {}, "class_name": "Zeros"}}, "inbound_nodes": [[["dense_74", 0, 0, {}]]], "class_name": "Dense", "name": "dense_75"}, {"config": {"dtype": "float32", "name": "OnOff_C4", "sparse": false, "batch_input_shape": [null, 1]}, "inbound_nodes": [], "class_name": "InputLayer", "name": "OnOff_C4"}, {"config": {"activity_regularizer": null, "kernel_regularizer": {"config": {"l2": 9.999999747378752e-05, "l1": 0.0}, "class_name": "L1L2"}, "trainable": true, "name": "dense_79", "kernel_initializer": {"config": {"scale": 1.0, "seed": 3014, "mode": "fan_avg", "distribution": "normal"}, "class_name": "VarianceScaling"}, "bias_regularizer": null, "units": 1, "kernel_constraint": null, "activation": "relu", "bias_constraint": null, "use_bias": true, "bias_initializer": {"config": {}, "class_name": "Zeros"}}, "inbound_nodes": [[["dense_78", 0, 0, {}]]], "class_name": "Dense", "name": "dense_79"}, {"config": {"dtype": "float32", "name": "OnOff_B1", "sparse": false, "batch_input_shape": [null, 1]}, "inbound_nodes": [], "class_name": "InputLayer", "name": "OnOff_B1"}, {"config": {"activity_regularizer": null, "kernel_regularizer": {"config": {"l2": 9.999999747378752e-05, "l1": 0.0}, "class_name": "L1L2"}, "trainable": true, "name": "dense_83", "kernel_initializer": {"config": {"scale": 1.0, "seed": 3014, "mode": "fan_avg", "distribution": "normal"}, "class_name": "VarianceScaling"}, "bias_regularizer": null, "units": 1, "kernel_constraint": null, "activation": "relu", "bias_constraint": null, "use_bias": true, "bias_initializer": {"config": {}, "class_name": "Zeros"}}, "inbound_nodes": [[["dense_82", 0, 0, {}]]], "class_name": "Dense", "name": "dense_83"}, {"config": {"dtype": "float32", "name": "OnOff_B3", "sparse": false, "batch_input_shape": [null, 1]}, "inbound_nodes": [], "class_name": "InputLayer", "name": "OnOff_B3"}, {"config": {"activity_regularizer": null, "kernel_regularizer": {"config": {"l2": 9.999999747378752e-05, "l1": 0.0}, "class_name": "L1L2"}, "trainable": true, "name": "dense_87", "kernel_initializer": {"config": {"scale": 1.0, "seed": 3014, "mode": "fan_avg", "distribution": "normal"}, "class_name": "VarianceScaling"}, "bias_regularizer": null, "units": 1, "kernel_constraint": null, "activation": "relu", "bias_constraint": null, "use_bias": true, "bias_initializer": {"config": {}, "class_name": "Zeros"}}, "inbound_nodes": [[["dense_86", 0, 0, {}]]], "class_name": "Dense", "name": "dense_87"}, {"config": {"dtype": "float32", "name": "OnOff_D1", "sparse": false, "batch_input_shape": [null, 1]}, "inbound_nodes": [], "class_name": "InputLayer", "name": "OnOff_D1"}, {"config": {"activity_regularizer": null, "kernel_regularizer": {"config": {"l2": 9.999999747378752e-05, "l1": 0.0}, "class_name": "L1L2"}, "trainable": true, "name": "dense_91", "kernel_initializer": {"config": {"scale": 1.0, "seed": 3014, "mode": "fan_avg", "distribution": "normal"}, "class_name": "VarianceScaling"}, "bias_regularizer": null, "units": 1, "kernel_constraint": null, "activation": "relu", "bias_constraint": null, "use_bias": true, "bias_initializer": {"config": {}, "class_name": "Zeros"}}, "inbound_nodes": [[["dense_90", 0, 0, {}]]], "class_name": "Dense", "name": "dense_91"}, {"config": {"name": "C1_out", "trainable": true}, "inbound_nodes": [[["OnOff_C1", 0, 0, {}], ["dense_67", 0, 0, {}]]], "class_name": "Multiply", "name": "C1_out"}, {"config": {"name": "C2_out", "trainable": true}, "inbound_nodes": [[["OnOff_C2", 0, 0, {}], ["dense_71", 0, 0, {}]]], "class_name": "Multiply", "name": "C2_out"}, {"config": {"name": "C3_out", "trainable": true}, "inbound_nodes": [[["OnOff_C3", 0, 0, {}], ["dense_75", 0, 0, {}]]], "class_name": "Multiply", "name": "C3_out"}, {"config": {"name": "C4_out", "trainable": true}, "inbound_nodes": [[["OnOff_C4", 0, 0, {}], ["dense_79", 0, 0, {}]]], "class_name": "Multiply", "name": "C4_out"}, {"config": {"name": "B1_out", "trainable": true}, "inbound_nodes": [[["OnOff_B1", 0, 0, {}], ["dense_83", 0, 0, {}]]], "class_name": "Multiply", "name": "B1_out"}, {"config": {"name": "B3_out", "trainable": true}, "inbound_nodes": [[["OnOff_B3", 0, 0, {}], ["dense_87", 0, 0, {}]]], "class_name": "Multiply", "name": "B3_out"}, {"config": {"name": "D1_out", "trainable": true}, "inbound_nodes": [[["OnOff_D1", 0, 0, {}], ["dense_91", 0, 0, {}]]], "class_name": "Multiply", "name": "D1_out"}, {"config": {"name": "GJOA_TOTAL", "trainable": true}, "inbound_nodes": [[["C1_out", 0, 0, {}], ["C2_out", 0, 0, {}], ["C3_out", 0, 0, {}], ["C4_out", 0, 0, {}], ["B1_out", 0, 0, {}], ["B3_out", 0, 0, {}], ["D1_out", 0, 0, {}]]], "class_name": "Add", "name": "GJOA_TOTAL"}], "output_layers": [["C1_out", 0, 0], ["C2_out", 0, 0], ["C3_out", 0, 0], ["C4_out", 0, 0], ["B1_out", 0, 0], ["B3_out", 0, 0], ["D1_out", 0, 0], ["GJOA_TOTAL", 0, 0]], "input_layers": [["C1", 0, 0], ["C2", 0, 0], ["C3", 0, 0], ["C4", 0, 0], ["B1", 0, 0], ["B3", 0, 0], ["D1", 0, 0], ["OnOff_C1", 0, 0], ["OnOff_C2", 0, 0], ["OnOff_C3", 0, 0], ["OnOff_C4", 0, 0], ["OnOff_B1", 0, 0], ["OnOff_B3", 0, 0], ["OnOff_D1", 0, 0]]}, "keras_version": "2.0.1", "class_name": "Model", "backend": "theano"}