{"config": {"name": "model_7", "layers": [{"config": {"dtype": "float32", "name": "C1", "sparse": false, "batch_input_shape": [null, 4]}, "inbound_nodes": [], "class_name": "InputLayer", "name": "C1"}, {"config": {"dtype": "float32", "name": "C2", "sparse": false, "batch_input_shape": [null, 3]}, "inbound_nodes": [], "class_name": "InputLayer", "name": "C2"}, {"config": {"dtype": "float32", "name": "C3", "sparse": false, "batch_input_shape": [null, 4]}, "inbound_nodes": [], "class_name": "InputLayer", "name": "C3"}, {"config": {"dtype": "float32", "name": "C4", "sparse": false, "batch_input_shape": [null, 4]}, "inbound_nodes": [], "class_name": "InputLayer", "name": "C4"}, {"config": {"dtype": "float32", "name": "B1", "sparse": false, "batch_input_shape": [null, 4]}, "inbound_nodes": [], "class_name": "InputLayer", "name": "B1"}, {"config": {"dtype": "float32", "name": "B3", "sparse": false, "batch_input_shape": [null, 4]}, "inbound_nodes": [], "class_name": "InputLayer", "name": "B3"}, {"config": {"dtype": "float32", "name": "D1", "sparse": false, "batch_input_shape": [null, 3]}, "inbound_nodes": [], "class_name": "InputLayer", "name": "D1"}, {"config": {"activity_regularizer": null, "kernel_regularizer": {"config": {"l2": 9.999999747378752e-05, "l1": 0.0}, "class_name": "L1L2"}, "trainable": true, "name": "dense_148", "kernel_initializer": {"config": {"scale": 1.0, "seed": 3014, "mode": "fan_avg", "distribution": "normal"}, "class_name": "VarianceScaling"}, "bias_regularizer": null, "units": 30, "kernel_constraint": null, "activation": "relu", "bias_constraint": null, "use_bias": true, "bias_initializer": {"config": {}, "class_name": "Zeros"}}, "inbound_nodes": [[["C1", 0, 0, {}]]], "class_name": "Dense", "name": "dense_148"}, {"config": {"activity_regularizer": null, "kernel_regularizer": {"config": {"l2": 9.999999747378752e-05, "l1": 0.0}, "class_name": "L1L2"}, "trainable": true, "name": "dense_153", "kernel_initializer": {"config": {"scale": 1.0, "seed": 3014, "mode": "fan_avg", "distribution": "normal"}, "class_name": "VarianceScaling"}, "bias_regularizer": null, "units": 30, "kernel_constraint": null, "activation": "relu", "bias_constraint": null, "use_bias": true, "bias_initializer": {"config": {}, "class_name": "Zeros"}}, "inbound_nodes": [[["C2", 0, 0, {}]]], "class_name": "Dense", "name": "dense_153"}, {"config": {"activity_regularizer": null, "kernel_regularizer": {"config": {"l2": 9.999999747378752e-05, "l1": 0.0}, "class_name": "L1L2"}, "trainable": true, "name": "dense_158", "kernel_initializer": {"config": {"scale": 1.0, "seed": 3014, "mode": "fan_avg", "distribution": "normal"}, "class_name": "VarianceScaling"}, "bias_regularizer": null, "units": 30, "kernel_constraint": null, "activation": "relu", "bias_constraint": null, "use_bias": true, "bias_initializer": {"config": {}, "class_name": "Zeros"}}, "inbound_nodes": [[["C3", 0, 0, {}]]], "class_name": "Dense", "name": "dense_158"}, {"config": {"activity_regularizer": null, "kernel_regularizer": {"config": {"l2": 9.999999747378752e-05, "l1": 0.0}, "class_name": "L1L2"}, "trainable": true, "name": "dense_163", "kernel_initializer": {"config": {"scale": 1.0, "seed": 3014, "mode": "fan_avg", "distribution": "normal"}, "class_name": "VarianceScaling"}, "bias_regularizer": null, "units": 30, "kernel_constraint": null, "activation": "relu", "bias_constraint": null, "use_bias": true, "bias_initializer": {"config": {}, "class_name": "Zeros"}}, "inbound_nodes": [[["C4", 0, 0, {}]]], "class_name": "Dense", "name": "dense_163"}, {"config": {"activity_regularizer": null, "kernel_regularizer": {"config": {"l2": 9.999999747378752e-05, "l1": 0.0}, "class_name": "L1L2"}, "trainable": true, "name": "dense_168", "kernel_initializer": {"config": {"scale": 1.0, "seed": 3014, "mode": "fan_avg", "distribution": "normal"}, "class_name": "VarianceScaling"}, "bias_regularizer": null, "units": 30, "kernel_constraint": null, "activation": "relu", "bias_constraint": null, "use_bias": true, "bias_initializer": {"config": {}, "class_name": "Zeros"}}, "inbound_nodes": [[["B1", 0, 0, {}]]], "class_name": "Dense", "name": "dense_168"}, {"config": {"activity_regularizer": null, "kernel_regularizer": {"config": {"l2": 9.999999747378752e-05, "l1": 0.0}, "class_name": "L1L2"}, "trainable": true, "name": "dense_173", "kernel_initializer": {"config": {"scale": 1.0, "seed": 3014, "mode": "fan_avg", "distribution": "normal"}, "class_name": "VarianceScaling"}, "bias_regularizer": null, "units": 30, "kernel_constraint": null, "activation": "relu", "bias_constraint": null, "use_bias": true, "bias_initializer": {"config": {}, "class_name": "Zeros"}}, "inbound_nodes": [[["B3", 0, 0, {}]]], "class_name": "Dense", "name": "dense_173"}, {"config": {"activity_regularizer": null, "kernel_regularizer": {"config": {"l2": 9.999999747378752e-05, "l1": 0.0}, "class_name": "L1L2"}, "trainable": true, "name": "dense_178", "kernel_initializer": {"config": {"scale": 1.0, "seed": 3014, "mode": "fan_avg", "distribution": "normal"}, "class_name": "VarianceScaling"}, "bias_regularizer": null, "units": 30, "kernel_constraint": null, "activation": "relu", "bias_constraint": null, "use_bias": true, "bias_initializer": {"config": {}, "class_name": "Zeros"}}, "inbound_nodes": [[["D1", 0, 0, {}]]], "class_name": "Dense", "name": "dense_178"}, {"config": {"activity_regularizer": null, "kernel_regularizer": {"config": {"l2": 9.999999747378752e-05, "l1": 0.0}, "class_name": "L1L2"}, "trainable": true, "name": "dense_149", "kernel_initializer": {"config": {"scale": 1.0, "seed": 3014, "mode": "fan_avg", "distribution": "normal"}, "class_name": "VarianceScaling"}, "bias_regularizer": null, "units": 30, "kernel_constraint": null, "activation": "relu", "bias_constraint": null, "use_bias": true, "bias_initializer": {"config": {}, "class_name": "Zeros"}}, "inbound_nodes": [[["dense_148", 0, 0, {}]]], "class_name": "Dense", "name": "dense_149"}, {"config": {"activity_regularizer": null, "kernel_regularizer": {"config": {"l2": 9.999999747378752e-05, "l1": 0.0}, "class_name": "L1L2"}, "trainable": true, "name": "dense_154", "kernel_initializer": {"config": {"scale": 1.0, "seed": 3014, "mode": "fan_avg", "distribution": "normal"}, "class_name": "VarianceScaling"}, "bias_regularizer": null, "units": 30, "kernel_constraint": null, "activation": "relu", "bias_constraint": null, "use_bias": true, "bias_initializer": {"config": {}, "class_name": "Zeros"}}, "inbound_nodes": [[["dense_153", 0, 0, {}]]], "class_name": "Dense", "name": "dense_154"}, {"config": {"activity_regularizer": null, "kernel_regularizer": {"config": {"l2": 9.999999747378752e-05, "l1": 0.0}, "class_name": "L1L2"}, "trainable": true, "name": "dense_159", "kernel_initializer": {"config": {"scale": 1.0, "seed": 3014, "mode": "fan_avg", "distribution": "normal"}, "class_name": "VarianceScaling"}, "bias_regularizer": null, "units": 30, "kernel_constraint": null, "activation": "relu", "bias_constraint": null, "use_bias": true, "bias_initializer": {"config": {}, "class_name": "Zeros"}}, "inbound_nodes": [[["dense_158", 0, 0, {}]]], "class_name": "Dense", "name": "dense_159"}, {"config": {"activity_regularizer": null, "kernel_regularizer": {"config": {"l2": 9.999999747378752e-05, "l1": 0.0}, "class_name": "L1L2"}, "trainable": true, "name": "dense_164", "kernel_initializer": {"config": {"scale": 1.0, "seed": 3014, "mode": "fan_avg", "distribution": "normal"}, "class_name": "VarianceScaling"}, "bias_regularizer": null, "units": 30, "kernel_constraint": null, "activation": "relu", "bias_constraint": null, "use_bias": true, "bias_initializer": {"config": {}, "class_name": "Zeros"}}, "inbound_nodes": [[["dense_163", 0, 0, {}]]], "class_name": "Dense", "name": "dense_164"}, {"config": {"activity_regularizer": null, "kernel_regularizer": {"config": {"l2": 9.999999747378752e-05, "l1": 0.0}, "class_name": "L1L2"}, "trainable": true, "name": "dense_169", "kernel_initializer": {"config": {"scale": 1.0, "seed": 3014, "mode": "fan_avg", "distribution": "normal"}, "class_name": "VarianceScaling"}, "bias_regularizer": null, "units": 30, "kernel_constraint": null, "activation": "relu", "bias_constraint": null, "use_bias": true, "bias_initializer": {"config": {}, "class_name": "Zeros"}}, "inbound_nodes": [[["dense_168", 0, 0, {}]]], "class_name": "Dense", "name": "dense_169"}, {"config": {"activity_regularizer": null, "kernel_regularizer": {"config": {"l2": 9.999999747378752e-05, "l1": 0.0}, "class_name": "L1L2"}, "trainable": true, "name": "dense_174", "kernel_initializer": {"config": {"scale": 1.0, "seed": 3014, "mode": "fan_avg", "distribution": "normal"}, "class_name": "VarianceScaling"}, "bias_regularizer": null, "units": 30, "kernel_constraint": null, "activation": "relu", "bias_constraint": null, "use_bias": true, "bias_initializer": {"config": {}, "class_name": "Zeros"}}, "inbound_nodes": [[["dense_173", 0, 0, {}]]], "class_name": "Dense", "name": "dense_174"}, {"config": {"activity_regularizer": null, "kernel_regularizer": {"config": {"l2": 9.999999747378752e-05, "l1": 0.0}, "class_name": "L1L2"}, "trainable": true, "name": "dense_179", "kernel_initializer": {"config": {"scale": 1.0, "seed": 3014, "mode": "fan_avg", "distribution": "normal"}, "class_name": "VarianceScaling"}, "bias_regularizer": null, "units": 30, "kernel_constraint": null, "activation": "relu", "bias_constraint": null, "use_bias": true, "bias_initializer": {"config": {}, "class_name": "Zeros"}}, "inbound_nodes": [[["dense_178", 0, 0, {}]]], "class_name": "Dense", "name": "dense_179"}, {"config": {"activity_regularizer": null, "kernel_regularizer": {"config": {"l2": 9.999999747378752e-05, "l1": 0.0}, "class_name": "L1L2"}, "trainable": true, "name": "dense_150", "kernel_initializer": {"config": {"scale": 1.0, "seed": 3014, "mode": "fan_avg", "distribution": "normal"}, "class_name": "VarianceScaling"}, "bias_regularizer": null, "units": 30, "kernel_constraint": null, "activation": "relu", "bias_constraint": null, "use_bias": true, "bias_initializer": {"config": {}, "class_name": "Zeros"}}, "inbound_nodes": [[["dense_149", 0, 0, {}]]], "class_name": "Dense", "name": "dense_150"}, {"config": {"activity_regularizer": null, "kernel_regularizer": {"config": {"l2": 9.999999747378752e-05, "l1": 0.0}, "class_name": "L1L2"}, "trainable": true, "name": "dense_155", "kernel_initializer": {"config": {"scale": 1.0, "seed": 3014, "mode": "fan_avg", "distribution": "normal"}, "class_name": "VarianceScaling"}, "bias_regularizer": null, "units": 30, "kernel_constraint": null, "activation": "relu", "bias_constraint": null, "use_bias": true, "bias_initializer": {"config": {}, "class_name": "Zeros"}}, "inbound_nodes": [[["dense_154", 0, 0, {}]]], "class_name": "Dense", "name": "dense_155"}, {"config": {"activity_regularizer": null, "kernel_regularizer": {"config": {"l2": 9.999999747378752e-05, "l1": 0.0}, "class_name": "L1L2"}, "trainable": true, "name": "dense_160", "kernel_initializer": {"config": {"scale": 1.0, "seed": 3014, "mode": "fan_avg", "distribution": "normal"}, "class_name": "VarianceScaling"}, "bias_regularizer": null, "units": 30, "kernel_constraint": null, "activation": "relu", "bias_constraint": null, "use_bias": true, "bias_initializer": {"config": {}, "class_name": "Zeros"}}, "inbound_nodes": [[["dense_159", 0, 0, {}]]], "class_name": "Dense", "name": "dense_160"}, {"config": {"activity_regularizer": null, "kernel_regularizer": {"config": {"l2": 9.999999747378752e-05, "l1": 0.0}, "class_name": "L1L2"}, "trainable": true, "name": "dense_165", "kernel_initializer": {"config": {"scale": 1.0, "seed": 3014, "mode": "fan_avg", "distribution": "normal"}, "class_name": "VarianceScaling"}, "bias_regularizer": null, "units": 30, "kernel_constraint": null, "activation": "relu", "bias_constraint": null, "use_bias": true, "bias_initializer": {"config": {}, "class_name": "Zeros"}}, "inbound_nodes": [[["dense_164", 0, 0, {}]]], "class_name": "Dense", "name": "dense_165"}, {"config": {"activity_regularizer": null, "kernel_regularizer": {"config": {"l2": 9.999999747378752e-05, "l1": 0.0}, "class_name": "L1L2"}, "trainable": true, "name": "dense_170", "kernel_initializer": {"config": {"scale": 1.0, "seed": 3014, "mode": "fan_avg", "distribution": "normal"}, "class_name": "VarianceScaling"}, "bias_regularizer": null, "units": 30, "kernel_constraint": null, "activation": "relu", "bias_constraint": null, "use_bias": true, "bias_initializer": {"config": {}, "class_name": "Zeros"}}, "inbound_nodes": [[["dense_169", 0, 0, {}]]], "class_name": "Dense", "name": "dense_170"}, {"config": {"activity_regularizer": null, "kernel_regularizer": {"config": {"l2": 9.999999747378752e-05, "l1": 0.0}, "class_name": "L1L2"}, "trainable": true, "name": "dense_175", "kernel_initializer": {"config": {"scale": 1.0, "seed": 3014, "mode": "fan_avg", "distribution": "normal"}, "class_name": "VarianceScaling"}, "bias_regularizer": null, "units": 30, "kernel_constraint": null, "activation": "relu", "bias_constraint": null, "use_bias": true, "bias_initializer": {"config": {}, "class_name": "Zeros"}}, "inbound_nodes": [[["dense_174", 0, 0, {}]]], "class_name": "Dense", "name": "dense_175"}, {"config": {"activity_regularizer": null, "kernel_regularizer": {"config": {"l2": 9.999999747378752e-05, "l1": 0.0}, "class_name": "L1L2"}, "trainable": true, "name": "dense_180", "kernel_initializer": {"config": {"scale": 1.0, "seed": 3014, "mode": "fan_avg", "distribution": "normal"}, "class_name": "VarianceScaling"}, "bias_regularizer": null, "units": 30, "kernel_constraint": null, "activation": "relu", "bias_constraint": null, "use_bias": true, "bias_initializer": {"config": {}, "class_name": "Zeros"}}, "inbound_nodes": [[["dense_179", 0, 0, {}]]], "class_name": "Dense", "name": "dense_180"}, {"config": {"activity_regularizer": null, "kernel_regularizer": {"config": {"l2": 9.999999747378752e-05, "l1": 0.0}, "class_name": "L1L2"}, "trainable": true, "name": "dense_151", "kernel_initializer": {"config": {"scale": 1.0, "seed": 3014, "mode": "fan_avg", "distribution": "normal"}, "class_name": "VarianceScaling"}, "bias_regularizer": null, "units": 30, "kernel_constraint": null, "activation": "relu", "bias_constraint": null, "use_bias": true, "bias_initializer": {"config": {}, "class_name": "Zeros"}}, "inbound_nodes": [[["dense_150", 0, 0, {}]]], "class_name": "Dense", "name": "dense_151"}, {"config": {"activity_regularizer": null, "kernel_regularizer": {"config": {"l2": 9.999999747378752e-05, "l1": 0.0}, "class_name": "L1L2"}, "trainable": true, "name": "dense_156", "kernel_initializer": {"config": {"scale": 1.0, "seed": 3014, "mode": "fan_avg", "distribution": "normal"}, "class_name": "VarianceScaling"}, "bias_regularizer": null, "units": 30, "kernel_constraint": null, "activation": "relu", "bias_constraint": null, "use_bias": true, "bias_initializer": {"config": {}, "class_name": "Zeros"}}, "inbound_nodes": [[["dense_155", 0, 0, {}]]], "class_name": "Dense", "name": "dense_156"}, {"config": {"activity_regularizer": null, "kernel_regularizer": {"config": {"l2": 9.999999747378752e-05, "l1": 0.0}, "class_name": "L1L2"}, "trainable": true, "name": "dense_161", "kernel_initializer": {"config": {"scale": 1.0, "seed": 3014, "mode": "fan_avg", "distribution": "normal"}, "class_name": "VarianceScaling"}, "bias_regularizer": null, "units": 30, "kernel_constraint": null, "activation": "relu", "bias_constraint": null, "use_bias": true, "bias_initializer": {"config": {}, "class_name": "Zeros"}}, "inbound_nodes": [[["dense_160", 0, 0, {}]]], "class_name": "Dense", "name": "dense_161"}, {"config": {"activity_regularizer": null, "kernel_regularizer": {"config": {"l2": 9.999999747378752e-05, "l1": 0.0}, "class_name": "L1L2"}, "trainable": true, "name": "dense_166", "kernel_initializer": {"config": {"scale": 1.0, "seed": 3014, "mode": "fan_avg", "distribution": "normal"}, "class_name": "VarianceScaling"}, "bias_regularizer": null, "units": 30, "kernel_constraint": null, "activation": "relu", "bias_constraint": null, "use_bias": true, "bias_initializer": {"config": {}, "class_name": "Zeros"}}, "inbound_nodes": [[["dense_165", 0, 0, {}]]], "class_name": "Dense", "name": "dense_166"}, {"config": {"activity_regularizer": null, "kernel_regularizer": {"config": {"l2": 9.999999747378752e-05, "l1": 0.0}, "class_name": "L1L2"}, "trainable": true, "name": "dense_171", "kernel_initializer": {"config": {"scale": 1.0, "seed": 3014, "mode": "fan_avg", "distribution": "normal"}, "class_name": "VarianceScaling"}, "bias_regularizer": null, "units": 30, "kernel_constraint": null, "activation": "relu", "bias_constraint": null, "use_bias": true, "bias_initializer": {"config": {}, "class_name": "Zeros"}}, "inbound_nodes": [[["dense_170", 0, 0, {}]]], "class_name": "Dense", "name": "dense_171"}, {"config": {"activity_regularizer": null, "kernel_regularizer": {"config": {"l2": 9.999999747378752e-05, "l1": 0.0}, "class_name": "L1L2"}, "trainable": true, "name": "dense_176", "kernel_initializer": {"config": {"scale": 1.0, "seed": 3014, "mode": "fan_avg", "distribution": "normal"}, "class_name": "VarianceScaling"}, "bias_regularizer": null, "units": 30, "kernel_constraint": null, "activation": "relu", "bias_constraint": null, "use_bias": true, "bias_initializer": {"config": {}, "class_name": "Zeros"}}, "inbound_nodes": [[["dense_175", 0, 0, {}]]], "class_name": "Dense", "name": "dense_176"}, {"config": {"activity_regularizer": null, "kernel_regularizer": {"config": {"l2": 9.999999747378752e-05, "l1": 0.0}, "class_name": "L1L2"}, "trainable": true, "name": "dense_181", "kernel_initializer": {"config": {"scale": 1.0, "seed": 3014, "mode": "fan_avg", "distribution": "normal"}, "class_name": "VarianceScaling"}, "bias_regularizer": null, "units": 30, "kernel_constraint": null, "activation": "relu", "bias_constraint": null, "use_bias": true, "bias_initializer": {"config": {}, "class_name": "Zeros"}}, "inbound_nodes": [[["dense_180", 0, 0, {}]]], "class_name": "Dense", "name": "dense_181"}, {"config": {"dtype": "float32", "name": "OnOff_C1", "sparse": false, "batch_input_shape": [null, 1]}, "inbound_nodes": [], "class_name": "InputLayer", "name": "OnOff_C1"}, {"config": {"activity_regularizer": null, "kernel_regularizer": {"config": {"l2": 9.999999747378752e-05, "l1": 0.0}, "class_name": "L1L2"}, "trainable": true, "name": "dense_152", "kernel_initializer": {"config": {"scale": 1.0, "seed": 3014, "mode": "fan_avg", "distribution": "normal"}, "class_name": "VarianceScaling"}, "bias_regularizer": null, "units": 1, "kernel_constraint": null, "activation": "relu", "bias_constraint": null, "use_bias": true, "bias_initializer": {"config": {}, "class_name": "Zeros"}}, "inbound_nodes": [[["dense_151", 0, 0, {}]]], "class_name": "Dense", "name": "dense_152"}, {"config": {"dtype": "float32", "name": "OnOff_C2", "sparse": false, "batch_input_shape": [null, 1]}, "inbound_nodes": [], "class_name": "InputLayer", "name": "OnOff_C2"}, {"config": {"activity_regularizer": null, "kernel_regularizer": {"config": {"l2": 9.999999747378752e-05, "l1": 0.0}, "class_name": "L1L2"}, "trainable": true, "name": "dense_157", "kernel_initializer": {"config": {"scale": 1.0, "seed": 3014, "mode": "fan_avg", "distribution": "normal"}, "class_name": "VarianceScaling"}, "bias_regularizer": null, "units": 1, "kernel_constraint": null, "activation": "relu", "bias_constraint": null, "use_bias": true, "bias_initializer": {"config": {}, "class_name": "Zeros"}}, "inbound_nodes": [[["dense_156", 0, 0, {}]]], "class_name": "Dense", "name": "dense_157"}, {"config": {"dtype": "float32", "name": "OnOff_C3", "sparse": false, "batch_input_shape": [null, 1]}, "inbound_nodes": [], "class_name": "InputLayer", "name": "OnOff_C3"}, {"config": {"activity_regularizer": null, "kernel_regularizer": {"config": {"l2": 9.999999747378752e-05, "l1": 0.0}, "class_name": "L1L2"}, "trainable": true, "name": "dense_162", "kernel_initializer": {"config": {"scale": 1.0, "seed": 3014, "mode": "fan_avg", "distribution": "normal"}, "class_name": "VarianceScaling"}, "bias_regularizer": null, "units": 1, "kernel_constraint": null, "activation": "relu", "bias_constraint": null, "use_bias": true, "bias_initializer": {"config": {}, "class_name": "Zeros"}}, "inbound_nodes": [[["dense_161", 0, 0, {}]]], "class_name": "Dense", "name": "dense_162"}, {"config": {"dtype": "float32", "name": "OnOff_C4", "sparse": false, "batch_input_shape": [null, 1]}, "inbound_nodes": [], "class_name": "InputLayer", "name": "OnOff_C4"}, {"config": {"activity_regularizer": null, "kernel_regularizer": {"config": {"l2": 9.999999747378752e-05, "l1": 0.0}, "class_name": "L1L2"}, "trainable": true, "name": "dense_167", "kernel_initializer": {"config": {"scale": 1.0, "seed": 3014, "mode": "fan_avg", "distribution": "normal"}, "class_name": "VarianceScaling"}, "bias_regularizer": null, "units": 1, "kernel_constraint": null, "activation": "relu", "bias_constraint": null, "use_bias": true, "bias_initializer": {"config": {}, "class_name": "Zeros"}}, "inbound_nodes": [[["dense_166", 0, 0, {}]]], "class_name": "Dense", "name": "dense_167"}, {"config": {"dtype": "float32", "name": "OnOff_B1", "sparse": false, "batch_input_shape": [null, 1]}, "inbound_nodes": [], "class_name": "InputLayer", "name": "OnOff_B1"}, {"config": {"activity_regularizer": null, "kernel_regularizer": {"config": {"l2": 9.999999747378752e-05, "l1": 0.0}, "class_name": "L1L2"}, "trainable": true, "name": "dense_172", "kernel_initializer": {"config": {"scale": 1.0, "seed": 3014, "mode": "fan_avg", "distribution": "normal"}, "class_name": "VarianceScaling"}, "bias_regularizer": null, "units": 1, "kernel_constraint": null, "activation": "relu", "bias_constraint": null, "use_bias": true, "bias_initializer": {"config": {}, "class_name": "Zeros"}}, "inbound_nodes": [[["dense_171", 0, 0, {}]]], "class_name": "Dense", "name": "dense_172"}, {"config": {"dtype": "float32", "name": "OnOff_B3", "sparse": false, "batch_input_shape": [null, 1]}, "inbound_nodes": [], "class_name": "InputLayer", "name": "OnOff_B3"}, {"config": {"activity_regularizer": null, "kernel_regularizer": {"config": {"l2": 9.999999747378752e-05, "l1": 0.0}, "class_name": "L1L2"}, "trainable": true, "name": "dense_177", "kernel_initializer": {"config": {"scale": 1.0, "seed": 3014, "mode": "fan_avg", "distribution": "normal"}, "class_name": "VarianceScaling"}, "bias_regularizer": null, "units": 1, "kernel_constraint": null, "activation": "relu", "bias_constraint": null, "use_bias": true, "bias_initializer": {"config": {}, "class_name": "Zeros"}}, "inbound_nodes": [[["dense_176", 0, 0, {}]]], "class_name": "Dense", "name": "dense_177"}, {"config": {"dtype": "float32", "name": "OnOff_D1", "sparse": false, "batch_input_shape": [null, 1]}, "inbound_nodes": [], "class_name": "InputLayer", "name": "OnOff_D1"}, {"config": {"activity_regularizer": null, "kernel_regularizer": {"config": {"l2": 9.999999747378752e-05, "l1": 0.0}, "class_name": "L1L2"}, "trainable": true, "name": "dense_182", "kernel_initializer": {"config": {"scale": 1.0, "seed": 3014, "mode": "fan_avg", "distribution": "normal"}, "class_name": "VarianceScaling"}, "bias_regularizer": null, "units": 1, "kernel_constraint": null, "activation": "relu", "bias_constraint": null, "use_bias": true, "bias_initializer": {"config": {}, "class_name": "Zeros"}}, "inbound_nodes": [[["dense_181", 0, 0, {}]]], "class_name": "Dense", "name": "dense_182"}, {"config": {"name": "C1_out", "trainable": true}, "inbound_nodes": [[["OnOff_C1", 0, 0, {}], ["dense_152", 0, 0, {}]]], "class_name": "Multiply", "name": "C1_out"}, {"config": {"name": "C2_out", "trainable": true}, "inbound_nodes": [[["OnOff_C2", 0, 0, {}], ["dense_157", 0, 0, {}]]], "class_name": "Multiply", "name": "C2_out"}, {"config": {"name": "C3_out", "trainable": true}, "inbound_nodes": [[["OnOff_C3", 0, 0, {}], ["dense_162", 0, 0, {}]]], "class_name": "Multiply", "name": "C3_out"}, {"config": {"name": "C4_out", "trainable": true}, "inbound_nodes": [[["OnOff_C4", 0, 0, {}], ["dense_167", 0, 0, {}]]], "class_name": "Multiply", "name": "C4_out"}, {"config": {"name": "B1_out", "trainable": true}, "inbound_nodes": [[["OnOff_B1", 0, 0, {}], ["dense_172", 0, 0, {}]]], "class_name": "Multiply", "name": "B1_out"}, {"config": {"name": "B3_out", "trainable": true}, "inbound_nodes": [[["OnOff_B3", 0, 0, {}], ["dense_177", 0, 0, {}]]], "class_name": "Multiply", "name": "B3_out"}, {"config": {"name": "D1_out", "trainable": true}, "inbound_nodes": [[["OnOff_D1", 0, 0, {}], ["dense_182", 0, 0, {}]]], "class_name": "Multiply", "name": "D1_out"}, {"config": {"name": "GJOA_TOTAL", "trainable": true}, "inbound_nodes": [[["C1_out", 0, 0, {}], ["C2_out", 0, 0, {}], ["C3_out", 0, 0, {}], ["C4_out", 0, 0, {}], ["B1_out", 0, 0, {}], ["B3_out", 0, 0, {}], ["D1_out", 0, 0, {}]]], "class_name": "Add", "name": "GJOA_TOTAL"}], "output_layers": [["C1_out", 0, 0], ["C2_out", 0, 0], ["C3_out", 0, 0], ["C4_out", 0, 0], ["B1_out", 0, 0], ["B3_out", 0, 0], ["D1_out", 0, 0], ["GJOA_TOTAL", 0, 0]], "input_layers": [["C1", 0, 0], ["C2", 0, 0], ["C3", 0, 0], ["C4", 0, 0], ["B1", 0, 0], ["B3", 0, 0], ["D1", 0, 0], ["OnOff_C1", 0, 0], ["OnOff_C2", 0, 0], ["OnOff_C3", 0, 0], ["OnOff_C4", 0, 0], ["OnOff_B1", 0, 0], ["OnOff_B3", 0, 0], ["OnOff_D1", 0, 0]]}, "keras_version": "2.0.1", "class_name": "Model", "backend": "theano"}