{"backend": "theano", "class_name": "Model", "config": {"output_layers": [["F1_out", 0, 0], ["B2_out", 0, 0], ["D3_out", 0, 0], ["E1_out", 0, 0], ["GJOA_QGAS", 0, 0]], "layers": [{"name": "F1", "class_name": "InputLayer", "config": {"sparse": false, "dtype": "float32", "name": "F1", "batch_input_shape": [null, 4]}, "inbound_nodes": []}, {"name": "B2", "class_name": "InputLayer", "config": {"sparse": false, "dtype": "float32", "name": "B2", "batch_input_shape": [null, 4]}, "inbound_nodes": []}, {"name": "D3", "class_name": "InputLayer", "config": {"sparse": false, "dtype": "float32", "name": "D3", "batch_input_shape": [null, 4]}, "inbound_nodes": []}, {"name": "E1", "class_name": "InputLayer", "config": {"sparse": false, "dtype": "float32", "name": "E1", "batch_input_shape": [null, 4]}, "inbound_nodes": []}, {"name": "dense_145", "class_name": "Dense", "config": {"kernel_constraint": null, "bias_initializer": {"class_name": "Zeros", "config": {}}, "use_bias": true, "activation": "relu", "trainable": true, "bias_regularizer": null, "activity_regularizer": null, "bias_constraint": null, "kernel_initializer": {"class_name": "VarianceScaling", "config": {"scale": 1.0, "seed": 3014, "mode": "fan_avg", "distribution": "normal"}}, "name": "dense_145", "units": 60, "kernel_regularizer": {"class_name": "L1L2", "config": {"l1": 0.0, "l2": 9.999999747378752e-05}}}, "inbound_nodes": [[["F1", 0, 0, {}]]]}, {"name": "dense_148", "class_name": "Dense", "config": {"kernel_constraint": null, "bias_initializer": {"class_name": "Zeros", "config": {}}, "use_bias": true, "activation": "relu", "trainable": true, "bias_regularizer": null, "activity_regularizer": null, "bias_constraint": null, "kernel_initializer": {"class_name": "VarianceScaling", "config": {"scale": 1.0, "seed": 3014, "mode": "fan_avg", "distribution": "normal"}}, "name": "dense_148", "units": 60, "kernel_regularizer": {"class_name": "L1L2", "config": {"l1": 0.0, "l2": 9.999999747378752e-05}}}, "inbound_nodes": [[["B2", 0, 0, {}]]]}, {"name": "dense_151", "class_name": "Dense", "config": {"kernel_constraint": null, "bias_initializer": {"class_name": "Zeros", "config": {}}, "use_bias": true, "activation": "relu", "trainable": true, "bias_regularizer": null, "activity_regularizer": null, "bias_constraint": null, "kernel_initializer": {"class_name": "VarianceScaling", "config": {"scale": 1.0, "seed": 3014, "mode": "fan_avg", "distribution": "normal"}}, "name": "dense_151", "units": 60, "kernel_regularizer": {"class_name": "L1L2", "config": {"l1": 0.0, "l2": 9.999999747378752e-05}}}, "inbound_nodes": [[["D3", 0, 0, {}]]]}, {"name": "dense_154", "class_name": "Dense", "config": {"kernel_constraint": null, "bias_initializer": {"class_name": "Zeros", "config": {}}, "use_bias": true, "activation": "relu", "trainable": true, "bias_regularizer": null, "activity_regularizer": null, "bias_constraint": null, "kernel_initializer": {"class_name": "VarianceScaling", "config": {"scale": 1.0, "seed": 3014, "mode": "fan_avg", "distribution": "normal"}}, "name": "dense_154", "units": 60, "kernel_regularizer": {"class_name": "L1L2", "config": {"l1": 0.0, "l2": 9.999999747378752e-05}}}, "inbound_nodes": [[["E1", 0, 0, {}]]]}, {"name": "dense_146", "class_name": "Dense", "config": {"kernel_constraint": null, "bias_initializer": {"class_name": "Zeros", "config": {}}, "use_bias": true, "activation": "relu", "trainable": true, "bias_regularizer": null, "activity_regularizer": null, "bias_constraint": null, "kernel_initializer": {"class_name": "VarianceScaling", "config": {"scale": 1.0, "seed": 3014, "mode": "fan_avg", "distribution": "normal"}}, "name": "dense_146", "units": 60, "kernel_regularizer": {"class_name": "L1L2", "config": {"l1": 0.0, "l2": 9.999999747378752e-05}}}, "inbound_nodes": [[["dense_145", 0, 0, {}]]]}, {"name": "dense_149", "class_name": "Dense", "config": {"kernel_constraint": null, "bias_initializer": {"class_name": "Zeros", "config": {}}, "use_bias": true, "activation": "relu", "trainable": true, "bias_regularizer": null, "activity_regularizer": null, "bias_constraint": null, "kernel_initializer": {"class_name": "VarianceScaling", "config": {"scale": 1.0, "seed": 3014, "mode": "fan_avg", "distribution": "normal"}}, "name": "dense_149", "units": 60, "kernel_regularizer": {"class_name": "L1L2", "config": {"l1": 0.0, "l2": 9.999999747378752e-05}}}, "inbound_nodes": [[["dense_148", 0, 0, {}]]]}, {"name": "dense_152", "class_name": "Dense", "config": {"kernel_constraint": null, "bias_initializer": {"class_name": "Zeros", "config": {}}, "use_bias": true, "activation": "relu", "trainable": true, "bias_regularizer": null, "activity_regularizer": null, "bias_constraint": null, "kernel_initializer": {"class_name": "VarianceScaling", "config": {"scale": 1.0, "seed": 3014, "mode": "fan_avg", "distribution": "normal"}}, "name": "dense_152", "units": 60, "kernel_regularizer": {"class_name": "L1L2", "config": {"l1": 0.0, "l2": 9.999999747378752e-05}}}, "inbound_nodes": [[["dense_151", 0, 0, {}]]]}, {"name": "dense_155", "class_name": "Dense", "config": {"kernel_constraint": null, "bias_initializer": {"class_name": "Zeros", "config": {}}, "use_bias": true, "activation": "relu", "trainable": true, "bias_regularizer": null, "activity_regularizer": null, "bias_constraint": null, "kernel_initializer": {"class_name": "VarianceScaling", "config": {"scale": 1.0, "seed": 3014, "mode": "fan_avg", "distribution": "normal"}}, "name": "dense_155", "units": 60, "kernel_regularizer": {"class_name": "L1L2", "config": {"l1": 0.0, "l2": 9.999999747378752e-05}}}, "inbound_nodes": [[["dense_154", 0, 0, {}]]]}, {"name": "OnOff_F1", "class_name": "InputLayer", "config": {"sparse": false, "dtype": "float32", "name": "OnOff_F1", "batch_input_shape": [null, 1]}, "inbound_nodes": []}, {"name": "dense_147", "class_name": "Dense", "config": {"kernel_constraint": null, "bias_initializer": {"class_name": "Zeros", "config": {}}, "use_bias": true, "activation": "relu", "trainable": true, "bias_regularizer": null, "activity_regularizer": null, "bias_constraint": null, "kernel_initializer": {"class_name": "VarianceScaling", "config": {"scale": 1.0, "seed": 3014, "mode": "fan_avg", "distribution": "normal"}}, "name": "dense_147", "units": 1, "kernel_regularizer": {"class_name": "L1L2", "config": {"l1": 0.0, "l2": 9.999999747378752e-05}}}, "inbound_nodes": [[["dense_146", 0, 0, {}]]]}, {"name": "OnOff_B2", "class_name": "InputLayer", "config": {"sparse": false, "dtype": "float32", "name": "OnOff_B2", "batch_input_shape": [null, 1]}, "inbound_nodes": []}, {"name": "dense_150", "class_name": "Dense", "config": {"kernel_constraint": null, "bias_initializer": {"class_name": "Zeros", "config": {}}, "use_bias": true, "activation": "relu", "trainable": true, "bias_regularizer": null, "activity_regularizer": null, "bias_constraint": null, "kernel_initializer": {"class_name": "VarianceScaling", "config": {"scale": 1.0, "seed": 3014, "mode": "fan_avg", "distribution": "normal"}}, "name": "dense_150", "units": 1, "kernel_regularizer": {"class_name": "L1L2", "config": {"l1": 0.0, "l2": 9.999999747378752e-05}}}, "inbound_nodes": [[["dense_149", 0, 0, {}]]]}, {"name": "OnOff_D3", "class_name": "InputLayer", "config": {"sparse": false, "dtype": "float32", "name": "OnOff_D3", "batch_input_shape": [null, 1]}, "inbound_nodes": []}, {"name": "dense_153", "class_name": "Dense", "config": {"kernel_constraint": null, "bias_initializer": {"class_name": "Zeros", "config": {}}, "use_bias": true, "activation": "relu", "trainable": true, "bias_regularizer": null, "activity_regularizer": null, "bias_constraint": null, "kernel_initializer": {"class_name": "VarianceScaling", "config": {"scale": 1.0, "seed": 3014, "mode": "fan_avg", "distribution": "normal"}}, "name": "dense_153", "units": 1, "kernel_regularizer": {"class_name": "L1L2", "config": {"l1": 0.0, "l2": 9.999999747378752e-05}}}, "inbound_nodes": [[["dense_152", 0, 0, {}]]]}, {"name": "OnOff_E1", "class_name": "InputLayer", "config": {"sparse": false, "dtype": "float32", "name": "OnOff_E1", "batch_input_shape": [null, 1]}, "inbound_nodes": []}, {"name": "dense_156", "class_name": "Dense", "config": {"kernel_constraint": null, "bias_initializer": {"class_name": "Zeros", "config": {}}, "use_bias": true, "activation": "relu", "trainable": true, "bias_regularizer": null, "activity_regularizer": null, "bias_constraint": null, "kernel_initializer": {"class_name": "VarianceScaling", "config": {"scale": 1.0, "seed": 3014, "mode": "fan_avg", "distribution": "normal"}}, "name": "dense_156", "units": 1, "kernel_regularizer": {"class_name": "L1L2", "config": {"l1": 0.0, "l2": 9.999999747378752e-05}}}, "inbound_nodes": [[["dense_155", 0, 0, {}]]]}, {"name": "F1_out", "class_name": "Multiply", "config": {"trainable": true, "name": "F1_out"}, "inbound_nodes": [[["OnOff_F1", 0, 0, {}], ["dense_147", 0, 0, {}]]]}, {"name": "B2_out", "class_name": "Multiply", "config": {"trainable": true, "name": "B2_out"}, "inbound_nodes": [[["OnOff_B2", 0, 0, {}], ["dense_150", 0, 0, {}]]]}, {"name": "D3_out", "class_name": "Multiply", "config": {"trainable": true, "name": "D3_out"}, "inbound_nodes": [[["OnOff_D3", 0, 0, {}], ["dense_153", 0, 0, {}]]]}, {"name": "E1_out", "class_name": "Multiply", "config": {"trainable": true, "name": "E1_out"}, "inbound_nodes": [[["OnOff_E1", 0, 0, {}], ["dense_156", 0, 0, {}]]]}, {"name": "GJOA_QGAS", "class_name": "Add", "config": {"trainable": true, "name": "GJOA_QGAS"}, "inbound_nodes": [[["F1_out", 0, 0, {}], ["B2_out", 0, 0, {}], ["D3_out", 0, 0, {}], ["E1_out", 0, 0, {}]]]}], "name": "model_13", "input_layers": [["F1", 0, 0], ["B2", 0, 0], ["D3", 0, 0], ["E1", 0, 0], ["OnOff_F1", 0, 0], ["OnOff_B2", 0, 0], ["OnOff_D3", 0, 0], ["OnOff_E1", 0, 0]]}, "keras_version": "2.0.1"}