{"class_name": "Model", "keras_version": "2.0.1", "config": {"name": "model_7", "output_layers": [["C1_out", 0, 0], ["C2_out", 0, 0], ["C3_out", 0, 0], ["C4_out", 0, 0], ["B1_out", 0, 0], ["B3_out", 0, 0], ["D1_out", 0, 0], ["GJOA_TOTAL", 0, 0]], "layers": [{"class_name": "InputLayer", "name": "C1", "inbound_nodes": [], "config": {"dtype": "float32", "batch_input_shape": [null, 4], "sparse": false, "name": "C1"}}, {"class_name": "InputLayer", "name": "C2", "inbound_nodes": [], "config": {"dtype": "float32", "batch_input_shape": [null, 3], "sparse": false, "name": "C2"}}, {"class_name": "InputLayer", "name": "C3", "inbound_nodes": [], "config": {"dtype": "float32", "batch_input_shape": [null, 4], "sparse": false, "name": "C3"}}, {"class_name": "InputLayer", "name": "C4", "inbound_nodes": [], "config": {"dtype": "float32", "batch_input_shape": [null, 4], "sparse": false, "name": "C4"}}, {"class_name": "InputLayer", "name": "B1", "inbound_nodes": [], "config": {"dtype": "float32", "batch_input_shape": [null, 4], "sparse": false, "name": "B1"}}, {"class_name": "InputLayer", "name": "B3", "inbound_nodes": [], "config": {"dtype": "float32", "batch_input_shape": [null, 4], "sparse": false, "name": "B3"}}, {"class_name": "InputLayer", "name": "D1", "inbound_nodes": [], "config": {"dtype": "float32", "batch_input_shape": [null, 3], "sparse": false, "name": "D1"}}, {"class_name": "Dense", "name": "C1_0", "inbound_nodes": [[["C1", 0, 0, {}]]], "config": {"trainable": true, "use_bias": true, "bias_initializer": {"class_name": "Zeros", "config": {}}, "units": 100, "activation": "relu", "bias_regularizer": null, "kernel_constraint": null, "name": "C1_0", "bias_constraint": null, "kernel_regularizer": {"class_name": "L1L2", "config": {"l2": 0.0001500000071246177, "l1": 0.0}}, "kernel_initializer": {"class_name": "VarianceScaling", "config": {"seed": 3014, "mode": "fan_avg", "distribution": "normal", "scale": 1.0}}, "activity_regularizer": null}}, {"class_name": "Dense", "name": "C2_0", "inbound_nodes": [[["C2", 0, 0, {}]]], "config": {"trainable": true, "use_bias": true, "bias_initializer": {"class_name": "Zeros", "config": {}}, "units": 100, "activation": "relu", "bias_regularizer": null, "kernel_constraint": null, "name": "C2_0", "bias_constraint": null, "kernel_regularizer": {"class_name": "L1L2", "config": {"l2": 0.0001500000071246177, "l1": 0.0}}, "kernel_initializer": {"class_name": "VarianceScaling", "config": {"seed": 3014, "mode": "fan_avg", "distribution": "normal", "scale": 1.0}}, "activity_regularizer": null}}, {"class_name": "Dense", "name": "C3_0", "inbound_nodes": [[["C3", 0, 0, {}]]], "config": {"trainable": true, "use_bias": true, "bias_initializer": {"class_name": "Zeros", "config": {}}, "units": 100, "activation": "relu", "bias_regularizer": null, "kernel_constraint": null, "name": "C3_0", "bias_constraint": null, "kernel_regularizer": {"class_name": "L1L2", "config": {"l2": 0.0001500000071246177, "l1": 0.0}}, "kernel_initializer": {"class_name": "VarianceScaling", "config": {"seed": 3014, "mode": "fan_avg", "distribution": "normal", "scale": 1.0}}, "activity_regularizer": null}}, {"class_name": "Dense", "name": "C4_0", "inbound_nodes": [[["C4", 0, 0, {}]]], "config": {"trainable": true, "use_bias": true, "bias_initializer": {"class_name": "Zeros", "config": {}}, "units": 100, "activation": "relu", "bias_regularizer": null, "kernel_constraint": null, "name": "C4_0", "bias_constraint": null, "kernel_regularizer": {"class_name": "L1L2", "config": {"l2": 0.0001500000071246177, "l1": 0.0}}, "kernel_initializer": {"class_name": "VarianceScaling", "config": {"seed": 3014, "mode": "fan_avg", "distribution": "normal", "scale": 1.0}}, "activity_regularizer": null}}, {"class_name": "Dense", "name": "B1_0", "inbound_nodes": [[["B1", 0, 0, {}]]], "config": {"trainable": true, "use_bias": true, "bias_initializer": {"class_name": "Zeros", "config": {}}, "units": 100, "activation": "relu", "bias_regularizer": null, "kernel_constraint": null, "name": "B1_0", "bias_constraint": null, "kernel_regularizer": {"class_name": "L1L2", "config": {"l2": 0.0001500000071246177, "l1": 0.0}}, "kernel_initializer": {"class_name": "VarianceScaling", "config": {"seed": 3014, "mode": "fan_avg", "distribution": "normal", "scale": 1.0}}, "activity_regularizer": null}}, {"class_name": "Dense", "name": "B3_0", "inbound_nodes": [[["B3", 0, 0, {}]]], "config": {"trainable": true, "use_bias": true, "bias_initializer": {"class_name": "Zeros", "config": {}}, "units": 100, "activation": "relu", "bias_regularizer": null, "kernel_constraint": null, "name": "B3_0", "bias_constraint": null, "kernel_regularizer": {"class_name": "L1L2", "config": {"l2": 0.0001500000071246177, "l1": 0.0}}, "kernel_initializer": {"class_name": "VarianceScaling", "config": {"seed": 3014, "mode": "fan_avg", "distribution": "normal", "scale": 1.0}}, "activity_regularizer": null}}, {"class_name": "Dense", "name": "D1_0", "inbound_nodes": [[["D1", 0, 0, {}]]], "config": {"trainable": true, "use_bias": true, "bias_initializer": {"class_name": "Zeros", "config": {}}, "units": 100, "activation": "relu", "bias_regularizer": null, "kernel_constraint": null, "name": "D1_0", "bias_constraint": null, "kernel_regularizer": {"class_name": "L1L2", "config": {"l2": 0.0001500000071246177, "l1": 0.0}}, "kernel_initializer": {"class_name": "VarianceScaling", "config": {"seed": 3014, "mode": "fan_avg", "distribution": "normal", "scale": 1.0}}, "activity_regularizer": null}}, {"class_name": "Dense", "name": "C1_1", "inbound_nodes": [[["C1_0", 0, 0, {}]]], "config": {"trainable": true, "use_bias": true, "bias_initializer": {"class_name": "Zeros", "config": {}}, "units": 100, "activation": "relu", "bias_regularizer": null, "kernel_constraint": null, "name": "C1_1", "bias_constraint": null, "kernel_regularizer": {"class_name": "L1L2", "config": {"l2": 0.0001500000071246177, "l1": 0.0}}, "kernel_initializer": {"class_name": "VarianceScaling", "config": {"seed": 3014, "mode": "fan_avg", "distribution": "normal", "scale": 1.0}}, "activity_regularizer": null}}, {"class_name": "Dense", "name": "C2_1", "inbound_nodes": [[["C2_0", 0, 0, {}]]], "config": {"trainable": true, "use_bias": true, "bias_initializer": {"class_name": "Zeros", "config": {}}, "units": 100, "activation": "relu", "bias_regularizer": null, "kernel_constraint": null, "name": "C2_1", "bias_constraint": null, "kernel_regularizer": {"class_name": "L1L2", "config": {"l2": 0.0001500000071246177, "l1": 0.0}}, "kernel_initializer": {"class_name": "VarianceScaling", "config": {"seed": 3014, "mode": "fan_avg", "distribution": "normal", "scale": 1.0}}, "activity_regularizer": null}}, {"class_name": "Dense", "name": "C3_1", "inbound_nodes": [[["C3_0", 0, 0, {}]]], "config": {"trainable": true, "use_bias": true, "bias_initializer": {"class_name": "Zeros", "config": {}}, "units": 100, "activation": "relu", "bias_regularizer": null, "kernel_constraint": null, "name": "C3_1", "bias_constraint": null, "kernel_regularizer": {"class_name": "L1L2", "config": {"l2": 0.0001500000071246177, "l1": 0.0}}, "kernel_initializer": {"class_name": "VarianceScaling", "config": {"seed": 3014, "mode": "fan_avg", "distribution": "normal", "scale": 1.0}}, "activity_regularizer": null}}, {"class_name": "Dense", "name": "C4_1", "inbound_nodes": [[["C4_0", 0, 0, {}]]], "config": {"trainable": true, "use_bias": true, "bias_initializer": {"class_name": "Zeros", "config": {}}, "units": 100, "activation": "relu", "bias_regularizer": null, "kernel_constraint": null, "name": "C4_1", "bias_constraint": null, "kernel_regularizer": {"class_name": "L1L2", "config": {"l2": 0.0001500000071246177, "l1": 0.0}}, "kernel_initializer": {"class_name": "VarianceScaling", "config": {"seed": 3014, "mode": "fan_avg", "distribution": "normal", "scale": 1.0}}, "activity_regularizer": null}}, {"class_name": "Dense", "name": "B1_1", "inbound_nodes": [[["B1_0", 0, 0, {}]]], "config": {"trainable": true, "use_bias": true, "bias_initializer": {"class_name": "Zeros", "config": {}}, "units": 100, "activation": "relu", "bias_regularizer": null, "kernel_constraint": null, "name": "B1_1", "bias_constraint": null, "kernel_regularizer": {"class_name": "L1L2", "config": {"l2": 0.0001500000071246177, "l1": 0.0}}, "kernel_initializer": {"class_name": "VarianceScaling", "config": {"seed": 3014, "mode": "fan_avg", "distribution": "normal", "scale": 1.0}}, "activity_regularizer": null}}, {"class_name": "Dense", "name": "B3_1", "inbound_nodes": [[["B3_0", 0, 0, {}]]], "config": {"trainable": true, "use_bias": true, "bias_initializer": {"class_name": "Zeros", "config": {}}, "units": 100, "activation": "relu", "bias_regularizer": null, "kernel_constraint": null, "name": "B3_1", "bias_constraint": null, "kernel_regularizer": {"class_name": "L1L2", "config": {"l2": 0.0001500000071246177, "l1": 0.0}}, "kernel_initializer": {"class_name": "VarianceScaling", "config": {"seed": 3014, "mode": "fan_avg", "distribution": "normal", "scale": 1.0}}, "activity_regularizer": null}}, {"class_name": "Dense", "name": "D1_1", "inbound_nodes": [[["D1_0", 0, 0, {}]]], "config": {"trainable": true, "use_bias": true, "bias_initializer": {"class_name": "Zeros", "config": {}}, "units": 100, "activation": "relu", "bias_regularizer": null, "kernel_constraint": null, "name": "D1_1", "bias_constraint": null, "kernel_regularizer": {"class_name": "L1L2", "config": {"l2": 0.0001500000071246177, "l1": 0.0}}, "kernel_initializer": {"class_name": "VarianceScaling", "config": {"seed": 3014, "mode": "fan_avg", "distribution": "normal", "scale": 1.0}}, "activity_regularizer": null}}, {"class_name": "InputLayer", "name": "OnOff_C1", "inbound_nodes": [], "config": {"dtype": "float32", "batch_input_shape": [null, 1], "sparse": false, "name": "OnOff_C1"}}, {"class_name": "Dense", "name": "C1_o", "inbound_nodes": [[["C1_1", 0, 0, {}]]], "config": {"trainable": true, "use_bias": true, "bias_initializer": {"class_name": "Zeros", "config": {}}, "units": 1, "activation": "relu", "bias_regularizer": null, "kernel_constraint": null, "name": "C1_o", "bias_constraint": null, "kernel_regularizer": {"class_name": "L1L2", "config": {"l2": 0.0001500000071246177, "l1": 0.0}}, "kernel_initializer": {"class_name": "VarianceScaling", "config": {"seed": 3014, "mode": "fan_avg", "distribution": "normal", "scale": 1.0}}, "activity_regularizer": null}}, {"class_name": "InputLayer", "name": "OnOff_C2", "inbound_nodes": [], "config": {"dtype": "float32", "batch_input_shape": [null, 1], "sparse": false, "name": "OnOff_C2"}}, {"class_name": "Dense", "name": "C2_o", "inbound_nodes": [[["C2_1", 0, 0, {}]]], "config": {"trainable": true, "use_bias": true, "bias_initializer": {"class_name": "Zeros", "config": {}}, "units": 1, "activation": "relu", "bias_regularizer": null, "kernel_constraint": null, "name": "C2_o", "bias_constraint": null, "kernel_regularizer": {"class_name": "L1L2", "config": {"l2": 0.0001500000071246177, "l1": 0.0}}, "kernel_initializer": {"class_name": "VarianceScaling", "config": {"seed": 3014, "mode": "fan_avg", "distribution": "normal", "scale": 1.0}}, "activity_regularizer": null}}, {"class_name": "InputLayer", "name": "OnOff_C3", "inbound_nodes": [], "config": {"dtype": "float32", "batch_input_shape": [null, 1], "sparse": false, "name": "OnOff_C3"}}, {"class_name": "Dense", "name": "C3_o", "inbound_nodes": [[["C3_1", 0, 0, {}]]], "config": {"trainable": true, "use_bias": true, "bias_initializer": {"class_name": "Zeros", "config": {}}, "units": 1, "activation": "relu", "bias_regularizer": null, "kernel_constraint": null, "name": "C3_o", "bias_constraint": null, "kernel_regularizer": {"class_name": "L1L2", "config": {"l2": 0.0001500000071246177, "l1": 0.0}}, "kernel_initializer": {"class_name": "VarianceScaling", "config": {"seed": 3014, "mode": "fan_avg", "distribution": "normal", "scale": 1.0}}, "activity_regularizer": null}}, {"class_name": "InputLayer", "name": "OnOff_C4", "inbound_nodes": [], "config": {"dtype": "float32", "batch_input_shape": [null, 1], "sparse": false, "name": "OnOff_C4"}}, {"class_name": "Dense", "name": "C4_o", "inbound_nodes": [[["C4_1", 0, 0, {}]]], "config": {"trainable": true, "use_bias": true, "bias_initializer": {"class_name": "Zeros", "config": {}}, "units": 1, "activation": "relu", "bias_regularizer": null, "kernel_constraint": null, "name": "C4_o", "bias_constraint": null, "kernel_regularizer": {"class_name": "L1L2", "config": {"l2": 0.0001500000071246177, "l1": 0.0}}, "kernel_initializer": {"class_name": "VarianceScaling", "config": {"seed": 3014, "mode": "fan_avg", "distribution": "normal", "scale": 1.0}}, "activity_regularizer": null}}, {"class_name": "InputLayer", "name": "OnOff_B1", "inbound_nodes": [], "config": {"dtype": "float32", "batch_input_shape": [null, 1], "sparse": false, "name": "OnOff_B1"}}, {"class_name": "Dense", "name": "B1_o", "inbound_nodes": [[["B1_1", 0, 0, {}]]], "config": {"trainable": true, "use_bias": true, "bias_initializer": {"class_name": "Zeros", "config": {}}, "units": 1, "activation": "relu", "bias_regularizer": null, "kernel_constraint": null, "name": "B1_o", "bias_constraint": null, "kernel_regularizer": {"class_name": "L1L2", "config": {"l2": 0.0001500000071246177, "l1": 0.0}}, "kernel_initializer": {"class_name": "VarianceScaling", "config": {"seed": 3014, "mode": "fan_avg", "distribution": "normal", "scale": 1.0}}, "activity_regularizer": null}}, {"class_name": "InputLayer", "name": "OnOff_B3", "inbound_nodes": [], "config": {"dtype": "float32", "batch_input_shape": [null, 1], "sparse": false, "name": "OnOff_B3"}}, {"class_name": "Dense", "name": "B3_o", "inbound_nodes": [[["B3_1", 0, 0, {}]]], "config": {"trainable": true, "use_bias": true, "bias_initializer": {"class_name": "Zeros", "config": {}}, "units": 1, "activation": "relu", "bias_regularizer": null, "kernel_constraint": null, "name": "B3_o", "bias_constraint": null, "kernel_regularizer": {"class_name": "L1L2", "config": {"l2": 0.0001500000071246177, "l1": 0.0}}, "kernel_initializer": {"class_name": "VarianceScaling", "config": {"seed": 3014, "mode": "fan_avg", "distribution": "normal", "scale": 1.0}}, "activity_regularizer": null}}, {"class_name": "InputLayer", "name": "OnOff_D1", "inbound_nodes": [], "config": {"dtype": "float32", "batch_input_shape": [null, 1], "sparse": false, "name": "OnOff_D1"}}, {"class_name": "Dense", "name": "D1_o", "inbound_nodes": [[["D1_1", 0, 0, {}]]], "config": {"trainable": true, "use_bias": true, "bias_initializer": {"class_name": "Zeros", "config": {}}, "units": 1, "activation": "relu", "bias_regularizer": null, "kernel_constraint": null, "name": "D1_o", "bias_constraint": null, "kernel_regularizer": {"class_name": "L1L2", "config": {"l2": 0.0001500000071246177, "l1": 0.0}}, "kernel_initializer": {"class_name": "VarianceScaling", "config": {"seed": 3014, "mode": "fan_avg", "distribution": "normal", "scale": 1.0}}, "activity_regularizer": null}}, {"class_name": "Multiply", "name": "C1_out", "inbound_nodes": [[["OnOff_C1", 0, 0, {}], ["C1_o", 0, 0, {}]]], "config": {"name": "C1_out", "trainable": true}}, {"class_name": "Multiply", "name": "C2_out", "inbound_nodes": [[["OnOff_C2", 0, 0, {}], ["C2_o", 0, 0, {}]]], "config": {"name": "C2_out", "trainable": true}}, {"class_name": "Multiply", "name": "C3_out", "inbound_nodes": [[["OnOff_C3", 0, 0, {}], ["C3_o", 0, 0, {}]]], "config": {"name": "C3_out", "trainable": true}}, {"class_name": "Multiply", "name": "C4_out", "inbound_nodes": [[["OnOff_C4", 0, 0, {}], ["C4_o", 0, 0, {}]]], "config": {"name": "C4_out", "trainable": true}}, {"class_name": "Multiply", "name": "B1_out", "inbound_nodes": [[["OnOff_B1", 0, 0, {}], ["B1_o", 0, 0, {}]]], "config": {"name": "B1_out", "trainable": true}}, {"class_name": "Multiply", "name": "B3_out", "inbound_nodes": [[["OnOff_B3", 0, 0, {}], ["B3_o", 0, 0, {}]]], "config": {"name": "B3_out", "trainable": true}}, {"class_name": "Multiply", "name": "D1_out", "inbound_nodes": [[["OnOff_D1", 0, 0, {}], ["D1_o", 0, 0, {}]]], "config": {"name": "D1_out", "trainable": true}}, {"class_name": "Add", "name": "GJOA_TOTAL", "inbound_nodes": [[["C1_out", 0, 0, {}], ["C2_out", 0, 0, {}], ["C3_out", 0, 0, {}], ["C4_out", 0, 0, {}], ["B1_out", 0, 0, {}], ["B3_out", 0, 0, {}], ["D1_out", 0, 0, {}]]], "config": {"name": "GJOA_TOTAL", "trainable": true}}], "input_layers": [["C1", 0, 0], ["C2", 0, 0], ["C3", 0, 0], ["C4", 0, 0], ["B1", 0, 0], ["B3", 0, 0], ["D1", 0, 0], ["OnOff_C1", 0, 0], ["OnOff_C2", 0, 0], ["OnOff_C3", 0, 0], ["OnOff_C4", 0, 0], ["OnOff_B1", 0, 0], ["OnOff_B3", 0, 0], ["OnOff_D1", 0, 0]]}, "backend": "theano"}