{"backend": "theano", "class_name": "Model", "config": {"output_layers": [["F1_out", 0, 0], ["B2_out", 0, 0], ["D3_out", 0, 0], ["E1_out", 0, 0], ["GJOA_QGAS", 0, 0]], "layers": [{"name": "F1", "class_name": "InputLayer", "config": {"sparse": false, "dtype": "float32", "name": "F1", "batch_input_shape": [null, 4]}, "inbound_nodes": []}, {"name": "B2", "class_name": "InputLayer", "config": {"sparse": false, "dtype": "float32", "name": "B2", "batch_input_shape": [null, 4]}, "inbound_nodes": []}, {"name": "D3", "class_name": "InputLayer", "config": {"sparse": false, "dtype": "float32", "name": "D3", "batch_input_shape": [null, 4]}, "inbound_nodes": []}, {"name": "E1", "class_name": "InputLayer", "config": {"sparse": false, "dtype": "float32", "name": "E1", "batch_input_shape": [null, 4]}, "inbound_nodes": []}, {"name": "dense_169", "class_name": "Dense", "config": {"kernel_constraint": null, "bias_initializer": {"class_name": "Zeros", "config": {}}, "use_bias": true, "activation": "relu", "trainable": true, "bias_regularizer": null, "activity_regularizer": null, "bias_constraint": null, "kernel_initializer": {"class_name": "VarianceScaling", "config": {"scale": 1.0, "seed": 3014, "mode": "fan_avg", "distribution": "normal"}}, "name": "dense_169", "units": 60, "kernel_regularizer": {"class_name": "L1L2", "config": {"l1": 0.0, "l2": 9.999999747378752e-05}}}, "inbound_nodes": [[["F1", 0, 0, {}]]]}, {"name": "dense_172", "class_name": "Dense", "config": {"kernel_constraint": null, "bias_initializer": {"class_name": "Zeros", "config": {}}, "use_bias": true, "activation": "relu", "trainable": true, "bias_regularizer": null, "activity_regularizer": null, "bias_constraint": null, "kernel_initializer": {"class_name": "VarianceScaling", "config": {"scale": 1.0, "seed": 3014, "mode": "fan_avg", "distribution": "normal"}}, "name": "dense_172", "units": 60, "kernel_regularizer": {"class_name": "L1L2", "config": {"l1": 0.0, "l2": 9.999999747378752e-05}}}, "inbound_nodes": [[["B2", 0, 0, {}]]]}, {"name": "dense_175", "class_name": "Dense", "config": {"kernel_constraint": null, "bias_initializer": {"class_name": "Zeros", "config": {}}, "use_bias": true, "activation": "relu", "trainable": true, "bias_regularizer": null, "activity_regularizer": null, "bias_constraint": null, "kernel_initializer": {"class_name": "VarianceScaling", "config": {"scale": 1.0, "seed": 3014, "mode": "fan_avg", "distribution": "normal"}}, "name": "dense_175", "units": 60, "kernel_regularizer": {"class_name": "L1L2", "config": {"l1": 0.0, "l2": 9.999999747378752e-05}}}, "inbound_nodes": [[["D3", 0, 0, {}]]]}, {"name": "dense_178", "class_name": "Dense", "config": {"kernel_constraint": null, "bias_initializer": {"class_name": "Zeros", "config": {}}, "use_bias": true, "activation": "relu", "trainable": true, "bias_regularizer": null, "activity_regularizer": null, "bias_constraint": null, "kernel_initializer": {"class_name": "VarianceScaling", "config": {"scale": 1.0, "seed": 3014, "mode": "fan_avg", "distribution": "normal"}}, "name": "dense_178", "units": 60, "kernel_regularizer": {"class_name": "L1L2", "config": {"l1": 0.0, "l2": 9.999999747378752e-05}}}, "inbound_nodes": [[["E1", 0, 0, {}]]]}, {"name": "dense_170", "class_name": "Dense", "config": {"kernel_constraint": null, "bias_initializer": {"class_name": "Zeros", "config": {}}, "use_bias": true, "activation": "relu", "trainable": true, "bias_regularizer": null, "activity_regularizer": null, "bias_constraint": null, "kernel_initializer": {"class_name": "VarianceScaling", "config": {"scale": 1.0, "seed": 3014, "mode": "fan_avg", "distribution": "normal"}}, "name": "dense_170", "units": 60, "kernel_regularizer": {"class_name": "L1L2", "config": {"l1": 0.0, "l2": 9.999999747378752e-05}}}, "inbound_nodes": [[["dense_169", 0, 0, {}]]]}, {"name": "dense_173", "class_name": "Dense", "config": {"kernel_constraint": null, "bias_initializer": {"class_name": "Zeros", "config": {}}, "use_bias": true, "activation": "relu", "trainable": true, "bias_regularizer": null, "activity_regularizer": null, "bias_constraint": null, "kernel_initializer": {"class_name": "VarianceScaling", "config": {"scale": 1.0, "seed": 3014, "mode": "fan_avg", "distribution": "normal"}}, "name": "dense_173", "units": 60, "kernel_regularizer": {"class_name": "L1L2", "config": {"l1": 0.0, "l2": 9.999999747378752e-05}}}, "inbound_nodes": [[["dense_172", 0, 0, {}]]]}, {"name": "dense_176", "class_name": "Dense", "config": {"kernel_constraint": null, "bias_initializer": {"class_name": "Zeros", "config": {}}, "use_bias": true, "activation": "relu", "trainable": true, "bias_regularizer": null, "activity_regularizer": null, "bias_constraint": null, "kernel_initializer": {"class_name": "VarianceScaling", "config": {"scale": 1.0, "seed": 3014, "mode": "fan_avg", "distribution": "normal"}}, "name": "dense_176", "units": 60, "kernel_regularizer": {"class_name": "L1L2", "config": {"l1": 0.0, "l2": 9.999999747378752e-05}}}, "inbound_nodes": [[["dense_175", 0, 0, {}]]]}, {"name": "dense_179", "class_name": "Dense", "config": {"kernel_constraint": null, "bias_initializer": {"class_name": "Zeros", "config": {}}, "use_bias": true, "activation": "relu", "trainable": true, "bias_regularizer": null, "activity_regularizer": null, "bias_constraint": null, "kernel_initializer": {"class_name": "VarianceScaling", "config": {"scale": 1.0, "seed": 3014, "mode": "fan_avg", "distribution": "normal"}}, "name": "dense_179", "units": 60, "kernel_regularizer": {"class_name": "L1L2", "config": {"l1": 0.0, "l2": 9.999999747378752e-05}}}, "inbound_nodes": [[["dense_178", 0, 0, {}]]]}, {"name": "OnOff_F1", "class_name": "InputLayer", "config": {"sparse": false, "dtype": "float32", "name": "OnOff_F1", "batch_input_shape": [null, 1]}, "inbound_nodes": []}, {"name": "dense_171", "class_name": "Dense", "config": {"kernel_constraint": null, "bias_initializer": {"class_name": "Zeros", "config": {}}, "use_bias": true, "activation": "relu", "trainable": true, "bias_regularizer": null, "activity_regularizer": null, "bias_constraint": null, "kernel_initializer": {"class_name": "VarianceScaling", "config": {"scale": 1.0, "seed": 3014, "mode": "fan_avg", "distribution": "normal"}}, "name": "dense_171", "units": 1, "kernel_regularizer": {"class_name": "L1L2", "config": {"l1": 0.0, "l2": 9.999999747378752e-05}}}, "inbound_nodes": [[["dense_170", 0, 0, {}]]]}, {"name": "OnOff_B2", "class_name": "InputLayer", "config": {"sparse": false, "dtype": "float32", "name": "OnOff_B2", "batch_input_shape": [null, 1]}, "inbound_nodes": []}, {"name": "dense_174", "class_name": "Dense", "config": {"kernel_constraint": null, "bias_initializer": {"class_name": "Zeros", "config": {}}, "use_bias": true, "activation": "relu", "trainable": true, "bias_regularizer": null, "activity_regularizer": null, "bias_constraint": null, "kernel_initializer": {"class_name": "VarianceScaling", "config": {"scale": 1.0, "seed": 3014, "mode": "fan_avg", "distribution": "normal"}}, "name": "dense_174", "units": 1, "kernel_regularizer": {"class_name": "L1L2", "config": {"l1": 0.0, "l2": 9.999999747378752e-05}}}, "inbound_nodes": [[["dense_173", 0, 0, {}]]]}, {"name": "OnOff_D3", "class_name": "InputLayer", "config": {"sparse": false, "dtype": "float32", "name": "OnOff_D3", "batch_input_shape": [null, 1]}, "inbound_nodes": []}, {"name": "dense_177", "class_name": "Dense", "config": {"kernel_constraint": null, "bias_initializer": {"class_name": "Zeros", "config": {}}, "use_bias": true, "activation": "relu", "trainable": true, "bias_regularizer": null, "activity_regularizer": null, "bias_constraint": null, "kernel_initializer": {"class_name": "VarianceScaling", "config": {"scale": 1.0, "seed": 3014, "mode": "fan_avg", "distribution": "normal"}}, "name": "dense_177", "units": 1, "kernel_regularizer": {"class_name": "L1L2", "config": {"l1": 0.0, "l2": 9.999999747378752e-05}}}, "inbound_nodes": [[["dense_176", 0, 0, {}]]]}, {"name": "OnOff_E1", "class_name": "InputLayer", "config": {"sparse": false, "dtype": "float32", "name": "OnOff_E1", "batch_input_shape": [null, 1]}, "inbound_nodes": []}, {"name": "dense_180", "class_name": "Dense", "config": {"kernel_constraint": null, "bias_initializer": {"class_name": "Zeros", "config": {}}, "use_bias": true, "activation": "relu", "trainable": true, "bias_regularizer": null, "activity_regularizer": null, "bias_constraint": null, "kernel_initializer": {"class_name": "VarianceScaling", "config": {"scale": 1.0, "seed": 3014, "mode": "fan_avg", "distribution": "normal"}}, "name": "dense_180", "units": 1, "kernel_regularizer": {"class_name": "L1L2", "config": {"l1": 0.0, "l2": 9.999999747378752e-05}}}, "inbound_nodes": [[["dense_179", 0, 0, {}]]]}, {"name": "F1_out", "class_name": "Multiply", "config": {"trainable": true, "name": "F1_out"}, "inbound_nodes": [[["OnOff_F1", 0, 0, {}], ["dense_171", 0, 0, {}]]]}, {"name": "B2_out", "class_name": "Multiply", "config": {"trainable": true, "name": "B2_out"}, "inbound_nodes": [[["OnOff_B2", 0, 0, {}], ["dense_174", 0, 0, {}]]]}, {"name": "D3_out", "class_name": "Multiply", "config": {"trainable": true, "name": "D3_out"}, "inbound_nodes": [[["OnOff_D3", 0, 0, {}], ["dense_177", 0, 0, {}]]]}, {"name": "E1_out", "class_name": "Multiply", "config": {"trainable": true, "name": "E1_out"}, "inbound_nodes": [[["OnOff_E1", 0, 0, {}], ["dense_180", 0, 0, {}]]]}, {"name": "GJOA_QGAS", "class_name": "Add", "config": {"trainable": true, "name": "GJOA_QGAS"}, "inbound_nodes": [[["F1_out", 0, 0, {}], ["B2_out", 0, 0, {}], ["D3_out", 0, 0, {}], ["E1_out", 0, 0, {}]]]}], "name": "model_15", "input_layers": [["F1", 0, 0], ["B2", 0, 0], ["D3", 0, 0], ["E1", 0, 0], ["OnOff_F1", 0, 0], ["OnOff_B2", 0, 0], ["OnOff_D3", 0, 0], ["OnOff_E1", 0, 0]]}, "keras_version": "2.0.1"}