{"class_name": "Model", "backend": "theano", "keras_version": "2.0.1", "config": {"name": "model_6", "input_layers": [["C1", 0, 0], ["C2", 0, 0], ["C3", 0, 0], ["C4", 0, 0], ["B1", 0, 0], ["B3", 0, 0], ["D1", 0, 0], ["OnOff_C1", 0, 0], ["OnOff_C2", 0, 0], ["OnOff_C3", 0, 0], ["OnOff_C4", 0, 0], ["OnOff_B1", 0, 0], ["OnOff_B3", 0, 0], ["OnOff_D1", 0, 0]], "layers": [{"class_name": "InputLayer", "name": "C1", "inbound_nodes": [], "config": {"name": "C1", "dtype": "float32", "batch_input_shape": [null, 4], "sparse": false}}, {"class_name": "InputLayer", "name": "C2", "inbound_nodes": [], "config": {"name": "C2", "dtype": "float32", "batch_input_shape": [null, 3], "sparse": false}}, {"class_name": "InputLayer", "name": "C3", "inbound_nodes": [], "config": {"name": "C3", "dtype": "float32", "batch_input_shape": [null, 4], "sparse": false}}, {"class_name": "InputLayer", "name": "C4", "inbound_nodes": [], "config": {"name": "C4", "dtype": "float32", "batch_input_shape": [null, 4], "sparse": false}}, {"class_name": "InputLayer", "name": "B1", "inbound_nodes": [], "config": {"name": "B1", "dtype": "float32", "batch_input_shape": [null, 4], "sparse": false}}, {"class_name": "InputLayer", "name": "B3", "inbound_nodes": [], "config": {"name": "B3", "dtype": "float32", "batch_input_shape": [null, 4], "sparse": false}}, {"class_name": "InputLayer", "name": "D1", "inbound_nodes": [], "config": {"name": "D1", "dtype": "float32", "batch_input_shape": [null, 3], "sparse": false}}, {"class_name": "Dense", "name": "dense_176", "inbound_nodes": [[["C1", 0, 0, {}]]], "config": {"use_bias": true, "activity_regularizer": null, "bias_initializer": {"class_name": "Zeros", "config": {}}, "bias_constraint": null, "name": "dense_176", "units": 50, "kernel_constraint": null, "activation": "relu", "kernel_regularizer": {"class_name": "L1L2", "config": {"l1": 0.0, "l2": 9.999999974752427e-07}}, "kernel_initializer": {"class_name": "VarianceScaling", "config": {"mode": "fan_avg", "scale": 1.0, "distribution": "normal", "seed": 7883}}, "trainable": true, "bias_regularizer": null}}, {"class_name": "Dense", "name": "dense_181", "inbound_nodes": [[["C2", 0, 0, {}]]], "config": {"use_bias": true, "activity_regularizer": null, "bias_initializer": {"class_name": "Zeros", "config": {}}, "bias_constraint": null, "name": "dense_181", "units": 50, "kernel_constraint": null, "activation": "relu", "kernel_regularizer": {"class_name": "L1L2", "config": {"l1": 0.0, "l2": 9.999999974752427e-07}}, "kernel_initializer": {"class_name": "VarianceScaling", "config": {"mode": "fan_avg", "scale": 1.0, "distribution": "normal", "seed": 7883}}, "trainable": true, "bias_regularizer": null}}, {"class_name": "Dense", "name": "dense_186", "inbound_nodes": [[["C3", 0, 0, {}]]], "config": {"use_bias": true, "activity_regularizer": null, "bias_initializer": {"class_name": "Zeros", "config": {}}, "bias_constraint": null, "name": "dense_186", "units": 50, "kernel_constraint": null, "activation": "relu", "kernel_regularizer": {"class_name": "L1L2", "config": {"l1": 0.0, "l2": 9.999999974752427e-07}}, "kernel_initializer": {"class_name": "VarianceScaling", "config": {"mode": "fan_avg", "scale": 1.0, "distribution": "normal", "seed": 7883}}, "trainable": true, "bias_regularizer": null}}, {"class_name": "Dense", "name": "dense_191", "inbound_nodes": [[["C4", 0, 0, {}]]], "config": {"use_bias": true, "activity_regularizer": null, "bias_initializer": {"class_name": "Zeros", "config": {}}, "bias_constraint": null, "name": "dense_191", "units": 50, "kernel_constraint": null, "activation": "relu", "kernel_regularizer": {"class_name": "L1L2", "config": {"l1": 0.0, "l2": 9.999999974752427e-07}}, "kernel_initializer": {"class_name": "VarianceScaling", "config": {"mode": "fan_avg", "scale": 1.0, "distribution": "normal", "seed": 7883}}, "trainable": true, "bias_regularizer": null}}, {"class_name": "Dense", "name": "dense_196", "inbound_nodes": [[["B1", 0, 0, {}]]], "config": {"use_bias": true, "activity_regularizer": null, "bias_initializer": {"class_name": "Zeros", "config": {}}, "bias_constraint": null, "name": "dense_196", "units": 50, "kernel_constraint": null, "activation": "relu", "kernel_regularizer": {"class_name": "L1L2", "config": {"l1": 0.0, "l2": 9.999999974752427e-07}}, "kernel_initializer": {"class_name": "VarianceScaling", "config": {"mode": "fan_avg", "scale": 1.0, "distribution": "normal", "seed": 7883}}, "trainable": true, "bias_regularizer": null}}, {"class_name": "Dense", "name": "dense_201", "inbound_nodes": [[["B3", 0, 0, {}]]], "config": {"use_bias": true, "activity_regularizer": null, "bias_initializer": {"class_name": "Zeros", "config": {}}, "bias_constraint": null, "name": "dense_201", "units": 50, "kernel_constraint": null, "activation": "relu", "kernel_regularizer": {"class_name": "L1L2", "config": {"l1": 0.0, "l2": 9.999999974752427e-07}}, "kernel_initializer": {"class_name": "VarianceScaling", "config": {"mode": "fan_avg", "scale": 1.0, "distribution": "normal", "seed": 7883}}, "trainable": true, "bias_regularizer": null}}, {"class_name": "Dense", "name": "dense_206", "inbound_nodes": [[["D1", 0, 0, {}]]], "config": {"use_bias": true, "activity_regularizer": null, "bias_initializer": {"class_name": "Zeros", "config": {}}, "bias_constraint": null, "name": "dense_206", "units": 50, "kernel_constraint": null, "activation": "relu", "kernel_regularizer": {"class_name": "L1L2", "config": {"l1": 0.0, "l2": 9.999999974752427e-07}}, "kernel_initializer": {"class_name": "VarianceScaling", "config": {"mode": "fan_avg", "scale": 1.0, "distribution": "normal", "seed": 7883}}, "trainable": true, "bias_regularizer": null}}, {"class_name": "Dense", "name": "dense_177", "inbound_nodes": [[["dense_176", 0, 0, {}]]], "config": {"use_bias": true, "activity_regularizer": null, "bias_initializer": {"class_name": "Zeros", "config": {}}, "bias_constraint": null, "name": "dense_177", "units": 50, "kernel_constraint": null, "activation": "relu", "kernel_regularizer": {"class_name": "L1L2", "config": {"l1": 0.0, "l2": 9.999999974752427e-07}}, "kernel_initializer": {"class_name": "VarianceScaling", "config": {"mode": "fan_avg", "scale": 1.0, "distribution": "normal", "seed": 7883}}, "trainable": true, "bias_regularizer": null}}, {"class_name": "Dense", "name": "dense_182", "inbound_nodes": [[["dense_181", 0, 0, {}]]], "config": {"use_bias": true, "activity_regularizer": null, "bias_initializer": {"class_name": "Zeros", "config": {}}, "bias_constraint": null, "name": "dense_182", "units": 50, "kernel_constraint": null, "activation": "relu", "kernel_regularizer": {"class_name": "L1L2", "config": {"l1": 0.0, "l2": 9.999999974752427e-07}}, "kernel_initializer": {"class_name": "VarianceScaling", "config": {"mode": "fan_avg", "scale": 1.0, "distribution": "normal", "seed": 7883}}, "trainable": true, "bias_regularizer": null}}, {"class_name": "Dense", "name": "dense_187", "inbound_nodes": [[["dense_186", 0, 0, {}]]], "config": {"use_bias": true, "activity_regularizer": null, "bias_initializer": {"class_name": "Zeros", "config": {}}, "bias_constraint": null, "name": "dense_187", "units": 50, "kernel_constraint": null, "activation": "relu", "kernel_regularizer": {"class_name": "L1L2", "config": {"l1": 0.0, "l2": 9.999999974752427e-07}}, "kernel_initializer": {"class_name": "VarianceScaling", "config": {"mode": "fan_avg", "scale": 1.0, "distribution": "normal", "seed": 7883}}, "trainable": true, "bias_regularizer": null}}, {"class_name": "Dense", "name": "dense_192", "inbound_nodes": [[["dense_191", 0, 0, {}]]], "config": {"use_bias": true, "activity_regularizer": null, "bias_initializer": {"class_name": "Zeros", "config": {}}, "bias_constraint": null, "name": "dense_192", "units": 50, "kernel_constraint": null, "activation": "relu", "kernel_regularizer": {"class_name": "L1L2", "config": {"l1": 0.0, "l2": 9.999999974752427e-07}}, "kernel_initializer": {"class_name": "VarianceScaling", "config": {"mode": "fan_avg", "scale": 1.0, "distribution": "normal", "seed": 7883}}, "trainable": true, "bias_regularizer": null}}, {"class_name": "Dense", "name": "dense_197", "inbound_nodes": [[["dense_196", 0, 0, {}]]], "config": {"use_bias": true, "activity_regularizer": null, "bias_initializer": {"class_name": "Zeros", "config": {}}, "bias_constraint": null, "name": "dense_197", "units": 50, "kernel_constraint": null, "activation": "relu", "kernel_regularizer": {"class_name": "L1L2", "config": {"l1": 0.0, "l2": 9.999999974752427e-07}}, "kernel_initializer": {"class_name": "VarianceScaling", "config": {"mode": "fan_avg", "scale": 1.0, "distribution": "normal", "seed": 7883}}, "trainable": true, "bias_regularizer": null}}, {"class_name": "Dense", "name": "dense_202", "inbound_nodes": [[["dense_201", 0, 0, {}]]], "config": {"use_bias": true, "activity_regularizer": null, "bias_initializer": {"class_name": "Zeros", "config": {}}, "bias_constraint": null, "name": "dense_202", "units": 50, "kernel_constraint": null, "activation": "relu", "kernel_regularizer": {"class_name": "L1L2", "config": {"l1": 0.0, "l2": 9.999999974752427e-07}}, "kernel_initializer": {"class_name": "VarianceScaling", "config": {"mode": "fan_avg", "scale": 1.0, "distribution": "normal", "seed": 7883}}, "trainable": true, "bias_regularizer": null}}, {"class_name": "Dense", "name": "dense_207", "inbound_nodes": [[["dense_206", 0, 0, {}]]], "config": {"use_bias": true, "activity_regularizer": null, "bias_initializer": {"class_name": "Zeros", "config": {}}, "bias_constraint": null, "name": "dense_207", "units": 50, "kernel_constraint": null, "activation": "relu", "kernel_regularizer": {"class_name": "L1L2", "config": {"l1": 0.0, "l2": 9.999999974752427e-07}}, "kernel_initializer": {"class_name": "VarianceScaling", "config": {"mode": "fan_avg", "scale": 1.0, "distribution": "normal", "seed": 7883}}, "trainable": true, "bias_regularizer": null}}, {"class_name": "Dense", "name": "dense_178", "inbound_nodes": [[["dense_177", 0, 0, {}]]], "config": {"use_bias": true, "activity_regularizer": null, "bias_initializer": {"class_name": "Zeros", "config": {}}, "bias_constraint": null, "name": "dense_178", "units": 50, "kernel_constraint": null, "activation": "relu", "kernel_regularizer": {"class_name": "L1L2", "config": {"l1": 0.0, "l2": 9.999999974752427e-07}}, "kernel_initializer": {"class_name": "VarianceScaling", "config": {"mode": "fan_avg", "scale": 1.0, "distribution": "normal", "seed": 7883}}, "trainable": true, "bias_regularizer": null}}, {"class_name": "Dense", "name": "dense_183", "inbound_nodes": [[["dense_182", 0, 0, {}]]], "config": {"use_bias": true, "activity_regularizer": null, "bias_initializer": {"class_name": "Zeros", "config": {}}, "bias_constraint": null, "name": "dense_183", "units": 50, "kernel_constraint": null, "activation": "relu", "kernel_regularizer": {"class_name": "L1L2", "config": {"l1": 0.0, "l2": 9.999999974752427e-07}}, "kernel_initializer": {"class_name": "VarianceScaling", "config": {"mode": "fan_avg", "scale": 1.0, "distribution": "normal", "seed": 7883}}, "trainable": true, "bias_regularizer": null}}, {"class_name": "Dense", "name": "dense_188", "inbound_nodes": [[["dense_187", 0, 0, {}]]], "config": {"use_bias": true, "activity_regularizer": null, "bias_initializer": {"class_name": "Zeros", "config": {}}, "bias_constraint": null, "name": "dense_188", "units": 50, "kernel_constraint": null, "activation": "relu", "kernel_regularizer": {"class_name": "L1L2", "config": {"l1": 0.0, "l2": 9.999999974752427e-07}}, "kernel_initializer": {"class_name": "VarianceScaling", "config": {"mode": "fan_avg", "scale": 1.0, "distribution": "normal", "seed": 7883}}, "trainable": true, "bias_regularizer": null}}, {"class_name": "Dense", "name": "dense_193", "inbound_nodes": [[["dense_192", 0, 0, {}]]], "config": {"use_bias": true, "activity_regularizer": null, "bias_initializer": {"class_name": "Zeros", "config": {}}, "bias_constraint": null, "name": "dense_193", "units": 50, "kernel_constraint": null, "activation": "relu", "kernel_regularizer": {"class_name": "L1L2", "config": {"l1": 0.0, "l2": 9.999999974752427e-07}}, "kernel_initializer": {"class_name": "VarianceScaling", "config": {"mode": "fan_avg", "scale": 1.0, "distribution": "normal", "seed": 7883}}, "trainable": true, "bias_regularizer": null}}, {"class_name": "Dense", "name": "dense_198", "inbound_nodes": [[["dense_197", 0, 0, {}]]], "config": {"use_bias": true, "activity_regularizer": null, "bias_initializer": {"class_name": "Zeros", "config": {}}, "bias_constraint": null, "name": "dense_198", "units": 50, "kernel_constraint": null, "activation": "relu", "kernel_regularizer": {"class_name": "L1L2", "config": {"l1": 0.0, "l2": 9.999999974752427e-07}}, "kernel_initializer": {"class_name": "VarianceScaling", "config": {"mode": "fan_avg", "scale": 1.0, "distribution": "normal", "seed": 7883}}, "trainable": true, "bias_regularizer": null}}, {"class_name": "Dense", "name": "dense_203", "inbound_nodes": [[["dense_202", 0, 0, {}]]], "config": {"use_bias": true, "activity_regularizer": null, "bias_initializer": {"class_name": "Zeros", "config": {}}, "bias_constraint": null, "name": "dense_203", "units": 50, "kernel_constraint": null, "activation": "relu", "kernel_regularizer": {"class_name": "L1L2", "config": {"l1": 0.0, "l2": 9.999999974752427e-07}}, "kernel_initializer": {"class_name": "VarianceScaling", "config": {"mode": "fan_avg", "scale": 1.0, "distribution": "normal", "seed": 7883}}, "trainable": true, "bias_regularizer": null}}, {"class_name": "Dense", "name": "dense_208", "inbound_nodes": [[["dense_207", 0, 0, {}]]], "config": {"use_bias": true, "activity_regularizer": null, "bias_initializer": {"class_name": "Zeros", "config": {}}, "bias_constraint": null, "name": "dense_208", "units": 50, "kernel_constraint": null, "activation": "relu", "kernel_regularizer": {"class_name": "L1L2", "config": {"l1": 0.0, "l2": 9.999999974752427e-07}}, "kernel_initializer": {"class_name": "VarianceScaling", "config": {"mode": "fan_avg", "scale": 1.0, "distribution": "normal", "seed": 7883}}, "trainable": true, "bias_regularizer": null}}, {"class_name": "Dense", "name": "dense_179", "inbound_nodes": [[["dense_178", 0, 0, {}]]], "config": {"use_bias": true, "activity_regularizer": null, "bias_initializer": {"class_name": "Zeros", "config": {}}, "bias_constraint": null, "name": "dense_179", "units": 50, "kernel_constraint": null, "activation": "relu", "kernel_regularizer": {"class_name": "L1L2", "config": {"l1": 0.0, "l2": 9.999999974752427e-07}}, "kernel_initializer": {"class_name": "VarianceScaling", "config": {"mode": "fan_avg", "scale": 1.0, "distribution": "normal", "seed": 7883}}, "trainable": true, "bias_regularizer": null}}, {"class_name": "Dense", "name": "dense_184", "inbound_nodes": [[["dense_183", 0, 0, {}]]], "config": {"use_bias": true, "activity_regularizer": null, "bias_initializer": {"class_name": "Zeros", "config": {}}, "bias_constraint": null, "name": "dense_184", "units": 50, "kernel_constraint": null, "activation": "relu", "kernel_regularizer": {"class_name": "L1L2", "config": {"l1": 0.0, "l2": 9.999999974752427e-07}}, "kernel_initializer": {"class_name": "VarianceScaling", "config": {"mode": "fan_avg", "scale": 1.0, "distribution": "normal", "seed": 7883}}, "trainable": true, "bias_regularizer": null}}, {"class_name": "Dense", "name": "dense_189", "inbound_nodes": [[["dense_188", 0, 0, {}]]], "config": {"use_bias": true, "activity_regularizer": null, "bias_initializer": {"class_name": "Zeros", "config": {}}, "bias_constraint": null, "name": "dense_189", "units": 50, "kernel_constraint": null, "activation": "relu", "kernel_regularizer": {"class_name": "L1L2", "config": {"l1": 0.0, "l2": 9.999999974752427e-07}}, "kernel_initializer": {"class_name": "VarianceScaling", "config": {"mode": "fan_avg", "scale": 1.0, "distribution": "normal", "seed": 7883}}, "trainable": true, "bias_regularizer": null}}, {"class_name": "Dense", "name": "dense_194", "inbound_nodes": [[["dense_193", 0, 0, {}]]], "config": {"use_bias": true, "activity_regularizer": null, "bias_initializer": {"class_name": "Zeros", "config": {}}, "bias_constraint": null, "name": "dense_194", "units": 50, "kernel_constraint": null, "activation": "relu", "kernel_regularizer": {"class_name": "L1L2", "config": {"l1": 0.0, "l2": 9.999999974752427e-07}}, "kernel_initializer": {"class_name": "VarianceScaling", "config": {"mode": "fan_avg", "scale": 1.0, "distribution": "normal", "seed": 7883}}, "trainable": true, "bias_regularizer": null}}, {"class_name": "Dense", "name": "dense_199", "inbound_nodes": [[["dense_198", 0, 0, {}]]], "config": {"use_bias": true, "activity_regularizer": null, "bias_initializer": {"class_name": "Zeros", "config": {}}, "bias_constraint": null, "name": "dense_199", "units": 50, "kernel_constraint": null, "activation": "relu", "kernel_regularizer": {"class_name": "L1L2", "config": {"l1": 0.0, "l2": 9.999999974752427e-07}}, "kernel_initializer": {"class_name": "VarianceScaling", "config": {"mode": "fan_avg", "scale": 1.0, "distribution": "normal", "seed": 7883}}, "trainable": true, "bias_regularizer": null}}, {"class_name": "Dense", "name": "dense_204", "inbound_nodes": [[["dense_203", 0, 0, {}]]], "config": {"use_bias": true, "activity_regularizer": null, "bias_initializer": {"class_name": "Zeros", "config": {}}, "bias_constraint": null, "name": "dense_204", "units": 50, "kernel_constraint": null, "activation": "relu", "kernel_regularizer": {"class_name": "L1L2", "config": {"l1": 0.0, "l2": 9.999999974752427e-07}}, "kernel_initializer": {"class_name": "VarianceScaling", "config": {"mode": "fan_avg", "scale": 1.0, "distribution": "normal", "seed": 7883}}, "trainable": true, "bias_regularizer": null}}, {"class_name": "Dense", "name": "dense_209", "inbound_nodes": [[["dense_208", 0, 0, {}]]], "config": {"use_bias": true, "activity_regularizer": null, "bias_initializer": {"class_name": "Zeros", "config": {}}, "bias_constraint": null, "name": "dense_209", "units": 50, "kernel_constraint": null, "activation": "relu", "kernel_regularizer": {"class_name": "L1L2", "config": {"l1": 0.0, "l2": 9.999999974752427e-07}}, "kernel_initializer": {"class_name": "VarianceScaling", "config": {"mode": "fan_avg", "scale": 1.0, "distribution": "normal", "seed": 7883}}, "trainable": true, "bias_regularizer": null}}, {"class_name": "InputLayer", "name": "OnOff_C1", "inbound_nodes": [], "config": {"name": "OnOff_C1", "dtype": "float32", "batch_input_shape": [null, 1], "sparse": false}}, {"class_name": "Dense", "name": "dense_180", "inbound_nodes": [[["dense_179", 0, 0, {}]]], "config": {"use_bias": true, "activity_regularizer": null, "bias_initializer": {"class_name": "Zeros", "config": {}}, "bias_constraint": null, "name": "dense_180", "units": 1, "kernel_constraint": null, "activation": "relu", "kernel_regularizer": {"class_name": "L1L2", "config": {"l1": 0.0, "l2": 9.999999974752427e-07}}, "kernel_initializer": {"class_name": "VarianceScaling", "config": {"mode": "fan_avg", "scale": 1.0, "distribution": "normal", "seed": 7883}}, "trainable": true, "bias_regularizer": null}}, {"class_name": "InputLayer", "name": "OnOff_C2", "inbound_nodes": [], "config": {"name": "OnOff_C2", "dtype": "float32", "batch_input_shape": [null, 1], "sparse": false}}, {"class_name": "Dense", "name": "dense_185", "inbound_nodes": [[["dense_184", 0, 0, {}]]], "config": {"use_bias": true, "activity_regularizer": null, "bias_initializer": {"class_name": "Zeros", "config": {}}, "bias_constraint": null, "name": "dense_185", "units": 1, "kernel_constraint": null, "activation": "relu", "kernel_regularizer": {"class_name": "L1L2", "config": {"l1": 0.0, "l2": 9.999999974752427e-07}}, "kernel_initializer": {"class_name": "VarianceScaling", "config": {"mode": "fan_avg", "scale": 1.0, "distribution": "normal", "seed": 7883}}, "trainable": true, "bias_regularizer": null}}, {"class_name": "InputLayer", "name": "OnOff_C3", "inbound_nodes": [], "config": {"name": "OnOff_C3", "dtype": "float32", "batch_input_shape": [null, 1], "sparse": false}}, {"class_name": "Dense", "name": "dense_190", "inbound_nodes": [[["dense_189", 0, 0, {}]]], "config": {"use_bias": true, "activity_regularizer": null, "bias_initializer": {"class_name": "Zeros", "config": {}}, "bias_constraint": null, "name": "dense_190", "units": 1, "kernel_constraint": null, "activation": "relu", "kernel_regularizer": {"class_name": "L1L2", "config": {"l1": 0.0, "l2": 9.999999974752427e-07}}, "kernel_initializer": {"class_name": "VarianceScaling", "config": {"mode": "fan_avg", "scale": 1.0, "distribution": "normal", "seed": 7883}}, "trainable": true, "bias_regularizer": null}}, {"class_name": "InputLayer", "name": "OnOff_C4", "inbound_nodes": [], "config": {"name": "OnOff_C4", "dtype": "float32", "batch_input_shape": [null, 1], "sparse": false}}, {"class_name": "Dense", "name": "dense_195", "inbound_nodes": [[["dense_194", 0, 0, {}]]], "config": {"use_bias": true, "activity_regularizer": null, "bias_initializer": {"class_name": "Zeros", "config": {}}, "bias_constraint": null, "name": "dense_195", "units": 1, "kernel_constraint": null, "activation": "relu", "kernel_regularizer": {"class_name": "L1L2", "config": {"l1": 0.0, "l2": 9.999999974752427e-07}}, "kernel_initializer": {"class_name": "VarianceScaling", "config": {"mode": "fan_avg", "scale": 1.0, "distribution": "normal", "seed": 7883}}, "trainable": true, "bias_regularizer": null}}, {"class_name": "InputLayer", "name": "OnOff_B1", "inbound_nodes": [], "config": {"name": "OnOff_B1", "dtype": "float32", "batch_input_shape": [null, 1], "sparse": false}}, {"class_name": "Dense", "name": "dense_200", "inbound_nodes": [[["dense_199", 0, 0, {}]]], "config": {"use_bias": true, "activity_regularizer": null, "bias_initializer": {"class_name": "Zeros", "config": {}}, "bias_constraint": null, "name": "dense_200", "units": 1, "kernel_constraint": null, "activation": "relu", "kernel_regularizer": {"class_name": "L1L2", "config": {"l1": 0.0, "l2": 9.999999974752427e-07}}, "kernel_initializer": {"class_name": "VarianceScaling", "config": {"mode": "fan_avg", "scale": 1.0, "distribution": "normal", "seed": 7883}}, "trainable": true, "bias_regularizer": null}}, {"class_name": "InputLayer", "name": "OnOff_B3", "inbound_nodes": [], "config": {"name": "OnOff_B3", "dtype": "float32", "batch_input_shape": [null, 1], "sparse": false}}, {"class_name": "Dense", "name": "dense_205", "inbound_nodes": [[["dense_204", 0, 0, {}]]], "config": {"use_bias": true, "activity_regularizer": null, "bias_initializer": {"class_name": "Zeros", "config": {}}, "bias_constraint": null, "name": "dense_205", "units": 1, "kernel_constraint": null, "activation": "relu", "kernel_regularizer": {"class_name": "L1L2", "config": {"l1": 0.0, "l2": 9.999999974752427e-07}}, "kernel_initializer": {"class_name": "VarianceScaling", "config": {"mode": "fan_avg", "scale": 1.0, "distribution": "normal", "seed": 7883}}, "trainable": true, "bias_regularizer": null}}, {"class_name": "InputLayer", "name": "OnOff_D1", "inbound_nodes": [], "config": {"name": "OnOff_D1", "dtype": "float32", "batch_input_shape": [null, 1], "sparse": false}}, {"class_name": "Dense", "name": "dense_210", "inbound_nodes": [[["dense_209", 0, 0, {}]]], "config": {"use_bias": true, "activity_regularizer": null, "bias_initializer": {"class_name": "Zeros", "config": {}}, "bias_constraint": null, "name": "dense_210", "units": 1, "kernel_constraint": null, "activation": "relu", "kernel_regularizer": {"class_name": "L1L2", "config": {"l1": 0.0, "l2": 9.999999974752427e-07}}, "kernel_initializer": {"class_name": "VarianceScaling", "config": {"mode": "fan_avg", "scale": 1.0, "distribution": "normal", "seed": 7883}}, "trainable": true, "bias_regularizer": null}}, {"class_name": "Multiply", "name": "C1_out", "inbound_nodes": [[["OnOff_C1", 0, 0, {}], ["dense_180", 0, 0, {}]]], "config": {"name": "C1_out", "trainable": true}}, {"class_name": "Multiply", "name": "C2_out", "inbound_nodes": [[["OnOff_C2", 0, 0, {}], ["dense_185", 0, 0, {}]]], "config": {"name": "C2_out", "trainable": true}}, {"class_name": "Multiply", "name": "C3_out", "inbound_nodes": [[["OnOff_C3", 0, 0, {}], ["dense_190", 0, 0, {}]]], "config": {"name": "C3_out", "trainable": true}}, {"class_name": "Multiply", "name": "C4_out", "inbound_nodes": [[["OnOff_C4", 0, 0, {}], ["dense_195", 0, 0, {}]]], "config": {"name": "C4_out", "trainable": true}}, {"class_name": "Multiply", "name": "B1_out", "inbound_nodes": [[["OnOff_B1", 0, 0, {}], ["dense_200", 0, 0, {}]]], "config": {"name": "B1_out", "trainable": true}}, {"class_name": "Multiply", "name": "B3_out", "inbound_nodes": [[["OnOff_B3", 0, 0, {}], ["dense_205", 0, 0, {}]]], "config": {"name": "B3_out", "trainable": true}}, {"class_name": "Multiply", "name": "D1_out", "inbound_nodes": [[["OnOff_D1", 0, 0, {}], ["dense_210", 0, 0, {}]]], "config": {"name": "D1_out", "trainable": true}}, {"class_name": "Add", "name": "GJOA_TOTAL", "inbound_nodes": [[["C1_out", 0, 0, {}], ["C2_out", 0, 0, {}], ["C3_out", 0, 0, {}], ["C4_out", 0, 0, {}], ["B1_out", 0, 0, {}], ["B3_out", 0, 0, {}], ["D1_out", 0, 0, {}]]], "config": {"name": "GJOA_TOTAL", "trainable": true}}], "output_layers": [["C1_out", 0, 0], ["C2_out", 0, 0], ["C3_out", 0, 0], ["C4_out", 0, 0], ["B1_out", 0, 0], ["B3_out", 0, 0], ["D1_out", 0, 0], ["GJOA_TOTAL", 0, 0]]}}