{"config": {"output_layers": [["C1_out", 0, 0], ["C2_out", 0, 0], ["C3_out", 0, 0], ["C4_out", 0, 0], ["B1_out", 0, 0], ["B3_out", 0, 0], ["D1_out", 0, 0], ["GJOA_TOTAL", 0, 0]], "input_layers": [["C1", 0, 0], ["C2", 0, 0], ["C3", 0, 0], ["C4", 0, 0], ["B1", 0, 0], ["B3", 0, 0], ["D1", 0, 0], ["OnOff_C1", 0, 0], ["OnOff_C2", 0, 0], ["OnOff_C3", 0, 0], ["OnOff_C4", 0, 0], ["OnOff_B1", 0, 0], ["OnOff_B3", 0, 0], ["OnOff_D1", 0, 0]], "name": "model_10", "layers": [{"config": {"batch_input_shape": [null, 4], "name": "C1", "sparse": false, "dtype": "float32"}, "inbound_nodes": [], "name": "C1", "class_name": "InputLayer"}, {"config": {"batch_input_shape": [null, 3], "name": "C2", "sparse": false, "dtype": "float32"}, "inbound_nodes": [], "name": "C2", "class_name": "InputLayer"}, {"config": {"batch_input_shape": [null, 4], "name": "C3", "sparse": false, "dtype": "float32"}, "inbound_nodes": [], "name": "C3", "class_name": "InputLayer"}, {"config": {"batch_input_shape": [null, 4], "name": "C4", "sparse": false, "dtype": "float32"}, "inbound_nodes": [], "name": "C4", "class_name": "InputLayer"}, {"config": {"batch_input_shape": [null, 4], "name": "B1", "sparse": false, "dtype": "float32"}, "inbound_nodes": [], "name": "B1", "class_name": "InputLayer"}, {"config": {"batch_input_shape": [null, 4], "name": "B3", "sparse": false, "dtype": "float32"}, "inbound_nodes": [], "name": "B3", "class_name": "InputLayer"}, {"config": {"batch_input_shape": [null, 3], "name": "D1", "sparse": false, "dtype": "float32"}, "inbound_nodes": [], "name": "D1", "class_name": "InputLayer"}, {"config": {"bias_regularizer": null, "bias_initializer": {"config": {}, "class_name": "Zeros"}, "activity_regularizer": null, "kernel_initializer": {"config": {"seed": 3014, "distribution": "normal", "scale": 1.0, "mode": "fan_avg"}, "class_name": "VarianceScaling"}, "bias_constraint": null, "trainable": true, "kernel_constraint": null, "name": "C1_0", "units": 80, "use_bias": true, "activation": "relu", "kernel_regularizer": {"config": {"l1": 0.0, "l2": 0.0003000000142492354}, "class_name": "L1L2"}}, "inbound_nodes": [[["C1", 0, 0, {}]]], "name": "C1_0", "class_name": "Dense"}, {"config": {"bias_regularizer": null, "bias_initializer": {"config": {}, "class_name": "Zeros"}, "activity_regularizer": null, "kernel_initializer": {"config": {"seed": 3014, "distribution": "normal", "scale": 1.0, "mode": "fan_avg"}, "class_name": "VarianceScaling"}, "bias_constraint": null, "trainable": true, "kernel_constraint": null, "name": "C2_0", "units": 80, "use_bias": true, "activation": "relu", "kernel_regularizer": {"config": {"l1": 0.0, "l2": 0.0003000000142492354}, "class_name": "L1L2"}}, "inbound_nodes": [[["C2", 0, 0, {}]]], "name": "C2_0", "class_name": "Dense"}, {"config": {"bias_regularizer": null, "bias_initializer": {"config": {}, "class_name": "Zeros"}, "activity_regularizer": null, "kernel_initializer": {"config": {"seed": 3014, "distribution": "normal", "scale": 1.0, "mode": "fan_avg"}, "class_name": "VarianceScaling"}, "bias_constraint": null, "trainable": true, "kernel_constraint": null, "name": "C3_0", "units": 80, "use_bias": true, "activation": "relu", "kernel_regularizer": {"config": {"l1": 0.0, "l2": 0.0003000000142492354}, "class_name": "L1L2"}}, "inbound_nodes": [[["C3", 0, 0, {}]]], "name": "C3_0", "class_name": "Dense"}, {"config": {"bias_regularizer": null, "bias_initializer": {"config": {}, "class_name": "Zeros"}, "activity_regularizer": null, "kernel_initializer": {"config": {"seed": 3014, "distribution": "normal", "scale": 1.0, "mode": "fan_avg"}, "class_name": "VarianceScaling"}, "bias_constraint": null, "trainable": true, "kernel_constraint": null, "name": "C4_0", "units": 80, "use_bias": true, "activation": "relu", "kernel_regularizer": {"config": {"l1": 0.0, "l2": 0.0003000000142492354}, "class_name": "L1L2"}}, "inbound_nodes": [[["C4", 0, 0, {}]]], "name": "C4_0", "class_name": "Dense"}, {"config": {"bias_regularizer": null, "bias_initializer": {"config": {}, "class_name": "Zeros"}, "activity_regularizer": null, "kernel_initializer": {"config": {"seed": 3014, "distribution": "normal", "scale": 1.0, "mode": "fan_avg"}, "class_name": "VarianceScaling"}, "bias_constraint": null, "trainable": true, "kernel_constraint": null, "name": "B1_0", "units": 80, "use_bias": true, "activation": "relu", "kernel_regularizer": {"config": {"l1": 0.0, "l2": 0.0003000000142492354}, "class_name": "L1L2"}}, "inbound_nodes": [[["B1", 0, 0, {}]]], "name": "B1_0", "class_name": "Dense"}, {"config": {"bias_regularizer": null, "bias_initializer": {"config": {}, "class_name": "Zeros"}, "activity_regularizer": null, "kernel_initializer": {"config": {"seed": 3014, "distribution": "normal", "scale": 1.0, "mode": "fan_avg"}, "class_name": "VarianceScaling"}, "bias_constraint": null, "trainable": true, "kernel_constraint": null, "name": "B3_0", "units": 80, "use_bias": true, "activation": "relu", "kernel_regularizer": {"config": {"l1": 0.0, "l2": 0.0003000000142492354}, "class_name": "L1L2"}}, "inbound_nodes": [[["B3", 0, 0, {}]]], "name": "B3_0", "class_name": "Dense"}, {"config": {"bias_regularizer": null, "bias_initializer": {"config": {}, "class_name": "Zeros"}, "activity_regularizer": null, "kernel_initializer": {"config": {"seed": 3014, "distribution": "normal", "scale": 1.0, "mode": "fan_avg"}, "class_name": "VarianceScaling"}, "bias_constraint": null, "trainable": true, "kernel_constraint": null, "name": "D1_0", "units": 80, "use_bias": true, "activation": "relu", "kernel_regularizer": {"config": {"l1": 0.0, "l2": 0.0003000000142492354}, "class_name": "L1L2"}}, "inbound_nodes": [[["D1", 0, 0, {}]]], "name": "D1_0", "class_name": "Dense"}, {"config": {"trainable": true, "rate": 0.1, "name": "C1_dp_1"}, "inbound_nodes": [[["C1_0", 0, 0, {}]]], "name": "C1_dp_1", "class_name": "Dropout"}, {"config": {"trainable": true, "rate": 0.1, "name": "C2_dp_1"}, "inbound_nodes": [[["C2_0", 0, 0, {}]]], "name": "C2_dp_1", "class_name": "Dropout"}, {"config": {"trainable": true, "rate": 0.1, "name": "C3_dp_1"}, "inbound_nodes": [[["C3_0", 0, 0, {}]]], "name": "C3_dp_1", "class_name": "Dropout"}, {"config": {"trainable": true, "rate": 0.1, "name": "C4_dp_1"}, "inbound_nodes": [[["C4_0", 0, 0, {}]]], "name": "C4_dp_1", "class_name": "Dropout"}, {"config": {"trainable": true, "rate": 0.1, "name": "B1_dp_1"}, "inbound_nodes": [[["B1_0", 0, 0, {}]]], "name": "B1_dp_1", "class_name": "Dropout"}, {"config": {"trainable": true, "rate": 0.1, "name": "B3_dp_1"}, "inbound_nodes": [[["B3_0", 0, 0, {}]]], "name": "B3_dp_1", "class_name": "Dropout"}, {"config": {"trainable": true, "rate": 0.1, "name": "D1_dp_1"}, "inbound_nodes": [[["D1_0", 0, 0, {}]]], "name": "D1_dp_1", "class_name": "Dropout"}, {"config": {"bias_regularizer": null, "bias_initializer": {"config": {}, "class_name": "Zeros"}, "activity_regularizer": null, "kernel_initializer": {"config": {"seed": 3014, "distribution": "normal", "scale": 1.0, "mode": "fan_avg"}, "class_name": "VarianceScaling"}, "bias_constraint": null, "trainable": true, "kernel_constraint": null, "name": "C1_1", "units": 80, "use_bias": true, "activation": "relu", "kernel_regularizer": {"config": {"l1": 0.0, "l2": 0.0003000000142492354}, "class_name": "L1L2"}}, "inbound_nodes": [[["C1_dp_1", 0, 0, {}]]], "name": "C1_1", "class_name": "Dense"}, {"config": {"bias_regularizer": null, "bias_initializer": {"config": {}, "class_name": "Zeros"}, "activity_regularizer": null, "kernel_initializer": {"config": {"seed": 3014, "distribution": "normal", "scale": 1.0, "mode": "fan_avg"}, "class_name": "VarianceScaling"}, "bias_constraint": null, "trainable": true, "kernel_constraint": null, "name": "C2_1", "units": 80, "use_bias": true, "activation": "relu", "kernel_regularizer": {"config": {"l1": 0.0, "l2": 0.0003000000142492354}, "class_name": "L1L2"}}, "inbound_nodes": [[["C2_dp_1", 0, 0, {}]]], "name": "C2_1", "class_name": "Dense"}, {"config": {"bias_regularizer": null, "bias_initializer": {"config": {}, "class_name": "Zeros"}, "activity_regularizer": null, "kernel_initializer": {"config": {"seed": 3014, "distribution": "normal", "scale": 1.0, "mode": "fan_avg"}, "class_name": "VarianceScaling"}, "bias_constraint": null, "trainable": true, "kernel_constraint": null, "name": "C3_1", "units": 80, "use_bias": true, "activation": "relu", "kernel_regularizer": {"config": {"l1": 0.0, "l2": 0.0003000000142492354}, "class_name": "L1L2"}}, "inbound_nodes": [[["C3_dp_1", 0, 0, {}]]], "name": "C3_1", "class_name": "Dense"}, {"config": {"bias_regularizer": null, "bias_initializer": {"config": {}, "class_name": "Zeros"}, "activity_regularizer": null, "kernel_initializer": {"config": {"seed": 3014, "distribution": "normal", "scale": 1.0, "mode": "fan_avg"}, "class_name": "VarianceScaling"}, "bias_constraint": null, "trainable": true, "kernel_constraint": null, "name": "C4_1", "units": 80, "use_bias": true, "activation": "relu", "kernel_regularizer": {"config": {"l1": 0.0, "l2": 0.0003000000142492354}, "class_name": "L1L2"}}, "inbound_nodes": [[["C4_dp_1", 0, 0, {}]]], "name": "C4_1", "class_name": "Dense"}, {"config": {"bias_regularizer": null, "bias_initializer": {"config": {}, "class_name": "Zeros"}, "activity_regularizer": null, "kernel_initializer": {"config": {"seed": 3014, "distribution": "normal", "scale": 1.0, "mode": "fan_avg"}, "class_name": "VarianceScaling"}, "bias_constraint": null, "trainable": true, "kernel_constraint": null, "name": "B1_1", "units": 80, "use_bias": true, "activation": "relu", "kernel_regularizer": {"config": {"l1": 0.0, "l2": 0.0003000000142492354}, "class_name": "L1L2"}}, "inbound_nodes": [[["B1_dp_1", 0, 0, {}]]], "name": "B1_1", "class_name": "Dense"}, {"config": {"bias_regularizer": null, "bias_initializer": {"config": {}, "class_name": "Zeros"}, "activity_regularizer": null, "kernel_initializer": {"config": {"seed": 3014, "distribution": "normal", "scale": 1.0, "mode": "fan_avg"}, "class_name": "VarianceScaling"}, "bias_constraint": null, "trainable": true, "kernel_constraint": null, "name": "B3_1", "units": 80, "use_bias": true, "activation": "relu", "kernel_regularizer": {"config": {"l1": 0.0, "l2": 0.0003000000142492354}, "class_name": "L1L2"}}, "inbound_nodes": [[["B3_dp_1", 0, 0, {}]]], "name": "B3_1", "class_name": "Dense"}, {"config": {"bias_regularizer": null, "bias_initializer": {"config": {}, "class_name": "Zeros"}, "activity_regularizer": null, "kernel_initializer": {"config": {"seed": 3014, "distribution": "normal", "scale": 1.0, "mode": "fan_avg"}, "class_name": "VarianceScaling"}, "bias_constraint": null, "trainable": true, "kernel_constraint": null, "name": "D1_1", "units": 80, "use_bias": true, "activation": "relu", "kernel_regularizer": {"config": {"l1": 0.0, "l2": 0.0003000000142492354}, "class_name": "L1L2"}}, "inbound_nodes": [[["D1_dp_1", 0, 0, {}]]], "name": "D1_1", "class_name": "Dense"}, {"config": {"batch_input_shape": [null, 1], "name": "OnOff_C1", "sparse": false, "dtype": "float32"}, "inbound_nodes": [], "name": "OnOff_C1", "class_name": "InputLayer"}, {"config": {"bias_regularizer": null, "bias_initializer": {"config": {}, "class_name": "Zeros"}, "activity_regularizer": null, "kernel_initializer": {"config": {"seed": 3014, "distribution": "normal", "scale": 1.0, "mode": "fan_avg"}, "class_name": "VarianceScaling"}, "bias_constraint": null, "trainable": true, "kernel_constraint": null, "name": "C1_o", "units": 1, "use_bias": true, "activation": "relu", "kernel_regularizer": {"config": {"l1": 0.0, "l2": 0.0003000000142492354}, "class_name": "L1L2"}}, "inbound_nodes": [[["C1_1", 0, 0, {}]]], "name": "C1_o", "class_name": "Dense"}, {"config": {"batch_input_shape": [null, 1], "name": "OnOff_C2", "sparse": false, "dtype": "float32"}, "inbound_nodes": [], "name": "OnOff_C2", "class_name": "InputLayer"}, {"config": {"bias_regularizer": null, "bias_initializer": {"config": {}, "class_name": "Zeros"}, "activity_regularizer": null, "kernel_initializer": {"config": {"seed": 3014, "distribution": "normal", "scale": 1.0, "mode": "fan_avg"}, "class_name": "VarianceScaling"}, "bias_constraint": null, "trainable": true, "kernel_constraint": null, "name": "C2_o", "units": 1, "use_bias": true, "activation": "relu", "kernel_regularizer": {"config": {"l1": 0.0, "l2": 0.0003000000142492354}, "class_name": "L1L2"}}, "inbound_nodes": [[["C2_1", 0, 0, {}]]], "name": "C2_o", "class_name": "Dense"}, {"config": {"batch_input_shape": [null, 1], "name": "OnOff_C3", "sparse": false, "dtype": "float32"}, "inbound_nodes": [], "name": "OnOff_C3", "class_name": "InputLayer"}, {"config": {"bias_regularizer": null, "bias_initializer": {"config": {}, "class_name": "Zeros"}, "activity_regularizer": null, "kernel_initializer": {"config": {"seed": 3014, "distribution": "normal", "scale": 1.0, "mode": "fan_avg"}, "class_name": "VarianceScaling"}, "bias_constraint": null, "trainable": true, "kernel_constraint": null, "name": "C3_o", "units": 1, "use_bias": true, "activation": "relu", "kernel_regularizer": {"config": {"l1": 0.0, "l2": 0.0003000000142492354}, "class_name": "L1L2"}}, "inbound_nodes": [[["C3_1", 0, 0, {}]]], "name": "C3_o", "class_name": "Dense"}, {"config": {"batch_input_shape": [null, 1], "name": "OnOff_C4", "sparse": false, "dtype": "float32"}, "inbound_nodes": [], "name": "OnOff_C4", "class_name": "InputLayer"}, {"config": {"bias_regularizer": null, "bias_initializer": {"config": {}, "class_name": "Zeros"}, "activity_regularizer": null, "kernel_initializer": {"config": {"seed": 3014, "distribution": "normal", "scale": 1.0, "mode": "fan_avg"}, "class_name": "VarianceScaling"}, "bias_constraint": null, "trainable": true, "kernel_constraint": null, "name": "C4_o", "units": 1, "use_bias": true, "activation": "relu", "kernel_regularizer": {"config": {"l1": 0.0, "l2": 0.0003000000142492354}, "class_name": "L1L2"}}, "inbound_nodes": [[["C4_1", 0, 0, {}]]], "name": "C4_o", "class_name": "Dense"}, {"config": {"batch_input_shape": [null, 1], "name": "OnOff_B1", "sparse": false, "dtype": "float32"}, "inbound_nodes": [], "name": "OnOff_B1", "class_name": "InputLayer"}, {"config": {"bias_regularizer": null, "bias_initializer": {"config": {}, "class_name": "Zeros"}, "activity_regularizer": null, "kernel_initializer": {"config": {"seed": 3014, "distribution": "normal", "scale": 1.0, "mode": "fan_avg"}, "class_name": "VarianceScaling"}, "bias_constraint": null, "trainable": true, "kernel_constraint": null, "name": "B1_o", "units": 1, "use_bias": true, "activation": "relu", "kernel_regularizer": {"config": {"l1": 0.0, "l2": 0.0003000000142492354}, "class_name": "L1L2"}}, "inbound_nodes": [[["B1_1", 0, 0, {}]]], "name": "B1_o", "class_name": "Dense"}, {"config": {"batch_input_shape": [null, 1], "name": "OnOff_B3", "sparse": false, "dtype": "float32"}, "inbound_nodes": [], "name": "OnOff_B3", "class_name": "InputLayer"}, {"config": {"bias_regularizer": null, "bias_initializer": {"config": {}, "class_name": "Zeros"}, "activity_regularizer": null, "kernel_initializer": {"config": {"seed": 3014, "distribution": "normal", "scale": 1.0, "mode": "fan_avg"}, "class_name": "VarianceScaling"}, "bias_constraint": null, "trainable": true, "kernel_constraint": null, "name": "B3_o", "units": 1, "use_bias": true, "activation": "relu", "kernel_regularizer": {"config": {"l1": 0.0, "l2": 0.0003000000142492354}, "class_name": "L1L2"}}, "inbound_nodes": [[["B3_1", 0, 0, {}]]], "name": "B3_o", "class_name": "Dense"}, {"config": {"batch_input_shape": [null, 1], "name": "OnOff_D1", "sparse": false, "dtype": "float32"}, "inbound_nodes": [], "name": "OnOff_D1", "class_name": "InputLayer"}, {"config": {"bias_regularizer": null, "bias_initializer": {"config": {}, "class_name": "Zeros"}, "activity_regularizer": null, "kernel_initializer": {"config": {"seed": 3014, "distribution": "normal", "scale": 1.0, "mode": "fan_avg"}, "class_name": "VarianceScaling"}, "bias_constraint": null, "trainable": true, "kernel_constraint": null, "name": "D1_o", "units": 1, "use_bias": true, "activation": "relu", "kernel_regularizer": {"config": {"l1": 0.0, "l2": 0.0003000000142492354}, "class_name": "L1L2"}}, "inbound_nodes": [[["D1_1", 0, 0, {}]]], "name": "D1_o", "class_name": "Dense"}, {"config": {"trainable": true, "name": "C1_out"}, "inbound_nodes": [[["OnOff_C1", 0, 0, {}], ["C1_o", 0, 0, {}]]], "name": "C1_out", "class_name": "Multiply"}, {"config": {"trainable": true, "name": "C2_out"}, "inbound_nodes": [[["OnOff_C2", 0, 0, {}], ["C2_o", 0, 0, {}]]], "name": "C2_out", "class_name": "Multiply"}, {"config": {"trainable": true, "name": "C3_out"}, "inbound_nodes": [[["OnOff_C3", 0, 0, {}], ["C3_o", 0, 0, {}]]], "name": "C3_out", "class_name": "Multiply"}, {"config": {"trainable": true, "name": "C4_out"}, "inbound_nodes": [[["OnOff_C4", 0, 0, {}], ["C4_o", 0, 0, {}]]], "name": "C4_out", "class_name": "Multiply"}, {"config": {"trainable": true, "name": "B1_out"}, "inbound_nodes": [[["OnOff_B1", 0, 0, {}], ["B1_o", 0, 0, {}]]], "name": "B1_out", "class_name": "Multiply"}, {"config": {"trainable": true, "name": "B3_out"}, "inbound_nodes": [[["OnOff_B3", 0, 0, {}], ["B3_o", 0, 0, {}]]], "name": "B3_out", "class_name": "Multiply"}, {"config": {"trainable": true, "name": "D1_out"}, "inbound_nodes": [[["OnOff_D1", 0, 0, {}], ["D1_o", 0, 0, {}]]], "name": "D1_out", "class_name": "Multiply"}, {"config": {"trainable": true, "name": "GJOA_TOTAL"}, "inbound_nodes": [[["C1_out", 0, 0, {}], ["C2_out", 0, 0, {}], ["C3_out", 0, 0, {}], ["C4_out", 0, 0, {}], ["B1_out", 0, 0, {}], ["B3_out", 0, 0, {}], ["D1_out", 0, 0, {}]]], "name": "GJOA_TOTAL", "class_name": "Add"}]}, "backend": "theano", "class_name": "Model", "keras_version": "2.0.1"}