{"class_name": "Model", "backend": "theano", "keras_version": "2.0.1", "config": {"name": "model_2", "input_layers": [["C1", 0, 0], ["C2", 0, 0], ["C3", 0, 0], ["C4", 0, 0], ["B1", 0, 0], ["B3", 0, 0], ["D1", 0, 0], ["OnOff_C1", 0, 0], ["OnOff_C2", 0, 0], ["OnOff_C3", 0, 0], ["OnOff_C4", 0, 0], ["OnOff_B1", 0, 0], ["OnOff_B3", 0, 0], ["OnOff_D1", 0, 0]], "layers": [{"class_name": "InputLayer", "name": "C1", "inbound_nodes": [], "config": {"name": "C1", "dtype": "float32", "batch_input_shape": [null, 4], "sparse": false}}, {"class_name": "InputLayer", "name": "C2", "inbound_nodes": [], "config": {"name": "C2", "dtype": "float32", "batch_input_shape": [null, 3], "sparse": false}}, {"class_name": "InputLayer", "name": "C3", "inbound_nodes": [], "config": {"name": "C3", "dtype": "float32", "batch_input_shape": [null, 4], "sparse": false}}, {"class_name": "InputLayer", "name": "C4", "inbound_nodes": [], "config": {"name": "C4", "dtype": "float32", "batch_input_shape": [null, 4], "sparse": false}}, {"class_name": "InputLayer", "name": "B1", "inbound_nodes": [], "config": {"name": "B1", "dtype": "float32", "batch_input_shape": [null, 4], "sparse": false}}, {"class_name": "InputLayer", "name": "B3", "inbound_nodes": [], "config": {"name": "B3", "dtype": "float32", "batch_input_shape": [null, 4], "sparse": false}}, {"class_name": "InputLayer", "name": "D1", "inbound_nodes": [], "config": {"name": "D1", "dtype": "float32", "batch_input_shape": [null, 3], "sparse": false}}, {"class_name": "Dense", "name": "dense_36", "inbound_nodes": [[["C1", 0, 0, {}]]], "config": {"use_bias": true, "activity_regularizer": null, "bias_initializer": {"class_name": "Zeros", "config": {}}, "bias_constraint": null, "name": "dense_36", "units": 50, "kernel_constraint": null, "activation": "relu", "kernel_regularizer": {"class_name": "L1L2", "config": {"l1": 0.0, "l2": 9.999999974752427e-07}}, "kernel_initializer": {"class_name": "VarianceScaling", "config": {"mode": "fan_avg", "scale": 1.0, "distribution": "normal", "seed": 9947}}, "trainable": true, "bias_regularizer": null}}, {"class_name": "Dense", "name": "dense_41", "inbound_nodes": [[["C2", 0, 0, {}]]], "config": {"use_bias": true, "activity_regularizer": null, "bias_initializer": {"class_name": "Zeros", "config": {}}, "bias_constraint": null, "name": "dense_41", "units": 50, "kernel_constraint": null, "activation": "relu", "kernel_regularizer": {"class_name": "L1L2", "config": {"l1": 0.0, "l2": 9.999999974752427e-07}}, "kernel_initializer": {"class_name": "VarianceScaling", "config": {"mode": "fan_avg", "scale": 1.0, "distribution": "normal", "seed": 9947}}, "trainable": true, "bias_regularizer": null}}, {"class_name": "Dense", "name": "dense_46", "inbound_nodes": [[["C3", 0, 0, {}]]], "config": {"use_bias": true, "activity_regularizer": null, "bias_initializer": {"class_name": "Zeros", "config": {}}, "bias_constraint": null, "name": "dense_46", "units": 50, "kernel_constraint": null, "activation": "relu", "kernel_regularizer": {"class_name": "L1L2", "config": {"l1": 0.0, "l2": 9.999999974752427e-07}}, "kernel_initializer": {"class_name": "VarianceScaling", "config": {"mode": "fan_avg", "scale": 1.0, "distribution": "normal", "seed": 9947}}, "trainable": true, "bias_regularizer": null}}, {"class_name": "Dense", "name": "dense_51", "inbound_nodes": [[["C4", 0, 0, {}]]], "config": {"use_bias": true, "activity_regularizer": null, "bias_initializer": {"class_name": "Zeros", "config": {}}, "bias_constraint": null, "name": "dense_51", "units": 50, "kernel_constraint": null, "activation": "relu", "kernel_regularizer": {"class_name": "L1L2", "config": {"l1": 0.0, "l2": 9.999999974752427e-07}}, "kernel_initializer": {"class_name": "VarianceScaling", "config": {"mode": "fan_avg", "scale": 1.0, "distribution": "normal", "seed": 9947}}, "trainable": true, "bias_regularizer": null}}, {"class_name": "Dense", "name": "dense_56", "inbound_nodes": [[["B1", 0, 0, {}]]], "config": {"use_bias": true, "activity_regularizer": null, "bias_initializer": {"class_name": "Zeros", "config": {}}, "bias_constraint": null, "name": "dense_56", "units": 50, "kernel_constraint": null, "activation": "relu", "kernel_regularizer": {"class_name": "L1L2", "config": {"l1": 0.0, "l2": 9.999999974752427e-07}}, "kernel_initializer": {"class_name": "VarianceScaling", "config": {"mode": "fan_avg", "scale": 1.0, "distribution": "normal", "seed": 9947}}, "trainable": true, "bias_regularizer": null}}, {"class_name": "Dense", "name": "dense_61", "inbound_nodes": [[["B3", 0, 0, {}]]], "config": {"use_bias": true, "activity_regularizer": null, "bias_initializer": {"class_name": "Zeros", "config": {}}, "bias_constraint": null, "name": "dense_61", "units": 50, "kernel_constraint": null, "activation": "relu", "kernel_regularizer": {"class_name": "L1L2", "config": {"l1": 0.0, "l2": 9.999999974752427e-07}}, "kernel_initializer": {"class_name": "VarianceScaling", "config": {"mode": "fan_avg", "scale": 1.0, "distribution": "normal", "seed": 9947}}, "trainable": true, "bias_regularizer": null}}, {"class_name": "Dense", "name": "dense_66", "inbound_nodes": [[["D1", 0, 0, {}]]], "config": {"use_bias": true, "activity_regularizer": null, "bias_initializer": {"class_name": "Zeros", "config": {}}, "bias_constraint": null, "name": "dense_66", "units": 50, "kernel_constraint": null, "activation": "relu", "kernel_regularizer": {"class_name": "L1L2", "config": {"l1": 0.0, "l2": 9.999999974752427e-07}}, "kernel_initializer": {"class_name": "VarianceScaling", "config": {"mode": "fan_avg", "scale": 1.0, "distribution": "normal", "seed": 9947}}, "trainable": true, "bias_regularizer": null}}, {"class_name": "Dense", "name": "dense_37", "inbound_nodes": [[["dense_36", 0, 0, {}]]], "config": {"use_bias": true, "activity_regularizer": null, "bias_initializer": {"class_name": "Zeros", "config": {}}, "bias_constraint": null, "name": "dense_37", "units": 50, "kernel_constraint": null, "activation": "relu", "kernel_regularizer": {"class_name": "L1L2", "config": {"l1": 0.0, "l2": 9.999999974752427e-07}}, "kernel_initializer": {"class_name": "VarianceScaling", "config": {"mode": "fan_avg", "scale": 1.0, "distribution": "normal", "seed": 9947}}, "trainable": true, "bias_regularizer": null}}, {"class_name": "Dense", "name": "dense_42", "inbound_nodes": [[["dense_41", 0, 0, {}]]], "config": {"use_bias": true, "activity_regularizer": null, "bias_initializer": {"class_name": "Zeros", "config": {}}, "bias_constraint": null, "name": "dense_42", "units": 50, "kernel_constraint": null, "activation": "relu", "kernel_regularizer": {"class_name": "L1L2", "config": {"l1": 0.0, "l2": 9.999999974752427e-07}}, "kernel_initializer": {"class_name": "VarianceScaling", "config": {"mode": "fan_avg", "scale": 1.0, "distribution": "normal", "seed": 9947}}, "trainable": true, "bias_regularizer": null}}, {"class_name": "Dense", "name": "dense_47", "inbound_nodes": [[["dense_46", 0, 0, {}]]], "config": {"use_bias": true, "activity_regularizer": null, "bias_initializer": {"class_name": "Zeros", "config": {}}, "bias_constraint": null, "name": "dense_47", "units": 50, "kernel_constraint": null, "activation": "relu", "kernel_regularizer": {"class_name": "L1L2", "config": {"l1": 0.0, "l2": 9.999999974752427e-07}}, "kernel_initializer": {"class_name": "VarianceScaling", "config": {"mode": "fan_avg", "scale": 1.0, "distribution": "normal", "seed": 9947}}, "trainable": true, "bias_regularizer": null}}, {"class_name": "Dense", "name": "dense_52", "inbound_nodes": [[["dense_51", 0, 0, {}]]], "config": {"use_bias": true, "activity_regularizer": null, "bias_initializer": {"class_name": "Zeros", "config": {}}, "bias_constraint": null, "name": "dense_52", "units": 50, "kernel_constraint": null, "activation": "relu", "kernel_regularizer": {"class_name": "L1L2", "config": {"l1": 0.0, "l2": 9.999999974752427e-07}}, "kernel_initializer": {"class_name": "VarianceScaling", "config": {"mode": "fan_avg", "scale": 1.0, "distribution": "normal", "seed": 9947}}, "trainable": true, "bias_regularizer": null}}, {"class_name": "Dense", "name": "dense_57", "inbound_nodes": [[["dense_56", 0, 0, {}]]], "config": {"use_bias": true, "activity_regularizer": null, "bias_initializer": {"class_name": "Zeros", "config": {}}, "bias_constraint": null, "name": "dense_57", "units": 50, "kernel_constraint": null, "activation": "relu", "kernel_regularizer": {"class_name": "L1L2", "config": {"l1": 0.0, "l2": 9.999999974752427e-07}}, "kernel_initializer": {"class_name": "VarianceScaling", "config": {"mode": "fan_avg", "scale": 1.0, "distribution": "normal", "seed": 9947}}, "trainable": true, "bias_regularizer": null}}, {"class_name": "Dense", "name": "dense_62", "inbound_nodes": [[["dense_61", 0, 0, {}]]], "config": {"use_bias": true, "activity_regularizer": null, "bias_initializer": {"class_name": "Zeros", "config": {}}, "bias_constraint": null, "name": "dense_62", "units": 50, "kernel_constraint": null, "activation": "relu", "kernel_regularizer": {"class_name": "L1L2", "config": {"l1": 0.0, "l2": 9.999999974752427e-07}}, "kernel_initializer": {"class_name": "VarianceScaling", "config": {"mode": "fan_avg", "scale": 1.0, "distribution": "normal", "seed": 9947}}, "trainable": true, "bias_regularizer": null}}, {"class_name": "Dense", "name": "dense_67", "inbound_nodes": [[["dense_66", 0, 0, {}]]], "config": {"use_bias": true, "activity_regularizer": null, "bias_initializer": {"class_name": "Zeros", "config": {}}, "bias_constraint": null, "name": "dense_67", "units": 50, "kernel_constraint": null, "activation": "relu", "kernel_regularizer": {"class_name": "L1L2", "config": {"l1": 0.0, "l2": 9.999999974752427e-07}}, "kernel_initializer": {"class_name": "VarianceScaling", "config": {"mode": "fan_avg", "scale": 1.0, "distribution": "normal", "seed": 9947}}, "trainable": true, "bias_regularizer": null}}, {"class_name": "Dense", "name": "dense_38", "inbound_nodes": [[["dense_37", 0, 0, {}]]], "config": {"use_bias": true, "activity_regularizer": null, "bias_initializer": {"class_name": "Zeros", "config": {}}, "bias_constraint": null, "name": "dense_38", "units": 50, "kernel_constraint": null, "activation": "relu", "kernel_regularizer": {"class_name": "L1L2", "config": {"l1": 0.0, "l2": 9.999999974752427e-07}}, "kernel_initializer": {"class_name": "VarianceScaling", "config": {"mode": "fan_avg", "scale": 1.0, "distribution": "normal", "seed": 9947}}, "trainable": true, "bias_regularizer": null}}, {"class_name": "Dense", "name": "dense_43", "inbound_nodes": [[["dense_42", 0, 0, {}]]], "config": {"use_bias": true, "activity_regularizer": null, "bias_initializer": {"class_name": "Zeros", "config": {}}, "bias_constraint": null, "name": "dense_43", "units": 50, "kernel_constraint": null, "activation": "relu", "kernel_regularizer": {"class_name": "L1L2", "config": {"l1": 0.0, "l2": 9.999999974752427e-07}}, "kernel_initializer": {"class_name": "VarianceScaling", "config": {"mode": "fan_avg", "scale": 1.0, "distribution": "normal", "seed": 9947}}, "trainable": true, "bias_regularizer": null}}, {"class_name": "Dense", "name": "dense_48", "inbound_nodes": [[["dense_47", 0, 0, {}]]], "config": {"use_bias": true, "activity_regularizer": null, "bias_initializer": {"class_name": "Zeros", "config": {}}, "bias_constraint": null, "name": "dense_48", "units": 50, "kernel_constraint": null, "activation": "relu", "kernel_regularizer": {"class_name": "L1L2", "config": {"l1": 0.0, "l2": 9.999999974752427e-07}}, "kernel_initializer": {"class_name": "VarianceScaling", "config": {"mode": "fan_avg", "scale": 1.0, "distribution": "normal", "seed": 9947}}, "trainable": true, "bias_regularizer": null}}, {"class_name": "Dense", "name": "dense_53", "inbound_nodes": [[["dense_52", 0, 0, {}]]], "config": {"use_bias": true, "activity_regularizer": null, "bias_initializer": {"class_name": "Zeros", "config": {}}, "bias_constraint": null, "name": "dense_53", "units": 50, "kernel_constraint": null, "activation": "relu", "kernel_regularizer": {"class_name": "L1L2", "config": {"l1": 0.0, "l2": 9.999999974752427e-07}}, "kernel_initializer": {"class_name": "VarianceScaling", "config": {"mode": "fan_avg", "scale": 1.0, "distribution": "normal", "seed": 9947}}, "trainable": true, "bias_regularizer": null}}, {"class_name": "Dense", "name": "dense_58", "inbound_nodes": [[["dense_57", 0, 0, {}]]], "config": {"use_bias": true, "activity_regularizer": null, "bias_initializer": {"class_name": "Zeros", "config": {}}, "bias_constraint": null, "name": "dense_58", "units": 50, "kernel_constraint": null, "activation": "relu", "kernel_regularizer": {"class_name": "L1L2", "config": {"l1": 0.0, "l2": 9.999999974752427e-07}}, "kernel_initializer": {"class_name": "VarianceScaling", "config": {"mode": "fan_avg", "scale": 1.0, "distribution": "normal", "seed": 9947}}, "trainable": true, "bias_regularizer": null}}, {"class_name": "Dense", "name": "dense_63", "inbound_nodes": [[["dense_62", 0, 0, {}]]], "config": {"use_bias": true, "activity_regularizer": null, "bias_initializer": {"class_name": "Zeros", "config": {}}, "bias_constraint": null, "name": "dense_63", "units": 50, "kernel_constraint": null, "activation": "relu", "kernel_regularizer": {"class_name": "L1L2", "config": {"l1": 0.0, "l2": 9.999999974752427e-07}}, "kernel_initializer": {"class_name": "VarianceScaling", "config": {"mode": "fan_avg", "scale": 1.0, "distribution": "normal", "seed": 9947}}, "trainable": true, "bias_regularizer": null}}, {"class_name": "Dense", "name": "dense_68", "inbound_nodes": [[["dense_67", 0, 0, {}]]], "config": {"use_bias": true, "activity_regularizer": null, "bias_initializer": {"class_name": "Zeros", "config": {}}, "bias_constraint": null, "name": "dense_68", "units": 50, "kernel_constraint": null, "activation": "relu", "kernel_regularizer": {"class_name": "L1L2", "config": {"l1": 0.0, "l2": 9.999999974752427e-07}}, "kernel_initializer": {"class_name": "VarianceScaling", "config": {"mode": "fan_avg", "scale": 1.0, "distribution": "normal", "seed": 9947}}, "trainable": true, "bias_regularizer": null}}, {"class_name": "Dense", "name": "dense_39", "inbound_nodes": [[["dense_38", 0, 0, {}]]], "config": {"use_bias": true, "activity_regularizer": null, "bias_initializer": {"class_name": "Zeros", "config": {}}, "bias_constraint": null, "name": "dense_39", "units": 50, "kernel_constraint": null, "activation": "relu", "kernel_regularizer": {"class_name": "L1L2", "config": {"l1": 0.0, "l2": 9.999999974752427e-07}}, "kernel_initializer": {"class_name": "VarianceScaling", "config": {"mode": "fan_avg", "scale": 1.0, "distribution": "normal", "seed": 9947}}, "trainable": true, "bias_regularizer": null}}, {"class_name": "Dense", "name": "dense_44", "inbound_nodes": [[["dense_43", 0, 0, {}]]], "config": {"use_bias": true, "activity_regularizer": null, "bias_initializer": {"class_name": "Zeros", "config": {}}, "bias_constraint": null, "name": "dense_44", "units": 50, "kernel_constraint": null, "activation": "relu", "kernel_regularizer": {"class_name": "L1L2", "config": {"l1": 0.0, "l2": 9.999999974752427e-07}}, "kernel_initializer": {"class_name": "VarianceScaling", "config": {"mode": "fan_avg", "scale": 1.0, "distribution": "normal", "seed": 9947}}, "trainable": true, "bias_regularizer": null}}, {"class_name": "Dense", "name": "dense_49", "inbound_nodes": [[["dense_48", 0, 0, {}]]], "config": {"use_bias": true, "activity_regularizer": null, "bias_initializer": {"class_name": "Zeros", "config": {}}, "bias_constraint": null, "name": "dense_49", "units": 50, "kernel_constraint": null, "activation": "relu", "kernel_regularizer": {"class_name": "L1L2", "config": {"l1": 0.0, "l2": 9.999999974752427e-07}}, "kernel_initializer": {"class_name": "VarianceScaling", "config": {"mode": "fan_avg", "scale": 1.0, "distribution": "normal", "seed": 9947}}, "trainable": true, "bias_regularizer": null}}, {"class_name": "Dense", "name": "dense_54", "inbound_nodes": [[["dense_53", 0, 0, {}]]], "config": {"use_bias": true, "activity_regularizer": null, "bias_initializer": {"class_name": "Zeros", "config": {}}, "bias_constraint": null, "name": "dense_54", "units": 50, "kernel_constraint": null, "activation": "relu", "kernel_regularizer": {"class_name": "L1L2", "config": {"l1": 0.0, "l2": 9.999999974752427e-07}}, "kernel_initializer": {"class_name": "VarianceScaling", "config": {"mode": "fan_avg", "scale": 1.0, "distribution": "normal", "seed": 9947}}, "trainable": true, "bias_regularizer": null}}, {"class_name": "Dense", "name": "dense_59", "inbound_nodes": [[["dense_58", 0, 0, {}]]], "config": {"use_bias": true, "activity_regularizer": null, "bias_initializer": {"class_name": "Zeros", "config": {}}, "bias_constraint": null, "name": "dense_59", "units": 50, "kernel_constraint": null, "activation": "relu", "kernel_regularizer": {"class_name": "L1L2", "config": {"l1": 0.0, "l2": 9.999999974752427e-07}}, "kernel_initializer": {"class_name": "VarianceScaling", "config": {"mode": "fan_avg", "scale": 1.0, "distribution": "normal", "seed": 9947}}, "trainable": true, "bias_regularizer": null}}, {"class_name": "Dense", "name": "dense_64", "inbound_nodes": [[["dense_63", 0, 0, {}]]], "config": {"use_bias": true, "activity_regularizer": null, "bias_initializer": {"class_name": "Zeros", "config": {}}, "bias_constraint": null, "name": "dense_64", "units": 50, "kernel_constraint": null, "activation": "relu", "kernel_regularizer": {"class_name": "L1L2", "config": {"l1": 0.0, "l2": 9.999999974752427e-07}}, "kernel_initializer": {"class_name": "VarianceScaling", "config": {"mode": "fan_avg", "scale": 1.0, "distribution": "normal", "seed": 9947}}, "trainable": true, "bias_regularizer": null}}, {"class_name": "Dense", "name": "dense_69", "inbound_nodes": [[["dense_68", 0, 0, {}]]], "config": {"use_bias": true, "activity_regularizer": null, "bias_initializer": {"class_name": "Zeros", "config": {}}, "bias_constraint": null, "name": "dense_69", "units": 50, "kernel_constraint": null, "activation": "relu", "kernel_regularizer": {"class_name": "L1L2", "config": {"l1": 0.0, "l2": 9.999999974752427e-07}}, "kernel_initializer": {"class_name": "VarianceScaling", "config": {"mode": "fan_avg", "scale": 1.0, "distribution": "normal", "seed": 9947}}, "trainable": true, "bias_regularizer": null}}, {"class_name": "InputLayer", "name": "OnOff_C1", "inbound_nodes": [], "config": {"name": "OnOff_C1", "dtype": "float32", "batch_input_shape": [null, 1], "sparse": false}}, {"class_name": "Dense", "name": "dense_40", "inbound_nodes": [[["dense_39", 0, 0, {}]]], "config": {"use_bias": true, "activity_regularizer": null, "bias_initializer": {"class_name": "Zeros", "config": {}}, "bias_constraint": null, "name": "dense_40", "units": 1, "kernel_constraint": null, "activation": "relu", "kernel_regularizer": {"class_name": "L1L2", "config": {"l1": 0.0, "l2": 9.999999974752427e-07}}, "kernel_initializer": {"class_name": "VarianceScaling", "config": {"mode": "fan_avg", "scale": 1.0, "distribution": "normal", "seed": 9947}}, "trainable": true, "bias_regularizer": null}}, {"class_name": "InputLayer", "name": "OnOff_C2", "inbound_nodes": [], "config": {"name": "OnOff_C2", "dtype": "float32", "batch_input_shape": [null, 1], "sparse": false}}, {"class_name": "Dense", "name": "dense_45", "inbound_nodes": [[["dense_44", 0, 0, {}]]], "config": {"use_bias": true, "activity_regularizer": null, "bias_initializer": {"class_name": "Zeros", "config": {}}, "bias_constraint": null, "name": "dense_45", "units": 1, "kernel_constraint": null, "activation": "relu", "kernel_regularizer": {"class_name": "L1L2", "config": {"l1": 0.0, "l2": 9.999999974752427e-07}}, "kernel_initializer": {"class_name": "VarianceScaling", "config": {"mode": "fan_avg", "scale": 1.0, "distribution": "normal", "seed": 9947}}, "trainable": true, "bias_regularizer": null}}, {"class_name": "InputLayer", "name": "OnOff_C3", "inbound_nodes": [], "config": {"name": "OnOff_C3", "dtype": "float32", "batch_input_shape": [null, 1], "sparse": false}}, {"class_name": "Dense", "name": "dense_50", "inbound_nodes": [[["dense_49", 0, 0, {}]]], "config": {"use_bias": true, "activity_regularizer": null, "bias_initializer": {"class_name": "Zeros", "config": {}}, "bias_constraint": null, "name": "dense_50", "units": 1, "kernel_constraint": null, "activation": "relu", "kernel_regularizer": {"class_name": "L1L2", "config": {"l1": 0.0, "l2": 9.999999974752427e-07}}, "kernel_initializer": {"class_name": "VarianceScaling", "config": {"mode": "fan_avg", "scale": 1.0, "distribution": "normal", "seed": 9947}}, "trainable": true, "bias_regularizer": null}}, {"class_name": "InputLayer", "name": "OnOff_C4", "inbound_nodes": [], "config": {"name": "OnOff_C4", "dtype": "float32", "batch_input_shape": [null, 1], "sparse": false}}, {"class_name": "Dense", "name": "dense_55", "inbound_nodes": [[["dense_54", 0, 0, {}]]], "config": {"use_bias": true, "activity_regularizer": null, "bias_initializer": {"class_name": "Zeros", "config": {}}, "bias_constraint": null, "name": "dense_55", "units": 1, "kernel_constraint": null, "activation": "relu", "kernel_regularizer": {"class_name": "L1L2", "config": {"l1": 0.0, "l2": 9.999999974752427e-07}}, "kernel_initializer": {"class_name": "VarianceScaling", "config": {"mode": "fan_avg", "scale": 1.0, "distribution": "normal", "seed": 9947}}, "trainable": true, "bias_regularizer": null}}, {"class_name": "InputLayer", "name": "OnOff_B1", "inbound_nodes": [], "config": {"name": "OnOff_B1", "dtype": "float32", "batch_input_shape": [null, 1], "sparse": false}}, {"class_name": "Dense", "name": "dense_60", "inbound_nodes": [[["dense_59", 0, 0, {}]]], "config": {"use_bias": true, "activity_regularizer": null, "bias_initializer": {"class_name": "Zeros", "config": {}}, "bias_constraint": null, "name": "dense_60", "units": 1, "kernel_constraint": null, "activation": "relu", "kernel_regularizer": {"class_name": "L1L2", "config": {"l1": 0.0, "l2": 9.999999974752427e-07}}, "kernel_initializer": {"class_name": "VarianceScaling", "config": {"mode": "fan_avg", "scale": 1.0, "distribution": "normal", "seed": 9947}}, "trainable": true, "bias_regularizer": null}}, {"class_name": "InputLayer", "name": "OnOff_B3", "inbound_nodes": [], "config": {"name": "OnOff_B3", "dtype": "float32", "batch_input_shape": [null, 1], "sparse": false}}, {"class_name": "Dense", "name": "dense_65", "inbound_nodes": [[["dense_64", 0, 0, {}]]], "config": {"use_bias": true, "activity_regularizer": null, "bias_initializer": {"class_name": "Zeros", "config": {}}, "bias_constraint": null, "name": "dense_65", "units": 1, "kernel_constraint": null, "activation": "relu", "kernel_regularizer": {"class_name": "L1L2", "config": {"l1": 0.0, "l2": 9.999999974752427e-07}}, "kernel_initializer": {"class_name": "VarianceScaling", "config": {"mode": "fan_avg", "scale": 1.0, "distribution": "normal", "seed": 9947}}, "trainable": true, "bias_regularizer": null}}, {"class_name": "InputLayer", "name": "OnOff_D1", "inbound_nodes": [], "config": {"name": "OnOff_D1", "dtype": "float32", "batch_input_shape": [null, 1], "sparse": false}}, {"class_name": "Dense", "name": "dense_70", "inbound_nodes": [[["dense_69", 0, 0, {}]]], "config": {"use_bias": true, "activity_regularizer": null, "bias_initializer": {"class_name": "Zeros", "config": {}}, "bias_constraint": null, "name": "dense_70", "units": 1, "kernel_constraint": null, "activation": "relu", "kernel_regularizer": {"class_name": "L1L2", "config": {"l1": 0.0, "l2": 9.999999974752427e-07}}, "kernel_initializer": {"class_name": "VarianceScaling", "config": {"mode": "fan_avg", "scale": 1.0, "distribution": "normal", "seed": 9947}}, "trainable": true, "bias_regularizer": null}}, {"class_name": "Multiply", "name": "C1_out", "inbound_nodes": [[["OnOff_C1", 0, 0, {}], ["dense_40", 0, 0, {}]]], "config": {"name": "C1_out", "trainable": true}}, {"class_name": "Multiply", "name": "C2_out", "inbound_nodes": [[["OnOff_C2", 0, 0, {}], ["dense_45", 0, 0, {}]]], "config": {"name": "C2_out", "trainable": true}}, {"class_name": "Multiply", "name": "C3_out", "inbound_nodes": [[["OnOff_C3", 0, 0, {}], ["dense_50", 0, 0, {}]]], "config": {"name": "C3_out", "trainable": true}}, {"class_name": "Multiply", "name": "C4_out", "inbound_nodes": [[["OnOff_C4", 0, 0, {}], ["dense_55", 0, 0, {}]]], "config": {"name": "C4_out", "trainable": true}}, {"class_name": "Multiply", "name": "B1_out", "inbound_nodes": [[["OnOff_B1", 0, 0, {}], ["dense_60", 0, 0, {}]]], "config": {"name": "B1_out", "trainable": true}}, {"class_name": "Multiply", "name": "B3_out", "inbound_nodes": [[["OnOff_B3", 0, 0, {}], ["dense_65", 0, 0, {}]]], "config": {"name": "B3_out", "trainable": true}}, {"class_name": "Multiply", "name": "D1_out", "inbound_nodes": [[["OnOff_D1", 0, 0, {}], ["dense_70", 0, 0, {}]]], "config": {"name": "D1_out", "trainable": true}}, {"class_name": "Add", "name": "GJOA_TOTAL", "inbound_nodes": [[["C1_out", 0, 0, {}], ["C2_out", 0, 0, {}], ["C3_out", 0, 0, {}], ["C4_out", 0, 0, {}], ["B1_out", 0, 0, {}], ["B3_out", 0, 0, {}], ["D1_out", 0, 0, {}]]], "config": {"name": "GJOA_TOTAL", "trainable": true}}], "output_layers": [["C1_out", 0, 0], ["C2_out", 0, 0], ["C3_out", 0, 0], ["C4_out", 0, 0], ["B1_out", 0, 0], ["B3_out", 0, 0], ["D1_out", 0, 0], ["GJOA_TOTAL", 0, 0]]}}