{"config": {"name": "model_9", "layers": [{"config": {"dtype": "float32", "name": "C1", "sparse": false, "batch_input_shape": [null, 4]}, "inbound_nodes": [], "class_name": "InputLayer", "name": "C1"}, {"config": {"dtype": "float32", "name": "C2", "sparse": false, "batch_input_shape": [null, 3]}, "inbound_nodes": [], "class_name": "InputLayer", "name": "C2"}, {"config": {"dtype": "float32", "name": "C3", "sparse": false, "batch_input_shape": [null, 4]}, "inbound_nodes": [], "class_name": "InputLayer", "name": "C3"}, {"config": {"dtype": "float32", "name": "C4", "sparse": false, "batch_input_shape": [null, 4]}, "inbound_nodes": [], "class_name": "InputLayer", "name": "C4"}, {"config": {"dtype": "float32", "name": "B1", "sparse": false, "batch_input_shape": [null, 4]}, "inbound_nodes": [], "class_name": "InputLayer", "name": "B1"}, {"config": {"dtype": "float32", "name": "B3", "sparse": false, "batch_input_shape": [null, 4]}, "inbound_nodes": [], "class_name": "InputLayer", "name": "B3"}, {"config": {"dtype": "float32", "name": "D1", "sparse": false, "batch_input_shape": [null, 3]}, "inbound_nodes": [], "class_name": "InputLayer", "name": "D1"}, {"config": {"activity_regularizer": null, "kernel_regularizer": {"config": {"l2": 9.999999747378752e-05, "l1": 0.0}, "class_name": "L1L2"}, "trainable": true, "name": "dense_218", "kernel_initializer": {"config": {"scale": 1.0, "seed": 3014, "mode": "fan_avg", "distribution": "normal"}, "class_name": "VarianceScaling"}, "bias_regularizer": null, "units": 50, "kernel_constraint": null, "activation": "relu", "bias_constraint": null, "use_bias": true, "bias_initializer": {"config": {}, "class_name": "Zeros"}}, "inbound_nodes": [[["C1", 0, 0, {}]]], "class_name": "Dense", "name": "dense_218"}, {"config": {"activity_regularizer": null, "kernel_regularizer": {"config": {"l2": 9.999999747378752e-05, "l1": 0.0}, "class_name": "L1L2"}, "trainable": true, "name": "dense_223", "kernel_initializer": {"config": {"scale": 1.0, "seed": 3014, "mode": "fan_avg", "distribution": "normal"}, "class_name": "VarianceScaling"}, "bias_regularizer": null, "units": 50, "kernel_constraint": null, "activation": "relu", "bias_constraint": null, "use_bias": true, "bias_initializer": {"config": {}, "class_name": "Zeros"}}, "inbound_nodes": [[["C2", 0, 0, {}]]], "class_name": "Dense", "name": "dense_223"}, {"config": {"activity_regularizer": null, "kernel_regularizer": {"config": {"l2": 9.999999747378752e-05, "l1": 0.0}, "class_name": "L1L2"}, "trainable": true, "name": "dense_228", "kernel_initializer": {"config": {"scale": 1.0, "seed": 3014, "mode": "fan_avg", "distribution": "normal"}, "class_name": "VarianceScaling"}, "bias_regularizer": null, "units": 50, "kernel_constraint": null, "activation": "relu", "bias_constraint": null, "use_bias": true, "bias_initializer": {"config": {}, "class_name": "Zeros"}}, "inbound_nodes": [[["C3", 0, 0, {}]]], "class_name": "Dense", "name": "dense_228"}, {"config": {"activity_regularizer": null, "kernel_regularizer": {"config": {"l2": 9.999999747378752e-05, "l1": 0.0}, "class_name": "L1L2"}, "trainable": true, "name": "dense_233", "kernel_initializer": {"config": {"scale": 1.0, "seed": 3014, "mode": "fan_avg", "distribution": "normal"}, "class_name": "VarianceScaling"}, "bias_regularizer": null, "units": 50, "kernel_constraint": null, "activation": "relu", "bias_constraint": null, "use_bias": true, "bias_initializer": {"config": {}, "class_name": "Zeros"}}, "inbound_nodes": [[["C4", 0, 0, {}]]], "class_name": "Dense", "name": "dense_233"}, {"config": {"activity_regularizer": null, "kernel_regularizer": {"config": {"l2": 9.999999747378752e-05, "l1": 0.0}, "class_name": "L1L2"}, "trainable": true, "name": "dense_238", "kernel_initializer": {"config": {"scale": 1.0, "seed": 3014, "mode": "fan_avg", "distribution": "normal"}, "class_name": "VarianceScaling"}, "bias_regularizer": null, "units": 50, "kernel_constraint": null, "activation": "relu", "bias_constraint": null, "use_bias": true, "bias_initializer": {"config": {}, "class_name": "Zeros"}}, "inbound_nodes": [[["B1", 0, 0, {}]]], "class_name": "Dense", "name": "dense_238"}, {"config": {"activity_regularizer": null, "kernel_regularizer": {"config": {"l2": 9.999999747378752e-05, "l1": 0.0}, "class_name": "L1L2"}, "trainable": true, "name": "dense_243", "kernel_initializer": {"config": {"scale": 1.0, "seed": 3014, "mode": "fan_avg", "distribution": "normal"}, "class_name": "VarianceScaling"}, "bias_regularizer": null, "units": 50, "kernel_constraint": null, "activation": "relu", "bias_constraint": null, "use_bias": true, "bias_initializer": {"config": {}, "class_name": "Zeros"}}, "inbound_nodes": [[["B3", 0, 0, {}]]], "class_name": "Dense", "name": "dense_243"}, {"config": {"activity_regularizer": null, "kernel_regularizer": {"config": {"l2": 9.999999747378752e-05, "l1": 0.0}, "class_name": "L1L2"}, "trainable": true, "name": "dense_248", "kernel_initializer": {"config": {"scale": 1.0, "seed": 3014, "mode": "fan_avg", "distribution": "normal"}, "class_name": "VarianceScaling"}, "bias_regularizer": null, "units": 50, "kernel_constraint": null, "activation": "relu", "bias_constraint": null, "use_bias": true, "bias_initializer": {"config": {}, "class_name": "Zeros"}}, "inbound_nodes": [[["D1", 0, 0, {}]]], "class_name": "Dense", "name": "dense_248"}, {"config": {"activity_regularizer": null, "kernel_regularizer": {"config": {"l2": 9.999999747378752e-05, "l1": 0.0}, "class_name": "L1L2"}, "trainable": true, "name": "dense_219", "kernel_initializer": {"config": {"scale": 1.0, "seed": 3014, "mode": "fan_avg", "distribution": "normal"}, "class_name": "VarianceScaling"}, "bias_regularizer": null, "units": 50, "kernel_constraint": null, "activation": "relu", "bias_constraint": null, "use_bias": true, "bias_initializer": {"config": {}, "class_name": "Zeros"}}, "inbound_nodes": [[["dense_218", 0, 0, {}]]], "class_name": "Dense", "name": "dense_219"}, {"config": {"activity_regularizer": null, "kernel_regularizer": {"config": {"l2": 9.999999747378752e-05, "l1": 0.0}, "class_name": "L1L2"}, "trainable": true, "name": "dense_224", "kernel_initializer": {"config": {"scale": 1.0, "seed": 3014, "mode": "fan_avg", "distribution": "normal"}, "class_name": "VarianceScaling"}, "bias_regularizer": null, "units": 50, "kernel_constraint": null, "activation": "relu", "bias_constraint": null, "use_bias": true, "bias_initializer": {"config": {}, "class_name": "Zeros"}}, "inbound_nodes": [[["dense_223", 0, 0, {}]]], "class_name": "Dense", "name": "dense_224"}, {"config": {"activity_regularizer": null, "kernel_regularizer": {"config": {"l2": 9.999999747378752e-05, "l1": 0.0}, "class_name": "L1L2"}, "trainable": true, "name": "dense_229", "kernel_initializer": {"config": {"scale": 1.0, "seed": 3014, "mode": "fan_avg", "distribution": "normal"}, "class_name": "VarianceScaling"}, "bias_regularizer": null, "units": 50, "kernel_constraint": null, "activation": "relu", "bias_constraint": null, "use_bias": true, "bias_initializer": {"config": {}, "class_name": "Zeros"}}, "inbound_nodes": [[["dense_228", 0, 0, {}]]], "class_name": "Dense", "name": "dense_229"}, {"config": {"activity_regularizer": null, "kernel_regularizer": {"config": {"l2": 9.999999747378752e-05, "l1": 0.0}, "class_name": "L1L2"}, "trainable": true, "name": "dense_234", "kernel_initializer": {"config": {"scale": 1.0, "seed": 3014, "mode": "fan_avg", "distribution": "normal"}, "class_name": "VarianceScaling"}, "bias_regularizer": null, "units": 50, "kernel_constraint": null, "activation": "relu", "bias_constraint": null, "use_bias": true, "bias_initializer": {"config": {}, "class_name": "Zeros"}}, "inbound_nodes": [[["dense_233", 0, 0, {}]]], "class_name": "Dense", "name": "dense_234"}, {"config": {"activity_regularizer": null, "kernel_regularizer": {"config": {"l2": 9.999999747378752e-05, "l1": 0.0}, "class_name": "L1L2"}, "trainable": true, "name": "dense_239", "kernel_initializer": {"config": {"scale": 1.0, "seed": 3014, "mode": "fan_avg", "distribution": "normal"}, "class_name": "VarianceScaling"}, "bias_regularizer": null, "units": 50, "kernel_constraint": null, "activation": "relu", "bias_constraint": null, "use_bias": true, "bias_initializer": {"config": {}, "class_name": "Zeros"}}, "inbound_nodes": [[["dense_238", 0, 0, {}]]], "class_name": "Dense", "name": "dense_239"}, {"config": {"activity_regularizer": null, "kernel_regularizer": {"config": {"l2": 9.999999747378752e-05, "l1": 0.0}, "class_name": "L1L2"}, "trainable": true, "name": "dense_244", "kernel_initializer": {"config": {"scale": 1.0, "seed": 3014, "mode": "fan_avg", "distribution": "normal"}, "class_name": "VarianceScaling"}, "bias_regularizer": null, "units": 50, "kernel_constraint": null, "activation": "relu", "bias_constraint": null, "use_bias": true, "bias_initializer": {"config": {}, "class_name": "Zeros"}}, "inbound_nodes": [[["dense_243", 0, 0, {}]]], "class_name": "Dense", "name": "dense_244"}, {"config": {"activity_regularizer": null, "kernel_regularizer": {"config": {"l2": 9.999999747378752e-05, "l1": 0.0}, "class_name": "L1L2"}, "trainable": true, "name": "dense_249", "kernel_initializer": {"config": {"scale": 1.0, "seed": 3014, "mode": "fan_avg", "distribution": "normal"}, "class_name": "VarianceScaling"}, "bias_regularizer": null, "units": 50, "kernel_constraint": null, "activation": "relu", "bias_constraint": null, "use_bias": true, "bias_initializer": {"config": {}, "class_name": "Zeros"}}, "inbound_nodes": [[["dense_248", 0, 0, {}]]], "class_name": "Dense", "name": "dense_249"}, {"config": {"activity_regularizer": null, "kernel_regularizer": {"config": {"l2": 9.999999747378752e-05, "l1": 0.0}, "class_name": "L1L2"}, "trainable": true, "name": "dense_220", "kernel_initializer": {"config": {"scale": 1.0, "seed": 3014, "mode": "fan_avg", "distribution": "normal"}, "class_name": "VarianceScaling"}, "bias_regularizer": null, "units": 50, "kernel_constraint": null, "activation": "relu", "bias_constraint": null, "use_bias": true, "bias_initializer": {"config": {}, "class_name": "Zeros"}}, "inbound_nodes": [[["dense_219", 0, 0, {}]]], "class_name": "Dense", "name": "dense_220"}, {"config": {"activity_regularizer": null, "kernel_regularizer": {"config": {"l2": 9.999999747378752e-05, "l1": 0.0}, "class_name": "L1L2"}, "trainable": true, "name": "dense_225", "kernel_initializer": {"config": {"scale": 1.0, "seed": 3014, "mode": "fan_avg", "distribution": "normal"}, "class_name": "VarianceScaling"}, "bias_regularizer": null, "units": 50, "kernel_constraint": null, "activation": "relu", "bias_constraint": null, "use_bias": true, "bias_initializer": {"config": {}, "class_name": "Zeros"}}, "inbound_nodes": [[["dense_224", 0, 0, {}]]], "class_name": "Dense", "name": "dense_225"}, {"config": {"activity_regularizer": null, "kernel_regularizer": {"config": {"l2": 9.999999747378752e-05, "l1": 0.0}, "class_name": "L1L2"}, "trainable": true, "name": "dense_230", "kernel_initializer": {"config": {"scale": 1.0, "seed": 3014, "mode": "fan_avg", "distribution": "normal"}, "class_name": "VarianceScaling"}, "bias_regularizer": null, "units": 50, "kernel_constraint": null, "activation": "relu", "bias_constraint": null, "use_bias": true, "bias_initializer": {"config": {}, "class_name": "Zeros"}}, "inbound_nodes": [[["dense_229", 0, 0, {}]]], "class_name": "Dense", "name": "dense_230"}, {"config": {"activity_regularizer": null, "kernel_regularizer": {"config": {"l2": 9.999999747378752e-05, "l1": 0.0}, "class_name": "L1L2"}, "trainable": true, "name": "dense_235", "kernel_initializer": {"config": {"scale": 1.0, "seed": 3014, "mode": "fan_avg", "distribution": "normal"}, "class_name": "VarianceScaling"}, "bias_regularizer": null, "units": 50, "kernel_constraint": null, "activation": "relu", "bias_constraint": null, "use_bias": true, "bias_initializer": {"config": {}, "class_name": "Zeros"}}, "inbound_nodes": [[["dense_234", 0, 0, {}]]], "class_name": "Dense", "name": "dense_235"}, {"config": {"activity_regularizer": null, "kernel_regularizer": {"config": {"l2": 9.999999747378752e-05, "l1": 0.0}, "class_name": "L1L2"}, "trainable": true, "name": "dense_240", "kernel_initializer": {"config": {"scale": 1.0, "seed": 3014, "mode": "fan_avg", "distribution": "normal"}, "class_name": "VarianceScaling"}, "bias_regularizer": null, "units": 50, "kernel_constraint": null, "activation": "relu", "bias_constraint": null, "use_bias": true, "bias_initializer": {"config": {}, "class_name": "Zeros"}}, "inbound_nodes": [[["dense_239", 0, 0, {}]]], "class_name": "Dense", "name": "dense_240"}, {"config": {"activity_regularizer": null, "kernel_regularizer": {"config": {"l2": 9.999999747378752e-05, "l1": 0.0}, "class_name": "L1L2"}, "trainable": true, "name": "dense_245", "kernel_initializer": {"config": {"scale": 1.0, "seed": 3014, "mode": "fan_avg", "distribution": "normal"}, "class_name": "VarianceScaling"}, "bias_regularizer": null, "units": 50, "kernel_constraint": null, "activation": "relu", "bias_constraint": null, "use_bias": true, "bias_initializer": {"config": {}, "class_name": "Zeros"}}, "inbound_nodes": [[["dense_244", 0, 0, {}]]], "class_name": "Dense", "name": "dense_245"}, {"config": {"activity_regularizer": null, "kernel_regularizer": {"config": {"l2": 9.999999747378752e-05, "l1": 0.0}, "class_name": "L1L2"}, "trainable": true, "name": "dense_250", "kernel_initializer": {"config": {"scale": 1.0, "seed": 3014, "mode": "fan_avg", "distribution": "normal"}, "class_name": "VarianceScaling"}, "bias_regularizer": null, "units": 50, "kernel_constraint": null, "activation": "relu", "bias_constraint": null, "use_bias": true, "bias_initializer": {"config": {}, "class_name": "Zeros"}}, "inbound_nodes": [[["dense_249", 0, 0, {}]]], "class_name": "Dense", "name": "dense_250"}, {"config": {"activity_regularizer": null, "kernel_regularizer": {"config": {"l2": 9.999999747378752e-05, "l1": 0.0}, "class_name": "L1L2"}, "trainable": true, "name": "dense_221", "kernel_initializer": {"config": {"scale": 1.0, "seed": 3014, "mode": "fan_avg", "distribution": "normal"}, "class_name": "VarianceScaling"}, "bias_regularizer": null, "units": 50, "kernel_constraint": null, "activation": "relu", "bias_constraint": null, "use_bias": true, "bias_initializer": {"config": {}, "class_name": "Zeros"}}, "inbound_nodes": [[["dense_220", 0, 0, {}]]], "class_name": "Dense", "name": "dense_221"}, {"config": {"activity_regularizer": null, "kernel_regularizer": {"config": {"l2": 9.999999747378752e-05, "l1": 0.0}, "class_name": "L1L2"}, "trainable": true, "name": "dense_226", "kernel_initializer": {"config": {"scale": 1.0, "seed": 3014, "mode": "fan_avg", "distribution": "normal"}, "class_name": "VarianceScaling"}, "bias_regularizer": null, "units": 50, "kernel_constraint": null, "activation": "relu", "bias_constraint": null, "use_bias": true, "bias_initializer": {"config": {}, "class_name": "Zeros"}}, "inbound_nodes": [[["dense_225", 0, 0, {}]]], "class_name": "Dense", "name": "dense_226"}, {"config": {"activity_regularizer": null, "kernel_regularizer": {"config": {"l2": 9.999999747378752e-05, "l1": 0.0}, "class_name": "L1L2"}, "trainable": true, "name": "dense_231", "kernel_initializer": {"config": {"scale": 1.0, "seed": 3014, "mode": "fan_avg", "distribution": "normal"}, "class_name": "VarianceScaling"}, "bias_regularizer": null, "units": 50, "kernel_constraint": null, "activation": "relu", "bias_constraint": null, "use_bias": true, "bias_initializer": {"config": {}, "class_name": "Zeros"}}, "inbound_nodes": [[["dense_230", 0, 0, {}]]], "class_name": "Dense", "name": "dense_231"}, {"config": {"activity_regularizer": null, "kernel_regularizer": {"config": {"l2": 9.999999747378752e-05, "l1": 0.0}, "class_name": "L1L2"}, "trainable": true, "name": "dense_236", "kernel_initializer": {"config": {"scale": 1.0, "seed": 3014, "mode": "fan_avg", "distribution": "normal"}, "class_name": "VarianceScaling"}, "bias_regularizer": null, "units": 50, "kernel_constraint": null, "activation": "relu", "bias_constraint": null, "use_bias": true, "bias_initializer": {"config": {}, "class_name": "Zeros"}}, "inbound_nodes": [[["dense_235", 0, 0, {}]]], "class_name": "Dense", "name": "dense_236"}, {"config": {"activity_regularizer": null, "kernel_regularizer": {"config": {"l2": 9.999999747378752e-05, "l1": 0.0}, "class_name": "L1L2"}, "trainable": true, "name": "dense_241", "kernel_initializer": {"config": {"scale": 1.0, "seed": 3014, "mode": "fan_avg", "distribution": "normal"}, "class_name": "VarianceScaling"}, "bias_regularizer": null, "units": 50, "kernel_constraint": null, "activation": "relu", "bias_constraint": null, "use_bias": true, "bias_initializer": {"config": {}, "class_name": "Zeros"}}, "inbound_nodes": [[["dense_240", 0, 0, {}]]], "class_name": "Dense", "name": "dense_241"}, {"config": {"activity_regularizer": null, "kernel_regularizer": {"config": {"l2": 9.999999747378752e-05, "l1": 0.0}, "class_name": "L1L2"}, "trainable": true, "name": "dense_246", "kernel_initializer": {"config": {"scale": 1.0, "seed": 3014, "mode": "fan_avg", "distribution": "normal"}, "class_name": "VarianceScaling"}, "bias_regularizer": null, "units": 50, "kernel_constraint": null, "activation": "relu", "bias_constraint": null, "use_bias": true, "bias_initializer": {"config": {}, "class_name": "Zeros"}}, "inbound_nodes": [[["dense_245", 0, 0, {}]]], "class_name": "Dense", "name": "dense_246"}, {"config": {"activity_regularizer": null, "kernel_regularizer": {"config": {"l2": 9.999999747378752e-05, "l1": 0.0}, "class_name": "L1L2"}, "trainable": true, "name": "dense_251", "kernel_initializer": {"config": {"scale": 1.0, "seed": 3014, "mode": "fan_avg", "distribution": "normal"}, "class_name": "VarianceScaling"}, "bias_regularizer": null, "units": 50, "kernel_constraint": null, "activation": "relu", "bias_constraint": null, "use_bias": true, "bias_initializer": {"config": {}, "class_name": "Zeros"}}, "inbound_nodes": [[["dense_250", 0, 0, {}]]], "class_name": "Dense", "name": "dense_251"}, {"config": {"dtype": "float32", "name": "OnOff_C1", "sparse": false, "batch_input_shape": [null, 1]}, "inbound_nodes": [], "class_name": "InputLayer", "name": "OnOff_C1"}, {"config": {"activity_regularizer": null, "kernel_regularizer": {"config": {"l2": 9.999999747378752e-05, "l1": 0.0}, "class_name": "L1L2"}, "trainable": true, "name": "dense_222", "kernel_initializer": {"config": {"scale": 1.0, "seed": 3014, "mode": "fan_avg", "distribution": "normal"}, "class_name": "VarianceScaling"}, "bias_regularizer": null, "units": 1, "kernel_constraint": null, "activation": "relu", "bias_constraint": null, "use_bias": true, "bias_initializer": {"config": {}, "class_name": "Zeros"}}, "inbound_nodes": [[["dense_221", 0, 0, {}]]], "class_name": "Dense", "name": "dense_222"}, {"config": {"dtype": "float32", "name": "OnOff_C2", "sparse": false, "batch_input_shape": [null, 1]}, "inbound_nodes": [], "class_name": "InputLayer", "name": "OnOff_C2"}, {"config": {"activity_regularizer": null, "kernel_regularizer": {"config": {"l2": 9.999999747378752e-05, "l1": 0.0}, "class_name": "L1L2"}, "trainable": true, "name": "dense_227", "kernel_initializer": {"config": {"scale": 1.0, "seed": 3014, "mode": "fan_avg", "distribution": "normal"}, "class_name": "VarianceScaling"}, "bias_regularizer": null, "units": 1, "kernel_constraint": null, "activation": "relu", "bias_constraint": null, "use_bias": true, "bias_initializer": {"config": {}, "class_name": "Zeros"}}, "inbound_nodes": [[["dense_226", 0, 0, {}]]], "class_name": "Dense", "name": "dense_227"}, {"config": {"dtype": "float32", "name": "OnOff_C3", "sparse": false, "batch_input_shape": [null, 1]}, "inbound_nodes": [], "class_name": "InputLayer", "name": "OnOff_C3"}, {"config": {"activity_regularizer": null, "kernel_regularizer": {"config": {"l2": 9.999999747378752e-05, "l1": 0.0}, "class_name": "L1L2"}, "trainable": true, "name": "dense_232", "kernel_initializer": {"config": {"scale": 1.0, "seed": 3014, "mode": "fan_avg", "distribution": "normal"}, "class_name": "VarianceScaling"}, "bias_regularizer": null, "units": 1, "kernel_constraint": null, "activation": "relu", "bias_constraint": null, "use_bias": true, "bias_initializer": {"config": {}, "class_name": "Zeros"}}, "inbound_nodes": [[["dense_231", 0, 0, {}]]], "class_name": "Dense", "name": "dense_232"}, {"config": {"dtype": "float32", "name": "OnOff_C4", "sparse": false, "batch_input_shape": [null, 1]}, "inbound_nodes": [], "class_name": "InputLayer", "name": "OnOff_C4"}, {"config": {"activity_regularizer": null, "kernel_regularizer": {"config": {"l2": 9.999999747378752e-05, "l1": 0.0}, "class_name": "L1L2"}, "trainable": true, "name": "dense_237", "kernel_initializer": {"config": {"scale": 1.0, "seed": 3014, "mode": "fan_avg", "distribution": "normal"}, "class_name": "VarianceScaling"}, "bias_regularizer": null, "units": 1, "kernel_constraint": null, "activation": "relu", "bias_constraint": null, "use_bias": true, "bias_initializer": {"config": {}, "class_name": "Zeros"}}, "inbound_nodes": [[["dense_236", 0, 0, {}]]], "class_name": "Dense", "name": "dense_237"}, {"config": {"dtype": "float32", "name": "OnOff_B1", "sparse": false, "batch_input_shape": [null, 1]}, "inbound_nodes": [], "class_name": "InputLayer", "name": "OnOff_B1"}, {"config": {"activity_regularizer": null, "kernel_regularizer": {"config": {"l2": 9.999999747378752e-05, "l1": 0.0}, "class_name": "L1L2"}, "trainable": true, "name": "dense_242", "kernel_initializer": {"config": {"scale": 1.0, "seed": 3014, "mode": "fan_avg", "distribution": "normal"}, "class_name": "VarianceScaling"}, "bias_regularizer": null, "units": 1, "kernel_constraint": null, "activation": "relu", "bias_constraint": null, "use_bias": true, "bias_initializer": {"config": {}, "class_name": "Zeros"}}, "inbound_nodes": [[["dense_241", 0, 0, {}]]], "class_name": "Dense", "name": "dense_242"}, {"config": {"dtype": "float32", "name": "OnOff_B3", "sparse": false, "batch_input_shape": [null, 1]}, "inbound_nodes": [], "class_name": "InputLayer", "name": "OnOff_B3"}, {"config": {"activity_regularizer": null, "kernel_regularizer": {"config": {"l2": 9.999999747378752e-05, "l1": 0.0}, "class_name": "L1L2"}, "trainable": true, "name": "dense_247", "kernel_initializer": {"config": {"scale": 1.0, "seed": 3014, "mode": "fan_avg", "distribution": "normal"}, "class_name": "VarianceScaling"}, "bias_regularizer": null, "units": 1, "kernel_constraint": null, "activation": "relu", "bias_constraint": null, "use_bias": true, "bias_initializer": {"config": {}, "class_name": "Zeros"}}, "inbound_nodes": [[["dense_246", 0, 0, {}]]], "class_name": "Dense", "name": "dense_247"}, {"config": {"dtype": "float32", "name": "OnOff_D1", "sparse": false, "batch_input_shape": [null, 1]}, "inbound_nodes": [], "class_name": "InputLayer", "name": "OnOff_D1"}, {"config": {"activity_regularizer": null, "kernel_regularizer": {"config": {"l2": 9.999999747378752e-05, "l1": 0.0}, "class_name": "L1L2"}, "trainable": true, "name": "dense_252", "kernel_initializer": {"config": {"scale": 1.0, "seed": 3014, "mode": "fan_avg", "distribution": "normal"}, "class_name": "VarianceScaling"}, "bias_regularizer": null, "units": 1, "kernel_constraint": null, "activation": "relu", "bias_constraint": null, "use_bias": true, "bias_initializer": {"config": {}, "class_name": "Zeros"}}, "inbound_nodes": [[["dense_251", 0, 0, {}]]], "class_name": "Dense", "name": "dense_252"}, {"config": {"name": "C1_out", "trainable": true}, "inbound_nodes": [[["OnOff_C1", 0, 0, {}], ["dense_222", 0, 0, {}]]], "class_name": "Multiply", "name": "C1_out"}, {"config": {"name": "C2_out", "trainable": true}, "inbound_nodes": [[["OnOff_C2", 0, 0, {}], ["dense_227", 0, 0, {}]]], "class_name": "Multiply", "name": "C2_out"}, {"config": {"name": "C3_out", "trainable": true}, "inbound_nodes": [[["OnOff_C3", 0, 0, {}], ["dense_232", 0, 0, {}]]], "class_name": "Multiply", "name": "C3_out"}, {"config": {"name": "C4_out", "trainable": true}, "inbound_nodes": [[["OnOff_C4", 0, 0, {}], ["dense_237", 0, 0, {}]]], "class_name": "Multiply", "name": "C4_out"}, {"config": {"name": "B1_out", "trainable": true}, "inbound_nodes": [[["OnOff_B1", 0, 0, {}], ["dense_242", 0, 0, {}]]], "class_name": "Multiply", "name": "B1_out"}, {"config": {"name": "B3_out", "trainable": true}, "inbound_nodes": [[["OnOff_B3", 0, 0, {}], ["dense_247", 0, 0, {}]]], "class_name": "Multiply", "name": "B3_out"}, {"config": {"name": "D1_out", "trainable": true}, "inbound_nodes": [[["OnOff_D1", 0, 0, {}], ["dense_252", 0, 0, {}]]], "class_name": "Multiply", "name": "D1_out"}, {"config": {"name": "GJOA_TOTAL", "trainable": true}, "inbound_nodes": [[["C1_out", 0, 0, {}], ["C2_out", 0, 0, {}], ["C3_out", 0, 0, {}], ["C4_out", 0, 0, {}], ["B1_out", 0, 0, {}], ["B3_out", 0, 0, {}], ["D1_out", 0, 0, {}]]], "class_name": "Add", "name": "GJOA_TOTAL"}], "output_layers": [["C1_out", 0, 0], ["C2_out", 0, 0], ["C3_out", 0, 0], ["C4_out", 0, 0], ["B1_out", 0, 0], ["B3_out", 0, 0], ["D1_out", 0, 0], ["GJOA_TOTAL", 0, 0]], "input_layers": [["C1", 0, 0], ["C2", 0, 0], ["C3", 0, 0], ["C4", 0, 0], ["B1", 0, 0], ["B3", 0, 0], ["D1", 0, 0], ["OnOff_C1", 0, 0], ["OnOff_C2", 0, 0], ["OnOff_C3", 0, 0], ["OnOff_C4", 0, 0], ["OnOff_B1", 0, 0], ["OnOff_B3", 0, 0], ["OnOff_D1", 0, 0]]}, "keras_version": "2.0.1", "class_name": "Model", "backend": "theano"}