{"class_name": "Model", "backend": "theano", "keras_version": "2.0.1", "config": {"name": "model_10", "input_layers": [["C1", 0, 0], ["C2", 0, 0], ["C3", 0, 0], ["C4", 0, 0], ["B1", 0, 0], ["B3", 0, 0], ["D1", 0, 0], ["OnOff_C1", 0, 0], ["OnOff_C2", 0, 0], ["OnOff_C3", 0, 0], ["OnOff_C4", 0, 0], ["OnOff_B1", 0, 0], ["OnOff_B3", 0, 0], ["OnOff_D1", 0, 0]], "layers": [{"class_name": "InputLayer", "name": "C1", "inbound_nodes": [], "config": {"name": "C1", "dtype": "float32", "batch_input_shape": [null, 4], "sparse": false}}, {"class_name": "InputLayer", "name": "C2", "inbound_nodes": [], "config": {"name": "C2", "dtype": "float32", "batch_input_shape": [null, 3], "sparse": false}}, {"class_name": "InputLayer", "name": "C3", "inbound_nodes": [], "config": {"name": "C3", "dtype": "float32", "batch_input_shape": [null, 4], "sparse": false}}, {"class_name": "InputLayer", "name": "C4", "inbound_nodes": [], "config": {"name": "C4", "dtype": "float32", "batch_input_shape": [null, 4], "sparse": false}}, {"class_name": "InputLayer", "name": "B1", "inbound_nodes": [], "config": {"name": "B1", "dtype": "float32", "batch_input_shape": [null, 4], "sparse": false}}, {"class_name": "InputLayer", "name": "B3", "inbound_nodes": [], "config": {"name": "B3", "dtype": "float32", "batch_input_shape": [null, 4], "sparse": false}}, {"class_name": "InputLayer", "name": "D1", "inbound_nodes": [], "config": {"name": "D1", "dtype": "float32", "batch_input_shape": [null, 3], "sparse": false}}, {"class_name": "Dense", "name": "dense_316", "inbound_nodes": [[["C1", 0, 0, {}]]], "config": {"use_bias": true, "activity_regularizer": null, "bias_initializer": {"class_name": "Zeros", "config": {}}, "bias_constraint": null, "name": "dense_316", "units": 50, "kernel_constraint": null, "activation": "relu", "kernel_regularizer": {"class_name": "L1L2", "config": {"l1": 0.0, "l2": 9.999999974752427e-07}}, "kernel_initializer": {"class_name": "VarianceScaling", "config": {"mode": "fan_avg", "scale": 1.0, "distribution": "normal", "seed": 7585}}, "trainable": true, "bias_regularizer": null}}, {"class_name": "Dense", "name": "dense_321", "inbound_nodes": [[["C2", 0, 0, {}]]], "config": {"use_bias": true, "activity_regularizer": null, "bias_initializer": {"class_name": "Zeros", "config": {}}, "bias_constraint": null, "name": "dense_321", "units": 50, "kernel_constraint": null, "activation": "relu", "kernel_regularizer": {"class_name": "L1L2", "config": {"l1": 0.0, "l2": 9.999999974752427e-07}}, "kernel_initializer": {"class_name": "VarianceScaling", "config": {"mode": "fan_avg", "scale": 1.0, "distribution": "normal", "seed": 7585}}, "trainable": true, "bias_regularizer": null}}, {"class_name": "Dense", "name": "dense_326", "inbound_nodes": [[["C3", 0, 0, {}]]], "config": {"use_bias": true, "activity_regularizer": null, "bias_initializer": {"class_name": "Zeros", "config": {}}, "bias_constraint": null, "name": "dense_326", "units": 50, "kernel_constraint": null, "activation": "relu", "kernel_regularizer": {"class_name": "L1L2", "config": {"l1": 0.0, "l2": 9.999999974752427e-07}}, "kernel_initializer": {"class_name": "VarianceScaling", "config": {"mode": "fan_avg", "scale": 1.0, "distribution": "normal", "seed": 7585}}, "trainable": true, "bias_regularizer": null}}, {"class_name": "Dense", "name": "dense_331", "inbound_nodes": [[["C4", 0, 0, {}]]], "config": {"use_bias": true, "activity_regularizer": null, "bias_initializer": {"class_name": "Zeros", "config": {}}, "bias_constraint": null, "name": "dense_331", "units": 50, "kernel_constraint": null, "activation": "relu", "kernel_regularizer": {"class_name": "L1L2", "config": {"l1": 0.0, "l2": 9.999999974752427e-07}}, "kernel_initializer": {"class_name": "VarianceScaling", "config": {"mode": "fan_avg", "scale": 1.0, "distribution": "normal", "seed": 7585}}, "trainable": true, "bias_regularizer": null}}, {"class_name": "Dense", "name": "dense_336", "inbound_nodes": [[["B1", 0, 0, {}]]], "config": {"use_bias": true, "activity_regularizer": null, "bias_initializer": {"class_name": "Zeros", "config": {}}, "bias_constraint": null, "name": "dense_336", "units": 50, "kernel_constraint": null, "activation": "relu", "kernel_regularizer": {"class_name": "L1L2", "config": {"l1": 0.0, "l2": 9.999999974752427e-07}}, "kernel_initializer": {"class_name": "VarianceScaling", "config": {"mode": "fan_avg", "scale": 1.0, "distribution": "normal", "seed": 7585}}, "trainable": true, "bias_regularizer": null}}, {"class_name": "Dense", "name": "dense_341", "inbound_nodes": [[["B3", 0, 0, {}]]], "config": {"use_bias": true, "activity_regularizer": null, "bias_initializer": {"class_name": "Zeros", "config": {}}, "bias_constraint": null, "name": "dense_341", "units": 50, "kernel_constraint": null, "activation": "relu", "kernel_regularizer": {"class_name": "L1L2", "config": {"l1": 0.0, "l2": 9.999999974752427e-07}}, "kernel_initializer": {"class_name": "VarianceScaling", "config": {"mode": "fan_avg", "scale": 1.0, "distribution": "normal", "seed": 7585}}, "trainable": true, "bias_regularizer": null}}, {"class_name": "Dense", "name": "dense_346", "inbound_nodes": [[["D1", 0, 0, {}]]], "config": {"use_bias": true, "activity_regularizer": null, "bias_initializer": {"class_name": "Zeros", "config": {}}, "bias_constraint": null, "name": "dense_346", "units": 50, "kernel_constraint": null, "activation": "relu", "kernel_regularizer": {"class_name": "L1L2", "config": {"l1": 0.0, "l2": 9.999999974752427e-07}}, "kernel_initializer": {"class_name": "VarianceScaling", "config": {"mode": "fan_avg", "scale": 1.0, "distribution": "normal", "seed": 7585}}, "trainable": true, "bias_regularizer": null}}, {"class_name": "Dense", "name": "dense_317", "inbound_nodes": [[["dense_316", 0, 0, {}]]], "config": {"use_bias": true, "activity_regularizer": null, "bias_initializer": {"class_name": "Zeros", "config": {}}, "bias_constraint": null, "name": "dense_317", "units": 50, "kernel_constraint": null, "activation": "relu", "kernel_regularizer": {"class_name": "L1L2", "config": {"l1": 0.0, "l2": 9.999999974752427e-07}}, "kernel_initializer": {"class_name": "VarianceScaling", "config": {"mode": "fan_avg", "scale": 1.0, "distribution": "normal", "seed": 7585}}, "trainable": true, "bias_regularizer": null}}, {"class_name": "Dense", "name": "dense_322", "inbound_nodes": [[["dense_321", 0, 0, {}]]], "config": {"use_bias": true, "activity_regularizer": null, "bias_initializer": {"class_name": "Zeros", "config": {}}, "bias_constraint": null, "name": "dense_322", "units": 50, "kernel_constraint": null, "activation": "relu", "kernel_regularizer": {"class_name": "L1L2", "config": {"l1": 0.0, "l2": 9.999999974752427e-07}}, "kernel_initializer": {"class_name": "VarianceScaling", "config": {"mode": "fan_avg", "scale": 1.0, "distribution": "normal", "seed": 7585}}, "trainable": true, "bias_regularizer": null}}, {"class_name": "Dense", "name": "dense_327", "inbound_nodes": [[["dense_326", 0, 0, {}]]], "config": {"use_bias": true, "activity_regularizer": null, "bias_initializer": {"class_name": "Zeros", "config": {}}, "bias_constraint": null, "name": "dense_327", "units": 50, "kernel_constraint": null, "activation": "relu", "kernel_regularizer": {"class_name": "L1L2", "config": {"l1": 0.0, "l2": 9.999999974752427e-07}}, "kernel_initializer": {"class_name": "VarianceScaling", "config": {"mode": "fan_avg", "scale": 1.0, "distribution": "normal", "seed": 7585}}, "trainable": true, "bias_regularizer": null}}, {"class_name": "Dense", "name": "dense_332", "inbound_nodes": [[["dense_331", 0, 0, {}]]], "config": {"use_bias": true, "activity_regularizer": null, "bias_initializer": {"class_name": "Zeros", "config": {}}, "bias_constraint": null, "name": "dense_332", "units": 50, "kernel_constraint": null, "activation": "relu", "kernel_regularizer": {"class_name": "L1L2", "config": {"l1": 0.0, "l2": 9.999999974752427e-07}}, "kernel_initializer": {"class_name": "VarianceScaling", "config": {"mode": "fan_avg", "scale": 1.0, "distribution": "normal", "seed": 7585}}, "trainable": true, "bias_regularizer": null}}, {"class_name": "Dense", "name": "dense_337", "inbound_nodes": [[["dense_336", 0, 0, {}]]], "config": {"use_bias": true, "activity_regularizer": null, "bias_initializer": {"class_name": "Zeros", "config": {}}, "bias_constraint": null, "name": "dense_337", "units": 50, "kernel_constraint": null, "activation": "relu", "kernel_regularizer": {"class_name": "L1L2", "config": {"l1": 0.0, "l2": 9.999999974752427e-07}}, "kernel_initializer": {"class_name": "VarianceScaling", "config": {"mode": "fan_avg", "scale": 1.0, "distribution": "normal", "seed": 7585}}, "trainable": true, "bias_regularizer": null}}, {"class_name": "Dense", "name": "dense_342", "inbound_nodes": [[["dense_341", 0, 0, {}]]], "config": {"use_bias": true, "activity_regularizer": null, "bias_initializer": {"class_name": "Zeros", "config": {}}, "bias_constraint": null, "name": "dense_342", "units": 50, "kernel_constraint": null, "activation": "relu", "kernel_regularizer": {"class_name": "L1L2", "config": {"l1": 0.0, "l2": 9.999999974752427e-07}}, "kernel_initializer": {"class_name": "VarianceScaling", "config": {"mode": "fan_avg", "scale": 1.0, "distribution": "normal", "seed": 7585}}, "trainable": true, "bias_regularizer": null}}, {"class_name": "Dense", "name": "dense_347", "inbound_nodes": [[["dense_346", 0, 0, {}]]], "config": {"use_bias": true, "activity_regularizer": null, "bias_initializer": {"class_name": "Zeros", "config": {}}, "bias_constraint": null, "name": "dense_347", "units": 50, "kernel_constraint": null, "activation": "relu", "kernel_regularizer": {"class_name": "L1L2", "config": {"l1": 0.0, "l2": 9.999999974752427e-07}}, "kernel_initializer": {"class_name": "VarianceScaling", "config": {"mode": "fan_avg", "scale": 1.0, "distribution": "normal", "seed": 7585}}, "trainable": true, "bias_regularizer": null}}, {"class_name": "Dense", "name": "dense_318", "inbound_nodes": [[["dense_317", 0, 0, {}]]], "config": {"use_bias": true, "activity_regularizer": null, "bias_initializer": {"class_name": "Zeros", "config": {}}, "bias_constraint": null, "name": "dense_318", "units": 50, "kernel_constraint": null, "activation": "relu", "kernel_regularizer": {"class_name": "L1L2", "config": {"l1": 0.0, "l2": 9.999999974752427e-07}}, "kernel_initializer": {"class_name": "VarianceScaling", "config": {"mode": "fan_avg", "scale": 1.0, "distribution": "normal", "seed": 7585}}, "trainable": true, "bias_regularizer": null}}, {"class_name": "Dense", "name": "dense_323", "inbound_nodes": [[["dense_322", 0, 0, {}]]], "config": {"use_bias": true, "activity_regularizer": null, "bias_initializer": {"class_name": "Zeros", "config": {}}, "bias_constraint": null, "name": "dense_323", "units": 50, "kernel_constraint": null, "activation": "relu", "kernel_regularizer": {"class_name": "L1L2", "config": {"l1": 0.0, "l2": 9.999999974752427e-07}}, "kernel_initializer": {"class_name": "VarianceScaling", "config": {"mode": "fan_avg", "scale": 1.0, "distribution": "normal", "seed": 7585}}, "trainable": true, "bias_regularizer": null}}, {"class_name": "Dense", "name": "dense_328", "inbound_nodes": [[["dense_327", 0, 0, {}]]], "config": {"use_bias": true, "activity_regularizer": null, "bias_initializer": {"class_name": "Zeros", "config": {}}, "bias_constraint": null, "name": "dense_328", "units": 50, "kernel_constraint": null, "activation": "relu", "kernel_regularizer": {"class_name": "L1L2", "config": {"l1": 0.0, "l2": 9.999999974752427e-07}}, "kernel_initializer": {"class_name": "VarianceScaling", "config": {"mode": "fan_avg", "scale": 1.0, "distribution": "normal", "seed": 7585}}, "trainable": true, "bias_regularizer": null}}, {"class_name": "Dense", "name": "dense_333", "inbound_nodes": [[["dense_332", 0, 0, {}]]], "config": {"use_bias": true, "activity_regularizer": null, "bias_initializer": {"class_name": "Zeros", "config": {}}, "bias_constraint": null, "name": "dense_333", "units": 50, "kernel_constraint": null, "activation": "relu", "kernel_regularizer": {"class_name": "L1L2", "config": {"l1": 0.0, "l2": 9.999999974752427e-07}}, "kernel_initializer": {"class_name": "VarianceScaling", "config": {"mode": "fan_avg", "scale": 1.0, "distribution": "normal", "seed": 7585}}, "trainable": true, "bias_regularizer": null}}, {"class_name": "Dense", "name": "dense_338", "inbound_nodes": [[["dense_337", 0, 0, {}]]], "config": {"use_bias": true, "activity_regularizer": null, "bias_initializer": {"class_name": "Zeros", "config": {}}, "bias_constraint": null, "name": "dense_338", "units": 50, "kernel_constraint": null, "activation": "relu", "kernel_regularizer": {"class_name": "L1L2", "config": {"l1": 0.0, "l2": 9.999999974752427e-07}}, "kernel_initializer": {"class_name": "VarianceScaling", "config": {"mode": "fan_avg", "scale": 1.0, "distribution": "normal", "seed": 7585}}, "trainable": true, "bias_regularizer": null}}, {"class_name": "Dense", "name": "dense_343", "inbound_nodes": [[["dense_342", 0, 0, {}]]], "config": {"use_bias": true, "activity_regularizer": null, "bias_initializer": {"class_name": "Zeros", "config": {}}, "bias_constraint": null, "name": "dense_343", "units": 50, "kernel_constraint": null, "activation": "relu", "kernel_regularizer": {"class_name": "L1L2", "config": {"l1": 0.0, "l2": 9.999999974752427e-07}}, "kernel_initializer": {"class_name": "VarianceScaling", "config": {"mode": "fan_avg", "scale": 1.0, "distribution": "normal", "seed": 7585}}, "trainable": true, "bias_regularizer": null}}, {"class_name": "Dense", "name": "dense_348", "inbound_nodes": [[["dense_347", 0, 0, {}]]], "config": {"use_bias": true, "activity_regularizer": null, "bias_initializer": {"class_name": "Zeros", "config": {}}, "bias_constraint": null, "name": "dense_348", "units": 50, "kernel_constraint": null, "activation": "relu", "kernel_regularizer": {"class_name": "L1L2", "config": {"l1": 0.0, "l2": 9.999999974752427e-07}}, "kernel_initializer": {"class_name": "VarianceScaling", "config": {"mode": "fan_avg", "scale": 1.0, "distribution": "normal", "seed": 7585}}, "trainable": true, "bias_regularizer": null}}, {"class_name": "Dense", "name": "dense_319", "inbound_nodes": [[["dense_318", 0, 0, {}]]], "config": {"use_bias": true, "activity_regularizer": null, "bias_initializer": {"class_name": "Zeros", "config": {}}, "bias_constraint": null, "name": "dense_319", "units": 50, "kernel_constraint": null, "activation": "relu", "kernel_regularizer": {"class_name": "L1L2", "config": {"l1": 0.0, "l2": 9.999999974752427e-07}}, "kernel_initializer": {"class_name": "VarianceScaling", "config": {"mode": "fan_avg", "scale": 1.0, "distribution": "normal", "seed": 7585}}, "trainable": true, "bias_regularizer": null}}, {"class_name": "Dense", "name": "dense_324", "inbound_nodes": [[["dense_323", 0, 0, {}]]], "config": {"use_bias": true, "activity_regularizer": null, "bias_initializer": {"class_name": "Zeros", "config": {}}, "bias_constraint": null, "name": "dense_324", "units": 50, "kernel_constraint": null, "activation": "relu", "kernel_regularizer": {"class_name": "L1L2", "config": {"l1": 0.0, "l2": 9.999999974752427e-07}}, "kernel_initializer": {"class_name": "VarianceScaling", "config": {"mode": "fan_avg", "scale": 1.0, "distribution": "normal", "seed": 7585}}, "trainable": true, "bias_regularizer": null}}, {"class_name": "Dense", "name": "dense_329", "inbound_nodes": [[["dense_328", 0, 0, {}]]], "config": {"use_bias": true, "activity_regularizer": null, "bias_initializer": {"class_name": "Zeros", "config": {}}, "bias_constraint": null, "name": "dense_329", "units": 50, "kernel_constraint": null, "activation": "relu", "kernel_regularizer": {"class_name": "L1L2", "config": {"l1": 0.0, "l2": 9.999999974752427e-07}}, "kernel_initializer": {"class_name": "VarianceScaling", "config": {"mode": "fan_avg", "scale": 1.0, "distribution": "normal", "seed": 7585}}, "trainable": true, "bias_regularizer": null}}, {"class_name": "Dense", "name": "dense_334", "inbound_nodes": [[["dense_333", 0, 0, {}]]], "config": {"use_bias": true, "activity_regularizer": null, "bias_initializer": {"class_name": "Zeros", "config": {}}, "bias_constraint": null, "name": "dense_334", "units": 50, "kernel_constraint": null, "activation": "relu", "kernel_regularizer": {"class_name": "L1L2", "config": {"l1": 0.0, "l2": 9.999999974752427e-07}}, "kernel_initializer": {"class_name": "VarianceScaling", "config": {"mode": "fan_avg", "scale": 1.0, "distribution": "normal", "seed": 7585}}, "trainable": true, "bias_regularizer": null}}, {"class_name": "Dense", "name": "dense_339", "inbound_nodes": [[["dense_338", 0, 0, {}]]], "config": {"use_bias": true, "activity_regularizer": null, "bias_initializer": {"class_name": "Zeros", "config": {}}, "bias_constraint": null, "name": "dense_339", "units": 50, "kernel_constraint": null, "activation": "relu", "kernel_regularizer": {"class_name": "L1L2", "config": {"l1": 0.0, "l2": 9.999999974752427e-07}}, "kernel_initializer": {"class_name": "VarianceScaling", "config": {"mode": "fan_avg", "scale": 1.0, "distribution": "normal", "seed": 7585}}, "trainable": true, "bias_regularizer": null}}, {"class_name": "Dense", "name": "dense_344", "inbound_nodes": [[["dense_343", 0, 0, {}]]], "config": {"use_bias": true, "activity_regularizer": null, "bias_initializer": {"class_name": "Zeros", "config": {}}, "bias_constraint": null, "name": "dense_344", "units": 50, "kernel_constraint": null, "activation": "relu", "kernel_regularizer": {"class_name": "L1L2", "config": {"l1": 0.0, "l2": 9.999999974752427e-07}}, "kernel_initializer": {"class_name": "VarianceScaling", "config": {"mode": "fan_avg", "scale": 1.0, "distribution": "normal", "seed": 7585}}, "trainable": true, "bias_regularizer": null}}, {"class_name": "Dense", "name": "dense_349", "inbound_nodes": [[["dense_348", 0, 0, {}]]], "config": {"use_bias": true, "activity_regularizer": null, "bias_initializer": {"class_name": "Zeros", "config": {}}, "bias_constraint": null, "name": "dense_349", "units": 50, "kernel_constraint": null, "activation": "relu", "kernel_regularizer": {"class_name": "L1L2", "config": {"l1": 0.0, "l2": 9.999999974752427e-07}}, "kernel_initializer": {"class_name": "VarianceScaling", "config": {"mode": "fan_avg", "scale": 1.0, "distribution": "normal", "seed": 7585}}, "trainable": true, "bias_regularizer": null}}, {"class_name": "InputLayer", "name": "OnOff_C1", "inbound_nodes": [], "config": {"name": "OnOff_C1", "dtype": "float32", "batch_input_shape": [null, 1], "sparse": false}}, {"class_name": "Dense", "name": "dense_320", "inbound_nodes": [[["dense_319", 0, 0, {}]]], "config": {"use_bias": true, "activity_regularizer": null, "bias_initializer": {"class_name": "Zeros", "config": {}}, "bias_constraint": null, "name": "dense_320", "units": 1, "kernel_constraint": null, "activation": "relu", "kernel_regularizer": {"class_name": "L1L2", "config": {"l1": 0.0, "l2": 9.999999974752427e-07}}, "kernel_initializer": {"class_name": "VarianceScaling", "config": {"mode": "fan_avg", "scale": 1.0, "distribution": "normal", "seed": 7585}}, "trainable": true, "bias_regularizer": null}}, {"class_name": "InputLayer", "name": "OnOff_C2", "inbound_nodes": [], "config": {"name": "OnOff_C2", "dtype": "float32", "batch_input_shape": [null, 1], "sparse": false}}, {"class_name": "Dense", "name": "dense_325", "inbound_nodes": [[["dense_324", 0, 0, {}]]], "config": {"use_bias": true, "activity_regularizer": null, "bias_initializer": {"class_name": "Zeros", "config": {}}, "bias_constraint": null, "name": "dense_325", "units": 1, "kernel_constraint": null, "activation": "relu", "kernel_regularizer": {"class_name": "L1L2", "config": {"l1": 0.0, "l2": 9.999999974752427e-07}}, "kernel_initializer": {"class_name": "VarianceScaling", "config": {"mode": "fan_avg", "scale": 1.0, "distribution": "normal", "seed": 7585}}, "trainable": true, "bias_regularizer": null}}, {"class_name": "InputLayer", "name": "OnOff_C3", "inbound_nodes": [], "config": {"name": "OnOff_C3", "dtype": "float32", "batch_input_shape": [null, 1], "sparse": false}}, {"class_name": "Dense", "name": "dense_330", "inbound_nodes": [[["dense_329", 0, 0, {}]]], "config": {"use_bias": true, "activity_regularizer": null, "bias_initializer": {"class_name": "Zeros", "config": {}}, "bias_constraint": null, "name": "dense_330", "units": 1, "kernel_constraint": null, "activation": "relu", "kernel_regularizer": {"class_name": "L1L2", "config": {"l1": 0.0, "l2": 9.999999974752427e-07}}, "kernel_initializer": {"class_name": "VarianceScaling", "config": {"mode": "fan_avg", "scale": 1.0, "distribution": "normal", "seed": 7585}}, "trainable": true, "bias_regularizer": null}}, {"class_name": "InputLayer", "name": "OnOff_C4", "inbound_nodes": [], "config": {"name": "OnOff_C4", "dtype": "float32", "batch_input_shape": [null, 1], "sparse": false}}, {"class_name": "Dense", "name": "dense_335", "inbound_nodes": [[["dense_334", 0, 0, {}]]], "config": {"use_bias": true, "activity_regularizer": null, "bias_initializer": {"class_name": "Zeros", "config": {}}, "bias_constraint": null, "name": "dense_335", "units": 1, "kernel_constraint": null, "activation": "relu", "kernel_regularizer": {"class_name": "L1L2", "config": {"l1": 0.0, "l2": 9.999999974752427e-07}}, "kernel_initializer": {"class_name": "VarianceScaling", "config": {"mode": "fan_avg", "scale": 1.0, "distribution": "normal", "seed": 7585}}, "trainable": true, "bias_regularizer": null}}, {"class_name": "InputLayer", "name": "OnOff_B1", "inbound_nodes": [], "config": {"name": "OnOff_B1", "dtype": "float32", "batch_input_shape": [null, 1], "sparse": false}}, {"class_name": "Dense", "name": "dense_340", "inbound_nodes": [[["dense_339", 0, 0, {}]]], "config": {"use_bias": true, "activity_regularizer": null, "bias_initializer": {"class_name": "Zeros", "config": {}}, "bias_constraint": null, "name": "dense_340", "units": 1, "kernel_constraint": null, "activation": "relu", "kernel_regularizer": {"class_name": "L1L2", "config": {"l1": 0.0, "l2": 9.999999974752427e-07}}, "kernel_initializer": {"class_name": "VarianceScaling", "config": {"mode": "fan_avg", "scale": 1.0, "distribution": "normal", "seed": 7585}}, "trainable": true, "bias_regularizer": null}}, {"class_name": "InputLayer", "name": "OnOff_B3", "inbound_nodes": [], "config": {"name": "OnOff_B3", "dtype": "float32", "batch_input_shape": [null, 1], "sparse": false}}, {"class_name": "Dense", "name": "dense_345", "inbound_nodes": [[["dense_344", 0, 0, {}]]], "config": {"use_bias": true, "activity_regularizer": null, "bias_initializer": {"class_name": "Zeros", "config": {}}, "bias_constraint": null, "name": "dense_345", "units": 1, "kernel_constraint": null, "activation": "relu", "kernel_regularizer": {"class_name": "L1L2", "config": {"l1": 0.0, "l2": 9.999999974752427e-07}}, "kernel_initializer": {"class_name": "VarianceScaling", "config": {"mode": "fan_avg", "scale": 1.0, "distribution": "normal", "seed": 7585}}, "trainable": true, "bias_regularizer": null}}, {"class_name": "InputLayer", "name": "OnOff_D1", "inbound_nodes": [], "config": {"name": "OnOff_D1", "dtype": "float32", "batch_input_shape": [null, 1], "sparse": false}}, {"class_name": "Dense", "name": "dense_350", "inbound_nodes": [[["dense_349", 0, 0, {}]]], "config": {"use_bias": true, "activity_regularizer": null, "bias_initializer": {"class_name": "Zeros", "config": {}}, "bias_constraint": null, "name": "dense_350", "units": 1, "kernel_constraint": null, "activation": "relu", "kernel_regularizer": {"class_name": "L1L2", "config": {"l1": 0.0, "l2": 9.999999974752427e-07}}, "kernel_initializer": {"class_name": "VarianceScaling", "config": {"mode": "fan_avg", "scale": 1.0, "distribution": "normal", "seed": 7585}}, "trainable": true, "bias_regularizer": null}}, {"class_name": "Multiply", "name": "C1_out", "inbound_nodes": [[["OnOff_C1", 0, 0, {}], ["dense_320", 0, 0, {}]]], "config": {"name": "C1_out", "trainable": true}}, {"class_name": "Multiply", "name": "C2_out", "inbound_nodes": [[["OnOff_C2", 0, 0, {}], ["dense_325", 0, 0, {}]]], "config": {"name": "C2_out", "trainable": true}}, {"class_name": "Multiply", "name": "C3_out", "inbound_nodes": [[["OnOff_C3", 0, 0, {}], ["dense_330", 0, 0, {}]]], "config": {"name": "C3_out", "trainable": true}}, {"class_name": "Multiply", "name": "C4_out", "inbound_nodes": [[["OnOff_C4", 0, 0, {}], ["dense_335", 0, 0, {}]]], "config": {"name": "C4_out", "trainable": true}}, {"class_name": "Multiply", "name": "B1_out", "inbound_nodes": [[["OnOff_B1", 0, 0, {}], ["dense_340", 0, 0, {}]]], "config": {"name": "B1_out", "trainable": true}}, {"class_name": "Multiply", "name": "B3_out", "inbound_nodes": [[["OnOff_B3", 0, 0, {}], ["dense_345", 0, 0, {}]]], "config": {"name": "B3_out", "trainable": true}}, {"class_name": "Multiply", "name": "D1_out", "inbound_nodes": [[["OnOff_D1", 0, 0, {}], ["dense_350", 0, 0, {}]]], "config": {"name": "D1_out", "trainable": true}}, {"class_name": "Add", "name": "GJOA_TOTAL", "inbound_nodes": [[["C1_out", 0, 0, {}], ["C2_out", 0, 0, {}], ["C3_out", 0, 0, {}], ["C4_out", 0, 0, {}], ["B1_out", 0, 0, {}], ["B3_out", 0, 0, {}], ["D1_out", 0, 0, {}]]], "config": {"name": "GJOA_TOTAL", "trainable": true}}], "output_layers": [["C1_out", 0, 0], ["C2_out", 0, 0], ["C3_out", 0, 0], ["C4_out", 0, 0], ["B1_out", 0, 0], ["B3_out", 0, 0], ["D1_out", 0, 0], ["GJOA_TOTAL", 0, 0]]}}