{"backend": "theano", "class_name": "Model", "config": {"output_layers": [["F1_out", 0, 0], ["B2_out", 0, 0], ["D3_out", 0, 0], ["E1_out", 0, 0], ["GJOA_QGAS", 0, 0]], "layers": [{"name": "F1", "class_name": "InputLayer", "config": {"sparse": false, "dtype": "float32", "name": "F1", "batch_input_shape": [null, 4]}, "inbound_nodes": []}, {"name": "B2", "class_name": "InputLayer", "config": {"sparse": false, "dtype": "float32", "name": "B2", "batch_input_shape": [null, 4]}, "inbound_nodes": []}, {"name": "D3", "class_name": "InputLayer", "config": {"sparse": false, "dtype": "float32", "name": "D3", "batch_input_shape": [null, 4]}, "inbound_nodes": []}, {"name": "E1", "class_name": "InputLayer", "config": {"sparse": false, "dtype": "float32", "name": "E1", "batch_input_shape": [null, 4]}, "inbound_nodes": []}, {"name": "dense_121", "class_name": "Dense", "config": {"kernel_constraint": null, "bias_initializer": {"class_name": "Zeros", "config": {}}, "use_bias": true, "activation": "relu", "trainable": true, "bias_regularizer": null, "activity_regularizer": null, "bias_constraint": null, "kernel_initializer": {"class_name": "VarianceScaling", "config": {"scale": 1.0, "seed": 3014, "mode": "fan_avg", "distribution": "normal"}}, "name": "dense_121", "units": 60, "kernel_regularizer": {"class_name": "L1L2", "config": {"l1": 0.0, "l2": 9.999999747378752e-05}}}, "inbound_nodes": [[["F1", 0, 0, {}]]]}, {"name": "dense_124", "class_name": "Dense", "config": {"kernel_constraint": null, "bias_initializer": {"class_name": "Zeros", "config": {}}, "use_bias": true, "activation": "relu", "trainable": true, "bias_regularizer": null, "activity_regularizer": null, "bias_constraint": null, "kernel_initializer": {"class_name": "VarianceScaling", "config": {"scale": 1.0, "seed": 3014, "mode": "fan_avg", "distribution": "normal"}}, "name": "dense_124", "units": 60, "kernel_regularizer": {"class_name": "L1L2", "config": {"l1": 0.0, "l2": 9.999999747378752e-05}}}, "inbound_nodes": [[["B2", 0, 0, {}]]]}, {"name": "dense_127", "class_name": "Dense", "config": {"kernel_constraint": null, "bias_initializer": {"class_name": "Zeros", "config": {}}, "use_bias": true, "activation": "relu", "trainable": true, "bias_regularizer": null, "activity_regularizer": null, "bias_constraint": null, "kernel_initializer": {"class_name": "VarianceScaling", "config": {"scale": 1.0, "seed": 3014, "mode": "fan_avg", "distribution": "normal"}}, "name": "dense_127", "units": 60, "kernel_regularizer": {"class_name": "L1L2", "config": {"l1": 0.0, "l2": 9.999999747378752e-05}}}, "inbound_nodes": [[["D3", 0, 0, {}]]]}, {"name": "dense_130", "class_name": "Dense", "config": {"kernel_constraint": null, "bias_initializer": {"class_name": "Zeros", "config": {}}, "use_bias": true, "activation": "relu", "trainable": true, "bias_regularizer": null, "activity_regularizer": null, "bias_constraint": null, "kernel_initializer": {"class_name": "VarianceScaling", "config": {"scale": 1.0, "seed": 3014, "mode": "fan_avg", "distribution": "normal"}}, "name": "dense_130", "units": 60, "kernel_regularizer": {"class_name": "L1L2", "config": {"l1": 0.0, "l2": 9.999999747378752e-05}}}, "inbound_nodes": [[["E1", 0, 0, {}]]]}, {"name": "dense_122", "class_name": "Dense", "config": {"kernel_constraint": null, "bias_initializer": {"class_name": "Zeros", "config": {}}, "use_bias": true, "activation": "relu", "trainable": true, "bias_regularizer": null, "activity_regularizer": null, "bias_constraint": null, "kernel_initializer": {"class_name": "VarianceScaling", "config": {"scale": 1.0, "seed": 3014, "mode": "fan_avg", "distribution": "normal"}}, "name": "dense_122", "units": 60, "kernel_regularizer": {"class_name": "L1L2", "config": {"l1": 0.0, "l2": 9.999999747378752e-05}}}, "inbound_nodes": [[["dense_121", 0, 0, {}]]]}, {"name": "dense_125", "class_name": "Dense", "config": {"kernel_constraint": null, "bias_initializer": {"class_name": "Zeros", "config": {}}, "use_bias": true, "activation": "relu", "trainable": true, "bias_regularizer": null, "activity_regularizer": null, "bias_constraint": null, "kernel_initializer": {"class_name": "VarianceScaling", "config": {"scale": 1.0, "seed": 3014, "mode": "fan_avg", "distribution": "normal"}}, "name": "dense_125", "units": 60, "kernel_regularizer": {"class_name": "L1L2", "config": {"l1": 0.0, "l2": 9.999999747378752e-05}}}, "inbound_nodes": [[["dense_124", 0, 0, {}]]]}, {"name": "dense_128", "class_name": "Dense", "config": {"kernel_constraint": null, "bias_initializer": {"class_name": "Zeros", "config": {}}, "use_bias": true, "activation": "relu", "trainable": true, "bias_regularizer": null, "activity_regularizer": null, "bias_constraint": null, "kernel_initializer": {"class_name": "VarianceScaling", "config": {"scale": 1.0, "seed": 3014, "mode": "fan_avg", "distribution": "normal"}}, "name": "dense_128", "units": 60, "kernel_regularizer": {"class_name": "L1L2", "config": {"l1": 0.0, "l2": 9.999999747378752e-05}}}, "inbound_nodes": [[["dense_127", 0, 0, {}]]]}, {"name": "dense_131", "class_name": "Dense", "config": {"kernel_constraint": null, "bias_initializer": {"class_name": "Zeros", "config": {}}, "use_bias": true, "activation": "relu", "trainable": true, "bias_regularizer": null, "activity_regularizer": null, "bias_constraint": null, "kernel_initializer": {"class_name": "VarianceScaling", "config": {"scale": 1.0, "seed": 3014, "mode": "fan_avg", "distribution": "normal"}}, "name": "dense_131", "units": 60, "kernel_regularizer": {"class_name": "L1L2", "config": {"l1": 0.0, "l2": 9.999999747378752e-05}}}, "inbound_nodes": [[["dense_130", 0, 0, {}]]]}, {"name": "OnOff_F1", "class_name": "InputLayer", "config": {"sparse": false, "dtype": "float32", "name": "OnOff_F1", "batch_input_shape": [null, 1]}, "inbound_nodes": []}, {"name": "dense_123", "class_name": "Dense", "config": {"kernel_constraint": null, "bias_initializer": {"class_name": "Zeros", "config": {}}, "use_bias": true, "activation": "relu", "trainable": true, "bias_regularizer": null, "activity_regularizer": null, "bias_constraint": null, "kernel_initializer": {"class_name": "VarianceScaling", "config": {"scale": 1.0, "seed": 3014, "mode": "fan_avg", "distribution": "normal"}}, "name": "dense_123", "units": 1, "kernel_regularizer": {"class_name": "L1L2", "config": {"l1": 0.0, "l2": 9.999999747378752e-05}}}, "inbound_nodes": [[["dense_122", 0, 0, {}]]]}, {"name": "OnOff_B2", "class_name": "InputLayer", "config": {"sparse": false, "dtype": "float32", "name": "OnOff_B2", "batch_input_shape": [null, 1]}, "inbound_nodes": []}, {"name": "dense_126", "class_name": "Dense", "config": {"kernel_constraint": null, "bias_initializer": {"class_name": "Zeros", "config": {}}, "use_bias": true, "activation": "relu", "trainable": true, "bias_regularizer": null, "activity_regularizer": null, "bias_constraint": null, "kernel_initializer": {"class_name": "VarianceScaling", "config": {"scale": 1.0, "seed": 3014, "mode": "fan_avg", "distribution": "normal"}}, "name": "dense_126", "units": 1, "kernel_regularizer": {"class_name": "L1L2", "config": {"l1": 0.0, "l2": 9.999999747378752e-05}}}, "inbound_nodes": [[["dense_125", 0, 0, {}]]]}, {"name": "OnOff_D3", "class_name": "InputLayer", "config": {"sparse": false, "dtype": "float32", "name": "OnOff_D3", "batch_input_shape": [null, 1]}, "inbound_nodes": []}, {"name": "dense_129", "class_name": "Dense", "config": {"kernel_constraint": null, "bias_initializer": {"class_name": "Zeros", "config": {}}, "use_bias": true, "activation": "relu", "trainable": true, "bias_regularizer": null, "activity_regularizer": null, "bias_constraint": null, "kernel_initializer": {"class_name": "VarianceScaling", "config": {"scale": 1.0, "seed": 3014, "mode": "fan_avg", "distribution": "normal"}}, "name": "dense_129", "units": 1, "kernel_regularizer": {"class_name": "L1L2", "config": {"l1": 0.0, "l2": 9.999999747378752e-05}}}, "inbound_nodes": [[["dense_128", 0, 0, {}]]]}, {"name": "OnOff_E1", "class_name": "InputLayer", "config": {"sparse": false, "dtype": "float32", "name": "OnOff_E1", "batch_input_shape": [null, 1]}, "inbound_nodes": []}, {"name": "dense_132", "class_name": "Dense", "config": {"kernel_constraint": null, "bias_initializer": {"class_name": "Zeros", "config": {}}, "use_bias": true, "activation": "relu", "trainable": true, "bias_regularizer": null, "activity_regularizer": null, "bias_constraint": null, "kernel_initializer": {"class_name": "VarianceScaling", "config": {"scale": 1.0, "seed": 3014, "mode": "fan_avg", "distribution": "normal"}}, "name": "dense_132", "units": 1, "kernel_regularizer": {"class_name": "L1L2", "config": {"l1": 0.0, "l2": 9.999999747378752e-05}}}, "inbound_nodes": [[["dense_131", 0, 0, {}]]]}, {"name": "F1_out", "class_name": "Multiply", "config": {"trainable": true, "name": "F1_out"}, "inbound_nodes": [[["OnOff_F1", 0, 0, {}], ["dense_123", 0, 0, {}]]]}, {"name": "B2_out", "class_name": "Multiply", "config": {"trainable": true, "name": "B2_out"}, "inbound_nodes": [[["OnOff_B2", 0, 0, {}], ["dense_126", 0, 0, {}]]]}, {"name": "D3_out", "class_name": "Multiply", "config": {"trainable": true, "name": "D3_out"}, "inbound_nodes": [[["OnOff_D3", 0, 0, {}], ["dense_129", 0, 0, {}]]]}, {"name": "E1_out", "class_name": "Multiply", "config": {"trainable": true, "name": "E1_out"}, "inbound_nodes": [[["OnOff_E1", 0, 0, {}], ["dense_132", 0, 0, {}]]]}, {"name": "GJOA_QGAS", "class_name": "Add", "config": {"trainable": true, "name": "GJOA_QGAS"}, "inbound_nodes": [[["F1_out", 0, 0, {}], ["B2_out", 0, 0, {}], ["D3_out", 0, 0, {}], ["E1_out", 0, 0, {}]]]}], "name": "model_11", "input_layers": [["F1", 0, 0], ["B2", 0, 0], ["D3", 0, 0], ["E1", 0, 0], ["OnOff_F1", 0, 0], ["OnOff_B2", 0, 0], ["OnOff_D3", 0, 0], ["OnOff_E1", 0, 0]]}, "keras_version": "2.0.1"}