{"config": {"name": "model_5", "layers": [{"config": {"dtype": "float32", "name": "C1", "sparse": false, "batch_input_shape": [null, 4]}, "inbound_nodes": [], "class_name": "InputLayer", "name": "C1"}, {"config": {"dtype": "float32", "name": "C2", "sparse": false, "batch_input_shape": [null, 3]}, "inbound_nodes": [], "class_name": "InputLayer", "name": "C2"}, {"config": {"dtype": "float32", "name": "C3", "sparse": false, "batch_input_shape": [null, 4]}, "inbound_nodes": [], "class_name": "InputLayer", "name": "C3"}, {"config": {"dtype": "float32", "name": "C4", "sparse": false, "batch_input_shape": [null, 4]}, "inbound_nodes": [], "class_name": "InputLayer", "name": "C4"}, {"config": {"dtype": "float32", "name": "B1", "sparse": false, "batch_input_shape": [null, 4]}, "inbound_nodes": [], "class_name": "InputLayer", "name": "B1"}, {"config": {"dtype": "float32", "name": "B3", "sparse": false, "batch_input_shape": [null, 4]}, "inbound_nodes": [], "class_name": "InputLayer", "name": "B3"}, {"config": {"dtype": "float32", "name": "D1", "sparse": false, "batch_input_shape": [null, 3]}, "inbound_nodes": [], "class_name": "InputLayer", "name": "D1"}, {"config": {"activity_regularizer": null, "kernel_regularizer": {"config": {"l2": 9.999999747378752e-05, "l1": 0.0}, "class_name": "L1L2"}, "trainable": true, "name": "dense_92", "kernel_initializer": {"config": {"scale": 1.0, "seed": 3014, "mode": "fan_avg", "distribution": "normal"}, "class_name": "VarianceScaling"}, "bias_regularizer": null, "units": 40, "kernel_constraint": null, "activation": "relu", "bias_constraint": null, "use_bias": true, "bias_initializer": {"config": {}, "class_name": "Zeros"}}, "inbound_nodes": [[["C1", 0, 0, {}]]], "class_name": "Dense", "name": "dense_92"}, {"config": {"activity_regularizer": null, "kernel_regularizer": {"config": {"l2": 9.999999747378752e-05, "l1": 0.0}, "class_name": "L1L2"}, "trainable": true, "name": "dense_96", "kernel_initializer": {"config": {"scale": 1.0, "seed": 3014, "mode": "fan_avg", "distribution": "normal"}, "class_name": "VarianceScaling"}, "bias_regularizer": null, "units": 40, "kernel_constraint": null, "activation": "relu", "bias_constraint": null, "use_bias": true, "bias_initializer": {"config": {}, "class_name": "Zeros"}}, "inbound_nodes": [[["C2", 0, 0, {}]]], "class_name": "Dense", "name": "dense_96"}, {"config": {"activity_regularizer": null, "kernel_regularizer": {"config": {"l2": 9.999999747378752e-05, "l1": 0.0}, "class_name": "L1L2"}, "trainable": true, "name": "dense_100", "kernel_initializer": {"config": {"scale": 1.0, "seed": 3014, "mode": "fan_avg", "distribution": "normal"}, "class_name": "VarianceScaling"}, "bias_regularizer": null, "units": 40, "kernel_constraint": null, "activation": "relu", "bias_constraint": null, "use_bias": true, "bias_initializer": {"config": {}, "class_name": "Zeros"}}, "inbound_nodes": [[["C3", 0, 0, {}]]], "class_name": "Dense", "name": "dense_100"}, {"config": {"activity_regularizer": null, "kernel_regularizer": {"config": {"l2": 9.999999747378752e-05, "l1": 0.0}, "class_name": "L1L2"}, "trainable": true, "name": "dense_104", "kernel_initializer": {"config": {"scale": 1.0, "seed": 3014, "mode": "fan_avg", "distribution": "normal"}, "class_name": "VarianceScaling"}, "bias_regularizer": null, "units": 40, "kernel_constraint": null, "activation": "relu", "bias_constraint": null, "use_bias": true, "bias_initializer": {"config": {}, "class_name": "Zeros"}}, "inbound_nodes": [[["C4", 0, 0, {}]]], "class_name": "Dense", "name": "dense_104"}, {"config": {"activity_regularizer": null, "kernel_regularizer": {"config": {"l2": 9.999999747378752e-05, "l1": 0.0}, "class_name": "L1L2"}, "trainable": true, "name": "dense_108", "kernel_initializer": {"config": {"scale": 1.0, "seed": 3014, "mode": "fan_avg", "distribution": "normal"}, "class_name": "VarianceScaling"}, "bias_regularizer": null, "units": 40, "kernel_constraint": null, "activation": "relu", "bias_constraint": null, "use_bias": true, "bias_initializer": {"config": {}, "class_name": "Zeros"}}, "inbound_nodes": [[["B1", 0, 0, {}]]], "class_name": "Dense", "name": "dense_108"}, {"config": {"activity_regularizer": null, "kernel_regularizer": {"config": {"l2": 9.999999747378752e-05, "l1": 0.0}, "class_name": "L1L2"}, "trainable": true, "name": "dense_112", "kernel_initializer": {"config": {"scale": 1.0, "seed": 3014, "mode": "fan_avg", "distribution": "normal"}, "class_name": "VarianceScaling"}, "bias_regularizer": null, "units": 40, "kernel_constraint": null, "activation": "relu", "bias_constraint": null, "use_bias": true, "bias_initializer": {"config": {}, "class_name": "Zeros"}}, "inbound_nodes": [[["B3", 0, 0, {}]]], "class_name": "Dense", "name": "dense_112"}, {"config": {"activity_regularizer": null, "kernel_regularizer": {"config": {"l2": 9.999999747378752e-05, "l1": 0.0}, "class_name": "L1L2"}, "trainable": true, "name": "dense_116", "kernel_initializer": {"config": {"scale": 1.0, "seed": 3014, "mode": "fan_avg", "distribution": "normal"}, "class_name": "VarianceScaling"}, "bias_regularizer": null, "units": 40, "kernel_constraint": null, "activation": "relu", "bias_constraint": null, "use_bias": true, "bias_initializer": {"config": {}, "class_name": "Zeros"}}, "inbound_nodes": [[["D1", 0, 0, {}]]], "class_name": "Dense", "name": "dense_116"}, {"config": {"activity_regularizer": null, "kernel_regularizer": {"config": {"l2": 9.999999747378752e-05, "l1": 0.0}, "class_name": "L1L2"}, "trainable": true, "name": "dense_93", "kernel_initializer": {"config": {"scale": 1.0, "seed": 3014, "mode": "fan_avg", "distribution": "normal"}, "class_name": "VarianceScaling"}, "bias_regularizer": null, "units": 40, "kernel_constraint": null, "activation": "relu", "bias_constraint": null, "use_bias": true, "bias_initializer": {"config": {}, "class_name": "Zeros"}}, "inbound_nodes": [[["dense_92", 0, 0, {}]]], "class_name": "Dense", "name": "dense_93"}, {"config": {"activity_regularizer": null, "kernel_regularizer": {"config": {"l2": 9.999999747378752e-05, "l1": 0.0}, "class_name": "L1L2"}, "trainable": true, "name": "dense_97", "kernel_initializer": {"config": {"scale": 1.0, "seed": 3014, "mode": "fan_avg", "distribution": "normal"}, "class_name": "VarianceScaling"}, "bias_regularizer": null, "units": 40, "kernel_constraint": null, "activation": "relu", "bias_constraint": null, "use_bias": true, "bias_initializer": {"config": {}, "class_name": "Zeros"}}, "inbound_nodes": [[["dense_96", 0, 0, {}]]], "class_name": "Dense", "name": "dense_97"}, {"config": {"activity_regularizer": null, "kernel_regularizer": {"config": {"l2": 9.999999747378752e-05, "l1": 0.0}, "class_name": "L1L2"}, "trainable": true, "name": "dense_101", "kernel_initializer": {"config": {"scale": 1.0, "seed": 3014, "mode": "fan_avg", "distribution": "normal"}, "class_name": "VarianceScaling"}, "bias_regularizer": null, "units": 40, "kernel_constraint": null, "activation": "relu", "bias_constraint": null, "use_bias": true, "bias_initializer": {"config": {}, "class_name": "Zeros"}}, "inbound_nodes": [[["dense_100", 0, 0, {}]]], "class_name": "Dense", "name": "dense_101"}, {"config": {"activity_regularizer": null, "kernel_regularizer": {"config": {"l2": 9.999999747378752e-05, "l1": 0.0}, "class_name": "L1L2"}, "trainable": true, "name": "dense_105", "kernel_initializer": {"config": {"scale": 1.0, "seed": 3014, "mode": "fan_avg", "distribution": "normal"}, "class_name": "VarianceScaling"}, "bias_regularizer": null, "units": 40, "kernel_constraint": null, "activation": "relu", "bias_constraint": null, "use_bias": true, "bias_initializer": {"config": {}, "class_name": "Zeros"}}, "inbound_nodes": [[["dense_104", 0, 0, {}]]], "class_name": "Dense", "name": "dense_105"}, {"config": {"activity_regularizer": null, "kernel_regularizer": {"config": {"l2": 9.999999747378752e-05, "l1": 0.0}, "class_name": "L1L2"}, "trainable": true, "name": "dense_109", "kernel_initializer": {"config": {"scale": 1.0, "seed": 3014, "mode": "fan_avg", "distribution": "normal"}, "class_name": "VarianceScaling"}, "bias_regularizer": null, "units": 40, "kernel_constraint": null, "activation": "relu", "bias_constraint": null, "use_bias": true, "bias_initializer": {"config": {}, "class_name": "Zeros"}}, "inbound_nodes": [[["dense_108", 0, 0, {}]]], "class_name": "Dense", "name": "dense_109"}, {"config": {"activity_regularizer": null, "kernel_regularizer": {"config": {"l2": 9.999999747378752e-05, "l1": 0.0}, "class_name": "L1L2"}, "trainable": true, "name": "dense_113", "kernel_initializer": {"config": {"scale": 1.0, "seed": 3014, "mode": "fan_avg", "distribution": "normal"}, "class_name": "VarianceScaling"}, "bias_regularizer": null, "units": 40, "kernel_constraint": null, "activation": "relu", "bias_constraint": null, "use_bias": true, "bias_initializer": {"config": {}, "class_name": "Zeros"}}, "inbound_nodes": [[["dense_112", 0, 0, {}]]], "class_name": "Dense", "name": "dense_113"}, {"config": {"activity_regularizer": null, "kernel_regularizer": {"config": {"l2": 9.999999747378752e-05, "l1": 0.0}, "class_name": "L1L2"}, "trainable": true, "name": "dense_117", "kernel_initializer": {"config": {"scale": 1.0, "seed": 3014, "mode": "fan_avg", "distribution": "normal"}, "class_name": "VarianceScaling"}, "bias_regularizer": null, "units": 40, "kernel_constraint": null, "activation": "relu", "bias_constraint": null, "use_bias": true, "bias_initializer": {"config": {}, "class_name": "Zeros"}}, "inbound_nodes": [[["dense_116", 0, 0, {}]]], "class_name": "Dense", "name": "dense_117"}, {"config": {"activity_regularizer": null, "kernel_regularizer": {"config": {"l2": 9.999999747378752e-05, "l1": 0.0}, "class_name": "L1L2"}, "trainable": true, "name": "dense_94", "kernel_initializer": {"config": {"scale": 1.0, "seed": 3014, "mode": "fan_avg", "distribution": "normal"}, "class_name": "VarianceScaling"}, "bias_regularizer": null, "units": 40, "kernel_constraint": null, "activation": "relu", "bias_constraint": null, "use_bias": true, "bias_initializer": {"config": {}, "class_name": "Zeros"}}, "inbound_nodes": [[["dense_93", 0, 0, {}]]], "class_name": "Dense", "name": "dense_94"}, {"config": {"activity_regularizer": null, "kernel_regularizer": {"config": {"l2": 9.999999747378752e-05, "l1": 0.0}, "class_name": "L1L2"}, "trainable": true, "name": "dense_98", "kernel_initializer": {"config": {"scale": 1.0, "seed": 3014, "mode": "fan_avg", "distribution": "normal"}, "class_name": "VarianceScaling"}, "bias_regularizer": null, "units": 40, "kernel_constraint": null, "activation": "relu", "bias_constraint": null, "use_bias": true, "bias_initializer": {"config": {}, "class_name": "Zeros"}}, "inbound_nodes": [[["dense_97", 0, 0, {}]]], "class_name": "Dense", "name": "dense_98"}, {"config": {"activity_regularizer": null, "kernel_regularizer": {"config": {"l2": 9.999999747378752e-05, "l1": 0.0}, "class_name": "L1L2"}, "trainable": true, "name": "dense_102", "kernel_initializer": {"config": {"scale": 1.0, "seed": 3014, "mode": "fan_avg", "distribution": "normal"}, "class_name": "VarianceScaling"}, "bias_regularizer": null, "units": 40, "kernel_constraint": null, "activation": "relu", "bias_constraint": null, "use_bias": true, "bias_initializer": {"config": {}, "class_name": "Zeros"}}, "inbound_nodes": [[["dense_101", 0, 0, {}]]], "class_name": "Dense", "name": "dense_102"}, {"config": {"activity_regularizer": null, "kernel_regularizer": {"config": {"l2": 9.999999747378752e-05, "l1": 0.0}, "class_name": "L1L2"}, "trainable": true, "name": "dense_106", "kernel_initializer": {"config": {"scale": 1.0, "seed": 3014, "mode": "fan_avg", "distribution": "normal"}, "class_name": "VarianceScaling"}, "bias_regularizer": null, "units": 40, "kernel_constraint": null, "activation": "relu", "bias_constraint": null, "use_bias": true, "bias_initializer": {"config": {}, "class_name": "Zeros"}}, "inbound_nodes": [[["dense_105", 0, 0, {}]]], "class_name": "Dense", "name": "dense_106"}, {"config": {"activity_regularizer": null, "kernel_regularizer": {"config": {"l2": 9.999999747378752e-05, "l1": 0.0}, "class_name": "L1L2"}, "trainable": true, "name": "dense_110", "kernel_initializer": {"config": {"scale": 1.0, "seed": 3014, "mode": "fan_avg", "distribution": "normal"}, "class_name": "VarianceScaling"}, "bias_regularizer": null, "units": 40, "kernel_constraint": null, "activation": "relu", "bias_constraint": null, "use_bias": true, "bias_initializer": {"config": {}, "class_name": "Zeros"}}, "inbound_nodes": [[["dense_109", 0, 0, {}]]], "class_name": "Dense", "name": "dense_110"}, {"config": {"activity_regularizer": null, "kernel_regularizer": {"config": {"l2": 9.999999747378752e-05, "l1": 0.0}, "class_name": "L1L2"}, "trainable": true, "name": "dense_114", "kernel_initializer": {"config": {"scale": 1.0, "seed": 3014, "mode": "fan_avg", "distribution": "normal"}, "class_name": "VarianceScaling"}, "bias_regularizer": null, "units": 40, "kernel_constraint": null, "activation": "relu", "bias_constraint": null, "use_bias": true, "bias_initializer": {"config": {}, "class_name": "Zeros"}}, "inbound_nodes": [[["dense_113", 0, 0, {}]]], "class_name": "Dense", "name": "dense_114"}, {"config": {"activity_regularizer": null, "kernel_regularizer": {"config": {"l2": 9.999999747378752e-05, "l1": 0.0}, "class_name": "L1L2"}, "trainable": true, "name": "dense_118", "kernel_initializer": {"config": {"scale": 1.0, "seed": 3014, "mode": "fan_avg", "distribution": "normal"}, "class_name": "VarianceScaling"}, "bias_regularizer": null, "units": 40, "kernel_constraint": null, "activation": "relu", "bias_constraint": null, "use_bias": true, "bias_initializer": {"config": {}, "class_name": "Zeros"}}, "inbound_nodes": [[["dense_117", 0, 0, {}]]], "class_name": "Dense", "name": "dense_118"}, {"config": {"dtype": "float32", "name": "OnOff_C1", "sparse": false, "batch_input_shape": [null, 1]}, "inbound_nodes": [], "class_name": "InputLayer", "name": "OnOff_C1"}, {"config": {"activity_regularizer": null, "kernel_regularizer": {"config": {"l2": 9.999999747378752e-05, "l1": 0.0}, "class_name": "L1L2"}, "trainable": true, "name": "dense_95", "kernel_initializer": {"config": {"scale": 1.0, "seed": 3014, "mode": "fan_avg", "distribution": "normal"}, "class_name": "VarianceScaling"}, "bias_regularizer": null, "units": 1, "kernel_constraint": null, "activation": "relu", "bias_constraint": null, "use_bias": true, "bias_initializer": {"config": {}, "class_name": "Zeros"}}, "inbound_nodes": [[["dense_94", 0, 0, {}]]], "class_name": "Dense", "name": "dense_95"}, {"config": {"dtype": "float32", "name": "OnOff_C2", "sparse": false, "batch_input_shape": [null, 1]}, "inbound_nodes": [], "class_name": "InputLayer", "name": "OnOff_C2"}, {"config": {"activity_regularizer": null, "kernel_regularizer": {"config": {"l2": 9.999999747378752e-05, "l1": 0.0}, "class_name": "L1L2"}, "trainable": true, "name": "dense_99", "kernel_initializer": {"config": {"scale": 1.0, "seed": 3014, "mode": "fan_avg", "distribution": "normal"}, "class_name": "VarianceScaling"}, "bias_regularizer": null, "units": 1, "kernel_constraint": null, "activation": "relu", "bias_constraint": null, "use_bias": true, "bias_initializer": {"config": {}, "class_name": "Zeros"}}, "inbound_nodes": [[["dense_98", 0, 0, {}]]], "class_name": "Dense", "name": "dense_99"}, {"config": {"dtype": "float32", "name": "OnOff_C3", "sparse": false, "batch_input_shape": [null, 1]}, "inbound_nodes": [], "class_name": "InputLayer", "name": "OnOff_C3"}, {"config": {"activity_regularizer": null, "kernel_regularizer": {"config": {"l2": 9.999999747378752e-05, "l1": 0.0}, "class_name": "L1L2"}, "trainable": true, "name": "dense_103", "kernel_initializer": {"config": {"scale": 1.0, "seed": 3014, "mode": "fan_avg", "distribution": "normal"}, "class_name": "VarianceScaling"}, "bias_regularizer": null, "units": 1, "kernel_constraint": null, "activation": "relu", "bias_constraint": null, "use_bias": true, "bias_initializer": {"config": {}, "class_name": "Zeros"}}, "inbound_nodes": [[["dense_102", 0, 0, {}]]], "class_name": "Dense", "name": "dense_103"}, {"config": {"dtype": "float32", "name": "OnOff_C4", "sparse": false, "batch_input_shape": [null, 1]}, "inbound_nodes": [], "class_name": "InputLayer", "name": "OnOff_C4"}, {"config": {"activity_regularizer": null, "kernel_regularizer": {"config": {"l2": 9.999999747378752e-05, "l1": 0.0}, "class_name": "L1L2"}, "trainable": true, "name": "dense_107", "kernel_initializer": {"config": {"scale": 1.0, "seed": 3014, "mode": "fan_avg", "distribution": "normal"}, "class_name": "VarianceScaling"}, "bias_regularizer": null, "units": 1, "kernel_constraint": null, "activation": "relu", "bias_constraint": null, "use_bias": true, "bias_initializer": {"config": {}, "class_name": "Zeros"}}, "inbound_nodes": [[["dense_106", 0, 0, {}]]], "class_name": "Dense", "name": "dense_107"}, {"config": {"dtype": "float32", "name": "OnOff_B1", "sparse": false, "batch_input_shape": [null, 1]}, "inbound_nodes": [], "class_name": "InputLayer", "name": "OnOff_B1"}, {"config": {"activity_regularizer": null, "kernel_regularizer": {"config": {"l2": 9.999999747378752e-05, "l1": 0.0}, "class_name": "L1L2"}, "trainable": true, "name": "dense_111", "kernel_initializer": {"config": {"scale": 1.0, "seed": 3014, "mode": "fan_avg", "distribution": "normal"}, "class_name": "VarianceScaling"}, "bias_regularizer": null, "units": 1, "kernel_constraint": null, "activation": "relu", "bias_constraint": null, "use_bias": true, "bias_initializer": {"config": {}, "class_name": "Zeros"}}, "inbound_nodes": [[["dense_110", 0, 0, {}]]], "class_name": "Dense", "name": "dense_111"}, {"config": {"dtype": "float32", "name": "OnOff_B3", "sparse": false, "batch_input_shape": [null, 1]}, "inbound_nodes": [], "class_name": "InputLayer", "name": "OnOff_B3"}, {"config": {"activity_regularizer": null, "kernel_regularizer": {"config": {"l2": 9.999999747378752e-05, "l1": 0.0}, "class_name": "L1L2"}, "trainable": true, "name": "dense_115", "kernel_initializer": {"config": {"scale": 1.0, "seed": 3014, "mode": "fan_avg", "distribution": "normal"}, "class_name": "VarianceScaling"}, "bias_regularizer": null, "units": 1, "kernel_constraint": null, "activation": "relu", "bias_constraint": null, "use_bias": true, "bias_initializer": {"config": {}, "class_name": "Zeros"}}, "inbound_nodes": [[["dense_114", 0, 0, {}]]], "class_name": "Dense", "name": "dense_115"}, {"config": {"dtype": "float32", "name": "OnOff_D1", "sparse": false, "batch_input_shape": [null, 1]}, "inbound_nodes": [], "class_name": "InputLayer", "name": "OnOff_D1"}, {"config": {"activity_regularizer": null, "kernel_regularizer": {"config": {"l2": 9.999999747378752e-05, "l1": 0.0}, "class_name": "L1L2"}, "trainable": true, "name": "dense_119", "kernel_initializer": {"config": {"scale": 1.0, "seed": 3014, "mode": "fan_avg", "distribution": "normal"}, "class_name": "VarianceScaling"}, "bias_regularizer": null, "units": 1, "kernel_constraint": null, "activation": "relu", "bias_constraint": null, "use_bias": true, "bias_initializer": {"config": {}, "class_name": "Zeros"}}, "inbound_nodes": [[["dense_118", 0, 0, {}]]], "class_name": "Dense", "name": "dense_119"}, {"config": {"name": "C1_out", "trainable": true}, "inbound_nodes": [[["OnOff_C1", 0, 0, {}], ["dense_95", 0, 0, {}]]], "class_name": "Multiply", "name": "C1_out"}, {"config": {"name": "C2_out", "trainable": true}, "inbound_nodes": [[["OnOff_C2", 0, 0, {}], ["dense_99", 0, 0, {}]]], "class_name": "Multiply", "name": "C2_out"}, {"config": {"name": "C3_out", "trainable": true}, "inbound_nodes": [[["OnOff_C3", 0, 0, {}], ["dense_103", 0, 0, {}]]], "class_name": "Multiply", "name": "C3_out"}, {"config": {"name": "C4_out", "trainable": true}, "inbound_nodes": [[["OnOff_C4", 0, 0, {}], ["dense_107", 0, 0, {}]]], "class_name": "Multiply", "name": "C4_out"}, {"config": {"name": "B1_out", "trainable": true}, "inbound_nodes": [[["OnOff_B1", 0, 0, {}], ["dense_111", 0, 0, {}]]], "class_name": "Multiply", "name": "B1_out"}, {"config": {"name": "B3_out", "trainable": true}, "inbound_nodes": [[["OnOff_B3", 0, 0, {}], ["dense_115", 0, 0, {}]]], "class_name": "Multiply", "name": "B3_out"}, {"config": {"name": "D1_out", "trainable": true}, "inbound_nodes": [[["OnOff_D1", 0, 0, {}], ["dense_119", 0, 0, {}]]], "class_name": "Multiply", "name": "D1_out"}, {"config": {"name": "GJOA_TOTAL", "trainable": true}, "inbound_nodes": [[["C1_out", 0, 0, {}], ["C2_out", 0, 0, {}], ["C3_out", 0, 0, {}], ["C4_out", 0, 0, {}], ["B1_out", 0, 0, {}], ["B3_out", 0, 0, {}], ["D1_out", 0, 0, {}]]], "class_name": "Add", "name": "GJOA_TOTAL"}], "output_layers": [["C1_out", 0, 0], ["C2_out", 0, 0], ["C3_out", 0, 0], ["C4_out", 0, 0], ["B1_out", 0, 0], ["B3_out", 0, 0], ["D1_out", 0, 0], ["GJOA_TOTAL", 0, 0]], "input_layers": [["C1", 0, 0], ["C2", 0, 0], ["C3", 0, 0], ["C4", 0, 0], ["B1", 0, 0], ["B3", 0, 0], ["D1", 0, 0], ["OnOff_C1", 0, 0], ["OnOff_C2", 0, 0], ["OnOff_C3", 0, 0], ["OnOff_C4", 0, 0], ["OnOff_B1", 0, 0], ["OnOff_B3", 0, 0], ["OnOff_D1", 0, 0]]}, "keras_version": "2.0.1", "class_name": "Model", "backend": "theano"}