{"backend": "theano", "keras_version": "2.0.1", "class_name": "Model", "config": {"layers": [{"class_name": "InputLayer", "name": "C1", "config": {"batch_input_shape": [null, 4], "name": "C1", "dtype": "float32", "sparse": false}, "inbound_nodes": []}, {"class_name": "InputLayer", "name": "C2", "config": {"batch_input_shape": [null, 3], "name": "C2", "dtype": "float32", "sparse": false}, "inbound_nodes": []}, {"class_name": "InputLayer", "name": "C3", "config": {"batch_input_shape": [null, 4], "name": "C3", "dtype": "float32", "sparse": false}, "inbound_nodes": []}, {"class_name": "InputLayer", "name": "C4", "config": {"batch_input_shape": [null, 4], "name": "C4", "dtype": "float32", "sparse": false}, "inbound_nodes": []}, {"class_name": "InputLayer", "name": "B1", "config": {"batch_input_shape": [null, 4], "name": "B1", "dtype": "float32", "sparse": false}, "inbound_nodes": []}, {"class_name": "InputLayer", "name": "B3", "config": {"batch_input_shape": [null, 4], "name": "B3", "dtype": "float32", "sparse": false}, "inbound_nodes": []}, {"class_name": "InputLayer", "name": "D1", "config": {"batch_input_shape": [null, 3], "name": "D1", "dtype": "float32", "sparse": false}, "inbound_nodes": []}, {"class_name": "Dense", "name": "dense_190", "config": {"use_bias": true, "name": "dense_190", "trainable": true, "activity_regularizer": null, "bias_regularizer": null, "kernel_regularizer": {"class_name": "L1L2", "config": {"l2": 9.999999747378752e-05, "l1": 0.0}}, "units": 50, "bias_initializer": {"class_name": "Zeros", "config": {}}, "kernel_constraint": null, "activation": "relu", "kernel_initializer": {"class_name": "VarianceScaling", "config": {"distribution": "normal", "seed": 3014, "scale": 1.0, "mode": "fan_avg"}}, "bias_constraint": null}, "inbound_nodes": [[["C1", 0, 0, {}]]]}, {"class_name": "Dense", "name": "dense_193", "config": {"use_bias": true, "name": "dense_193", "trainable": true, "activity_regularizer": null, "bias_regularizer": null, "kernel_regularizer": {"class_name": "L1L2", "config": {"l2": 9.999999747378752e-05, "l1": 0.0}}, "units": 50, "bias_initializer": {"class_name": "Zeros", "config": {}}, "kernel_constraint": null, "activation": "relu", "kernel_initializer": {"class_name": "VarianceScaling", "config": {"distribution": "normal", "seed": 3014, "scale": 1.0, "mode": "fan_avg"}}, "bias_constraint": null}, "inbound_nodes": [[["C2", 0, 0, {}]]]}, {"class_name": "Dense", "name": "dense_196", "config": {"use_bias": true, "name": "dense_196", "trainable": true, "activity_regularizer": null, "bias_regularizer": null, "kernel_regularizer": {"class_name": "L1L2", "config": {"l2": 9.999999747378752e-05, "l1": 0.0}}, "units": 50, "bias_initializer": {"class_name": "Zeros", "config": {}}, "kernel_constraint": null, "activation": "relu", "kernel_initializer": {"class_name": "VarianceScaling", "config": {"distribution": "normal", "seed": 3014, "scale": 1.0, "mode": "fan_avg"}}, "bias_constraint": null}, "inbound_nodes": [[["C3", 0, 0, {}]]]}, {"class_name": "Dense", "name": "dense_199", "config": {"use_bias": true, "name": "dense_199", "trainable": true, "activity_regularizer": null, "bias_regularizer": null, "kernel_regularizer": {"class_name": "L1L2", "config": {"l2": 9.999999747378752e-05, "l1": 0.0}}, "units": 50, "bias_initializer": {"class_name": "Zeros", "config": {}}, "kernel_constraint": null, "activation": "relu", "kernel_initializer": {"class_name": "VarianceScaling", "config": {"distribution": "normal", "seed": 3014, "scale": 1.0, "mode": "fan_avg"}}, "bias_constraint": null}, "inbound_nodes": [[["C4", 0, 0, {}]]]}, {"class_name": "Dense", "name": "dense_202", "config": {"use_bias": true, "name": "dense_202", "trainable": true, "activity_regularizer": null, "bias_regularizer": null, "kernel_regularizer": {"class_name": "L1L2", "config": {"l2": 9.999999747378752e-05, "l1": 0.0}}, "units": 50, "bias_initializer": {"class_name": "Zeros", "config": {}}, "kernel_constraint": null, "activation": "relu", "kernel_initializer": {"class_name": "VarianceScaling", "config": {"distribution": "normal", "seed": 3014, "scale": 1.0, "mode": "fan_avg"}}, "bias_constraint": null}, "inbound_nodes": [[["B1", 0, 0, {}]]]}, {"class_name": "Dense", "name": "dense_205", "config": {"use_bias": true, "name": "dense_205", "trainable": true, "activity_regularizer": null, "bias_regularizer": null, "kernel_regularizer": {"class_name": "L1L2", "config": {"l2": 9.999999747378752e-05, "l1": 0.0}}, "units": 50, "bias_initializer": {"class_name": "Zeros", "config": {}}, "kernel_constraint": null, "activation": "relu", "kernel_initializer": {"class_name": "VarianceScaling", "config": {"distribution": "normal", "seed": 3014, "scale": 1.0, "mode": "fan_avg"}}, "bias_constraint": null}, "inbound_nodes": [[["B3", 0, 0, {}]]]}, {"class_name": "Dense", "name": "dense_208", "config": {"use_bias": true, "name": "dense_208", "trainable": true, "activity_regularizer": null, "bias_regularizer": null, "kernel_regularizer": {"class_name": "L1L2", "config": {"l2": 9.999999747378752e-05, "l1": 0.0}}, "units": 50, "bias_initializer": {"class_name": "Zeros", "config": {}}, "kernel_constraint": null, "activation": "relu", "kernel_initializer": {"class_name": "VarianceScaling", "config": {"distribution": "normal", "seed": 3014, "scale": 1.0, "mode": "fan_avg"}}, "bias_constraint": null}, "inbound_nodes": [[["D1", 0, 0, {}]]]}, {"class_name": "Dense", "name": "dense_191", "config": {"use_bias": true, "name": "dense_191", "trainable": true, "activity_regularizer": null, "bias_regularizer": null, "kernel_regularizer": {"class_name": "L1L2", "config": {"l2": 9.999999747378752e-05, "l1": 0.0}}, "units": 50, "bias_initializer": {"class_name": "Zeros", "config": {}}, "kernel_constraint": null, "activation": "relu", "kernel_initializer": {"class_name": "VarianceScaling", "config": {"distribution": "normal", "seed": 3014, "scale": 1.0, "mode": "fan_avg"}}, "bias_constraint": null}, "inbound_nodes": [[["dense_190", 0, 0, {}]]]}, {"class_name": "Dense", "name": "dense_194", "config": {"use_bias": true, "name": "dense_194", "trainable": true, "activity_regularizer": null, "bias_regularizer": null, "kernel_regularizer": {"class_name": "L1L2", "config": {"l2": 9.999999747378752e-05, "l1": 0.0}}, "units": 50, "bias_initializer": {"class_name": "Zeros", "config": {}}, "kernel_constraint": null, "activation": "relu", "kernel_initializer": {"class_name": "VarianceScaling", "config": {"distribution": "normal", "seed": 3014, "scale": 1.0, "mode": "fan_avg"}}, "bias_constraint": null}, "inbound_nodes": [[["dense_193", 0, 0, {}]]]}, {"class_name": "Dense", "name": "dense_197", "config": {"use_bias": true, "name": "dense_197", "trainable": true, "activity_regularizer": null, "bias_regularizer": null, "kernel_regularizer": {"class_name": "L1L2", "config": {"l2": 9.999999747378752e-05, "l1": 0.0}}, "units": 50, "bias_initializer": {"class_name": "Zeros", "config": {}}, "kernel_constraint": null, "activation": "relu", "kernel_initializer": {"class_name": "VarianceScaling", "config": {"distribution": "normal", "seed": 3014, "scale": 1.0, "mode": "fan_avg"}}, "bias_constraint": null}, "inbound_nodes": [[["dense_196", 0, 0, {}]]]}, {"class_name": "Dense", "name": "dense_200", "config": {"use_bias": true, "name": "dense_200", "trainable": true, "activity_regularizer": null, "bias_regularizer": null, "kernel_regularizer": {"class_name": "L1L2", "config": {"l2": 9.999999747378752e-05, "l1": 0.0}}, "units": 50, "bias_initializer": {"class_name": "Zeros", "config": {}}, "kernel_constraint": null, "activation": "relu", "kernel_initializer": {"class_name": "VarianceScaling", "config": {"distribution": "normal", "seed": 3014, "scale": 1.0, "mode": "fan_avg"}}, "bias_constraint": null}, "inbound_nodes": [[["dense_199", 0, 0, {}]]]}, {"class_name": "Dense", "name": "dense_203", "config": {"use_bias": true, "name": "dense_203", "trainable": true, "activity_regularizer": null, "bias_regularizer": null, "kernel_regularizer": {"class_name": "L1L2", "config": {"l2": 9.999999747378752e-05, "l1": 0.0}}, "units": 50, "bias_initializer": {"class_name": "Zeros", "config": {}}, "kernel_constraint": null, "activation": "relu", "kernel_initializer": {"class_name": "VarianceScaling", "config": {"distribution": "normal", "seed": 3014, "scale": 1.0, "mode": "fan_avg"}}, "bias_constraint": null}, "inbound_nodes": [[["dense_202", 0, 0, {}]]]}, {"class_name": "Dense", "name": "dense_206", "config": {"use_bias": true, "name": "dense_206", "trainable": true, "activity_regularizer": null, "bias_regularizer": null, "kernel_regularizer": {"class_name": "L1L2", "config": {"l2": 9.999999747378752e-05, "l1": 0.0}}, "units": 50, "bias_initializer": {"class_name": "Zeros", "config": {}}, "kernel_constraint": null, "activation": "relu", "kernel_initializer": {"class_name": "VarianceScaling", "config": {"distribution": "normal", "seed": 3014, "scale": 1.0, "mode": "fan_avg"}}, "bias_constraint": null}, "inbound_nodes": [[["dense_205", 0, 0, {}]]]}, {"class_name": "Dense", "name": "dense_209", "config": {"use_bias": true, "name": "dense_209", "trainable": true, "activity_regularizer": null, "bias_regularizer": null, "kernel_regularizer": {"class_name": "L1L2", "config": {"l2": 9.999999747378752e-05, "l1": 0.0}}, "units": 50, "bias_initializer": {"class_name": "Zeros", "config": {}}, "kernel_constraint": null, "activation": "relu", "kernel_initializer": {"class_name": "VarianceScaling", "config": {"distribution": "normal", "seed": 3014, "scale": 1.0, "mode": "fan_avg"}}, "bias_constraint": null}, "inbound_nodes": [[["dense_208", 0, 0, {}]]]}, {"class_name": "InputLayer", "name": "OnOff_C1", "config": {"batch_input_shape": [null, 1], "name": "OnOff_C1", "dtype": "float32", "sparse": false}, "inbound_nodes": []}, {"class_name": "Dense", "name": "dense_192", "config": {"use_bias": true, "name": "dense_192", "trainable": true, "activity_regularizer": null, "bias_regularizer": null, "kernel_regularizer": {"class_name": "L1L2", "config": {"l2": 9.999999747378752e-05, "l1": 0.0}}, "units": 1, "bias_initializer": {"class_name": "Zeros", "config": {}}, "kernel_constraint": null, "activation": "relu", "kernel_initializer": {"class_name": "VarianceScaling", "config": {"distribution": "normal", "seed": 3014, "scale": 1.0, "mode": "fan_avg"}}, "bias_constraint": null}, "inbound_nodes": [[["dense_191", 0, 0, {}]]]}, {"class_name": "InputLayer", "name": "OnOff_C2", "config": {"batch_input_shape": [null, 1], "name": "OnOff_C2", "dtype": "float32", "sparse": false}, "inbound_nodes": []}, {"class_name": "Dense", "name": "dense_195", "config": {"use_bias": true, "name": "dense_195", "trainable": true, "activity_regularizer": null, "bias_regularizer": null, "kernel_regularizer": {"class_name": "L1L2", "config": {"l2": 9.999999747378752e-05, "l1": 0.0}}, "units": 1, "bias_initializer": {"class_name": "Zeros", "config": {}}, "kernel_constraint": null, "activation": "relu", "kernel_initializer": {"class_name": "VarianceScaling", "config": {"distribution": "normal", "seed": 3014, "scale": 1.0, "mode": "fan_avg"}}, "bias_constraint": null}, "inbound_nodes": [[["dense_194", 0, 0, {}]]]}, {"class_name": "InputLayer", "name": "OnOff_C3", "config": {"batch_input_shape": [null, 1], "name": "OnOff_C3", "dtype": "float32", "sparse": false}, "inbound_nodes": []}, {"class_name": "Dense", "name": "dense_198", "config": {"use_bias": true, "name": "dense_198", "trainable": true, "activity_regularizer": null, "bias_regularizer": null, "kernel_regularizer": {"class_name": "L1L2", "config": {"l2": 9.999999747378752e-05, "l1": 0.0}}, "units": 1, "bias_initializer": {"class_name": "Zeros", "config": {}}, "kernel_constraint": null, "activation": "relu", "kernel_initializer": {"class_name": "VarianceScaling", "config": {"distribution": "normal", "seed": 3014, "scale": 1.0, "mode": "fan_avg"}}, "bias_constraint": null}, "inbound_nodes": [[["dense_197", 0, 0, {}]]]}, {"class_name": "InputLayer", "name": "OnOff_C4", "config": {"batch_input_shape": [null, 1], "name": "OnOff_C4", "dtype": "float32", "sparse": false}, "inbound_nodes": []}, {"class_name": "Dense", "name": "dense_201", "config": {"use_bias": true, "name": "dense_201", "trainable": true, "activity_regularizer": null, "bias_regularizer": null, "kernel_regularizer": {"class_name": "L1L2", "config": {"l2": 9.999999747378752e-05, "l1": 0.0}}, "units": 1, "bias_initializer": {"class_name": "Zeros", "config": {}}, "kernel_constraint": null, "activation": "relu", "kernel_initializer": {"class_name": "VarianceScaling", "config": {"distribution": "normal", "seed": 3014, "scale": 1.0, "mode": "fan_avg"}}, "bias_constraint": null}, "inbound_nodes": [[["dense_200", 0, 0, {}]]]}, {"class_name": "InputLayer", "name": "OnOff_B1", "config": {"batch_input_shape": [null, 1], "name": "OnOff_B1", "dtype": "float32", "sparse": false}, "inbound_nodes": []}, {"class_name": "Dense", "name": "dense_204", "config": {"use_bias": true, "name": "dense_204", "trainable": true, "activity_regularizer": null, "bias_regularizer": null, "kernel_regularizer": {"class_name": "L1L2", "config": {"l2": 9.999999747378752e-05, "l1": 0.0}}, "units": 1, "bias_initializer": {"class_name": "Zeros", "config": {}}, "kernel_constraint": null, "activation": "relu", "kernel_initializer": {"class_name": "VarianceScaling", "config": {"distribution": "normal", "seed": 3014, "scale": 1.0, "mode": "fan_avg"}}, "bias_constraint": null}, "inbound_nodes": [[["dense_203", 0, 0, {}]]]}, {"class_name": "InputLayer", "name": "OnOff_B3", "config": {"batch_input_shape": [null, 1], "name": "OnOff_B3", "dtype": "float32", "sparse": false}, "inbound_nodes": []}, {"class_name": "Dense", "name": "dense_207", "config": {"use_bias": true, "name": "dense_207", "trainable": true, "activity_regularizer": null, "bias_regularizer": null, "kernel_regularizer": {"class_name": "L1L2", "config": {"l2": 9.999999747378752e-05, "l1": 0.0}}, "units": 1, "bias_initializer": {"class_name": "Zeros", "config": {}}, "kernel_constraint": null, "activation": "relu", "kernel_initializer": {"class_name": "VarianceScaling", "config": {"distribution": "normal", "seed": 3014, "scale": 1.0, "mode": "fan_avg"}}, "bias_constraint": null}, "inbound_nodes": [[["dense_206", 0, 0, {}]]]}, {"class_name": "InputLayer", "name": "OnOff_D1", "config": {"batch_input_shape": [null, 1], "name": "OnOff_D1", "dtype": "float32", "sparse": false}, "inbound_nodes": []}, {"class_name": "Dense", "name": "dense_210", "config": {"use_bias": true, "name": "dense_210", "trainable": true, "activity_regularizer": null, "bias_regularizer": null, "kernel_regularizer": {"class_name": "L1L2", "config": {"l2": 9.999999747378752e-05, "l1": 0.0}}, "units": 1, "bias_initializer": {"class_name": "Zeros", "config": {}}, "kernel_constraint": null, "activation": "relu", "kernel_initializer": {"class_name": "VarianceScaling", "config": {"distribution": "normal", "seed": 3014, "scale": 1.0, "mode": "fan_avg"}}, "bias_constraint": null}, "inbound_nodes": [[["dense_209", 0, 0, {}]]]}, {"class_name": "Multiply", "name": "C1_out", "config": {"name": "C1_out", "trainable": true}, "inbound_nodes": [[["OnOff_C1", 0, 0, {}], ["dense_192", 0, 0, {}]]]}, {"class_name": "Multiply", "name": "C2_out", "config": {"name": "C2_out", "trainable": true}, "inbound_nodes": [[["OnOff_C2", 0, 0, {}], ["dense_195", 0, 0, {}]]]}, {"class_name": "Multiply", "name": "C3_out", "config": {"name": "C3_out", "trainable": true}, "inbound_nodes": [[["OnOff_C3", 0, 0, {}], ["dense_198", 0, 0, {}]]]}, {"class_name": "Multiply", "name": "C4_out", "config": {"name": "C4_out", "trainable": true}, "inbound_nodes": [[["OnOff_C4", 0, 0, {}], ["dense_201", 0, 0, {}]]]}, {"class_name": "Multiply", "name": "B1_out", "config": {"name": "B1_out", "trainable": true}, "inbound_nodes": [[["OnOff_B1", 0, 0, {}], ["dense_204", 0, 0, {}]]]}, {"class_name": "Multiply", "name": "B3_out", "config": {"name": "B3_out", "trainable": true}, "inbound_nodes": [[["OnOff_B3", 0, 0, {}], ["dense_207", 0, 0, {}]]]}, {"class_name": "Multiply", "name": "D1_out", "config": {"name": "D1_out", "trainable": true}, "inbound_nodes": [[["OnOff_D1", 0, 0, {}], ["dense_210", 0, 0, {}]]]}, {"class_name": "Add", "name": "GJOA_TOTAL", "config": {"name": "GJOA_TOTAL", "trainable": true}, "inbound_nodes": [[["C1_out", 0, 0, {}], ["C2_out", 0, 0, {}], ["C3_out", 0, 0, {}], ["C4_out", 0, 0, {}], ["B1_out", 0, 0, {}], ["B3_out", 0, 0, {}], ["D1_out", 0, 0, {}]]]}], "name": "model_10", "input_layers": [["C1", 0, 0], ["C2", 0, 0], ["C3", 0, 0], ["C4", 0, 0], ["B1", 0, 0], ["B3", 0, 0], ["D1", 0, 0], ["OnOff_C1", 0, 0], ["OnOff_C2", 0, 0], ["OnOff_C3", 0, 0], ["OnOff_C4", 0, 0], ["OnOff_B1", 0, 0], ["OnOff_B3", 0, 0], ["OnOff_D1", 0, 0]], "output_layers": [["C1_out", 0, 0], ["C2_out", 0, 0], ["C3_out", 0, 0], ["C4_out", 0, 0], ["B1_out", 0, 0], ["B3_out", 0, 0], ["D1_out", 0, 0], ["GJOA_TOTAL", 0, 0]]}}