{"config": {"layers": [{"config": {"dtype": "float32", "sparse": false, "batch_input_shape": [null, 7], "name": "CHK_INPUT"}, "inbound_nodes": [], "class_name": "InputLayer", "name": "CHK_INPUT"}, {"config": {"units": 100, "bias_regularizer": null, "use_bias": true, "bias_initializer": {"config": {}, "class_name": "Zeros"}, "activation": "relu", "bias_constraint": null, "name": "C1_PBH_0", "trainable": true, "kernel_constraint": null, "kernel_initializer": {"config": {"mode": "fan_avg", "seed": 3014, "distribution": "normal", "scale": 1.0}, "class_name": "VarianceScaling"}, "kernel_regularizer": {"config": {"l2": 9.999999747378752e-05, "l1": 0.0}, "class_name": "L1L2"}, "activity_regularizer": null}, "inbound_nodes": [[["CHK_INPUT", 0, 0, {}]]], "class_name": "Dense", "name": "C1_PBH_0"}, {"config": {"units": 100, "bias_regularizer": null, "use_bias": true, "bias_initializer": {"config": {}, "class_name": "Zeros"}, "activation": "relu", "bias_constraint": null, "name": "C3_PBH_0", "trainable": true, "kernel_constraint": null, "kernel_initializer": {"config": {"mode": "fan_avg", "seed": 3014, "distribution": "normal", "scale": 1.0}, "class_name": "VarianceScaling"}, "kernel_regularizer": {"config": {"l2": 9.999999747378752e-05, "l1": 0.0}, "class_name": "L1L2"}, "activity_regularizer": null}, "inbound_nodes": [[["CHK_INPUT", 0, 0, {}]]], "class_name": "Dense", "name": "C3_PBH_0"}, {"config": {"units": 100, "bias_regularizer": null, "use_bias": true, "bias_initializer": {"config": {}, "class_name": "Zeros"}, "activation": "relu", "bias_constraint": null, "name": "C4_PBH_0", "trainable": true, "kernel_constraint": null, "kernel_initializer": {"config": {"mode": "fan_avg", "seed": 3014, "distribution": "normal", "scale": 1.0}, "class_name": "VarianceScaling"}, "kernel_regularizer": {"config": {"l2": 9.999999747378752e-05, "l1": 0.0}, "class_name": "L1L2"}, "activity_regularizer": null}, "inbound_nodes": [[["CHK_INPUT", 0, 0, {}]]], "class_name": "Dense", "name": "C4_PBH_0"}, {"config": {"units": 100, "bias_regularizer": null, "use_bias": true, "bias_initializer": {"config": {}, "class_name": "Zeros"}, "activation": "relu", "bias_constraint": null, "name": "B1_PBH_0", "trainable": true, "kernel_constraint": null, "kernel_initializer": {"config": {"mode": "fan_avg", "seed": 3014, "distribution": "normal", "scale": 1.0}, "class_name": "VarianceScaling"}, "kernel_regularizer": {"config": {"l2": 9.999999747378752e-05, "l1": 0.0}, "class_name": "L1L2"}, "activity_regularizer": null}, "inbound_nodes": [[["CHK_INPUT", 0, 0, {}]]], "class_name": "Dense", "name": "B1_PBH_0"}, {"config": {"units": 100, "bias_regularizer": null, "use_bias": true, "bias_initializer": {"config": {}, "class_name": "Zeros"}, "activation": "relu", "bias_constraint": null, "name": "B3_PBH_0", "trainable": true, "kernel_constraint": null, "kernel_initializer": {"config": {"mode": "fan_avg", "seed": 3014, "distribution": "normal", "scale": 1.0}, "class_name": "VarianceScaling"}, "kernel_regularizer": {"config": {"l2": 9.999999747378752e-05, "l1": 0.0}, "class_name": "L1L2"}, "activity_regularizer": null}, "inbound_nodes": [[["CHK_INPUT", 0, 0, {}]]], "class_name": "Dense", "name": "B3_PBH_0"}, {"config": {"units": 100, "bias_regularizer": null, "use_bias": true, "bias_initializer": {"config": {}, "class_name": "Zeros"}, "activation": "relu", "bias_constraint": null, "name": "C1_PBH_1", "trainable": true, "kernel_constraint": null, "kernel_initializer": {"config": {"mode": "fan_avg", "seed": 3014, "distribution": "normal", "scale": 1.0}, "class_name": "VarianceScaling"}, "kernel_regularizer": {"config": {"l2": 9.999999747378752e-05, "l1": 0.0}, "class_name": "L1L2"}, "activity_regularizer": null}, "inbound_nodes": [[["C1_PBH_0", 0, 0, {}]]], "class_name": "Dense", "name": "C1_PBH_1"}, {"config": {"units": 100, "bias_regularizer": null, "use_bias": true, "bias_initializer": {"config": {}, "class_name": "Zeros"}, "activation": "relu", "bias_constraint": null, "name": "C3_PBH_1", "trainable": true, "kernel_constraint": null, "kernel_initializer": {"config": {"mode": "fan_avg", "seed": 3014, "distribution": "normal", "scale": 1.0}, "class_name": "VarianceScaling"}, "kernel_regularizer": {"config": {"l2": 9.999999747378752e-05, "l1": 0.0}, "class_name": "L1L2"}, "activity_regularizer": null}, "inbound_nodes": [[["C3_PBH_0", 0, 0, {}]]], "class_name": "Dense", "name": "C3_PBH_1"}, {"config": {"units": 100, "bias_regularizer": null, "use_bias": true, "bias_initializer": {"config": {}, "class_name": "Zeros"}, "activation": "relu", "bias_constraint": null, "name": "C4_PBH_1", "trainable": true, "kernel_constraint": null, "kernel_initializer": {"config": {"mode": "fan_avg", "seed": 3014, "distribution": "normal", "scale": 1.0}, "class_name": "VarianceScaling"}, "kernel_regularizer": {"config": {"l2": 9.999999747378752e-05, "l1": 0.0}, "class_name": "L1L2"}, "activity_regularizer": null}, "inbound_nodes": [[["C4_PBH_0", 0, 0, {}]]], "class_name": "Dense", "name": "C4_PBH_1"}, {"config": {"units": 100, "bias_regularizer": null, "use_bias": true, "bias_initializer": {"config": {}, "class_name": "Zeros"}, "activation": "relu", "bias_constraint": null, "name": "B1_PBH_1", "trainable": true, "kernel_constraint": null, "kernel_initializer": {"config": {"mode": "fan_avg", "seed": 3014, "distribution": "normal", "scale": 1.0}, "class_name": "VarianceScaling"}, "kernel_regularizer": {"config": {"l2": 9.999999747378752e-05, "l1": 0.0}, "class_name": "L1L2"}, "activity_regularizer": null}, "inbound_nodes": [[["B1_PBH_0", 0, 0, {}]]], "class_name": "Dense", "name": "B1_PBH_1"}, {"config": {"units": 100, "bias_regularizer": null, "use_bias": true, "bias_initializer": {"config": {}, "class_name": "Zeros"}, "activation": "relu", "bias_constraint": null, "name": "B3_PBH_1", "trainable": true, "kernel_constraint": null, "kernel_initializer": {"config": {"mode": "fan_avg", "seed": 3014, "distribution": "normal", "scale": 1.0}, "class_name": "VarianceScaling"}, "kernel_regularizer": {"config": {"l2": 9.999999747378752e-05, "l1": 0.0}, "class_name": "L1L2"}, "activity_regularizer": null}, "inbound_nodes": [[["B3_PBH_0", 0, 0, {}]]], "class_name": "Dense", "name": "B3_PBH_1"}, {"config": {"units": 1, "bias_regularizer": null, "use_bias": true, "bias_initializer": {"config": {}, "class_name": "Zeros"}, "activation": "linear", "bias_constraint": null, "name": "C1_PBH_out", "trainable": true, "kernel_constraint": null, "kernel_initializer": {"config": {"mode": "fan_avg", "seed": 3014, "distribution": "normal", "scale": 1.0}, "class_name": "VarianceScaling"}, "kernel_regularizer": {"config": {"l2": 9.999999747378752e-05, "l1": 0.0}, "class_name": "L1L2"}, "activity_regularizer": null}, "inbound_nodes": [[["C1_PBH_1", 0, 0, {}]]], "class_name": "Dense", "name": "C1_PBH_out"}, {"config": {"units": 1, "bias_regularizer": null, "use_bias": true, "bias_initializer": {"config": {}, "class_name": "Zeros"}, "activation": "linear", "bias_constraint": null, "name": "C3_PBH_out", "trainable": true, "kernel_constraint": null, "kernel_initializer": {"config": {"mode": "fan_avg", "seed": 3014, "distribution": "normal", "scale": 1.0}, "class_name": "VarianceScaling"}, "kernel_regularizer": {"config": {"l2": 9.999999747378752e-05, "l1": 0.0}, "class_name": "L1L2"}, "activity_regularizer": null}, "inbound_nodes": [[["C3_PBH_1", 0, 0, {}]]], "class_name": "Dense", "name": "C3_PBH_out"}, {"config": {"units": 1, "bias_regularizer": null, "use_bias": true, "bias_initializer": {"config": {}, "class_name": "Zeros"}, "activation": "linear", "bias_constraint": null, "name": "C4_PBH_out", "trainable": true, "kernel_constraint": null, "kernel_initializer": {"config": {"mode": "fan_avg", "seed": 3014, "distribution": "normal", "scale": 1.0}, "class_name": "VarianceScaling"}, "kernel_regularizer": {"config": {"l2": 9.999999747378752e-05, "l1": 0.0}, "class_name": "L1L2"}, "activity_regularizer": null}, "inbound_nodes": [[["C4_PBH_1", 0, 0, {}]]], "class_name": "Dense", "name": "C4_PBH_out"}, {"config": {"units": 1, "bias_regularizer": null, "use_bias": true, "bias_initializer": {"config": {}, "class_name": "Zeros"}, "activation": "linear", "bias_constraint": null, "name": "B1_PBH_out", "trainable": true, "kernel_constraint": null, "kernel_initializer": {"config": {"mode": "fan_avg", "seed": 3014, "distribution": "normal", "scale": 1.0}, "class_name": "VarianceScaling"}, "kernel_regularizer": {"config": {"l2": 9.999999747378752e-05, "l1": 0.0}, "class_name": "L1L2"}, "activity_regularizer": null}, "inbound_nodes": [[["B1_PBH_1", 0, 0, {}]]], "class_name": "Dense", "name": "B1_PBH_out"}, {"config": {"units": 1, "bias_regularizer": null, "use_bias": true, "bias_initializer": {"config": {}, "class_name": "Zeros"}, "activation": "linear", "bias_constraint": null, "name": "B3_PBH_out", "trainable": true, "kernel_constraint": null, "kernel_initializer": {"config": {"mode": "fan_avg", "seed": 3014, "distribution": "normal", "scale": 1.0}, "class_name": "VarianceScaling"}, "kernel_regularizer": {"config": {"l2": 9.999999747378752e-05, "l1": 0.0}, "class_name": "L1L2"}, "activity_regularizer": null}, "inbound_nodes": [[["B3_PBH_1", 0, 0, {}]]], "class_name": "Dense", "name": "B3_PBH_out"}], "name": "model_1", "output_layers": [["C1_PBH_out", 0, 0], ["C3_PBH_out", 0, 0], ["C4_PBH_out", 0, 0], ["B1_PBH_out", 0, 0], ["B3_PBH_out", 0, 0]], "input_layers": [["CHK_INPUT", 0, 0]]}, "keras_version": "2.0.1", "backend": "theano", "class_name": "Model"}