{"class_name": "Model", "config": {"name": "model_1", "layers": [{"name": "F1", "class_name": "InputLayer", "config": {"batch_input_shape": [null, 4], "input_dtype": "float32", "sparse": false, "name": "F1"}, "inbound_nodes": []}, {"name": "B2", "class_name": "InputLayer", "config": {"batch_input_shape": [null, 4], "input_dtype": "float32", "sparse": false, "name": "B2"}, "inbound_nodes": []}, {"name": "D3", "class_name": "InputLayer", "config": {"batch_input_shape": [null, 4], "input_dtype": "float32", "sparse": false, "name": "D3"}, "inbound_nodes": []}, {"name": "E1", "class_name": "InputLayer", "config": {"batch_input_shape": [null, 4], "input_dtype": "float32", "sparse": false, "name": "E1"}, "inbound_nodes": []}, {"name": "dense_1", "class_name": "Dense", "config": {"name": "dense_1", "trainable": true, "output_dim": 20, "init": "glorot_uniform", "activation": "relu", "W_regularizer": {"name": "L1L2Regularizer", "l1": 0.0, "l2": 9.999999747378752e-05}, "b_regularizer": null, "activity_regularizer": null, "W_constraint": null, "b_constraint": null, "bias": true, "input_dim": 4}, "inbound_nodes": [[["F1", 0, 0]]]}, {"name": "dense_3", "class_name": "Dense", "config": {"name": "dense_3", "trainable": true, "output_dim": 20, "init": "glorot_uniform", "activation": "relu", "W_regularizer": {"name": "L1L2Regularizer", "l1": 0.0, "l2": 9.999999747378752e-05}, "b_regularizer": null, "activity_regularizer": null, "W_constraint": null, "b_constraint": null, "bias": true, "input_dim": 4}, "inbound_nodes": [[["B2", 0, 0]]]}, {"name": "dense_5", "class_name": "Dense", "config": {"name": "dense_5", "trainable": true, "output_dim": 20, "init": "glorot_uniform", "activation": "relu", "W_regularizer": {"name": "L1L2Regularizer", "l1": 0.0, "l2": 9.999999747378752e-05}, "b_regularizer": null, "activity_regularizer": null, "W_constraint": null, "b_constraint": null, "bias": true, "input_dim": 4}, "inbound_nodes": [[["D3", 0, 0]]]}, {"name": "dense_7", "class_name": "Dense", "config": {"name": "dense_7", "trainable": true, "output_dim": 20, "init": "glorot_uniform", "activation": "relu", "W_regularizer": {"name": "L1L2Regularizer", "l1": 0.0, "l2": 9.999999747378752e-05}, "b_regularizer": null, "activity_regularizer": null, "W_constraint": null, "b_constraint": null, "bias": true, "input_dim": 4}, "inbound_nodes": [[["E1", 0, 0]]]}, {"name": "OnOff_F1", "class_name": "InputLayer", "config": {"batch_input_shape": [null, 1], "input_dtype": "float32", "sparse": false, "name": "OnOff_F1"}, "inbound_nodes": []}, {"name": "dense_2", "class_name": "Dense", "config": {"name": "dense_2", "trainable": true, "output_dim": 1, "init": "glorot_uniform", "activation": "relu", "W_regularizer": {"name": "L1L2Regularizer", "l1": 0.0, "l2": 9.999999747378752e-05}, "b_regularizer": null, "activity_regularizer": null, "W_constraint": null, "b_constraint": null, "bias": true, "input_dim": 20}, "inbound_nodes": [[["dense_1", 0, 0]]]}, {"name": "OnOff_B2", "class_name": "InputLayer", "config": {"batch_input_shape": [null, 1], "input_dtype": "float32", "sparse": false, "name": "OnOff_B2"}, "inbound_nodes": []}, {"name": "dense_4", "class_name": "Dense", "config": {"name": "dense_4", "trainable": true, "output_dim": 1, "init": "glorot_uniform", "activation": "relu", "W_regularizer": {"name": "L1L2Regularizer", "l1": 0.0, "l2": 9.999999747378752e-05}, "b_regularizer": null, "activity_regularizer": null, "W_constraint": null, "b_constraint": null, "bias": true, "input_dim": 20}, "inbound_nodes": [[["dense_3", 0, 0]]]}, {"name": "OnOff_D3", "class_name": "InputLayer", "config": {"batch_input_shape": [null, 1], "input_dtype": "float32", "sparse": false, "name": "OnOff_D3"}, "inbound_nodes": []}, {"name": "dense_6", "class_name": "Dense", "config": {"name": "dense_6", "trainable": true, "output_dim": 1, "init": "glorot_uniform", "activation": "relu", "W_regularizer": {"name": "L1L2Regularizer", "l1": 0.0, "l2": 9.999999747378752e-05}, "b_regularizer": null, "activity_regularizer": null, "W_constraint": null, "b_constraint": null, "bias": true, "input_dim": 20}, "inbound_nodes": [[["dense_5", 0, 0]]]}, {"name": "OnOff_E1", "class_name": "InputLayer", "config": {"batch_input_shape": [null, 1], "input_dtype": "float32", "sparse": false, "name": "OnOff_E1"}, "inbound_nodes": []}, {"name": "dense_8", "class_name": "Dense", "config": {"name": "dense_8", "trainable": true, "output_dim": 1, "init": "glorot_uniform", "activation": "relu", "W_regularizer": {"name": "L1L2Regularizer", "l1": 0.0, "l2": 9.999999747378752e-05}, "b_regularizer": null, "activity_regularizer": null, "W_constraint": null, "b_constraint": null, "bias": true, "input_dim": 20}, "inbound_nodes": [[["dense_7", 0, 0]]]}, {"name": "F1_out", "class_name": "Merge", "config": {"name": "F1_out", "mode": "mul", "mode_type": "raw", "concat_axis": -1, "dot_axes": -1, "output_shape": null, "output_shape_type": "raw", "output_mask": null, "output_mask_type": "raw", "arguments": {}}, "inbound_nodes": [[["OnOff_F1", 0, 0], ["dense_2", 0, 0]]]}, {"name": "B2_out", "class_name": "Merge", "config": {"name": "B2_out", "mode": "mul", "mode_type": "raw", "concat_axis": -1, "dot_axes": -1, "output_shape": null, "output_shape_type": "raw", "output_mask": null, "output_mask_type": "raw", "arguments": {}}, "inbound_nodes": [[["OnOff_B2", 0, 0], ["dense_4", 0, 0]]]}, {"name": "D3_out", "class_name": "Merge", "config": {"name": "D3_out", "mode": "mul", "mode_type": "raw", "concat_axis": -1, "dot_axes": -1, "output_shape": null, "output_shape_type": "raw", "output_mask": null, "output_mask_type": "raw", "arguments": {}}, "inbound_nodes": [[["OnOff_D3", 0, 0], ["dense_6", 0, 0]]]}, {"name": "E1_out", "class_name": "Merge", "config": {"name": "E1_out", "mode": "mul", "mode_type": "raw", "concat_axis": -1, "dot_axes": -1, "output_shape": null, "output_shape_type": "raw", "output_mask": null, "output_mask_type": "raw", "arguments": {}}, "inbound_nodes": [[["OnOff_E1", 0, 0], ["dense_8", 0, 0]]]}, {"name": "GJOA_QGAS", "class_name": "Merge", "config": {"name": "GJOA_QGAS", "mode": "sum", "mode_type": "raw", "concat_axis": -1, "dot_axes": -1, "output_shape": null, "output_shape_type": "raw", "output_mask": null, "output_mask_type": "raw", "arguments": {}}, "inbound_nodes": [[["F1_out", 0, 0], ["B2_out", 0, 0], ["D3_out", 0, 0], ["E1_out", 0, 0]]]}], "input_layers": [["F1", 0, 0], ["B2", 0, 0], ["D3", 0, 0], ["E1", 0, 0], ["OnOff_F1", 0, 0], ["OnOff_B2", 0, 0], ["OnOff_D3", 0, 0], ["OnOff_E1", 0, 0]], "output_layers": [["F1_out", 0, 0], ["B2_out", 0, 0], ["D3_out", 0, 0], ["E1_out", 0, 0], ["GJOA_QGAS", 0, 0]]}, "keras_version": "1.2.1"}