{"backend": "theano", "keras_version": "2.0.1", "class_name": "Model", "config": {"output_layers": [["C1_out", 0, 0], ["C2_out", 0, 0], ["C3_out", 0, 0], ["C4_out", 0, 0], ["B1_out", 0, 0], ["B3_out", 0, 0], ["D1_out", 0, 0], ["GJOA_TOTAL", 0, 0]], "name": "model_2", "layers": [{"name": "C1", "class_name": "InputLayer", "inbound_nodes": [], "config": {"batch_input_shape": [null, 4], "sparse": false, "name": "C1", "dtype": "float32"}}, {"name": "C2", "class_name": "InputLayer", "inbound_nodes": [], "config": {"batch_input_shape": [null, 3], "sparse": false, "name": "C2", "dtype": "float32"}}, {"name": "C3", "class_name": "InputLayer", "inbound_nodes": [], "config": {"batch_input_shape": [null, 4], "sparse": false, "name": "C3", "dtype": "float32"}}, {"name": "C4", "class_name": "InputLayer", "inbound_nodes": [], "config": {"batch_input_shape": [null, 4], "sparse": false, "name": "C4", "dtype": "float32"}}, {"name": "B1", "class_name": "InputLayer", "inbound_nodes": [], "config": {"batch_input_shape": [null, 4], "sparse": false, "name": "B1", "dtype": "float32"}}, {"name": "B3", "class_name": "InputLayer", "inbound_nodes": [], "config": {"batch_input_shape": [null, 4], "sparse": false, "name": "B3", "dtype": "float32"}}, {"name": "D1", "class_name": "InputLayer", "inbound_nodes": [], "config": {"batch_input_shape": [null, 3], "sparse": false, "name": "D1", "dtype": "float32"}}, {"name": "dense_29", "class_name": "Dense", "inbound_nodes": [[["C1", 0, 0, {}]]], "config": {"kernel_regularizer": {"class_name": "L1L2", "config": {"l2": 9.999999747378752e-05, "l1": 0.0}}, "bias_regularizer": null, "use_bias": true, "bias_constraint": null, "bias_initializer": {"class_name": "Zeros", "config": {}}, "kernel_constraint": null, "kernel_initializer": {"class_name": "VarianceScaling", "config": {"seed": 9035, "mode": "fan_avg", "scale": 1.0, "distribution": "normal"}}, "trainable": true, "name": "dense_29", "activation": "relu", "activity_regularizer": null, "units": 50}}, {"name": "dense_33", "class_name": "Dense", "inbound_nodes": [[["C2", 0, 0, {}]]], "config": {"kernel_regularizer": {"class_name": "L1L2", "config": {"l2": 9.999999747378752e-05, "l1": 0.0}}, "bias_regularizer": null, "use_bias": true, "bias_constraint": null, "bias_initializer": {"class_name": "Zeros", "config": {}}, "kernel_constraint": null, "kernel_initializer": {"class_name": "VarianceScaling", "config": {"seed": 9035, "mode": "fan_avg", "scale": 1.0, "distribution": "normal"}}, "trainable": true, "name": "dense_33", "activation": "relu", "activity_regularizer": null, "units": 50}}, {"name": "dense_37", "class_name": "Dense", "inbound_nodes": [[["C3", 0, 0, {}]]], "config": {"kernel_regularizer": {"class_name": "L1L2", "config": {"l2": 9.999999747378752e-05, "l1": 0.0}}, "bias_regularizer": null, "use_bias": true, "bias_constraint": null, "bias_initializer": {"class_name": "Zeros", "config": {}}, "kernel_constraint": null, "kernel_initializer": {"class_name": "VarianceScaling", "config": {"seed": 9035, "mode": "fan_avg", "scale": 1.0, "distribution": "normal"}}, "trainable": true, "name": "dense_37", "activation": "relu", "activity_regularizer": null, "units": 50}}, {"name": "dense_41", "class_name": "Dense", "inbound_nodes": [[["C4", 0, 0, {}]]], "config": {"kernel_regularizer": {"class_name": "L1L2", "config": {"l2": 9.999999747378752e-05, "l1": 0.0}}, "bias_regularizer": null, "use_bias": true, "bias_constraint": null, "bias_initializer": {"class_name": "Zeros", "config": {}}, "kernel_constraint": null, "kernel_initializer": {"class_name": "VarianceScaling", "config": {"seed": 9035, "mode": "fan_avg", "scale": 1.0, "distribution": "normal"}}, "trainable": true, "name": "dense_41", "activation": "relu", "activity_regularizer": null, "units": 50}}, {"name": "dense_45", "class_name": "Dense", "inbound_nodes": [[["B1", 0, 0, {}]]], "config": {"kernel_regularizer": {"class_name": "L1L2", "config": {"l2": 9.999999747378752e-05, "l1": 0.0}}, "bias_regularizer": null, "use_bias": true, "bias_constraint": null, "bias_initializer": {"class_name": "Zeros", "config": {}}, "kernel_constraint": null, "kernel_initializer": {"class_name": "VarianceScaling", "config": {"seed": 9035, "mode": "fan_avg", "scale": 1.0, "distribution": "normal"}}, "trainable": true, "name": "dense_45", "activation": "relu", "activity_regularizer": null, "units": 50}}, {"name": "dense_49", "class_name": "Dense", "inbound_nodes": [[["B3", 0, 0, {}]]], "config": {"kernel_regularizer": {"class_name": "L1L2", "config": {"l2": 9.999999747378752e-05, "l1": 0.0}}, "bias_regularizer": null, "use_bias": true, "bias_constraint": null, "bias_initializer": {"class_name": "Zeros", "config": {}}, "kernel_constraint": null, "kernel_initializer": {"class_name": "VarianceScaling", "config": {"seed": 9035, "mode": "fan_avg", "scale": 1.0, "distribution": "normal"}}, "trainable": true, "name": "dense_49", "activation": "relu", "activity_regularizer": null, "units": 50}}, {"name": "dense_53", "class_name": "Dense", "inbound_nodes": [[["D1", 0, 0, {}]]], "config": {"kernel_regularizer": {"class_name": "L1L2", "config": {"l2": 9.999999747378752e-05, "l1": 0.0}}, "bias_regularizer": null, "use_bias": true, "bias_constraint": null, "bias_initializer": {"class_name": "Zeros", "config": {}}, "kernel_constraint": null, "kernel_initializer": {"class_name": "VarianceScaling", "config": {"seed": 9035, "mode": "fan_avg", "scale": 1.0, "distribution": "normal"}}, "trainable": true, "name": "dense_53", "activation": "relu", "activity_regularizer": null, "units": 50}}, {"name": "dropout_15", "class_name": "Dropout", "inbound_nodes": [[["dense_29", 0, 0, {}]]], "config": {"trainable": true, "rate": 0.1, "name": "dropout_15"}}, {"name": "dropout_17", "class_name": "Dropout", "inbound_nodes": [[["dense_33", 0, 0, {}]]], "config": {"trainable": true, "rate": 0.1, "name": "dropout_17"}}, {"name": "dropout_19", "class_name": "Dropout", "inbound_nodes": [[["dense_37", 0, 0, {}]]], "config": {"trainable": true, "rate": 0.1, "name": "dropout_19"}}, {"name": "dropout_21", "class_name": "Dropout", "inbound_nodes": [[["dense_41", 0, 0, {}]]], "config": {"trainable": true, "rate": 0.1, "name": "dropout_21"}}, {"name": "dropout_23", "class_name": "Dropout", "inbound_nodes": [[["dense_45", 0, 0, {}]]], "config": {"trainable": true, "rate": 0.1, "name": "dropout_23"}}, {"name": "dropout_25", "class_name": "Dropout", "inbound_nodes": [[["dense_49", 0, 0, {}]]], "config": {"trainable": true, "rate": 0.1, "name": "dropout_25"}}, {"name": "dropout_27", "class_name": "Dropout", "inbound_nodes": [[["dense_53", 0, 0, {}]]], "config": {"trainable": true, "rate": 0.1, "name": "dropout_27"}}, {"name": "dense_30", "class_name": "Dense", "inbound_nodes": [[["dropout_15", 0, 0, {}]]], "config": {"kernel_regularizer": {"class_name": "L1L2", "config": {"l2": 9.999999747378752e-05, "l1": 0.0}}, "bias_regularizer": null, "use_bias": true, "bias_constraint": null, "bias_initializer": {"class_name": "Zeros", "config": {}}, "kernel_constraint": null, "kernel_initializer": {"class_name": "VarianceScaling", "config": {"seed": 9035, "mode": "fan_avg", "scale": 1.0, "distribution": "normal"}}, "trainable": true, "name": "dense_30", "activation": "relu", "activity_regularizer": null, "units": 50}}, {"name": "dense_34", "class_name": "Dense", "inbound_nodes": [[["dropout_17", 0, 0, {}]]], "config": {"kernel_regularizer": {"class_name": "L1L2", "config": {"l2": 9.999999747378752e-05, "l1": 0.0}}, "bias_regularizer": null, "use_bias": true, "bias_constraint": null, "bias_initializer": {"class_name": "Zeros", "config": {}}, "kernel_constraint": null, "kernel_initializer": {"class_name": "VarianceScaling", "config": {"seed": 9035, "mode": "fan_avg", "scale": 1.0, "distribution": "normal"}}, "trainable": true, "name": "dense_34", "activation": "relu", "activity_regularizer": null, "units": 50}}, {"name": "dense_38", "class_name": "Dense", "inbound_nodes": [[["dropout_19", 0, 0, {}]]], "config": {"kernel_regularizer": {"class_name": "L1L2", "config": {"l2": 9.999999747378752e-05, "l1": 0.0}}, "bias_regularizer": null, "use_bias": true, "bias_constraint": null, "bias_initializer": {"class_name": "Zeros", "config": {}}, "kernel_constraint": null, "kernel_initializer": {"class_name": "VarianceScaling", "config": {"seed": 9035, "mode": "fan_avg", "scale": 1.0, "distribution": "normal"}}, "trainable": true, "name": "dense_38", "activation": "relu", "activity_regularizer": null, "units": 50}}, {"name": "dense_42", "class_name": "Dense", "inbound_nodes": [[["dropout_21", 0, 0, {}]]], "config": {"kernel_regularizer": {"class_name": "L1L2", "config": {"l2": 9.999999747378752e-05, "l1": 0.0}}, "bias_regularizer": null, "use_bias": true, "bias_constraint": null, "bias_initializer": {"class_name": "Zeros", "config": {}}, "kernel_constraint": null, "kernel_initializer": {"class_name": "VarianceScaling", "config": {"seed": 9035, "mode": "fan_avg", "scale": 1.0, "distribution": "normal"}}, "trainable": true, "name": "dense_42", "activation": "relu", "activity_regularizer": null, "units": 50}}, {"name": "dense_46", "class_name": "Dense", "inbound_nodes": [[["dropout_23", 0, 0, {}]]], "config": {"kernel_regularizer": {"class_name": "L1L2", "config": {"l2": 9.999999747378752e-05, "l1": 0.0}}, "bias_regularizer": null, "use_bias": true, "bias_constraint": null, "bias_initializer": {"class_name": "Zeros", "config": {}}, "kernel_constraint": null, "kernel_initializer": {"class_name": "VarianceScaling", "config": {"seed": 9035, "mode": "fan_avg", "scale": 1.0, "distribution": "normal"}}, "trainable": true, "name": "dense_46", "activation": "relu", "activity_regularizer": null, "units": 50}}, {"name": "dense_50", "class_name": "Dense", "inbound_nodes": [[["dropout_25", 0, 0, {}]]], "config": {"kernel_regularizer": {"class_name": "L1L2", "config": {"l2": 9.999999747378752e-05, "l1": 0.0}}, "bias_regularizer": null, "use_bias": true, "bias_constraint": null, "bias_initializer": {"class_name": "Zeros", "config": {}}, "kernel_constraint": null, "kernel_initializer": {"class_name": "VarianceScaling", "config": {"seed": 9035, "mode": "fan_avg", "scale": 1.0, "distribution": "normal"}}, "trainable": true, "name": "dense_50", "activation": "relu", "activity_regularizer": null, "units": 50}}, {"name": "dense_54", "class_name": "Dense", "inbound_nodes": [[["dropout_27", 0, 0, {}]]], "config": {"kernel_regularizer": {"class_name": "L1L2", "config": {"l2": 9.999999747378752e-05, "l1": 0.0}}, "bias_regularizer": null, "use_bias": true, "bias_constraint": null, "bias_initializer": {"class_name": "Zeros", "config": {}}, "kernel_constraint": null, "kernel_initializer": {"class_name": "VarianceScaling", "config": {"seed": 9035, "mode": "fan_avg", "scale": 1.0, "distribution": "normal"}}, "trainable": true, "name": "dense_54", "activation": "relu", "activity_regularizer": null, "units": 50}}, {"name": "dropout_16", "class_name": "Dropout", "inbound_nodes": [[["dense_30", 0, 0, {}]]], "config": {"trainable": true, "rate": 0.1, "name": "dropout_16"}}, {"name": "dropout_18", "class_name": "Dropout", "inbound_nodes": [[["dense_34", 0, 0, {}]]], "config": {"trainable": true, "rate": 0.1, "name": "dropout_18"}}, {"name": "dropout_20", "class_name": "Dropout", "inbound_nodes": [[["dense_38", 0, 0, {}]]], "config": {"trainable": true, "rate": 0.1, "name": "dropout_20"}}, {"name": "dropout_22", "class_name": "Dropout", "inbound_nodes": [[["dense_42", 0, 0, {}]]], "config": {"trainable": true, "rate": 0.1, "name": "dropout_22"}}, {"name": "dropout_24", "class_name": "Dropout", "inbound_nodes": [[["dense_46", 0, 0, {}]]], "config": {"trainable": true, "rate": 0.1, "name": "dropout_24"}}, {"name": "dropout_26", "class_name": "Dropout", "inbound_nodes": [[["dense_50", 0, 0, {}]]], "config": {"trainable": true, "rate": 0.1, "name": "dropout_26"}}, {"name": "dropout_28", "class_name": "Dropout", "inbound_nodes": [[["dense_54", 0, 0, {}]]], "config": {"trainable": true, "rate": 0.1, "name": "dropout_28"}}, {"name": "dense_31", "class_name": "Dense", "inbound_nodes": [[["dropout_16", 0, 0, {}]]], "config": {"kernel_regularizer": {"class_name": "L1L2", "config": {"l2": 9.999999747378752e-05, "l1": 0.0}}, "bias_regularizer": null, "use_bias": true, "bias_constraint": null, "bias_initializer": {"class_name": "Zeros", "config": {}}, "kernel_constraint": null, "kernel_initializer": {"class_name": "VarianceScaling", "config": {"seed": 9035, "mode": "fan_avg", "scale": 1.0, "distribution": "normal"}}, "trainable": true, "name": "dense_31", "activation": "relu", "activity_regularizer": null, "units": 50}}, {"name": "dense_35", "class_name": "Dense", "inbound_nodes": [[["dropout_18", 0, 0, {}]]], "config": {"kernel_regularizer": {"class_name": "L1L2", "config": {"l2": 9.999999747378752e-05, "l1": 0.0}}, "bias_regularizer": null, "use_bias": true, "bias_constraint": null, "bias_initializer": {"class_name": "Zeros", "config": {}}, "kernel_constraint": null, "kernel_initializer": {"class_name": "VarianceScaling", "config": {"seed": 9035, "mode": "fan_avg", "scale": 1.0, "distribution": "normal"}}, "trainable": true, "name": "dense_35", "activation": "relu", "activity_regularizer": null, "units": 50}}, {"name": "dense_39", "class_name": "Dense", "inbound_nodes": [[["dropout_20", 0, 0, {}]]], "config": {"kernel_regularizer": {"class_name": "L1L2", "config": {"l2": 9.999999747378752e-05, "l1": 0.0}}, "bias_regularizer": null, "use_bias": true, "bias_constraint": null, "bias_initializer": {"class_name": "Zeros", "config": {}}, "kernel_constraint": null, "kernel_initializer": {"class_name": "VarianceScaling", "config": {"seed": 9035, "mode": "fan_avg", "scale": 1.0, "distribution": "normal"}}, "trainable": true, "name": "dense_39", "activation": "relu", "activity_regularizer": null, "units": 50}}, {"name": "dense_43", "class_name": "Dense", "inbound_nodes": [[["dropout_22", 0, 0, {}]]], "config": {"kernel_regularizer": {"class_name": "L1L2", "config": {"l2": 9.999999747378752e-05, "l1": 0.0}}, "bias_regularizer": null, "use_bias": true, "bias_constraint": null, "bias_initializer": {"class_name": "Zeros", "config": {}}, "kernel_constraint": null, "kernel_initializer": {"class_name": "VarianceScaling", "config": {"seed": 9035, "mode": "fan_avg", "scale": 1.0, "distribution": "normal"}}, "trainable": true, "name": "dense_43", "activation": "relu", "activity_regularizer": null, "units": 50}}, {"name": "dense_47", "class_name": "Dense", "inbound_nodes": [[["dropout_24", 0, 0, {}]]], "config": {"kernel_regularizer": {"class_name": "L1L2", "config": {"l2": 9.999999747378752e-05, "l1": 0.0}}, "bias_regularizer": null, "use_bias": true, "bias_constraint": null, "bias_initializer": {"class_name": "Zeros", "config": {}}, "kernel_constraint": null, "kernel_initializer": {"class_name": "VarianceScaling", "config": {"seed": 9035, "mode": "fan_avg", "scale": 1.0, "distribution": "normal"}}, "trainable": true, "name": "dense_47", "activation": "relu", "activity_regularizer": null, "units": 50}}, {"name": "dense_51", "class_name": "Dense", "inbound_nodes": [[["dropout_26", 0, 0, {}]]], "config": {"kernel_regularizer": {"class_name": "L1L2", "config": {"l2": 9.999999747378752e-05, "l1": 0.0}}, "bias_regularizer": null, "use_bias": true, "bias_constraint": null, "bias_initializer": {"class_name": "Zeros", "config": {}}, "kernel_constraint": null, "kernel_initializer": {"class_name": "VarianceScaling", "config": {"seed": 9035, "mode": "fan_avg", "scale": 1.0, "distribution": "normal"}}, "trainable": true, "name": "dense_51", "activation": "relu", "activity_regularizer": null, "units": 50}}, {"name": "dense_55", "class_name": "Dense", "inbound_nodes": [[["dropout_28", 0, 0, {}]]], "config": {"kernel_regularizer": {"class_name": "L1L2", "config": {"l2": 9.999999747378752e-05, "l1": 0.0}}, "bias_regularizer": null, "use_bias": true, "bias_constraint": null, "bias_initializer": {"class_name": "Zeros", "config": {}}, "kernel_constraint": null, "kernel_initializer": {"class_name": "VarianceScaling", "config": {"seed": 9035, "mode": "fan_avg", "scale": 1.0, "distribution": "normal"}}, "trainable": true, "name": "dense_55", "activation": "relu", "activity_regularizer": null, "units": 50}}, {"name": "OnOff_C1", "class_name": "InputLayer", "inbound_nodes": [], "config": {"batch_input_shape": [null, 1], "sparse": false, "name": "OnOff_C1", "dtype": "float32"}}, {"name": "dense_32", "class_name": "Dense", "inbound_nodes": [[["dense_31", 0, 0, {}]]], "config": {"kernel_regularizer": {"class_name": "L1L2", "config": {"l2": 9.999999747378752e-05, "l1": 0.0}}, "bias_regularizer": null, "use_bias": true, "bias_constraint": null, "bias_initializer": {"class_name": "Zeros", "config": {}}, "kernel_constraint": null, "kernel_initializer": {"class_name": "VarianceScaling", "config": {"seed": 9035, "mode": "fan_avg", "scale": 1.0, "distribution": "normal"}}, "trainable": true, "name": "dense_32", "activation": "relu", "activity_regularizer": null, "units": 1}}, {"name": "OnOff_C2", "class_name": "InputLayer", "inbound_nodes": [], "config": {"batch_input_shape": [null, 1], "sparse": false, "name": "OnOff_C2", "dtype": "float32"}}, {"name": "dense_36", "class_name": "Dense", "inbound_nodes": [[["dense_35", 0, 0, {}]]], "config": {"kernel_regularizer": {"class_name": "L1L2", "config": {"l2": 9.999999747378752e-05, "l1": 0.0}}, "bias_regularizer": null, "use_bias": true, "bias_constraint": null, "bias_initializer": {"class_name": "Zeros", "config": {}}, "kernel_constraint": null, "kernel_initializer": {"class_name": "VarianceScaling", "config": {"seed": 9035, "mode": "fan_avg", "scale": 1.0, "distribution": "normal"}}, "trainable": true, "name": "dense_36", "activation": "relu", "activity_regularizer": null, "units": 1}}, {"name": "OnOff_C3", "class_name": "InputLayer", "inbound_nodes": [], "config": {"batch_input_shape": [null, 1], "sparse": false, "name": "OnOff_C3", "dtype": "float32"}}, {"name": "dense_40", "class_name": "Dense", "inbound_nodes": [[["dense_39", 0, 0, {}]]], "config": {"kernel_regularizer": {"class_name": "L1L2", "config": {"l2": 9.999999747378752e-05, "l1": 0.0}}, "bias_regularizer": null, "use_bias": true, "bias_constraint": null, "bias_initializer": {"class_name": "Zeros", "config": {}}, "kernel_constraint": null, "kernel_initializer": {"class_name": "VarianceScaling", "config": {"seed": 9035, "mode": "fan_avg", "scale": 1.0, "distribution": "normal"}}, "trainable": true, "name": "dense_40", "activation": "relu", "activity_regularizer": null, "units": 1}}, {"name": "OnOff_C4", "class_name": "InputLayer", "inbound_nodes": [], "config": {"batch_input_shape": [null, 1], "sparse": false, "name": "OnOff_C4", "dtype": "float32"}}, {"name": "dense_44", "class_name": "Dense", "inbound_nodes": [[["dense_43", 0, 0, {}]]], "config": {"kernel_regularizer": {"class_name": "L1L2", "config": {"l2": 9.999999747378752e-05, "l1": 0.0}}, "bias_regularizer": null, "use_bias": true, "bias_constraint": null, "bias_initializer": {"class_name": "Zeros", "config": {}}, "kernel_constraint": null, "kernel_initializer": {"class_name": "VarianceScaling", "config": {"seed": 9035, "mode": "fan_avg", "scale": 1.0, "distribution": "normal"}}, "trainable": true, "name": "dense_44", "activation": "relu", "activity_regularizer": null, "units": 1}}, {"name": "OnOff_B1", "class_name": "InputLayer", "inbound_nodes": [], "config": {"batch_input_shape": [null, 1], "sparse": false, "name": "OnOff_B1", "dtype": "float32"}}, {"name": "dense_48", "class_name": "Dense", "inbound_nodes": [[["dense_47", 0, 0, {}]]], "config": {"kernel_regularizer": {"class_name": "L1L2", "config": {"l2": 9.999999747378752e-05, "l1": 0.0}}, "bias_regularizer": null, "use_bias": true, "bias_constraint": null, "bias_initializer": {"class_name": "Zeros", "config": {}}, "kernel_constraint": null, "kernel_initializer": {"class_name": "VarianceScaling", "config": {"seed": 9035, "mode": "fan_avg", "scale": 1.0, "distribution": "normal"}}, "trainable": true, "name": "dense_48", "activation": "relu", "activity_regularizer": null, "units": 1}}, {"name": "OnOff_B3", "class_name": "InputLayer", "inbound_nodes": [], "config": {"batch_input_shape": [null, 1], "sparse": false, "name": "OnOff_B3", "dtype": "float32"}}, {"name": "dense_52", "class_name": "Dense", "inbound_nodes": [[["dense_51", 0, 0, {}]]], "config": {"kernel_regularizer": {"class_name": "L1L2", "config": {"l2": 9.999999747378752e-05, "l1": 0.0}}, "bias_regularizer": null, "use_bias": true, "bias_constraint": null, "bias_initializer": {"class_name": "Zeros", "config": {}}, "kernel_constraint": null, "kernel_initializer": {"class_name": "VarianceScaling", "config": {"seed": 9035, "mode": "fan_avg", "scale": 1.0, "distribution": "normal"}}, "trainable": true, "name": "dense_52", "activation": "relu", "activity_regularizer": null, "units": 1}}, {"name": "OnOff_D1", "class_name": "InputLayer", "inbound_nodes": [], "config": {"batch_input_shape": [null, 1], "sparse": false, "name": "OnOff_D1", "dtype": "float32"}}, {"name": "dense_56", "class_name": "Dense", "inbound_nodes": [[["dense_55", 0, 0, {}]]], "config": {"kernel_regularizer": {"class_name": "L1L2", "config": {"l2": 9.999999747378752e-05, "l1": 0.0}}, "bias_regularizer": null, "use_bias": true, "bias_constraint": null, "bias_initializer": {"class_name": "Zeros", "config": {}}, "kernel_constraint": null, "kernel_initializer": {"class_name": "VarianceScaling", "config": {"seed": 9035, "mode": "fan_avg", "scale": 1.0, "distribution": "normal"}}, "trainable": true, "name": "dense_56", "activation": "relu", "activity_regularizer": null, "units": 1}}, {"name": "C1_out", "class_name": "Multiply", "inbound_nodes": [[["OnOff_C1", 0, 0, {}], ["dense_32", 0, 0, {}]]], "config": {"trainable": true, "name": "C1_out"}}, {"name": "C2_out", "class_name": "Multiply", "inbound_nodes": [[["OnOff_C2", 0, 0, {}], ["dense_36", 0, 0, {}]]], "config": {"trainable": true, "name": "C2_out"}}, {"name": "C3_out", "class_name": "Multiply", "inbound_nodes": [[["OnOff_C3", 0, 0, {}], ["dense_40", 0, 0, {}]]], "config": {"trainable": true, "name": "C3_out"}}, {"name": "C4_out", "class_name": "Multiply", "inbound_nodes": [[["OnOff_C4", 0, 0, {}], ["dense_44", 0, 0, {}]]], "config": {"trainable": true, "name": "C4_out"}}, {"name": "B1_out", "class_name": "Multiply", "inbound_nodes": [[["OnOff_B1", 0, 0, {}], ["dense_48", 0, 0, {}]]], "config": {"trainable": true, "name": "B1_out"}}, {"name": "B3_out", "class_name": "Multiply", "inbound_nodes": [[["OnOff_B3", 0, 0, {}], ["dense_52", 0, 0, {}]]], "config": {"trainable": true, "name": "B3_out"}}, {"name": "D1_out", "class_name": "Multiply", "inbound_nodes": [[["OnOff_D1", 0, 0, {}], ["dense_56", 0, 0, {}]]], "config": {"trainable": true, "name": "D1_out"}}, {"name": "GJOA_TOTAL", "class_name": "Add", "inbound_nodes": [[["C1_out", 0, 0, {}], ["C2_out", 0, 0, {}], ["C3_out", 0, 0, {}], ["C4_out", 0, 0, {}], ["B1_out", 0, 0, {}], ["B3_out", 0, 0, {}], ["D1_out", 0, 0, {}]]], "config": {"trainable": true, "name": "GJOA_TOTAL"}}], "input_layers": [["C1", 0, 0], ["C2", 0, 0], ["C3", 0, 0], ["C4", 0, 0], ["B1", 0, 0], ["B3", 0, 0], ["D1", 0, 0], ["OnOff_C1", 0, 0], ["OnOff_C2", 0, 0], ["OnOff_C3", 0, 0], ["OnOff_C4", 0, 0], ["OnOff_B1", 0, 0], ["OnOff_B3", 0, 0], ["OnOff_D1", 0, 0]]}}