{"class_name": "Model", "config": {"layers": [{"class_name": "InputLayer", "name": "CHK_INPUT_PREV", "config": {"dtype": "float32", "name": "CHK_INPUT_PREV", "sparse": false, "batch_input_shape": [null, 7]}, "inbound_nodes": []}, {"class_name": "InputLayer", "name": "CHK_INPUT_NOW", "config": {"dtype": "float32", "name": "CHK_INPUT_NOW", "sparse": false, "batch_input_shape": [null, 7]}, "inbound_nodes": []}, {"class_name": "Add", "name": "CHK_DELTA", "config": {"name": "CHK_DELTA", "trainable": true}, "inbound_nodes": [[["CHK_INPUT_PREV", 0, 0, {}], ["CHK_INPUT_NOW", 0, 0, {}]]]}, {"class_name": "Dense", "name": "C1_PBH_0", "config": {"activity_regularizer": null, "bias_initializer": {"class_name": "Zeros", "config": {}}, "name": "C1_PBH_0", "bias_regularizer": null, "activation": "relu", "kernel_constraint": null, "kernel_initializer": {"class_name": "VarianceScaling", "config": {"seed": 3014, "mode": "fan_avg", "scale": 1.0, "distribution": "normal"}}, "kernel_regularizer": {"class_name": "L1L2", "config": {"l2": 9.999999747378752e-05, "l1": 0.0}}, "units": 50, "use_bias": true, "bias_constraint": null, "trainable": true}, "inbound_nodes": [[["CHK_DELTA", 0, 0, {}]]]}, {"class_name": "Dense", "name": "C3_PBH_0", "config": {"activity_regularizer": null, "bias_initializer": {"class_name": "Zeros", "config": {}}, "name": "C3_PBH_0", "bias_regularizer": null, "activation": "relu", "kernel_constraint": null, "kernel_initializer": {"class_name": "VarianceScaling", "config": {"seed": 3014, "mode": "fan_avg", "scale": 1.0, "distribution": "normal"}}, "kernel_regularizer": {"class_name": "L1L2", "config": {"l2": 9.999999747378752e-05, "l1": 0.0}}, "units": 50, "use_bias": true, "bias_constraint": null, "trainable": true}, "inbound_nodes": [[["CHK_DELTA", 0, 0, {}]]]}, {"class_name": "Dense", "name": "C4_PBH_0", "config": {"activity_regularizer": null, "bias_initializer": {"class_name": "Zeros", "config": {}}, "name": "C4_PBH_0", "bias_regularizer": null, "activation": "relu", "kernel_constraint": null, "kernel_initializer": {"class_name": "VarianceScaling", "config": {"seed": 3014, "mode": "fan_avg", "scale": 1.0, "distribution": "normal"}}, "kernel_regularizer": {"class_name": "L1L2", "config": {"l2": 9.999999747378752e-05, "l1": 0.0}}, "units": 50, "use_bias": true, "bias_constraint": null, "trainable": true}, "inbound_nodes": [[["CHK_DELTA", 0, 0, {}]]]}, {"class_name": "Dense", "name": "B3_PBH_0", "config": {"activity_regularizer": null, "bias_initializer": {"class_name": "Zeros", "config": {}}, "name": "B3_PBH_0", "bias_regularizer": null, "activation": "relu", "kernel_constraint": null, "kernel_initializer": {"class_name": "VarianceScaling", "config": {"seed": 3014, "mode": "fan_avg", "scale": 1.0, "distribution": "normal"}}, "kernel_regularizer": {"class_name": "L1L2", "config": {"l2": 9.999999747378752e-05, "l1": 0.0}}, "units": 50, "use_bias": true, "bias_constraint": null, "trainable": true}, "inbound_nodes": [[["CHK_DELTA", 0, 0, {}]]]}, {"class_name": "Dense", "name": "B1_PBH_0", "config": {"activity_regularizer": null, "bias_initializer": {"class_name": "Zeros", "config": {}}, "name": "B1_PBH_0", "bias_regularizer": null, "activation": "relu", "kernel_constraint": null, "kernel_initializer": {"class_name": "VarianceScaling", "config": {"seed": 3014, "mode": "fan_avg", "scale": 1.0, "distribution": "normal"}}, "kernel_regularizer": {"class_name": "L1L2", "config": {"l2": 9.999999747378752e-05, "l1": 0.0}}, "units": 50, "use_bias": true, "bias_constraint": null, "trainable": true}, "inbound_nodes": [[["CHK_DELTA", 0, 0, {}]]]}, {"class_name": "Dense", "name": "C1_PBH_out", "config": {"activity_regularizer": null, "bias_initializer": {"class_name": "Zeros", "config": {}}, "name": "C1_PBH_out", "bias_regularizer": null, "activation": "linear", "kernel_constraint": null, "kernel_initializer": {"class_name": "VarianceScaling", "config": {"seed": 3014, "mode": "fan_avg", "scale": 1.0, "distribution": "normal"}}, "kernel_regularizer": {"class_name": "L1L2", "config": {"l2": 9.999999747378752e-05, "l1": 0.0}}, "units": 1, "use_bias": true, "bias_constraint": null, "trainable": true}, "inbound_nodes": [[["C1_PBH_0", 0, 0, {}]]]}, {"class_name": "InputLayer", "name": "SHIFTED_PRESSURE_PBH_C1", "config": {"dtype": "float32", "name": "SHIFTED_PRESSURE_PBH_C1", "sparse": false, "batch_input_shape": [null, 1]}, "inbound_nodes": []}, {"class_name": "Dense", "name": "C3_PBH_out", "config": {"activity_regularizer": null, "bias_initializer": {"class_name": "Zeros", "config": {}}, "name": "C3_PBH_out", "bias_regularizer": null, "activation": "linear", "kernel_constraint": null, "kernel_initializer": {"class_name": "VarianceScaling", "config": {"seed": 3014, "mode": "fan_avg", "scale": 1.0, "distribution": "normal"}}, "kernel_regularizer": {"class_name": "L1L2", "config": {"l2": 9.999999747378752e-05, "l1": 0.0}}, "units": 1, "use_bias": true, "bias_constraint": null, "trainable": true}, "inbound_nodes": [[["C3_PBH_0", 0, 0, {}]]]}, {"class_name": "InputLayer", "name": "SHIFTED_PRESSURE_PBH_C3", "config": {"dtype": "float32", "name": "SHIFTED_PRESSURE_PBH_C3", "sparse": false, "batch_input_shape": [null, 1]}, "inbound_nodes": []}, {"class_name": "Dense", "name": "C4_PBH_out", "config": {"activity_regularizer": null, "bias_initializer": {"class_name": "Zeros", "config": {}}, "name": "C4_PBH_out", "bias_regularizer": null, "activation": "linear", "kernel_constraint": null, "kernel_initializer": {"class_name": "VarianceScaling", "config": {"seed": 3014, "mode": "fan_avg", "scale": 1.0, "distribution": "normal"}}, "kernel_regularizer": {"class_name": "L1L2", "config": {"l2": 9.999999747378752e-05, "l1": 0.0}}, "units": 1, "use_bias": true, "bias_constraint": null, "trainable": true}, "inbound_nodes": [[["C4_PBH_0", 0, 0, {}]]]}, {"class_name": "InputLayer", "name": "SHIFTED_PRESSURE_PBH_C4", "config": {"dtype": "float32", "name": "SHIFTED_PRESSURE_PBH_C4", "sparse": false, "batch_input_shape": [null, 1]}, "inbound_nodes": []}, {"class_name": "Dense", "name": "B3_PBH_out", "config": {"activity_regularizer": null, "bias_initializer": {"class_name": "Zeros", "config": {}}, "name": "B3_PBH_out", "bias_regularizer": null, "activation": "linear", "kernel_constraint": null, "kernel_initializer": {"class_name": "VarianceScaling", "config": {"seed": 3014, "mode": "fan_avg", "scale": 1.0, "distribution": "normal"}}, "kernel_regularizer": {"class_name": "L1L2", "config": {"l2": 9.999999747378752e-05, "l1": 0.0}}, "units": 1, "use_bias": true, "bias_constraint": null, "trainable": true}, "inbound_nodes": [[["B3_PBH_0", 0, 0, {}]]]}, {"class_name": "InputLayer", "name": "SHIFTED_PRESSURE_PBH_B3", "config": {"dtype": "float32", "name": "SHIFTED_PRESSURE_PBH_B3", "sparse": false, "batch_input_shape": [null, 1]}, "inbound_nodes": []}, {"class_name": "Dense", "name": "B1_PBH_out", "config": {"activity_regularizer": null, "bias_initializer": {"class_name": "Zeros", "config": {}}, "name": "B1_PBH_out", "bias_regularizer": null, "activation": "linear", "kernel_constraint": null, "kernel_initializer": {"class_name": "VarianceScaling", "config": {"seed": 3014, "mode": "fan_avg", "scale": 1.0, "distribution": "normal"}}, "kernel_regularizer": {"class_name": "L1L2", "config": {"l2": 9.999999747378752e-05, "l1": 0.0}}, "units": 1, "use_bias": true, "bias_constraint": null, "trainable": true}, "inbound_nodes": [[["B1_PBH_0", 0, 0, {}]]]}, {"class_name": "InputLayer", "name": "SHIFTED_PRESSURE_PBH_B1", "config": {"dtype": "float32", "name": "SHIFTED_PRESSURE_PBH_B1", "sparse": false, "batch_input_shape": [null, 1]}, "inbound_nodes": []}, {"class_name": "Add", "name": "C1_PBH_out2", "config": {"name": "C1_PBH_out2", "trainable": true}, "inbound_nodes": [[["C1_PBH_out", 0, 0, {}], ["SHIFTED_PRESSURE_PBH_C1", 0, 0, {}]]]}, {"class_name": "Add", "name": "C3_PBH_out2", "config": {"name": "C3_PBH_out2", "trainable": true}, "inbound_nodes": [[["C3_PBH_out", 0, 0, {}], ["SHIFTED_PRESSURE_PBH_C3", 0, 0, {}]]]}, {"class_name": "Add", "name": "C4_PBH_out2", "config": {"name": "C4_PBH_out2", "trainable": true}, "inbound_nodes": [[["C4_PBH_out", 0, 0, {}], ["SHIFTED_PRESSURE_PBH_C4", 0, 0, {}]]]}, {"class_name": "Add", "name": "B3_PBH_out2", "config": {"name": "B3_PBH_out2", "trainable": true}, "inbound_nodes": [[["B3_PBH_out", 0, 0, {}], ["SHIFTED_PRESSURE_PBH_B3", 0, 0, {}]]]}, {"class_name": "Add", "name": "B1_PBH_out2", "config": {"name": "B1_PBH_out2", "trainable": true}, "inbound_nodes": [[["B1_PBH_out", 0, 0, {}], ["SHIFTED_PRESSURE_PBH_B1", 0, 0, {}]]]}], "name": "model_1", "input_layers": [["CHK_INPUT_NOW", 0, 0], ["CHK_INPUT_PREV", 0, 0], ["SHIFTED_PRESSURE_PBH_C1", 0, 0], ["SHIFTED_PRESSURE_PBH_C3", 0, 0], ["SHIFTED_PRESSURE_PBH_C4", 0, 0], ["SHIFTED_PRESSURE_PBH_B3", 0, 0], ["SHIFTED_PRESSURE_PBH_B1", 0, 0]], "output_layers": [["C1_PBH_out2", 0, 0], ["C1_PBH_out", 0, 0], ["C3_PBH_out2", 0, 0], ["C3_PBH_out", 0, 0], ["C4_PBH_out2", 0, 0], ["C4_PBH_out", 0, 0], ["B3_PBH_out2", 0, 0], ["B3_PBH_out", 0, 0], ["B1_PBH_out2", 0, 0], ["B1_PBH_out", 0, 0]]}, "keras_version": "2.0.1", "backend": "theano"}