{"backend": "theano", "class_name": "Model", "config": {"layers": [{"class_name": "InputLayer", "inbound_nodes": [], "config": {"sparse": false, "batch_input_shape": [null, 7], "dtype": "float32", "name": "PRESSURE_INPUT"}, "name": "PRESSURE_INPUT"}, {"class_name": "InputLayer", "inbound_nodes": [], "config": {"sparse": false, "batch_input_shape": [null, 1], "dtype": "float32", "name": "RISER_B_CHK_INPUT"}, "name": "RISER_B_CHK_INPUT"}, {"class_name": "Concatenate", "inbound_nodes": [[["PRESSURE_INPUT", 0, 0, {}], ["RISER_B_CHK_INPUT", 0, 0, {}]]], "config": {"axis": -1, "trainable": true, "name": "RISER_MERGE"}, "name": "RISER_MERGE"}, {"class_name": "Dense", "inbound_nodes": [[["RISER_MERGE", 0, 0, {}]]], "config": {"bias_regularizer": null, "units": 50, "name": "C1_PDC_0", "trainable": true, "activation": "relu", "use_bias": true, "bias_initializer": {"class_name": "Zeros", "config": {}}, "kernel_initializer": {"class_name": "VarianceScaling", "config": {"seed": 3014, "scale": 1.0, "distribution": "normal", "mode": "fan_avg"}}, "kernel_constraint": null, "activity_regularizer": null, "kernel_regularizer": {"class_name": "L1L2", "config": {"l2": 0.003000000026077032, "l1": 0.0}}, "bias_constraint": null}, "name": "C1_PDC_0"}, {"class_name": "Dense", "inbound_nodes": [[["RISER_MERGE", 0, 0, {}]]], "config": {"bias_regularizer": null, "units": 50, "name": "C2_PDC_0", "trainable": true, "activation": "relu", "use_bias": true, "bias_initializer": {"class_name": "Zeros", "config": {}}, "kernel_initializer": {"class_name": "VarianceScaling", "config": {"seed": 3014, "scale": 1.0, "distribution": "normal", "mode": "fan_avg"}}, "kernel_constraint": null, "activity_regularizer": null, "kernel_regularizer": {"class_name": "L1L2", "config": {"l2": 0.003000000026077032, "l1": 0.0}}, "bias_constraint": null}, "name": "C2_PDC_0"}, {"class_name": "Dense", "inbound_nodes": [[["RISER_MERGE", 0, 0, {}]]], "config": {"bias_regularizer": null, "units": 50, "name": "C3_PDC_0", "trainable": true, "activation": "relu", "use_bias": true, "bias_initializer": {"class_name": "Zeros", "config": {}}, "kernel_initializer": {"class_name": "VarianceScaling", "config": {"seed": 3014, "scale": 1.0, "distribution": "normal", "mode": "fan_avg"}}, "kernel_constraint": null, "activity_regularizer": null, "kernel_regularizer": {"class_name": "L1L2", "config": {"l2": 0.003000000026077032, "l1": 0.0}}, "bias_constraint": null}, "name": "C3_PDC_0"}, {"class_name": "Dense", "inbound_nodes": [[["RISER_MERGE", 0, 0, {}]]], "config": {"bias_regularizer": null, "units": 50, "name": "C4_PDC_0", "trainable": true, "activation": "relu", "use_bias": true, "bias_initializer": {"class_name": "Zeros", "config": {}}, "kernel_initializer": {"class_name": "VarianceScaling", "config": {"seed": 3014, "scale": 1.0, "distribution": "normal", "mode": "fan_avg"}}, "kernel_constraint": null, "activity_regularizer": null, "kernel_regularizer": {"class_name": "L1L2", "config": {"l2": 0.003000000026077032, "l1": 0.0}}, "bias_constraint": null}, "name": "C4_PDC_0"}, {"class_name": "Dense", "inbound_nodes": [[["RISER_MERGE", 0, 0, {}]]], "config": {"bias_regularizer": null, "units": 50, "name": "B3_PDC_0", "trainable": true, "activation": "relu", "use_bias": true, "bias_initializer": {"class_name": "Zeros", "config": {}}, "kernel_initializer": {"class_name": "VarianceScaling", "config": {"seed": 3014, "scale": 1.0, "distribution": "normal", "mode": "fan_avg"}}, "kernel_constraint": null, "activity_regularizer": null, "kernel_regularizer": {"class_name": "L1L2", "config": {"l2": 0.003000000026077032, "l1": 0.0}}, "bias_constraint": null}, "name": "B3_PDC_0"}, {"class_name": "Dense", "inbound_nodes": [[["RISER_MERGE", 0, 0, {}]]], "config": {"bias_regularizer": null, "units": 50, "name": "B1_PDC_0", "trainable": true, "activation": "relu", "use_bias": true, "bias_initializer": {"class_name": "Zeros", "config": {}}, "kernel_initializer": {"class_name": "VarianceScaling", "config": {"seed": 3014, "scale": 1.0, "distribution": "normal", "mode": "fan_avg"}}, "kernel_constraint": null, "activity_regularizer": null, "kernel_regularizer": {"class_name": "L1L2", "config": {"l2": 0.003000000026077032, "l1": 0.0}}, "bias_constraint": null}, "name": "B1_PDC_0"}, {"class_name": "Dense", "inbound_nodes": [[["RISER_MERGE", 0, 0, {}]]], "config": {"bias_regularizer": null, "units": 50, "name": "D1_PDC_0", "trainable": true, "activation": "relu", "use_bias": true, "bias_initializer": {"class_name": "Zeros", "config": {}}, "kernel_initializer": {"class_name": "VarianceScaling", "config": {"seed": 3014, "scale": 1.0, "distribution": "normal", "mode": "fan_avg"}}, "kernel_constraint": null, "activity_regularizer": null, "kernel_regularizer": {"class_name": "L1L2", "config": {"l2": 0.003000000026077032, "l1": 0.0}}, "bias_constraint": null}, "name": "D1_PDC_0"}, {"class_name": "Dense", "inbound_nodes": [[["C1_PDC_0", 0, 0, {}]]], "config": {"bias_regularizer": null, "units": 50, "name": "C1_PDC_1", "trainable": true, "activation": "relu", "use_bias": true, "bias_initializer": {"class_name": "Zeros", "config": {}}, "kernel_initializer": {"class_name": "VarianceScaling", "config": {"seed": 3014, "scale": 1.0, "distribution": "normal", "mode": "fan_avg"}}, "kernel_constraint": null, "activity_regularizer": null, "kernel_regularizer": {"class_name": "L1L2", "config": {"l2": 0.003000000026077032, "l1": 0.0}}, "bias_constraint": null}, "name": "C1_PDC_1"}, {"class_name": "Dense", "inbound_nodes": [[["C2_PDC_0", 0, 0, {}]]], "config": {"bias_regularizer": null, "units": 50, "name": "C2_PDC_1", "trainable": true, "activation": "relu", "use_bias": true, "bias_initializer": {"class_name": "Zeros", "config": {}}, "kernel_initializer": {"class_name": "VarianceScaling", "config": {"seed": 3014, "scale": 1.0, "distribution": "normal", "mode": "fan_avg"}}, "kernel_constraint": null, "activity_regularizer": null, "kernel_regularizer": {"class_name": "L1L2", "config": {"l2": 0.003000000026077032, "l1": 0.0}}, "bias_constraint": null}, "name": "C2_PDC_1"}, {"class_name": "Dense", "inbound_nodes": [[["C3_PDC_0", 0, 0, {}]]], "config": {"bias_regularizer": null, "units": 50, "name": "C3_PDC_1", "trainable": true, "activation": "relu", "use_bias": true, "bias_initializer": {"class_name": "Zeros", "config": {}}, "kernel_initializer": {"class_name": "VarianceScaling", "config": {"seed": 3014, "scale": 1.0, "distribution": "normal", "mode": "fan_avg"}}, "kernel_constraint": null, "activity_regularizer": null, "kernel_regularizer": {"class_name": "L1L2", "config": {"l2": 0.003000000026077032, "l1": 0.0}}, "bias_constraint": null}, "name": "C3_PDC_1"}, {"class_name": "Dense", "inbound_nodes": [[["C4_PDC_0", 0, 0, {}]]], "config": {"bias_regularizer": null, "units": 50, "name": "C4_PDC_1", "trainable": true, "activation": "relu", "use_bias": true, "bias_initializer": {"class_name": "Zeros", "config": {}}, "kernel_initializer": {"class_name": "VarianceScaling", "config": {"seed": 3014, "scale": 1.0, "distribution": "normal", "mode": "fan_avg"}}, "kernel_constraint": null, "activity_regularizer": null, "kernel_regularizer": {"class_name": "L1L2", "config": {"l2": 0.003000000026077032, "l1": 0.0}}, "bias_constraint": null}, "name": "C4_PDC_1"}, {"class_name": "Dense", "inbound_nodes": [[["B3_PDC_0", 0, 0, {}]]], "config": {"bias_regularizer": null, "units": 50, "name": "B3_PDC_1", "trainable": true, "activation": "relu", "use_bias": true, "bias_initializer": {"class_name": "Zeros", "config": {}}, "kernel_initializer": {"class_name": "VarianceScaling", "config": {"seed": 3014, "scale": 1.0, "distribution": "normal", "mode": "fan_avg"}}, "kernel_constraint": null, "activity_regularizer": null, "kernel_regularizer": {"class_name": "L1L2", "config": {"l2": 0.003000000026077032, "l1": 0.0}}, "bias_constraint": null}, "name": "B3_PDC_1"}, {"class_name": "Dense", "inbound_nodes": [[["B1_PDC_0", 0, 0, {}]]], "config": {"bias_regularizer": null, "units": 50, "name": "B1_PDC_1", "trainable": true, "activation": "relu", "use_bias": true, "bias_initializer": {"class_name": "Zeros", "config": {}}, "kernel_initializer": {"class_name": "VarianceScaling", "config": {"seed": 3014, "scale": 1.0, "distribution": "normal", "mode": "fan_avg"}}, "kernel_constraint": null, "activity_regularizer": null, "kernel_regularizer": {"class_name": "L1L2", "config": {"l2": 0.003000000026077032, "l1": 0.0}}, "bias_constraint": null}, "name": "B1_PDC_1"}, {"class_name": "Dense", "inbound_nodes": [[["D1_PDC_0", 0, 0, {}]]], "config": {"bias_regularizer": null, "units": 50, "name": "D1_PDC_1", "trainable": true, "activation": "relu", "use_bias": true, "bias_initializer": {"class_name": "Zeros", "config": {}}, "kernel_initializer": {"class_name": "VarianceScaling", "config": {"seed": 3014, "scale": 1.0, "distribution": "normal", "mode": "fan_avg"}}, "kernel_constraint": null, "activity_regularizer": null, "kernel_regularizer": {"class_name": "L1L2", "config": {"l2": 0.003000000026077032, "l1": 0.0}}, "bias_constraint": null}, "name": "D1_PDC_1"}, {"class_name": "Dense", "inbound_nodes": [[["C1_PDC_1", 0, 0, {}]]], "config": {"bias_regularizer": null, "units": 1, "name": "C1_PDC_out", "trainable": true, "activation": "linear", "use_bias": true, "bias_initializer": {"class_name": "Zeros", "config": {}}, "kernel_initializer": {"class_name": "VarianceScaling", "config": {"seed": 3014, "scale": 1.0, "distribution": "normal", "mode": "fan_avg"}}, "kernel_constraint": null, "activity_regularizer": null, "kernel_regularizer": {"class_name": "L1L2", "config": {"l2": 0.003000000026077032, "l1": 0.0}}, "bias_constraint": null}, "name": "C1_PDC_out"}, {"class_name": "Dense", "inbound_nodes": [[["C2_PDC_1", 0, 0, {}]]], "config": {"bias_regularizer": null, "units": 1, "name": "C2_PDC_out", "trainable": true, "activation": "linear", "use_bias": true, "bias_initializer": {"class_name": "Zeros", "config": {}}, "kernel_initializer": {"class_name": "VarianceScaling", "config": {"seed": 3014, "scale": 1.0, "distribution": "normal", "mode": "fan_avg"}}, "kernel_constraint": null, "activity_regularizer": null, "kernel_regularizer": {"class_name": "L1L2", "config": {"l2": 0.003000000026077032, "l1": 0.0}}, "bias_constraint": null}, "name": "C2_PDC_out"}, {"class_name": "Dense", "inbound_nodes": [[["C3_PDC_1", 0, 0, {}]]], "config": {"bias_regularizer": null, "units": 1, "name": "C3_PDC_out", "trainable": true, "activation": "linear", "use_bias": true, "bias_initializer": {"class_name": "Zeros", "config": {}}, "kernel_initializer": {"class_name": "VarianceScaling", "config": {"seed": 3014, "scale": 1.0, "distribution": "normal", "mode": "fan_avg"}}, "kernel_constraint": null, "activity_regularizer": null, "kernel_regularizer": {"class_name": "L1L2", "config": {"l2": 0.003000000026077032, "l1": 0.0}}, "bias_constraint": null}, "name": "C3_PDC_out"}, {"class_name": "Dense", "inbound_nodes": [[["C4_PDC_1", 0, 0, {}]]], "config": {"bias_regularizer": null, "units": 1, "name": "C4_PDC_out", "trainable": true, "activation": "linear", "use_bias": true, "bias_initializer": {"class_name": "Zeros", "config": {}}, "kernel_initializer": {"class_name": "VarianceScaling", "config": {"seed": 3014, "scale": 1.0, "distribution": "normal", "mode": "fan_avg"}}, "kernel_constraint": null, "activity_regularizer": null, "kernel_regularizer": {"class_name": "L1L2", "config": {"l2": 0.003000000026077032, "l1": 0.0}}, "bias_constraint": null}, "name": "C4_PDC_out"}, {"class_name": "Dense", "inbound_nodes": [[["B3_PDC_1", 0, 0, {}]]], "config": {"bias_regularizer": null, "units": 1, "name": "B3_PDC_out", "trainable": true, "activation": "linear", "use_bias": true, "bias_initializer": {"class_name": "Zeros", "config": {}}, "kernel_initializer": {"class_name": "VarianceScaling", "config": {"seed": 3014, "scale": 1.0, "distribution": "normal", "mode": "fan_avg"}}, "kernel_constraint": null, "activity_regularizer": null, "kernel_regularizer": {"class_name": "L1L2", "config": {"l2": 0.003000000026077032, "l1": 0.0}}, "bias_constraint": null}, "name": "B3_PDC_out"}, {"class_name": "Dense", "inbound_nodes": [[["B1_PDC_1", 0, 0, {}]]], "config": {"bias_regularizer": null, "units": 1, "name": "B1_PDC_out", "trainable": true, "activation": "linear", "use_bias": true, "bias_initializer": {"class_name": "Zeros", "config": {}}, "kernel_initializer": {"class_name": "VarianceScaling", "config": {"seed": 3014, "scale": 1.0, "distribution": "normal", "mode": "fan_avg"}}, "kernel_constraint": null, "activity_regularizer": null, "kernel_regularizer": {"class_name": "L1L2", "config": {"l2": 0.003000000026077032, "l1": 0.0}}, "bias_constraint": null}, "name": "B1_PDC_out"}, {"class_name": "Dense", "inbound_nodes": [[["D1_PDC_1", 0, 0, {}]]], "config": {"bias_regularizer": null, "units": 1, "name": "D1_PDC_out", "trainable": true, "activation": "linear", "use_bias": true, "bias_initializer": {"class_name": "Zeros", "config": {}}, "kernel_initializer": {"class_name": "VarianceScaling", "config": {"seed": 3014, "scale": 1.0, "distribution": "normal", "mode": "fan_avg"}}, "kernel_constraint": null, "activity_regularizer": null, "kernel_regularizer": {"class_name": "L1L2", "config": {"l2": 0.003000000026077032, "l1": 0.0}}, "bias_constraint": null}, "name": "D1_PDC_out"}], "name": "model_1", "output_layers": [["C1_PDC_out", 0, 0], ["C2_PDC_out", 0, 0], ["C3_PDC_out", 0, 0], ["C4_PDC_out", 0, 0], ["B3_PDC_out", 0, 0], ["B1_PDC_out", 0, 0], ["D1_PDC_out", 0, 0]], "input_layers": [["PRESSURE_INPUT", 0, 0], ["RISER_B_CHK_INPUT", 0, 0]]}, "keras_version": "2.0.1"}