{"class_name": "Model", "config": {"input_layers": [["CHK_INPUT_NOW", 0, 0]], "output_layers": [["F1_PBH_out", 0, 0], ["B2_PBH_out", 0, 0], ["D3_PBH_out", 0, 0], ["E1_PBH_out", 0, 0]], "name": "model_1", "layers": [{"class_name": "InputLayer", "config": {"dtype": "float32", "sparse": false, "batch_input_shape": [null, 4], "name": "CHK_INPUT_NOW"}, "name": "CHK_INPUT_NOW", "inbound_nodes": []}, {"class_name": "Dense", "config": {"activity_regularizer": null, "kernel_regularizer": {"class_name": "L1L2", "config": {"l1": 0.0, "l2": 9.999999747378752e-05}}, "name": "F1_PBH_0", "units": 50, "bias_regularizer": null, "trainable": true, "bias_initializer": {"class_name": "Zeros", "config": {}}, "kernel_initializer": {"class_name": "VarianceScaling", "config": {"mode": "fan_avg", "distribution": "normal", "scale": 1.0, "seed": 3014}}, "kernel_constraint": null, "activation": "relu", "bias_constraint": null, "use_bias": true}, "name": "F1_PBH_0", "inbound_nodes": [[["CHK_INPUT_NOW", 0, 0, {}]]]}, {"class_name": "Dense", "config": {"activity_regularizer": null, "kernel_regularizer": {"class_name": "L1L2", "config": {"l1": 0.0, "l2": 9.999999747378752e-05}}, "name": "B2_PBH_0", "units": 50, "bias_regularizer": null, "trainable": true, "bias_initializer": {"class_name": "Zeros", "config": {}}, "kernel_initializer": {"class_name": "VarianceScaling", "config": {"mode": "fan_avg", "distribution": "normal", "scale": 1.0, "seed": 3014}}, "kernel_constraint": null, "activation": "relu", "bias_constraint": null, "use_bias": true}, "name": "B2_PBH_0", "inbound_nodes": [[["CHK_INPUT_NOW", 0, 0, {}]]]}, {"class_name": "Dense", "config": {"activity_regularizer": null, "kernel_regularizer": {"class_name": "L1L2", "config": {"l1": 0.0, "l2": 9.999999747378752e-05}}, "name": "D3_PBH_0", "units": 50, "bias_regularizer": null, "trainable": true, "bias_initializer": {"class_name": "Zeros", "config": {}}, "kernel_initializer": {"class_name": "VarianceScaling", "config": {"mode": "fan_avg", "distribution": "normal", "scale": 1.0, "seed": 3014}}, "kernel_constraint": null, "activation": "relu", "bias_constraint": null, "use_bias": true}, "name": "D3_PBH_0", "inbound_nodes": [[["CHK_INPUT_NOW", 0, 0, {}]]]}, {"class_name": "Dense", "config": {"activity_regularizer": null, "kernel_regularizer": {"class_name": "L1L2", "config": {"l1": 0.0, "l2": 9.999999747378752e-05}}, "name": "E1_PBH_0", "units": 50, "bias_regularizer": null, "trainable": true, "bias_initializer": {"class_name": "Zeros", "config": {}}, "kernel_initializer": {"class_name": "VarianceScaling", "config": {"mode": "fan_avg", "distribution": "normal", "scale": 1.0, "seed": 3014}}, "kernel_constraint": null, "activation": "relu", "bias_constraint": null, "use_bias": true}, "name": "E1_PBH_0", "inbound_nodes": [[["CHK_INPUT_NOW", 0, 0, {}]]]}, {"class_name": "Dense", "config": {"activity_regularizer": null, "kernel_regularizer": {"class_name": "L1L2", "config": {"l1": 0.0, "l2": 9.999999747378752e-05}}, "name": "F1_PBH_1", "units": 50, "bias_regularizer": null, "trainable": true, "bias_initializer": {"class_name": "Zeros", "config": {}}, "kernel_initializer": {"class_name": "VarianceScaling", "config": {"mode": "fan_avg", "distribution": "normal", "scale": 1.0, "seed": 3014}}, "kernel_constraint": null, "activation": "relu", "bias_constraint": null, "use_bias": true}, "name": "F1_PBH_1", "inbound_nodes": [[["F1_PBH_0", 0, 0, {}]]]}, {"class_name": "Dense", "config": {"activity_regularizer": null, "kernel_regularizer": {"class_name": "L1L2", "config": {"l1": 0.0, "l2": 9.999999747378752e-05}}, "name": "B2_PBH_1", "units": 50, "bias_regularizer": null, "trainable": true, "bias_initializer": {"class_name": "Zeros", "config": {}}, "kernel_initializer": {"class_name": "VarianceScaling", "config": {"mode": "fan_avg", "distribution": "normal", "scale": 1.0, "seed": 3014}}, "kernel_constraint": null, "activation": "relu", "bias_constraint": null, "use_bias": true}, "name": "B2_PBH_1", "inbound_nodes": [[["B2_PBH_0", 0, 0, {}]]]}, {"class_name": "Dense", "config": {"activity_regularizer": null, "kernel_regularizer": {"class_name": "L1L2", "config": {"l1": 0.0, "l2": 9.999999747378752e-05}}, "name": "D3_PBH_1", "units": 50, "bias_regularizer": null, "trainable": true, "bias_initializer": {"class_name": "Zeros", "config": {}}, "kernel_initializer": {"class_name": "VarianceScaling", "config": {"mode": "fan_avg", "distribution": "normal", "scale": 1.0, "seed": 3014}}, "kernel_constraint": null, "activation": "relu", "bias_constraint": null, "use_bias": true}, "name": "D3_PBH_1", "inbound_nodes": [[["D3_PBH_0", 0, 0, {}]]]}, {"class_name": "Dense", "config": {"activity_regularizer": null, "kernel_regularizer": {"class_name": "L1L2", "config": {"l1": 0.0, "l2": 9.999999747378752e-05}}, "name": "E1_PBH_1", "units": 50, "bias_regularizer": null, "trainable": true, "bias_initializer": {"class_name": "Zeros", "config": {}}, "kernel_initializer": {"class_name": "VarianceScaling", "config": {"mode": "fan_avg", "distribution": "normal", "scale": 1.0, "seed": 3014}}, "kernel_constraint": null, "activation": "relu", "bias_constraint": null, "use_bias": true}, "name": "E1_PBH_1", "inbound_nodes": [[["E1_PBH_0", 0, 0, {}]]]}, {"class_name": "Dense", "config": {"activity_regularizer": null, "kernel_regularizer": {"class_name": "L1L2", "config": {"l1": 0.0, "l2": 9.999999747378752e-05}}, "name": "F1_PBH_out", "units": 1, "bias_regularizer": null, "trainable": true, "bias_initializer": {"class_name": "Zeros", "config": {}}, "kernel_initializer": {"class_name": "VarianceScaling", "config": {"mode": "fan_avg", "distribution": "normal", "scale": 1.0, "seed": 3014}}, "kernel_constraint": null, "activation": "linear", "bias_constraint": null, "use_bias": true}, "name": "F1_PBH_out", "inbound_nodes": [[["F1_PBH_1", 0, 0, {}]]]}, {"class_name": "Dense", "config": {"activity_regularizer": null, "kernel_regularizer": {"class_name": "L1L2", "config": {"l1": 0.0, "l2": 9.999999747378752e-05}}, "name": "B2_PBH_out", "units": 1, "bias_regularizer": null, "trainable": true, "bias_initializer": {"class_name": "Zeros", "config": {}}, "kernel_initializer": {"class_name": "VarianceScaling", "config": {"mode": "fan_avg", "distribution": "normal", "scale": 1.0, "seed": 3014}}, "kernel_constraint": null, "activation": "linear", "bias_constraint": null, "use_bias": true}, "name": "B2_PBH_out", "inbound_nodes": [[["B2_PBH_1", 0, 0, {}]]]}, {"class_name": "Dense", "config": {"activity_regularizer": null, "kernel_regularizer": {"class_name": "L1L2", "config": {"l1": 0.0, "l2": 9.999999747378752e-05}}, "name": "D3_PBH_out", "units": 1, "bias_regularizer": null, "trainable": true, "bias_initializer": {"class_name": "Zeros", "config": {}}, "kernel_initializer": {"class_name": "VarianceScaling", "config": {"mode": "fan_avg", "distribution": "normal", "scale": 1.0, "seed": 3014}}, "kernel_constraint": null, "activation": "linear", "bias_constraint": null, "use_bias": true}, "name": "D3_PBH_out", "inbound_nodes": [[["D3_PBH_1", 0, 0, {}]]]}, {"class_name": "Dense", "config": {"activity_regularizer": null, "kernel_regularizer": {"class_name": "L1L2", "config": {"l1": 0.0, "l2": 9.999999747378752e-05}}, "name": "E1_PBH_out", "units": 1, "bias_regularizer": null, "trainable": true, "bias_initializer": {"class_name": "Zeros", "config": {}}, "kernel_initializer": {"class_name": "VarianceScaling", "config": {"mode": "fan_avg", "distribution": "normal", "scale": 1.0, "seed": 3014}}, "kernel_constraint": null, "activation": "linear", "bias_constraint": null, "use_bias": true}, "name": "E1_PBH_out", "inbound_nodes": [[["E1_PBH_1", 0, 0, {}]]]}]}, "keras_version": "2.0.1", "backend": "theano"}