{"config": {"input_layers": [["PRESSURE_INPUT", 0, 0], ["RISER_B_CHK_INPUT", 0, 0]], "name": "model_1", "layers": [{"config": {"batch_input_shape": [null, 7], "name": "PRESSURE_INPUT", "dtype": "float32", "sparse": false}, "name": "PRESSURE_INPUT", "inbound_nodes": [], "class_name": "InputLayer"}, {"config": {"batch_input_shape": [null, 1], "name": "RISER_B_CHK_INPUT", "dtype": "float32", "sparse": false}, "name": "RISER_B_CHK_INPUT", "inbound_nodes": [], "class_name": "InputLayer"}, {"config": {"name": "RISER_MERGE", "axis": -1, "trainable": true}, "name": "RISER_MERGE", "inbound_nodes": [[["PRESSURE_INPUT", 0, 0, {}], ["RISER_B_CHK_INPUT", 0, 0, {}]]], "class_name": "Concatenate"}, {"config": {"units": 50, "use_bias": true, "activation": "relu", "bias_initializer": {"config": {}, "class_name": "Zeros"}, "kernel_initializer": {"config": {"mode": "fan_avg", "seed": 3014, "distribution": "normal", "scale": 1.0}, "class_name": "VarianceScaling"}, "kernel_regularizer": {"config": {"l2": 0.0020000000949949026, "l1": 0.0}, "class_name": "L1L2"}, "activity_regularizer": null, "name": "C1_PDC_0", "kernel_constraint": null, "bias_constraint": null, "trainable": true, "bias_regularizer": null}, "name": "C1_PDC_0", "inbound_nodes": [[["RISER_MERGE", 0, 0, {}]]], "class_name": "Dense"}, {"config": {"units": 50, "use_bias": true, "activation": "relu", "bias_initializer": {"config": {}, "class_name": "Zeros"}, "kernel_initializer": {"config": {"mode": "fan_avg", "seed": 3014, "distribution": "normal", "scale": 1.0}, "class_name": "VarianceScaling"}, "kernel_regularizer": {"config": {"l2": 0.0020000000949949026, "l1": 0.0}, "class_name": "L1L2"}, "activity_regularizer": null, "name": "C2_PDC_0", "kernel_constraint": null, "bias_constraint": null, "trainable": true, "bias_regularizer": null}, "name": "C2_PDC_0", "inbound_nodes": [[["RISER_MERGE", 0, 0, {}]]], "class_name": "Dense"}, {"config": {"units": 50, "use_bias": true, "activation": "relu", "bias_initializer": {"config": {}, "class_name": "Zeros"}, "kernel_initializer": {"config": {"mode": "fan_avg", "seed": 3014, "distribution": "normal", "scale": 1.0}, "class_name": "VarianceScaling"}, "kernel_regularizer": {"config": {"l2": 0.0020000000949949026, "l1": 0.0}, "class_name": "L1L2"}, "activity_regularizer": null, "name": "C3_PDC_0", "kernel_constraint": null, "bias_constraint": null, "trainable": true, "bias_regularizer": null}, "name": "C3_PDC_0", "inbound_nodes": [[["RISER_MERGE", 0, 0, {}]]], "class_name": "Dense"}, {"config": {"units": 50, "use_bias": true, "activation": "relu", "bias_initializer": {"config": {}, "class_name": "Zeros"}, "kernel_initializer": {"config": {"mode": "fan_avg", "seed": 3014, "distribution": "normal", "scale": 1.0}, "class_name": "VarianceScaling"}, "kernel_regularizer": {"config": {"l2": 0.0020000000949949026, "l1": 0.0}, "class_name": "L1L2"}, "activity_regularizer": null, "name": "C4_PDC_0", "kernel_constraint": null, "bias_constraint": null, "trainable": true, "bias_regularizer": null}, "name": "C4_PDC_0", "inbound_nodes": [[["RISER_MERGE", 0, 0, {}]]], "class_name": "Dense"}, {"config": {"units": 50, "use_bias": true, "activation": "relu", "bias_initializer": {"config": {}, "class_name": "Zeros"}, "kernel_initializer": {"config": {"mode": "fan_avg", "seed": 3014, "distribution": "normal", "scale": 1.0}, "class_name": "VarianceScaling"}, "kernel_regularizer": {"config": {"l2": 0.0020000000949949026, "l1": 0.0}, "class_name": "L1L2"}, "activity_regularizer": null, "name": "B3_PDC_0", "kernel_constraint": null, "bias_constraint": null, "trainable": true, "bias_regularizer": null}, "name": "B3_PDC_0", "inbound_nodes": [[["RISER_MERGE", 0, 0, {}]]], "class_name": "Dense"}, {"config": {"units": 50, "use_bias": true, "activation": "relu", "bias_initializer": {"config": {}, "class_name": "Zeros"}, "kernel_initializer": {"config": {"mode": "fan_avg", "seed": 3014, "distribution": "normal", "scale": 1.0}, "class_name": "VarianceScaling"}, "kernel_regularizer": {"config": {"l2": 0.0020000000949949026, "l1": 0.0}, "class_name": "L1L2"}, "activity_regularizer": null, "name": "B1_PDC_0", "kernel_constraint": null, "bias_constraint": null, "trainable": true, "bias_regularizer": null}, "name": "B1_PDC_0", "inbound_nodes": [[["RISER_MERGE", 0, 0, {}]]], "class_name": "Dense"}, {"config": {"units": 50, "use_bias": true, "activation": "relu", "bias_initializer": {"config": {}, "class_name": "Zeros"}, "kernel_initializer": {"config": {"mode": "fan_avg", "seed": 3014, "distribution": "normal", "scale": 1.0}, "class_name": "VarianceScaling"}, "kernel_regularizer": {"config": {"l2": 0.0020000000949949026, "l1": 0.0}, "class_name": "L1L2"}, "activity_regularizer": null, "name": "D1_PDC_0", "kernel_constraint": null, "bias_constraint": null, "trainable": true, "bias_regularizer": null}, "name": "D1_PDC_0", "inbound_nodes": [[["RISER_MERGE", 0, 0, {}]]], "class_name": "Dense"}, {"config": {"units": 50, "use_bias": true, "activation": "relu", "bias_initializer": {"config": {}, "class_name": "Zeros"}, "kernel_initializer": {"config": {"mode": "fan_avg", "seed": 3014, "distribution": "normal", "scale": 1.0}, "class_name": "VarianceScaling"}, "kernel_regularizer": {"config": {"l2": 0.0020000000949949026, "l1": 0.0}, "class_name": "L1L2"}, "activity_regularizer": null, "name": "C1_PDC_1", "kernel_constraint": null, "bias_constraint": null, "trainable": true, "bias_regularizer": null}, "name": "C1_PDC_1", "inbound_nodes": [[["C1_PDC_0", 0, 0, {}]]], "class_name": "Dense"}, {"config": {"units": 50, "use_bias": true, "activation": "relu", "bias_initializer": {"config": {}, "class_name": "Zeros"}, "kernel_initializer": {"config": {"mode": "fan_avg", "seed": 3014, "distribution": "normal", "scale": 1.0}, "class_name": "VarianceScaling"}, "kernel_regularizer": {"config": {"l2": 0.0020000000949949026, "l1": 0.0}, "class_name": "L1L2"}, "activity_regularizer": null, "name": "C2_PDC_1", "kernel_constraint": null, "bias_constraint": null, "trainable": true, "bias_regularizer": null}, "name": "C2_PDC_1", "inbound_nodes": [[["C2_PDC_0", 0, 0, {}]]], "class_name": "Dense"}, {"config": {"units": 50, "use_bias": true, "activation": "relu", "bias_initializer": {"config": {}, "class_name": "Zeros"}, "kernel_initializer": {"config": {"mode": "fan_avg", "seed": 3014, "distribution": "normal", "scale": 1.0}, "class_name": "VarianceScaling"}, "kernel_regularizer": {"config": {"l2": 0.0020000000949949026, "l1": 0.0}, "class_name": "L1L2"}, "activity_regularizer": null, "name": "C3_PDC_1", "kernel_constraint": null, "bias_constraint": null, "trainable": true, "bias_regularizer": null}, "name": "C3_PDC_1", "inbound_nodes": [[["C3_PDC_0", 0, 0, {}]]], "class_name": "Dense"}, {"config": {"units": 50, "use_bias": true, "activation": "relu", "bias_initializer": {"config": {}, "class_name": "Zeros"}, "kernel_initializer": {"config": {"mode": "fan_avg", "seed": 3014, "distribution": "normal", "scale": 1.0}, "class_name": "VarianceScaling"}, "kernel_regularizer": {"config": {"l2": 0.0020000000949949026, "l1": 0.0}, "class_name": "L1L2"}, "activity_regularizer": null, "name": "C4_PDC_1", "kernel_constraint": null, "bias_constraint": null, "trainable": true, "bias_regularizer": null}, "name": "C4_PDC_1", "inbound_nodes": [[["C4_PDC_0", 0, 0, {}]]], "class_name": "Dense"}, {"config": {"units": 50, "use_bias": true, "activation": "relu", "bias_initializer": {"config": {}, "class_name": "Zeros"}, "kernel_initializer": {"config": {"mode": "fan_avg", "seed": 3014, "distribution": "normal", "scale": 1.0}, "class_name": "VarianceScaling"}, "kernel_regularizer": {"config": {"l2": 0.0020000000949949026, "l1": 0.0}, "class_name": "L1L2"}, "activity_regularizer": null, "name": "B3_PDC_1", "kernel_constraint": null, "bias_constraint": null, "trainable": true, "bias_regularizer": null}, "name": "B3_PDC_1", "inbound_nodes": [[["B3_PDC_0", 0, 0, {}]]], "class_name": "Dense"}, {"config": {"units": 50, "use_bias": true, "activation": "relu", "bias_initializer": {"config": {}, "class_name": "Zeros"}, "kernel_initializer": {"config": {"mode": "fan_avg", "seed": 3014, "distribution": "normal", "scale": 1.0}, "class_name": "VarianceScaling"}, "kernel_regularizer": {"config": {"l2": 0.0020000000949949026, "l1": 0.0}, "class_name": "L1L2"}, "activity_regularizer": null, "name": "B1_PDC_1", "kernel_constraint": null, "bias_constraint": null, "trainable": true, "bias_regularizer": null}, "name": "B1_PDC_1", "inbound_nodes": [[["B1_PDC_0", 0, 0, {}]]], "class_name": "Dense"}, {"config": {"units": 50, "use_bias": true, "activation": "relu", "bias_initializer": {"config": {}, "class_name": "Zeros"}, "kernel_initializer": {"config": {"mode": "fan_avg", "seed": 3014, "distribution": "normal", "scale": 1.0}, "class_name": "VarianceScaling"}, "kernel_regularizer": {"config": {"l2": 0.0020000000949949026, "l1": 0.0}, "class_name": "L1L2"}, "activity_regularizer": null, "name": "D1_PDC_1", "kernel_constraint": null, "bias_constraint": null, "trainable": true, "bias_regularizer": null}, "name": "D1_PDC_1", "inbound_nodes": [[["D1_PDC_0", 0, 0, {}]]], "class_name": "Dense"}, {"config": {"units": 1, "use_bias": true, "activation": "linear", "bias_initializer": {"config": {}, "class_name": "Zeros"}, "kernel_initializer": {"config": {"mode": "fan_avg", "seed": 3014, "distribution": "normal", "scale": 1.0}, "class_name": "VarianceScaling"}, "kernel_regularizer": {"config": {"l2": 0.0020000000949949026, "l1": 0.0}, "class_name": "L1L2"}, "activity_regularizer": null, "name": "C1_PDC_out", "kernel_constraint": null, "bias_constraint": null, "trainable": true, "bias_regularizer": null}, "name": "C1_PDC_out", "inbound_nodes": [[["C1_PDC_1", 0, 0, {}]]], "class_name": "Dense"}, {"config": {"units": 1, "use_bias": true, "activation": "linear", "bias_initializer": {"config": {}, "class_name": "Zeros"}, "kernel_initializer": {"config": {"mode": "fan_avg", "seed": 3014, "distribution": "normal", "scale": 1.0}, "class_name": "VarianceScaling"}, "kernel_regularizer": {"config": {"l2": 0.0020000000949949026, "l1": 0.0}, "class_name": "L1L2"}, "activity_regularizer": null, "name": "C2_PDC_out", "kernel_constraint": null, "bias_constraint": null, "trainable": true, "bias_regularizer": null}, "name": "C2_PDC_out", "inbound_nodes": [[["C2_PDC_1", 0, 0, {}]]], "class_name": "Dense"}, {"config": {"units": 1, "use_bias": true, "activation": "linear", "bias_initializer": {"config": {}, "class_name": "Zeros"}, "kernel_initializer": {"config": {"mode": "fan_avg", "seed": 3014, "distribution": "normal", "scale": 1.0}, "class_name": "VarianceScaling"}, "kernel_regularizer": {"config": {"l2": 0.0020000000949949026, "l1": 0.0}, "class_name": "L1L2"}, "activity_regularizer": null, "name": "C3_PDC_out", "kernel_constraint": null, "bias_constraint": null, "trainable": true, "bias_regularizer": null}, "name": "C3_PDC_out", "inbound_nodes": [[["C3_PDC_1", 0, 0, {}]]], "class_name": "Dense"}, {"config": {"units": 1, "use_bias": true, "activation": "linear", "bias_initializer": {"config": {}, "class_name": "Zeros"}, "kernel_initializer": {"config": {"mode": "fan_avg", "seed": 3014, "distribution": "normal", "scale": 1.0}, "class_name": "VarianceScaling"}, "kernel_regularizer": {"config": {"l2": 0.0020000000949949026, "l1": 0.0}, "class_name": "L1L2"}, "activity_regularizer": null, "name": "C4_PDC_out", "kernel_constraint": null, "bias_constraint": null, "trainable": true, "bias_regularizer": null}, "name": "C4_PDC_out", "inbound_nodes": [[["C4_PDC_1", 0, 0, {}]]], "class_name": "Dense"}, {"config": {"units": 1, "use_bias": true, "activation": "linear", "bias_initializer": {"config": {}, "class_name": "Zeros"}, "kernel_initializer": {"config": {"mode": "fan_avg", "seed": 3014, "distribution": "normal", "scale": 1.0}, "class_name": "VarianceScaling"}, "kernel_regularizer": {"config": {"l2": 0.0020000000949949026, "l1": 0.0}, "class_name": "L1L2"}, "activity_regularizer": null, "name": "B3_PDC_out", "kernel_constraint": null, "bias_constraint": null, "trainable": true, "bias_regularizer": null}, "name": "B3_PDC_out", "inbound_nodes": [[["B3_PDC_1", 0, 0, {}]]], "class_name": "Dense"}, {"config": {"units": 1, "use_bias": true, "activation": "linear", "bias_initializer": {"config": {}, "class_name": "Zeros"}, "kernel_initializer": {"config": {"mode": "fan_avg", "seed": 3014, "distribution": "normal", "scale": 1.0}, "class_name": "VarianceScaling"}, "kernel_regularizer": {"config": {"l2": 0.0020000000949949026, "l1": 0.0}, "class_name": "L1L2"}, "activity_regularizer": null, "name": "B1_PDC_out", "kernel_constraint": null, "bias_constraint": null, "trainable": true, "bias_regularizer": null}, "name": "B1_PDC_out", "inbound_nodes": [[["B1_PDC_1", 0, 0, {}]]], "class_name": "Dense"}, {"config": {"units": 1, "use_bias": true, "activation": "linear", "bias_initializer": {"config": {}, "class_name": "Zeros"}, "kernel_initializer": {"config": {"mode": "fan_avg", "seed": 3014, "distribution": "normal", "scale": 1.0}, "class_name": "VarianceScaling"}, "kernel_regularizer": {"config": {"l2": 0.0020000000949949026, "l1": 0.0}, "class_name": "L1L2"}, "activity_regularizer": null, "name": "D1_PDC_out", "kernel_constraint": null, "bias_constraint": null, "trainable": true, "bias_regularizer": null}, "name": "D1_PDC_out", "inbound_nodes": [[["D1_PDC_1", 0, 0, {}]]], "class_name": "Dense"}], "output_layers": [["C1_PDC_out", 0, 0], ["C2_PDC_out", 0, 0], ["C3_PDC_out", 0, 0], ["C4_PDC_out", 0, 0], ["B3_PDC_out", 0, 0], ["B1_PDC_out", 0, 0], ["D1_PDC_out", 0, 0]]}, "keras_version": "2.0.1", "class_name": "Model", "backend": "theano"}