{"keras_version": "2.0.1", "backend": "theano", "class_name": "Model", "config": {"output_layers": [["B1_PWH_out2", 0, 0], ["B1_PWH_out", 0, 0], ["B3_PWH_out2", 0, 0], ["B3_PWH_out", 0, 0], ["C1_PWH_out2", 0, 0], ["C1_PWH_out", 0, 0], ["C2_PWH_out2", 0, 0], ["C2_PWH_out", 0, 0], ["C3_PWH_out2", 0, 0], ["C3_PWH_out", 0, 0], ["C4_PWH_out2", 0, 0], ["C4_PWH_out", 0, 0], ["D1_PWH_out2", 0, 0], ["D1_PWH_out", 0, 0]], "input_layers": [["CHK_INPUT_NOW", 0, 0], ["CHK_INPUT_PREV", 0, 0], ["SHIFTED_PRESSURE_PWH_B1", 0, 0], ["SHIFTED_PRESSURE_PWH_B3", 0, 0], ["SHIFTED_PRESSURE_PWH_C1", 0, 0], ["SHIFTED_PRESSURE_PWH_C2", 0, 0], ["SHIFTED_PRESSURE_PWH_C3", 0, 0], ["SHIFTED_PRESSURE_PWH_C4", 0, 0], ["SHIFTED_PRESSURE_PWH_D1", 0, 0]], "name": "model_1", "layers": [{"name": "CHK_INPUT_PREV", "config": {"sparse": false, "dtype": "float32", "batch_input_shape": [null, 7], "name": "CHK_INPUT_PREV"}, "class_name": "InputLayer", "inbound_nodes": []}, {"name": "CHK_INPUT_NOW", "config": {"sparse": false, "dtype": "float32", "batch_input_shape": [null, 7], "name": "CHK_INPUT_NOW"}, "class_name": "InputLayer", "inbound_nodes": []}, {"name": "CHK_DELTA", "config": {"name": "CHK_DELTA", "trainable": true}, "class_name": "Add", "inbound_nodes": [[["CHK_INPUT_PREV", 0, 0, {}], ["CHK_INPUT_NOW", 0, 0, {}]]]}, {"name": "B1_PWH_0", "config": {"activation": "relu", "activity_regularizer": null, "bias_initializer": {"class_name": "Zeros", "config": {}}, "kernel_initializer": {"class_name": "VarianceScaling", "config": {"mode": "fan_avg", "scale": 1.0, "distribution": "normal", "seed": 3014}}, "bias_regularizer": null, "use_bias": true, "kernel_constraint": null, "trainable": true, "units": 90, "name": "B1_PWH_0", "bias_constraint": null, "kernel_regularizer": {"class_name": "L1L2", "config": {"l1": 0.0, "l2": 9.999999747378752e-06}}}, "class_name": "Dense", "inbound_nodes": [[["CHK_DELTA", 0, 0, {}]]]}, {"name": "B3_PWH_0", "config": {"activation": "relu", "activity_regularizer": null, "bias_initializer": {"class_name": "Zeros", "config": {}}, "kernel_initializer": {"class_name": "VarianceScaling", "config": {"mode": "fan_avg", "scale": 1.0, "distribution": "normal", "seed": 3014}}, "bias_regularizer": null, "use_bias": true, "kernel_constraint": null, "trainable": true, "units": 90, "name": "B3_PWH_0", "bias_constraint": null, "kernel_regularizer": {"class_name": "L1L2", "config": {"l1": 0.0, "l2": 9.999999747378752e-06}}}, "class_name": "Dense", "inbound_nodes": [[["CHK_DELTA", 0, 0, {}]]]}, {"name": "C1_PWH_0", "config": {"activation": "relu", "activity_regularizer": null, "bias_initializer": {"class_name": "Zeros", "config": {}}, "kernel_initializer": {"class_name": "VarianceScaling", "config": {"mode": "fan_avg", "scale": 1.0, "distribution": "normal", "seed": 3014}}, "bias_regularizer": null, "use_bias": true, "kernel_constraint": null, "trainable": true, "units": 90, "name": "C1_PWH_0", "bias_constraint": null, "kernel_regularizer": {"class_name": "L1L2", "config": {"l1": 0.0, "l2": 9.999999747378752e-06}}}, "class_name": "Dense", "inbound_nodes": [[["CHK_DELTA", 0, 0, {}]]]}, {"name": "C2_PWH_0", "config": {"activation": "relu", "activity_regularizer": null, "bias_initializer": {"class_name": "Zeros", "config": {}}, "kernel_initializer": {"class_name": "VarianceScaling", "config": {"mode": "fan_avg", "scale": 1.0, "distribution": "normal", "seed": 3014}}, "bias_regularizer": null, "use_bias": true, "kernel_constraint": null, "trainable": true, "units": 90, "name": "C2_PWH_0", "bias_constraint": null, "kernel_regularizer": {"class_name": "L1L2", "config": {"l1": 0.0, "l2": 9.999999747378752e-06}}}, "class_name": "Dense", "inbound_nodes": [[["CHK_DELTA", 0, 0, {}]]]}, {"name": "C3_PWH_0", "config": {"activation": "relu", "activity_regularizer": null, "bias_initializer": {"class_name": "Zeros", "config": {}}, "kernel_initializer": {"class_name": "VarianceScaling", "config": {"mode": "fan_avg", "scale": 1.0, "distribution": "normal", "seed": 3014}}, "bias_regularizer": null, "use_bias": true, "kernel_constraint": null, "trainable": true, "units": 90, "name": "C3_PWH_0", "bias_constraint": null, "kernel_regularizer": {"class_name": "L1L2", "config": {"l1": 0.0, "l2": 9.999999747378752e-06}}}, "class_name": "Dense", "inbound_nodes": [[["CHK_DELTA", 0, 0, {}]]]}, {"name": "C4_PWH_0", "config": {"activation": "relu", "activity_regularizer": null, "bias_initializer": {"class_name": "Zeros", "config": {}}, "kernel_initializer": {"class_name": "VarianceScaling", "config": {"mode": "fan_avg", "scale": 1.0, "distribution": "normal", "seed": 3014}}, "bias_regularizer": null, "use_bias": true, "kernel_constraint": null, "trainable": true, "units": 90, "name": "C4_PWH_0", "bias_constraint": null, "kernel_regularizer": {"class_name": "L1L2", "config": {"l1": 0.0, "l2": 9.999999747378752e-06}}}, "class_name": "Dense", "inbound_nodes": [[["CHK_DELTA", 0, 0, {}]]]}, {"name": "D1_PWH_0", "config": {"activation": "relu", "activity_regularizer": null, "bias_initializer": {"class_name": "Zeros", "config": {}}, "kernel_initializer": {"class_name": "VarianceScaling", "config": {"mode": "fan_avg", "scale": 1.0, "distribution": "normal", "seed": 3014}}, "bias_regularizer": null, "use_bias": true, "kernel_constraint": null, "trainable": true, "units": 90, "name": "D1_PWH_0", "bias_constraint": null, "kernel_regularizer": {"class_name": "L1L2", "config": {"l1": 0.0, "l2": 9.999999747378752e-06}}}, "class_name": "Dense", "inbound_nodes": [[["CHK_DELTA", 0, 0, {}]]]}, {"name": "B1_PWH_1", "config": {"activation": "relu", "activity_regularizer": null, "bias_initializer": {"class_name": "Zeros", "config": {}}, "kernel_initializer": {"class_name": "VarianceScaling", "config": {"mode": "fan_avg", "scale": 1.0, "distribution": "normal", "seed": 3014}}, "bias_regularizer": null, "use_bias": true, "kernel_constraint": null, "trainable": true, "units": 90, "name": "B1_PWH_1", "bias_constraint": null, "kernel_regularizer": {"class_name": "L1L2", "config": {"l1": 0.0, "l2": 9.999999747378752e-06}}}, "class_name": "Dense", "inbound_nodes": [[["B1_PWH_0", 0, 0, {}]]]}, {"name": "B3_PWH_1", "config": {"activation": "relu", "activity_regularizer": null, "bias_initializer": {"class_name": "Zeros", "config": {}}, "kernel_initializer": {"class_name": "VarianceScaling", "config": {"mode": "fan_avg", "scale": 1.0, "distribution": "normal", "seed": 3014}}, "bias_regularizer": null, "use_bias": true, "kernel_constraint": null, "trainable": true, "units": 90, "name": "B3_PWH_1", "bias_constraint": null, "kernel_regularizer": {"class_name": "L1L2", "config": {"l1": 0.0, "l2": 9.999999747378752e-06}}}, "class_name": "Dense", "inbound_nodes": [[["B3_PWH_0", 0, 0, {}]]]}, {"name": "C1_PWH_1", "config": {"activation": "relu", "activity_regularizer": null, "bias_initializer": {"class_name": "Zeros", "config": {}}, "kernel_initializer": {"class_name": "VarianceScaling", "config": {"mode": "fan_avg", "scale": 1.0, "distribution": "normal", "seed": 3014}}, "bias_regularizer": null, "use_bias": true, "kernel_constraint": null, "trainable": true, "units": 90, "name": "C1_PWH_1", "bias_constraint": null, "kernel_regularizer": {"class_name": "L1L2", "config": {"l1": 0.0, "l2": 9.999999747378752e-06}}}, "class_name": "Dense", "inbound_nodes": [[["C1_PWH_0", 0, 0, {}]]]}, {"name": "C2_PWH_1", "config": {"activation": "relu", "activity_regularizer": null, "bias_initializer": {"class_name": "Zeros", "config": {}}, "kernel_initializer": {"class_name": "VarianceScaling", "config": {"mode": "fan_avg", "scale": 1.0, "distribution": "normal", "seed": 3014}}, "bias_regularizer": null, "use_bias": true, "kernel_constraint": null, "trainable": true, "units": 90, "name": "C2_PWH_1", "bias_constraint": null, "kernel_regularizer": {"class_name": "L1L2", "config": {"l1": 0.0, "l2": 9.999999747378752e-06}}}, "class_name": "Dense", "inbound_nodes": [[["C2_PWH_0", 0, 0, {}]]]}, {"name": "C3_PWH_1", "config": {"activation": "relu", "activity_regularizer": null, "bias_initializer": {"class_name": "Zeros", "config": {}}, "kernel_initializer": {"class_name": "VarianceScaling", "config": {"mode": "fan_avg", "scale": 1.0, "distribution": "normal", "seed": 3014}}, "bias_regularizer": null, "use_bias": true, "kernel_constraint": null, "trainable": true, "units": 90, "name": "C3_PWH_1", "bias_constraint": null, "kernel_regularizer": {"class_name": "L1L2", "config": {"l1": 0.0, "l2": 9.999999747378752e-06}}}, "class_name": "Dense", "inbound_nodes": [[["C3_PWH_0", 0, 0, {}]]]}, {"name": "C4_PWH_1", "config": {"activation": "relu", "activity_regularizer": null, "bias_initializer": {"class_name": "Zeros", "config": {}}, "kernel_initializer": {"class_name": "VarianceScaling", "config": {"mode": "fan_avg", "scale": 1.0, "distribution": "normal", "seed": 3014}}, "bias_regularizer": null, "use_bias": true, "kernel_constraint": null, "trainable": true, "units": 90, "name": "C4_PWH_1", "bias_constraint": null, "kernel_regularizer": {"class_name": "L1L2", "config": {"l1": 0.0, "l2": 9.999999747378752e-06}}}, "class_name": "Dense", "inbound_nodes": [[["C4_PWH_0", 0, 0, {}]]]}, {"name": "D1_PWH_1", "config": {"activation": "relu", "activity_regularizer": null, "bias_initializer": {"class_name": "Zeros", "config": {}}, "kernel_initializer": {"class_name": "VarianceScaling", "config": {"mode": "fan_avg", "scale": 1.0, "distribution": "normal", "seed": 3014}}, "bias_regularizer": null, "use_bias": true, "kernel_constraint": null, "trainable": true, "units": 90, "name": "D1_PWH_1", "bias_constraint": null, "kernel_regularizer": {"class_name": "L1L2", "config": {"l1": 0.0, "l2": 9.999999747378752e-06}}}, "class_name": "Dense", "inbound_nodes": [[["D1_PWH_0", 0, 0, {}]]]}, {"name": "B1_PWH_out", "config": {"activation": "linear", "activity_regularizer": null, "bias_initializer": {"class_name": "Zeros", "config": {}}, "kernel_initializer": {"class_name": "VarianceScaling", "config": {"mode": "fan_avg", "scale": 1.0, "distribution": "normal", "seed": 3014}}, "bias_regularizer": null, "use_bias": true, "kernel_constraint": null, "trainable": true, "units": 1, "name": "B1_PWH_out", "bias_constraint": null, "kernel_regularizer": {"class_name": "L1L2", "config": {"l1": 0.0, "l2": 9.999999747378752e-06}}}, "class_name": "Dense", "inbound_nodes": [[["B1_PWH_1", 0, 0, {}]]]}, {"name": "SHIFTED_PRESSURE_PWH_B1", "config": {"sparse": false, "dtype": "float32", "batch_input_shape": [null, 1], "name": "SHIFTED_PRESSURE_PWH_B1"}, "class_name": "InputLayer", "inbound_nodes": []}, {"name": "B3_PWH_out", "config": {"activation": "linear", "activity_regularizer": null, "bias_initializer": {"class_name": "Zeros", "config": {}}, "kernel_initializer": {"class_name": "VarianceScaling", "config": {"mode": "fan_avg", "scale": 1.0, "distribution": "normal", "seed": 3014}}, "bias_regularizer": null, "use_bias": true, "kernel_constraint": null, "trainable": true, "units": 1, "name": "B3_PWH_out", "bias_constraint": null, "kernel_regularizer": {"class_name": "L1L2", "config": {"l1": 0.0, "l2": 9.999999747378752e-06}}}, "class_name": "Dense", "inbound_nodes": [[["B3_PWH_1", 0, 0, {}]]]}, {"name": "SHIFTED_PRESSURE_PWH_B3", "config": {"sparse": false, "dtype": "float32", "batch_input_shape": [null, 1], "name": "SHIFTED_PRESSURE_PWH_B3"}, "class_name": "InputLayer", "inbound_nodes": []}, {"name": "C1_PWH_out", "config": {"activation": "linear", "activity_regularizer": null, "bias_initializer": {"class_name": "Zeros", "config": {}}, "kernel_initializer": {"class_name": "VarianceScaling", "config": {"mode": "fan_avg", "scale": 1.0, "distribution": "normal", "seed": 3014}}, "bias_regularizer": null, "use_bias": true, "kernel_constraint": null, "trainable": true, "units": 1, "name": "C1_PWH_out", "bias_constraint": null, "kernel_regularizer": {"class_name": "L1L2", "config": {"l1": 0.0, "l2": 9.999999747378752e-06}}}, "class_name": "Dense", "inbound_nodes": [[["C1_PWH_1", 0, 0, {}]]]}, {"name": "SHIFTED_PRESSURE_PWH_C1", "config": {"sparse": false, "dtype": "float32", "batch_input_shape": [null, 1], "name": "SHIFTED_PRESSURE_PWH_C1"}, "class_name": "InputLayer", "inbound_nodes": []}, {"name": "C2_PWH_out", "config": {"activation": "linear", "activity_regularizer": null, "bias_initializer": {"class_name": "Zeros", "config": {}}, "kernel_initializer": {"class_name": "VarianceScaling", "config": {"mode": "fan_avg", "scale": 1.0, "distribution": "normal", "seed": 3014}}, "bias_regularizer": null, "use_bias": true, "kernel_constraint": null, "trainable": true, "units": 1, "name": "C2_PWH_out", "bias_constraint": null, "kernel_regularizer": {"class_name": "L1L2", "config": {"l1": 0.0, "l2": 9.999999747378752e-06}}}, "class_name": "Dense", "inbound_nodes": [[["C2_PWH_1", 0, 0, {}]]]}, {"name": "SHIFTED_PRESSURE_PWH_C2", "config": {"sparse": false, "dtype": "float32", "batch_input_shape": [null, 1], "name": "SHIFTED_PRESSURE_PWH_C2"}, "class_name": "InputLayer", "inbound_nodes": []}, {"name": "C3_PWH_out", "config": {"activation": "linear", "activity_regularizer": null, "bias_initializer": {"class_name": "Zeros", "config": {}}, "kernel_initializer": {"class_name": "VarianceScaling", "config": {"mode": "fan_avg", "scale": 1.0, "distribution": "normal", "seed": 3014}}, "bias_regularizer": null, "use_bias": true, "kernel_constraint": null, "trainable": true, "units": 1, "name": "C3_PWH_out", "bias_constraint": null, "kernel_regularizer": {"class_name": "L1L2", "config": {"l1": 0.0, "l2": 9.999999747378752e-06}}}, "class_name": "Dense", "inbound_nodes": [[["C3_PWH_1", 0, 0, {}]]]}, {"name": "SHIFTED_PRESSURE_PWH_C3", "config": {"sparse": false, "dtype": "float32", "batch_input_shape": [null, 1], "name": "SHIFTED_PRESSURE_PWH_C3"}, "class_name": "InputLayer", "inbound_nodes": []}, {"name": "C4_PWH_out", "config": {"activation": "linear", "activity_regularizer": null, "bias_initializer": {"class_name": "Zeros", "config": {}}, "kernel_initializer": {"class_name": "VarianceScaling", "config": {"mode": "fan_avg", "scale": 1.0, "distribution": "normal", "seed": 3014}}, "bias_regularizer": null, "use_bias": true, "kernel_constraint": null, "trainable": true, "units": 1, "name": "C4_PWH_out", "bias_constraint": null, "kernel_regularizer": {"class_name": "L1L2", "config": {"l1": 0.0, "l2": 9.999999747378752e-06}}}, "class_name": "Dense", "inbound_nodes": [[["C4_PWH_1", 0, 0, {}]]]}, {"name": "SHIFTED_PRESSURE_PWH_C4", "config": {"sparse": false, "dtype": "float32", "batch_input_shape": [null, 1], "name": "SHIFTED_PRESSURE_PWH_C4"}, "class_name": "InputLayer", "inbound_nodes": []}, {"name": "D1_PWH_out", "config": {"activation": "linear", "activity_regularizer": null, "bias_initializer": {"class_name": "Zeros", "config": {}}, "kernel_initializer": {"class_name": "VarianceScaling", "config": {"mode": "fan_avg", "scale": 1.0, "distribution": "normal", "seed": 3014}}, "bias_regularizer": null, "use_bias": true, "kernel_constraint": null, "trainable": true, "units": 1, "name": "D1_PWH_out", "bias_constraint": null, "kernel_regularizer": {"class_name": "L1L2", "config": {"l1": 0.0, "l2": 9.999999747378752e-06}}}, "class_name": "Dense", "inbound_nodes": [[["D1_PWH_1", 0, 0, {}]]]}, {"name": "SHIFTED_PRESSURE_PWH_D1", "config": {"sparse": false, "dtype": "float32", "batch_input_shape": [null, 1], "name": "SHIFTED_PRESSURE_PWH_D1"}, "class_name": "InputLayer", "inbound_nodes": []}, {"name": "B1_PWH_out2", "config": {"name": "B1_PWH_out2", "trainable": true}, "class_name": "Add", "inbound_nodes": [[["B1_PWH_out", 0, 0, {}], ["SHIFTED_PRESSURE_PWH_B1", 0, 0, {}]]]}, {"name": "B3_PWH_out2", "config": {"name": "B3_PWH_out2", "trainable": true}, "class_name": "Add", "inbound_nodes": [[["B3_PWH_out", 0, 0, {}], ["SHIFTED_PRESSURE_PWH_B3", 0, 0, {}]]]}, {"name": "C1_PWH_out2", "config": {"name": "C1_PWH_out2", "trainable": true}, "class_name": "Add", "inbound_nodes": [[["C1_PWH_out", 0, 0, {}], ["SHIFTED_PRESSURE_PWH_C1", 0, 0, {}]]]}, {"name": "C2_PWH_out2", "config": {"name": "C2_PWH_out2", "trainable": true}, "class_name": "Add", "inbound_nodes": [[["C2_PWH_out", 0, 0, {}], ["SHIFTED_PRESSURE_PWH_C2", 0, 0, {}]]]}, {"name": "C3_PWH_out2", "config": {"name": "C3_PWH_out2", "trainable": true}, "class_name": "Add", "inbound_nodes": [[["C3_PWH_out", 0, 0, {}], ["SHIFTED_PRESSURE_PWH_C3", 0, 0, {}]]]}, {"name": "C4_PWH_out2", "config": {"name": "C4_PWH_out2", "trainable": true}, "class_name": "Add", "inbound_nodes": [[["C4_PWH_out", 0, 0, {}], ["SHIFTED_PRESSURE_PWH_C4", 0, 0, {}]]]}, {"name": "D1_PWH_out2", "config": {"name": "D1_PWH_out2", "trainable": true}, "class_name": "Add", "inbound_nodes": [[["D1_PWH_out", 0, 0, {}], ["SHIFTED_PRESSURE_PWH_D1", 0, 0, {}]]]}]}}