{"class_name": "Model", "config": {"name": "model_1", "layers": [{"name": "PRESSURE_INPUT", "class_name": "InputLayer", "config": {"batch_input_shape": [null, 12], "dtype": "float32", "sparse": false, "name": "PRESSURE_INPUT"}, "inbound_nodes": []}, {"name": "pres_sub_all", "class_name": "Dense", "config": {"name": "pres_sub_all", "trainable": true, "units": 50, "activation": "relu", "use_bias": true, "kernel_initializer": {"class_name": "VarianceScaling", "config": {"scale": 1.0, "mode": "fan_avg", "distribution": "uniform", "seed": null}}, "bias_initializer": {"class_name": "Zeros", "config": {}}, "kernel_regularizer": {"class_name": "L1L2", "config": {"l1": 0.0, "l2": 9.999999747378752e-05}}, "bias_regularizer": null, "activity_regularizer": null, "kernel_constraint": null, "bias_constraint": null}, "inbound_nodes": [[["PRESSURE_INPUT", 0, 0, {}]]]}, {"name": "pres_sub_all2", "class_name": "Dense", "config": {"name": "pres_sub_all2", "trainable": true, "units": 50, "activation": "relu", "use_bias": true, "kernel_initializer": {"class_name": "VarianceScaling", "config": {"scale": 1.0, "mode": "fan_avg", "distribution": "uniform", "seed": null}}, "bias_initializer": {"class_name": "Zeros", "config": {}}, "kernel_regularizer": {"class_name": "L1L2", "config": {"l1": 0.0, "l2": 9.999999747378752e-05}}, "bias_regularizer": null, "activity_regularizer": null, "kernel_constraint": null, "bias_constraint": null}, "inbound_nodes": [[["pres_sub_all", 0, 0, {}]]]}, {"name": "pres_sub_all3", "class_name": "Dense", "config": {"name": "pres_sub_all3", "trainable": true, "units": 50, "activation": "relu", "use_bias": true, "kernel_initializer": {"class_name": "VarianceScaling", "config": {"scale": 1.0, "mode": "fan_avg", "distribution": "uniform", "seed": null}}, "bias_initializer": {"class_name": "Zeros", "config": {}}, "kernel_regularizer": {"class_name": "L1L2", "config": {"l1": 0.0, "l2": 9.999999747378752e-05}}, "bias_regularizer": null, "activity_regularizer": null, "kernel_constraint": null, "bias_constraint": null}, "inbound_nodes": [[["pres_sub_all2", 0, 0, {}]]]}, {"name": "C1_PWH_out", "class_name": "Dense", "config": {"name": "C1_PWH_out", "trainable": true, "units": 1, "activation": "relu", "use_bias": true, "kernel_initializer": {"class_name": "VarianceScaling", "config": {"scale": 1.0, "mode": "fan_avg", "distribution": "uniform", "seed": 9035}}, "bias_initializer": {"class_name": "Zeros", "config": {}}, "kernel_regularizer": {"class_name": "L1L2", "config": {"l1": 0.0, "l2": 9.999999747378752e-05}}, "bias_regularizer": null, "activity_regularizer": null, "kernel_constraint": null, "bias_constraint": null}, "inbound_nodes": [[["pres_sub_all3", 0, 0, {}]]]}, {"name": "OnOff_PWH_C1", "class_name": "InputLayer", "config": {"batch_input_shape": [null, 1], "dtype": "float32", "sparse": false, "name": "OnOff_PWH_C1"}, "inbound_nodes": []}, {"name": "C2_PWH_out", "class_name": "Dense", "config": {"name": "C2_PWH_out", "trainable": true, "units": 1, "activation": "relu", "use_bias": true, "kernel_initializer": {"class_name": "VarianceScaling", "config": {"scale": 1.0, "mode": "fan_avg", "distribution": "uniform", "seed": 9035}}, "bias_initializer": {"class_name": "Zeros", "config": {}}, "kernel_regularizer": {"class_name": "L1L2", "config": {"l1": 0.0, "l2": 9.999999747378752e-05}}, "bias_regularizer": null, "activity_regularizer": null, "kernel_constraint": null, "bias_constraint": null}, "inbound_nodes": [[["pres_sub_all3", 0, 0, {}]]]}, {"name": "OnOff_PWH_C2", "class_name": "InputLayer", "config": {"batch_input_shape": [null, 1], "dtype": "float32", "sparse": false, "name": "OnOff_PWH_C2"}, "inbound_nodes": []}, {"name": "C3_PWH_out", "class_name": "Dense", "config": {"name": "C3_PWH_out", "trainable": true, "units": 1, "activation": "relu", "use_bias": true, "kernel_initializer": {"class_name": "VarianceScaling", "config": {"scale": 1.0, "mode": "fan_avg", "distribution": "uniform", "seed": 9035}}, "bias_initializer": {"class_name": "Zeros", "config": {}}, "kernel_regularizer": {"class_name": "L1L2", "config": {"l1": 0.0, "l2": 9.999999747378752e-05}}, "bias_regularizer": null, "activity_regularizer": null, "kernel_constraint": null, "bias_constraint": null}, "inbound_nodes": [[["pres_sub_all3", 0, 0, {}]]]}, {"name": "OnOff_PWH_C3", "class_name": "InputLayer", "config": {"batch_input_shape": [null, 1], "dtype": "float32", "sparse": false, "name": "OnOff_PWH_C3"}, "inbound_nodes": []}, {"name": "C4_PWH_out", "class_name": "Dense", "config": {"name": "C4_PWH_out", "trainable": true, "units": 1, "activation": "relu", "use_bias": true, "kernel_initializer": {"class_name": "VarianceScaling", "config": {"scale": 1.0, "mode": "fan_avg", "distribution": "uniform", "seed": 9035}}, "bias_initializer": {"class_name": "Zeros", "config": {}}, "kernel_regularizer": {"class_name": "L1L2", "config": {"l1": 0.0, "l2": 9.999999747378752e-05}}, "bias_regularizer": null, "activity_regularizer": null, "kernel_constraint": null, "bias_constraint": null}, "inbound_nodes": [[["pres_sub_all3", 0, 0, {}]]]}, {"name": "OnOff_PWH_C4", "class_name": "InputLayer", "config": {"batch_input_shape": [null, 1], "dtype": "float32", "sparse": false, "name": "OnOff_PWH_C4"}, "inbound_nodes": []}, {"name": "B3_PWH_out", "class_name": "Dense", "config": {"name": "B3_PWH_out", "trainable": true, "units": 1, "activation": "relu", "use_bias": true, "kernel_initializer": {"class_name": "VarianceScaling", "config": {"scale": 1.0, "mode": "fan_avg", "distribution": "uniform", "seed": 9035}}, "bias_initializer": {"class_name": "Zeros", "config": {}}, "kernel_regularizer": {"class_name": "L1L2", "config": {"l1": 0.0, "l2": 9.999999747378752e-05}}, "bias_regularizer": null, "activity_regularizer": null, "kernel_constraint": null, "bias_constraint": null}, "inbound_nodes": [[["pres_sub_all3", 0, 0, {}]]]}, {"name": "OnOff_PWH_B3", "class_name": "InputLayer", "config": {"batch_input_shape": [null, 1], "dtype": "float32", "sparse": false, "name": "OnOff_PWH_B3"}, "inbound_nodes": []}, {"name": "B1_PWH_out", "class_name": "Dense", "config": {"name": "B1_PWH_out", "trainable": true, "units": 1, "activation": "relu", "use_bias": true, "kernel_initializer": {"class_name": "VarianceScaling", "config": {"scale": 1.0, "mode": "fan_avg", "distribution": "uniform", "seed": 9035}}, "bias_initializer": {"class_name": "Zeros", "config": {}}, "kernel_regularizer": {"class_name": "L1L2", "config": {"l1": 0.0, "l2": 9.999999747378752e-05}}, "bias_regularizer": null, "activity_regularizer": null, "kernel_constraint": null, "bias_constraint": null}, "inbound_nodes": [[["pres_sub_all3", 0, 0, {}]]]}, {"name": "OnOff_PWH_B1", "class_name": "InputLayer", "config": {"batch_input_shape": [null, 1], "dtype": "float32", "sparse": false, "name": "OnOff_PWH_B1"}, "inbound_nodes": []}, {"name": "D1_PWH_out", "class_name": "Dense", "config": {"name": "D1_PWH_out", "trainable": true, "units": 1, "activation": "relu", "use_bias": true, "kernel_initializer": {"class_name": "VarianceScaling", "config": {"scale": 1.0, "mode": "fan_avg", "distribution": "uniform", "seed": 9035}}, "bias_initializer": {"class_name": "Zeros", "config": {}}, "kernel_regularizer": {"class_name": "L1L2", "config": {"l1": 0.0, "l2": 9.999999747378752e-05}}, "bias_regularizer": null, "activity_regularizer": null, "kernel_constraint": null, "bias_constraint": null}, "inbound_nodes": [[["pres_sub_all3", 0, 0, {}]]]}, {"name": "OnOff_PWH_D1", "class_name": "InputLayer", "config": {"batch_input_shape": [null, 1], "dtype": "float32", "sparse": false, "name": "OnOff_PWH_D1"}, "inbound_nodes": []}, {"name": "C1_PWH_pred", "class_name": "Multiply", "config": {"name": "C1_PWH_pred", "trainable": true}, "inbound_nodes": [[["C1_PWH_out", 0, 0, {}], ["OnOff_PWH_C1", 0, 0, {}]]]}, {"name": "C2_PWH_pred", "class_name": "Multiply", "config": {"name": "C2_PWH_pred", "trainable": true}, "inbound_nodes": [[["C2_PWH_out", 0, 0, {}], ["OnOff_PWH_C2", 0, 0, {}]]]}, {"name": "C3_PWH_pred", "class_name": "Multiply", "config": {"name": "C3_PWH_pred", "trainable": true}, "inbound_nodes": [[["C3_PWH_out", 0, 0, {}], ["OnOff_PWH_C3", 0, 0, {}]]]}, {"name": "C4_PWH_pred", "class_name": "Multiply", "config": {"name": "C4_PWH_pred", "trainable": true}, "inbound_nodes": [[["C4_PWH_out", 0, 0, {}], ["OnOff_PWH_C4", 0, 0, {}]]]}, {"name": "B3_PWH_pred", "class_name": "Multiply", "config": {"name": "B3_PWH_pred", "trainable": true}, "inbound_nodes": [[["B3_PWH_out", 0, 0, {}], ["OnOff_PWH_B3", 0, 0, {}]]]}, {"name": "B1_PWH_pred", "class_name": "Multiply", "config": {"name": "B1_PWH_pred", "trainable": true}, "inbound_nodes": [[["B1_PWH_out", 0, 0, {}], ["OnOff_PWH_B1", 0, 0, {}]]]}, {"name": "D1_PWH_pred", "class_name": "Multiply", "config": {"name": "D1_PWH_pred", "trainable": true}, "inbound_nodes": [[["D1_PWH_out", 0, 0, {}], ["OnOff_PWH_D1", 0, 0, {}]]]}], "input_layers": [["PRESSURE_INPUT", 0, 0], ["OnOff_PWH_C1", 0, 0], ["OnOff_PWH_C2", 0, 0], ["OnOff_PWH_C3", 0, 0], ["OnOff_PWH_C4", 0, 0], ["OnOff_PWH_B3", 0, 0], ["OnOff_PWH_B1", 0, 0], ["OnOff_PWH_D1", 0, 0]], "output_layers": [["C1_PWH_pred", 0, 0], ["C2_PWH_pred", 0, 0], ["C3_PWH_pred", 0, 0], ["C4_PWH_pred", 0, 0], ["B3_PWH_pred", 0, 0], ["B1_PWH_pred", 0, 0], ["D1_PWH_pred", 0, 0]]}, "keras_version": "2.0.1", "backend": "theano"}