{"class_name": "Model", "keras_version": "2.0.1", "config": {"name": "model_1", "output_layers": [["B1_PDC_out2", 0, 0], ["B1_PDC_out", 0, 0], ["B3_PDC_out2", 0, 0], ["B3_PDC_out", 0, 0], ["C1_PDC_out2", 0, 0], ["C1_PDC_out", 0, 0], ["C2_PDC_out2", 0, 0], ["C2_PDC_out", 0, 0], ["C3_PDC_out2", 0, 0], ["C3_PDC_out", 0, 0], ["C4_PDC_out2", 0, 0], ["C4_PDC_out", 0, 0], ["D1_PDC_out2", 0, 0], ["D1_PDC_out", 0, 0]], "layers": [{"name": "CHK_INPUT_PREV", "class_name": "InputLayer", "inbound_nodes": [], "config": {"batch_input_shape": [null, 7], "name": "CHK_INPUT_PREV", "sparse": false, "dtype": "float32"}}, {"name": "CHK_INPUT_NOW", "class_name": "InputLayer", "inbound_nodes": [], "config": {"batch_input_shape": [null, 7], "name": "CHK_INPUT_NOW", "sparse": false, "dtype": "float32"}}, {"name": "CHK_DELTA", "class_name": "Add", "inbound_nodes": [[["CHK_INPUT_PREV", 0, 0, {}], ["CHK_INPUT_NOW", 0, 0, {}]]], "config": {"name": "CHK_DELTA", "trainable": true}}, {"name": "B1_PDC_0", "class_name": "Dense", "inbound_nodes": [[["CHK_DELTA", 0, 0, {}]]], "config": {"kernel_initializer": {"class_name": "VarianceScaling", "config": {"scale": 1.0, "mode": "fan_avg", "distribution": "normal", "seed": 3014}}, "activation": "relu", "name": "B1_PDC_0", "trainable": true, "use_bias": true, "kernel_constraint": null, "bias_constraint": null, "kernel_regularizer": {"class_name": "L1L2", "config": {"l1": 0.0, "l2": 0.00019999999494757503}}, "activity_regularizer": null, "bias_regularizer": null, "units": 60, "bias_initializer": {"class_name": "Zeros", "config": {}}}}, {"name": "B3_PDC_0", "class_name": "Dense", "inbound_nodes": [[["CHK_DELTA", 0, 0, {}]]], "config": {"kernel_initializer": {"class_name": "VarianceScaling", "config": {"scale": 1.0, "mode": "fan_avg", "distribution": "normal", "seed": 3014}}, "activation": "relu", "name": "B3_PDC_0", "trainable": true, "use_bias": true, "kernel_constraint": null, "bias_constraint": null, "kernel_regularizer": {"class_name": "L1L2", "config": {"l1": 0.0, "l2": 0.00019999999494757503}}, "activity_regularizer": null, "bias_regularizer": null, "units": 60, "bias_initializer": {"class_name": "Zeros", "config": {}}}}, {"name": "C1_PDC_0", "class_name": "Dense", "inbound_nodes": [[["CHK_DELTA", 0, 0, {}]]], "config": {"kernel_initializer": {"class_name": "VarianceScaling", "config": {"scale": 1.0, "mode": "fan_avg", "distribution": "normal", "seed": 3014}}, "activation": "relu", "name": "C1_PDC_0", "trainable": true, "use_bias": true, "kernel_constraint": null, "bias_constraint": null, "kernel_regularizer": {"class_name": "L1L2", "config": {"l1": 0.0, "l2": 0.00019999999494757503}}, "activity_regularizer": null, "bias_regularizer": null, "units": 60, "bias_initializer": {"class_name": "Zeros", "config": {}}}}, {"name": "C2_PDC_0", "class_name": "Dense", "inbound_nodes": [[["CHK_DELTA", 0, 0, {}]]], "config": {"kernel_initializer": {"class_name": "VarianceScaling", "config": {"scale": 1.0, "mode": "fan_avg", "distribution": "normal", "seed": 3014}}, "activation": "relu", "name": "C2_PDC_0", "trainable": true, "use_bias": true, "kernel_constraint": null, "bias_constraint": null, "kernel_regularizer": {"class_name": "L1L2", "config": {"l1": 0.0, "l2": 0.00019999999494757503}}, "activity_regularizer": null, "bias_regularizer": null, "units": 60, "bias_initializer": {"class_name": "Zeros", "config": {}}}}, {"name": "C3_PDC_0", "class_name": "Dense", "inbound_nodes": [[["CHK_DELTA", 0, 0, {}]]], "config": {"kernel_initializer": {"class_name": "VarianceScaling", "config": {"scale": 1.0, "mode": "fan_avg", "distribution": "normal", "seed": 3014}}, "activation": "relu", "name": "C3_PDC_0", "trainable": true, "use_bias": true, "kernel_constraint": null, "bias_constraint": null, "kernel_regularizer": {"class_name": "L1L2", "config": {"l1": 0.0, "l2": 0.00019999999494757503}}, "activity_regularizer": null, "bias_regularizer": null, "units": 60, "bias_initializer": {"class_name": "Zeros", "config": {}}}}, {"name": "C4_PDC_0", "class_name": "Dense", "inbound_nodes": [[["CHK_DELTA", 0, 0, {}]]], "config": {"kernel_initializer": {"class_name": "VarianceScaling", "config": {"scale": 1.0, "mode": "fan_avg", "distribution": "normal", "seed": 3014}}, "activation": "relu", "name": "C4_PDC_0", "trainable": true, "use_bias": true, "kernel_constraint": null, "bias_constraint": null, "kernel_regularizer": {"class_name": "L1L2", "config": {"l1": 0.0, "l2": 0.00019999999494757503}}, "activity_regularizer": null, "bias_regularizer": null, "units": 60, "bias_initializer": {"class_name": "Zeros", "config": {}}}}, {"name": "D1_PDC_0", "class_name": "Dense", "inbound_nodes": [[["CHK_DELTA", 0, 0, {}]]], "config": {"kernel_initializer": {"class_name": "VarianceScaling", "config": {"scale": 1.0, "mode": "fan_avg", "distribution": "normal", "seed": 3014}}, "activation": "relu", "name": "D1_PDC_0", "trainable": true, "use_bias": true, "kernel_constraint": null, "bias_constraint": null, "kernel_regularizer": {"class_name": "L1L2", "config": {"l1": 0.0, "l2": 0.00019999999494757503}}, "activity_regularizer": null, "bias_regularizer": null, "units": 60, "bias_initializer": {"class_name": "Zeros", "config": {}}}}, {"name": "B1_PDC_1", "class_name": "Dense", "inbound_nodes": [[["B1_PDC_0", 0, 0, {}]]], "config": {"kernel_initializer": {"class_name": "VarianceScaling", "config": {"scale": 1.0, "mode": "fan_avg", "distribution": "normal", "seed": 3014}}, "activation": "relu", "name": "B1_PDC_1", "trainable": true, "use_bias": true, "kernel_constraint": null, "bias_constraint": null, "kernel_regularizer": {"class_name": "L1L2", "config": {"l1": 0.0, "l2": 0.00019999999494757503}}, "activity_regularizer": null, "bias_regularizer": null, "units": 60, "bias_initializer": {"class_name": "Zeros", "config": {}}}}, {"name": "B3_PDC_1", "class_name": "Dense", "inbound_nodes": [[["B3_PDC_0", 0, 0, {}]]], "config": {"kernel_initializer": {"class_name": "VarianceScaling", "config": {"scale": 1.0, "mode": "fan_avg", "distribution": "normal", "seed": 3014}}, "activation": "relu", "name": "B3_PDC_1", "trainable": true, "use_bias": true, "kernel_constraint": null, "bias_constraint": null, "kernel_regularizer": {"class_name": "L1L2", "config": {"l1": 0.0, "l2": 0.00019999999494757503}}, "activity_regularizer": null, "bias_regularizer": null, "units": 60, "bias_initializer": {"class_name": "Zeros", "config": {}}}}, {"name": "C1_PDC_1", "class_name": "Dense", "inbound_nodes": [[["C1_PDC_0", 0, 0, {}]]], "config": {"kernel_initializer": {"class_name": "VarianceScaling", "config": {"scale": 1.0, "mode": "fan_avg", "distribution": "normal", "seed": 3014}}, "activation": "relu", "name": "C1_PDC_1", "trainable": true, "use_bias": true, "kernel_constraint": null, "bias_constraint": null, "kernel_regularizer": {"class_name": "L1L2", "config": {"l1": 0.0, "l2": 0.00019999999494757503}}, "activity_regularizer": null, "bias_regularizer": null, "units": 60, "bias_initializer": {"class_name": "Zeros", "config": {}}}}, {"name": "C2_PDC_1", "class_name": "Dense", "inbound_nodes": [[["C2_PDC_0", 0, 0, {}]]], "config": {"kernel_initializer": {"class_name": "VarianceScaling", "config": {"scale": 1.0, "mode": "fan_avg", "distribution": "normal", "seed": 3014}}, "activation": "relu", "name": "C2_PDC_1", "trainable": true, "use_bias": true, "kernel_constraint": null, "bias_constraint": null, "kernel_regularizer": {"class_name": "L1L2", "config": {"l1": 0.0, "l2": 0.00019999999494757503}}, "activity_regularizer": null, "bias_regularizer": null, "units": 60, "bias_initializer": {"class_name": "Zeros", "config": {}}}}, {"name": "C3_PDC_1", "class_name": "Dense", "inbound_nodes": [[["C3_PDC_0", 0, 0, {}]]], "config": {"kernel_initializer": {"class_name": "VarianceScaling", "config": {"scale": 1.0, "mode": "fan_avg", "distribution": "normal", "seed": 3014}}, "activation": "relu", "name": "C3_PDC_1", "trainable": true, "use_bias": true, "kernel_constraint": null, "bias_constraint": null, "kernel_regularizer": {"class_name": "L1L2", "config": {"l1": 0.0, "l2": 0.00019999999494757503}}, "activity_regularizer": null, "bias_regularizer": null, "units": 60, "bias_initializer": {"class_name": "Zeros", "config": {}}}}, {"name": "C4_PDC_1", "class_name": "Dense", "inbound_nodes": [[["C4_PDC_0", 0, 0, {}]]], "config": {"kernel_initializer": {"class_name": "VarianceScaling", "config": {"scale": 1.0, "mode": "fan_avg", "distribution": "normal", "seed": 3014}}, "activation": "relu", "name": "C4_PDC_1", "trainable": true, "use_bias": true, "kernel_constraint": null, "bias_constraint": null, "kernel_regularizer": {"class_name": "L1L2", "config": {"l1": 0.0, "l2": 0.00019999999494757503}}, "activity_regularizer": null, "bias_regularizer": null, "units": 60, "bias_initializer": {"class_name": "Zeros", "config": {}}}}, {"name": "D1_PDC_1", "class_name": "Dense", "inbound_nodes": [[["D1_PDC_0", 0, 0, {}]]], "config": {"kernel_initializer": {"class_name": "VarianceScaling", "config": {"scale": 1.0, "mode": "fan_avg", "distribution": "normal", "seed": 3014}}, "activation": "relu", "name": "D1_PDC_1", "trainable": true, "use_bias": true, "kernel_constraint": null, "bias_constraint": null, "kernel_regularizer": {"class_name": "L1L2", "config": {"l1": 0.0, "l2": 0.00019999999494757503}}, "activity_regularizer": null, "bias_regularizer": null, "units": 60, "bias_initializer": {"class_name": "Zeros", "config": {}}}}, {"name": "B1_PDC_out", "class_name": "Dense", "inbound_nodes": [[["B1_PDC_1", 0, 0, {}]]], "config": {"kernel_initializer": {"class_name": "VarianceScaling", "config": {"scale": 1.0, "mode": "fan_avg", "distribution": "normal", "seed": 3014}}, "activation": "linear", "name": "B1_PDC_out", "trainable": true, "use_bias": true, "kernel_constraint": null, "bias_constraint": null, "kernel_regularizer": {"class_name": "L1L2", "config": {"l1": 0.0, "l2": 0.00019999999494757503}}, "activity_regularizer": null, "bias_regularizer": null, "units": 1, "bias_initializer": {"class_name": "Zeros", "config": {}}}}, {"name": "SHIFTED_PRESSURE_PDC_B1", "class_name": "InputLayer", "inbound_nodes": [], "config": {"batch_input_shape": [null, 1], "name": "SHIFTED_PRESSURE_PDC_B1", "sparse": false, "dtype": "float32"}}, {"name": "B3_PDC_out", "class_name": "Dense", "inbound_nodes": [[["B3_PDC_1", 0, 0, {}]]], "config": {"kernel_initializer": {"class_name": "VarianceScaling", "config": {"scale": 1.0, "mode": "fan_avg", "distribution": "normal", "seed": 3014}}, "activation": "linear", "name": "B3_PDC_out", "trainable": true, "use_bias": true, "kernel_constraint": null, "bias_constraint": null, "kernel_regularizer": {"class_name": "L1L2", "config": {"l1": 0.0, "l2": 0.00019999999494757503}}, "activity_regularizer": null, "bias_regularizer": null, "units": 1, "bias_initializer": {"class_name": "Zeros", "config": {}}}}, {"name": "SHIFTED_PRESSURE_PDC_B3", "class_name": "InputLayer", "inbound_nodes": [], "config": {"batch_input_shape": [null, 1], "name": "SHIFTED_PRESSURE_PDC_B3", "sparse": false, "dtype": "float32"}}, {"name": "C1_PDC_out", "class_name": "Dense", "inbound_nodes": [[["C1_PDC_1", 0, 0, {}]]], "config": {"kernel_initializer": {"class_name": "VarianceScaling", "config": {"scale": 1.0, "mode": "fan_avg", "distribution": "normal", "seed": 3014}}, "activation": "linear", "name": "C1_PDC_out", "trainable": true, "use_bias": true, "kernel_constraint": null, "bias_constraint": null, "kernel_regularizer": {"class_name": "L1L2", "config": {"l1": 0.0, "l2": 0.00019999999494757503}}, "activity_regularizer": null, "bias_regularizer": null, "units": 1, "bias_initializer": {"class_name": "Zeros", "config": {}}}}, {"name": "SHIFTED_PRESSURE_PDC_C1", "class_name": "InputLayer", "inbound_nodes": [], "config": {"batch_input_shape": [null, 1], "name": "SHIFTED_PRESSURE_PDC_C1", "sparse": false, "dtype": "float32"}}, {"name": "C2_PDC_out", "class_name": "Dense", "inbound_nodes": [[["C2_PDC_1", 0, 0, {}]]], "config": {"kernel_initializer": {"class_name": "VarianceScaling", "config": {"scale": 1.0, "mode": "fan_avg", "distribution": "normal", "seed": 3014}}, "activation": "linear", "name": "C2_PDC_out", "trainable": true, "use_bias": true, "kernel_constraint": null, "bias_constraint": null, "kernel_regularizer": {"class_name": "L1L2", "config": {"l1": 0.0, "l2": 0.00019999999494757503}}, "activity_regularizer": null, "bias_regularizer": null, "units": 1, "bias_initializer": {"class_name": "Zeros", "config": {}}}}, {"name": "SHIFTED_PRESSURE_PDC_C2", "class_name": "InputLayer", "inbound_nodes": [], "config": {"batch_input_shape": [null, 1], "name": "SHIFTED_PRESSURE_PDC_C2", "sparse": false, "dtype": "float32"}}, {"name": "C3_PDC_out", "class_name": "Dense", "inbound_nodes": [[["C3_PDC_1", 0, 0, {}]]], "config": {"kernel_initializer": {"class_name": "VarianceScaling", "config": {"scale": 1.0, "mode": "fan_avg", "distribution": "normal", "seed": 3014}}, "activation": "linear", "name": "C3_PDC_out", "trainable": true, "use_bias": true, "kernel_constraint": null, "bias_constraint": null, "kernel_regularizer": {"class_name": "L1L2", "config": {"l1": 0.0, "l2": 0.00019999999494757503}}, "activity_regularizer": null, "bias_regularizer": null, "units": 1, "bias_initializer": {"class_name": "Zeros", "config": {}}}}, {"name": "SHIFTED_PRESSURE_PDC_C3", "class_name": "InputLayer", "inbound_nodes": [], "config": {"batch_input_shape": [null, 1], "name": "SHIFTED_PRESSURE_PDC_C3", "sparse": false, "dtype": "float32"}}, {"name": "C4_PDC_out", "class_name": "Dense", "inbound_nodes": [[["C4_PDC_1", 0, 0, {}]]], "config": {"kernel_initializer": {"class_name": "VarianceScaling", "config": {"scale": 1.0, "mode": "fan_avg", "distribution": "normal", "seed": 3014}}, "activation": "linear", "name": "C4_PDC_out", "trainable": true, "use_bias": true, "kernel_constraint": null, "bias_constraint": null, "kernel_regularizer": {"class_name": "L1L2", "config": {"l1": 0.0, "l2": 0.00019999999494757503}}, "activity_regularizer": null, "bias_regularizer": null, "units": 1, "bias_initializer": {"class_name": "Zeros", "config": {}}}}, {"name": "SHIFTED_PRESSURE_PDC_C4", "class_name": "InputLayer", "inbound_nodes": [], "config": {"batch_input_shape": [null, 1], "name": "SHIFTED_PRESSURE_PDC_C4", "sparse": false, "dtype": "float32"}}, {"name": "D1_PDC_out", "class_name": "Dense", "inbound_nodes": [[["D1_PDC_1", 0, 0, {}]]], "config": {"kernel_initializer": {"class_name": "VarianceScaling", "config": {"scale": 1.0, "mode": "fan_avg", "distribution": "normal", "seed": 3014}}, "activation": "linear", "name": "D1_PDC_out", "trainable": true, "use_bias": true, "kernel_constraint": null, "bias_constraint": null, "kernel_regularizer": {"class_name": "L1L2", "config": {"l1": 0.0, "l2": 0.00019999999494757503}}, "activity_regularizer": null, "bias_regularizer": null, "units": 1, "bias_initializer": {"class_name": "Zeros", "config": {}}}}, {"name": "SHIFTED_PRESSURE_PDC_D1", "class_name": "InputLayer", "inbound_nodes": [], "config": {"batch_input_shape": [null, 1], "name": "SHIFTED_PRESSURE_PDC_D1", "sparse": false, "dtype": "float32"}}, {"name": "B1_PDC_out2", "class_name": "Add", "inbound_nodes": [[["B1_PDC_out", 0, 0, {}], ["SHIFTED_PRESSURE_PDC_B1", 0, 0, {}]]], "config": {"name": "B1_PDC_out2", "trainable": true}}, {"name": "B3_PDC_out2", "class_name": "Add", "inbound_nodes": [[["B3_PDC_out", 0, 0, {}], ["SHIFTED_PRESSURE_PDC_B3", 0, 0, {}]]], "config": {"name": "B3_PDC_out2", "trainable": true}}, {"name": "C1_PDC_out2", "class_name": "Add", "inbound_nodes": [[["C1_PDC_out", 0, 0, {}], ["SHIFTED_PRESSURE_PDC_C1", 0, 0, {}]]], "config": {"name": "C1_PDC_out2", "trainable": true}}, {"name": "C2_PDC_out2", "class_name": "Add", "inbound_nodes": [[["C2_PDC_out", 0, 0, {}], ["SHIFTED_PRESSURE_PDC_C2", 0, 0, {}]]], "config": {"name": "C2_PDC_out2", "trainable": true}}, {"name": "C3_PDC_out2", "class_name": "Add", "inbound_nodes": [[["C3_PDC_out", 0, 0, {}], ["SHIFTED_PRESSURE_PDC_C3", 0, 0, {}]]], "config": {"name": "C3_PDC_out2", "trainable": true}}, {"name": "C4_PDC_out2", "class_name": "Add", "inbound_nodes": [[["C4_PDC_out", 0, 0, {}], ["SHIFTED_PRESSURE_PDC_C4", 0, 0, {}]]], "config": {"name": "C4_PDC_out2", "trainable": true}}, {"name": "D1_PDC_out2", "class_name": "Add", "inbound_nodes": [[["D1_PDC_out", 0, 0, {}], ["SHIFTED_PRESSURE_PDC_D1", 0, 0, {}]]], "config": {"name": "D1_PDC_out2", "trainable": true}}], "input_layers": [["CHK_INPUT_NOW", 0, 0], ["CHK_INPUT_PREV", 0, 0], ["SHIFTED_PRESSURE_PDC_B1", 0, 0], ["SHIFTED_PRESSURE_PDC_B3", 0, 0], ["SHIFTED_PRESSURE_PDC_C1", 0, 0], ["SHIFTED_PRESSURE_PDC_C2", 0, 0], ["SHIFTED_PRESSURE_PDC_C3", 0, 0], ["SHIFTED_PRESSURE_PDC_C4", 0, 0], ["SHIFTED_PRESSURE_PDC_D1", 0, 0]]}, "backend": "theano"}