{"keras_version": "2.0.1", "backend": "theano", "config": {"layers": [{"class_name": "InputLayer", "inbound_nodes": [], "config": {"dtype": "float32", "batch_input_shape": [null, 4], "sparse": false, "name": "F1"}, "name": "F1"}, {"class_name": "InputLayer", "inbound_nodes": [], "config": {"dtype": "float32", "batch_input_shape": [null, 4], "sparse": false, "name": "B2"}, "name": "B2"}, {"class_name": "InputLayer", "inbound_nodes": [], "config": {"dtype": "float32", "batch_input_shape": [null, 4], "sparse": false, "name": "D3"}, "name": "D3"}, {"class_name": "InputLayer", "inbound_nodes": [], "config": {"dtype": "float32", "batch_input_shape": [null, 4], "sparse": false, "name": "E1"}, "name": "E1"}, {"class_name": "Dense", "inbound_nodes": [[["F1", 0, 0, {}]]], "config": {"use_bias": true, "units": 90, "kernel_initializer": {"config": {"distribution": "normal", "scale": 1.0, "mode": "fan_avg", "seed": 3014}, "class_name": "VarianceScaling"}, "activity_regularizer": null, "bias_constraint": null, "name": "dense_25", "kernel_constraint": null, "kernel_regularizer": {"config": {"l1": 0.0, "l2": 9.999999747378752e-05}, "class_name": "L1L2"}, "bias_initializer": {"config": {}, "class_name": "Zeros"}, "activation": "relu", "trainable": true, "bias_regularizer": null}, "name": "dense_25"}, {"class_name": "Dense", "inbound_nodes": [[["B2", 0, 0, {}]]], "config": {"use_bias": true, "units": 90, "kernel_initializer": {"config": {"distribution": "normal", "scale": 1.0, "mode": "fan_avg", "seed": 3014}, "class_name": "VarianceScaling"}, "activity_regularizer": null, "bias_constraint": null, "name": "dense_28", "kernel_constraint": null, "kernel_regularizer": {"config": {"l1": 0.0, "l2": 9.999999747378752e-05}, "class_name": "L1L2"}, "bias_initializer": {"config": {}, "class_name": "Zeros"}, "activation": "relu", "trainable": true, "bias_regularizer": null}, "name": "dense_28"}, {"class_name": "Dense", "inbound_nodes": [[["D3", 0, 0, {}]]], "config": {"use_bias": true, "units": 90, "kernel_initializer": {"config": {"distribution": "normal", "scale": 1.0, "mode": "fan_avg", "seed": 3014}, "class_name": "VarianceScaling"}, "activity_regularizer": null, "bias_constraint": null, "name": "dense_31", "kernel_constraint": null, "kernel_regularizer": {"config": {"l1": 0.0, "l2": 9.999999747378752e-05}, "class_name": "L1L2"}, "bias_initializer": {"config": {}, "class_name": "Zeros"}, "activation": "relu", "trainable": true, "bias_regularizer": null}, "name": "dense_31"}, {"class_name": "Dense", "inbound_nodes": [[["E1", 0, 0, {}]]], "config": {"use_bias": true, "units": 90, "kernel_initializer": {"config": {"distribution": "normal", "scale": 1.0, "mode": "fan_avg", "seed": 3014}, "class_name": "VarianceScaling"}, "activity_regularizer": null, "bias_constraint": null, "name": "dense_34", "kernel_constraint": null, "kernel_regularizer": {"config": {"l1": 0.0, "l2": 9.999999747378752e-05}, "class_name": "L1L2"}, "bias_initializer": {"config": {}, "class_name": "Zeros"}, "activation": "relu", "trainable": true, "bias_regularizer": null}, "name": "dense_34"}, {"class_name": "Dense", "inbound_nodes": [[["dense_25", 0, 0, {}]]], "config": {"use_bias": true, "units": 90, "kernel_initializer": {"config": {"distribution": "normal", "scale": 1.0, "mode": "fan_avg", "seed": 3014}, "class_name": "VarianceScaling"}, "activity_regularizer": null, "bias_constraint": null, "name": "dense_26", "kernel_constraint": null, "kernel_regularizer": {"config": {"l1": 0.0, "l2": 9.999999747378752e-05}, "class_name": "L1L2"}, "bias_initializer": {"config": {}, "class_name": "Zeros"}, "activation": "relu", "trainable": true, "bias_regularizer": null}, "name": "dense_26"}, {"class_name": "Dense", "inbound_nodes": [[["dense_28", 0, 0, {}]]], "config": {"use_bias": true, "units": 90, "kernel_initializer": {"config": {"distribution": "normal", "scale": 1.0, "mode": "fan_avg", "seed": 3014}, "class_name": "VarianceScaling"}, "activity_regularizer": null, "bias_constraint": null, "name": "dense_29", "kernel_constraint": null, "kernel_regularizer": {"config": {"l1": 0.0, "l2": 9.999999747378752e-05}, "class_name": "L1L2"}, "bias_initializer": {"config": {}, "class_name": "Zeros"}, "activation": "relu", "trainable": true, "bias_regularizer": null}, "name": "dense_29"}, {"class_name": "Dense", "inbound_nodes": [[["dense_31", 0, 0, {}]]], "config": {"use_bias": true, "units": 90, "kernel_initializer": {"config": {"distribution": "normal", "scale": 1.0, "mode": "fan_avg", "seed": 3014}, "class_name": "VarianceScaling"}, "activity_regularizer": null, "bias_constraint": null, "name": "dense_32", "kernel_constraint": null, "kernel_regularizer": {"config": {"l1": 0.0, "l2": 9.999999747378752e-05}, "class_name": "L1L2"}, "bias_initializer": {"config": {}, "class_name": "Zeros"}, "activation": "relu", "trainable": true, "bias_regularizer": null}, "name": "dense_32"}, {"class_name": "Dense", "inbound_nodes": [[["dense_34", 0, 0, {}]]], "config": {"use_bias": true, "units": 90, "kernel_initializer": {"config": {"distribution": "normal", "scale": 1.0, "mode": "fan_avg", "seed": 3014}, "class_name": "VarianceScaling"}, "activity_regularizer": null, "bias_constraint": null, "name": "dense_35", "kernel_constraint": null, "kernel_regularizer": {"config": {"l1": 0.0, "l2": 9.999999747378752e-05}, "class_name": "L1L2"}, "bias_initializer": {"config": {}, "class_name": "Zeros"}, "activation": "relu", "trainable": true, "bias_regularizer": null}, "name": "dense_35"}, {"class_name": "InputLayer", "inbound_nodes": [], "config": {"dtype": "float32", "batch_input_shape": [null, 1], "sparse": false, "name": "OnOff_F1"}, "name": "OnOff_F1"}, {"class_name": "Dense", "inbound_nodes": [[["dense_26", 0, 0, {}]]], "config": {"use_bias": true, "units": 1, "kernel_initializer": {"config": {"distribution": "normal", "scale": 1.0, "mode": "fan_avg", "seed": 3014}, "class_name": "VarianceScaling"}, "activity_regularizer": null, "bias_constraint": null, "name": "dense_27", "kernel_constraint": null, "kernel_regularizer": {"config": {"l1": 0.0, "l2": 9.999999747378752e-05}, "class_name": "L1L2"}, "bias_initializer": {"config": {}, "class_name": "Zeros"}, "activation": "relu", "trainable": true, "bias_regularizer": null}, "name": "dense_27"}, {"class_name": "InputLayer", "inbound_nodes": [], "config": {"dtype": "float32", "batch_input_shape": [null, 1], "sparse": false, "name": "OnOff_B2"}, "name": "OnOff_B2"}, {"class_name": "Dense", "inbound_nodes": [[["dense_29", 0, 0, {}]]], "config": {"use_bias": true, "units": 1, "kernel_initializer": {"config": {"distribution": "normal", "scale": 1.0, "mode": "fan_avg", "seed": 3014}, "class_name": "VarianceScaling"}, "activity_regularizer": null, "bias_constraint": null, "name": "dense_30", "kernel_constraint": null, "kernel_regularizer": {"config": {"l1": 0.0, "l2": 9.999999747378752e-05}, "class_name": "L1L2"}, "bias_initializer": {"config": {}, "class_name": "Zeros"}, "activation": "relu", "trainable": true, "bias_regularizer": null}, "name": "dense_30"}, {"class_name": "InputLayer", "inbound_nodes": [], "config": {"dtype": "float32", "batch_input_shape": [null, 1], "sparse": false, "name": "OnOff_D3"}, "name": "OnOff_D3"}, {"class_name": "Dense", "inbound_nodes": [[["dense_32", 0, 0, {}]]], "config": {"use_bias": true, "units": 1, "kernel_initializer": {"config": {"distribution": "normal", "scale": 1.0, "mode": "fan_avg", "seed": 3014}, "class_name": "VarianceScaling"}, "activity_regularizer": null, "bias_constraint": null, "name": "dense_33", "kernel_constraint": null, "kernel_regularizer": {"config": {"l1": 0.0, "l2": 9.999999747378752e-05}, "class_name": "L1L2"}, "bias_initializer": {"config": {}, "class_name": "Zeros"}, "activation": "relu", "trainable": true, "bias_regularizer": null}, "name": "dense_33"}, {"class_name": "InputLayer", "inbound_nodes": [], "config": {"dtype": "float32", "batch_input_shape": [null, 1], "sparse": false, "name": "OnOff_E1"}, "name": "OnOff_E1"}, {"class_name": "Dense", "inbound_nodes": [[["dense_35", 0, 0, {}]]], "config": {"use_bias": true, "units": 1, "kernel_initializer": {"config": {"distribution": "normal", "scale": 1.0, "mode": "fan_avg", "seed": 3014}, "class_name": "VarianceScaling"}, "activity_regularizer": null, "bias_constraint": null, "name": "dense_36", "kernel_constraint": null, "kernel_regularizer": {"config": {"l1": 0.0, "l2": 9.999999747378752e-05}, "class_name": "L1L2"}, "bias_initializer": {"config": {}, "class_name": "Zeros"}, "activation": "relu", "trainable": true, "bias_regularizer": null}, "name": "dense_36"}, {"class_name": "Multiply", "inbound_nodes": [[["OnOff_F1", 0, 0, {}], ["dense_27", 0, 0, {}]]], "config": {"trainable": true, "name": "F1_out"}, "name": "F1_out"}, {"class_name": "Multiply", "inbound_nodes": [[["OnOff_B2", 0, 0, {}], ["dense_30", 0, 0, {}]]], "config": {"trainable": true, "name": "B2_out"}, "name": "B2_out"}, {"class_name": "Multiply", "inbound_nodes": [[["OnOff_D3", 0, 0, {}], ["dense_33", 0, 0, {}]]], "config": {"trainable": true, "name": "D3_out"}, "name": "D3_out"}, {"class_name": "Multiply", "inbound_nodes": [[["OnOff_E1", 0, 0, {}], ["dense_36", 0, 0, {}]]], "config": {"trainable": true, "name": "E1_out"}, "name": "E1_out"}, {"class_name": "Add", "inbound_nodes": [[["F1_out", 0, 0, {}], ["B2_out", 0, 0, {}], ["D3_out", 0, 0, {}], ["E1_out", 0, 0, {}]]], "config": {"trainable": true, "name": "GJOA_QGAS"}, "name": "GJOA_QGAS"}], "input_layers": [["F1", 0, 0], ["B2", 0, 0], ["D3", 0, 0], ["E1", 0, 0], ["OnOff_F1", 0, 0], ["OnOff_B2", 0, 0], ["OnOff_D3", 0, 0], ["OnOff_E1", 0, 0]], "name": "model_3", "output_layers": [["F1_out", 0, 0], ["B2_out", 0, 0], ["D3_out", 0, 0], ["E1_out", 0, 0], ["GJOA_QGAS", 0, 0]]}, "class_name": "Model"}