{"keras_version": "2.0.1", "config": {"output_layers": [["C1_PBH_out2", 0, 0], ["C1_PBH_out", 0, 0], ["C3_PBH_out2", 0, 0], ["C3_PBH_out", 0, 0], ["C4_PBH_out2", 0, 0], ["C4_PBH_out", 0, 0], ["B3_PBH_out2", 0, 0], ["B3_PBH_out", 0, 0], ["B1_PBH_out2", 0, 0], ["B1_PBH_out", 0, 0]], "name": "model_1", "layers": [{"name": "CHK_INPUT_PREV", "class_name": "InputLayer", "config": {"batch_input_shape": [null, 7], "dtype": "float32", "name": "CHK_INPUT_PREV", "sparse": false}, "inbound_nodes": []}, {"name": "CHK_INPUT_NOW", "class_name": "InputLayer", "config": {"batch_input_shape": [null, 7], "dtype": "float32", "name": "CHK_INPUT_NOW", "sparse": false}, "inbound_nodes": []}, {"name": "CHK_DELTA", "class_name": "Add", "config": {"trainable": true, "name": "CHK_DELTA"}, "inbound_nodes": [[["CHK_INPUT_PREV", 0, 0, {}], ["CHK_INPUT_NOW", 0, 0, {}]]]}, {"name": "C1_PBH_0", "class_name": "Dense", "config": {"units": 50, "bias_initializer": {"config": {}, "class_name": "Zeros"}, "bias_constraint": null, "trainable": true, "activation": "relu", "kernel_regularizer": {"config": {"l2": 9.999999747378752e-05, "l1": 0.0}, "class_name": "L1L2"}, "bias_regularizer": null, "kernel_constraint": null, "use_bias": true, "activity_regularizer": null, "name": "C1_PBH_0", "kernel_initializer": {"config": {"distribution": "normal", "scale": 1.0, "mode": "fan_avg", "seed": 3014}, "class_name": "VarianceScaling"}}, "inbound_nodes": [[["CHK_DELTA", 0, 0, {}]]]}, {"name": "C3_PBH_0", "class_name": "Dense", "config": {"units": 50, "bias_initializer": {"config": {}, "class_name": "Zeros"}, "bias_constraint": null, "trainable": true, "activation": "relu", "kernel_regularizer": {"config": {"l2": 9.999999747378752e-05, "l1": 0.0}, "class_name": "L1L2"}, "bias_regularizer": null, "kernel_constraint": null, "use_bias": true, "activity_regularizer": null, "name": "C3_PBH_0", "kernel_initializer": {"config": {"distribution": "normal", "scale": 1.0, "mode": "fan_avg", "seed": 3014}, "class_name": "VarianceScaling"}}, "inbound_nodes": [[["CHK_DELTA", 0, 0, {}]]]}, {"name": "C4_PBH_0", "class_name": "Dense", "config": {"units": 50, "bias_initializer": {"config": {}, "class_name": "Zeros"}, "bias_constraint": null, "trainable": true, "activation": "relu", "kernel_regularizer": {"config": {"l2": 9.999999747378752e-05, "l1": 0.0}, "class_name": "L1L2"}, "bias_regularizer": null, "kernel_constraint": null, "use_bias": true, "activity_regularizer": null, "name": "C4_PBH_0", "kernel_initializer": {"config": {"distribution": "normal", "scale": 1.0, "mode": "fan_avg", "seed": 3014}, "class_name": "VarianceScaling"}}, "inbound_nodes": [[["CHK_DELTA", 0, 0, {}]]]}, {"name": "B3_PBH_0", "class_name": "Dense", "config": {"units": 50, "bias_initializer": {"config": {}, "class_name": "Zeros"}, "bias_constraint": null, "trainable": true, "activation": "relu", "kernel_regularizer": {"config": {"l2": 9.999999747378752e-05, "l1": 0.0}, "class_name": "L1L2"}, "bias_regularizer": null, "kernel_constraint": null, "use_bias": true, "activity_regularizer": null, "name": "B3_PBH_0", "kernel_initializer": {"config": {"distribution": "normal", "scale": 1.0, "mode": "fan_avg", "seed": 3014}, "class_name": "VarianceScaling"}}, "inbound_nodes": [[["CHK_DELTA", 0, 0, {}]]]}, {"name": "B1_PBH_0", "class_name": "Dense", "config": {"units": 50, "bias_initializer": {"config": {}, "class_name": "Zeros"}, "bias_constraint": null, "trainable": true, "activation": "relu", "kernel_regularizer": {"config": {"l2": 9.999999747378752e-05, "l1": 0.0}, "class_name": "L1L2"}, "bias_regularizer": null, "kernel_constraint": null, "use_bias": true, "activity_regularizer": null, "name": "B1_PBH_0", "kernel_initializer": {"config": {"distribution": "normal", "scale": 1.0, "mode": "fan_avg", "seed": 3014}, "class_name": "VarianceScaling"}}, "inbound_nodes": [[["CHK_DELTA", 0, 0, {}]]]}, {"name": "C1_PBH_out", "class_name": "Dense", "config": {"units": 1, "bias_initializer": {"config": {}, "class_name": "Zeros"}, "bias_constraint": null, "trainable": true, "activation": "linear", "kernel_regularizer": {"config": {"l2": 9.999999747378752e-05, "l1": 0.0}, "class_name": "L1L2"}, "bias_regularizer": null, "kernel_constraint": null, "use_bias": true, "activity_regularizer": null, "name": "C1_PBH_out", "kernel_initializer": {"config": {"distribution": "normal", "scale": 1.0, "mode": "fan_avg", "seed": 3014}, "class_name": "VarianceScaling"}}, "inbound_nodes": [[["C1_PBH_0", 0, 0, {}]]]}, {"name": "SHIFTED_PRESSURE_PBH_C1", "class_name": "InputLayer", "config": {"batch_input_shape": [null, 1], "dtype": "float32", "name": "SHIFTED_PRESSURE_PBH_C1", "sparse": false}, "inbound_nodes": []}, {"name": "C3_PBH_out", "class_name": "Dense", "config": {"units": 1, "bias_initializer": {"config": {}, "class_name": "Zeros"}, "bias_constraint": null, "trainable": true, "activation": "linear", "kernel_regularizer": {"config": {"l2": 9.999999747378752e-05, "l1": 0.0}, "class_name": "L1L2"}, "bias_regularizer": null, "kernel_constraint": null, "use_bias": true, "activity_regularizer": null, "name": "C3_PBH_out", "kernel_initializer": {"config": {"distribution": "normal", "scale": 1.0, "mode": "fan_avg", "seed": 3014}, "class_name": "VarianceScaling"}}, "inbound_nodes": [[["C3_PBH_0", 0, 0, {}]]]}, {"name": "SHIFTED_PRESSURE_PBH_C3", "class_name": "InputLayer", "config": {"batch_input_shape": [null, 1], "dtype": "float32", "name": "SHIFTED_PRESSURE_PBH_C3", "sparse": false}, "inbound_nodes": []}, {"name": "C4_PBH_out", "class_name": "Dense", "config": {"units": 1, "bias_initializer": {"config": {}, "class_name": "Zeros"}, "bias_constraint": null, "trainable": true, "activation": "linear", "kernel_regularizer": {"config": {"l2": 9.999999747378752e-05, "l1": 0.0}, "class_name": "L1L2"}, "bias_regularizer": null, "kernel_constraint": null, "use_bias": true, "activity_regularizer": null, "name": "C4_PBH_out", "kernel_initializer": {"config": {"distribution": "normal", "scale": 1.0, "mode": "fan_avg", "seed": 3014}, "class_name": "VarianceScaling"}}, "inbound_nodes": [[["C4_PBH_0", 0, 0, {}]]]}, {"name": "SHIFTED_PRESSURE_PBH_C4", "class_name": "InputLayer", "config": {"batch_input_shape": [null, 1], "dtype": "float32", "name": "SHIFTED_PRESSURE_PBH_C4", "sparse": false}, "inbound_nodes": []}, {"name": "B3_PBH_out", "class_name": "Dense", "config": {"units": 1, "bias_initializer": {"config": {}, "class_name": "Zeros"}, "bias_constraint": null, "trainable": true, "activation": "linear", "kernel_regularizer": {"config": {"l2": 9.999999747378752e-05, "l1": 0.0}, "class_name": "L1L2"}, "bias_regularizer": null, "kernel_constraint": null, "use_bias": true, "activity_regularizer": null, "name": "B3_PBH_out", "kernel_initializer": {"config": {"distribution": "normal", "scale": 1.0, "mode": "fan_avg", "seed": 3014}, "class_name": "VarianceScaling"}}, "inbound_nodes": [[["B3_PBH_0", 0, 0, {}]]]}, {"name": "SHIFTED_PRESSURE_PBH_B3", "class_name": "InputLayer", "config": {"batch_input_shape": [null, 1], "dtype": "float32", "name": "SHIFTED_PRESSURE_PBH_B3", "sparse": false}, "inbound_nodes": []}, {"name": "B1_PBH_out", "class_name": "Dense", "config": {"units": 1, "bias_initializer": {"config": {}, "class_name": "Zeros"}, "bias_constraint": null, "trainable": true, "activation": "linear", "kernel_regularizer": {"config": {"l2": 9.999999747378752e-05, "l1": 0.0}, "class_name": "L1L2"}, "bias_regularizer": null, "kernel_constraint": null, "use_bias": true, "activity_regularizer": null, "name": "B1_PBH_out", "kernel_initializer": {"config": {"distribution": "normal", "scale": 1.0, "mode": "fan_avg", "seed": 3014}, "class_name": "VarianceScaling"}}, "inbound_nodes": [[["B1_PBH_0", 0, 0, {}]]]}, {"name": "SHIFTED_PRESSURE_PBH_B1", "class_name": "InputLayer", "config": {"batch_input_shape": [null, 1], "dtype": "float32", "name": "SHIFTED_PRESSURE_PBH_B1", "sparse": false}, "inbound_nodes": []}, {"name": "C1_PBH_out2", "class_name": "Add", "config": {"trainable": true, "name": "C1_PBH_out2"}, "inbound_nodes": [[["C1_PBH_out", 0, 0, {}], ["SHIFTED_PRESSURE_PBH_C1", 0, 0, {}]]]}, {"name": "C3_PBH_out2", "class_name": "Add", "config": {"trainable": true, "name": "C3_PBH_out2"}, "inbound_nodes": [[["C3_PBH_out", 0, 0, {}], ["SHIFTED_PRESSURE_PBH_C3", 0, 0, {}]]]}, {"name": "C4_PBH_out2", "class_name": "Add", "config": {"trainable": true, "name": "C4_PBH_out2"}, "inbound_nodes": [[["C4_PBH_out", 0, 0, {}], ["SHIFTED_PRESSURE_PBH_C4", 0, 0, {}]]]}, {"name": "B3_PBH_out2", "class_name": "Add", "config": {"trainable": true, "name": "B3_PBH_out2"}, "inbound_nodes": [[["B3_PBH_out", 0, 0, {}], ["SHIFTED_PRESSURE_PBH_B3", 0, 0, {}]]]}, {"name": "B1_PBH_out2", "class_name": "Add", "config": {"trainable": true, "name": "B1_PBH_out2"}, "inbound_nodes": [[["B1_PBH_out", 0, 0, {}], ["SHIFTED_PRESSURE_PBH_B1", 0, 0, {}]]]}], "input_layers": [["CHK_INPUT_NOW", 0, 0], ["CHK_INPUT_PREV", 0, 0], ["SHIFTED_PRESSURE_PBH_C1", 0, 0], ["SHIFTED_PRESSURE_PBH_C3", 0, 0], ["SHIFTED_PRESSURE_PBH_C4", 0, 0], ["SHIFTED_PRESSURE_PBH_B3", 0, 0], ["SHIFTED_PRESSURE_PBH_B1", 0, 0]]}, "class_name": "Model", "backend": "theano"}