{"class_name": "Model", "keras_version": "2.0.1", "backend": "theano", "config": {"layers": [{"class_name": "InputLayer", "config": {"dtype": "float32", "batch_input_shape": [null, 7], "sparse": false, "name": "CHK_INPUT_PREV"}, "name": "CHK_INPUT_PREV", "inbound_nodes": []}, {"class_name": "InputLayer", "config": {"dtype": "float32", "batch_input_shape": [null, 7], "sparse": false, "name": "CHK_INPUT_NOW"}, "name": "CHK_INPUT_NOW", "inbound_nodes": []}, {"class_name": "Add", "config": {"trainable": true, "name": "CHK_DELTA"}, "name": "CHK_DELTA", "inbound_nodes": [[["CHK_INPUT_PREV", 0, 0, {}], ["CHK_INPUT_NOW", 0, 0, {}]]]}, {"class_name": "Dense", "config": {"kernel_regularizer": {"class_name": "L1L2", "config": {"l1": 0.0, "l2": 3.5000000934815034e-05}}, "units": 80, "activation": "relu", "bias_regularizer": null, "bias_constraint": null, "trainable": true, "use_bias": true, "activity_regularizer": null, "kernel_initializer": {"class_name": "VarianceScaling", "config": {"mode": "fan_avg", "distribution": "normal", "scale": 1.0, "seed": 3014}}, "bias_initializer": {"class_name": "Zeros", "config": {}}, "name": "C1_PBH_0", "kernel_constraint": null}, "name": "C1_PBH_0", "inbound_nodes": [[["CHK_DELTA", 0, 0, {}]]]}, {"class_name": "Dense", "config": {"kernel_regularizer": {"class_name": "L1L2", "config": {"l1": 0.0, "l2": 3.5000000934815034e-05}}, "units": 80, "activation": "relu", "bias_regularizer": null, "bias_constraint": null, "trainable": true, "use_bias": true, "activity_regularizer": null, "kernel_initializer": {"class_name": "VarianceScaling", "config": {"mode": "fan_avg", "distribution": "normal", "scale": 1.0, "seed": 3014}}, "bias_initializer": {"class_name": "Zeros", "config": {}}, "name": "C3_PBH_0", "kernel_constraint": null}, "name": "C3_PBH_0", "inbound_nodes": [[["CHK_DELTA", 0, 0, {}]]]}, {"class_name": "Dense", "config": {"kernel_regularizer": {"class_name": "L1L2", "config": {"l1": 0.0, "l2": 3.5000000934815034e-05}}, "units": 80, "activation": "relu", "bias_regularizer": null, "bias_constraint": null, "trainable": true, "use_bias": true, "activity_regularizer": null, "kernel_initializer": {"class_name": "VarianceScaling", "config": {"mode": "fan_avg", "distribution": "normal", "scale": 1.0, "seed": 3014}}, "bias_initializer": {"class_name": "Zeros", "config": {}}, "name": "C4_PBH_0", "kernel_constraint": null}, "name": "C4_PBH_0", "inbound_nodes": [[["CHK_DELTA", 0, 0, {}]]]}, {"class_name": "Dense", "config": {"kernel_regularizer": {"class_name": "L1L2", "config": {"l1": 0.0, "l2": 3.5000000934815034e-05}}, "units": 80, "activation": "relu", "bias_regularizer": null, "bias_constraint": null, "trainable": true, "use_bias": true, "activity_regularizer": null, "kernel_initializer": {"class_name": "VarianceScaling", "config": {"mode": "fan_avg", "distribution": "normal", "scale": 1.0, "seed": 3014}}, "bias_initializer": {"class_name": "Zeros", "config": {}}, "name": "B1_PBH_0", "kernel_constraint": null}, "name": "B1_PBH_0", "inbound_nodes": [[["CHK_DELTA", 0, 0, {}]]]}, {"class_name": "Dense", "config": {"kernel_regularizer": {"class_name": "L1L2", "config": {"l1": 0.0, "l2": 3.5000000934815034e-05}}, "units": 80, "activation": "relu", "bias_regularizer": null, "bias_constraint": null, "trainable": true, "use_bias": true, "activity_regularizer": null, "kernel_initializer": {"class_name": "VarianceScaling", "config": {"mode": "fan_avg", "distribution": "normal", "scale": 1.0, "seed": 3014}}, "bias_initializer": {"class_name": "Zeros", "config": {}}, "name": "B3_PBH_0", "kernel_constraint": null}, "name": "B3_PBH_0", "inbound_nodes": [[["CHK_DELTA", 0, 0, {}]]]}, {"class_name": "Dense", "config": {"kernel_regularizer": {"class_name": "L1L2", "config": {"l1": 0.0, "l2": 3.5000000934815034e-05}}, "units": 1, "activation": "linear", "bias_regularizer": null, "bias_constraint": null, "trainable": true, "use_bias": true, "activity_regularizer": null, "kernel_initializer": {"class_name": "VarianceScaling", "config": {"mode": "fan_avg", "distribution": "normal", "scale": 1.0, "seed": 3014}}, "bias_initializer": {"class_name": "Zeros", "config": {}}, "name": "C1_PBH_out", "kernel_constraint": null}, "name": "C1_PBH_out", "inbound_nodes": [[["C1_PBH_0", 0, 0, {}]]]}, {"class_name": "InputLayer", "config": {"dtype": "float32", "batch_input_shape": [null, 1], "sparse": false, "name": "SHIFTED_PRESSURE_PBH_C1"}, "name": "SHIFTED_PRESSURE_PBH_C1", "inbound_nodes": []}, {"class_name": "Dense", "config": {"kernel_regularizer": {"class_name": "L1L2", "config": {"l1": 0.0, "l2": 3.5000000934815034e-05}}, "units": 1, "activation": "linear", "bias_regularizer": null, "bias_constraint": null, "trainable": true, "use_bias": true, "activity_regularizer": null, "kernel_initializer": {"class_name": "VarianceScaling", "config": {"mode": "fan_avg", "distribution": "normal", "scale": 1.0, "seed": 3014}}, "bias_initializer": {"class_name": "Zeros", "config": {}}, "name": "C3_PBH_out", "kernel_constraint": null}, "name": "C3_PBH_out", "inbound_nodes": [[["C3_PBH_0", 0, 0, {}]]]}, {"class_name": "InputLayer", "config": {"dtype": "float32", "batch_input_shape": [null, 1], "sparse": false, "name": "SHIFTED_PRESSURE_PBH_C3"}, "name": "SHIFTED_PRESSURE_PBH_C3", "inbound_nodes": []}, {"class_name": "Dense", "config": {"kernel_regularizer": {"class_name": "L1L2", "config": {"l1": 0.0, "l2": 3.5000000934815034e-05}}, "units": 1, "activation": "linear", "bias_regularizer": null, "bias_constraint": null, "trainable": true, "use_bias": true, "activity_regularizer": null, "kernel_initializer": {"class_name": "VarianceScaling", "config": {"mode": "fan_avg", "distribution": "normal", "scale": 1.0, "seed": 3014}}, "bias_initializer": {"class_name": "Zeros", "config": {}}, "name": "C4_PBH_out", "kernel_constraint": null}, "name": "C4_PBH_out", "inbound_nodes": [[["C4_PBH_0", 0, 0, {}]]]}, {"class_name": "InputLayer", "config": {"dtype": "float32", "batch_input_shape": [null, 1], "sparse": false, "name": "SHIFTED_PRESSURE_PBH_C4"}, "name": "SHIFTED_PRESSURE_PBH_C4", "inbound_nodes": []}, {"class_name": "Dense", "config": {"kernel_regularizer": {"class_name": "L1L2", "config": {"l1": 0.0, "l2": 3.5000000934815034e-05}}, "units": 1, "activation": "linear", "bias_regularizer": null, "bias_constraint": null, "trainable": true, "use_bias": true, "activity_regularizer": null, "kernel_initializer": {"class_name": "VarianceScaling", "config": {"mode": "fan_avg", "distribution": "normal", "scale": 1.0, "seed": 3014}}, "bias_initializer": {"class_name": "Zeros", "config": {}}, "name": "B1_PBH_out", "kernel_constraint": null}, "name": "B1_PBH_out", "inbound_nodes": [[["B1_PBH_0", 0, 0, {}]]]}, {"class_name": "InputLayer", "config": {"dtype": "float32", "batch_input_shape": [null, 1], "sparse": false, "name": "SHIFTED_PRESSURE_PBH_B1"}, "name": "SHIFTED_PRESSURE_PBH_B1", "inbound_nodes": []}, {"class_name": "Dense", "config": {"kernel_regularizer": {"class_name": "L1L2", "config": {"l1": 0.0, "l2": 3.5000000934815034e-05}}, "units": 1, "activation": "linear", "bias_regularizer": null, "bias_constraint": null, "trainable": true, "use_bias": true, "activity_regularizer": null, "kernel_initializer": {"class_name": "VarianceScaling", "config": {"mode": "fan_avg", "distribution": "normal", "scale": 1.0, "seed": 3014}}, "bias_initializer": {"class_name": "Zeros", "config": {}}, "name": "B3_PBH_out", "kernel_constraint": null}, "name": "B3_PBH_out", "inbound_nodes": [[["B3_PBH_0", 0, 0, {}]]]}, {"class_name": "InputLayer", "config": {"dtype": "float32", "batch_input_shape": [null, 1], "sparse": false, "name": "SHIFTED_PRESSURE_PBH_B3"}, "name": "SHIFTED_PRESSURE_PBH_B3", "inbound_nodes": []}, {"class_name": "Add", "config": {"trainable": true, "name": "C1_PBH_out2"}, "name": "C1_PBH_out2", "inbound_nodes": [[["C1_PBH_out", 0, 0, {}], ["SHIFTED_PRESSURE_PBH_C1", 0, 0, {}]]]}, {"class_name": "Add", "config": {"trainable": true, "name": "C3_PBH_out2"}, "name": "C3_PBH_out2", "inbound_nodes": [[["C3_PBH_out", 0, 0, {}], ["SHIFTED_PRESSURE_PBH_C3", 0, 0, {}]]]}, {"class_name": "Add", "config": {"trainable": true, "name": "C4_PBH_out2"}, "name": "C4_PBH_out2", "inbound_nodes": [[["C4_PBH_out", 0, 0, {}], ["SHIFTED_PRESSURE_PBH_C4", 0, 0, {}]]]}, {"class_name": "Add", "config": {"trainable": true, "name": "B1_PBH_out2"}, "name": "B1_PBH_out2", "inbound_nodes": [[["B1_PBH_out", 0, 0, {}], ["SHIFTED_PRESSURE_PBH_B1", 0, 0, {}]]]}, {"class_name": "Add", "config": {"trainable": true, "name": "B3_PBH_out2"}, "name": "B3_PBH_out2", "inbound_nodes": [[["B3_PBH_out", 0, 0, {}], ["SHIFTED_PRESSURE_PBH_B3", 0, 0, {}]]]}], "output_layers": [["C1_PBH_out2", 0, 0], ["C1_PBH_out", 0, 0], ["C3_PBH_out2", 0, 0], ["C3_PBH_out", 0, 0], ["C4_PBH_out2", 0, 0], ["C4_PBH_out", 0, 0], ["B1_PBH_out2", 0, 0], ["B1_PBH_out", 0, 0], ["B3_PBH_out2", 0, 0], ["B3_PBH_out", 0, 0]], "input_layers": [["CHK_INPUT_NOW", 0, 0], ["CHK_INPUT_PREV", 0, 0], ["SHIFTED_PRESSURE_PBH_C1", 0, 0], ["SHIFTED_PRESSURE_PBH_C3", 0, 0], ["SHIFTED_PRESSURE_PBH_C4", 0, 0], ["SHIFTED_PRESSURE_PBH_B1", 0, 0], ["SHIFTED_PRESSURE_PBH_B3", 0, 0]], "name": "model_1"}}