{"class_name": "Model", "keras_version": "2.0.1", "backend": "theano", "config": {"layers": [{"class_name": "InputLayer", "name": "CHK_INPUT_NOW", "inbound_nodes": [], "config": {"dtype": "float32", "sparse": false, "name": "CHK_INPUT_NOW", "batch_input_shape": [null, 8]}}, {"class_name": "Dense", "name": "C1_PDC_0", "inbound_nodes": [[["CHK_INPUT_NOW", 0, 0, {}]]], "config": {"use_bias": true, "bias_regularizer": null, "bias_constraint": null, "kernel_initializer": {"class_name": "VarianceScaling", "config": {"scale": 1.0, "mode": "fan_avg", "distribution": "normal", "seed": 3014}}, "activation": "relu", "name": "C1_PDC_0", "activity_regularizer": null, "trainable": true, "kernel_regularizer": {"class_name": "L1L2", "config": {"l1": 0.0, "l2": 0.0003499999875202775}}, "units": 80, "kernel_constraint": null, "bias_initializer": {"class_name": "Zeros", "config": {}}}}, {"class_name": "Dense", "name": "C2_PDC_0", "inbound_nodes": [[["CHK_INPUT_NOW", 0, 0, {}]]], "config": {"use_bias": true, "bias_regularizer": null, "bias_constraint": null, "kernel_initializer": {"class_name": "VarianceScaling", "config": {"scale": 1.0, "mode": "fan_avg", "distribution": "normal", "seed": 3014}}, "activation": "relu", "name": "C2_PDC_0", "activity_regularizer": null, "trainable": true, "kernel_regularizer": {"class_name": "L1L2", "config": {"l1": 0.0, "l2": 0.0003499999875202775}}, "units": 80, "kernel_constraint": null, "bias_initializer": {"class_name": "Zeros", "config": {}}}}, {"class_name": "Dense", "name": "C3_PDC_0", "inbound_nodes": [[["CHK_INPUT_NOW", 0, 0, {}]]], "config": {"use_bias": true, "bias_regularizer": null, "bias_constraint": null, "kernel_initializer": {"class_name": "VarianceScaling", "config": {"scale": 1.0, "mode": "fan_avg", "distribution": "normal", "seed": 3014}}, "activation": "relu", "name": "C3_PDC_0", "activity_regularizer": null, "trainable": true, "kernel_regularizer": {"class_name": "L1L2", "config": {"l1": 0.0, "l2": 0.0003499999875202775}}, "units": 80, "kernel_constraint": null, "bias_initializer": {"class_name": "Zeros", "config": {}}}}, {"class_name": "Dense", "name": "C4_PDC_0", "inbound_nodes": [[["CHK_INPUT_NOW", 0, 0, {}]]], "config": {"use_bias": true, "bias_regularizer": null, "bias_constraint": null, "kernel_initializer": {"class_name": "VarianceScaling", "config": {"scale": 1.0, "mode": "fan_avg", "distribution": "normal", "seed": 3014}}, "activation": "relu", "name": "C4_PDC_0", "activity_regularizer": null, "trainable": true, "kernel_regularizer": {"class_name": "L1L2", "config": {"l1": 0.0, "l2": 0.0003499999875202775}}, "units": 80, "kernel_constraint": null, "bias_initializer": {"class_name": "Zeros", "config": {}}}}, {"class_name": "Dense", "name": "B1_PDC_0", "inbound_nodes": [[["CHK_INPUT_NOW", 0, 0, {}]]], "config": {"use_bias": true, "bias_regularizer": null, "bias_constraint": null, "kernel_initializer": {"class_name": "VarianceScaling", "config": {"scale": 1.0, "mode": "fan_avg", "distribution": "normal", "seed": 3014}}, "activation": "relu", "name": "B1_PDC_0", "activity_regularizer": null, "trainable": true, "kernel_regularizer": {"class_name": "L1L2", "config": {"l1": 0.0, "l2": 0.0003499999875202775}}, "units": 80, "kernel_constraint": null, "bias_initializer": {"class_name": "Zeros", "config": {}}}}, {"class_name": "Dense", "name": "B3_PDC_0", "inbound_nodes": [[["CHK_INPUT_NOW", 0, 0, {}]]], "config": {"use_bias": true, "bias_regularizer": null, "bias_constraint": null, "kernel_initializer": {"class_name": "VarianceScaling", "config": {"scale": 1.0, "mode": "fan_avg", "distribution": "normal", "seed": 3014}}, "activation": "relu", "name": "B3_PDC_0", "activity_regularizer": null, "trainable": true, "kernel_regularizer": {"class_name": "L1L2", "config": {"l1": 0.0, "l2": 0.0003499999875202775}}, "units": 80, "kernel_constraint": null, "bias_initializer": {"class_name": "Zeros", "config": {}}}}, {"class_name": "Dense", "name": "D1_PDC_0", "inbound_nodes": [[["CHK_INPUT_NOW", 0, 0, {}]]], "config": {"use_bias": true, "bias_regularizer": null, "bias_constraint": null, "kernel_initializer": {"class_name": "VarianceScaling", "config": {"scale": 1.0, "mode": "fan_avg", "distribution": "normal", "seed": 3014}}, "activation": "relu", "name": "D1_PDC_0", "activity_regularizer": null, "trainable": true, "kernel_regularizer": {"class_name": "L1L2", "config": {"l1": 0.0, "l2": 0.0003499999875202775}}, "units": 80, "kernel_constraint": null, "bias_initializer": {"class_name": "Zeros", "config": {}}}}, {"class_name": "Dense", "name": "C1_PDC_1", "inbound_nodes": [[["C1_PDC_0", 0, 0, {}]]], "config": {"use_bias": true, "bias_regularizer": null, "bias_constraint": null, "kernel_initializer": {"class_name": "VarianceScaling", "config": {"scale": 1.0, "mode": "fan_avg", "distribution": "normal", "seed": 3014}}, "activation": "relu", "name": "C1_PDC_1", "activity_regularizer": null, "trainable": true, "kernel_regularizer": {"class_name": "L1L2", "config": {"l1": 0.0, "l2": 0.0003499999875202775}}, "units": 80, "kernel_constraint": null, "bias_initializer": {"class_name": "Zeros", "config": {}}}}, {"class_name": "Dense", "name": "C2_PDC_1", "inbound_nodes": [[["C2_PDC_0", 0, 0, {}]]], "config": {"use_bias": true, "bias_regularizer": null, "bias_constraint": null, "kernel_initializer": {"class_name": "VarianceScaling", "config": {"scale": 1.0, "mode": "fan_avg", "distribution": "normal", "seed": 3014}}, "activation": "relu", "name": "C2_PDC_1", "activity_regularizer": null, "trainable": true, "kernel_regularizer": {"class_name": "L1L2", "config": {"l1": 0.0, "l2": 0.0003499999875202775}}, "units": 80, "kernel_constraint": null, "bias_initializer": {"class_name": "Zeros", "config": {}}}}, {"class_name": "Dense", "name": "C3_PDC_1", "inbound_nodes": [[["C3_PDC_0", 0, 0, {}]]], "config": {"use_bias": true, "bias_regularizer": null, "bias_constraint": null, "kernel_initializer": {"class_name": "VarianceScaling", "config": {"scale": 1.0, "mode": "fan_avg", "distribution": "normal", "seed": 3014}}, "activation": "relu", "name": "C3_PDC_1", "activity_regularizer": null, "trainable": true, "kernel_regularizer": {"class_name": "L1L2", "config": {"l1": 0.0, "l2": 0.0003499999875202775}}, "units": 80, "kernel_constraint": null, "bias_initializer": {"class_name": "Zeros", "config": {}}}}, {"class_name": "Dense", "name": "C4_PDC_1", "inbound_nodes": [[["C4_PDC_0", 0, 0, {}]]], "config": {"use_bias": true, "bias_regularizer": null, "bias_constraint": null, "kernel_initializer": {"class_name": "VarianceScaling", "config": {"scale": 1.0, "mode": "fan_avg", "distribution": "normal", "seed": 3014}}, "activation": "relu", "name": "C4_PDC_1", "activity_regularizer": null, "trainable": true, "kernel_regularizer": {"class_name": "L1L2", "config": {"l1": 0.0, "l2": 0.0003499999875202775}}, "units": 80, "kernel_constraint": null, "bias_initializer": {"class_name": "Zeros", "config": {}}}}, {"class_name": "Dense", "name": "B1_PDC_1", "inbound_nodes": [[["B1_PDC_0", 0, 0, {}]]], "config": {"use_bias": true, "bias_regularizer": null, "bias_constraint": null, "kernel_initializer": {"class_name": "VarianceScaling", "config": {"scale": 1.0, "mode": "fan_avg", "distribution": "normal", "seed": 3014}}, "activation": "relu", "name": "B1_PDC_1", "activity_regularizer": null, "trainable": true, "kernel_regularizer": {"class_name": "L1L2", "config": {"l1": 0.0, "l2": 0.0003499999875202775}}, "units": 80, "kernel_constraint": null, "bias_initializer": {"class_name": "Zeros", "config": {}}}}, {"class_name": "Dense", "name": "B3_PDC_1", "inbound_nodes": [[["B3_PDC_0", 0, 0, {}]]], "config": {"use_bias": true, "bias_regularizer": null, "bias_constraint": null, "kernel_initializer": {"class_name": "VarianceScaling", "config": {"scale": 1.0, "mode": "fan_avg", "distribution": "normal", "seed": 3014}}, "activation": "relu", "name": "B3_PDC_1", "activity_regularizer": null, "trainable": true, "kernel_regularizer": {"class_name": "L1L2", "config": {"l1": 0.0, "l2": 0.0003499999875202775}}, "units": 80, "kernel_constraint": null, "bias_initializer": {"class_name": "Zeros", "config": {}}}}, {"class_name": "Dense", "name": "D1_PDC_1", "inbound_nodes": [[["D1_PDC_0", 0, 0, {}]]], "config": {"use_bias": true, "bias_regularizer": null, "bias_constraint": null, "kernel_initializer": {"class_name": "VarianceScaling", "config": {"scale": 1.0, "mode": "fan_avg", "distribution": "normal", "seed": 3014}}, "activation": "relu", "name": "D1_PDC_1", "activity_regularizer": null, "trainable": true, "kernel_regularizer": {"class_name": "L1L2", "config": {"l1": 0.0, "l2": 0.0003499999875202775}}, "units": 80, "kernel_constraint": null, "bias_initializer": {"class_name": "Zeros", "config": {}}}}, {"class_name": "Dense", "name": "C1_PDC_out", "inbound_nodes": [[["C1_PDC_1", 0, 0, {}]]], "config": {"use_bias": true, "bias_regularizer": null, "bias_constraint": null, "kernel_initializer": {"class_name": "VarianceScaling", "config": {"scale": 1.0, "mode": "fan_avg", "distribution": "normal", "seed": 3014}}, "activation": "linear", "name": "C1_PDC_out", "activity_regularizer": null, "trainable": true, "kernel_regularizer": {"class_name": "L1L2", "config": {"l1": 0.0, "l2": 0.0003499999875202775}}, "units": 1, "kernel_constraint": null, "bias_initializer": {"class_name": "Zeros", "config": {}}}}, {"class_name": "Dense", "name": "C2_PDC_out", "inbound_nodes": [[["C2_PDC_1", 0, 0, {}]]], "config": {"use_bias": true, "bias_regularizer": null, "bias_constraint": null, "kernel_initializer": {"class_name": "VarianceScaling", "config": {"scale": 1.0, "mode": "fan_avg", "distribution": "normal", "seed": 3014}}, "activation": "linear", "name": "C2_PDC_out", "activity_regularizer": null, "trainable": true, "kernel_regularizer": {"class_name": "L1L2", "config": {"l1": 0.0, "l2": 0.0003499999875202775}}, "units": 1, "kernel_constraint": null, "bias_initializer": {"class_name": "Zeros", "config": {}}}}, {"class_name": "Dense", "name": "C3_PDC_out", "inbound_nodes": [[["C3_PDC_1", 0, 0, {}]]], "config": {"use_bias": true, "bias_regularizer": null, "bias_constraint": null, "kernel_initializer": {"class_name": "VarianceScaling", "config": {"scale": 1.0, "mode": "fan_avg", "distribution": "normal", "seed": 3014}}, "activation": "linear", "name": "C3_PDC_out", "activity_regularizer": null, "trainable": true, "kernel_regularizer": {"class_name": "L1L2", "config": {"l1": 0.0, "l2": 0.0003499999875202775}}, "units": 1, "kernel_constraint": null, "bias_initializer": {"class_name": "Zeros", "config": {}}}}, {"class_name": "Dense", "name": "C4_PDC_out", "inbound_nodes": [[["C4_PDC_1", 0, 0, {}]]], "config": {"use_bias": true, "bias_regularizer": null, "bias_constraint": null, "kernel_initializer": {"class_name": "VarianceScaling", "config": {"scale": 1.0, "mode": "fan_avg", "distribution": "normal", "seed": 3014}}, "activation": "linear", "name": "C4_PDC_out", "activity_regularizer": null, "trainable": true, "kernel_regularizer": {"class_name": "L1L2", "config": {"l1": 0.0, "l2": 0.0003499999875202775}}, "units": 1, "kernel_constraint": null, "bias_initializer": {"class_name": "Zeros", "config": {}}}}, {"class_name": "Dense", "name": "B1_PDC_out", "inbound_nodes": [[["B1_PDC_1", 0, 0, {}]]], "config": {"use_bias": true, "bias_regularizer": null, "bias_constraint": null, "kernel_initializer": {"class_name": "VarianceScaling", "config": {"scale": 1.0, "mode": "fan_avg", "distribution": "normal", "seed": 3014}}, "activation": "linear", "name": "B1_PDC_out", "activity_regularizer": null, "trainable": true, "kernel_regularizer": {"class_name": "L1L2", "config": {"l1": 0.0, "l2": 0.0003499999875202775}}, "units": 1, "kernel_constraint": null, "bias_initializer": {"class_name": "Zeros", "config": {}}}}, {"class_name": "Dense", "name": "B3_PDC_out", "inbound_nodes": [[["B3_PDC_1", 0, 0, {}]]], "config": {"use_bias": true, "bias_regularizer": null, "bias_constraint": null, "kernel_initializer": {"class_name": "VarianceScaling", "config": {"scale": 1.0, "mode": "fan_avg", "distribution": "normal", "seed": 3014}}, "activation": "linear", "name": "B3_PDC_out", "activity_regularizer": null, "trainable": true, "kernel_regularizer": {"class_name": "L1L2", "config": {"l1": 0.0, "l2": 0.0003499999875202775}}, "units": 1, "kernel_constraint": null, "bias_initializer": {"class_name": "Zeros", "config": {}}}}, {"class_name": "Dense", "name": "D1_PDC_out", "inbound_nodes": [[["D1_PDC_1", 0, 0, {}]]], "config": {"use_bias": true, "bias_regularizer": null, "bias_constraint": null, "kernel_initializer": {"class_name": "VarianceScaling", "config": {"scale": 1.0, "mode": "fan_avg", "distribution": "normal", "seed": 3014}}, "activation": "linear", "name": "D1_PDC_out", "activity_regularizer": null, "trainable": true, "kernel_regularizer": {"class_name": "L1L2", "config": {"l1": 0.0, "l2": 0.0003499999875202775}}, "units": 1, "kernel_constraint": null, "bias_initializer": {"class_name": "Zeros", "config": {}}}}], "name": "model_1", "output_layers": [["C1_PDC_out", 0, 0], ["C2_PDC_out", 0, 0], ["C3_PDC_out", 0, 0], ["C4_PDC_out", 0, 0], ["B1_PDC_out", 0, 0], ["B3_PDC_out", 0, 0], ["D1_PDC_out", 0, 0]], "input_layers": [["CHK_INPUT_NOW", 0, 0]]}}