{"class_name": "Model", "config": {"name": "model_2", "layers": [{"name": "Main_input", "class_name": "InputLayer", "config": {"batch_input_shape": [null, 7], "input_dtype": "float32", "sparse": false, "name": "Main_input"}, "inbound_nodes": []}, {"name": "dense_21", "class_name": "Dense", "config": {"name": "dense_21", "trainable": true, "output_dim": 20, "init": "glorot_uniform", "activation": "relu", "W_regularizer": {"name": "L1L2Regularizer", "l1": 0.0, "l2": 0.0010000000474974513}, "b_regularizer": null, "activity_regularizer": null, "W_constraint": null, "b_constraint": null, "bias": true, "input_dim": 7}, "inbound_nodes": [[["Main_input", 0, 0]]]}, {"name": "dense_25", "class_name": "Dense", "config": {"name": "dense_25", "trainable": true, "output_dim": 20, "init": "glorot_uniform", "activation": "relu", "W_regularizer": {"name": "L1L2Regularizer", "l1": 0.0, "l2": 0.0010000000474974513}, "b_regularizer": null, "activity_regularizer": null, "W_constraint": null, "b_constraint": null, "bias": true, "input_dim": 7}, "inbound_nodes": [[["Main_input", 0, 0]]]}, {"name": "dense_29", "class_name": "Dense", "config": {"name": "dense_29", "trainable": true, "output_dim": 20, "init": "glorot_uniform", "activation": "relu", "W_regularizer": {"name": "L1L2Regularizer", "l1": 0.0, "l2": 0.0010000000474974513}, "b_regularizer": null, "activity_regularizer": null, "W_constraint": null, "b_constraint": null, "bias": true, "input_dim": 7}, "inbound_nodes": [[["Main_input", 0, 0]]]}, {"name": "dense_33", "class_name": "Dense", "config": {"name": "dense_33", "trainable": true, "output_dim": 20, "init": "glorot_uniform", "activation": "relu", "W_regularizer": {"name": "L1L2Regularizer", "l1": 0.0, "l2": 0.0010000000474974513}, "b_regularizer": null, "activity_regularizer": null, "W_constraint": null, "b_constraint": null, "bias": true, "input_dim": 7}, "inbound_nodes": [[["Main_input", 0, 0]]]}, {"name": "dense_37", "class_name": "Dense", "config": {"name": "dense_37", "trainable": true, "output_dim": 20, "init": "glorot_uniform", "activation": "relu", "W_regularizer": {"name": "L1L2Regularizer", "l1": 0.0, "l2": 0.0010000000474974513}, "b_regularizer": null, "activity_regularizer": null, "W_constraint": null, "b_constraint": null, "bias": true, "input_dim": 7}, "inbound_nodes": [[["Main_input", 0, 0]]]}, {"name": "dense_22", "class_name": "Dense", "config": {"name": "dense_22", "trainable": true, "output_dim": 1, "init": "glorot_uniform", "activation": "relu", "W_regularizer": {"name": "L1L2Regularizer", "l1": 0.0, "l2": 0.0010000000474974513}, "b_regularizer": null, "activity_regularizer": null, "W_constraint": null, "b_constraint": null, "bias": true, "input_dim": 20}, "inbound_nodes": [[["dense_21", 0, 0]]]}, {"name": "OnOff_2C1", "class_name": "InputLayer", "config": {"batch_input_shape": [null, 1], "input_dtype": "float32", "sparse": false, "name": "OnOff_2C1"}, "inbound_nodes": []}, {"name": "dense_26", "class_name": "Dense", "config": {"name": "dense_26", "trainable": true, "output_dim": 1, "init": "glorot_uniform", "activation": "relu", "W_regularizer": {"name": "L1L2Regularizer", "l1": 0.0, "l2": 0.0010000000474974513}, "b_regularizer": null, "activity_regularizer": null, "W_constraint": null, "b_constraint": null, "bias": true, "input_dim": 20}, "inbound_nodes": [[["dense_25", 0, 0]]]}, {"name": "OnOff_2C3", "class_name": "InputLayer", "config": {"batch_input_shape": [null, 1], "input_dtype": "float32", "sparse": false, "name": "OnOff_2C3"}, "inbound_nodes": []}, {"name": "dense_30", "class_name": "Dense", "config": {"name": "dense_30", "trainable": true, "output_dim": 1, "init": "glorot_uniform", "activation": "relu", "W_regularizer": {"name": "L1L2Regularizer", "l1": 0.0, "l2": 0.0010000000474974513}, "b_regularizer": null, "activity_regularizer": null, "W_constraint": null, "b_constraint": null, "bias": true, "input_dim": 20}, "inbound_nodes": [[["dense_29", 0, 0]]]}, {"name": "OnOff_2C4", "class_name": "InputLayer", "config": {"batch_input_shape": [null, 1], "input_dtype": "float32", "sparse": false, "name": "OnOff_2C4"}, "inbound_nodes": []}, {"name": "dense_34", "class_name": "Dense", "config": {"name": "dense_34", "trainable": true, "output_dim": 1, "init": "glorot_uniform", "activation": "relu", "W_regularizer": {"name": "L1L2Regularizer", "l1": 0.0, "l2": 0.0010000000474974513}, "b_regularizer": null, "activity_regularizer": null, "W_constraint": null, "b_constraint": null, "bias": true, "input_dim": 20}, "inbound_nodes": [[["dense_33", 0, 0]]]}, {"name": "OnOff_2B1", "class_name": "InputLayer", "config": {"batch_input_shape": [null, 1], "input_dtype": "float32", "sparse": false, "name": "OnOff_2B1"}, "inbound_nodes": []}, {"name": "dense_38", "class_name": "Dense", "config": {"name": "dense_38", "trainable": true, "output_dim": 1, "init": "glorot_uniform", "activation": "relu", "W_regularizer": {"name": "L1L2Regularizer", "l1": 0.0, "l2": 0.0010000000474974513}, "b_regularizer": null, "activity_regularizer": null, "W_constraint": null, "b_constraint": null, "bias": true, "input_dim": 20}, "inbound_nodes": [[["dense_37", 0, 0]]]}, {"name": "OnOff_2B3", "class_name": "InputLayer", "config": {"batch_input_shape": [null, 1], "input_dtype": "float32", "sparse": false, "name": "OnOff_2B3"}, "inbound_nodes": []}, {"name": "C1_PBH_OUT", "class_name": "Merge", "config": {"name": "C1_PBH_OUT", "mode": "mul", "mode_type": "raw", "concat_axis": -1, "dot_axes": -1, "output_shape": null, "output_shape_type": "raw", "output_mask": null, "output_mask_type": "raw", "arguments": {}}, "inbound_nodes": [[["dense_22", 0, 0], ["OnOff_2C1", 0, 0]]]}, {"name": "C3_PBH_OUT", "class_name": "Merge", "config": {"name": "C3_PBH_OUT", "mode": "mul", "mode_type": "raw", "concat_axis": -1, "dot_axes": -1, "output_shape": null, "output_shape_type": "raw", "output_mask": null, "output_mask_type": "raw", "arguments": {}}, "inbound_nodes": [[["dense_26", 0, 0], ["OnOff_2C3", 0, 0]]]}, {"name": "C4_PBH_OUT", "class_name": "Merge", "config": {"name": "C4_PBH_OUT", "mode": "mul", "mode_type": "raw", "concat_axis": -1, "dot_axes": -1, "output_shape": null, "output_shape_type": "raw", "output_mask": null, "output_mask_type": "raw", "arguments": {}}, "inbound_nodes": [[["dense_30", 0, 0], ["OnOff_2C4", 0, 0]]]}, {"name": "B1_PBH_OUT", "class_name": "Merge", "config": {"name": "B1_PBH_OUT", "mode": "mul", "mode_type": "raw", "concat_axis": -1, "dot_axes": -1, "output_shape": null, "output_shape_type": "raw", "output_mask": null, "output_mask_type": "raw", "arguments": {}}, "inbound_nodes": [[["dense_34", 0, 0], ["OnOff_2B1", 0, 0]]]}, {"name": "B3_PBH_OUT", "class_name": "Merge", "config": {"name": "B3_PBH_OUT", "mode": "mul", "mode_type": "raw", "concat_axis": -1, "dot_axes": -1, "output_shape": null, "output_shape_type": "raw", "output_mask": null, "output_mask_type": "raw", "arguments": {}}, "inbound_nodes": [[["dense_38", 0, 0], ["OnOff_2B3", 0, 0]]]}, {"name": "merge_6", "class_name": "Merge", "config": {"name": "merge_6", "mode": "concat", "mode_type": "raw", "concat_axis": -1, "dot_axes": -1, "output_shape": null, "output_shape_type": "raw", "output_mask": null, "output_mask_type": "raw", "arguments": {}}, "inbound_nodes": [[["C1_PBH_OUT", 0, 0], ["Main_input", 0, 0]]]}, {"name": "merge_7", "class_name": "Merge", "config": {"name": "merge_7", "mode": "concat", "mode_type": "raw", "concat_axis": -1, "dot_axes": -1, "output_shape": null, "output_shape_type": "raw", "output_mask": null, "output_mask_type": "raw", "arguments": {}}, "inbound_nodes": [[["C3_PBH_OUT", 0, 0], ["Main_input", 0, 0]]]}, {"name": "merge_8", "class_name": "Merge", "config": {"name": "merge_8", "mode": "concat", "mode_type": "raw", "concat_axis": -1, "dot_axes": -1, "output_shape": null, "output_shape_type": "raw", "output_mask": null, "output_mask_type": "raw", "arguments": {}}, "inbound_nodes": [[["C4_PBH_OUT", 0, 0], ["Main_input", 0, 0]]]}, {"name": "merge_9", "class_name": "Merge", "config": {"name": "merge_9", "mode": "concat", "mode_type": "raw", "concat_axis": -1, "dot_axes": -1, "output_shape": null, "output_shape_type": "raw", "output_mask": null, "output_mask_type": "raw", "arguments": {}}, "inbound_nodes": [[["B1_PBH_OUT", 0, 0], ["Main_input", 0, 0]]]}, {"name": "merge_10", "class_name": "Merge", "config": {"name": "merge_10", "mode": "concat", "mode_type": "raw", "concat_axis": -1, "dot_axes": -1, "output_shape": null, "output_shape_type": "raw", "output_mask": null, "output_mask_type": "raw", "arguments": {}}, "inbound_nodes": [[["B3_PBH_OUT", 0, 0], ["Main_input", 0, 0]]]}, {"name": "dense_23", "class_name": "Dense", "config": {"name": "dense_23", "trainable": true, "output_dim": 20, "init": "glorot_uniform", "activation": "relu", "W_regularizer": {"name": "L1L2Regularizer", "l1": 0.0, "l2": 0.0010000000474974513}, "b_regularizer": null, "activity_regularizer": null, "W_constraint": null, "b_constraint": null, "bias": true, "input_dim": 8}, "inbound_nodes": [[["merge_6", 0, 0]]]}, {"name": "dense_27", "class_name": "Dense", "config": {"name": "dense_27", "trainable": true, "output_dim": 20, "init": "glorot_uniform", "activation": "relu", "W_regularizer": {"name": "L1L2Regularizer", "l1": 0.0, "l2": 0.0010000000474974513}, "b_regularizer": null, "activity_regularizer": null, "W_constraint": null, "b_constraint": null, "bias": true, "input_dim": 8}, "inbound_nodes": [[["merge_7", 0, 0]]]}, {"name": "dense_31", "class_name": "Dense", "config": {"name": "dense_31", "trainable": true, "output_dim": 20, "init": "glorot_uniform", "activation": "relu", "W_regularizer": {"name": "L1L2Regularizer", "l1": 0.0, "l2": 0.0010000000474974513}, "b_regularizer": null, "activity_regularizer": null, "W_constraint": null, "b_constraint": null, "bias": true, "input_dim": 8}, "inbound_nodes": [[["merge_8", 0, 0]]]}, {"name": "dense_35", "class_name": "Dense", "config": {"name": "dense_35", "trainable": true, "output_dim": 20, "init": "glorot_uniform", "activation": "relu", "W_regularizer": {"name": "L1L2Regularizer", "l1": 0.0, "l2": 0.0010000000474974513}, "b_regularizer": null, "activity_regularizer": null, "W_constraint": null, "b_constraint": null, "bias": true, "input_dim": 8}, "inbound_nodes": [[["merge_9", 0, 0]]]}, {"name": "dense_39", "class_name": "Dense", "config": {"name": "dense_39", "trainable": true, "output_dim": 20, "init": "glorot_uniform", "activation": "relu", "W_regularizer": {"name": "L1L2Regularizer", "l1": 0.0, "l2": 0.0010000000474974513}, "b_regularizer": null, "activity_regularizer": null, "W_constraint": null, "b_constraint": null, "bias": true, "input_dim": 8}, "inbound_nodes": [[["merge_10", 0, 0]]]}, {"name": "dense_24", "class_name": "Dense", "config": {"name": "dense_24", "trainable": true, "output_dim": 1, "init": "glorot_uniform", "activation": "relu", "W_regularizer": {"name": "L1L2Regularizer", "l1": 0.0, "l2": 0.0010000000474974513}, "b_regularizer": null, "activity_regularizer": null, "W_constraint": null, "b_constraint": null, "bias": true, "input_dim": 20}, "inbound_nodes": [[["dense_23", 0, 0]]]}, {"name": "OnOff_C1", "class_name": "InputLayer", "config": {"batch_input_shape": [null, 1], "input_dtype": "float32", "sparse": false, "name": "OnOff_C1"}, "inbound_nodes": []}, {"name": "dense_28", "class_name": "Dense", "config": {"name": "dense_28", "trainable": true, "output_dim": 1, "init": "glorot_uniform", "activation": "relu", "W_regularizer": {"name": "L1L2Regularizer", "l1": 0.0, "l2": 0.0010000000474974513}, "b_regularizer": null, "activity_regularizer": null, "W_constraint": null, "b_constraint": null, "bias": true, "input_dim": 20}, "inbound_nodes": [[["dense_27", 0, 0]]]}, {"name": "OnOff_C3", "class_name": "InputLayer", "config": {"batch_input_shape": [null, 1], "input_dtype": "float32", "sparse": false, "name": "OnOff_C3"}, "inbound_nodes": []}, {"name": "dense_32", "class_name": "Dense", "config": {"name": "dense_32", "trainable": true, "output_dim": 1, "init": "glorot_uniform", "activation": "relu", "W_regularizer": {"name": "L1L2Regularizer", "l1": 0.0, "l2": 0.0010000000474974513}, "b_regularizer": null, "activity_regularizer": null, "W_constraint": null, "b_constraint": null, "bias": true, "input_dim": 20}, "inbound_nodes": [[["dense_31", 0, 0]]]}, {"name": "OnOff_C4", "class_name": "InputLayer", "config": {"batch_input_shape": [null, 1], "input_dtype": "float32", "sparse": false, "name": "OnOff_C4"}, "inbound_nodes": []}, {"name": "dense_36", "class_name": "Dense", "config": {"name": "dense_36", "trainable": true, "output_dim": 1, "init": "glorot_uniform", "activation": "relu", "W_regularizer": {"name": "L1L2Regularizer", "l1": 0.0, "l2": 0.0010000000474974513}, "b_regularizer": null, "activity_regularizer": null, "W_constraint": null, "b_constraint": null, "bias": true, "input_dim": 20}, "inbound_nodes": [[["dense_35", 0, 0]]]}, {"name": "OnOff_B1", "class_name": "InputLayer", "config": {"batch_input_shape": [null, 1], "input_dtype": "float32", "sparse": false, "name": "OnOff_B1"}, "inbound_nodes": []}, {"name": "dense_40", "class_name": "Dense", "config": {"name": "dense_40", "trainable": true, "output_dim": 1, "init": "glorot_uniform", "activation": "relu", "W_regularizer": {"name": "L1L2Regularizer", "l1": 0.0, "l2": 0.0010000000474974513}, "b_regularizer": null, "activity_regularizer": null, "W_constraint": null, "b_constraint": null, "bias": true, "input_dim": 20}, "inbound_nodes": [[["dense_39", 0, 0]]]}, {"name": "OnOff_B3", "class_name": "InputLayer", "config": {"batch_input_shape": [null, 1], "input_dtype": "float32", "sparse": false, "name": "OnOff_B3"}, "inbound_nodes": []}, {"name": "C1_out", "class_name": "Merge", "config": {"name": "C1_out", "mode": "mul", "mode_type": "raw", "concat_axis": -1, "dot_axes": -1, "output_shape": null, "output_shape_type": "raw", "output_mask": null, "output_mask_type": "raw", "arguments": {}}, "inbound_nodes": [[["dense_24", 0, 0], ["OnOff_C1", 0, 0]]]}, {"name": "C3_out", "class_name": "Merge", "config": {"name": "C3_out", "mode": "mul", "mode_type": "raw", "concat_axis": -1, "dot_axes": -1, "output_shape": null, "output_shape_type": "raw", "output_mask": null, "output_mask_type": "raw", "arguments": {}}, "inbound_nodes": [[["dense_28", 0, 0], ["OnOff_C3", 0, 0]]]}, {"name": "C4_out", "class_name": "Merge", "config": {"name": "C4_out", "mode": "mul", "mode_type": "raw", "concat_axis": -1, "dot_axes": -1, "output_shape": null, "output_shape_type": "raw", "output_mask": null, "output_mask_type": "raw", "arguments": {}}, "inbound_nodes": [[["dense_32", 0, 0], ["OnOff_C4", 0, 0]]]}, {"name": "B1_out", "class_name": "Merge", "config": {"name": "B1_out", "mode": "mul", "mode_type": "raw", "concat_axis": -1, "dot_axes": -1, "output_shape": null, "output_shape_type": "raw", "output_mask": null, "output_mask_type": "raw", "arguments": {}}, "inbound_nodes": [[["dense_36", 0, 0], ["OnOff_B1", 0, 0]]]}, {"name": "B3_out", "class_name": "Merge", "config": {"name": "B3_out", "mode": "mul", "mode_type": "raw", "concat_axis": -1, "dot_axes": -1, "output_shape": null, "output_shape_type": "raw", "output_mask": null, "output_mask_type": "raw", "arguments": {}}, "inbound_nodes": [[["dense_40", 0, 0], ["OnOff_B3", 0, 0]]]}], "input_layers": [["Main_input", 0, 0], ["OnOff_C1", 0, 0], ["OnOff_2C1", 0, 0], ["OnOff_C3", 0, 0], ["OnOff_2C3", 0, 0], ["OnOff_C4", 0, 0], ["OnOff_2C4", 0, 0], ["OnOff_B1", 0, 0], ["OnOff_2B1", 0, 0], ["OnOff_B3", 0, 0], ["OnOff_2B3", 0, 0]], "output_layers": [["C1_out", 0, 0], ["C1_PBH_OUT", 0, 0], ["C3_out", 0, 0], ["C3_PBH_OUT", 0, 0], ["C4_out", 0, 0], ["C4_PBH_OUT", 0, 0], ["B1_out", 0, 0], ["B1_PBH_OUT", 0, 0], ["B3_out", 0, 0], ["B3_PBH_OUT", 0, 0]]}, "keras_version": "1.2.1"}