{"config": {"name": "model_1", "layers": [{"name": "CHK_INPUT_PREV", "config": {"sparse": false, "name": "CHK_INPUT_PREV", "dtype": "float32", "batch_input_shape": [null, 8]}, "class_name": "InputLayer", "inbound_nodes": []}, {"name": "CHK_INPUT_NOW", "config": {"sparse": false, "name": "CHK_INPUT_NOW", "dtype": "float32", "batch_input_shape": [null, 8]}, "class_name": "InputLayer", "inbound_nodes": []}, {"name": "CHK_DELTA", "config": {"name": "CHK_DELTA", "trainable": true}, "class_name": "Add", "inbound_nodes": [[["CHK_INPUT_PREV", 0, 0, {}], ["CHK_INPUT_NOW", 0, 0, {}]]]}, {"name": "C1_PBH_0", "config": {"bias_initializer": {"config": {}, "class_name": "Zeros"}, "kernel_regularizer": {"config": {"l1": 0.0, "l2": 3.5000000934815034e-05}, "class_name": "L1L2"}, "use_bias": true, "name": "C1_PBH_0", "activation": "relu", "trainable": true, "kernel_constraint": null, "units": 80, "activity_regularizer": null, "bias_regularizer": null, "kernel_initializer": {"config": {"mode": "fan_avg", "scale": 1.0, "seed": 3014, "distribution": "normal"}, "class_name": "VarianceScaling"}, "bias_constraint": null}, "class_name": "Dense", "inbound_nodes": [[["CHK_DELTA", 0, 0, {}]]]}, {"name": "C3_PBH_0", "config": {"bias_initializer": {"config": {}, "class_name": "Zeros"}, "kernel_regularizer": {"config": {"l1": 0.0, "l2": 3.5000000934815034e-05}, "class_name": "L1L2"}, "use_bias": true, "name": "C3_PBH_0", "activation": "relu", "trainable": true, "kernel_constraint": null, "units": 80, "activity_regularizer": null, "bias_regularizer": null, "kernel_initializer": {"config": {"mode": "fan_avg", "scale": 1.0, "seed": 3014, "distribution": "normal"}, "class_name": "VarianceScaling"}, "bias_constraint": null}, "class_name": "Dense", "inbound_nodes": [[["CHK_DELTA", 0, 0, {}]]]}, {"name": "C4_PBH_0", "config": {"bias_initializer": {"config": {}, "class_name": "Zeros"}, "kernel_regularizer": {"config": {"l1": 0.0, "l2": 3.5000000934815034e-05}, "class_name": "L1L2"}, "use_bias": true, "name": "C4_PBH_0", "activation": "relu", "trainable": true, "kernel_constraint": null, "units": 80, "activity_regularizer": null, "bias_regularizer": null, "kernel_initializer": {"config": {"mode": "fan_avg", "scale": 1.0, "seed": 3014, "distribution": "normal"}, "class_name": "VarianceScaling"}, "bias_constraint": null}, "class_name": "Dense", "inbound_nodes": [[["CHK_DELTA", 0, 0, {}]]]}, {"name": "B1_PBH_0", "config": {"bias_initializer": {"config": {}, "class_name": "Zeros"}, "kernel_regularizer": {"config": {"l1": 0.0, "l2": 3.5000000934815034e-05}, "class_name": "L1L2"}, "use_bias": true, "name": "B1_PBH_0", "activation": "relu", "trainable": true, "kernel_constraint": null, "units": 80, "activity_regularizer": null, "bias_regularizer": null, "kernel_initializer": {"config": {"mode": "fan_avg", "scale": 1.0, "seed": 3014, "distribution": "normal"}, "class_name": "VarianceScaling"}, "bias_constraint": null}, "class_name": "Dense", "inbound_nodes": [[["CHK_DELTA", 0, 0, {}]]]}, {"name": "B3_PBH_0", "config": {"bias_initializer": {"config": {}, "class_name": "Zeros"}, "kernel_regularizer": {"config": {"l1": 0.0, "l2": 3.5000000934815034e-05}, "class_name": "L1L2"}, "use_bias": true, "name": "B3_PBH_0", "activation": "relu", "trainable": true, "kernel_constraint": null, "units": 80, "activity_regularizer": null, "bias_regularizer": null, "kernel_initializer": {"config": {"mode": "fan_avg", "scale": 1.0, "seed": 3014, "distribution": "normal"}, "class_name": "VarianceScaling"}, "bias_constraint": null}, "class_name": "Dense", "inbound_nodes": [[["CHK_DELTA", 0, 0, {}]]]}, {"name": "C1_PBH_out", "config": {"bias_initializer": {"config": {}, "class_name": "Zeros"}, "kernel_regularizer": {"config": {"l1": 0.0, "l2": 3.5000000934815034e-05}, "class_name": "L1L2"}, "use_bias": true, "name": "C1_PBH_out", "activation": "linear", "trainable": true, "kernel_constraint": null, "units": 1, "activity_regularizer": null, "bias_regularizer": null, "kernel_initializer": {"config": {"mode": "fan_avg", "scale": 1.0, "seed": 3014, "distribution": "normal"}, "class_name": "VarianceScaling"}, "bias_constraint": null}, "class_name": "Dense", "inbound_nodes": [[["C1_PBH_0", 0, 0, {}]]]}, {"name": "SHIFTED_PRESSURE_PBH_C1", "config": {"sparse": false, "name": "SHIFTED_PRESSURE_PBH_C1", "dtype": "float32", "batch_input_shape": [null, 1]}, "class_name": "InputLayer", "inbound_nodes": []}, {"name": "C3_PBH_out", "config": {"bias_initializer": {"config": {}, "class_name": "Zeros"}, "kernel_regularizer": {"config": {"l1": 0.0, "l2": 3.5000000934815034e-05}, "class_name": "L1L2"}, "use_bias": true, "name": "C3_PBH_out", "activation": "linear", "trainable": true, "kernel_constraint": null, "units": 1, "activity_regularizer": null, "bias_regularizer": null, "kernel_initializer": {"config": {"mode": "fan_avg", "scale": 1.0, "seed": 3014, "distribution": "normal"}, "class_name": "VarianceScaling"}, "bias_constraint": null}, "class_name": "Dense", "inbound_nodes": [[["C3_PBH_0", 0, 0, {}]]]}, {"name": "SHIFTED_PRESSURE_PBH_C3", "config": {"sparse": false, "name": "SHIFTED_PRESSURE_PBH_C3", "dtype": "float32", "batch_input_shape": [null, 1]}, "class_name": "InputLayer", "inbound_nodes": []}, {"name": "C4_PBH_out", "config": {"bias_initializer": {"config": {}, "class_name": "Zeros"}, "kernel_regularizer": {"config": {"l1": 0.0, "l2": 3.5000000934815034e-05}, "class_name": "L1L2"}, "use_bias": true, "name": "C4_PBH_out", "activation": "linear", "trainable": true, "kernel_constraint": null, "units": 1, "activity_regularizer": null, "bias_regularizer": null, "kernel_initializer": {"config": {"mode": "fan_avg", "scale": 1.0, "seed": 3014, "distribution": "normal"}, "class_name": "VarianceScaling"}, "bias_constraint": null}, "class_name": "Dense", "inbound_nodes": [[["C4_PBH_0", 0, 0, {}]]]}, {"name": "SHIFTED_PRESSURE_PBH_C4", "config": {"sparse": false, "name": "SHIFTED_PRESSURE_PBH_C4", "dtype": "float32", "batch_input_shape": [null, 1]}, "class_name": "InputLayer", "inbound_nodes": []}, {"name": "B1_PBH_out", "config": {"bias_initializer": {"config": {}, "class_name": "Zeros"}, "kernel_regularizer": {"config": {"l1": 0.0, "l2": 3.5000000934815034e-05}, "class_name": "L1L2"}, "use_bias": true, "name": "B1_PBH_out", "activation": "linear", "trainable": true, "kernel_constraint": null, "units": 1, "activity_regularizer": null, "bias_regularizer": null, "kernel_initializer": {"config": {"mode": "fan_avg", "scale": 1.0, "seed": 3014, "distribution": "normal"}, "class_name": "VarianceScaling"}, "bias_constraint": null}, "class_name": "Dense", "inbound_nodes": [[["B1_PBH_0", 0, 0, {}]]]}, {"name": "SHIFTED_PRESSURE_PBH_B1", "config": {"sparse": false, "name": "SHIFTED_PRESSURE_PBH_B1", "dtype": "float32", "batch_input_shape": [null, 1]}, "class_name": "InputLayer", "inbound_nodes": []}, {"name": "B3_PBH_out", "config": {"bias_initializer": {"config": {}, "class_name": "Zeros"}, "kernel_regularizer": {"config": {"l1": 0.0, "l2": 3.5000000934815034e-05}, "class_name": "L1L2"}, "use_bias": true, "name": "B3_PBH_out", "activation": "linear", "trainable": true, "kernel_constraint": null, "units": 1, "activity_regularizer": null, "bias_regularizer": null, "kernel_initializer": {"config": {"mode": "fan_avg", "scale": 1.0, "seed": 3014, "distribution": "normal"}, "class_name": "VarianceScaling"}, "bias_constraint": null}, "class_name": "Dense", "inbound_nodes": [[["B3_PBH_0", 0, 0, {}]]]}, {"name": "SHIFTED_PRESSURE_PBH_B3", "config": {"sparse": false, "name": "SHIFTED_PRESSURE_PBH_B3", "dtype": "float32", "batch_input_shape": [null, 1]}, "class_name": "InputLayer", "inbound_nodes": []}, {"name": "C1_PBH_out2", "config": {"name": "C1_PBH_out2", "trainable": true}, "class_name": "Add", "inbound_nodes": [[["C1_PBH_out", 0, 0, {}], ["SHIFTED_PRESSURE_PBH_C1", 0, 0, {}]]]}, {"name": "C3_PBH_out2", "config": {"name": "C3_PBH_out2", "trainable": true}, "class_name": "Add", "inbound_nodes": [[["C3_PBH_out", 0, 0, {}], ["SHIFTED_PRESSURE_PBH_C3", 0, 0, {}]]]}, {"name": "C4_PBH_out2", "config": {"name": "C4_PBH_out2", "trainable": true}, "class_name": "Add", "inbound_nodes": [[["C4_PBH_out", 0, 0, {}], ["SHIFTED_PRESSURE_PBH_C4", 0, 0, {}]]]}, {"name": "B1_PBH_out2", "config": {"name": "B1_PBH_out2", "trainable": true}, "class_name": "Add", "inbound_nodes": [[["B1_PBH_out", 0, 0, {}], ["SHIFTED_PRESSURE_PBH_B1", 0, 0, {}]]]}, {"name": "B3_PBH_out2", "config": {"name": "B3_PBH_out2", "trainable": true}, "class_name": "Add", "inbound_nodes": [[["B3_PBH_out", 0, 0, {}], ["SHIFTED_PRESSURE_PBH_B3", 0, 0, {}]]]}], "input_layers": [["CHK_INPUT_NOW", 0, 0], ["CHK_INPUT_PREV", 0, 0], ["SHIFTED_PRESSURE_PBH_C1", 0, 0], ["SHIFTED_PRESSURE_PBH_C3", 0, 0], ["SHIFTED_PRESSURE_PBH_C4", 0, 0], ["SHIFTED_PRESSURE_PBH_B1", 0, 0], ["SHIFTED_PRESSURE_PBH_B3", 0, 0]], "output_layers": [["C1_PBH_out2", 0, 0], ["C1_PBH_out", 0, 0], ["C3_PBH_out2", 0, 0], ["C3_PBH_out", 0, 0], ["C4_PBH_out2", 0, 0], ["C4_PBH_out", 0, 0], ["B1_PBH_out2", 0, 0], ["B1_PBH_out", 0, 0], ["B3_PBH_out2", 0, 0], ["B3_PBH_out", 0, 0]]}, "class_name": "Model", "keras_version": "2.0.1", "backend": "theano"}