{"backend": "theano", "class_name": "Model", "config": {"input_layers": [["C1", 0, 0], ["C2", 0, 0], ["C3", 0, 0], ["C4", 0, 0], ["B1", 0, 0], ["B3", 0, 0], ["D1", 0, 0], ["OnOff_C1", 0, 0], ["OnOff_C2", 0, 0], ["OnOff_C3", 0, 0], ["OnOff_C4", 0, 0], ["OnOff_B1", 0, 0], ["OnOff_B3", 0, 0], ["OnOff_D1", 0, 0]], "output_layers": [["C1_out", 0, 0], ["C2_out", 0, 0], ["C3_out", 0, 0], ["C4_out", 0, 0], ["B1_out", 0, 0], ["B3_out", 0, 0], ["D1_out", 0, 0], ["GJOA_TOTAL", 0, 0]], "layers": [{"class_name": "InputLayer", "config": {"batch_input_shape": [null, 4], "dtype": "float32", "sparse": false, "name": "C1"}, "name": "C1", "inbound_nodes": []}, {"class_name": "InputLayer", "config": {"batch_input_shape": [null, 3], "dtype": "float32", "sparse": false, "name": "C2"}, "name": "C2", "inbound_nodes": []}, {"class_name": "InputLayer", "config": {"batch_input_shape": [null, 4], "dtype": "float32", "sparse": false, "name": "C3"}, "name": "C3", "inbound_nodes": []}, {"class_name": "InputLayer", "config": {"batch_input_shape": [null, 4], "dtype": "float32", "sparse": false, "name": "C4"}, "name": "C4", "inbound_nodes": []}, {"class_name": "InputLayer", "config": {"batch_input_shape": [null, 4], "dtype": "float32", "sparse": false, "name": "B1"}, "name": "B1", "inbound_nodes": []}, {"class_name": "InputLayer", "config": {"batch_input_shape": [null, 4], "dtype": "float32", "sparse": false, "name": "B3"}, "name": "B3", "inbound_nodes": []}, {"class_name": "InputLayer", "config": {"batch_input_shape": [null, 3], "dtype": "float32", "sparse": false, "name": "D1"}, "name": "D1", "inbound_nodes": []}, {"class_name": "Dense", "config": {"use_bias": true, "bias_constraint": null, "bias_regularizer": null, "kernel_regularizer": {"class_name": "L1L2", "config": {"l2": 1.0000000116860974e-07, "l1": 0.0}}, "kernel_constraint": null, "trainable": true, "units": 50, "activity_regularizer": null, "bias_initializer": {"class_name": "Zeros", "config": {}}, "name": "dense_1", "activation": "relu", "kernel_initializer": {"class_name": "VarianceScaling", "config": {"scale": 1.0, "mode": "fan_avg", "seed": 9305, "distribution": "normal"}}}, "name": "dense_1", "inbound_nodes": [[["C1", 0, 0, {}]]]}, {"class_name": "Dense", "config": {"use_bias": true, "bias_constraint": null, "bias_regularizer": null, "kernel_regularizer": {"class_name": "L1L2", "config": {"l2": 1.0000000116860974e-07, "l1": 0.0}}, "kernel_constraint": null, "trainable": true, "units": 50, "activity_regularizer": null, "bias_initializer": {"class_name": "Zeros", "config": {}}, "name": "dense_4", "activation": "relu", "kernel_initializer": {"class_name": "VarianceScaling", "config": {"scale": 1.0, "mode": "fan_avg", "seed": 9305, "distribution": "normal"}}}, "name": "dense_4", "inbound_nodes": [[["C2", 0, 0, {}]]]}, {"class_name": "Dense", "config": {"use_bias": true, "bias_constraint": null, "bias_regularizer": null, "kernel_regularizer": {"class_name": "L1L2", "config": {"l2": 1.0000000116860974e-07, "l1": 0.0}}, "kernel_constraint": null, "trainable": true, "units": 50, "activity_regularizer": null, "bias_initializer": {"class_name": "Zeros", "config": {}}, "name": "dense_7", "activation": "relu", "kernel_initializer": {"class_name": "VarianceScaling", "config": {"scale": 1.0, "mode": "fan_avg", "seed": 9305, "distribution": "normal"}}}, "name": "dense_7", "inbound_nodes": [[["C3", 0, 0, {}]]]}, {"class_name": "Dense", "config": {"use_bias": true, "bias_constraint": null, "bias_regularizer": null, "kernel_regularizer": {"class_name": "L1L2", "config": {"l2": 1.0000000116860974e-07, "l1": 0.0}}, "kernel_constraint": null, "trainable": true, "units": 50, "activity_regularizer": null, "bias_initializer": {"class_name": "Zeros", "config": {}}, "name": "dense_10", "activation": "relu", "kernel_initializer": {"class_name": "VarianceScaling", "config": {"scale": 1.0, "mode": "fan_avg", "seed": 9305, "distribution": "normal"}}}, "name": "dense_10", "inbound_nodes": [[["C4", 0, 0, {}]]]}, {"class_name": "Dense", "config": {"use_bias": true, "bias_constraint": null, "bias_regularizer": null, "kernel_regularizer": {"class_name": "L1L2", "config": {"l2": 1.0000000116860974e-07, "l1": 0.0}}, "kernel_constraint": null, "trainable": true, "units": 50, "activity_regularizer": null, "bias_initializer": {"class_name": "Zeros", "config": {}}, "name": "dense_13", "activation": "relu", "kernel_initializer": {"class_name": "VarianceScaling", "config": {"scale": 1.0, "mode": "fan_avg", "seed": 9305, "distribution": "normal"}}}, "name": "dense_13", "inbound_nodes": [[["B1", 0, 0, {}]]]}, {"class_name": "Dense", "config": {"use_bias": true, "bias_constraint": null, "bias_regularizer": null, "kernel_regularizer": {"class_name": "L1L2", "config": {"l2": 1.0000000116860974e-07, "l1": 0.0}}, "kernel_constraint": null, "trainable": true, "units": 50, "activity_regularizer": null, "bias_initializer": {"class_name": "Zeros", "config": {}}, "name": "dense_16", "activation": "relu", "kernel_initializer": {"class_name": "VarianceScaling", "config": {"scale": 1.0, "mode": "fan_avg", "seed": 9305, "distribution": "normal"}}}, "name": "dense_16", "inbound_nodes": [[["B3", 0, 0, {}]]]}, {"class_name": "Dense", "config": {"use_bias": true, "bias_constraint": null, "bias_regularizer": null, "kernel_regularizer": {"class_name": "L1L2", "config": {"l2": 1.0000000116860974e-07, "l1": 0.0}}, "kernel_constraint": null, "trainable": true, "units": 50, "activity_regularizer": null, "bias_initializer": {"class_name": "Zeros", "config": {}}, "name": "dense_19", "activation": "relu", "kernel_initializer": {"class_name": "VarianceScaling", "config": {"scale": 1.0, "mode": "fan_avg", "seed": 9305, "distribution": "normal"}}}, "name": "dense_19", "inbound_nodes": [[["D1", 0, 0, {}]]]}, {"class_name": "Dropout", "config": {"name": "dropout_1", "trainable": true, "rate": 0.1}, "name": "dropout_1", "inbound_nodes": [[["dense_1", 0, 0, {}]]]}, {"class_name": "Dropout", "config": {"name": "dropout_2", "trainable": true, "rate": 0.1}, "name": "dropout_2", "inbound_nodes": [[["dense_4", 0, 0, {}]]]}, {"class_name": "Dropout", "config": {"name": "dropout_3", "trainable": true, "rate": 0.1}, "name": "dropout_3", "inbound_nodes": [[["dense_7", 0, 0, {}]]]}, {"class_name": "Dropout", "config": {"name": "dropout_4", "trainable": true, "rate": 0.1}, "name": "dropout_4", "inbound_nodes": [[["dense_10", 0, 0, {}]]]}, {"class_name": "Dropout", "config": {"name": "dropout_5", "trainable": true, "rate": 0.1}, "name": "dropout_5", "inbound_nodes": [[["dense_13", 0, 0, {}]]]}, {"class_name": "Dropout", "config": {"name": "dropout_6", "trainable": true, "rate": 0.1}, "name": "dropout_6", "inbound_nodes": [[["dense_16", 0, 0, {}]]]}, {"class_name": "Dropout", "config": {"name": "dropout_7", "trainable": true, "rate": 0.1}, "name": "dropout_7", "inbound_nodes": [[["dense_19", 0, 0, {}]]]}, {"class_name": "Dense", "config": {"use_bias": true, "bias_constraint": null, "bias_regularizer": null, "kernel_regularizer": {"class_name": "L1L2", "config": {"l2": 1.0000000116860974e-07, "l1": 0.0}}, "kernel_constraint": null, "trainable": true, "units": 50, "activity_regularizer": null, "bias_initializer": {"class_name": "Zeros", "config": {}}, "name": "dense_2", "activation": "relu", "kernel_initializer": {"class_name": "VarianceScaling", "config": {"scale": 1.0, "mode": "fan_avg", "seed": 9305, "distribution": "normal"}}}, "name": "dense_2", "inbound_nodes": [[["dropout_1", 0, 0, {}]]]}, {"class_name": "Dense", "config": {"use_bias": true, "bias_constraint": null, "bias_regularizer": null, "kernel_regularizer": {"class_name": "L1L2", "config": {"l2": 1.0000000116860974e-07, "l1": 0.0}}, "kernel_constraint": null, "trainable": true, "units": 50, "activity_regularizer": null, "bias_initializer": {"class_name": "Zeros", "config": {}}, "name": "dense_5", "activation": "relu", "kernel_initializer": {"class_name": "VarianceScaling", "config": {"scale": 1.0, "mode": "fan_avg", "seed": 9305, "distribution": "normal"}}}, "name": "dense_5", "inbound_nodes": [[["dropout_2", 0, 0, {}]]]}, {"class_name": "Dense", "config": {"use_bias": true, "bias_constraint": null, "bias_regularizer": null, "kernel_regularizer": {"class_name": "L1L2", "config": {"l2": 1.0000000116860974e-07, "l1": 0.0}}, "kernel_constraint": null, "trainable": true, "units": 50, "activity_regularizer": null, "bias_initializer": {"class_name": "Zeros", "config": {}}, "name": "dense_8", "activation": "relu", "kernel_initializer": {"class_name": "VarianceScaling", "config": {"scale": 1.0, "mode": "fan_avg", "seed": 9305, "distribution": "normal"}}}, "name": "dense_8", "inbound_nodes": [[["dropout_3", 0, 0, {}]]]}, {"class_name": "Dense", "config": {"use_bias": true, "bias_constraint": null, "bias_regularizer": null, "kernel_regularizer": {"class_name": "L1L2", "config": {"l2": 1.0000000116860974e-07, "l1": 0.0}}, "kernel_constraint": null, "trainable": true, "units": 50, "activity_regularizer": null, "bias_initializer": {"class_name": "Zeros", "config": {}}, "name": "dense_11", "activation": "relu", "kernel_initializer": {"class_name": "VarianceScaling", "config": {"scale": 1.0, "mode": "fan_avg", "seed": 9305, "distribution": "normal"}}}, "name": "dense_11", "inbound_nodes": [[["dropout_4", 0, 0, {}]]]}, {"class_name": "Dense", "config": {"use_bias": true, "bias_constraint": null, "bias_regularizer": null, "kernel_regularizer": {"class_name": "L1L2", "config": {"l2": 1.0000000116860974e-07, "l1": 0.0}}, "kernel_constraint": null, "trainable": true, "units": 50, "activity_regularizer": null, "bias_initializer": {"class_name": "Zeros", "config": {}}, "name": "dense_14", "activation": "relu", "kernel_initializer": {"class_name": "VarianceScaling", "config": {"scale": 1.0, "mode": "fan_avg", "seed": 9305, "distribution": "normal"}}}, "name": "dense_14", "inbound_nodes": [[["dropout_5", 0, 0, {}]]]}, {"class_name": "Dense", "config": {"use_bias": true, "bias_constraint": null, "bias_regularizer": null, "kernel_regularizer": {"class_name": "L1L2", "config": {"l2": 1.0000000116860974e-07, "l1": 0.0}}, "kernel_constraint": null, "trainable": true, "units": 50, "activity_regularizer": null, "bias_initializer": {"class_name": "Zeros", "config": {}}, "name": "dense_17", "activation": "relu", "kernel_initializer": {"class_name": "VarianceScaling", "config": {"scale": 1.0, "mode": "fan_avg", "seed": 9305, "distribution": "normal"}}}, "name": "dense_17", "inbound_nodes": [[["dropout_6", 0, 0, {}]]]}, {"class_name": "Dense", "config": {"use_bias": true, "bias_constraint": null, "bias_regularizer": null, "kernel_regularizer": {"class_name": "L1L2", "config": {"l2": 1.0000000116860974e-07, "l1": 0.0}}, "kernel_constraint": null, "trainable": true, "units": 50, "activity_regularizer": null, "bias_initializer": {"class_name": "Zeros", "config": {}}, "name": "dense_20", "activation": "relu", "kernel_initializer": {"class_name": "VarianceScaling", "config": {"scale": 1.0, "mode": "fan_avg", "seed": 9305, "distribution": "normal"}}}, "name": "dense_20", "inbound_nodes": [[["dropout_7", 0, 0, {}]]]}, {"class_name": "InputLayer", "config": {"batch_input_shape": [null, 1], "dtype": "float32", "sparse": false, "name": "OnOff_C1"}, "name": "OnOff_C1", "inbound_nodes": []}, {"class_name": "Dense", "config": {"use_bias": true, "bias_constraint": null, "bias_regularizer": null, "kernel_regularizer": {"class_name": "L1L2", "config": {"l2": 1.0000000116860974e-07, "l1": 0.0}}, "kernel_constraint": null, "trainable": true, "units": 1, "activity_regularizer": null, "bias_initializer": {"class_name": "Zeros", "config": {}}, "name": "dense_3", "activation": "relu", "kernel_initializer": {"class_name": "VarianceScaling", "config": {"scale": 1.0, "mode": "fan_avg", "seed": 9305, "distribution": "normal"}}}, "name": "dense_3", "inbound_nodes": [[["dense_2", 0, 0, {}]]]}, {"class_name": "InputLayer", "config": {"batch_input_shape": [null, 1], "dtype": "float32", "sparse": false, "name": "OnOff_C2"}, "name": "OnOff_C2", "inbound_nodes": []}, {"class_name": "Dense", "config": {"use_bias": true, "bias_constraint": null, "bias_regularizer": null, "kernel_regularizer": {"class_name": "L1L2", "config": {"l2": 1.0000000116860974e-07, "l1": 0.0}}, "kernel_constraint": null, "trainable": true, "units": 1, "activity_regularizer": null, "bias_initializer": {"class_name": "Zeros", "config": {}}, "name": "dense_6", "activation": "relu", "kernel_initializer": {"class_name": "VarianceScaling", "config": {"scale": 1.0, "mode": "fan_avg", "seed": 9305, "distribution": "normal"}}}, "name": "dense_6", "inbound_nodes": [[["dense_5", 0, 0, {}]]]}, {"class_name": "InputLayer", "config": {"batch_input_shape": [null, 1], "dtype": "float32", "sparse": false, "name": "OnOff_C3"}, "name": "OnOff_C3", "inbound_nodes": []}, {"class_name": "Dense", "config": {"use_bias": true, "bias_constraint": null, "bias_regularizer": null, "kernel_regularizer": {"class_name": "L1L2", "config": {"l2": 1.0000000116860974e-07, "l1": 0.0}}, "kernel_constraint": null, "trainable": true, "units": 1, "activity_regularizer": null, "bias_initializer": {"class_name": "Zeros", "config": {}}, "name": "dense_9", "activation": "relu", "kernel_initializer": {"class_name": "VarianceScaling", "config": {"scale": 1.0, "mode": "fan_avg", "seed": 9305, "distribution": "normal"}}}, "name": "dense_9", "inbound_nodes": [[["dense_8", 0, 0, {}]]]}, {"class_name": "InputLayer", "config": {"batch_input_shape": [null, 1], "dtype": "float32", "sparse": false, "name": "OnOff_C4"}, "name": "OnOff_C4", "inbound_nodes": []}, {"class_name": "Dense", "config": {"use_bias": true, "bias_constraint": null, "bias_regularizer": null, "kernel_regularizer": {"class_name": "L1L2", "config": {"l2": 1.0000000116860974e-07, "l1": 0.0}}, "kernel_constraint": null, "trainable": true, "units": 1, "activity_regularizer": null, "bias_initializer": {"class_name": "Zeros", "config": {}}, "name": "dense_12", "activation": "relu", "kernel_initializer": {"class_name": "VarianceScaling", "config": {"scale": 1.0, "mode": "fan_avg", "seed": 9305, "distribution": "normal"}}}, "name": "dense_12", "inbound_nodes": [[["dense_11", 0, 0, {}]]]}, {"class_name": "InputLayer", "config": {"batch_input_shape": [null, 1], "dtype": "float32", "sparse": false, "name": "OnOff_B1"}, "name": "OnOff_B1", "inbound_nodes": []}, {"class_name": "Dense", "config": {"use_bias": true, "bias_constraint": null, "bias_regularizer": null, "kernel_regularizer": {"class_name": "L1L2", "config": {"l2": 1.0000000116860974e-07, "l1": 0.0}}, "kernel_constraint": null, "trainable": true, "units": 1, "activity_regularizer": null, "bias_initializer": {"class_name": "Zeros", "config": {}}, "name": "dense_15", "activation": "relu", "kernel_initializer": {"class_name": "VarianceScaling", "config": {"scale": 1.0, "mode": "fan_avg", "seed": 9305, "distribution": "normal"}}}, "name": "dense_15", "inbound_nodes": [[["dense_14", 0, 0, {}]]]}, {"class_name": "InputLayer", "config": {"batch_input_shape": [null, 1], "dtype": "float32", "sparse": false, "name": "OnOff_B3"}, "name": "OnOff_B3", "inbound_nodes": []}, {"class_name": "Dense", "config": {"use_bias": true, "bias_constraint": null, "bias_regularizer": null, "kernel_regularizer": {"class_name": "L1L2", "config": {"l2": 1.0000000116860974e-07, "l1": 0.0}}, "kernel_constraint": null, "trainable": true, "units": 1, "activity_regularizer": null, "bias_initializer": {"class_name": "Zeros", "config": {}}, "name": "dense_18", "activation": "relu", "kernel_initializer": {"class_name": "VarianceScaling", "config": {"scale": 1.0, "mode": "fan_avg", "seed": 9305, "distribution": "normal"}}}, "name": "dense_18", "inbound_nodes": [[["dense_17", 0, 0, {}]]]}, {"class_name": "InputLayer", "config": {"batch_input_shape": [null, 1], "dtype": "float32", "sparse": false, "name": "OnOff_D1"}, "name": "OnOff_D1", "inbound_nodes": []}, {"class_name": "Dense", "config": {"use_bias": true, "bias_constraint": null, "bias_regularizer": null, "kernel_regularizer": {"class_name": "L1L2", "config": {"l2": 1.0000000116860974e-07, "l1": 0.0}}, "kernel_constraint": null, "trainable": true, "units": 1, "activity_regularizer": null, "bias_initializer": {"class_name": "Zeros", "config": {}}, "name": "dense_21", "activation": "relu", "kernel_initializer": {"class_name": "VarianceScaling", "config": {"scale": 1.0, "mode": "fan_avg", "seed": 9305, "distribution": "normal"}}}, "name": "dense_21", "inbound_nodes": [[["dense_20", 0, 0, {}]]]}, {"class_name": "Multiply", "config": {"name": "C1_out", "trainable": true}, "name": "C1_out", "inbound_nodes": [[["OnOff_C1", 0, 0, {}], ["dense_3", 0, 0, {}]]]}, {"class_name": "Multiply", "config": {"name": "C2_out", "trainable": true}, "name": "C2_out", "inbound_nodes": [[["OnOff_C2", 0, 0, {}], ["dense_6", 0, 0, {}]]]}, {"class_name": "Multiply", "config": {"name": "C3_out", "trainable": true}, "name": "C3_out", "inbound_nodes": [[["OnOff_C3", 0, 0, {}], ["dense_9", 0, 0, {}]]]}, {"class_name": "Multiply", "config": {"name": "C4_out", "trainable": true}, "name": "C4_out", "inbound_nodes": [[["OnOff_C4", 0, 0, {}], ["dense_12", 0, 0, {}]]]}, {"class_name": "Multiply", "config": {"name": "B1_out", "trainable": true}, "name": "B1_out", "inbound_nodes": [[["OnOff_B1", 0, 0, {}], ["dense_15", 0, 0, {}]]]}, {"class_name": "Multiply", "config": {"name": "B3_out", "trainable": true}, "name": "B3_out", "inbound_nodes": [[["OnOff_B3", 0, 0, {}], ["dense_18", 0, 0, {}]]]}, {"class_name": "Multiply", "config": {"name": "D1_out", "trainable": true}, "name": "D1_out", "inbound_nodes": [[["OnOff_D1", 0, 0, {}], ["dense_21", 0, 0, {}]]]}, {"class_name": "Add", "config": {"name": "GJOA_TOTAL", "trainable": true}, "name": "GJOA_TOTAL", "inbound_nodes": [[["C1_out", 0, 0, {}], ["C2_out", 0, 0, {}], ["C3_out", 0, 0, {}], ["C4_out", 0, 0, {}], ["B1_out", 0, 0, {}], ["B3_out", 0, 0, {}], ["D1_out", 0, 0, {}]]]}], "name": "model_1"}, "keras_version": "2.0.1"}