{"keras_version": "2.0.1", "config": {"name": "model_1", "input_layers": [["C1", 0, 0], ["C2", 0, 0], ["C3", 0, 0], ["C4", 0, 0], ["B1", 0, 0], ["B3", 0, 0], ["D1", 0, 0], ["OnOff_C1", 0, 0], ["OnOff_C2", 0, 0], ["OnOff_C3", 0, 0], ["OnOff_C4", 0, 0], ["OnOff_B1", 0, 0], ["OnOff_B3", 0, 0], ["OnOff_D1", 0, 0]], "layers": [{"name": "C1", "config": {"batch_input_shape": [null, 4], "name": "C1", "sparse": false, "dtype": "float32"}, "inbound_nodes": [], "class_name": "InputLayer"}, {"name": "C2", "config": {"batch_input_shape": [null, 3], "name": "C2", "sparse": false, "dtype": "float32"}, "inbound_nodes": [], "class_name": "InputLayer"}, {"name": "C3", "config": {"batch_input_shape": [null, 4], "name": "C3", "sparse": false, "dtype": "float32"}, "inbound_nodes": [], "class_name": "InputLayer"}, {"name": "C4", "config": {"batch_input_shape": [null, 4], "name": "C4", "sparse": false, "dtype": "float32"}, "inbound_nodes": [], "class_name": "InputLayer"}, {"name": "B1", "config": {"batch_input_shape": [null, 4], "name": "B1", "sparse": false, "dtype": "float32"}, "inbound_nodes": [], "class_name": "InputLayer"}, {"name": "B3", "config": {"batch_input_shape": [null, 4], "name": "B3", "sparse": false, "dtype": "float32"}, "inbound_nodes": [], "class_name": "InputLayer"}, {"name": "D1", "config": {"batch_input_shape": [null, 3], "name": "D1", "sparse": false, "dtype": "float32"}, "inbound_nodes": [], "class_name": "InputLayer"}, {"name": "C1_0", "config": {"name": "C1_0", "trainable": true, "units": 60, "kernel_regularizer": {"config": {"l1": 0.0, "l2": 0.0010000000474974513}, "class_name": "L1L2"}, "bias_regularizer": null, "activation": "relu", "kernel_initializer": {"config": {"distribution": "normal", "seed": 3014, "scale": 1.0, "mode": "fan_avg"}, "class_name": "VarianceScaling"}, "use_bias": true, "bias_initializer": {"config": {}, "class_name": "Zeros"}, "activity_regularizer": null, "bias_constraint": null, "kernel_constraint": null}, "inbound_nodes": [[["C1", 0, 0, {}]]], "class_name": "Dense"}, {"name": "C2_0", "config": {"name": "C2_0", "trainable": true, "units": 60, "kernel_regularizer": {"config": {"l1": 0.0, "l2": 0.0010000000474974513}, "class_name": "L1L2"}, "bias_regularizer": null, "activation": "relu", "kernel_initializer": {"config": {"distribution": "normal", "seed": 3014, "scale": 1.0, "mode": "fan_avg"}, "class_name": "VarianceScaling"}, "use_bias": true, "bias_initializer": {"config": {}, "class_name": "Zeros"}, "activity_regularizer": null, "bias_constraint": null, "kernel_constraint": null}, "inbound_nodes": [[["C2", 0, 0, {}]]], "class_name": "Dense"}, {"name": "C3_0", "config": {"name": "C3_0", "trainable": true, "units": 60, "kernel_regularizer": {"config": {"l1": 0.0, "l2": 0.0010000000474974513}, "class_name": "L1L2"}, "bias_regularizer": null, "activation": "relu", "kernel_initializer": {"config": {"distribution": "normal", "seed": 3014, "scale": 1.0, "mode": "fan_avg"}, "class_name": "VarianceScaling"}, "use_bias": true, "bias_initializer": {"config": {}, "class_name": "Zeros"}, "activity_regularizer": null, "bias_constraint": null, "kernel_constraint": null}, "inbound_nodes": [[["C3", 0, 0, {}]]], "class_name": "Dense"}, {"name": "C4_0", "config": {"name": "C4_0", "trainable": true, "units": 60, "kernel_regularizer": {"config": {"l1": 0.0, "l2": 0.0010000000474974513}, "class_name": "L1L2"}, "bias_regularizer": null, "activation": "relu", "kernel_initializer": {"config": {"distribution": "normal", "seed": 3014, "scale": 1.0, "mode": "fan_avg"}, "class_name": "VarianceScaling"}, "use_bias": true, "bias_initializer": {"config": {}, "class_name": "Zeros"}, "activity_regularizer": null, "bias_constraint": null, "kernel_constraint": null}, "inbound_nodes": [[["C4", 0, 0, {}]]], "class_name": "Dense"}, {"name": "B1_0", "config": {"name": "B1_0", "trainable": true, "units": 60, "kernel_regularizer": {"config": {"l1": 0.0, "l2": 0.0010000000474974513}, "class_name": "L1L2"}, "bias_regularizer": null, "activation": "relu", "kernel_initializer": {"config": {"distribution": "normal", "seed": 3014, "scale": 1.0, "mode": "fan_avg"}, "class_name": "VarianceScaling"}, "use_bias": true, "bias_initializer": {"config": {}, "class_name": "Zeros"}, "activity_regularizer": null, "bias_constraint": null, "kernel_constraint": null}, "inbound_nodes": [[["B1", 0, 0, {}]]], "class_name": "Dense"}, {"name": "B3_0", "config": {"name": "B3_0", "trainable": true, "units": 60, "kernel_regularizer": {"config": {"l1": 0.0, "l2": 0.0010000000474974513}, "class_name": "L1L2"}, "bias_regularizer": null, "activation": "relu", "kernel_initializer": {"config": {"distribution": "normal", "seed": 3014, "scale": 1.0, "mode": "fan_avg"}, "class_name": "VarianceScaling"}, "use_bias": true, "bias_initializer": {"config": {}, "class_name": "Zeros"}, "activity_regularizer": null, "bias_constraint": null, "kernel_constraint": null}, "inbound_nodes": [[["B3", 0, 0, {}]]], "class_name": "Dense"}, {"name": "D1_0", "config": {"name": "D1_0", "trainable": true, "units": 60, "kernel_regularizer": {"config": {"l1": 0.0, "l2": 0.0010000000474974513}, "class_name": "L1L2"}, "bias_regularizer": null, "activation": "relu", "kernel_initializer": {"config": {"distribution": "normal", "seed": 3014, "scale": 1.0, "mode": "fan_avg"}, "class_name": "VarianceScaling"}, "use_bias": true, "bias_initializer": {"config": {}, "class_name": "Zeros"}, "activity_regularizer": null, "bias_constraint": null, "kernel_constraint": null}, "inbound_nodes": [[["D1", 0, 0, {}]]], "class_name": "Dense"}, {"name": "C1_1", "config": {"name": "C1_1", "trainable": true, "units": 60, "kernel_regularizer": {"config": {"l1": 0.0, "l2": 0.0010000000474974513}, "class_name": "L1L2"}, "bias_regularizer": null, "activation": "relu", "kernel_initializer": {"config": {"distribution": "normal", "seed": 3014, "scale": 1.0, "mode": "fan_avg"}, "class_name": "VarianceScaling"}, "use_bias": true, "bias_initializer": {"config": {}, "class_name": "Zeros"}, "activity_regularizer": null, "bias_constraint": null, "kernel_constraint": null}, "inbound_nodes": [[["C1_0", 0, 0, {}]]], "class_name": "Dense"}, {"name": "C2_1", "config": {"name": "C2_1", "trainable": true, "units": 60, "kernel_regularizer": {"config": {"l1": 0.0, "l2": 0.0010000000474974513}, "class_name": "L1L2"}, "bias_regularizer": null, "activation": "relu", "kernel_initializer": {"config": {"distribution": "normal", "seed": 3014, "scale": 1.0, "mode": "fan_avg"}, "class_name": "VarianceScaling"}, "use_bias": true, "bias_initializer": {"config": {}, "class_name": "Zeros"}, "activity_regularizer": null, "bias_constraint": null, "kernel_constraint": null}, "inbound_nodes": [[["C2_0", 0, 0, {}]]], "class_name": "Dense"}, {"name": "C3_1", "config": {"name": "C3_1", "trainable": true, "units": 60, "kernel_regularizer": {"config": {"l1": 0.0, "l2": 0.0010000000474974513}, "class_name": "L1L2"}, "bias_regularizer": null, "activation": "relu", "kernel_initializer": {"config": {"distribution": "normal", "seed": 3014, "scale": 1.0, "mode": "fan_avg"}, "class_name": "VarianceScaling"}, "use_bias": true, "bias_initializer": {"config": {}, "class_name": "Zeros"}, "activity_regularizer": null, "bias_constraint": null, "kernel_constraint": null}, "inbound_nodes": [[["C3_0", 0, 0, {}]]], "class_name": "Dense"}, {"name": "C4_1", "config": {"name": "C4_1", "trainable": true, "units": 60, "kernel_regularizer": {"config": {"l1": 0.0, "l2": 0.0010000000474974513}, "class_name": "L1L2"}, "bias_regularizer": null, "activation": "relu", "kernel_initializer": {"config": {"distribution": "normal", "seed": 3014, "scale": 1.0, "mode": "fan_avg"}, "class_name": "VarianceScaling"}, "use_bias": true, "bias_initializer": {"config": {}, "class_name": "Zeros"}, "activity_regularizer": null, "bias_constraint": null, "kernel_constraint": null}, "inbound_nodes": [[["C4_0", 0, 0, {}]]], "class_name": "Dense"}, {"name": "B1_1", "config": {"name": "B1_1", "trainable": true, "units": 60, "kernel_regularizer": {"config": {"l1": 0.0, "l2": 0.0010000000474974513}, "class_name": "L1L2"}, "bias_regularizer": null, "activation": "relu", "kernel_initializer": {"config": {"distribution": "normal", "seed": 3014, "scale": 1.0, "mode": "fan_avg"}, "class_name": "VarianceScaling"}, "use_bias": true, "bias_initializer": {"config": {}, "class_name": "Zeros"}, "activity_regularizer": null, "bias_constraint": null, "kernel_constraint": null}, "inbound_nodes": [[["B1_0", 0, 0, {}]]], "class_name": "Dense"}, {"name": "B3_1", "config": {"name": "B3_1", "trainable": true, "units": 60, "kernel_regularizer": {"config": {"l1": 0.0, "l2": 0.0010000000474974513}, "class_name": "L1L2"}, "bias_regularizer": null, "activation": "relu", "kernel_initializer": {"config": {"distribution": "normal", "seed": 3014, "scale": 1.0, "mode": "fan_avg"}, "class_name": "VarianceScaling"}, "use_bias": true, "bias_initializer": {"config": {}, "class_name": "Zeros"}, "activity_regularizer": null, "bias_constraint": null, "kernel_constraint": null}, "inbound_nodes": [[["B3_0", 0, 0, {}]]], "class_name": "Dense"}, {"name": "D1_1", "config": {"name": "D1_1", "trainable": true, "units": 60, "kernel_regularizer": {"config": {"l1": 0.0, "l2": 0.0010000000474974513}, "class_name": "L1L2"}, "bias_regularizer": null, "activation": "relu", "kernel_initializer": {"config": {"distribution": "normal", "seed": 3014, "scale": 1.0, "mode": "fan_avg"}, "class_name": "VarianceScaling"}, "use_bias": true, "bias_initializer": {"config": {}, "class_name": "Zeros"}, "activity_regularizer": null, "bias_constraint": null, "kernel_constraint": null}, "inbound_nodes": [[["D1_0", 0, 0, {}]]], "class_name": "Dense"}, {"name": "OnOff_C1", "config": {"batch_input_shape": [null, 1], "name": "OnOff_C1", "sparse": false, "dtype": "float32"}, "inbound_nodes": [], "class_name": "InputLayer"}, {"name": "C1_o", "config": {"name": "C1_o", "trainable": true, "units": 1, "kernel_regularizer": {"config": {"l1": 0.0, "l2": 0.0010000000474974513}, "class_name": "L1L2"}, "bias_regularizer": null, "activation": "relu", "kernel_initializer": {"config": {"distribution": "normal", "seed": 3014, "scale": 1.0, "mode": "fan_avg"}, "class_name": "VarianceScaling"}, "use_bias": true, "bias_initializer": {"config": {}, "class_name": "Zeros"}, "activity_regularizer": null, "bias_constraint": null, "kernel_constraint": null}, "inbound_nodes": [[["C1_1", 0, 0, {}]]], "class_name": "Dense"}, {"name": "OnOff_C2", "config": {"batch_input_shape": [null, 1], "name": "OnOff_C2", "sparse": false, "dtype": "float32"}, "inbound_nodes": [], "class_name": "InputLayer"}, {"name": "C2_o", "config": {"name": "C2_o", "trainable": true, "units": 1, "kernel_regularizer": {"config": {"l1": 0.0, "l2": 0.0010000000474974513}, "class_name": "L1L2"}, "bias_regularizer": null, "activation": "relu", "kernel_initializer": {"config": {"distribution": "normal", "seed": 3014, "scale": 1.0, "mode": "fan_avg"}, "class_name": "VarianceScaling"}, "use_bias": true, "bias_initializer": {"config": {}, "class_name": "Zeros"}, "activity_regularizer": null, "bias_constraint": null, "kernel_constraint": null}, "inbound_nodes": [[["C2_1", 0, 0, {}]]], "class_name": "Dense"}, {"name": "OnOff_C3", "config": {"batch_input_shape": [null, 1], "name": "OnOff_C3", "sparse": false, "dtype": "float32"}, "inbound_nodes": [], "class_name": "InputLayer"}, {"name": "C3_o", "config": {"name": "C3_o", "trainable": true, "units": 1, "kernel_regularizer": {"config": {"l1": 0.0, "l2": 0.0010000000474974513}, "class_name": "L1L2"}, "bias_regularizer": null, "activation": "relu", "kernel_initializer": {"config": {"distribution": "normal", "seed": 3014, "scale": 1.0, "mode": "fan_avg"}, "class_name": "VarianceScaling"}, "use_bias": true, "bias_initializer": {"config": {}, "class_name": "Zeros"}, "activity_regularizer": null, "bias_constraint": null, "kernel_constraint": null}, "inbound_nodes": [[["C3_1", 0, 0, {}]]], "class_name": "Dense"}, {"name": "OnOff_C4", "config": {"batch_input_shape": [null, 1], "name": "OnOff_C4", "sparse": false, "dtype": "float32"}, "inbound_nodes": [], "class_name": "InputLayer"}, {"name": "C4_o", "config": {"name": "C4_o", "trainable": true, "units": 1, "kernel_regularizer": {"config": {"l1": 0.0, "l2": 0.0010000000474974513}, "class_name": "L1L2"}, "bias_regularizer": null, "activation": "relu", "kernel_initializer": {"config": {"distribution": "normal", "seed": 3014, "scale": 1.0, "mode": "fan_avg"}, "class_name": "VarianceScaling"}, "use_bias": true, "bias_initializer": {"config": {}, "class_name": "Zeros"}, "activity_regularizer": null, "bias_constraint": null, "kernel_constraint": null}, "inbound_nodes": [[["C4_1", 0, 0, {}]]], "class_name": "Dense"}, {"name": "OnOff_B1", "config": {"batch_input_shape": [null, 1], "name": "OnOff_B1", "sparse": false, "dtype": "float32"}, "inbound_nodes": [], "class_name": "InputLayer"}, {"name": "B1_o", "config": {"name": "B1_o", "trainable": true, "units": 1, "kernel_regularizer": {"config": {"l1": 0.0, "l2": 0.0010000000474974513}, "class_name": "L1L2"}, "bias_regularizer": null, "activation": "relu", "kernel_initializer": {"config": {"distribution": "normal", "seed": 3014, "scale": 1.0, "mode": "fan_avg"}, "class_name": "VarianceScaling"}, "use_bias": true, "bias_initializer": {"config": {}, "class_name": "Zeros"}, "activity_regularizer": null, "bias_constraint": null, "kernel_constraint": null}, "inbound_nodes": [[["B1_1", 0, 0, {}]]], "class_name": "Dense"}, {"name": "OnOff_B3", "config": {"batch_input_shape": [null, 1], "name": "OnOff_B3", "sparse": false, "dtype": "float32"}, "inbound_nodes": [], "class_name": "InputLayer"}, {"name": "B3_o", "config": {"name": "B3_o", "trainable": true, "units": 1, "kernel_regularizer": {"config": {"l1": 0.0, "l2": 0.0010000000474974513}, "class_name": "L1L2"}, "bias_regularizer": null, "activation": "relu", "kernel_initializer": {"config": {"distribution": "normal", "seed": 3014, "scale": 1.0, "mode": "fan_avg"}, "class_name": "VarianceScaling"}, "use_bias": true, "bias_initializer": {"config": {}, "class_name": "Zeros"}, "activity_regularizer": null, "bias_constraint": null, "kernel_constraint": null}, "inbound_nodes": [[["B3_1", 0, 0, {}]]], "class_name": "Dense"}, {"name": "OnOff_D1", "config": {"batch_input_shape": [null, 1], "name": "OnOff_D1", "sparse": false, "dtype": "float32"}, "inbound_nodes": [], "class_name": "InputLayer"}, {"name": "D1_o", "config": {"name": "D1_o", "trainable": true, "units": 1, "kernel_regularizer": {"config": {"l1": 0.0, "l2": 0.0010000000474974513}, "class_name": "L1L2"}, "bias_regularizer": null, "activation": "relu", "kernel_initializer": {"config": {"distribution": "normal", "seed": 3014, "scale": 1.0, "mode": "fan_avg"}, "class_name": "VarianceScaling"}, "use_bias": true, "bias_initializer": {"config": {}, "class_name": "Zeros"}, "activity_regularizer": null, "bias_constraint": null, "kernel_constraint": null}, "inbound_nodes": [[["D1_1", 0, 0, {}]]], "class_name": "Dense"}, {"name": "C1_out", "config": {"name": "C1_out", "trainable": true}, "inbound_nodes": [[["OnOff_C1", 0, 0, {}], ["C1_o", 0, 0, {}]]], "class_name": "Multiply"}, {"name": "C2_out", "config": {"name": "C2_out", "trainable": true}, "inbound_nodes": [[["OnOff_C2", 0, 0, {}], ["C2_o", 0, 0, {}]]], "class_name": "Multiply"}, {"name": "C3_out", "config": {"name": "C3_out", "trainable": true}, "inbound_nodes": [[["OnOff_C3", 0, 0, {}], ["C3_o", 0, 0, {}]]], "class_name": "Multiply"}, {"name": "C4_out", "config": {"name": "C4_out", "trainable": true}, "inbound_nodes": [[["OnOff_C4", 0, 0, {}], ["C4_o", 0, 0, {}]]], "class_name": "Multiply"}, {"name": "B1_out", "config": {"name": "B1_out", "trainable": true}, "inbound_nodes": [[["OnOff_B1", 0, 0, {}], ["B1_o", 0, 0, {}]]], "class_name": "Multiply"}, {"name": "B3_out", "config": {"name": "B3_out", "trainable": true}, "inbound_nodes": [[["OnOff_B3", 0, 0, {}], ["B3_o", 0, 0, {}]]], "class_name": "Multiply"}, {"name": "D1_out", "config": {"name": "D1_out", "trainable": true}, "inbound_nodes": [[["OnOff_D1", 0, 0, {}], ["D1_o", 0, 0, {}]]], "class_name": "Multiply"}, {"name": "GJOA_TOTAL", "config": {"name": "GJOA_TOTAL", "trainable": true}, "inbound_nodes": [[["C1_out", 0, 0, {}], ["C2_out", 0, 0, {}], ["C3_out", 0, 0, {}], ["C4_out", 0, 0, {}], ["B1_out", 0, 0, {}], ["B3_out", 0, 0, {}], ["D1_out", 0, 0, {}]]], "class_name": "Add"}], "output_layers": [["C1_out", 0, 0], ["C2_out", 0, 0], ["C3_out", 0, 0], ["C4_out", 0, 0], ["B1_out", 0, 0], ["B3_out", 0, 0], ["D1_out", 0, 0], ["GJOA_TOTAL", 0, 0]]}, "backend": "theano", "class_name": "Model"}