{"config": {"input_layers": [["C1", 0, 0], ["C2", 0, 0], ["C3", 0, 0], ["C4", 0, 0], ["B1", 0, 0], ["B3", 0, 0], ["D1", 0, 0], ["OnOff_C1", 0, 0], ["OnOff_C2", 0, 0], ["OnOff_C3", 0, 0], ["OnOff_C4", 0, 0], ["OnOff_B1", 0, 0], ["OnOff_B3", 0, 0], ["OnOff_D1", 0, 0]], "name": "model_1", "output_layers": [["C1_out", 0, 0], ["C2_out", 0, 0], ["C3_out", 0, 0], ["C4_out", 0, 0], ["B1_out", 0, 0], ["B3_out", 0, 0], ["D1_out", 0, 0], ["GJOA_TOTAL", 0, 0]], "layers": [{"config": {"batch_input_shape": [null, 4], "name": "C1", "sparse": false, "dtype": "float32"}, "name": "C1", "inbound_nodes": [], "class_name": "InputLayer"}, {"config": {"batch_input_shape": [null, 3], "name": "C2", "sparse": false, "dtype": "float32"}, "name": "C2", "inbound_nodes": [], "class_name": "InputLayer"}, {"config": {"batch_input_shape": [null, 4], "name": "C3", "sparse": false, "dtype": "float32"}, "name": "C3", "inbound_nodes": [], "class_name": "InputLayer"}, {"config": {"batch_input_shape": [null, 4], "name": "C4", "sparse": false, "dtype": "float32"}, "name": "C4", "inbound_nodes": [], "class_name": "InputLayer"}, {"config": {"batch_input_shape": [null, 4], "name": "B1", "sparse": false, "dtype": "float32"}, "name": "B1", "inbound_nodes": [], "class_name": "InputLayer"}, {"config": {"batch_input_shape": [null, 4], "name": "B3", "sparse": false, "dtype": "float32"}, "name": "B3", "inbound_nodes": [], "class_name": "InputLayer"}, {"config": {"batch_input_shape": [null, 3], "name": "D1", "sparse": false, "dtype": "float32"}, "name": "D1", "inbound_nodes": [], "class_name": "InputLayer"}, {"config": {"name": "C1_0", "bias_initializer": {"config": {}, "class_name": "Zeros"}, "trainable": true, "units": 60, "activation": "relu", "use_bias": true, "bias_regularizer": null, "kernel_regularizer": {"config": {"l2": 0.0010000000474974513, "l1": 0.0}, "class_name": "L1L2"}, "bias_constraint": null, "kernel_initializer": {"config": {"scale": 1.0, "mode": "fan_avg", "distribution": "normal", "seed": 3014}, "class_name": "VarianceScaling"}, "kernel_constraint": null, "activity_regularizer": null}, "name": "C1_0", "inbound_nodes": [[["C1", 0, 0, {}]]], "class_name": "Dense"}, {"config": {"name": "C2_0", "bias_initializer": {"config": {}, "class_name": "Zeros"}, "trainable": true, "units": 60, "activation": "relu", "use_bias": true, "bias_regularizer": null, "kernel_regularizer": {"config": {"l2": 0.0010000000474974513, "l1": 0.0}, "class_name": "L1L2"}, "bias_constraint": null, "kernel_initializer": {"config": {"scale": 1.0, "mode": "fan_avg", "distribution": "normal", "seed": 3014}, "class_name": "VarianceScaling"}, "kernel_constraint": null, "activity_regularizer": null}, "name": "C2_0", "inbound_nodes": [[["C2", 0, 0, {}]]], "class_name": "Dense"}, {"config": {"name": "C3_0", "bias_initializer": {"config": {}, "class_name": "Zeros"}, "trainable": true, "units": 60, "activation": "relu", "use_bias": true, "bias_regularizer": null, "kernel_regularizer": {"config": {"l2": 0.0010000000474974513, "l1": 0.0}, "class_name": "L1L2"}, "bias_constraint": null, "kernel_initializer": {"config": {"scale": 1.0, "mode": "fan_avg", "distribution": "normal", "seed": 3014}, "class_name": "VarianceScaling"}, "kernel_constraint": null, "activity_regularizer": null}, "name": "C3_0", "inbound_nodes": [[["C3", 0, 0, {}]]], "class_name": "Dense"}, {"config": {"name": "C4_0", "bias_initializer": {"config": {}, "class_name": "Zeros"}, "trainable": true, "units": 60, "activation": "relu", "use_bias": true, "bias_regularizer": null, "kernel_regularizer": {"config": {"l2": 0.0010000000474974513, "l1": 0.0}, "class_name": "L1L2"}, "bias_constraint": null, "kernel_initializer": {"config": {"scale": 1.0, "mode": "fan_avg", "distribution": "normal", "seed": 3014}, "class_name": "VarianceScaling"}, "kernel_constraint": null, "activity_regularizer": null}, "name": "C4_0", "inbound_nodes": [[["C4", 0, 0, {}]]], "class_name": "Dense"}, {"config": {"name": "B1_0", "bias_initializer": {"config": {}, "class_name": "Zeros"}, "trainable": true, "units": 60, "activation": "relu", "use_bias": true, "bias_regularizer": null, "kernel_regularizer": {"config": {"l2": 0.0010000000474974513, "l1": 0.0}, "class_name": "L1L2"}, "bias_constraint": null, "kernel_initializer": {"config": {"scale": 1.0, "mode": "fan_avg", "distribution": "normal", "seed": 3014}, "class_name": "VarianceScaling"}, "kernel_constraint": null, "activity_regularizer": null}, "name": "B1_0", "inbound_nodes": [[["B1", 0, 0, {}]]], "class_name": "Dense"}, {"config": {"name": "B3_0", "bias_initializer": {"config": {}, "class_name": "Zeros"}, "trainable": true, "units": 60, "activation": "relu", "use_bias": true, "bias_regularizer": null, "kernel_regularizer": {"config": {"l2": 0.0010000000474974513, "l1": 0.0}, "class_name": "L1L2"}, "bias_constraint": null, "kernel_initializer": {"config": {"scale": 1.0, "mode": "fan_avg", "distribution": "normal", "seed": 3014}, "class_name": "VarianceScaling"}, "kernel_constraint": null, "activity_regularizer": null}, "name": "B3_0", "inbound_nodes": [[["B3", 0, 0, {}]]], "class_name": "Dense"}, {"config": {"name": "D1_0", "bias_initializer": {"config": {}, "class_name": "Zeros"}, "trainable": true, "units": 60, "activation": "relu", "use_bias": true, "bias_regularizer": null, "kernel_regularizer": {"config": {"l2": 0.0010000000474974513, "l1": 0.0}, "class_name": "L1L2"}, "bias_constraint": null, "kernel_initializer": {"config": {"scale": 1.0, "mode": "fan_avg", "distribution": "normal", "seed": 3014}, "class_name": "VarianceScaling"}, "kernel_constraint": null, "activity_regularizer": null}, "name": "D1_0", "inbound_nodes": [[["D1", 0, 0, {}]]], "class_name": "Dense"}, {"config": {"name": "C1_1", "bias_initializer": {"config": {}, "class_name": "Zeros"}, "trainable": true, "units": 60, "activation": "relu", "use_bias": true, "bias_regularizer": null, "kernel_regularizer": {"config": {"l2": 0.0010000000474974513, "l1": 0.0}, "class_name": "L1L2"}, "bias_constraint": null, "kernel_initializer": {"config": {"scale": 1.0, "mode": "fan_avg", "distribution": "normal", "seed": 3014}, "class_name": "VarianceScaling"}, "kernel_constraint": null, "activity_regularizer": null}, "name": "C1_1", "inbound_nodes": [[["C1_0", 0, 0, {}]]], "class_name": "Dense"}, {"config": {"name": "C2_1", "bias_initializer": {"config": {}, "class_name": "Zeros"}, "trainable": true, "units": 60, "activation": "relu", "use_bias": true, "bias_regularizer": null, "kernel_regularizer": {"config": {"l2": 0.0010000000474974513, "l1": 0.0}, "class_name": "L1L2"}, "bias_constraint": null, "kernel_initializer": {"config": {"scale": 1.0, "mode": "fan_avg", "distribution": "normal", "seed": 3014}, "class_name": "VarianceScaling"}, "kernel_constraint": null, "activity_regularizer": null}, "name": "C2_1", "inbound_nodes": [[["C2_0", 0, 0, {}]]], "class_name": "Dense"}, {"config": {"name": "C3_1", "bias_initializer": {"config": {}, "class_name": "Zeros"}, "trainable": true, "units": 60, "activation": "relu", "use_bias": true, "bias_regularizer": null, "kernel_regularizer": {"config": {"l2": 0.0010000000474974513, "l1": 0.0}, "class_name": "L1L2"}, "bias_constraint": null, "kernel_initializer": {"config": {"scale": 1.0, "mode": "fan_avg", "distribution": "normal", "seed": 3014}, "class_name": "VarianceScaling"}, "kernel_constraint": null, "activity_regularizer": null}, "name": "C3_1", "inbound_nodes": [[["C3_0", 0, 0, {}]]], "class_name": "Dense"}, {"config": {"name": "C4_1", "bias_initializer": {"config": {}, "class_name": "Zeros"}, "trainable": true, "units": 60, "activation": "relu", "use_bias": true, "bias_regularizer": null, "kernel_regularizer": {"config": {"l2": 0.0010000000474974513, "l1": 0.0}, "class_name": "L1L2"}, "bias_constraint": null, "kernel_initializer": {"config": {"scale": 1.0, "mode": "fan_avg", "distribution": "normal", "seed": 3014}, "class_name": "VarianceScaling"}, "kernel_constraint": null, "activity_regularizer": null}, "name": "C4_1", "inbound_nodes": [[["C4_0", 0, 0, {}]]], "class_name": "Dense"}, {"config": {"name": "B1_1", "bias_initializer": {"config": {}, "class_name": "Zeros"}, "trainable": true, "units": 60, "activation": "relu", "use_bias": true, "bias_regularizer": null, "kernel_regularizer": {"config": {"l2": 0.0010000000474974513, "l1": 0.0}, "class_name": "L1L2"}, "bias_constraint": null, "kernel_initializer": {"config": {"scale": 1.0, "mode": "fan_avg", "distribution": "normal", "seed": 3014}, "class_name": "VarianceScaling"}, "kernel_constraint": null, "activity_regularizer": null}, "name": "B1_1", "inbound_nodes": [[["B1_0", 0, 0, {}]]], "class_name": "Dense"}, {"config": {"name": "B3_1", "bias_initializer": {"config": {}, "class_name": "Zeros"}, "trainable": true, "units": 60, "activation": "relu", "use_bias": true, "bias_regularizer": null, "kernel_regularizer": {"config": {"l2": 0.0010000000474974513, "l1": 0.0}, "class_name": "L1L2"}, "bias_constraint": null, "kernel_initializer": {"config": {"scale": 1.0, "mode": "fan_avg", "distribution": "normal", "seed": 3014}, "class_name": "VarianceScaling"}, "kernel_constraint": null, "activity_regularizer": null}, "name": "B3_1", "inbound_nodes": [[["B3_0", 0, 0, {}]]], "class_name": "Dense"}, {"config": {"name": "D1_1", "bias_initializer": {"config": {}, "class_name": "Zeros"}, "trainable": true, "units": 60, "activation": "relu", "use_bias": true, "bias_regularizer": null, "kernel_regularizer": {"config": {"l2": 0.0010000000474974513, "l1": 0.0}, "class_name": "L1L2"}, "bias_constraint": null, "kernel_initializer": {"config": {"scale": 1.0, "mode": "fan_avg", "distribution": "normal", "seed": 3014}, "class_name": "VarianceScaling"}, "kernel_constraint": null, "activity_regularizer": null}, "name": "D1_1", "inbound_nodes": [[["D1_0", 0, 0, {}]]], "class_name": "Dense"}, {"config": {"batch_input_shape": [null, 1], "name": "OnOff_C1", "sparse": false, "dtype": "float32"}, "name": "OnOff_C1", "inbound_nodes": [], "class_name": "InputLayer"}, {"config": {"name": "C1_o", "bias_initializer": {"config": {}, "class_name": "Zeros"}, "trainable": true, "units": 1, "activation": "relu", "use_bias": true, "bias_regularizer": null, "kernel_regularizer": {"config": {"l2": 0.0010000000474974513, "l1": 0.0}, "class_name": "L1L2"}, "bias_constraint": null, "kernel_initializer": {"config": {"scale": 1.0, "mode": "fan_avg", "distribution": "normal", "seed": 3014}, "class_name": "VarianceScaling"}, "kernel_constraint": null, "activity_regularizer": null}, "name": "C1_o", "inbound_nodes": [[["C1_1", 0, 0, {}]]], "class_name": "Dense"}, {"config": {"batch_input_shape": [null, 1], "name": "OnOff_C2", "sparse": false, "dtype": "float32"}, "name": "OnOff_C2", "inbound_nodes": [], "class_name": "InputLayer"}, {"config": {"name": "C2_o", "bias_initializer": {"config": {}, "class_name": "Zeros"}, "trainable": true, "units": 1, "activation": "relu", "use_bias": true, "bias_regularizer": null, "kernel_regularizer": {"config": {"l2": 0.0010000000474974513, "l1": 0.0}, "class_name": "L1L2"}, "bias_constraint": null, "kernel_initializer": {"config": {"scale": 1.0, "mode": "fan_avg", "distribution": "normal", "seed": 3014}, "class_name": "VarianceScaling"}, "kernel_constraint": null, "activity_regularizer": null}, "name": "C2_o", "inbound_nodes": [[["C2_1", 0, 0, {}]]], "class_name": "Dense"}, {"config": {"batch_input_shape": [null, 1], "name": "OnOff_C3", "sparse": false, "dtype": "float32"}, "name": "OnOff_C3", "inbound_nodes": [], "class_name": "InputLayer"}, {"config": {"name": "C3_o", "bias_initializer": {"config": {}, "class_name": "Zeros"}, "trainable": true, "units": 1, "activation": "relu", "use_bias": true, "bias_regularizer": null, "kernel_regularizer": {"config": {"l2": 0.0010000000474974513, "l1": 0.0}, "class_name": "L1L2"}, "bias_constraint": null, "kernel_initializer": {"config": {"scale": 1.0, "mode": "fan_avg", "distribution": "normal", "seed": 3014}, "class_name": "VarianceScaling"}, "kernel_constraint": null, "activity_regularizer": null}, "name": "C3_o", "inbound_nodes": [[["C3_1", 0, 0, {}]]], "class_name": "Dense"}, {"config": {"batch_input_shape": [null, 1], "name": "OnOff_C4", "sparse": false, "dtype": "float32"}, "name": "OnOff_C4", "inbound_nodes": [], "class_name": "InputLayer"}, {"config": {"name": "C4_o", "bias_initializer": {"config": {}, "class_name": "Zeros"}, "trainable": true, "units": 1, "activation": "relu", "use_bias": true, "bias_regularizer": null, "kernel_regularizer": {"config": {"l2": 0.0010000000474974513, "l1": 0.0}, "class_name": "L1L2"}, "bias_constraint": null, "kernel_initializer": {"config": {"scale": 1.0, "mode": "fan_avg", "distribution": "normal", "seed": 3014}, "class_name": "VarianceScaling"}, "kernel_constraint": null, "activity_regularizer": null}, "name": "C4_o", "inbound_nodes": [[["C4_1", 0, 0, {}]]], "class_name": "Dense"}, {"config": {"batch_input_shape": [null, 1], "name": "OnOff_B1", "sparse": false, "dtype": "float32"}, "name": "OnOff_B1", "inbound_nodes": [], "class_name": "InputLayer"}, {"config": {"name": "B1_o", "bias_initializer": {"config": {}, "class_name": "Zeros"}, "trainable": true, "units": 1, "activation": "relu", "use_bias": true, "bias_regularizer": null, "kernel_regularizer": {"config": {"l2": 0.0010000000474974513, "l1": 0.0}, "class_name": "L1L2"}, "bias_constraint": null, "kernel_initializer": {"config": {"scale": 1.0, "mode": "fan_avg", "distribution": "normal", "seed": 3014}, "class_name": "VarianceScaling"}, "kernel_constraint": null, "activity_regularizer": null}, "name": "B1_o", "inbound_nodes": [[["B1_1", 0, 0, {}]]], "class_name": "Dense"}, {"config": {"batch_input_shape": [null, 1], "name": "OnOff_B3", "sparse": false, "dtype": "float32"}, "name": "OnOff_B3", "inbound_nodes": [], "class_name": "InputLayer"}, {"config": {"name": "B3_o", "bias_initializer": {"config": {}, "class_name": "Zeros"}, "trainable": true, "units": 1, "activation": "relu", "use_bias": true, "bias_regularizer": null, "kernel_regularizer": {"config": {"l2": 0.0010000000474974513, "l1": 0.0}, "class_name": "L1L2"}, "bias_constraint": null, "kernel_initializer": {"config": {"scale": 1.0, "mode": "fan_avg", "distribution": "normal", "seed": 3014}, "class_name": "VarianceScaling"}, "kernel_constraint": null, "activity_regularizer": null}, "name": "B3_o", "inbound_nodes": [[["B3_1", 0, 0, {}]]], "class_name": "Dense"}, {"config": {"batch_input_shape": [null, 1], "name": "OnOff_D1", "sparse": false, "dtype": "float32"}, "name": "OnOff_D1", "inbound_nodes": [], "class_name": "InputLayer"}, {"config": {"name": "D1_o", "bias_initializer": {"config": {}, "class_name": "Zeros"}, "trainable": true, "units": 1, "activation": "relu", "use_bias": true, "bias_regularizer": null, "kernel_regularizer": {"config": {"l2": 0.0010000000474974513, "l1": 0.0}, "class_name": "L1L2"}, "bias_constraint": null, "kernel_initializer": {"config": {"scale": 1.0, "mode": "fan_avg", "distribution": "normal", "seed": 3014}, "class_name": "VarianceScaling"}, "kernel_constraint": null, "activity_regularizer": null}, "name": "D1_o", "inbound_nodes": [[["D1_1", 0, 0, {}]]], "class_name": "Dense"}, {"config": {"name": "C1_out", "trainable": true}, "name": "C1_out", "inbound_nodes": [[["OnOff_C1", 0, 0, {}], ["C1_o", 0, 0, {}]]], "class_name": "Multiply"}, {"config": {"name": "C2_out", "trainable": true}, "name": "C2_out", "inbound_nodes": [[["OnOff_C2", 0, 0, {}], ["C2_o", 0, 0, {}]]], "class_name": "Multiply"}, {"config": {"name": "C3_out", "trainable": true}, "name": "C3_out", "inbound_nodes": [[["OnOff_C3", 0, 0, {}], ["C3_o", 0, 0, {}]]], "class_name": "Multiply"}, {"config": {"name": "C4_out", "trainable": true}, "name": "C4_out", "inbound_nodes": [[["OnOff_C4", 0, 0, {}], ["C4_o", 0, 0, {}]]], "class_name": "Multiply"}, {"config": {"name": "B1_out", "trainable": true}, "name": "B1_out", "inbound_nodes": [[["OnOff_B1", 0, 0, {}], ["B1_o", 0, 0, {}]]], "class_name": "Multiply"}, {"config": {"name": "B3_out", "trainable": true}, "name": "B3_out", "inbound_nodes": [[["OnOff_B3", 0, 0, {}], ["B3_o", 0, 0, {}]]], "class_name": "Multiply"}, {"config": {"name": "D1_out", "trainable": true}, "name": "D1_out", "inbound_nodes": [[["OnOff_D1", 0, 0, {}], ["D1_o", 0, 0, {}]]], "class_name": "Multiply"}, {"config": {"name": "GJOA_TOTAL", "trainable": true}, "name": "GJOA_TOTAL", "inbound_nodes": [[["C1_out", 0, 0, {}], ["C2_out", 0, 0, {}], ["C3_out", 0, 0, {}], ["C4_out", 0, 0, {}], ["B1_out", 0, 0, {}], ["B3_out", 0, 0, {}], ["D1_out", 0, 0, {}]]], "class_name": "Add"}]}, "backend": "theano", "keras_version": "2.0.1", "class_name": "Model"}