{"keras_version": "2.0.1", "backend": "theano", "config": {"layers": [{"name": "C1", "config": {"name": "C1", "dtype": "float32", "sparse": false, "batch_input_shape": [null, 4]}, "inbound_nodes": [], "class_name": "InputLayer"}, {"name": "C2", "config": {"name": "C2", "dtype": "float32", "sparse": false, "batch_input_shape": [null, 3]}, "inbound_nodes": [], "class_name": "InputLayer"}, {"name": "C3", "config": {"name": "C3", "dtype": "float32", "sparse": false, "batch_input_shape": [null, 4]}, "inbound_nodes": [], "class_name": "InputLayer"}, {"name": "C4", "config": {"name": "C4", "dtype": "float32", "sparse": false, "batch_input_shape": [null, 4]}, "inbound_nodes": [], "class_name": "InputLayer"}, {"name": "B1", "config": {"name": "B1", "dtype": "float32", "sparse": false, "batch_input_shape": [null, 4]}, "inbound_nodes": [], "class_name": "InputLayer"}, {"name": "B3", "config": {"name": "B3", "dtype": "float32", "sparse": false, "batch_input_shape": [null, 4]}, "inbound_nodes": [], "class_name": "InputLayer"}, {"name": "D1", "config": {"name": "D1", "dtype": "float32", "sparse": false, "batch_input_shape": [null, 3]}, "inbound_nodes": [], "class_name": "InputLayer"}, {"name": "dense_1", "config": {"name": "dense_1", "units": 50, "trainable": true, "bias_initializer": {"config": {}, "class_name": "Zeros"}, "kernel_regularizer": {"config": {"l1": 0.0, "l2": 9.999999747378752e-05}, "class_name": "L1L2"}, "use_bias": true, "kernel_constraint": null, "kernel_initializer": {"config": {"mode": "fan_avg", "distribution": "normal", "scale": 1.0, "seed": 9035}, "class_name": "VarianceScaling"}, "activity_regularizer": null, "activation": "relu", "bias_regularizer": null, "bias_constraint": null}, "inbound_nodes": [[["C1", 0, 0, {}]]], "class_name": "Dense"}, {"name": "dense_4", "config": {"name": "dense_4", "units": 50, "trainable": true, "bias_initializer": {"config": {}, "class_name": "Zeros"}, "kernel_regularizer": {"config": {"l1": 0.0, "l2": 9.999999747378752e-05}, "class_name": "L1L2"}, "use_bias": true, "kernel_constraint": null, "kernel_initializer": {"config": {"mode": "fan_avg", "distribution": "normal", "scale": 1.0, "seed": 9035}, "class_name": "VarianceScaling"}, "activity_regularizer": null, "activation": "relu", "bias_regularizer": null, "bias_constraint": null}, "inbound_nodes": [[["C2", 0, 0, {}]]], "class_name": "Dense"}, {"name": "dense_7", "config": {"name": "dense_7", "units": 50, "trainable": true, "bias_initializer": {"config": {}, "class_name": "Zeros"}, "kernel_regularizer": {"config": {"l1": 0.0, "l2": 9.999999747378752e-05}, "class_name": "L1L2"}, "use_bias": true, "kernel_constraint": null, "kernel_initializer": {"config": {"mode": "fan_avg", "distribution": "normal", "scale": 1.0, "seed": 9035}, "class_name": "VarianceScaling"}, "activity_regularizer": null, "activation": "relu", "bias_regularizer": null, "bias_constraint": null}, "inbound_nodes": [[["C3", 0, 0, {}]]], "class_name": "Dense"}, {"name": "dense_10", "config": {"name": "dense_10", "units": 50, "trainable": true, "bias_initializer": {"config": {}, "class_name": "Zeros"}, "kernel_regularizer": {"config": {"l1": 0.0, "l2": 9.999999747378752e-05}, "class_name": "L1L2"}, "use_bias": true, "kernel_constraint": null, "kernel_initializer": {"config": {"mode": "fan_avg", "distribution": "normal", "scale": 1.0, "seed": 9035}, "class_name": "VarianceScaling"}, "activity_regularizer": null, "activation": "relu", "bias_regularizer": null, "bias_constraint": null}, "inbound_nodes": [[["C4", 0, 0, {}]]], "class_name": "Dense"}, {"name": "dense_13", "config": {"name": "dense_13", "units": 50, "trainable": true, "bias_initializer": {"config": {}, "class_name": "Zeros"}, "kernel_regularizer": {"config": {"l1": 0.0, "l2": 9.999999747378752e-05}, "class_name": "L1L2"}, "use_bias": true, "kernel_constraint": null, "kernel_initializer": {"config": {"mode": "fan_avg", "distribution": "normal", "scale": 1.0, "seed": 9035}, "class_name": "VarianceScaling"}, "activity_regularizer": null, "activation": "relu", "bias_regularizer": null, "bias_constraint": null}, "inbound_nodes": [[["B1", 0, 0, {}]]], "class_name": "Dense"}, {"name": "dense_16", "config": {"name": "dense_16", "units": 50, "trainable": true, "bias_initializer": {"config": {}, "class_name": "Zeros"}, "kernel_regularizer": {"config": {"l1": 0.0, "l2": 9.999999747378752e-05}, "class_name": "L1L2"}, "use_bias": true, "kernel_constraint": null, "kernel_initializer": {"config": {"mode": "fan_avg", "distribution": "normal", "scale": 1.0, "seed": 9035}, "class_name": "VarianceScaling"}, "activity_regularizer": null, "activation": "relu", "bias_regularizer": null, "bias_constraint": null}, "inbound_nodes": [[["B3", 0, 0, {}]]], "class_name": "Dense"}, {"name": "dense_19", "config": {"name": "dense_19", "units": 50, "trainable": true, "bias_initializer": {"config": {}, "class_name": "Zeros"}, "kernel_regularizer": {"config": {"l1": 0.0, "l2": 9.999999747378752e-05}, "class_name": "L1L2"}, "use_bias": true, "kernel_constraint": null, "kernel_initializer": {"config": {"mode": "fan_avg", "distribution": "normal", "scale": 1.0, "seed": 9035}, "class_name": "VarianceScaling"}, "activity_regularizer": null, "activation": "relu", "bias_regularizer": null, "bias_constraint": null}, "inbound_nodes": [[["D1", 0, 0, {}]]], "class_name": "Dense"}, {"name": "dense_2", "config": {"name": "dense_2", "units": 50, "trainable": true, "bias_initializer": {"config": {}, "class_name": "Zeros"}, "kernel_regularizer": {"config": {"l1": 0.0, "l2": 9.999999747378752e-05}, "class_name": "L1L2"}, "use_bias": true, "kernel_constraint": null, "kernel_initializer": {"config": {"mode": "fan_avg", "distribution": "normal", "scale": 1.0, "seed": 9035}, "class_name": "VarianceScaling"}, "activity_regularizer": null, "activation": "relu", "bias_regularizer": null, "bias_constraint": null}, "inbound_nodes": [[["dense_1", 0, 0, {}]]], "class_name": "Dense"}, {"name": "dense_5", "config": {"name": "dense_5", "units": 50, "trainable": true, "bias_initializer": {"config": {}, "class_name": "Zeros"}, "kernel_regularizer": {"config": {"l1": 0.0, "l2": 9.999999747378752e-05}, "class_name": "L1L2"}, "use_bias": true, "kernel_constraint": null, "kernel_initializer": {"config": {"mode": "fan_avg", "distribution": "normal", "scale": 1.0, "seed": 9035}, "class_name": "VarianceScaling"}, "activity_regularizer": null, "activation": "relu", "bias_regularizer": null, "bias_constraint": null}, "inbound_nodes": [[["dense_4", 0, 0, {}]]], "class_name": "Dense"}, {"name": "dense_8", "config": {"name": "dense_8", "units": 50, "trainable": true, "bias_initializer": {"config": {}, "class_name": "Zeros"}, "kernel_regularizer": {"config": {"l1": 0.0, "l2": 9.999999747378752e-05}, "class_name": "L1L2"}, "use_bias": true, "kernel_constraint": null, "kernel_initializer": {"config": {"mode": "fan_avg", "distribution": "normal", "scale": 1.0, "seed": 9035}, "class_name": "VarianceScaling"}, "activity_regularizer": null, "activation": "relu", "bias_regularizer": null, "bias_constraint": null}, "inbound_nodes": [[["dense_7", 0, 0, {}]]], "class_name": "Dense"}, {"name": "dense_11", "config": {"name": "dense_11", "units": 50, "trainable": true, "bias_initializer": {"config": {}, "class_name": "Zeros"}, "kernel_regularizer": {"config": {"l1": 0.0, "l2": 9.999999747378752e-05}, "class_name": "L1L2"}, "use_bias": true, "kernel_constraint": null, "kernel_initializer": {"config": {"mode": "fan_avg", "distribution": "normal", "scale": 1.0, "seed": 9035}, "class_name": "VarianceScaling"}, "activity_regularizer": null, "activation": "relu", "bias_regularizer": null, "bias_constraint": null}, "inbound_nodes": [[["dense_10", 0, 0, {}]]], "class_name": "Dense"}, {"name": "dense_14", "config": {"name": "dense_14", "units": 50, "trainable": true, "bias_initializer": {"config": {}, "class_name": "Zeros"}, "kernel_regularizer": {"config": {"l1": 0.0, "l2": 9.999999747378752e-05}, "class_name": "L1L2"}, "use_bias": true, "kernel_constraint": null, "kernel_initializer": {"config": {"mode": "fan_avg", "distribution": "normal", "scale": 1.0, "seed": 9035}, "class_name": "VarianceScaling"}, "activity_regularizer": null, "activation": "relu", "bias_regularizer": null, "bias_constraint": null}, "inbound_nodes": [[["dense_13", 0, 0, {}]]], "class_name": "Dense"}, {"name": "dense_17", "config": {"name": "dense_17", "units": 50, "trainable": true, "bias_initializer": {"config": {}, "class_name": "Zeros"}, "kernel_regularizer": {"config": {"l1": 0.0, "l2": 9.999999747378752e-05}, "class_name": "L1L2"}, "use_bias": true, "kernel_constraint": null, "kernel_initializer": {"config": {"mode": "fan_avg", "distribution": "normal", "scale": 1.0, "seed": 9035}, "class_name": "VarianceScaling"}, "activity_regularizer": null, "activation": "relu", "bias_regularizer": null, "bias_constraint": null}, "inbound_nodes": [[["dense_16", 0, 0, {}]]], "class_name": "Dense"}, {"name": "dense_20", "config": {"name": "dense_20", "units": 50, "trainable": true, "bias_initializer": {"config": {}, "class_name": "Zeros"}, "kernel_regularizer": {"config": {"l1": 0.0, "l2": 9.999999747378752e-05}, "class_name": "L1L2"}, "use_bias": true, "kernel_constraint": null, "kernel_initializer": {"config": {"mode": "fan_avg", "distribution": "normal", "scale": 1.0, "seed": 9035}, "class_name": "VarianceScaling"}, "activity_regularizer": null, "activation": "relu", "bias_regularizer": null, "bias_constraint": null}, "inbound_nodes": [[["dense_19", 0, 0, {}]]], "class_name": "Dense"}, {"name": "OnOff_C1", "config": {"name": "OnOff_C1", "dtype": "float32", "sparse": false, "batch_input_shape": [null, 1]}, "inbound_nodes": [], "class_name": "InputLayer"}, {"name": "dense_3", "config": {"name": "dense_3", "units": 1, "trainable": true, "bias_initializer": {"config": {}, "class_name": "Zeros"}, "kernel_regularizer": {"config": {"l1": 0.0, "l2": 9.999999747378752e-05}, "class_name": "L1L2"}, "use_bias": true, "kernel_constraint": null, "kernel_initializer": {"config": {"mode": "fan_avg", "distribution": "normal", "scale": 1.0, "seed": 9035}, "class_name": "VarianceScaling"}, "activity_regularizer": null, "activation": "relu", "bias_regularizer": null, "bias_constraint": null}, "inbound_nodes": [[["dense_2", 0, 0, {}]]], "class_name": "Dense"}, {"name": "OnOff_C2", "config": {"name": "OnOff_C2", "dtype": "float32", "sparse": false, "batch_input_shape": [null, 1]}, "inbound_nodes": [], "class_name": "InputLayer"}, {"name": "dense_6", "config": {"name": "dense_6", "units": 1, "trainable": true, "bias_initializer": {"config": {}, "class_name": "Zeros"}, "kernel_regularizer": {"config": {"l1": 0.0, "l2": 9.999999747378752e-05}, "class_name": "L1L2"}, "use_bias": true, "kernel_constraint": null, "kernel_initializer": {"config": {"mode": "fan_avg", "distribution": "normal", "scale": 1.0, "seed": 9035}, "class_name": "VarianceScaling"}, "activity_regularizer": null, "activation": "relu", "bias_regularizer": null, "bias_constraint": null}, "inbound_nodes": [[["dense_5", 0, 0, {}]]], "class_name": "Dense"}, {"name": "OnOff_C3", "config": {"name": "OnOff_C3", "dtype": "float32", "sparse": false, "batch_input_shape": [null, 1]}, "inbound_nodes": [], "class_name": "InputLayer"}, {"name": "dense_9", "config": {"name": "dense_9", "units": 1, "trainable": true, "bias_initializer": {"config": {}, "class_name": "Zeros"}, "kernel_regularizer": {"config": {"l1": 0.0, "l2": 9.999999747378752e-05}, "class_name": "L1L2"}, "use_bias": true, "kernel_constraint": null, "kernel_initializer": {"config": {"mode": "fan_avg", "distribution": "normal", "scale": 1.0, "seed": 9035}, "class_name": "VarianceScaling"}, "activity_regularizer": null, "activation": "relu", "bias_regularizer": null, "bias_constraint": null}, "inbound_nodes": [[["dense_8", 0, 0, {}]]], "class_name": "Dense"}, {"name": "OnOff_C4", "config": {"name": "OnOff_C4", "dtype": "float32", "sparse": false, "batch_input_shape": [null, 1]}, "inbound_nodes": [], "class_name": "InputLayer"}, {"name": "dense_12", "config": {"name": "dense_12", "units": 1, "trainable": true, "bias_initializer": {"config": {}, "class_name": "Zeros"}, "kernel_regularizer": {"config": {"l1": 0.0, "l2": 9.999999747378752e-05}, "class_name": "L1L2"}, "use_bias": true, "kernel_constraint": null, "kernel_initializer": {"config": {"mode": "fan_avg", "distribution": "normal", "scale": 1.0, "seed": 9035}, "class_name": "VarianceScaling"}, "activity_regularizer": null, "activation": "relu", "bias_regularizer": null, "bias_constraint": null}, "inbound_nodes": [[["dense_11", 0, 0, {}]]], "class_name": "Dense"}, {"name": "OnOff_B1", "config": {"name": "OnOff_B1", "dtype": "float32", "sparse": false, "batch_input_shape": [null, 1]}, "inbound_nodes": [], "class_name": "InputLayer"}, {"name": "dense_15", "config": {"name": "dense_15", "units": 1, "trainable": true, "bias_initializer": {"config": {}, "class_name": "Zeros"}, "kernel_regularizer": {"config": {"l1": 0.0, "l2": 9.999999747378752e-05}, "class_name": "L1L2"}, "use_bias": true, "kernel_constraint": null, "kernel_initializer": {"config": {"mode": "fan_avg", "distribution": "normal", "scale": 1.0, "seed": 9035}, "class_name": "VarianceScaling"}, "activity_regularizer": null, "activation": "relu", "bias_regularizer": null, "bias_constraint": null}, "inbound_nodes": [[["dense_14", 0, 0, {}]]], "class_name": "Dense"}, {"name": "OnOff_B3", "config": {"name": "OnOff_B3", "dtype": "float32", "sparse": false, "batch_input_shape": [null, 1]}, "inbound_nodes": [], "class_name": "InputLayer"}, {"name": "dense_18", "config": {"name": "dense_18", "units": 1, "trainable": true, "bias_initializer": {"config": {}, "class_name": "Zeros"}, "kernel_regularizer": {"config": {"l1": 0.0, "l2": 9.999999747378752e-05}, "class_name": "L1L2"}, "use_bias": true, "kernel_constraint": null, "kernel_initializer": {"config": {"mode": "fan_avg", "distribution": "normal", "scale": 1.0, "seed": 9035}, "class_name": "VarianceScaling"}, "activity_regularizer": null, "activation": "relu", "bias_regularizer": null, "bias_constraint": null}, "inbound_nodes": [[["dense_17", 0, 0, {}]]], "class_name": "Dense"}, {"name": "OnOff_D1", "config": {"name": "OnOff_D1", "dtype": "float32", "sparse": false, "batch_input_shape": [null, 1]}, "inbound_nodes": [], "class_name": "InputLayer"}, {"name": "dense_21", "config": {"name": "dense_21", "units": 1, "trainable": true, "bias_initializer": {"config": {}, "class_name": "Zeros"}, "kernel_regularizer": {"config": {"l1": 0.0, "l2": 9.999999747378752e-05}, "class_name": "L1L2"}, "use_bias": true, "kernel_constraint": null, "kernel_initializer": {"config": {"mode": "fan_avg", "distribution": "normal", "scale": 1.0, "seed": 9035}, "class_name": "VarianceScaling"}, "activity_regularizer": null, "activation": "relu", "bias_regularizer": null, "bias_constraint": null}, "inbound_nodes": [[["dense_20", 0, 0, {}]]], "class_name": "Dense"}, {"name": "C1_out", "config": {"name": "C1_out", "trainable": true}, "inbound_nodes": [[["OnOff_C1", 0, 0, {}], ["dense_3", 0, 0, {}]]], "class_name": "Multiply"}, {"name": "C2_out", "config": {"name": "C2_out", "trainable": true}, "inbound_nodes": [[["OnOff_C2", 0, 0, {}], ["dense_6", 0, 0, {}]]], "class_name": "Multiply"}, {"name": "C3_out", "config": {"name": "C3_out", "trainable": true}, "inbound_nodes": [[["OnOff_C3", 0, 0, {}], ["dense_9", 0, 0, {}]]], "class_name": "Multiply"}, {"name": "C4_out", "config": {"name": "C4_out", "trainable": true}, "inbound_nodes": [[["OnOff_C4", 0, 0, {}], ["dense_12", 0, 0, {}]]], "class_name": "Multiply"}, {"name": "B1_out", "config": {"name": "B1_out", "trainable": true}, "inbound_nodes": [[["OnOff_B1", 0, 0, {}], ["dense_15", 0, 0, {}]]], "class_name": "Multiply"}, {"name": "B3_out", "config": {"name": "B3_out", "trainable": true}, "inbound_nodes": [[["OnOff_B3", 0, 0, {}], ["dense_18", 0, 0, {}]]], "class_name": "Multiply"}, {"name": "D1_out", "config": {"name": "D1_out", "trainable": true}, "inbound_nodes": [[["OnOff_D1", 0, 0, {}], ["dense_21", 0, 0, {}]]], "class_name": "Multiply"}, {"name": "GJOA_TOTAL", "config": {"name": "GJOA_TOTAL", "trainable": true}, "inbound_nodes": [[["C1_out", 0, 0, {}], ["C2_out", 0, 0, {}], ["C3_out", 0, 0, {}], ["C4_out", 0, 0, {}], ["B1_out", 0, 0, {}], ["B3_out", 0, 0, {}], ["D1_out", 0, 0, {}]]], "class_name": "Add"}], "name": "model_1", "output_layers": [["C1_out", 0, 0], ["C2_out", 0, 0], ["C3_out", 0, 0], ["C4_out", 0, 0], ["B1_out", 0, 0], ["B3_out", 0, 0], ["D1_out", 0, 0], ["GJOA_TOTAL", 0, 0]], "input_layers": [["C1", 0, 0], ["C2", 0, 0], ["C3", 0, 0], ["C4", 0, 0], ["B1", 0, 0], ["B3", 0, 0], ["D1", 0, 0], ["OnOff_C1", 0, 0], ["OnOff_C2", 0, 0], ["OnOff_C3", 0, 0], ["OnOff_C4", 0, 0], ["OnOff_B1", 0, 0], ["OnOff_B3", 0, 0], ["OnOff_D1", 0, 0]]}, "class_name": "Model"}