{"keras_version": "2.0.1", "config": {"name": "model_2", "layers": [{"name": "F1", "inbound_nodes": [], "config": {"name": "F1", "sparse": false, "dtype": "float32", "batch_input_shape": [null, 4]}, "class_name": "InputLayer"}, {"name": "B2", "inbound_nodes": [], "config": {"name": "B2", "sparse": false, "dtype": "float32", "batch_input_shape": [null, 4]}, "class_name": "InputLayer"}, {"name": "D3", "inbound_nodes": [], "config": {"name": "D3", "sparse": false, "dtype": "float32", "batch_input_shape": [null, 4]}, "class_name": "InputLayer"}, {"name": "E1", "inbound_nodes": [], "config": {"name": "E1", "sparse": false, "dtype": "float32", "batch_input_shape": [null, 4]}, "class_name": "InputLayer"}, {"name": "dense_13", "inbound_nodes": [[["F1", 0, 0, {}]]], "config": {"activation": "relu", "kernel_regularizer": {"config": {"l1": 0.0, "l2": 0.0001500000071246177}, "class_name": "L1L2"}, "trainable": true, "name": "dense_13", "kernel_initializer": {"config": {"distribution": "normal", "mode": "fan_avg", "scale": 1.0, "seed": 3014}, "class_name": "VarianceScaling"}, "use_bias": true, "bias_regularizer": null, "bias_initializer": {"config": {}, "class_name": "Zeros"}, "kernel_constraint": null, "bias_constraint": null, "activity_regularizer": null, "units": 90}, "class_name": "Dense"}, {"name": "dense_16", "inbound_nodes": [[["B2", 0, 0, {}]]], "config": {"activation": "relu", "kernel_regularizer": {"config": {"l1": 0.0, "l2": 0.0001500000071246177}, "class_name": "L1L2"}, "trainable": true, "name": "dense_16", "kernel_initializer": {"config": {"distribution": "normal", "mode": "fan_avg", "scale": 1.0, "seed": 3014}, "class_name": "VarianceScaling"}, "use_bias": true, "bias_regularizer": null, "bias_initializer": {"config": {}, "class_name": "Zeros"}, "kernel_constraint": null, "bias_constraint": null, "activity_regularizer": null, "units": 90}, "class_name": "Dense"}, {"name": "dense_19", "inbound_nodes": [[["D3", 0, 0, {}]]], "config": {"activation": "relu", "kernel_regularizer": {"config": {"l1": 0.0, "l2": 0.0001500000071246177}, "class_name": "L1L2"}, "trainable": true, "name": "dense_19", "kernel_initializer": {"config": {"distribution": "normal", "mode": "fan_avg", "scale": 1.0, "seed": 3014}, "class_name": "VarianceScaling"}, "use_bias": true, "bias_regularizer": null, "bias_initializer": {"config": {}, "class_name": "Zeros"}, "kernel_constraint": null, "bias_constraint": null, "activity_regularizer": null, "units": 90}, "class_name": "Dense"}, {"name": "dense_22", "inbound_nodes": [[["E1", 0, 0, {}]]], "config": {"activation": "relu", "kernel_regularizer": {"config": {"l1": 0.0, "l2": 0.0001500000071246177}, "class_name": "L1L2"}, "trainable": true, "name": "dense_22", "kernel_initializer": {"config": {"distribution": "normal", "mode": "fan_avg", "scale": 1.0, "seed": 3014}, "class_name": "VarianceScaling"}, "use_bias": true, "bias_regularizer": null, "bias_initializer": {"config": {}, "class_name": "Zeros"}, "kernel_constraint": null, "bias_constraint": null, "activity_regularizer": null, "units": 90}, "class_name": "Dense"}, {"name": "dense_14", "inbound_nodes": [[["dense_13", 0, 0, {}]]], "config": {"activation": "relu", "kernel_regularizer": {"config": {"l1": 0.0, "l2": 0.0001500000071246177}, "class_name": "L1L2"}, "trainable": true, "name": "dense_14", "kernel_initializer": {"config": {"distribution": "normal", "mode": "fan_avg", "scale": 1.0, "seed": 3014}, "class_name": "VarianceScaling"}, "use_bias": true, "bias_regularizer": null, "bias_initializer": {"config": {}, "class_name": "Zeros"}, "kernel_constraint": null, "bias_constraint": null, "activity_regularizer": null, "units": 90}, "class_name": "Dense"}, {"name": "dense_17", "inbound_nodes": [[["dense_16", 0, 0, {}]]], "config": {"activation": "relu", "kernel_regularizer": {"config": {"l1": 0.0, "l2": 0.0001500000071246177}, "class_name": "L1L2"}, "trainable": true, "name": "dense_17", "kernel_initializer": {"config": {"distribution": "normal", "mode": "fan_avg", "scale": 1.0, "seed": 3014}, "class_name": "VarianceScaling"}, "use_bias": true, "bias_regularizer": null, "bias_initializer": {"config": {}, "class_name": "Zeros"}, "kernel_constraint": null, "bias_constraint": null, "activity_regularizer": null, "units": 90}, "class_name": "Dense"}, {"name": "dense_20", "inbound_nodes": [[["dense_19", 0, 0, {}]]], "config": {"activation": "relu", "kernel_regularizer": {"config": {"l1": 0.0, "l2": 0.0001500000071246177}, "class_name": "L1L2"}, "trainable": true, "name": "dense_20", "kernel_initializer": {"config": {"distribution": "normal", "mode": "fan_avg", "scale": 1.0, "seed": 3014}, "class_name": "VarianceScaling"}, "use_bias": true, "bias_regularizer": null, "bias_initializer": {"config": {}, "class_name": "Zeros"}, "kernel_constraint": null, "bias_constraint": null, "activity_regularizer": null, "units": 90}, "class_name": "Dense"}, {"name": "dense_23", "inbound_nodes": [[["dense_22", 0, 0, {}]]], "config": {"activation": "relu", "kernel_regularizer": {"config": {"l1": 0.0, "l2": 0.0001500000071246177}, "class_name": "L1L2"}, "trainable": true, "name": "dense_23", "kernel_initializer": {"config": {"distribution": "normal", "mode": "fan_avg", "scale": 1.0, "seed": 3014}, "class_name": "VarianceScaling"}, "use_bias": true, "bias_regularizer": null, "bias_initializer": {"config": {}, "class_name": "Zeros"}, "kernel_constraint": null, "bias_constraint": null, "activity_regularizer": null, "units": 90}, "class_name": "Dense"}, {"name": "OnOff_F1", "inbound_nodes": [], "config": {"name": "OnOff_F1", "sparse": false, "dtype": "float32", "batch_input_shape": [null, 1]}, "class_name": "InputLayer"}, {"name": "dense_15", "inbound_nodes": [[["dense_14", 0, 0, {}]]], "config": {"activation": "relu", "kernel_regularizer": {"config": {"l1": 0.0, "l2": 0.0001500000071246177}, "class_name": "L1L2"}, "trainable": true, "name": "dense_15", "kernel_initializer": {"config": {"distribution": "normal", "mode": "fan_avg", "scale": 1.0, "seed": 3014}, "class_name": "VarianceScaling"}, "use_bias": true, "bias_regularizer": null, "bias_initializer": {"config": {}, "class_name": "Zeros"}, "kernel_constraint": null, "bias_constraint": null, "activity_regularizer": null, "units": 1}, "class_name": "Dense"}, {"name": "OnOff_B2", "inbound_nodes": [], "config": {"name": "OnOff_B2", "sparse": false, "dtype": "float32", "batch_input_shape": [null, 1]}, "class_name": "InputLayer"}, {"name": "dense_18", "inbound_nodes": [[["dense_17", 0, 0, {}]]], "config": {"activation": "relu", "kernel_regularizer": {"config": {"l1": 0.0, "l2": 0.0001500000071246177}, "class_name": "L1L2"}, "trainable": true, "name": "dense_18", "kernel_initializer": {"config": {"distribution": "normal", "mode": "fan_avg", "scale": 1.0, "seed": 3014}, "class_name": "VarianceScaling"}, "use_bias": true, "bias_regularizer": null, "bias_initializer": {"config": {}, "class_name": "Zeros"}, "kernel_constraint": null, "bias_constraint": null, "activity_regularizer": null, "units": 1}, "class_name": "Dense"}, {"name": "OnOff_D3", "inbound_nodes": [], "config": {"name": "OnOff_D3", "sparse": false, "dtype": "float32", "batch_input_shape": [null, 1]}, "class_name": "InputLayer"}, {"name": "dense_21", "inbound_nodes": [[["dense_20", 0, 0, {}]]], "config": {"activation": "relu", "kernel_regularizer": {"config": {"l1": 0.0, "l2": 0.0001500000071246177}, "class_name": "L1L2"}, "trainable": true, "name": "dense_21", "kernel_initializer": {"config": {"distribution": "normal", "mode": "fan_avg", "scale": 1.0, "seed": 3014}, "class_name": "VarianceScaling"}, "use_bias": true, "bias_regularizer": null, "bias_initializer": {"config": {}, "class_name": "Zeros"}, "kernel_constraint": null, "bias_constraint": null, "activity_regularizer": null, "units": 1}, "class_name": "Dense"}, {"name": "OnOff_E1", "inbound_nodes": [], "config": {"name": "OnOff_E1", "sparse": false, "dtype": "float32", "batch_input_shape": [null, 1]}, "class_name": "InputLayer"}, {"name": "dense_24", "inbound_nodes": [[["dense_23", 0, 0, {}]]], "config": {"activation": "relu", "kernel_regularizer": {"config": {"l1": 0.0, "l2": 0.0001500000071246177}, "class_name": "L1L2"}, "trainable": true, "name": "dense_24", "kernel_initializer": {"config": {"distribution": "normal", "mode": "fan_avg", "scale": 1.0, "seed": 3014}, "class_name": "VarianceScaling"}, "use_bias": true, "bias_regularizer": null, "bias_initializer": {"config": {}, "class_name": "Zeros"}, "kernel_constraint": null, "bias_constraint": null, "activity_regularizer": null, "units": 1}, "class_name": "Dense"}, {"name": "F1_out", "inbound_nodes": [[["OnOff_F1", 0, 0, {}], ["dense_15", 0, 0, {}]]], "config": {"name": "F1_out", "trainable": true}, "class_name": "Multiply"}, {"name": "B2_out", "inbound_nodes": [[["OnOff_B2", 0, 0, {}], ["dense_18", 0, 0, {}]]], "config": {"name": "B2_out", "trainable": true}, "class_name": "Multiply"}, {"name": "D3_out", "inbound_nodes": [[["OnOff_D3", 0, 0, {}], ["dense_21", 0, 0, {}]]], "config": {"name": "D3_out", "trainable": true}, "class_name": "Multiply"}, {"name": "E1_out", "inbound_nodes": [[["OnOff_E1", 0, 0, {}], ["dense_24", 0, 0, {}]]], "config": {"name": "E1_out", "trainable": true}, "class_name": "Multiply"}, {"name": "GJOA_QGAS", "inbound_nodes": [[["F1_out", 0, 0, {}], ["B2_out", 0, 0, {}], ["D3_out", 0, 0, {}], ["E1_out", 0, 0, {}]]], "config": {"name": "GJOA_QGAS", "trainable": true}, "class_name": "Add"}], "input_layers": [["F1", 0, 0], ["B2", 0, 0], ["D3", 0, 0], ["E1", 0, 0], ["OnOff_F1", 0, 0], ["OnOff_B2", 0, 0], ["OnOff_D3", 0, 0], ["OnOff_E1", 0, 0]], "output_layers": [["F1_out", 0, 0], ["B2_out", 0, 0], ["D3_out", 0, 0], ["E1_out", 0, 0], ["GJOA_QGAS", 0, 0]]}, "class_name": "Model", "backend": "theano"}