{"keras_version": "2.0.1", "config": {"output_layers": [["F1_out", 0, 0], ["B2_out", 0, 0], ["D3_out", 0, 0], ["E1_out", 0, 0], ["GJOA_QGAS", 0, 0]], "layers": [{"config": {"dtype": "float32", "sparse": false, "batch_input_shape": [null, 4], "name": "F1"}, "inbound_nodes": [], "name": "F1", "class_name": "InputLayer"}, {"config": {"dtype": "float32", "sparse": false, "batch_input_shape": [null, 4], "name": "B2"}, "inbound_nodes": [], "name": "B2", "class_name": "InputLayer"}, {"config": {"dtype": "float32", "sparse": false, "batch_input_shape": [null, 4], "name": "D3"}, "inbound_nodes": [], "name": "D3", "class_name": "InputLayer"}, {"config": {"dtype": "float32", "sparse": false, "batch_input_shape": [null, 4], "name": "E1"}, "inbound_nodes": [], "name": "E1", "class_name": "InputLayer"}, {"config": {"kernel_regularizer": {"class_name": "L1L2", "config": {"l2": 0.0003000000142492354, "l1": 0.0}}, "bias_constraint": null, "use_bias": true, "units": 80, "bias_regularizer": null, "activity_regularizer": null, "activation": "relu", "kernel_initializer": {"class_name": "VarianceScaling", "config": {"mode": "fan_avg", "scale": 1.0, "seed": 9035, "distribution": "normal"}}, "trainable": true, "kernel_constraint": null, "bias_initializer": {"class_name": "Zeros", "config": {}}, "name": "dense_1"}, "inbound_nodes": [[["F1", 0, 0, {}]]], "name": "dense_1", "class_name": "Dense"}, {"config": {"kernel_regularizer": {"class_name": "L1L2", "config": {"l2": 0.0003000000142492354, "l1": 0.0}}, "bias_constraint": null, "use_bias": true, "units": 80, "bias_regularizer": null, "activity_regularizer": null, "activation": "relu", "kernel_initializer": {"class_name": "VarianceScaling", "config": {"mode": "fan_avg", "scale": 1.0, "seed": 9035, "distribution": "normal"}}, "trainable": true, "kernel_constraint": null, "bias_initializer": {"class_name": "Zeros", "config": {}}, "name": "dense_4"}, "inbound_nodes": [[["B2", 0, 0, {}]]], "name": "dense_4", "class_name": "Dense"}, {"config": {"kernel_regularizer": {"class_name": "L1L2", "config": {"l2": 0.0003000000142492354, "l1": 0.0}}, "bias_constraint": null, "use_bias": true, "units": 80, "bias_regularizer": null, "activity_regularizer": null, "activation": "relu", "kernel_initializer": {"class_name": "VarianceScaling", "config": {"mode": "fan_avg", "scale": 1.0, "seed": 9035, "distribution": "normal"}}, "trainable": true, "kernel_constraint": null, "bias_initializer": {"class_name": "Zeros", "config": {}}, "name": "dense_7"}, "inbound_nodes": [[["D3", 0, 0, {}]]], "name": "dense_7", "class_name": "Dense"}, {"config": {"kernel_regularizer": {"class_name": "L1L2", "config": {"l2": 0.0003000000142492354, "l1": 0.0}}, "bias_constraint": null, "use_bias": true, "units": 80, "bias_regularizer": null, "activity_regularizer": null, "activation": "relu", "kernel_initializer": {"class_name": "VarianceScaling", "config": {"mode": "fan_avg", "scale": 1.0, "seed": 9035, "distribution": "normal"}}, "trainable": true, "kernel_constraint": null, "bias_initializer": {"class_name": "Zeros", "config": {}}, "name": "dense_10"}, "inbound_nodes": [[["E1", 0, 0, {}]]], "name": "dense_10", "class_name": "Dense"}, {"config": {"kernel_regularizer": {"class_name": "L1L2", "config": {"l2": 0.0003000000142492354, "l1": 0.0}}, "bias_constraint": null, "use_bias": true, "units": 80, "bias_regularizer": null, "activity_regularizer": null, "activation": "relu", "kernel_initializer": {"class_name": "VarianceScaling", "config": {"mode": "fan_avg", "scale": 1.0, "seed": 9035, "distribution": "normal"}}, "trainable": true, "kernel_constraint": null, "bias_initializer": {"class_name": "Zeros", "config": {}}, "name": "dense_2"}, "inbound_nodes": [[["dense_1", 0, 0, {}]]], "name": "dense_2", "class_name": "Dense"}, {"config": {"kernel_regularizer": {"class_name": "L1L2", "config": {"l2": 0.0003000000142492354, "l1": 0.0}}, "bias_constraint": null, "use_bias": true, "units": 80, "bias_regularizer": null, "activity_regularizer": null, "activation": "relu", "kernel_initializer": {"class_name": "VarianceScaling", "config": {"mode": "fan_avg", "scale": 1.0, "seed": 9035, "distribution": "normal"}}, "trainable": true, "kernel_constraint": null, "bias_initializer": {"class_name": "Zeros", "config": {}}, "name": "dense_5"}, "inbound_nodes": [[["dense_4", 0, 0, {}]]], "name": "dense_5", "class_name": "Dense"}, {"config": {"kernel_regularizer": {"class_name": "L1L2", "config": {"l2": 0.0003000000142492354, "l1": 0.0}}, "bias_constraint": null, "use_bias": true, "units": 80, "bias_regularizer": null, "activity_regularizer": null, "activation": "relu", "kernel_initializer": {"class_name": "VarianceScaling", "config": {"mode": "fan_avg", "scale": 1.0, "seed": 9035, "distribution": "normal"}}, "trainable": true, "kernel_constraint": null, "bias_initializer": {"class_name": "Zeros", "config": {}}, "name": "dense_8"}, "inbound_nodes": [[["dense_7", 0, 0, {}]]], "name": "dense_8", "class_name": "Dense"}, {"config": {"kernel_regularizer": {"class_name": "L1L2", "config": {"l2": 0.0003000000142492354, "l1": 0.0}}, "bias_constraint": null, "use_bias": true, "units": 80, "bias_regularizer": null, "activity_regularizer": null, "activation": "relu", "kernel_initializer": {"class_name": "VarianceScaling", "config": {"mode": "fan_avg", "scale": 1.0, "seed": 9035, "distribution": "normal"}}, "trainable": true, "kernel_constraint": null, "bias_initializer": {"class_name": "Zeros", "config": {}}, "name": "dense_11"}, "inbound_nodes": [[["dense_10", 0, 0, {}]]], "name": "dense_11", "class_name": "Dense"}, {"config": {"dtype": "float32", "sparse": false, "batch_input_shape": [null, 1], "name": "OnOff_F1"}, "inbound_nodes": [], "name": "OnOff_F1", "class_name": "InputLayer"}, {"config": {"kernel_regularizer": {"class_name": "L1L2", "config": {"l2": 0.0003000000142492354, "l1": 0.0}}, "bias_constraint": null, "use_bias": true, "units": 1, "bias_regularizer": null, "activity_regularizer": null, "activation": "relu", "kernel_initializer": {"class_name": "VarianceScaling", "config": {"mode": "fan_avg", "scale": 1.0, "seed": 9035, "distribution": "normal"}}, "trainable": true, "kernel_constraint": null, "bias_initializer": {"class_name": "Zeros", "config": {}}, "name": "dense_3"}, "inbound_nodes": [[["dense_2", 0, 0, {}]]], "name": "dense_3", "class_name": "Dense"}, {"config": {"dtype": "float32", "sparse": false, "batch_input_shape": [null, 1], "name": "OnOff_B2"}, "inbound_nodes": [], "name": "OnOff_B2", "class_name": "InputLayer"}, {"config": {"kernel_regularizer": {"class_name": "L1L2", "config": {"l2": 0.0003000000142492354, "l1": 0.0}}, "bias_constraint": null, "use_bias": true, "units": 1, "bias_regularizer": null, "activity_regularizer": null, "activation": "relu", "kernel_initializer": {"class_name": "VarianceScaling", "config": {"mode": "fan_avg", "scale": 1.0, "seed": 9035, "distribution": "normal"}}, "trainable": true, "kernel_constraint": null, "bias_initializer": {"class_name": "Zeros", "config": {}}, "name": "dense_6"}, "inbound_nodes": [[["dense_5", 0, 0, {}]]], "name": "dense_6", "class_name": "Dense"}, {"config": {"dtype": "float32", "sparse": false, "batch_input_shape": [null, 1], "name": "OnOff_D3"}, "inbound_nodes": [], "name": "OnOff_D3", "class_name": "InputLayer"}, {"config": {"kernel_regularizer": {"class_name": "L1L2", "config": {"l2": 0.0003000000142492354, "l1": 0.0}}, "bias_constraint": null, "use_bias": true, "units": 1, "bias_regularizer": null, "activity_regularizer": null, "activation": "relu", "kernel_initializer": {"class_name": "VarianceScaling", "config": {"mode": "fan_avg", "scale": 1.0, "seed": 9035, "distribution": "normal"}}, "trainable": true, "kernel_constraint": null, "bias_initializer": {"class_name": "Zeros", "config": {}}, "name": "dense_9"}, "inbound_nodes": [[["dense_8", 0, 0, {}]]], "name": "dense_9", "class_name": "Dense"}, {"config": {"dtype": "float32", "sparse": false, "batch_input_shape": [null, 1], "name": "OnOff_E1"}, "inbound_nodes": [], "name": "OnOff_E1", "class_name": "InputLayer"}, {"config": {"kernel_regularizer": {"class_name": "L1L2", "config": {"l2": 0.0003000000142492354, "l1": 0.0}}, "bias_constraint": null, "use_bias": true, "units": 1, "bias_regularizer": null, "activity_regularizer": null, "activation": "relu", "kernel_initializer": {"class_name": "VarianceScaling", "config": {"mode": "fan_avg", "scale": 1.0, "seed": 9035, "distribution": "normal"}}, "trainable": true, "kernel_constraint": null, "bias_initializer": {"class_name": "Zeros", "config": {}}, "name": "dense_12"}, "inbound_nodes": [[["dense_11", 0, 0, {}]]], "name": "dense_12", "class_name": "Dense"}, {"config": {"trainable": true, "name": "F1_out"}, "inbound_nodes": [[["OnOff_F1", 0, 0, {}], ["dense_3", 0, 0, {}]]], "name": "F1_out", "class_name": "Multiply"}, {"config": {"trainable": true, "name": "B2_out"}, "inbound_nodes": [[["OnOff_B2", 0, 0, {}], ["dense_6", 0, 0, {}]]], "name": "B2_out", "class_name": "Multiply"}, {"config": {"trainable": true, "name": "D3_out"}, "inbound_nodes": [[["OnOff_D3", 0, 0, {}], ["dense_9", 0, 0, {}]]], "name": "D3_out", "class_name": "Multiply"}, {"config": {"trainable": true, "name": "E1_out"}, "inbound_nodes": [[["OnOff_E1", 0, 0, {}], ["dense_12", 0, 0, {}]]], "name": "E1_out", "class_name": "Multiply"}, {"config": {"trainable": true, "name": "GJOA_QGAS"}, "inbound_nodes": [[["F1_out", 0, 0, {}], ["B2_out", 0, 0, {}], ["D3_out", 0, 0, {}], ["E1_out", 0, 0, {}]]], "name": "GJOA_QGAS", "class_name": "Add"}], "input_layers": [["F1", 0, 0], ["B2", 0, 0], ["D3", 0, 0], ["E1", 0, 0], ["OnOff_F1", 0, 0], ["OnOff_B2", 0, 0], ["OnOff_D3", 0, 0], ["OnOff_E1", 0, 0]], "name": "model_1"}, "backend": "theano", "class_name": "Model"}