{"class_name": "Model", "keras_version": "2.0.1", "config": {"name": "model_1", "input_layers": [["PRESSURE_INPUT", 0, 0], ["RISER_B_CHK_INPUT", 0, 0]], "layers": [{"name": "PRESSURE_INPUT", "class_name": "InputLayer", "config": {"dtype": "float32", "sparse": false, "batch_input_shape": [null, 12], "name": "PRESSURE_INPUT"}, "inbound_nodes": []}, {"name": "RISER_B_CHK_INPUT", "class_name": "InputLayer", "config": {"dtype": "float32", "sparse": false, "batch_input_shape": [null, 1], "name": "RISER_B_CHK_INPUT"}, "inbound_nodes": []}, {"name": "RISER_MERGE", "class_name": "Concatenate", "config": {"name": "RISER_MERGE", "axis": -1, "trainable": true}, "inbound_nodes": [[["PRESSURE_INPUT", 0, 0, {}], ["RISER_B_CHK_INPUT", 0, 0, {}]]]}, {"name": "C1_PDC_0", "class_name": "Dense", "config": {"activation": "relu", "bias_initializer": {"class_name": "Zeros", "config": {}}, "kernel_regularizer": {"class_name": "L1L2", "config": {"l1": 0.0, "l2": 9.999999747378752e-06}}, "bias_constraint": null, "kernel_initializer": {"class_name": "VarianceScaling", "config": {"scale": 1.0, "distribution": "normal", "mode": "fan_avg", "seed": 3014}}, "name": "C1_PDC_0", "bias_regularizer": null, "kernel_constraint": null, "use_bias": true, "activity_regularizer": null, "trainable": true, "units": 100}, "inbound_nodes": [[["RISER_MERGE", 0, 0, {}]]]}, {"name": "C2_PDC_0", "class_name": "Dense", "config": {"activation": "relu", "bias_initializer": {"class_name": "Zeros", "config": {}}, "kernel_regularizer": {"class_name": "L1L2", "config": {"l1": 0.0, "l2": 9.999999747378752e-06}}, "bias_constraint": null, "kernel_initializer": {"class_name": "VarianceScaling", "config": {"scale": 1.0, "distribution": "normal", "mode": "fan_avg", "seed": 3014}}, "name": "C2_PDC_0", "bias_regularizer": null, "kernel_constraint": null, "use_bias": true, "activity_regularizer": null, "trainable": true, "units": 100}, "inbound_nodes": [[["RISER_MERGE", 0, 0, {}]]]}, {"name": "C3_PDC_0", "class_name": "Dense", "config": {"activation": "relu", "bias_initializer": {"class_name": "Zeros", "config": {}}, "kernel_regularizer": {"class_name": "L1L2", "config": {"l1": 0.0, "l2": 9.999999747378752e-06}}, "bias_constraint": null, "kernel_initializer": {"class_name": "VarianceScaling", "config": {"scale": 1.0, "distribution": "normal", "mode": "fan_avg", "seed": 3014}}, "name": "C3_PDC_0", "bias_regularizer": null, "kernel_constraint": null, "use_bias": true, "activity_regularizer": null, "trainable": true, "units": 100}, "inbound_nodes": [[["RISER_MERGE", 0, 0, {}]]]}, {"name": "C4_PDC_0", "class_name": "Dense", "config": {"activation": "relu", "bias_initializer": {"class_name": "Zeros", "config": {}}, "kernel_regularizer": {"class_name": "L1L2", "config": {"l1": 0.0, "l2": 9.999999747378752e-06}}, "bias_constraint": null, "kernel_initializer": {"class_name": "VarianceScaling", "config": {"scale": 1.0, "distribution": "normal", "mode": "fan_avg", "seed": 3014}}, "name": "C4_PDC_0", "bias_regularizer": null, "kernel_constraint": null, "use_bias": true, "activity_regularizer": null, "trainable": true, "units": 100}, "inbound_nodes": [[["RISER_MERGE", 0, 0, {}]]]}, {"name": "B3_PDC_0", "class_name": "Dense", "config": {"activation": "relu", "bias_initializer": {"class_name": "Zeros", "config": {}}, "kernel_regularizer": {"class_name": "L1L2", "config": {"l1": 0.0, "l2": 9.999999747378752e-06}}, "bias_constraint": null, "kernel_initializer": {"class_name": "VarianceScaling", "config": {"scale": 1.0, "distribution": "normal", "mode": "fan_avg", "seed": 3014}}, "name": "B3_PDC_0", "bias_regularizer": null, "kernel_constraint": null, "use_bias": true, "activity_regularizer": null, "trainable": true, "units": 100}, "inbound_nodes": [[["RISER_MERGE", 0, 0, {}]]]}, {"name": "B1_PDC_0", "class_name": "Dense", "config": {"activation": "relu", "bias_initializer": {"class_name": "Zeros", "config": {}}, "kernel_regularizer": {"class_name": "L1L2", "config": {"l1": 0.0, "l2": 9.999999747378752e-06}}, "bias_constraint": null, "kernel_initializer": {"class_name": "VarianceScaling", "config": {"scale": 1.0, "distribution": "normal", "mode": "fan_avg", "seed": 3014}}, "name": "B1_PDC_0", "bias_regularizer": null, "kernel_constraint": null, "use_bias": true, "activity_regularizer": null, "trainable": true, "units": 100}, "inbound_nodes": [[["RISER_MERGE", 0, 0, {}]]]}, {"name": "D1_PDC_0", "class_name": "Dense", "config": {"activation": "relu", "bias_initializer": {"class_name": "Zeros", "config": {}}, "kernel_regularizer": {"class_name": "L1L2", "config": {"l1": 0.0, "l2": 9.999999747378752e-06}}, "bias_constraint": null, "kernel_initializer": {"class_name": "VarianceScaling", "config": {"scale": 1.0, "distribution": "normal", "mode": "fan_avg", "seed": 3014}}, "name": "D1_PDC_0", "bias_regularizer": null, "kernel_constraint": null, "use_bias": true, "activity_regularizer": null, "trainable": true, "units": 100}, "inbound_nodes": [[["RISER_MERGE", 0, 0, {}]]]}, {"name": "C1_PDC_1", "class_name": "Dense", "config": {"activation": "relu", "bias_initializer": {"class_name": "Zeros", "config": {}}, "kernel_regularizer": {"class_name": "L1L2", "config": {"l1": 0.0, "l2": 9.999999747378752e-06}}, "bias_constraint": null, "kernel_initializer": {"class_name": "VarianceScaling", "config": {"scale": 1.0, "distribution": "normal", "mode": "fan_avg", "seed": 3014}}, "name": "C1_PDC_1", "bias_regularizer": null, "kernel_constraint": null, "use_bias": true, "activity_regularizer": null, "trainable": true, "units": 100}, "inbound_nodes": [[["C1_PDC_0", 0, 0, {}]]]}, {"name": "C2_PDC_1", "class_name": "Dense", "config": {"activation": "relu", "bias_initializer": {"class_name": "Zeros", "config": {}}, "kernel_regularizer": {"class_name": "L1L2", "config": {"l1": 0.0, "l2": 9.999999747378752e-06}}, "bias_constraint": null, "kernel_initializer": {"class_name": "VarianceScaling", "config": {"scale": 1.0, "distribution": "normal", "mode": "fan_avg", "seed": 3014}}, "name": "C2_PDC_1", "bias_regularizer": null, "kernel_constraint": null, "use_bias": true, "activity_regularizer": null, "trainable": true, "units": 100}, "inbound_nodes": [[["C2_PDC_0", 0, 0, {}]]]}, {"name": "C3_PDC_1", "class_name": "Dense", "config": {"activation": "relu", "bias_initializer": {"class_name": "Zeros", "config": {}}, "kernel_regularizer": {"class_name": "L1L2", "config": {"l1": 0.0, "l2": 9.999999747378752e-06}}, "bias_constraint": null, "kernel_initializer": {"class_name": "VarianceScaling", "config": {"scale": 1.0, "distribution": "normal", "mode": "fan_avg", "seed": 3014}}, "name": "C3_PDC_1", "bias_regularizer": null, "kernel_constraint": null, "use_bias": true, "activity_regularizer": null, "trainable": true, "units": 100}, "inbound_nodes": [[["C3_PDC_0", 0, 0, {}]]]}, {"name": "C4_PDC_1", "class_name": "Dense", "config": {"activation": "relu", "bias_initializer": {"class_name": "Zeros", "config": {}}, "kernel_regularizer": {"class_name": "L1L2", "config": {"l1": 0.0, "l2": 9.999999747378752e-06}}, "bias_constraint": null, "kernel_initializer": {"class_name": "VarianceScaling", "config": {"scale": 1.0, "distribution": "normal", "mode": "fan_avg", "seed": 3014}}, "name": "C4_PDC_1", "bias_regularizer": null, "kernel_constraint": null, "use_bias": true, "activity_regularizer": null, "trainable": true, "units": 100}, "inbound_nodes": [[["C4_PDC_0", 0, 0, {}]]]}, {"name": "B3_PDC_1", "class_name": "Dense", "config": {"activation": "relu", "bias_initializer": {"class_name": "Zeros", "config": {}}, "kernel_regularizer": {"class_name": "L1L2", "config": {"l1": 0.0, "l2": 9.999999747378752e-06}}, "bias_constraint": null, "kernel_initializer": {"class_name": "VarianceScaling", "config": {"scale": 1.0, "distribution": "normal", "mode": "fan_avg", "seed": 3014}}, "name": "B3_PDC_1", "bias_regularizer": null, "kernel_constraint": null, "use_bias": true, "activity_regularizer": null, "trainable": true, "units": 100}, "inbound_nodes": [[["B3_PDC_0", 0, 0, {}]]]}, {"name": "B1_PDC_1", "class_name": "Dense", "config": {"activation": "relu", "bias_initializer": {"class_name": "Zeros", "config": {}}, "kernel_regularizer": {"class_name": "L1L2", "config": {"l1": 0.0, "l2": 9.999999747378752e-06}}, "bias_constraint": null, "kernel_initializer": {"class_name": "VarianceScaling", "config": {"scale": 1.0, "distribution": "normal", "mode": "fan_avg", "seed": 3014}}, "name": "B1_PDC_1", "bias_regularizer": null, "kernel_constraint": null, "use_bias": true, "activity_regularizer": null, "trainable": true, "units": 100}, "inbound_nodes": [[["B1_PDC_0", 0, 0, {}]]]}, {"name": "D1_PDC_1", "class_name": "Dense", "config": {"activation": "relu", "bias_initializer": {"class_name": "Zeros", "config": {}}, "kernel_regularizer": {"class_name": "L1L2", "config": {"l1": 0.0, "l2": 9.999999747378752e-06}}, "bias_constraint": null, "kernel_initializer": {"class_name": "VarianceScaling", "config": {"scale": 1.0, "distribution": "normal", "mode": "fan_avg", "seed": 3014}}, "name": "D1_PDC_1", "bias_regularizer": null, "kernel_constraint": null, "use_bias": true, "activity_regularizer": null, "trainable": true, "units": 100}, "inbound_nodes": [[["D1_PDC_0", 0, 0, {}]]]}, {"name": "C1_PDC_out", "class_name": "Dense", "config": {"activation": "linear", "bias_initializer": {"class_name": "Zeros", "config": {}}, "kernel_regularizer": {"class_name": "L1L2", "config": {"l1": 0.0, "l2": 9.999999747378752e-06}}, "bias_constraint": null, "kernel_initializer": {"class_name": "VarianceScaling", "config": {"scale": 1.0, "distribution": "normal", "mode": "fan_avg", "seed": 3014}}, "name": "C1_PDC_out", "bias_regularizer": null, "kernel_constraint": null, "use_bias": true, "activity_regularizer": null, "trainable": true, "units": 1}, "inbound_nodes": [[["C1_PDC_1", 0, 0, {}]]]}, {"name": "C2_PDC_out", "class_name": "Dense", "config": {"activation": "linear", "bias_initializer": {"class_name": "Zeros", "config": {}}, "kernel_regularizer": {"class_name": "L1L2", "config": {"l1": 0.0, "l2": 9.999999747378752e-06}}, "bias_constraint": null, "kernel_initializer": {"class_name": "VarianceScaling", "config": {"scale": 1.0, "distribution": "normal", "mode": "fan_avg", "seed": 3014}}, "name": "C2_PDC_out", "bias_regularizer": null, "kernel_constraint": null, "use_bias": true, "activity_regularizer": null, "trainable": true, "units": 1}, "inbound_nodes": [[["C2_PDC_1", 0, 0, {}]]]}, {"name": "C3_PDC_out", "class_name": "Dense", "config": {"activation": "linear", "bias_initializer": {"class_name": "Zeros", "config": {}}, "kernel_regularizer": {"class_name": "L1L2", "config": {"l1": 0.0, "l2": 9.999999747378752e-06}}, "bias_constraint": null, "kernel_initializer": {"class_name": "VarianceScaling", "config": {"scale": 1.0, "distribution": "normal", "mode": "fan_avg", "seed": 3014}}, "name": "C3_PDC_out", "bias_regularizer": null, "kernel_constraint": null, "use_bias": true, "activity_regularizer": null, "trainable": true, "units": 1}, "inbound_nodes": [[["C3_PDC_1", 0, 0, {}]]]}, {"name": "C4_PDC_out", "class_name": "Dense", "config": {"activation": "linear", "bias_initializer": {"class_name": "Zeros", "config": {}}, "kernel_regularizer": {"class_name": "L1L2", "config": {"l1": 0.0, "l2": 9.999999747378752e-06}}, "bias_constraint": null, "kernel_initializer": {"class_name": "VarianceScaling", "config": {"scale": 1.0, "distribution": "normal", "mode": "fan_avg", "seed": 3014}}, "name": "C4_PDC_out", "bias_regularizer": null, "kernel_constraint": null, "use_bias": true, "activity_regularizer": null, "trainable": true, "units": 1}, "inbound_nodes": [[["C4_PDC_1", 0, 0, {}]]]}, {"name": "B3_PDC_out", "class_name": "Dense", "config": {"activation": "linear", "bias_initializer": {"class_name": "Zeros", "config": {}}, "kernel_regularizer": {"class_name": "L1L2", "config": {"l1": 0.0, "l2": 9.999999747378752e-06}}, "bias_constraint": null, "kernel_initializer": {"class_name": "VarianceScaling", "config": {"scale": 1.0, "distribution": "normal", "mode": "fan_avg", "seed": 3014}}, "name": "B3_PDC_out", "bias_regularizer": null, "kernel_constraint": null, "use_bias": true, "activity_regularizer": null, "trainable": true, "units": 1}, "inbound_nodes": [[["B3_PDC_1", 0, 0, {}]]]}, {"name": "B1_PDC_out", "class_name": "Dense", "config": {"activation": "linear", "bias_initializer": {"class_name": "Zeros", "config": {}}, "kernel_regularizer": {"class_name": "L1L2", "config": {"l1": 0.0, "l2": 9.999999747378752e-06}}, "bias_constraint": null, "kernel_initializer": {"class_name": "VarianceScaling", "config": {"scale": 1.0, "distribution": "normal", "mode": "fan_avg", "seed": 3014}}, "name": "B1_PDC_out", "bias_regularizer": null, "kernel_constraint": null, "use_bias": true, "activity_regularizer": null, "trainable": true, "units": 1}, "inbound_nodes": [[["B1_PDC_1", 0, 0, {}]]]}, {"name": "D1_PDC_out", "class_name": "Dense", "config": {"activation": "linear", "bias_initializer": {"class_name": "Zeros", "config": {}}, "kernel_regularizer": {"class_name": "L1L2", "config": {"l1": 0.0, "l2": 9.999999747378752e-06}}, "bias_constraint": null, "kernel_initializer": {"class_name": "VarianceScaling", "config": {"scale": 1.0, "distribution": "normal", "mode": "fan_avg", "seed": 3014}}, "name": "D1_PDC_out", "bias_regularizer": null, "kernel_constraint": null, "use_bias": true, "activity_regularizer": null, "trainable": true, "units": 1}, "inbound_nodes": [[["D1_PDC_1", 0, 0, {}]]]}], "output_layers": [["C1_PDC_out", 0, 0], ["C2_PDC_out", 0, 0], ["C3_PDC_out", 0, 0], ["C4_PDC_out", 0, 0], ["B3_PDC_out", 0, 0], ["B1_PDC_out", 0, 0], ["D1_PDC_out", 0, 0]]}, "backend": "theano"}