{"backend": "theano", "keras_version": "2.0.1", "config": {"layers": [{"inbound_nodes": [], "name": "PRESSURE_INPUT", "config": {"sparse": false, "batch_input_shape": [null, 12], "name": "PRESSURE_INPUT", "dtype": "float32"}, "class_name": "InputLayer"}, {"inbound_nodes": [], "name": "RISER_B_CHK_INPUT", "config": {"sparse": false, "batch_input_shape": [null, 1], "name": "RISER_B_CHK_INPUT", "dtype": "float32"}, "class_name": "InputLayer"}, {"inbound_nodes": [[["PRESSURE_INPUT", 0, 0, {}], ["RISER_B_CHK_INPUT", 0, 0, {}]]], "name": "RISER_MERGE", "config": {"axis": -1, "name": "RISER_MERGE", "trainable": true}, "class_name": "Concatenate"}, {"inbound_nodes": [[["RISER_MERGE", 0, 0, {}]]], "name": "C1_PDC_0", "config": {"bias_initializer": {"class_name": "Zeros", "config": {}}, "kernel_initializer": {"class_name": "VarianceScaling", "config": {"distribution": "normal", "seed": 3014, "scale": 1.0, "mode": "fan_avg"}}, "activation": "relu", "kernel_constraint": null, "trainable": true, "units": 80, "kernel_regularizer": {"class_name": "L1L2", "config": {"l1": 0.0, "l2": 0.003000000026077032}}, "use_bias": true, "bias_constraint": null, "bias_regularizer": null, "name": "C1_PDC_0", "activity_regularizer": null}, "class_name": "Dense"}, {"inbound_nodes": [[["RISER_MERGE", 0, 0, {}]]], "name": "C2_PDC_0", "config": {"bias_initializer": {"class_name": "Zeros", "config": {}}, "kernel_initializer": {"class_name": "VarianceScaling", "config": {"distribution": "normal", "seed": 3014, "scale": 1.0, "mode": "fan_avg"}}, "activation": "relu", "kernel_constraint": null, "trainable": true, "units": 80, "kernel_regularizer": {"class_name": "L1L2", "config": {"l1": 0.0, "l2": 0.003000000026077032}}, "use_bias": true, "bias_constraint": null, "bias_regularizer": null, "name": "C2_PDC_0", "activity_regularizer": null}, "class_name": "Dense"}, {"inbound_nodes": [[["RISER_MERGE", 0, 0, {}]]], "name": "C3_PDC_0", "config": {"bias_initializer": {"class_name": "Zeros", "config": {}}, "kernel_initializer": {"class_name": "VarianceScaling", "config": {"distribution": "normal", "seed": 3014, "scale": 1.0, "mode": "fan_avg"}}, "activation": "relu", "kernel_constraint": null, "trainable": true, "units": 80, "kernel_regularizer": {"class_name": "L1L2", "config": {"l1": 0.0, "l2": 0.003000000026077032}}, "use_bias": true, "bias_constraint": null, "bias_regularizer": null, "name": "C3_PDC_0", "activity_regularizer": null}, "class_name": "Dense"}, {"inbound_nodes": [[["RISER_MERGE", 0, 0, {}]]], "name": "C4_PDC_0", "config": {"bias_initializer": {"class_name": "Zeros", "config": {}}, "kernel_initializer": {"class_name": "VarianceScaling", "config": {"distribution": "normal", "seed": 3014, "scale": 1.0, "mode": "fan_avg"}}, "activation": "relu", "kernel_constraint": null, "trainable": true, "units": 80, "kernel_regularizer": {"class_name": "L1L2", "config": {"l1": 0.0, "l2": 0.003000000026077032}}, "use_bias": true, "bias_constraint": null, "bias_regularizer": null, "name": "C4_PDC_0", "activity_regularizer": null}, "class_name": "Dense"}, {"inbound_nodes": [[["RISER_MERGE", 0, 0, {}]]], "name": "B3_PDC_0", "config": {"bias_initializer": {"class_name": "Zeros", "config": {}}, "kernel_initializer": {"class_name": "VarianceScaling", "config": {"distribution": "normal", "seed": 3014, "scale": 1.0, "mode": "fan_avg"}}, "activation": "relu", "kernel_constraint": null, "trainable": true, "units": 80, "kernel_regularizer": {"class_name": "L1L2", "config": {"l1": 0.0, "l2": 0.003000000026077032}}, "use_bias": true, "bias_constraint": null, "bias_regularizer": null, "name": "B3_PDC_0", "activity_regularizer": null}, "class_name": "Dense"}, {"inbound_nodes": [[["RISER_MERGE", 0, 0, {}]]], "name": "B1_PDC_0", "config": {"bias_initializer": {"class_name": "Zeros", "config": {}}, "kernel_initializer": {"class_name": "VarianceScaling", "config": {"distribution": "normal", "seed": 3014, "scale": 1.0, "mode": "fan_avg"}}, "activation": "relu", "kernel_constraint": null, "trainable": true, "units": 80, "kernel_regularizer": {"class_name": "L1L2", "config": {"l1": 0.0, "l2": 0.003000000026077032}}, "use_bias": true, "bias_constraint": null, "bias_regularizer": null, "name": "B1_PDC_0", "activity_regularizer": null}, "class_name": "Dense"}, {"inbound_nodes": [[["RISER_MERGE", 0, 0, {}]]], "name": "D1_PDC_0", "config": {"bias_initializer": {"class_name": "Zeros", "config": {}}, "kernel_initializer": {"class_name": "VarianceScaling", "config": {"distribution": "normal", "seed": 3014, "scale": 1.0, "mode": "fan_avg"}}, "activation": "relu", "kernel_constraint": null, "trainable": true, "units": 80, "kernel_regularizer": {"class_name": "L1L2", "config": {"l1": 0.0, "l2": 0.003000000026077032}}, "use_bias": true, "bias_constraint": null, "bias_regularizer": null, "name": "D1_PDC_0", "activity_regularizer": null}, "class_name": "Dense"}, {"inbound_nodes": [[["C1_PDC_0", 0, 0, {}]]], "name": "C1_PDC_1", "config": {"bias_initializer": {"class_name": "Zeros", "config": {}}, "kernel_initializer": {"class_name": "VarianceScaling", "config": {"distribution": "normal", "seed": 3014, "scale": 1.0, "mode": "fan_avg"}}, "activation": "relu", "kernel_constraint": null, "trainable": true, "units": 80, "kernel_regularizer": {"class_name": "L1L2", "config": {"l1": 0.0, "l2": 0.003000000026077032}}, "use_bias": true, "bias_constraint": null, "bias_regularizer": null, "name": "C1_PDC_1", "activity_regularizer": null}, "class_name": "Dense"}, {"inbound_nodes": [[["C2_PDC_0", 0, 0, {}]]], "name": "C2_PDC_1", "config": {"bias_initializer": {"class_name": "Zeros", "config": {}}, "kernel_initializer": {"class_name": "VarianceScaling", "config": {"distribution": "normal", "seed": 3014, "scale": 1.0, "mode": "fan_avg"}}, "activation": "relu", "kernel_constraint": null, "trainable": true, "units": 80, "kernel_regularizer": {"class_name": "L1L2", "config": {"l1": 0.0, "l2": 0.003000000026077032}}, "use_bias": true, "bias_constraint": null, "bias_regularizer": null, "name": "C2_PDC_1", "activity_regularizer": null}, "class_name": "Dense"}, {"inbound_nodes": [[["C3_PDC_0", 0, 0, {}]]], "name": "C3_PDC_1", "config": {"bias_initializer": {"class_name": "Zeros", "config": {}}, "kernel_initializer": {"class_name": "VarianceScaling", "config": {"distribution": "normal", "seed": 3014, "scale": 1.0, "mode": "fan_avg"}}, "activation": "relu", "kernel_constraint": null, "trainable": true, "units": 80, "kernel_regularizer": {"class_name": "L1L2", "config": {"l1": 0.0, "l2": 0.003000000026077032}}, "use_bias": true, "bias_constraint": null, "bias_regularizer": null, "name": "C3_PDC_1", "activity_regularizer": null}, "class_name": "Dense"}, {"inbound_nodes": [[["C4_PDC_0", 0, 0, {}]]], "name": "C4_PDC_1", "config": {"bias_initializer": {"class_name": "Zeros", "config": {}}, "kernel_initializer": {"class_name": "VarianceScaling", "config": {"distribution": "normal", "seed": 3014, "scale": 1.0, "mode": "fan_avg"}}, "activation": "relu", "kernel_constraint": null, "trainable": true, "units": 80, "kernel_regularizer": {"class_name": "L1L2", "config": {"l1": 0.0, "l2": 0.003000000026077032}}, "use_bias": true, "bias_constraint": null, "bias_regularizer": null, "name": "C4_PDC_1", "activity_regularizer": null}, "class_name": "Dense"}, {"inbound_nodes": [[["B3_PDC_0", 0, 0, {}]]], "name": "B3_PDC_1", "config": {"bias_initializer": {"class_name": "Zeros", "config": {}}, "kernel_initializer": {"class_name": "VarianceScaling", "config": {"distribution": "normal", "seed": 3014, "scale": 1.0, "mode": "fan_avg"}}, "activation": "relu", "kernel_constraint": null, "trainable": true, "units": 80, "kernel_regularizer": {"class_name": "L1L2", "config": {"l1": 0.0, "l2": 0.003000000026077032}}, "use_bias": true, "bias_constraint": null, "bias_regularizer": null, "name": "B3_PDC_1", "activity_regularizer": null}, "class_name": "Dense"}, {"inbound_nodes": [[["B1_PDC_0", 0, 0, {}]]], "name": "B1_PDC_1", "config": {"bias_initializer": {"class_name": "Zeros", "config": {}}, "kernel_initializer": {"class_name": "VarianceScaling", "config": {"distribution": "normal", "seed": 3014, "scale": 1.0, "mode": "fan_avg"}}, "activation": "relu", "kernel_constraint": null, "trainable": true, "units": 80, "kernel_regularizer": {"class_name": "L1L2", "config": {"l1": 0.0, "l2": 0.003000000026077032}}, "use_bias": true, "bias_constraint": null, "bias_regularizer": null, "name": "B1_PDC_1", "activity_regularizer": null}, "class_name": "Dense"}, {"inbound_nodes": [[["D1_PDC_0", 0, 0, {}]]], "name": "D1_PDC_1", "config": {"bias_initializer": {"class_name": "Zeros", "config": {}}, "kernel_initializer": {"class_name": "VarianceScaling", "config": {"distribution": "normal", "seed": 3014, "scale": 1.0, "mode": "fan_avg"}}, "activation": "relu", "kernel_constraint": null, "trainable": true, "units": 80, "kernel_regularizer": {"class_name": "L1L2", "config": {"l1": 0.0, "l2": 0.003000000026077032}}, "use_bias": true, "bias_constraint": null, "bias_regularizer": null, "name": "D1_PDC_1", "activity_regularizer": null}, "class_name": "Dense"}, {"inbound_nodes": [[["C1_PDC_1", 0, 0, {}]]], "name": "C1_PDC_out", "config": {"bias_initializer": {"class_name": "Zeros", "config": {}}, "kernel_initializer": {"class_name": "VarianceScaling", "config": {"distribution": "normal", "seed": 3014, "scale": 1.0, "mode": "fan_avg"}}, "activation": "linear", "kernel_constraint": null, "trainable": true, "units": 1, "kernel_regularizer": {"class_name": "L1L2", "config": {"l1": 0.0, "l2": 0.003000000026077032}}, "use_bias": true, "bias_constraint": null, "bias_regularizer": null, "name": "C1_PDC_out", "activity_regularizer": null}, "class_name": "Dense"}, {"inbound_nodes": [[["C2_PDC_1", 0, 0, {}]]], "name": "C2_PDC_out", "config": {"bias_initializer": {"class_name": "Zeros", "config": {}}, "kernel_initializer": {"class_name": "VarianceScaling", "config": {"distribution": "normal", "seed": 3014, "scale": 1.0, "mode": "fan_avg"}}, "activation": "linear", "kernel_constraint": null, "trainable": true, "units": 1, "kernel_regularizer": {"class_name": "L1L2", "config": {"l1": 0.0, "l2": 0.003000000026077032}}, "use_bias": true, "bias_constraint": null, "bias_regularizer": null, "name": "C2_PDC_out", "activity_regularizer": null}, "class_name": "Dense"}, {"inbound_nodes": [[["C3_PDC_1", 0, 0, {}]]], "name": "C3_PDC_out", "config": {"bias_initializer": {"class_name": "Zeros", "config": {}}, "kernel_initializer": {"class_name": "VarianceScaling", "config": {"distribution": "normal", "seed": 3014, "scale": 1.0, "mode": "fan_avg"}}, "activation": "linear", "kernel_constraint": null, "trainable": true, "units": 1, "kernel_regularizer": {"class_name": "L1L2", "config": {"l1": 0.0, "l2": 0.003000000026077032}}, "use_bias": true, "bias_constraint": null, "bias_regularizer": null, "name": "C3_PDC_out", "activity_regularizer": null}, "class_name": "Dense"}, {"inbound_nodes": [[["C4_PDC_1", 0, 0, {}]]], "name": "C4_PDC_out", "config": {"bias_initializer": {"class_name": "Zeros", "config": {}}, "kernel_initializer": {"class_name": "VarianceScaling", "config": {"distribution": "normal", "seed": 3014, "scale": 1.0, "mode": "fan_avg"}}, "activation": "linear", "kernel_constraint": null, "trainable": true, "units": 1, "kernel_regularizer": {"class_name": "L1L2", "config": {"l1": 0.0, "l2": 0.003000000026077032}}, "use_bias": true, "bias_constraint": null, "bias_regularizer": null, "name": "C4_PDC_out", "activity_regularizer": null}, "class_name": "Dense"}, {"inbound_nodes": [[["B3_PDC_1", 0, 0, {}]]], "name": "B3_PDC_out", "config": {"bias_initializer": {"class_name": "Zeros", "config": {}}, "kernel_initializer": {"class_name": "VarianceScaling", "config": {"distribution": "normal", "seed": 3014, "scale": 1.0, "mode": "fan_avg"}}, "activation": "linear", "kernel_constraint": null, "trainable": true, "units": 1, "kernel_regularizer": {"class_name": "L1L2", "config": {"l1": 0.0, "l2": 0.003000000026077032}}, "use_bias": true, "bias_constraint": null, "bias_regularizer": null, "name": "B3_PDC_out", "activity_regularizer": null}, "class_name": "Dense"}, {"inbound_nodes": [[["B1_PDC_1", 0, 0, {}]]], "name": "B1_PDC_out", "config": {"bias_initializer": {"class_name": "Zeros", "config": {}}, "kernel_initializer": {"class_name": "VarianceScaling", "config": {"distribution": "normal", "seed": 3014, "scale": 1.0, "mode": "fan_avg"}}, "activation": "linear", "kernel_constraint": null, "trainable": true, "units": 1, "kernel_regularizer": {"class_name": "L1L2", "config": {"l1": 0.0, "l2": 0.003000000026077032}}, "use_bias": true, "bias_constraint": null, "bias_regularizer": null, "name": "B1_PDC_out", "activity_regularizer": null}, "class_name": "Dense"}, {"inbound_nodes": [[["D1_PDC_1", 0, 0, {}]]], "name": "D1_PDC_out", "config": {"bias_initializer": {"class_name": "Zeros", "config": {}}, "kernel_initializer": {"class_name": "VarianceScaling", "config": {"distribution": "normal", "seed": 3014, "scale": 1.0, "mode": "fan_avg"}}, "activation": "linear", "kernel_constraint": null, "trainable": true, "units": 1, "kernel_regularizer": {"class_name": "L1L2", "config": {"l1": 0.0, "l2": 0.003000000026077032}}, "use_bias": true, "bias_constraint": null, "bias_regularizer": null, "name": "D1_PDC_out", "activity_regularizer": null}, "class_name": "Dense"}], "input_layers": [["PRESSURE_INPUT", 0, 0], ["RISER_B_CHK_INPUT", 0, 0]], "name": "model_1", "output_layers": [["C1_PDC_out", 0, 0], ["C2_PDC_out", 0, 0], ["C3_PDC_out", 0, 0], ["C4_PDC_out", 0, 0], ["B3_PDC_out", 0, 0], ["B1_PDC_out", 0, 0], ["D1_PDC_out", 0, 0]]}, "class_name": "Model"}