{"class_name": "Model", "keras_version": "2.0.1", "config": {"layers": [{"class_name": "InputLayer", "inbound_nodes": [], "config": {"batch_input_shape": [null, 4], "dtype": "float32", "sparse": false, "name": "CHK_INPUT_PREV"}, "name": "CHK_INPUT_PREV"}, {"class_name": "InputLayer", "inbound_nodes": [], "config": {"batch_input_shape": [null, 4], "dtype": "float32", "sparse": false, "name": "CHK_INPUT_NOW"}, "name": "CHK_INPUT_NOW"}, {"class_name": "Add", "inbound_nodes": [[["CHK_INPUT_PREV", 0, 0, {}], ["CHK_INPUT_NOW", 0, 0, {}]]], "config": {"name": "CHK_DELTA", "trainable": true}, "name": "CHK_DELTA"}, {"class_name": "Dense", "inbound_nodes": [[["CHK_DELTA", 0, 0, {}]]], "config": {"activation": "relu", "kernel_regularizer": {"class_name": "L1L2", "config": {"l1": 0.0, "l2": 0.0010000000474974513}}, "activity_regularizer": null, "units": 50, "kernel_initializer": {"class_name": "VarianceScaling", "config": {"seed": 3014, "scale": 1.0, "mode": "fan_avg", "distribution": "normal"}}, "trainable": true, "name": "F1_PWH_0", "use_bias": true, "bias_regularizer": null, "bias_initializer": {"class_name": "Zeros", "config": {}}, "bias_constraint": null, "kernel_constraint": null}, "name": "F1_PWH_0"}, {"class_name": "Dense", "inbound_nodes": [[["CHK_DELTA", 0, 0, {}]]], "config": {"activation": "relu", "kernel_regularizer": {"class_name": "L1L2", "config": {"l1": 0.0, "l2": 0.0010000000474974513}}, "activity_regularizer": null, "units": 50, "kernel_initializer": {"class_name": "VarianceScaling", "config": {"seed": 3014, "scale": 1.0, "mode": "fan_avg", "distribution": "normal"}}, "trainable": true, "name": "B2_PWH_0", "use_bias": true, "bias_regularizer": null, "bias_initializer": {"class_name": "Zeros", "config": {}}, "bias_constraint": null, "kernel_constraint": null}, "name": "B2_PWH_0"}, {"class_name": "Dense", "inbound_nodes": [[["CHK_DELTA", 0, 0, {}]]], "config": {"activation": "relu", "kernel_regularizer": {"class_name": "L1L2", "config": {"l1": 0.0, "l2": 0.0010000000474974513}}, "activity_regularizer": null, "units": 50, "kernel_initializer": {"class_name": "VarianceScaling", "config": {"seed": 3014, "scale": 1.0, "mode": "fan_avg", "distribution": "normal"}}, "trainable": true, "name": "D3_PWH_0", "use_bias": true, "bias_regularizer": null, "bias_initializer": {"class_name": "Zeros", "config": {}}, "bias_constraint": null, "kernel_constraint": null}, "name": "D3_PWH_0"}, {"class_name": "Dense", "inbound_nodes": [[["CHK_DELTA", 0, 0, {}]]], "config": {"activation": "relu", "kernel_regularizer": {"class_name": "L1L2", "config": {"l1": 0.0, "l2": 0.0010000000474974513}}, "activity_regularizer": null, "units": 50, "kernel_initializer": {"class_name": "VarianceScaling", "config": {"seed": 3014, "scale": 1.0, "mode": "fan_avg", "distribution": "normal"}}, "trainable": true, "name": "E1_PWH_0", "use_bias": true, "bias_regularizer": null, "bias_initializer": {"class_name": "Zeros", "config": {}}, "bias_constraint": null, "kernel_constraint": null}, "name": "E1_PWH_0"}, {"class_name": "Dense", "inbound_nodes": [[["F1_PWH_0", 0, 0, {}]]], "config": {"activation": "linear", "kernel_regularizer": {"class_name": "L1L2", "config": {"l1": 0.0, "l2": 0.0010000000474974513}}, "activity_regularizer": null, "units": 1, "kernel_initializer": {"class_name": "VarianceScaling", "config": {"seed": 3014, "scale": 1.0, "mode": "fan_avg", "distribution": "normal"}}, "trainable": true, "name": "F1_PWH_out", "use_bias": true, "bias_regularizer": null, "bias_initializer": {"class_name": "Zeros", "config": {}}, "bias_constraint": null, "kernel_constraint": null}, "name": "F1_PWH_out"}, {"class_name": "InputLayer", "inbound_nodes": [], "config": {"batch_input_shape": [null, 1], "dtype": "float32", "sparse": false, "name": "SHIFTED_PRESSURE_PWH_F1"}, "name": "SHIFTED_PRESSURE_PWH_F1"}, {"class_name": "Dense", "inbound_nodes": [[["B2_PWH_0", 0, 0, {}]]], "config": {"activation": "linear", "kernel_regularizer": {"class_name": "L1L2", "config": {"l1": 0.0, "l2": 0.0010000000474974513}}, "activity_regularizer": null, "units": 1, "kernel_initializer": {"class_name": "VarianceScaling", "config": {"seed": 3014, "scale": 1.0, "mode": "fan_avg", "distribution": "normal"}}, "trainable": true, "name": "B2_PWH_out", "use_bias": true, "bias_regularizer": null, "bias_initializer": {"class_name": "Zeros", "config": {}}, "bias_constraint": null, "kernel_constraint": null}, "name": "B2_PWH_out"}, {"class_name": "InputLayer", "inbound_nodes": [], "config": {"batch_input_shape": [null, 1], "dtype": "float32", "sparse": false, "name": "SHIFTED_PRESSURE_PWH_B2"}, "name": "SHIFTED_PRESSURE_PWH_B2"}, {"class_name": "Dense", "inbound_nodes": [[["D3_PWH_0", 0, 0, {}]]], "config": {"activation": "linear", "kernel_regularizer": {"class_name": "L1L2", "config": {"l1": 0.0, "l2": 0.0010000000474974513}}, "activity_regularizer": null, "units": 1, "kernel_initializer": {"class_name": "VarianceScaling", "config": {"seed": 3014, "scale": 1.0, "mode": "fan_avg", "distribution": "normal"}}, "trainable": true, "name": "D3_PWH_out", "use_bias": true, "bias_regularizer": null, "bias_initializer": {"class_name": "Zeros", "config": {}}, "bias_constraint": null, "kernel_constraint": null}, "name": "D3_PWH_out"}, {"class_name": "InputLayer", "inbound_nodes": [], "config": {"batch_input_shape": [null, 1], "dtype": "float32", "sparse": false, "name": "SHIFTED_PRESSURE_PWH_D3"}, "name": "SHIFTED_PRESSURE_PWH_D3"}, {"class_name": "Dense", "inbound_nodes": [[["E1_PWH_0", 0, 0, {}]]], "config": {"activation": "linear", "kernel_regularizer": {"class_name": "L1L2", "config": {"l1": 0.0, "l2": 0.0010000000474974513}}, "activity_regularizer": null, "units": 1, "kernel_initializer": {"class_name": "VarianceScaling", "config": {"seed": 3014, "scale": 1.0, "mode": "fan_avg", "distribution": "normal"}}, "trainable": true, "name": "E1_PWH_out", "use_bias": true, "bias_regularizer": null, "bias_initializer": {"class_name": "Zeros", "config": {}}, "bias_constraint": null, "kernel_constraint": null}, "name": "E1_PWH_out"}, {"class_name": "InputLayer", "inbound_nodes": [], "config": {"batch_input_shape": [null, 1], "dtype": "float32", "sparse": false, "name": "SHIFTED_PRESSURE_PWH_E1"}, "name": "SHIFTED_PRESSURE_PWH_E1"}, {"class_name": "Add", "inbound_nodes": [[["F1_PWH_out", 0, 0, {}], ["SHIFTED_PRESSURE_PWH_F1", 0, 0, {}]]], "config": {"name": "F1_PWH_out2", "trainable": true}, "name": "F1_PWH_out2"}, {"class_name": "Add", "inbound_nodes": [[["B2_PWH_out", 0, 0, {}], ["SHIFTED_PRESSURE_PWH_B2", 0, 0, {}]]], "config": {"name": "B2_PWH_out2", "trainable": true}, "name": "B2_PWH_out2"}, {"class_name": "Add", "inbound_nodes": [[["D3_PWH_out", 0, 0, {}], ["SHIFTED_PRESSURE_PWH_D3", 0, 0, {}]]], "config": {"name": "D3_PWH_out2", "trainable": true}, "name": "D3_PWH_out2"}, {"class_name": "Add", "inbound_nodes": [[["E1_PWH_out", 0, 0, {}], ["SHIFTED_PRESSURE_PWH_E1", 0, 0, {}]]], "config": {"name": "E1_PWH_out2", "trainable": true}, "name": "E1_PWH_out2"}], "output_layers": [["F1_PWH_out2", 0, 0], ["F1_PWH_out", 0, 0], ["B2_PWH_out2", 0, 0], ["B2_PWH_out", 0, 0], ["D3_PWH_out2", 0, 0], ["D3_PWH_out", 0, 0], ["E1_PWH_out2", 0, 0], ["E1_PWH_out", 0, 0]], "name": "model_1", "input_layers": [["CHK_INPUT_NOW", 0, 0], ["CHK_INPUT_PREV", 0, 0], ["SHIFTED_PRESSURE_PWH_F1", 0, 0], ["SHIFTED_PRESSURE_PWH_B2", 0, 0], ["SHIFTED_PRESSURE_PWH_D3", 0, 0], ["SHIFTED_PRESSURE_PWH_E1", 0, 0]]}, "backend": "theano"}