{"class_name": "Model", "backend": "theano", "config": {"input_layers": [["CHK_INPUT_NOW", 0, 0], ["CHK_INPUT_PREV", 0, 0], ["SHIFTED_PRESSURE_PBH_C1", 0, 0], ["SHIFTED_PRESSURE_PBH_C3", 0, 0], ["SHIFTED_PRESSURE_PBH_C4", 0, 0], ["SHIFTED_PRESSURE_PBH_B1", 0, 0], ["SHIFTED_PRESSURE_PBH_B3", 0, 0]], "name": "model_1", "layers": [{"inbound_nodes": [], "class_name": "InputLayer", "name": "CHK_INPUT_PREV", "config": {"dtype": "float32", "batch_input_shape": [null, 8], "sparse": false, "name": "CHK_INPUT_PREV"}}, {"inbound_nodes": [], "class_name": "InputLayer", "name": "CHK_INPUT_NOW", "config": {"dtype": "float32", "batch_input_shape": [null, 8], "sparse": false, "name": "CHK_INPUT_NOW"}}, {"inbound_nodes": [[["CHK_INPUT_PREV", 0, 0, {}], ["CHK_INPUT_NOW", 0, 0, {}]]], "class_name": "Add", "name": "CHK_DELTA", "config": {"trainable": true, "name": "CHK_DELTA"}}, {"inbound_nodes": [[["CHK_DELTA", 0, 0, {}]]], "class_name": "Dense", "name": "C1_PBH_0", "config": {"use_bias": true, "kernel_initializer": {"class_name": "VarianceScaling", "config": {"mode": "fan_avg", "distribution": "normal", "seed": 3014, "scale": 1.0}}, "bias_regularizer": null, "name": "C1_PBH_0", "bias_initializer": {"class_name": "Zeros", "config": {}}, "bias_constraint": null, "units": 80, "trainable": true, "activation": "relu", "kernel_regularizer": {"class_name": "L1L2", "config": {"l2": 3.5000000934815034e-05, "l1": 0.0}}, "activity_regularizer": null, "kernel_constraint": null}}, {"inbound_nodes": [[["CHK_DELTA", 0, 0, {}]]], "class_name": "Dense", "name": "C3_PBH_0", "config": {"use_bias": true, "kernel_initializer": {"class_name": "VarianceScaling", "config": {"mode": "fan_avg", "distribution": "normal", "seed": 3014, "scale": 1.0}}, "bias_regularizer": null, "name": "C3_PBH_0", "bias_initializer": {"class_name": "Zeros", "config": {}}, "bias_constraint": null, "units": 80, "trainable": true, "activation": "relu", "kernel_regularizer": {"class_name": "L1L2", "config": {"l2": 3.5000000934815034e-05, "l1": 0.0}}, "activity_regularizer": null, "kernel_constraint": null}}, {"inbound_nodes": [[["CHK_DELTA", 0, 0, {}]]], "class_name": "Dense", "name": "C4_PBH_0", "config": {"use_bias": true, "kernel_initializer": {"class_name": "VarianceScaling", "config": {"mode": "fan_avg", "distribution": "normal", "seed": 3014, "scale": 1.0}}, "bias_regularizer": null, "name": "C4_PBH_0", "bias_initializer": {"class_name": "Zeros", "config": {}}, "bias_constraint": null, "units": 80, "trainable": true, "activation": "relu", "kernel_regularizer": {"class_name": "L1L2", "config": {"l2": 3.5000000934815034e-05, "l1": 0.0}}, "activity_regularizer": null, "kernel_constraint": null}}, {"inbound_nodes": [[["CHK_DELTA", 0, 0, {}]]], "class_name": "Dense", "name": "B1_PBH_0", "config": {"use_bias": true, "kernel_initializer": {"class_name": "VarianceScaling", "config": {"mode": "fan_avg", "distribution": "normal", "seed": 3014, "scale": 1.0}}, "bias_regularizer": null, "name": "B1_PBH_0", "bias_initializer": {"class_name": "Zeros", "config": {}}, "bias_constraint": null, "units": 80, "trainable": true, "activation": "relu", "kernel_regularizer": {"class_name": "L1L2", "config": {"l2": 3.5000000934815034e-05, "l1": 0.0}}, "activity_regularizer": null, "kernel_constraint": null}}, {"inbound_nodes": [[["CHK_DELTA", 0, 0, {}]]], "class_name": "Dense", "name": "B3_PBH_0", "config": {"use_bias": true, "kernel_initializer": {"class_name": "VarianceScaling", "config": {"mode": "fan_avg", "distribution": "normal", "seed": 3014, "scale": 1.0}}, "bias_regularizer": null, "name": "B3_PBH_0", "bias_initializer": {"class_name": "Zeros", "config": {}}, "bias_constraint": null, "units": 80, "trainable": true, "activation": "relu", "kernel_regularizer": {"class_name": "L1L2", "config": {"l2": 3.5000000934815034e-05, "l1": 0.0}}, "activity_regularizer": null, "kernel_constraint": null}}, {"inbound_nodes": [[["C1_PBH_0", 0, 0, {}]]], "class_name": "Dense", "name": "C1_PBH_1", "config": {"use_bias": true, "kernel_initializer": {"class_name": "VarianceScaling", "config": {"mode": "fan_avg", "distribution": "normal", "seed": 3014, "scale": 1.0}}, "bias_regularizer": null, "name": "C1_PBH_1", "bias_initializer": {"class_name": "Zeros", "config": {}}, "bias_constraint": null, "units": 80, "trainable": true, "activation": "relu", "kernel_regularizer": {"class_name": "L1L2", "config": {"l2": 3.5000000934815034e-05, "l1": 0.0}}, "activity_regularizer": null, "kernel_constraint": null}}, {"inbound_nodes": [[["C3_PBH_0", 0, 0, {}]]], "class_name": "Dense", "name": "C3_PBH_1", "config": {"use_bias": true, "kernel_initializer": {"class_name": "VarianceScaling", "config": {"mode": "fan_avg", "distribution": "normal", "seed": 3014, "scale": 1.0}}, "bias_regularizer": null, "name": "C3_PBH_1", "bias_initializer": {"class_name": "Zeros", "config": {}}, "bias_constraint": null, "units": 80, "trainable": true, "activation": "relu", "kernel_regularizer": {"class_name": "L1L2", "config": {"l2": 3.5000000934815034e-05, "l1": 0.0}}, "activity_regularizer": null, "kernel_constraint": null}}, {"inbound_nodes": [[["C4_PBH_0", 0, 0, {}]]], "class_name": "Dense", "name": "C4_PBH_1", "config": {"use_bias": true, "kernel_initializer": {"class_name": "VarianceScaling", "config": {"mode": "fan_avg", "distribution": "normal", "seed": 3014, "scale": 1.0}}, "bias_regularizer": null, "name": "C4_PBH_1", "bias_initializer": {"class_name": "Zeros", "config": {}}, "bias_constraint": null, "units": 80, "trainable": true, "activation": "relu", "kernel_regularizer": {"class_name": "L1L2", "config": {"l2": 3.5000000934815034e-05, "l1": 0.0}}, "activity_regularizer": null, "kernel_constraint": null}}, {"inbound_nodes": [[["B1_PBH_0", 0, 0, {}]]], "class_name": "Dense", "name": "B1_PBH_1", "config": {"use_bias": true, "kernel_initializer": {"class_name": "VarianceScaling", "config": {"mode": "fan_avg", "distribution": "normal", "seed": 3014, "scale": 1.0}}, "bias_regularizer": null, "name": "B1_PBH_1", "bias_initializer": {"class_name": "Zeros", "config": {}}, "bias_constraint": null, "units": 80, "trainable": true, "activation": "relu", "kernel_regularizer": {"class_name": "L1L2", "config": {"l2": 3.5000000934815034e-05, "l1": 0.0}}, "activity_regularizer": null, "kernel_constraint": null}}, {"inbound_nodes": [[["B3_PBH_0", 0, 0, {}]]], "class_name": "Dense", "name": "B3_PBH_1", "config": {"use_bias": true, "kernel_initializer": {"class_name": "VarianceScaling", "config": {"mode": "fan_avg", "distribution": "normal", "seed": 3014, "scale": 1.0}}, "bias_regularizer": null, "name": "B3_PBH_1", "bias_initializer": {"class_name": "Zeros", "config": {}}, "bias_constraint": null, "units": 80, "trainable": true, "activation": "relu", "kernel_regularizer": {"class_name": "L1L2", "config": {"l2": 3.5000000934815034e-05, "l1": 0.0}}, "activity_regularizer": null, "kernel_constraint": null}}, {"inbound_nodes": [[["C1_PBH_1", 0, 0, {}]]], "class_name": "Dense", "name": "C1_PBH_out", "config": {"use_bias": true, "kernel_initializer": {"class_name": "VarianceScaling", "config": {"mode": "fan_avg", "distribution": "normal", "seed": 3014, "scale": 1.0}}, "bias_regularizer": null, "name": "C1_PBH_out", "bias_initializer": {"class_name": "Zeros", "config": {}}, "bias_constraint": null, "units": 1, "trainable": true, "activation": "linear", "kernel_regularizer": {"class_name": "L1L2", "config": {"l2": 3.5000000934815034e-05, "l1": 0.0}}, "activity_regularizer": null, "kernel_constraint": null}}, {"inbound_nodes": [], "class_name": "InputLayer", "name": "SHIFTED_PRESSURE_PBH_C1", "config": {"dtype": "float32", "batch_input_shape": [null, 1], "sparse": false, "name": "SHIFTED_PRESSURE_PBH_C1"}}, {"inbound_nodes": [[["C3_PBH_1", 0, 0, {}]]], "class_name": "Dense", "name": "C3_PBH_out", "config": {"use_bias": true, "kernel_initializer": {"class_name": "VarianceScaling", "config": {"mode": "fan_avg", "distribution": "normal", "seed": 3014, "scale": 1.0}}, "bias_regularizer": null, "name": "C3_PBH_out", "bias_initializer": {"class_name": "Zeros", "config": {}}, "bias_constraint": null, "units": 1, "trainable": true, "activation": "linear", "kernel_regularizer": {"class_name": "L1L2", "config": {"l2": 3.5000000934815034e-05, "l1": 0.0}}, "activity_regularizer": null, "kernel_constraint": null}}, {"inbound_nodes": [], "class_name": "InputLayer", "name": "SHIFTED_PRESSURE_PBH_C3", "config": {"dtype": "float32", "batch_input_shape": [null, 1], "sparse": false, "name": "SHIFTED_PRESSURE_PBH_C3"}}, {"inbound_nodes": [[["C4_PBH_1", 0, 0, {}]]], "class_name": "Dense", "name": "C4_PBH_out", "config": {"use_bias": true, "kernel_initializer": {"class_name": "VarianceScaling", "config": {"mode": "fan_avg", "distribution": "normal", "seed": 3014, "scale": 1.0}}, "bias_regularizer": null, "name": "C4_PBH_out", "bias_initializer": {"class_name": "Zeros", "config": {}}, "bias_constraint": null, "units": 1, "trainable": true, "activation": "linear", "kernel_regularizer": {"class_name": "L1L2", "config": {"l2": 3.5000000934815034e-05, "l1": 0.0}}, "activity_regularizer": null, "kernel_constraint": null}}, {"inbound_nodes": [], "class_name": "InputLayer", "name": "SHIFTED_PRESSURE_PBH_C4", "config": {"dtype": "float32", "batch_input_shape": [null, 1], "sparse": false, "name": "SHIFTED_PRESSURE_PBH_C4"}}, {"inbound_nodes": [[["B1_PBH_1", 0, 0, {}]]], "class_name": "Dense", "name": "B1_PBH_out", "config": {"use_bias": true, "kernel_initializer": {"class_name": "VarianceScaling", "config": {"mode": "fan_avg", "distribution": "normal", "seed": 3014, "scale": 1.0}}, "bias_regularizer": null, "name": "B1_PBH_out", "bias_initializer": {"class_name": "Zeros", "config": {}}, "bias_constraint": null, "units": 1, "trainable": true, "activation": "linear", "kernel_regularizer": {"class_name": "L1L2", "config": {"l2": 3.5000000934815034e-05, "l1": 0.0}}, "activity_regularizer": null, "kernel_constraint": null}}, {"inbound_nodes": [], "class_name": "InputLayer", "name": "SHIFTED_PRESSURE_PBH_B1", "config": {"dtype": "float32", "batch_input_shape": [null, 1], "sparse": false, "name": "SHIFTED_PRESSURE_PBH_B1"}}, {"inbound_nodes": [[["B3_PBH_1", 0, 0, {}]]], "class_name": "Dense", "name": "B3_PBH_out", "config": {"use_bias": true, "kernel_initializer": {"class_name": "VarianceScaling", "config": {"mode": "fan_avg", "distribution": "normal", "seed": 3014, "scale": 1.0}}, "bias_regularizer": null, "name": "B3_PBH_out", "bias_initializer": {"class_name": "Zeros", "config": {}}, "bias_constraint": null, "units": 1, "trainable": true, "activation": "linear", "kernel_regularizer": {"class_name": "L1L2", "config": {"l2": 3.5000000934815034e-05, "l1": 0.0}}, "activity_regularizer": null, "kernel_constraint": null}}, {"inbound_nodes": [], "class_name": "InputLayer", "name": "SHIFTED_PRESSURE_PBH_B3", "config": {"dtype": "float32", "batch_input_shape": [null, 1], "sparse": false, "name": "SHIFTED_PRESSURE_PBH_B3"}}, {"inbound_nodes": [[["C1_PBH_out", 0, 0, {}], ["SHIFTED_PRESSURE_PBH_C1", 0, 0, {}]]], "class_name": "Add", "name": "C1_PBH_out2", "config": {"trainable": true, "name": "C1_PBH_out2"}}, {"inbound_nodes": [[["C3_PBH_out", 0, 0, {}], ["SHIFTED_PRESSURE_PBH_C3", 0, 0, {}]]], "class_name": "Add", "name": "C3_PBH_out2", "config": {"trainable": true, "name": "C3_PBH_out2"}}, {"inbound_nodes": [[["C4_PBH_out", 0, 0, {}], ["SHIFTED_PRESSURE_PBH_C4", 0, 0, {}]]], "class_name": "Add", "name": "C4_PBH_out2", "config": {"trainable": true, "name": "C4_PBH_out2"}}, {"inbound_nodes": [[["B1_PBH_out", 0, 0, {}], ["SHIFTED_PRESSURE_PBH_B1", 0, 0, {}]]], "class_name": "Add", "name": "B1_PBH_out2", "config": {"trainable": true, "name": "B1_PBH_out2"}}, {"inbound_nodes": [[["B3_PBH_out", 0, 0, {}], ["SHIFTED_PRESSURE_PBH_B3", 0, 0, {}]]], "class_name": "Add", "name": "B3_PBH_out2", "config": {"trainable": true, "name": "B3_PBH_out2"}}], "output_layers": [["C1_PBH_out2", 0, 0], ["C1_PBH_out", 0, 0], ["C3_PBH_out2", 0, 0], ["C3_PBH_out", 0, 0], ["C4_PBH_out2", 0, 0], ["C4_PBH_out", 0, 0], ["B1_PBH_out2", 0, 0], ["B1_PBH_out", 0, 0], ["B3_PBH_out2", 0, 0], ["B3_PBH_out", 0, 0]]}, "keras_version": "2.0.1"}