{"backend": "theano", "config": {"layers": [{"inbound_nodes": [], "class_name": "InputLayer", "config": {"dtype": "float32", "batch_input_shape": [null, 4], "sparse": false, "name": "C1"}, "name": "C1"}, {"inbound_nodes": [], "class_name": "InputLayer", "config": {"dtype": "float32", "batch_input_shape": [null, 3], "sparse": false, "name": "C2"}, "name": "C2"}, {"inbound_nodes": [], "class_name": "InputLayer", "config": {"dtype": "float32", "batch_input_shape": [null, 4], "sparse": false, "name": "C3"}, "name": "C3"}, {"inbound_nodes": [], "class_name": "InputLayer", "config": {"dtype": "float32", "batch_input_shape": [null, 4], "sparse": false, "name": "C4"}, "name": "C4"}, {"inbound_nodes": [], "class_name": "InputLayer", "config": {"dtype": "float32", "batch_input_shape": [null, 4], "sparse": false, "name": "B1"}, "name": "B1"}, {"inbound_nodes": [], "class_name": "InputLayer", "config": {"dtype": "float32", "batch_input_shape": [null, 4], "sparse": false, "name": "B3"}, "name": "B3"}, {"inbound_nodes": [], "class_name": "InputLayer", "config": {"dtype": "float32", "batch_input_shape": [null, 3], "sparse": false, "name": "D1"}, "name": "D1"}, {"inbound_nodes": [[["C1", 0, 0, {}]]], "class_name": "Dense", "config": {"units": 100, "bias_constraint": null, "name": "C1_0", "activation": "relu", "use_bias": true, "kernel_constraint": null, "bias_initializer": {"class_name": "Zeros", "config": {}}, "kernel_regularizer": {"class_name": "L1L2", "config": {"l2": 0.0001500000071246177, "l1": 0.0}}, "bias_regularizer": null, "trainable": true, "activity_regularizer": null, "kernel_initializer": {"class_name": "VarianceScaling", "config": {"distribution": "normal", "seed": 3014, "mode": "fan_avg", "scale": 1.0}}}, "name": "C1_0"}, {"inbound_nodes": [[["C2", 0, 0, {}]]], "class_name": "Dense", "config": {"units": 100, "bias_constraint": null, "name": "C2_0", "activation": "relu", "use_bias": true, "kernel_constraint": null, "bias_initializer": {"class_name": "Zeros", "config": {}}, "kernel_regularizer": {"class_name": "L1L2", "config": {"l2": 0.0001500000071246177, "l1": 0.0}}, "bias_regularizer": null, "trainable": true, "activity_regularizer": null, "kernel_initializer": {"class_name": "VarianceScaling", "config": {"distribution": "normal", "seed": 3014, "mode": "fan_avg", "scale": 1.0}}}, "name": "C2_0"}, {"inbound_nodes": [[["C3", 0, 0, {}]]], "class_name": "Dense", "config": {"units": 100, "bias_constraint": null, "name": "C3_0", "activation": "relu", "use_bias": true, "kernel_constraint": null, "bias_initializer": {"class_name": "Zeros", "config": {}}, "kernel_regularizer": {"class_name": "L1L2", "config": {"l2": 0.0001500000071246177, "l1": 0.0}}, "bias_regularizer": null, "trainable": true, "activity_regularizer": null, "kernel_initializer": {"class_name": "VarianceScaling", "config": {"distribution": "normal", "seed": 3014, "mode": "fan_avg", "scale": 1.0}}}, "name": "C3_0"}, {"inbound_nodes": [[["C4", 0, 0, {}]]], "class_name": "Dense", "config": {"units": 100, "bias_constraint": null, "name": "C4_0", "activation": "relu", "use_bias": true, "kernel_constraint": null, "bias_initializer": {"class_name": "Zeros", "config": {}}, "kernel_regularizer": {"class_name": "L1L2", "config": {"l2": 0.0001500000071246177, "l1": 0.0}}, "bias_regularizer": null, "trainable": true, "activity_regularizer": null, "kernel_initializer": {"class_name": "VarianceScaling", "config": {"distribution": "normal", "seed": 3014, "mode": "fan_avg", "scale": 1.0}}}, "name": "C4_0"}, {"inbound_nodes": [[["B1", 0, 0, {}]]], "class_name": "Dense", "config": {"units": 100, "bias_constraint": null, "name": "B1_0", "activation": "relu", "use_bias": true, "kernel_constraint": null, "bias_initializer": {"class_name": "Zeros", "config": {}}, "kernel_regularizer": {"class_name": "L1L2", "config": {"l2": 0.0001500000071246177, "l1": 0.0}}, "bias_regularizer": null, "trainable": true, "activity_regularizer": null, "kernel_initializer": {"class_name": "VarianceScaling", "config": {"distribution": "normal", "seed": 3014, "mode": "fan_avg", "scale": 1.0}}}, "name": "B1_0"}, {"inbound_nodes": [[["B3", 0, 0, {}]]], "class_name": "Dense", "config": {"units": 100, "bias_constraint": null, "name": "B3_0", "activation": "relu", "use_bias": true, "kernel_constraint": null, "bias_initializer": {"class_name": "Zeros", "config": {}}, "kernel_regularizer": {"class_name": "L1L2", "config": {"l2": 0.0001500000071246177, "l1": 0.0}}, "bias_regularizer": null, "trainable": true, "activity_regularizer": null, "kernel_initializer": {"class_name": "VarianceScaling", "config": {"distribution": "normal", "seed": 3014, "mode": "fan_avg", "scale": 1.0}}}, "name": "B3_0"}, {"inbound_nodes": [[["D1", 0, 0, {}]]], "class_name": "Dense", "config": {"units": 100, "bias_constraint": null, "name": "D1_0", "activation": "relu", "use_bias": true, "kernel_constraint": null, "bias_initializer": {"class_name": "Zeros", "config": {}}, "kernel_regularizer": {"class_name": "L1L2", "config": {"l2": 0.0001500000071246177, "l1": 0.0}}, "bias_regularizer": null, "trainable": true, "activity_regularizer": null, "kernel_initializer": {"class_name": "VarianceScaling", "config": {"distribution": "normal", "seed": 3014, "mode": "fan_avg", "scale": 1.0}}}, "name": "D1_0"}, {"inbound_nodes": [[["C1_0", 0, 0, {}]]], "class_name": "Dense", "config": {"units": 100, "bias_constraint": null, "name": "C1_1", "activation": "relu", "use_bias": true, "kernel_constraint": null, "bias_initializer": {"class_name": "Zeros", "config": {}}, "kernel_regularizer": {"class_name": "L1L2", "config": {"l2": 0.0001500000071246177, "l1": 0.0}}, "bias_regularizer": null, "trainable": true, "activity_regularizer": null, "kernel_initializer": {"class_name": "VarianceScaling", "config": {"distribution": "normal", "seed": 3014, "mode": "fan_avg", "scale": 1.0}}}, "name": "C1_1"}, {"inbound_nodes": [[["C2_0", 0, 0, {}]]], "class_name": "Dense", "config": {"units": 100, "bias_constraint": null, "name": "C2_1", "activation": "relu", "use_bias": true, "kernel_constraint": null, "bias_initializer": {"class_name": "Zeros", "config": {}}, "kernel_regularizer": {"class_name": "L1L2", "config": {"l2": 0.0001500000071246177, "l1": 0.0}}, "bias_regularizer": null, "trainable": true, "activity_regularizer": null, "kernel_initializer": {"class_name": "VarianceScaling", "config": {"distribution": "normal", "seed": 3014, "mode": "fan_avg", "scale": 1.0}}}, "name": "C2_1"}, {"inbound_nodes": [[["C3_0", 0, 0, {}]]], "class_name": "Dense", "config": {"units": 100, "bias_constraint": null, "name": "C3_1", "activation": "relu", "use_bias": true, "kernel_constraint": null, "bias_initializer": {"class_name": "Zeros", "config": {}}, "kernel_regularizer": {"class_name": "L1L2", "config": {"l2": 0.0001500000071246177, "l1": 0.0}}, "bias_regularizer": null, "trainable": true, "activity_regularizer": null, "kernel_initializer": {"class_name": "VarianceScaling", "config": {"distribution": "normal", "seed": 3014, "mode": "fan_avg", "scale": 1.0}}}, "name": "C3_1"}, {"inbound_nodes": [[["C4_0", 0, 0, {}]]], "class_name": "Dense", "config": {"units": 100, "bias_constraint": null, "name": "C4_1", "activation": "relu", "use_bias": true, "kernel_constraint": null, "bias_initializer": {"class_name": "Zeros", "config": {}}, "kernel_regularizer": {"class_name": "L1L2", "config": {"l2": 0.0001500000071246177, "l1": 0.0}}, "bias_regularizer": null, "trainable": true, "activity_regularizer": null, "kernel_initializer": {"class_name": "VarianceScaling", "config": {"distribution": "normal", "seed": 3014, "mode": "fan_avg", "scale": 1.0}}}, "name": "C4_1"}, {"inbound_nodes": [[["B1_0", 0, 0, {}]]], "class_name": "Dense", "config": {"units": 100, "bias_constraint": null, "name": "B1_1", "activation": "relu", "use_bias": true, "kernel_constraint": null, "bias_initializer": {"class_name": "Zeros", "config": {}}, "kernel_regularizer": {"class_name": "L1L2", "config": {"l2": 0.0001500000071246177, "l1": 0.0}}, "bias_regularizer": null, "trainable": true, "activity_regularizer": null, "kernel_initializer": {"class_name": "VarianceScaling", "config": {"distribution": "normal", "seed": 3014, "mode": "fan_avg", "scale": 1.0}}}, "name": "B1_1"}, {"inbound_nodes": [[["B3_0", 0, 0, {}]]], "class_name": "Dense", "config": {"units": 100, "bias_constraint": null, "name": "B3_1", "activation": "relu", "use_bias": true, "kernel_constraint": null, "bias_initializer": {"class_name": "Zeros", "config": {}}, "kernel_regularizer": {"class_name": "L1L2", "config": {"l2": 0.0001500000071246177, "l1": 0.0}}, "bias_regularizer": null, "trainable": true, "activity_regularizer": null, "kernel_initializer": {"class_name": "VarianceScaling", "config": {"distribution": "normal", "seed": 3014, "mode": "fan_avg", "scale": 1.0}}}, "name": "B3_1"}, {"inbound_nodes": [[["D1_0", 0, 0, {}]]], "class_name": "Dense", "config": {"units": 100, "bias_constraint": null, "name": "D1_1", "activation": "relu", "use_bias": true, "kernel_constraint": null, "bias_initializer": {"class_name": "Zeros", "config": {}}, "kernel_regularizer": {"class_name": "L1L2", "config": {"l2": 0.0001500000071246177, "l1": 0.0}}, "bias_regularizer": null, "trainable": true, "activity_regularizer": null, "kernel_initializer": {"class_name": "VarianceScaling", "config": {"distribution": "normal", "seed": 3014, "mode": "fan_avg", "scale": 1.0}}}, "name": "D1_1"}, {"inbound_nodes": [], "class_name": "InputLayer", "config": {"dtype": "float32", "batch_input_shape": [null, 1], "sparse": false, "name": "OnOff_C1"}, "name": "OnOff_C1"}, {"inbound_nodes": [[["C1_1", 0, 0, {}]]], "class_name": "Dense", "config": {"units": 1, "bias_constraint": null, "name": "C1_o", "activation": "relu", "use_bias": true, "kernel_constraint": null, "bias_initializer": {"class_name": "Zeros", "config": {}}, "kernel_regularizer": {"class_name": "L1L2", "config": {"l2": 0.0001500000071246177, "l1": 0.0}}, "bias_regularizer": null, "trainable": true, "activity_regularizer": null, "kernel_initializer": {"class_name": "VarianceScaling", "config": {"distribution": "normal", "seed": 3014, "mode": "fan_avg", "scale": 1.0}}}, "name": "C1_o"}, {"inbound_nodes": [], "class_name": "InputLayer", "config": {"dtype": "float32", "batch_input_shape": [null, 1], "sparse": false, "name": "OnOff_C2"}, "name": "OnOff_C2"}, {"inbound_nodes": [[["C2_1", 0, 0, {}]]], "class_name": "Dense", "config": {"units": 1, "bias_constraint": null, "name": "C2_o", "activation": "relu", "use_bias": true, "kernel_constraint": null, "bias_initializer": {"class_name": "Zeros", "config": {}}, "kernel_regularizer": {"class_name": "L1L2", "config": {"l2": 0.0001500000071246177, "l1": 0.0}}, "bias_regularizer": null, "trainable": true, "activity_regularizer": null, "kernel_initializer": {"class_name": "VarianceScaling", "config": {"distribution": "normal", "seed": 3014, "mode": "fan_avg", "scale": 1.0}}}, "name": "C2_o"}, {"inbound_nodes": [], "class_name": "InputLayer", "config": {"dtype": "float32", "batch_input_shape": [null, 1], "sparse": false, "name": "OnOff_C3"}, "name": "OnOff_C3"}, {"inbound_nodes": [[["C3_1", 0, 0, {}]]], "class_name": "Dense", "config": {"units": 1, "bias_constraint": null, "name": "C3_o", "activation": "relu", "use_bias": true, "kernel_constraint": null, "bias_initializer": {"class_name": "Zeros", "config": {}}, "kernel_regularizer": {"class_name": "L1L2", "config": {"l2": 0.0001500000071246177, "l1": 0.0}}, "bias_regularizer": null, "trainable": true, "activity_regularizer": null, "kernel_initializer": {"class_name": "VarianceScaling", "config": {"distribution": "normal", "seed": 3014, "mode": "fan_avg", "scale": 1.0}}}, "name": "C3_o"}, {"inbound_nodes": [], "class_name": "InputLayer", "config": {"dtype": "float32", "batch_input_shape": [null, 1], "sparse": false, "name": "OnOff_C4"}, "name": "OnOff_C4"}, {"inbound_nodes": [[["C4_1", 0, 0, {}]]], "class_name": "Dense", "config": {"units": 1, "bias_constraint": null, "name": "C4_o", "activation": "relu", "use_bias": true, "kernel_constraint": null, "bias_initializer": {"class_name": "Zeros", "config": {}}, "kernel_regularizer": {"class_name": "L1L2", "config": {"l2": 0.0001500000071246177, "l1": 0.0}}, "bias_regularizer": null, "trainable": true, "activity_regularizer": null, "kernel_initializer": {"class_name": "VarianceScaling", "config": {"distribution": "normal", "seed": 3014, "mode": "fan_avg", "scale": 1.0}}}, "name": "C4_o"}, {"inbound_nodes": [], "class_name": "InputLayer", "config": {"dtype": "float32", "batch_input_shape": [null, 1], "sparse": false, "name": "OnOff_B1"}, "name": "OnOff_B1"}, {"inbound_nodes": [[["B1_1", 0, 0, {}]]], "class_name": "Dense", "config": {"units": 1, "bias_constraint": null, "name": "B1_o", "activation": "relu", "use_bias": true, "kernel_constraint": null, "bias_initializer": {"class_name": "Zeros", "config": {}}, "kernel_regularizer": {"class_name": "L1L2", "config": {"l2": 0.0001500000071246177, "l1": 0.0}}, "bias_regularizer": null, "trainable": true, "activity_regularizer": null, "kernel_initializer": {"class_name": "VarianceScaling", "config": {"distribution": "normal", "seed": 3014, "mode": "fan_avg", "scale": 1.0}}}, "name": "B1_o"}, {"inbound_nodes": [], "class_name": "InputLayer", "config": {"dtype": "float32", "batch_input_shape": [null, 1], "sparse": false, "name": "OnOff_B3"}, "name": "OnOff_B3"}, {"inbound_nodes": [[["B3_1", 0, 0, {}]]], "class_name": "Dense", "config": {"units": 1, "bias_constraint": null, "name": "B3_o", "activation": "relu", "use_bias": true, "kernel_constraint": null, "bias_initializer": {"class_name": "Zeros", "config": {}}, "kernel_regularizer": {"class_name": "L1L2", "config": {"l2": 0.0001500000071246177, "l1": 0.0}}, "bias_regularizer": null, "trainable": true, "activity_regularizer": null, "kernel_initializer": {"class_name": "VarianceScaling", "config": {"distribution": "normal", "seed": 3014, "mode": "fan_avg", "scale": 1.0}}}, "name": "B3_o"}, {"inbound_nodes": [], "class_name": "InputLayer", "config": {"dtype": "float32", "batch_input_shape": [null, 1], "sparse": false, "name": "OnOff_D1"}, "name": "OnOff_D1"}, {"inbound_nodes": [[["D1_1", 0, 0, {}]]], "class_name": "Dense", "config": {"units": 1, "bias_constraint": null, "name": "D1_o", "activation": "relu", "use_bias": true, "kernel_constraint": null, "bias_initializer": {"class_name": "Zeros", "config": {}}, "kernel_regularizer": {"class_name": "L1L2", "config": {"l2": 0.0001500000071246177, "l1": 0.0}}, "bias_regularizer": null, "trainable": true, "activity_regularizer": null, "kernel_initializer": {"class_name": "VarianceScaling", "config": {"distribution": "normal", "seed": 3014, "mode": "fan_avg", "scale": 1.0}}}, "name": "D1_o"}, {"inbound_nodes": [[["OnOff_C1", 0, 0, {}], ["C1_o", 0, 0, {}]]], "class_name": "Multiply", "config": {"trainable": true, "name": "C1_out"}, "name": "C1_out"}, {"inbound_nodes": [[["OnOff_C2", 0, 0, {}], ["C2_o", 0, 0, {}]]], "class_name": "Multiply", "config": {"trainable": true, "name": "C2_out"}, "name": "C2_out"}, {"inbound_nodes": [[["OnOff_C3", 0, 0, {}], ["C3_o", 0, 0, {}]]], "class_name": "Multiply", "config": {"trainable": true, "name": "C3_out"}, "name": "C3_out"}, {"inbound_nodes": [[["OnOff_C4", 0, 0, {}], ["C4_o", 0, 0, {}]]], "class_name": "Multiply", "config": {"trainable": true, "name": "C4_out"}, "name": "C4_out"}, {"inbound_nodes": [[["OnOff_B1", 0, 0, {}], ["B1_o", 0, 0, {}]]], "class_name": "Multiply", "config": {"trainable": true, "name": "B1_out"}, "name": "B1_out"}, {"inbound_nodes": [[["OnOff_B3", 0, 0, {}], ["B3_o", 0, 0, {}]]], "class_name": "Multiply", "config": {"trainable": true, "name": "B3_out"}, "name": "B3_out"}, {"inbound_nodes": [[["OnOff_D1", 0, 0, {}], ["D1_o", 0, 0, {}]]], "class_name": "Multiply", "config": {"trainable": true, "name": "D1_out"}, "name": "D1_out"}, {"inbound_nodes": [[["C1_out", 0, 0, {}], ["C2_out", 0, 0, {}], ["C3_out", 0, 0, {}], ["C4_out", 0, 0, {}], ["B1_out", 0, 0, {}], ["B3_out", 0, 0, {}], ["D1_out", 0, 0, {}]]], "class_name": "Add", "config": {"trainable": true, "name": "GJOA_TOTAL"}, "name": "GJOA_TOTAL"}], "output_layers": [["C1_out", 0, 0], ["C2_out", 0, 0], ["C3_out", 0, 0], ["C4_out", 0, 0], ["B1_out", 0, 0], ["B3_out", 0, 0], ["D1_out", 0, 0], ["GJOA_TOTAL", 0, 0]], "input_layers": [["C1", 0, 0], ["C2", 0, 0], ["C3", 0, 0], ["C4", 0, 0], ["B1", 0, 0], ["B3", 0, 0], ["D1", 0, 0], ["OnOff_C1", 0, 0], ["OnOff_C2", 0, 0], ["OnOff_C3", 0, 0], ["OnOff_C4", 0, 0], ["OnOff_B1", 0, 0], ["OnOff_B3", 0, 0], ["OnOff_D1", 0, 0]], "name": "model_1"}, "class_name": "Model", "keras_version": "2.0.1"}