{"class_name": "Model", "config": {"name": "model_1", "input_layers": [["CHK_INPUT_NOW", 0, 0]], "output_layers": [["C1_PWH_out", 0, 0], ["C2_PWH_out", 0, 0], ["C3_PWH_out", 0, 0], ["C4_PWH_out", 0, 0], ["B1_PWH_out", 0, 0], ["B3_PWH_out", 0, 0], ["D1_PWH_out", 0, 0]], "layers": [{"class_name": "InputLayer", "config": {"sparse": false, "name": "CHK_INPUT_NOW", "batch_input_shape": [null, 8], "dtype": "float32"}, "name": "CHK_INPUT_NOW", "inbound_nodes": []}, {"class_name": "Dense", "config": {"use_bias": true, "kernel_regularizer": {"class_name": "L1L2", "config": {"l2": 0.0005000000237487257, "l1": 0.0}}, "trainable": true, "activity_regularizer": null, "units": 30, "bias_regularizer": null, "kernel_initializer": {"class_name": "VarianceScaling", "config": {"seed": 3014, "scale": 1.0, "mode": "fan_avg", "distribution": "normal"}}, "bias_initializer": {"class_name": "Zeros", "config": {}}, "kernel_constraint": null, "name": "C1_PWH_0", "activation": "relu", "bias_constraint": null}, "name": "C1_PWH_0", "inbound_nodes": [[["CHK_INPUT_NOW", 0, 0, {}]]]}, {"class_name": "Dense", "config": {"use_bias": true, "kernel_regularizer": {"class_name": "L1L2", "config": {"l2": 0.0005000000237487257, "l1": 0.0}}, "trainable": true, "activity_regularizer": null, "units": 30, "bias_regularizer": null, "kernel_initializer": {"class_name": "VarianceScaling", "config": {"seed": 3014, "scale": 1.0, "mode": "fan_avg", "distribution": "normal"}}, "bias_initializer": {"class_name": "Zeros", "config": {}}, "kernel_constraint": null, "name": "C2_PWH_0", "activation": "relu", "bias_constraint": null}, "name": "C2_PWH_0", "inbound_nodes": [[["CHK_INPUT_NOW", 0, 0, {}]]]}, {"class_name": "Dense", "config": {"use_bias": true, "kernel_regularizer": {"class_name": "L1L2", "config": {"l2": 0.0005000000237487257, "l1": 0.0}}, "trainable": true, "activity_regularizer": null, "units": 30, "bias_regularizer": null, "kernel_initializer": {"class_name": "VarianceScaling", "config": {"seed": 3014, "scale": 1.0, "mode": "fan_avg", "distribution": "normal"}}, "bias_initializer": {"class_name": "Zeros", "config": {}}, "kernel_constraint": null, "name": "C3_PWH_0", "activation": "relu", "bias_constraint": null}, "name": "C3_PWH_0", "inbound_nodes": [[["CHK_INPUT_NOW", 0, 0, {}]]]}, {"class_name": "Dense", "config": {"use_bias": true, "kernel_regularizer": {"class_name": "L1L2", "config": {"l2": 0.0005000000237487257, "l1": 0.0}}, "trainable": true, "activity_regularizer": null, "units": 30, "bias_regularizer": null, "kernel_initializer": {"class_name": "VarianceScaling", "config": {"seed": 3014, "scale": 1.0, "mode": "fan_avg", "distribution": "normal"}}, "bias_initializer": {"class_name": "Zeros", "config": {}}, "kernel_constraint": null, "name": "C4_PWH_0", "activation": "relu", "bias_constraint": null}, "name": "C4_PWH_0", "inbound_nodes": [[["CHK_INPUT_NOW", 0, 0, {}]]]}, {"class_name": "Dense", "config": {"use_bias": true, "kernel_regularizer": {"class_name": "L1L2", "config": {"l2": 0.0005000000237487257, "l1": 0.0}}, "trainable": true, "activity_regularizer": null, "units": 30, "bias_regularizer": null, "kernel_initializer": {"class_name": "VarianceScaling", "config": {"seed": 3014, "scale": 1.0, "mode": "fan_avg", "distribution": "normal"}}, "bias_initializer": {"class_name": "Zeros", "config": {}}, "kernel_constraint": null, "name": "B1_PWH_0", "activation": "relu", "bias_constraint": null}, "name": "B1_PWH_0", "inbound_nodes": [[["CHK_INPUT_NOW", 0, 0, {}]]]}, {"class_name": "Dense", "config": {"use_bias": true, "kernel_regularizer": {"class_name": "L1L2", "config": {"l2": 0.0005000000237487257, "l1": 0.0}}, "trainable": true, "activity_regularizer": null, "units": 30, "bias_regularizer": null, "kernel_initializer": {"class_name": "VarianceScaling", "config": {"seed": 3014, "scale": 1.0, "mode": "fan_avg", "distribution": "normal"}}, "bias_initializer": {"class_name": "Zeros", "config": {}}, "kernel_constraint": null, "name": "B3_PWH_0", "activation": "relu", "bias_constraint": null}, "name": "B3_PWH_0", "inbound_nodes": [[["CHK_INPUT_NOW", 0, 0, {}]]]}, {"class_name": "Dense", "config": {"use_bias": true, "kernel_regularizer": {"class_name": "L1L2", "config": {"l2": 0.0005000000237487257, "l1": 0.0}}, "trainable": true, "activity_regularizer": null, "units": 30, "bias_regularizer": null, "kernel_initializer": {"class_name": "VarianceScaling", "config": {"seed": 3014, "scale": 1.0, "mode": "fan_avg", "distribution": "normal"}}, "bias_initializer": {"class_name": "Zeros", "config": {}}, "kernel_constraint": null, "name": "D1_PWH_0", "activation": "relu", "bias_constraint": null}, "name": "D1_PWH_0", "inbound_nodes": [[["CHK_INPUT_NOW", 0, 0, {}]]]}, {"class_name": "Dense", "config": {"use_bias": true, "kernel_regularizer": {"class_name": "L1L2", "config": {"l2": 0.0005000000237487257, "l1": 0.0}}, "trainable": true, "activity_regularizer": null, "units": 30, "bias_regularizer": null, "kernel_initializer": {"class_name": "VarianceScaling", "config": {"seed": 3014, "scale": 1.0, "mode": "fan_avg", "distribution": "normal"}}, "bias_initializer": {"class_name": "Zeros", "config": {}}, "kernel_constraint": null, "name": "C1_PWH_1", "activation": "relu", "bias_constraint": null}, "name": "C1_PWH_1", "inbound_nodes": [[["C1_PWH_0", 0, 0, {}]]]}, {"class_name": "Dense", "config": {"use_bias": true, "kernel_regularizer": {"class_name": "L1L2", "config": {"l2": 0.0005000000237487257, "l1": 0.0}}, "trainable": true, "activity_regularizer": null, "units": 30, "bias_regularizer": null, "kernel_initializer": {"class_name": "VarianceScaling", "config": {"seed": 3014, "scale": 1.0, "mode": "fan_avg", "distribution": "normal"}}, "bias_initializer": {"class_name": "Zeros", "config": {}}, "kernel_constraint": null, "name": "C2_PWH_1", "activation": "relu", "bias_constraint": null}, "name": "C2_PWH_1", "inbound_nodes": [[["C2_PWH_0", 0, 0, {}]]]}, {"class_name": "Dense", "config": {"use_bias": true, "kernel_regularizer": {"class_name": "L1L2", "config": {"l2": 0.0005000000237487257, "l1": 0.0}}, "trainable": true, "activity_regularizer": null, "units": 30, "bias_regularizer": null, "kernel_initializer": {"class_name": "VarianceScaling", "config": {"seed": 3014, "scale": 1.0, "mode": "fan_avg", "distribution": "normal"}}, "bias_initializer": {"class_name": "Zeros", "config": {}}, "kernel_constraint": null, "name": "C3_PWH_1", "activation": "relu", "bias_constraint": null}, "name": "C3_PWH_1", "inbound_nodes": [[["C3_PWH_0", 0, 0, {}]]]}, {"class_name": "Dense", "config": {"use_bias": true, "kernel_regularizer": {"class_name": "L1L2", "config": {"l2": 0.0005000000237487257, "l1": 0.0}}, "trainable": true, "activity_regularizer": null, "units": 30, "bias_regularizer": null, "kernel_initializer": {"class_name": "VarianceScaling", "config": {"seed": 3014, "scale": 1.0, "mode": "fan_avg", "distribution": "normal"}}, "bias_initializer": {"class_name": "Zeros", "config": {}}, "kernel_constraint": null, "name": "C4_PWH_1", "activation": "relu", "bias_constraint": null}, "name": "C4_PWH_1", "inbound_nodes": [[["C4_PWH_0", 0, 0, {}]]]}, {"class_name": "Dense", "config": {"use_bias": true, "kernel_regularizer": {"class_name": "L1L2", "config": {"l2": 0.0005000000237487257, "l1": 0.0}}, "trainable": true, "activity_regularizer": null, "units": 30, "bias_regularizer": null, "kernel_initializer": {"class_name": "VarianceScaling", "config": {"seed": 3014, "scale": 1.0, "mode": "fan_avg", "distribution": "normal"}}, "bias_initializer": {"class_name": "Zeros", "config": {}}, "kernel_constraint": null, "name": "B1_PWH_1", "activation": "relu", "bias_constraint": null}, "name": "B1_PWH_1", "inbound_nodes": [[["B1_PWH_0", 0, 0, {}]]]}, {"class_name": "Dense", "config": {"use_bias": true, "kernel_regularizer": {"class_name": "L1L2", "config": {"l2": 0.0005000000237487257, "l1": 0.0}}, "trainable": true, "activity_regularizer": null, "units": 30, "bias_regularizer": null, "kernel_initializer": {"class_name": "VarianceScaling", "config": {"seed": 3014, "scale": 1.0, "mode": "fan_avg", "distribution": "normal"}}, "bias_initializer": {"class_name": "Zeros", "config": {}}, "kernel_constraint": null, "name": "B3_PWH_1", "activation": "relu", "bias_constraint": null}, "name": "B3_PWH_1", "inbound_nodes": [[["B3_PWH_0", 0, 0, {}]]]}, {"class_name": "Dense", "config": {"use_bias": true, "kernel_regularizer": {"class_name": "L1L2", "config": {"l2": 0.0005000000237487257, "l1": 0.0}}, "trainable": true, "activity_regularizer": null, "units": 30, "bias_regularizer": null, "kernel_initializer": {"class_name": "VarianceScaling", "config": {"seed": 3014, "scale": 1.0, "mode": "fan_avg", "distribution": "normal"}}, "bias_initializer": {"class_name": "Zeros", "config": {}}, "kernel_constraint": null, "name": "D1_PWH_1", "activation": "relu", "bias_constraint": null}, "name": "D1_PWH_1", "inbound_nodes": [[["D1_PWH_0", 0, 0, {}]]]}, {"class_name": "Dense", "config": {"use_bias": true, "kernel_regularizer": {"class_name": "L1L2", "config": {"l2": 0.0005000000237487257, "l1": 0.0}}, "trainable": true, "activity_regularizer": null, "units": 1, "bias_regularizer": null, "kernel_initializer": {"class_name": "VarianceScaling", "config": {"seed": 3014, "scale": 1.0, "mode": "fan_avg", "distribution": "normal"}}, "bias_initializer": {"class_name": "Zeros", "config": {}}, "kernel_constraint": null, "name": "C1_PWH_out", "activation": "linear", "bias_constraint": null}, "name": "C1_PWH_out", "inbound_nodes": [[["C1_PWH_1", 0, 0, {}]]]}, {"class_name": "Dense", "config": {"use_bias": true, "kernel_regularizer": {"class_name": "L1L2", "config": {"l2": 0.0005000000237487257, "l1": 0.0}}, "trainable": true, "activity_regularizer": null, "units": 1, "bias_regularizer": null, "kernel_initializer": {"class_name": "VarianceScaling", "config": {"seed": 3014, "scale": 1.0, "mode": "fan_avg", "distribution": "normal"}}, "bias_initializer": {"class_name": "Zeros", "config": {}}, "kernel_constraint": null, "name": "C2_PWH_out", "activation": "linear", "bias_constraint": null}, "name": "C2_PWH_out", "inbound_nodes": [[["C2_PWH_1", 0, 0, {}]]]}, {"class_name": "Dense", "config": {"use_bias": true, "kernel_regularizer": {"class_name": "L1L2", "config": {"l2": 0.0005000000237487257, "l1": 0.0}}, "trainable": true, "activity_regularizer": null, "units": 1, "bias_regularizer": null, "kernel_initializer": {"class_name": "VarianceScaling", "config": {"seed": 3014, "scale": 1.0, "mode": "fan_avg", "distribution": "normal"}}, "bias_initializer": {"class_name": "Zeros", "config": {}}, "kernel_constraint": null, "name": "C3_PWH_out", "activation": "linear", "bias_constraint": null}, "name": "C3_PWH_out", "inbound_nodes": [[["C3_PWH_1", 0, 0, {}]]]}, {"class_name": "Dense", "config": {"use_bias": true, "kernel_regularizer": {"class_name": "L1L2", "config": {"l2": 0.0005000000237487257, "l1": 0.0}}, "trainable": true, "activity_regularizer": null, "units": 1, "bias_regularizer": null, "kernel_initializer": {"class_name": "VarianceScaling", "config": {"seed": 3014, "scale": 1.0, "mode": "fan_avg", "distribution": "normal"}}, "bias_initializer": {"class_name": "Zeros", "config": {}}, "kernel_constraint": null, "name": "C4_PWH_out", "activation": "linear", "bias_constraint": null}, "name": "C4_PWH_out", "inbound_nodes": [[["C4_PWH_1", 0, 0, {}]]]}, {"class_name": "Dense", "config": {"use_bias": true, "kernel_regularizer": {"class_name": "L1L2", "config": {"l2": 0.0005000000237487257, "l1": 0.0}}, "trainable": true, "activity_regularizer": null, "units": 1, "bias_regularizer": null, "kernel_initializer": {"class_name": "VarianceScaling", "config": {"seed": 3014, "scale": 1.0, "mode": "fan_avg", "distribution": "normal"}}, "bias_initializer": {"class_name": "Zeros", "config": {}}, "kernel_constraint": null, "name": "B1_PWH_out", "activation": "linear", "bias_constraint": null}, "name": "B1_PWH_out", "inbound_nodes": [[["B1_PWH_1", 0, 0, {}]]]}, {"class_name": "Dense", "config": {"use_bias": true, "kernel_regularizer": {"class_name": "L1L2", "config": {"l2": 0.0005000000237487257, "l1": 0.0}}, "trainable": true, "activity_regularizer": null, "units": 1, "bias_regularizer": null, "kernel_initializer": {"class_name": "VarianceScaling", "config": {"seed": 3014, "scale": 1.0, "mode": "fan_avg", "distribution": "normal"}}, "bias_initializer": {"class_name": "Zeros", "config": {}}, "kernel_constraint": null, "name": "B3_PWH_out", "activation": "linear", "bias_constraint": null}, "name": "B3_PWH_out", "inbound_nodes": [[["B3_PWH_1", 0, 0, {}]]]}, {"class_name": "Dense", "config": {"use_bias": true, "kernel_regularizer": {"class_name": "L1L2", "config": {"l2": 0.0005000000237487257, "l1": 0.0}}, "trainable": true, "activity_regularizer": null, "units": 1, "bias_regularizer": null, "kernel_initializer": {"class_name": "VarianceScaling", "config": {"seed": 3014, "scale": 1.0, "mode": "fan_avg", "distribution": "normal"}}, "bias_initializer": {"class_name": "Zeros", "config": {}}, "kernel_constraint": null, "name": "D1_PWH_out", "activation": "linear", "bias_constraint": null}, "name": "D1_PWH_out", "inbound_nodes": [[["D1_PWH_1", 0, 0, {}]]]}]}, "backend": "theano", "keras_version": "2.0.1"}