{"backend": "theano", "keras_version": "2.0.1", "config": {"name": "model_1", "output_layers": [["F1_PDC_out", 0, 0], ["B2_PDC_out", 0, 0], ["D3_PDC_out", 0, 0], ["E1_PDC_out", 0, 0]], "input_layers": [["CHK_INPUT_NOW", 0, 0]], "layers": [{"name": "CHK_INPUT_NOW", "class_name": "InputLayer", "config": {"name": "CHK_INPUT_NOW", "batch_input_shape": [null, 4], "sparse": false, "dtype": "float32"}, "inbound_nodes": []}, {"name": "F1_PDC_0", "class_name": "Dense", "config": {"units": 90, "use_bias": true, "activation": "relu", "bias_constraint": null, "kernel_initializer": {"config": {"seed": 3014, "scale": 1.0, "distribution": "normal", "mode": "fan_avg"}, "class_name": "VarianceScaling"}, "kernel_regularizer": {"config": {"l2": 0.0003499999875202775, "l1": 0.0}, "class_name": "L1L2"}, "bias_initializer": {"config": {}, "class_name": "Zeros"}, "kernel_constraint": null, "activity_regularizer": null, "name": "F1_PDC_0", "bias_regularizer": null, "trainable": true}, "inbound_nodes": [[["CHK_INPUT_NOW", 0, 0, {}]]]}, {"name": "B2_PDC_0", "class_name": "Dense", "config": {"units": 90, "use_bias": true, "activation": "relu", "bias_constraint": null, "kernel_initializer": {"config": {"seed": 3014, "scale": 1.0, "distribution": "normal", "mode": "fan_avg"}, "class_name": "VarianceScaling"}, "kernel_regularizer": {"config": {"l2": 0.0003499999875202775, "l1": 0.0}, "class_name": "L1L2"}, "bias_initializer": {"config": {}, "class_name": "Zeros"}, "kernel_constraint": null, "activity_regularizer": null, "name": "B2_PDC_0", "bias_regularizer": null, "trainable": true}, "inbound_nodes": [[["CHK_INPUT_NOW", 0, 0, {}]]]}, {"name": "D3_PDC_0", "class_name": "Dense", "config": {"units": 90, "use_bias": true, "activation": "relu", "bias_constraint": null, "kernel_initializer": {"config": {"seed": 3014, "scale": 1.0, "distribution": "normal", "mode": "fan_avg"}, "class_name": "VarianceScaling"}, "kernel_regularizer": {"config": {"l2": 0.0003499999875202775, "l1": 0.0}, "class_name": "L1L2"}, "bias_initializer": {"config": {}, "class_name": "Zeros"}, "kernel_constraint": null, "activity_regularizer": null, "name": "D3_PDC_0", "bias_regularizer": null, "trainable": true}, "inbound_nodes": [[["CHK_INPUT_NOW", 0, 0, {}]]]}, {"name": "E1_PDC_0", "class_name": "Dense", "config": {"units": 90, "use_bias": true, "activation": "relu", "bias_constraint": null, "kernel_initializer": {"config": {"seed": 3014, "scale": 1.0, "distribution": "normal", "mode": "fan_avg"}, "class_name": "VarianceScaling"}, "kernel_regularizer": {"config": {"l2": 0.0003499999875202775, "l1": 0.0}, "class_name": "L1L2"}, "bias_initializer": {"config": {}, "class_name": "Zeros"}, "kernel_constraint": null, "activity_regularizer": null, "name": "E1_PDC_0", "bias_regularizer": null, "trainable": true}, "inbound_nodes": [[["CHK_INPUT_NOW", 0, 0, {}]]]}, {"name": "F1_PDC_1", "class_name": "Dense", "config": {"units": 90, "use_bias": true, "activation": "relu", "bias_constraint": null, "kernel_initializer": {"config": {"seed": 3014, "scale": 1.0, "distribution": "normal", "mode": "fan_avg"}, "class_name": "VarianceScaling"}, "kernel_regularizer": {"config": {"l2": 0.0003499999875202775, "l1": 0.0}, "class_name": "L1L2"}, "bias_initializer": {"config": {}, "class_name": "Zeros"}, "kernel_constraint": null, "activity_regularizer": null, "name": "F1_PDC_1", "bias_regularizer": null, "trainable": true}, "inbound_nodes": [[["F1_PDC_0", 0, 0, {}]]]}, {"name": "B2_PDC_1", "class_name": "Dense", "config": {"units": 90, "use_bias": true, "activation": "relu", "bias_constraint": null, "kernel_initializer": {"config": {"seed": 3014, "scale": 1.0, "distribution": "normal", "mode": "fan_avg"}, "class_name": "VarianceScaling"}, "kernel_regularizer": {"config": {"l2": 0.0003499999875202775, "l1": 0.0}, "class_name": "L1L2"}, "bias_initializer": {"config": {}, "class_name": "Zeros"}, "kernel_constraint": null, "activity_regularizer": null, "name": "B2_PDC_1", "bias_regularizer": null, "trainable": true}, "inbound_nodes": [[["B2_PDC_0", 0, 0, {}]]]}, {"name": "D3_PDC_1", "class_name": "Dense", "config": {"units": 90, "use_bias": true, "activation": "relu", "bias_constraint": null, "kernel_initializer": {"config": {"seed": 3014, "scale": 1.0, "distribution": "normal", "mode": "fan_avg"}, "class_name": "VarianceScaling"}, "kernel_regularizer": {"config": {"l2": 0.0003499999875202775, "l1": 0.0}, "class_name": "L1L2"}, "bias_initializer": {"config": {}, "class_name": "Zeros"}, "kernel_constraint": null, "activity_regularizer": null, "name": "D3_PDC_1", "bias_regularizer": null, "trainable": true}, "inbound_nodes": [[["D3_PDC_0", 0, 0, {}]]]}, {"name": "E1_PDC_1", "class_name": "Dense", "config": {"units": 90, "use_bias": true, "activation": "relu", "bias_constraint": null, "kernel_initializer": {"config": {"seed": 3014, "scale": 1.0, "distribution": "normal", "mode": "fan_avg"}, "class_name": "VarianceScaling"}, "kernel_regularizer": {"config": {"l2": 0.0003499999875202775, "l1": 0.0}, "class_name": "L1L2"}, "bias_initializer": {"config": {}, "class_name": "Zeros"}, "kernel_constraint": null, "activity_regularizer": null, "name": "E1_PDC_1", "bias_regularizer": null, "trainable": true}, "inbound_nodes": [[["E1_PDC_0", 0, 0, {}]]]}, {"name": "F1_PDC_out", "class_name": "Dense", "config": {"units": 1, "use_bias": true, "activation": "linear", "bias_constraint": null, "kernel_initializer": {"config": {"seed": 3014, "scale": 1.0, "distribution": "normal", "mode": "fan_avg"}, "class_name": "VarianceScaling"}, "kernel_regularizer": {"config": {"l2": 0.0003499999875202775, "l1": 0.0}, "class_name": "L1L2"}, "bias_initializer": {"config": {}, "class_name": "Zeros"}, "kernel_constraint": null, "activity_regularizer": null, "name": "F1_PDC_out", "bias_regularizer": null, "trainable": true}, "inbound_nodes": [[["F1_PDC_1", 0, 0, {}]]]}, {"name": "B2_PDC_out", "class_name": "Dense", "config": {"units": 1, "use_bias": true, "activation": "linear", "bias_constraint": null, "kernel_initializer": {"config": {"seed": 3014, "scale": 1.0, "distribution": "normal", "mode": "fan_avg"}, "class_name": "VarianceScaling"}, "kernel_regularizer": {"config": {"l2": 0.0003499999875202775, "l1": 0.0}, "class_name": "L1L2"}, "bias_initializer": {"config": {}, "class_name": "Zeros"}, "kernel_constraint": null, "activity_regularizer": null, "name": "B2_PDC_out", "bias_regularizer": null, "trainable": true}, "inbound_nodes": [[["B2_PDC_1", 0, 0, {}]]]}, {"name": "D3_PDC_out", "class_name": "Dense", "config": {"units": 1, "use_bias": true, "activation": "linear", "bias_constraint": null, "kernel_initializer": {"config": {"seed": 3014, "scale": 1.0, "distribution": "normal", "mode": "fan_avg"}, "class_name": "VarianceScaling"}, "kernel_regularizer": {"config": {"l2": 0.0003499999875202775, "l1": 0.0}, "class_name": "L1L2"}, "bias_initializer": {"config": {}, "class_name": "Zeros"}, "kernel_constraint": null, "activity_regularizer": null, "name": "D3_PDC_out", "bias_regularizer": null, "trainable": true}, "inbound_nodes": [[["D3_PDC_1", 0, 0, {}]]]}, {"name": "E1_PDC_out", "class_name": "Dense", "config": {"units": 1, "use_bias": true, "activation": "linear", "bias_constraint": null, "kernel_initializer": {"config": {"seed": 3014, "scale": 1.0, "distribution": "normal", "mode": "fan_avg"}, "class_name": "VarianceScaling"}, "kernel_regularizer": {"config": {"l2": 0.0003499999875202775, "l1": 0.0}, "class_name": "L1L2"}, "bias_initializer": {"config": {}, "class_name": "Zeros"}, "kernel_constraint": null, "activity_regularizer": null, "name": "E1_PDC_out", "bias_regularizer": null, "trainable": true}, "inbound_nodes": [[["E1_PDC_1", 0, 0, {}]]]}]}, "class_name": "Model"}