{"keras_version": "2.0.1", "backend": "theano", "config": {"input_layers": [["F1", 0, 0], ["B2", 0, 0], ["D3", 0, 0], ["E1", 0, 0], ["OnOff_F1", 0, 0], ["OnOff_B2", 0, 0], ["OnOff_D3", 0, 0], ["OnOff_E1", 0, 0]], "output_layers": [["F1_out", 0, 0], ["B2_out", 0, 0], ["D3_out", 0, 0], ["E1_out", 0, 0], ["GJOA_QGAS", 0, 0]], "name": "model_3", "layers": [{"inbound_nodes": [], "config": {"batch_input_shape": [null, 4], "dtype": "float32", "name": "F1", "sparse": false}, "name": "F1", "class_name": "InputLayer"}, {"inbound_nodes": [], "config": {"batch_input_shape": [null, 4], "dtype": "float32", "name": "B2", "sparse": false}, "name": "B2", "class_name": "InputLayer"}, {"inbound_nodes": [], "config": {"batch_input_shape": [null, 4], "dtype": "float32", "name": "D3", "sparse": false}, "name": "D3", "class_name": "InputLayer"}, {"inbound_nodes": [], "config": {"batch_input_shape": [null, 4], "dtype": "float32", "name": "E1", "sparse": false}, "name": "E1", "class_name": "InputLayer"}, {"inbound_nodes": [[["F1", 0, 0, {}]]], "config": {"units": 90, "name": "F1_0", "bias_regularizer": null, "trainable": true, "activation": "relu", "kernel_initializer": {"config": {"seed": 3014, "mode": "fan_avg", "distribution": "normal", "scale": 1.0}, "class_name": "VarianceScaling"}, "use_bias": true, "bias_constraint": null, "kernel_constraint": null, "bias_initializer": {"config": {}, "class_name": "Zeros"}, "kernel_regularizer": {"config": {"l1": 0.0, "l2": 9.999999747378752e-05}, "class_name": "L1L2"}, "activity_regularizer": null}, "name": "F1_0", "class_name": "Dense"}, {"inbound_nodes": [[["B2", 0, 0, {}]]], "config": {"units": 90, "name": "B2_0", "bias_regularizer": null, "trainable": true, "activation": "relu", "kernel_initializer": {"config": {"seed": 3014, "mode": "fan_avg", "distribution": "normal", "scale": 1.0}, "class_name": "VarianceScaling"}, "use_bias": true, "bias_constraint": null, "kernel_constraint": null, "bias_initializer": {"config": {}, "class_name": "Zeros"}, "kernel_regularizer": {"config": {"l1": 0.0, "l2": 9.999999747378752e-05}, "class_name": "L1L2"}, "activity_regularizer": null}, "name": "B2_0", "class_name": "Dense"}, {"inbound_nodes": [[["D3", 0, 0, {}]]], "config": {"units": 90, "name": "D3_0", "bias_regularizer": null, "trainable": true, "activation": "relu", "kernel_initializer": {"config": {"seed": 3014, "mode": "fan_avg", "distribution": "normal", "scale": 1.0}, "class_name": "VarianceScaling"}, "use_bias": true, "bias_constraint": null, "kernel_constraint": null, "bias_initializer": {"config": {}, "class_name": "Zeros"}, "kernel_regularizer": {"config": {"l1": 0.0, "l2": 9.999999747378752e-05}, "class_name": "L1L2"}, "activity_regularizer": null}, "name": "D3_0", "class_name": "Dense"}, {"inbound_nodes": [[["E1", 0, 0, {}]]], "config": {"units": 90, "name": "E1_0", "bias_regularizer": null, "trainable": true, "activation": "relu", "kernel_initializer": {"config": {"seed": 3014, "mode": "fan_avg", "distribution": "normal", "scale": 1.0}, "class_name": "VarianceScaling"}, "use_bias": true, "bias_constraint": null, "kernel_constraint": null, "bias_initializer": {"config": {}, "class_name": "Zeros"}, "kernel_regularizer": {"config": {"l1": 0.0, "l2": 9.999999747378752e-05}, "class_name": "L1L2"}, "activity_regularizer": null}, "name": "E1_0", "class_name": "Dense"}, {"inbound_nodes": [[["F1_0", 0, 0, {}]]], "config": {"units": 90, "name": "F1_1", "bias_regularizer": null, "trainable": true, "activation": "relu", "kernel_initializer": {"config": {"seed": 3014, "mode": "fan_avg", "distribution": "normal", "scale": 1.0}, "class_name": "VarianceScaling"}, "use_bias": true, "bias_constraint": null, "kernel_constraint": null, "bias_initializer": {"config": {}, "class_name": "Zeros"}, "kernel_regularizer": {"config": {"l1": 0.0, "l2": 9.999999747378752e-05}, "class_name": "L1L2"}, "activity_regularizer": null}, "name": "F1_1", "class_name": "Dense"}, {"inbound_nodes": [[["B2_0", 0, 0, {}]]], "config": {"units": 90, "name": "B2_1", "bias_regularizer": null, "trainable": true, "activation": "relu", "kernel_initializer": {"config": {"seed": 3014, "mode": "fan_avg", "distribution": "normal", "scale": 1.0}, "class_name": "VarianceScaling"}, "use_bias": true, "bias_constraint": null, "kernel_constraint": null, "bias_initializer": {"config": {}, "class_name": "Zeros"}, "kernel_regularizer": {"config": {"l1": 0.0, "l2": 9.999999747378752e-05}, "class_name": "L1L2"}, "activity_regularizer": null}, "name": "B2_1", "class_name": "Dense"}, {"inbound_nodes": [[["D3_0", 0, 0, {}]]], "config": {"units": 90, "name": "D3_1", "bias_regularizer": null, "trainable": true, "activation": "relu", "kernel_initializer": {"config": {"seed": 3014, "mode": "fan_avg", "distribution": "normal", "scale": 1.0}, "class_name": "VarianceScaling"}, "use_bias": true, "bias_constraint": null, "kernel_constraint": null, "bias_initializer": {"config": {}, "class_name": "Zeros"}, "kernel_regularizer": {"config": {"l1": 0.0, "l2": 9.999999747378752e-05}, "class_name": "L1L2"}, "activity_regularizer": null}, "name": "D3_1", "class_name": "Dense"}, {"inbound_nodes": [[["E1_0", 0, 0, {}]]], "config": {"units": 90, "name": "E1_1", "bias_regularizer": null, "trainable": true, "activation": "relu", "kernel_initializer": {"config": {"seed": 3014, "mode": "fan_avg", "distribution": "normal", "scale": 1.0}, "class_name": "VarianceScaling"}, "use_bias": true, "bias_constraint": null, "kernel_constraint": null, "bias_initializer": {"config": {}, "class_name": "Zeros"}, "kernel_regularizer": {"config": {"l1": 0.0, "l2": 9.999999747378752e-05}, "class_name": "L1L2"}, "activity_regularizer": null}, "name": "E1_1", "class_name": "Dense"}, {"inbound_nodes": [], "config": {"batch_input_shape": [null, 1], "dtype": "float32", "name": "OnOff_F1", "sparse": false}, "name": "OnOff_F1", "class_name": "InputLayer"}, {"inbound_nodes": [[["F1_1", 0, 0, {}]]], "config": {"units": 1, "name": "F1_o", "bias_regularizer": null, "trainable": true, "activation": "relu", "kernel_initializer": {"config": {"seed": 3014, "mode": "fan_avg", "distribution": "normal", "scale": 1.0}, "class_name": "VarianceScaling"}, "use_bias": true, "bias_constraint": null, "kernel_constraint": null, "bias_initializer": {"config": {}, "class_name": "Zeros"}, "kernel_regularizer": {"config": {"l1": 0.0, "l2": 9.999999747378752e-05}, "class_name": "L1L2"}, "activity_regularizer": null}, "name": "F1_o", "class_name": "Dense"}, {"inbound_nodes": [], "config": {"batch_input_shape": [null, 1], "dtype": "float32", "name": "OnOff_B2", "sparse": false}, "name": "OnOff_B2", "class_name": "InputLayer"}, {"inbound_nodes": [[["B2_1", 0, 0, {}]]], "config": {"units": 1, "name": "B2_o", "bias_regularizer": null, "trainable": true, "activation": "relu", "kernel_initializer": {"config": {"seed": 3014, "mode": "fan_avg", "distribution": "normal", "scale": 1.0}, "class_name": "VarianceScaling"}, "use_bias": true, "bias_constraint": null, "kernel_constraint": null, "bias_initializer": {"config": {}, "class_name": "Zeros"}, "kernel_regularizer": {"config": {"l1": 0.0, "l2": 9.999999747378752e-05}, "class_name": "L1L2"}, "activity_regularizer": null}, "name": "B2_o", "class_name": "Dense"}, {"inbound_nodes": [], "config": {"batch_input_shape": [null, 1], "dtype": "float32", "name": "OnOff_D3", "sparse": false}, "name": "OnOff_D3", "class_name": "InputLayer"}, {"inbound_nodes": [[["D3_1", 0, 0, {}]]], "config": {"units": 1, "name": "D3_o", "bias_regularizer": null, "trainable": true, "activation": "relu", "kernel_initializer": {"config": {"seed": 3014, "mode": "fan_avg", "distribution": "normal", "scale": 1.0}, "class_name": "VarianceScaling"}, "use_bias": true, "bias_constraint": null, "kernel_constraint": null, "bias_initializer": {"config": {}, "class_name": "Zeros"}, "kernel_regularizer": {"config": {"l1": 0.0, "l2": 9.999999747378752e-05}, "class_name": "L1L2"}, "activity_regularizer": null}, "name": "D3_o", "class_name": "Dense"}, {"inbound_nodes": [], "config": {"batch_input_shape": [null, 1], "dtype": "float32", "name": "OnOff_E1", "sparse": false}, "name": "OnOff_E1", "class_name": "InputLayer"}, {"inbound_nodes": [[["E1_1", 0, 0, {}]]], "config": {"units": 1, "name": "E1_o", "bias_regularizer": null, "trainable": true, "activation": "relu", "kernel_initializer": {"config": {"seed": 3014, "mode": "fan_avg", "distribution": "normal", "scale": 1.0}, "class_name": "VarianceScaling"}, "use_bias": true, "bias_constraint": null, "kernel_constraint": null, "bias_initializer": {"config": {}, "class_name": "Zeros"}, "kernel_regularizer": {"config": {"l1": 0.0, "l2": 9.999999747378752e-05}, "class_name": "L1L2"}, "activity_regularizer": null}, "name": "E1_o", "class_name": "Dense"}, {"inbound_nodes": [[["OnOff_F1", 0, 0, {}], ["F1_o", 0, 0, {}]]], "config": {"trainable": true, "name": "F1_out"}, "name": "F1_out", "class_name": "Multiply"}, {"inbound_nodes": [[["OnOff_B2", 0, 0, {}], ["B2_o", 0, 0, {}]]], "config": {"trainable": true, "name": "B2_out"}, "name": "B2_out", "class_name": "Multiply"}, {"inbound_nodes": [[["OnOff_D3", 0, 0, {}], ["D3_o", 0, 0, {}]]], "config": {"trainable": true, "name": "D3_out"}, "name": "D3_out", "class_name": "Multiply"}, {"inbound_nodes": [[["OnOff_E1", 0, 0, {}], ["E1_o", 0, 0, {}]]], "config": {"trainable": true, "name": "E1_out"}, "name": "E1_out", "class_name": "Multiply"}, {"inbound_nodes": [[["F1_out", 0, 0, {}], ["B2_out", 0, 0, {}], ["D3_out", 0, 0, {}], ["E1_out", 0, 0, {}]]], "config": {"trainable": true, "name": "GJOA_QGAS"}, "name": "GJOA_QGAS", "class_name": "Add"}]}, "class_name": "Model"}