{"class_name": "Model", "config": {"name": "model_1", "layers": [{"name": "CHK_INPUT_PREV", "class_name": "InputLayer", "config": {"batch_input_shape": [null, 7], "dtype": "float32", "sparse": false, "name": "CHK_INPUT_PREV"}, "inbound_nodes": []}, {"name": "CHK_INPUT_NOW", "class_name": "InputLayer", "config": {"batch_input_shape": [null, 7], "dtype": "float32", "sparse": false, "name": "CHK_INPUT_NOW"}, "inbound_nodes": []}, {"name": "CHK_DELTA", "class_name": "Add", "config": {"name": "CHK_DELTA", "trainable": true}, "inbound_nodes": [[["CHK_INPUT_PREV", 0, 0, {}], ["CHK_INPUT_NOW", 0, 0, {}]]]}, {"name": "C1_QGAS_0", "class_name": "Dense", "config": {"name": "C1_QGAS_0", "trainable": true, "units": 20, "activation": "relu", "use_bias": true, "kernel_initializer": {"class_name": "VarianceScaling", "config": {"scale": 1.0, "mode": "fan_avg", "distribution": "normal", "seed": 3014}}, "bias_initializer": {"class_name": "Zeros", "config": {}}, "kernel_regularizer": {"class_name": "L1L2", "config": {"l1": 0.0, "l2": 9.999999747378752e-05}}, "bias_regularizer": null, "activity_regularizer": null, "kernel_constraint": null, "bias_constraint": null}, "inbound_nodes": [[["CHK_DELTA", 0, 0, {}]]]}, {"name": "C2_QGAS_0", "class_name": "Dense", "config": {"name": "C2_QGAS_0", "trainable": true, "units": 20, "activation": "relu", "use_bias": true, "kernel_initializer": {"class_name": "VarianceScaling", "config": {"scale": 1.0, "mode": "fan_avg", "distribution": "normal", "seed": 3014}}, "bias_initializer": {"class_name": "Zeros", "config": {}}, "kernel_regularizer": {"class_name": "L1L2", "config": {"l1": 0.0, "l2": 9.999999747378752e-05}}, "bias_regularizer": null, "activity_regularizer": null, "kernel_constraint": null, "bias_constraint": null}, "inbound_nodes": [[["CHK_DELTA", 0, 0, {}]]]}, {"name": "C3_QGAS_0", "class_name": "Dense", "config": {"name": "C3_QGAS_0", "trainable": true, "units": 20, "activation": "relu", "use_bias": true, "kernel_initializer": {"class_name": "VarianceScaling", "config": {"scale": 1.0, "mode": "fan_avg", "distribution": "normal", "seed": 3014}}, "bias_initializer": {"class_name": "Zeros", "config": {}}, "kernel_regularizer": {"class_name": "L1L2", "config": {"l1": 0.0, "l2": 9.999999747378752e-05}}, "bias_regularizer": null, "activity_regularizer": null, "kernel_constraint": null, "bias_constraint": null}, "inbound_nodes": [[["CHK_DELTA", 0, 0, {}]]]}, {"name": "C4_QGAS_0", "class_name": "Dense", "config": {"name": "C4_QGAS_0", "trainable": true, "units": 20, "activation": "relu", "use_bias": true, "kernel_initializer": {"class_name": "VarianceScaling", "config": {"scale": 1.0, "mode": "fan_avg", "distribution": "normal", "seed": 3014}}, "bias_initializer": {"class_name": "Zeros", "config": {}}, "kernel_regularizer": {"class_name": "L1L2", "config": {"l1": 0.0, "l2": 9.999999747378752e-05}}, "bias_regularizer": null, "activity_regularizer": null, "kernel_constraint": null, "bias_constraint": null}, "inbound_nodes": [[["CHK_DELTA", 0, 0, {}]]]}, {"name": "B3_QGAS_0", "class_name": "Dense", "config": {"name": "B3_QGAS_0", "trainable": true, "units": 20, "activation": "relu", "use_bias": true, "kernel_initializer": {"class_name": "VarianceScaling", "config": {"scale": 1.0, "mode": "fan_avg", "distribution": "normal", "seed": 3014}}, "bias_initializer": {"class_name": "Zeros", "config": {}}, "kernel_regularizer": {"class_name": "L1L2", "config": {"l1": 0.0, "l2": 9.999999747378752e-05}}, "bias_regularizer": null, "activity_regularizer": null, "kernel_constraint": null, "bias_constraint": null}, "inbound_nodes": [[["CHK_DELTA", 0, 0, {}]]]}, {"name": "B1_QGAS_0", "class_name": "Dense", "config": {"name": "B1_QGAS_0", "trainable": true, "units": 20, "activation": "relu", "use_bias": true, "kernel_initializer": {"class_name": "VarianceScaling", "config": {"scale": 1.0, "mode": "fan_avg", "distribution": "normal", "seed": 3014}}, "bias_initializer": {"class_name": "Zeros", "config": {}}, "kernel_regularizer": {"class_name": "L1L2", "config": {"l1": 0.0, "l2": 9.999999747378752e-05}}, "bias_regularizer": null, "activity_regularizer": null, "kernel_constraint": null, "bias_constraint": null}, "inbound_nodes": [[["CHK_DELTA", 0, 0, {}]]]}, {"name": "D1_QGAS_0", "class_name": "Dense", "config": {"name": "D1_QGAS_0", "trainable": true, "units": 20, "activation": "relu", "use_bias": true, "kernel_initializer": {"class_name": "VarianceScaling", "config": {"scale": 1.0, "mode": "fan_avg", "distribution": "normal", "seed": 3014}}, "bias_initializer": {"class_name": "Zeros", "config": {}}, "kernel_regularizer": {"class_name": "L1L2", "config": {"l1": 0.0, "l2": 9.999999747378752e-05}}, "bias_regularizer": null, "activity_regularizer": null, "kernel_constraint": null, "bias_constraint": null}, "inbound_nodes": [[["CHK_DELTA", 0, 0, {}]]]}, {"name": "C1_QGAS_1", "class_name": "Dense", "config": {"name": "C1_QGAS_1", "trainable": true, "units": 20, "activation": "relu", "use_bias": true, "kernel_initializer": {"class_name": "VarianceScaling", "config": {"scale": 1.0, "mode": "fan_avg", "distribution": "normal", "seed": 3014}}, "bias_initializer": {"class_name": "Zeros", "config": {}}, "kernel_regularizer": {"class_name": "L1L2", "config": {"l1": 0.0, "l2": 9.999999747378752e-05}}, "bias_regularizer": null, "activity_regularizer": null, "kernel_constraint": null, "bias_constraint": null}, "inbound_nodes": [[["C1_QGAS_0", 0, 0, {}]]]}, {"name": "C2_QGAS_1", "class_name": "Dense", "config": {"name": "C2_QGAS_1", "trainable": true, "units": 20, "activation": "relu", "use_bias": true, "kernel_initializer": {"class_name": "VarianceScaling", "config": {"scale": 1.0, "mode": "fan_avg", "distribution": "normal", "seed": 3014}}, "bias_initializer": {"class_name": "Zeros", "config": {}}, "kernel_regularizer": {"class_name": "L1L2", "config": {"l1": 0.0, "l2": 9.999999747378752e-05}}, "bias_regularizer": null, "activity_regularizer": null, "kernel_constraint": null, "bias_constraint": null}, "inbound_nodes": [[["C2_QGAS_0", 0, 0, {}]]]}, {"name": "C3_QGAS_1", "class_name": "Dense", "config": {"name": "C3_QGAS_1", "trainable": true, "units": 20, "activation": "relu", "use_bias": true, "kernel_initializer": {"class_name": "VarianceScaling", "config": {"scale": 1.0, "mode": "fan_avg", "distribution": "normal", "seed": 3014}}, "bias_initializer": {"class_name": "Zeros", "config": {}}, "kernel_regularizer": {"class_name": "L1L2", "config": {"l1": 0.0, "l2": 9.999999747378752e-05}}, "bias_regularizer": null, "activity_regularizer": null, "kernel_constraint": null, "bias_constraint": null}, "inbound_nodes": [[["C3_QGAS_0", 0, 0, {}]]]}, {"name": "C4_QGAS_1", "class_name": "Dense", "config": {"name": "C4_QGAS_1", "trainable": true, "units": 20, "activation": "relu", "use_bias": true, "kernel_initializer": {"class_name": "VarianceScaling", "config": {"scale": 1.0, "mode": "fan_avg", "distribution": "normal", "seed": 3014}}, "bias_initializer": {"class_name": "Zeros", "config": {}}, "kernel_regularizer": {"class_name": "L1L2", "config": {"l1": 0.0, "l2": 9.999999747378752e-05}}, "bias_regularizer": null, "activity_regularizer": null, "kernel_constraint": null, "bias_constraint": null}, "inbound_nodes": [[["C4_QGAS_0", 0, 0, {}]]]}, {"name": "B3_QGAS_1", "class_name": "Dense", "config": {"name": "B3_QGAS_1", "trainable": true, "units": 20, "activation": "relu", "use_bias": true, "kernel_initializer": {"class_name": "VarianceScaling", "config": {"scale": 1.0, "mode": "fan_avg", "distribution": "normal", "seed": 3014}}, "bias_initializer": {"class_name": "Zeros", "config": {}}, "kernel_regularizer": {"class_name": "L1L2", "config": {"l1": 0.0, "l2": 9.999999747378752e-05}}, "bias_regularizer": null, "activity_regularizer": null, "kernel_constraint": null, "bias_constraint": null}, "inbound_nodes": [[["B3_QGAS_0", 0, 0, {}]]]}, {"name": "B1_QGAS_1", "class_name": "Dense", "config": {"name": "B1_QGAS_1", "trainable": true, "units": 20, "activation": "relu", "use_bias": true, "kernel_initializer": {"class_name": "VarianceScaling", "config": {"scale": 1.0, "mode": "fan_avg", "distribution": "normal", "seed": 3014}}, "bias_initializer": {"class_name": "Zeros", "config": {}}, "kernel_regularizer": {"class_name": "L1L2", "config": {"l1": 0.0, "l2": 9.999999747378752e-05}}, "bias_regularizer": null, "activity_regularizer": null, "kernel_constraint": null, "bias_constraint": null}, "inbound_nodes": [[["B1_QGAS_0", 0, 0, {}]]]}, {"name": "D1_QGAS_1", "class_name": "Dense", "config": {"name": "D1_QGAS_1", "trainable": true, "units": 20, "activation": "relu", "use_bias": true, "kernel_initializer": {"class_name": "VarianceScaling", "config": {"scale": 1.0, "mode": "fan_avg", "distribution": "normal", "seed": 3014}}, "bias_initializer": {"class_name": "Zeros", "config": {}}, "kernel_regularizer": {"class_name": "L1L2", "config": {"l1": 0.0, "l2": 9.999999747378752e-05}}, "bias_regularizer": null, "activity_regularizer": null, "kernel_constraint": null, "bias_constraint": null}, "inbound_nodes": [[["D1_QGAS_0", 0, 0, {}]]]}, {"name": "C1_QGAS_out", "class_name": "Dense", "config": {"name": "C1_QGAS_out", "trainable": true, "units": 1, "activation": "linear", "use_bias": true, "kernel_initializer": {"class_name": "VarianceScaling", "config": {"scale": 1.0, "mode": "fan_avg", "distribution": "normal", "seed": 3014}}, "bias_initializer": {"class_name": "Zeros", "config": {}}, "kernel_regularizer": {"class_name": "L1L2", "config": {"l1": 0.0, "l2": 9.999999747378752e-05}}, "bias_regularizer": null, "activity_regularizer": null, "kernel_constraint": null, "bias_constraint": null}, "inbound_nodes": [[["C1_QGAS_1", 0, 0, {}]]]}, {"name": "SHIFTED_PRESSURE_QGAS_C1", "class_name": "InputLayer", "config": {"batch_input_shape": [null, 1], "dtype": "float32", "sparse": false, "name": "SHIFTED_PRESSURE_QGAS_C1"}, "inbound_nodes": []}, {"name": "C2_QGAS_out", "class_name": "Dense", "config": {"name": "C2_QGAS_out", "trainable": true, "units": 1, "activation": "linear", "use_bias": true, "kernel_initializer": {"class_name": "VarianceScaling", "config": {"scale": 1.0, "mode": "fan_avg", "distribution": "normal", "seed": 3014}}, "bias_initializer": {"class_name": "Zeros", "config": {}}, "kernel_regularizer": {"class_name": "L1L2", "config": {"l1": 0.0, "l2": 9.999999747378752e-05}}, "bias_regularizer": null, "activity_regularizer": null, "kernel_constraint": null, "bias_constraint": null}, "inbound_nodes": [[["C2_QGAS_1", 0, 0, {}]]]}, {"name": "SHIFTED_PRESSURE_QGAS_C2", "class_name": "InputLayer", "config": {"batch_input_shape": [null, 1], "dtype": "float32", "sparse": false, "name": "SHIFTED_PRESSURE_QGAS_C2"}, "inbound_nodes": []}, {"name": "C3_QGAS_out", "class_name": "Dense", "config": {"name": "C3_QGAS_out", "trainable": true, "units": 1, "activation": "linear", "use_bias": true, "kernel_initializer": {"class_name": "VarianceScaling", "config": {"scale": 1.0, "mode": "fan_avg", "distribution": "normal", "seed": 3014}}, "bias_initializer": {"class_name": "Zeros", "config": {}}, "kernel_regularizer": {"class_name": "L1L2", "config": {"l1": 0.0, "l2": 9.999999747378752e-05}}, "bias_regularizer": null, "activity_regularizer": null, "kernel_constraint": null, "bias_constraint": null}, "inbound_nodes": [[["C3_QGAS_1", 0, 0, {}]]]}, {"name": "SHIFTED_PRESSURE_QGAS_C3", "class_name": "InputLayer", "config": {"batch_input_shape": [null, 1], "dtype": "float32", "sparse": false, "name": "SHIFTED_PRESSURE_QGAS_C3"}, "inbound_nodes": []}, {"name": "C4_QGAS_out", "class_name": "Dense", "config": {"name": "C4_QGAS_out", "trainable": true, "units": 1, "activation": "linear", "use_bias": true, "kernel_initializer": {"class_name": "VarianceScaling", "config": {"scale": 1.0, "mode": "fan_avg", "distribution": "normal", "seed": 3014}}, "bias_initializer": {"class_name": "Zeros", "config": {}}, "kernel_regularizer": {"class_name": "L1L2", "config": {"l1": 0.0, "l2": 9.999999747378752e-05}}, "bias_regularizer": null, "activity_regularizer": null, "kernel_constraint": null, "bias_constraint": null}, "inbound_nodes": [[["C4_QGAS_1", 0, 0, {}]]]}, {"name": "SHIFTED_PRESSURE_QGAS_C4", "class_name": "InputLayer", "config": {"batch_input_shape": [null, 1], "dtype": "float32", "sparse": false, "name": "SHIFTED_PRESSURE_QGAS_C4"}, "inbound_nodes": []}, {"name": "B3_QGAS_out", "class_name": "Dense", "config": {"name": "B3_QGAS_out", "trainable": true, "units": 1, "activation": "linear", "use_bias": true, "kernel_initializer": {"class_name": "VarianceScaling", "config": {"scale": 1.0, "mode": "fan_avg", "distribution": "normal", "seed": 3014}}, "bias_initializer": {"class_name": "Zeros", "config": {}}, "kernel_regularizer": {"class_name": "L1L2", "config": {"l1": 0.0, "l2": 9.999999747378752e-05}}, "bias_regularizer": null, "activity_regularizer": null, "kernel_constraint": null, "bias_constraint": null}, "inbound_nodes": [[["B3_QGAS_1", 0, 0, {}]]]}, {"name": "SHIFTED_PRESSURE_QGAS_B3", "class_name": "InputLayer", "config": {"batch_input_shape": [null, 1], "dtype": "float32", "sparse": false, "name": "SHIFTED_PRESSURE_QGAS_B3"}, "inbound_nodes": []}, {"name": "B1_QGAS_out", "class_name": "Dense", "config": {"name": "B1_QGAS_out", "trainable": true, "units": 1, "activation": "linear", "use_bias": true, "kernel_initializer": {"class_name": "VarianceScaling", "config": {"scale": 1.0, "mode": "fan_avg", "distribution": "normal", "seed": 3014}}, "bias_initializer": {"class_name": "Zeros", "config": {}}, "kernel_regularizer": {"class_name": "L1L2", "config": {"l1": 0.0, "l2": 9.999999747378752e-05}}, "bias_regularizer": null, "activity_regularizer": null, "kernel_constraint": null, "bias_constraint": null}, "inbound_nodes": [[["B1_QGAS_1", 0, 0, {}]]]}, {"name": "SHIFTED_PRESSURE_QGAS_B1", "class_name": "InputLayer", "config": {"batch_input_shape": [null, 1], "dtype": "float32", "sparse": false, "name": "SHIFTED_PRESSURE_QGAS_B1"}, "inbound_nodes": []}, {"name": "D1_QGAS_out", "class_name": "Dense", "config": {"name": "D1_QGAS_out", "trainable": true, "units": 1, "activation": "linear", "use_bias": true, "kernel_initializer": {"class_name": "VarianceScaling", "config": {"scale": 1.0, "mode": "fan_avg", "distribution": "normal", "seed": 3014}}, "bias_initializer": {"class_name": "Zeros", "config": {}}, "kernel_regularizer": {"class_name": "L1L2", "config": {"l1": 0.0, "l2": 9.999999747378752e-05}}, "bias_regularizer": null, "activity_regularizer": null, "kernel_constraint": null, "bias_constraint": null}, "inbound_nodes": [[["D1_QGAS_1", 0, 0, {}]]]}, {"name": "SHIFTED_PRESSURE_QGAS_D1", "class_name": "InputLayer", "config": {"batch_input_shape": [null, 1], "dtype": "float32", "sparse": false, "name": "SHIFTED_PRESSURE_QGAS_D1"}, "inbound_nodes": []}, {"name": "C1_QGAS_out2", "class_name": "Add", "config": {"name": "C1_QGAS_out2", "trainable": true}, "inbound_nodes": [[["C1_QGAS_out", 0, 0, {}], ["SHIFTED_PRESSURE_QGAS_C1", 0, 0, {}]]]}, {"name": "C2_QGAS_out2", "class_name": "Add", "config": {"name": "C2_QGAS_out2", "trainable": true}, "inbound_nodes": [[["C2_QGAS_out", 0, 0, {}], ["SHIFTED_PRESSURE_QGAS_C2", 0, 0, {}]]]}, {"name": "C3_QGAS_out2", "class_name": "Add", "config": {"name": "C3_QGAS_out2", "trainable": true}, "inbound_nodes": [[["C3_QGAS_out", 0, 0, {}], ["SHIFTED_PRESSURE_QGAS_C3", 0, 0, {}]]]}, {"name": "C4_QGAS_out2", "class_name": "Add", "config": {"name": "C4_QGAS_out2", "trainable": true}, "inbound_nodes": [[["C4_QGAS_out", 0, 0, {}], ["SHIFTED_PRESSURE_QGAS_C4", 0, 0, {}]]]}, {"name": "B3_QGAS_out2", "class_name": "Add", "config": {"name": "B3_QGAS_out2", "trainable": true}, "inbound_nodes": [[["B3_QGAS_out", 0, 0, {}], ["SHIFTED_PRESSURE_QGAS_B3", 0, 0, {}]]]}, {"name": "B1_QGAS_out2", "class_name": "Add", "config": {"name": "B1_QGAS_out2", "trainable": true}, "inbound_nodes": [[["B1_QGAS_out", 0, 0, {}], ["SHIFTED_PRESSURE_QGAS_B1", 0, 0, {}]]]}, {"name": "D1_QGAS_out2", "class_name": "Add", "config": {"name": "D1_QGAS_out2", "trainable": true}, "inbound_nodes": [[["D1_QGAS_out", 0, 0, {}], ["SHIFTED_PRESSURE_QGAS_D1", 0, 0, {}]]]}], "input_layers": [["CHK_INPUT_NOW", 0, 0], ["CHK_INPUT_PREV", 0, 0], ["SHIFTED_PRESSURE_QGAS_C1", 0, 0], ["SHIFTED_PRESSURE_QGAS_C2", 0, 0], ["SHIFTED_PRESSURE_QGAS_C3", 0, 0], ["SHIFTED_PRESSURE_QGAS_C4", 0, 0], ["SHIFTED_PRESSURE_QGAS_B3", 0, 0], ["SHIFTED_PRESSURE_QGAS_B1", 0, 0], ["SHIFTED_PRESSURE_QGAS_D1", 0, 0]], "output_layers": [["C1_QGAS_out2", 0, 0], ["C1_QGAS_out", 0, 0], ["C2_QGAS_out2", 0, 0], ["C2_QGAS_out", 0, 0], ["C3_QGAS_out2", 0, 0], ["C3_QGAS_out", 0, 0], ["C4_QGAS_out2", 0, 0], ["C4_QGAS_out", 0, 0], ["B3_QGAS_out2", 0, 0], ["B3_QGAS_out", 0, 0], ["B1_QGAS_out2", 0, 0], ["B1_QGAS_out", 0, 0], ["D1_QGAS_out2", 0, 0], ["D1_QGAS_out", 0, 0]]}, "keras_version": "2.0.1", "backend": "theano"}