{"keras_version": "2.0.1", "backend": "theano", "config": {"layers": [{"class_name": "InputLayer", "inbound_nodes": [], "config": {"batch_input_shape": [null, 4], "dtype": "float32", "name": "C1", "sparse": false}, "name": "C1"}, {"class_name": "InputLayer", "inbound_nodes": [], "config": {"batch_input_shape": [null, 3], "dtype": "float32", "name": "C2", "sparse": false}, "name": "C2"}, {"class_name": "InputLayer", "inbound_nodes": [], "config": {"batch_input_shape": [null, 4], "dtype": "float32", "name": "C3", "sparse": false}, "name": "C3"}, {"class_name": "InputLayer", "inbound_nodes": [], "config": {"batch_input_shape": [null, 4], "dtype": "float32", "name": "C4", "sparse": false}, "name": "C4"}, {"class_name": "InputLayer", "inbound_nodes": [], "config": {"batch_input_shape": [null, 4], "dtype": "float32", "name": "B1", "sparse": false}, "name": "B1"}, {"class_name": "InputLayer", "inbound_nodes": [], "config": {"batch_input_shape": [null, 4], "dtype": "float32", "name": "B3", "sparse": false}, "name": "B3"}, {"class_name": "InputLayer", "inbound_nodes": [], "config": {"batch_input_shape": [null, 3], "dtype": "float32", "name": "D1", "sparse": false}, "name": "D1"}, {"class_name": "Dense", "inbound_nodes": [[["C1", 0, 0, {}]]], "config": {"kernel_initializer": {"config": {"mode": "fan_avg", "seed": 3014, "scale": 1.0, "distribution": "normal"}, "class_name": "VarianceScaling"}, "name": "dense_1", "bias_constraint": null, "activation": "relu", "trainable": true, "bias_regularizer": null, "bias_initializer": {"config": {}, "class_name": "Zeros"}, "kernel_regularizer": {"config": {"l1": 0.0, "l2": 4.999999873689376e-06}, "class_name": "L1L2"}, "activity_regularizer": null, "use_bias": true, "kernel_constraint": null, "units": 50}, "name": "dense_1"}, {"class_name": "Dense", "inbound_nodes": [[["C2", 0, 0, {}]]], "config": {"kernel_initializer": {"config": {"mode": "fan_avg", "seed": 3014, "scale": 1.0, "distribution": "normal"}, "class_name": "VarianceScaling"}, "name": "dense_4", "bias_constraint": null, "activation": "relu", "trainable": true, "bias_regularizer": null, "bias_initializer": {"config": {}, "class_name": "Zeros"}, "kernel_regularizer": {"config": {"l1": 0.0, "l2": 4.999999873689376e-06}, "class_name": "L1L2"}, "activity_regularizer": null, "use_bias": true, "kernel_constraint": null, "units": 50}, "name": "dense_4"}, {"class_name": "Dense", "inbound_nodes": [[["C3", 0, 0, {}]]], "config": {"kernel_initializer": {"config": {"mode": "fan_avg", "seed": 3014, "scale": 1.0, "distribution": "normal"}, "class_name": "VarianceScaling"}, "name": "dense_7", "bias_constraint": null, "activation": "relu", "trainable": true, "bias_regularizer": null, "bias_initializer": {"config": {}, "class_name": "Zeros"}, "kernel_regularizer": {"config": {"l1": 0.0, "l2": 4.999999873689376e-06}, "class_name": "L1L2"}, "activity_regularizer": null, "use_bias": true, "kernel_constraint": null, "units": 50}, "name": "dense_7"}, {"class_name": "Dense", "inbound_nodes": [[["C4", 0, 0, {}]]], "config": {"kernel_initializer": {"config": {"mode": "fan_avg", "seed": 3014, "scale": 1.0, "distribution": "normal"}, "class_name": "VarianceScaling"}, "name": "dense_10", "bias_constraint": null, "activation": "relu", "trainable": true, "bias_regularizer": null, "bias_initializer": {"config": {}, "class_name": "Zeros"}, "kernel_regularizer": {"config": {"l1": 0.0, "l2": 4.999999873689376e-06}, "class_name": "L1L2"}, "activity_regularizer": null, "use_bias": true, "kernel_constraint": null, "units": 50}, "name": "dense_10"}, {"class_name": "Dense", "inbound_nodes": [[["B1", 0, 0, {}]]], "config": {"kernel_initializer": {"config": {"mode": "fan_avg", "seed": 3014, "scale": 1.0, "distribution": "normal"}, "class_name": "VarianceScaling"}, "name": "dense_13", "bias_constraint": null, "activation": "relu", "trainable": true, "bias_regularizer": null, "bias_initializer": {"config": {}, "class_name": "Zeros"}, "kernel_regularizer": {"config": {"l1": 0.0, "l2": 4.999999873689376e-06}, "class_name": "L1L2"}, "activity_regularizer": null, "use_bias": true, "kernel_constraint": null, "units": 50}, "name": "dense_13"}, {"class_name": "Dense", "inbound_nodes": [[["B3", 0, 0, {}]]], "config": {"kernel_initializer": {"config": {"mode": "fan_avg", "seed": 3014, "scale": 1.0, "distribution": "normal"}, "class_name": "VarianceScaling"}, "name": "dense_16", "bias_constraint": null, "activation": "relu", "trainable": true, "bias_regularizer": null, "bias_initializer": {"config": {}, "class_name": "Zeros"}, "kernel_regularizer": {"config": {"l1": 0.0, "l2": 4.999999873689376e-06}, "class_name": "L1L2"}, "activity_regularizer": null, "use_bias": true, "kernel_constraint": null, "units": 50}, "name": "dense_16"}, {"class_name": "Dense", "inbound_nodes": [[["D1", 0, 0, {}]]], "config": {"kernel_initializer": {"config": {"mode": "fan_avg", "seed": 3014, "scale": 1.0, "distribution": "normal"}, "class_name": "VarianceScaling"}, "name": "dense_19", "bias_constraint": null, "activation": "relu", "trainable": true, "bias_regularizer": null, "bias_initializer": {"config": {}, "class_name": "Zeros"}, "kernel_regularizer": {"config": {"l1": 0.0, "l2": 4.999999873689376e-06}, "class_name": "L1L2"}, "activity_regularizer": null, "use_bias": true, "kernel_constraint": null, "units": 50}, "name": "dense_19"}, {"class_name": "Dropout", "inbound_nodes": [[["dense_1", 0, 0, {}]]], "config": {"rate": 0.1, "name": "dropout_1", "trainable": true}, "name": "dropout_1"}, {"class_name": "Dropout", "inbound_nodes": [[["dense_4", 0, 0, {}]]], "config": {"rate": 0.1, "name": "dropout_2", "trainable": true}, "name": "dropout_2"}, {"class_name": "Dropout", "inbound_nodes": [[["dense_7", 0, 0, {}]]], "config": {"rate": 0.1, "name": "dropout_3", "trainable": true}, "name": "dropout_3"}, {"class_name": "Dropout", "inbound_nodes": [[["dense_10", 0, 0, {}]]], "config": {"rate": 0.1, "name": "dropout_4", "trainable": true}, "name": "dropout_4"}, {"class_name": "Dropout", "inbound_nodes": [[["dense_13", 0, 0, {}]]], "config": {"rate": 0.1, "name": "dropout_5", "trainable": true}, "name": "dropout_5"}, {"class_name": "Dropout", "inbound_nodes": [[["dense_16", 0, 0, {}]]], "config": {"rate": 0.1, "name": "dropout_6", "trainable": true}, "name": "dropout_6"}, {"class_name": "Dropout", "inbound_nodes": [[["dense_19", 0, 0, {}]]], "config": {"rate": 0.1, "name": "dropout_7", "trainable": true}, "name": "dropout_7"}, {"class_name": "Dense", "inbound_nodes": [[["dropout_1", 0, 0, {}]]], "config": {"kernel_initializer": {"config": {"mode": "fan_avg", "seed": 3014, "scale": 1.0, "distribution": "normal"}, "class_name": "VarianceScaling"}, "name": "dense_2", "bias_constraint": null, "activation": "relu", "trainable": true, "bias_regularizer": null, "bias_initializer": {"config": {}, "class_name": "Zeros"}, "kernel_regularizer": {"config": {"l1": 0.0, "l2": 4.999999873689376e-06}, "class_name": "L1L2"}, "activity_regularizer": null, "use_bias": true, "kernel_constraint": null, "units": 50}, "name": "dense_2"}, {"class_name": "Dense", "inbound_nodes": [[["dropout_2", 0, 0, {}]]], "config": {"kernel_initializer": {"config": {"mode": "fan_avg", "seed": 3014, "scale": 1.0, "distribution": "normal"}, "class_name": "VarianceScaling"}, "name": "dense_5", "bias_constraint": null, "activation": "relu", "trainable": true, "bias_regularizer": null, "bias_initializer": {"config": {}, "class_name": "Zeros"}, "kernel_regularizer": {"config": {"l1": 0.0, "l2": 4.999999873689376e-06}, "class_name": "L1L2"}, "activity_regularizer": null, "use_bias": true, "kernel_constraint": null, "units": 50}, "name": "dense_5"}, {"class_name": "Dense", "inbound_nodes": [[["dropout_3", 0, 0, {}]]], "config": {"kernel_initializer": {"config": {"mode": "fan_avg", "seed": 3014, "scale": 1.0, "distribution": "normal"}, "class_name": "VarianceScaling"}, "name": "dense_8", "bias_constraint": null, "activation": "relu", "trainable": true, "bias_regularizer": null, "bias_initializer": {"config": {}, "class_name": "Zeros"}, "kernel_regularizer": {"config": {"l1": 0.0, "l2": 4.999999873689376e-06}, "class_name": "L1L2"}, "activity_regularizer": null, "use_bias": true, "kernel_constraint": null, "units": 50}, "name": "dense_8"}, {"class_name": "Dense", "inbound_nodes": [[["dropout_4", 0, 0, {}]]], "config": {"kernel_initializer": {"config": {"mode": "fan_avg", "seed": 3014, "scale": 1.0, "distribution": "normal"}, "class_name": "VarianceScaling"}, "name": "dense_11", "bias_constraint": null, "activation": "relu", "trainable": true, "bias_regularizer": null, "bias_initializer": {"config": {}, "class_name": "Zeros"}, "kernel_regularizer": {"config": {"l1": 0.0, "l2": 4.999999873689376e-06}, "class_name": "L1L2"}, "activity_regularizer": null, "use_bias": true, "kernel_constraint": null, "units": 50}, "name": "dense_11"}, {"class_name": "Dense", "inbound_nodes": [[["dropout_5", 0, 0, {}]]], "config": {"kernel_initializer": {"config": {"mode": "fan_avg", "seed": 3014, "scale": 1.0, "distribution": "normal"}, "class_name": "VarianceScaling"}, "name": "dense_14", "bias_constraint": null, "activation": "relu", "trainable": true, "bias_regularizer": null, "bias_initializer": {"config": {}, "class_name": "Zeros"}, "kernel_regularizer": {"config": {"l1": 0.0, "l2": 4.999999873689376e-06}, "class_name": "L1L2"}, "activity_regularizer": null, "use_bias": true, "kernel_constraint": null, "units": 50}, "name": "dense_14"}, {"class_name": "Dense", "inbound_nodes": [[["dropout_6", 0, 0, {}]]], "config": {"kernel_initializer": {"config": {"mode": "fan_avg", "seed": 3014, "scale": 1.0, "distribution": "normal"}, "class_name": "VarianceScaling"}, "name": "dense_17", "bias_constraint": null, "activation": "relu", "trainable": true, "bias_regularizer": null, "bias_initializer": {"config": {}, "class_name": "Zeros"}, "kernel_regularizer": {"config": {"l1": 0.0, "l2": 4.999999873689376e-06}, "class_name": "L1L2"}, "activity_regularizer": null, "use_bias": true, "kernel_constraint": null, "units": 50}, "name": "dense_17"}, {"class_name": "Dense", "inbound_nodes": [[["dropout_7", 0, 0, {}]]], "config": {"kernel_initializer": {"config": {"mode": "fan_avg", "seed": 3014, "scale": 1.0, "distribution": "normal"}, "class_name": "VarianceScaling"}, "name": "dense_20", "bias_constraint": null, "activation": "relu", "trainable": true, "bias_regularizer": null, "bias_initializer": {"config": {}, "class_name": "Zeros"}, "kernel_regularizer": {"config": {"l1": 0.0, "l2": 4.999999873689376e-06}, "class_name": "L1L2"}, "activity_regularizer": null, "use_bias": true, "kernel_constraint": null, "units": 50}, "name": "dense_20"}, {"class_name": "InputLayer", "inbound_nodes": [], "config": {"batch_input_shape": [null, 1], "dtype": "float32", "name": "OnOff_C1", "sparse": false}, "name": "OnOff_C1"}, {"class_name": "Dense", "inbound_nodes": [[["dense_2", 0, 0, {}]]], "config": {"kernel_initializer": {"config": {"mode": "fan_avg", "seed": 3014, "scale": 1.0, "distribution": "normal"}, "class_name": "VarianceScaling"}, "name": "dense_3", "bias_constraint": null, "activation": "relu", "trainable": true, "bias_regularizer": null, "bias_initializer": {"config": {}, "class_name": "Zeros"}, "kernel_regularizer": {"config": {"l1": 0.0, "l2": 4.999999873689376e-06}, "class_name": "L1L2"}, "activity_regularizer": null, "use_bias": true, "kernel_constraint": null, "units": 1}, "name": "dense_3"}, {"class_name": "InputLayer", "inbound_nodes": [], "config": {"batch_input_shape": [null, 1], "dtype": "float32", "name": "OnOff_C2", "sparse": false}, "name": "OnOff_C2"}, {"class_name": "Dense", "inbound_nodes": [[["dense_5", 0, 0, {}]]], "config": {"kernel_initializer": {"config": {"mode": "fan_avg", "seed": 3014, "scale": 1.0, "distribution": "normal"}, "class_name": "VarianceScaling"}, "name": "dense_6", "bias_constraint": null, "activation": "relu", "trainable": true, "bias_regularizer": null, "bias_initializer": {"config": {}, "class_name": "Zeros"}, "kernel_regularizer": {"config": {"l1": 0.0, "l2": 4.999999873689376e-06}, "class_name": "L1L2"}, "activity_regularizer": null, "use_bias": true, "kernel_constraint": null, "units": 1}, "name": "dense_6"}, {"class_name": "InputLayer", "inbound_nodes": [], "config": {"batch_input_shape": [null, 1], "dtype": "float32", "name": "OnOff_C3", "sparse": false}, "name": "OnOff_C3"}, {"class_name": "Dense", "inbound_nodes": [[["dense_8", 0, 0, {}]]], "config": {"kernel_initializer": {"config": {"mode": "fan_avg", "seed": 3014, "scale": 1.0, "distribution": "normal"}, "class_name": "VarianceScaling"}, "name": "dense_9", "bias_constraint": null, "activation": "relu", "trainable": true, "bias_regularizer": null, "bias_initializer": {"config": {}, "class_name": "Zeros"}, "kernel_regularizer": {"config": {"l1": 0.0, "l2": 4.999999873689376e-06}, "class_name": "L1L2"}, "activity_regularizer": null, "use_bias": true, "kernel_constraint": null, "units": 1}, "name": "dense_9"}, {"class_name": "InputLayer", "inbound_nodes": [], "config": {"batch_input_shape": [null, 1], "dtype": "float32", "name": "OnOff_C4", "sparse": false}, "name": "OnOff_C4"}, {"class_name": "Dense", "inbound_nodes": [[["dense_11", 0, 0, {}]]], "config": {"kernel_initializer": {"config": {"mode": "fan_avg", "seed": 3014, "scale": 1.0, "distribution": "normal"}, "class_name": "VarianceScaling"}, "name": "dense_12", "bias_constraint": null, "activation": "relu", "trainable": true, "bias_regularizer": null, "bias_initializer": {"config": {}, "class_name": "Zeros"}, "kernel_regularizer": {"config": {"l1": 0.0, "l2": 4.999999873689376e-06}, "class_name": "L1L2"}, "activity_regularizer": null, "use_bias": true, "kernel_constraint": null, "units": 1}, "name": "dense_12"}, {"class_name": "InputLayer", "inbound_nodes": [], "config": {"batch_input_shape": [null, 1], "dtype": "float32", "name": "OnOff_B1", "sparse": false}, "name": "OnOff_B1"}, {"class_name": "Dense", "inbound_nodes": [[["dense_14", 0, 0, {}]]], "config": {"kernel_initializer": {"config": {"mode": "fan_avg", "seed": 3014, "scale": 1.0, "distribution": "normal"}, "class_name": "VarianceScaling"}, "name": "dense_15", "bias_constraint": null, "activation": "relu", "trainable": true, "bias_regularizer": null, "bias_initializer": {"config": {}, "class_name": "Zeros"}, "kernel_regularizer": {"config": {"l1": 0.0, "l2": 4.999999873689376e-06}, "class_name": "L1L2"}, "activity_regularizer": null, "use_bias": true, "kernel_constraint": null, "units": 1}, "name": "dense_15"}, {"class_name": "InputLayer", "inbound_nodes": [], "config": {"batch_input_shape": [null, 1], "dtype": "float32", "name": "OnOff_B3", "sparse": false}, "name": "OnOff_B3"}, {"class_name": "Dense", "inbound_nodes": [[["dense_17", 0, 0, {}]]], "config": {"kernel_initializer": {"config": {"mode": "fan_avg", "seed": 3014, "scale": 1.0, "distribution": "normal"}, "class_name": "VarianceScaling"}, "name": "dense_18", "bias_constraint": null, "activation": "relu", "trainable": true, "bias_regularizer": null, "bias_initializer": {"config": {}, "class_name": "Zeros"}, "kernel_regularizer": {"config": {"l1": 0.0, "l2": 4.999999873689376e-06}, "class_name": "L1L2"}, "activity_regularizer": null, "use_bias": true, "kernel_constraint": null, "units": 1}, "name": "dense_18"}, {"class_name": "InputLayer", "inbound_nodes": [], "config": {"batch_input_shape": [null, 1], "dtype": "float32", "name": "OnOff_D1", "sparse": false}, "name": "OnOff_D1"}, {"class_name": "Dense", "inbound_nodes": [[["dense_20", 0, 0, {}]]], "config": {"kernel_initializer": {"config": {"mode": "fan_avg", "seed": 3014, "scale": 1.0, "distribution": "normal"}, "class_name": "VarianceScaling"}, "name": "dense_21", "bias_constraint": null, "activation": "relu", "trainable": true, "bias_regularizer": null, "bias_initializer": {"config": {}, "class_name": "Zeros"}, "kernel_regularizer": {"config": {"l1": 0.0, "l2": 4.999999873689376e-06}, "class_name": "L1L2"}, "activity_regularizer": null, "use_bias": true, "kernel_constraint": null, "units": 1}, "name": "dense_21"}, {"class_name": "Multiply", "inbound_nodes": [[["OnOff_C1", 0, 0, {}], ["dense_3", 0, 0, {}]]], "config": {"name": "C1_out", "trainable": true}, "name": "C1_out"}, {"class_name": "Multiply", "inbound_nodes": [[["OnOff_C2", 0, 0, {}], ["dense_6", 0, 0, {}]]], "config": {"name": "C2_out", "trainable": true}, "name": "C2_out"}, {"class_name": "Multiply", "inbound_nodes": [[["OnOff_C3", 0, 0, {}], ["dense_9", 0, 0, {}]]], "config": {"name": "C3_out", "trainable": true}, "name": "C3_out"}, {"class_name": "Multiply", "inbound_nodes": [[["OnOff_C4", 0, 0, {}], ["dense_12", 0, 0, {}]]], "config": {"name": "C4_out", "trainable": true}, "name": "C4_out"}, {"class_name": "Multiply", "inbound_nodes": [[["OnOff_B1", 0, 0, {}], ["dense_15", 0, 0, {}]]], "config": {"name": "B1_out", "trainable": true}, "name": "B1_out"}, {"class_name": "Multiply", "inbound_nodes": [[["OnOff_B3", 0, 0, {}], ["dense_18", 0, 0, {}]]], "config": {"name": "B3_out", "trainable": true}, "name": "B3_out"}, {"class_name": "Multiply", "inbound_nodes": [[["OnOff_D1", 0, 0, {}], ["dense_21", 0, 0, {}]]], "config": {"name": "D1_out", "trainable": true}, "name": "D1_out"}, {"class_name": "Add", "inbound_nodes": [[["C1_out", 0, 0, {}], ["C2_out", 0, 0, {}], ["C3_out", 0, 0, {}], ["C4_out", 0, 0, {}], ["B1_out", 0, 0, {}], ["B3_out", 0, 0, {}], ["D1_out", 0, 0, {}]]], "config": {"name": "GJOA_TOTAL", "trainable": true}, "name": "GJOA_TOTAL"}], "output_layers": [["C1_out", 0, 0], ["C2_out", 0, 0], ["C3_out", 0, 0], ["C4_out", 0, 0], ["B1_out", 0, 0], ["B3_out", 0, 0], ["D1_out", 0, 0], ["GJOA_TOTAL", 0, 0]], "input_layers": [["C1", 0, 0], ["C2", 0, 0], ["C3", 0, 0], ["C4", 0, 0], ["B1", 0, 0], ["B3", 0, 0], ["D1", 0, 0], ["OnOff_C1", 0, 0], ["OnOff_C2", 0, 0], ["OnOff_C3", 0, 0], ["OnOff_C4", 0, 0], ["OnOff_B1", 0, 0], ["OnOff_B3", 0, 0], ["OnOff_D1", 0, 0]], "name": "model_1"}, "class_name": "Model"}