{"config": {"name": "model_1", "layers": [{"config": {"sparse": false, "dtype": "float32", "batch_input_shape": [null, 4], "name": "F1"}, "inbound_nodes": [], "name": "F1", "class_name": "InputLayer"}, {"config": {"sparse": false, "dtype": "float32", "batch_input_shape": [null, 4], "name": "B2"}, "inbound_nodes": [], "name": "B2", "class_name": "InputLayer"}, {"config": {"sparse": false, "dtype": "float32", "batch_input_shape": [null, 4], "name": "D3"}, "inbound_nodes": [], "name": "D3", "class_name": "InputLayer"}, {"config": {"sparse": false, "dtype": "float32", "batch_input_shape": [null, 4], "name": "E1"}, "inbound_nodes": [], "name": "E1", "class_name": "InputLayer"}, {"config": {"kernel_regularizer": {"config": {"l1": 0.0, "l2": 0.00019999999494757503}, "class_name": "L1L2"}, "trainable": true, "bias_initializer": {"config": {}, "class_name": "Zeros"}, "use_bias": true, "name": "dense_1", "activity_regularizer": null, "kernel_constraint": null, "bias_constraint": null, "units": 100, "activation": "relu", "bias_regularizer": null, "kernel_initializer": {"config": {"distribution": "normal", "mode": "fan_avg", "scale": 1.0, "seed": 3014}, "class_name": "VarianceScaling"}}, "inbound_nodes": [[["F1", 0, 0, {}]]], "name": "dense_1", "class_name": "Dense"}, {"config": {"kernel_regularizer": {"config": {"l1": 0.0, "l2": 0.00019999999494757503}, "class_name": "L1L2"}, "trainable": true, "bias_initializer": {"config": {}, "class_name": "Zeros"}, "use_bias": true, "name": "dense_4", "activity_regularizer": null, "kernel_constraint": null, "bias_constraint": null, "units": 100, "activation": "relu", "bias_regularizer": null, "kernel_initializer": {"config": {"distribution": "normal", "mode": "fan_avg", "scale": 1.0, "seed": 3014}, "class_name": "VarianceScaling"}}, "inbound_nodes": [[["B2", 0, 0, {}]]], "name": "dense_4", "class_name": "Dense"}, {"config": {"kernel_regularizer": {"config": {"l1": 0.0, "l2": 0.00019999999494757503}, "class_name": "L1L2"}, "trainable": true, "bias_initializer": {"config": {}, "class_name": "Zeros"}, "use_bias": true, "name": "dense_7", "activity_regularizer": null, "kernel_constraint": null, "bias_constraint": null, "units": 100, "activation": "relu", "bias_regularizer": null, "kernel_initializer": {"config": {"distribution": "normal", "mode": "fan_avg", "scale": 1.0, "seed": 3014}, "class_name": "VarianceScaling"}}, "inbound_nodes": [[["D3", 0, 0, {}]]], "name": "dense_7", "class_name": "Dense"}, {"config": {"kernel_regularizer": {"config": {"l1": 0.0, "l2": 0.00019999999494757503}, "class_name": "L1L2"}, "trainable": true, "bias_initializer": {"config": {}, "class_name": "Zeros"}, "use_bias": true, "name": "dense_10", "activity_regularizer": null, "kernel_constraint": null, "bias_constraint": null, "units": 100, "activation": "relu", "bias_regularizer": null, "kernel_initializer": {"config": {"distribution": "normal", "mode": "fan_avg", "scale": 1.0, "seed": 3014}, "class_name": "VarianceScaling"}}, "inbound_nodes": [[["E1", 0, 0, {}]]], "name": "dense_10", "class_name": "Dense"}, {"config": {"kernel_regularizer": {"config": {"l1": 0.0, "l2": 0.00019999999494757503}, "class_name": "L1L2"}, "trainable": true, "bias_initializer": {"config": {}, "class_name": "Zeros"}, "use_bias": true, "name": "dense_2", "activity_regularizer": null, "kernel_constraint": null, "bias_constraint": null, "units": 100, "activation": "relu", "bias_regularizer": null, "kernel_initializer": {"config": {"distribution": "normal", "mode": "fan_avg", "scale": 1.0, "seed": 3014}, "class_name": "VarianceScaling"}}, "inbound_nodes": [[["dense_1", 0, 0, {}]]], "name": "dense_2", "class_name": "Dense"}, {"config": {"kernel_regularizer": {"config": {"l1": 0.0, "l2": 0.00019999999494757503}, "class_name": "L1L2"}, "trainable": true, "bias_initializer": {"config": {}, "class_name": "Zeros"}, "use_bias": true, "name": "dense_5", "activity_regularizer": null, "kernel_constraint": null, "bias_constraint": null, "units": 100, "activation": "relu", "bias_regularizer": null, "kernel_initializer": {"config": {"distribution": "normal", "mode": "fan_avg", "scale": 1.0, "seed": 3014}, "class_name": "VarianceScaling"}}, "inbound_nodes": [[["dense_4", 0, 0, {}]]], "name": "dense_5", "class_name": "Dense"}, {"config": {"kernel_regularizer": {"config": {"l1": 0.0, "l2": 0.00019999999494757503}, "class_name": "L1L2"}, "trainable": true, "bias_initializer": {"config": {}, "class_name": "Zeros"}, "use_bias": true, "name": "dense_8", "activity_regularizer": null, "kernel_constraint": null, "bias_constraint": null, "units": 100, "activation": "relu", "bias_regularizer": null, "kernel_initializer": {"config": {"distribution": "normal", "mode": "fan_avg", "scale": 1.0, "seed": 3014}, "class_name": "VarianceScaling"}}, "inbound_nodes": [[["dense_7", 0, 0, {}]]], "name": "dense_8", "class_name": "Dense"}, {"config": {"kernel_regularizer": {"config": {"l1": 0.0, "l2": 0.00019999999494757503}, "class_name": "L1L2"}, "trainable": true, "bias_initializer": {"config": {}, "class_name": "Zeros"}, "use_bias": true, "name": "dense_11", "activity_regularizer": null, "kernel_constraint": null, "bias_constraint": null, "units": 100, "activation": "relu", "bias_regularizer": null, "kernel_initializer": {"config": {"distribution": "normal", "mode": "fan_avg", "scale": 1.0, "seed": 3014}, "class_name": "VarianceScaling"}}, "inbound_nodes": [[["dense_10", 0, 0, {}]]], "name": "dense_11", "class_name": "Dense"}, {"config": {"sparse": false, "dtype": "float32", "batch_input_shape": [null, 1], "name": "OnOff_F1"}, "inbound_nodes": [], "name": "OnOff_F1", "class_name": "InputLayer"}, {"config": {"kernel_regularizer": {"config": {"l1": 0.0, "l2": 0.00019999999494757503}, "class_name": "L1L2"}, "trainable": true, "bias_initializer": {"config": {}, "class_name": "Zeros"}, "use_bias": true, "name": "dense_3", "activity_regularizer": null, "kernel_constraint": null, "bias_constraint": null, "units": 1, "activation": "relu", "bias_regularizer": null, "kernel_initializer": {"config": {"distribution": "normal", "mode": "fan_avg", "scale": 1.0, "seed": 3014}, "class_name": "VarianceScaling"}}, "inbound_nodes": [[["dense_2", 0, 0, {}]]], "name": "dense_3", "class_name": "Dense"}, {"config": {"sparse": false, "dtype": "float32", "batch_input_shape": [null, 1], "name": "OnOff_B2"}, "inbound_nodes": [], "name": "OnOff_B2", "class_name": "InputLayer"}, {"config": {"kernel_regularizer": {"config": {"l1": 0.0, "l2": 0.00019999999494757503}, "class_name": "L1L2"}, "trainable": true, "bias_initializer": {"config": {}, "class_name": "Zeros"}, "use_bias": true, "name": "dense_6", "activity_regularizer": null, "kernel_constraint": null, "bias_constraint": null, "units": 1, "activation": "relu", "bias_regularizer": null, "kernel_initializer": {"config": {"distribution": "normal", "mode": "fan_avg", "scale": 1.0, "seed": 3014}, "class_name": "VarianceScaling"}}, "inbound_nodes": [[["dense_5", 0, 0, {}]]], "name": "dense_6", "class_name": "Dense"}, {"config": {"sparse": false, "dtype": "float32", "batch_input_shape": [null, 1], "name": "OnOff_D3"}, "inbound_nodes": [], "name": "OnOff_D3", "class_name": "InputLayer"}, {"config": {"kernel_regularizer": {"config": {"l1": 0.0, "l2": 0.00019999999494757503}, "class_name": "L1L2"}, "trainable": true, "bias_initializer": {"config": {}, "class_name": "Zeros"}, "use_bias": true, "name": "dense_9", "activity_regularizer": null, "kernel_constraint": null, "bias_constraint": null, "units": 1, "activation": "relu", "bias_regularizer": null, "kernel_initializer": {"config": {"distribution": "normal", "mode": "fan_avg", "scale": 1.0, "seed": 3014}, "class_name": "VarianceScaling"}}, "inbound_nodes": [[["dense_8", 0, 0, {}]]], "name": "dense_9", "class_name": "Dense"}, {"config": {"sparse": false, "dtype": "float32", "batch_input_shape": [null, 1], "name": "OnOff_E1"}, "inbound_nodes": [], "name": "OnOff_E1", "class_name": "InputLayer"}, {"config": {"kernel_regularizer": {"config": {"l1": 0.0, "l2": 0.00019999999494757503}, "class_name": "L1L2"}, "trainable": true, "bias_initializer": {"config": {}, "class_name": "Zeros"}, "use_bias": true, "name": "dense_12", "activity_regularizer": null, "kernel_constraint": null, "bias_constraint": null, "units": 1, "activation": "relu", "bias_regularizer": null, "kernel_initializer": {"config": {"distribution": "normal", "mode": "fan_avg", "scale": 1.0, "seed": 3014}, "class_name": "VarianceScaling"}}, "inbound_nodes": [[["dense_11", 0, 0, {}]]], "name": "dense_12", "class_name": "Dense"}, {"config": {"trainable": true, "name": "F1_out"}, "inbound_nodes": [[["OnOff_F1", 0, 0, {}], ["dense_3", 0, 0, {}]]], "name": "F1_out", "class_name": "Multiply"}, {"config": {"trainable": true, "name": "B2_out"}, "inbound_nodes": [[["OnOff_B2", 0, 0, {}], ["dense_6", 0, 0, {}]]], "name": "B2_out", "class_name": "Multiply"}, {"config": {"trainable": true, "name": "D3_out"}, "inbound_nodes": [[["OnOff_D3", 0, 0, {}], ["dense_9", 0, 0, {}]]], "name": "D3_out", "class_name": "Multiply"}, {"config": {"trainable": true, "name": "E1_out"}, "inbound_nodes": [[["OnOff_E1", 0, 0, {}], ["dense_12", 0, 0, {}]]], "name": "E1_out", "class_name": "Multiply"}, {"config": {"trainable": true, "name": "GJOA_QGAS"}, "inbound_nodes": [[["F1_out", 0, 0, {}], ["B2_out", 0, 0, {}], ["D3_out", 0, 0, {}], ["E1_out", 0, 0, {}]]], "name": "GJOA_QGAS", "class_name": "Add"}], "output_layers": [["F1_out", 0, 0], ["B2_out", 0, 0], ["D3_out", 0, 0], ["E1_out", 0, 0], ["GJOA_QGAS", 0, 0]], "input_layers": [["F1", 0, 0], ["B2", 0, 0], ["D3", 0, 0], ["E1", 0, 0], ["OnOff_F1", 0, 0], ["OnOff_B2", 0, 0], ["OnOff_D3", 0, 0], ["OnOff_E1", 0, 0]]}, "backend": "theano", "keras_version": "2.0.1", "class_name": "Model"}