{"backend": "theano", "config": {"input_layers": [["PRESSURE_INPUT", 0, 0], ["RISER_B_CHK_INPUT", 0, 0]], "name": "model_1", "output_layers": [["C1_PDC_out", 0, 0], ["C2_PDC_out", 0, 0], ["C3_PDC_out", 0, 0], ["C4_PDC_out", 0, 0], ["B3_PDC_out", 0, 0], ["B1_PDC_out", 0, 0], ["D1_PDC_out", 0, 0]], "layers": [{"name": "PRESSURE_INPUT", "config": {"dtype": "float32", "name": "PRESSURE_INPUT", "sparse": false, "batch_input_shape": [null, 7]}, "class_name": "InputLayer", "inbound_nodes": []}, {"name": "RISER_B_CHK_INPUT", "config": {"dtype": "float32", "name": "RISER_B_CHK_INPUT", "sparse": false, "batch_input_shape": [null, 1]}, "class_name": "InputLayer", "inbound_nodes": []}, {"name": "RISER_MERGE", "config": {"axis": -1, "name": "RISER_MERGE", "trainable": true}, "class_name": "Concatenate", "inbound_nodes": [[["PRESSURE_INPUT", 0, 0, {}], ["RISER_B_CHK_INPUT", 0, 0, {}]]]}, {"name": "C1_PDC_0", "config": {"activity_regularizer": null, "units": 50, "bias_regularizer": null, "trainable": true, "kernel_constraint": null, "bias_initializer": {"config": {}, "class_name": "Zeros"}, "kernel_regularizer": {"config": {"l2": 0.0020000000949949026, "l1": 0.0}, "class_name": "L1L2"}, "bias_constraint": null, "use_bias": true, "activation": "relu", "name": "C1_PDC_0", "kernel_initializer": {"config": {"mode": "fan_avg", "distribution": "normal", "scale": 1.0, "seed": 3014}, "class_name": "VarianceScaling"}}, "class_name": "Dense", "inbound_nodes": [[["RISER_MERGE", 0, 0, {}]]]}, {"name": "C2_PDC_0", "config": {"activity_regularizer": null, "units": 50, "bias_regularizer": null, "trainable": true, "kernel_constraint": null, "bias_initializer": {"config": {}, "class_name": "Zeros"}, "kernel_regularizer": {"config": {"l2": 0.0020000000949949026, "l1": 0.0}, "class_name": "L1L2"}, "bias_constraint": null, "use_bias": true, "activation": "relu", "name": "C2_PDC_0", "kernel_initializer": {"config": {"mode": "fan_avg", "distribution": "normal", "scale": 1.0, "seed": 3014}, "class_name": "VarianceScaling"}}, "class_name": "Dense", "inbound_nodes": [[["RISER_MERGE", 0, 0, {}]]]}, {"name": "C3_PDC_0", "config": {"activity_regularizer": null, "units": 50, "bias_regularizer": null, "trainable": true, "kernel_constraint": null, "bias_initializer": {"config": {}, "class_name": "Zeros"}, "kernel_regularizer": {"config": {"l2": 0.0020000000949949026, "l1": 0.0}, "class_name": "L1L2"}, "bias_constraint": null, "use_bias": true, "activation": "relu", "name": "C3_PDC_0", "kernel_initializer": {"config": {"mode": "fan_avg", "distribution": "normal", "scale": 1.0, "seed": 3014}, "class_name": "VarianceScaling"}}, "class_name": "Dense", "inbound_nodes": [[["RISER_MERGE", 0, 0, {}]]]}, {"name": "C4_PDC_0", "config": {"activity_regularizer": null, "units": 50, "bias_regularizer": null, "trainable": true, "kernel_constraint": null, "bias_initializer": {"config": {}, "class_name": "Zeros"}, "kernel_regularizer": {"config": {"l2": 0.0020000000949949026, "l1": 0.0}, "class_name": "L1L2"}, "bias_constraint": null, "use_bias": true, "activation": "relu", "name": "C4_PDC_0", "kernel_initializer": {"config": {"mode": "fan_avg", "distribution": "normal", "scale": 1.0, "seed": 3014}, "class_name": "VarianceScaling"}}, "class_name": "Dense", "inbound_nodes": [[["RISER_MERGE", 0, 0, {}]]]}, {"name": "B3_PDC_0", "config": {"activity_regularizer": null, "units": 50, "bias_regularizer": null, "trainable": true, "kernel_constraint": null, "bias_initializer": {"config": {}, "class_name": "Zeros"}, "kernel_regularizer": {"config": {"l2": 0.0020000000949949026, "l1": 0.0}, "class_name": "L1L2"}, "bias_constraint": null, "use_bias": true, "activation": "relu", "name": "B3_PDC_0", "kernel_initializer": {"config": {"mode": "fan_avg", "distribution": "normal", "scale": 1.0, "seed": 3014}, "class_name": "VarianceScaling"}}, "class_name": "Dense", "inbound_nodes": [[["RISER_MERGE", 0, 0, {}]]]}, {"name": "B1_PDC_0", "config": {"activity_regularizer": null, "units": 50, "bias_regularizer": null, "trainable": true, "kernel_constraint": null, "bias_initializer": {"config": {}, "class_name": "Zeros"}, "kernel_regularizer": {"config": {"l2": 0.0020000000949949026, "l1": 0.0}, "class_name": "L1L2"}, "bias_constraint": null, "use_bias": true, "activation": "relu", "name": "B1_PDC_0", "kernel_initializer": {"config": {"mode": "fan_avg", "distribution": "normal", "scale": 1.0, "seed": 3014}, "class_name": "VarianceScaling"}}, "class_name": "Dense", "inbound_nodes": [[["RISER_MERGE", 0, 0, {}]]]}, {"name": "D1_PDC_0", "config": {"activity_regularizer": null, "units": 50, "bias_regularizer": null, "trainable": true, "kernel_constraint": null, "bias_initializer": {"config": {}, "class_name": "Zeros"}, "kernel_regularizer": {"config": {"l2": 0.0020000000949949026, "l1": 0.0}, "class_name": "L1L2"}, "bias_constraint": null, "use_bias": true, "activation": "relu", "name": "D1_PDC_0", "kernel_initializer": {"config": {"mode": "fan_avg", "distribution": "normal", "scale": 1.0, "seed": 3014}, "class_name": "VarianceScaling"}}, "class_name": "Dense", "inbound_nodes": [[["RISER_MERGE", 0, 0, {}]]]}, {"name": "C1_PDC_1", "config": {"activity_regularizer": null, "units": 50, "bias_regularizer": null, "trainable": true, "kernel_constraint": null, "bias_initializer": {"config": {}, "class_name": "Zeros"}, "kernel_regularizer": {"config": {"l2": 0.0020000000949949026, "l1": 0.0}, "class_name": "L1L2"}, "bias_constraint": null, "use_bias": true, "activation": "relu", "name": "C1_PDC_1", "kernel_initializer": {"config": {"mode": "fan_avg", "distribution": "normal", "scale": 1.0, "seed": 3014}, "class_name": "VarianceScaling"}}, "class_name": "Dense", "inbound_nodes": [[["C1_PDC_0", 0, 0, {}]]]}, {"name": "C2_PDC_1", "config": {"activity_regularizer": null, "units": 50, "bias_regularizer": null, "trainable": true, "kernel_constraint": null, "bias_initializer": {"config": {}, "class_name": "Zeros"}, "kernel_regularizer": {"config": {"l2": 0.0020000000949949026, "l1": 0.0}, "class_name": "L1L2"}, "bias_constraint": null, "use_bias": true, "activation": "relu", "name": "C2_PDC_1", "kernel_initializer": {"config": {"mode": "fan_avg", "distribution": "normal", "scale": 1.0, "seed": 3014}, "class_name": "VarianceScaling"}}, "class_name": "Dense", "inbound_nodes": [[["C2_PDC_0", 0, 0, {}]]]}, {"name": "C3_PDC_1", "config": {"activity_regularizer": null, "units": 50, "bias_regularizer": null, "trainable": true, "kernel_constraint": null, "bias_initializer": {"config": {}, "class_name": "Zeros"}, "kernel_regularizer": {"config": {"l2": 0.0020000000949949026, "l1": 0.0}, "class_name": "L1L2"}, "bias_constraint": null, "use_bias": true, "activation": "relu", "name": "C3_PDC_1", "kernel_initializer": {"config": {"mode": "fan_avg", "distribution": "normal", "scale": 1.0, "seed": 3014}, "class_name": "VarianceScaling"}}, "class_name": "Dense", "inbound_nodes": [[["C3_PDC_0", 0, 0, {}]]]}, {"name": "C4_PDC_1", "config": {"activity_regularizer": null, "units": 50, "bias_regularizer": null, "trainable": true, "kernel_constraint": null, "bias_initializer": {"config": {}, "class_name": "Zeros"}, "kernel_regularizer": {"config": {"l2": 0.0020000000949949026, "l1": 0.0}, "class_name": "L1L2"}, "bias_constraint": null, "use_bias": true, "activation": "relu", "name": "C4_PDC_1", "kernel_initializer": {"config": {"mode": "fan_avg", "distribution": "normal", "scale": 1.0, "seed": 3014}, "class_name": "VarianceScaling"}}, "class_name": "Dense", "inbound_nodes": [[["C4_PDC_0", 0, 0, {}]]]}, {"name": "B3_PDC_1", "config": {"activity_regularizer": null, "units": 50, "bias_regularizer": null, "trainable": true, "kernel_constraint": null, "bias_initializer": {"config": {}, "class_name": "Zeros"}, "kernel_regularizer": {"config": {"l2": 0.0020000000949949026, "l1": 0.0}, "class_name": "L1L2"}, "bias_constraint": null, "use_bias": true, "activation": "relu", "name": "B3_PDC_1", "kernel_initializer": {"config": {"mode": "fan_avg", "distribution": "normal", "scale": 1.0, "seed": 3014}, "class_name": "VarianceScaling"}}, "class_name": "Dense", "inbound_nodes": [[["B3_PDC_0", 0, 0, {}]]]}, {"name": "B1_PDC_1", "config": {"activity_regularizer": null, "units": 50, "bias_regularizer": null, "trainable": true, "kernel_constraint": null, "bias_initializer": {"config": {}, "class_name": "Zeros"}, "kernel_regularizer": {"config": {"l2": 0.0020000000949949026, "l1": 0.0}, "class_name": "L1L2"}, "bias_constraint": null, "use_bias": true, "activation": "relu", "name": "B1_PDC_1", "kernel_initializer": {"config": {"mode": "fan_avg", "distribution": "normal", "scale": 1.0, "seed": 3014}, "class_name": "VarianceScaling"}}, "class_name": "Dense", "inbound_nodes": [[["B1_PDC_0", 0, 0, {}]]]}, {"name": "D1_PDC_1", "config": {"activity_regularizer": null, "units": 50, "bias_regularizer": null, "trainable": true, "kernel_constraint": null, "bias_initializer": {"config": {}, "class_name": "Zeros"}, "kernel_regularizer": {"config": {"l2": 0.0020000000949949026, "l1": 0.0}, "class_name": "L1L2"}, "bias_constraint": null, "use_bias": true, "activation": "relu", "name": "D1_PDC_1", "kernel_initializer": {"config": {"mode": "fan_avg", "distribution": "normal", "scale": 1.0, "seed": 3014}, "class_name": "VarianceScaling"}}, "class_name": "Dense", "inbound_nodes": [[["D1_PDC_0", 0, 0, {}]]]}, {"name": "C1_PDC_2", "config": {"activity_regularizer": null, "units": 50, "bias_regularizer": null, "trainable": true, "kernel_constraint": null, "bias_initializer": {"config": {}, "class_name": "Zeros"}, "kernel_regularizer": {"config": {"l2": 0.0020000000949949026, "l1": 0.0}, "class_name": "L1L2"}, "bias_constraint": null, "use_bias": true, "activation": "relu", "name": "C1_PDC_2", "kernel_initializer": {"config": {"mode": "fan_avg", "distribution": "normal", "scale": 1.0, "seed": 3014}, "class_name": "VarianceScaling"}}, "class_name": "Dense", "inbound_nodes": [[["C1_PDC_1", 0, 0, {}]]]}, {"name": "C2_PDC_2", "config": {"activity_regularizer": null, "units": 50, "bias_regularizer": null, "trainable": true, "kernel_constraint": null, "bias_initializer": {"config": {}, "class_name": "Zeros"}, "kernel_regularizer": {"config": {"l2": 0.0020000000949949026, "l1": 0.0}, "class_name": "L1L2"}, "bias_constraint": null, "use_bias": true, "activation": "relu", "name": "C2_PDC_2", "kernel_initializer": {"config": {"mode": "fan_avg", "distribution": "normal", "scale": 1.0, "seed": 3014}, "class_name": "VarianceScaling"}}, "class_name": "Dense", "inbound_nodes": [[["C2_PDC_1", 0, 0, {}]]]}, {"name": "C3_PDC_2", "config": {"activity_regularizer": null, "units": 50, "bias_regularizer": null, "trainable": true, "kernel_constraint": null, "bias_initializer": {"config": {}, "class_name": "Zeros"}, "kernel_regularizer": {"config": {"l2": 0.0020000000949949026, "l1": 0.0}, "class_name": "L1L2"}, "bias_constraint": null, "use_bias": true, "activation": "relu", "name": "C3_PDC_2", "kernel_initializer": {"config": {"mode": "fan_avg", "distribution": "normal", "scale": 1.0, "seed": 3014}, "class_name": "VarianceScaling"}}, "class_name": "Dense", "inbound_nodes": [[["C3_PDC_1", 0, 0, {}]]]}, {"name": "C4_PDC_2", "config": {"activity_regularizer": null, "units": 50, "bias_regularizer": null, "trainable": true, "kernel_constraint": null, "bias_initializer": {"config": {}, "class_name": "Zeros"}, "kernel_regularizer": {"config": {"l2": 0.0020000000949949026, "l1": 0.0}, "class_name": "L1L2"}, "bias_constraint": null, "use_bias": true, "activation": "relu", "name": "C4_PDC_2", "kernel_initializer": {"config": {"mode": "fan_avg", "distribution": "normal", "scale": 1.0, "seed": 3014}, "class_name": "VarianceScaling"}}, "class_name": "Dense", "inbound_nodes": [[["C4_PDC_1", 0, 0, {}]]]}, {"name": "B3_PDC_2", "config": {"activity_regularizer": null, "units": 50, "bias_regularizer": null, "trainable": true, "kernel_constraint": null, "bias_initializer": {"config": {}, "class_name": "Zeros"}, "kernel_regularizer": {"config": {"l2": 0.0020000000949949026, "l1": 0.0}, "class_name": "L1L2"}, "bias_constraint": null, "use_bias": true, "activation": "relu", "name": "B3_PDC_2", "kernel_initializer": {"config": {"mode": "fan_avg", "distribution": "normal", "scale": 1.0, "seed": 3014}, "class_name": "VarianceScaling"}}, "class_name": "Dense", "inbound_nodes": [[["B3_PDC_1", 0, 0, {}]]]}, {"name": "B1_PDC_2", "config": {"activity_regularizer": null, "units": 50, "bias_regularizer": null, "trainable": true, "kernel_constraint": null, "bias_initializer": {"config": {}, "class_name": "Zeros"}, "kernel_regularizer": {"config": {"l2": 0.0020000000949949026, "l1": 0.0}, "class_name": "L1L2"}, "bias_constraint": null, "use_bias": true, "activation": "relu", "name": "B1_PDC_2", "kernel_initializer": {"config": {"mode": "fan_avg", "distribution": "normal", "scale": 1.0, "seed": 3014}, "class_name": "VarianceScaling"}}, "class_name": "Dense", "inbound_nodes": [[["B1_PDC_1", 0, 0, {}]]]}, {"name": "D1_PDC_2", "config": {"activity_regularizer": null, "units": 50, "bias_regularizer": null, "trainable": true, "kernel_constraint": null, "bias_initializer": {"config": {}, "class_name": "Zeros"}, "kernel_regularizer": {"config": {"l2": 0.0020000000949949026, "l1": 0.0}, "class_name": "L1L2"}, "bias_constraint": null, "use_bias": true, "activation": "relu", "name": "D1_PDC_2", "kernel_initializer": {"config": {"mode": "fan_avg", "distribution": "normal", "scale": 1.0, "seed": 3014}, "class_name": "VarianceScaling"}}, "class_name": "Dense", "inbound_nodes": [[["D1_PDC_1", 0, 0, {}]]]}, {"name": "C1_PDC_3", "config": {"activity_regularizer": null, "units": 50, "bias_regularizer": null, "trainable": true, "kernel_constraint": null, "bias_initializer": {"config": {}, "class_name": "Zeros"}, "kernel_regularizer": {"config": {"l2": 0.0020000000949949026, "l1": 0.0}, "class_name": "L1L2"}, "bias_constraint": null, "use_bias": true, "activation": "relu", "name": "C1_PDC_3", "kernel_initializer": {"config": {"mode": "fan_avg", "distribution": "normal", "scale": 1.0, "seed": 3014}, "class_name": "VarianceScaling"}}, "class_name": "Dense", "inbound_nodes": [[["C1_PDC_2", 0, 0, {}]]]}, {"name": "C2_PDC_3", "config": {"activity_regularizer": null, "units": 50, "bias_regularizer": null, "trainable": true, "kernel_constraint": null, "bias_initializer": {"config": {}, "class_name": "Zeros"}, "kernel_regularizer": {"config": {"l2": 0.0020000000949949026, "l1": 0.0}, "class_name": "L1L2"}, "bias_constraint": null, "use_bias": true, "activation": "relu", "name": "C2_PDC_3", "kernel_initializer": {"config": {"mode": "fan_avg", "distribution": "normal", "scale": 1.0, "seed": 3014}, "class_name": "VarianceScaling"}}, "class_name": "Dense", "inbound_nodes": [[["C2_PDC_2", 0, 0, {}]]]}, {"name": "C3_PDC_3", "config": {"activity_regularizer": null, "units": 50, "bias_regularizer": null, "trainable": true, "kernel_constraint": null, "bias_initializer": {"config": {}, "class_name": "Zeros"}, "kernel_regularizer": {"config": {"l2": 0.0020000000949949026, "l1": 0.0}, "class_name": "L1L2"}, "bias_constraint": null, "use_bias": true, "activation": "relu", "name": "C3_PDC_3", "kernel_initializer": {"config": {"mode": "fan_avg", "distribution": "normal", "scale": 1.0, "seed": 3014}, "class_name": "VarianceScaling"}}, "class_name": "Dense", "inbound_nodes": [[["C3_PDC_2", 0, 0, {}]]]}, {"name": "C4_PDC_3", "config": {"activity_regularizer": null, "units": 50, "bias_regularizer": null, "trainable": true, "kernel_constraint": null, "bias_initializer": {"config": {}, "class_name": "Zeros"}, "kernel_regularizer": {"config": {"l2": 0.0020000000949949026, "l1": 0.0}, "class_name": "L1L2"}, "bias_constraint": null, "use_bias": true, "activation": "relu", "name": "C4_PDC_3", "kernel_initializer": {"config": {"mode": "fan_avg", "distribution": "normal", "scale": 1.0, "seed": 3014}, "class_name": "VarianceScaling"}}, "class_name": "Dense", "inbound_nodes": [[["C4_PDC_2", 0, 0, {}]]]}, {"name": "B3_PDC_3", "config": {"activity_regularizer": null, "units": 50, "bias_regularizer": null, "trainable": true, "kernel_constraint": null, "bias_initializer": {"config": {}, "class_name": "Zeros"}, "kernel_regularizer": {"config": {"l2": 0.0020000000949949026, "l1": 0.0}, "class_name": "L1L2"}, "bias_constraint": null, "use_bias": true, "activation": "relu", "name": "B3_PDC_3", "kernel_initializer": {"config": {"mode": "fan_avg", "distribution": "normal", "scale": 1.0, "seed": 3014}, "class_name": "VarianceScaling"}}, "class_name": "Dense", "inbound_nodes": [[["B3_PDC_2", 0, 0, {}]]]}, {"name": "B1_PDC_3", "config": {"activity_regularizer": null, "units": 50, "bias_regularizer": null, "trainable": true, "kernel_constraint": null, "bias_initializer": {"config": {}, "class_name": "Zeros"}, "kernel_regularizer": {"config": {"l2": 0.0020000000949949026, "l1": 0.0}, "class_name": "L1L2"}, "bias_constraint": null, "use_bias": true, "activation": "relu", "name": "B1_PDC_3", "kernel_initializer": {"config": {"mode": "fan_avg", "distribution": "normal", "scale": 1.0, "seed": 3014}, "class_name": "VarianceScaling"}}, "class_name": "Dense", "inbound_nodes": [[["B1_PDC_2", 0, 0, {}]]]}, {"name": "D1_PDC_3", "config": {"activity_regularizer": null, "units": 50, "bias_regularizer": null, "trainable": true, "kernel_constraint": null, "bias_initializer": {"config": {}, "class_name": "Zeros"}, "kernel_regularizer": {"config": {"l2": 0.0020000000949949026, "l1": 0.0}, "class_name": "L1L2"}, "bias_constraint": null, "use_bias": true, "activation": "relu", "name": "D1_PDC_3", "kernel_initializer": {"config": {"mode": "fan_avg", "distribution": "normal", "scale": 1.0, "seed": 3014}, "class_name": "VarianceScaling"}}, "class_name": "Dense", "inbound_nodes": [[["D1_PDC_2", 0, 0, {}]]]}, {"name": "C1_PDC_out", "config": {"activity_regularizer": null, "units": 1, "bias_regularizer": null, "trainable": true, "kernel_constraint": null, "bias_initializer": {"config": {}, "class_name": "Zeros"}, "kernel_regularizer": {"config": {"l2": 0.0020000000949949026, "l1": 0.0}, "class_name": "L1L2"}, "bias_constraint": null, "use_bias": true, "activation": "linear", "name": "C1_PDC_out", "kernel_initializer": {"config": {"mode": "fan_avg", "distribution": "normal", "scale": 1.0, "seed": 3014}, "class_name": "VarianceScaling"}}, "class_name": "Dense", "inbound_nodes": [[["C1_PDC_3", 0, 0, {}]]]}, {"name": "C2_PDC_out", "config": {"activity_regularizer": null, "units": 1, "bias_regularizer": null, "trainable": true, "kernel_constraint": null, "bias_initializer": {"config": {}, "class_name": "Zeros"}, "kernel_regularizer": {"config": {"l2": 0.0020000000949949026, "l1": 0.0}, "class_name": "L1L2"}, "bias_constraint": null, "use_bias": true, "activation": "linear", "name": "C2_PDC_out", "kernel_initializer": {"config": {"mode": "fan_avg", "distribution": "normal", "scale": 1.0, "seed": 3014}, "class_name": "VarianceScaling"}}, "class_name": "Dense", "inbound_nodes": [[["C2_PDC_3", 0, 0, {}]]]}, {"name": "C3_PDC_out", "config": {"activity_regularizer": null, "units": 1, "bias_regularizer": null, "trainable": true, "kernel_constraint": null, "bias_initializer": {"config": {}, "class_name": "Zeros"}, "kernel_regularizer": {"config": {"l2": 0.0020000000949949026, "l1": 0.0}, "class_name": "L1L2"}, "bias_constraint": null, "use_bias": true, "activation": "linear", "name": "C3_PDC_out", "kernel_initializer": {"config": {"mode": "fan_avg", "distribution": "normal", "scale": 1.0, "seed": 3014}, "class_name": "VarianceScaling"}}, "class_name": "Dense", "inbound_nodes": [[["C3_PDC_3", 0, 0, {}]]]}, {"name": "C4_PDC_out", "config": {"activity_regularizer": null, "units": 1, "bias_regularizer": null, "trainable": true, "kernel_constraint": null, "bias_initializer": {"config": {}, "class_name": "Zeros"}, "kernel_regularizer": {"config": {"l2": 0.0020000000949949026, "l1": 0.0}, "class_name": "L1L2"}, "bias_constraint": null, "use_bias": true, "activation": "linear", "name": "C4_PDC_out", "kernel_initializer": {"config": {"mode": "fan_avg", "distribution": "normal", "scale": 1.0, "seed": 3014}, "class_name": "VarianceScaling"}}, "class_name": "Dense", "inbound_nodes": [[["C4_PDC_3", 0, 0, {}]]]}, {"name": "B3_PDC_out", "config": {"activity_regularizer": null, "units": 1, "bias_regularizer": null, "trainable": true, "kernel_constraint": null, "bias_initializer": {"config": {}, "class_name": "Zeros"}, "kernel_regularizer": {"config": {"l2": 0.0020000000949949026, "l1": 0.0}, "class_name": "L1L2"}, "bias_constraint": null, "use_bias": true, "activation": "linear", "name": "B3_PDC_out", "kernel_initializer": {"config": {"mode": "fan_avg", "distribution": "normal", "scale": 1.0, "seed": 3014}, "class_name": "VarianceScaling"}}, "class_name": "Dense", "inbound_nodes": [[["B3_PDC_3", 0, 0, {}]]]}, {"name": "B1_PDC_out", "config": {"activity_regularizer": null, "units": 1, "bias_regularizer": null, "trainable": true, "kernel_constraint": null, "bias_initializer": {"config": {}, "class_name": "Zeros"}, "kernel_regularizer": {"config": {"l2": 0.0020000000949949026, "l1": 0.0}, "class_name": "L1L2"}, "bias_constraint": null, "use_bias": true, "activation": "linear", "name": "B1_PDC_out", "kernel_initializer": {"config": {"mode": "fan_avg", "distribution": "normal", "scale": 1.0, "seed": 3014}, "class_name": "VarianceScaling"}}, "class_name": "Dense", "inbound_nodes": [[["B1_PDC_3", 0, 0, {}]]]}, {"name": "D1_PDC_out", "config": {"activity_regularizer": null, "units": 1, "bias_regularizer": null, "trainable": true, "kernel_constraint": null, "bias_initializer": {"config": {}, "class_name": "Zeros"}, "kernel_regularizer": {"config": {"l2": 0.0020000000949949026, "l1": 0.0}, "class_name": "L1L2"}, "bias_constraint": null, "use_bias": true, "activation": "linear", "name": "D1_PDC_out", "kernel_initializer": {"config": {"mode": "fan_avg", "distribution": "normal", "scale": 1.0, "seed": 3014}, "class_name": "VarianceScaling"}}, "class_name": "Dense", "inbound_nodes": [[["D1_PDC_3", 0, 0, {}]]]}]}, "class_name": "Model", "keras_version": "2.0.1"}