{"keras_version": "2.0.1", "backend": "theano", "class_name": "Model", "config": {"name": "model_1", "layers": [{"name": "CHK_INPUT_PREV", "inbound_nodes": [], "class_name": "InputLayer", "config": {"dtype": "float32", "name": "CHK_INPUT_PREV", "sparse": false, "batch_input_shape": [null, 4]}}, {"name": "CHK_INPUT_NOW", "inbound_nodes": [], "class_name": "InputLayer", "config": {"dtype": "float32", "name": "CHK_INPUT_NOW", "sparse": false, "batch_input_shape": [null, 4]}}, {"name": "CHK_DELTA", "inbound_nodes": [[["CHK_INPUT_PREV", 0, 0, {}], ["CHK_INPUT_NOW", 0, 0, {}]]], "class_name": "Add", "config": {"name": "CHK_DELTA", "trainable": true}}, {"name": "F1_PDC_0", "inbound_nodes": [[["CHK_DELTA", 0, 0, {}]]], "class_name": "Dense", "config": {"name": "F1_PDC_0", "kernel_constraint": null, "kernel_regularizer": {"class_name": "L1L2", "config": {"l2": 0.00019999999494757503, "l1": 0.0}}, "trainable": true, "bias_initializer": {"class_name": "Zeros", "config": {}}, "units": 60, "activity_regularizer": null, "bias_constraint": null, "bias_regularizer": null, "activation": "relu", "use_bias": true, "kernel_initializer": {"class_name": "VarianceScaling", "config": {"scale": 1.0, "distribution": "normal", "seed": 3014, "mode": "fan_avg"}}}}, {"name": "B2_PDC_0", "inbound_nodes": [[["CHK_DELTA", 0, 0, {}]]], "class_name": "Dense", "config": {"name": "B2_PDC_0", "kernel_constraint": null, "kernel_regularizer": {"class_name": "L1L2", "config": {"l2": 0.00019999999494757503, "l1": 0.0}}, "trainable": true, "bias_initializer": {"class_name": "Zeros", "config": {}}, "units": 60, "activity_regularizer": null, "bias_constraint": null, "bias_regularizer": null, "activation": "relu", "use_bias": true, "kernel_initializer": {"class_name": "VarianceScaling", "config": {"scale": 1.0, "distribution": "normal", "seed": 3014, "mode": "fan_avg"}}}}, {"name": "D3_PDC_0", "inbound_nodes": [[["CHK_DELTA", 0, 0, {}]]], "class_name": "Dense", "config": {"name": "D3_PDC_0", "kernel_constraint": null, "kernel_regularizer": {"class_name": "L1L2", "config": {"l2": 0.00019999999494757503, "l1": 0.0}}, "trainable": true, "bias_initializer": {"class_name": "Zeros", "config": {}}, "units": 60, "activity_regularizer": null, "bias_constraint": null, "bias_regularizer": null, "activation": "relu", "use_bias": true, "kernel_initializer": {"class_name": "VarianceScaling", "config": {"scale": 1.0, "distribution": "normal", "seed": 3014, "mode": "fan_avg"}}}}, {"name": "E1_PDC_0", "inbound_nodes": [[["CHK_DELTA", 0, 0, {}]]], "class_name": "Dense", "config": {"name": "E1_PDC_0", "kernel_constraint": null, "kernel_regularizer": {"class_name": "L1L2", "config": {"l2": 0.00019999999494757503, "l1": 0.0}}, "trainable": true, "bias_initializer": {"class_name": "Zeros", "config": {}}, "units": 60, "activity_regularizer": null, "bias_constraint": null, "bias_regularizer": null, "activation": "relu", "use_bias": true, "kernel_initializer": {"class_name": "VarianceScaling", "config": {"scale": 1.0, "distribution": "normal", "seed": 3014, "mode": "fan_avg"}}}}, {"name": "F1_PDC_1", "inbound_nodes": [[["F1_PDC_0", 0, 0, {}]]], "class_name": "Dense", "config": {"name": "F1_PDC_1", "kernel_constraint": null, "kernel_regularizer": {"class_name": "L1L2", "config": {"l2": 0.00019999999494757503, "l1": 0.0}}, "trainable": true, "bias_initializer": {"class_name": "Zeros", "config": {}}, "units": 60, "activity_regularizer": null, "bias_constraint": null, "bias_regularizer": null, "activation": "relu", "use_bias": true, "kernel_initializer": {"class_name": "VarianceScaling", "config": {"scale": 1.0, "distribution": "normal", "seed": 3014, "mode": "fan_avg"}}}}, {"name": "B2_PDC_1", "inbound_nodes": [[["B2_PDC_0", 0, 0, {}]]], "class_name": "Dense", "config": {"name": "B2_PDC_1", "kernel_constraint": null, "kernel_regularizer": {"class_name": "L1L2", "config": {"l2": 0.00019999999494757503, "l1": 0.0}}, "trainable": true, "bias_initializer": {"class_name": "Zeros", "config": {}}, "units": 60, "activity_regularizer": null, "bias_constraint": null, "bias_regularizer": null, "activation": "relu", "use_bias": true, "kernel_initializer": {"class_name": "VarianceScaling", "config": {"scale": 1.0, "distribution": "normal", "seed": 3014, "mode": "fan_avg"}}}}, {"name": "D3_PDC_1", "inbound_nodes": [[["D3_PDC_0", 0, 0, {}]]], "class_name": "Dense", "config": {"name": "D3_PDC_1", "kernel_constraint": null, "kernel_regularizer": {"class_name": "L1L2", "config": {"l2": 0.00019999999494757503, "l1": 0.0}}, "trainable": true, "bias_initializer": {"class_name": "Zeros", "config": {}}, "units": 60, "activity_regularizer": null, "bias_constraint": null, "bias_regularizer": null, "activation": "relu", "use_bias": true, "kernel_initializer": {"class_name": "VarianceScaling", "config": {"scale": 1.0, "distribution": "normal", "seed": 3014, "mode": "fan_avg"}}}}, {"name": "E1_PDC_1", "inbound_nodes": [[["E1_PDC_0", 0, 0, {}]]], "class_name": "Dense", "config": {"name": "E1_PDC_1", "kernel_constraint": null, "kernel_regularizer": {"class_name": "L1L2", "config": {"l2": 0.00019999999494757503, "l1": 0.0}}, "trainable": true, "bias_initializer": {"class_name": "Zeros", "config": {}}, "units": 60, "activity_regularizer": null, "bias_constraint": null, "bias_regularizer": null, "activation": "relu", "use_bias": true, "kernel_initializer": {"class_name": "VarianceScaling", "config": {"scale": 1.0, "distribution": "normal", "seed": 3014, "mode": "fan_avg"}}}}, {"name": "F1_PDC_out", "inbound_nodes": [[["F1_PDC_1", 0, 0, {}]]], "class_name": "Dense", "config": {"name": "F1_PDC_out", "kernel_constraint": null, "kernel_regularizer": {"class_name": "L1L2", "config": {"l2": 0.00019999999494757503, "l1": 0.0}}, "trainable": true, "bias_initializer": {"class_name": "Zeros", "config": {}}, "units": 1, "activity_regularizer": null, "bias_constraint": null, "bias_regularizer": null, "activation": "linear", "use_bias": true, "kernel_initializer": {"class_name": "VarianceScaling", "config": {"scale": 1.0, "distribution": "normal", "seed": 3014, "mode": "fan_avg"}}}}, {"name": "SHIFTED_PRESSURE_PDC_F1", "inbound_nodes": [], "class_name": "InputLayer", "config": {"dtype": "float32", "name": "SHIFTED_PRESSURE_PDC_F1", "sparse": false, "batch_input_shape": [null, 1]}}, {"name": "B2_PDC_out", "inbound_nodes": [[["B2_PDC_1", 0, 0, {}]]], "class_name": "Dense", "config": {"name": "B2_PDC_out", "kernel_constraint": null, "kernel_regularizer": {"class_name": "L1L2", "config": {"l2": 0.00019999999494757503, "l1": 0.0}}, "trainable": true, "bias_initializer": {"class_name": "Zeros", "config": {}}, "units": 1, "activity_regularizer": null, "bias_constraint": null, "bias_regularizer": null, "activation": "linear", "use_bias": true, "kernel_initializer": {"class_name": "VarianceScaling", "config": {"scale": 1.0, "distribution": "normal", "seed": 3014, "mode": "fan_avg"}}}}, {"name": "SHIFTED_PRESSURE_PDC_B2", "inbound_nodes": [], "class_name": "InputLayer", "config": {"dtype": "float32", "name": "SHIFTED_PRESSURE_PDC_B2", "sparse": false, "batch_input_shape": [null, 1]}}, {"name": "D3_PDC_out", "inbound_nodes": [[["D3_PDC_1", 0, 0, {}]]], "class_name": "Dense", "config": {"name": "D3_PDC_out", "kernel_constraint": null, "kernel_regularizer": {"class_name": "L1L2", "config": {"l2": 0.00019999999494757503, "l1": 0.0}}, "trainable": true, "bias_initializer": {"class_name": "Zeros", "config": {}}, "units": 1, "activity_regularizer": null, "bias_constraint": null, "bias_regularizer": null, "activation": "linear", "use_bias": true, "kernel_initializer": {"class_name": "VarianceScaling", "config": {"scale": 1.0, "distribution": "normal", "seed": 3014, "mode": "fan_avg"}}}}, {"name": "SHIFTED_PRESSURE_PDC_D3", "inbound_nodes": [], "class_name": "InputLayer", "config": {"dtype": "float32", "name": "SHIFTED_PRESSURE_PDC_D3", "sparse": false, "batch_input_shape": [null, 1]}}, {"name": "E1_PDC_out", "inbound_nodes": [[["E1_PDC_1", 0, 0, {}]]], "class_name": "Dense", "config": {"name": "E1_PDC_out", "kernel_constraint": null, "kernel_regularizer": {"class_name": "L1L2", "config": {"l2": 0.00019999999494757503, "l1": 0.0}}, "trainable": true, "bias_initializer": {"class_name": "Zeros", "config": {}}, "units": 1, "activity_regularizer": null, "bias_constraint": null, "bias_regularizer": null, "activation": "linear", "use_bias": true, "kernel_initializer": {"class_name": "VarianceScaling", "config": {"scale": 1.0, "distribution": "normal", "seed": 3014, "mode": "fan_avg"}}}}, {"name": "SHIFTED_PRESSURE_PDC_E1", "inbound_nodes": [], "class_name": "InputLayer", "config": {"dtype": "float32", "name": "SHIFTED_PRESSURE_PDC_E1", "sparse": false, "batch_input_shape": [null, 1]}}, {"name": "F1_PDC_out2", "inbound_nodes": [[["F1_PDC_out", 0, 0, {}], ["SHIFTED_PRESSURE_PDC_F1", 0, 0, {}]]], "class_name": "Add", "config": {"name": "F1_PDC_out2", "trainable": true}}, {"name": "B2_PDC_out2", "inbound_nodes": [[["B2_PDC_out", 0, 0, {}], ["SHIFTED_PRESSURE_PDC_B2", 0, 0, {}]]], "class_name": "Add", "config": {"name": "B2_PDC_out2", "trainable": true}}, {"name": "D3_PDC_out2", "inbound_nodes": [[["D3_PDC_out", 0, 0, {}], ["SHIFTED_PRESSURE_PDC_D3", 0, 0, {}]]], "class_name": "Add", "config": {"name": "D3_PDC_out2", "trainable": true}}, {"name": "E1_PDC_out2", "inbound_nodes": [[["E1_PDC_out", 0, 0, {}], ["SHIFTED_PRESSURE_PDC_E1", 0, 0, {}]]], "class_name": "Add", "config": {"name": "E1_PDC_out2", "trainable": true}}], "input_layers": [["CHK_INPUT_NOW", 0, 0], ["CHK_INPUT_PREV", 0, 0], ["SHIFTED_PRESSURE_PDC_F1", 0, 0], ["SHIFTED_PRESSURE_PDC_B2", 0, 0], ["SHIFTED_PRESSURE_PDC_D3", 0, 0], ["SHIFTED_PRESSURE_PDC_E1", 0, 0]], "output_layers": [["F1_PDC_out2", 0, 0], ["F1_PDC_out", 0, 0], ["B2_PDC_out2", 0, 0], ["B2_PDC_out", 0, 0], ["D3_PDC_out2", 0, 0], ["D3_PDC_out", 0, 0], ["E1_PDC_out2", 0, 0], ["E1_PDC_out", 0, 0]]}}