{"keras_version": "2.0.1", "class_name": "Model", "config": {"name": "model_1", "layers": [{"name": "C1", "class_name": "InputLayer", "inbound_nodes": [], "config": {"sparse": false, "name": "C1", "batch_input_shape": [null, 4], "dtype": "float32"}}, {"name": "C2", "class_name": "InputLayer", "inbound_nodes": [], "config": {"sparse": false, "name": "C2", "batch_input_shape": [null, 3], "dtype": "float32"}}, {"name": "C3", "class_name": "InputLayer", "inbound_nodes": [], "config": {"sparse": false, "name": "C3", "batch_input_shape": [null, 4], "dtype": "float32"}}, {"name": "C4", "class_name": "InputLayer", "inbound_nodes": [], "config": {"sparse": false, "name": "C4", "batch_input_shape": [null, 4], "dtype": "float32"}}, {"name": "B1", "class_name": "InputLayer", "inbound_nodes": [], "config": {"sparse": false, "name": "B1", "batch_input_shape": [null, 4], "dtype": "float32"}}, {"name": "B3", "class_name": "InputLayer", "inbound_nodes": [], "config": {"sparse": false, "name": "B3", "batch_input_shape": [null, 4], "dtype": "float32"}}, {"name": "D1", "class_name": "InputLayer", "inbound_nodes": [], "config": {"sparse": false, "name": "D1", "batch_input_shape": [null, 3], "dtype": "float32"}}, {"name": "C1_0", "class_name": "Dense", "inbound_nodes": [[["C1", 0, 0, {}]]], "config": {"bias_initializer": {"class_name": "Zeros", "config": {}}, "activity_regularizer": null, "kernel_initializer": {"class_name": "VarianceScaling", "config": {"mode": "fan_avg", "distribution": "normal", "seed": 3014, "scale": 1.0}}, "name": "C1_0", "kernel_regularizer": {"class_name": "L1L2", "config": {"l1": 0.0, "l2": 0.0010000000474974513}}, "units": 20, "bias_constraint": null, "bias_regularizer": null, "use_bias": true, "trainable": true, "kernel_constraint": null, "activation": "relu"}}, {"name": "C2_0", "class_name": "Dense", "inbound_nodes": [[["C2", 0, 0, {}]]], "config": {"bias_initializer": {"class_name": "Zeros", "config": {}}, "activity_regularizer": null, "kernel_initializer": {"class_name": "VarianceScaling", "config": {"mode": "fan_avg", "distribution": "normal", "seed": 3014, "scale": 1.0}}, "name": "C2_0", "kernel_regularizer": {"class_name": "L1L2", "config": {"l1": 0.0, "l2": 0.0010000000474974513}}, "units": 20, "bias_constraint": null, "bias_regularizer": null, "use_bias": true, "trainable": true, "kernel_constraint": null, "activation": "relu"}}, {"name": "C3_0", "class_name": "Dense", "inbound_nodes": [[["C3", 0, 0, {}]]], "config": {"bias_initializer": {"class_name": "Zeros", "config": {}}, "activity_regularizer": null, "kernel_initializer": {"class_name": "VarianceScaling", "config": {"mode": "fan_avg", "distribution": "normal", "seed": 3014, "scale": 1.0}}, "name": "C3_0", "kernel_regularizer": {"class_name": "L1L2", "config": {"l1": 0.0, "l2": 0.0010000000474974513}}, "units": 20, "bias_constraint": null, "bias_regularizer": null, "use_bias": true, "trainable": true, "kernel_constraint": null, "activation": "relu"}}, {"name": "C4_0", "class_name": "Dense", "inbound_nodes": [[["C4", 0, 0, {}]]], "config": {"bias_initializer": {"class_name": "Zeros", "config": {}}, "activity_regularizer": null, "kernel_initializer": {"class_name": "VarianceScaling", "config": {"mode": "fan_avg", "distribution": "normal", "seed": 3014, "scale": 1.0}}, "name": "C4_0", "kernel_regularizer": {"class_name": "L1L2", "config": {"l1": 0.0, "l2": 0.0010000000474974513}}, "units": 20, "bias_constraint": null, "bias_regularizer": null, "use_bias": true, "trainable": true, "kernel_constraint": null, "activation": "relu"}}, {"name": "B1_0", "class_name": "Dense", "inbound_nodes": [[["B1", 0, 0, {}]]], "config": {"bias_initializer": {"class_name": "Zeros", "config": {}}, "activity_regularizer": null, "kernel_initializer": {"class_name": "VarianceScaling", "config": {"mode": "fan_avg", "distribution": "normal", "seed": 3014, "scale": 1.0}}, "name": "B1_0", "kernel_regularizer": {"class_name": "L1L2", "config": {"l1": 0.0, "l2": 0.0010000000474974513}}, "units": 20, "bias_constraint": null, "bias_regularizer": null, "use_bias": true, "trainable": true, "kernel_constraint": null, "activation": "relu"}}, {"name": "B3_0", "class_name": "Dense", "inbound_nodes": [[["B3", 0, 0, {}]]], "config": {"bias_initializer": {"class_name": "Zeros", "config": {}}, "activity_regularizer": null, "kernel_initializer": {"class_name": "VarianceScaling", "config": {"mode": "fan_avg", "distribution": "normal", "seed": 3014, "scale": 1.0}}, "name": "B3_0", "kernel_regularizer": {"class_name": "L1L2", "config": {"l1": 0.0, "l2": 0.0010000000474974513}}, "units": 20, "bias_constraint": null, "bias_regularizer": null, "use_bias": true, "trainable": true, "kernel_constraint": null, "activation": "relu"}}, {"name": "D1_0", "class_name": "Dense", "inbound_nodes": [[["D1", 0, 0, {}]]], "config": {"bias_initializer": {"class_name": "Zeros", "config": {}}, "activity_regularizer": null, "kernel_initializer": {"class_name": "VarianceScaling", "config": {"mode": "fan_avg", "distribution": "normal", "seed": 3014, "scale": 1.0}}, "name": "D1_0", "kernel_regularizer": {"class_name": "L1L2", "config": {"l1": 0.0, "l2": 0.0010000000474974513}}, "units": 20, "bias_constraint": null, "bias_regularizer": null, "use_bias": true, "trainable": true, "kernel_constraint": null, "activation": "relu"}}, {"name": "C1_1", "class_name": "Dense", "inbound_nodes": [[["C1_0", 0, 0, {}]]], "config": {"bias_initializer": {"class_name": "Zeros", "config": {}}, "activity_regularizer": null, "kernel_initializer": {"class_name": "VarianceScaling", "config": {"mode": "fan_avg", "distribution": "normal", "seed": 3014, "scale": 1.0}}, "name": "C1_1", "kernel_regularizer": {"class_name": "L1L2", "config": {"l1": 0.0, "l2": 0.0010000000474974513}}, "units": 20, "bias_constraint": null, "bias_regularizer": null, "use_bias": true, "trainable": true, "kernel_constraint": null, "activation": "relu"}}, {"name": "C2_1", "class_name": "Dense", "inbound_nodes": [[["C2_0", 0, 0, {}]]], "config": {"bias_initializer": {"class_name": "Zeros", "config": {}}, "activity_regularizer": null, "kernel_initializer": {"class_name": "VarianceScaling", "config": {"mode": "fan_avg", "distribution": "normal", "seed": 3014, "scale": 1.0}}, "name": "C2_1", "kernel_regularizer": {"class_name": "L1L2", "config": {"l1": 0.0, "l2": 0.0010000000474974513}}, "units": 20, "bias_constraint": null, "bias_regularizer": null, "use_bias": true, "trainable": true, "kernel_constraint": null, "activation": "relu"}}, {"name": "C3_1", "class_name": "Dense", "inbound_nodes": [[["C3_0", 0, 0, {}]]], "config": {"bias_initializer": {"class_name": "Zeros", "config": {}}, "activity_regularizer": null, "kernel_initializer": {"class_name": "VarianceScaling", "config": {"mode": "fan_avg", "distribution": "normal", "seed": 3014, "scale": 1.0}}, "name": "C3_1", "kernel_regularizer": {"class_name": "L1L2", "config": {"l1": 0.0, "l2": 0.0010000000474974513}}, "units": 20, "bias_constraint": null, "bias_regularizer": null, "use_bias": true, "trainable": true, "kernel_constraint": null, "activation": "relu"}}, {"name": "C4_1", "class_name": "Dense", "inbound_nodes": [[["C4_0", 0, 0, {}]]], "config": {"bias_initializer": {"class_name": "Zeros", "config": {}}, "activity_regularizer": null, "kernel_initializer": {"class_name": "VarianceScaling", "config": {"mode": "fan_avg", "distribution": "normal", "seed": 3014, "scale": 1.0}}, "name": "C4_1", "kernel_regularizer": {"class_name": "L1L2", "config": {"l1": 0.0, "l2": 0.0010000000474974513}}, "units": 20, "bias_constraint": null, "bias_regularizer": null, "use_bias": true, "trainable": true, "kernel_constraint": null, "activation": "relu"}}, {"name": "B1_1", "class_name": "Dense", "inbound_nodes": [[["B1_0", 0, 0, {}]]], "config": {"bias_initializer": {"class_name": "Zeros", "config": {}}, "activity_regularizer": null, "kernel_initializer": {"class_name": "VarianceScaling", "config": {"mode": "fan_avg", "distribution": "normal", "seed": 3014, "scale": 1.0}}, "name": "B1_1", "kernel_regularizer": {"class_name": "L1L2", "config": {"l1": 0.0, "l2": 0.0010000000474974513}}, "units": 20, "bias_constraint": null, "bias_regularizer": null, "use_bias": true, "trainable": true, "kernel_constraint": null, "activation": "relu"}}, {"name": "B3_1", "class_name": "Dense", "inbound_nodes": [[["B3_0", 0, 0, {}]]], "config": {"bias_initializer": {"class_name": "Zeros", "config": {}}, "activity_regularizer": null, "kernel_initializer": {"class_name": "VarianceScaling", "config": {"mode": "fan_avg", "distribution": "normal", "seed": 3014, "scale": 1.0}}, "name": "B3_1", "kernel_regularizer": {"class_name": "L1L2", "config": {"l1": 0.0, "l2": 0.0010000000474974513}}, "units": 20, "bias_constraint": null, "bias_regularizer": null, "use_bias": true, "trainable": true, "kernel_constraint": null, "activation": "relu"}}, {"name": "D1_1", "class_name": "Dense", "inbound_nodes": [[["D1_0", 0, 0, {}]]], "config": {"bias_initializer": {"class_name": "Zeros", "config": {}}, "activity_regularizer": null, "kernel_initializer": {"class_name": "VarianceScaling", "config": {"mode": "fan_avg", "distribution": "normal", "seed": 3014, "scale": 1.0}}, "name": "D1_1", "kernel_regularizer": {"class_name": "L1L2", "config": {"l1": 0.0, "l2": 0.0010000000474974513}}, "units": 20, "bias_constraint": null, "bias_regularizer": null, "use_bias": true, "trainable": true, "kernel_constraint": null, "activation": "relu"}}, {"name": "OnOff_C1", "class_name": "InputLayer", "inbound_nodes": [], "config": {"sparse": false, "name": "OnOff_C1", "batch_input_shape": [null, 1], "dtype": "float32"}}, {"name": "C1_o", "class_name": "Dense", "inbound_nodes": [[["C1_1", 0, 0, {}]]], "config": {"bias_initializer": {"class_name": "Zeros", "config": {}}, "activity_regularizer": null, "kernel_initializer": {"class_name": "VarianceScaling", "config": {"mode": "fan_avg", "distribution": "normal", "seed": 3014, "scale": 1.0}}, "name": "C1_o", "kernel_regularizer": {"class_name": "L1L2", "config": {"l1": 0.0, "l2": 0.0010000000474974513}}, "units": 1, "bias_constraint": null, "bias_regularizer": null, "use_bias": true, "trainable": true, "kernel_constraint": null, "activation": "relu"}}, {"name": "OnOff_C2", "class_name": "InputLayer", "inbound_nodes": [], "config": {"sparse": false, "name": "OnOff_C2", "batch_input_shape": [null, 1], "dtype": "float32"}}, {"name": "C2_o", "class_name": "Dense", "inbound_nodes": [[["C2_1", 0, 0, {}]]], "config": {"bias_initializer": {"class_name": "Zeros", "config": {}}, "activity_regularizer": null, "kernel_initializer": {"class_name": "VarianceScaling", "config": {"mode": "fan_avg", "distribution": "normal", "seed": 3014, "scale": 1.0}}, "name": "C2_o", "kernel_regularizer": {"class_name": "L1L2", "config": {"l1": 0.0, "l2": 0.0010000000474974513}}, "units": 1, "bias_constraint": null, "bias_regularizer": null, "use_bias": true, "trainable": true, "kernel_constraint": null, "activation": "relu"}}, {"name": "OnOff_C3", "class_name": "InputLayer", "inbound_nodes": [], "config": {"sparse": false, "name": "OnOff_C3", "batch_input_shape": [null, 1], "dtype": "float32"}}, {"name": "C3_o", "class_name": "Dense", "inbound_nodes": [[["C3_1", 0, 0, {}]]], "config": {"bias_initializer": {"class_name": "Zeros", "config": {}}, "activity_regularizer": null, "kernel_initializer": {"class_name": "VarianceScaling", "config": {"mode": "fan_avg", "distribution": "normal", "seed": 3014, "scale": 1.0}}, "name": "C3_o", "kernel_regularizer": {"class_name": "L1L2", "config": {"l1": 0.0, "l2": 0.0010000000474974513}}, "units": 1, "bias_constraint": null, "bias_regularizer": null, "use_bias": true, "trainable": true, "kernel_constraint": null, "activation": "relu"}}, {"name": "OnOff_C4", "class_name": "InputLayer", "inbound_nodes": [], "config": {"sparse": false, "name": "OnOff_C4", "batch_input_shape": [null, 1], "dtype": "float32"}}, {"name": "C4_o", "class_name": "Dense", "inbound_nodes": [[["C4_1", 0, 0, {}]]], "config": {"bias_initializer": {"class_name": "Zeros", "config": {}}, "activity_regularizer": null, "kernel_initializer": {"class_name": "VarianceScaling", "config": {"mode": "fan_avg", "distribution": "normal", "seed": 3014, "scale": 1.0}}, "name": "C4_o", "kernel_regularizer": {"class_name": "L1L2", "config": {"l1": 0.0, "l2": 0.0010000000474974513}}, "units": 1, "bias_constraint": null, "bias_regularizer": null, "use_bias": true, "trainable": true, "kernel_constraint": null, "activation": "relu"}}, {"name": "OnOff_B1", "class_name": "InputLayer", "inbound_nodes": [], "config": {"sparse": false, "name": "OnOff_B1", "batch_input_shape": [null, 1], "dtype": "float32"}}, {"name": "B1_o", "class_name": "Dense", "inbound_nodes": [[["B1_1", 0, 0, {}]]], "config": {"bias_initializer": {"class_name": "Zeros", "config": {}}, "activity_regularizer": null, "kernel_initializer": {"class_name": "VarianceScaling", "config": {"mode": "fan_avg", "distribution": "normal", "seed": 3014, "scale": 1.0}}, "name": "B1_o", "kernel_regularizer": {"class_name": "L1L2", "config": {"l1": 0.0, "l2": 0.0010000000474974513}}, "units": 1, "bias_constraint": null, "bias_regularizer": null, "use_bias": true, "trainable": true, "kernel_constraint": null, "activation": "relu"}}, {"name": "OnOff_B3", "class_name": "InputLayer", "inbound_nodes": [], "config": {"sparse": false, "name": "OnOff_B3", "batch_input_shape": [null, 1], "dtype": "float32"}}, {"name": "B3_o", "class_name": "Dense", "inbound_nodes": [[["B3_1", 0, 0, {}]]], "config": {"bias_initializer": {"class_name": "Zeros", "config": {}}, "activity_regularizer": null, "kernel_initializer": {"class_name": "VarianceScaling", "config": {"mode": "fan_avg", "distribution": "normal", "seed": 3014, "scale": 1.0}}, "name": "B3_o", "kernel_regularizer": {"class_name": "L1L2", "config": {"l1": 0.0, "l2": 0.0010000000474974513}}, "units": 1, "bias_constraint": null, "bias_regularizer": null, "use_bias": true, "trainable": true, "kernel_constraint": null, "activation": "relu"}}, {"name": "OnOff_D1", "class_name": "InputLayer", "inbound_nodes": [], "config": {"sparse": false, "name": "OnOff_D1", "batch_input_shape": [null, 1], "dtype": "float32"}}, {"name": "D1_o", "class_name": "Dense", "inbound_nodes": [[["D1_1", 0, 0, {}]]], "config": {"bias_initializer": {"class_name": "Zeros", "config": {}}, "activity_regularizer": null, "kernel_initializer": {"class_name": "VarianceScaling", "config": {"mode": "fan_avg", "distribution": "normal", "seed": 3014, "scale": 1.0}}, "name": "D1_o", "kernel_regularizer": {"class_name": "L1L2", "config": {"l1": 0.0, "l2": 0.0010000000474974513}}, "units": 1, "bias_constraint": null, "bias_regularizer": null, "use_bias": true, "trainable": true, "kernel_constraint": null, "activation": "relu"}}, {"name": "C1_out", "class_name": "Multiply", "inbound_nodes": [[["OnOff_C1", 0, 0, {}], ["C1_o", 0, 0, {}]]], "config": {"name": "C1_out", "trainable": true}}, {"name": "C2_out", "class_name": "Multiply", "inbound_nodes": [[["OnOff_C2", 0, 0, {}], ["C2_o", 0, 0, {}]]], "config": {"name": "C2_out", "trainable": true}}, {"name": "C3_out", "class_name": "Multiply", "inbound_nodes": [[["OnOff_C3", 0, 0, {}], ["C3_o", 0, 0, {}]]], "config": {"name": "C3_out", "trainable": true}}, {"name": "C4_out", "class_name": "Multiply", "inbound_nodes": [[["OnOff_C4", 0, 0, {}], ["C4_o", 0, 0, {}]]], "config": {"name": "C4_out", "trainable": true}}, {"name": "B1_out", "class_name": "Multiply", "inbound_nodes": [[["OnOff_B1", 0, 0, {}], ["B1_o", 0, 0, {}]]], "config": {"name": "B1_out", "trainable": true}}, {"name": "B3_out", "class_name": "Multiply", "inbound_nodes": [[["OnOff_B3", 0, 0, {}], ["B3_o", 0, 0, {}]]], "config": {"name": "B3_out", "trainable": true}}, {"name": "D1_out", "class_name": "Multiply", "inbound_nodes": [[["OnOff_D1", 0, 0, {}], ["D1_o", 0, 0, {}]]], "config": {"name": "D1_out", "trainable": true}}, {"name": "GJOA_TOTAL", "class_name": "Add", "inbound_nodes": [[["C1_out", 0, 0, {}], ["C2_out", 0, 0, {}], ["C3_out", 0, 0, {}], ["C4_out", 0, 0, {}], ["B1_out", 0, 0, {}], ["B3_out", 0, 0, {}], ["D1_out", 0, 0, {}]]], "config": {"name": "GJOA_TOTAL", "trainable": true}}], "input_layers": [["C1", 0, 0], ["C2", 0, 0], ["C3", 0, 0], ["C4", 0, 0], ["B1", 0, 0], ["B3", 0, 0], ["D1", 0, 0], ["OnOff_C1", 0, 0], ["OnOff_C2", 0, 0], ["OnOff_C3", 0, 0], ["OnOff_C4", 0, 0], ["OnOff_B1", 0, 0], ["OnOff_B3", 0, 0], ["OnOff_D1", 0, 0]], "output_layers": [["C1_out", 0, 0], ["C2_out", 0, 0], ["C3_out", 0, 0], ["C4_out", 0, 0], ["B1_out", 0, 0], ["B3_out", 0, 0], ["D1_out", 0, 0], ["GJOA_TOTAL", 0, 0]]}, "backend": "theano"}