{"class_name": "Model", "config": {"name": "model_1", "layers": [{"name": "Main_input", "class_name": "InputLayer", "config": {"batch_input_shape": [null, 7], "input_dtype": "float32", "sparse": false, "name": "Main_input"}, "inbound_nodes": []}, {"name": "dense_1", "class_name": "Dense", "config": {"name": "dense_1", "trainable": true, "output_dim": 50, "init": "glorot_uniform", "activation": "relu", "W_regularizer": {"name": "L1L2Regularizer", "l1": 0.0, "l2": 9.999999747378752e-06}, "b_regularizer": null, "activity_regularizer": null, "W_constraint": null, "b_constraint": null, "bias": true, "input_dim": 7}, "inbound_nodes": [[["Main_input", 0, 0]]]}, {"name": "dense_4", "class_name": "Dense", "config": {"name": "dense_4", "trainable": true, "output_dim": 50, "init": "glorot_uniform", "activation": "relu", "W_regularizer": {"name": "L1L2Regularizer", "l1": 0.0, "l2": 9.999999747378752e-06}, "b_regularizer": null, "activity_regularizer": null, "W_constraint": null, "b_constraint": null, "bias": true, "input_dim": 7}, "inbound_nodes": [[["Main_input", 0, 0]]]}, {"name": "dense_7", "class_name": "Dense", "config": {"name": "dense_7", "trainable": true, "output_dim": 50, "init": "glorot_uniform", "activation": "relu", "W_regularizer": {"name": "L1L2Regularizer", "l1": 0.0, "l2": 9.999999747378752e-06}, "b_regularizer": null, "activity_regularizer": null, "W_constraint": null, "b_constraint": null, "bias": true, "input_dim": 7}, "inbound_nodes": [[["Main_input", 0, 0]]]}, {"name": "dense_10", "class_name": "Dense", "config": {"name": "dense_10", "trainable": true, "output_dim": 50, "init": "glorot_uniform", "activation": "relu", "W_regularizer": {"name": "L1L2Regularizer", "l1": 0.0, "l2": 9.999999747378752e-06}, "b_regularizer": null, "activity_regularizer": null, "W_constraint": null, "b_constraint": null, "bias": true, "input_dim": 7}, "inbound_nodes": [[["Main_input", 0, 0]]]}, {"name": "dense_13", "class_name": "Dense", "config": {"name": "dense_13", "trainable": true, "output_dim": 50, "init": "glorot_uniform", "activation": "relu", "W_regularizer": {"name": "L1L2Regularizer", "l1": 0.0, "l2": 9.999999747378752e-06}, "b_regularizer": null, "activity_regularizer": null, "W_constraint": null, "b_constraint": null, "bias": true, "input_dim": 7}, "inbound_nodes": [[["Main_input", 0, 0]]]}, {"name": "dense_16", "class_name": "Dense", "config": {"name": "dense_16", "trainable": true, "output_dim": 50, "init": "glorot_uniform", "activation": "relu", "W_regularizer": {"name": "L1L2Regularizer", "l1": 0.0, "l2": 9.999999747378752e-06}, "b_regularizer": null, "activity_regularizer": null, "W_constraint": null, "b_constraint": null, "bias": true, "input_dim": 7}, "inbound_nodes": [[["Main_input", 0, 0]]]}, {"name": "dense_19", "class_name": "Dense", "config": {"name": "dense_19", "trainable": true, "output_dim": 50, "init": "glorot_uniform", "activation": "relu", "W_regularizer": {"name": "L1L2Regularizer", "l1": 0.0, "l2": 9.999999747378752e-06}, "b_regularizer": null, "activity_regularizer": null, "W_constraint": null, "b_constraint": null, "bias": true, "input_dim": 7}, "inbound_nodes": [[["Main_input", 0, 0]]]}, {"name": "dense_3", "class_name": "Dense", "config": {"name": "dense_3", "trainable": true, "output_dim": 1, "init": "glorot_uniform", "activation": "linear", "W_regularizer": {"name": "L1L2Regularizer", "l1": 0.0, "l2": 9.999999747378752e-06}, "b_regularizer": null, "activity_regularizer": null, "W_constraint": null, "b_constraint": null, "bias": true, "input_dim": 50}, "inbound_nodes": [[["dense_1", 0, 0]]]}, {"name": "OnOff_C1", "class_name": "InputLayer", "config": {"batch_input_shape": [null, 1], "input_dtype": "float32", "sparse": false, "name": "OnOff_C1"}, "inbound_nodes": []}, {"name": "dense_6", "class_name": "Dense", "config": {"name": "dense_6", "trainable": true, "output_dim": 1, "init": "glorot_uniform", "activation": "linear", "W_regularizer": {"name": "L1L2Regularizer", "l1": 0.0, "l2": 9.999999747378752e-06}, "b_regularizer": null, "activity_regularizer": null, "W_constraint": null, "b_constraint": null, "bias": true, "input_dim": 50}, "inbound_nodes": [[["dense_4", 0, 0]]]}, {"name": "OnOff_C2", "class_name": "InputLayer", "config": {"batch_input_shape": [null, 1], "input_dtype": "float32", "sparse": false, "name": "OnOff_C2"}, "inbound_nodes": []}, {"name": "dense_9", "class_name": "Dense", "config": {"name": "dense_9", "trainable": true, "output_dim": 1, "init": "glorot_uniform", "activation": "linear", "W_regularizer": {"name": "L1L2Regularizer", "l1": 0.0, "l2": 9.999999747378752e-06}, "b_regularizer": null, "activity_regularizer": null, "W_constraint": null, "b_constraint": null, "bias": true, "input_dim": 50}, "inbound_nodes": [[["dense_7", 0, 0]]]}, {"name": "OnOff_C3", "class_name": "InputLayer", "config": {"batch_input_shape": [null, 1], "input_dtype": "float32", "sparse": false, "name": "OnOff_C3"}, "inbound_nodes": []}, {"name": "dense_12", "class_name": "Dense", "config": {"name": "dense_12", "trainable": true, "output_dim": 1, "init": "glorot_uniform", "activation": "linear", "W_regularizer": {"name": "L1L2Regularizer", "l1": 0.0, "l2": 9.999999747378752e-06}, "b_regularizer": null, "activity_regularizer": null, "W_constraint": null, "b_constraint": null, "bias": true, "input_dim": 50}, "inbound_nodes": [[["dense_10", 0, 0]]]}, {"name": "OnOff_C4", "class_name": "InputLayer", "config": {"batch_input_shape": [null, 1], "input_dtype": "float32", "sparse": false, "name": "OnOff_C4"}, "inbound_nodes": []}, {"name": "dense_15", "class_name": "Dense", "config": {"name": "dense_15", "trainable": true, "output_dim": 1, "init": "glorot_uniform", "activation": "linear", "W_regularizer": {"name": "L1L2Regularizer", "l1": 0.0, "l2": 9.999999747378752e-06}, "b_regularizer": null, "activity_regularizer": null, "W_constraint": null, "b_constraint": null, "bias": true, "input_dim": 50}, "inbound_nodes": [[["dense_13", 0, 0]]]}, {"name": "OnOff_B1", "class_name": "InputLayer", "config": {"batch_input_shape": [null, 1], "input_dtype": "float32", "sparse": false, "name": "OnOff_B1"}, "inbound_nodes": []}, {"name": "dense_18", "class_name": "Dense", "config": {"name": "dense_18", "trainable": true, "output_dim": 1, "init": "glorot_uniform", "activation": "linear", "W_regularizer": {"name": "L1L2Regularizer", "l1": 0.0, "l2": 9.999999747378752e-06}, "b_regularizer": null, "activity_regularizer": null, "W_constraint": null, "b_constraint": null, "bias": true, "input_dim": 50}, "inbound_nodes": [[["dense_16", 0, 0]]]}, {"name": "OnOff_B3", "class_name": "InputLayer", "config": {"batch_input_shape": [null, 1], "input_dtype": "float32", "sparse": false, "name": "OnOff_B3"}, "inbound_nodes": []}, {"name": "dense_21", "class_name": "Dense", "config": {"name": "dense_21", "trainable": true, "output_dim": 1, "init": "glorot_uniform", "activation": "linear", "W_regularizer": {"name": "L1L2Regularizer", "l1": 0.0, "l2": 9.999999747378752e-06}, "b_regularizer": null, "activity_regularizer": null, "W_constraint": null, "b_constraint": null, "bias": true, "input_dim": 50}, "inbound_nodes": [[["dense_19", 0, 0]]]}, {"name": "OnOff_D1", "class_name": "InputLayer", "config": {"batch_input_shape": [null, 1], "input_dtype": "float32", "sparse": false, "name": "OnOff_D1"}, "inbound_nodes": []}, {"name": "C1_out", "class_name": "Merge", "config": {"name": "C1_out", "mode": "mul", "mode_type": "raw", "concat_axis": -1, "dot_axes": -1, "output_shape": null, "output_shape_type": "raw", "output_mask": null, "output_mask_type": "raw", "arguments": {}}, "inbound_nodes": [[["dense_3", 0, 0], ["OnOff_C1", 0, 0]]]}, {"name": "C2_out", "class_name": "Merge", "config": {"name": "C2_out", "mode": "mul", "mode_type": "raw", "concat_axis": -1, "dot_axes": -1, "output_shape": null, "output_shape_type": "raw", "output_mask": null, "output_mask_type": "raw", "arguments": {}}, "inbound_nodes": [[["dense_6", 0, 0], ["OnOff_C2", 0, 0]]]}, {"name": "C3_out", "class_name": "Merge", "config": {"name": "C3_out", "mode": "mul", "mode_type": "raw", "concat_axis": -1, "dot_axes": -1, "output_shape": null, "output_shape_type": "raw", "output_mask": null, "output_mask_type": "raw", "arguments": {}}, "inbound_nodes": [[["dense_9", 0, 0], ["OnOff_C3", 0, 0]]]}, {"name": "C4_out", "class_name": "Merge", "config": {"name": "C4_out", "mode": "mul", "mode_type": "raw", "concat_axis": -1, "dot_axes": -1, "output_shape": null, "output_shape_type": "raw", "output_mask": null, "output_mask_type": "raw", "arguments": {}}, "inbound_nodes": [[["dense_12", 0, 0], ["OnOff_C4", 0, 0]]]}, {"name": "B1_out", "class_name": "Merge", "config": {"name": "B1_out", "mode": "mul", "mode_type": "raw", "concat_axis": -1, "dot_axes": -1, "output_shape": null, "output_shape_type": "raw", "output_mask": null, "output_mask_type": "raw", "arguments": {}}, "inbound_nodes": [[["dense_15", 0, 0], ["OnOff_B1", 0, 0]]]}, {"name": "B3_out", "class_name": "Merge", "config": {"name": "B3_out", "mode": "mul", "mode_type": "raw", "concat_axis": -1, "dot_axes": -1, "output_shape": null, "output_shape_type": "raw", "output_mask": null, "output_mask_type": "raw", "arguments": {}}, "inbound_nodes": [[["dense_18", 0, 0], ["OnOff_B3", 0, 0]]]}, {"name": "D1_out", "class_name": "Merge", "config": {"name": "D1_out", "mode": "mul", "mode_type": "raw", "concat_axis": -1, "dot_axes": -1, "output_shape": null, "output_shape_type": "raw", "output_mask": null, "output_mask_type": "raw", "arguments": {}}, "inbound_nodes": [[["dense_21", 0, 0], ["OnOff_D1", 0, 0]]]}], "input_layers": [["Main_input", 0, 0], ["OnOff_C1", 0, 0], ["OnOff_C2", 0, 0], ["OnOff_C3", 0, 0], ["OnOff_C4", 0, 0], ["OnOff_B1", 0, 0], ["OnOff_B3", 0, 0], ["OnOff_D1", 0, 0]], "output_layers": [["C1_out", 0, 0], ["C2_out", 0, 0], ["C3_out", 0, 0], ["C4_out", 0, 0], ["B1_out", 0, 0], ["B3_out", 0, 0], ["D1_out", 0, 0]]}, "keras_version": "1.2.1"}