{"config": {"output_layers": [["F1_out", 0, 0], ["B2_out", 0, 0], ["D3_out", 0, 0], ["E1_out", 0, 0], ["GJOA_QGAS", 0, 0]], "name": "model_1", "layers": [{"config": {"batch_input_shape": [null, 4], "sparse": false, "name": "F1", "dtype": "float32"}, "class_name": "InputLayer", "name": "F1", "inbound_nodes": []}, {"config": {"batch_input_shape": [null, 4], "sparse": false, "name": "B2", "dtype": "float32"}, "class_name": "InputLayer", "name": "B2", "inbound_nodes": []}, {"config": {"batch_input_shape": [null, 4], "sparse": false, "name": "D3", "dtype": "float32"}, "class_name": "InputLayer", "name": "D3", "inbound_nodes": []}, {"config": {"batch_input_shape": [null, 4], "sparse": false, "name": "E1", "dtype": "float32"}, "class_name": "InputLayer", "name": "E1", "inbound_nodes": []}, {"config": {"trainable": true, "use_bias": true, "activity_regularizer": null, "bias_regularizer": null, "activation": "relu", "bias_initializer": {"config": {}, "class_name": "Zeros"}, "kernel_initializer": {"config": {"distribution": "normal", "mode": "fan_avg", "seed": 3014, "scale": 1.0}, "class_name": "VarianceScaling"}, "bias_constraint": null, "name": "dense_1", "units": 60, "kernel_regularizer": {"config": {"l2": 9.999999747378752e-05, "l1": 0.0}, "class_name": "L1L2"}, "kernel_constraint": null}, "class_name": "Dense", "name": "dense_1", "inbound_nodes": [[["F1", 0, 0, {}]]]}, {"config": {"trainable": true, "use_bias": true, "activity_regularizer": null, "bias_regularizer": null, "activation": "relu", "bias_initializer": {"config": {}, "class_name": "Zeros"}, "kernel_initializer": {"config": {"distribution": "normal", "mode": "fan_avg", "seed": 3014, "scale": 1.0}, "class_name": "VarianceScaling"}, "bias_constraint": null, "name": "dense_4", "units": 60, "kernel_regularizer": {"config": {"l2": 9.999999747378752e-05, "l1": 0.0}, "class_name": "L1L2"}, "kernel_constraint": null}, "class_name": "Dense", "name": "dense_4", "inbound_nodes": [[["B2", 0, 0, {}]]]}, {"config": {"trainable": true, "use_bias": true, "activity_regularizer": null, "bias_regularizer": null, "activation": "relu", "bias_initializer": {"config": {}, "class_name": "Zeros"}, "kernel_initializer": {"config": {"distribution": "normal", "mode": "fan_avg", "seed": 3014, "scale": 1.0}, "class_name": "VarianceScaling"}, "bias_constraint": null, "name": "dense_7", "units": 60, "kernel_regularizer": {"config": {"l2": 9.999999747378752e-05, "l1": 0.0}, "class_name": "L1L2"}, "kernel_constraint": null}, "class_name": "Dense", "name": "dense_7", "inbound_nodes": [[["D3", 0, 0, {}]]]}, {"config": {"trainable": true, "use_bias": true, "activity_regularizer": null, "bias_regularizer": null, "activation": "relu", "bias_initializer": {"config": {}, "class_name": "Zeros"}, "kernel_initializer": {"config": {"distribution": "normal", "mode": "fan_avg", "seed": 3014, "scale": 1.0}, "class_name": "VarianceScaling"}, "bias_constraint": null, "name": "dense_10", "units": 60, "kernel_regularizer": {"config": {"l2": 9.999999747378752e-05, "l1": 0.0}, "class_name": "L1L2"}, "kernel_constraint": null}, "class_name": "Dense", "name": "dense_10", "inbound_nodes": [[["E1", 0, 0, {}]]]}, {"config": {"trainable": true, "use_bias": true, "activity_regularizer": null, "bias_regularizer": null, "activation": "relu", "bias_initializer": {"config": {}, "class_name": "Zeros"}, "kernel_initializer": {"config": {"distribution": "normal", "mode": "fan_avg", "seed": 3014, "scale": 1.0}, "class_name": "VarianceScaling"}, "bias_constraint": null, "name": "dense_2", "units": 60, "kernel_regularizer": {"config": {"l2": 9.999999747378752e-05, "l1": 0.0}, "class_name": "L1L2"}, "kernel_constraint": null}, "class_name": "Dense", "name": "dense_2", "inbound_nodes": [[["dense_1", 0, 0, {}]]]}, {"config": {"trainable": true, "use_bias": true, "activity_regularizer": null, "bias_regularizer": null, "activation": "relu", "bias_initializer": {"config": {}, "class_name": "Zeros"}, "kernel_initializer": {"config": {"distribution": "normal", "mode": "fan_avg", "seed": 3014, "scale": 1.0}, "class_name": "VarianceScaling"}, "bias_constraint": null, "name": "dense_5", "units": 60, "kernel_regularizer": {"config": {"l2": 9.999999747378752e-05, "l1": 0.0}, "class_name": "L1L2"}, "kernel_constraint": null}, "class_name": "Dense", "name": "dense_5", "inbound_nodes": [[["dense_4", 0, 0, {}]]]}, {"config": {"trainable": true, "use_bias": true, "activity_regularizer": null, "bias_regularizer": null, "activation": "relu", "bias_initializer": {"config": {}, "class_name": "Zeros"}, "kernel_initializer": {"config": {"distribution": "normal", "mode": "fan_avg", "seed": 3014, "scale": 1.0}, "class_name": "VarianceScaling"}, "bias_constraint": null, "name": "dense_8", "units": 60, "kernel_regularizer": {"config": {"l2": 9.999999747378752e-05, "l1": 0.0}, "class_name": "L1L2"}, "kernel_constraint": null}, "class_name": "Dense", "name": "dense_8", "inbound_nodes": [[["dense_7", 0, 0, {}]]]}, {"config": {"trainable": true, "use_bias": true, "activity_regularizer": null, "bias_regularizer": null, "activation": "relu", "bias_initializer": {"config": {}, "class_name": "Zeros"}, "kernel_initializer": {"config": {"distribution": "normal", "mode": "fan_avg", "seed": 3014, "scale": 1.0}, "class_name": "VarianceScaling"}, "bias_constraint": null, "name": "dense_11", "units": 60, "kernel_regularizer": {"config": {"l2": 9.999999747378752e-05, "l1": 0.0}, "class_name": "L1L2"}, "kernel_constraint": null}, "class_name": "Dense", "name": "dense_11", "inbound_nodes": [[["dense_10", 0, 0, {}]]]}, {"config": {"batch_input_shape": [null, 1], "sparse": false, "name": "OnOff_F1", "dtype": "float32"}, "class_name": "InputLayer", "name": "OnOff_F1", "inbound_nodes": []}, {"config": {"trainable": true, "use_bias": true, "activity_regularizer": null, "bias_regularizer": null, "activation": "relu", "bias_initializer": {"config": {}, "class_name": "Zeros"}, "kernel_initializer": {"config": {"distribution": "normal", "mode": "fan_avg", "seed": 3014, "scale": 1.0}, "class_name": "VarianceScaling"}, "bias_constraint": null, "name": "dense_3", "units": 1, "kernel_regularizer": {"config": {"l2": 9.999999747378752e-05, "l1": 0.0}, "class_name": "L1L2"}, "kernel_constraint": null}, "class_name": "Dense", "name": "dense_3", "inbound_nodes": [[["dense_2", 0, 0, {}]]]}, {"config": {"batch_input_shape": [null, 1], "sparse": false, "name": "OnOff_B2", "dtype": "float32"}, "class_name": "InputLayer", "name": "OnOff_B2", "inbound_nodes": []}, {"config": {"trainable": true, "use_bias": true, "activity_regularizer": null, "bias_regularizer": null, "activation": "relu", "bias_initializer": {"config": {}, "class_name": "Zeros"}, "kernel_initializer": {"config": {"distribution": "normal", "mode": "fan_avg", "seed": 3014, "scale": 1.0}, "class_name": "VarianceScaling"}, "bias_constraint": null, "name": "dense_6", "units": 1, "kernel_regularizer": {"config": {"l2": 9.999999747378752e-05, "l1": 0.0}, "class_name": "L1L2"}, "kernel_constraint": null}, "class_name": "Dense", "name": "dense_6", "inbound_nodes": [[["dense_5", 0, 0, {}]]]}, {"config": {"batch_input_shape": [null, 1], "sparse": false, "name": "OnOff_D3", "dtype": "float32"}, "class_name": "InputLayer", "name": "OnOff_D3", "inbound_nodes": []}, {"config": {"trainable": true, "use_bias": true, "activity_regularizer": null, "bias_regularizer": null, "activation": "relu", "bias_initializer": {"config": {}, "class_name": "Zeros"}, "kernel_initializer": {"config": {"distribution": "normal", "mode": "fan_avg", "seed": 3014, "scale": 1.0}, "class_name": "VarianceScaling"}, "bias_constraint": null, "name": "dense_9", "units": 1, "kernel_regularizer": {"config": {"l2": 9.999999747378752e-05, "l1": 0.0}, "class_name": "L1L2"}, "kernel_constraint": null}, "class_name": "Dense", "name": "dense_9", "inbound_nodes": [[["dense_8", 0, 0, {}]]]}, {"config": {"batch_input_shape": [null, 1], "sparse": false, "name": "OnOff_E1", "dtype": "float32"}, "class_name": "InputLayer", "name": "OnOff_E1", "inbound_nodes": []}, {"config": {"trainable": true, "use_bias": true, "activity_regularizer": null, "bias_regularizer": null, "activation": "relu", "bias_initializer": {"config": {}, "class_name": "Zeros"}, "kernel_initializer": {"config": {"distribution": "normal", "mode": "fan_avg", "seed": 3014, "scale": 1.0}, "class_name": "VarianceScaling"}, "bias_constraint": null, "name": "dense_12", "units": 1, "kernel_regularizer": {"config": {"l2": 9.999999747378752e-05, "l1": 0.0}, "class_name": "L1L2"}, "kernel_constraint": null}, "class_name": "Dense", "name": "dense_12", "inbound_nodes": [[["dense_11", 0, 0, {}]]]}, {"config": {"trainable": true, "name": "F1_out"}, "class_name": "Multiply", "name": "F1_out", "inbound_nodes": [[["OnOff_F1", 0, 0, {}], ["dense_3", 0, 0, {}]]]}, {"config": {"trainable": true, "name": "B2_out"}, "class_name": "Multiply", "name": "B2_out", "inbound_nodes": [[["OnOff_B2", 0, 0, {}], ["dense_6", 0, 0, {}]]]}, {"config": {"trainable": true, "name": "D3_out"}, "class_name": "Multiply", "name": "D3_out", "inbound_nodes": [[["OnOff_D3", 0, 0, {}], ["dense_9", 0, 0, {}]]]}, {"config": {"trainable": true, "name": "E1_out"}, "class_name": "Multiply", "name": "E1_out", "inbound_nodes": [[["OnOff_E1", 0, 0, {}], ["dense_12", 0, 0, {}]]]}, {"config": {"trainable": true, "name": "GJOA_QGAS"}, "class_name": "Add", "name": "GJOA_QGAS", "inbound_nodes": [[["F1_out", 0, 0, {}], ["B2_out", 0, 0, {}], ["D3_out", 0, 0, {}], ["E1_out", 0, 0, {}]]]}], "input_layers": [["F1", 0, 0], ["B2", 0, 0], ["D3", 0, 0], ["E1", 0, 0], ["OnOff_F1", 0, 0], ["OnOff_B2", 0, 0], ["OnOff_D3", 0, 0], ["OnOff_E1", 0, 0]]}, "backend": "theano", "class_name": "Model", "keras_version": "2.0.1"}