{"class_name": "Model", "config": {"output_layers": [["C1_out", 0, 0], ["C2_out", 0, 0], ["C3_out", 0, 0], ["C4_out", 0, 0], ["B1_out", 0, 0], ["B3_out", 0, 0], ["D1_out", 0, 0], ["GJOA_TOTAL", 0, 0]], "layers": [{"class_name": "InputLayer", "config": {"batch_input_shape": [null, 4], "name": "C1", "sparse": false, "dtype": "float32"}, "name": "C1", "inbound_nodes": []}, {"class_name": "InputLayer", "config": {"batch_input_shape": [null, 3], "name": "C2", "sparse": false, "dtype": "float32"}, "name": "C2", "inbound_nodes": []}, {"class_name": "InputLayer", "config": {"batch_input_shape": [null, 4], "name": "C3", "sparse": false, "dtype": "float32"}, "name": "C3", "inbound_nodes": []}, {"class_name": "InputLayer", "config": {"batch_input_shape": [null, 4], "name": "C4", "sparse": false, "dtype": "float32"}, "name": "C4", "inbound_nodes": []}, {"class_name": "InputLayer", "config": {"batch_input_shape": [null, 4], "name": "B1", "sparse": false, "dtype": "float32"}, "name": "B1", "inbound_nodes": []}, {"class_name": "InputLayer", "config": {"batch_input_shape": [null, 4], "name": "B3", "sparse": false, "dtype": "float32"}, "name": "B3", "inbound_nodes": []}, {"class_name": "InputLayer", "config": {"batch_input_shape": [null, 3], "name": "D1", "sparse": false, "dtype": "float32"}, "name": "D1", "inbound_nodes": []}, {"class_name": "Dense", "config": {"bias_initializer": {"class_name": "Zeros", "config": {}}, "kernel_initializer": {"class_name": "VarianceScaling", "config": {"scale": 1.0, "mode": "fan_avg", "distribution": "normal", "seed": 9035}}, "name": "dense_22", "activity_regularizer": null, "units": 20, "bias_regularizer": null, "trainable": true, "kernel_constraint": null, "activation": "relu", "bias_constraint": null, "use_bias": true, "kernel_regularizer": {"class_name": "L1L2", "config": {"l1": 0.0, "l2": 9.999999974752427e-07}}}, "name": "dense_22", "inbound_nodes": [[["C1", 0, 0, {}]]]}, {"class_name": "Dense", "config": {"bias_initializer": {"class_name": "Zeros", "config": {}}, "kernel_initializer": {"class_name": "VarianceScaling", "config": {"scale": 1.0, "mode": "fan_avg", "distribution": "normal", "seed": 9035}}, "name": "dense_25", "activity_regularizer": null, "units": 20, "bias_regularizer": null, "trainable": true, "kernel_constraint": null, "activation": "relu", "bias_constraint": null, "use_bias": true, "kernel_regularizer": {"class_name": "L1L2", "config": {"l1": 0.0, "l2": 9.999999974752427e-07}}}, "name": "dense_25", "inbound_nodes": [[["C2", 0, 0, {}]]]}, {"class_name": "Dense", "config": {"bias_initializer": {"class_name": "Zeros", "config": {}}, "kernel_initializer": {"class_name": "VarianceScaling", "config": {"scale": 1.0, "mode": "fan_avg", "distribution": "normal", "seed": 9035}}, "name": "dense_28", "activity_regularizer": null, "units": 20, "bias_regularizer": null, "trainable": true, "kernel_constraint": null, "activation": "relu", "bias_constraint": null, "use_bias": true, "kernel_regularizer": {"class_name": "L1L2", "config": {"l1": 0.0, "l2": 9.999999974752427e-07}}}, "name": "dense_28", "inbound_nodes": [[["C3", 0, 0, {}]]]}, {"class_name": "Dense", "config": {"bias_initializer": {"class_name": "Zeros", "config": {}}, "kernel_initializer": {"class_name": "VarianceScaling", "config": {"scale": 1.0, "mode": "fan_avg", "distribution": "normal", "seed": 9035}}, "name": "dense_31", "activity_regularizer": null, "units": 20, "bias_regularizer": null, "trainable": true, "kernel_constraint": null, "activation": "relu", "bias_constraint": null, "use_bias": true, "kernel_regularizer": {"class_name": "L1L2", "config": {"l1": 0.0, "l2": 9.999999974752427e-07}}}, "name": "dense_31", "inbound_nodes": [[["C4", 0, 0, {}]]]}, {"class_name": "Dense", "config": {"bias_initializer": {"class_name": "Zeros", "config": {}}, "kernel_initializer": {"class_name": "VarianceScaling", "config": {"scale": 1.0, "mode": "fan_avg", "distribution": "normal", "seed": 9035}}, "name": "dense_34", "activity_regularizer": null, "units": 20, "bias_regularizer": null, "trainable": true, "kernel_constraint": null, "activation": "relu", "bias_constraint": null, "use_bias": true, "kernel_regularizer": {"class_name": "L1L2", "config": {"l1": 0.0, "l2": 9.999999974752427e-07}}}, "name": "dense_34", "inbound_nodes": [[["B1", 0, 0, {}]]]}, {"class_name": "Dense", "config": {"bias_initializer": {"class_name": "Zeros", "config": {}}, "kernel_initializer": {"class_name": "VarianceScaling", "config": {"scale": 1.0, "mode": "fan_avg", "distribution": "normal", "seed": 9035}}, "name": "dense_37", "activity_regularizer": null, "units": 20, "bias_regularizer": null, "trainable": true, "kernel_constraint": null, "activation": "relu", "bias_constraint": null, "use_bias": true, "kernel_regularizer": {"class_name": "L1L2", "config": {"l1": 0.0, "l2": 9.999999974752427e-07}}}, "name": "dense_37", "inbound_nodes": [[["B3", 0, 0, {}]]]}, {"class_name": "Dense", "config": {"bias_initializer": {"class_name": "Zeros", "config": {}}, "kernel_initializer": {"class_name": "VarianceScaling", "config": {"scale": 1.0, "mode": "fan_avg", "distribution": "normal", "seed": 9035}}, "name": "dense_40", "activity_regularizer": null, "units": 20, "bias_regularizer": null, "trainable": true, "kernel_constraint": null, "activation": "relu", "bias_constraint": null, "use_bias": true, "kernel_regularizer": {"class_name": "L1L2", "config": {"l1": 0.0, "l2": 9.999999974752427e-07}}}, "name": "dense_40", "inbound_nodes": [[["D1", 0, 0, {}]]]}, {"class_name": "Dropout", "config": {"trainable": true, "name": "dropout_8", "rate": 0.1}, "name": "dropout_8", "inbound_nodes": [[["dense_22", 0, 0, {}]]]}, {"class_name": "Dropout", "config": {"trainable": true, "name": "dropout_9", "rate": 0.1}, "name": "dropout_9", "inbound_nodes": [[["dense_25", 0, 0, {}]]]}, {"class_name": "Dropout", "config": {"trainable": true, "name": "dropout_10", "rate": 0.1}, "name": "dropout_10", "inbound_nodes": [[["dense_28", 0, 0, {}]]]}, {"class_name": "Dropout", "config": {"trainable": true, "name": "dropout_11", "rate": 0.1}, "name": "dropout_11", "inbound_nodes": [[["dense_31", 0, 0, {}]]]}, {"class_name": "Dropout", "config": {"trainable": true, "name": "dropout_12", "rate": 0.1}, "name": "dropout_12", "inbound_nodes": [[["dense_34", 0, 0, {}]]]}, {"class_name": "Dropout", "config": {"trainable": true, "name": "dropout_13", "rate": 0.1}, "name": "dropout_13", "inbound_nodes": [[["dense_37", 0, 0, {}]]]}, {"class_name": "Dropout", "config": {"trainable": true, "name": "dropout_14", "rate": 0.1}, "name": "dropout_14", "inbound_nodes": [[["dense_40", 0, 0, {}]]]}, {"class_name": "Dense", "config": {"bias_initializer": {"class_name": "Zeros", "config": {}}, "kernel_initializer": {"class_name": "VarianceScaling", "config": {"scale": 1.0, "mode": "fan_avg", "distribution": "normal", "seed": 9035}}, "name": "dense_23", "activity_regularizer": null, "units": 20, "bias_regularizer": null, "trainable": true, "kernel_constraint": null, "activation": "relu", "bias_constraint": null, "use_bias": true, "kernel_regularizer": {"class_name": "L1L2", "config": {"l1": 0.0, "l2": 9.999999974752427e-07}}}, "name": "dense_23", "inbound_nodes": [[["dropout_8", 0, 0, {}]]]}, {"class_name": "Dense", "config": {"bias_initializer": {"class_name": "Zeros", "config": {}}, "kernel_initializer": {"class_name": "VarianceScaling", "config": {"scale": 1.0, "mode": "fan_avg", "distribution": "normal", "seed": 9035}}, "name": "dense_26", "activity_regularizer": null, "units": 20, "bias_regularizer": null, "trainable": true, "kernel_constraint": null, "activation": "relu", "bias_constraint": null, "use_bias": true, "kernel_regularizer": {"class_name": "L1L2", "config": {"l1": 0.0, "l2": 9.999999974752427e-07}}}, "name": "dense_26", "inbound_nodes": [[["dropout_9", 0, 0, {}]]]}, {"class_name": "Dense", "config": {"bias_initializer": {"class_name": "Zeros", "config": {}}, "kernel_initializer": {"class_name": "VarianceScaling", "config": {"scale": 1.0, "mode": "fan_avg", "distribution": "normal", "seed": 9035}}, "name": "dense_29", "activity_regularizer": null, "units": 20, "bias_regularizer": null, "trainable": true, "kernel_constraint": null, "activation": "relu", "bias_constraint": null, "use_bias": true, "kernel_regularizer": {"class_name": "L1L2", "config": {"l1": 0.0, "l2": 9.999999974752427e-07}}}, "name": "dense_29", "inbound_nodes": [[["dropout_10", 0, 0, {}]]]}, {"class_name": "Dense", "config": {"bias_initializer": {"class_name": "Zeros", "config": {}}, "kernel_initializer": {"class_name": "VarianceScaling", "config": {"scale": 1.0, "mode": "fan_avg", "distribution": "normal", "seed": 9035}}, "name": "dense_32", "activity_regularizer": null, "units": 20, "bias_regularizer": null, "trainable": true, "kernel_constraint": null, "activation": "relu", "bias_constraint": null, "use_bias": true, "kernel_regularizer": {"class_name": "L1L2", "config": {"l1": 0.0, "l2": 9.999999974752427e-07}}}, "name": "dense_32", "inbound_nodes": [[["dropout_11", 0, 0, {}]]]}, {"class_name": "Dense", "config": {"bias_initializer": {"class_name": "Zeros", "config": {}}, "kernel_initializer": {"class_name": "VarianceScaling", "config": {"scale": 1.0, "mode": "fan_avg", "distribution": "normal", "seed": 9035}}, "name": "dense_35", "activity_regularizer": null, "units": 20, "bias_regularizer": null, "trainable": true, "kernel_constraint": null, "activation": "relu", "bias_constraint": null, "use_bias": true, "kernel_regularizer": {"class_name": "L1L2", "config": {"l1": 0.0, "l2": 9.999999974752427e-07}}}, "name": "dense_35", "inbound_nodes": [[["dropout_12", 0, 0, {}]]]}, {"class_name": "Dense", "config": {"bias_initializer": {"class_name": "Zeros", "config": {}}, "kernel_initializer": {"class_name": "VarianceScaling", "config": {"scale": 1.0, "mode": "fan_avg", "distribution": "normal", "seed": 9035}}, "name": "dense_38", "activity_regularizer": null, "units": 20, "bias_regularizer": null, "trainable": true, "kernel_constraint": null, "activation": "relu", "bias_constraint": null, "use_bias": true, "kernel_regularizer": {"class_name": "L1L2", "config": {"l1": 0.0, "l2": 9.999999974752427e-07}}}, "name": "dense_38", "inbound_nodes": [[["dropout_13", 0, 0, {}]]]}, {"class_name": "Dense", "config": {"bias_initializer": {"class_name": "Zeros", "config": {}}, "kernel_initializer": {"class_name": "VarianceScaling", "config": {"scale": 1.0, "mode": "fan_avg", "distribution": "normal", "seed": 9035}}, "name": "dense_41", "activity_regularizer": null, "units": 20, "bias_regularizer": null, "trainable": true, "kernel_constraint": null, "activation": "relu", "bias_constraint": null, "use_bias": true, "kernel_regularizer": {"class_name": "L1L2", "config": {"l1": 0.0, "l2": 9.999999974752427e-07}}}, "name": "dense_41", "inbound_nodes": [[["dropout_14", 0, 0, {}]]]}, {"class_name": "InputLayer", "config": {"batch_input_shape": [null, 1], "name": "OnOff_C1", "sparse": false, "dtype": "float32"}, "name": "OnOff_C1", "inbound_nodes": []}, {"class_name": "Dense", "config": {"bias_initializer": {"class_name": "Zeros", "config": {}}, "kernel_initializer": {"class_name": "VarianceScaling", "config": {"scale": 1.0, "mode": "fan_avg", "distribution": "normal", "seed": 9035}}, "name": "dense_24", "activity_regularizer": null, "units": 1, "bias_regularizer": null, "trainable": true, "kernel_constraint": null, "activation": "relu", "bias_constraint": null, "use_bias": true, "kernel_regularizer": {"class_name": "L1L2", "config": {"l1": 0.0, "l2": 9.999999974752427e-07}}}, "name": "dense_24", "inbound_nodes": [[["dense_23", 0, 0, {}]]]}, {"class_name": "InputLayer", "config": {"batch_input_shape": [null, 1], "name": "OnOff_C2", "sparse": false, "dtype": "float32"}, "name": "OnOff_C2", "inbound_nodes": []}, {"class_name": "Dense", "config": {"bias_initializer": {"class_name": "Zeros", "config": {}}, "kernel_initializer": {"class_name": "VarianceScaling", "config": {"scale": 1.0, "mode": "fan_avg", "distribution": "normal", "seed": 9035}}, "name": "dense_27", "activity_regularizer": null, "units": 1, "bias_regularizer": null, "trainable": true, "kernel_constraint": null, "activation": "relu", "bias_constraint": null, "use_bias": true, "kernel_regularizer": {"class_name": "L1L2", "config": {"l1": 0.0, "l2": 9.999999974752427e-07}}}, "name": "dense_27", "inbound_nodes": [[["dense_26", 0, 0, {}]]]}, {"class_name": "InputLayer", "config": {"batch_input_shape": [null, 1], "name": "OnOff_C3", "sparse": false, "dtype": "float32"}, "name": "OnOff_C3", "inbound_nodes": []}, {"class_name": "Dense", "config": {"bias_initializer": {"class_name": "Zeros", "config": {}}, "kernel_initializer": {"class_name": "VarianceScaling", "config": {"scale": 1.0, "mode": "fan_avg", "distribution": "normal", "seed": 9035}}, "name": "dense_30", "activity_regularizer": null, "units": 1, "bias_regularizer": null, "trainable": true, "kernel_constraint": null, "activation": "relu", "bias_constraint": null, "use_bias": true, "kernel_regularizer": {"class_name": "L1L2", "config": {"l1": 0.0, "l2": 9.999999974752427e-07}}}, "name": "dense_30", "inbound_nodes": [[["dense_29", 0, 0, {}]]]}, {"class_name": "InputLayer", "config": {"batch_input_shape": [null, 1], "name": "OnOff_C4", "sparse": false, "dtype": "float32"}, "name": "OnOff_C4", "inbound_nodes": []}, {"class_name": "Dense", "config": {"bias_initializer": {"class_name": "Zeros", "config": {}}, "kernel_initializer": {"class_name": "VarianceScaling", "config": {"scale": 1.0, "mode": "fan_avg", "distribution": "normal", "seed": 9035}}, "name": "dense_33", "activity_regularizer": null, "units": 1, "bias_regularizer": null, "trainable": true, "kernel_constraint": null, "activation": "relu", "bias_constraint": null, "use_bias": true, "kernel_regularizer": {"class_name": "L1L2", "config": {"l1": 0.0, "l2": 9.999999974752427e-07}}}, "name": "dense_33", "inbound_nodes": [[["dense_32", 0, 0, {}]]]}, {"class_name": "InputLayer", "config": {"batch_input_shape": [null, 1], "name": "OnOff_B1", "sparse": false, "dtype": "float32"}, "name": "OnOff_B1", "inbound_nodes": []}, {"class_name": "Dense", "config": {"bias_initializer": {"class_name": "Zeros", "config": {}}, "kernel_initializer": {"class_name": "VarianceScaling", "config": {"scale": 1.0, "mode": "fan_avg", "distribution": "normal", "seed": 9035}}, "name": "dense_36", "activity_regularizer": null, "units": 1, "bias_regularizer": null, "trainable": true, "kernel_constraint": null, "activation": "relu", "bias_constraint": null, "use_bias": true, "kernel_regularizer": {"class_name": "L1L2", "config": {"l1": 0.0, "l2": 9.999999974752427e-07}}}, "name": "dense_36", "inbound_nodes": [[["dense_35", 0, 0, {}]]]}, {"class_name": "InputLayer", "config": {"batch_input_shape": [null, 1], "name": "OnOff_B3", "sparse": false, "dtype": "float32"}, "name": "OnOff_B3", "inbound_nodes": []}, {"class_name": "Dense", "config": {"bias_initializer": {"class_name": "Zeros", "config": {}}, "kernel_initializer": {"class_name": "VarianceScaling", "config": {"scale": 1.0, "mode": "fan_avg", "distribution": "normal", "seed": 9035}}, "name": "dense_39", "activity_regularizer": null, "units": 1, "bias_regularizer": null, "trainable": true, "kernel_constraint": null, "activation": "relu", "bias_constraint": null, "use_bias": true, "kernel_regularizer": {"class_name": "L1L2", "config": {"l1": 0.0, "l2": 9.999999974752427e-07}}}, "name": "dense_39", "inbound_nodes": [[["dense_38", 0, 0, {}]]]}, {"class_name": "InputLayer", "config": {"batch_input_shape": [null, 1], "name": "OnOff_D1", "sparse": false, "dtype": "float32"}, "name": "OnOff_D1", "inbound_nodes": []}, {"class_name": "Dense", "config": {"bias_initializer": {"class_name": "Zeros", "config": {}}, "kernel_initializer": {"class_name": "VarianceScaling", "config": {"scale": 1.0, "mode": "fan_avg", "distribution": "normal", "seed": 9035}}, "name": "dense_42", "activity_regularizer": null, "units": 1, "bias_regularizer": null, "trainable": true, "kernel_constraint": null, "activation": "relu", "bias_constraint": null, "use_bias": true, "kernel_regularizer": {"class_name": "L1L2", "config": {"l1": 0.0, "l2": 9.999999974752427e-07}}}, "name": "dense_42", "inbound_nodes": [[["dense_41", 0, 0, {}]]]}, {"class_name": "Multiply", "config": {"trainable": true, "name": "C1_out"}, "name": "C1_out", "inbound_nodes": [[["OnOff_C1", 0, 0, {}], ["dense_24", 0, 0, {}]]]}, {"class_name": "Multiply", "config": {"trainable": true, "name": "C2_out"}, "name": "C2_out", "inbound_nodes": [[["OnOff_C2", 0, 0, {}], ["dense_27", 0, 0, {}]]]}, {"class_name": "Multiply", "config": {"trainable": true, "name": "C3_out"}, "name": "C3_out", "inbound_nodes": [[["OnOff_C3", 0, 0, {}], ["dense_30", 0, 0, {}]]]}, {"class_name": "Multiply", "config": {"trainable": true, "name": "C4_out"}, "name": "C4_out", "inbound_nodes": [[["OnOff_C4", 0, 0, {}], ["dense_33", 0, 0, {}]]]}, {"class_name": "Multiply", "config": {"trainable": true, "name": "B1_out"}, "name": "B1_out", "inbound_nodes": [[["OnOff_B1", 0, 0, {}], ["dense_36", 0, 0, {}]]]}, {"class_name": "Multiply", "config": {"trainable": true, "name": "B3_out"}, "name": "B3_out", "inbound_nodes": [[["OnOff_B3", 0, 0, {}], ["dense_39", 0, 0, {}]]]}, {"class_name": "Multiply", "config": {"trainable": true, "name": "D1_out"}, "name": "D1_out", "inbound_nodes": [[["OnOff_D1", 0, 0, {}], ["dense_42", 0, 0, {}]]]}, {"class_name": "Add", "config": {"trainable": true, "name": "GJOA_TOTAL"}, "name": "GJOA_TOTAL", "inbound_nodes": [[["C1_out", 0, 0, {}], ["C2_out", 0, 0, {}], ["C3_out", 0, 0, {}], ["C4_out", 0, 0, {}], ["B1_out", 0, 0, {}], ["B3_out", 0, 0, {}], ["D1_out", 0, 0, {}]]]}], "name": "model_2", "input_layers": [["C1", 0, 0], ["C2", 0, 0], ["C3", 0, 0], ["C4", 0, 0], ["B1", 0, 0], ["B3", 0, 0], ["D1", 0, 0], ["OnOff_C1", 0, 0], ["OnOff_C2", 0, 0], ["OnOff_C3", 0, 0], ["OnOff_C4", 0, 0], ["OnOff_B1", 0, 0], ["OnOff_B3", 0, 0], ["OnOff_D1", 0, 0]]}, "backend": "theano", "keras_version": "2.0.1"}