{"backend": "theano", "class_name": "Model", "keras_version": "2.0.1", "config": {"input_layers": [["F1", 0, 0], ["B2", 0, 0], ["D3", 0, 0], ["E1", 0, 0], ["OnOff_F1", 0, 0], ["OnOff_B2", 0, 0], ["OnOff_D3", 0, 0], ["OnOff_E1", 0, 0]], "layers": [{"inbound_nodes": [], "class_name": "InputLayer", "config": {"batch_input_shape": [null, 4], "dtype": "float32", "sparse": false, "name": "F1"}, "name": "F1"}, {"inbound_nodes": [], "class_name": "InputLayer", "config": {"batch_input_shape": [null, 4], "dtype": "float32", "sparse": false, "name": "B2"}, "name": "B2"}, {"inbound_nodes": [], "class_name": "InputLayer", "config": {"batch_input_shape": [null, 4], "dtype": "float32", "sparse": false, "name": "D3"}, "name": "D3"}, {"inbound_nodes": [], "class_name": "InputLayer", "config": {"batch_input_shape": [null, 4], "dtype": "float32", "sparse": false, "name": "E1"}, "name": "E1"}, {"inbound_nodes": [[["F1", 0, 0, {}]]], "class_name": "Dense", "config": {"bias_constraint": null, "name": "dense_1", "kernel_regularizer": {"class_name": "L1L2", "config": {"l1": 0.0, "l2": 9.999999974752427e-07}}, "use_bias": true, "kernel_constraint": null, "bias_regularizer": null, "trainable": true, "units": 20, "activity_regularizer": null, "kernel_initializer": {"class_name": "VarianceScaling", "config": {"scale": 1.0, "seed": 9035, "distribution": "normal", "mode": "fan_avg"}}, "activation": "relu", "bias_initializer": {"class_name": "Zeros", "config": {}}}, "name": "dense_1"}, {"inbound_nodes": [[["B2", 0, 0, {}]]], "class_name": "Dense", "config": {"bias_constraint": null, "name": "dense_4", "kernel_regularizer": {"class_name": "L1L2", "config": {"l1": 0.0, "l2": 9.999999974752427e-07}}, "use_bias": true, "kernel_constraint": null, "bias_regularizer": null, "trainable": true, "units": 20, "activity_regularizer": null, "kernel_initializer": {"class_name": "VarianceScaling", "config": {"scale": 1.0, "seed": 9035, "distribution": "normal", "mode": "fan_avg"}}, "activation": "relu", "bias_initializer": {"class_name": "Zeros", "config": {}}}, "name": "dense_4"}, {"inbound_nodes": [[["D3", 0, 0, {}]]], "class_name": "Dense", "config": {"bias_constraint": null, "name": "dense_7", "kernel_regularizer": {"class_name": "L1L2", "config": {"l1": 0.0, "l2": 9.999999974752427e-07}}, "use_bias": true, "kernel_constraint": null, "bias_regularizer": null, "trainable": true, "units": 20, "activity_regularizer": null, "kernel_initializer": {"class_name": "VarianceScaling", "config": {"scale": 1.0, "seed": 9035, "distribution": "normal", "mode": "fan_avg"}}, "activation": "relu", "bias_initializer": {"class_name": "Zeros", "config": {}}}, "name": "dense_7"}, {"inbound_nodes": [[["E1", 0, 0, {}]]], "class_name": "Dense", "config": {"bias_constraint": null, "name": "dense_10", "kernel_regularizer": {"class_name": "L1L2", "config": {"l1": 0.0, "l2": 9.999999974752427e-07}}, "use_bias": true, "kernel_constraint": null, "bias_regularizer": null, "trainable": true, "units": 20, "activity_regularizer": null, "kernel_initializer": {"class_name": "VarianceScaling", "config": {"scale": 1.0, "seed": 9035, "distribution": "normal", "mode": "fan_avg"}}, "activation": "relu", "bias_initializer": {"class_name": "Zeros", "config": {}}}, "name": "dense_10"}, {"inbound_nodes": [[["dense_1", 0, 0, {}]]], "class_name": "Dropout", "config": {"name": "dropout_1", "trainable": true, "rate": 0.1}, "name": "dropout_1"}, {"inbound_nodes": [[["dense_4", 0, 0, {}]]], "class_name": "Dropout", "config": {"name": "dropout_2", "trainable": true, "rate": 0.1}, "name": "dropout_2"}, {"inbound_nodes": [[["dense_7", 0, 0, {}]]], "class_name": "Dropout", "config": {"name": "dropout_3", "trainable": true, "rate": 0.1}, "name": "dropout_3"}, {"inbound_nodes": [[["dense_10", 0, 0, {}]]], "class_name": "Dropout", "config": {"name": "dropout_4", "trainable": true, "rate": 0.1}, "name": "dropout_4"}, {"inbound_nodes": [[["dropout_1", 0, 0, {}]]], "class_name": "Dense", "config": {"bias_constraint": null, "name": "dense_2", "kernel_regularizer": {"class_name": "L1L2", "config": {"l1": 0.0, "l2": 9.999999974752427e-07}}, "use_bias": true, "kernel_constraint": null, "bias_regularizer": null, "trainable": true, "units": 20, "activity_regularizer": null, "kernel_initializer": {"class_name": "VarianceScaling", "config": {"scale": 1.0, "seed": 9035, "distribution": "normal", "mode": "fan_avg"}}, "activation": "relu", "bias_initializer": {"class_name": "Zeros", "config": {}}}, "name": "dense_2"}, {"inbound_nodes": [[["dropout_2", 0, 0, {}]]], "class_name": "Dense", "config": {"bias_constraint": null, "name": "dense_5", "kernel_regularizer": {"class_name": "L1L2", "config": {"l1": 0.0, "l2": 9.999999974752427e-07}}, "use_bias": true, "kernel_constraint": null, "bias_regularizer": null, "trainable": true, "units": 20, "activity_regularizer": null, "kernel_initializer": {"class_name": "VarianceScaling", "config": {"scale": 1.0, "seed": 9035, "distribution": "normal", "mode": "fan_avg"}}, "activation": "relu", "bias_initializer": {"class_name": "Zeros", "config": {}}}, "name": "dense_5"}, {"inbound_nodes": [[["dropout_3", 0, 0, {}]]], "class_name": "Dense", "config": {"bias_constraint": null, "name": "dense_8", "kernel_regularizer": {"class_name": "L1L2", "config": {"l1": 0.0, "l2": 9.999999974752427e-07}}, "use_bias": true, "kernel_constraint": null, "bias_regularizer": null, "trainable": true, "units": 20, "activity_regularizer": null, "kernel_initializer": {"class_name": "VarianceScaling", "config": {"scale": 1.0, "seed": 9035, "distribution": "normal", "mode": "fan_avg"}}, "activation": "relu", "bias_initializer": {"class_name": "Zeros", "config": {}}}, "name": "dense_8"}, {"inbound_nodes": [[["dropout_4", 0, 0, {}]]], "class_name": "Dense", "config": {"bias_constraint": null, "name": "dense_11", "kernel_regularizer": {"class_name": "L1L2", "config": {"l1": 0.0, "l2": 9.999999974752427e-07}}, "use_bias": true, "kernel_constraint": null, "bias_regularizer": null, "trainable": true, "units": 20, "activity_regularizer": null, "kernel_initializer": {"class_name": "VarianceScaling", "config": {"scale": 1.0, "seed": 9035, "distribution": "normal", "mode": "fan_avg"}}, "activation": "relu", "bias_initializer": {"class_name": "Zeros", "config": {}}}, "name": "dense_11"}, {"inbound_nodes": [], "class_name": "InputLayer", "config": {"batch_input_shape": [null, 1], "dtype": "float32", "sparse": false, "name": "OnOff_F1"}, "name": "OnOff_F1"}, {"inbound_nodes": [[["dense_2", 0, 0, {}]]], "class_name": "Dense", "config": {"bias_constraint": null, "name": "dense_3", "kernel_regularizer": {"class_name": "L1L2", "config": {"l1": 0.0, "l2": 9.999999974752427e-07}}, "use_bias": true, "kernel_constraint": null, "bias_regularizer": null, "trainable": true, "units": 1, "activity_regularizer": null, "kernel_initializer": {"class_name": "VarianceScaling", "config": {"scale": 1.0, "seed": 9035, "distribution": "normal", "mode": "fan_avg"}}, "activation": "relu", "bias_initializer": {"class_name": "Zeros", "config": {}}}, "name": "dense_3"}, {"inbound_nodes": [], "class_name": "InputLayer", "config": {"batch_input_shape": [null, 1], "dtype": "float32", "sparse": false, "name": "OnOff_B2"}, "name": "OnOff_B2"}, {"inbound_nodes": [[["dense_5", 0, 0, {}]]], "class_name": "Dense", "config": {"bias_constraint": null, "name": "dense_6", "kernel_regularizer": {"class_name": "L1L2", "config": {"l1": 0.0, "l2": 9.999999974752427e-07}}, "use_bias": true, "kernel_constraint": null, "bias_regularizer": null, "trainable": true, "units": 1, "activity_regularizer": null, "kernel_initializer": {"class_name": "VarianceScaling", "config": {"scale": 1.0, "seed": 9035, "distribution": "normal", "mode": "fan_avg"}}, "activation": "relu", "bias_initializer": {"class_name": "Zeros", "config": {}}}, "name": "dense_6"}, {"inbound_nodes": [], "class_name": "InputLayer", "config": {"batch_input_shape": [null, 1], "dtype": "float32", "sparse": false, "name": "OnOff_D3"}, "name": "OnOff_D3"}, {"inbound_nodes": [[["dense_8", 0, 0, {}]]], "class_name": "Dense", "config": {"bias_constraint": null, "name": "dense_9", "kernel_regularizer": {"class_name": "L1L2", "config": {"l1": 0.0, "l2": 9.999999974752427e-07}}, "use_bias": true, "kernel_constraint": null, "bias_regularizer": null, "trainable": true, "units": 1, "activity_regularizer": null, "kernel_initializer": {"class_name": "VarianceScaling", "config": {"scale": 1.0, "seed": 9035, "distribution": "normal", "mode": "fan_avg"}}, "activation": "relu", "bias_initializer": {"class_name": "Zeros", "config": {}}}, "name": "dense_9"}, {"inbound_nodes": [], "class_name": "InputLayer", "config": {"batch_input_shape": [null, 1], "dtype": "float32", "sparse": false, "name": "OnOff_E1"}, "name": "OnOff_E1"}, {"inbound_nodes": [[["dense_11", 0, 0, {}]]], "class_name": "Dense", "config": {"bias_constraint": null, "name": "dense_12", "kernel_regularizer": {"class_name": "L1L2", "config": {"l1": 0.0, "l2": 9.999999974752427e-07}}, "use_bias": true, "kernel_constraint": null, "bias_regularizer": null, "trainable": true, "units": 1, "activity_regularizer": null, "kernel_initializer": {"class_name": "VarianceScaling", "config": {"scale": 1.0, "seed": 9035, "distribution": "normal", "mode": "fan_avg"}}, "activation": "relu", "bias_initializer": {"class_name": "Zeros", "config": {}}}, "name": "dense_12"}, {"inbound_nodes": [[["OnOff_F1", 0, 0, {}], ["dense_3", 0, 0, {}]]], "class_name": "Multiply", "config": {"trainable": true, "name": "F1_out"}, "name": "F1_out"}, {"inbound_nodes": [[["OnOff_B2", 0, 0, {}], ["dense_6", 0, 0, {}]]], "class_name": "Multiply", "config": {"trainable": true, "name": "B2_out"}, "name": "B2_out"}, {"inbound_nodes": [[["OnOff_D3", 0, 0, {}], ["dense_9", 0, 0, {}]]], "class_name": "Multiply", "config": {"trainable": true, "name": "D3_out"}, "name": "D3_out"}, {"inbound_nodes": [[["OnOff_E1", 0, 0, {}], ["dense_12", 0, 0, {}]]], "class_name": "Multiply", "config": {"trainable": true, "name": "E1_out"}, "name": "E1_out"}, {"inbound_nodes": [[["F1_out", 0, 0, {}], ["B2_out", 0, 0, {}], ["D3_out", 0, 0, {}], ["E1_out", 0, 0, {}]]], "class_name": "Add", "config": {"trainable": true, "name": "GJOA_QGAS"}, "name": "GJOA_QGAS"}], "output_layers": [["F1_out", 0, 0], ["B2_out", 0, 0], ["D3_out", 0, 0], ["E1_out", 0, 0], ["GJOA_QGAS", 0, 0]], "name": "model_1"}}