{"config": {"layers": [{"name": "C1", "inbound_nodes": [], "config": {"batch_input_shape": [null, 4], "dtype": "float32", "name": "C1", "sparse": false}, "class_name": "InputLayer"}, {"name": "C2", "inbound_nodes": [], "config": {"batch_input_shape": [null, 3], "dtype": "float32", "name": "C2", "sparse": false}, "class_name": "InputLayer"}, {"name": "C3", "inbound_nodes": [], "config": {"batch_input_shape": [null, 4], "dtype": "float32", "name": "C3", "sparse": false}, "class_name": "InputLayer"}, {"name": "C4", "inbound_nodes": [], "config": {"batch_input_shape": [null, 4], "dtype": "float32", "name": "C4", "sparse": false}, "class_name": "InputLayer"}, {"name": "B1", "inbound_nodes": [], "config": {"batch_input_shape": [null, 4], "dtype": "float32", "name": "B1", "sparse": false}, "class_name": "InputLayer"}, {"name": "B3", "inbound_nodes": [], "config": {"batch_input_shape": [null, 4], "dtype": "float32", "name": "B3", "sparse": false}, "class_name": "InputLayer"}, {"name": "D1", "inbound_nodes": [], "config": {"batch_input_shape": [null, 3], "dtype": "float32", "name": "D1", "sparse": false}, "class_name": "InputLayer"}, {"name": "C1_0", "inbound_nodes": [[["C1", 0, 0, {}]]], "config": {"activity_regularizer": null, "bias_regularizer": null, "kernel_constraint": null, "kernel_regularizer": {"config": {"l2": 0.0010000000474974513, "l1": 0.0}, "class_name": "L1L2"}, "bias_constraint": null, "name": "C1_0", "activation": "relu", "kernel_initializer": {"config": {"mode": "fan_avg", "scale": 1.0, "seed": 3014, "distribution": "normal"}, "class_name": "VarianceScaling"}, "use_bias": true, "trainable": true, "bias_initializer": {"config": {}, "class_name": "Zeros"}, "units": 100}, "class_name": "Dense"}, {"name": "C2_0", "inbound_nodes": [[["C2", 0, 0, {}]]], "config": {"activity_regularizer": null, "bias_regularizer": null, "kernel_constraint": null, "kernel_regularizer": {"config": {"l2": 0.0010000000474974513, "l1": 0.0}, "class_name": "L1L2"}, "bias_constraint": null, "name": "C2_0", "activation": "relu", "kernel_initializer": {"config": {"mode": "fan_avg", "scale": 1.0, "seed": 3014, "distribution": "normal"}, "class_name": "VarianceScaling"}, "use_bias": true, "trainable": true, "bias_initializer": {"config": {}, "class_name": "Zeros"}, "units": 100}, "class_name": "Dense"}, {"name": "C3_0", "inbound_nodes": [[["C3", 0, 0, {}]]], "config": {"activity_regularizer": null, "bias_regularizer": null, "kernel_constraint": null, "kernel_regularizer": {"config": {"l2": 0.0010000000474974513, "l1": 0.0}, "class_name": "L1L2"}, "bias_constraint": null, "name": "C3_0", "activation": "relu", "kernel_initializer": {"config": {"mode": "fan_avg", "scale": 1.0, "seed": 3014, "distribution": "normal"}, "class_name": "VarianceScaling"}, "use_bias": true, "trainable": true, "bias_initializer": {"config": {}, "class_name": "Zeros"}, "units": 100}, "class_name": "Dense"}, {"name": "C4_0", "inbound_nodes": [[["C4", 0, 0, {}]]], "config": {"activity_regularizer": null, "bias_regularizer": null, "kernel_constraint": null, "kernel_regularizer": {"config": {"l2": 0.0010000000474974513, "l1": 0.0}, "class_name": "L1L2"}, "bias_constraint": null, "name": "C4_0", "activation": "relu", "kernel_initializer": {"config": {"mode": "fan_avg", "scale": 1.0, "seed": 3014, "distribution": "normal"}, "class_name": "VarianceScaling"}, "use_bias": true, "trainable": true, "bias_initializer": {"config": {}, "class_name": "Zeros"}, "units": 100}, "class_name": "Dense"}, {"name": "B1_0", "inbound_nodes": [[["B1", 0, 0, {}]]], "config": {"activity_regularizer": null, "bias_regularizer": null, "kernel_constraint": null, "kernel_regularizer": {"config": {"l2": 0.0010000000474974513, "l1": 0.0}, "class_name": "L1L2"}, "bias_constraint": null, "name": "B1_0", "activation": "relu", "kernel_initializer": {"config": {"mode": "fan_avg", "scale": 1.0, "seed": 3014, "distribution": "normal"}, "class_name": "VarianceScaling"}, "use_bias": true, "trainable": true, "bias_initializer": {"config": {}, "class_name": "Zeros"}, "units": 100}, "class_name": "Dense"}, {"name": "B3_0", "inbound_nodes": [[["B3", 0, 0, {}]]], "config": {"activity_regularizer": null, "bias_regularizer": null, "kernel_constraint": null, "kernel_regularizer": {"config": {"l2": 0.0010000000474974513, "l1": 0.0}, "class_name": "L1L2"}, "bias_constraint": null, "name": "B3_0", "activation": "relu", "kernel_initializer": {"config": {"mode": "fan_avg", "scale": 1.0, "seed": 3014, "distribution": "normal"}, "class_name": "VarianceScaling"}, "use_bias": true, "trainable": true, "bias_initializer": {"config": {}, "class_name": "Zeros"}, "units": 100}, "class_name": "Dense"}, {"name": "D1_0", "inbound_nodes": [[["D1", 0, 0, {}]]], "config": {"activity_regularizer": null, "bias_regularizer": null, "kernel_constraint": null, "kernel_regularizer": {"config": {"l2": 0.0010000000474974513, "l1": 0.0}, "class_name": "L1L2"}, "bias_constraint": null, "name": "D1_0", "activation": "relu", "kernel_initializer": {"config": {"mode": "fan_avg", "scale": 1.0, "seed": 3014, "distribution": "normal"}, "class_name": "VarianceScaling"}, "use_bias": true, "trainable": true, "bias_initializer": {"config": {}, "class_name": "Zeros"}, "units": 100}, "class_name": "Dense"}, {"name": "C1_dp_1", "inbound_nodes": [[["C1_0", 0, 0, {}]]], "config": {"rate": 0.1, "name": "C1_dp_1", "trainable": true}, "class_name": "Dropout"}, {"name": "C2_dp_1", "inbound_nodes": [[["C2_0", 0, 0, {}]]], "config": {"rate": 0.1, "name": "C2_dp_1", "trainable": true}, "class_name": "Dropout"}, {"name": "C3_dp_1", "inbound_nodes": [[["C3_0", 0, 0, {}]]], "config": {"rate": 0.1, "name": "C3_dp_1", "trainable": true}, "class_name": "Dropout"}, {"name": "C4_dp_1", "inbound_nodes": [[["C4_0", 0, 0, {}]]], "config": {"rate": 0.1, "name": "C4_dp_1", "trainable": true}, "class_name": "Dropout"}, {"name": "B1_dp_1", "inbound_nodes": [[["B1_0", 0, 0, {}]]], "config": {"rate": 0.1, "name": "B1_dp_1", "trainable": true}, "class_name": "Dropout"}, {"name": "B3_dp_1", "inbound_nodes": [[["B3_0", 0, 0, {}]]], "config": {"rate": 0.1, "name": "B3_dp_1", "trainable": true}, "class_name": "Dropout"}, {"name": "D1_dp_1", "inbound_nodes": [[["D1_0", 0, 0, {}]]], "config": {"rate": 0.1, "name": "D1_dp_1", "trainable": true}, "class_name": "Dropout"}, {"name": "C1_1", "inbound_nodes": [[["C1_dp_1", 0, 0, {}]]], "config": {"activity_regularizer": null, "bias_regularizer": null, "kernel_constraint": null, "kernel_regularizer": {"config": {"l2": 0.0010000000474974513, "l1": 0.0}, "class_name": "L1L2"}, "bias_constraint": null, "name": "C1_1", "activation": "relu", "kernel_initializer": {"config": {"mode": "fan_avg", "scale": 1.0, "seed": 3014, "distribution": "normal"}, "class_name": "VarianceScaling"}, "use_bias": true, "trainable": true, "bias_initializer": {"config": {}, "class_name": "Zeros"}, "units": 100}, "class_name": "Dense"}, {"name": "C2_1", "inbound_nodes": [[["C2_dp_1", 0, 0, {}]]], "config": {"activity_regularizer": null, "bias_regularizer": null, "kernel_constraint": null, "kernel_regularizer": {"config": {"l2": 0.0010000000474974513, "l1": 0.0}, "class_name": "L1L2"}, "bias_constraint": null, "name": "C2_1", "activation": "relu", "kernel_initializer": {"config": {"mode": "fan_avg", "scale": 1.0, "seed": 3014, "distribution": "normal"}, "class_name": "VarianceScaling"}, "use_bias": true, "trainable": true, "bias_initializer": {"config": {}, "class_name": "Zeros"}, "units": 100}, "class_name": "Dense"}, {"name": "C3_1", "inbound_nodes": [[["C3_dp_1", 0, 0, {}]]], "config": {"activity_regularizer": null, "bias_regularizer": null, "kernel_constraint": null, "kernel_regularizer": {"config": {"l2": 0.0010000000474974513, "l1": 0.0}, "class_name": "L1L2"}, "bias_constraint": null, "name": "C3_1", "activation": "relu", "kernel_initializer": {"config": {"mode": "fan_avg", "scale": 1.0, "seed": 3014, "distribution": "normal"}, "class_name": "VarianceScaling"}, "use_bias": true, "trainable": true, "bias_initializer": {"config": {}, "class_name": "Zeros"}, "units": 100}, "class_name": "Dense"}, {"name": "C4_1", "inbound_nodes": [[["C4_dp_1", 0, 0, {}]]], "config": {"activity_regularizer": null, "bias_regularizer": null, "kernel_constraint": null, "kernel_regularizer": {"config": {"l2": 0.0010000000474974513, "l1": 0.0}, "class_name": "L1L2"}, "bias_constraint": null, "name": "C4_1", "activation": "relu", "kernel_initializer": {"config": {"mode": "fan_avg", "scale": 1.0, "seed": 3014, "distribution": "normal"}, "class_name": "VarianceScaling"}, "use_bias": true, "trainable": true, "bias_initializer": {"config": {}, "class_name": "Zeros"}, "units": 100}, "class_name": "Dense"}, {"name": "B1_1", "inbound_nodes": [[["B1_dp_1", 0, 0, {}]]], "config": {"activity_regularizer": null, "bias_regularizer": null, "kernel_constraint": null, "kernel_regularizer": {"config": {"l2": 0.0010000000474974513, "l1": 0.0}, "class_name": "L1L2"}, "bias_constraint": null, "name": "B1_1", "activation": "relu", "kernel_initializer": {"config": {"mode": "fan_avg", "scale": 1.0, "seed": 3014, "distribution": "normal"}, "class_name": "VarianceScaling"}, "use_bias": true, "trainable": true, "bias_initializer": {"config": {}, "class_name": "Zeros"}, "units": 100}, "class_name": "Dense"}, {"name": "B3_1", "inbound_nodes": [[["B3_dp_1", 0, 0, {}]]], "config": {"activity_regularizer": null, "bias_regularizer": null, "kernel_constraint": null, "kernel_regularizer": {"config": {"l2": 0.0010000000474974513, "l1": 0.0}, "class_name": "L1L2"}, "bias_constraint": null, "name": "B3_1", "activation": "relu", "kernel_initializer": {"config": {"mode": "fan_avg", "scale": 1.0, "seed": 3014, "distribution": "normal"}, "class_name": "VarianceScaling"}, "use_bias": true, "trainable": true, "bias_initializer": {"config": {}, "class_name": "Zeros"}, "units": 100}, "class_name": "Dense"}, {"name": "D1_1", "inbound_nodes": [[["D1_dp_1", 0, 0, {}]]], "config": {"activity_regularizer": null, "bias_regularizer": null, "kernel_constraint": null, "kernel_regularizer": {"config": {"l2": 0.0010000000474974513, "l1": 0.0}, "class_name": "L1L2"}, "bias_constraint": null, "name": "D1_1", "activation": "relu", "kernel_initializer": {"config": {"mode": "fan_avg", "scale": 1.0, "seed": 3014, "distribution": "normal"}, "class_name": "VarianceScaling"}, "use_bias": true, "trainable": true, "bias_initializer": {"config": {}, "class_name": "Zeros"}, "units": 100}, "class_name": "Dense"}, {"name": "OnOff_C1", "inbound_nodes": [], "config": {"batch_input_shape": [null, 1], "dtype": "float32", "name": "OnOff_C1", "sparse": false}, "class_name": "InputLayer"}, {"name": "C1_o", "inbound_nodes": [[["C1_1", 0, 0, {}]]], "config": {"activity_regularizer": null, "bias_regularizer": null, "kernel_constraint": null, "kernel_regularizer": {"config": {"l2": 0.0010000000474974513, "l1": 0.0}, "class_name": "L1L2"}, "bias_constraint": null, "name": "C1_o", "activation": "relu", "kernel_initializer": {"config": {"mode": "fan_avg", "scale": 1.0, "seed": 3014, "distribution": "normal"}, "class_name": "VarianceScaling"}, "use_bias": true, "trainable": true, "bias_initializer": {"config": {}, "class_name": "Zeros"}, "units": 1}, "class_name": "Dense"}, {"name": "OnOff_C2", "inbound_nodes": [], "config": {"batch_input_shape": [null, 1], "dtype": "float32", "name": "OnOff_C2", "sparse": false}, "class_name": "InputLayer"}, {"name": "C2_o", "inbound_nodes": [[["C2_1", 0, 0, {}]]], "config": {"activity_regularizer": null, "bias_regularizer": null, "kernel_constraint": null, "kernel_regularizer": {"config": {"l2": 0.0010000000474974513, "l1": 0.0}, "class_name": "L1L2"}, "bias_constraint": null, "name": "C2_o", "activation": "relu", "kernel_initializer": {"config": {"mode": "fan_avg", "scale": 1.0, "seed": 3014, "distribution": "normal"}, "class_name": "VarianceScaling"}, "use_bias": true, "trainable": true, "bias_initializer": {"config": {}, "class_name": "Zeros"}, "units": 1}, "class_name": "Dense"}, {"name": "OnOff_C3", "inbound_nodes": [], "config": {"batch_input_shape": [null, 1], "dtype": "float32", "name": "OnOff_C3", "sparse": false}, "class_name": "InputLayer"}, {"name": "C3_o", "inbound_nodes": [[["C3_1", 0, 0, {}]]], "config": {"activity_regularizer": null, "bias_regularizer": null, "kernel_constraint": null, "kernel_regularizer": {"config": {"l2": 0.0010000000474974513, "l1": 0.0}, "class_name": "L1L2"}, "bias_constraint": null, "name": "C3_o", "activation": "relu", "kernel_initializer": {"config": {"mode": "fan_avg", "scale": 1.0, "seed": 3014, "distribution": "normal"}, "class_name": "VarianceScaling"}, "use_bias": true, "trainable": true, "bias_initializer": {"config": {}, "class_name": "Zeros"}, "units": 1}, "class_name": "Dense"}, {"name": "OnOff_C4", "inbound_nodes": [], "config": {"batch_input_shape": [null, 1], "dtype": "float32", "name": "OnOff_C4", "sparse": false}, "class_name": "InputLayer"}, {"name": "C4_o", "inbound_nodes": [[["C4_1", 0, 0, {}]]], "config": {"activity_regularizer": null, "bias_regularizer": null, "kernel_constraint": null, "kernel_regularizer": {"config": {"l2": 0.0010000000474974513, "l1": 0.0}, "class_name": "L1L2"}, "bias_constraint": null, "name": "C4_o", "activation": "relu", "kernel_initializer": {"config": {"mode": "fan_avg", "scale": 1.0, "seed": 3014, "distribution": "normal"}, "class_name": "VarianceScaling"}, "use_bias": true, "trainable": true, "bias_initializer": {"config": {}, "class_name": "Zeros"}, "units": 1}, "class_name": "Dense"}, {"name": "OnOff_B1", "inbound_nodes": [], "config": {"batch_input_shape": [null, 1], "dtype": "float32", "name": "OnOff_B1", "sparse": false}, "class_name": "InputLayer"}, {"name": "B1_o", "inbound_nodes": [[["B1_1", 0, 0, {}]]], "config": {"activity_regularizer": null, "bias_regularizer": null, "kernel_constraint": null, "kernel_regularizer": {"config": {"l2": 0.0010000000474974513, "l1": 0.0}, "class_name": "L1L2"}, "bias_constraint": null, "name": "B1_o", "activation": "relu", "kernel_initializer": {"config": {"mode": "fan_avg", "scale": 1.0, "seed": 3014, "distribution": "normal"}, "class_name": "VarianceScaling"}, "use_bias": true, "trainable": true, "bias_initializer": {"config": {}, "class_name": "Zeros"}, "units": 1}, "class_name": "Dense"}, {"name": "OnOff_B3", "inbound_nodes": [], "config": {"batch_input_shape": [null, 1], "dtype": "float32", "name": "OnOff_B3", "sparse": false}, "class_name": "InputLayer"}, {"name": "B3_o", "inbound_nodes": [[["B3_1", 0, 0, {}]]], "config": {"activity_regularizer": null, "bias_regularizer": null, "kernel_constraint": null, "kernel_regularizer": {"config": {"l2": 0.0010000000474974513, "l1": 0.0}, "class_name": "L1L2"}, "bias_constraint": null, "name": "B3_o", "activation": "relu", "kernel_initializer": {"config": {"mode": "fan_avg", "scale": 1.0, "seed": 3014, "distribution": "normal"}, "class_name": "VarianceScaling"}, "use_bias": true, "trainable": true, "bias_initializer": {"config": {}, "class_name": "Zeros"}, "units": 1}, "class_name": "Dense"}, {"name": "OnOff_D1", "inbound_nodes": [], "config": {"batch_input_shape": [null, 1], "dtype": "float32", "name": "OnOff_D1", "sparse": false}, "class_name": "InputLayer"}, {"name": "D1_o", "inbound_nodes": [[["D1_1", 0, 0, {}]]], "config": {"activity_regularizer": null, "bias_regularizer": null, "kernel_constraint": null, "kernel_regularizer": {"config": {"l2": 0.0010000000474974513, "l1": 0.0}, "class_name": "L1L2"}, "bias_constraint": null, "name": "D1_o", "activation": "relu", "kernel_initializer": {"config": {"mode": "fan_avg", "scale": 1.0, "seed": 3014, "distribution": "normal"}, "class_name": "VarianceScaling"}, "use_bias": true, "trainable": true, "bias_initializer": {"config": {}, "class_name": "Zeros"}, "units": 1}, "class_name": "Dense"}, {"name": "C1_out", "inbound_nodes": [[["OnOff_C1", 0, 0, {}], ["C1_o", 0, 0, {}]]], "config": {"name": "C1_out", "trainable": true}, "class_name": "Multiply"}, {"name": "C2_out", "inbound_nodes": [[["OnOff_C2", 0, 0, {}], ["C2_o", 0, 0, {}]]], "config": {"name": "C2_out", "trainable": true}, "class_name": "Multiply"}, {"name": "C3_out", "inbound_nodes": [[["OnOff_C3", 0, 0, {}], ["C3_o", 0, 0, {}]]], "config": {"name": "C3_out", "trainable": true}, "class_name": "Multiply"}, {"name": "C4_out", "inbound_nodes": [[["OnOff_C4", 0, 0, {}], ["C4_o", 0, 0, {}]]], "config": {"name": "C4_out", "trainable": true}, "class_name": "Multiply"}, {"name": "B1_out", "inbound_nodes": [[["OnOff_B1", 0, 0, {}], ["B1_o", 0, 0, {}]]], "config": {"name": "B1_out", "trainable": true}, "class_name": "Multiply"}, {"name": "B3_out", "inbound_nodes": [[["OnOff_B3", 0, 0, {}], ["B3_o", 0, 0, {}]]], "config": {"name": "B3_out", "trainable": true}, "class_name": "Multiply"}, {"name": "D1_out", "inbound_nodes": [[["OnOff_D1", 0, 0, {}], ["D1_o", 0, 0, {}]]], "config": {"name": "D1_out", "trainable": true}, "class_name": "Multiply"}, {"name": "GJOA_TOTAL", "inbound_nodes": [[["C1_out", 0, 0, {}], ["C2_out", 0, 0, {}], ["C3_out", 0, 0, {}], ["C4_out", 0, 0, {}], ["B1_out", 0, 0, {}], ["B3_out", 0, 0, {}], ["D1_out", 0, 0, {}]]], "config": {"name": "GJOA_TOTAL", "trainable": true}, "class_name": "Add"}], "name": "model_1", "input_layers": [["C1", 0, 0], ["C2", 0, 0], ["C3", 0, 0], ["C4", 0, 0], ["B1", 0, 0], ["B3", 0, 0], ["D1", 0, 0], ["OnOff_C1", 0, 0], ["OnOff_C2", 0, 0], ["OnOff_C3", 0, 0], ["OnOff_C4", 0, 0], ["OnOff_B1", 0, 0], ["OnOff_B3", 0, 0], ["OnOff_D1", 0, 0]], "output_layers": [["C1_out", 0, 0], ["C2_out", 0, 0], ["C3_out", 0, 0], ["C4_out", 0, 0], ["B1_out", 0, 0], ["B3_out", 0, 0], ["D1_out", 0, 0], ["GJOA_TOTAL", 0, 0]]}, "keras_version": "2.0.1", "backend": "theano", "class_name": "Model"}