{"backend": "theano", "class_name": "Model", "keras_version": "2.0.1", "config": {"input_layers": [["CHK_INPUT_NOW", 0, 0], ["CHK_INPUT_PREV", 0, 0], ["SHIFTED_PRESSURE_PBH_F1", 0, 0], ["SHIFTED_PRESSURE_PBH_B2", 0, 0], ["SHIFTED_PRESSURE_PBH_D3", 0, 0], ["SHIFTED_PRESSURE_PBH_E1", 0, 0]], "name": "model_1", "layers": [{"name": "CHK_INPUT_PREV", "class_name": "InputLayer", "inbound_nodes": [], "config": {"name": "CHK_INPUT_PREV", "batch_input_shape": [null, 4], "sparse": false, "dtype": "float32"}}, {"name": "CHK_INPUT_NOW", "class_name": "InputLayer", "inbound_nodes": [], "config": {"name": "CHK_INPUT_NOW", "batch_input_shape": [null, 4], "sparse": false, "dtype": "float32"}}, {"name": "CHK_DELTA", "class_name": "Add", "inbound_nodes": [[["CHK_INPUT_PREV", 0, 0, {}], ["CHK_INPUT_NOW", 0, 0, {}]]], "config": {"name": "CHK_DELTA", "trainable": true}}, {"name": "F1_PBH_0", "class_name": "Dense", "inbound_nodes": [[["CHK_DELTA", 0, 0, {}]]], "config": {"use_bias": true, "kernel_regularizer": {"class_name": "L1L2", "config": {"l1": 0.0, "l2": 0.00019999999494757503}}, "units": 60, "activation": "relu", "bias_constraint": null, "trainable": true, "kernel_initializer": {"class_name": "VarianceScaling", "config": {"mode": "fan_avg", "seed": 3014, "distribution": "normal", "scale": 1.0}}, "bias_regularizer": null, "name": "F1_PBH_0", "kernel_constraint": null, "activity_regularizer": null, "bias_initializer": {"class_name": "Zeros", "config": {}}}}, {"name": "B2_PBH_0", "class_name": "Dense", "inbound_nodes": [[["CHK_DELTA", 0, 0, {}]]], "config": {"use_bias": true, "kernel_regularizer": {"class_name": "L1L2", "config": {"l1": 0.0, "l2": 0.00019999999494757503}}, "units": 60, "activation": "relu", "bias_constraint": null, "trainable": true, "kernel_initializer": {"class_name": "VarianceScaling", "config": {"mode": "fan_avg", "seed": 3014, "distribution": "normal", "scale": 1.0}}, "bias_regularizer": null, "name": "B2_PBH_0", "kernel_constraint": null, "activity_regularizer": null, "bias_initializer": {"class_name": "Zeros", "config": {}}}}, {"name": "D3_PBH_0", "class_name": "Dense", "inbound_nodes": [[["CHK_DELTA", 0, 0, {}]]], "config": {"use_bias": true, "kernel_regularizer": {"class_name": "L1L2", "config": {"l1": 0.0, "l2": 0.00019999999494757503}}, "units": 60, "activation": "relu", "bias_constraint": null, "trainable": true, "kernel_initializer": {"class_name": "VarianceScaling", "config": {"mode": "fan_avg", "seed": 3014, "distribution": "normal", "scale": 1.0}}, "bias_regularizer": null, "name": "D3_PBH_0", "kernel_constraint": null, "activity_regularizer": null, "bias_initializer": {"class_name": "Zeros", "config": {}}}}, {"name": "E1_PBH_0", "class_name": "Dense", "inbound_nodes": [[["CHK_DELTA", 0, 0, {}]]], "config": {"use_bias": true, "kernel_regularizer": {"class_name": "L1L2", "config": {"l1": 0.0, "l2": 0.00019999999494757503}}, "units": 60, "activation": "relu", "bias_constraint": null, "trainable": true, "kernel_initializer": {"class_name": "VarianceScaling", "config": {"mode": "fan_avg", "seed": 3014, "distribution": "normal", "scale": 1.0}}, "bias_regularizer": null, "name": "E1_PBH_0", "kernel_constraint": null, "activity_regularizer": null, "bias_initializer": {"class_name": "Zeros", "config": {}}}}, {"name": "F1_PBH_1", "class_name": "Dense", "inbound_nodes": [[["F1_PBH_0", 0, 0, {}]]], "config": {"use_bias": true, "kernel_regularizer": {"class_name": "L1L2", "config": {"l1": 0.0, "l2": 0.00019999999494757503}}, "units": 60, "activation": "relu", "bias_constraint": null, "trainable": true, "kernel_initializer": {"class_name": "VarianceScaling", "config": {"mode": "fan_avg", "seed": 3014, "distribution": "normal", "scale": 1.0}}, "bias_regularizer": null, "name": "F1_PBH_1", "kernel_constraint": null, "activity_regularizer": null, "bias_initializer": {"class_name": "Zeros", "config": {}}}}, {"name": "B2_PBH_1", "class_name": "Dense", "inbound_nodes": [[["B2_PBH_0", 0, 0, {}]]], "config": {"use_bias": true, "kernel_regularizer": {"class_name": "L1L2", "config": {"l1": 0.0, "l2": 0.00019999999494757503}}, "units": 60, "activation": "relu", "bias_constraint": null, "trainable": true, "kernel_initializer": {"class_name": "VarianceScaling", "config": {"mode": "fan_avg", "seed": 3014, "distribution": "normal", "scale": 1.0}}, "bias_regularizer": null, "name": "B2_PBH_1", "kernel_constraint": null, "activity_regularizer": null, "bias_initializer": {"class_name": "Zeros", "config": {}}}}, {"name": "D3_PBH_1", "class_name": "Dense", "inbound_nodes": [[["D3_PBH_0", 0, 0, {}]]], "config": {"use_bias": true, "kernel_regularizer": {"class_name": "L1L2", "config": {"l1": 0.0, "l2": 0.00019999999494757503}}, "units": 60, "activation": "relu", "bias_constraint": null, "trainable": true, "kernel_initializer": {"class_name": "VarianceScaling", "config": {"mode": "fan_avg", "seed": 3014, "distribution": "normal", "scale": 1.0}}, "bias_regularizer": null, "name": "D3_PBH_1", "kernel_constraint": null, "activity_regularizer": null, "bias_initializer": {"class_name": "Zeros", "config": {}}}}, {"name": "E1_PBH_1", "class_name": "Dense", "inbound_nodes": [[["E1_PBH_0", 0, 0, {}]]], "config": {"use_bias": true, "kernel_regularizer": {"class_name": "L1L2", "config": {"l1": 0.0, "l2": 0.00019999999494757503}}, "units": 60, "activation": "relu", "bias_constraint": null, "trainable": true, "kernel_initializer": {"class_name": "VarianceScaling", "config": {"mode": "fan_avg", "seed": 3014, "distribution": "normal", "scale": 1.0}}, "bias_regularizer": null, "name": "E1_PBH_1", "kernel_constraint": null, "activity_regularizer": null, "bias_initializer": {"class_name": "Zeros", "config": {}}}}, {"name": "F1_PBH_out", "class_name": "Dense", "inbound_nodes": [[["F1_PBH_1", 0, 0, {}]]], "config": {"use_bias": true, "kernel_regularizer": {"class_name": "L1L2", "config": {"l1": 0.0, "l2": 0.00019999999494757503}}, "units": 1, "activation": "linear", "bias_constraint": null, "trainable": true, "kernel_initializer": {"class_name": "VarianceScaling", "config": {"mode": "fan_avg", "seed": 3014, "distribution": "normal", "scale": 1.0}}, "bias_regularizer": null, "name": "F1_PBH_out", "kernel_constraint": null, "activity_regularizer": null, "bias_initializer": {"class_name": "Zeros", "config": {}}}}, {"name": "SHIFTED_PRESSURE_PBH_F1", "class_name": "InputLayer", "inbound_nodes": [], "config": {"name": "SHIFTED_PRESSURE_PBH_F1", "batch_input_shape": [null, 1], "sparse": false, "dtype": "float32"}}, {"name": "B2_PBH_out", "class_name": "Dense", "inbound_nodes": [[["B2_PBH_1", 0, 0, {}]]], "config": {"use_bias": true, "kernel_regularizer": {"class_name": "L1L2", "config": {"l1": 0.0, "l2": 0.00019999999494757503}}, "units": 1, "activation": "linear", "bias_constraint": null, "trainable": true, "kernel_initializer": {"class_name": "VarianceScaling", "config": {"mode": "fan_avg", "seed": 3014, "distribution": "normal", "scale": 1.0}}, "bias_regularizer": null, "name": "B2_PBH_out", "kernel_constraint": null, "activity_regularizer": null, "bias_initializer": {"class_name": "Zeros", "config": {}}}}, {"name": "SHIFTED_PRESSURE_PBH_B2", "class_name": "InputLayer", "inbound_nodes": [], "config": {"name": "SHIFTED_PRESSURE_PBH_B2", "batch_input_shape": [null, 1], "sparse": false, "dtype": "float32"}}, {"name": "D3_PBH_out", "class_name": "Dense", "inbound_nodes": [[["D3_PBH_1", 0, 0, {}]]], "config": {"use_bias": true, "kernel_regularizer": {"class_name": "L1L2", "config": {"l1": 0.0, "l2": 0.00019999999494757503}}, "units": 1, "activation": "linear", "bias_constraint": null, "trainable": true, "kernel_initializer": {"class_name": "VarianceScaling", "config": {"mode": "fan_avg", "seed": 3014, "distribution": "normal", "scale": 1.0}}, "bias_regularizer": null, "name": "D3_PBH_out", "kernel_constraint": null, "activity_regularizer": null, "bias_initializer": {"class_name": "Zeros", "config": {}}}}, {"name": "SHIFTED_PRESSURE_PBH_D3", "class_name": "InputLayer", "inbound_nodes": [], "config": {"name": "SHIFTED_PRESSURE_PBH_D3", "batch_input_shape": [null, 1], "sparse": false, "dtype": "float32"}}, {"name": "E1_PBH_out", "class_name": "Dense", "inbound_nodes": [[["E1_PBH_1", 0, 0, {}]]], "config": {"use_bias": true, "kernel_regularizer": {"class_name": "L1L2", "config": {"l1": 0.0, "l2": 0.00019999999494757503}}, "units": 1, "activation": "linear", "bias_constraint": null, "trainable": true, "kernel_initializer": {"class_name": "VarianceScaling", "config": {"mode": "fan_avg", "seed": 3014, "distribution": "normal", "scale": 1.0}}, "bias_regularizer": null, "name": "E1_PBH_out", "kernel_constraint": null, "activity_regularizer": null, "bias_initializer": {"class_name": "Zeros", "config": {}}}}, {"name": "SHIFTED_PRESSURE_PBH_E1", "class_name": "InputLayer", "inbound_nodes": [], "config": {"name": "SHIFTED_PRESSURE_PBH_E1", "batch_input_shape": [null, 1], "sparse": false, "dtype": "float32"}}, {"name": "F1_PBH_out2", "class_name": "Add", "inbound_nodes": [[["F1_PBH_out", 0, 0, {}], ["SHIFTED_PRESSURE_PBH_F1", 0, 0, {}]]], "config": {"name": "F1_PBH_out2", "trainable": true}}, {"name": "B2_PBH_out2", "class_name": "Add", "inbound_nodes": [[["B2_PBH_out", 0, 0, {}], ["SHIFTED_PRESSURE_PBH_B2", 0, 0, {}]]], "config": {"name": "B2_PBH_out2", "trainable": true}}, {"name": "D3_PBH_out2", "class_name": "Add", "inbound_nodes": [[["D3_PBH_out", 0, 0, {}], ["SHIFTED_PRESSURE_PBH_D3", 0, 0, {}]]], "config": {"name": "D3_PBH_out2", "trainable": true}}, {"name": "E1_PBH_out2", "class_name": "Add", "inbound_nodes": [[["E1_PBH_out", 0, 0, {}], ["SHIFTED_PRESSURE_PBH_E1", 0, 0, {}]]], "config": {"name": "E1_PBH_out2", "trainable": true}}], "output_layers": [["F1_PBH_out2", 0, 0], ["F1_PBH_out", 0, 0], ["B2_PBH_out2", 0, 0], ["B2_PBH_out", 0, 0], ["D3_PBH_out2", 0, 0], ["D3_PBH_out", 0, 0], ["E1_PBH_out2", 0, 0], ["E1_PBH_out", 0, 0]]}}