{"backend": "theano", "keras_version": "2.0.1", "config": {"name": "model_1", "input_layers": [["C1", 0, 0], ["C2", 0, 0], ["C3", 0, 0], ["C4", 0, 0], ["B1", 0, 0], ["B3", 0, 0], ["D1", 0, 0], ["OnOff_C1", 0, 0], ["OnOff_C2", 0, 0], ["OnOff_C3", 0, 0], ["OnOff_C4", 0, 0], ["OnOff_B1", 0, 0], ["OnOff_B3", 0, 0], ["OnOff_D1", 0, 0]], "layers": [{"name": "C1", "config": {"batch_input_shape": [null, 4], "name": "C1", "dtype": "float32", "sparse": false}, "inbound_nodes": [], "class_name": "InputLayer"}, {"name": "C2", "config": {"batch_input_shape": [null, 3], "name": "C2", "dtype": "float32", "sparse": false}, "inbound_nodes": [], "class_name": "InputLayer"}, {"name": "C3", "config": {"batch_input_shape": [null, 4], "name": "C3", "dtype": "float32", "sparse": false}, "inbound_nodes": [], "class_name": "InputLayer"}, {"name": "C4", "config": {"batch_input_shape": [null, 4], "name": "C4", "dtype": "float32", "sparse": false}, "inbound_nodes": [], "class_name": "InputLayer"}, {"name": "B1", "config": {"batch_input_shape": [null, 4], "name": "B1", "dtype": "float32", "sparse": false}, "inbound_nodes": [], "class_name": "InputLayer"}, {"name": "B3", "config": {"batch_input_shape": [null, 4], "name": "B3", "dtype": "float32", "sparse": false}, "inbound_nodes": [], "class_name": "InputLayer"}, {"name": "D1", "config": {"batch_input_shape": [null, 3], "name": "D1", "dtype": "float32", "sparse": false}, "inbound_nodes": [], "class_name": "InputLayer"}, {"name": "dense_1", "config": {"units": 50, "activity_regularizer": null, "activation": "relu", "trainable": true, "kernel_initializer": {"config": {"seed": 9035, "distribution": "normal", "scale": 1.0, "mode": "fan_avg"}, "class_name": "VarianceScaling"}, "bias_regularizer": null, "use_bias": true, "name": "dense_1", "kernel_constraint": null, "bias_constraint": null, "kernel_regularizer": {"config": {"l1": 0.0, "l2": 4.999999873689376e-05}, "class_name": "L1L2"}, "bias_initializer": {"config": {}, "class_name": "Zeros"}}, "inbound_nodes": [[["C1", 0, 0, {}]]], "class_name": "Dense"}, {"name": "dense_4", "config": {"units": 50, "activity_regularizer": null, "activation": "relu", "trainable": true, "kernel_initializer": {"config": {"seed": 9035, "distribution": "normal", "scale": 1.0, "mode": "fan_avg"}, "class_name": "VarianceScaling"}, "bias_regularizer": null, "use_bias": true, "name": "dense_4", "kernel_constraint": null, "bias_constraint": null, "kernel_regularizer": {"config": {"l1": 0.0, "l2": 4.999999873689376e-05}, "class_name": "L1L2"}, "bias_initializer": {"config": {}, "class_name": "Zeros"}}, "inbound_nodes": [[["C2", 0, 0, {}]]], "class_name": "Dense"}, {"name": "dense_7", "config": {"units": 50, "activity_regularizer": null, "activation": "relu", "trainable": true, "kernel_initializer": {"config": {"seed": 9035, "distribution": "normal", "scale": 1.0, "mode": "fan_avg"}, "class_name": "VarianceScaling"}, "bias_regularizer": null, "use_bias": true, "name": "dense_7", "kernel_constraint": null, "bias_constraint": null, "kernel_regularizer": {"config": {"l1": 0.0, "l2": 4.999999873689376e-05}, "class_name": "L1L2"}, "bias_initializer": {"config": {}, "class_name": "Zeros"}}, "inbound_nodes": [[["C3", 0, 0, {}]]], "class_name": "Dense"}, {"name": "dense_10", "config": {"units": 50, "activity_regularizer": null, "activation": "relu", "trainable": true, "kernel_initializer": {"config": {"seed": 9035, "distribution": "normal", "scale": 1.0, "mode": "fan_avg"}, "class_name": "VarianceScaling"}, "bias_regularizer": null, "use_bias": true, "name": "dense_10", "kernel_constraint": null, "bias_constraint": null, "kernel_regularizer": {"config": {"l1": 0.0, "l2": 4.999999873689376e-05}, "class_name": "L1L2"}, "bias_initializer": {"config": {}, "class_name": "Zeros"}}, "inbound_nodes": [[["C4", 0, 0, {}]]], "class_name": "Dense"}, {"name": "dense_13", "config": {"units": 50, "activity_regularizer": null, "activation": "relu", "trainable": true, "kernel_initializer": {"config": {"seed": 9035, "distribution": "normal", "scale": 1.0, "mode": "fan_avg"}, "class_name": "VarianceScaling"}, "bias_regularizer": null, "use_bias": true, "name": "dense_13", "kernel_constraint": null, "bias_constraint": null, "kernel_regularizer": {"config": {"l1": 0.0, "l2": 4.999999873689376e-05}, "class_name": "L1L2"}, "bias_initializer": {"config": {}, "class_name": "Zeros"}}, "inbound_nodes": [[["B1", 0, 0, {}]]], "class_name": "Dense"}, {"name": "dense_16", "config": {"units": 50, "activity_regularizer": null, "activation": "relu", "trainable": true, "kernel_initializer": {"config": {"seed": 9035, "distribution": "normal", "scale": 1.0, "mode": "fan_avg"}, "class_name": "VarianceScaling"}, "bias_regularizer": null, "use_bias": true, "name": "dense_16", "kernel_constraint": null, "bias_constraint": null, "kernel_regularizer": {"config": {"l1": 0.0, "l2": 4.999999873689376e-05}, "class_name": "L1L2"}, "bias_initializer": {"config": {}, "class_name": "Zeros"}}, "inbound_nodes": [[["B3", 0, 0, {}]]], "class_name": "Dense"}, {"name": "dense_19", "config": {"units": 50, "activity_regularizer": null, "activation": "relu", "trainable": true, "kernel_initializer": {"config": {"seed": 9035, "distribution": "normal", "scale": 1.0, "mode": "fan_avg"}, "class_name": "VarianceScaling"}, "bias_regularizer": null, "use_bias": true, "name": "dense_19", "kernel_constraint": null, "bias_constraint": null, "kernel_regularizer": {"config": {"l1": 0.0, "l2": 4.999999873689376e-05}, "class_name": "L1L2"}, "bias_initializer": {"config": {}, "class_name": "Zeros"}}, "inbound_nodes": [[["D1", 0, 0, {}]]], "class_name": "Dense"}, {"name": "dense_2", "config": {"units": 50, "activity_regularizer": null, "activation": "relu", "trainable": true, "kernel_initializer": {"config": {"seed": 9035, "distribution": "normal", "scale": 1.0, "mode": "fan_avg"}, "class_name": "VarianceScaling"}, "bias_regularizer": null, "use_bias": true, "name": "dense_2", "kernel_constraint": null, "bias_constraint": null, "kernel_regularizer": {"config": {"l1": 0.0, "l2": 4.999999873689376e-05}, "class_name": "L1L2"}, "bias_initializer": {"config": {}, "class_name": "Zeros"}}, "inbound_nodes": [[["dense_1", 0, 0, {}]]], "class_name": "Dense"}, {"name": "dense_5", "config": {"units": 50, "activity_regularizer": null, "activation": "relu", "trainable": true, "kernel_initializer": {"config": {"seed": 9035, "distribution": "normal", "scale": 1.0, "mode": "fan_avg"}, "class_name": "VarianceScaling"}, "bias_regularizer": null, "use_bias": true, "name": "dense_5", "kernel_constraint": null, "bias_constraint": null, "kernel_regularizer": {"config": {"l1": 0.0, "l2": 4.999999873689376e-05}, "class_name": "L1L2"}, "bias_initializer": {"config": {}, "class_name": "Zeros"}}, "inbound_nodes": [[["dense_4", 0, 0, {}]]], "class_name": "Dense"}, {"name": "dense_8", "config": {"units": 50, "activity_regularizer": null, "activation": "relu", "trainable": true, "kernel_initializer": {"config": {"seed": 9035, "distribution": "normal", "scale": 1.0, "mode": "fan_avg"}, "class_name": "VarianceScaling"}, "bias_regularizer": null, "use_bias": true, "name": "dense_8", "kernel_constraint": null, "bias_constraint": null, "kernel_regularizer": {"config": {"l1": 0.0, "l2": 4.999999873689376e-05}, "class_name": "L1L2"}, "bias_initializer": {"config": {}, "class_name": "Zeros"}}, "inbound_nodes": [[["dense_7", 0, 0, {}]]], "class_name": "Dense"}, {"name": "dense_11", "config": {"units": 50, "activity_regularizer": null, "activation": "relu", "trainable": true, "kernel_initializer": {"config": {"seed": 9035, "distribution": "normal", "scale": 1.0, "mode": "fan_avg"}, "class_name": "VarianceScaling"}, "bias_regularizer": null, "use_bias": true, "name": "dense_11", "kernel_constraint": null, "bias_constraint": null, "kernel_regularizer": {"config": {"l1": 0.0, "l2": 4.999999873689376e-05}, "class_name": "L1L2"}, "bias_initializer": {"config": {}, "class_name": "Zeros"}}, "inbound_nodes": [[["dense_10", 0, 0, {}]]], "class_name": "Dense"}, {"name": "dense_14", "config": {"units": 50, "activity_regularizer": null, "activation": "relu", "trainable": true, "kernel_initializer": {"config": {"seed": 9035, "distribution": "normal", "scale": 1.0, "mode": "fan_avg"}, "class_name": "VarianceScaling"}, "bias_regularizer": null, "use_bias": true, "name": "dense_14", "kernel_constraint": null, "bias_constraint": null, "kernel_regularizer": {"config": {"l1": 0.0, "l2": 4.999999873689376e-05}, "class_name": "L1L2"}, "bias_initializer": {"config": {}, "class_name": "Zeros"}}, "inbound_nodes": [[["dense_13", 0, 0, {}]]], "class_name": "Dense"}, {"name": "dense_17", "config": {"units": 50, "activity_regularizer": null, "activation": "relu", "trainable": true, "kernel_initializer": {"config": {"seed": 9035, "distribution": "normal", "scale": 1.0, "mode": "fan_avg"}, "class_name": "VarianceScaling"}, "bias_regularizer": null, "use_bias": true, "name": "dense_17", "kernel_constraint": null, "bias_constraint": null, "kernel_regularizer": {"config": {"l1": 0.0, "l2": 4.999999873689376e-05}, "class_name": "L1L2"}, "bias_initializer": {"config": {}, "class_name": "Zeros"}}, "inbound_nodes": [[["dense_16", 0, 0, {}]]], "class_name": "Dense"}, {"name": "dense_20", "config": {"units": 50, "activity_regularizer": null, "activation": "relu", "trainable": true, "kernel_initializer": {"config": {"seed": 9035, "distribution": "normal", "scale": 1.0, "mode": "fan_avg"}, "class_name": "VarianceScaling"}, "bias_regularizer": null, "use_bias": true, "name": "dense_20", "kernel_constraint": null, "bias_constraint": null, "kernel_regularizer": {"config": {"l1": 0.0, "l2": 4.999999873689376e-05}, "class_name": "L1L2"}, "bias_initializer": {"config": {}, "class_name": "Zeros"}}, "inbound_nodes": [[["dense_19", 0, 0, {}]]], "class_name": "Dense"}, {"name": "OnOff_C1", "config": {"batch_input_shape": [null, 1], "name": "OnOff_C1", "dtype": "float32", "sparse": false}, "inbound_nodes": [], "class_name": "InputLayer"}, {"name": "dense_3", "config": {"units": 1, "activity_regularizer": null, "activation": "relu", "trainable": true, "kernel_initializer": {"config": {"seed": 9035, "distribution": "normal", "scale": 1.0, "mode": "fan_avg"}, "class_name": "VarianceScaling"}, "bias_regularizer": null, "use_bias": true, "name": "dense_3", "kernel_constraint": null, "bias_constraint": null, "kernel_regularizer": {"config": {"l1": 0.0, "l2": 4.999999873689376e-05}, "class_name": "L1L2"}, "bias_initializer": {"config": {}, "class_name": "Zeros"}}, "inbound_nodes": [[["dense_2", 0, 0, {}]]], "class_name": "Dense"}, {"name": "OnOff_C2", "config": {"batch_input_shape": [null, 1], "name": "OnOff_C2", "dtype": "float32", "sparse": false}, "inbound_nodes": [], "class_name": "InputLayer"}, {"name": "dense_6", "config": {"units": 1, "activity_regularizer": null, "activation": "relu", "trainable": true, "kernel_initializer": {"config": {"seed": 9035, "distribution": "normal", "scale": 1.0, "mode": "fan_avg"}, "class_name": "VarianceScaling"}, "bias_regularizer": null, "use_bias": true, "name": "dense_6", "kernel_constraint": null, "bias_constraint": null, "kernel_regularizer": {"config": {"l1": 0.0, "l2": 4.999999873689376e-05}, "class_name": "L1L2"}, "bias_initializer": {"config": {}, "class_name": "Zeros"}}, "inbound_nodes": [[["dense_5", 0, 0, {}]]], "class_name": "Dense"}, {"name": "OnOff_C3", "config": {"batch_input_shape": [null, 1], "name": "OnOff_C3", "dtype": "float32", "sparse": false}, "inbound_nodes": [], "class_name": "InputLayer"}, {"name": "dense_9", "config": {"units": 1, "activity_regularizer": null, "activation": "relu", "trainable": true, "kernel_initializer": {"config": {"seed": 9035, "distribution": "normal", "scale": 1.0, "mode": "fan_avg"}, "class_name": "VarianceScaling"}, "bias_regularizer": null, "use_bias": true, "name": "dense_9", "kernel_constraint": null, "bias_constraint": null, "kernel_regularizer": {"config": {"l1": 0.0, "l2": 4.999999873689376e-05}, "class_name": "L1L2"}, "bias_initializer": {"config": {}, "class_name": "Zeros"}}, "inbound_nodes": [[["dense_8", 0, 0, {}]]], "class_name": "Dense"}, {"name": "OnOff_C4", "config": {"batch_input_shape": [null, 1], "name": "OnOff_C4", "dtype": "float32", "sparse": false}, "inbound_nodes": [], "class_name": "InputLayer"}, {"name": "dense_12", "config": {"units": 1, "activity_regularizer": null, "activation": "relu", "trainable": true, "kernel_initializer": {"config": {"seed": 9035, "distribution": "normal", "scale": 1.0, "mode": "fan_avg"}, "class_name": "VarianceScaling"}, "bias_regularizer": null, "use_bias": true, "name": "dense_12", "kernel_constraint": null, "bias_constraint": null, "kernel_regularizer": {"config": {"l1": 0.0, "l2": 4.999999873689376e-05}, "class_name": "L1L2"}, "bias_initializer": {"config": {}, "class_name": "Zeros"}}, "inbound_nodes": [[["dense_11", 0, 0, {}]]], "class_name": "Dense"}, {"name": "OnOff_B1", "config": {"batch_input_shape": [null, 1], "name": "OnOff_B1", "dtype": "float32", "sparse": false}, "inbound_nodes": [], "class_name": "InputLayer"}, {"name": "dense_15", "config": {"units": 1, "activity_regularizer": null, "activation": "relu", "trainable": true, "kernel_initializer": {"config": {"seed": 9035, "distribution": "normal", "scale": 1.0, "mode": "fan_avg"}, "class_name": "VarianceScaling"}, "bias_regularizer": null, "use_bias": true, "name": "dense_15", "kernel_constraint": null, "bias_constraint": null, "kernel_regularizer": {"config": {"l1": 0.0, "l2": 4.999999873689376e-05}, "class_name": "L1L2"}, "bias_initializer": {"config": {}, "class_name": "Zeros"}}, "inbound_nodes": [[["dense_14", 0, 0, {}]]], "class_name": "Dense"}, {"name": "OnOff_B3", "config": {"batch_input_shape": [null, 1], "name": "OnOff_B3", "dtype": "float32", "sparse": false}, "inbound_nodes": [], "class_name": "InputLayer"}, {"name": "dense_18", "config": {"units": 1, "activity_regularizer": null, "activation": "relu", "trainable": true, "kernel_initializer": {"config": {"seed": 9035, "distribution": "normal", "scale": 1.0, "mode": "fan_avg"}, "class_name": "VarianceScaling"}, "bias_regularizer": null, "use_bias": true, "name": "dense_18", "kernel_constraint": null, "bias_constraint": null, "kernel_regularizer": {"config": {"l1": 0.0, "l2": 4.999999873689376e-05}, "class_name": "L1L2"}, "bias_initializer": {"config": {}, "class_name": "Zeros"}}, "inbound_nodes": [[["dense_17", 0, 0, {}]]], "class_name": "Dense"}, {"name": "OnOff_D1", "config": {"batch_input_shape": [null, 1], "name": "OnOff_D1", "dtype": "float32", "sparse": false}, "inbound_nodes": [], "class_name": "InputLayer"}, {"name": "dense_21", "config": {"units": 1, "activity_regularizer": null, "activation": "relu", "trainable": true, "kernel_initializer": {"config": {"seed": 9035, "distribution": "normal", "scale": 1.0, "mode": "fan_avg"}, "class_name": "VarianceScaling"}, "bias_regularizer": null, "use_bias": true, "name": "dense_21", "kernel_constraint": null, "bias_constraint": null, "kernel_regularizer": {"config": {"l1": 0.0, "l2": 4.999999873689376e-05}, "class_name": "L1L2"}, "bias_initializer": {"config": {}, "class_name": "Zeros"}}, "inbound_nodes": [[["dense_20", 0, 0, {}]]], "class_name": "Dense"}, {"name": "C1_out", "config": {"trainable": true, "name": "C1_out"}, "inbound_nodes": [[["OnOff_C1", 0, 0, {}], ["dense_3", 0, 0, {}]]], "class_name": "Multiply"}, {"name": "C2_out", "config": {"trainable": true, "name": "C2_out"}, "inbound_nodes": [[["OnOff_C2", 0, 0, {}], ["dense_6", 0, 0, {}]]], "class_name": "Multiply"}, {"name": "C3_out", "config": {"trainable": true, "name": "C3_out"}, "inbound_nodes": [[["OnOff_C3", 0, 0, {}], ["dense_9", 0, 0, {}]]], "class_name": "Multiply"}, {"name": "C4_out", "config": {"trainable": true, "name": "C4_out"}, "inbound_nodes": [[["OnOff_C4", 0, 0, {}], ["dense_12", 0, 0, {}]]], "class_name": "Multiply"}, {"name": "B1_out", "config": {"trainable": true, "name": "B1_out"}, "inbound_nodes": [[["OnOff_B1", 0, 0, {}], ["dense_15", 0, 0, {}]]], "class_name": "Multiply"}, {"name": "B3_out", "config": {"trainable": true, "name": "B3_out"}, "inbound_nodes": [[["OnOff_B3", 0, 0, {}], ["dense_18", 0, 0, {}]]], "class_name": "Multiply"}, {"name": "D1_out", "config": {"trainable": true, "name": "D1_out"}, "inbound_nodes": [[["OnOff_D1", 0, 0, {}], ["dense_21", 0, 0, {}]]], "class_name": "Multiply"}, {"name": "GJOA_TOTAL", "config": {"trainable": true, "name": "GJOA_TOTAL"}, "inbound_nodes": [[["C1_out", 0, 0, {}], ["C2_out", 0, 0, {}], ["C3_out", 0, 0, {}], ["C4_out", 0, 0, {}], ["B1_out", 0, 0, {}], ["B3_out", 0, 0, {}], ["D1_out", 0, 0, {}]]], "class_name": "Add"}], "output_layers": [["C1_out", 0, 0], ["C2_out", 0, 0], ["C3_out", 0, 0], ["C4_out", 0, 0], ["B1_out", 0, 0], ["B3_out", 0, 0], ["D1_out", 0, 0], ["GJOA_TOTAL", 0, 0]]}, "class_name": "Model"}