{"keras_version": "2.0.1", "config": {"input_layers": [["C1", 0, 0], ["C2", 0, 0], ["C3", 0, 0], ["C4", 0, 0], ["B1", 0, 0], ["B3", 0, 0], ["D1", 0, 0], ["OnOff_C1", 0, 0], ["OnOff_C2", 0, 0], ["OnOff_C3", 0, 0], ["OnOff_C4", 0, 0], ["OnOff_B1", 0, 0], ["OnOff_B3", 0, 0], ["OnOff_D1", 0, 0]], "name": "model_1", "layers": [{"inbound_nodes": [], "config": {"sparse": false, "batch_input_shape": [null, 4], "name": "C1", "dtype": "float32"}, "name": "C1", "class_name": "InputLayer"}, {"inbound_nodes": [], "config": {"sparse": false, "batch_input_shape": [null, 3], "name": "C2", "dtype": "float32"}, "name": "C2", "class_name": "InputLayer"}, {"inbound_nodes": [], "config": {"sparse": false, "batch_input_shape": [null, 4], "name": "C3", "dtype": "float32"}, "name": "C3", "class_name": "InputLayer"}, {"inbound_nodes": [], "config": {"sparse": false, "batch_input_shape": [null, 4], "name": "C4", "dtype": "float32"}, "name": "C4", "class_name": "InputLayer"}, {"inbound_nodes": [], "config": {"sparse": false, "batch_input_shape": [null, 4], "name": "B1", "dtype": "float32"}, "name": "B1", "class_name": "InputLayer"}, {"inbound_nodes": [], "config": {"sparse": false, "batch_input_shape": [null, 4], "name": "B3", "dtype": "float32"}, "name": "B3", "class_name": "InputLayer"}, {"inbound_nodes": [], "config": {"sparse": false, "batch_input_shape": [null, 3], "name": "D1", "dtype": "float32"}, "name": "D1", "class_name": "InputLayer"}, {"inbound_nodes": [[["C1", 0, 0, {}]]], "config": {"kernel_regularizer": {"config": {"l1": 0.0, "l2": 0.0}, "class_name": "L1L2"}, "activity_regularizer": null, "name": "dense_1", "bias_initializer": {"config": {}, "class_name": "Zeros"}, "units": 50, "kernel_initializer": {"config": {"scale": 1.0, "seed": 9305, "mode": "fan_avg", "distribution": "normal"}, "class_name": "VarianceScaling"}, "trainable": true, "bias_constraint": null, "use_bias": true, "bias_regularizer": null, "activation": "relu", "kernel_constraint": null}, "name": "dense_1", "class_name": "Dense"}, {"inbound_nodes": [[["C2", 0, 0, {}]]], "config": {"kernel_regularizer": {"config": {"l1": 0.0, "l2": 0.0}, "class_name": "L1L2"}, "activity_regularizer": null, "name": "dense_4", "bias_initializer": {"config": {}, "class_name": "Zeros"}, "units": 50, "kernel_initializer": {"config": {"scale": 1.0, "seed": 9305, "mode": "fan_avg", "distribution": "normal"}, "class_name": "VarianceScaling"}, "trainable": true, "bias_constraint": null, "use_bias": true, "bias_regularizer": null, "activation": "relu", "kernel_constraint": null}, "name": "dense_4", "class_name": "Dense"}, {"inbound_nodes": [[["C3", 0, 0, {}]]], "config": {"kernel_regularizer": {"config": {"l1": 0.0, "l2": 0.0}, "class_name": "L1L2"}, "activity_regularizer": null, "name": "dense_7", "bias_initializer": {"config": {}, "class_name": "Zeros"}, "units": 50, "kernel_initializer": {"config": {"scale": 1.0, "seed": 9305, "mode": "fan_avg", "distribution": "normal"}, "class_name": "VarianceScaling"}, "trainable": true, "bias_constraint": null, "use_bias": true, "bias_regularizer": null, "activation": "relu", "kernel_constraint": null}, "name": "dense_7", "class_name": "Dense"}, {"inbound_nodes": [[["C4", 0, 0, {}]]], "config": {"kernel_regularizer": {"config": {"l1": 0.0, "l2": 0.0}, "class_name": "L1L2"}, "activity_regularizer": null, "name": "dense_10", "bias_initializer": {"config": {}, "class_name": "Zeros"}, "units": 50, "kernel_initializer": {"config": {"scale": 1.0, "seed": 9305, "mode": "fan_avg", "distribution": "normal"}, "class_name": "VarianceScaling"}, "trainable": true, "bias_constraint": null, "use_bias": true, "bias_regularizer": null, "activation": "relu", "kernel_constraint": null}, "name": "dense_10", "class_name": "Dense"}, {"inbound_nodes": [[["B1", 0, 0, {}]]], "config": {"kernel_regularizer": {"config": {"l1": 0.0, "l2": 0.0}, "class_name": "L1L2"}, "activity_regularizer": null, "name": "dense_13", "bias_initializer": {"config": {}, "class_name": "Zeros"}, "units": 50, "kernel_initializer": {"config": {"scale": 1.0, "seed": 9305, "mode": "fan_avg", "distribution": "normal"}, "class_name": "VarianceScaling"}, "trainable": true, "bias_constraint": null, "use_bias": true, "bias_regularizer": null, "activation": "relu", "kernel_constraint": null}, "name": "dense_13", "class_name": "Dense"}, {"inbound_nodes": [[["B3", 0, 0, {}]]], "config": {"kernel_regularizer": {"config": {"l1": 0.0, "l2": 0.0}, "class_name": "L1L2"}, "activity_regularizer": null, "name": "dense_16", "bias_initializer": {"config": {}, "class_name": "Zeros"}, "units": 50, "kernel_initializer": {"config": {"scale": 1.0, "seed": 9305, "mode": "fan_avg", "distribution": "normal"}, "class_name": "VarianceScaling"}, "trainable": true, "bias_constraint": null, "use_bias": true, "bias_regularizer": null, "activation": "relu", "kernel_constraint": null}, "name": "dense_16", "class_name": "Dense"}, {"inbound_nodes": [[["D1", 0, 0, {}]]], "config": {"kernel_regularizer": {"config": {"l1": 0.0, "l2": 0.0}, "class_name": "L1L2"}, "activity_regularizer": null, "name": "dense_19", "bias_initializer": {"config": {}, "class_name": "Zeros"}, "units": 50, "kernel_initializer": {"config": {"scale": 1.0, "seed": 9305, "mode": "fan_avg", "distribution": "normal"}, "class_name": "VarianceScaling"}, "trainable": true, "bias_constraint": null, "use_bias": true, "bias_regularizer": null, "activation": "relu", "kernel_constraint": null}, "name": "dense_19", "class_name": "Dense"}, {"inbound_nodes": [[["dense_1", 0, 0, {}]]], "config": {"trainable": true, "name": "dropout_1", "rate": 0.4}, "name": "dropout_1", "class_name": "Dropout"}, {"inbound_nodes": [[["dense_4", 0, 0, {}]]], "config": {"trainable": true, "name": "dropout_2", "rate": 0.4}, "name": "dropout_2", "class_name": "Dropout"}, {"inbound_nodes": [[["dense_7", 0, 0, {}]]], "config": {"trainable": true, "name": "dropout_3", "rate": 0.4}, "name": "dropout_3", "class_name": "Dropout"}, {"inbound_nodes": [[["dense_10", 0, 0, {}]]], "config": {"trainable": true, "name": "dropout_4", "rate": 0.4}, "name": "dropout_4", "class_name": "Dropout"}, {"inbound_nodes": [[["dense_13", 0, 0, {}]]], "config": {"trainable": true, "name": "dropout_5", "rate": 0.4}, "name": "dropout_5", "class_name": "Dropout"}, {"inbound_nodes": [[["dense_16", 0, 0, {}]]], "config": {"trainable": true, "name": "dropout_6", "rate": 0.4}, "name": "dropout_6", "class_name": "Dropout"}, {"inbound_nodes": [[["dense_19", 0, 0, {}]]], "config": {"trainable": true, "name": "dropout_7", "rate": 0.4}, "name": "dropout_7", "class_name": "Dropout"}, {"inbound_nodes": [[["dropout_1", 0, 0, {}]]], "config": {"kernel_regularizer": {"config": {"l1": 0.0, "l2": 0.0}, "class_name": "L1L2"}, "activity_regularizer": null, "name": "dense_2", "bias_initializer": {"config": {}, "class_name": "Zeros"}, "units": 50, "kernel_initializer": {"config": {"scale": 1.0, "seed": 9305, "mode": "fan_avg", "distribution": "normal"}, "class_name": "VarianceScaling"}, "trainable": true, "bias_constraint": null, "use_bias": true, "bias_regularizer": null, "activation": "relu", "kernel_constraint": null}, "name": "dense_2", "class_name": "Dense"}, {"inbound_nodes": [[["dropout_2", 0, 0, {}]]], "config": {"kernel_regularizer": {"config": {"l1": 0.0, "l2": 0.0}, "class_name": "L1L2"}, "activity_regularizer": null, "name": "dense_5", "bias_initializer": {"config": {}, "class_name": "Zeros"}, "units": 50, "kernel_initializer": {"config": {"scale": 1.0, "seed": 9305, "mode": "fan_avg", "distribution": "normal"}, "class_name": "VarianceScaling"}, "trainable": true, "bias_constraint": null, "use_bias": true, "bias_regularizer": null, "activation": "relu", "kernel_constraint": null}, "name": "dense_5", "class_name": "Dense"}, {"inbound_nodes": [[["dropout_3", 0, 0, {}]]], "config": {"kernel_regularizer": {"config": {"l1": 0.0, "l2": 0.0}, "class_name": "L1L2"}, "activity_regularizer": null, "name": "dense_8", "bias_initializer": {"config": {}, "class_name": "Zeros"}, "units": 50, "kernel_initializer": {"config": {"scale": 1.0, "seed": 9305, "mode": "fan_avg", "distribution": "normal"}, "class_name": "VarianceScaling"}, "trainable": true, "bias_constraint": null, "use_bias": true, "bias_regularizer": null, "activation": "relu", "kernel_constraint": null}, "name": "dense_8", "class_name": "Dense"}, {"inbound_nodes": [[["dropout_4", 0, 0, {}]]], "config": {"kernel_regularizer": {"config": {"l1": 0.0, "l2": 0.0}, "class_name": "L1L2"}, "activity_regularizer": null, "name": "dense_11", "bias_initializer": {"config": {}, "class_name": "Zeros"}, "units": 50, "kernel_initializer": {"config": {"scale": 1.0, "seed": 9305, "mode": "fan_avg", "distribution": "normal"}, "class_name": "VarianceScaling"}, "trainable": true, "bias_constraint": null, "use_bias": true, "bias_regularizer": null, "activation": "relu", "kernel_constraint": null}, "name": "dense_11", "class_name": "Dense"}, {"inbound_nodes": [[["dropout_5", 0, 0, {}]]], "config": {"kernel_regularizer": {"config": {"l1": 0.0, "l2": 0.0}, "class_name": "L1L2"}, "activity_regularizer": null, "name": "dense_14", "bias_initializer": {"config": {}, "class_name": "Zeros"}, "units": 50, "kernel_initializer": {"config": {"scale": 1.0, "seed": 9305, "mode": "fan_avg", "distribution": "normal"}, "class_name": "VarianceScaling"}, "trainable": true, "bias_constraint": null, "use_bias": true, "bias_regularizer": null, "activation": "relu", "kernel_constraint": null}, "name": "dense_14", "class_name": "Dense"}, {"inbound_nodes": [[["dropout_6", 0, 0, {}]]], "config": {"kernel_regularizer": {"config": {"l1": 0.0, "l2": 0.0}, "class_name": "L1L2"}, "activity_regularizer": null, "name": "dense_17", "bias_initializer": {"config": {}, "class_name": "Zeros"}, "units": 50, "kernel_initializer": {"config": {"scale": 1.0, "seed": 9305, "mode": "fan_avg", "distribution": "normal"}, "class_name": "VarianceScaling"}, "trainable": true, "bias_constraint": null, "use_bias": true, "bias_regularizer": null, "activation": "relu", "kernel_constraint": null}, "name": "dense_17", "class_name": "Dense"}, {"inbound_nodes": [[["dropout_7", 0, 0, {}]]], "config": {"kernel_regularizer": {"config": {"l1": 0.0, "l2": 0.0}, "class_name": "L1L2"}, "activity_regularizer": null, "name": "dense_20", "bias_initializer": {"config": {}, "class_name": "Zeros"}, "units": 50, "kernel_initializer": {"config": {"scale": 1.0, "seed": 9305, "mode": "fan_avg", "distribution": "normal"}, "class_name": "VarianceScaling"}, "trainable": true, "bias_constraint": null, "use_bias": true, "bias_regularizer": null, "activation": "relu", "kernel_constraint": null}, "name": "dense_20", "class_name": "Dense"}, {"inbound_nodes": [], "config": {"sparse": false, "batch_input_shape": [null, 1], "name": "OnOff_C1", "dtype": "float32"}, "name": "OnOff_C1", "class_name": "InputLayer"}, {"inbound_nodes": [[["dense_2", 0, 0, {}]]], "config": {"kernel_regularizer": {"config": {"l1": 0.0, "l2": 0.0}, "class_name": "L1L2"}, "activity_regularizer": null, "name": "dense_3", "bias_initializer": {"config": {}, "class_name": "Zeros"}, "units": 1, "kernel_initializer": {"config": {"scale": 1.0, "seed": 9305, "mode": "fan_avg", "distribution": "normal"}, "class_name": "VarianceScaling"}, "trainable": true, "bias_constraint": null, "use_bias": true, "bias_regularizer": null, "activation": "relu", "kernel_constraint": null}, "name": "dense_3", "class_name": "Dense"}, {"inbound_nodes": [], "config": {"sparse": false, "batch_input_shape": [null, 1], "name": "OnOff_C2", "dtype": "float32"}, "name": "OnOff_C2", "class_name": "InputLayer"}, {"inbound_nodes": [[["dense_5", 0, 0, {}]]], "config": {"kernel_regularizer": {"config": {"l1": 0.0, "l2": 0.0}, "class_name": "L1L2"}, "activity_regularizer": null, "name": "dense_6", "bias_initializer": {"config": {}, "class_name": "Zeros"}, "units": 1, "kernel_initializer": {"config": {"scale": 1.0, "seed": 9305, "mode": "fan_avg", "distribution": "normal"}, "class_name": "VarianceScaling"}, "trainable": true, "bias_constraint": null, "use_bias": true, "bias_regularizer": null, "activation": "relu", "kernel_constraint": null}, "name": "dense_6", "class_name": "Dense"}, {"inbound_nodes": [], "config": {"sparse": false, "batch_input_shape": [null, 1], "name": "OnOff_C3", "dtype": "float32"}, "name": "OnOff_C3", "class_name": "InputLayer"}, {"inbound_nodes": [[["dense_8", 0, 0, {}]]], "config": {"kernel_regularizer": {"config": {"l1": 0.0, "l2": 0.0}, "class_name": "L1L2"}, "activity_regularizer": null, "name": "dense_9", "bias_initializer": {"config": {}, "class_name": "Zeros"}, "units": 1, "kernel_initializer": {"config": {"scale": 1.0, "seed": 9305, "mode": "fan_avg", "distribution": "normal"}, "class_name": "VarianceScaling"}, "trainable": true, "bias_constraint": null, "use_bias": true, "bias_regularizer": null, "activation": "relu", "kernel_constraint": null}, "name": "dense_9", "class_name": "Dense"}, {"inbound_nodes": [], "config": {"sparse": false, "batch_input_shape": [null, 1], "name": "OnOff_C4", "dtype": "float32"}, "name": "OnOff_C4", "class_name": "InputLayer"}, {"inbound_nodes": [[["dense_11", 0, 0, {}]]], "config": {"kernel_regularizer": {"config": {"l1": 0.0, "l2": 0.0}, "class_name": "L1L2"}, "activity_regularizer": null, "name": "dense_12", "bias_initializer": {"config": {}, "class_name": "Zeros"}, "units": 1, "kernel_initializer": {"config": {"scale": 1.0, "seed": 9305, "mode": "fan_avg", "distribution": "normal"}, "class_name": "VarianceScaling"}, "trainable": true, "bias_constraint": null, "use_bias": true, "bias_regularizer": null, "activation": "relu", "kernel_constraint": null}, "name": "dense_12", "class_name": "Dense"}, {"inbound_nodes": [], "config": {"sparse": false, "batch_input_shape": [null, 1], "name": "OnOff_B1", "dtype": "float32"}, "name": "OnOff_B1", "class_name": "InputLayer"}, {"inbound_nodes": [[["dense_14", 0, 0, {}]]], "config": {"kernel_regularizer": {"config": {"l1": 0.0, "l2": 0.0}, "class_name": "L1L2"}, "activity_regularizer": null, "name": "dense_15", "bias_initializer": {"config": {}, "class_name": "Zeros"}, "units": 1, "kernel_initializer": {"config": {"scale": 1.0, "seed": 9305, "mode": "fan_avg", "distribution": "normal"}, "class_name": "VarianceScaling"}, "trainable": true, "bias_constraint": null, "use_bias": true, "bias_regularizer": null, "activation": "relu", "kernel_constraint": null}, "name": "dense_15", "class_name": "Dense"}, {"inbound_nodes": [], "config": {"sparse": false, "batch_input_shape": [null, 1], "name": "OnOff_B3", "dtype": "float32"}, "name": "OnOff_B3", "class_name": "InputLayer"}, {"inbound_nodes": [[["dense_17", 0, 0, {}]]], "config": {"kernel_regularizer": {"config": {"l1": 0.0, "l2": 0.0}, "class_name": "L1L2"}, "activity_regularizer": null, "name": "dense_18", "bias_initializer": {"config": {}, "class_name": "Zeros"}, "units": 1, "kernel_initializer": {"config": {"scale": 1.0, "seed": 9305, "mode": "fan_avg", "distribution": "normal"}, "class_name": "VarianceScaling"}, "trainable": true, "bias_constraint": null, "use_bias": true, "bias_regularizer": null, "activation": "relu", "kernel_constraint": null}, "name": "dense_18", "class_name": "Dense"}, {"inbound_nodes": [], "config": {"sparse": false, "batch_input_shape": [null, 1], "name": "OnOff_D1", "dtype": "float32"}, "name": "OnOff_D1", "class_name": "InputLayer"}, {"inbound_nodes": [[["dense_20", 0, 0, {}]]], "config": {"kernel_regularizer": {"config": {"l1": 0.0, "l2": 0.0}, "class_name": "L1L2"}, "activity_regularizer": null, "name": "dense_21", "bias_initializer": {"config": {}, "class_name": "Zeros"}, "units": 1, "kernel_initializer": {"config": {"scale": 1.0, "seed": 9305, "mode": "fan_avg", "distribution": "normal"}, "class_name": "VarianceScaling"}, "trainable": true, "bias_constraint": null, "use_bias": true, "bias_regularizer": null, "activation": "relu", "kernel_constraint": null}, "name": "dense_21", "class_name": "Dense"}, {"inbound_nodes": [[["OnOff_C1", 0, 0, {}], ["dense_3", 0, 0, {}]]], "config": {"trainable": true, "name": "C1_out"}, "name": "C1_out", "class_name": "Multiply"}, {"inbound_nodes": [[["OnOff_C2", 0, 0, {}], ["dense_6", 0, 0, {}]]], "config": {"trainable": true, "name": "C2_out"}, "name": "C2_out", "class_name": "Multiply"}, {"inbound_nodes": [[["OnOff_C3", 0, 0, {}], ["dense_9", 0, 0, {}]]], "config": {"trainable": true, "name": "C3_out"}, "name": "C3_out", "class_name": "Multiply"}, {"inbound_nodes": [[["OnOff_C4", 0, 0, {}], ["dense_12", 0, 0, {}]]], "config": {"trainable": true, "name": "C4_out"}, "name": "C4_out", "class_name": "Multiply"}, {"inbound_nodes": [[["OnOff_B1", 0, 0, {}], ["dense_15", 0, 0, {}]]], "config": {"trainable": true, "name": "B1_out"}, "name": "B1_out", "class_name": "Multiply"}, {"inbound_nodes": [[["OnOff_B3", 0, 0, {}], ["dense_18", 0, 0, {}]]], "config": {"trainable": true, "name": "B3_out"}, "name": "B3_out", "class_name": "Multiply"}, {"inbound_nodes": [[["OnOff_D1", 0, 0, {}], ["dense_21", 0, 0, {}]]], "config": {"trainable": true, "name": "D1_out"}, "name": "D1_out", "class_name": "Multiply"}, {"inbound_nodes": [[["C1_out", 0, 0, {}], ["C2_out", 0, 0, {}], ["C3_out", 0, 0, {}], ["C4_out", 0, 0, {}], ["B1_out", 0, 0, {}], ["B3_out", 0, 0, {}], ["D1_out", 0, 0, {}]]], "config": {"trainable": true, "name": "GJOA_TOTAL"}, "name": "GJOA_TOTAL", "class_name": "Add"}], "output_layers": [["C1_out", 0, 0], ["C2_out", 0, 0], ["C3_out", 0, 0], ["C4_out", 0, 0], ["B1_out", 0, 0], ["B3_out", 0, 0], ["D1_out", 0, 0], ["GJOA_TOTAL", 0, 0]]}, "class_name": "Model", "backend": "theano"}