{"config": {"input_layers": [["C1", 0, 0], ["C2", 0, 0], ["C3", 0, 0], ["C4", 0, 0], ["B1", 0, 0], ["B3", 0, 0], ["D1", 0, 0], ["OnOff_C1", 0, 0], ["OnOff_C2", 0, 0], ["OnOff_C3", 0, 0], ["OnOff_C4", 0, 0], ["OnOff_B1", 0, 0], ["OnOff_B3", 0, 0], ["OnOff_D1", 0, 0]], "name": "model_1", "output_layers": [["C1_out", 0, 0], ["C2_out", 0, 0], ["C3_out", 0, 0], ["C4_out", 0, 0], ["B1_out", 0, 0], ["B3_out", 0, 0], ["D1_out", 0, 0], ["GJOA_TOTAL", 0, 0]], "layers": [{"config": {"batch_input_shape": [null, 4], "dtype": "float32", "sparse": false, "name": "C1"}, "name": "C1", "inbound_nodes": [], "class_name": "InputLayer"}, {"config": {"batch_input_shape": [null, 3], "dtype": "float32", "sparse": false, "name": "C2"}, "name": "C2", "inbound_nodes": [], "class_name": "InputLayer"}, {"config": {"batch_input_shape": [null, 4], "dtype": "float32", "sparse": false, "name": "C3"}, "name": "C3", "inbound_nodes": [], "class_name": "InputLayer"}, {"config": {"batch_input_shape": [null, 4], "dtype": "float32", "sparse": false, "name": "C4"}, "name": "C4", "inbound_nodes": [], "class_name": "InputLayer"}, {"config": {"batch_input_shape": [null, 4], "dtype": "float32", "sparse": false, "name": "B1"}, "name": "B1", "inbound_nodes": [], "class_name": "InputLayer"}, {"config": {"batch_input_shape": [null, 4], "dtype": "float32", "sparse": false, "name": "B3"}, "name": "B3", "inbound_nodes": [], "class_name": "InputLayer"}, {"config": {"batch_input_shape": [null, 3], "dtype": "float32", "sparse": false, "name": "D1"}, "name": "D1", "inbound_nodes": [], "class_name": "InputLayer"}, {"config": {"bias_regularizer": null, "bias_constraint": null, "activity_regularizer": null, "trainable": true, "bias_initializer": {"config": {}, "class_name": "Zeros"}, "use_bias": true, "name": "C1_0", "kernel_regularizer": {"config": {"l2": 2.9999999242136255e-05, "l1": 0.0}, "class_name": "L1L2"}, "units": 80, "activation": "relu", "kernel_constraint": null, "kernel_initializer": {"config": {"mode": "fan_avg", "seed": 3014, "scale": 1.0, "distribution": "normal"}, "class_name": "VarianceScaling"}}, "name": "C1_0", "inbound_nodes": [[["C1", 0, 0, {}]]], "class_name": "Dense"}, {"config": {"bias_regularizer": null, "bias_constraint": null, "activity_regularizer": null, "trainable": true, "bias_initializer": {"config": {}, "class_name": "Zeros"}, "use_bias": true, "name": "C2_0", "kernel_regularizer": {"config": {"l2": 2.9999999242136255e-05, "l1": 0.0}, "class_name": "L1L2"}, "units": 80, "activation": "relu", "kernel_constraint": null, "kernel_initializer": {"config": {"mode": "fan_avg", "seed": 3014, "scale": 1.0, "distribution": "normal"}, "class_name": "VarianceScaling"}}, "name": "C2_0", "inbound_nodes": [[["C2", 0, 0, {}]]], "class_name": "Dense"}, {"config": {"bias_regularizer": null, "bias_constraint": null, "activity_regularizer": null, "trainable": true, "bias_initializer": {"config": {}, "class_name": "Zeros"}, "use_bias": true, "name": "C3_0", "kernel_regularizer": {"config": {"l2": 2.9999999242136255e-05, "l1": 0.0}, "class_name": "L1L2"}, "units": 80, "activation": "relu", "kernel_constraint": null, "kernel_initializer": {"config": {"mode": "fan_avg", "seed": 3014, "scale": 1.0, "distribution": "normal"}, "class_name": "VarianceScaling"}}, "name": "C3_0", "inbound_nodes": [[["C3", 0, 0, {}]]], "class_name": "Dense"}, {"config": {"bias_regularizer": null, "bias_constraint": null, "activity_regularizer": null, "trainable": true, "bias_initializer": {"config": {}, "class_name": "Zeros"}, "use_bias": true, "name": "C4_0", "kernel_regularizer": {"config": {"l2": 2.9999999242136255e-05, "l1": 0.0}, "class_name": "L1L2"}, "units": 80, "activation": "relu", "kernel_constraint": null, "kernel_initializer": {"config": {"mode": "fan_avg", "seed": 3014, "scale": 1.0, "distribution": "normal"}, "class_name": "VarianceScaling"}}, "name": "C4_0", "inbound_nodes": [[["C4", 0, 0, {}]]], "class_name": "Dense"}, {"config": {"bias_regularizer": null, "bias_constraint": null, "activity_regularizer": null, "trainable": true, "bias_initializer": {"config": {}, "class_name": "Zeros"}, "use_bias": true, "name": "B1_0", "kernel_regularizer": {"config": {"l2": 2.9999999242136255e-05, "l1": 0.0}, "class_name": "L1L2"}, "units": 80, "activation": "relu", "kernel_constraint": null, "kernel_initializer": {"config": {"mode": "fan_avg", "seed": 3014, "scale": 1.0, "distribution": "normal"}, "class_name": "VarianceScaling"}}, "name": "B1_0", "inbound_nodes": [[["B1", 0, 0, {}]]], "class_name": "Dense"}, {"config": {"bias_regularizer": null, "bias_constraint": null, "activity_regularizer": null, "trainable": true, "bias_initializer": {"config": {}, "class_name": "Zeros"}, "use_bias": true, "name": "B3_0", "kernel_regularizer": {"config": {"l2": 2.9999999242136255e-05, "l1": 0.0}, "class_name": "L1L2"}, "units": 80, "activation": "relu", "kernel_constraint": null, "kernel_initializer": {"config": {"mode": "fan_avg", "seed": 3014, "scale": 1.0, "distribution": "normal"}, "class_name": "VarianceScaling"}}, "name": "B3_0", "inbound_nodes": [[["B3", 0, 0, {}]]], "class_name": "Dense"}, {"config": {"bias_regularizer": null, "bias_constraint": null, "activity_regularizer": null, "trainable": true, "bias_initializer": {"config": {}, "class_name": "Zeros"}, "use_bias": true, "name": "D1_0", "kernel_regularizer": {"config": {"l2": 2.9999999242136255e-05, "l1": 0.0}, "class_name": "L1L2"}, "units": 80, "activation": "relu", "kernel_constraint": null, "kernel_initializer": {"config": {"mode": "fan_avg", "seed": 3014, "scale": 1.0, "distribution": "normal"}, "class_name": "VarianceScaling"}}, "name": "D1_0", "inbound_nodes": [[["D1", 0, 0, {}]]], "class_name": "Dense"}, {"config": {"name": "C1_dp_1", "trainable": true, "rate": 0.05}, "name": "C1_dp_1", "inbound_nodes": [[["C1_0", 0, 0, {}]]], "class_name": "Dropout"}, {"config": {"name": "C2_dp_1", "trainable": true, "rate": 0.05}, "name": "C2_dp_1", "inbound_nodes": [[["C2_0", 0, 0, {}]]], "class_name": "Dropout"}, {"config": {"name": "C3_dp_1", "trainable": true, "rate": 0.05}, "name": "C3_dp_1", "inbound_nodes": [[["C3_0", 0, 0, {}]]], "class_name": "Dropout"}, {"config": {"name": "C4_dp_1", "trainable": true, "rate": 0.05}, "name": "C4_dp_1", "inbound_nodes": [[["C4_0", 0, 0, {}]]], "class_name": "Dropout"}, {"config": {"name": "B1_dp_1", "trainable": true, "rate": 0.05}, "name": "B1_dp_1", "inbound_nodes": [[["B1_0", 0, 0, {}]]], "class_name": "Dropout"}, {"config": {"name": "B3_dp_1", "trainable": true, "rate": 0.05}, "name": "B3_dp_1", "inbound_nodes": [[["B3_0", 0, 0, {}]]], "class_name": "Dropout"}, {"config": {"name": "D1_dp_1", "trainable": true, "rate": 0.05}, "name": "D1_dp_1", "inbound_nodes": [[["D1_0", 0, 0, {}]]], "class_name": "Dropout"}, {"config": {"bias_regularizer": null, "bias_constraint": null, "activity_regularizer": null, "trainable": true, "bias_initializer": {"config": {}, "class_name": "Zeros"}, "use_bias": true, "name": "C1_1", "kernel_regularizer": {"config": {"l2": 2.9999999242136255e-05, "l1": 0.0}, "class_name": "L1L2"}, "units": 80, "activation": "relu", "kernel_constraint": null, "kernel_initializer": {"config": {"mode": "fan_avg", "seed": 3014, "scale": 1.0, "distribution": "normal"}, "class_name": "VarianceScaling"}}, "name": "C1_1", "inbound_nodes": [[["C1_dp_1", 0, 0, {}]]], "class_name": "Dense"}, {"config": {"bias_regularizer": null, "bias_constraint": null, "activity_regularizer": null, "trainable": true, "bias_initializer": {"config": {}, "class_name": "Zeros"}, "use_bias": true, "name": "C2_1", "kernel_regularizer": {"config": {"l2": 2.9999999242136255e-05, "l1": 0.0}, "class_name": "L1L2"}, "units": 80, "activation": "relu", "kernel_constraint": null, "kernel_initializer": {"config": {"mode": "fan_avg", "seed": 3014, "scale": 1.0, "distribution": "normal"}, "class_name": "VarianceScaling"}}, "name": "C2_1", "inbound_nodes": [[["C2_dp_1", 0, 0, {}]]], "class_name": "Dense"}, {"config": {"bias_regularizer": null, "bias_constraint": null, "activity_regularizer": null, "trainable": true, "bias_initializer": {"config": {}, "class_name": "Zeros"}, "use_bias": true, "name": "C3_1", "kernel_regularizer": {"config": {"l2": 2.9999999242136255e-05, "l1": 0.0}, "class_name": "L1L2"}, "units": 80, "activation": "relu", "kernel_constraint": null, "kernel_initializer": {"config": {"mode": "fan_avg", "seed": 3014, "scale": 1.0, "distribution": "normal"}, "class_name": "VarianceScaling"}}, "name": "C3_1", "inbound_nodes": [[["C3_dp_1", 0, 0, {}]]], "class_name": "Dense"}, {"config": {"bias_regularizer": null, "bias_constraint": null, "activity_regularizer": null, "trainable": true, "bias_initializer": {"config": {}, "class_name": "Zeros"}, "use_bias": true, "name": "C4_1", "kernel_regularizer": {"config": {"l2": 2.9999999242136255e-05, "l1": 0.0}, "class_name": "L1L2"}, "units": 80, "activation": "relu", "kernel_constraint": null, "kernel_initializer": {"config": {"mode": "fan_avg", "seed": 3014, "scale": 1.0, "distribution": "normal"}, "class_name": "VarianceScaling"}}, "name": "C4_1", "inbound_nodes": [[["C4_dp_1", 0, 0, {}]]], "class_name": "Dense"}, {"config": {"bias_regularizer": null, "bias_constraint": null, "activity_regularizer": null, "trainable": true, "bias_initializer": {"config": {}, "class_name": "Zeros"}, "use_bias": true, "name": "B1_1", "kernel_regularizer": {"config": {"l2": 2.9999999242136255e-05, "l1": 0.0}, "class_name": "L1L2"}, "units": 80, "activation": "relu", "kernel_constraint": null, "kernel_initializer": {"config": {"mode": "fan_avg", "seed": 3014, "scale": 1.0, "distribution": "normal"}, "class_name": "VarianceScaling"}}, "name": "B1_1", "inbound_nodes": [[["B1_dp_1", 0, 0, {}]]], "class_name": "Dense"}, {"config": {"bias_regularizer": null, "bias_constraint": null, "activity_regularizer": null, "trainable": true, "bias_initializer": {"config": {}, "class_name": "Zeros"}, "use_bias": true, "name": "B3_1", "kernel_regularizer": {"config": {"l2": 2.9999999242136255e-05, "l1": 0.0}, "class_name": "L1L2"}, "units": 80, "activation": "relu", "kernel_constraint": null, "kernel_initializer": {"config": {"mode": "fan_avg", "seed": 3014, "scale": 1.0, "distribution": "normal"}, "class_name": "VarianceScaling"}}, "name": "B3_1", "inbound_nodes": [[["B3_dp_1", 0, 0, {}]]], "class_name": "Dense"}, {"config": {"bias_regularizer": null, "bias_constraint": null, "activity_regularizer": null, "trainable": true, "bias_initializer": {"config": {}, "class_name": "Zeros"}, "use_bias": true, "name": "D1_1", "kernel_regularizer": {"config": {"l2": 2.9999999242136255e-05, "l1": 0.0}, "class_name": "L1L2"}, "units": 80, "activation": "relu", "kernel_constraint": null, "kernel_initializer": {"config": {"mode": "fan_avg", "seed": 3014, "scale": 1.0, "distribution": "normal"}, "class_name": "VarianceScaling"}}, "name": "D1_1", "inbound_nodes": [[["D1_dp_1", 0, 0, {}]]], "class_name": "Dense"}, {"config": {"batch_input_shape": [null, 1], "dtype": "float32", "sparse": false, "name": "OnOff_C1"}, "name": "OnOff_C1", "inbound_nodes": [], "class_name": "InputLayer"}, {"config": {"bias_regularizer": null, "bias_constraint": null, "activity_regularizer": null, "trainable": true, "bias_initializer": {"config": {}, "class_name": "Zeros"}, "use_bias": true, "name": "C1_o", "kernel_regularizer": {"config": {"l2": 2.9999999242136255e-05, "l1": 0.0}, "class_name": "L1L2"}, "units": 1, "activation": "relu", "kernel_constraint": null, "kernel_initializer": {"config": {"mode": "fan_avg", "seed": 3014, "scale": 1.0, "distribution": "normal"}, "class_name": "VarianceScaling"}}, "name": "C1_o", "inbound_nodes": [[["C1_1", 0, 0, {}]]], "class_name": "Dense"}, {"config": {"batch_input_shape": [null, 1], "dtype": "float32", "sparse": false, "name": "OnOff_C2"}, "name": "OnOff_C2", "inbound_nodes": [], "class_name": "InputLayer"}, {"config": {"bias_regularizer": null, "bias_constraint": null, "activity_regularizer": null, "trainable": true, "bias_initializer": {"config": {}, "class_name": "Zeros"}, "use_bias": true, "name": "C2_o", "kernel_regularizer": {"config": {"l2": 2.9999999242136255e-05, "l1": 0.0}, "class_name": "L1L2"}, "units": 1, "activation": "relu", "kernel_constraint": null, "kernel_initializer": {"config": {"mode": "fan_avg", "seed": 3014, "scale": 1.0, "distribution": "normal"}, "class_name": "VarianceScaling"}}, "name": "C2_o", "inbound_nodes": [[["C2_1", 0, 0, {}]]], "class_name": "Dense"}, {"config": {"batch_input_shape": [null, 1], "dtype": "float32", "sparse": false, "name": "OnOff_C3"}, "name": "OnOff_C3", "inbound_nodes": [], "class_name": "InputLayer"}, {"config": {"bias_regularizer": null, "bias_constraint": null, "activity_regularizer": null, "trainable": true, "bias_initializer": {"config": {}, "class_name": "Zeros"}, "use_bias": true, "name": "C3_o", "kernel_regularizer": {"config": {"l2": 2.9999999242136255e-05, "l1": 0.0}, "class_name": "L1L2"}, "units": 1, "activation": "relu", "kernel_constraint": null, "kernel_initializer": {"config": {"mode": "fan_avg", "seed": 3014, "scale": 1.0, "distribution": "normal"}, "class_name": "VarianceScaling"}}, "name": "C3_o", "inbound_nodes": [[["C3_1", 0, 0, {}]]], "class_name": "Dense"}, {"config": {"batch_input_shape": [null, 1], "dtype": "float32", "sparse": false, "name": "OnOff_C4"}, "name": "OnOff_C4", "inbound_nodes": [], "class_name": "InputLayer"}, {"config": {"bias_regularizer": null, "bias_constraint": null, "activity_regularizer": null, "trainable": true, "bias_initializer": {"config": {}, "class_name": "Zeros"}, "use_bias": true, "name": "C4_o", "kernel_regularizer": {"config": {"l2": 2.9999999242136255e-05, "l1": 0.0}, "class_name": "L1L2"}, "units": 1, "activation": "relu", "kernel_constraint": null, "kernel_initializer": {"config": {"mode": "fan_avg", "seed": 3014, "scale": 1.0, "distribution": "normal"}, "class_name": "VarianceScaling"}}, "name": "C4_o", "inbound_nodes": [[["C4_1", 0, 0, {}]]], "class_name": "Dense"}, {"config": {"batch_input_shape": [null, 1], "dtype": "float32", "sparse": false, "name": "OnOff_B1"}, "name": "OnOff_B1", "inbound_nodes": [], "class_name": "InputLayer"}, {"config": {"bias_regularizer": null, "bias_constraint": null, "activity_regularizer": null, "trainable": true, "bias_initializer": {"config": {}, "class_name": "Zeros"}, "use_bias": true, "name": "B1_o", "kernel_regularizer": {"config": {"l2": 2.9999999242136255e-05, "l1": 0.0}, "class_name": "L1L2"}, "units": 1, "activation": "relu", "kernel_constraint": null, "kernel_initializer": {"config": {"mode": "fan_avg", "seed": 3014, "scale": 1.0, "distribution": "normal"}, "class_name": "VarianceScaling"}}, "name": "B1_o", "inbound_nodes": [[["B1_1", 0, 0, {}]]], "class_name": "Dense"}, {"config": {"batch_input_shape": [null, 1], "dtype": "float32", "sparse": false, "name": "OnOff_B3"}, "name": "OnOff_B3", "inbound_nodes": [], "class_name": "InputLayer"}, {"config": {"bias_regularizer": null, "bias_constraint": null, "activity_regularizer": null, "trainable": true, "bias_initializer": {"config": {}, "class_name": "Zeros"}, "use_bias": true, "name": "B3_o", "kernel_regularizer": {"config": {"l2": 2.9999999242136255e-05, "l1": 0.0}, "class_name": "L1L2"}, "units": 1, "activation": "relu", "kernel_constraint": null, "kernel_initializer": {"config": {"mode": "fan_avg", "seed": 3014, "scale": 1.0, "distribution": "normal"}, "class_name": "VarianceScaling"}}, "name": "B3_o", "inbound_nodes": [[["B3_1", 0, 0, {}]]], "class_name": "Dense"}, {"config": {"batch_input_shape": [null, 1], "dtype": "float32", "sparse": false, "name": "OnOff_D1"}, "name": "OnOff_D1", "inbound_nodes": [], "class_name": "InputLayer"}, {"config": {"bias_regularizer": null, "bias_constraint": null, "activity_regularizer": null, "trainable": true, "bias_initializer": {"config": {}, "class_name": "Zeros"}, "use_bias": true, "name": "D1_o", "kernel_regularizer": {"config": {"l2": 2.9999999242136255e-05, "l1": 0.0}, "class_name": "L1L2"}, "units": 1, "activation": "relu", "kernel_constraint": null, "kernel_initializer": {"config": {"mode": "fan_avg", "seed": 3014, "scale": 1.0, "distribution": "normal"}, "class_name": "VarianceScaling"}}, "name": "D1_o", "inbound_nodes": [[["D1_1", 0, 0, {}]]], "class_name": "Dense"}, {"config": {"name": "C1_out", "trainable": true}, "name": "C1_out", "inbound_nodes": [[["OnOff_C1", 0, 0, {}], ["C1_o", 0, 0, {}]]], "class_name": "Multiply"}, {"config": {"name": "C2_out", "trainable": true}, "name": "C2_out", "inbound_nodes": [[["OnOff_C2", 0, 0, {}], ["C2_o", 0, 0, {}]]], "class_name": "Multiply"}, {"config": {"name": "C3_out", "trainable": true}, "name": "C3_out", "inbound_nodes": [[["OnOff_C3", 0, 0, {}], ["C3_o", 0, 0, {}]]], "class_name": "Multiply"}, {"config": {"name": "C4_out", "trainable": true}, "name": "C4_out", "inbound_nodes": [[["OnOff_C4", 0, 0, {}], ["C4_o", 0, 0, {}]]], "class_name": "Multiply"}, {"config": {"name": "B1_out", "trainable": true}, "name": "B1_out", "inbound_nodes": [[["OnOff_B1", 0, 0, {}], ["B1_o", 0, 0, {}]]], "class_name": "Multiply"}, {"config": {"name": "B3_out", "trainable": true}, "name": "B3_out", "inbound_nodes": [[["OnOff_B3", 0, 0, {}], ["B3_o", 0, 0, {}]]], "class_name": "Multiply"}, {"config": {"name": "D1_out", "trainable": true}, "name": "D1_out", "inbound_nodes": [[["OnOff_D1", 0, 0, {}], ["D1_o", 0, 0, {}]]], "class_name": "Multiply"}, {"config": {"name": "GJOA_TOTAL", "trainable": true}, "name": "GJOA_TOTAL", "inbound_nodes": [[["C1_out", 0, 0, {}], ["C2_out", 0, 0, {}], ["C3_out", 0, 0, {}], ["C4_out", 0, 0, {}], ["B1_out", 0, 0, {}], ["B3_out", 0, 0, {}], ["D1_out", 0, 0, {}]]], "class_name": "Add"}]}, "backend": "theano", "keras_version": "2.0.1", "class_name": "Model"}