{"class_name": "Model", "backend": "theano", "config": {"name": "model_2", "layers": [{"class_name": "InputLayer", "name": "C1", "inbound_nodes": [], "config": {"dtype": "float32", "batch_input_shape": [null, 4], "sparse": false, "name": "C1"}}, {"class_name": "InputLayer", "name": "C2", "inbound_nodes": [], "config": {"dtype": "float32", "batch_input_shape": [null, 3], "sparse": false, "name": "C2"}}, {"class_name": "InputLayer", "name": "C3", "inbound_nodes": [], "config": {"dtype": "float32", "batch_input_shape": [null, 4], "sparse": false, "name": "C3"}}, {"class_name": "InputLayer", "name": "C4", "inbound_nodes": [], "config": {"dtype": "float32", "batch_input_shape": [null, 4], "sparse": false, "name": "C4"}}, {"class_name": "InputLayer", "name": "B1", "inbound_nodes": [], "config": {"dtype": "float32", "batch_input_shape": [null, 4], "sparse": false, "name": "B1"}}, {"class_name": "InputLayer", "name": "B3", "inbound_nodes": [], "config": {"dtype": "float32", "batch_input_shape": [null, 4], "sparse": false, "name": "B3"}}, {"class_name": "InputLayer", "name": "D1", "inbound_nodes": [], "config": {"dtype": "float32", "batch_input_shape": [null, 3], "sparse": false, "name": "D1"}}, {"class_name": "Dense", "name": "dense_22", "inbound_nodes": [[["C1", 0, 0, {}]]], "config": {"name": "dense_22", "activation": "relu", "kernel_initializer": {"class_name": "VarianceScaling", "config": {"distribution": "normal", "seed": 9035, "mode": "fan_avg", "scale": 1.0}}, "bias_regularizer": null, "kernel_constraint": null, "activity_regularizer": null, "units": 20, "trainable": true, "bias_initializer": {"class_name": "Zeros", "config": {}}, "bias_constraint": null, "kernel_regularizer": {"class_name": "L1L2", "config": {"l2": 4.999999873689376e-05, "l1": 0.0}}, "use_bias": true}}, {"class_name": "Dense", "name": "dense_25", "inbound_nodes": [[["C2", 0, 0, {}]]], "config": {"name": "dense_25", "activation": "relu", "kernel_initializer": {"class_name": "VarianceScaling", "config": {"distribution": "normal", "seed": 9035, "mode": "fan_avg", "scale": 1.0}}, "bias_regularizer": null, "kernel_constraint": null, "activity_regularizer": null, "units": 20, "trainable": true, "bias_initializer": {"class_name": "Zeros", "config": {}}, "bias_constraint": null, "kernel_regularizer": {"class_name": "L1L2", "config": {"l2": 4.999999873689376e-05, "l1": 0.0}}, "use_bias": true}}, {"class_name": "Dense", "name": "dense_28", "inbound_nodes": [[["C3", 0, 0, {}]]], "config": {"name": "dense_28", "activation": "relu", "kernel_initializer": {"class_name": "VarianceScaling", "config": {"distribution": "normal", "seed": 9035, "mode": "fan_avg", "scale": 1.0}}, "bias_regularizer": null, "kernel_constraint": null, "activity_regularizer": null, "units": 20, "trainable": true, "bias_initializer": {"class_name": "Zeros", "config": {}}, "bias_constraint": null, "kernel_regularizer": {"class_name": "L1L2", "config": {"l2": 4.999999873689376e-05, "l1": 0.0}}, "use_bias": true}}, {"class_name": "Dense", "name": "dense_31", "inbound_nodes": [[["C4", 0, 0, {}]]], "config": {"name": "dense_31", "activation": "relu", "kernel_initializer": {"class_name": "VarianceScaling", "config": {"distribution": "normal", "seed": 9035, "mode": "fan_avg", "scale": 1.0}}, "bias_regularizer": null, "kernel_constraint": null, "activity_regularizer": null, "units": 20, "trainable": true, "bias_initializer": {"class_name": "Zeros", "config": {}}, "bias_constraint": null, "kernel_regularizer": {"class_name": "L1L2", "config": {"l2": 4.999999873689376e-05, "l1": 0.0}}, "use_bias": true}}, {"class_name": "Dense", "name": "dense_34", "inbound_nodes": [[["B1", 0, 0, {}]]], "config": {"name": "dense_34", "activation": "relu", "kernel_initializer": {"class_name": "VarianceScaling", "config": {"distribution": "normal", "seed": 9035, "mode": "fan_avg", "scale": 1.0}}, "bias_regularizer": null, "kernel_constraint": null, "activity_regularizer": null, "units": 20, "trainable": true, "bias_initializer": {"class_name": "Zeros", "config": {}}, "bias_constraint": null, "kernel_regularizer": {"class_name": "L1L2", "config": {"l2": 4.999999873689376e-05, "l1": 0.0}}, "use_bias": true}}, {"class_name": "Dense", "name": "dense_37", "inbound_nodes": [[["B3", 0, 0, {}]]], "config": {"name": "dense_37", "activation": "relu", "kernel_initializer": {"class_name": "VarianceScaling", "config": {"distribution": "normal", "seed": 9035, "mode": "fan_avg", "scale": 1.0}}, "bias_regularizer": null, "kernel_constraint": null, "activity_regularizer": null, "units": 20, "trainable": true, "bias_initializer": {"class_name": "Zeros", "config": {}}, "bias_constraint": null, "kernel_regularizer": {"class_name": "L1L2", "config": {"l2": 4.999999873689376e-05, "l1": 0.0}}, "use_bias": true}}, {"class_name": "Dense", "name": "dense_40", "inbound_nodes": [[["D1", 0, 0, {}]]], "config": {"name": "dense_40", "activation": "relu", "kernel_initializer": {"class_name": "VarianceScaling", "config": {"distribution": "normal", "seed": 9035, "mode": "fan_avg", "scale": 1.0}}, "bias_regularizer": null, "kernel_constraint": null, "activity_regularizer": null, "units": 20, "trainable": true, "bias_initializer": {"class_name": "Zeros", "config": {}}, "bias_constraint": null, "kernel_regularizer": {"class_name": "L1L2", "config": {"l2": 4.999999873689376e-05, "l1": 0.0}}, "use_bias": true}}, {"class_name": "Dense", "name": "dense_23", "inbound_nodes": [[["dense_22", 0, 0, {}]]], "config": {"name": "dense_23", "activation": "relu", "kernel_initializer": {"class_name": "VarianceScaling", "config": {"distribution": "normal", "seed": 9035, "mode": "fan_avg", "scale": 1.0}}, "bias_regularizer": null, "kernel_constraint": null, "activity_regularizer": null, "units": 20, "trainable": true, "bias_initializer": {"class_name": "Zeros", "config": {}}, "bias_constraint": null, "kernel_regularizer": {"class_name": "L1L2", "config": {"l2": 4.999999873689376e-05, "l1": 0.0}}, "use_bias": true}}, {"class_name": "Dense", "name": "dense_26", "inbound_nodes": [[["dense_25", 0, 0, {}]]], "config": {"name": "dense_26", "activation": "relu", "kernel_initializer": {"class_name": "VarianceScaling", "config": {"distribution": "normal", "seed": 9035, "mode": "fan_avg", "scale": 1.0}}, "bias_regularizer": null, "kernel_constraint": null, "activity_regularizer": null, "units": 20, "trainable": true, "bias_initializer": {"class_name": "Zeros", "config": {}}, "bias_constraint": null, "kernel_regularizer": {"class_name": "L1L2", "config": {"l2": 4.999999873689376e-05, "l1": 0.0}}, "use_bias": true}}, {"class_name": "Dense", "name": "dense_29", "inbound_nodes": [[["dense_28", 0, 0, {}]]], "config": {"name": "dense_29", "activation": "relu", "kernel_initializer": {"class_name": "VarianceScaling", "config": {"distribution": "normal", "seed": 9035, "mode": "fan_avg", "scale": 1.0}}, "bias_regularizer": null, "kernel_constraint": null, "activity_regularizer": null, "units": 20, "trainable": true, "bias_initializer": {"class_name": "Zeros", "config": {}}, "bias_constraint": null, "kernel_regularizer": {"class_name": "L1L2", "config": {"l2": 4.999999873689376e-05, "l1": 0.0}}, "use_bias": true}}, {"class_name": "Dense", "name": "dense_32", "inbound_nodes": [[["dense_31", 0, 0, {}]]], "config": {"name": "dense_32", "activation": "relu", "kernel_initializer": {"class_name": "VarianceScaling", "config": {"distribution": "normal", "seed": 9035, "mode": "fan_avg", "scale": 1.0}}, "bias_regularizer": null, "kernel_constraint": null, "activity_regularizer": null, "units": 20, "trainable": true, "bias_initializer": {"class_name": "Zeros", "config": {}}, "bias_constraint": null, "kernel_regularizer": {"class_name": "L1L2", "config": {"l2": 4.999999873689376e-05, "l1": 0.0}}, "use_bias": true}}, {"class_name": "Dense", "name": "dense_35", "inbound_nodes": [[["dense_34", 0, 0, {}]]], "config": {"name": "dense_35", "activation": "relu", "kernel_initializer": {"class_name": "VarianceScaling", "config": {"distribution": "normal", "seed": 9035, "mode": "fan_avg", "scale": 1.0}}, "bias_regularizer": null, "kernel_constraint": null, "activity_regularizer": null, "units": 20, "trainable": true, "bias_initializer": {"class_name": "Zeros", "config": {}}, "bias_constraint": null, "kernel_regularizer": {"class_name": "L1L2", "config": {"l2": 4.999999873689376e-05, "l1": 0.0}}, "use_bias": true}}, {"class_name": "Dense", "name": "dense_38", "inbound_nodes": [[["dense_37", 0, 0, {}]]], "config": {"name": "dense_38", "activation": "relu", "kernel_initializer": {"class_name": "VarianceScaling", "config": {"distribution": "normal", "seed": 9035, "mode": "fan_avg", "scale": 1.0}}, "bias_regularizer": null, "kernel_constraint": null, "activity_regularizer": null, "units": 20, "trainable": true, "bias_initializer": {"class_name": "Zeros", "config": {}}, "bias_constraint": null, "kernel_regularizer": {"class_name": "L1L2", "config": {"l2": 4.999999873689376e-05, "l1": 0.0}}, "use_bias": true}}, {"class_name": "Dense", "name": "dense_41", "inbound_nodes": [[["dense_40", 0, 0, {}]]], "config": {"name": "dense_41", "activation": "relu", "kernel_initializer": {"class_name": "VarianceScaling", "config": {"distribution": "normal", "seed": 9035, "mode": "fan_avg", "scale": 1.0}}, "bias_regularizer": null, "kernel_constraint": null, "activity_regularizer": null, "units": 20, "trainable": true, "bias_initializer": {"class_name": "Zeros", "config": {}}, "bias_constraint": null, "kernel_regularizer": {"class_name": "L1L2", "config": {"l2": 4.999999873689376e-05, "l1": 0.0}}, "use_bias": true}}, {"class_name": "InputLayer", "name": "OnOff_C1", "inbound_nodes": [], "config": {"dtype": "float32", "batch_input_shape": [null, 1], "sparse": false, "name": "OnOff_C1"}}, {"class_name": "Dense", "name": "dense_24", "inbound_nodes": [[["dense_23", 0, 0, {}]]], "config": {"name": "dense_24", "activation": "relu", "kernel_initializer": {"class_name": "VarianceScaling", "config": {"distribution": "normal", "seed": 9035, "mode": "fan_avg", "scale": 1.0}}, "bias_regularizer": null, "kernel_constraint": null, "activity_regularizer": null, "units": 1, "trainable": true, "bias_initializer": {"class_name": "Zeros", "config": {}}, "bias_constraint": null, "kernel_regularizer": {"class_name": "L1L2", "config": {"l2": 4.999999873689376e-05, "l1": 0.0}}, "use_bias": true}}, {"class_name": "InputLayer", "name": "OnOff_C2", "inbound_nodes": [], "config": {"dtype": "float32", "batch_input_shape": [null, 1], "sparse": false, "name": "OnOff_C2"}}, {"class_name": "Dense", "name": "dense_27", "inbound_nodes": [[["dense_26", 0, 0, {}]]], "config": {"name": "dense_27", "activation": "relu", "kernel_initializer": {"class_name": "VarianceScaling", "config": {"distribution": "normal", "seed": 9035, "mode": "fan_avg", "scale": 1.0}}, "bias_regularizer": null, "kernel_constraint": null, "activity_regularizer": null, "units": 1, "trainable": true, "bias_initializer": {"class_name": "Zeros", "config": {}}, "bias_constraint": null, "kernel_regularizer": {"class_name": "L1L2", "config": {"l2": 4.999999873689376e-05, "l1": 0.0}}, "use_bias": true}}, {"class_name": "InputLayer", "name": "OnOff_C3", "inbound_nodes": [], "config": {"dtype": "float32", "batch_input_shape": [null, 1], "sparse": false, "name": "OnOff_C3"}}, {"class_name": "Dense", "name": "dense_30", "inbound_nodes": [[["dense_29", 0, 0, {}]]], "config": {"name": "dense_30", "activation": "relu", "kernel_initializer": {"class_name": "VarianceScaling", "config": {"distribution": "normal", "seed": 9035, "mode": "fan_avg", "scale": 1.0}}, "bias_regularizer": null, "kernel_constraint": null, "activity_regularizer": null, "units": 1, "trainable": true, "bias_initializer": {"class_name": "Zeros", "config": {}}, "bias_constraint": null, "kernel_regularizer": {"class_name": "L1L2", "config": {"l2": 4.999999873689376e-05, "l1": 0.0}}, "use_bias": true}}, {"class_name": "InputLayer", "name": "OnOff_C4", "inbound_nodes": [], "config": {"dtype": "float32", "batch_input_shape": [null, 1], "sparse": false, "name": "OnOff_C4"}}, {"class_name": "Dense", "name": "dense_33", "inbound_nodes": [[["dense_32", 0, 0, {}]]], "config": {"name": "dense_33", "activation": "relu", "kernel_initializer": {"class_name": "VarianceScaling", "config": {"distribution": "normal", "seed": 9035, "mode": "fan_avg", "scale": 1.0}}, "bias_regularizer": null, "kernel_constraint": null, "activity_regularizer": null, "units": 1, "trainable": true, "bias_initializer": {"class_name": "Zeros", "config": {}}, "bias_constraint": null, "kernel_regularizer": {"class_name": "L1L2", "config": {"l2": 4.999999873689376e-05, "l1": 0.0}}, "use_bias": true}}, {"class_name": "InputLayer", "name": "OnOff_B1", "inbound_nodes": [], "config": {"dtype": "float32", "batch_input_shape": [null, 1], "sparse": false, "name": "OnOff_B1"}}, {"class_name": "Dense", "name": "dense_36", "inbound_nodes": [[["dense_35", 0, 0, {}]]], "config": {"name": "dense_36", "activation": "relu", "kernel_initializer": {"class_name": "VarianceScaling", "config": {"distribution": "normal", "seed": 9035, "mode": "fan_avg", "scale": 1.0}}, "bias_regularizer": null, "kernel_constraint": null, "activity_regularizer": null, "units": 1, "trainable": true, "bias_initializer": {"class_name": "Zeros", "config": {}}, "bias_constraint": null, "kernel_regularizer": {"class_name": "L1L2", "config": {"l2": 4.999999873689376e-05, "l1": 0.0}}, "use_bias": true}}, {"class_name": "InputLayer", "name": "OnOff_B3", "inbound_nodes": [], "config": {"dtype": "float32", "batch_input_shape": [null, 1], "sparse": false, "name": "OnOff_B3"}}, {"class_name": "Dense", "name": "dense_39", "inbound_nodes": [[["dense_38", 0, 0, {}]]], "config": {"name": "dense_39", "activation": "relu", "kernel_initializer": {"class_name": "VarianceScaling", "config": {"distribution": "normal", "seed": 9035, "mode": "fan_avg", "scale": 1.0}}, "bias_regularizer": null, "kernel_constraint": null, "activity_regularizer": null, "units": 1, "trainable": true, "bias_initializer": {"class_name": "Zeros", "config": {}}, "bias_constraint": null, "kernel_regularizer": {"class_name": "L1L2", "config": {"l2": 4.999999873689376e-05, "l1": 0.0}}, "use_bias": true}}, {"class_name": "InputLayer", "name": "OnOff_D1", "inbound_nodes": [], "config": {"dtype": "float32", "batch_input_shape": [null, 1], "sparse": false, "name": "OnOff_D1"}}, {"class_name": "Dense", "name": "dense_42", "inbound_nodes": [[["dense_41", 0, 0, {}]]], "config": {"name": "dense_42", "activation": "relu", "kernel_initializer": {"class_name": "VarianceScaling", "config": {"distribution": "normal", "seed": 9035, "mode": "fan_avg", "scale": 1.0}}, "bias_regularizer": null, "kernel_constraint": null, "activity_regularizer": null, "units": 1, "trainable": true, "bias_initializer": {"class_name": "Zeros", "config": {}}, "bias_constraint": null, "kernel_regularizer": {"class_name": "L1L2", "config": {"l2": 4.999999873689376e-05, "l1": 0.0}}, "use_bias": true}}, {"class_name": "Multiply", "name": "C1_out", "inbound_nodes": [[["OnOff_C1", 0, 0, {}], ["dense_24", 0, 0, {}]]], "config": {"name": "C1_out", "trainable": true}}, {"class_name": "Multiply", "name": "C2_out", "inbound_nodes": [[["OnOff_C2", 0, 0, {}], ["dense_27", 0, 0, {}]]], "config": {"name": "C2_out", "trainable": true}}, {"class_name": "Multiply", "name": "C3_out", "inbound_nodes": [[["OnOff_C3", 0, 0, {}], ["dense_30", 0, 0, {}]]], "config": {"name": "C3_out", "trainable": true}}, {"class_name": "Multiply", "name": "C4_out", "inbound_nodes": [[["OnOff_C4", 0, 0, {}], ["dense_33", 0, 0, {}]]], "config": {"name": "C4_out", "trainable": true}}, {"class_name": "Multiply", "name": "B1_out", "inbound_nodes": [[["OnOff_B1", 0, 0, {}], ["dense_36", 0, 0, {}]]], "config": {"name": "B1_out", "trainable": true}}, {"class_name": "Multiply", "name": "B3_out", "inbound_nodes": [[["OnOff_B3", 0, 0, {}], ["dense_39", 0, 0, {}]]], "config": {"name": "B3_out", "trainable": true}}, {"class_name": "Multiply", "name": "D1_out", "inbound_nodes": [[["OnOff_D1", 0, 0, {}], ["dense_42", 0, 0, {}]]], "config": {"name": "D1_out", "trainable": true}}, {"class_name": "Add", "name": "GJOA_TOTAL", "inbound_nodes": [[["C1_out", 0, 0, {}], ["C2_out", 0, 0, {}], ["C3_out", 0, 0, {}], ["C4_out", 0, 0, {}], ["B1_out", 0, 0, {}], ["B3_out", 0, 0, {}], ["D1_out", 0, 0, {}]]], "config": {"name": "GJOA_TOTAL", "trainable": true}}], "input_layers": [["C1", 0, 0], ["C2", 0, 0], ["C3", 0, 0], ["C4", 0, 0], ["B1", 0, 0], ["B3", 0, 0], ["D1", 0, 0], ["OnOff_C1", 0, 0], ["OnOff_C2", 0, 0], ["OnOff_C3", 0, 0], ["OnOff_C4", 0, 0], ["OnOff_B1", 0, 0], ["OnOff_B3", 0, 0], ["OnOff_D1", 0, 0]], "output_layers": [["C1_out", 0, 0], ["C2_out", 0, 0], ["C3_out", 0, 0], ["C4_out", 0, 0], ["B1_out", 0, 0], ["B3_out", 0, 0], ["D1_out", 0, 0], ["GJOA_TOTAL", 0, 0]]}, "keras_version": "2.0.1"}