{"class_name": "Model", "backend": "theano", "keras_version": "2.0.1", "config": {"input_layers": [["C1", 0, 0], ["C2", 0, 0], ["C3", 0, 0], ["C4", 0, 0], ["B1", 0, 0], ["B3", 0, 0], ["D1", 0, 0], ["OnOff_C1", 0, 0], ["OnOff_C2", 0, 0], ["OnOff_C3", 0, 0], ["OnOff_C4", 0, 0], ["OnOff_B1", 0, 0], ["OnOff_B3", 0, 0], ["OnOff_D1", 0, 0]], "layers": [{"inbound_nodes": [], "class_name": "InputLayer", "name": "C1", "config": {"dtype": "float32", "name": "C1", "batch_input_shape": [null, 4], "sparse": false}}, {"inbound_nodes": [], "class_name": "InputLayer", "name": "C2", "config": {"dtype": "float32", "name": "C2", "batch_input_shape": [null, 3], "sparse": false}}, {"inbound_nodes": [], "class_name": "InputLayer", "name": "C3", "config": {"dtype": "float32", "name": "C3", "batch_input_shape": [null, 4], "sparse": false}}, {"inbound_nodes": [], "class_name": "InputLayer", "name": "C4", "config": {"dtype": "float32", "name": "C4", "batch_input_shape": [null, 4], "sparse": false}}, {"inbound_nodes": [], "class_name": "InputLayer", "name": "B1", "config": {"dtype": "float32", "name": "B1", "batch_input_shape": [null, 4], "sparse": false}}, {"inbound_nodes": [], "class_name": "InputLayer", "name": "B3", "config": {"dtype": "float32", "name": "B3", "batch_input_shape": [null, 4], "sparse": false}}, {"inbound_nodes": [], "class_name": "InputLayer", "name": "D1", "config": {"dtype": "float32", "name": "D1", "batch_input_shape": [null, 3], "sparse": false}}, {"inbound_nodes": [[["C1", 0, 0, {}]]], "class_name": "Dense", "name": "C1_0", "config": {"use_bias": true, "bias_constraint": null, "name": "C1_0", "activity_regularizer": null, "bias_regularizer": null, "kernel_initializer": {"class_name": "VarianceScaling", "config": {"scale": 1.0, "seed": 3014, "mode": "fan_avg", "distribution": "normal"}}, "bias_initializer": {"class_name": "Zeros", "config": {}}, "units": 100, "trainable": true, "activation": "relu", "kernel_constraint": null, "kernel_regularizer": {"class_name": "L1L2", "config": {"l2": 0.00019999999494757503, "l1": 0.0}}}}, {"inbound_nodes": [[["C2", 0, 0, {}]]], "class_name": "Dense", "name": "C2_0", "config": {"use_bias": true, "bias_constraint": null, "name": "C2_0", "activity_regularizer": null, "bias_regularizer": null, "kernel_initializer": {"class_name": "VarianceScaling", "config": {"scale": 1.0, "seed": 3014, "mode": "fan_avg", "distribution": "normal"}}, "bias_initializer": {"class_name": "Zeros", "config": {}}, "units": 100, "trainable": true, "activation": "relu", "kernel_constraint": null, "kernel_regularizer": {"class_name": "L1L2", "config": {"l2": 0.00019999999494757503, "l1": 0.0}}}}, {"inbound_nodes": [[["C3", 0, 0, {}]]], "class_name": "Dense", "name": "C3_0", "config": {"use_bias": true, "bias_constraint": null, "name": "C3_0", "activity_regularizer": null, "bias_regularizer": null, "kernel_initializer": {"class_name": "VarianceScaling", "config": {"scale": 1.0, "seed": 3014, "mode": "fan_avg", "distribution": "normal"}}, "bias_initializer": {"class_name": "Zeros", "config": {}}, "units": 100, "trainable": true, "activation": "relu", "kernel_constraint": null, "kernel_regularizer": {"class_name": "L1L2", "config": {"l2": 0.00019999999494757503, "l1": 0.0}}}}, {"inbound_nodes": [[["C4", 0, 0, {}]]], "class_name": "Dense", "name": "C4_0", "config": {"use_bias": true, "bias_constraint": null, "name": "C4_0", "activity_regularizer": null, "bias_regularizer": null, "kernel_initializer": {"class_name": "VarianceScaling", "config": {"scale": 1.0, "seed": 3014, "mode": "fan_avg", "distribution": "normal"}}, "bias_initializer": {"class_name": "Zeros", "config": {}}, "units": 100, "trainable": true, "activation": "relu", "kernel_constraint": null, "kernel_regularizer": {"class_name": "L1L2", "config": {"l2": 0.00019999999494757503, "l1": 0.0}}}}, {"inbound_nodes": [[["B1", 0, 0, {}]]], "class_name": "Dense", "name": "B1_0", "config": {"use_bias": true, "bias_constraint": null, "name": "B1_0", "activity_regularizer": null, "bias_regularizer": null, "kernel_initializer": {"class_name": "VarianceScaling", "config": {"scale": 1.0, "seed": 3014, "mode": "fan_avg", "distribution": "normal"}}, "bias_initializer": {"class_name": "Zeros", "config": {}}, "units": 100, "trainable": true, "activation": "relu", "kernel_constraint": null, "kernel_regularizer": {"class_name": "L1L2", "config": {"l2": 0.00019999999494757503, "l1": 0.0}}}}, {"inbound_nodes": [[["B3", 0, 0, {}]]], "class_name": "Dense", "name": "B3_0", "config": {"use_bias": true, "bias_constraint": null, "name": "B3_0", "activity_regularizer": null, "bias_regularizer": null, "kernel_initializer": {"class_name": "VarianceScaling", "config": {"scale": 1.0, "seed": 3014, "mode": "fan_avg", "distribution": "normal"}}, "bias_initializer": {"class_name": "Zeros", "config": {}}, "units": 100, "trainable": true, "activation": "relu", "kernel_constraint": null, "kernel_regularizer": {"class_name": "L1L2", "config": {"l2": 0.00019999999494757503, "l1": 0.0}}}}, {"inbound_nodes": [[["D1", 0, 0, {}]]], "class_name": "Dense", "name": "D1_0", "config": {"use_bias": true, "bias_constraint": null, "name": "D1_0", "activity_regularizer": null, "bias_regularizer": null, "kernel_initializer": {"class_name": "VarianceScaling", "config": {"scale": 1.0, "seed": 3014, "mode": "fan_avg", "distribution": "normal"}}, "bias_initializer": {"class_name": "Zeros", "config": {}}, "units": 100, "trainable": true, "activation": "relu", "kernel_constraint": null, "kernel_regularizer": {"class_name": "L1L2", "config": {"l2": 0.00019999999494757503, "l1": 0.0}}}}, {"inbound_nodes": [[["C1_0", 0, 0, {}]]], "class_name": "Dense", "name": "C1_1", "config": {"use_bias": true, "bias_constraint": null, "name": "C1_1", "activity_regularizer": null, "bias_regularizer": null, "kernel_initializer": {"class_name": "VarianceScaling", "config": {"scale": 1.0, "seed": 3014, "mode": "fan_avg", "distribution": "normal"}}, "bias_initializer": {"class_name": "Zeros", "config": {}}, "units": 100, "trainable": true, "activation": "relu", "kernel_constraint": null, "kernel_regularizer": {"class_name": "L1L2", "config": {"l2": 0.00019999999494757503, "l1": 0.0}}}}, {"inbound_nodes": [[["C2_0", 0, 0, {}]]], "class_name": "Dense", "name": "C2_1", "config": {"use_bias": true, "bias_constraint": null, "name": "C2_1", "activity_regularizer": null, "bias_regularizer": null, "kernel_initializer": {"class_name": "VarianceScaling", "config": {"scale": 1.0, "seed": 3014, "mode": "fan_avg", "distribution": "normal"}}, "bias_initializer": {"class_name": "Zeros", "config": {}}, "units": 100, "trainable": true, "activation": "relu", "kernel_constraint": null, "kernel_regularizer": {"class_name": "L1L2", "config": {"l2": 0.00019999999494757503, "l1": 0.0}}}}, {"inbound_nodes": [[["C3_0", 0, 0, {}]]], "class_name": "Dense", "name": "C3_1", "config": {"use_bias": true, "bias_constraint": null, "name": "C3_1", "activity_regularizer": null, "bias_regularizer": null, "kernel_initializer": {"class_name": "VarianceScaling", "config": {"scale": 1.0, "seed": 3014, "mode": "fan_avg", "distribution": "normal"}}, "bias_initializer": {"class_name": "Zeros", "config": {}}, "units": 100, "trainable": true, "activation": "relu", "kernel_constraint": null, "kernel_regularizer": {"class_name": "L1L2", "config": {"l2": 0.00019999999494757503, "l1": 0.0}}}}, {"inbound_nodes": [[["C4_0", 0, 0, {}]]], "class_name": "Dense", "name": "C4_1", "config": {"use_bias": true, "bias_constraint": null, "name": "C4_1", "activity_regularizer": null, "bias_regularizer": null, "kernel_initializer": {"class_name": "VarianceScaling", "config": {"scale": 1.0, "seed": 3014, "mode": "fan_avg", "distribution": "normal"}}, "bias_initializer": {"class_name": "Zeros", "config": {}}, "units": 100, "trainable": true, "activation": "relu", "kernel_constraint": null, "kernel_regularizer": {"class_name": "L1L2", "config": {"l2": 0.00019999999494757503, "l1": 0.0}}}}, {"inbound_nodes": [[["B1_0", 0, 0, {}]]], "class_name": "Dense", "name": "B1_1", "config": {"use_bias": true, "bias_constraint": null, "name": "B1_1", "activity_regularizer": null, "bias_regularizer": null, "kernel_initializer": {"class_name": "VarianceScaling", "config": {"scale": 1.0, "seed": 3014, "mode": "fan_avg", "distribution": "normal"}}, "bias_initializer": {"class_name": "Zeros", "config": {}}, "units": 100, "trainable": true, "activation": "relu", "kernel_constraint": null, "kernel_regularizer": {"class_name": "L1L2", "config": {"l2": 0.00019999999494757503, "l1": 0.0}}}}, {"inbound_nodes": [[["B3_0", 0, 0, {}]]], "class_name": "Dense", "name": "B3_1", "config": {"use_bias": true, "bias_constraint": null, "name": "B3_1", "activity_regularizer": null, "bias_regularizer": null, "kernel_initializer": {"class_name": "VarianceScaling", "config": {"scale": 1.0, "seed": 3014, "mode": "fan_avg", "distribution": "normal"}}, "bias_initializer": {"class_name": "Zeros", "config": {}}, "units": 100, "trainable": true, "activation": "relu", "kernel_constraint": null, "kernel_regularizer": {"class_name": "L1L2", "config": {"l2": 0.00019999999494757503, "l1": 0.0}}}}, {"inbound_nodes": [[["D1_0", 0, 0, {}]]], "class_name": "Dense", "name": "D1_1", "config": {"use_bias": true, "bias_constraint": null, "name": "D1_1", "activity_regularizer": null, "bias_regularizer": null, "kernel_initializer": {"class_name": "VarianceScaling", "config": {"scale": 1.0, "seed": 3014, "mode": "fan_avg", "distribution": "normal"}}, "bias_initializer": {"class_name": "Zeros", "config": {}}, "units": 100, "trainable": true, "activation": "relu", "kernel_constraint": null, "kernel_regularizer": {"class_name": "L1L2", "config": {"l2": 0.00019999999494757503, "l1": 0.0}}}}, {"inbound_nodes": [], "class_name": "InputLayer", "name": "OnOff_C1", "config": {"dtype": "float32", "name": "OnOff_C1", "batch_input_shape": [null, 1], "sparse": false}}, {"inbound_nodes": [[["C1_1", 0, 0, {}]]], "class_name": "Dense", "name": "C1_o", "config": {"use_bias": true, "bias_constraint": null, "name": "C1_o", "activity_regularizer": null, "bias_regularizer": null, "kernel_initializer": {"class_name": "VarianceScaling", "config": {"scale": 1.0, "seed": 3014, "mode": "fan_avg", "distribution": "normal"}}, "bias_initializer": {"class_name": "Zeros", "config": {}}, "units": 1, "trainable": true, "activation": "relu", "kernel_constraint": null, "kernel_regularizer": {"class_name": "L1L2", "config": {"l2": 0.00019999999494757503, "l1": 0.0}}}}, {"inbound_nodes": [], "class_name": "InputLayer", "name": "OnOff_C2", "config": {"dtype": "float32", "name": "OnOff_C2", "batch_input_shape": [null, 1], "sparse": false}}, {"inbound_nodes": [[["C2_1", 0, 0, {}]]], "class_name": "Dense", "name": "C2_o", "config": {"use_bias": true, "bias_constraint": null, "name": "C2_o", "activity_regularizer": null, "bias_regularizer": null, "kernel_initializer": {"class_name": "VarianceScaling", "config": {"scale": 1.0, "seed": 3014, "mode": "fan_avg", "distribution": "normal"}}, "bias_initializer": {"class_name": "Zeros", "config": {}}, "units": 1, "trainable": true, "activation": "relu", "kernel_constraint": null, "kernel_regularizer": {"class_name": "L1L2", "config": {"l2": 0.00019999999494757503, "l1": 0.0}}}}, {"inbound_nodes": [], "class_name": "InputLayer", "name": "OnOff_C3", "config": {"dtype": "float32", "name": "OnOff_C3", "batch_input_shape": [null, 1], "sparse": false}}, {"inbound_nodes": [[["C3_1", 0, 0, {}]]], "class_name": "Dense", "name": "C3_o", "config": {"use_bias": true, "bias_constraint": null, "name": "C3_o", "activity_regularizer": null, "bias_regularizer": null, "kernel_initializer": {"class_name": "VarianceScaling", "config": {"scale": 1.0, "seed": 3014, "mode": "fan_avg", "distribution": "normal"}}, "bias_initializer": {"class_name": "Zeros", "config": {}}, "units": 1, "trainable": true, "activation": "relu", "kernel_constraint": null, "kernel_regularizer": {"class_name": "L1L2", "config": {"l2": 0.00019999999494757503, "l1": 0.0}}}}, {"inbound_nodes": [], "class_name": "InputLayer", "name": "OnOff_C4", "config": {"dtype": "float32", "name": "OnOff_C4", "batch_input_shape": [null, 1], "sparse": false}}, {"inbound_nodes": [[["C4_1", 0, 0, {}]]], "class_name": "Dense", "name": "C4_o", "config": {"use_bias": true, "bias_constraint": null, "name": "C4_o", "activity_regularizer": null, "bias_regularizer": null, "kernel_initializer": {"class_name": "VarianceScaling", "config": {"scale": 1.0, "seed": 3014, "mode": "fan_avg", "distribution": "normal"}}, "bias_initializer": {"class_name": "Zeros", "config": {}}, "units": 1, "trainable": true, "activation": "relu", "kernel_constraint": null, "kernel_regularizer": {"class_name": "L1L2", "config": {"l2": 0.00019999999494757503, "l1": 0.0}}}}, {"inbound_nodes": [], "class_name": "InputLayer", "name": "OnOff_B1", "config": {"dtype": "float32", "name": "OnOff_B1", "batch_input_shape": [null, 1], "sparse": false}}, {"inbound_nodes": [[["B1_1", 0, 0, {}]]], "class_name": "Dense", "name": "B1_o", "config": {"use_bias": true, "bias_constraint": null, "name": "B1_o", "activity_regularizer": null, "bias_regularizer": null, "kernel_initializer": {"class_name": "VarianceScaling", "config": {"scale": 1.0, "seed": 3014, "mode": "fan_avg", "distribution": "normal"}}, "bias_initializer": {"class_name": "Zeros", "config": {}}, "units": 1, "trainable": true, "activation": "relu", "kernel_constraint": null, "kernel_regularizer": {"class_name": "L1L2", "config": {"l2": 0.00019999999494757503, "l1": 0.0}}}}, {"inbound_nodes": [], "class_name": "InputLayer", "name": "OnOff_B3", "config": {"dtype": "float32", "name": "OnOff_B3", "batch_input_shape": [null, 1], "sparse": false}}, {"inbound_nodes": [[["B3_1", 0, 0, {}]]], "class_name": "Dense", "name": "B3_o", "config": {"use_bias": true, "bias_constraint": null, "name": "B3_o", "activity_regularizer": null, "bias_regularizer": null, "kernel_initializer": {"class_name": "VarianceScaling", "config": {"scale": 1.0, "seed": 3014, "mode": "fan_avg", "distribution": "normal"}}, "bias_initializer": {"class_name": "Zeros", "config": {}}, "units": 1, "trainable": true, "activation": "relu", "kernel_constraint": null, "kernel_regularizer": {"class_name": "L1L2", "config": {"l2": 0.00019999999494757503, "l1": 0.0}}}}, {"inbound_nodes": [], "class_name": "InputLayer", "name": "OnOff_D1", "config": {"dtype": "float32", "name": "OnOff_D1", "batch_input_shape": [null, 1], "sparse": false}}, {"inbound_nodes": [[["D1_1", 0, 0, {}]]], "class_name": "Dense", "name": "D1_o", "config": {"use_bias": true, "bias_constraint": null, "name": "D1_o", "activity_regularizer": null, "bias_regularizer": null, "kernel_initializer": {"class_name": "VarianceScaling", "config": {"scale": 1.0, "seed": 3014, "mode": "fan_avg", "distribution": "normal"}}, "bias_initializer": {"class_name": "Zeros", "config": {}}, "units": 1, "trainable": true, "activation": "relu", "kernel_constraint": null, "kernel_regularizer": {"class_name": "L1L2", "config": {"l2": 0.00019999999494757503, "l1": 0.0}}}}, {"inbound_nodes": [[["OnOff_C1", 0, 0, {}], ["C1_o", 0, 0, {}]]], "class_name": "Multiply", "name": "C1_out", "config": {"name": "C1_out", "trainable": true}}, {"inbound_nodes": [[["OnOff_C2", 0, 0, {}], ["C2_o", 0, 0, {}]]], "class_name": "Multiply", "name": "C2_out", "config": {"name": "C2_out", "trainable": true}}, {"inbound_nodes": [[["OnOff_C3", 0, 0, {}], ["C3_o", 0, 0, {}]]], "class_name": "Multiply", "name": "C3_out", "config": {"name": "C3_out", "trainable": true}}, {"inbound_nodes": [[["OnOff_C4", 0, 0, {}], ["C4_o", 0, 0, {}]]], "class_name": "Multiply", "name": "C4_out", "config": {"name": "C4_out", "trainable": true}}, {"inbound_nodes": [[["OnOff_B1", 0, 0, {}], ["B1_o", 0, 0, {}]]], "class_name": "Multiply", "name": "B1_out", "config": {"name": "B1_out", "trainable": true}}, {"inbound_nodes": [[["OnOff_B3", 0, 0, {}], ["B3_o", 0, 0, {}]]], "class_name": "Multiply", "name": "B3_out", "config": {"name": "B3_out", "trainable": true}}, {"inbound_nodes": [[["OnOff_D1", 0, 0, {}], ["D1_o", 0, 0, {}]]], "class_name": "Multiply", "name": "D1_out", "config": {"name": "D1_out", "trainable": true}}, {"inbound_nodes": [[["C1_out", 0, 0, {}], ["C2_out", 0, 0, {}], ["C3_out", 0, 0, {}], ["C4_out", 0, 0, {}], ["B1_out", 0, 0, {}], ["B3_out", 0, 0, {}], ["D1_out", 0, 0, {}]]], "class_name": "Add", "name": "GJOA_TOTAL", "config": {"name": "GJOA_TOTAL", "trainable": true}}], "output_layers": [["C1_out", 0, 0], ["C2_out", 0, 0], ["C3_out", 0, 0], ["C4_out", 0, 0], ["B1_out", 0, 0], ["B3_out", 0, 0], ["D1_out", 0, 0], ["GJOA_TOTAL", 0, 0]], "name": "model_1"}}