{"backend": "theano", "config": {"name": "model_1", "output_layers": [["F1_PBH_out2", 0, 0], ["F1_PBH_out", 0, 0], ["B2_PBH_out2", 0, 0], ["B2_PBH_out", 0, 0], ["D3_PBH_out2", 0, 0], ["D3_PBH_out", 0, 0], ["E1_PBH_out2", 0, 0], ["E1_PBH_out", 0, 0]], "layers": [{"name": "CHK_INPUT_PREV", "config": {"name": "CHK_INPUT_PREV", "batch_input_shape": [null, 4], "dtype": "float32", "sparse": false}, "class_name": "InputLayer", "inbound_nodes": []}, {"name": "CHK_INPUT_NOW", "config": {"name": "CHK_INPUT_NOW", "batch_input_shape": [null, 4], "dtype": "float32", "sparse": false}, "class_name": "InputLayer", "inbound_nodes": []}, {"name": "CHK_DELTA", "config": {"name": "CHK_DELTA", "trainable": true}, "class_name": "Add", "inbound_nodes": [[["CHK_INPUT_PREV", 0, 0, {}], ["CHK_INPUT_NOW", 0, 0, {}]]]}, {"name": "F1_PBH_0", "config": {"use_bias": true, "kernel_constraint": null, "name": "F1_PBH_0", "bias_regularizer": null, "activity_regularizer": null, "units": 80, "bias_initializer": {"config": {}, "class_name": "Zeros"}, "kernel_initializer": {"config": {"seed": 3014, "scale": 1.0, "mode": "fan_avg", "distribution": "normal"}, "class_name": "VarianceScaling"}, "bias_constraint": null, "trainable": true, "activation": "relu", "kernel_regularizer": {"config": {"l1": 0.0, "l2": 9.999999747378752e-05}, "class_name": "L1L2"}}, "class_name": "Dense", "inbound_nodes": [[["CHK_DELTA", 0, 0, {}]]]}, {"name": "B2_PBH_0", "config": {"use_bias": true, "kernel_constraint": null, "name": "B2_PBH_0", "bias_regularizer": null, "activity_regularizer": null, "units": 80, "bias_initializer": {"config": {}, "class_name": "Zeros"}, "kernel_initializer": {"config": {"seed": 3014, "scale": 1.0, "mode": "fan_avg", "distribution": "normal"}, "class_name": "VarianceScaling"}, "bias_constraint": null, "trainable": true, "activation": "relu", "kernel_regularizer": {"config": {"l1": 0.0, "l2": 9.999999747378752e-05}, "class_name": "L1L2"}}, "class_name": "Dense", "inbound_nodes": [[["CHK_DELTA", 0, 0, {}]]]}, {"name": "D3_PBH_0", "config": {"use_bias": true, "kernel_constraint": null, "name": "D3_PBH_0", "bias_regularizer": null, "activity_regularizer": null, "units": 80, "bias_initializer": {"config": {}, "class_name": "Zeros"}, "kernel_initializer": {"config": {"seed": 3014, "scale": 1.0, "mode": "fan_avg", "distribution": "normal"}, "class_name": "VarianceScaling"}, "bias_constraint": null, "trainable": true, "activation": "relu", "kernel_regularizer": {"config": {"l1": 0.0, "l2": 9.999999747378752e-05}, "class_name": "L1L2"}}, "class_name": "Dense", "inbound_nodes": [[["CHK_DELTA", 0, 0, {}]]]}, {"name": "E1_PBH_0", "config": {"use_bias": true, "kernel_constraint": null, "name": "E1_PBH_0", "bias_regularizer": null, "activity_regularizer": null, "units": 80, "bias_initializer": {"config": {}, "class_name": "Zeros"}, "kernel_initializer": {"config": {"seed": 3014, "scale": 1.0, "mode": "fan_avg", "distribution": "normal"}, "class_name": "VarianceScaling"}, "bias_constraint": null, "trainable": true, "activation": "relu", "kernel_regularizer": {"config": {"l1": 0.0, "l2": 9.999999747378752e-05}, "class_name": "L1L2"}}, "class_name": "Dense", "inbound_nodes": [[["CHK_DELTA", 0, 0, {}]]]}, {"name": "F1_PBH_1", "config": {"use_bias": true, "kernel_constraint": null, "name": "F1_PBH_1", "bias_regularizer": null, "activity_regularizer": null, "units": 80, "bias_initializer": {"config": {}, "class_name": "Zeros"}, "kernel_initializer": {"config": {"seed": 3014, "scale": 1.0, "mode": "fan_avg", "distribution": "normal"}, "class_name": "VarianceScaling"}, "bias_constraint": null, "trainable": true, "activation": "relu", "kernel_regularizer": {"config": {"l1": 0.0, "l2": 9.999999747378752e-05}, "class_name": "L1L2"}}, "class_name": "Dense", "inbound_nodes": [[["F1_PBH_0", 0, 0, {}]]]}, {"name": "B2_PBH_1", "config": {"use_bias": true, "kernel_constraint": null, "name": "B2_PBH_1", "bias_regularizer": null, "activity_regularizer": null, "units": 80, "bias_initializer": {"config": {}, "class_name": "Zeros"}, "kernel_initializer": {"config": {"seed": 3014, "scale": 1.0, "mode": "fan_avg", "distribution": "normal"}, "class_name": "VarianceScaling"}, "bias_constraint": null, "trainable": true, "activation": "relu", "kernel_regularizer": {"config": {"l1": 0.0, "l2": 9.999999747378752e-05}, "class_name": "L1L2"}}, "class_name": "Dense", "inbound_nodes": [[["B2_PBH_0", 0, 0, {}]]]}, {"name": "D3_PBH_1", "config": {"use_bias": true, "kernel_constraint": null, "name": "D3_PBH_1", "bias_regularizer": null, "activity_regularizer": null, "units": 80, "bias_initializer": {"config": {}, "class_name": "Zeros"}, "kernel_initializer": {"config": {"seed": 3014, "scale": 1.0, "mode": "fan_avg", "distribution": "normal"}, "class_name": "VarianceScaling"}, "bias_constraint": null, "trainable": true, "activation": "relu", "kernel_regularizer": {"config": {"l1": 0.0, "l2": 9.999999747378752e-05}, "class_name": "L1L2"}}, "class_name": "Dense", "inbound_nodes": [[["D3_PBH_0", 0, 0, {}]]]}, {"name": "E1_PBH_1", "config": {"use_bias": true, "kernel_constraint": null, "name": "E1_PBH_1", "bias_regularizer": null, "activity_regularizer": null, "units": 80, "bias_initializer": {"config": {}, "class_name": "Zeros"}, "kernel_initializer": {"config": {"seed": 3014, "scale": 1.0, "mode": "fan_avg", "distribution": "normal"}, "class_name": "VarianceScaling"}, "bias_constraint": null, "trainable": true, "activation": "relu", "kernel_regularizer": {"config": {"l1": 0.0, "l2": 9.999999747378752e-05}, "class_name": "L1L2"}}, "class_name": "Dense", "inbound_nodes": [[["E1_PBH_0", 0, 0, {}]]]}, {"name": "F1_PBH_out", "config": {"use_bias": true, "kernel_constraint": null, "name": "F1_PBH_out", "bias_regularizer": null, "activity_regularizer": null, "units": 1, "bias_initializer": {"config": {}, "class_name": "Zeros"}, "kernel_initializer": {"config": {"seed": 3014, "scale": 1.0, "mode": "fan_avg", "distribution": "normal"}, "class_name": "VarianceScaling"}, "bias_constraint": null, "trainable": true, "activation": "linear", "kernel_regularizer": {"config": {"l1": 0.0, "l2": 9.999999747378752e-05}, "class_name": "L1L2"}}, "class_name": "Dense", "inbound_nodes": [[["F1_PBH_1", 0, 0, {}]]]}, {"name": "SHIFTED_PRESSURE_PBH_F1", "config": {"name": "SHIFTED_PRESSURE_PBH_F1", "batch_input_shape": [null, 1], "dtype": "float32", "sparse": false}, "class_name": "InputLayer", "inbound_nodes": []}, {"name": "B2_PBH_out", "config": {"use_bias": true, "kernel_constraint": null, "name": "B2_PBH_out", "bias_regularizer": null, "activity_regularizer": null, "units": 1, "bias_initializer": {"config": {}, "class_name": "Zeros"}, "kernel_initializer": {"config": {"seed": 3014, "scale": 1.0, "mode": "fan_avg", "distribution": "normal"}, "class_name": "VarianceScaling"}, "bias_constraint": null, "trainable": true, "activation": "linear", "kernel_regularizer": {"config": {"l1": 0.0, "l2": 9.999999747378752e-05}, "class_name": "L1L2"}}, "class_name": "Dense", "inbound_nodes": [[["B2_PBH_1", 0, 0, {}]]]}, {"name": "SHIFTED_PRESSURE_PBH_B2", "config": {"name": "SHIFTED_PRESSURE_PBH_B2", "batch_input_shape": [null, 1], "dtype": "float32", "sparse": false}, "class_name": "InputLayer", "inbound_nodes": []}, {"name": "D3_PBH_out", "config": {"use_bias": true, "kernel_constraint": null, "name": "D3_PBH_out", "bias_regularizer": null, "activity_regularizer": null, "units": 1, "bias_initializer": {"config": {}, "class_name": "Zeros"}, "kernel_initializer": {"config": {"seed": 3014, "scale": 1.0, "mode": "fan_avg", "distribution": "normal"}, "class_name": "VarianceScaling"}, "bias_constraint": null, "trainable": true, "activation": "linear", "kernel_regularizer": {"config": {"l1": 0.0, "l2": 9.999999747378752e-05}, "class_name": "L1L2"}}, "class_name": "Dense", "inbound_nodes": [[["D3_PBH_1", 0, 0, {}]]]}, {"name": "SHIFTED_PRESSURE_PBH_D3", "config": {"name": "SHIFTED_PRESSURE_PBH_D3", "batch_input_shape": [null, 1], "dtype": "float32", "sparse": false}, "class_name": "InputLayer", "inbound_nodes": []}, {"name": "E1_PBH_out", "config": {"use_bias": true, "kernel_constraint": null, "name": "E1_PBH_out", "bias_regularizer": null, "activity_regularizer": null, "units": 1, "bias_initializer": {"config": {}, "class_name": "Zeros"}, "kernel_initializer": {"config": {"seed": 3014, "scale": 1.0, "mode": "fan_avg", "distribution": "normal"}, "class_name": "VarianceScaling"}, "bias_constraint": null, "trainable": true, "activation": "linear", "kernel_regularizer": {"config": {"l1": 0.0, "l2": 9.999999747378752e-05}, "class_name": "L1L2"}}, "class_name": "Dense", "inbound_nodes": [[["E1_PBH_1", 0, 0, {}]]]}, {"name": "SHIFTED_PRESSURE_PBH_E1", "config": {"name": "SHIFTED_PRESSURE_PBH_E1", "batch_input_shape": [null, 1], "dtype": "float32", "sparse": false}, "class_name": "InputLayer", "inbound_nodes": []}, {"name": "F1_PBH_out2", "config": {"name": "F1_PBH_out2", "trainable": true}, "class_name": "Add", "inbound_nodes": [[["F1_PBH_out", 0, 0, {}], ["SHIFTED_PRESSURE_PBH_F1", 0, 0, {}]]]}, {"name": "B2_PBH_out2", "config": {"name": "B2_PBH_out2", "trainable": true}, "class_name": "Add", "inbound_nodes": [[["B2_PBH_out", 0, 0, {}], ["SHIFTED_PRESSURE_PBH_B2", 0, 0, {}]]]}, {"name": "D3_PBH_out2", "config": {"name": "D3_PBH_out2", "trainable": true}, "class_name": "Add", "inbound_nodes": [[["D3_PBH_out", 0, 0, {}], ["SHIFTED_PRESSURE_PBH_D3", 0, 0, {}]]]}, {"name": "E1_PBH_out2", "config": {"name": "E1_PBH_out2", "trainable": true}, "class_name": "Add", "inbound_nodes": [[["E1_PBH_out", 0, 0, {}], ["SHIFTED_PRESSURE_PBH_E1", 0, 0, {}]]]}], "input_layers": [["CHK_INPUT_NOW", 0, 0], ["CHK_INPUT_PREV", 0, 0], ["SHIFTED_PRESSURE_PBH_F1", 0, 0], ["SHIFTED_PRESSURE_PBH_B2", 0, 0], ["SHIFTED_PRESSURE_PBH_D3", 0, 0], ["SHIFTED_PRESSURE_PBH_E1", 0, 0]]}, "class_name": "Model", "keras_version": "2.0.1"}