{"keras_version": "2.0.1", "config": {"layers": [{"class_name": "InputLayer", "config": {"sparse": false, "dtype": "float32", "name": "C1", "batch_input_shape": [null, 4]}, "name": "C1", "inbound_nodes": []}, {"class_name": "InputLayer", "config": {"sparse": false, "dtype": "float32", "name": "C2", "batch_input_shape": [null, 3]}, "name": "C2", "inbound_nodes": []}, {"class_name": "InputLayer", "config": {"sparse": false, "dtype": "float32", "name": "C3", "batch_input_shape": [null, 4]}, "name": "C3", "inbound_nodes": []}, {"class_name": "InputLayer", "config": {"sparse": false, "dtype": "float32", "name": "C4", "batch_input_shape": [null, 4]}, "name": "C4", "inbound_nodes": []}, {"class_name": "InputLayer", "config": {"sparse": false, "dtype": "float32", "name": "B1", "batch_input_shape": [null, 4]}, "name": "B1", "inbound_nodes": []}, {"class_name": "InputLayer", "config": {"sparse": false, "dtype": "float32", "name": "B3", "batch_input_shape": [null, 4]}, "name": "B3", "inbound_nodes": []}, {"class_name": "InputLayer", "config": {"sparse": false, "dtype": "float32", "name": "D1", "batch_input_shape": [null, 3]}, "name": "D1", "inbound_nodes": []}, {"class_name": "Dense", "config": {"units": 50, "bias_constraint": null, "use_bias": true, "bias_initializer": {"config": {}, "class_name": "Zeros"}, "kernel_constraint": null, "activation": "relu", "trainable": true, "bias_regularizer": null, "kernel_regularizer": {"config": {"l2": 0.00019999999494757503, "l1": 0.0}, "class_name": "L1L2"}, "activity_regularizer": null, "kernel_initializer": {"config": {"scale": 1.0, "distribution": "normal", "mode": "fan_avg", "seed": 3014}, "class_name": "VarianceScaling"}, "name": "dense_1"}, "name": "dense_1", "inbound_nodes": [[["C1", 0, 0, {}]]]}, {"class_name": "Dense", "config": {"units": 50, "bias_constraint": null, "use_bias": true, "bias_initializer": {"config": {}, "class_name": "Zeros"}, "kernel_constraint": null, "activation": "relu", "trainable": true, "bias_regularizer": null, "kernel_regularizer": {"config": {"l2": 0.00019999999494757503, "l1": 0.0}, "class_name": "L1L2"}, "activity_regularizer": null, "kernel_initializer": {"config": {"scale": 1.0, "distribution": "normal", "mode": "fan_avg", "seed": 3014}, "class_name": "VarianceScaling"}, "name": "dense_5"}, "name": "dense_5", "inbound_nodes": [[["C2", 0, 0, {}]]]}, {"class_name": "Dense", "config": {"units": 50, "bias_constraint": null, "use_bias": true, "bias_initializer": {"config": {}, "class_name": "Zeros"}, "kernel_constraint": null, "activation": "relu", "trainable": true, "bias_regularizer": null, "kernel_regularizer": {"config": {"l2": 0.00019999999494757503, "l1": 0.0}, "class_name": "L1L2"}, "activity_regularizer": null, "kernel_initializer": {"config": {"scale": 1.0, "distribution": "normal", "mode": "fan_avg", "seed": 3014}, "class_name": "VarianceScaling"}, "name": "dense_9"}, "name": "dense_9", "inbound_nodes": [[["C3", 0, 0, {}]]]}, {"class_name": "Dense", "config": {"units": 50, "bias_constraint": null, "use_bias": true, "bias_initializer": {"config": {}, "class_name": "Zeros"}, "kernel_constraint": null, "activation": "relu", "trainable": true, "bias_regularizer": null, "kernel_regularizer": {"config": {"l2": 0.00019999999494757503, "l1": 0.0}, "class_name": "L1L2"}, "activity_regularizer": null, "kernel_initializer": {"config": {"scale": 1.0, "distribution": "normal", "mode": "fan_avg", "seed": 3014}, "class_name": "VarianceScaling"}, "name": "dense_13"}, "name": "dense_13", "inbound_nodes": [[["C4", 0, 0, {}]]]}, {"class_name": "Dense", "config": {"units": 50, "bias_constraint": null, "use_bias": true, "bias_initializer": {"config": {}, "class_name": "Zeros"}, "kernel_constraint": null, "activation": "relu", "trainable": true, "bias_regularizer": null, "kernel_regularizer": {"config": {"l2": 0.00019999999494757503, "l1": 0.0}, "class_name": "L1L2"}, "activity_regularizer": null, "kernel_initializer": {"config": {"scale": 1.0, "distribution": "normal", "mode": "fan_avg", "seed": 3014}, "class_name": "VarianceScaling"}, "name": "dense_17"}, "name": "dense_17", "inbound_nodes": [[["B1", 0, 0, {}]]]}, {"class_name": "Dense", "config": {"units": 50, "bias_constraint": null, "use_bias": true, "bias_initializer": {"config": {}, "class_name": "Zeros"}, "kernel_constraint": null, "activation": "relu", "trainable": true, "bias_regularizer": null, "kernel_regularizer": {"config": {"l2": 0.00019999999494757503, "l1": 0.0}, "class_name": "L1L2"}, "activity_regularizer": null, "kernel_initializer": {"config": {"scale": 1.0, "distribution": "normal", "mode": "fan_avg", "seed": 3014}, "class_name": "VarianceScaling"}, "name": "dense_21"}, "name": "dense_21", "inbound_nodes": [[["B3", 0, 0, {}]]]}, {"class_name": "Dense", "config": {"units": 50, "bias_constraint": null, "use_bias": true, "bias_initializer": {"config": {}, "class_name": "Zeros"}, "kernel_constraint": null, "activation": "relu", "trainable": true, "bias_regularizer": null, "kernel_regularizer": {"config": {"l2": 0.00019999999494757503, "l1": 0.0}, "class_name": "L1L2"}, "activity_regularizer": null, "kernel_initializer": {"config": {"scale": 1.0, "distribution": "normal", "mode": "fan_avg", "seed": 3014}, "class_name": "VarianceScaling"}, "name": "dense_25"}, "name": "dense_25", "inbound_nodes": [[["D1", 0, 0, {}]]]}, {"class_name": "Dense", "config": {"units": 50, "bias_constraint": null, "use_bias": true, "bias_initializer": {"config": {}, "class_name": "Zeros"}, "kernel_constraint": null, "activation": "relu", "trainable": true, "bias_regularizer": null, "kernel_regularizer": {"config": {"l2": 0.00019999999494757503, "l1": 0.0}, "class_name": "L1L2"}, "activity_regularizer": null, "kernel_initializer": {"config": {"scale": 1.0, "distribution": "normal", "mode": "fan_avg", "seed": 3014}, "class_name": "VarianceScaling"}, "name": "dense_2"}, "name": "dense_2", "inbound_nodes": [[["dense_1", 0, 0, {}]]]}, {"class_name": "Dense", "config": {"units": 50, "bias_constraint": null, "use_bias": true, "bias_initializer": {"config": {}, "class_name": "Zeros"}, "kernel_constraint": null, "activation": "relu", "trainable": true, "bias_regularizer": null, "kernel_regularizer": {"config": {"l2": 0.00019999999494757503, "l1": 0.0}, "class_name": "L1L2"}, "activity_regularizer": null, "kernel_initializer": {"config": {"scale": 1.0, "distribution": "normal", "mode": "fan_avg", "seed": 3014}, "class_name": "VarianceScaling"}, "name": "dense_6"}, "name": "dense_6", "inbound_nodes": [[["dense_5", 0, 0, {}]]]}, {"class_name": "Dense", "config": {"units": 50, "bias_constraint": null, "use_bias": true, "bias_initializer": {"config": {}, "class_name": "Zeros"}, "kernel_constraint": null, "activation": "relu", "trainable": true, "bias_regularizer": null, "kernel_regularizer": {"config": {"l2": 0.00019999999494757503, "l1": 0.0}, "class_name": "L1L2"}, "activity_regularizer": null, "kernel_initializer": {"config": {"scale": 1.0, "distribution": "normal", "mode": "fan_avg", "seed": 3014}, "class_name": "VarianceScaling"}, "name": "dense_10"}, "name": "dense_10", "inbound_nodes": [[["dense_9", 0, 0, {}]]]}, {"class_name": "Dense", "config": {"units": 50, "bias_constraint": null, "use_bias": true, "bias_initializer": {"config": {}, "class_name": "Zeros"}, "kernel_constraint": null, "activation": "relu", "trainable": true, "bias_regularizer": null, "kernel_regularizer": {"config": {"l2": 0.00019999999494757503, "l1": 0.0}, "class_name": "L1L2"}, "activity_regularizer": null, "kernel_initializer": {"config": {"scale": 1.0, "distribution": "normal", "mode": "fan_avg", "seed": 3014}, "class_name": "VarianceScaling"}, "name": "dense_14"}, "name": "dense_14", "inbound_nodes": [[["dense_13", 0, 0, {}]]]}, {"class_name": "Dense", "config": {"units": 50, "bias_constraint": null, "use_bias": true, "bias_initializer": {"config": {}, "class_name": "Zeros"}, "kernel_constraint": null, "activation": "relu", "trainable": true, "bias_regularizer": null, "kernel_regularizer": {"config": {"l2": 0.00019999999494757503, "l1": 0.0}, "class_name": "L1L2"}, "activity_regularizer": null, "kernel_initializer": {"config": {"scale": 1.0, "distribution": "normal", "mode": "fan_avg", "seed": 3014}, "class_name": "VarianceScaling"}, "name": "dense_18"}, "name": "dense_18", "inbound_nodes": [[["dense_17", 0, 0, {}]]]}, {"class_name": "Dense", "config": {"units": 50, "bias_constraint": null, "use_bias": true, "bias_initializer": {"config": {}, "class_name": "Zeros"}, "kernel_constraint": null, "activation": "relu", "trainable": true, "bias_regularizer": null, "kernel_regularizer": {"config": {"l2": 0.00019999999494757503, "l1": 0.0}, "class_name": "L1L2"}, "activity_regularizer": null, "kernel_initializer": {"config": {"scale": 1.0, "distribution": "normal", "mode": "fan_avg", "seed": 3014}, "class_name": "VarianceScaling"}, "name": "dense_22"}, "name": "dense_22", "inbound_nodes": [[["dense_21", 0, 0, {}]]]}, {"class_name": "Dense", "config": {"units": 50, "bias_constraint": null, "use_bias": true, "bias_initializer": {"config": {}, "class_name": "Zeros"}, "kernel_constraint": null, "activation": "relu", "trainable": true, "bias_regularizer": null, "kernel_regularizer": {"config": {"l2": 0.00019999999494757503, "l1": 0.0}, "class_name": "L1L2"}, "activity_regularizer": null, "kernel_initializer": {"config": {"scale": 1.0, "distribution": "normal", "mode": "fan_avg", "seed": 3014}, "class_name": "VarianceScaling"}, "name": "dense_26"}, "name": "dense_26", "inbound_nodes": [[["dense_25", 0, 0, {}]]]}, {"class_name": "Dense", "config": {"units": 50, "bias_constraint": null, "use_bias": true, "bias_initializer": {"config": {}, "class_name": "Zeros"}, "kernel_constraint": null, "activation": "relu", "trainable": true, "bias_regularizer": null, "kernel_regularizer": {"config": {"l2": 0.00019999999494757503, "l1": 0.0}, "class_name": "L1L2"}, "activity_regularizer": null, "kernel_initializer": {"config": {"scale": 1.0, "distribution": "normal", "mode": "fan_avg", "seed": 3014}, "class_name": "VarianceScaling"}, "name": "dense_3"}, "name": "dense_3", "inbound_nodes": [[["dense_2", 0, 0, {}]]]}, {"class_name": "Dense", "config": {"units": 50, "bias_constraint": null, "use_bias": true, "bias_initializer": {"config": {}, "class_name": "Zeros"}, "kernel_constraint": null, "activation": "relu", "trainable": true, "bias_regularizer": null, "kernel_regularizer": {"config": {"l2": 0.00019999999494757503, "l1": 0.0}, "class_name": "L1L2"}, "activity_regularizer": null, "kernel_initializer": {"config": {"scale": 1.0, "distribution": "normal", "mode": "fan_avg", "seed": 3014}, "class_name": "VarianceScaling"}, "name": "dense_7"}, "name": "dense_7", "inbound_nodes": [[["dense_6", 0, 0, {}]]]}, {"class_name": "Dense", "config": {"units": 50, "bias_constraint": null, "use_bias": true, "bias_initializer": {"config": {}, "class_name": "Zeros"}, "kernel_constraint": null, "activation": "relu", "trainable": true, "bias_regularizer": null, "kernel_regularizer": {"config": {"l2": 0.00019999999494757503, "l1": 0.0}, "class_name": "L1L2"}, "activity_regularizer": null, "kernel_initializer": {"config": {"scale": 1.0, "distribution": "normal", "mode": "fan_avg", "seed": 3014}, "class_name": "VarianceScaling"}, "name": "dense_11"}, "name": "dense_11", "inbound_nodes": [[["dense_10", 0, 0, {}]]]}, {"class_name": "Dense", "config": {"units": 50, "bias_constraint": null, "use_bias": true, "bias_initializer": {"config": {}, "class_name": "Zeros"}, "kernel_constraint": null, "activation": "relu", "trainable": true, "bias_regularizer": null, "kernel_regularizer": {"config": {"l2": 0.00019999999494757503, "l1": 0.0}, "class_name": "L1L2"}, "activity_regularizer": null, "kernel_initializer": {"config": {"scale": 1.0, "distribution": "normal", "mode": "fan_avg", "seed": 3014}, "class_name": "VarianceScaling"}, "name": "dense_15"}, "name": "dense_15", "inbound_nodes": [[["dense_14", 0, 0, {}]]]}, {"class_name": "Dense", "config": {"units": 50, "bias_constraint": null, "use_bias": true, "bias_initializer": {"config": {}, "class_name": "Zeros"}, "kernel_constraint": null, "activation": "relu", "trainable": true, "bias_regularizer": null, "kernel_regularizer": {"config": {"l2": 0.00019999999494757503, "l1": 0.0}, "class_name": "L1L2"}, "activity_regularizer": null, "kernel_initializer": {"config": {"scale": 1.0, "distribution": "normal", "mode": "fan_avg", "seed": 3014}, "class_name": "VarianceScaling"}, "name": "dense_19"}, "name": "dense_19", "inbound_nodes": [[["dense_18", 0, 0, {}]]]}, {"class_name": "Dense", "config": {"units": 50, "bias_constraint": null, "use_bias": true, "bias_initializer": {"config": {}, "class_name": "Zeros"}, "kernel_constraint": null, "activation": "relu", "trainable": true, "bias_regularizer": null, "kernel_regularizer": {"config": {"l2": 0.00019999999494757503, "l1": 0.0}, "class_name": "L1L2"}, "activity_regularizer": null, "kernel_initializer": {"config": {"scale": 1.0, "distribution": "normal", "mode": "fan_avg", "seed": 3014}, "class_name": "VarianceScaling"}, "name": "dense_23"}, "name": "dense_23", "inbound_nodes": [[["dense_22", 0, 0, {}]]]}, {"class_name": "Dense", "config": {"units": 50, "bias_constraint": null, "use_bias": true, "bias_initializer": {"config": {}, "class_name": "Zeros"}, "kernel_constraint": null, "activation": "relu", "trainable": true, "bias_regularizer": null, "kernel_regularizer": {"config": {"l2": 0.00019999999494757503, "l1": 0.0}, "class_name": "L1L2"}, "activity_regularizer": null, "kernel_initializer": {"config": {"scale": 1.0, "distribution": "normal", "mode": "fan_avg", "seed": 3014}, "class_name": "VarianceScaling"}, "name": "dense_27"}, "name": "dense_27", "inbound_nodes": [[["dense_26", 0, 0, {}]]]}, {"class_name": "InputLayer", "config": {"sparse": false, "dtype": "float32", "name": "OnOff_C1", "batch_input_shape": [null, 1]}, "name": "OnOff_C1", "inbound_nodes": []}, {"class_name": "Dense", "config": {"units": 1, "bias_constraint": null, "use_bias": true, "bias_initializer": {"config": {}, "class_name": "Zeros"}, "kernel_constraint": null, "activation": "relu", "trainable": true, "bias_regularizer": null, "kernel_regularizer": {"config": {"l2": 0.00019999999494757503, "l1": 0.0}, "class_name": "L1L2"}, "activity_regularizer": null, "kernel_initializer": {"config": {"scale": 1.0, "distribution": "normal", "mode": "fan_avg", "seed": 3014}, "class_name": "VarianceScaling"}, "name": "dense_4"}, "name": "dense_4", "inbound_nodes": [[["dense_3", 0, 0, {}]]]}, {"class_name": "InputLayer", "config": {"sparse": false, "dtype": "float32", "name": "OnOff_C2", "batch_input_shape": [null, 1]}, "name": "OnOff_C2", "inbound_nodes": []}, {"class_name": "Dense", "config": {"units": 1, "bias_constraint": null, "use_bias": true, "bias_initializer": {"config": {}, "class_name": "Zeros"}, "kernel_constraint": null, "activation": "relu", "trainable": true, "bias_regularizer": null, "kernel_regularizer": {"config": {"l2": 0.00019999999494757503, "l1": 0.0}, "class_name": "L1L2"}, "activity_regularizer": null, "kernel_initializer": {"config": {"scale": 1.0, "distribution": "normal", "mode": "fan_avg", "seed": 3014}, "class_name": "VarianceScaling"}, "name": "dense_8"}, "name": "dense_8", "inbound_nodes": [[["dense_7", 0, 0, {}]]]}, {"class_name": "InputLayer", "config": {"sparse": false, "dtype": "float32", "name": "OnOff_C3", "batch_input_shape": [null, 1]}, "name": "OnOff_C3", "inbound_nodes": []}, {"class_name": "Dense", "config": {"units": 1, "bias_constraint": null, "use_bias": true, "bias_initializer": {"config": {}, "class_name": "Zeros"}, "kernel_constraint": null, "activation": "relu", "trainable": true, "bias_regularizer": null, "kernel_regularizer": {"config": {"l2": 0.00019999999494757503, "l1": 0.0}, "class_name": "L1L2"}, "activity_regularizer": null, "kernel_initializer": {"config": {"scale": 1.0, "distribution": "normal", "mode": "fan_avg", "seed": 3014}, "class_name": "VarianceScaling"}, "name": "dense_12"}, "name": "dense_12", "inbound_nodes": [[["dense_11", 0, 0, {}]]]}, {"class_name": "InputLayer", "config": {"sparse": false, "dtype": "float32", "name": "OnOff_C4", "batch_input_shape": [null, 1]}, "name": "OnOff_C4", "inbound_nodes": []}, {"class_name": "Dense", "config": {"units": 1, "bias_constraint": null, "use_bias": true, "bias_initializer": {"config": {}, "class_name": "Zeros"}, "kernel_constraint": null, "activation": "relu", "trainable": true, "bias_regularizer": null, "kernel_regularizer": {"config": {"l2": 0.00019999999494757503, "l1": 0.0}, "class_name": "L1L2"}, "activity_regularizer": null, "kernel_initializer": {"config": {"scale": 1.0, "distribution": "normal", "mode": "fan_avg", "seed": 3014}, "class_name": "VarianceScaling"}, "name": "dense_16"}, "name": "dense_16", "inbound_nodes": [[["dense_15", 0, 0, {}]]]}, {"class_name": "InputLayer", "config": {"sparse": false, "dtype": "float32", "name": "OnOff_B1", "batch_input_shape": [null, 1]}, "name": "OnOff_B1", "inbound_nodes": []}, {"class_name": "Dense", "config": {"units": 1, "bias_constraint": null, "use_bias": true, "bias_initializer": {"config": {}, "class_name": "Zeros"}, "kernel_constraint": null, "activation": "relu", "trainable": true, "bias_regularizer": null, "kernel_regularizer": {"config": {"l2": 0.00019999999494757503, "l1": 0.0}, "class_name": "L1L2"}, "activity_regularizer": null, "kernel_initializer": {"config": {"scale": 1.0, "distribution": "normal", "mode": "fan_avg", "seed": 3014}, "class_name": "VarianceScaling"}, "name": "dense_20"}, "name": "dense_20", "inbound_nodes": [[["dense_19", 0, 0, {}]]]}, {"class_name": "InputLayer", "config": {"sparse": false, "dtype": "float32", "name": "OnOff_B3", "batch_input_shape": [null, 1]}, "name": "OnOff_B3", "inbound_nodes": []}, {"class_name": "Dense", "config": {"units": 1, "bias_constraint": null, "use_bias": true, "bias_initializer": {"config": {}, "class_name": "Zeros"}, "kernel_constraint": null, "activation": "relu", "trainable": true, "bias_regularizer": null, "kernel_regularizer": {"config": {"l2": 0.00019999999494757503, "l1": 0.0}, "class_name": "L1L2"}, "activity_regularizer": null, "kernel_initializer": {"config": {"scale": 1.0, "distribution": "normal", "mode": "fan_avg", "seed": 3014}, "class_name": "VarianceScaling"}, "name": "dense_24"}, "name": "dense_24", "inbound_nodes": [[["dense_23", 0, 0, {}]]]}, {"class_name": "InputLayer", "config": {"sparse": false, "dtype": "float32", "name": "OnOff_D1", "batch_input_shape": [null, 1]}, "name": "OnOff_D1", "inbound_nodes": []}, {"class_name": "Dense", "config": {"units": 1, "bias_constraint": null, "use_bias": true, "bias_initializer": {"config": {}, "class_name": "Zeros"}, "kernel_constraint": null, "activation": "relu", "trainable": true, "bias_regularizer": null, "kernel_regularizer": {"config": {"l2": 0.00019999999494757503, "l1": 0.0}, "class_name": "L1L2"}, "activity_regularizer": null, "kernel_initializer": {"config": {"scale": 1.0, "distribution": "normal", "mode": "fan_avg", "seed": 3014}, "class_name": "VarianceScaling"}, "name": "dense_28"}, "name": "dense_28", "inbound_nodes": [[["dense_27", 0, 0, {}]]]}, {"class_name": "Multiply", "config": {"trainable": true, "name": "C1_out"}, "name": "C1_out", "inbound_nodes": [[["OnOff_C1", 0, 0, {}], ["dense_4", 0, 0, {}]]]}, {"class_name": "Multiply", "config": {"trainable": true, "name": "C2_out"}, "name": "C2_out", "inbound_nodes": [[["OnOff_C2", 0, 0, {}], ["dense_8", 0, 0, {}]]]}, {"class_name": "Multiply", "config": {"trainable": true, "name": "C3_out"}, "name": "C3_out", "inbound_nodes": [[["OnOff_C3", 0, 0, {}], ["dense_12", 0, 0, {}]]]}, {"class_name": "Multiply", "config": {"trainable": true, "name": "C4_out"}, "name": "C4_out", "inbound_nodes": [[["OnOff_C4", 0, 0, {}], ["dense_16", 0, 0, {}]]]}, {"class_name": "Multiply", "config": {"trainable": true, "name": "B1_out"}, "name": "B1_out", "inbound_nodes": [[["OnOff_B1", 0, 0, {}], ["dense_20", 0, 0, {}]]]}, {"class_name": "Multiply", "config": {"trainable": true, "name": "B3_out"}, "name": "B3_out", "inbound_nodes": [[["OnOff_B3", 0, 0, {}], ["dense_24", 0, 0, {}]]]}, {"class_name": "Multiply", "config": {"trainable": true, "name": "D1_out"}, "name": "D1_out", "inbound_nodes": [[["OnOff_D1", 0, 0, {}], ["dense_28", 0, 0, {}]]]}, {"class_name": "Add", "config": {"trainable": true, "name": "GJOA_TOTAL"}, "name": "GJOA_TOTAL", "inbound_nodes": [[["C1_out", 0, 0, {}], ["C2_out", 0, 0, {}], ["C3_out", 0, 0, {}], ["C4_out", 0, 0, {}], ["B1_out", 0, 0, {}], ["B3_out", 0, 0, {}], ["D1_out", 0, 0, {}]]]}], "name": "model_1", "output_layers": [["C1_out", 0, 0], ["C2_out", 0, 0], ["C3_out", 0, 0], ["C4_out", 0, 0], ["B1_out", 0, 0], ["B3_out", 0, 0], ["D1_out", 0, 0], ["GJOA_TOTAL", 0, 0]], "input_layers": [["C1", 0, 0], ["C2", 0, 0], ["C3", 0, 0], ["C4", 0, 0], ["B1", 0, 0], ["B3", 0, 0], ["D1", 0, 0], ["OnOff_C1", 0, 0], ["OnOff_C2", 0, 0], ["OnOff_C3", 0, 0], ["OnOff_C4", 0, 0], ["OnOff_B1", 0, 0], ["OnOff_B3", 0, 0], ["OnOff_D1", 0, 0]]}, "backend": "theano", "class_name": "Model"}