{"keras_version": "2.0.1", "config": {"name": "model_1", "layers": [{"name": "PRESSURE_INPUT", "class_name": "InputLayer", "inbound_nodes": [], "config": {"name": "PRESSURE_INPUT", "dtype": "float32", "sparse": false, "batch_input_shape": [null, 7]}}, {"name": "RISER_B_CHK_INPUT", "class_name": "InputLayer", "inbound_nodes": [], "config": {"name": "RISER_B_CHK_INPUT", "dtype": "float32", "sparse": false, "batch_input_shape": [null, 1]}}, {"name": "RISER_MERGE", "class_name": "Concatenate", "inbound_nodes": [[["PRESSURE_INPUT", 0, 0, {}], ["RISER_B_CHK_INPUT", 0, 0, {}]]], "config": {"name": "RISER_MERGE", "trainable": true, "axis": -1}}, {"name": "C1_PDC_0", "class_name": "Dense", "inbound_nodes": [[["RISER_MERGE", 0, 0, {}]]], "config": {"use_bias": true, "trainable": true, "kernel_constraint": null, "bias_regularizer": null, "kernel_initializer": {"class_name": "VarianceScaling", "config": {"mode": "fan_avg", "seed": 9035, "scale": 1.0, "distribution": "normal"}}, "units": 80, "bias_constraint": null, "kernel_regularizer": {"class_name": "L1L2", "config": {"l1": 0.0, "l2": 0.0010000000474974513}}, "name": "C1_PDC_0", "activation": "relu", "bias_initializer": {"class_name": "Zeros", "config": {}}, "activity_regularizer": null}}, {"name": "C2_PDC_0", "class_name": "Dense", "inbound_nodes": [[["RISER_MERGE", 0, 0, {}]]], "config": {"use_bias": true, "trainable": true, "kernel_constraint": null, "bias_regularizer": null, "kernel_initializer": {"class_name": "VarianceScaling", "config": {"mode": "fan_avg", "seed": 9035, "scale": 1.0, "distribution": "normal"}}, "units": 80, "bias_constraint": null, "kernel_regularizer": {"class_name": "L1L2", "config": {"l1": 0.0, "l2": 0.0010000000474974513}}, "name": "C2_PDC_0", "activation": "relu", "bias_initializer": {"class_name": "Zeros", "config": {}}, "activity_regularizer": null}}, {"name": "C3_PDC_0", "class_name": "Dense", "inbound_nodes": [[["RISER_MERGE", 0, 0, {}]]], "config": {"use_bias": true, "trainable": true, "kernel_constraint": null, "bias_regularizer": null, "kernel_initializer": {"class_name": "VarianceScaling", "config": {"mode": "fan_avg", "seed": 9035, "scale": 1.0, "distribution": "normal"}}, "units": 80, "bias_constraint": null, "kernel_regularizer": {"class_name": "L1L2", "config": {"l1": 0.0, "l2": 0.0010000000474974513}}, "name": "C3_PDC_0", "activation": "relu", "bias_initializer": {"class_name": "Zeros", "config": {}}, "activity_regularizer": null}}, {"name": "C4_PDC_0", "class_name": "Dense", "inbound_nodes": [[["RISER_MERGE", 0, 0, {}]]], "config": {"use_bias": true, "trainable": true, "kernel_constraint": null, "bias_regularizer": null, "kernel_initializer": {"class_name": "VarianceScaling", "config": {"mode": "fan_avg", "seed": 9035, "scale": 1.0, "distribution": "normal"}}, "units": 80, "bias_constraint": null, "kernel_regularizer": {"class_name": "L1L2", "config": {"l1": 0.0, "l2": 0.0010000000474974513}}, "name": "C4_PDC_0", "activation": "relu", "bias_initializer": {"class_name": "Zeros", "config": {}}, "activity_regularizer": null}}, {"name": "B3_PDC_0", "class_name": "Dense", "inbound_nodes": [[["RISER_MERGE", 0, 0, {}]]], "config": {"use_bias": true, "trainable": true, "kernel_constraint": null, "bias_regularizer": null, "kernel_initializer": {"class_name": "VarianceScaling", "config": {"mode": "fan_avg", "seed": 9035, "scale": 1.0, "distribution": "normal"}}, "units": 80, "bias_constraint": null, "kernel_regularizer": {"class_name": "L1L2", "config": {"l1": 0.0, "l2": 0.0010000000474974513}}, "name": "B3_PDC_0", "activation": "relu", "bias_initializer": {"class_name": "Zeros", "config": {}}, "activity_regularizer": null}}, {"name": "B1_PDC_0", "class_name": "Dense", "inbound_nodes": [[["RISER_MERGE", 0, 0, {}]]], "config": {"use_bias": true, "trainable": true, "kernel_constraint": null, "bias_regularizer": null, "kernel_initializer": {"class_name": "VarianceScaling", "config": {"mode": "fan_avg", "seed": 9035, "scale": 1.0, "distribution": "normal"}}, "units": 80, "bias_constraint": null, "kernel_regularizer": {"class_name": "L1L2", "config": {"l1": 0.0, "l2": 0.0010000000474974513}}, "name": "B1_PDC_0", "activation": "relu", "bias_initializer": {"class_name": "Zeros", "config": {}}, "activity_regularizer": null}}, {"name": "D1_PDC_0", "class_name": "Dense", "inbound_nodes": [[["RISER_MERGE", 0, 0, {}]]], "config": {"use_bias": true, "trainable": true, "kernel_constraint": null, "bias_regularizer": null, "kernel_initializer": {"class_name": "VarianceScaling", "config": {"mode": "fan_avg", "seed": 9035, "scale": 1.0, "distribution": "normal"}}, "units": 80, "bias_constraint": null, "kernel_regularizer": {"class_name": "L1L2", "config": {"l1": 0.0, "l2": 0.0010000000474974513}}, "name": "D1_PDC_0", "activation": "relu", "bias_initializer": {"class_name": "Zeros", "config": {}}, "activity_regularizer": null}}, {"name": "C1_PDC_1", "class_name": "Dense", "inbound_nodes": [[["C1_PDC_0", 0, 0, {}]]], "config": {"use_bias": true, "trainable": true, "kernel_constraint": null, "bias_regularizer": null, "kernel_initializer": {"class_name": "VarianceScaling", "config": {"mode": "fan_avg", "seed": 9035, "scale": 1.0, "distribution": "normal"}}, "units": 80, "bias_constraint": null, "kernel_regularizer": {"class_name": "L1L2", "config": {"l1": 0.0, "l2": 0.0010000000474974513}}, "name": "C1_PDC_1", "activation": "relu", "bias_initializer": {"class_name": "Zeros", "config": {}}, "activity_regularizer": null}}, {"name": "C2_PDC_1", "class_name": "Dense", "inbound_nodes": [[["C2_PDC_0", 0, 0, {}]]], "config": {"use_bias": true, "trainable": true, "kernel_constraint": null, "bias_regularizer": null, "kernel_initializer": {"class_name": "VarianceScaling", "config": {"mode": "fan_avg", "seed": 9035, "scale": 1.0, "distribution": "normal"}}, "units": 80, "bias_constraint": null, "kernel_regularizer": {"class_name": "L1L2", "config": {"l1": 0.0, "l2": 0.0010000000474974513}}, "name": "C2_PDC_1", "activation": "relu", "bias_initializer": {"class_name": "Zeros", "config": {}}, "activity_regularizer": null}}, {"name": "C3_PDC_1", "class_name": "Dense", "inbound_nodes": [[["C3_PDC_0", 0, 0, {}]]], "config": {"use_bias": true, "trainable": true, "kernel_constraint": null, "bias_regularizer": null, "kernel_initializer": {"class_name": "VarianceScaling", "config": {"mode": "fan_avg", "seed": 9035, "scale": 1.0, "distribution": "normal"}}, "units": 80, "bias_constraint": null, "kernel_regularizer": {"class_name": "L1L2", "config": {"l1": 0.0, "l2": 0.0010000000474974513}}, "name": "C3_PDC_1", "activation": "relu", "bias_initializer": {"class_name": "Zeros", "config": {}}, "activity_regularizer": null}}, {"name": "C4_PDC_1", "class_name": "Dense", "inbound_nodes": [[["C4_PDC_0", 0, 0, {}]]], "config": {"use_bias": true, "trainable": true, "kernel_constraint": null, "bias_regularizer": null, "kernel_initializer": {"class_name": "VarianceScaling", "config": {"mode": "fan_avg", "seed": 9035, "scale": 1.0, "distribution": "normal"}}, "units": 80, "bias_constraint": null, "kernel_regularizer": {"class_name": "L1L2", "config": {"l1": 0.0, "l2": 0.0010000000474974513}}, "name": "C4_PDC_1", "activation": "relu", "bias_initializer": {"class_name": "Zeros", "config": {}}, "activity_regularizer": null}}, {"name": "B3_PDC_1", "class_name": "Dense", "inbound_nodes": [[["B3_PDC_0", 0, 0, {}]]], "config": {"use_bias": true, "trainable": true, "kernel_constraint": null, "bias_regularizer": null, "kernel_initializer": {"class_name": "VarianceScaling", "config": {"mode": "fan_avg", "seed": 9035, "scale": 1.0, "distribution": "normal"}}, "units": 80, "bias_constraint": null, "kernel_regularizer": {"class_name": "L1L2", "config": {"l1": 0.0, "l2": 0.0010000000474974513}}, "name": "B3_PDC_1", "activation": "relu", "bias_initializer": {"class_name": "Zeros", "config": {}}, "activity_regularizer": null}}, {"name": "B1_PDC_1", "class_name": "Dense", "inbound_nodes": [[["B1_PDC_0", 0, 0, {}]]], "config": {"use_bias": true, "trainable": true, "kernel_constraint": null, "bias_regularizer": null, "kernel_initializer": {"class_name": "VarianceScaling", "config": {"mode": "fan_avg", "seed": 9035, "scale": 1.0, "distribution": "normal"}}, "units": 80, "bias_constraint": null, "kernel_regularizer": {"class_name": "L1L2", "config": {"l1": 0.0, "l2": 0.0010000000474974513}}, "name": "B1_PDC_1", "activation": "relu", "bias_initializer": {"class_name": "Zeros", "config": {}}, "activity_regularizer": null}}, {"name": "D1_PDC_1", "class_name": "Dense", "inbound_nodes": [[["D1_PDC_0", 0, 0, {}]]], "config": {"use_bias": true, "trainable": true, "kernel_constraint": null, "bias_regularizer": null, "kernel_initializer": {"class_name": "VarianceScaling", "config": {"mode": "fan_avg", "seed": 9035, "scale": 1.0, "distribution": "normal"}}, "units": 80, "bias_constraint": null, "kernel_regularizer": {"class_name": "L1L2", "config": {"l1": 0.0, "l2": 0.0010000000474974513}}, "name": "D1_PDC_1", "activation": "relu", "bias_initializer": {"class_name": "Zeros", "config": {}}, "activity_regularizer": null}}, {"name": "C1_PDC_out", "class_name": "Dense", "inbound_nodes": [[["C1_PDC_1", 0, 0, {}]]], "config": {"use_bias": true, "trainable": true, "kernel_constraint": null, "bias_regularizer": null, "kernel_initializer": {"class_name": "VarianceScaling", "config": {"mode": "fan_avg", "seed": 9035, "scale": 1.0, "distribution": "normal"}}, "units": 1, "bias_constraint": null, "kernel_regularizer": {"class_name": "L1L2", "config": {"l1": 0.0, "l2": 0.0010000000474974513}}, "name": "C1_PDC_out", "activation": "linear", "bias_initializer": {"class_name": "Zeros", "config": {}}, "activity_regularizer": null}}, {"name": "C2_PDC_out", "class_name": "Dense", "inbound_nodes": [[["C2_PDC_1", 0, 0, {}]]], "config": {"use_bias": true, "trainable": true, "kernel_constraint": null, "bias_regularizer": null, "kernel_initializer": {"class_name": "VarianceScaling", "config": {"mode": "fan_avg", "seed": 9035, "scale": 1.0, "distribution": "normal"}}, "units": 1, "bias_constraint": null, "kernel_regularizer": {"class_name": "L1L2", "config": {"l1": 0.0, "l2": 0.0010000000474974513}}, "name": "C2_PDC_out", "activation": "linear", "bias_initializer": {"class_name": "Zeros", "config": {}}, "activity_regularizer": null}}, {"name": "C3_PDC_out", "class_name": "Dense", "inbound_nodes": [[["C3_PDC_1", 0, 0, {}]]], "config": {"use_bias": true, "trainable": true, "kernel_constraint": null, "bias_regularizer": null, "kernel_initializer": {"class_name": "VarianceScaling", "config": {"mode": "fan_avg", "seed": 9035, "scale": 1.0, "distribution": "normal"}}, "units": 1, "bias_constraint": null, "kernel_regularizer": {"class_name": "L1L2", "config": {"l1": 0.0, "l2": 0.0010000000474974513}}, "name": "C3_PDC_out", "activation": "linear", "bias_initializer": {"class_name": "Zeros", "config": {}}, "activity_regularizer": null}}, {"name": "C4_PDC_out", "class_name": "Dense", "inbound_nodes": [[["C4_PDC_1", 0, 0, {}]]], "config": {"use_bias": true, "trainable": true, "kernel_constraint": null, "bias_regularizer": null, "kernel_initializer": {"class_name": "VarianceScaling", "config": {"mode": "fan_avg", "seed": 9035, "scale": 1.0, "distribution": "normal"}}, "units": 1, "bias_constraint": null, "kernel_regularizer": {"class_name": "L1L2", "config": {"l1": 0.0, "l2": 0.0010000000474974513}}, "name": "C4_PDC_out", "activation": "linear", "bias_initializer": {"class_name": "Zeros", "config": {}}, "activity_regularizer": null}}, {"name": "B3_PDC_out", "class_name": "Dense", "inbound_nodes": [[["B3_PDC_1", 0, 0, {}]]], "config": {"use_bias": true, "trainable": true, "kernel_constraint": null, "bias_regularizer": null, "kernel_initializer": {"class_name": "VarianceScaling", "config": {"mode": "fan_avg", "seed": 9035, "scale": 1.0, "distribution": "normal"}}, "units": 1, "bias_constraint": null, "kernel_regularizer": {"class_name": "L1L2", "config": {"l1": 0.0, "l2": 0.0010000000474974513}}, "name": "B3_PDC_out", "activation": "linear", "bias_initializer": {"class_name": "Zeros", "config": {}}, "activity_regularizer": null}}, {"name": "B1_PDC_out", "class_name": "Dense", "inbound_nodes": [[["B1_PDC_1", 0, 0, {}]]], "config": {"use_bias": true, "trainable": true, "kernel_constraint": null, "bias_regularizer": null, "kernel_initializer": {"class_name": "VarianceScaling", "config": {"mode": "fan_avg", "seed": 9035, "scale": 1.0, "distribution": "normal"}}, "units": 1, "bias_constraint": null, "kernel_regularizer": {"class_name": "L1L2", "config": {"l1": 0.0, "l2": 0.0010000000474974513}}, "name": "B1_PDC_out", "activation": "linear", "bias_initializer": {"class_name": "Zeros", "config": {}}, "activity_regularizer": null}}, {"name": "D1_PDC_out", "class_name": "Dense", "inbound_nodes": [[["D1_PDC_1", 0, 0, {}]]], "config": {"use_bias": true, "trainable": true, "kernel_constraint": null, "bias_regularizer": null, "kernel_initializer": {"class_name": "VarianceScaling", "config": {"mode": "fan_avg", "seed": 9035, "scale": 1.0, "distribution": "normal"}}, "units": 1, "bias_constraint": null, "kernel_regularizer": {"class_name": "L1L2", "config": {"l1": 0.0, "l2": 0.0010000000474974513}}, "name": "D1_PDC_out", "activation": "linear", "bias_initializer": {"class_name": "Zeros", "config": {}}, "activity_regularizer": null}}], "input_layers": [["PRESSURE_INPUT", 0, 0], ["RISER_B_CHK_INPUT", 0, 0]], "output_layers": [["C1_PDC_out", 0, 0], ["C2_PDC_out", 0, 0], ["C3_PDC_out", 0, 0], ["C4_PDC_out", 0, 0], ["B3_PDC_out", 0, 0], ["B1_PDC_out", 0, 0], ["D1_PDC_out", 0, 0]]}, "backend": "theano", "class_name": "Model"}