{"class_name": "Model", "config": {"name": "model_2", "layers": [{"name": "Main_input", "class_name": "InputLayer", "config": {"batch_input_shape": [null, 12], "input_dtype": "float32", "sparse": false, "name": "Main_input"}, "inbound_nodes": []}, {"name": "dense_2", "class_name": "Dense", "config": {"name": "dense_2", "trainable": true, "output_dim": 20, "init": "glorot_uniform", "activation": "relu", "W_regularizer": {"name": "L1L2Regularizer", "l1": 0.0, "l2": 9.999999747378752e-05}, "b_regularizer": null, "activity_regularizer": null, "W_constraint": null, "b_constraint": null, "bias": true, "input_dim": 12}, "inbound_nodes": [[["Main_input", 0, 0]]]}, {"name": "C1_oSut", "class_name": "Dense", "config": {"name": "C1_oSut", "trainable": true, "output_dim": 1, "init": "glorot_uniform", "activation": "relu", "W_regularizer": {"name": "L1L2Regularizer", "l1": 0.0, "l2": 9.999999747378752e-05}, "b_regularizer": null, "activity_regularizer": null, "W_constraint": null, "b_constraint": null, "bias": true, "input_dim": 20}, "inbound_nodes": [[["dense_2", 0, 0]]]}, {"name": "OnOff_C1", "class_name": "InputLayer", "config": {"batch_input_shape": [null, 1], "input_dtype": "float32", "sparse": false, "name": "OnOff_C1"}, "inbound_nodes": []}, {"name": "C2_oSut", "class_name": "Dense", "config": {"name": "C2_oSut", "trainable": true, "output_dim": 1, "init": "glorot_uniform", "activation": "relu", "W_regularizer": {"name": "L1L2Regularizer", "l1": 0.0, "l2": 9.999999747378752e-05}, "b_regularizer": null, "activity_regularizer": null, "W_constraint": null, "b_constraint": null, "bias": true, "input_dim": 20}, "inbound_nodes": [[["dense_2", 0, 0]]]}, {"name": "OnOff_C2", "class_name": "InputLayer", "config": {"batch_input_shape": [null, 1], "input_dtype": "float32", "sparse": false, "name": "OnOff_C2"}, "inbound_nodes": []}, {"name": "C3_oSut", "class_name": "Dense", "config": {"name": "C3_oSut", "trainable": true, "output_dim": 1, "init": "glorot_uniform", "activation": "relu", "W_regularizer": {"name": "L1L2Regularizer", "l1": 0.0, "l2": 9.999999747378752e-05}, "b_regularizer": null, "activity_regularizer": null, "W_constraint": null, "b_constraint": null, "bias": true, "input_dim": 20}, "inbound_nodes": [[["dense_2", 0, 0]]]}, {"name": "OnOff_C3", "class_name": "InputLayer", "config": {"batch_input_shape": [null, 1], "input_dtype": "float32", "sparse": false, "name": "OnOff_C3"}, "inbound_nodes": []}, {"name": "C4_oSut", "class_name": "Dense", "config": {"name": "C4_oSut", "trainable": true, "output_dim": 1, "init": "glorot_uniform", "activation": "relu", "W_regularizer": {"name": "L1L2Regularizer", "l1": 0.0, "l2": 9.999999747378752e-05}, "b_regularizer": null, "activity_regularizer": null, "W_constraint": null, "b_constraint": null, "bias": true, "input_dim": 20}, "inbound_nodes": [[["dense_2", 0, 0]]]}, {"name": "OnOff_C4", "class_name": "InputLayer", "config": {"batch_input_shape": [null, 1], "input_dtype": "float32", "sparse": false, "name": "OnOff_C4"}, "inbound_nodes": []}, {"name": "B3_oSut", "class_name": "Dense", "config": {"name": "B3_oSut", "trainable": true, "output_dim": 1, "init": "glorot_uniform", "activation": "relu", "W_regularizer": {"name": "L1L2Regularizer", "l1": 0.0, "l2": 9.999999747378752e-05}, "b_regularizer": null, "activity_regularizer": null, "W_constraint": null, "b_constraint": null, "bias": true, "input_dim": 20}, "inbound_nodes": [[["dense_2", 0, 0]]]}, {"name": "OnOff_B3", "class_name": "InputLayer", "config": {"batch_input_shape": [null, 1], "input_dtype": "float32", "sparse": false, "name": "OnOff_B3"}, "inbound_nodes": []}, {"name": "B1_oSut", "class_name": "Dense", "config": {"name": "B1_oSut", "trainable": true, "output_dim": 1, "init": "glorot_uniform", "activation": "relu", "W_regularizer": {"name": "L1L2Regularizer", "l1": 0.0, "l2": 9.999999747378752e-05}, "b_regularizer": null, "activity_regularizer": null, "W_constraint": null, "b_constraint": null, "bias": true, "input_dim": 20}, "inbound_nodes": [[["dense_2", 0, 0]]]}, {"name": "OnOff_B1", "class_name": "InputLayer", "config": {"batch_input_shape": [null, 1], "input_dtype": "float32", "sparse": false, "name": "OnOff_B1"}, "inbound_nodes": []}, {"name": "D1_oSut", "class_name": "Dense", "config": {"name": "D1_oSut", "trainable": true, "output_dim": 1, "init": "glorot_uniform", "activation": "relu", "W_regularizer": {"name": "L1L2Regularizer", "l1": 0.0, "l2": 9.999999747378752e-05}, "b_regularizer": null, "activity_regularizer": null, "W_constraint": null, "b_constraint": null, "bias": true, "input_dim": 20}, "inbound_nodes": [[["dense_2", 0, 0]]]}, {"name": "OnOff_D1", "class_name": "InputLayer", "config": {"batch_input_shape": [null, 1], "input_dtype": "float32", "sparse": false, "name": "OnOff_D1"}, "inbound_nodes": []}, {"name": "C1_out", "class_name": "Merge", "config": {"name": "C1_out", "mode": "mul", "mode_type": "raw", "concat_axis": -1, "dot_axes": -1, "output_shape": null, "output_shape_type": "raw", "output_mask": null, "output_mask_type": "raw", "arguments": {}}, "inbound_nodes": [[["C1_oSut", 0, 0], ["OnOff_C1", 0, 0]]]}, {"name": "C2_out", "class_name": "Merge", "config": {"name": "C2_out", "mode": "mul", "mode_type": "raw", "concat_axis": -1, "dot_axes": -1, "output_shape": null, "output_shape_type": "raw", "output_mask": null, "output_mask_type": "raw", "arguments": {}}, "inbound_nodes": [[["C2_oSut", 0, 0], ["OnOff_C2", 0, 0]]]}, {"name": "C3_out", "class_name": "Merge", "config": {"name": "C3_out", "mode": "mul", "mode_type": "raw", "concat_axis": -1, "dot_axes": -1, "output_shape": null, "output_shape_type": "raw", "output_mask": null, "output_mask_type": "raw", "arguments": {}}, "inbound_nodes": [[["C3_oSut", 0, 0], ["OnOff_C3", 0, 0]]]}, {"name": "C4_out", "class_name": "Merge", "config": {"name": "C4_out", "mode": "mul", "mode_type": "raw", "concat_axis": -1, "dot_axes": -1, "output_shape": null, "output_shape_type": "raw", "output_mask": null, "output_mask_type": "raw", "arguments": {}}, "inbound_nodes": [[["C4_oSut", 0, 0], ["OnOff_C4", 0, 0]]]}, {"name": "B3_out", "class_name": "Merge", "config": {"name": "B3_out", "mode": "mul", "mode_type": "raw", "concat_axis": -1, "dot_axes": -1, "output_shape": null, "output_shape_type": "raw", "output_mask": null, "output_mask_type": "raw", "arguments": {}}, "inbound_nodes": [[["B3_oSut", 0, 0], ["OnOff_B3", 0, 0]]]}, {"name": "B1_out", "class_name": "Merge", "config": {"name": "B1_out", "mode": "mul", "mode_type": "raw", "concat_axis": -1, "dot_axes": -1, "output_shape": null, "output_shape_type": "raw", "output_mask": null, "output_mask_type": "raw", "arguments": {}}, "inbound_nodes": [[["B1_oSut", 0, 0], ["OnOff_B1", 0, 0]]]}, {"name": "D1_out", "class_name": "Merge", "config": {"name": "D1_out", "mode": "mul", "mode_type": "raw", "concat_axis": -1, "dot_axes": -1, "output_shape": null, "output_shape_type": "raw", "output_mask": null, "output_mask_type": "raw", "arguments": {}}, "inbound_nodes": [[["D1_oSut", 0, 0], ["OnOff_D1", 0, 0]]]}], "input_layers": [["Main_input", 0, 0], ["OnOff_C1", 0, 0], ["OnOff_C2", 0, 0], ["OnOff_C3", 0, 0], ["OnOff_C4", 0, 0], ["OnOff_B3", 0, 0], ["OnOff_B1", 0, 0], ["OnOff_D1", 0, 0]], "output_layers": [["C1_out", 0, 0], ["C2_out", 0, 0], ["C3_out", 0, 0], ["C4_out", 0, 0], ["B3_out", 0, 0], ["B1_out", 0, 0], ["D1_out", 0, 0]]}, "keras_version": "1.2.1"}