{"backend": "theano", "keras_version": "2.0.1", "class_name": "Model", "config": {"name": "model_1", "input_layers": [["CHK_INPUT_NOW", 0, 0]], "layers": [{"name": "CHK_INPUT_NOW", "inbound_nodes": [], "class_name": "InputLayer", "config": {"sparse": false, "batch_input_shape": [null, 8], "name": "CHK_INPUT_NOW", "dtype": "float32"}}, {"name": "B1_PDC_0", "inbound_nodes": [[["CHK_INPUT_NOW", 0, 0, {}]]], "class_name": "Dense", "config": {"name": "B1_PDC_0", "units": 80, "activation": "relu", "bias_regularizer": null, "use_bias": true, "trainable": true, "kernel_regularizer": {"class_name": "L1L2", "config": {"l2": 0.0003000000142492354, "l1": 0.0}}, "activity_regularizer": null, "kernel_constraint": null, "bias_constraint": null, "kernel_initializer": {"class_name": "VarianceScaling", "config": {"distribution": "normal", "mode": "fan_avg", "scale": 1.0, "seed": 3014}}, "bias_initializer": {"class_name": "Zeros", "config": {}}}}, {"name": "B3_PDC_0", "inbound_nodes": [[["CHK_INPUT_NOW", 0, 0, {}]]], "class_name": "Dense", "config": {"name": "B3_PDC_0", "units": 80, "activation": "relu", "bias_regularizer": null, "use_bias": true, "trainable": true, "kernel_regularizer": {"class_name": "L1L2", "config": {"l2": 0.0003000000142492354, "l1": 0.0}}, "activity_regularizer": null, "kernel_constraint": null, "bias_constraint": null, "kernel_initializer": {"class_name": "VarianceScaling", "config": {"distribution": "normal", "mode": "fan_avg", "scale": 1.0, "seed": 3014}}, "bias_initializer": {"class_name": "Zeros", "config": {}}}}, {"name": "C1_PDC_0", "inbound_nodes": [[["CHK_INPUT_NOW", 0, 0, {}]]], "class_name": "Dense", "config": {"name": "C1_PDC_0", "units": 80, "activation": "relu", "bias_regularizer": null, "use_bias": true, "trainable": true, "kernel_regularizer": {"class_name": "L1L2", "config": {"l2": 0.0003000000142492354, "l1": 0.0}}, "activity_regularizer": null, "kernel_constraint": null, "bias_constraint": null, "kernel_initializer": {"class_name": "VarianceScaling", "config": {"distribution": "normal", "mode": "fan_avg", "scale": 1.0, "seed": 3014}}, "bias_initializer": {"class_name": "Zeros", "config": {}}}}, {"name": "C2_PDC_0", "inbound_nodes": [[["CHK_INPUT_NOW", 0, 0, {}]]], "class_name": "Dense", "config": {"name": "C2_PDC_0", "units": 80, "activation": "relu", "bias_regularizer": null, "use_bias": true, "trainable": true, "kernel_regularizer": {"class_name": "L1L2", "config": {"l2": 0.0003000000142492354, "l1": 0.0}}, "activity_regularizer": null, "kernel_constraint": null, "bias_constraint": null, "kernel_initializer": {"class_name": "VarianceScaling", "config": {"distribution": "normal", "mode": "fan_avg", "scale": 1.0, "seed": 3014}}, "bias_initializer": {"class_name": "Zeros", "config": {}}}}, {"name": "C3_PDC_0", "inbound_nodes": [[["CHK_INPUT_NOW", 0, 0, {}]]], "class_name": "Dense", "config": {"name": "C3_PDC_0", "units": 80, "activation": "relu", "bias_regularizer": null, "use_bias": true, "trainable": true, "kernel_regularizer": {"class_name": "L1L2", "config": {"l2": 0.0003000000142492354, "l1": 0.0}}, "activity_regularizer": null, "kernel_constraint": null, "bias_constraint": null, "kernel_initializer": {"class_name": "VarianceScaling", "config": {"distribution": "normal", "mode": "fan_avg", "scale": 1.0, "seed": 3014}}, "bias_initializer": {"class_name": "Zeros", "config": {}}}}, {"name": "C4_PDC_0", "inbound_nodes": [[["CHK_INPUT_NOW", 0, 0, {}]]], "class_name": "Dense", "config": {"name": "C4_PDC_0", "units": 80, "activation": "relu", "bias_regularizer": null, "use_bias": true, "trainable": true, "kernel_regularizer": {"class_name": "L1L2", "config": {"l2": 0.0003000000142492354, "l1": 0.0}}, "activity_regularizer": null, "kernel_constraint": null, "bias_constraint": null, "kernel_initializer": {"class_name": "VarianceScaling", "config": {"distribution": "normal", "mode": "fan_avg", "scale": 1.0, "seed": 3014}}, "bias_initializer": {"class_name": "Zeros", "config": {}}}}, {"name": "D1_PDC_0", "inbound_nodes": [[["CHK_INPUT_NOW", 0, 0, {}]]], "class_name": "Dense", "config": {"name": "D1_PDC_0", "units": 80, "activation": "relu", "bias_regularizer": null, "use_bias": true, "trainable": true, "kernel_regularizer": {"class_name": "L1L2", "config": {"l2": 0.0003000000142492354, "l1": 0.0}}, "activity_regularizer": null, "kernel_constraint": null, "bias_constraint": null, "kernel_initializer": {"class_name": "VarianceScaling", "config": {"distribution": "normal", "mode": "fan_avg", "scale": 1.0, "seed": 3014}}, "bias_initializer": {"class_name": "Zeros", "config": {}}}}, {"name": "B1_PDC_1", "inbound_nodes": [[["B1_PDC_0", 0, 0, {}]]], "class_name": "Dense", "config": {"name": "B1_PDC_1", "units": 80, "activation": "relu", "bias_regularizer": null, "use_bias": true, "trainable": true, "kernel_regularizer": {"class_name": "L1L2", "config": {"l2": 0.0003000000142492354, "l1": 0.0}}, "activity_regularizer": null, "kernel_constraint": null, "bias_constraint": null, "kernel_initializer": {"class_name": "VarianceScaling", "config": {"distribution": "normal", "mode": "fan_avg", "scale": 1.0, "seed": 3014}}, "bias_initializer": {"class_name": "Zeros", "config": {}}}}, {"name": "B3_PDC_1", "inbound_nodes": [[["B3_PDC_0", 0, 0, {}]]], "class_name": "Dense", "config": {"name": "B3_PDC_1", "units": 80, "activation": "relu", "bias_regularizer": null, "use_bias": true, "trainable": true, "kernel_regularizer": {"class_name": "L1L2", "config": {"l2": 0.0003000000142492354, "l1": 0.0}}, "activity_regularizer": null, "kernel_constraint": null, "bias_constraint": null, "kernel_initializer": {"class_name": "VarianceScaling", "config": {"distribution": "normal", "mode": "fan_avg", "scale": 1.0, "seed": 3014}}, "bias_initializer": {"class_name": "Zeros", "config": {}}}}, {"name": "C1_PDC_1", "inbound_nodes": [[["C1_PDC_0", 0, 0, {}]]], "class_name": "Dense", "config": {"name": "C1_PDC_1", "units": 80, "activation": "relu", "bias_regularizer": null, "use_bias": true, "trainable": true, "kernel_regularizer": {"class_name": "L1L2", "config": {"l2": 0.0003000000142492354, "l1": 0.0}}, "activity_regularizer": null, "kernel_constraint": null, "bias_constraint": null, "kernel_initializer": {"class_name": "VarianceScaling", "config": {"distribution": "normal", "mode": "fan_avg", "scale": 1.0, "seed": 3014}}, "bias_initializer": {"class_name": "Zeros", "config": {}}}}, {"name": "C2_PDC_1", "inbound_nodes": [[["C2_PDC_0", 0, 0, {}]]], "class_name": "Dense", "config": {"name": "C2_PDC_1", "units": 80, "activation": "relu", "bias_regularizer": null, "use_bias": true, "trainable": true, "kernel_regularizer": {"class_name": "L1L2", "config": {"l2": 0.0003000000142492354, "l1": 0.0}}, "activity_regularizer": null, "kernel_constraint": null, "bias_constraint": null, "kernel_initializer": {"class_name": "VarianceScaling", "config": {"distribution": "normal", "mode": "fan_avg", "scale": 1.0, "seed": 3014}}, "bias_initializer": {"class_name": "Zeros", "config": {}}}}, {"name": "C3_PDC_1", "inbound_nodes": [[["C3_PDC_0", 0, 0, {}]]], "class_name": "Dense", "config": {"name": "C3_PDC_1", "units": 80, "activation": "relu", "bias_regularizer": null, "use_bias": true, "trainable": true, "kernel_regularizer": {"class_name": "L1L2", "config": {"l2": 0.0003000000142492354, "l1": 0.0}}, "activity_regularizer": null, "kernel_constraint": null, "bias_constraint": null, "kernel_initializer": {"class_name": "VarianceScaling", "config": {"distribution": "normal", "mode": "fan_avg", "scale": 1.0, "seed": 3014}}, "bias_initializer": {"class_name": "Zeros", "config": {}}}}, {"name": "C4_PDC_1", "inbound_nodes": [[["C4_PDC_0", 0, 0, {}]]], "class_name": "Dense", "config": {"name": "C4_PDC_1", "units": 80, "activation": "relu", "bias_regularizer": null, "use_bias": true, "trainable": true, "kernel_regularizer": {"class_name": "L1L2", "config": {"l2": 0.0003000000142492354, "l1": 0.0}}, "activity_regularizer": null, "kernel_constraint": null, "bias_constraint": null, "kernel_initializer": {"class_name": "VarianceScaling", "config": {"distribution": "normal", "mode": "fan_avg", "scale": 1.0, "seed": 3014}}, "bias_initializer": {"class_name": "Zeros", "config": {}}}}, {"name": "D1_PDC_1", "inbound_nodes": [[["D1_PDC_0", 0, 0, {}]]], "class_name": "Dense", "config": {"name": "D1_PDC_1", "units": 80, "activation": "relu", "bias_regularizer": null, "use_bias": true, "trainable": true, "kernel_regularizer": {"class_name": "L1L2", "config": {"l2": 0.0003000000142492354, "l1": 0.0}}, "activity_regularizer": null, "kernel_constraint": null, "bias_constraint": null, "kernel_initializer": {"class_name": "VarianceScaling", "config": {"distribution": "normal", "mode": "fan_avg", "scale": 1.0, "seed": 3014}}, "bias_initializer": {"class_name": "Zeros", "config": {}}}}, {"name": "B1_PDC_out", "inbound_nodes": [[["B1_PDC_1", 0, 0, {}]]], "class_name": "Dense", "config": {"name": "B1_PDC_out", "units": 1, "activation": "linear", "bias_regularizer": null, "use_bias": true, "trainable": true, "kernel_regularizer": {"class_name": "L1L2", "config": {"l2": 0.0003000000142492354, "l1": 0.0}}, "activity_regularizer": null, "kernel_constraint": null, "bias_constraint": null, "kernel_initializer": {"class_name": "VarianceScaling", "config": {"distribution": "normal", "mode": "fan_avg", "scale": 1.0, "seed": 3014}}, "bias_initializer": {"class_name": "Zeros", "config": {}}}}, {"name": "B3_PDC_out", "inbound_nodes": [[["B3_PDC_1", 0, 0, {}]]], "class_name": "Dense", "config": {"name": "B3_PDC_out", "units": 1, "activation": "linear", "bias_regularizer": null, "use_bias": true, "trainable": true, "kernel_regularizer": {"class_name": "L1L2", "config": {"l2": 0.0003000000142492354, "l1": 0.0}}, "activity_regularizer": null, "kernel_constraint": null, "bias_constraint": null, "kernel_initializer": {"class_name": "VarianceScaling", "config": {"distribution": "normal", "mode": "fan_avg", "scale": 1.0, "seed": 3014}}, "bias_initializer": {"class_name": "Zeros", "config": {}}}}, {"name": "C1_PDC_out", "inbound_nodes": [[["C1_PDC_1", 0, 0, {}]]], "class_name": "Dense", "config": {"name": "C1_PDC_out", "units": 1, "activation": "linear", "bias_regularizer": null, "use_bias": true, "trainable": true, "kernel_regularizer": {"class_name": "L1L2", "config": {"l2": 0.0003000000142492354, "l1": 0.0}}, "activity_regularizer": null, "kernel_constraint": null, "bias_constraint": null, "kernel_initializer": {"class_name": "VarianceScaling", "config": {"distribution": "normal", "mode": "fan_avg", "scale": 1.0, "seed": 3014}}, "bias_initializer": {"class_name": "Zeros", "config": {}}}}, {"name": "C2_PDC_out", "inbound_nodes": [[["C2_PDC_1", 0, 0, {}]]], "class_name": "Dense", "config": {"name": "C2_PDC_out", "units": 1, "activation": "linear", "bias_regularizer": null, "use_bias": true, "trainable": true, "kernel_regularizer": {"class_name": "L1L2", "config": {"l2": 0.0003000000142492354, "l1": 0.0}}, "activity_regularizer": null, "kernel_constraint": null, "bias_constraint": null, "kernel_initializer": {"class_name": "VarianceScaling", "config": {"distribution": "normal", "mode": "fan_avg", "scale": 1.0, "seed": 3014}}, "bias_initializer": {"class_name": "Zeros", "config": {}}}}, {"name": "C3_PDC_out", "inbound_nodes": [[["C3_PDC_1", 0, 0, {}]]], "class_name": "Dense", "config": {"name": "C3_PDC_out", "units": 1, "activation": "linear", "bias_regularizer": null, "use_bias": true, "trainable": true, "kernel_regularizer": {"class_name": "L1L2", "config": {"l2": 0.0003000000142492354, "l1": 0.0}}, "activity_regularizer": null, "kernel_constraint": null, "bias_constraint": null, "kernel_initializer": {"class_name": "VarianceScaling", "config": {"distribution": "normal", "mode": "fan_avg", "scale": 1.0, "seed": 3014}}, "bias_initializer": {"class_name": "Zeros", "config": {}}}}, {"name": "C4_PDC_out", "inbound_nodes": [[["C4_PDC_1", 0, 0, {}]]], "class_name": "Dense", "config": {"name": "C4_PDC_out", "units": 1, "activation": "linear", "bias_regularizer": null, "use_bias": true, "trainable": true, "kernel_regularizer": {"class_name": "L1L2", "config": {"l2": 0.0003000000142492354, "l1": 0.0}}, "activity_regularizer": null, "kernel_constraint": null, "bias_constraint": null, "kernel_initializer": {"class_name": "VarianceScaling", "config": {"distribution": "normal", "mode": "fan_avg", "scale": 1.0, "seed": 3014}}, "bias_initializer": {"class_name": "Zeros", "config": {}}}}, {"name": "D1_PDC_out", "inbound_nodes": [[["D1_PDC_1", 0, 0, {}]]], "class_name": "Dense", "config": {"name": "D1_PDC_out", "units": 1, "activation": "linear", "bias_regularizer": null, "use_bias": true, "trainable": true, "kernel_regularizer": {"class_name": "L1L2", "config": {"l2": 0.0003000000142492354, "l1": 0.0}}, "activity_regularizer": null, "kernel_constraint": null, "bias_constraint": null, "kernel_initializer": {"class_name": "VarianceScaling", "config": {"distribution": "normal", "mode": "fan_avg", "scale": 1.0, "seed": 3014}}, "bias_initializer": {"class_name": "Zeros", "config": {}}}}], "output_layers": [["B1_PDC_out", 0, 0], ["B3_PDC_out", 0, 0], ["C1_PDC_out", 0, 0], ["C2_PDC_out", 0, 0], ["C3_PDC_out", 0, 0], ["C4_PDC_out", 0, 0], ["D1_PDC_out", 0, 0]]}}