{"config": {"name": "model_1", "layers": [{"name": "CHK_INPUT_PREV", "config": {"name": "CHK_INPUT_PREV", "dtype": "float32", "sparse": false, "batch_input_shape": [null, 4]}, "class_name": "InputLayer", "inbound_nodes": []}, {"name": "CHK_INPUT_NOW", "config": {"name": "CHK_INPUT_NOW", "dtype": "float32", "sparse": false, "batch_input_shape": [null, 4]}, "class_name": "InputLayer", "inbound_nodes": []}, {"name": "CHK_DELTA", "config": {"name": "CHK_DELTA", "trainable": true}, "class_name": "Add", "inbound_nodes": [[["CHK_INPUT_PREV", 0, 0, {}], ["CHK_INPUT_NOW", 0, 0, {}]]]}, {"name": "F1_PDC_0", "config": {"activation": "relu", "kernel_constraint": null, "bias_initializer": {"config": {}, "class_name": "Zeros"}, "trainable": true, "bias_regularizer": null, "use_bias": true, "activity_regularizer": null, "bias_constraint": null, "units": 20, "name": "F1_PDC_0", "kernel_initializer": {"config": {"distribution": "normal", "seed": 3014, "mode": "fan_avg", "scale": 1.0}, "class_name": "VarianceScaling"}, "kernel_regularizer": {"config": {"l2": 0.0002500000118743628, "l1": 0.0}, "class_name": "L1L2"}}, "class_name": "Dense", "inbound_nodes": [[["CHK_DELTA", 0, 0, {}]]]}, {"name": "B2_PDC_0", "config": {"activation": "relu", "kernel_constraint": null, "bias_initializer": {"config": {}, "class_name": "Zeros"}, "trainable": true, "bias_regularizer": null, "use_bias": true, "activity_regularizer": null, "bias_constraint": null, "units": 20, "name": "B2_PDC_0", "kernel_initializer": {"config": {"distribution": "normal", "seed": 3014, "mode": "fan_avg", "scale": 1.0}, "class_name": "VarianceScaling"}, "kernel_regularizer": {"config": {"l2": 0.0002500000118743628, "l1": 0.0}, "class_name": "L1L2"}}, "class_name": "Dense", "inbound_nodes": [[["CHK_DELTA", 0, 0, {}]]]}, {"name": "D3_PDC_0", "config": {"activation": "relu", "kernel_constraint": null, "bias_initializer": {"config": {}, "class_name": "Zeros"}, "trainable": true, "bias_regularizer": null, "use_bias": true, "activity_regularizer": null, "bias_constraint": null, "units": 20, "name": "D3_PDC_0", "kernel_initializer": {"config": {"distribution": "normal", "seed": 3014, "mode": "fan_avg", "scale": 1.0}, "class_name": "VarianceScaling"}, "kernel_regularizer": {"config": {"l2": 0.0002500000118743628, "l1": 0.0}, "class_name": "L1L2"}}, "class_name": "Dense", "inbound_nodes": [[["CHK_DELTA", 0, 0, {}]]]}, {"name": "E1_PDC_0", "config": {"activation": "relu", "kernel_constraint": null, "bias_initializer": {"config": {}, "class_name": "Zeros"}, "trainable": true, "bias_regularizer": null, "use_bias": true, "activity_regularizer": null, "bias_constraint": null, "units": 20, "name": "E1_PDC_0", "kernel_initializer": {"config": {"distribution": "normal", "seed": 3014, "mode": "fan_avg", "scale": 1.0}, "class_name": "VarianceScaling"}, "kernel_regularizer": {"config": {"l2": 0.0002500000118743628, "l1": 0.0}, "class_name": "L1L2"}}, "class_name": "Dense", "inbound_nodes": [[["CHK_DELTA", 0, 0, {}]]]}, {"name": "F1_PDC_1", "config": {"activation": "relu", "kernel_constraint": null, "bias_initializer": {"config": {}, "class_name": "Zeros"}, "trainable": true, "bias_regularizer": null, "use_bias": true, "activity_regularizer": null, "bias_constraint": null, "units": 20, "name": "F1_PDC_1", "kernel_initializer": {"config": {"distribution": "normal", "seed": 3014, "mode": "fan_avg", "scale": 1.0}, "class_name": "VarianceScaling"}, "kernel_regularizer": {"config": {"l2": 0.0002500000118743628, "l1": 0.0}, "class_name": "L1L2"}}, "class_name": "Dense", "inbound_nodes": [[["F1_PDC_0", 0, 0, {}]]]}, {"name": "B2_PDC_1", "config": {"activation": "relu", "kernel_constraint": null, "bias_initializer": {"config": {}, "class_name": "Zeros"}, "trainable": true, "bias_regularizer": null, "use_bias": true, "activity_regularizer": null, "bias_constraint": null, "units": 20, "name": "B2_PDC_1", "kernel_initializer": {"config": {"distribution": "normal", "seed": 3014, "mode": "fan_avg", "scale": 1.0}, "class_name": "VarianceScaling"}, "kernel_regularizer": {"config": {"l2": 0.0002500000118743628, "l1": 0.0}, "class_name": "L1L2"}}, "class_name": "Dense", "inbound_nodes": [[["B2_PDC_0", 0, 0, {}]]]}, {"name": "D3_PDC_1", "config": {"activation": "relu", "kernel_constraint": null, "bias_initializer": {"config": {}, "class_name": "Zeros"}, "trainable": true, "bias_regularizer": null, "use_bias": true, "activity_regularizer": null, "bias_constraint": null, "units": 20, "name": "D3_PDC_1", "kernel_initializer": {"config": {"distribution": "normal", "seed": 3014, "mode": "fan_avg", "scale": 1.0}, "class_name": "VarianceScaling"}, "kernel_regularizer": {"config": {"l2": 0.0002500000118743628, "l1": 0.0}, "class_name": "L1L2"}}, "class_name": "Dense", "inbound_nodes": [[["D3_PDC_0", 0, 0, {}]]]}, {"name": "E1_PDC_1", "config": {"activation": "relu", "kernel_constraint": null, "bias_initializer": {"config": {}, "class_name": "Zeros"}, "trainable": true, "bias_regularizer": null, "use_bias": true, "activity_regularizer": null, "bias_constraint": null, "units": 20, "name": "E1_PDC_1", "kernel_initializer": {"config": {"distribution": "normal", "seed": 3014, "mode": "fan_avg", "scale": 1.0}, "class_name": "VarianceScaling"}, "kernel_regularizer": {"config": {"l2": 0.0002500000118743628, "l1": 0.0}, "class_name": "L1L2"}}, "class_name": "Dense", "inbound_nodes": [[["E1_PDC_0", 0, 0, {}]]]}, {"name": "F1_PDC_out", "config": {"activation": "linear", "kernel_constraint": null, "bias_initializer": {"config": {}, "class_name": "Zeros"}, "trainable": true, "bias_regularizer": null, "use_bias": true, "activity_regularizer": null, "bias_constraint": null, "units": 1, "name": "F1_PDC_out", "kernel_initializer": {"config": {"distribution": "normal", "seed": 3014, "mode": "fan_avg", "scale": 1.0}, "class_name": "VarianceScaling"}, "kernel_regularizer": {"config": {"l2": 0.0002500000118743628, "l1": 0.0}, "class_name": "L1L2"}}, "class_name": "Dense", "inbound_nodes": [[["F1_PDC_1", 0, 0, {}]]]}, {"name": "SHIFTED_PRESSURE_PDC_F1", "config": {"name": "SHIFTED_PRESSURE_PDC_F1", "dtype": "float32", "sparse": false, "batch_input_shape": [null, 1]}, "class_name": "InputLayer", "inbound_nodes": []}, {"name": "B2_PDC_out", "config": {"activation": "linear", "kernel_constraint": null, "bias_initializer": {"config": {}, "class_name": "Zeros"}, "trainable": true, "bias_regularizer": null, "use_bias": true, "activity_regularizer": null, "bias_constraint": null, "units": 1, "name": "B2_PDC_out", "kernel_initializer": {"config": {"distribution": "normal", "seed": 3014, "mode": "fan_avg", "scale": 1.0}, "class_name": "VarianceScaling"}, "kernel_regularizer": {"config": {"l2": 0.0002500000118743628, "l1": 0.0}, "class_name": "L1L2"}}, "class_name": "Dense", "inbound_nodes": [[["B2_PDC_1", 0, 0, {}]]]}, {"name": "SHIFTED_PRESSURE_PDC_B2", "config": {"name": "SHIFTED_PRESSURE_PDC_B2", "dtype": "float32", "sparse": false, "batch_input_shape": [null, 1]}, "class_name": "InputLayer", "inbound_nodes": []}, {"name": "D3_PDC_out", "config": {"activation": "linear", "kernel_constraint": null, "bias_initializer": {"config": {}, "class_name": "Zeros"}, "trainable": true, "bias_regularizer": null, "use_bias": true, "activity_regularizer": null, "bias_constraint": null, "units": 1, "name": "D3_PDC_out", "kernel_initializer": {"config": {"distribution": "normal", "seed": 3014, "mode": "fan_avg", "scale": 1.0}, "class_name": "VarianceScaling"}, "kernel_regularizer": {"config": {"l2": 0.0002500000118743628, "l1": 0.0}, "class_name": "L1L2"}}, "class_name": "Dense", "inbound_nodes": [[["D3_PDC_1", 0, 0, {}]]]}, {"name": "SHIFTED_PRESSURE_PDC_D3", "config": {"name": "SHIFTED_PRESSURE_PDC_D3", "dtype": "float32", "sparse": false, "batch_input_shape": [null, 1]}, "class_name": "InputLayer", "inbound_nodes": []}, {"name": "E1_PDC_out", "config": {"activation": "linear", "kernel_constraint": null, "bias_initializer": {"config": {}, "class_name": "Zeros"}, "trainable": true, "bias_regularizer": null, "use_bias": true, "activity_regularizer": null, "bias_constraint": null, "units": 1, "name": "E1_PDC_out", "kernel_initializer": {"config": {"distribution": "normal", "seed": 3014, "mode": "fan_avg", "scale": 1.0}, "class_name": "VarianceScaling"}, "kernel_regularizer": {"config": {"l2": 0.0002500000118743628, "l1": 0.0}, "class_name": "L1L2"}}, "class_name": "Dense", "inbound_nodes": [[["E1_PDC_1", 0, 0, {}]]]}, {"name": "SHIFTED_PRESSURE_PDC_E1", "config": {"name": "SHIFTED_PRESSURE_PDC_E1", "dtype": "float32", "sparse": false, "batch_input_shape": [null, 1]}, "class_name": "InputLayer", "inbound_nodes": []}, {"name": "F1_PDC_out2", "config": {"name": "F1_PDC_out2", "trainable": true}, "class_name": "Add", "inbound_nodes": [[["F1_PDC_out", 0, 0, {}], ["SHIFTED_PRESSURE_PDC_F1", 0, 0, {}]]]}, {"name": "B2_PDC_out2", "config": {"name": "B2_PDC_out2", "trainable": true}, "class_name": "Add", "inbound_nodes": [[["B2_PDC_out", 0, 0, {}], ["SHIFTED_PRESSURE_PDC_B2", 0, 0, {}]]]}, {"name": "D3_PDC_out2", "config": {"name": "D3_PDC_out2", "trainable": true}, "class_name": "Add", "inbound_nodes": [[["D3_PDC_out", 0, 0, {}], ["SHIFTED_PRESSURE_PDC_D3", 0, 0, {}]]]}, {"name": "E1_PDC_out2", "config": {"name": "E1_PDC_out2", "trainable": true}, "class_name": "Add", "inbound_nodes": [[["E1_PDC_out", 0, 0, {}], ["SHIFTED_PRESSURE_PDC_E1", 0, 0, {}]]]}], "output_layers": [["F1_PDC_out2", 0, 0], ["F1_PDC_out", 0, 0], ["B2_PDC_out2", 0, 0], ["B2_PDC_out", 0, 0], ["D3_PDC_out2", 0, 0], ["D3_PDC_out", 0, 0], ["E1_PDC_out2", 0, 0], ["E1_PDC_out", 0, 0]], "input_layers": [["CHK_INPUT_NOW", 0, 0], ["CHK_INPUT_PREV", 0, 0], ["SHIFTED_PRESSURE_PDC_F1", 0, 0], ["SHIFTED_PRESSURE_PDC_B2", 0, 0], ["SHIFTED_PRESSURE_PDC_D3", 0, 0], ["SHIFTED_PRESSURE_PDC_E1", 0, 0]]}, "backend": "theano", "class_name": "Model", "keras_version": "2.0.1"}