{"config": {"layers": [{"config": {"batch_input_shape": [null, 7], "name": "PRESSURE_INPUT", "dtype": "float32", "sparse": false}, "inbound_nodes": [], "class_name": "InputLayer", "name": "PRESSURE_INPUT"}, {"config": {"kernel_constraint": null, "bias_constraint": null, "units": 100, "kernel_initializer": {"config": {"scale": 1.0, "mode": "fan_avg", "seed": 3014, "distribution": "normal"}, "class_name": "VarianceScaling"}, "activity_regularizer": null, "bias_regularizer": null, "name": "C1_PWH_0", "activation": "relu", "trainable": true, "kernel_regularizer": {"config": {"l2": 0.0020000000949949026, "l1": 0.0}, "class_name": "L1L2"}, "use_bias": true, "bias_initializer": {"config": {}, "class_name": "Zeros"}}, "inbound_nodes": [[["PRESSURE_INPUT", 0, 0, {}]]], "class_name": "Dense", "name": "C1_PWH_0"}, {"config": {"kernel_constraint": null, "bias_constraint": null, "units": 100, "kernel_initializer": {"config": {"scale": 1.0, "mode": "fan_avg", "seed": 3014, "distribution": "normal"}, "class_name": "VarianceScaling"}, "activity_regularizer": null, "bias_regularizer": null, "name": "C2_PWH_0", "activation": "relu", "trainable": true, "kernel_regularizer": {"config": {"l2": 0.0020000000949949026, "l1": 0.0}, "class_name": "L1L2"}, "use_bias": true, "bias_initializer": {"config": {}, "class_name": "Zeros"}}, "inbound_nodes": [[["PRESSURE_INPUT", 0, 0, {}]]], "class_name": "Dense", "name": "C2_PWH_0"}, {"config": {"kernel_constraint": null, "bias_constraint": null, "units": 100, "kernel_initializer": {"config": {"scale": 1.0, "mode": "fan_avg", "seed": 3014, "distribution": "normal"}, "class_name": "VarianceScaling"}, "activity_regularizer": null, "bias_regularizer": null, "name": "C3_PWH_0", "activation": "relu", "trainable": true, "kernel_regularizer": {"config": {"l2": 0.0020000000949949026, "l1": 0.0}, "class_name": "L1L2"}, "use_bias": true, "bias_initializer": {"config": {}, "class_name": "Zeros"}}, "inbound_nodes": [[["PRESSURE_INPUT", 0, 0, {}]]], "class_name": "Dense", "name": "C3_PWH_0"}, {"config": {"kernel_constraint": null, "bias_constraint": null, "units": 100, "kernel_initializer": {"config": {"scale": 1.0, "mode": "fan_avg", "seed": 3014, "distribution": "normal"}, "class_name": "VarianceScaling"}, "activity_regularizer": null, "bias_regularizer": null, "name": "C4_PWH_0", "activation": "relu", "trainable": true, "kernel_regularizer": {"config": {"l2": 0.0020000000949949026, "l1": 0.0}, "class_name": "L1L2"}, "use_bias": true, "bias_initializer": {"config": {}, "class_name": "Zeros"}}, "inbound_nodes": [[["PRESSURE_INPUT", 0, 0, {}]]], "class_name": "Dense", "name": "C4_PWH_0"}, {"config": {"kernel_constraint": null, "bias_constraint": null, "units": 100, "kernel_initializer": {"config": {"scale": 1.0, "mode": "fan_avg", "seed": 3014, "distribution": "normal"}, "class_name": "VarianceScaling"}, "activity_regularizer": null, "bias_regularizer": null, "name": "B3_PWH_0", "activation": "relu", "trainable": true, "kernel_regularizer": {"config": {"l2": 0.0020000000949949026, "l1": 0.0}, "class_name": "L1L2"}, "use_bias": true, "bias_initializer": {"config": {}, "class_name": "Zeros"}}, "inbound_nodes": [[["PRESSURE_INPUT", 0, 0, {}]]], "class_name": "Dense", "name": "B3_PWH_0"}, {"config": {"kernel_constraint": null, "bias_constraint": null, "units": 100, "kernel_initializer": {"config": {"scale": 1.0, "mode": "fan_avg", "seed": 3014, "distribution": "normal"}, "class_name": "VarianceScaling"}, "activity_regularizer": null, "bias_regularizer": null, "name": "B1_PWH_0", "activation": "relu", "trainable": true, "kernel_regularizer": {"config": {"l2": 0.0020000000949949026, "l1": 0.0}, "class_name": "L1L2"}, "use_bias": true, "bias_initializer": {"config": {}, "class_name": "Zeros"}}, "inbound_nodes": [[["PRESSURE_INPUT", 0, 0, {}]]], "class_name": "Dense", "name": "B1_PWH_0"}, {"config": {"kernel_constraint": null, "bias_constraint": null, "units": 100, "kernel_initializer": {"config": {"scale": 1.0, "mode": "fan_avg", "seed": 3014, "distribution": "normal"}, "class_name": "VarianceScaling"}, "activity_regularizer": null, "bias_regularizer": null, "name": "D1_PWH_0", "activation": "relu", "trainable": true, "kernel_regularizer": {"config": {"l2": 0.0020000000949949026, "l1": 0.0}, "class_name": "L1L2"}, "use_bias": true, "bias_initializer": {"config": {}, "class_name": "Zeros"}}, "inbound_nodes": [[["PRESSURE_INPUT", 0, 0, {}]]], "class_name": "Dense", "name": "D1_PWH_0"}, {"config": {"kernel_constraint": null, "bias_constraint": null, "units": 100, "kernel_initializer": {"config": {"scale": 1.0, "mode": "fan_avg", "seed": 3014, "distribution": "normal"}, "class_name": "VarianceScaling"}, "activity_regularizer": null, "bias_regularizer": null, "name": "C1_PWH_1", "activation": "relu", "trainable": true, "kernel_regularizer": {"config": {"l2": 0.0020000000949949026, "l1": 0.0}, "class_name": "L1L2"}, "use_bias": true, "bias_initializer": {"config": {}, "class_name": "Zeros"}}, "inbound_nodes": [[["C1_PWH_0", 0, 0, {}]]], "class_name": "Dense", "name": "C1_PWH_1"}, {"config": {"kernel_constraint": null, "bias_constraint": null, "units": 100, "kernel_initializer": {"config": {"scale": 1.0, "mode": "fan_avg", "seed": 3014, "distribution": "normal"}, "class_name": "VarianceScaling"}, "activity_regularizer": null, "bias_regularizer": null, "name": "C2_PWH_1", "activation": "relu", "trainable": true, "kernel_regularizer": {"config": {"l2": 0.0020000000949949026, "l1": 0.0}, "class_name": "L1L2"}, "use_bias": true, "bias_initializer": {"config": {}, "class_name": "Zeros"}}, "inbound_nodes": [[["C2_PWH_0", 0, 0, {}]]], "class_name": "Dense", "name": "C2_PWH_1"}, {"config": {"kernel_constraint": null, "bias_constraint": null, "units": 100, "kernel_initializer": {"config": {"scale": 1.0, "mode": "fan_avg", "seed": 3014, "distribution": "normal"}, "class_name": "VarianceScaling"}, "activity_regularizer": null, "bias_regularizer": null, "name": "C3_PWH_1", "activation": "relu", "trainable": true, "kernel_regularizer": {"config": {"l2": 0.0020000000949949026, "l1": 0.0}, "class_name": "L1L2"}, "use_bias": true, "bias_initializer": {"config": {}, "class_name": "Zeros"}}, "inbound_nodes": [[["C3_PWH_0", 0, 0, {}]]], "class_name": "Dense", "name": "C3_PWH_1"}, {"config": {"kernel_constraint": null, "bias_constraint": null, "units": 100, "kernel_initializer": {"config": {"scale": 1.0, "mode": "fan_avg", "seed": 3014, "distribution": "normal"}, "class_name": "VarianceScaling"}, "activity_regularizer": null, "bias_regularizer": null, "name": "C4_PWH_1", "activation": "relu", "trainable": true, "kernel_regularizer": {"config": {"l2": 0.0020000000949949026, "l1": 0.0}, "class_name": "L1L2"}, "use_bias": true, "bias_initializer": {"config": {}, "class_name": "Zeros"}}, "inbound_nodes": [[["C4_PWH_0", 0, 0, {}]]], "class_name": "Dense", "name": "C4_PWH_1"}, {"config": {"kernel_constraint": null, "bias_constraint": null, "units": 100, "kernel_initializer": {"config": {"scale": 1.0, "mode": "fan_avg", "seed": 3014, "distribution": "normal"}, "class_name": "VarianceScaling"}, "activity_regularizer": null, "bias_regularizer": null, "name": "B3_PWH_1", "activation": "relu", "trainable": true, "kernel_regularizer": {"config": {"l2": 0.0020000000949949026, "l1": 0.0}, "class_name": "L1L2"}, "use_bias": true, "bias_initializer": {"config": {}, "class_name": "Zeros"}}, "inbound_nodes": [[["B3_PWH_0", 0, 0, {}]]], "class_name": "Dense", "name": "B3_PWH_1"}, {"config": {"kernel_constraint": null, "bias_constraint": null, "units": 100, "kernel_initializer": {"config": {"scale": 1.0, "mode": "fan_avg", "seed": 3014, "distribution": "normal"}, "class_name": "VarianceScaling"}, "activity_regularizer": null, "bias_regularizer": null, "name": "B1_PWH_1", "activation": "relu", "trainable": true, "kernel_regularizer": {"config": {"l2": 0.0020000000949949026, "l1": 0.0}, "class_name": "L1L2"}, "use_bias": true, "bias_initializer": {"config": {}, "class_name": "Zeros"}}, "inbound_nodes": [[["B1_PWH_0", 0, 0, {}]]], "class_name": "Dense", "name": "B1_PWH_1"}, {"config": {"kernel_constraint": null, "bias_constraint": null, "units": 100, "kernel_initializer": {"config": {"scale": 1.0, "mode": "fan_avg", "seed": 3014, "distribution": "normal"}, "class_name": "VarianceScaling"}, "activity_regularizer": null, "bias_regularizer": null, "name": "D1_PWH_1", "activation": "relu", "trainable": true, "kernel_regularizer": {"config": {"l2": 0.0020000000949949026, "l1": 0.0}, "class_name": "L1L2"}, "use_bias": true, "bias_initializer": {"config": {}, "class_name": "Zeros"}}, "inbound_nodes": [[["D1_PWH_0", 0, 0, {}]]], "class_name": "Dense", "name": "D1_PWH_1"}, {"config": {"kernel_constraint": null, "bias_constraint": null, "units": 1, "kernel_initializer": {"config": {"scale": 1.0, "mode": "fan_avg", "seed": 3014, "distribution": "normal"}, "class_name": "VarianceScaling"}, "activity_regularizer": null, "bias_regularizer": null, "name": "C1_PWH_out", "activation": "linear", "trainable": true, "kernel_regularizer": {"config": {"l2": 0.0020000000949949026, "l1": 0.0}, "class_name": "L1L2"}, "use_bias": true, "bias_initializer": {"config": {}, "class_name": "Zeros"}}, "inbound_nodes": [[["C1_PWH_1", 0, 0, {}]]], "class_name": "Dense", "name": "C1_PWH_out"}, {"config": {"kernel_constraint": null, "bias_constraint": null, "units": 1, "kernel_initializer": {"config": {"scale": 1.0, "mode": "fan_avg", "seed": 3014, "distribution": "normal"}, "class_name": "VarianceScaling"}, "activity_regularizer": null, "bias_regularizer": null, "name": "C2_PWH_out", "activation": "linear", "trainable": true, "kernel_regularizer": {"config": {"l2": 0.0020000000949949026, "l1": 0.0}, "class_name": "L1L2"}, "use_bias": true, "bias_initializer": {"config": {}, "class_name": "Zeros"}}, "inbound_nodes": [[["C2_PWH_1", 0, 0, {}]]], "class_name": "Dense", "name": "C2_PWH_out"}, {"config": {"kernel_constraint": null, "bias_constraint": null, "units": 1, "kernel_initializer": {"config": {"scale": 1.0, "mode": "fan_avg", "seed": 3014, "distribution": "normal"}, "class_name": "VarianceScaling"}, "activity_regularizer": null, "bias_regularizer": null, "name": "C3_PWH_out", "activation": "linear", "trainable": true, "kernel_regularizer": {"config": {"l2": 0.0020000000949949026, "l1": 0.0}, "class_name": "L1L2"}, "use_bias": true, "bias_initializer": {"config": {}, "class_name": "Zeros"}}, "inbound_nodes": [[["C3_PWH_1", 0, 0, {}]]], "class_name": "Dense", "name": "C3_PWH_out"}, {"config": {"kernel_constraint": null, "bias_constraint": null, "units": 1, "kernel_initializer": {"config": {"scale": 1.0, "mode": "fan_avg", "seed": 3014, "distribution": "normal"}, "class_name": "VarianceScaling"}, "activity_regularizer": null, "bias_regularizer": null, "name": "C4_PWH_out", "activation": "linear", "trainable": true, "kernel_regularizer": {"config": {"l2": 0.0020000000949949026, "l1": 0.0}, "class_name": "L1L2"}, "use_bias": true, "bias_initializer": {"config": {}, "class_name": "Zeros"}}, "inbound_nodes": [[["C4_PWH_1", 0, 0, {}]]], "class_name": "Dense", "name": "C4_PWH_out"}, {"config": {"kernel_constraint": null, "bias_constraint": null, "units": 1, "kernel_initializer": {"config": {"scale": 1.0, "mode": "fan_avg", "seed": 3014, "distribution": "normal"}, "class_name": "VarianceScaling"}, "activity_regularizer": null, "bias_regularizer": null, "name": "B3_PWH_out", "activation": "linear", "trainable": true, "kernel_regularizer": {"config": {"l2": 0.0020000000949949026, "l1": 0.0}, "class_name": "L1L2"}, "use_bias": true, "bias_initializer": {"config": {}, "class_name": "Zeros"}}, "inbound_nodes": [[["B3_PWH_1", 0, 0, {}]]], "class_name": "Dense", "name": "B3_PWH_out"}, {"config": {"kernel_constraint": null, "bias_constraint": null, "units": 1, "kernel_initializer": {"config": {"scale": 1.0, "mode": "fan_avg", "seed": 3014, "distribution": "normal"}, "class_name": "VarianceScaling"}, "activity_regularizer": null, "bias_regularizer": null, "name": "B1_PWH_out", "activation": "linear", "trainable": true, "kernel_regularizer": {"config": {"l2": 0.0020000000949949026, "l1": 0.0}, "class_name": "L1L2"}, "use_bias": true, "bias_initializer": {"config": {}, "class_name": "Zeros"}}, "inbound_nodes": [[["B1_PWH_1", 0, 0, {}]]], "class_name": "Dense", "name": "B1_PWH_out"}, {"config": {"kernel_constraint": null, "bias_constraint": null, "units": 1, "kernel_initializer": {"config": {"scale": 1.0, "mode": "fan_avg", "seed": 3014, "distribution": "normal"}, "class_name": "VarianceScaling"}, "activity_regularizer": null, "bias_regularizer": null, "name": "D1_PWH_out", "activation": "linear", "trainable": true, "kernel_regularizer": {"config": {"l2": 0.0020000000949949026, "l1": 0.0}, "class_name": "L1L2"}, "use_bias": true, "bias_initializer": {"config": {}, "class_name": "Zeros"}}, "inbound_nodes": [[["D1_PWH_1", 0, 0, {}]]], "class_name": "Dense", "name": "D1_PWH_out"}], "input_layers": [["PRESSURE_INPUT", 0, 0]], "name": "model_1", "output_layers": [["C1_PWH_out", 0, 0], ["C2_PWH_out", 0, 0], ["C3_PWH_out", 0, 0], ["C4_PWH_out", 0, 0], ["B3_PWH_out", 0, 0], ["B1_PWH_out", 0, 0], ["D1_PWH_out", 0, 0]]}, "class_name": "Model", "keras_version": "2.0.1", "backend": "theano"}