{"backend": "theano", "keras_version": "2.0.1", "config": {"layers": [{"config": {"sparse": false, "batch_input_shape": [null, 4], "name": "C1", "dtype": "float32"}, "class_name": "InputLayer", "inbound_nodes": [], "name": "C1"}, {"config": {"sparse": false, "batch_input_shape": [null, 3], "name": "C2", "dtype": "float32"}, "class_name": "InputLayer", "inbound_nodes": [], "name": "C2"}, {"config": {"sparse": false, "batch_input_shape": [null, 4], "name": "C3", "dtype": "float32"}, "class_name": "InputLayer", "inbound_nodes": [], "name": "C3"}, {"config": {"sparse": false, "batch_input_shape": [null, 4], "name": "C4", "dtype": "float32"}, "class_name": "InputLayer", "inbound_nodes": [], "name": "C4"}, {"config": {"sparse": false, "batch_input_shape": [null, 4], "name": "B1", "dtype": "float32"}, "class_name": "InputLayer", "inbound_nodes": [], "name": "B1"}, {"config": {"sparse": false, "batch_input_shape": [null, 4], "name": "B3", "dtype": "float32"}, "class_name": "InputLayer", "inbound_nodes": [], "name": "B3"}, {"config": {"sparse": false, "batch_input_shape": [null, 3], "name": "D1", "dtype": "float32"}, "class_name": "InputLayer", "inbound_nodes": [], "name": "D1"}, {"config": {"units": 50, "trainable": true, "kernel_initializer": {"config": {"distribution": "normal", "scale": 1.0, "seed": 3014, "mode": "fan_avg"}, "class_name": "VarianceScaling"}, "activity_regularizer": null, "bias_initializer": {"config": {}, "class_name": "Zeros"}, "use_bias": true, "activation": "relu", "bias_constraint": null, "name": "dense_1", "kernel_regularizer": {"config": {"l2": 4.999999873689376e-05, "l1": 0.0}, "class_name": "L1L2"}, "bias_regularizer": null, "kernel_constraint": null}, "class_name": "Dense", "inbound_nodes": [[["C1", 0, 0, {}]]], "name": "dense_1"}, {"config": {"units": 50, "trainable": true, "kernel_initializer": {"config": {"distribution": "normal", "scale": 1.0, "seed": 3014, "mode": "fan_avg"}, "class_name": "VarianceScaling"}, "activity_regularizer": null, "bias_initializer": {"config": {}, "class_name": "Zeros"}, "use_bias": true, "activation": "relu", "bias_constraint": null, "name": "dense_4", "kernel_regularizer": {"config": {"l2": 4.999999873689376e-05, "l1": 0.0}, "class_name": "L1L2"}, "bias_regularizer": null, "kernel_constraint": null}, "class_name": "Dense", "inbound_nodes": [[["C2", 0, 0, {}]]], "name": "dense_4"}, {"config": {"units": 50, "trainable": true, "kernel_initializer": {"config": {"distribution": "normal", "scale": 1.0, "seed": 3014, "mode": "fan_avg"}, "class_name": "VarianceScaling"}, "activity_regularizer": null, "bias_initializer": {"config": {}, "class_name": "Zeros"}, "use_bias": true, "activation": "relu", "bias_constraint": null, "name": "dense_7", "kernel_regularizer": {"config": {"l2": 4.999999873689376e-05, "l1": 0.0}, "class_name": "L1L2"}, "bias_regularizer": null, "kernel_constraint": null}, "class_name": "Dense", "inbound_nodes": [[["C3", 0, 0, {}]]], "name": "dense_7"}, {"config": {"units": 50, "trainable": true, "kernel_initializer": {"config": {"distribution": "normal", "scale": 1.0, "seed": 3014, "mode": "fan_avg"}, "class_name": "VarianceScaling"}, "activity_regularizer": null, "bias_initializer": {"config": {}, "class_name": "Zeros"}, "use_bias": true, "activation": "relu", "bias_constraint": null, "name": "dense_10", "kernel_regularizer": {"config": {"l2": 4.999999873689376e-05, "l1": 0.0}, "class_name": "L1L2"}, "bias_regularizer": null, "kernel_constraint": null}, "class_name": "Dense", "inbound_nodes": [[["C4", 0, 0, {}]]], "name": "dense_10"}, {"config": {"units": 50, "trainable": true, "kernel_initializer": {"config": {"distribution": "normal", "scale": 1.0, "seed": 3014, "mode": "fan_avg"}, "class_name": "VarianceScaling"}, "activity_regularizer": null, "bias_initializer": {"config": {}, "class_name": "Zeros"}, "use_bias": true, "activation": "relu", "bias_constraint": null, "name": "dense_13", "kernel_regularizer": {"config": {"l2": 4.999999873689376e-05, "l1": 0.0}, "class_name": "L1L2"}, "bias_regularizer": null, "kernel_constraint": null}, "class_name": "Dense", "inbound_nodes": [[["B1", 0, 0, {}]]], "name": "dense_13"}, {"config": {"units": 50, "trainable": true, "kernel_initializer": {"config": {"distribution": "normal", "scale": 1.0, "seed": 3014, "mode": "fan_avg"}, "class_name": "VarianceScaling"}, "activity_regularizer": null, "bias_initializer": {"config": {}, "class_name": "Zeros"}, "use_bias": true, "activation": "relu", "bias_constraint": null, "name": "dense_16", "kernel_regularizer": {"config": {"l2": 4.999999873689376e-05, "l1": 0.0}, "class_name": "L1L2"}, "bias_regularizer": null, "kernel_constraint": null}, "class_name": "Dense", "inbound_nodes": [[["B3", 0, 0, {}]]], "name": "dense_16"}, {"config": {"units": 50, "trainable": true, "kernel_initializer": {"config": {"distribution": "normal", "scale": 1.0, "seed": 3014, "mode": "fan_avg"}, "class_name": "VarianceScaling"}, "activity_regularizer": null, "bias_initializer": {"config": {}, "class_name": "Zeros"}, "use_bias": true, "activation": "relu", "bias_constraint": null, "name": "dense_19", "kernel_regularizer": {"config": {"l2": 4.999999873689376e-05, "l1": 0.0}, "class_name": "L1L2"}, "bias_regularizer": null, "kernel_constraint": null}, "class_name": "Dense", "inbound_nodes": [[["D1", 0, 0, {}]]], "name": "dense_19"}, {"config": {"units": 50, "trainable": true, "kernel_initializer": {"config": {"distribution": "normal", "scale": 1.0, "seed": 3014, "mode": "fan_avg"}, "class_name": "VarianceScaling"}, "activity_regularizer": null, "bias_initializer": {"config": {}, "class_name": "Zeros"}, "use_bias": true, "activation": "relu", "bias_constraint": null, "name": "dense_2", "kernel_regularizer": {"config": {"l2": 4.999999873689376e-05, "l1": 0.0}, "class_name": "L1L2"}, "bias_regularizer": null, "kernel_constraint": null}, "class_name": "Dense", "inbound_nodes": [[["dense_1", 0, 0, {}]]], "name": "dense_2"}, {"config": {"units": 50, "trainable": true, "kernel_initializer": {"config": {"distribution": "normal", "scale": 1.0, "seed": 3014, "mode": "fan_avg"}, "class_name": "VarianceScaling"}, "activity_regularizer": null, "bias_initializer": {"config": {}, "class_name": "Zeros"}, "use_bias": true, "activation": "relu", "bias_constraint": null, "name": "dense_5", "kernel_regularizer": {"config": {"l2": 4.999999873689376e-05, "l1": 0.0}, "class_name": "L1L2"}, "bias_regularizer": null, "kernel_constraint": null}, "class_name": "Dense", "inbound_nodes": [[["dense_4", 0, 0, {}]]], "name": "dense_5"}, {"config": {"units": 50, "trainable": true, "kernel_initializer": {"config": {"distribution": "normal", "scale": 1.0, "seed": 3014, "mode": "fan_avg"}, "class_name": "VarianceScaling"}, "activity_regularizer": null, "bias_initializer": {"config": {}, "class_name": "Zeros"}, "use_bias": true, "activation": "relu", "bias_constraint": null, "name": "dense_8", "kernel_regularizer": {"config": {"l2": 4.999999873689376e-05, "l1": 0.0}, "class_name": "L1L2"}, "bias_regularizer": null, "kernel_constraint": null}, "class_name": "Dense", "inbound_nodes": [[["dense_7", 0, 0, {}]]], "name": "dense_8"}, {"config": {"units": 50, "trainable": true, "kernel_initializer": {"config": {"distribution": "normal", "scale": 1.0, "seed": 3014, "mode": "fan_avg"}, "class_name": "VarianceScaling"}, "activity_regularizer": null, "bias_initializer": {"config": {}, "class_name": "Zeros"}, "use_bias": true, "activation": "relu", "bias_constraint": null, "name": "dense_11", "kernel_regularizer": {"config": {"l2": 4.999999873689376e-05, "l1": 0.0}, "class_name": "L1L2"}, "bias_regularizer": null, "kernel_constraint": null}, "class_name": "Dense", "inbound_nodes": [[["dense_10", 0, 0, {}]]], "name": "dense_11"}, {"config": {"units": 50, "trainable": true, "kernel_initializer": {"config": {"distribution": "normal", "scale": 1.0, "seed": 3014, "mode": "fan_avg"}, "class_name": "VarianceScaling"}, "activity_regularizer": null, "bias_initializer": {"config": {}, "class_name": "Zeros"}, "use_bias": true, "activation": "relu", "bias_constraint": null, "name": "dense_14", "kernel_regularizer": {"config": {"l2": 4.999999873689376e-05, "l1": 0.0}, "class_name": "L1L2"}, "bias_regularizer": null, "kernel_constraint": null}, "class_name": "Dense", "inbound_nodes": [[["dense_13", 0, 0, {}]]], "name": "dense_14"}, {"config": {"units": 50, "trainable": true, "kernel_initializer": {"config": {"distribution": "normal", "scale": 1.0, "seed": 3014, "mode": "fan_avg"}, "class_name": "VarianceScaling"}, "activity_regularizer": null, "bias_initializer": {"config": {}, "class_name": "Zeros"}, "use_bias": true, "activation": "relu", "bias_constraint": null, "name": "dense_17", "kernel_regularizer": {"config": {"l2": 4.999999873689376e-05, "l1": 0.0}, "class_name": "L1L2"}, "bias_regularizer": null, "kernel_constraint": null}, "class_name": "Dense", "inbound_nodes": [[["dense_16", 0, 0, {}]]], "name": "dense_17"}, {"config": {"units": 50, "trainable": true, "kernel_initializer": {"config": {"distribution": "normal", "scale": 1.0, "seed": 3014, "mode": "fan_avg"}, "class_name": "VarianceScaling"}, "activity_regularizer": null, "bias_initializer": {"config": {}, "class_name": "Zeros"}, "use_bias": true, "activation": "relu", "bias_constraint": null, "name": "dense_20", "kernel_regularizer": {"config": {"l2": 4.999999873689376e-05, "l1": 0.0}, "class_name": "L1L2"}, "bias_regularizer": null, "kernel_constraint": null}, "class_name": "Dense", "inbound_nodes": [[["dense_19", 0, 0, {}]]], "name": "dense_20"}, {"config": {"sparse": false, "batch_input_shape": [null, 1], "name": "OnOff_C1", "dtype": "float32"}, "class_name": "InputLayer", "inbound_nodes": [], "name": "OnOff_C1"}, {"config": {"units": 1, "trainable": true, "kernel_initializer": {"config": {"distribution": "normal", "scale": 1.0, "seed": 3014, "mode": "fan_avg"}, "class_name": "VarianceScaling"}, "activity_regularizer": null, "bias_initializer": {"config": {}, "class_name": "Zeros"}, "use_bias": true, "activation": "relu", "bias_constraint": null, "name": "dense_3", "kernel_regularizer": {"config": {"l2": 4.999999873689376e-05, "l1": 0.0}, "class_name": "L1L2"}, "bias_regularizer": null, "kernel_constraint": null}, "class_name": "Dense", "inbound_nodes": [[["dense_2", 0, 0, {}]]], "name": "dense_3"}, {"config": {"sparse": false, "batch_input_shape": [null, 1], "name": "OnOff_C2", "dtype": "float32"}, "class_name": "InputLayer", "inbound_nodes": [], "name": "OnOff_C2"}, {"config": {"units": 1, "trainable": true, "kernel_initializer": {"config": {"distribution": "normal", "scale": 1.0, "seed": 3014, "mode": "fan_avg"}, "class_name": "VarianceScaling"}, "activity_regularizer": null, "bias_initializer": {"config": {}, "class_name": "Zeros"}, "use_bias": true, "activation": "relu", "bias_constraint": null, "name": "dense_6", "kernel_regularizer": {"config": {"l2": 4.999999873689376e-05, "l1": 0.0}, "class_name": "L1L2"}, "bias_regularizer": null, "kernel_constraint": null}, "class_name": "Dense", "inbound_nodes": [[["dense_5", 0, 0, {}]]], "name": "dense_6"}, {"config": {"sparse": false, "batch_input_shape": [null, 1], "name": "OnOff_C3", "dtype": "float32"}, "class_name": "InputLayer", "inbound_nodes": [], "name": "OnOff_C3"}, {"config": {"units": 1, "trainable": true, "kernel_initializer": {"config": {"distribution": "normal", "scale": 1.0, "seed": 3014, "mode": "fan_avg"}, "class_name": "VarianceScaling"}, "activity_regularizer": null, "bias_initializer": {"config": {}, "class_name": "Zeros"}, "use_bias": true, "activation": "relu", "bias_constraint": null, "name": "dense_9", "kernel_regularizer": {"config": {"l2": 4.999999873689376e-05, "l1": 0.0}, "class_name": "L1L2"}, "bias_regularizer": null, "kernel_constraint": null}, "class_name": "Dense", "inbound_nodes": [[["dense_8", 0, 0, {}]]], "name": "dense_9"}, {"config": {"sparse": false, "batch_input_shape": [null, 1], "name": "OnOff_C4", "dtype": "float32"}, "class_name": "InputLayer", "inbound_nodes": [], "name": "OnOff_C4"}, {"config": {"units": 1, "trainable": true, "kernel_initializer": {"config": {"distribution": "normal", "scale": 1.0, "seed": 3014, "mode": "fan_avg"}, "class_name": "VarianceScaling"}, "activity_regularizer": null, "bias_initializer": {"config": {}, "class_name": "Zeros"}, "use_bias": true, "activation": "relu", "bias_constraint": null, "name": "dense_12", "kernel_regularizer": {"config": {"l2": 4.999999873689376e-05, "l1": 0.0}, "class_name": "L1L2"}, "bias_regularizer": null, "kernel_constraint": null}, "class_name": "Dense", "inbound_nodes": [[["dense_11", 0, 0, {}]]], "name": "dense_12"}, {"config": {"sparse": false, "batch_input_shape": [null, 1], "name": "OnOff_B1", "dtype": "float32"}, "class_name": "InputLayer", "inbound_nodes": [], "name": "OnOff_B1"}, {"config": {"units": 1, "trainable": true, "kernel_initializer": {"config": {"distribution": "normal", "scale": 1.0, "seed": 3014, "mode": "fan_avg"}, "class_name": "VarianceScaling"}, "activity_regularizer": null, "bias_initializer": {"config": {}, "class_name": "Zeros"}, "use_bias": true, "activation": "relu", "bias_constraint": null, "name": "dense_15", "kernel_regularizer": {"config": {"l2": 4.999999873689376e-05, "l1": 0.0}, "class_name": "L1L2"}, "bias_regularizer": null, "kernel_constraint": null}, "class_name": "Dense", "inbound_nodes": [[["dense_14", 0, 0, {}]]], "name": "dense_15"}, {"config": {"sparse": false, "batch_input_shape": [null, 1], "name": "OnOff_B3", "dtype": "float32"}, "class_name": "InputLayer", "inbound_nodes": [], "name": "OnOff_B3"}, {"config": {"units": 1, "trainable": true, "kernel_initializer": {"config": {"distribution": "normal", "scale": 1.0, "seed": 3014, "mode": "fan_avg"}, "class_name": "VarianceScaling"}, "activity_regularizer": null, "bias_initializer": {"config": {}, "class_name": "Zeros"}, "use_bias": true, "activation": "relu", "bias_constraint": null, "name": "dense_18", "kernel_regularizer": {"config": {"l2": 4.999999873689376e-05, "l1": 0.0}, "class_name": "L1L2"}, "bias_regularizer": null, "kernel_constraint": null}, "class_name": "Dense", "inbound_nodes": [[["dense_17", 0, 0, {}]]], "name": "dense_18"}, {"config": {"sparse": false, "batch_input_shape": [null, 1], "name": "OnOff_D1", "dtype": "float32"}, "class_name": "InputLayer", "inbound_nodes": [], "name": "OnOff_D1"}, {"config": {"units": 1, "trainable": true, "kernel_initializer": {"config": {"distribution": "normal", "scale": 1.0, "seed": 3014, "mode": "fan_avg"}, "class_name": "VarianceScaling"}, "activity_regularizer": null, "bias_initializer": {"config": {}, "class_name": "Zeros"}, "use_bias": true, "activation": "relu", "bias_constraint": null, "name": "dense_21", "kernel_regularizer": {"config": {"l2": 4.999999873689376e-05, "l1": 0.0}, "class_name": "L1L2"}, "bias_regularizer": null, "kernel_constraint": null}, "class_name": "Dense", "inbound_nodes": [[["dense_20", 0, 0, {}]]], "name": "dense_21"}, {"config": {"name": "C1_out", "trainable": true}, "class_name": "Multiply", "inbound_nodes": [[["OnOff_C1", 0, 0, {}], ["dense_3", 0, 0, {}]]], "name": "C1_out"}, {"config": {"name": "C2_out", "trainable": true}, "class_name": "Multiply", "inbound_nodes": [[["OnOff_C2", 0, 0, {}], ["dense_6", 0, 0, {}]]], "name": "C2_out"}, {"config": {"name": "C3_out", "trainable": true}, "class_name": "Multiply", "inbound_nodes": [[["OnOff_C3", 0, 0, {}], ["dense_9", 0, 0, {}]]], "name": "C3_out"}, {"config": {"name": "C4_out", "trainable": true}, "class_name": "Multiply", "inbound_nodes": [[["OnOff_C4", 0, 0, {}], ["dense_12", 0, 0, {}]]], "name": "C4_out"}, {"config": {"name": "B1_out", "trainable": true}, "class_name": "Multiply", "inbound_nodes": [[["OnOff_B1", 0, 0, {}], ["dense_15", 0, 0, {}]]], "name": "B1_out"}, {"config": {"name": "B3_out", "trainable": true}, "class_name": "Multiply", "inbound_nodes": [[["OnOff_B3", 0, 0, {}], ["dense_18", 0, 0, {}]]], "name": "B3_out"}, {"config": {"name": "D1_out", "trainable": true}, "class_name": "Multiply", "inbound_nodes": [[["OnOff_D1", 0, 0, {}], ["dense_21", 0, 0, {}]]], "name": "D1_out"}, {"config": {"name": "GJOA_TOTAL", "trainable": true}, "class_name": "Add", "inbound_nodes": [[["C1_out", 0, 0, {}], ["C2_out", 0, 0, {}], ["C3_out", 0, 0, {}], ["C4_out", 0, 0, {}], ["B1_out", 0, 0, {}], ["B3_out", 0, 0, {}], ["D1_out", 0, 0, {}]]], "name": "GJOA_TOTAL"}], "name": "model_1", "input_layers": [["C1", 0, 0], ["C2", 0, 0], ["C3", 0, 0], ["C4", 0, 0], ["B1", 0, 0], ["B3", 0, 0], ["D1", 0, 0], ["OnOff_C1", 0, 0], ["OnOff_C2", 0, 0], ["OnOff_C3", 0, 0], ["OnOff_C4", 0, 0], ["OnOff_B1", 0, 0], ["OnOff_B3", 0, 0], ["OnOff_D1", 0, 0]], "output_layers": [["C1_out", 0, 0], ["C2_out", 0, 0], ["C3_out", 0, 0], ["C4_out", 0, 0], ["B1_out", 0, 0], ["B3_out", 0, 0], ["D1_out", 0, 0], ["GJOA_TOTAL", 0, 0]]}, "class_name": "Model"}