{"class_name": "Model", "keras_version": "2.0.1", "backend": "theano", "config": {"output_layers": [["C1_out", 0, 0], ["C2_out", 0, 0], ["C3_out", 0, 0], ["C4_out", 0, 0], ["B1_out", 0, 0], ["B3_out", 0, 0], ["D1_out", 0, 0], ["GJOA_TOTAL", 0, 0]], "name": "model_1", "layers": [{"name": "C1", "inbound_nodes": [], "config": {"dtype": "float32", "name": "C1", "batch_input_shape": [null, 4], "sparse": false}, "class_name": "InputLayer"}, {"name": "C2", "inbound_nodes": [], "config": {"dtype": "float32", "name": "C2", "batch_input_shape": [null, 3], "sparse": false}, "class_name": "InputLayer"}, {"name": "C3", "inbound_nodes": [], "config": {"dtype": "float32", "name": "C3", "batch_input_shape": [null, 4], "sparse": false}, "class_name": "InputLayer"}, {"name": "C4", "inbound_nodes": [], "config": {"dtype": "float32", "name": "C4", "batch_input_shape": [null, 4], "sparse": false}, "class_name": "InputLayer"}, {"name": "B1", "inbound_nodes": [], "config": {"dtype": "float32", "name": "B1", "batch_input_shape": [null, 4], "sparse": false}, "class_name": "InputLayer"}, {"name": "B3", "inbound_nodes": [], "config": {"dtype": "float32", "name": "B3", "batch_input_shape": [null, 4], "sparse": false}, "class_name": "InputLayer"}, {"name": "D1", "inbound_nodes": [], "config": {"dtype": "float32", "name": "D1", "batch_input_shape": [null, 3], "sparse": false}, "class_name": "InputLayer"}, {"name": "dense_1", "inbound_nodes": [[["C1", 0, 0, {}]]], "config": {"kernel_regularizer": {"class_name": "L1L2", "config": {"l1": 0.0, "l2": 0.0010000000474974513}}, "use_bias": true, "activation": "relu", "activity_regularizer": null, "name": "dense_1", "kernel_constraint": null, "bias_regularizer": null, "bias_constraint": null, "units": 50, "bias_initializer": {"class_name": "Zeros", "config": {}}, "kernel_initializer": {"class_name": "VarianceScaling", "config": {"seed": 3014, "mode": "fan_avg", "scale": 1.0, "distribution": "normal"}}, "trainable": true}, "class_name": "Dense"}, {"name": "dense_4", "inbound_nodes": [[["C2", 0, 0, {}]]], "config": {"kernel_regularizer": {"class_name": "L1L2", "config": {"l1": 0.0, "l2": 0.0010000000474974513}}, "use_bias": true, "activation": "relu", "activity_regularizer": null, "name": "dense_4", "kernel_constraint": null, "bias_regularizer": null, "bias_constraint": null, "units": 50, "bias_initializer": {"class_name": "Zeros", "config": {}}, "kernel_initializer": {"class_name": "VarianceScaling", "config": {"seed": 3014, "mode": "fan_avg", "scale": 1.0, "distribution": "normal"}}, "trainable": true}, "class_name": "Dense"}, {"name": "dense_7", "inbound_nodes": [[["C3", 0, 0, {}]]], "config": {"kernel_regularizer": {"class_name": "L1L2", "config": {"l1": 0.0, "l2": 0.0010000000474974513}}, "use_bias": true, "activation": "relu", "activity_regularizer": null, "name": "dense_7", "kernel_constraint": null, "bias_regularizer": null, "bias_constraint": null, "units": 50, "bias_initializer": {"class_name": "Zeros", "config": {}}, "kernel_initializer": {"class_name": "VarianceScaling", "config": {"seed": 3014, "mode": "fan_avg", "scale": 1.0, "distribution": "normal"}}, "trainable": true}, "class_name": "Dense"}, {"name": "dense_10", "inbound_nodes": [[["C4", 0, 0, {}]]], "config": {"kernel_regularizer": {"class_name": "L1L2", "config": {"l1": 0.0, "l2": 0.0010000000474974513}}, "use_bias": true, "activation": "relu", "activity_regularizer": null, "name": "dense_10", "kernel_constraint": null, "bias_regularizer": null, "bias_constraint": null, "units": 50, "bias_initializer": {"class_name": "Zeros", "config": {}}, "kernel_initializer": {"class_name": "VarianceScaling", "config": {"seed": 3014, "mode": "fan_avg", "scale": 1.0, "distribution": "normal"}}, "trainable": true}, "class_name": "Dense"}, {"name": "dense_13", "inbound_nodes": [[["B1", 0, 0, {}]]], "config": {"kernel_regularizer": {"class_name": "L1L2", "config": {"l1": 0.0, "l2": 0.0010000000474974513}}, "use_bias": true, "activation": "relu", "activity_regularizer": null, "name": "dense_13", "kernel_constraint": null, "bias_regularizer": null, "bias_constraint": null, "units": 50, "bias_initializer": {"class_name": "Zeros", "config": {}}, "kernel_initializer": {"class_name": "VarianceScaling", "config": {"seed": 3014, "mode": "fan_avg", "scale": 1.0, "distribution": "normal"}}, "trainable": true}, "class_name": "Dense"}, {"name": "dense_16", "inbound_nodes": [[["B3", 0, 0, {}]]], "config": {"kernel_regularizer": {"class_name": "L1L2", "config": {"l1": 0.0, "l2": 0.0010000000474974513}}, "use_bias": true, "activation": "relu", "activity_regularizer": null, "name": "dense_16", "kernel_constraint": null, "bias_regularizer": null, "bias_constraint": null, "units": 50, "bias_initializer": {"class_name": "Zeros", "config": {}}, "kernel_initializer": {"class_name": "VarianceScaling", "config": {"seed": 3014, "mode": "fan_avg", "scale": 1.0, "distribution": "normal"}}, "trainable": true}, "class_name": "Dense"}, {"name": "dense_19", "inbound_nodes": [[["D1", 0, 0, {}]]], "config": {"kernel_regularizer": {"class_name": "L1L2", "config": {"l1": 0.0, "l2": 0.0010000000474974513}}, "use_bias": true, "activation": "relu", "activity_regularizer": null, "name": "dense_19", "kernel_constraint": null, "bias_regularizer": null, "bias_constraint": null, "units": 50, "bias_initializer": {"class_name": "Zeros", "config": {}}, "kernel_initializer": {"class_name": "VarianceScaling", "config": {"seed": 3014, "mode": "fan_avg", "scale": 1.0, "distribution": "normal"}}, "trainable": true}, "class_name": "Dense"}, {"name": "dense_2", "inbound_nodes": [[["dense_1", 0, 0, {}]]], "config": {"kernel_regularizer": {"class_name": "L1L2", "config": {"l1": 0.0, "l2": 0.0010000000474974513}}, "use_bias": true, "activation": "relu", "activity_regularizer": null, "name": "dense_2", "kernel_constraint": null, "bias_regularizer": null, "bias_constraint": null, "units": 50, "bias_initializer": {"class_name": "Zeros", "config": {}}, "kernel_initializer": {"class_name": "VarianceScaling", "config": {"seed": 3014, "mode": "fan_avg", "scale": 1.0, "distribution": "normal"}}, "trainable": true}, "class_name": "Dense"}, {"name": "dense_5", "inbound_nodes": [[["dense_4", 0, 0, {}]]], "config": {"kernel_regularizer": {"class_name": "L1L2", "config": {"l1": 0.0, "l2": 0.0010000000474974513}}, "use_bias": true, "activation": "relu", "activity_regularizer": null, "name": "dense_5", "kernel_constraint": null, "bias_regularizer": null, "bias_constraint": null, "units": 50, "bias_initializer": {"class_name": "Zeros", "config": {}}, "kernel_initializer": {"class_name": "VarianceScaling", "config": {"seed": 3014, "mode": "fan_avg", "scale": 1.0, "distribution": "normal"}}, "trainable": true}, "class_name": "Dense"}, {"name": "dense_8", "inbound_nodes": [[["dense_7", 0, 0, {}]]], "config": {"kernel_regularizer": {"class_name": "L1L2", "config": {"l1": 0.0, "l2": 0.0010000000474974513}}, "use_bias": true, "activation": "relu", "activity_regularizer": null, "name": "dense_8", "kernel_constraint": null, "bias_regularizer": null, "bias_constraint": null, "units": 50, "bias_initializer": {"class_name": "Zeros", "config": {}}, "kernel_initializer": {"class_name": "VarianceScaling", "config": {"seed": 3014, "mode": "fan_avg", "scale": 1.0, "distribution": "normal"}}, "trainable": true}, "class_name": "Dense"}, {"name": "dense_11", "inbound_nodes": [[["dense_10", 0, 0, {}]]], "config": {"kernel_regularizer": {"class_name": "L1L2", "config": {"l1": 0.0, "l2": 0.0010000000474974513}}, "use_bias": true, "activation": "relu", "activity_regularizer": null, "name": "dense_11", "kernel_constraint": null, "bias_regularizer": null, "bias_constraint": null, "units": 50, "bias_initializer": {"class_name": "Zeros", "config": {}}, "kernel_initializer": {"class_name": "VarianceScaling", "config": {"seed": 3014, "mode": "fan_avg", "scale": 1.0, "distribution": "normal"}}, "trainable": true}, "class_name": "Dense"}, {"name": "dense_14", "inbound_nodes": [[["dense_13", 0, 0, {}]]], "config": {"kernel_regularizer": {"class_name": "L1L2", "config": {"l1": 0.0, "l2": 0.0010000000474974513}}, "use_bias": true, "activation": "relu", "activity_regularizer": null, "name": "dense_14", "kernel_constraint": null, "bias_regularizer": null, "bias_constraint": null, "units": 50, "bias_initializer": {"class_name": "Zeros", "config": {}}, "kernel_initializer": {"class_name": "VarianceScaling", "config": {"seed": 3014, "mode": "fan_avg", "scale": 1.0, "distribution": "normal"}}, "trainable": true}, "class_name": "Dense"}, {"name": "dense_17", "inbound_nodes": [[["dense_16", 0, 0, {}]]], "config": {"kernel_regularizer": {"class_name": "L1L2", "config": {"l1": 0.0, "l2": 0.0010000000474974513}}, "use_bias": true, "activation": "relu", "activity_regularizer": null, "name": "dense_17", "kernel_constraint": null, "bias_regularizer": null, "bias_constraint": null, "units": 50, "bias_initializer": {"class_name": "Zeros", "config": {}}, "kernel_initializer": {"class_name": "VarianceScaling", "config": {"seed": 3014, "mode": "fan_avg", "scale": 1.0, "distribution": "normal"}}, "trainable": true}, "class_name": "Dense"}, {"name": "dense_20", "inbound_nodes": [[["dense_19", 0, 0, {}]]], "config": {"kernel_regularizer": {"class_name": "L1L2", "config": {"l1": 0.0, "l2": 0.0010000000474974513}}, "use_bias": true, "activation": "relu", "activity_regularizer": null, "name": "dense_20", "kernel_constraint": null, "bias_regularizer": null, "bias_constraint": null, "units": 50, "bias_initializer": {"class_name": "Zeros", "config": {}}, "kernel_initializer": {"class_name": "VarianceScaling", "config": {"seed": 3014, "mode": "fan_avg", "scale": 1.0, "distribution": "normal"}}, "trainable": true}, "class_name": "Dense"}, {"name": "OnOff_C1", "inbound_nodes": [], "config": {"dtype": "float32", "name": "OnOff_C1", "batch_input_shape": [null, 1], "sparse": false}, "class_name": "InputLayer"}, {"name": "dense_3", "inbound_nodes": [[["dense_2", 0, 0, {}]]], "config": {"kernel_regularizer": {"class_name": "L1L2", "config": {"l1": 0.0, "l2": 0.0010000000474974513}}, "use_bias": true, "activation": "relu", "activity_regularizer": null, "name": "dense_3", "kernel_constraint": null, "bias_regularizer": null, "bias_constraint": null, "units": 1, "bias_initializer": {"class_name": "Zeros", "config": {}}, "kernel_initializer": {"class_name": "VarianceScaling", "config": {"seed": 3014, "mode": "fan_avg", "scale": 1.0, "distribution": "normal"}}, "trainable": true}, "class_name": "Dense"}, {"name": "OnOff_C2", "inbound_nodes": [], "config": {"dtype": "float32", "name": "OnOff_C2", "batch_input_shape": [null, 1], "sparse": false}, "class_name": "InputLayer"}, {"name": "dense_6", "inbound_nodes": [[["dense_5", 0, 0, {}]]], "config": {"kernel_regularizer": {"class_name": "L1L2", "config": {"l1": 0.0, "l2": 0.0010000000474974513}}, "use_bias": true, "activation": "relu", "activity_regularizer": null, "name": "dense_6", "kernel_constraint": null, "bias_regularizer": null, "bias_constraint": null, "units": 1, "bias_initializer": {"class_name": "Zeros", "config": {}}, "kernel_initializer": {"class_name": "VarianceScaling", "config": {"seed": 3014, "mode": "fan_avg", "scale": 1.0, "distribution": "normal"}}, "trainable": true}, "class_name": "Dense"}, {"name": "OnOff_C3", "inbound_nodes": [], "config": {"dtype": "float32", "name": "OnOff_C3", "batch_input_shape": [null, 1], "sparse": false}, "class_name": "InputLayer"}, {"name": "dense_9", "inbound_nodes": [[["dense_8", 0, 0, {}]]], "config": {"kernel_regularizer": {"class_name": "L1L2", "config": {"l1": 0.0, "l2": 0.0010000000474974513}}, "use_bias": true, "activation": "relu", "activity_regularizer": null, "name": "dense_9", "kernel_constraint": null, "bias_regularizer": null, "bias_constraint": null, "units": 1, "bias_initializer": {"class_name": "Zeros", "config": {}}, "kernel_initializer": {"class_name": "VarianceScaling", "config": {"seed": 3014, "mode": "fan_avg", "scale": 1.0, "distribution": "normal"}}, "trainable": true}, "class_name": "Dense"}, {"name": "OnOff_C4", "inbound_nodes": [], "config": {"dtype": "float32", "name": "OnOff_C4", "batch_input_shape": [null, 1], "sparse": false}, "class_name": "InputLayer"}, {"name": "dense_12", "inbound_nodes": [[["dense_11", 0, 0, {}]]], "config": {"kernel_regularizer": {"class_name": "L1L2", "config": {"l1": 0.0, "l2": 0.0010000000474974513}}, "use_bias": true, "activation": "relu", "activity_regularizer": null, "name": "dense_12", "kernel_constraint": null, "bias_regularizer": null, "bias_constraint": null, "units": 1, "bias_initializer": {"class_name": "Zeros", "config": {}}, "kernel_initializer": {"class_name": "VarianceScaling", "config": {"seed": 3014, "mode": "fan_avg", "scale": 1.0, "distribution": "normal"}}, "trainable": true}, "class_name": "Dense"}, {"name": "OnOff_B1", "inbound_nodes": [], "config": {"dtype": "float32", "name": "OnOff_B1", "batch_input_shape": [null, 1], "sparse": false}, "class_name": "InputLayer"}, {"name": "dense_15", "inbound_nodes": [[["dense_14", 0, 0, {}]]], "config": {"kernel_regularizer": {"class_name": "L1L2", "config": {"l1": 0.0, "l2": 0.0010000000474974513}}, "use_bias": true, "activation": "relu", "activity_regularizer": null, "name": "dense_15", "kernel_constraint": null, "bias_regularizer": null, "bias_constraint": null, "units": 1, "bias_initializer": {"class_name": "Zeros", "config": {}}, "kernel_initializer": {"class_name": "VarianceScaling", "config": {"seed": 3014, "mode": "fan_avg", "scale": 1.0, "distribution": "normal"}}, "trainable": true}, "class_name": "Dense"}, {"name": "OnOff_B3", "inbound_nodes": [], "config": {"dtype": "float32", "name": "OnOff_B3", "batch_input_shape": [null, 1], "sparse": false}, "class_name": "InputLayer"}, {"name": "dense_18", "inbound_nodes": [[["dense_17", 0, 0, {}]]], "config": {"kernel_regularizer": {"class_name": "L1L2", "config": {"l1": 0.0, "l2": 0.0010000000474974513}}, "use_bias": true, "activation": "relu", "activity_regularizer": null, "name": "dense_18", "kernel_constraint": null, "bias_regularizer": null, "bias_constraint": null, "units": 1, "bias_initializer": {"class_name": "Zeros", "config": {}}, "kernel_initializer": {"class_name": "VarianceScaling", "config": {"seed": 3014, "mode": "fan_avg", "scale": 1.0, "distribution": "normal"}}, "trainable": true}, "class_name": "Dense"}, {"name": "OnOff_D1", "inbound_nodes": [], "config": {"dtype": "float32", "name": "OnOff_D1", "batch_input_shape": [null, 1], "sparse": false}, "class_name": "InputLayer"}, {"name": "dense_21", "inbound_nodes": [[["dense_20", 0, 0, {}]]], "config": {"kernel_regularizer": {"class_name": "L1L2", "config": {"l1": 0.0, "l2": 0.0010000000474974513}}, "use_bias": true, "activation": "relu", "activity_regularizer": null, "name": "dense_21", "kernel_constraint": null, "bias_regularizer": null, "bias_constraint": null, "units": 1, "bias_initializer": {"class_name": "Zeros", "config": {}}, "kernel_initializer": {"class_name": "VarianceScaling", "config": {"seed": 3014, "mode": "fan_avg", "scale": 1.0, "distribution": "normal"}}, "trainable": true}, "class_name": "Dense"}, {"name": "C1_out", "inbound_nodes": [[["OnOff_C1", 0, 0, {}], ["dense_3", 0, 0, {}]]], "config": {"name": "C1_out", "trainable": true}, "class_name": "Multiply"}, {"name": "C2_out", "inbound_nodes": [[["OnOff_C2", 0, 0, {}], ["dense_6", 0, 0, {}]]], "config": {"name": "C2_out", "trainable": true}, "class_name": "Multiply"}, {"name": "C3_out", "inbound_nodes": [[["OnOff_C3", 0, 0, {}], ["dense_9", 0, 0, {}]]], "config": {"name": "C3_out", "trainable": true}, "class_name": "Multiply"}, {"name": "C4_out", "inbound_nodes": [[["OnOff_C4", 0, 0, {}], ["dense_12", 0, 0, {}]]], "config": {"name": "C4_out", "trainable": true}, "class_name": "Multiply"}, {"name": "B1_out", "inbound_nodes": [[["OnOff_B1", 0, 0, {}], ["dense_15", 0, 0, {}]]], "config": {"name": "B1_out", "trainable": true}, "class_name": "Multiply"}, {"name": "B3_out", "inbound_nodes": [[["OnOff_B3", 0, 0, {}], ["dense_18", 0, 0, {}]]], "config": {"name": "B3_out", "trainable": true}, "class_name": "Multiply"}, {"name": "D1_out", "inbound_nodes": [[["OnOff_D1", 0, 0, {}], ["dense_21", 0, 0, {}]]], "config": {"name": "D1_out", "trainable": true}, "class_name": "Multiply"}, {"name": "GJOA_TOTAL", "inbound_nodes": [[["C1_out", 0, 0, {}], ["C2_out", 0, 0, {}], ["C3_out", 0, 0, {}], ["C4_out", 0, 0, {}], ["B1_out", 0, 0, {}], ["B3_out", 0, 0, {}], ["D1_out", 0, 0, {}]]], "config": {"name": "GJOA_TOTAL", "trainable": true}, "class_name": "Add"}], "input_layers": [["C1", 0, 0], ["C2", 0, 0], ["C3", 0, 0], ["C4", 0, 0], ["B1", 0, 0], ["B3", 0, 0], ["D1", 0, 0], ["OnOff_C1", 0, 0], ["OnOff_C2", 0, 0], ["OnOff_C3", 0, 0], ["OnOff_C4", 0, 0], ["OnOff_B1", 0, 0], ["OnOff_B3", 0, 0], ["OnOff_D1", 0, 0]]}}