{"backend": "theano", "keras_version": "2.0.1", "config": {"name": "model_1", "output_layers": [["C1_out", 0, 0], ["C2_out", 0, 0], ["C3_out", 0, 0], ["C4_out", 0, 0], ["B1_out", 0, 0], ["B3_out", 0, 0], ["D1_out", 0, 0], ["GJOA_TOTAL", 0, 0]], "layers": [{"name": "C1", "inbound_nodes": [], "config": {"name": "C1", "batch_input_shape": [null, 4], "dtype": "float32", "sparse": false}, "class_name": "InputLayer"}, {"name": "C2", "inbound_nodes": [], "config": {"name": "C2", "batch_input_shape": [null, 3], "dtype": "float32", "sparse": false}, "class_name": "InputLayer"}, {"name": "C3", "inbound_nodes": [], "config": {"name": "C3", "batch_input_shape": [null, 4], "dtype": "float32", "sparse": false}, "class_name": "InputLayer"}, {"name": "C4", "inbound_nodes": [], "config": {"name": "C4", "batch_input_shape": [null, 4], "dtype": "float32", "sparse": false}, "class_name": "InputLayer"}, {"name": "B1", "inbound_nodes": [], "config": {"name": "B1", "batch_input_shape": [null, 4], "dtype": "float32", "sparse": false}, "class_name": "InputLayer"}, {"name": "B3", "inbound_nodes": [], "config": {"name": "B3", "batch_input_shape": [null, 4], "dtype": "float32", "sparse": false}, "class_name": "InputLayer"}, {"name": "D1", "inbound_nodes": [], "config": {"name": "D1", "batch_input_shape": [null, 3], "dtype": "float32", "sparse": false}, "class_name": "InputLayer"}, {"name": "dense_1", "inbound_nodes": [[["C1", 0, 0, {}]]], "config": {"units": 20, "kernel_constraint": null, "name": "dense_1", "bias_constraint": null, "trainable": true, "kernel_initializer": {"config": {"mode": "fan_avg", "scale": 1.0, "seed": 9947, "distribution": "normal"}, "class_name": "VarianceScaling"}, "activation": "relu", "kernel_regularizer": {"config": {"l2": 0.0005000000237487257, "l1": 0.0}, "class_name": "L1L2"}, "use_bias": true, "activity_regularizer": null, "bias_regularizer": null, "bias_initializer": {"config": {}, "class_name": "Zeros"}}, "class_name": "Dense"}, {"name": "dense_4", "inbound_nodes": [[["C2", 0, 0, {}]]], "config": {"units": 20, "kernel_constraint": null, "name": "dense_4", "bias_constraint": null, "trainable": true, "kernel_initializer": {"config": {"mode": "fan_avg", "scale": 1.0, "seed": 9947, "distribution": "normal"}, "class_name": "VarianceScaling"}, "activation": "relu", "kernel_regularizer": {"config": {"l2": 0.0005000000237487257, "l1": 0.0}, "class_name": "L1L2"}, "use_bias": true, "activity_regularizer": null, "bias_regularizer": null, "bias_initializer": {"config": {}, "class_name": "Zeros"}}, "class_name": "Dense"}, {"name": "dense_7", "inbound_nodes": [[["C3", 0, 0, {}]]], "config": {"units": 20, "kernel_constraint": null, "name": "dense_7", "bias_constraint": null, "trainable": true, "kernel_initializer": {"config": {"mode": "fan_avg", "scale": 1.0, "seed": 9947, "distribution": "normal"}, "class_name": "VarianceScaling"}, "activation": "relu", "kernel_regularizer": {"config": {"l2": 0.0005000000237487257, "l1": 0.0}, "class_name": "L1L2"}, "use_bias": true, "activity_regularizer": null, "bias_regularizer": null, "bias_initializer": {"config": {}, "class_name": "Zeros"}}, "class_name": "Dense"}, {"name": "dense_10", "inbound_nodes": [[["C4", 0, 0, {}]]], "config": {"units": 20, "kernel_constraint": null, "name": "dense_10", "bias_constraint": null, "trainable": true, "kernel_initializer": {"config": {"mode": "fan_avg", "scale": 1.0, "seed": 9947, "distribution": "normal"}, "class_name": "VarianceScaling"}, "activation": "relu", "kernel_regularizer": {"config": {"l2": 0.0005000000237487257, "l1": 0.0}, "class_name": "L1L2"}, "use_bias": true, "activity_regularizer": null, "bias_regularizer": null, "bias_initializer": {"config": {}, "class_name": "Zeros"}}, "class_name": "Dense"}, {"name": "dense_13", "inbound_nodes": [[["B1", 0, 0, {}]]], "config": {"units": 20, "kernel_constraint": null, "name": "dense_13", "bias_constraint": null, "trainable": true, "kernel_initializer": {"config": {"mode": "fan_avg", "scale": 1.0, "seed": 9947, "distribution": "normal"}, "class_name": "VarianceScaling"}, "activation": "relu", "kernel_regularizer": {"config": {"l2": 0.0005000000237487257, "l1": 0.0}, "class_name": "L1L2"}, "use_bias": true, "activity_regularizer": null, "bias_regularizer": null, "bias_initializer": {"config": {}, "class_name": "Zeros"}}, "class_name": "Dense"}, {"name": "dense_16", "inbound_nodes": [[["B3", 0, 0, {}]]], "config": {"units": 20, "kernel_constraint": null, "name": "dense_16", "bias_constraint": null, "trainable": true, "kernel_initializer": {"config": {"mode": "fan_avg", "scale": 1.0, "seed": 9947, "distribution": "normal"}, "class_name": "VarianceScaling"}, "activation": "relu", "kernel_regularizer": {"config": {"l2": 0.0005000000237487257, "l1": 0.0}, "class_name": "L1L2"}, "use_bias": true, "activity_regularizer": null, "bias_regularizer": null, "bias_initializer": {"config": {}, "class_name": "Zeros"}}, "class_name": "Dense"}, {"name": "dense_19", "inbound_nodes": [[["D1", 0, 0, {}]]], "config": {"units": 20, "kernel_constraint": null, "name": "dense_19", "bias_constraint": null, "trainable": true, "kernel_initializer": {"config": {"mode": "fan_avg", "scale": 1.0, "seed": 9947, "distribution": "normal"}, "class_name": "VarianceScaling"}, "activation": "relu", "kernel_regularizer": {"config": {"l2": 0.0005000000237487257, "l1": 0.0}, "class_name": "L1L2"}, "use_bias": true, "activity_regularizer": null, "bias_regularizer": null, "bias_initializer": {"config": {}, "class_name": "Zeros"}}, "class_name": "Dense"}, {"name": "dense_2", "inbound_nodes": [[["dense_1", 0, 0, {}]]], "config": {"units": 20, "kernel_constraint": null, "name": "dense_2", "bias_constraint": null, "trainable": true, "kernel_initializer": {"config": {"mode": "fan_avg", "scale": 1.0, "seed": 9947, "distribution": "normal"}, "class_name": "VarianceScaling"}, "activation": "relu", "kernel_regularizer": {"config": {"l2": 0.0005000000237487257, "l1": 0.0}, "class_name": "L1L2"}, "use_bias": true, "activity_regularizer": null, "bias_regularizer": null, "bias_initializer": {"config": {}, "class_name": "Zeros"}}, "class_name": "Dense"}, {"name": "dense_5", "inbound_nodes": [[["dense_4", 0, 0, {}]]], "config": {"units": 20, "kernel_constraint": null, "name": "dense_5", "bias_constraint": null, "trainable": true, "kernel_initializer": {"config": {"mode": "fan_avg", "scale": 1.0, "seed": 9947, "distribution": "normal"}, "class_name": "VarianceScaling"}, "activation": "relu", "kernel_regularizer": {"config": {"l2": 0.0005000000237487257, "l1": 0.0}, "class_name": "L1L2"}, "use_bias": true, "activity_regularizer": null, "bias_regularizer": null, "bias_initializer": {"config": {}, "class_name": "Zeros"}}, "class_name": "Dense"}, {"name": "dense_8", "inbound_nodes": [[["dense_7", 0, 0, {}]]], "config": {"units": 20, "kernel_constraint": null, "name": "dense_8", "bias_constraint": null, "trainable": true, "kernel_initializer": {"config": {"mode": "fan_avg", "scale": 1.0, "seed": 9947, "distribution": "normal"}, "class_name": "VarianceScaling"}, "activation": "relu", "kernel_regularizer": {"config": {"l2": 0.0005000000237487257, "l1": 0.0}, "class_name": "L1L2"}, "use_bias": true, "activity_regularizer": null, "bias_regularizer": null, "bias_initializer": {"config": {}, "class_name": "Zeros"}}, "class_name": "Dense"}, {"name": "dense_11", "inbound_nodes": [[["dense_10", 0, 0, {}]]], "config": {"units": 20, "kernel_constraint": null, "name": "dense_11", "bias_constraint": null, "trainable": true, "kernel_initializer": {"config": {"mode": "fan_avg", "scale": 1.0, "seed": 9947, "distribution": "normal"}, "class_name": "VarianceScaling"}, "activation": "relu", "kernel_regularizer": {"config": {"l2": 0.0005000000237487257, "l1": 0.0}, "class_name": "L1L2"}, "use_bias": true, "activity_regularizer": null, "bias_regularizer": null, "bias_initializer": {"config": {}, "class_name": "Zeros"}}, "class_name": "Dense"}, {"name": "dense_14", "inbound_nodes": [[["dense_13", 0, 0, {}]]], "config": {"units": 20, "kernel_constraint": null, "name": "dense_14", "bias_constraint": null, "trainable": true, "kernel_initializer": {"config": {"mode": "fan_avg", "scale": 1.0, "seed": 9947, "distribution": "normal"}, "class_name": "VarianceScaling"}, "activation": "relu", "kernel_regularizer": {"config": {"l2": 0.0005000000237487257, "l1": 0.0}, "class_name": "L1L2"}, "use_bias": true, "activity_regularizer": null, "bias_regularizer": null, "bias_initializer": {"config": {}, "class_name": "Zeros"}}, "class_name": "Dense"}, {"name": "dense_17", "inbound_nodes": [[["dense_16", 0, 0, {}]]], "config": {"units": 20, "kernel_constraint": null, "name": "dense_17", "bias_constraint": null, "trainable": true, "kernel_initializer": {"config": {"mode": "fan_avg", "scale": 1.0, "seed": 9947, "distribution": "normal"}, "class_name": "VarianceScaling"}, "activation": "relu", "kernel_regularizer": {"config": {"l2": 0.0005000000237487257, "l1": 0.0}, "class_name": "L1L2"}, "use_bias": true, "activity_regularizer": null, "bias_regularizer": null, "bias_initializer": {"config": {}, "class_name": "Zeros"}}, "class_name": "Dense"}, {"name": "dense_20", "inbound_nodes": [[["dense_19", 0, 0, {}]]], "config": {"units": 20, "kernel_constraint": null, "name": "dense_20", "bias_constraint": null, "trainable": true, "kernel_initializer": {"config": {"mode": "fan_avg", "scale": 1.0, "seed": 9947, "distribution": "normal"}, "class_name": "VarianceScaling"}, "activation": "relu", "kernel_regularizer": {"config": {"l2": 0.0005000000237487257, "l1": 0.0}, "class_name": "L1L2"}, "use_bias": true, "activity_regularizer": null, "bias_regularizer": null, "bias_initializer": {"config": {}, "class_name": "Zeros"}}, "class_name": "Dense"}, {"name": "OnOff_C1", "inbound_nodes": [], "config": {"name": "OnOff_C1", "batch_input_shape": [null, 1], "dtype": "float32", "sparse": false}, "class_name": "InputLayer"}, {"name": "dense_3", "inbound_nodes": [[["dense_2", 0, 0, {}]]], "config": {"units": 1, "kernel_constraint": null, "name": "dense_3", "bias_constraint": null, "trainable": true, "kernel_initializer": {"config": {"mode": "fan_avg", "scale": 1.0, "seed": 9947, "distribution": "normal"}, "class_name": "VarianceScaling"}, "activation": "relu", "kernel_regularizer": {"config": {"l2": 0.0005000000237487257, "l1": 0.0}, "class_name": "L1L2"}, "use_bias": true, "activity_regularizer": null, "bias_regularizer": null, "bias_initializer": {"config": {}, "class_name": "Zeros"}}, "class_name": "Dense"}, {"name": "OnOff_C2", "inbound_nodes": [], "config": {"name": "OnOff_C2", "batch_input_shape": [null, 1], "dtype": "float32", "sparse": false}, "class_name": "InputLayer"}, {"name": "dense_6", "inbound_nodes": [[["dense_5", 0, 0, {}]]], "config": {"units": 1, "kernel_constraint": null, "name": "dense_6", "bias_constraint": null, "trainable": true, "kernel_initializer": {"config": {"mode": "fan_avg", "scale": 1.0, "seed": 9947, "distribution": "normal"}, "class_name": "VarianceScaling"}, "activation": "relu", "kernel_regularizer": {"config": {"l2": 0.0005000000237487257, "l1": 0.0}, "class_name": "L1L2"}, "use_bias": true, "activity_regularizer": null, "bias_regularizer": null, "bias_initializer": {"config": {}, "class_name": "Zeros"}}, "class_name": "Dense"}, {"name": "OnOff_C3", "inbound_nodes": [], "config": {"name": "OnOff_C3", "batch_input_shape": [null, 1], "dtype": "float32", "sparse": false}, "class_name": "InputLayer"}, {"name": "dense_9", "inbound_nodes": [[["dense_8", 0, 0, {}]]], "config": {"units": 1, "kernel_constraint": null, "name": "dense_9", "bias_constraint": null, "trainable": true, "kernel_initializer": {"config": {"mode": "fan_avg", "scale": 1.0, "seed": 9947, "distribution": "normal"}, "class_name": "VarianceScaling"}, "activation": "relu", "kernel_regularizer": {"config": {"l2": 0.0005000000237487257, "l1": 0.0}, "class_name": "L1L2"}, "use_bias": true, "activity_regularizer": null, "bias_regularizer": null, "bias_initializer": {"config": {}, "class_name": "Zeros"}}, "class_name": "Dense"}, {"name": "OnOff_C4", "inbound_nodes": [], "config": {"name": "OnOff_C4", "batch_input_shape": [null, 1], "dtype": "float32", "sparse": false}, "class_name": "InputLayer"}, {"name": "dense_12", "inbound_nodes": [[["dense_11", 0, 0, {}]]], "config": {"units": 1, "kernel_constraint": null, "name": "dense_12", "bias_constraint": null, "trainable": true, "kernel_initializer": {"config": {"mode": "fan_avg", "scale": 1.0, "seed": 9947, "distribution": "normal"}, "class_name": "VarianceScaling"}, "activation": "relu", "kernel_regularizer": {"config": {"l2": 0.0005000000237487257, "l1": 0.0}, "class_name": "L1L2"}, "use_bias": true, "activity_regularizer": null, "bias_regularizer": null, "bias_initializer": {"config": {}, "class_name": "Zeros"}}, "class_name": "Dense"}, {"name": "OnOff_B1", "inbound_nodes": [], "config": {"name": "OnOff_B1", "batch_input_shape": [null, 1], "dtype": "float32", "sparse": false}, "class_name": "InputLayer"}, {"name": "dense_15", "inbound_nodes": [[["dense_14", 0, 0, {}]]], "config": {"units": 1, "kernel_constraint": null, "name": "dense_15", "bias_constraint": null, "trainable": true, "kernel_initializer": {"config": {"mode": "fan_avg", "scale": 1.0, "seed": 9947, "distribution": "normal"}, "class_name": "VarianceScaling"}, "activation": "relu", "kernel_regularizer": {"config": {"l2": 0.0005000000237487257, "l1": 0.0}, "class_name": "L1L2"}, "use_bias": true, "activity_regularizer": null, "bias_regularizer": null, "bias_initializer": {"config": {}, "class_name": "Zeros"}}, "class_name": "Dense"}, {"name": "OnOff_B3", "inbound_nodes": [], "config": {"name": "OnOff_B3", "batch_input_shape": [null, 1], "dtype": "float32", "sparse": false}, "class_name": "InputLayer"}, {"name": "dense_18", "inbound_nodes": [[["dense_17", 0, 0, {}]]], "config": {"units": 1, "kernel_constraint": null, "name": "dense_18", "bias_constraint": null, "trainable": true, "kernel_initializer": {"config": {"mode": "fan_avg", "scale": 1.0, "seed": 9947, "distribution": "normal"}, "class_name": "VarianceScaling"}, "activation": "relu", "kernel_regularizer": {"config": {"l2": 0.0005000000237487257, "l1": 0.0}, "class_name": "L1L2"}, "use_bias": true, "activity_regularizer": null, "bias_regularizer": null, "bias_initializer": {"config": {}, "class_name": "Zeros"}}, "class_name": "Dense"}, {"name": "OnOff_D1", "inbound_nodes": [], "config": {"name": "OnOff_D1", "batch_input_shape": [null, 1], "dtype": "float32", "sparse": false}, "class_name": "InputLayer"}, {"name": "dense_21", "inbound_nodes": [[["dense_20", 0, 0, {}]]], "config": {"units": 1, "kernel_constraint": null, "name": "dense_21", "bias_constraint": null, "trainable": true, "kernel_initializer": {"config": {"mode": "fan_avg", "scale": 1.0, "seed": 9947, "distribution": "normal"}, "class_name": "VarianceScaling"}, "activation": "relu", "kernel_regularizer": {"config": {"l2": 0.0005000000237487257, "l1": 0.0}, "class_name": "L1L2"}, "use_bias": true, "activity_regularizer": null, "bias_regularizer": null, "bias_initializer": {"config": {}, "class_name": "Zeros"}}, "class_name": "Dense"}, {"name": "C1_out", "inbound_nodes": [[["OnOff_C1", 0, 0, {}], ["dense_3", 0, 0, {}]]], "config": {"name": "C1_out", "trainable": true}, "class_name": "Multiply"}, {"name": "C2_out", "inbound_nodes": [[["OnOff_C2", 0, 0, {}], ["dense_6", 0, 0, {}]]], "config": {"name": "C2_out", "trainable": true}, "class_name": "Multiply"}, {"name": "C3_out", "inbound_nodes": [[["OnOff_C3", 0, 0, {}], ["dense_9", 0, 0, {}]]], "config": {"name": "C3_out", "trainable": true}, "class_name": "Multiply"}, {"name": "C4_out", "inbound_nodes": [[["OnOff_C4", 0, 0, {}], ["dense_12", 0, 0, {}]]], "config": {"name": "C4_out", "trainable": true}, "class_name": "Multiply"}, {"name": "B1_out", "inbound_nodes": [[["OnOff_B1", 0, 0, {}], ["dense_15", 0, 0, {}]]], "config": {"name": "B1_out", "trainable": true}, "class_name": "Multiply"}, {"name": "B3_out", "inbound_nodes": [[["OnOff_B3", 0, 0, {}], ["dense_18", 0, 0, {}]]], "config": {"name": "B3_out", "trainable": true}, "class_name": "Multiply"}, {"name": "D1_out", "inbound_nodes": [[["OnOff_D1", 0, 0, {}], ["dense_21", 0, 0, {}]]], "config": {"name": "D1_out", "trainable": true}, "class_name": "Multiply"}, {"name": "GJOA_TOTAL", "inbound_nodes": [[["C1_out", 0, 0, {}], ["C2_out", 0, 0, {}], ["C3_out", 0, 0, {}], ["C4_out", 0, 0, {}], ["B1_out", 0, 0, {}], ["B3_out", 0, 0, {}], ["D1_out", 0, 0, {}]]], "config": {"name": "GJOA_TOTAL", "trainable": true}, "class_name": "Add"}], "input_layers": [["C1", 0, 0], ["C2", 0, 0], ["C3", 0, 0], ["C4", 0, 0], ["B1", 0, 0], ["B3", 0, 0], ["D1", 0, 0], ["OnOff_C1", 0, 0], ["OnOff_C2", 0, 0], ["OnOff_C3", 0, 0], ["OnOff_C4", 0, 0], ["OnOff_B1", 0, 0], ["OnOff_B3", 0, 0], ["OnOff_D1", 0, 0]]}, "class_name": "Model"}