{"class_name": "Model", "backend": "theano", "config": {"layers": [{"class_name": "InputLayer", "inbound_nodes": [], "name": "C1", "config": {"sparse": false, "name": "C1", "batch_input_shape": [null, 4], "dtype": "float32"}}, {"class_name": "InputLayer", "inbound_nodes": [], "name": "C2", "config": {"sparse": false, "name": "C2", "batch_input_shape": [null, 3], "dtype": "float32"}}, {"class_name": "InputLayer", "inbound_nodes": [], "name": "C3", "config": {"sparse": false, "name": "C3", "batch_input_shape": [null, 4], "dtype": "float32"}}, {"class_name": "InputLayer", "inbound_nodes": [], "name": "C4", "config": {"sparse": false, "name": "C4", "batch_input_shape": [null, 4], "dtype": "float32"}}, {"class_name": "InputLayer", "inbound_nodes": [], "name": "B1", "config": {"sparse": false, "name": "B1", "batch_input_shape": [null, 4], "dtype": "float32"}}, {"class_name": "InputLayer", "inbound_nodes": [], "name": "B3", "config": {"sparse": false, "name": "B3", "batch_input_shape": [null, 4], "dtype": "float32"}}, {"class_name": "InputLayer", "inbound_nodes": [], "name": "D1", "config": {"sparse": false, "name": "D1", "batch_input_shape": [null, 3], "dtype": "float32"}}, {"class_name": "Dense", "inbound_nodes": [[["C1", 0, 0, {}]]], "name": "C1_0", "config": {"kernel_constraint": null, "bias_constraint": null, "bias_initializer": {"class_name": "Zeros", "config": {}}, "bias_regularizer": null, "activation": "relu", "kernel_regularizer": {"class_name": "L1L2", "config": {"l1": 0.0, "l2": 0.00019999999494757503}}, "trainable": true, "activity_regularizer": null, "kernel_initializer": {"class_name": "VarianceScaling", "config": {"mode": "fan_avg", "scale": 1.0, "distribution": "normal", "seed": 3014}}, "name": "C1_0", "use_bias": true, "units": 100}}, {"class_name": "Dense", "inbound_nodes": [[["C2", 0, 0, {}]]], "name": "C2_0", "config": {"kernel_constraint": null, "bias_constraint": null, "bias_initializer": {"class_name": "Zeros", "config": {}}, "bias_regularizer": null, "activation": "relu", "kernel_regularizer": {"class_name": "L1L2", "config": {"l1": 0.0, "l2": 0.00019999999494757503}}, "trainable": true, "activity_regularizer": null, "kernel_initializer": {"class_name": "VarianceScaling", "config": {"mode": "fan_avg", "scale": 1.0, "distribution": "normal", "seed": 3014}}, "name": "C2_0", "use_bias": true, "units": 100}}, {"class_name": "Dense", "inbound_nodes": [[["C3", 0, 0, {}]]], "name": "C3_0", "config": {"kernel_constraint": null, "bias_constraint": null, "bias_initializer": {"class_name": "Zeros", "config": {}}, "bias_regularizer": null, "activation": "relu", "kernel_regularizer": {"class_name": "L1L2", "config": {"l1": 0.0, "l2": 0.00019999999494757503}}, "trainable": true, "activity_regularizer": null, "kernel_initializer": {"class_name": "VarianceScaling", "config": {"mode": "fan_avg", "scale": 1.0, "distribution": "normal", "seed": 3014}}, "name": "C3_0", "use_bias": true, "units": 100}}, {"class_name": "Dense", "inbound_nodes": [[["C4", 0, 0, {}]]], "name": "C4_0", "config": {"kernel_constraint": null, "bias_constraint": null, "bias_initializer": {"class_name": "Zeros", "config": {}}, "bias_regularizer": null, "activation": "relu", "kernel_regularizer": {"class_name": "L1L2", "config": {"l1": 0.0, "l2": 0.00019999999494757503}}, "trainable": true, "activity_regularizer": null, "kernel_initializer": {"class_name": "VarianceScaling", "config": {"mode": "fan_avg", "scale": 1.0, "distribution": "normal", "seed": 3014}}, "name": "C4_0", "use_bias": true, "units": 100}}, {"class_name": "Dense", "inbound_nodes": [[["B1", 0, 0, {}]]], "name": "B1_0", "config": {"kernel_constraint": null, "bias_constraint": null, "bias_initializer": {"class_name": "Zeros", "config": {}}, "bias_regularizer": null, "activation": "relu", "kernel_regularizer": {"class_name": "L1L2", "config": {"l1": 0.0, "l2": 0.00019999999494757503}}, "trainable": true, "activity_regularizer": null, "kernel_initializer": {"class_name": "VarianceScaling", "config": {"mode": "fan_avg", "scale": 1.0, "distribution": "normal", "seed": 3014}}, "name": "B1_0", "use_bias": true, "units": 100}}, {"class_name": "Dense", "inbound_nodes": [[["B3", 0, 0, {}]]], "name": "B3_0", "config": {"kernel_constraint": null, "bias_constraint": null, "bias_initializer": {"class_name": "Zeros", "config": {}}, "bias_regularizer": null, "activation": "relu", "kernel_regularizer": {"class_name": "L1L2", "config": {"l1": 0.0, "l2": 0.00019999999494757503}}, "trainable": true, "activity_regularizer": null, "kernel_initializer": {"class_name": "VarianceScaling", "config": {"mode": "fan_avg", "scale": 1.0, "distribution": "normal", "seed": 3014}}, "name": "B3_0", "use_bias": true, "units": 100}}, {"class_name": "Dense", "inbound_nodes": [[["D1", 0, 0, {}]]], "name": "D1_0", "config": {"kernel_constraint": null, "bias_constraint": null, "bias_initializer": {"class_name": "Zeros", "config": {}}, "bias_regularizer": null, "activation": "relu", "kernel_regularizer": {"class_name": "L1L2", "config": {"l1": 0.0, "l2": 0.00019999999494757503}}, "trainable": true, "activity_regularizer": null, "kernel_initializer": {"class_name": "VarianceScaling", "config": {"mode": "fan_avg", "scale": 1.0, "distribution": "normal", "seed": 3014}}, "name": "D1_0", "use_bias": true, "units": 100}}, {"class_name": "Dense", "inbound_nodes": [[["C1_0", 0, 0, {}]]], "name": "C1_1", "config": {"kernel_constraint": null, "bias_constraint": null, "bias_initializer": {"class_name": "Zeros", "config": {}}, "bias_regularizer": null, "activation": "relu", "kernel_regularizer": {"class_name": "L1L2", "config": {"l1": 0.0, "l2": 0.00019999999494757503}}, "trainable": true, "activity_regularizer": null, "kernel_initializer": {"class_name": "VarianceScaling", "config": {"mode": "fan_avg", "scale": 1.0, "distribution": "normal", "seed": 3014}}, "name": "C1_1", "use_bias": true, "units": 100}}, {"class_name": "Dense", "inbound_nodes": [[["C2_0", 0, 0, {}]]], "name": "C2_1", "config": {"kernel_constraint": null, "bias_constraint": null, "bias_initializer": {"class_name": "Zeros", "config": {}}, "bias_regularizer": null, "activation": "relu", "kernel_regularizer": {"class_name": "L1L2", "config": {"l1": 0.0, "l2": 0.00019999999494757503}}, "trainable": true, "activity_regularizer": null, "kernel_initializer": {"class_name": "VarianceScaling", "config": {"mode": "fan_avg", "scale": 1.0, "distribution": "normal", "seed": 3014}}, "name": "C2_1", "use_bias": true, "units": 100}}, {"class_name": "Dense", "inbound_nodes": [[["C3_0", 0, 0, {}]]], "name": "C3_1", "config": {"kernel_constraint": null, "bias_constraint": null, "bias_initializer": {"class_name": "Zeros", "config": {}}, "bias_regularizer": null, "activation": "relu", "kernel_regularizer": {"class_name": "L1L2", "config": {"l1": 0.0, "l2": 0.00019999999494757503}}, "trainable": true, "activity_regularizer": null, "kernel_initializer": {"class_name": "VarianceScaling", "config": {"mode": "fan_avg", "scale": 1.0, "distribution": "normal", "seed": 3014}}, "name": "C3_1", "use_bias": true, "units": 100}}, {"class_name": "Dense", "inbound_nodes": [[["C4_0", 0, 0, {}]]], "name": "C4_1", "config": {"kernel_constraint": null, "bias_constraint": null, "bias_initializer": {"class_name": "Zeros", "config": {}}, "bias_regularizer": null, "activation": "relu", "kernel_regularizer": {"class_name": "L1L2", "config": {"l1": 0.0, "l2": 0.00019999999494757503}}, "trainable": true, "activity_regularizer": null, "kernel_initializer": {"class_name": "VarianceScaling", "config": {"mode": "fan_avg", "scale": 1.0, "distribution": "normal", "seed": 3014}}, "name": "C4_1", "use_bias": true, "units": 100}}, {"class_name": "Dense", "inbound_nodes": [[["B1_0", 0, 0, {}]]], "name": "B1_1", "config": {"kernel_constraint": null, "bias_constraint": null, "bias_initializer": {"class_name": "Zeros", "config": {}}, "bias_regularizer": null, "activation": "relu", "kernel_regularizer": {"class_name": "L1L2", "config": {"l1": 0.0, "l2": 0.00019999999494757503}}, "trainable": true, "activity_regularizer": null, "kernel_initializer": {"class_name": "VarianceScaling", "config": {"mode": "fan_avg", "scale": 1.0, "distribution": "normal", "seed": 3014}}, "name": "B1_1", "use_bias": true, "units": 100}}, {"class_name": "Dense", "inbound_nodes": [[["B3_0", 0, 0, {}]]], "name": "B3_1", "config": {"kernel_constraint": null, "bias_constraint": null, "bias_initializer": {"class_name": "Zeros", "config": {}}, "bias_regularizer": null, "activation": "relu", "kernel_regularizer": {"class_name": "L1L2", "config": {"l1": 0.0, "l2": 0.00019999999494757503}}, "trainable": true, "activity_regularizer": null, "kernel_initializer": {"class_name": "VarianceScaling", "config": {"mode": "fan_avg", "scale": 1.0, "distribution": "normal", "seed": 3014}}, "name": "B3_1", "use_bias": true, "units": 100}}, {"class_name": "Dense", "inbound_nodes": [[["D1_0", 0, 0, {}]]], "name": "D1_1", "config": {"kernel_constraint": null, "bias_constraint": null, "bias_initializer": {"class_name": "Zeros", "config": {}}, "bias_regularizer": null, "activation": "relu", "kernel_regularizer": {"class_name": "L1L2", "config": {"l1": 0.0, "l2": 0.00019999999494757503}}, "trainable": true, "activity_regularizer": null, "kernel_initializer": {"class_name": "VarianceScaling", "config": {"mode": "fan_avg", "scale": 1.0, "distribution": "normal", "seed": 3014}}, "name": "D1_1", "use_bias": true, "units": 100}}, {"class_name": "InputLayer", "inbound_nodes": [], "name": "OnOff_C1", "config": {"sparse": false, "name": "OnOff_C1", "batch_input_shape": [null, 1], "dtype": "float32"}}, {"class_name": "Dense", "inbound_nodes": [[["C1_1", 0, 0, {}]]], "name": "C1_o", "config": {"kernel_constraint": null, "bias_constraint": null, "bias_initializer": {"class_name": "Zeros", "config": {}}, "bias_regularizer": null, "activation": "relu", "kernel_regularizer": {"class_name": "L1L2", "config": {"l1": 0.0, "l2": 0.00019999999494757503}}, "trainable": true, "activity_regularizer": null, "kernel_initializer": {"class_name": "VarianceScaling", "config": {"mode": "fan_avg", "scale": 1.0, "distribution": "normal", "seed": 3014}}, "name": "C1_o", "use_bias": true, "units": 1}}, {"class_name": "InputLayer", "inbound_nodes": [], "name": "OnOff_C2", "config": {"sparse": false, "name": "OnOff_C2", "batch_input_shape": [null, 1], "dtype": "float32"}}, {"class_name": "Dense", "inbound_nodes": [[["C2_1", 0, 0, {}]]], "name": "C2_o", "config": {"kernel_constraint": null, "bias_constraint": null, "bias_initializer": {"class_name": "Zeros", "config": {}}, "bias_regularizer": null, "activation": "relu", "kernel_regularizer": {"class_name": "L1L2", "config": {"l1": 0.0, "l2": 0.00019999999494757503}}, "trainable": true, "activity_regularizer": null, "kernel_initializer": {"class_name": "VarianceScaling", "config": {"mode": "fan_avg", "scale": 1.0, "distribution": "normal", "seed": 3014}}, "name": "C2_o", "use_bias": true, "units": 1}}, {"class_name": "InputLayer", "inbound_nodes": [], "name": "OnOff_C3", "config": {"sparse": false, "name": "OnOff_C3", "batch_input_shape": [null, 1], "dtype": "float32"}}, {"class_name": "Dense", "inbound_nodes": [[["C3_1", 0, 0, {}]]], "name": "C3_o", "config": {"kernel_constraint": null, "bias_constraint": null, "bias_initializer": {"class_name": "Zeros", "config": {}}, "bias_regularizer": null, "activation": "relu", "kernel_regularizer": {"class_name": "L1L2", "config": {"l1": 0.0, "l2": 0.00019999999494757503}}, "trainable": true, "activity_regularizer": null, "kernel_initializer": {"class_name": "VarianceScaling", "config": {"mode": "fan_avg", "scale": 1.0, "distribution": "normal", "seed": 3014}}, "name": "C3_o", "use_bias": true, "units": 1}}, {"class_name": "InputLayer", "inbound_nodes": [], "name": "OnOff_C4", "config": {"sparse": false, "name": "OnOff_C4", "batch_input_shape": [null, 1], "dtype": "float32"}}, {"class_name": "Dense", "inbound_nodes": [[["C4_1", 0, 0, {}]]], "name": "C4_o", "config": {"kernel_constraint": null, "bias_constraint": null, "bias_initializer": {"class_name": "Zeros", "config": {}}, "bias_regularizer": null, "activation": "relu", "kernel_regularizer": {"class_name": "L1L2", "config": {"l1": 0.0, "l2": 0.00019999999494757503}}, "trainable": true, "activity_regularizer": null, "kernel_initializer": {"class_name": "VarianceScaling", "config": {"mode": "fan_avg", "scale": 1.0, "distribution": "normal", "seed": 3014}}, "name": "C4_o", "use_bias": true, "units": 1}}, {"class_name": "InputLayer", "inbound_nodes": [], "name": "OnOff_B1", "config": {"sparse": false, "name": "OnOff_B1", "batch_input_shape": [null, 1], "dtype": "float32"}}, {"class_name": "Dense", "inbound_nodes": [[["B1_1", 0, 0, {}]]], "name": "B1_o", "config": {"kernel_constraint": null, "bias_constraint": null, "bias_initializer": {"class_name": "Zeros", "config": {}}, "bias_regularizer": null, "activation": "relu", "kernel_regularizer": {"class_name": "L1L2", "config": {"l1": 0.0, "l2": 0.00019999999494757503}}, "trainable": true, "activity_regularizer": null, "kernel_initializer": {"class_name": "VarianceScaling", "config": {"mode": "fan_avg", "scale": 1.0, "distribution": "normal", "seed": 3014}}, "name": "B1_o", "use_bias": true, "units": 1}}, {"class_name": "InputLayer", "inbound_nodes": [], "name": "OnOff_B3", "config": {"sparse": false, "name": "OnOff_B3", "batch_input_shape": [null, 1], "dtype": "float32"}}, {"class_name": "Dense", "inbound_nodes": [[["B3_1", 0, 0, {}]]], "name": "B3_o", "config": {"kernel_constraint": null, "bias_constraint": null, "bias_initializer": {"class_name": "Zeros", "config": {}}, "bias_regularizer": null, "activation": "relu", "kernel_regularizer": {"class_name": "L1L2", "config": {"l1": 0.0, "l2": 0.00019999999494757503}}, "trainable": true, "activity_regularizer": null, "kernel_initializer": {"class_name": "VarianceScaling", "config": {"mode": "fan_avg", "scale": 1.0, "distribution": "normal", "seed": 3014}}, "name": "B3_o", "use_bias": true, "units": 1}}, {"class_name": "InputLayer", "inbound_nodes": [], "name": "OnOff_D1", "config": {"sparse": false, "name": "OnOff_D1", "batch_input_shape": [null, 1], "dtype": "float32"}}, {"class_name": "Dense", "inbound_nodes": [[["D1_1", 0, 0, {}]]], "name": "D1_o", "config": {"kernel_constraint": null, "bias_constraint": null, "bias_initializer": {"class_name": "Zeros", "config": {}}, "bias_regularizer": null, "activation": "relu", "kernel_regularizer": {"class_name": "L1L2", "config": {"l1": 0.0, "l2": 0.00019999999494757503}}, "trainable": true, "activity_regularizer": null, "kernel_initializer": {"class_name": "VarianceScaling", "config": {"mode": "fan_avg", "scale": 1.0, "distribution": "normal", "seed": 3014}}, "name": "D1_o", "use_bias": true, "units": 1}}, {"class_name": "Multiply", "inbound_nodes": [[["OnOff_C1", 0, 0, {}], ["C1_o", 0, 0, {}]]], "name": "C1_out", "config": {"name": "C1_out", "trainable": true}}, {"class_name": "Multiply", "inbound_nodes": [[["OnOff_C2", 0, 0, {}], ["C2_o", 0, 0, {}]]], "name": "C2_out", "config": {"name": "C2_out", "trainable": true}}, {"class_name": "Multiply", "inbound_nodes": [[["OnOff_C3", 0, 0, {}], ["C3_o", 0, 0, {}]]], "name": "C3_out", "config": {"name": "C3_out", "trainable": true}}, {"class_name": "Multiply", "inbound_nodes": [[["OnOff_C4", 0, 0, {}], ["C4_o", 0, 0, {}]]], "name": "C4_out", "config": {"name": "C4_out", "trainable": true}}, {"class_name": "Multiply", "inbound_nodes": [[["OnOff_B1", 0, 0, {}], ["B1_o", 0, 0, {}]]], "name": "B1_out", "config": {"name": "B1_out", "trainable": true}}, {"class_name": "Multiply", "inbound_nodes": [[["OnOff_B3", 0, 0, {}], ["B3_o", 0, 0, {}]]], "name": "B3_out", "config": {"name": "B3_out", "trainable": true}}, {"class_name": "Multiply", "inbound_nodes": [[["OnOff_D1", 0, 0, {}], ["D1_o", 0, 0, {}]]], "name": "D1_out", "config": {"name": "D1_out", "trainable": true}}, {"class_name": "Add", "inbound_nodes": [[["C1_out", 0, 0, {}], ["C2_out", 0, 0, {}], ["C3_out", 0, 0, {}], ["C4_out", 0, 0, {}], ["B1_out", 0, 0, {}], ["B3_out", 0, 0, {}], ["D1_out", 0, 0, {}]]], "name": "GJOA_TOTAL", "config": {"name": "GJOA_TOTAL", "trainable": true}}], "input_layers": [["C1", 0, 0], ["C2", 0, 0], ["C3", 0, 0], ["C4", 0, 0], ["B1", 0, 0], ["B3", 0, 0], ["D1", 0, 0], ["OnOff_C1", 0, 0], ["OnOff_C2", 0, 0], ["OnOff_C3", 0, 0], ["OnOff_C4", 0, 0], ["OnOff_B1", 0, 0], ["OnOff_B3", 0, 0], ["OnOff_D1", 0, 0]], "output_layers": [["C1_out", 0, 0], ["C2_out", 0, 0], ["C3_out", 0, 0], ["C4_out", 0, 0], ["B1_out", 0, 0], ["B3_out", 0, 0], ["D1_out", 0, 0], ["GJOA_TOTAL", 0, 0]], "name": "model_1"}, "keras_version": "2.0.1"}