{"class_name": "Model", "keras_version": "2.0.1", "backend": "theano", "config": {"input_layers": [["CHK_INPUT_NOW", 0, 0], ["CHK_INPUT_PREV", 0, 0], ["SHIFTED_PRESSURE_PWH_C1", 0, 0], ["SHIFTED_PRESSURE_PWH_C2", 0, 0], ["SHIFTED_PRESSURE_PWH_C3", 0, 0], ["SHIFTED_PRESSURE_PWH_C4", 0, 0], ["SHIFTED_PRESSURE_PWH_B3", 0, 0], ["SHIFTED_PRESSURE_PWH_B1", 0, 0], ["SHIFTED_PRESSURE_PWH_D1", 0, 0]], "output_layers": [["C1_PWH_out2", 0, 0], ["C1_PWH_out", 0, 0], ["C2_PWH_out2", 0, 0], ["C2_PWH_out", 0, 0], ["C3_PWH_out2", 0, 0], ["C3_PWH_out", 0, 0], ["C4_PWH_out2", 0, 0], ["C4_PWH_out", 0, 0], ["B3_PWH_out2", 0, 0], ["B3_PWH_out", 0, 0], ["B1_PWH_out2", 0, 0], ["B1_PWH_out", 0, 0], ["D1_PWH_out2", 0, 0], ["D1_PWH_out", 0, 0]], "layers": [{"class_name": "InputLayer", "inbound_nodes": [], "name": "CHK_INPUT_PREV", "config": {"batch_input_shape": [null, 7], "dtype": "float32", "name": "CHK_INPUT_PREV", "sparse": false}}, {"class_name": "InputLayer", "inbound_nodes": [], "name": "CHK_INPUT_NOW", "config": {"batch_input_shape": [null, 7], "dtype": "float32", "name": "CHK_INPUT_NOW", "sparse": false}}, {"class_name": "Add", "inbound_nodes": [[["CHK_INPUT_PREV", 0, 0, {}], ["CHK_INPUT_NOW", 0, 0, {}]]], "name": "CHK_DELTA", "config": {"trainable": true, "name": "CHK_DELTA"}}, {"class_name": "Dense", "inbound_nodes": [[["CHK_DELTA", 0, 0, {}]]], "name": "C1_PWH_0", "config": {"bias_initializer": {"class_name": "Zeros", "config": {}}, "kernel_constraint": null, "name": "C1_PWH_0", "activity_regularizer": null, "kernel_initializer": {"class_name": "VarianceScaling", "config": {"scale": 1.0, "distribution": "normal", "seed": 3014, "mode": "fan_avg"}}, "activation": "relu", "bias_regularizer": null, "bias_constraint": null, "units": 50, "trainable": true, "kernel_regularizer": {"class_name": "L1L2", "config": {"l2": 9.999999747378752e-05, "l1": 0.0}}, "use_bias": true}}, {"class_name": "Dense", "inbound_nodes": [[["CHK_DELTA", 0, 0, {}]]], "name": "C2_PWH_0", "config": {"bias_initializer": {"class_name": "Zeros", "config": {}}, "kernel_constraint": null, "name": "C2_PWH_0", "activity_regularizer": null, "kernel_initializer": {"class_name": "VarianceScaling", "config": {"scale": 1.0, "distribution": "normal", "seed": 3014, "mode": "fan_avg"}}, "activation": "relu", "bias_regularizer": null, "bias_constraint": null, "units": 50, "trainable": true, "kernel_regularizer": {"class_name": "L1L2", "config": {"l2": 9.999999747378752e-05, "l1": 0.0}}, "use_bias": true}}, {"class_name": "Dense", "inbound_nodes": [[["CHK_DELTA", 0, 0, {}]]], "name": "C3_PWH_0", "config": {"bias_initializer": {"class_name": "Zeros", "config": {}}, "kernel_constraint": null, "name": "C3_PWH_0", "activity_regularizer": null, "kernel_initializer": {"class_name": "VarianceScaling", "config": {"scale": 1.0, "distribution": "normal", "seed": 3014, "mode": "fan_avg"}}, "activation": "relu", "bias_regularizer": null, "bias_constraint": null, "units": 50, "trainable": true, "kernel_regularizer": {"class_name": "L1L2", "config": {"l2": 9.999999747378752e-05, "l1": 0.0}}, "use_bias": true}}, {"class_name": "Dense", "inbound_nodes": [[["CHK_DELTA", 0, 0, {}]]], "name": "C4_PWH_0", "config": {"bias_initializer": {"class_name": "Zeros", "config": {}}, "kernel_constraint": null, "name": "C4_PWH_0", "activity_regularizer": null, "kernel_initializer": {"class_name": "VarianceScaling", "config": {"scale": 1.0, "distribution": "normal", "seed": 3014, "mode": "fan_avg"}}, "activation": "relu", "bias_regularizer": null, "bias_constraint": null, "units": 50, "trainable": true, "kernel_regularizer": {"class_name": "L1L2", "config": {"l2": 9.999999747378752e-05, "l1": 0.0}}, "use_bias": true}}, {"class_name": "Dense", "inbound_nodes": [[["CHK_DELTA", 0, 0, {}]]], "name": "B3_PWH_0", "config": {"bias_initializer": {"class_name": "Zeros", "config": {}}, "kernel_constraint": null, "name": "B3_PWH_0", "activity_regularizer": null, "kernel_initializer": {"class_name": "VarianceScaling", "config": {"scale": 1.0, "distribution": "normal", "seed": 3014, "mode": "fan_avg"}}, "activation": "relu", "bias_regularizer": null, "bias_constraint": null, "units": 50, "trainable": true, "kernel_regularizer": {"class_name": "L1L2", "config": {"l2": 9.999999747378752e-05, "l1": 0.0}}, "use_bias": true}}, {"class_name": "Dense", "inbound_nodes": [[["CHK_DELTA", 0, 0, {}]]], "name": "B1_PWH_0", "config": {"bias_initializer": {"class_name": "Zeros", "config": {}}, "kernel_constraint": null, "name": "B1_PWH_0", "activity_regularizer": null, "kernel_initializer": {"class_name": "VarianceScaling", "config": {"scale": 1.0, "distribution": "normal", "seed": 3014, "mode": "fan_avg"}}, "activation": "relu", "bias_regularizer": null, "bias_constraint": null, "units": 50, "trainable": true, "kernel_regularizer": {"class_name": "L1L2", "config": {"l2": 9.999999747378752e-05, "l1": 0.0}}, "use_bias": true}}, {"class_name": "Dense", "inbound_nodes": [[["CHK_DELTA", 0, 0, {}]]], "name": "D1_PWH_0", "config": {"bias_initializer": {"class_name": "Zeros", "config": {}}, "kernel_constraint": null, "name": "D1_PWH_0", "activity_regularizer": null, "kernel_initializer": {"class_name": "VarianceScaling", "config": {"scale": 1.0, "distribution": "normal", "seed": 3014, "mode": "fan_avg"}}, "activation": "relu", "bias_regularizer": null, "bias_constraint": null, "units": 50, "trainable": true, "kernel_regularizer": {"class_name": "L1L2", "config": {"l2": 9.999999747378752e-05, "l1": 0.0}}, "use_bias": true}}, {"class_name": "Dense", "inbound_nodes": [[["C1_PWH_0", 0, 0, {}]]], "name": "C1_PWH_out", "config": {"bias_initializer": {"class_name": "Zeros", "config": {}}, "kernel_constraint": null, "name": "C1_PWH_out", "activity_regularizer": null, "kernel_initializer": {"class_name": "VarianceScaling", "config": {"scale": 1.0, "distribution": "normal", "seed": 3014, "mode": "fan_avg"}}, "activation": "linear", "bias_regularizer": null, "bias_constraint": null, "units": 1, "trainable": true, "kernel_regularizer": {"class_name": "L1L2", "config": {"l2": 9.999999747378752e-05, "l1": 0.0}}, "use_bias": true}}, {"class_name": "InputLayer", "inbound_nodes": [], "name": "SHIFTED_PRESSURE_PWH_C1", "config": {"batch_input_shape": [null, 1], "dtype": "float32", "name": "SHIFTED_PRESSURE_PWH_C1", "sparse": false}}, {"class_name": "Dense", "inbound_nodes": [[["C2_PWH_0", 0, 0, {}]]], "name": "C2_PWH_out", "config": {"bias_initializer": {"class_name": "Zeros", "config": {}}, "kernel_constraint": null, "name": "C2_PWH_out", "activity_regularizer": null, "kernel_initializer": {"class_name": "VarianceScaling", "config": {"scale": 1.0, "distribution": "normal", "seed": 3014, "mode": "fan_avg"}}, "activation": "linear", "bias_regularizer": null, "bias_constraint": null, "units": 1, "trainable": true, "kernel_regularizer": {"class_name": "L1L2", "config": {"l2": 9.999999747378752e-05, "l1": 0.0}}, "use_bias": true}}, {"class_name": "InputLayer", "inbound_nodes": [], "name": "SHIFTED_PRESSURE_PWH_C2", "config": {"batch_input_shape": [null, 1], "dtype": "float32", "name": "SHIFTED_PRESSURE_PWH_C2", "sparse": false}}, {"class_name": "Dense", "inbound_nodes": [[["C3_PWH_0", 0, 0, {}]]], "name": "C3_PWH_out", "config": {"bias_initializer": {"class_name": "Zeros", "config": {}}, "kernel_constraint": null, "name": "C3_PWH_out", "activity_regularizer": null, "kernel_initializer": {"class_name": "VarianceScaling", "config": {"scale": 1.0, "distribution": "normal", "seed": 3014, "mode": "fan_avg"}}, "activation": "linear", "bias_regularizer": null, "bias_constraint": null, "units": 1, "trainable": true, "kernel_regularizer": {"class_name": "L1L2", "config": {"l2": 9.999999747378752e-05, "l1": 0.0}}, "use_bias": true}}, {"class_name": "InputLayer", "inbound_nodes": [], "name": "SHIFTED_PRESSURE_PWH_C3", "config": {"batch_input_shape": [null, 1], "dtype": "float32", "name": "SHIFTED_PRESSURE_PWH_C3", "sparse": false}}, {"class_name": "Dense", "inbound_nodes": [[["C4_PWH_0", 0, 0, {}]]], "name": "C4_PWH_out", "config": {"bias_initializer": {"class_name": "Zeros", "config": {}}, "kernel_constraint": null, "name": "C4_PWH_out", "activity_regularizer": null, "kernel_initializer": {"class_name": "VarianceScaling", "config": {"scale": 1.0, "distribution": "normal", "seed": 3014, "mode": "fan_avg"}}, "activation": "linear", "bias_regularizer": null, "bias_constraint": null, "units": 1, "trainable": true, "kernel_regularizer": {"class_name": "L1L2", "config": {"l2": 9.999999747378752e-05, "l1": 0.0}}, "use_bias": true}}, {"class_name": "InputLayer", "inbound_nodes": [], "name": "SHIFTED_PRESSURE_PWH_C4", "config": {"batch_input_shape": [null, 1], "dtype": "float32", "name": "SHIFTED_PRESSURE_PWH_C4", "sparse": false}}, {"class_name": "Dense", "inbound_nodes": [[["B3_PWH_0", 0, 0, {}]]], "name": "B3_PWH_out", "config": {"bias_initializer": {"class_name": "Zeros", "config": {}}, "kernel_constraint": null, "name": "B3_PWH_out", "activity_regularizer": null, "kernel_initializer": {"class_name": "VarianceScaling", "config": {"scale": 1.0, "distribution": "normal", "seed": 3014, "mode": "fan_avg"}}, "activation": "linear", "bias_regularizer": null, "bias_constraint": null, "units": 1, "trainable": true, "kernel_regularizer": {"class_name": "L1L2", "config": {"l2": 9.999999747378752e-05, "l1": 0.0}}, "use_bias": true}}, {"class_name": "InputLayer", "inbound_nodes": [], "name": "SHIFTED_PRESSURE_PWH_B3", "config": {"batch_input_shape": [null, 1], "dtype": "float32", "name": "SHIFTED_PRESSURE_PWH_B3", "sparse": false}}, {"class_name": "Dense", "inbound_nodes": [[["B1_PWH_0", 0, 0, {}]]], "name": "B1_PWH_out", "config": {"bias_initializer": {"class_name": "Zeros", "config": {}}, "kernel_constraint": null, "name": "B1_PWH_out", "activity_regularizer": null, "kernel_initializer": {"class_name": "VarianceScaling", "config": {"scale": 1.0, "distribution": "normal", "seed": 3014, "mode": "fan_avg"}}, "activation": "linear", "bias_regularizer": null, "bias_constraint": null, "units": 1, "trainable": true, "kernel_regularizer": {"class_name": "L1L2", "config": {"l2": 9.999999747378752e-05, "l1": 0.0}}, "use_bias": true}}, {"class_name": "InputLayer", "inbound_nodes": [], "name": "SHIFTED_PRESSURE_PWH_B1", "config": {"batch_input_shape": [null, 1], "dtype": "float32", "name": "SHIFTED_PRESSURE_PWH_B1", "sparse": false}}, {"class_name": "Dense", "inbound_nodes": [[["D1_PWH_0", 0, 0, {}]]], "name": "D1_PWH_out", "config": {"bias_initializer": {"class_name": "Zeros", "config": {}}, "kernel_constraint": null, "name": "D1_PWH_out", "activity_regularizer": null, "kernel_initializer": {"class_name": "VarianceScaling", "config": {"scale": 1.0, "distribution": "normal", "seed": 3014, "mode": "fan_avg"}}, "activation": "linear", "bias_regularizer": null, "bias_constraint": null, "units": 1, "trainable": true, "kernel_regularizer": {"class_name": "L1L2", "config": {"l2": 9.999999747378752e-05, "l1": 0.0}}, "use_bias": true}}, {"class_name": "InputLayer", "inbound_nodes": [], "name": "SHIFTED_PRESSURE_PWH_D1", "config": {"batch_input_shape": [null, 1], "dtype": "float32", "name": "SHIFTED_PRESSURE_PWH_D1", "sparse": false}}, {"class_name": "Add", "inbound_nodes": [[["C1_PWH_out", 0, 0, {}], ["SHIFTED_PRESSURE_PWH_C1", 0, 0, {}]]], "name": "C1_PWH_out2", "config": {"trainable": true, "name": "C1_PWH_out2"}}, {"class_name": "Add", "inbound_nodes": [[["C2_PWH_out", 0, 0, {}], ["SHIFTED_PRESSURE_PWH_C2", 0, 0, {}]]], "name": "C2_PWH_out2", "config": {"trainable": true, "name": "C2_PWH_out2"}}, {"class_name": "Add", "inbound_nodes": [[["C3_PWH_out", 0, 0, {}], ["SHIFTED_PRESSURE_PWH_C3", 0, 0, {}]]], "name": "C3_PWH_out2", "config": {"trainable": true, "name": "C3_PWH_out2"}}, {"class_name": "Add", "inbound_nodes": [[["C4_PWH_out", 0, 0, {}], ["SHIFTED_PRESSURE_PWH_C4", 0, 0, {}]]], "name": "C4_PWH_out2", "config": {"trainable": true, "name": "C4_PWH_out2"}}, {"class_name": "Add", "inbound_nodes": [[["B3_PWH_out", 0, 0, {}], ["SHIFTED_PRESSURE_PWH_B3", 0, 0, {}]]], "name": "B3_PWH_out2", "config": {"trainable": true, "name": "B3_PWH_out2"}}, {"class_name": "Add", "inbound_nodes": [[["B1_PWH_out", 0, 0, {}], ["SHIFTED_PRESSURE_PWH_B1", 0, 0, {}]]], "name": "B1_PWH_out2", "config": {"trainable": true, "name": "B1_PWH_out2"}}, {"class_name": "Add", "inbound_nodes": [[["D1_PWH_out", 0, 0, {}], ["SHIFTED_PRESSURE_PWH_D1", 0, 0, {}]]], "name": "D1_PWH_out2", "config": {"trainable": true, "name": "D1_PWH_out2"}}], "name": "model_1"}}