{"class_name": "Model", "keras_version": "2.0.1", "config": {"output_layers": [["C1_PWH_out", 0, 0], ["C2_PWH_out", 0, 0], ["C3_PWH_out", 0, 0], ["C4_PWH_out", 0, 0], ["B3_PWH_out", 0, 0], ["B1_PWH_out", 0, 0], ["D1_PWH_out", 0, 0]], "name": "model_1", "layers": [{"class_name": "InputLayer", "config": {"batch_input_shape": [null, 12], "sparse": false, "dtype": "float32", "name": "PRESSURE_INPUT"}, "inbound_nodes": [], "name": "PRESSURE_INPUT"}, {"class_name": "Dense", "config": {"kernel_constraint": null, "bias_constraint": null, "kernel_regularizer": {"class_name": "L1L2", "config": {"l1": 0.0, "l2": 9.999999747378752e-06}}, "units": 100, "kernel_initializer": {"class_name": "VarianceScaling", "config": {"seed": 3014, "distribution": "normal", "scale": 1.0, "mode": "fan_avg"}}, "activity_regularizer": null, "trainable": true, "activation": "relu", "bias_regularizer": null, "bias_initializer": {"class_name": "Zeros", "config": {}}, "use_bias": true, "name": "C1_PWH_0"}, "inbound_nodes": [[["PRESSURE_INPUT", 0, 0, {}]]], "name": "C1_PWH_0"}, {"class_name": "Dense", "config": {"kernel_constraint": null, "bias_constraint": null, "kernel_regularizer": {"class_name": "L1L2", "config": {"l1": 0.0, "l2": 9.999999747378752e-06}}, "units": 100, "kernel_initializer": {"class_name": "VarianceScaling", "config": {"seed": 3014, "distribution": "normal", "scale": 1.0, "mode": "fan_avg"}}, "activity_regularizer": null, "trainable": true, "activation": "relu", "bias_regularizer": null, "bias_initializer": {"class_name": "Zeros", "config": {}}, "use_bias": true, "name": "C2_PWH_0"}, "inbound_nodes": [[["PRESSURE_INPUT", 0, 0, {}]]], "name": "C2_PWH_0"}, {"class_name": "Dense", "config": {"kernel_constraint": null, "bias_constraint": null, "kernel_regularizer": {"class_name": "L1L2", "config": {"l1": 0.0, "l2": 9.999999747378752e-06}}, "units": 100, "kernel_initializer": {"class_name": "VarianceScaling", "config": {"seed": 3014, "distribution": "normal", "scale": 1.0, "mode": "fan_avg"}}, "activity_regularizer": null, "trainable": true, "activation": "relu", "bias_regularizer": null, "bias_initializer": {"class_name": "Zeros", "config": {}}, "use_bias": true, "name": "C3_PWH_0"}, "inbound_nodes": [[["PRESSURE_INPUT", 0, 0, {}]]], "name": "C3_PWH_0"}, {"class_name": "Dense", "config": {"kernel_constraint": null, "bias_constraint": null, "kernel_regularizer": {"class_name": "L1L2", "config": {"l1": 0.0, "l2": 9.999999747378752e-06}}, "units": 100, "kernel_initializer": {"class_name": "VarianceScaling", "config": {"seed": 3014, "distribution": "normal", "scale": 1.0, "mode": "fan_avg"}}, "activity_regularizer": null, "trainable": true, "activation": "relu", "bias_regularizer": null, "bias_initializer": {"class_name": "Zeros", "config": {}}, "use_bias": true, "name": "C4_PWH_0"}, "inbound_nodes": [[["PRESSURE_INPUT", 0, 0, {}]]], "name": "C4_PWH_0"}, {"class_name": "Dense", "config": {"kernel_constraint": null, "bias_constraint": null, "kernel_regularizer": {"class_name": "L1L2", "config": {"l1": 0.0, "l2": 9.999999747378752e-06}}, "units": 100, "kernel_initializer": {"class_name": "VarianceScaling", "config": {"seed": 3014, "distribution": "normal", "scale": 1.0, "mode": "fan_avg"}}, "activity_regularizer": null, "trainable": true, "activation": "relu", "bias_regularizer": null, "bias_initializer": {"class_name": "Zeros", "config": {}}, "use_bias": true, "name": "B3_PWH_0"}, "inbound_nodes": [[["PRESSURE_INPUT", 0, 0, {}]]], "name": "B3_PWH_0"}, {"class_name": "Dense", "config": {"kernel_constraint": null, "bias_constraint": null, "kernel_regularizer": {"class_name": "L1L2", "config": {"l1": 0.0, "l2": 9.999999747378752e-06}}, "units": 100, "kernel_initializer": {"class_name": "VarianceScaling", "config": {"seed": 3014, "distribution": "normal", "scale": 1.0, "mode": "fan_avg"}}, "activity_regularizer": null, "trainable": true, "activation": "relu", "bias_regularizer": null, "bias_initializer": {"class_name": "Zeros", "config": {}}, "use_bias": true, "name": "B1_PWH_0"}, "inbound_nodes": [[["PRESSURE_INPUT", 0, 0, {}]]], "name": "B1_PWH_0"}, {"class_name": "Dense", "config": {"kernel_constraint": null, "bias_constraint": null, "kernel_regularizer": {"class_name": "L1L2", "config": {"l1": 0.0, "l2": 9.999999747378752e-06}}, "units": 100, "kernel_initializer": {"class_name": "VarianceScaling", "config": {"seed": 3014, "distribution": "normal", "scale": 1.0, "mode": "fan_avg"}}, "activity_regularizer": null, "trainable": true, "activation": "relu", "bias_regularizer": null, "bias_initializer": {"class_name": "Zeros", "config": {}}, "use_bias": true, "name": "D1_PWH_0"}, "inbound_nodes": [[["PRESSURE_INPUT", 0, 0, {}]]], "name": "D1_PWH_0"}, {"class_name": "Dense", "config": {"kernel_constraint": null, "bias_constraint": null, "kernel_regularizer": {"class_name": "L1L2", "config": {"l1": 0.0, "l2": 9.999999747378752e-06}}, "units": 100, "kernel_initializer": {"class_name": "VarianceScaling", "config": {"seed": 3014, "distribution": "normal", "scale": 1.0, "mode": "fan_avg"}}, "activity_regularizer": null, "trainable": true, "activation": "relu", "bias_regularizer": null, "bias_initializer": {"class_name": "Zeros", "config": {}}, "use_bias": true, "name": "C1_PWH_1"}, "inbound_nodes": [[["C1_PWH_0", 0, 0, {}]]], "name": "C1_PWH_1"}, {"class_name": "Dense", "config": {"kernel_constraint": null, "bias_constraint": null, "kernel_regularizer": {"class_name": "L1L2", "config": {"l1": 0.0, "l2": 9.999999747378752e-06}}, "units": 100, "kernel_initializer": {"class_name": "VarianceScaling", "config": {"seed": 3014, "distribution": "normal", "scale": 1.0, "mode": "fan_avg"}}, "activity_regularizer": null, "trainable": true, "activation": "relu", "bias_regularizer": null, "bias_initializer": {"class_name": "Zeros", "config": {}}, "use_bias": true, "name": "C2_PWH_1"}, "inbound_nodes": [[["C2_PWH_0", 0, 0, {}]]], "name": "C2_PWH_1"}, {"class_name": "Dense", "config": {"kernel_constraint": null, "bias_constraint": null, "kernel_regularizer": {"class_name": "L1L2", "config": {"l1": 0.0, "l2": 9.999999747378752e-06}}, "units": 100, "kernel_initializer": {"class_name": "VarianceScaling", "config": {"seed": 3014, "distribution": "normal", "scale": 1.0, "mode": "fan_avg"}}, "activity_regularizer": null, "trainable": true, "activation": "relu", "bias_regularizer": null, "bias_initializer": {"class_name": "Zeros", "config": {}}, "use_bias": true, "name": "C3_PWH_1"}, "inbound_nodes": [[["C3_PWH_0", 0, 0, {}]]], "name": "C3_PWH_1"}, {"class_name": "Dense", "config": {"kernel_constraint": null, "bias_constraint": null, "kernel_regularizer": {"class_name": "L1L2", "config": {"l1": 0.0, "l2": 9.999999747378752e-06}}, "units": 100, "kernel_initializer": {"class_name": "VarianceScaling", "config": {"seed": 3014, "distribution": "normal", "scale": 1.0, "mode": "fan_avg"}}, "activity_regularizer": null, "trainable": true, "activation": "relu", "bias_regularizer": null, "bias_initializer": {"class_name": "Zeros", "config": {}}, "use_bias": true, "name": "C4_PWH_1"}, "inbound_nodes": [[["C4_PWH_0", 0, 0, {}]]], "name": "C4_PWH_1"}, {"class_name": "Dense", "config": {"kernel_constraint": null, "bias_constraint": null, "kernel_regularizer": {"class_name": "L1L2", "config": {"l1": 0.0, "l2": 9.999999747378752e-06}}, "units": 100, "kernel_initializer": {"class_name": "VarianceScaling", "config": {"seed": 3014, "distribution": "normal", "scale": 1.0, "mode": "fan_avg"}}, "activity_regularizer": null, "trainable": true, "activation": "relu", "bias_regularizer": null, "bias_initializer": {"class_name": "Zeros", "config": {}}, "use_bias": true, "name": "B3_PWH_1"}, "inbound_nodes": [[["B3_PWH_0", 0, 0, {}]]], "name": "B3_PWH_1"}, {"class_name": "Dense", "config": {"kernel_constraint": null, "bias_constraint": null, "kernel_regularizer": {"class_name": "L1L2", "config": {"l1": 0.0, "l2": 9.999999747378752e-06}}, "units": 100, "kernel_initializer": {"class_name": "VarianceScaling", "config": {"seed": 3014, "distribution": "normal", "scale": 1.0, "mode": "fan_avg"}}, "activity_regularizer": null, "trainable": true, "activation": "relu", "bias_regularizer": null, "bias_initializer": {"class_name": "Zeros", "config": {}}, "use_bias": true, "name": "B1_PWH_1"}, "inbound_nodes": [[["B1_PWH_0", 0, 0, {}]]], "name": "B1_PWH_1"}, {"class_name": "Dense", "config": {"kernel_constraint": null, "bias_constraint": null, "kernel_regularizer": {"class_name": "L1L2", "config": {"l1": 0.0, "l2": 9.999999747378752e-06}}, "units": 100, "kernel_initializer": {"class_name": "VarianceScaling", "config": {"seed": 3014, "distribution": "normal", "scale": 1.0, "mode": "fan_avg"}}, "activity_regularizer": null, "trainable": true, "activation": "relu", "bias_regularizer": null, "bias_initializer": {"class_name": "Zeros", "config": {}}, "use_bias": true, "name": "D1_PWH_1"}, "inbound_nodes": [[["D1_PWH_0", 0, 0, {}]]], "name": "D1_PWH_1"}, {"class_name": "Dense", "config": {"kernel_constraint": null, "bias_constraint": null, "kernel_regularizer": {"class_name": "L1L2", "config": {"l1": 0.0, "l2": 9.999999747378752e-06}}, "units": 1, "kernel_initializer": {"class_name": "VarianceScaling", "config": {"seed": 3014, "distribution": "normal", "scale": 1.0, "mode": "fan_avg"}}, "activity_regularizer": null, "trainable": true, "activation": "linear", "bias_regularizer": null, "bias_initializer": {"class_name": "Zeros", "config": {}}, "use_bias": true, "name": "C1_PWH_out"}, "inbound_nodes": [[["C1_PWH_1", 0, 0, {}]]], "name": "C1_PWH_out"}, {"class_name": "Dense", "config": {"kernel_constraint": null, "bias_constraint": null, "kernel_regularizer": {"class_name": "L1L2", "config": {"l1": 0.0, "l2": 9.999999747378752e-06}}, "units": 1, "kernel_initializer": {"class_name": "VarianceScaling", "config": {"seed": 3014, "distribution": "normal", "scale": 1.0, "mode": "fan_avg"}}, "activity_regularizer": null, "trainable": true, "activation": "linear", "bias_regularizer": null, "bias_initializer": {"class_name": "Zeros", "config": {}}, "use_bias": true, "name": "C2_PWH_out"}, "inbound_nodes": [[["C2_PWH_1", 0, 0, {}]]], "name": "C2_PWH_out"}, {"class_name": "Dense", "config": {"kernel_constraint": null, "bias_constraint": null, "kernel_regularizer": {"class_name": "L1L2", "config": {"l1": 0.0, "l2": 9.999999747378752e-06}}, "units": 1, "kernel_initializer": {"class_name": "VarianceScaling", "config": {"seed": 3014, "distribution": "normal", "scale": 1.0, "mode": "fan_avg"}}, "activity_regularizer": null, "trainable": true, "activation": "linear", "bias_regularizer": null, "bias_initializer": {"class_name": "Zeros", "config": {}}, "use_bias": true, "name": "C3_PWH_out"}, "inbound_nodes": [[["C3_PWH_1", 0, 0, {}]]], "name": "C3_PWH_out"}, {"class_name": "Dense", "config": {"kernel_constraint": null, "bias_constraint": null, "kernel_regularizer": {"class_name": "L1L2", "config": {"l1": 0.0, "l2": 9.999999747378752e-06}}, "units": 1, "kernel_initializer": {"class_name": "VarianceScaling", "config": {"seed": 3014, "distribution": "normal", "scale": 1.0, "mode": "fan_avg"}}, "activity_regularizer": null, "trainable": true, "activation": "linear", "bias_regularizer": null, "bias_initializer": {"class_name": "Zeros", "config": {}}, "use_bias": true, "name": "C4_PWH_out"}, "inbound_nodes": [[["C4_PWH_1", 0, 0, {}]]], "name": "C4_PWH_out"}, {"class_name": "Dense", "config": {"kernel_constraint": null, "bias_constraint": null, "kernel_regularizer": {"class_name": "L1L2", "config": {"l1": 0.0, "l2": 9.999999747378752e-06}}, "units": 1, "kernel_initializer": {"class_name": "VarianceScaling", "config": {"seed": 3014, "distribution": "normal", "scale": 1.0, "mode": "fan_avg"}}, "activity_regularizer": null, "trainable": true, "activation": "linear", "bias_regularizer": null, "bias_initializer": {"class_name": "Zeros", "config": {}}, "use_bias": true, "name": "B3_PWH_out"}, "inbound_nodes": [[["B3_PWH_1", 0, 0, {}]]], "name": "B3_PWH_out"}, {"class_name": "Dense", "config": {"kernel_constraint": null, "bias_constraint": null, "kernel_regularizer": {"class_name": "L1L2", "config": {"l1": 0.0, "l2": 9.999999747378752e-06}}, "units": 1, "kernel_initializer": {"class_name": "VarianceScaling", "config": {"seed": 3014, "distribution": "normal", "scale": 1.0, "mode": "fan_avg"}}, "activity_regularizer": null, "trainable": true, "activation": "linear", "bias_regularizer": null, "bias_initializer": {"class_name": "Zeros", "config": {}}, "use_bias": true, "name": "B1_PWH_out"}, "inbound_nodes": [[["B1_PWH_1", 0, 0, {}]]], "name": "B1_PWH_out"}, {"class_name": "Dense", "config": {"kernel_constraint": null, "bias_constraint": null, "kernel_regularizer": {"class_name": "L1L2", "config": {"l1": 0.0, "l2": 9.999999747378752e-06}}, "units": 1, "kernel_initializer": {"class_name": "VarianceScaling", "config": {"seed": 3014, "distribution": "normal", "scale": 1.0, "mode": "fan_avg"}}, "activity_regularizer": null, "trainable": true, "activation": "linear", "bias_regularizer": null, "bias_initializer": {"class_name": "Zeros", "config": {}}, "use_bias": true, "name": "D1_PWH_out"}, "inbound_nodes": [[["D1_PWH_1", 0, 0, {}]]], "name": "D1_PWH_out"}], "input_layers": [["PRESSURE_INPUT", 0, 0]]}, "backend": "theano"}