{"backend": "theano", "keras_version": "2.0.1", "class_name": "Model", "config": {"output_layers": [["C1_out", 0, 0], ["C2_out", 0, 0], ["C3_out", 0, 0], ["C4_out", 0, 0], ["B1_out", 0, 0], ["B3_out", 0, 0], ["D1_out", 0, 0], ["GJOA_TOTAL", 0, 0]], "input_layers": [["C1", 0, 0], ["C2", 0, 0], ["C3", 0, 0], ["C4", 0, 0], ["B1", 0, 0], ["B3", 0, 0], ["D1", 0, 0], ["OnOff_C1", 0, 0], ["OnOff_C2", 0, 0], ["OnOff_C3", 0, 0], ["OnOff_C4", 0, 0], ["OnOff_B1", 0, 0], ["OnOff_B3", 0, 0], ["OnOff_D1", 0, 0]], "layers": [{"inbound_nodes": [], "class_name": "InputLayer", "config": {"dtype": "float32", "sparse": false, "batch_input_shape": [null, 4], "name": "C1"}, "name": "C1"}, {"inbound_nodes": [], "class_name": "InputLayer", "config": {"dtype": "float32", "sparse": false, "batch_input_shape": [null, 3], "name": "C2"}, "name": "C2"}, {"inbound_nodes": [], "class_name": "InputLayer", "config": {"dtype": "float32", "sparse": false, "batch_input_shape": [null, 4], "name": "C3"}, "name": "C3"}, {"inbound_nodes": [], "class_name": "InputLayer", "config": {"dtype": "float32", "sparse": false, "batch_input_shape": [null, 4], "name": "C4"}, "name": "C4"}, {"inbound_nodes": [], "class_name": "InputLayer", "config": {"dtype": "float32", "sparse": false, "batch_input_shape": [null, 4], "name": "B1"}, "name": "B1"}, {"inbound_nodes": [], "class_name": "InputLayer", "config": {"dtype": "float32", "sparse": false, "batch_input_shape": [null, 4], "name": "B3"}, "name": "B3"}, {"inbound_nodes": [], "class_name": "InputLayer", "config": {"dtype": "float32", "sparse": false, "batch_input_shape": [null, 3], "name": "D1"}, "name": "D1"}, {"inbound_nodes": [[["C1", 0, 0, {}]]], "class_name": "Dense", "config": {"trainable": true, "bias_constraint": null, "kernel_initializer": {"class_name": "VarianceScaling", "config": {"seed": 3014, "scale": 1.0, "distribution": "normal", "mode": "fan_avg"}}, "name": "dense_1", "bias_initializer": {"class_name": "Zeros", "config": {}}, "kernel_constraint": null, "activation": "relu", "kernel_regularizer": {"class_name": "L1L2", "config": {"l1": 0.0, "l2": 9.999999747378752e-05}}, "bias_regularizer": null, "units": 50, "use_bias": true, "activity_regularizer": null}, "name": "dense_1"}, {"inbound_nodes": [[["C2", 0, 0, {}]]], "class_name": "Dense", "config": {"trainable": true, "bias_constraint": null, "kernel_initializer": {"class_name": "VarianceScaling", "config": {"seed": 3014, "scale": 1.0, "distribution": "normal", "mode": "fan_avg"}}, "name": "dense_4", "bias_initializer": {"class_name": "Zeros", "config": {}}, "kernel_constraint": null, "activation": "relu", "kernel_regularizer": {"class_name": "L1L2", "config": {"l1": 0.0, "l2": 9.999999747378752e-05}}, "bias_regularizer": null, "units": 50, "use_bias": true, "activity_regularizer": null}, "name": "dense_4"}, {"inbound_nodes": [[["C3", 0, 0, {}]]], "class_name": "Dense", "config": {"trainable": true, "bias_constraint": null, "kernel_initializer": {"class_name": "VarianceScaling", "config": {"seed": 3014, "scale": 1.0, "distribution": "normal", "mode": "fan_avg"}}, "name": "dense_7", "bias_initializer": {"class_name": "Zeros", "config": {}}, "kernel_constraint": null, "activation": "relu", "kernel_regularizer": {"class_name": "L1L2", "config": {"l1": 0.0, "l2": 9.999999747378752e-05}}, "bias_regularizer": null, "units": 50, "use_bias": true, "activity_regularizer": null}, "name": "dense_7"}, {"inbound_nodes": [[["C4", 0, 0, {}]]], "class_name": "Dense", "config": {"trainable": true, "bias_constraint": null, "kernel_initializer": {"class_name": "VarianceScaling", "config": {"seed": 3014, "scale": 1.0, "distribution": "normal", "mode": "fan_avg"}}, "name": "dense_10", "bias_initializer": {"class_name": "Zeros", "config": {}}, "kernel_constraint": null, "activation": "relu", "kernel_regularizer": {"class_name": "L1L2", "config": {"l1": 0.0, "l2": 9.999999747378752e-05}}, "bias_regularizer": null, "units": 50, "use_bias": true, "activity_regularizer": null}, "name": "dense_10"}, {"inbound_nodes": [[["B1", 0, 0, {}]]], "class_name": "Dense", "config": {"trainable": true, "bias_constraint": null, "kernel_initializer": {"class_name": "VarianceScaling", "config": {"seed": 3014, "scale": 1.0, "distribution": "normal", "mode": "fan_avg"}}, "name": "dense_13", "bias_initializer": {"class_name": "Zeros", "config": {}}, "kernel_constraint": null, "activation": "relu", "kernel_regularizer": {"class_name": "L1L2", "config": {"l1": 0.0, "l2": 9.999999747378752e-05}}, "bias_regularizer": null, "units": 50, "use_bias": true, "activity_regularizer": null}, "name": "dense_13"}, {"inbound_nodes": [[["B3", 0, 0, {}]]], "class_name": "Dense", "config": {"trainable": true, "bias_constraint": null, "kernel_initializer": {"class_name": "VarianceScaling", "config": {"seed": 3014, "scale": 1.0, "distribution": "normal", "mode": "fan_avg"}}, "name": "dense_16", "bias_initializer": {"class_name": "Zeros", "config": {}}, "kernel_constraint": null, "activation": "relu", "kernel_regularizer": {"class_name": "L1L2", "config": {"l1": 0.0, "l2": 9.999999747378752e-05}}, "bias_regularizer": null, "units": 50, "use_bias": true, "activity_regularizer": null}, "name": "dense_16"}, {"inbound_nodes": [[["D1", 0, 0, {}]]], "class_name": "Dense", "config": {"trainable": true, "bias_constraint": null, "kernel_initializer": {"class_name": "VarianceScaling", "config": {"seed": 3014, "scale": 1.0, "distribution": "normal", "mode": "fan_avg"}}, "name": "dense_19", "bias_initializer": {"class_name": "Zeros", "config": {}}, "kernel_constraint": null, "activation": "relu", "kernel_regularizer": {"class_name": "L1L2", "config": {"l1": 0.0, "l2": 9.999999747378752e-05}}, "bias_regularizer": null, "units": 50, "use_bias": true, "activity_regularizer": null}, "name": "dense_19"}, {"inbound_nodes": [[["dense_1", 0, 0, {}]]], "class_name": "Dense", "config": {"trainable": true, "bias_constraint": null, "kernel_initializer": {"class_name": "VarianceScaling", "config": {"seed": 3014, "scale": 1.0, "distribution": "normal", "mode": "fan_avg"}}, "name": "dense_2", "bias_initializer": {"class_name": "Zeros", "config": {}}, "kernel_constraint": null, "activation": "relu", "kernel_regularizer": {"class_name": "L1L2", "config": {"l1": 0.0, "l2": 9.999999747378752e-05}}, "bias_regularizer": null, "units": 50, "use_bias": true, "activity_regularizer": null}, "name": "dense_2"}, {"inbound_nodes": [[["dense_4", 0, 0, {}]]], "class_name": "Dense", "config": {"trainable": true, "bias_constraint": null, "kernel_initializer": {"class_name": "VarianceScaling", "config": {"seed": 3014, "scale": 1.0, "distribution": "normal", "mode": "fan_avg"}}, "name": "dense_5", "bias_initializer": {"class_name": "Zeros", "config": {}}, "kernel_constraint": null, "activation": "relu", "kernel_regularizer": {"class_name": "L1L2", "config": {"l1": 0.0, "l2": 9.999999747378752e-05}}, "bias_regularizer": null, "units": 50, "use_bias": true, "activity_regularizer": null}, "name": "dense_5"}, {"inbound_nodes": [[["dense_7", 0, 0, {}]]], "class_name": "Dense", "config": {"trainable": true, "bias_constraint": null, "kernel_initializer": {"class_name": "VarianceScaling", "config": {"seed": 3014, "scale": 1.0, "distribution": "normal", "mode": "fan_avg"}}, "name": "dense_8", "bias_initializer": {"class_name": "Zeros", "config": {}}, "kernel_constraint": null, "activation": "relu", "kernel_regularizer": {"class_name": "L1L2", "config": {"l1": 0.0, "l2": 9.999999747378752e-05}}, "bias_regularizer": null, "units": 50, "use_bias": true, "activity_regularizer": null}, "name": "dense_8"}, {"inbound_nodes": [[["dense_10", 0, 0, {}]]], "class_name": "Dense", "config": {"trainable": true, "bias_constraint": null, "kernel_initializer": {"class_name": "VarianceScaling", "config": {"seed": 3014, "scale": 1.0, "distribution": "normal", "mode": "fan_avg"}}, "name": "dense_11", "bias_initializer": {"class_name": "Zeros", "config": {}}, "kernel_constraint": null, "activation": "relu", "kernel_regularizer": {"class_name": "L1L2", "config": {"l1": 0.0, "l2": 9.999999747378752e-05}}, "bias_regularizer": null, "units": 50, "use_bias": true, "activity_regularizer": null}, "name": "dense_11"}, {"inbound_nodes": [[["dense_13", 0, 0, {}]]], "class_name": "Dense", "config": {"trainable": true, "bias_constraint": null, "kernel_initializer": {"class_name": "VarianceScaling", "config": {"seed": 3014, "scale": 1.0, "distribution": "normal", "mode": "fan_avg"}}, "name": "dense_14", "bias_initializer": {"class_name": "Zeros", "config": {}}, "kernel_constraint": null, "activation": "relu", "kernel_regularizer": {"class_name": "L1L2", "config": {"l1": 0.0, "l2": 9.999999747378752e-05}}, "bias_regularizer": null, "units": 50, "use_bias": true, "activity_regularizer": null}, "name": "dense_14"}, {"inbound_nodes": [[["dense_16", 0, 0, {}]]], "class_name": "Dense", "config": {"trainable": true, "bias_constraint": null, "kernel_initializer": {"class_name": "VarianceScaling", "config": {"seed": 3014, "scale": 1.0, "distribution": "normal", "mode": "fan_avg"}}, "name": "dense_17", "bias_initializer": {"class_name": "Zeros", "config": {}}, "kernel_constraint": null, "activation": "relu", "kernel_regularizer": {"class_name": "L1L2", "config": {"l1": 0.0, "l2": 9.999999747378752e-05}}, "bias_regularizer": null, "units": 50, "use_bias": true, "activity_regularizer": null}, "name": "dense_17"}, {"inbound_nodes": [[["dense_19", 0, 0, {}]]], "class_name": "Dense", "config": {"trainable": true, "bias_constraint": null, "kernel_initializer": {"class_name": "VarianceScaling", "config": {"seed": 3014, "scale": 1.0, "distribution": "normal", "mode": "fan_avg"}}, "name": "dense_20", "bias_initializer": {"class_name": "Zeros", "config": {}}, "kernel_constraint": null, "activation": "relu", "kernel_regularizer": {"class_name": "L1L2", "config": {"l1": 0.0, "l2": 9.999999747378752e-05}}, "bias_regularizer": null, "units": 50, "use_bias": true, "activity_regularizer": null}, "name": "dense_20"}, {"inbound_nodes": [], "class_name": "InputLayer", "config": {"dtype": "float32", "sparse": false, "batch_input_shape": [null, 1], "name": "OnOff_C1"}, "name": "OnOff_C1"}, {"inbound_nodes": [[["dense_2", 0, 0, {}]]], "class_name": "Dense", "config": {"trainable": true, "bias_constraint": null, "kernel_initializer": {"class_name": "VarianceScaling", "config": {"seed": 3014, "scale": 1.0, "distribution": "normal", "mode": "fan_avg"}}, "name": "dense_3", "bias_initializer": {"class_name": "Zeros", "config": {}}, "kernel_constraint": null, "activation": "relu", "kernel_regularizer": {"class_name": "L1L2", "config": {"l1": 0.0, "l2": 9.999999747378752e-05}}, "bias_regularizer": null, "units": 1, "use_bias": true, "activity_regularizer": null}, "name": "dense_3"}, {"inbound_nodes": [], "class_name": "InputLayer", "config": {"dtype": "float32", "sparse": false, "batch_input_shape": [null, 1], "name": "OnOff_C2"}, "name": "OnOff_C2"}, {"inbound_nodes": [[["dense_5", 0, 0, {}]]], "class_name": "Dense", "config": {"trainable": true, "bias_constraint": null, "kernel_initializer": {"class_name": "VarianceScaling", "config": {"seed": 3014, "scale": 1.0, "distribution": "normal", "mode": "fan_avg"}}, "name": "dense_6", "bias_initializer": {"class_name": "Zeros", "config": {}}, "kernel_constraint": null, "activation": "relu", "kernel_regularizer": {"class_name": "L1L2", "config": {"l1": 0.0, "l2": 9.999999747378752e-05}}, "bias_regularizer": null, "units": 1, "use_bias": true, "activity_regularizer": null}, "name": "dense_6"}, {"inbound_nodes": [], "class_name": "InputLayer", "config": {"dtype": "float32", "sparse": false, "batch_input_shape": [null, 1], "name": "OnOff_C3"}, "name": "OnOff_C3"}, {"inbound_nodes": [[["dense_8", 0, 0, {}]]], "class_name": "Dense", "config": {"trainable": true, "bias_constraint": null, "kernel_initializer": {"class_name": "VarianceScaling", "config": {"seed": 3014, "scale": 1.0, "distribution": "normal", "mode": "fan_avg"}}, "name": "dense_9", "bias_initializer": {"class_name": "Zeros", "config": {}}, "kernel_constraint": null, "activation": "relu", "kernel_regularizer": {"class_name": "L1L2", "config": {"l1": 0.0, "l2": 9.999999747378752e-05}}, "bias_regularizer": null, "units": 1, "use_bias": true, "activity_regularizer": null}, "name": "dense_9"}, {"inbound_nodes": [], "class_name": "InputLayer", "config": {"dtype": "float32", "sparse": false, "batch_input_shape": [null, 1], "name": "OnOff_C4"}, "name": "OnOff_C4"}, {"inbound_nodes": [[["dense_11", 0, 0, {}]]], "class_name": "Dense", "config": {"trainable": true, "bias_constraint": null, "kernel_initializer": {"class_name": "VarianceScaling", "config": {"seed": 3014, "scale": 1.0, "distribution": "normal", "mode": "fan_avg"}}, "name": "dense_12", "bias_initializer": {"class_name": "Zeros", "config": {}}, "kernel_constraint": null, "activation": "relu", "kernel_regularizer": {"class_name": "L1L2", "config": {"l1": 0.0, "l2": 9.999999747378752e-05}}, "bias_regularizer": null, "units": 1, "use_bias": true, "activity_regularizer": null}, "name": "dense_12"}, {"inbound_nodes": [], "class_name": "InputLayer", "config": {"dtype": "float32", "sparse": false, "batch_input_shape": [null, 1], "name": "OnOff_B1"}, "name": "OnOff_B1"}, {"inbound_nodes": [[["dense_14", 0, 0, {}]]], "class_name": "Dense", "config": {"trainable": true, "bias_constraint": null, "kernel_initializer": {"class_name": "VarianceScaling", "config": {"seed": 3014, "scale": 1.0, "distribution": "normal", "mode": "fan_avg"}}, "name": "dense_15", "bias_initializer": {"class_name": "Zeros", "config": {}}, "kernel_constraint": null, "activation": "relu", "kernel_regularizer": {"class_name": "L1L2", "config": {"l1": 0.0, "l2": 9.999999747378752e-05}}, "bias_regularizer": null, "units": 1, "use_bias": true, "activity_regularizer": null}, "name": "dense_15"}, {"inbound_nodes": [], "class_name": "InputLayer", "config": {"dtype": "float32", "sparse": false, "batch_input_shape": [null, 1], "name": "OnOff_B3"}, "name": "OnOff_B3"}, {"inbound_nodes": [[["dense_17", 0, 0, {}]]], "class_name": "Dense", "config": {"trainable": true, "bias_constraint": null, "kernel_initializer": {"class_name": "VarianceScaling", "config": {"seed": 3014, "scale": 1.0, "distribution": "normal", "mode": "fan_avg"}}, "name": "dense_18", "bias_initializer": {"class_name": "Zeros", "config": {}}, "kernel_constraint": null, "activation": "relu", "kernel_regularizer": {"class_name": "L1L2", "config": {"l1": 0.0, "l2": 9.999999747378752e-05}}, "bias_regularizer": null, "units": 1, "use_bias": true, "activity_regularizer": null}, "name": "dense_18"}, {"inbound_nodes": [], "class_name": "InputLayer", "config": {"dtype": "float32", "sparse": false, "batch_input_shape": [null, 1], "name": "OnOff_D1"}, "name": "OnOff_D1"}, {"inbound_nodes": [[["dense_20", 0, 0, {}]]], "class_name": "Dense", "config": {"trainable": true, "bias_constraint": null, "kernel_initializer": {"class_name": "VarianceScaling", "config": {"seed": 3014, "scale": 1.0, "distribution": "normal", "mode": "fan_avg"}}, "name": "dense_21", "bias_initializer": {"class_name": "Zeros", "config": {}}, "kernel_constraint": null, "activation": "relu", "kernel_regularizer": {"class_name": "L1L2", "config": {"l1": 0.0, "l2": 9.999999747378752e-05}}, "bias_regularizer": null, "units": 1, "use_bias": true, "activity_regularizer": null}, "name": "dense_21"}, {"inbound_nodes": [[["OnOff_C1", 0, 0, {}], ["dense_3", 0, 0, {}]]], "class_name": "Multiply", "config": {"trainable": true, "name": "C1_out"}, "name": "C1_out"}, {"inbound_nodes": [[["OnOff_C2", 0, 0, {}], ["dense_6", 0, 0, {}]]], "class_name": "Multiply", "config": {"trainable": true, "name": "C2_out"}, "name": "C2_out"}, {"inbound_nodes": [[["OnOff_C3", 0, 0, {}], ["dense_9", 0, 0, {}]]], "class_name": "Multiply", "config": {"trainable": true, "name": "C3_out"}, "name": "C3_out"}, {"inbound_nodes": [[["OnOff_C4", 0, 0, {}], ["dense_12", 0, 0, {}]]], "class_name": "Multiply", "config": {"trainable": true, "name": "C4_out"}, "name": "C4_out"}, {"inbound_nodes": [[["OnOff_B1", 0, 0, {}], ["dense_15", 0, 0, {}]]], "class_name": "Multiply", "config": {"trainable": true, "name": "B1_out"}, "name": "B1_out"}, {"inbound_nodes": [[["OnOff_B3", 0, 0, {}], ["dense_18", 0, 0, {}]]], "class_name": "Multiply", "config": {"trainable": true, "name": "B3_out"}, "name": "B3_out"}, {"inbound_nodes": [[["OnOff_D1", 0, 0, {}], ["dense_21", 0, 0, {}]]], "class_name": "Multiply", "config": {"trainable": true, "name": "D1_out"}, "name": "D1_out"}, {"inbound_nodes": [[["C1_out", 0, 0, {}], ["C2_out", 0, 0, {}], ["C3_out", 0, 0, {}], ["C4_out", 0, 0, {}], ["B1_out", 0, 0, {}], ["B3_out", 0, 0, {}], ["D1_out", 0, 0, {}]]], "class_name": "Add", "config": {"trainable": true, "name": "GJOA_TOTAL"}, "name": "GJOA_TOTAL"}], "name": "model_1"}}