{"config": {"input_layers": [["F1", 0, 0], ["B2", 0, 0], ["D3", 0, 0], ["E1", 0, 0], ["OnOff_F1", 0, 0], ["OnOff_B2", 0, 0], ["OnOff_D3", 0, 0], ["OnOff_E1", 0, 0]], "layers": [{"config": {"dtype": "float32", "name": "F1", "sparse": false, "batch_input_shape": [null, 4]}, "class_name": "InputLayer", "name": "F1", "inbound_nodes": []}, {"config": {"dtype": "float32", "name": "B2", "sparse": false, "batch_input_shape": [null, 4]}, "class_name": "InputLayer", "name": "B2", "inbound_nodes": []}, {"config": {"dtype": "float32", "name": "D3", "sparse": false, "batch_input_shape": [null, 4]}, "class_name": "InputLayer", "name": "D3", "inbound_nodes": []}, {"config": {"dtype": "float32", "name": "E1", "sparse": false, "batch_input_shape": [null, 4]}, "class_name": "InputLayer", "name": "E1", "inbound_nodes": []}, {"config": {"kernel_initializer": {"config": {"distribution": "normal", "seed": 9035, "scale": 1.0, "mode": "fan_avg"}, "class_name": "VarianceScaling"}, "units": 20, "kernel_regularizer": {"config": {"l2": 4.999999873689376e-06, "l1": 0.0}, "class_name": "L1L2"}, "trainable": true, "activation": "relu", "bias_initializer": {"config": {}, "class_name": "Zeros"}, "activity_regularizer": null, "kernel_constraint": null, "bias_regularizer": null, "bias_constraint": null, "name": "dense_1", "use_bias": true}, "class_name": "Dense", "name": "dense_1", "inbound_nodes": [[["F1", 0, 0, {}]]]}, {"config": {"kernel_initializer": {"config": {"distribution": "normal", "seed": 9035, "scale": 1.0, "mode": "fan_avg"}, "class_name": "VarianceScaling"}, "units": 20, "kernel_regularizer": {"config": {"l2": 4.999999873689376e-06, "l1": 0.0}, "class_name": "L1L2"}, "trainable": true, "activation": "relu", "bias_initializer": {"config": {}, "class_name": "Zeros"}, "activity_regularizer": null, "kernel_constraint": null, "bias_regularizer": null, "bias_constraint": null, "name": "dense_4", "use_bias": true}, "class_name": "Dense", "name": "dense_4", "inbound_nodes": [[["B2", 0, 0, {}]]]}, {"config": {"kernel_initializer": {"config": {"distribution": "normal", "seed": 9035, "scale": 1.0, "mode": "fan_avg"}, "class_name": "VarianceScaling"}, "units": 20, "kernel_regularizer": {"config": {"l2": 4.999999873689376e-06, "l1": 0.0}, "class_name": "L1L2"}, "trainable": true, "activation": "relu", "bias_initializer": {"config": {}, "class_name": "Zeros"}, "activity_regularizer": null, "kernel_constraint": null, "bias_regularizer": null, "bias_constraint": null, "name": "dense_7", "use_bias": true}, "class_name": "Dense", "name": "dense_7", "inbound_nodes": [[["D3", 0, 0, {}]]]}, {"config": {"kernel_initializer": {"config": {"distribution": "normal", "seed": 9035, "scale": 1.0, "mode": "fan_avg"}, "class_name": "VarianceScaling"}, "units": 20, "kernel_regularizer": {"config": {"l2": 4.999999873689376e-06, "l1": 0.0}, "class_name": "L1L2"}, "trainable": true, "activation": "relu", "bias_initializer": {"config": {}, "class_name": "Zeros"}, "activity_regularizer": null, "kernel_constraint": null, "bias_regularizer": null, "bias_constraint": null, "name": "dense_10", "use_bias": true}, "class_name": "Dense", "name": "dense_10", "inbound_nodes": [[["E1", 0, 0, {}]]]}, {"config": {"trainable": true, "name": "dropout_1", "rate": 0.1}, "class_name": "Dropout", "name": "dropout_1", "inbound_nodes": [[["dense_1", 0, 0, {}]]]}, {"config": {"trainable": true, "name": "dropout_2", "rate": 0.1}, "class_name": "Dropout", "name": "dropout_2", "inbound_nodes": [[["dense_4", 0, 0, {}]]]}, {"config": {"trainable": true, "name": "dropout_3", "rate": 0.1}, "class_name": "Dropout", "name": "dropout_3", "inbound_nodes": [[["dense_7", 0, 0, {}]]]}, {"config": {"trainable": true, "name": "dropout_4", "rate": 0.1}, "class_name": "Dropout", "name": "dropout_4", "inbound_nodes": [[["dense_10", 0, 0, {}]]]}, {"config": {"kernel_initializer": {"config": {"distribution": "normal", "seed": 9035, "scale": 1.0, "mode": "fan_avg"}, "class_name": "VarianceScaling"}, "units": 20, "kernel_regularizer": {"config": {"l2": 4.999999873689376e-06, "l1": 0.0}, "class_name": "L1L2"}, "trainable": true, "activation": "relu", "bias_initializer": {"config": {}, "class_name": "Zeros"}, "activity_regularizer": null, "kernel_constraint": null, "bias_regularizer": null, "bias_constraint": null, "name": "dense_2", "use_bias": true}, "class_name": "Dense", "name": "dense_2", "inbound_nodes": [[["dropout_1", 0, 0, {}]]]}, {"config": {"kernel_initializer": {"config": {"distribution": "normal", "seed": 9035, "scale": 1.0, "mode": "fan_avg"}, "class_name": "VarianceScaling"}, "units": 20, "kernel_regularizer": {"config": {"l2": 4.999999873689376e-06, "l1": 0.0}, "class_name": "L1L2"}, "trainable": true, "activation": "relu", "bias_initializer": {"config": {}, "class_name": "Zeros"}, "activity_regularizer": null, "kernel_constraint": null, "bias_regularizer": null, "bias_constraint": null, "name": "dense_5", "use_bias": true}, "class_name": "Dense", "name": "dense_5", "inbound_nodes": [[["dropout_2", 0, 0, {}]]]}, {"config": {"kernel_initializer": {"config": {"distribution": "normal", "seed": 9035, "scale": 1.0, "mode": "fan_avg"}, "class_name": "VarianceScaling"}, "units": 20, "kernel_regularizer": {"config": {"l2": 4.999999873689376e-06, "l1": 0.0}, "class_name": "L1L2"}, "trainable": true, "activation": "relu", "bias_initializer": {"config": {}, "class_name": "Zeros"}, "activity_regularizer": null, "kernel_constraint": null, "bias_regularizer": null, "bias_constraint": null, "name": "dense_8", "use_bias": true}, "class_name": "Dense", "name": "dense_8", "inbound_nodes": [[["dropout_3", 0, 0, {}]]]}, {"config": {"kernel_initializer": {"config": {"distribution": "normal", "seed": 9035, "scale": 1.0, "mode": "fan_avg"}, "class_name": "VarianceScaling"}, "units": 20, "kernel_regularizer": {"config": {"l2": 4.999999873689376e-06, "l1": 0.0}, "class_name": "L1L2"}, "trainable": true, "activation": "relu", "bias_initializer": {"config": {}, "class_name": "Zeros"}, "activity_regularizer": null, "kernel_constraint": null, "bias_regularizer": null, "bias_constraint": null, "name": "dense_11", "use_bias": true}, "class_name": "Dense", "name": "dense_11", "inbound_nodes": [[["dropout_4", 0, 0, {}]]]}, {"config": {"dtype": "float32", "name": "OnOff_F1", "sparse": false, "batch_input_shape": [null, 1]}, "class_name": "InputLayer", "name": "OnOff_F1", "inbound_nodes": []}, {"config": {"kernel_initializer": {"config": {"distribution": "normal", "seed": 9035, "scale": 1.0, "mode": "fan_avg"}, "class_name": "VarianceScaling"}, "units": 1, "kernel_regularizer": {"config": {"l2": 4.999999873689376e-06, "l1": 0.0}, "class_name": "L1L2"}, "trainable": true, "activation": "relu", "bias_initializer": {"config": {}, "class_name": "Zeros"}, "activity_regularizer": null, "kernel_constraint": null, "bias_regularizer": null, "bias_constraint": null, "name": "dense_3", "use_bias": true}, "class_name": "Dense", "name": "dense_3", "inbound_nodes": [[["dense_2", 0, 0, {}]]]}, {"config": {"dtype": "float32", "name": "OnOff_B2", "sparse": false, "batch_input_shape": [null, 1]}, "class_name": "InputLayer", "name": "OnOff_B2", "inbound_nodes": []}, {"config": {"kernel_initializer": {"config": {"distribution": "normal", "seed": 9035, "scale": 1.0, "mode": "fan_avg"}, "class_name": "VarianceScaling"}, "units": 1, "kernel_regularizer": {"config": {"l2": 4.999999873689376e-06, "l1": 0.0}, "class_name": "L1L2"}, "trainable": true, "activation": "relu", "bias_initializer": {"config": {}, "class_name": "Zeros"}, "activity_regularizer": null, "kernel_constraint": null, "bias_regularizer": null, "bias_constraint": null, "name": "dense_6", "use_bias": true}, "class_name": "Dense", "name": "dense_6", "inbound_nodes": [[["dense_5", 0, 0, {}]]]}, {"config": {"dtype": "float32", "name": "OnOff_D3", "sparse": false, "batch_input_shape": [null, 1]}, "class_name": "InputLayer", "name": "OnOff_D3", "inbound_nodes": []}, {"config": {"kernel_initializer": {"config": {"distribution": "normal", "seed": 9035, "scale": 1.0, "mode": "fan_avg"}, "class_name": "VarianceScaling"}, "units": 1, "kernel_regularizer": {"config": {"l2": 4.999999873689376e-06, "l1": 0.0}, "class_name": "L1L2"}, "trainable": true, "activation": "relu", "bias_initializer": {"config": {}, "class_name": "Zeros"}, "activity_regularizer": null, "kernel_constraint": null, "bias_regularizer": null, "bias_constraint": null, "name": "dense_9", "use_bias": true}, "class_name": "Dense", "name": "dense_9", "inbound_nodes": [[["dense_8", 0, 0, {}]]]}, {"config": {"dtype": "float32", "name": "OnOff_E1", "sparse": false, "batch_input_shape": [null, 1]}, "class_name": "InputLayer", "name": "OnOff_E1", "inbound_nodes": []}, {"config": {"kernel_initializer": {"config": {"distribution": "normal", "seed": 9035, "scale": 1.0, "mode": "fan_avg"}, "class_name": "VarianceScaling"}, "units": 1, "kernel_regularizer": {"config": {"l2": 4.999999873689376e-06, "l1": 0.0}, "class_name": "L1L2"}, "trainable": true, "activation": "relu", "bias_initializer": {"config": {}, "class_name": "Zeros"}, "activity_regularizer": null, "kernel_constraint": null, "bias_regularizer": null, "bias_constraint": null, "name": "dense_12", "use_bias": true}, "class_name": "Dense", "name": "dense_12", "inbound_nodes": [[["dense_11", 0, 0, {}]]]}, {"config": {"name": "F1_out", "trainable": true}, "class_name": "Multiply", "name": "F1_out", "inbound_nodes": [[["OnOff_F1", 0, 0, {}], ["dense_3", 0, 0, {}]]]}, {"config": {"name": "B2_out", "trainable": true}, "class_name": "Multiply", "name": "B2_out", "inbound_nodes": [[["OnOff_B2", 0, 0, {}], ["dense_6", 0, 0, {}]]]}, {"config": {"name": "D3_out", "trainable": true}, "class_name": "Multiply", "name": "D3_out", "inbound_nodes": [[["OnOff_D3", 0, 0, {}], ["dense_9", 0, 0, {}]]]}, {"config": {"name": "E1_out", "trainable": true}, "class_name": "Multiply", "name": "E1_out", "inbound_nodes": [[["OnOff_E1", 0, 0, {}], ["dense_12", 0, 0, {}]]]}, {"config": {"name": "GJOA_QGAS", "trainable": true}, "class_name": "Add", "name": "GJOA_QGAS", "inbound_nodes": [[["F1_out", 0, 0, {}], ["B2_out", 0, 0, {}], ["D3_out", 0, 0, {}], ["E1_out", 0, 0, {}]]]}], "name": "model_1", "output_layers": [["F1_out", 0, 0], ["B2_out", 0, 0], ["D3_out", 0, 0], ["E1_out", 0, 0], ["GJOA_QGAS", 0, 0]]}, "class_name": "Model", "keras_version": "2.0.1", "backend": "theano"}