{"backend": "theano", "class_name": "Model", "keras_version": "2.0.1", "config": {"input_layers": [["CHK_INPUT_NOW", 0, 0]], "output_layers": [["C1_PWH_out", 0, 0], ["C2_PWH_out", 0, 0], ["C3_PWH_out", 0, 0], ["C4_PWH_out", 0, 0], ["B1_PWH_out", 0, 0], ["B3_PWH_out", 0, 0], ["D1_PWH_out", 0, 0]], "name": "model_1", "layers": [{"class_name": "InputLayer", "name": "CHK_INPUT_NOW", "inbound_nodes": [], "config": {"dtype": "float32", "sparse": false, "name": "CHK_INPUT_NOW", "batch_input_shape": [null, 8]}}, {"class_name": "Dense", "name": "C1_PWH_0", "inbound_nodes": [[["CHK_INPUT_NOW", 0, 0, {}]]], "config": {"kernel_regularizer": {"class_name": "L1L2", "config": {"l1": 0.0, "l2": 0.0005000000237487257}}, "trainable": true, "activation": "relu", "bias_constraint": null, "use_bias": true, "kernel_constraint": null, "bias_initializer": {"class_name": "Zeros", "config": {}}, "name": "C1_PWH_0", "bias_regularizer": null, "units": 30, "activity_regularizer": null, "kernel_initializer": {"class_name": "VarianceScaling", "config": {"distribution": "normal", "mode": "fan_avg", "seed": 3014, "scale": 1.0}}}}, {"class_name": "Dense", "name": "C2_PWH_0", "inbound_nodes": [[["CHK_INPUT_NOW", 0, 0, {}]]], "config": {"kernel_regularizer": {"class_name": "L1L2", "config": {"l1": 0.0, "l2": 0.0005000000237487257}}, "trainable": true, "activation": "relu", "bias_constraint": null, "use_bias": true, "kernel_constraint": null, "bias_initializer": {"class_name": "Zeros", "config": {}}, "name": "C2_PWH_0", "bias_regularizer": null, "units": 30, "activity_regularizer": null, "kernel_initializer": {"class_name": "VarianceScaling", "config": {"distribution": "normal", "mode": "fan_avg", "seed": 3014, "scale": 1.0}}}}, {"class_name": "Dense", "name": "C3_PWH_0", "inbound_nodes": [[["CHK_INPUT_NOW", 0, 0, {}]]], "config": {"kernel_regularizer": {"class_name": "L1L2", "config": {"l1": 0.0, "l2": 0.0005000000237487257}}, "trainable": true, "activation": "relu", "bias_constraint": null, "use_bias": true, "kernel_constraint": null, "bias_initializer": {"class_name": "Zeros", "config": {}}, "name": "C3_PWH_0", "bias_regularizer": null, "units": 30, "activity_regularizer": null, "kernel_initializer": {"class_name": "VarianceScaling", "config": {"distribution": "normal", "mode": "fan_avg", "seed": 3014, "scale": 1.0}}}}, {"class_name": "Dense", "name": "C4_PWH_0", "inbound_nodes": [[["CHK_INPUT_NOW", 0, 0, {}]]], "config": {"kernel_regularizer": {"class_name": "L1L2", "config": {"l1": 0.0, "l2": 0.0005000000237487257}}, "trainable": true, "activation": "relu", "bias_constraint": null, "use_bias": true, "kernel_constraint": null, "bias_initializer": {"class_name": "Zeros", "config": {}}, "name": "C4_PWH_0", "bias_regularizer": null, "units": 30, "activity_regularizer": null, "kernel_initializer": {"class_name": "VarianceScaling", "config": {"distribution": "normal", "mode": "fan_avg", "seed": 3014, "scale": 1.0}}}}, {"class_name": "Dense", "name": "B1_PWH_0", "inbound_nodes": [[["CHK_INPUT_NOW", 0, 0, {}]]], "config": {"kernel_regularizer": {"class_name": "L1L2", "config": {"l1": 0.0, "l2": 0.0005000000237487257}}, "trainable": true, "activation": "relu", "bias_constraint": null, "use_bias": true, "kernel_constraint": null, "bias_initializer": {"class_name": "Zeros", "config": {}}, "name": "B1_PWH_0", "bias_regularizer": null, "units": 30, "activity_regularizer": null, "kernel_initializer": {"class_name": "VarianceScaling", "config": {"distribution": "normal", "mode": "fan_avg", "seed": 3014, "scale": 1.0}}}}, {"class_name": "Dense", "name": "B3_PWH_0", "inbound_nodes": [[["CHK_INPUT_NOW", 0, 0, {}]]], "config": {"kernel_regularizer": {"class_name": "L1L2", "config": {"l1": 0.0, "l2": 0.0005000000237487257}}, "trainable": true, "activation": "relu", "bias_constraint": null, "use_bias": true, "kernel_constraint": null, "bias_initializer": {"class_name": "Zeros", "config": {}}, "name": "B3_PWH_0", "bias_regularizer": null, "units": 30, "activity_regularizer": null, "kernel_initializer": {"class_name": "VarianceScaling", "config": {"distribution": "normal", "mode": "fan_avg", "seed": 3014, "scale": 1.0}}}}, {"class_name": "Dense", "name": "D1_PWH_0", "inbound_nodes": [[["CHK_INPUT_NOW", 0, 0, {}]]], "config": {"kernel_regularizer": {"class_name": "L1L2", "config": {"l1": 0.0, "l2": 0.0005000000237487257}}, "trainable": true, "activation": "relu", "bias_constraint": null, "use_bias": true, "kernel_constraint": null, "bias_initializer": {"class_name": "Zeros", "config": {}}, "name": "D1_PWH_0", "bias_regularizer": null, "units": 30, "activity_regularizer": null, "kernel_initializer": {"class_name": "VarianceScaling", "config": {"distribution": "normal", "mode": "fan_avg", "seed": 3014, "scale": 1.0}}}}, {"class_name": "Dense", "name": "C1_PWH_1", "inbound_nodes": [[["C1_PWH_0", 0, 0, {}]]], "config": {"kernel_regularizer": {"class_name": "L1L2", "config": {"l1": 0.0, "l2": 0.0005000000237487257}}, "trainable": true, "activation": "relu", "bias_constraint": null, "use_bias": true, "kernel_constraint": null, "bias_initializer": {"class_name": "Zeros", "config": {}}, "name": "C1_PWH_1", "bias_regularizer": null, "units": 30, "activity_regularizer": null, "kernel_initializer": {"class_name": "VarianceScaling", "config": {"distribution": "normal", "mode": "fan_avg", "seed": 3014, "scale": 1.0}}}}, {"class_name": "Dense", "name": "C2_PWH_1", "inbound_nodes": [[["C2_PWH_0", 0, 0, {}]]], "config": {"kernel_regularizer": {"class_name": "L1L2", "config": {"l1": 0.0, "l2": 0.0005000000237487257}}, "trainable": true, "activation": "relu", "bias_constraint": null, "use_bias": true, "kernel_constraint": null, "bias_initializer": {"class_name": "Zeros", "config": {}}, "name": "C2_PWH_1", "bias_regularizer": null, "units": 30, "activity_regularizer": null, "kernel_initializer": {"class_name": "VarianceScaling", "config": {"distribution": "normal", "mode": "fan_avg", "seed": 3014, "scale": 1.0}}}}, {"class_name": "Dense", "name": "C3_PWH_1", "inbound_nodes": [[["C3_PWH_0", 0, 0, {}]]], "config": {"kernel_regularizer": {"class_name": "L1L2", "config": {"l1": 0.0, "l2": 0.0005000000237487257}}, "trainable": true, "activation": "relu", "bias_constraint": null, "use_bias": true, "kernel_constraint": null, "bias_initializer": {"class_name": "Zeros", "config": {}}, "name": "C3_PWH_1", "bias_regularizer": null, "units": 30, "activity_regularizer": null, "kernel_initializer": {"class_name": "VarianceScaling", "config": {"distribution": "normal", "mode": "fan_avg", "seed": 3014, "scale": 1.0}}}}, {"class_name": "Dense", "name": "C4_PWH_1", "inbound_nodes": [[["C4_PWH_0", 0, 0, {}]]], "config": {"kernel_regularizer": {"class_name": "L1L2", "config": {"l1": 0.0, "l2": 0.0005000000237487257}}, "trainable": true, "activation": "relu", "bias_constraint": null, "use_bias": true, "kernel_constraint": null, "bias_initializer": {"class_name": "Zeros", "config": {}}, "name": "C4_PWH_1", "bias_regularizer": null, "units": 30, "activity_regularizer": null, "kernel_initializer": {"class_name": "VarianceScaling", "config": {"distribution": "normal", "mode": "fan_avg", "seed": 3014, "scale": 1.0}}}}, {"class_name": "Dense", "name": "B1_PWH_1", "inbound_nodes": [[["B1_PWH_0", 0, 0, {}]]], "config": {"kernel_regularizer": {"class_name": "L1L2", "config": {"l1": 0.0, "l2": 0.0005000000237487257}}, "trainable": true, "activation": "relu", "bias_constraint": null, "use_bias": true, "kernel_constraint": null, "bias_initializer": {"class_name": "Zeros", "config": {}}, "name": "B1_PWH_1", "bias_regularizer": null, "units": 30, "activity_regularizer": null, "kernel_initializer": {"class_name": "VarianceScaling", "config": {"distribution": "normal", "mode": "fan_avg", "seed": 3014, "scale": 1.0}}}}, {"class_name": "Dense", "name": "B3_PWH_1", "inbound_nodes": [[["B3_PWH_0", 0, 0, {}]]], "config": {"kernel_regularizer": {"class_name": "L1L2", "config": {"l1": 0.0, "l2": 0.0005000000237487257}}, "trainable": true, "activation": "relu", "bias_constraint": null, "use_bias": true, "kernel_constraint": null, "bias_initializer": {"class_name": "Zeros", "config": {}}, "name": "B3_PWH_1", "bias_regularizer": null, "units": 30, "activity_regularizer": null, "kernel_initializer": {"class_name": "VarianceScaling", "config": {"distribution": "normal", "mode": "fan_avg", "seed": 3014, "scale": 1.0}}}}, {"class_name": "Dense", "name": "D1_PWH_1", "inbound_nodes": [[["D1_PWH_0", 0, 0, {}]]], "config": {"kernel_regularizer": {"class_name": "L1L2", "config": {"l1": 0.0, "l2": 0.0005000000237487257}}, "trainable": true, "activation": "relu", "bias_constraint": null, "use_bias": true, "kernel_constraint": null, "bias_initializer": {"class_name": "Zeros", "config": {}}, "name": "D1_PWH_1", "bias_regularizer": null, "units": 30, "activity_regularizer": null, "kernel_initializer": {"class_name": "VarianceScaling", "config": {"distribution": "normal", "mode": "fan_avg", "seed": 3014, "scale": 1.0}}}}, {"class_name": "Dense", "name": "C1_PWH_out", "inbound_nodes": [[["C1_PWH_1", 0, 0, {}]]], "config": {"kernel_regularizer": {"class_name": "L1L2", "config": {"l1": 0.0, "l2": 0.0005000000237487257}}, "trainable": true, "activation": "linear", "bias_constraint": null, "use_bias": true, "kernel_constraint": null, "bias_initializer": {"class_name": "Zeros", "config": {}}, "name": "C1_PWH_out", "bias_regularizer": null, "units": 1, "activity_regularizer": null, "kernel_initializer": {"class_name": "VarianceScaling", "config": {"distribution": "normal", "mode": "fan_avg", "seed": 3014, "scale": 1.0}}}}, {"class_name": "Dense", "name": "C2_PWH_out", "inbound_nodes": [[["C2_PWH_1", 0, 0, {}]]], "config": {"kernel_regularizer": {"class_name": "L1L2", "config": {"l1": 0.0, "l2": 0.0005000000237487257}}, "trainable": true, "activation": "linear", "bias_constraint": null, "use_bias": true, "kernel_constraint": null, "bias_initializer": {"class_name": "Zeros", "config": {}}, "name": "C2_PWH_out", "bias_regularizer": null, "units": 1, "activity_regularizer": null, "kernel_initializer": {"class_name": "VarianceScaling", "config": {"distribution": "normal", "mode": "fan_avg", "seed": 3014, "scale": 1.0}}}}, {"class_name": "Dense", "name": "C3_PWH_out", "inbound_nodes": [[["C3_PWH_1", 0, 0, {}]]], "config": {"kernel_regularizer": {"class_name": "L1L2", "config": {"l1": 0.0, "l2": 0.0005000000237487257}}, "trainable": true, "activation": "linear", "bias_constraint": null, "use_bias": true, "kernel_constraint": null, "bias_initializer": {"class_name": "Zeros", "config": {}}, "name": "C3_PWH_out", "bias_regularizer": null, "units": 1, "activity_regularizer": null, "kernel_initializer": {"class_name": "VarianceScaling", "config": {"distribution": "normal", "mode": "fan_avg", "seed": 3014, "scale": 1.0}}}}, {"class_name": "Dense", "name": "C4_PWH_out", "inbound_nodes": [[["C4_PWH_1", 0, 0, {}]]], "config": {"kernel_regularizer": {"class_name": "L1L2", "config": {"l1": 0.0, "l2": 0.0005000000237487257}}, "trainable": true, "activation": "linear", "bias_constraint": null, "use_bias": true, "kernel_constraint": null, "bias_initializer": {"class_name": "Zeros", "config": {}}, "name": "C4_PWH_out", "bias_regularizer": null, "units": 1, "activity_regularizer": null, "kernel_initializer": {"class_name": "VarianceScaling", "config": {"distribution": "normal", "mode": "fan_avg", "seed": 3014, "scale": 1.0}}}}, {"class_name": "Dense", "name": "B1_PWH_out", "inbound_nodes": [[["B1_PWH_1", 0, 0, {}]]], "config": {"kernel_regularizer": {"class_name": "L1L2", "config": {"l1": 0.0, "l2": 0.0005000000237487257}}, "trainable": true, "activation": "linear", "bias_constraint": null, "use_bias": true, "kernel_constraint": null, "bias_initializer": {"class_name": "Zeros", "config": {}}, "name": "B1_PWH_out", "bias_regularizer": null, "units": 1, "activity_regularizer": null, "kernel_initializer": {"class_name": "VarianceScaling", "config": {"distribution": "normal", "mode": "fan_avg", "seed": 3014, "scale": 1.0}}}}, {"class_name": "Dense", "name": "B3_PWH_out", "inbound_nodes": [[["B3_PWH_1", 0, 0, {}]]], "config": {"kernel_regularizer": {"class_name": "L1L2", "config": {"l1": 0.0, "l2": 0.0005000000237487257}}, "trainable": true, "activation": "linear", "bias_constraint": null, "use_bias": true, "kernel_constraint": null, "bias_initializer": {"class_name": "Zeros", "config": {}}, "name": "B3_PWH_out", "bias_regularizer": null, "units": 1, "activity_regularizer": null, "kernel_initializer": {"class_name": "VarianceScaling", "config": {"distribution": "normal", "mode": "fan_avg", "seed": 3014, "scale": 1.0}}}}, {"class_name": "Dense", "name": "D1_PWH_out", "inbound_nodes": [[["D1_PWH_1", 0, 0, {}]]], "config": {"kernel_regularizer": {"class_name": "L1L2", "config": {"l1": 0.0, "l2": 0.0005000000237487257}}, "trainable": true, "activation": "linear", "bias_constraint": null, "use_bias": true, "kernel_constraint": null, "bias_initializer": {"class_name": "Zeros", "config": {}}, "name": "D1_PWH_out", "bias_regularizer": null, "units": 1, "activity_regularizer": null, "kernel_initializer": {"class_name": "VarianceScaling", "config": {"distribution": "normal", "mode": "fan_avg", "seed": 3014, "scale": 1.0}}}}]}}