{"backend": "theano", "class_name": "Model", "config": {"name": "model_1", "input_layers": [["CHK_INPUT_NOW", 0, 0], ["CHK_INPUT_PREV", 0, 0], ["SHIFTED_PRESSURE_PDC_C1", 0, 0], ["SHIFTED_PRESSURE_PDC_C2", 0, 0], ["SHIFTED_PRESSURE_PDC_C3", 0, 0], ["SHIFTED_PRESSURE_PDC_C4", 0, 0], ["SHIFTED_PRESSURE_PDC_B3", 0, 0], ["SHIFTED_PRESSURE_PDC_B1", 0, 0], ["SHIFTED_PRESSURE_PDC_D1", 0, 0]], "layers": [{"name": "CHK_INPUT_PREV", "inbound_nodes": [], "class_name": "InputLayer", "config": {"batch_input_shape": [null, 8], "sparse": false, "name": "CHK_INPUT_PREV", "dtype": "float32"}}, {"name": "CHK_INPUT_NOW", "inbound_nodes": [], "class_name": "InputLayer", "config": {"batch_input_shape": [null, 8], "sparse": false, "name": "CHK_INPUT_NOW", "dtype": "float32"}}, {"name": "CHK_DELTA", "inbound_nodes": [[["CHK_INPUT_PREV", 0, 0, {}], ["CHK_INPUT_NOW", 0, 0, {}]]], "class_name": "Add", "config": {"name": "CHK_DELTA", "trainable": true}}, {"name": "C1_PDC_0", "inbound_nodes": [[["CHK_DELTA", 0, 0, {}]]], "class_name": "Dense", "config": {"use_bias": true, "trainable": true, "kernel_initializer": {"class_name": "VarianceScaling", "config": {"scale": 1.0, "mode": "fan_avg", "distribution": "normal", "seed": 3014}}, "bias_regularizer": null, "units": 50, "activation": "relu", "kernel_constraint": null, "activity_regularizer": null, "name": "C1_PDC_0", "kernel_regularizer": {"class_name": "L1L2", "config": {"l2": 9.999999747378752e-05, "l1": 0.0}}, "bias_constraint": null, "bias_initializer": {"class_name": "Zeros", "config": {}}}}, {"name": "C2_PDC_0", "inbound_nodes": [[["CHK_DELTA", 0, 0, {}]]], "class_name": "Dense", "config": {"use_bias": true, "trainable": true, "kernel_initializer": {"class_name": "VarianceScaling", "config": {"scale": 1.0, "mode": "fan_avg", "distribution": "normal", "seed": 3014}}, "bias_regularizer": null, "units": 50, "activation": "relu", "kernel_constraint": null, "activity_regularizer": null, "name": "C2_PDC_0", "kernel_regularizer": {"class_name": "L1L2", "config": {"l2": 9.999999747378752e-05, "l1": 0.0}}, "bias_constraint": null, "bias_initializer": {"class_name": "Zeros", "config": {}}}}, {"name": "C3_PDC_0", "inbound_nodes": [[["CHK_DELTA", 0, 0, {}]]], "class_name": "Dense", "config": {"use_bias": true, "trainable": true, "kernel_initializer": {"class_name": "VarianceScaling", "config": {"scale": 1.0, "mode": "fan_avg", "distribution": "normal", "seed": 3014}}, "bias_regularizer": null, "units": 50, "activation": "relu", "kernel_constraint": null, "activity_regularizer": null, "name": "C3_PDC_0", "kernel_regularizer": {"class_name": "L1L2", "config": {"l2": 9.999999747378752e-05, "l1": 0.0}}, "bias_constraint": null, "bias_initializer": {"class_name": "Zeros", "config": {}}}}, {"name": "C4_PDC_0", "inbound_nodes": [[["CHK_DELTA", 0, 0, {}]]], "class_name": "Dense", "config": {"use_bias": true, "trainable": true, "kernel_initializer": {"class_name": "VarianceScaling", "config": {"scale": 1.0, "mode": "fan_avg", "distribution": "normal", "seed": 3014}}, "bias_regularizer": null, "units": 50, "activation": "relu", "kernel_constraint": null, "activity_regularizer": null, "name": "C4_PDC_0", "kernel_regularizer": {"class_name": "L1L2", "config": {"l2": 9.999999747378752e-05, "l1": 0.0}}, "bias_constraint": null, "bias_initializer": {"class_name": "Zeros", "config": {}}}}, {"name": "B3_PDC_0", "inbound_nodes": [[["CHK_DELTA", 0, 0, {}]]], "class_name": "Dense", "config": {"use_bias": true, "trainable": true, "kernel_initializer": {"class_name": "VarianceScaling", "config": {"scale": 1.0, "mode": "fan_avg", "distribution": "normal", "seed": 3014}}, "bias_regularizer": null, "units": 50, "activation": "relu", "kernel_constraint": null, "activity_regularizer": null, "name": "B3_PDC_0", "kernel_regularizer": {"class_name": "L1L2", "config": {"l2": 9.999999747378752e-05, "l1": 0.0}}, "bias_constraint": null, "bias_initializer": {"class_name": "Zeros", "config": {}}}}, {"name": "B1_PDC_0", "inbound_nodes": [[["CHK_DELTA", 0, 0, {}]]], "class_name": "Dense", "config": {"use_bias": true, "trainable": true, "kernel_initializer": {"class_name": "VarianceScaling", "config": {"scale": 1.0, "mode": "fan_avg", "distribution": "normal", "seed": 3014}}, "bias_regularizer": null, "units": 50, "activation": "relu", "kernel_constraint": null, "activity_regularizer": null, "name": "B1_PDC_0", "kernel_regularizer": {"class_name": "L1L2", "config": {"l2": 9.999999747378752e-05, "l1": 0.0}}, "bias_constraint": null, "bias_initializer": {"class_name": "Zeros", "config": {}}}}, {"name": "D1_PDC_0", "inbound_nodes": [[["CHK_DELTA", 0, 0, {}]]], "class_name": "Dense", "config": {"use_bias": true, "trainable": true, "kernel_initializer": {"class_name": "VarianceScaling", "config": {"scale": 1.0, "mode": "fan_avg", "distribution": "normal", "seed": 3014}}, "bias_regularizer": null, "units": 50, "activation": "relu", "kernel_constraint": null, "activity_regularizer": null, "name": "D1_PDC_0", "kernel_regularizer": {"class_name": "L1L2", "config": {"l2": 9.999999747378752e-05, "l1": 0.0}}, "bias_constraint": null, "bias_initializer": {"class_name": "Zeros", "config": {}}}}, {"name": "C1_PDC_out", "inbound_nodes": [[["C1_PDC_0", 0, 0, {}]]], "class_name": "Dense", "config": {"use_bias": true, "trainable": true, "kernel_initializer": {"class_name": "VarianceScaling", "config": {"scale": 1.0, "mode": "fan_avg", "distribution": "normal", "seed": 3014}}, "bias_regularizer": null, "units": 1, "activation": "linear", "kernel_constraint": null, "activity_regularizer": null, "name": "C1_PDC_out", "kernel_regularizer": {"class_name": "L1L2", "config": {"l2": 9.999999747378752e-05, "l1": 0.0}}, "bias_constraint": null, "bias_initializer": {"class_name": "Zeros", "config": {}}}}, {"name": "SHIFTED_PRESSURE_PDC_C1", "inbound_nodes": [], "class_name": "InputLayer", "config": {"batch_input_shape": [null, 1], "sparse": false, "name": "SHIFTED_PRESSURE_PDC_C1", "dtype": "float32"}}, {"name": "C2_PDC_out", "inbound_nodes": [[["C2_PDC_0", 0, 0, {}]]], "class_name": "Dense", "config": {"use_bias": true, "trainable": true, "kernel_initializer": {"class_name": "VarianceScaling", "config": {"scale": 1.0, "mode": "fan_avg", "distribution": "normal", "seed": 3014}}, "bias_regularizer": null, "units": 1, "activation": "linear", "kernel_constraint": null, "activity_regularizer": null, "name": "C2_PDC_out", "kernel_regularizer": {"class_name": "L1L2", "config": {"l2": 9.999999747378752e-05, "l1": 0.0}}, "bias_constraint": null, "bias_initializer": {"class_name": "Zeros", "config": {}}}}, {"name": "SHIFTED_PRESSURE_PDC_C2", "inbound_nodes": [], "class_name": "InputLayer", "config": {"batch_input_shape": [null, 1], "sparse": false, "name": "SHIFTED_PRESSURE_PDC_C2", "dtype": "float32"}}, {"name": "C3_PDC_out", "inbound_nodes": [[["C3_PDC_0", 0, 0, {}]]], "class_name": "Dense", "config": {"use_bias": true, "trainable": true, "kernel_initializer": {"class_name": "VarianceScaling", "config": {"scale": 1.0, "mode": "fan_avg", "distribution": "normal", "seed": 3014}}, "bias_regularizer": null, "units": 1, "activation": "linear", "kernel_constraint": null, "activity_regularizer": null, "name": "C3_PDC_out", "kernel_regularizer": {"class_name": "L1L2", "config": {"l2": 9.999999747378752e-05, "l1": 0.0}}, "bias_constraint": null, "bias_initializer": {"class_name": "Zeros", "config": {}}}}, {"name": "SHIFTED_PRESSURE_PDC_C3", "inbound_nodes": [], "class_name": "InputLayer", "config": {"batch_input_shape": [null, 1], "sparse": false, "name": "SHIFTED_PRESSURE_PDC_C3", "dtype": "float32"}}, {"name": "C4_PDC_out", "inbound_nodes": [[["C4_PDC_0", 0, 0, {}]]], "class_name": "Dense", "config": {"use_bias": true, "trainable": true, "kernel_initializer": {"class_name": "VarianceScaling", "config": {"scale": 1.0, "mode": "fan_avg", "distribution": "normal", "seed": 3014}}, "bias_regularizer": null, "units": 1, "activation": "linear", "kernel_constraint": null, "activity_regularizer": null, "name": "C4_PDC_out", "kernel_regularizer": {"class_name": "L1L2", "config": {"l2": 9.999999747378752e-05, "l1": 0.0}}, "bias_constraint": null, "bias_initializer": {"class_name": "Zeros", "config": {}}}}, {"name": "SHIFTED_PRESSURE_PDC_C4", "inbound_nodes": [], "class_name": "InputLayer", "config": {"batch_input_shape": [null, 1], "sparse": false, "name": "SHIFTED_PRESSURE_PDC_C4", "dtype": "float32"}}, {"name": "B3_PDC_out", "inbound_nodes": [[["B3_PDC_0", 0, 0, {}]]], "class_name": "Dense", "config": {"use_bias": true, "trainable": true, "kernel_initializer": {"class_name": "VarianceScaling", "config": {"scale": 1.0, "mode": "fan_avg", "distribution": "normal", "seed": 3014}}, "bias_regularizer": null, "units": 1, "activation": "linear", "kernel_constraint": null, "activity_regularizer": null, "name": "B3_PDC_out", "kernel_regularizer": {"class_name": "L1L2", "config": {"l2": 9.999999747378752e-05, "l1": 0.0}}, "bias_constraint": null, "bias_initializer": {"class_name": "Zeros", "config": {}}}}, {"name": "SHIFTED_PRESSURE_PDC_B3", "inbound_nodes": [], "class_name": "InputLayer", "config": {"batch_input_shape": [null, 1], "sparse": false, "name": "SHIFTED_PRESSURE_PDC_B3", "dtype": "float32"}}, {"name": "B1_PDC_out", "inbound_nodes": [[["B1_PDC_0", 0, 0, {}]]], "class_name": "Dense", "config": {"use_bias": true, "trainable": true, "kernel_initializer": {"class_name": "VarianceScaling", "config": {"scale": 1.0, "mode": "fan_avg", "distribution": "normal", "seed": 3014}}, "bias_regularizer": null, "units": 1, "activation": "linear", "kernel_constraint": null, "activity_regularizer": null, "name": "B1_PDC_out", "kernel_regularizer": {"class_name": "L1L2", "config": {"l2": 9.999999747378752e-05, "l1": 0.0}}, "bias_constraint": null, "bias_initializer": {"class_name": "Zeros", "config": {}}}}, {"name": "SHIFTED_PRESSURE_PDC_B1", "inbound_nodes": [], "class_name": "InputLayer", "config": {"batch_input_shape": [null, 1], "sparse": false, "name": "SHIFTED_PRESSURE_PDC_B1", "dtype": "float32"}}, {"name": "D1_PDC_out", "inbound_nodes": [[["D1_PDC_0", 0, 0, {}]]], "class_name": "Dense", "config": {"use_bias": true, "trainable": true, "kernel_initializer": {"class_name": "VarianceScaling", "config": {"scale": 1.0, "mode": "fan_avg", "distribution": "normal", "seed": 3014}}, "bias_regularizer": null, "units": 1, "activation": "linear", "kernel_constraint": null, "activity_regularizer": null, "name": "D1_PDC_out", "kernel_regularizer": {"class_name": "L1L2", "config": {"l2": 9.999999747378752e-05, "l1": 0.0}}, "bias_constraint": null, "bias_initializer": {"class_name": "Zeros", "config": {}}}}, {"name": "SHIFTED_PRESSURE_PDC_D1", "inbound_nodes": [], "class_name": "InputLayer", "config": {"batch_input_shape": [null, 1], "sparse": false, "name": "SHIFTED_PRESSURE_PDC_D1", "dtype": "float32"}}, {"name": "C1_PDC_out2", "inbound_nodes": [[["C1_PDC_out", 0, 0, {}], ["SHIFTED_PRESSURE_PDC_C1", 0, 0, {}]]], "class_name": "Add", "config": {"name": "C1_PDC_out2", "trainable": true}}, {"name": "C2_PDC_out2", "inbound_nodes": [[["C2_PDC_out", 0, 0, {}], ["SHIFTED_PRESSURE_PDC_C2", 0, 0, {}]]], "class_name": "Add", "config": {"name": "C2_PDC_out2", "trainable": true}}, {"name": "C3_PDC_out2", "inbound_nodes": [[["C3_PDC_out", 0, 0, {}], ["SHIFTED_PRESSURE_PDC_C3", 0, 0, {}]]], "class_name": "Add", "config": {"name": "C3_PDC_out2", "trainable": true}}, {"name": "C4_PDC_out2", "inbound_nodes": [[["C4_PDC_out", 0, 0, {}], ["SHIFTED_PRESSURE_PDC_C4", 0, 0, {}]]], "class_name": "Add", "config": {"name": "C4_PDC_out2", "trainable": true}}, {"name": "B3_PDC_out2", "inbound_nodes": [[["B3_PDC_out", 0, 0, {}], ["SHIFTED_PRESSURE_PDC_B3", 0, 0, {}]]], "class_name": "Add", "config": {"name": "B3_PDC_out2", "trainable": true}}, {"name": "B1_PDC_out2", "inbound_nodes": [[["B1_PDC_out", 0, 0, {}], ["SHIFTED_PRESSURE_PDC_B1", 0, 0, {}]]], "class_name": "Add", "config": {"name": "B1_PDC_out2", "trainable": true}}, {"name": "D1_PDC_out2", "inbound_nodes": [[["D1_PDC_out", 0, 0, {}], ["SHIFTED_PRESSURE_PDC_D1", 0, 0, {}]]], "class_name": "Add", "config": {"name": "D1_PDC_out2", "trainable": true}}], "output_layers": [["C1_PDC_out2", 0, 0], ["C1_PDC_out", 0, 0], ["C2_PDC_out2", 0, 0], ["C2_PDC_out", 0, 0], ["C3_PDC_out2", 0, 0], ["C3_PDC_out", 0, 0], ["C4_PDC_out2", 0, 0], ["C4_PDC_out", 0, 0], ["B3_PDC_out2", 0, 0], ["B3_PDC_out", 0, 0], ["B1_PDC_out2", 0, 0], ["B1_PDC_out", 0, 0], ["D1_PDC_out2", 0, 0], ["D1_PDC_out", 0, 0]]}, "keras_version": "2.0.1"}