{"config": {"name": "model_1", "layers": [{"name": "C1", "inbound_nodes": [], "config": {"name": "C1", "sparse": false, "batch_input_shape": [null, 4], "dtype": "float32"}, "class_name": "InputLayer"}, {"name": "C2", "inbound_nodes": [], "config": {"name": "C2", "sparse": false, "batch_input_shape": [null, 3], "dtype": "float32"}, "class_name": "InputLayer"}, {"name": "C3", "inbound_nodes": [], "config": {"name": "C3", "sparse": false, "batch_input_shape": [null, 4], "dtype": "float32"}, "class_name": "InputLayer"}, {"name": "C4", "inbound_nodes": [], "config": {"name": "C4", "sparse": false, "batch_input_shape": [null, 4], "dtype": "float32"}, "class_name": "InputLayer"}, {"name": "B1", "inbound_nodes": [], "config": {"name": "B1", "sparse": false, "batch_input_shape": [null, 4], "dtype": "float32"}, "class_name": "InputLayer"}, {"name": "B3", "inbound_nodes": [], "config": {"name": "B3", "sparse": false, "batch_input_shape": [null, 4], "dtype": "float32"}, "class_name": "InputLayer"}, {"name": "D1", "inbound_nodes": [], "config": {"name": "D1", "sparse": false, "batch_input_shape": [null, 3], "dtype": "float32"}, "class_name": "InputLayer"}, {"name": "dense_1", "inbound_nodes": [[["C1", 0, 0, {}]]], "config": {"activity_regularizer": null, "bias_initializer": {"config": {}, "class_name": "Zeros"}, "bias_regularizer": null, "activation": "relu", "kernel_constraint": null, "kernel_initializer": {"config": {"mode": "fan_avg", "distribution": "normal", "scale": 1.0, "seed": 3014}, "class_name": "VarianceScaling"}, "name": "dense_1", "use_bias": true, "bias_constraint": null, "units": 50, "trainable": true, "kernel_regularizer": {"config": {"l2": 9.999999747378752e-05, "l1": 0.0}, "class_name": "L1L2"}}, "class_name": "Dense"}, {"name": "dense_4", "inbound_nodes": [[["C2", 0, 0, {}]]], "config": {"activity_regularizer": null, "bias_initializer": {"config": {}, "class_name": "Zeros"}, "bias_regularizer": null, "activation": "relu", "kernel_constraint": null, "kernel_initializer": {"config": {"mode": "fan_avg", "distribution": "normal", "scale": 1.0, "seed": 3014}, "class_name": "VarianceScaling"}, "name": "dense_4", "use_bias": true, "bias_constraint": null, "units": 50, "trainable": true, "kernel_regularizer": {"config": {"l2": 9.999999747378752e-05, "l1": 0.0}, "class_name": "L1L2"}}, "class_name": "Dense"}, {"name": "dense_7", "inbound_nodes": [[["C3", 0, 0, {}]]], "config": {"activity_regularizer": null, "bias_initializer": {"config": {}, "class_name": "Zeros"}, "bias_regularizer": null, "activation": "relu", "kernel_constraint": null, "kernel_initializer": {"config": {"mode": "fan_avg", "distribution": "normal", "scale": 1.0, "seed": 3014}, "class_name": "VarianceScaling"}, "name": "dense_7", "use_bias": true, "bias_constraint": null, "units": 50, "trainable": true, "kernel_regularizer": {"config": {"l2": 9.999999747378752e-05, "l1": 0.0}, "class_name": "L1L2"}}, "class_name": "Dense"}, {"name": "dense_10", "inbound_nodes": [[["C4", 0, 0, {}]]], "config": {"activity_regularizer": null, "bias_initializer": {"config": {}, "class_name": "Zeros"}, "bias_regularizer": null, "activation": "relu", "kernel_constraint": null, "kernel_initializer": {"config": {"mode": "fan_avg", "distribution": "normal", "scale": 1.0, "seed": 3014}, "class_name": "VarianceScaling"}, "name": "dense_10", "use_bias": true, "bias_constraint": null, "units": 50, "trainable": true, "kernel_regularizer": {"config": {"l2": 9.999999747378752e-05, "l1": 0.0}, "class_name": "L1L2"}}, "class_name": "Dense"}, {"name": "dense_13", "inbound_nodes": [[["B1", 0, 0, {}]]], "config": {"activity_regularizer": null, "bias_initializer": {"config": {}, "class_name": "Zeros"}, "bias_regularizer": null, "activation": "relu", "kernel_constraint": null, "kernel_initializer": {"config": {"mode": "fan_avg", "distribution": "normal", "scale": 1.0, "seed": 3014}, "class_name": "VarianceScaling"}, "name": "dense_13", "use_bias": true, "bias_constraint": null, "units": 50, "trainable": true, "kernel_regularizer": {"config": {"l2": 9.999999747378752e-05, "l1": 0.0}, "class_name": "L1L2"}}, "class_name": "Dense"}, {"name": "dense_16", "inbound_nodes": [[["B3", 0, 0, {}]]], "config": {"activity_regularizer": null, "bias_initializer": {"config": {}, "class_name": "Zeros"}, "bias_regularizer": null, "activation": "relu", "kernel_constraint": null, "kernel_initializer": {"config": {"mode": "fan_avg", "distribution": "normal", "scale": 1.0, "seed": 3014}, "class_name": "VarianceScaling"}, "name": "dense_16", "use_bias": true, "bias_constraint": null, "units": 50, "trainable": true, "kernel_regularizer": {"config": {"l2": 9.999999747378752e-05, "l1": 0.0}, "class_name": "L1L2"}}, "class_name": "Dense"}, {"name": "dense_19", "inbound_nodes": [[["D1", 0, 0, {}]]], "config": {"activity_regularizer": null, "bias_initializer": {"config": {}, "class_name": "Zeros"}, "bias_regularizer": null, "activation": "relu", "kernel_constraint": null, "kernel_initializer": {"config": {"mode": "fan_avg", "distribution": "normal", "scale": 1.0, "seed": 3014}, "class_name": "VarianceScaling"}, "name": "dense_19", "use_bias": true, "bias_constraint": null, "units": 50, "trainable": true, "kernel_regularizer": {"config": {"l2": 9.999999747378752e-05, "l1": 0.0}, "class_name": "L1L2"}}, "class_name": "Dense"}, {"name": "dense_2", "inbound_nodes": [[["dense_1", 0, 0, {}]]], "config": {"activity_regularizer": null, "bias_initializer": {"config": {}, "class_name": "Zeros"}, "bias_regularizer": null, "activation": "relu", "kernel_constraint": null, "kernel_initializer": {"config": {"mode": "fan_avg", "distribution": "normal", "scale": 1.0, "seed": 3014}, "class_name": "VarianceScaling"}, "name": "dense_2", "use_bias": true, "bias_constraint": null, "units": 50, "trainable": true, "kernel_regularizer": {"config": {"l2": 9.999999747378752e-05, "l1": 0.0}, "class_name": "L1L2"}}, "class_name": "Dense"}, {"name": "dense_5", "inbound_nodes": [[["dense_4", 0, 0, {}]]], "config": {"activity_regularizer": null, "bias_initializer": {"config": {}, "class_name": "Zeros"}, "bias_regularizer": null, "activation": "relu", "kernel_constraint": null, "kernel_initializer": {"config": {"mode": "fan_avg", "distribution": "normal", "scale": 1.0, "seed": 3014}, "class_name": "VarianceScaling"}, "name": "dense_5", "use_bias": true, "bias_constraint": null, "units": 50, "trainable": true, "kernel_regularizer": {"config": {"l2": 9.999999747378752e-05, "l1": 0.0}, "class_name": "L1L2"}}, "class_name": "Dense"}, {"name": "dense_8", "inbound_nodes": [[["dense_7", 0, 0, {}]]], "config": {"activity_regularizer": null, "bias_initializer": {"config": {}, "class_name": "Zeros"}, "bias_regularizer": null, "activation": "relu", "kernel_constraint": null, "kernel_initializer": {"config": {"mode": "fan_avg", "distribution": "normal", "scale": 1.0, "seed": 3014}, "class_name": "VarianceScaling"}, "name": "dense_8", "use_bias": true, "bias_constraint": null, "units": 50, "trainable": true, "kernel_regularizer": {"config": {"l2": 9.999999747378752e-05, "l1": 0.0}, "class_name": "L1L2"}}, "class_name": "Dense"}, {"name": "dense_11", "inbound_nodes": [[["dense_10", 0, 0, {}]]], "config": {"activity_regularizer": null, "bias_initializer": {"config": {}, "class_name": "Zeros"}, "bias_regularizer": null, "activation": "relu", "kernel_constraint": null, "kernel_initializer": {"config": {"mode": "fan_avg", "distribution": "normal", "scale": 1.0, "seed": 3014}, "class_name": "VarianceScaling"}, "name": "dense_11", "use_bias": true, "bias_constraint": null, "units": 50, "trainable": true, "kernel_regularizer": {"config": {"l2": 9.999999747378752e-05, "l1": 0.0}, "class_name": "L1L2"}}, "class_name": "Dense"}, {"name": "dense_14", "inbound_nodes": [[["dense_13", 0, 0, {}]]], "config": {"activity_regularizer": null, "bias_initializer": {"config": {}, "class_name": "Zeros"}, "bias_regularizer": null, "activation": "relu", "kernel_constraint": null, "kernel_initializer": {"config": {"mode": "fan_avg", "distribution": "normal", "scale": 1.0, "seed": 3014}, "class_name": "VarianceScaling"}, "name": "dense_14", "use_bias": true, "bias_constraint": null, "units": 50, "trainable": true, "kernel_regularizer": {"config": {"l2": 9.999999747378752e-05, "l1": 0.0}, "class_name": "L1L2"}}, "class_name": "Dense"}, {"name": "dense_17", "inbound_nodes": [[["dense_16", 0, 0, {}]]], "config": {"activity_regularizer": null, "bias_initializer": {"config": {}, "class_name": "Zeros"}, "bias_regularizer": null, "activation": "relu", "kernel_constraint": null, "kernel_initializer": {"config": {"mode": "fan_avg", "distribution": "normal", "scale": 1.0, "seed": 3014}, "class_name": "VarianceScaling"}, "name": "dense_17", "use_bias": true, "bias_constraint": null, "units": 50, "trainable": true, "kernel_regularizer": {"config": {"l2": 9.999999747378752e-05, "l1": 0.0}, "class_name": "L1L2"}}, "class_name": "Dense"}, {"name": "dense_20", "inbound_nodes": [[["dense_19", 0, 0, {}]]], "config": {"activity_regularizer": null, "bias_initializer": {"config": {}, "class_name": "Zeros"}, "bias_regularizer": null, "activation": "relu", "kernel_constraint": null, "kernel_initializer": {"config": {"mode": "fan_avg", "distribution": "normal", "scale": 1.0, "seed": 3014}, "class_name": "VarianceScaling"}, "name": "dense_20", "use_bias": true, "bias_constraint": null, "units": 50, "trainable": true, "kernel_regularizer": {"config": {"l2": 9.999999747378752e-05, "l1": 0.0}, "class_name": "L1L2"}}, "class_name": "Dense"}, {"name": "OnOff_C1", "inbound_nodes": [], "config": {"name": "OnOff_C1", "sparse": false, "batch_input_shape": [null, 1], "dtype": "float32"}, "class_name": "InputLayer"}, {"name": "dense_3", "inbound_nodes": [[["dense_2", 0, 0, {}]]], "config": {"activity_regularizer": null, "bias_initializer": {"config": {}, "class_name": "Zeros"}, "bias_regularizer": null, "activation": "relu", "kernel_constraint": null, "kernel_initializer": {"config": {"mode": "fan_avg", "distribution": "normal", "scale": 1.0, "seed": 3014}, "class_name": "VarianceScaling"}, "name": "dense_3", "use_bias": true, "bias_constraint": null, "units": 1, "trainable": true, "kernel_regularizer": {"config": {"l2": 9.999999747378752e-05, "l1": 0.0}, "class_name": "L1L2"}}, "class_name": "Dense"}, {"name": "OnOff_C2", "inbound_nodes": [], "config": {"name": "OnOff_C2", "sparse": false, "batch_input_shape": [null, 1], "dtype": "float32"}, "class_name": "InputLayer"}, {"name": "dense_6", "inbound_nodes": [[["dense_5", 0, 0, {}]]], "config": {"activity_regularizer": null, "bias_initializer": {"config": {}, "class_name": "Zeros"}, "bias_regularizer": null, "activation": "relu", "kernel_constraint": null, "kernel_initializer": {"config": {"mode": "fan_avg", "distribution": "normal", "scale": 1.0, "seed": 3014}, "class_name": "VarianceScaling"}, "name": "dense_6", "use_bias": true, "bias_constraint": null, "units": 1, "trainable": true, "kernel_regularizer": {"config": {"l2": 9.999999747378752e-05, "l1": 0.0}, "class_name": "L1L2"}}, "class_name": "Dense"}, {"name": "OnOff_C3", "inbound_nodes": [], "config": {"name": "OnOff_C3", "sparse": false, "batch_input_shape": [null, 1], "dtype": "float32"}, "class_name": "InputLayer"}, {"name": "dense_9", "inbound_nodes": [[["dense_8", 0, 0, {}]]], "config": {"activity_regularizer": null, "bias_initializer": {"config": {}, "class_name": "Zeros"}, "bias_regularizer": null, "activation": "relu", "kernel_constraint": null, "kernel_initializer": {"config": {"mode": "fan_avg", "distribution": "normal", "scale": 1.0, "seed": 3014}, "class_name": "VarianceScaling"}, "name": "dense_9", "use_bias": true, "bias_constraint": null, "units": 1, "trainable": true, "kernel_regularizer": {"config": {"l2": 9.999999747378752e-05, "l1": 0.0}, "class_name": "L1L2"}}, "class_name": "Dense"}, {"name": "OnOff_C4", "inbound_nodes": [], "config": {"name": "OnOff_C4", "sparse": false, "batch_input_shape": [null, 1], "dtype": "float32"}, "class_name": "InputLayer"}, {"name": "dense_12", "inbound_nodes": [[["dense_11", 0, 0, {}]]], "config": {"activity_regularizer": null, "bias_initializer": {"config": {}, "class_name": "Zeros"}, "bias_regularizer": null, "activation": "relu", "kernel_constraint": null, "kernel_initializer": {"config": {"mode": "fan_avg", "distribution": "normal", "scale": 1.0, "seed": 3014}, "class_name": "VarianceScaling"}, "name": "dense_12", "use_bias": true, "bias_constraint": null, "units": 1, "trainable": true, "kernel_regularizer": {"config": {"l2": 9.999999747378752e-05, "l1": 0.0}, "class_name": "L1L2"}}, "class_name": "Dense"}, {"name": "OnOff_B1", "inbound_nodes": [], "config": {"name": "OnOff_B1", "sparse": false, "batch_input_shape": [null, 1], "dtype": "float32"}, "class_name": "InputLayer"}, {"name": "dense_15", "inbound_nodes": [[["dense_14", 0, 0, {}]]], "config": {"activity_regularizer": null, "bias_initializer": {"config": {}, "class_name": "Zeros"}, "bias_regularizer": null, "activation": "relu", "kernel_constraint": null, "kernel_initializer": {"config": {"mode": "fan_avg", "distribution": "normal", "scale": 1.0, "seed": 3014}, "class_name": "VarianceScaling"}, "name": "dense_15", "use_bias": true, "bias_constraint": null, "units": 1, "trainable": true, "kernel_regularizer": {"config": {"l2": 9.999999747378752e-05, "l1": 0.0}, "class_name": "L1L2"}}, "class_name": "Dense"}, {"name": "OnOff_B3", "inbound_nodes": [], "config": {"name": "OnOff_B3", "sparse": false, "batch_input_shape": [null, 1], "dtype": "float32"}, "class_name": "InputLayer"}, {"name": "dense_18", "inbound_nodes": [[["dense_17", 0, 0, {}]]], "config": {"activity_regularizer": null, "bias_initializer": {"config": {}, "class_name": "Zeros"}, "bias_regularizer": null, "activation": "relu", "kernel_constraint": null, "kernel_initializer": {"config": {"mode": "fan_avg", "distribution": "normal", "scale": 1.0, "seed": 3014}, "class_name": "VarianceScaling"}, "name": "dense_18", "use_bias": true, "bias_constraint": null, "units": 1, "trainable": true, "kernel_regularizer": {"config": {"l2": 9.999999747378752e-05, "l1": 0.0}, "class_name": "L1L2"}}, "class_name": "Dense"}, {"name": "OnOff_D1", "inbound_nodes": [], "config": {"name": "OnOff_D1", "sparse": false, "batch_input_shape": [null, 1], "dtype": "float32"}, "class_name": "InputLayer"}, {"name": "dense_21", "inbound_nodes": [[["dense_20", 0, 0, {}]]], "config": {"activity_regularizer": null, "bias_initializer": {"config": {}, "class_name": "Zeros"}, "bias_regularizer": null, "activation": "relu", "kernel_constraint": null, "kernel_initializer": {"config": {"mode": "fan_avg", "distribution": "normal", "scale": 1.0, "seed": 3014}, "class_name": "VarianceScaling"}, "name": "dense_21", "use_bias": true, "bias_constraint": null, "units": 1, "trainable": true, "kernel_regularizer": {"config": {"l2": 9.999999747378752e-05, "l1": 0.0}, "class_name": "L1L2"}}, "class_name": "Dense"}, {"name": "C1_out", "inbound_nodes": [[["OnOff_C1", 0, 0, {}], ["dense_3", 0, 0, {}]]], "config": {"name": "C1_out", "trainable": true}, "class_name": "Multiply"}, {"name": "C2_out", "inbound_nodes": [[["OnOff_C2", 0, 0, {}], ["dense_6", 0, 0, {}]]], "config": {"name": "C2_out", "trainable": true}, "class_name": "Multiply"}, {"name": "C3_out", "inbound_nodes": [[["OnOff_C3", 0, 0, {}], ["dense_9", 0, 0, {}]]], "config": {"name": "C3_out", "trainable": true}, "class_name": "Multiply"}, {"name": "C4_out", "inbound_nodes": [[["OnOff_C4", 0, 0, {}], ["dense_12", 0, 0, {}]]], "config": {"name": "C4_out", "trainable": true}, "class_name": "Multiply"}, {"name": "B1_out", "inbound_nodes": [[["OnOff_B1", 0, 0, {}], ["dense_15", 0, 0, {}]]], "config": {"name": "B1_out", "trainable": true}, "class_name": "Multiply"}, {"name": "B3_out", "inbound_nodes": [[["OnOff_B3", 0, 0, {}], ["dense_18", 0, 0, {}]]], "config": {"name": "B3_out", "trainable": true}, "class_name": "Multiply"}, {"name": "D1_out", "inbound_nodes": [[["OnOff_D1", 0, 0, {}], ["dense_21", 0, 0, {}]]], "config": {"name": "D1_out", "trainable": true}, "class_name": "Multiply"}, {"name": "GJOA_TOTAL", "inbound_nodes": [[["C1_out", 0, 0, {}], ["C2_out", 0, 0, {}], ["C3_out", 0, 0, {}], ["C4_out", 0, 0, {}], ["B1_out", 0, 0, {}], ["B3_out", 0, 0, {}], ["D1_out", 0, 0, {}]]], "config": {"name": "GJOA_TOTAL", "trainable": true}, "class_name": "Add"}], "input_layers": [["C1", 0, 0], ["C2", 0, 0], ["C3", 0, 0], ["C4", 0, 0], ["B1", 0, 0], ["B3", 0, 0], ["D1", 0, 0], ["OnOff_C1", 0, 0], ["OnOff_C2", 0, 0], ["OnOff_C3", 0, 0], ["OnOff_C4", 0, 0], ["OnOff_B1", 0, 0], ["OnOff_B3", 0, 0], ["OnOff_D1", 0, 0]], "output_layers": [["C1_out", 0, 0], ["C2_out", 0, 0], ["C3_out", 0, 0], ["C4_out", 0, 0], ["B1_out", 0, 0], ["B3_out", 0, 0], ["D1_out", 0, 0], ["GJOA_TOTAL", 0, 0]]}, "class_name": "Model", "keras_version": "2.0.1", "backend": "theano"}