{"config": {"name": "model_1", "layers": [{"name": "CHK_INPUT_PREV", "inbound_nodes": [], "config": {"batch_input_shape": [null, 8], "name": "CHK_INPUT_PREV", "dtype": "float32", "sparse": false}, "class_name": "InputLayer"}, {"name": "CHK_INPUT_NOW", "inbound_nodes": [], "config": {"batch_input_shape": [null, 8], "name": "CHK_INPUT_NOW", "dtype": "float32", "sparse": false}, "class_name": "InputLayer"}, {"name": "CHK_DELTA", "inbound_nodes": [[["CHK_INPUT_PREV", 0, 0, {}], ["CHK_INPUT_NOW", 0, 0, {}]]], "config": {"name": "CHK_DELTA", "trainable": true}, "class_name": "Add"}, {"name": "C1_PBH_0", "inbound_nodes": [[["CHK_DELTA", 0, 0, {}]]], "config": {"name": "C1_PBH_0", "kernel_regularizer": {"config": {"l2": 3.5000000934815034e-05, "l1": 0.0}, "class_name": "L1L2"}, "use_bias": true, "bias_regularizer": null, "activity_regularizer": null, "kernel_constraint": null, "bias_initializer": {"config": {}, "class_name": "Zeros"}, "activation": "relu", "units": 80, "kernel_initializer": {"config": {"mode": "fan_avg", "distribution": "normal", "scale": 1.0, "seed": 3014}, "class_name": "VarianceScaling"}, "bias_constraint": null, "trainable": true}, "class_name": "Dense"}, {"name": "C3_PBH_0", "inbound_nodes": [[["CHK_DELTA", 0, 0, {}]]], "config": {"name": "C3_PBH_0", "kernel_regularizer": {"config": {"l2": 3.5000000934815034e-05, "l1": 0.0}, "class_name": "L1L2"}, "use_bias": true, "bias_regularizer": null, "activity_regularizer": null, "kernel_constraint": null, "bias_initializer": {"config": {}, "class_name": "Zeros"}, "activation": "relu", "units": 80, "kernel_initializer": {"config": {"mode": "fan_avg", "distribution": "normal", "scale": 1.0, "seed": 3014}, "class_name": "VarianceScaling"}, "bias_constraint": null, "trainable": true}, "class_name": "Dense"}, {"name": "C4_PBH_0", "inbound_nodes": [[["CHK_DELTA", 0, 0, {}]]], "config": {"name": "C4_PBH_0", "kernel_regularizer": {"config": {"l2": 3.5000000934815034e-05, "l1": 0.0}, "class_name": "L1L2"}, "use_bias": true, "bias_regularizer": null, "activity_regularizer": null, "kernel_constraint": null, "bias_initializer": {"config": {}, "class_name": "Zeros"}, "activation": "relu", "units": 80, "kernel_initializer": {"config": {"mode": "fan_avg", "distribution": "normal", "scale": 1.0, "seed": 3014}, "class_name": "VarianceScaling"}, "bias_constraint": null, "trainable": true}, "class_name": "Dense"}, {"name": "B1_PBH_0", "inbound_nodes": [[["CHK_DELTA", 0, 0, {}]]], "config": {"name": "B1_PBH_0", "kernel_regularizer": {"config": {"l2": 3.5000000934815034e-05, "l1": 0.0}, "class_name": "L1L2"}, "use_bias": true, "bias_regularizer": null, "activity_regularizer": null, "kernel_constraint": null, "bias_initializer": {"config": {}, "class_name": "Zeros"}, "activation": "relu", "units": 80, "kernel_initializer": {"config": {"mode": "fan_avg", "distribution": "normal", "scale": 1.0, "seed": 3014}, "class_name": "VarianceScaling"}, "bias_constraint": null, "trainable": true}, "class_name": "Dense"}, {"name": "B3_PBH_0", "inbound_nodes": [[["CHK_DELTA", 0, 0, {}]]], "config": {"name": "B3_PBH_0", "kernel_regularizer": {"config": {"l2": 3.5000000934815034e-05, "l1": 0.0}, "class_name": "L1L2"}, "use_bias": true, "bias_regularizer": null, "activity_regularizer": null, "kernel_constraint": null, "bias_initializer": {"config": {}, "class_name": "Zeros"}, "activation": "relu", "units": 80, "kernel_initializer": {"config": {"mode": "fan_avg", "distribution": "normal", "scale": 1.0, "seed": 3014}, "class_name": "VarianceScaling"}, "bias_constraint": null, "trainable": true}, "class_name": "Dense"}, {"name": "C1_PBH_out", "inbound_nodes": [[["C1_PBH_0", 0, 0, {}]]], "config": {"name": "C1_PBH_out", "kernel_regularizer": {"config": {"l2": 3.5000000934815034e-05, "l1": 0.0}, "class_name": "L1L2"}, "use_bias": true, "bias_regularizer": null, "activity_regularizer": null, "kernel_constraint": null, "bias_initializer": {"config": {}, "class_name": "Zeros"}, "activation": "linear", "units": 1, "kernel_initializer": {"config": {"mode": "fan_avg", "distribution": "normal", "scale": 1.0, "seed": 3014}, "class_name": "VarianceScaling"}, "bias_constraint": null, "trainable": true}, "class_name": "Dense"}, {"name": "SHIFTED_PRESSURE_PBH_C1", "inbound_nodes": [], "config": {"batch_input_shape": [null, 1], "name": "SHIFTED_PRESSURE_PBH_C1", "dtype": "float32", "sparse": false}, "class_name": "InputLayer"}, {"name": "C3_PBH_out", "inbound_nodes": [[["C3_PBH_0", 0, 0, {}]]], "config": {"name": "C3_PBH_out", "kernel_regularizer": {"config": {"l2": 3.5000000934815034e-05, "l1": 0.0}, "class_name": "L1L2"}, "use_bias": true, "bias_regularizer": null, "activity_regularizer": null, "kernel_constraint": null, "bias_initializer": {"config": {}, "class_name": "Zeros"}, "activation": "linear", "units": 1, "kernel_initializer": {"config": {"mode": "fan_avg", "distribution": "normal", "scale": 1.0, "seed": 3014}, "class_name": "VarianceScaling"}, "bias_constraint": null, "trainable": true}, "class_name": "Dense"}, {"name": "SHIFTED_PRESSURE_PBH_C3", "inbound_nodes": [], "config": {"batch_input_shape": [null, 1], "name": "SHIFTED_PRESSURE_PBH_C3", "dtype": "float32", "sparse": false}, "class_name": "InputLayer"}, {"name": "C4_PBH_out", "inbound_nodes": [[["C4_PBH_0", 0, 0, {}]]], "config": {"name": "C4_PBH_out", "kernel_regularizer": {"config": {"l2": 3.5000000934815034e-05, "l1": 0.0}, "class_name": "L1L2"}, "use_bias": true, "bias_regularizer": null, "activity_regularizer": null, "kernel_constraint": null, "bias_initializer": {"config": {}, "class_name": "Zeros"}, "activation": "linear", "units": 1, "kernel_initializer": {"config": {"mode": "fan_avg", "distribution": "normal", "scale": 1.0, "seed": 3014}, "class_name": "VarianceScaling"}, "bias_constraint": null, "trainable": true}, "class_name": "Dense"}, {"name": "SHIFTED_PRESSURE_PBH_C4", "inbound_nodes": [], "config": {"batch_input_shape": [null, 1], "name": "SHIFTED_PRESSURE_PBH_C4", "dtype": "float32", "sparse": false}, "class_name": "InputLayer"}, {"name": "B1_PBH_out", "inbound_nodes": [[["B1_PBH_0", 0, 0, {}]]], "config": {"name": "B1_PBH_out", "kernel_regularizer": {"config": {"l2": 3.5000000934815034e-05, "l1": 0.0}, "class_name": "L1L2"}, "use_bias": true, "bias_regularizer": null, "activity_regularizer": null, "kernel_constraint": null, "bias_initializer": {"config": {}, "class_name": "Zeros"}, "activation": "linear", "units": 1, "kernel_initializer": {"config": {"mode": "fan_avg", "distribution": "normal", "scale": 1.0, "seed": 3014}, "class_name": "VarianceScaling"}, "bias_constraint": null, "trainable": true}, "class_name": "Dense"}, {"name": "SHIFTED_PRESSURE_PBH_B1", "inbound_nodes": [], "config": {"batch_input_shape": [null, 1], "name": "SHIFTED_PRESSURE_PBH_B1", "dtype": "float32", "sparse": false}, "class_name": "InputLayer"}, {"name": "B3_PBH_out", "inbound_nodes": [[["B3_PBH_0", 0, 0, {}]]], "config": {"name": "B3_PBH_out", "kernel_regularizer": {"config": {"l2": 3.5000000934815034e-05, "l1": 0.0}, "class_name": "L1L2"}, "use_bias": true, "bias_regularizer": null, "activity_regularizer": null, "kernel_constraint": null, "bias_initializer": {"config": {}, "class_name": "Zeros"}, "activation": "linear", "units": 1, "kernel_initializer": {"config": {"mode": "fan_avg", "distribution": "normal", "scale": 1.0, "seed": 3014}, "class_name": "VarianceScaling"}, "bias_constraint": null, "trainable": true}, "class_name": "Dense"}, {"name": "SHIFTED_PRESSURE_PBH_B3", "inbound_nodes": [], "config": {"batch_input_shape": [null, 1], "name": "SHIFTED_PRESSURE_PBH_B3", "dtype": "float32", "sparse": false}, "class_name": "InputLayer"}, {"name": "C1_PBH_out2", "inbound_nodes": [[["C1_PBH_out", 0, 0, {}], ["SHIFTED_PRESSURE_PBH_C1", 0, 0, {}]]], "config": {"name": "C1_PBH_out2", "trainable": true}, "class_name": "Add"}, {"name": "C3_PBH_out2", "inbound_nodes": [[["C3_PBH_out", 0, 0, {}], ["SHIFTED_PRESSURE_PBH_C3", 0, 0, {}]]], "config": {"name": "C3_PBH_out2", "trainable": true}, "class_name": "Add"}, {"name": "C4_PBH_out2", "inbound_nodes": [[["C4_PBH_out", 0, 0, {}], ["SHIFTED_PRESSURE_PBH_C4", 0, 0, {}]]], "config": {"name": "C4_PBH_out2", "trainable": true}, "class_name": "Add"}, {"name": "B1_PBH_out2", "inbound_nodes": [[["B1_PBH_out", 0, 0, {}], ["SHIFTED_PRESSURE_PBH_B1", 0, 0, {}]]], "config": {"name": "B1_PBH_out2", "trainable": true}, "class_name": "Add"}, {"name": "B3_PBH_out2", "inbound_nodes": [[["B3_PBH_out", 0, 0, {}], ["SHIFTED_PRESSURE_PBH_B3", 0, 0, {}]]], "config": {"name": "B3_PBH_out2", "trainable": true}, "class_name": "Add"}], "output_layers": [["C1_PBH_out2", 0, 0], ["C1_PBH_out", 0, 0], ["C3_PBH_out2", 0, 0], ["C3_PBH_out", 0, 0], ["C4_PBH_out2", 0, 0], ["C4_PBH_out", 0, 0], ["B1_PBH_out2", 0, 0], ["B1_PBH_out", 0, 0], ["B3_PBH_out2", 0, 0], ["B3_PBH_out", 0, 0]], "input_layers": [["CHK_INPUT_NOW", 0, 0], ["CHK_INPUT_PREV", 0, 0], ["SHIFTED_PRESSURE_PBH_C1", 0, 0], ["SHIFTED_PRESSURE_PBH_C3", 0, 0], ["SHIFTED_PRESSURE_PBH_C4", 0, 0], ["SHIFTED_PRESSURE_PBH_B1", 0, 0], ["SHIFTED_PRESSURE_PBH_B3", 0, 0]]}, "backend": "theano", "keras_version": "2.0.1", "class_name": "Model"}