{"class_name": "Model", "backend": "theano", "keras_version": "2.0.1", "config": {"input_layers": [["F1", 0, 0], ["B2", 0, 0], ["D3", 0, 0], ["E1", 0, 0], ["OnOff_F1", 0, 0], ["OnOff_B2", 0, 0], ["OnOff_D3", 0, 0], ["OnOff_E1", 0, 0]], "name": "model_1", "layers": [{"class_name": "InputLayer", "name": "F1", "inbound_nodes": [], "config": {"batch_input_shape": [null, 4], "sparse": false, "name": "F1", "dtype": "float32"}}, {"class_name": "InputLayer", "name": "B2", "inbound_nodes": [], "config": {"batch_input_shape": [null, 4], "sparse": false, "name": "B2", "dtype": "float32"}}, {"class_name": "InputLayer", "name": "D3", "inbound_nodes": [], "config": {"batch_input_shape": [null, 4], "sparse": false, "name": "D3", "dtype": "float32"}}, {"class_name": "InputLayer", "name": "E1", "inbound_nodes": [], "config": {"batch_input_shape": [null, 4], "sparse": false, "name": "E1", "dtype": "float32"}}, {"class_name": "Dense", "name": "dense_1", "inbound_nodes": [[["F1", 0, 0, {}]]], "config": {"units": 50, "kernel_regularizer": {"class_name": "L1L2", "config": {"l2": 4.999999873689376e-05, "l1": 0.0}}, "kernel_initializer": {"class_name": "VarianceScaling", "config": {"seed": 9035, "mode": "fan_avg", "scale": 1.0, "distribution": "normal"}}, "bias_constraint": null, "bias_initializer": {"class_name": "Zeros", "config": {}}, "bias_regularizer": null, "use_bias": true, "trainable": true, "name": "dense_1", "activation": "relu", "kernel_constraint": null, "activity_regularizer": null}}, {"class_name": "Dense", "name": "dense_4", "inbound_nodes": [[["B2", 0, 0, {}]]], "config": {"units": 50, "kernel_regularizer": {"class_name": "L1L2", "config": {"l2": 4.999999873689376e-05, "l1": 0.0}}, "kernel_initializer": {"class_name": "VarianceScaling", "config": {"seed": 9035, "mode": "fan_avg", "scale": 1.0, "distribution": "normal"}}, "bias_constraint": null, "bias_initializer": {"class_name": "Zeros", "config": {}}, "bias_regularizer": null, "use_bias": true, "trainable": true, "name": "dense_4", "activation": "relu", "kernel_constraint": null, "activity_regularizer": null}}, {"class_name": "Dense", "name": "dense_7", "inbound_nodes": [[["D3", 0, 0, {}]]], "config": {"units": 50, "kernel_regularizer": {"class_name": "L1L2", "config": {"l2": 4.999999873689376e-05, "l1": 0.0}}, "kernel_initializer": {"class_name": "VarianceScaling", "config": {"seed": 9035, "mode": "fan_avg", "scale": 1.0, "distribution": "normal"}}, "bias_constraint": null, "bias_initializer": {"class_name": "Zeros", "config": {}}, "bias_regularizer": null, "use_bias": true, "trainable": true, "name": "dense_7", "activation": "relu", "kernel_constraint": null, "activity_regularizer": null}}, {"class_name": "Dense", "name": "dense_10", "inbound_nodes": [[["E1", 0, 0, {}]]], "config": {"units": 50, "kernel_regularizer": {"class_name": "L1L2", "config": {"l2": 4.999999873689376e-05, "l1": 0.0}}, "kernel_initializer": {"class_name": "VarianceScaling", "config": {"seed": 9035, "mode": "fan_avg", "scale": 1.0, "distribution": "normal"}}, "bias_constraint": null, "bias_initializer": {"class_name": "Zeros", "config": {}}, "bias_regularizer": null, "use_bias": true, "trainable": true, "name": "dense_10", "activation": "relu", "kernel_constraint": null, "activity_regularizer": null}}, {"class_name": "Dense", "name": "dense_2", "inbound_nodes": [[["dense_1", 0, 0, {}]]], "config": {"units": 50, "kernel_regularizer": {"class_name": "L1L2", "config": {"l2": 4.999999873689376e-05, "l1": 0.0}}, "kernel_initializer": {"class_name": "VarianceScaling", "config": {"seed": 9035, "mode": "fan_avg", "scale": 1.0, "distribution": "normal"}}, "bias_constraint": null, "bias_initializer": {"class_name": "Zeros", "config": {}}, "bias_regularizer": null, "use_bias": true, "trainable": true, "name": "dense_2", "activation": "relu", "kernel_constraint": null, "activity_regularizer": null}}, {"class_name": "Dense", "name": "dense_5", "inbound_nodes": [[["dense_4", 0, 0, {}]]], "config": {"units": 50, "kernel_regularizer": {"class_name": "L1L2", "config": {"l2": 4.999999873689376e-05, "l1": 0.0}}, "kernel_initializer": {"class_name": "VarianceScaling", "config": {"seed": 9035, "mode": "fan_avg", "scale": 1.0, "distribution": "normal"}}, "bias_constraint": null, "bias_initializer": {"class_name": "Zeros", "config": {}}, "bias_regularizer": null, "use_bias": true, "trainable": true, "name": "dense_5", "activation": "relu", "kernel_constraint": null, "activity_regularizer": null}}, {"class_name": "Dense", "name": "dense_8", "inbound_nodes": [[["dense_7", 0, 0, {}]]], "config": {"units": 50, "kernel_regularizer": {"class_name": "L1L2", "config": {"l2": 4.999999873689376e-05, "l1": 0.0}}, "kernel_initializer": {"class_name": "VarianceScaling", "config": {"seed": 9035, "mode": "fan_avg", "scale": 1.0, "distribution": "normal"}}, "bias_constraint": null, "bias_initializer": {"class_name": "Zeros", "config": {}}, "bias_regularizer": null, "use_bias": true, "trainable": true, "name": "dense_8", "activation": "relu", "kernel_constraint": null, "activity_regularizer": null}}, {"class_name": "Dense", "name": "dense_11", "inbound_nodes": [[["dense_10", 0, 0, {}]]], "config": {"units": 50, "kernel_regularizer": {"class_name": "L1L2", "config": {"l2": 4.999999873689376e-05, "l1": 0.0}}, "kernel_initializer": {"class_name": "VarianceScaling", "config": {"seed": 9035, "mode": "fan_avg", "scale": 1.0, "distribution": "normal"}}, "bias_constraint": null, "bias_initializer": {"class_name": "Zeros", "config": {}}, "bias_regularizer": null, "use_bias": true, "trainable": true, "name": "dense_11", "activation": "relu", "kernel_constraint": null, "activity_regularizer": null}}, {"class_name": "InputLayer", "name": "OnOff_F1", "inbound_nodes": [], "config": {"batch_input_shape": [null, 1], "sparse": false, "name": "OnOff_F1", "dtype": "float32"}}, {"class_name": "Dense", "name": "dense_3", "inbound_nodes": [[["dense_2", 0, 0, {}]]], "config": {"units": 1, "kernel_regularizer": {"class_name": "L1L2", "config": {"l2": 4.999999873689376e-05, "l1": 0.0}}, "kernel_initializer": {"class_name": "VarianceScaling", "config": {"seed": 9035, "mode": "fan_avg", "scale": 1.0, "distribution": "normal"}}, "bias_constraint": null, "bias_initializer": {"class_name": "Zeros", "config": {}}, "bias_regularizer": null, "use_bias": true, "trainable": true, "name": "dense_3", "activation": "relu", "kernel_constraint": null, "activity_regularizer": null}}, {"class_name": "InputLayer", "name": "OnOff_B2", "inbound_nodes": [], "config": {"batch_input_shape": [null, 1], "sparse": false, "name": "OnOff_B2", "dtype": "float32"}}, {"class_name": "Dense", "name": "dense_6", "inbound_nodes": [[["dense_5", 0, 0, {}]]], "config": {"units": 1, "kernel_regularizer": {"class_name": "L1L2", "config": {"l2": 4.999999873689376e-05, "l1": 0.0}}, "kernel_initializer": {"class_name": "VarianceScaling", "config": {"seed": 9035, "mode": "fan_avg", "scale": 1.0, "distribution": "normal"}}, "bias_constraint": null, "bias_initializer": {"class_name": "Zeros", "config": {}}, "bias_regularizer": null, "use_bias": true, "trainable": true, "name": "dense_6", "activation": "relu", "kernel_constraint": null, "activity_regularizer": null}}, {"class_name": "InputLayer", "name": "OnOff_D3", "inbound_nodes": [], "config": {"batch_input_shape": [null, 1], "sparse": false, "name": "OnOff_D3", "dtype": "float32"}}, {"class_name": "Dense", "name": "dense_9", "inbound_nodes": [[["dense_8", 0, 0, {}]]], "config": {"units": 1, "kernel_regularizer": {"class_name": "L1L2", "config": {"l2": 4.999999873689376e-05, "l1": 0.0}}, "kernel_initializer": {"class_name": "VarianceScaling", "config": {"seed": 9035, "mode": "fan_avg", "scale": 1.0, "distribution": "normal"}}, "bias_constraint": null, "bias_initializer": {"class_name": "Zeros", "config": {}}, "bias_regularizer": null, "use_bias": true, "trainable": true, "name": "dense_9", "activation": "relu", "kernel_constraint": null, "activity_regularizer": null}}, {"class_name": "InputLayer", "name": "OnOff_E1", "inbound_nodes": [], "config": {"batch_input_shape": [null, 1], "sparse": false, "name": "OnOff_E1", "dtype": "float32"}}, {"class_name": "Dense", "name": "dense_12", "inbound_nodes": [[["dense_11", 0, 0, {}]]], "config": {"units": 1, "kernel_regularizer": {"class_name": "L1L2", "config": {"l2": 4.999999873689376e-05, "l1": 0.0}}, "kernel_initializer": {"class_name": "VarianceScaling", "config": {"seed": 9035, "mode": "fan_avg", "scale": 1.0, "distribution": "normal"}}, "bias_constraint": null, "bias_initializer": {"class_name": "Zeros", "config": {}}, "bias_regularizer": null, "use_bias": true, "trainable": true, "name": "dense_12", "activation": "relu", "kernel_constraint": null, "activity_regularizer": null}}, {"class_name": "Multiply", "name": "F1_out", "inbound_nodes": [[["OnOff_F1", 0, 0, {}], ["dense_3", 0, 0, {}]]], "config": {"trainable": true, "name": "F1_out"}}, {"class_name": "Multiply", "name": "B2_out", "inbound_nodes": [[["OnOff_B2", 0, 0, {}], ["dense_6", 0, 0, {}]]], "config": {"trainable": true, "name": "B2_out"}}, {"class_name": "Multiply", "name": "D3_out", "inbound_nodes": [[["OnOff_D3", 0, 0, {}], ["dense_9", 0, 0, {}]]], "config": {"trainable": true, "name": "D3_out"}}, {"class_name": "Multiply", "name": "E1_out", "inbound_nodes": [[["OnOff_E1", 0, 0, {}], ["dense_12", 0, 0, {}]]], "config": {"trainable": true, "name": "E1_out"}}, {"class_name": "Add", "name": "GJOA_QGAS", "inbound_nodes": [[["F1_out", 0, 0, {}], ["B2_out", 0, 0, {}], ["D3_out", 0, 0, {}], ["E1_out", 0, 0, {}]]], "config": {"trainable": true, "name": "GJOA_QGAS"}}], "output_layers": [["F1_out", 0, 0], ["B2_out", 0, 0], ["D3_out", 0, 0], ["E1_out", 0, 0], ["GJOA_QGAS", 0, 0]]}}