{"config": {"layers": [{"config": {"sparse": false, "dtype": "float32", "batch_input_shape": [null, 8], "name": "CHK_INPUT_PREV"}, "class_name": "InputLayer", "inbound_nodes": [], "name": "CHK_INPUT_PREV"}, {"config": {"sparse": false, "dtype": "float32", "batch_input_shape": [null, 8], "name": "CHK_INPUT_NOW"}, "class_name": "InputLayer", "inbound_nodes": [], "name": "CHK_INPUT_NOW"}, {"config": {"trainable": true, "name": "CHK_DELTA"}, "class_name": "Add", "inbound_nodes": [[["CHK_INPUT_PREV", 0, 0, {}], ["CHK_INPUT_NOW", 0, 0, {}]]], "name": "CHK_DELTA"}, {"config": {"trainable": true, "bias_constraint": null, "bias_initializer": {"config": {}, "class_name": "Zeros"}, "name": "C1_PDC_0", "kernel_initializer": {"config": {"distribution": "normal", "seed": 3014, "mode": "fan_avg", "scale": 1.0}, "class_name": "VarianceScaling"}, "bias_regularizer": null, "activation": "relu", "activity_regularizer": null, "kernel_regularizer": {"config": {"l2": 0.00019999999494757503, "l1": 0.0}, "class_name": "L1L2"}, "kernel_constraint": null, "units": 60, "use_bias": true}, "class_name": "Dense", "inbound_nodes": [[["CHK_DELTA", 0, 0, {}]]], "name": "C1_PDC_0"}, {"config": {"trainable": true, "bias_constraint": null, "bias_initializer": {"config": {}, "class_name": "Zeros"}, "name": "C2_PDC_0", "kernel_initializer": {"config": {"distribution": "normal", "seed": 3014, "mode": "fan_avg", "scale": 1.0}, "class_name": "VarianceScaling"}, "bias_regularizer": null, "activation": "relu", "activity_regularizer": null, "kernel_regularizer": {"config": {"l2": 0.00019999999494757503, "l1": 0.0}, "class_name": "L1L2"}, "kernel_constraint": null, "units": 60, "use_bias": true}, "class_name": "Dense", "inbound_nodes": [[["CHK_DELTA", 0, 0, {}]]], "name": "C2_PDC_0"}, {"config": {"trainable": true, "bias_constraint": null, "bias_initializer": {"config": {}, "class_name": "Zeros"}, "name": "C3_PDC_0", "kernel_initializer": {"config": {"distribution": "normal", "seed": 3014, "mode": "fan_avg", "scale": 1.0}, "class_name": "VarianceScaling"}, "bias_regularizer": null, "activation": "relu", "activity_regularizer": null, "kernel_regularizer": {"config": {"l2": 0.00019999999494757503, "l1": 0.0}, "class_name": "L1L2"}, "kernel_constraint": null, "units": 60, "use_bias": true}, "class_name": "Dense", "inbound_nodes": [[["CHK_DELTA", 0, 0, {}]]], "name": "C3_PDC_0"}, {"config": {"trainable": true, "bias_constraint": null, "bias_initializer": {"config": {}, "class_name": "Zeros"}, "name": "C4_PDC_0", "kernel_initializer": {"config": {"distribution": "normal", "seed": 3014, "mode": "fan_avg", "scale": 1.0}, "class_name": "VarianceScaling"}, "bias_regularizer": null, "activation": "relu", "activity_regularizer": null, "kernel_regularizer": {"config": {"l2": 0.00019999999494757503, "l1": 0.0}, "class_name": "L1L2"}, "kernel_constraint": null, "units": 60, "use_bias": true}, "class_name": "Dense", "inbound_nodes": [[["CHK_DELTA", 0, 0, {}]]], "name": "C4_PDC_0"}, {"config": {"trainable": true, "bias_constraint": null, "bias_initializer": {"config": {}, "class_name": "Zeros"}, "name": "B1_PDC_0", "kernel_initializer": {"config": {"distribution": "normal", "seed": 3014, "mode": "fan_avg", "scale": 1.0}, "class_name": "VarianceScaling"}, "bias_regularizer": null, "activation": "relu", "activity_regularizer": null, "kernel_regularizer": {"config": {"l2": 0.00019999999494757503, "l1": 0.0}, "class_name": "L1L2"}, "kernel_constraint": null, "units": 60, "use_bias": true}, "class_name": "Dense", "inbound_nodes": [[["CHK_DELTA", 0, 0, {}]]], "name": "B1_PDC_0"}, {"config": {"trainable": true, "bias_constraint": null, "bias_initializer": {"config": {}, "class_name": "Zeros"}, "name": "B3_PDC_0", "kernel_initializer": {"config": {"distribution": "normal", "seed": 3014, "mode": "fan_avg", "scale": 1.0}, "class_name": "VarianceScaling"}, "bias_regularizer": null, "activation": "relu", "activity_regularizer": null, "kernel_regularizer": {"config": {"l2": 0.00019999999494757503, "l1": 0.0}, "class_name": "L1L2"}, "kernel_constraint": null, "units": 60, "use_bias": true}, "class_name": "Dense", "inbound_nodes": [[["CHK_DELTA", 0, 0, {}]]], "name": "B3_PDC_0"}, {"config": {"trainable": true, "bias_constraint": null, "bias_initializer": {"config": {}, "class_name": "Zeros"}, "name": "D1_PDC_0", "kernel_initializer": {"config": {"distribution": "normal", "seed": 3014, "mode": "fan_avg", "scale": 1.0}, "class_name": "VarianceScaling"}, "bias_regularizer": null, "activation": "relu", "activity_regularizer": null, "kernel_regularizer": {"config": {"l2": 0.00019999999494757503, "l1": 0.0}, "class_name": "L1L2"}, "kernel_constraint": null, "units": 60, "use_bias": true}, "class_name": "Dense", "inbound_nodes": [[["CHK_DELTA", 0, 0, {}]]], "name": "D1_PDC_0"}, {"config": {"trainable": true, "bias_constraint": null, "bias_initializer": {"config": {}, "class_name": "Zeros"}, "name": "C1_PDC_1", "kernel_initializer": {"config": {"distribution": "normal", "seed": 3014, "mode": "fan_avg", "scale": 1.0}, "class_name": "VarianceScaling"}, "bias_regularizer": null, "activation": "relu", "activity_regularizer": null, "kernel_regularizer": {"config": {"l2": 0.00019999999494757503, "l1": 0.0}, "class_name": "L1L2"}, "kernel_constraint": null, "units": 60, "use_bias": true}, "class_name": "Dense", "inbound_nodes": [[["C1_PDC_0", 0, 0, {}]]], "name": "C1_PDC_1"}, {"config": {"trainable": true, "bias_constraint": null, "bias_initializer": {"config": {}, "class_name": "Zeros"}, "name": "C2_PDC_1", "kernel_initializer": {"config": {"distribution": "normal", "seed": 3014, "mode": "fan_avg", "scale": 1.0}, "class_name": "VarianceScaling"}, "bias_regularizer": null, "activation": "relu", "activity_regularizer": null, "kernel_regularizer": {"config": {"l2": 0.00019999999494757503, "l1": 0.0}, "class_name": "L1L2"}, "kernel_constraint": null, "units": 60, "use_bias": true}, "class_name": "Dense", "inbound_nodes": [[["C2_PDC_0", 0, 0, {}]]], "name": "C2_PDC_1"}, {"config": {"trainable": true, "bias_constraint": null, "bias_initializer": {"config": {}, "class_name": "Zeros"}, "name": "C3_PDC_1", "kernel_initializer": {"config": {"distribution": "normal", "seed": 3014, "mode": "fan_avg", "scale": 1.0}, "class_name": "VarianceScaling"}, "bias_regularizer": null, "activation": "relu", "activity_regularizer": null, "kernel_regularizer": {"config": {"l2": 0.00019999999494757503, "l1": 0.0}, "class_name": "L1L2"}, "kernel_constraint": null, "units": 60, "use_bias": true}, "class_name": "Dense", "inbound_nodes": [[["C3_PDC_0", 0, 0, {}]]], "name": "C3_PDC_1"}, {"config": {"trainable": true, "bias_constraint": null, "bias_initializer": {"config": {}, "class_name": "Zeros"}, "name": "C4_PDC_1", "kernel_initializer": {"config": {"distribution": "normal", "seed": 3014, "mode": "fan_avg", "scale": 1.0}, "class_name": "VarianceScaling"}, "bias_regularizer": null, "activation": "relu", "activity_regularizer": null, "kernel_regularizer": {"config": {"l2": 0.00019999999494757503, "l1": 0.0}, "class_name": "L1L2"}, "kernel_constraint": null, "units": 60, "use_bias": true}, "class_name": "Dense", "inbound_nodes": [[["C4_PDC_0", 0, 0, {}]]], "name": "C4_PDC_1"}, {"config": {"trainable": true, "bias_constraint": null, "bias_initializer": {"config": {}, "class_name": "Zeros"}, "name": "B1_PDC_1", "kernel_initializer": {"config": {"distribution": "normal", "seed": 3014, "mode": "fan_avg", "scale": 1.0}, "class_name": "VarianceScaling"}, "bias_regularizer": null, "activation": "relu", "activity_regularizer": null, "kernel_regularizer": {"config": {"l2": 0.00019999999494757503, "l1": 0.0}, "class_name": "L1L2"}, "kernel_constraint": null, "units": 60, "use_bias": true}, "class_name": "Dense", "inbound_nodes": [[["B1_PDC_0", 0, 0, {}]]], "name": "B1_PDC_1"}, {"config": {"trainable": true, "bias_constraint": null, "bias_initializer": {"config": {}, "class_name": "Zeros"}, "name": "B3_PDC_1", "kernel_initializer": {"config": {"distribution": "normal", "seed": 3014, "mode": "fan_avg", "scale": 1.0}, "class_name": "VarianceScaling"}, "bias_regularizer": null, "activation": "relu", "activity_regularizer": null, "kernel_regularizer": {"config": {"l2": 0.00019999999494757503, "l1": 0.0}, "class_name": "L1L2"}, "kernel_constraint": null, "units": 60, "use_bias": true}, "class_name": "Dense", "inbound_nodes": [[["B3_PDC_0", 0, 0, {}]]], "name": "B3_PDC_1"}, {"config": {"trainable": true, "bias_constraint": null, "bias_initializer": {"config": {}, "class_name": "Zeros"}, "name": "D1_PDC_1", "kernel_initializer": {"config": {"distribution": "normal", "seed": 3014, "mode": "fan_avg", "scale": 1.0}, "class_name": "VarianceScaling"}, "bias_regularizer": null, "activation": "relu", "activity_regularizer": null, "kernel_regularizer": {"config": {"l2": 0.00019999999494757503, "l1": 0.0}, "class_name": "L1L2"}, "kernel_constraint": null, "units": 60, "use_bias": true}, "class_name": "Dense", "inbound_nodes": [[["D1_PDC_0", 0, 0, {}]]], "name": "D1_PDC_1"}, {"config": {"trainable": true, "bias_constraint": null, "bias_initializer": {"config": {}, "class_name": "Zeros"}, "name": "C1_PDC_out", "kernel_initializer": {"config": {"distribution": "normal", "seed": 3014, "mode": "fan_avg", "scale": 1.0}, "class_name": "VarianceScaling"}, "bias_regularizer": null, "activation": "linear", "activity_regularizer": null, "kernel_regularizer": {"config": {"l2": 0.00019999999494757503, "l1": 0.0}, "class_name": "L1L2"}, "kernel_constraint": null, "units": 1, "use_bias": true}, "class_name": "Dense", "inbound_nodes": [[["C1_PDC_1", 0, 0, {}]]], "name": "C1_PDC_out"}, {"config": {"sparse": false, "dtype": "float32", "batch_input_shape": [null, 1], "name": "SHIFTED_PRESSURE_PDC_C1"}, "class_name": "InputLayer", "inbound_nodes": [], "name": "SHIFTED_PRESSURE_PDC_C1"}, {"config": {"trainable": true, "bias_constraint": null, "bias_initializer": {"config": {}, "class_name": "Zeros"}, "name": "C2_PDC_out", "kernel_initializer": {"config": {"distribution": "normal", "seed": 3014, "mode": "fan_avg", "scale": 1.0}, "class_name": "VarianceScaling"}, "bias_regularizer": null, "activation": "linear", "activity_regularizer": null, "kernel_regularizer": {"config": {"l2": 0.00019999999494757503, "l1": 0.0}, "class_name": "L1L2"}, "kernel_constraint": null, "units": 1, "use_bias": true}, "class_name": "Dense", "inbound_nodes": [[["C2_PDC_1", 0, 0, {}]]], "name": "C2_PDC_out"}, {"config": {"sparse": false, "dtype": "float32", "batch_input_shape": [null, 1], "name": "SHIFTED_PRESSURE_PDC_C2"}, "class_name": "InputLayer", "inbound_nodes": [], "name": "SHIFTED_PRESSURE_PDC_C2"}, {"config": {"trainable": true, "bias_constraint": null, "bias_initializer": {"config": {}, "class_name": "Zeros"}, "name": "C3_PDC_out", "kernel_initializer": {"config": {"distribution": "normal", "seed": 3014, "mode": "fan_avg", "scale": 1.0}, "class_name": "VarianceScaling"}, "bias_regularizer": null, "activation": "linear", "activity_regularizer": null, "kernel_regularizer": {"config": {"l2": 0.00019999999494757503, "l1": 0.0}, "class_name": "L1L2"}, "kernel_constraint": null, "units": 1, "use_bias": true}, "class_name": "Dense", "inbound_nodes": [[["C3_PDC_1", 0, 0, {}]]], "name": "C3_PDC_out"}, {"config": {"sparse": false, "dtype": "float32", "batch_input_shape": [null, 1], "name": "SHIFTED_PRESSURE_PDC_C3"}, "class_name": "InputLayer", "inbound_nodes": [], "name": "SHIFTED_PRESSURE_PDC_C3"}, {"config": {"trainable": true, "bias_constraint": null, "bias_initializer": {"config": {}, "class_name": "Zeros"}, "name": "C4_PDC_out", "kernel_initializer": {"config": {"distribution": "normal", "seed": 3014, "mode": "fan_avg", "scale": 1.0}, "class_name": "VarianceScaling"}, "bias_regularizer": null, "activation": "linear", "activity_regularizer": null, "kernel_regularizer": {"config": {"l2": 0.00019999999494757503, "l1": 0.0}, "class_name": "L1L2"}, "kernel_constraint": null, "units": 1, "use_bias": true}, "class_name": "Dense", "inbound_nodes": [[["C4_PDC_1", 0, 0, {}]]], "name": "C4_PDC_out"}, {"config": {"sparse": false, "dtype": "float32", "batch_input_shape": [null, 1], "name": "SHIFTED_PRESSURE_PDC_C4"}, "class_name": "InputLayer", "inbound_nodes": [], "name": "SHIFTED_PRESSURE_PDC_C4"}, {"config": {"trainable": true, "bias_constraint": null, "bias_initializer": {"config": {}, "class_name": "Zeros"}, "name": "B1_PDC_out", "kernel_initializer": {"config": {"distribution": "normal", "seed": 3014, "mode": "fan_avg", "scale": 1.0}, "class_name": "VarianceScaling"}, "bias_regularizer": null, "activation": "linear", "activity_regularizer": null, "kernel_regularizer": {"config": {"l2": 0.00019999999494757503, "l1": 0.0}, "class_name": "L1L2"}, "kernel_constraint": null, "units": 1, "use_bias": true}, "class_name": "Dense", "inbound_nodes": [[["B1_PDC_1", 0, 0, {}]]], "name": "B1_PDC_out"}, {"config": {"sparse": false, "dtype": "float32", "batch_input_shape": [null, 1], "name": "SHIFTED_PRESSURE_PDC_B1"}, "class_name": "InputLayer", "inbound_nodes": [], "name": "SHIFTED_PRESSURE_PDC_B1"}, {"config": {"trainable": true, "bias_constraint": null, "bias_initializer": {"config": {}, "class_name": "Zeros"}, "name": "B3_PDC_out", "kernel_initializer": {"config": {"distribution": "normal", "seed": 3014, "mode": "fan_avg", "scale": 1.0}, "class_name": "VarianceScaling"}, "bias_regularizer": null, "activation": "linear", "activity_regularizer": null, "kernel_regularizer": {"config": {"l2": 0.00019999999494757503, "l1": 0.0}, "class_name": "L1L2"}, "kernel_constraint": null, "units": 1, "use_bias": true}, "class_name": "Dense", "inbound_nodes": [[["B3_PDC_1", 0, 0, {}]]], "name": "B3_PDC_out"}, {"config": {"sparse": false, "dtype": "float32", "batch_input_shape": [null, 1], "name": "SHIFTED_PRESSURE_PDC_B3"}, "class_name": "InputLayer", "inbound_nodes": [], "name": "SHIFTED_PRESSURE_PDC_B3"}, {"config": {"trainable": true, "bias_constraint": null, "bias_initializer": {"config": {}, "class_name": "Zeros"}, "name": "D1_PDC_out", "kernel_initializer": {"config": {"distribution": "normal", "seed": 3014, "mode": "fan_avg", "scale": 1.0}, "class_name": "VarianceScaling"}, "bias_regularizer": null, "activation": "linear", "activity_regularizer": null, "kernel_regularizer": {"config": {"l2": 0.00019999999494757503, "l1": 0.0}, "class_name": "L1L2"}, "kernel_constraint": null, "units": 1, "use_bias": true}, "class_name": "Dense", "inbound_nodes": [[["D1_PDC_1", 0, 0, {}]]], "name": "D1_PDC_out"}, {"config": {"sparse": false, "dtype": "float32", "batch_input_shape": [null, 1], "name": "SHIFTED_PRESSURE_PDC_D1"}, "class_name": "InputLayer", "inbound_nodes": [], "name": "SHIFTED_PRESSURE_PDC_D1"}, {"config": {"trainable": true, "name": "C1_PDC_out2"}, "class_name": "Add", "inbound_nodes": [[["C1_PDC_out", 0, 0, {}], ["SHIFTED_PRESSURE_PDC_C1", 0, 0, {}]]], "name": "C1_PDC_out2"}, {"config": {"trainable": true, "name": "C2_PDC_out2"}, "class_name": "Add", "inbound_nodes": [[["C2_PDC_out", 0, 0, {}], ["SHIFTED_PRESSURE_PDC_C2", 0, 0, {}]]], "name": "C2_PDC_out2"}, {"config": {"trainable": true, "name": "C3_PDC_out2"}, "class_name": "Add", "inbound_nodes": [[["C3_PDC_out", 0, 0, {}], ["SHIFTED_PRESSURE_PDC_C3", 0, 0, {}]]], "name": "C3_PDC_out2"}, {"config": {"trainable": true, "name": "C4_PDC_out2"}, "class_name": "Add", "inbound_nodes": [[["C4_PDC_out", 0, 0, {}], ["SHIFTED_PRESSURE_PDC_C4", 0, 0, {}]]], "name": "C4_PDC_out2"}, {"config": {"trainable": true, "name": "B1_PDC_out2"}, "class_name": "Add", "inbound_nodes": [[["B1_PDC_out", 0, 0, {}], ["SHIFTED_PRESSURE_PDC_B1", 0, 0, {}]]], "name": "B1_PDC_out2"}, {"config": {"trainable": true, "name": "B3_PDC_out2"}, "class_name": "Add", "inbound_nodes": [[["B3_PDC_out", 0, 0, {}], ["SHIFTED_PRESSURE_PDC_B3", 0, 0, {}]]], "name": "B3_PDC_out2"}, {"config": {"trainable": true, "name": "D1_PDC_out2"}, "class_name": "Add", "inbound_nodes": [[["D1_PDC_out", 0, 0, {}], ["SHIFTED_PRESSURE_PDC_D1", 0, 0, {}]]], "name": "D1_PDC_out2"}], "output_layers": [["C1_PDC_out2", 0, 0], ["C2_PDC_out2", 0, 0], ["C3_PDC_out2", 0, 0], ["C4_PDC_out2", 0, 0], ["B1_PDC_out2", 0, 0], ["B3_PDC_out2", 0, 0], ["D1_PDC_out2", 0, 0]], "name": "model_1", "input_layers": [["CHK_INPUT_NOW", 0, 0], ["CHK_INPUT_PREV", 0, 0], ["SHIFTED_PRESSURE_PDC_C1", 0, 0], ["SHIFTED_PRESSURE_PDC_C2", 0, 0], ["SHIFTED_PRESSURE_PDC_C3", 0, 0], ["SHIFTED_PRESSURE_PDC_C4", 0, 0], ["SHIFTED_PRESSURE_PDC_B1", 0, 0], ["SHIFTED_PRESSURE_PDC_B3", 0, 0], ["SHIFTED_PRESSURE_PDC_D1", 0, 0]]}, "class_name": "Model", "keras_version": "2.0.1", "backend": "theano"}