{"class_name": "Model", "keras_version": "2.0.1", "backend": "theano", "config": {"name": "model_1", "input_layers": [["C1", 0, 0], ["C2", 0, 0], ["C3", 0, 0], ["C4", 0, 0], ["B1", 0, 0], ["B3", 0, 0], ["D1", 0, 0], ["OnOff_C1", 0, 0], ["OnOff_C2", 0, 0], ["OnOff_C3", 0, 0], ["OnOff_C4", 0, 0], ["OnOff_B1", 0, 0], ["OnOff_B3", 0, 0], ["OnOff_D1", 0, 0]], "layers": [{"name": "C1", "class_name": "InputLayer", "inbound_nodes": [], "config": {"name": "C1", "batch_input_shape": [null, 4], "dtype": "float32", "sparse": false}}, {"name": "C2", "class_name": "InputLayer", "inbound_nodes": [], "config": {"name": "C2", "batch_input_shape": [null, 3], "dtype": "float32", "sparse": false}}, {"name": "C3", "class_name": "InputLayer", "inbound_nodes": [], "config": {"name": "C3", "batch_input_shape": [null, 4], "dtype": "float32", "sparse": false}}, {"name": "C4", "class_name": "InputLayer", "inbound_nodes": [], "config": {"name": "C4", "batch_input_shape": [null, 4], "dtype": "float32", "sparse": false}}, {"name": "B1", "class_name": "InputLayer", "inbound_nodes": [], "config": {"name": "B1", "batch_input_shape": [null, 4], "dtype": "float32", "sparse": false}}, {"name": "B3", "class_name": "InputLayer", "inbound_nodes": [], "config": {"name": "B3", "batch_input_shape": [null, 4], "dtype": "float32", "sparse": false}}, {"name": "D1", "class_name": "InputLayer", "inbound_nodes": [], "config": {"name": "D1", "batch_input_shape": [null, 3], "dtype": "float32", "sparse": false}}, {"name": "dense_1", "class_name": "Dense", "inbound_nodes": [[["C1", 0, 0, {}]]], "config": {"bias_initializer": {"class_name": "Zeros", "config": {}}, "kernel_regularizer": {"class_name": "L1L2", "config": {"l1": 0.0, "l2": 4.999999873689376e-06}}, "bias_regularizer": null, "bias_constraint": null, "kernel_initializer": {"class_name": "VarianceScaling", "config": {"scale": 1.0, "mode": "fan_avg", "distribution": "normal", "seed": 9947}}, "kernel_constraint": null, "trainable": true, "name": "dense_1", "units": 20, "use_bias": true, "activity_regularizer": null, "activation": "relu"}}, {"name": "dense_4", "class_name": "Dense", "inbound_nodes": [[["C2", 0, 0, {}]]], "config": {"bias_initializer": {"class_name": "Zeros", "config": {}}, "kernel_regularizer": {"class_name": "L1L2", "config": {"l1": 0.0, "l2": 4.999999873689376e-06}}, "bias_regularizer": null, "bias_constraint": null, "kernel_initializer": {"class_name": "VarianceScaling", "config": {"scale": 1.0, "mode": "fan_avg", "distribution": "normal", "seed": 9947}}, "kernel_constraint": null, "trainable": true, "name": "dense_4", "units": 20, "use_bias": true, "activity_regularizer": null, "activation": "relu"}}, {"name": "dense_7", "class_name": "Dense", "inbound_nodes": [[["C3", 0, 0, {}]]], "config": {"bias_initializer": {"class_name": "Zeros", "config": {}}, "kernel_regularizer": {"class_name": "L1L2", "config": {"l1": 0.0, "l2": 4.999999873689376e-06}}, "bias_regularizer": null, "bias_constraint": null, "kernel_initializer": {"class_name": "VarianceScaling", "config": {"scale": 1.0, "mode": "fan_avg", "distribution": "normal", "seed": 9947}}, "kernel_constraint": null, "trainable": true, "name": "dense_7", "units": 20, "use_bias": true, "activity_regularizer": null, "activation": "relu"}}, {"name": "dense_10", "class_name": "Dense", "inbound_nodes": [[["C4", 0, 0, {}]]], "config": {"bias_initializer": {"class_name": "Zeros", "config": {}}, "kernel_regularizer": {"class_name": "L1L2", "config": {"l1": 0.0, "l2": 4.999999873689376e-06}}, "bias_regularizer": null, "bias_constraint": null, "kernel_initializer": {"class_name": "VarianceScaling", "config": {"scale": 1.0, "mode": "fan_avg", "distribution": "normal", "seed": 9947}}, "kernel_constraint": null, "trainable": true, "name": "dense_10", "units": 20, "use_bias": true, "activity_regularizer": null, "activation": "relu"}}, {"name": "dense_13", "class_name": "Dense", "inbound_nodes": [[["B1", 0, 0, {}]]], "config": {"bias_initializer": {"class_name": "Zeros", "config": {}}, "kernel_regularizer": {"class_name": "L1L2", "config": {"l1": 0.0, "l2": 4.999999873689376e-06}}, "bias_regularizer": null, "bias_constraint": null, "kernel_initializer": {"class_name": "VarianceScaling", "config": {"scale": 1.0, "mode": "fan_avg", "distribution": "normal", "seed": 9947}}, "kernel_constraint": null, "trainable": true, "name": "dense_13", "units": 20, "use_bias": true, "activity_regularizer": null, "activation": "relu"}}, {"name": "dense_16", "class_name": "Dense", "inbound_nodes": [[["B3", 0, 0, {}]]], "config": {"bias_initializer": {"class_name": "Zeros", "config": {}}, "kernel_regularizer": {"class_name": "L1L2", "config": {"l1": 0.0, "l2": 4.999999873689376e-06}}, "bias_regularizer": null, "bias_constraint": null, "kernel_initializer": {"class_name": "VarianceScaling", "config": {"scale": 1.0, "mode": "fan_avg", "distribution": "normal", "seed": 9947}}, "kernel_constraint": null, "trainable": true, "name": "dense_16", "units": 20, "use_bias": true, "activity_regularizer": null, "activation": "relu"}}, {"name": "dense_19", "class_name": "Dense", "inbound_nodes": [[["D1", 0, 0, {}]]], "config": {"bias_initializer": {"class_name": "Zeros", "config": {}}, "kernel_regularizer": {"class_name": "L1L2", "config": {"l1": 0.0, "l2": 4.999999873689376e-06}}, "bias_regularizer": null, "bias_constraint": null, "kernel_initializer": {"class_name": "VarianceScaling", "config": {"scale": 1.0, "mode": "fan_avg", "distribution": "normal", "seed": 9947}}, "kernel_constraint": null, "trainable": true, "name": "dense_19", "units": 20, "use_bias": true, "activity_regularizer": null, "activation": "relu"}}, {"name": "dropout_1", "class_name": "Dropout", "inbound_nodes": [[["dense_1", 0, 0, {}]]], "config": {"name": "dropout_1", "rate": 0.1, "trainable": true}}, {"name": "dropout_2", "class_name": "Dropout", "inbound_nodes": [[["dense_4", 0, 0, {}]]], "config": {"name": "dropout_2", "rate": 0.1, "trainable": true}}, {"name": "dropout_3", "class_name": "Dropout", "inbound_nodes": [[["dense_7", 0, 0, {}]]], "config": {"name": "dropout_3", "rate": 0.1, "trainable": true}}, {"name": "dropout_4", "class_name": "Dropout", "inbound_nodes": [[["dense_10", 0, 0, {}]]], "config": {"name": "dropout_4", "rate": 0.1, "trainable": true}}, {"name": "dropout_5", "class_name": "Dropout", "inbound_nodes": [[["dense_13", 0, 0, {}]]], "config": {"name": "dropout_5", "rate": 0.1, "trainable": true}}, {"name": "dropout_6", "class_name": "Dropout", "inbound_nodes": [[["dense_16", 0, 0, {}]]], "config": {"name": "dropout_6", "rate": 0.1, "trainable": true}}, {"name": "dropout_7", "class_name": "Dropout", "inbound_nodes": [[["dense_19", 0, 0, {}]]], "config": {"name": "dropout_7", "rate": 0.1, "trainable": true}}, {"name": "dense_2", "class_name": "Dense", "inbound_nodes": [[["dropout_1", 0, 0, {}]]], "config": {"bias_initializer": {"class_name": "Zeros", "config": {}}, "kernel_regularizer": {"class_name": "L1L2", "config": {"l1": 0.0, "l2": 4.999999873689376e-06}}, "bias_regularizer": null, "bias_constraint": null, "kernel_initializer": {"class_name": "VarianceScaling", "config": {"scale": 1.0, "mode": "fan_avg", "distribution": "normal", "seed": 9947}}, "kernel_constraint": null, "trainable": true, "name": "dense_2", "units": 20, "use_bias": true, "activity_regularizer": null, "activation": "relu"}}, {"name": "dense_5", "class_name": "Dense", "inbound_nodes": [[["dropout_2", 0, 0, {}]]], "config": {"bias_initializer": {"class_name": "Zeros", "config": {}}, "kernel_regularizer": {"class_name": "L1L2", "config": {"l1": 0.0, "l2": 4.999999873689376e-06}}, "bias_regularizer": null, "bias_constraint": null, "kernel_initializer": {"class_name": "VarianceScaling", "config": {"scale": 1.0, "mode": "fan_avg", "distribution": "normal", "seed": 9947}}, "kernel_constraint": null, "trainable": true, "name": "dense_5", "units": 20, "use_bias": true, "activity_regularizer": null, "activation": "relu"}}, {"name": "dense_8", "class_name": "Dense", "inbound_nodes": [[["dropout_3", 0, 0, {}]]], "config": {"bias_initializer": {"class_name": "Zeros", "config": {}}, "kernel_regularizer": {"class_name": "L1L2", "config": {"l1": 0.0, "l2": 4.999999873689376e-06}}, "bias_regularizer": null, "bias_constraint": null, "kernel_initializer": {"class_name": "VarianceScaling", "config": {"scale": 1.0, "mode": "fan_avg", "distribution": "normal", "seed": 9947}}, "kernel_constraint": null, "trainable": true, "name": "dense_8", "units": 20, "use_bias": true, "activity_regularizer": null, "activation": "relu"}}, {"name": "dense_11", "class_name": "Dense", "inbound_nodes": [[["dropout_4", 0, 0, {}]]], "config": {"bias_initializer": {"class_name": "Zeros", "config": {}}, "kernel_regularizer": {"class_name": "L1L2", "config": {"l1": 0.0, "l2": 4.999999873689376e-06}}, "bias_regularizer": null, "bias_constraint": null, "kernel_initializer": {"class_name": "VarianceScaling", "config": {"scale": 1.0, "mode": "fan_avg", "distribution": "normal", "seed": 9947}}, "kernel_constraint": null, "trainable": true, "name": "dense_11", "units": 20, "use_bias": true, "activity_regularizer": null, "activation": "relu"}}, {"name": "dense_14", "class_name": "Dense", "inbound_nodes": [[["dropout_5", 0, 0, {}]]], "config": {"bias_initializer": {"class_name": "Zeros", "config": {}}, "kernel_regularizer": {"class_name": "L1L2", "config": {"l1": 0.0, "l2": 4.999999873689376e-06}}, "bias_regularizer": null, "bias_constraint": null, "kernel_initializer": {"class_name": "VarianceScaling", "config": {"scale": 1.0, "mode": "fan_avg", "distribution": "normal", "seed": 9947}}, "kernel_constraint": null, "trainable": true, "name": "dense_14", "units": 20, "use_bias": true, "activity_regularizer": null, "activation": "relu"}}, {"name": "dense_17", "class_name": "Dense", "inbound_nodes": [[["dropout_6", 0, 0, {}]]], "config": {"bias_initializer": {"class_name": "Zeros", "config": {}}, "kernel_regularizer": {"class_name": "L1L2", "config": {"l1": 0.0, "l2": 4.999999873689376e-06}}, "bias_regularizer": null, "bias_constraint": null, "kernel_initializer": {"class_name": "VarianceScaling", "config": {"scale": 1.0, "mode": "fan_avg", "distribution": "normal", "seed": 9947}}, "kernel_constraint": null, "trainable": true, "name": "dense_17", "units": 20, "use_bias": true, "activity_regularizer": null, "activation": "relu"}}, {"name": "dense_20", "class_name": "Dense", "inbound_nodes": [[["dropout_7", 0, 0, {}]]], "config": {"bias_initializer": {"class_name": "Zeros", "config": {}}, "kernel_regularizer": {"class_name": "L1L2", "config": {"l1": 0.0, "l2": 4.999999873689376e-06}}, "bias_regularizer": null, "bias_constraint": null, "kernel_initializer": {"class_name": "VarianceScaling", "config": {"scale": 1.0, "mode": "fan_avg", "distribution": "normal", "seed": 9947}}, "kernel_constraint": null, "trainable": true, "name": "dense_20", "units": 20, "use_bias": true, "activity_regularizer": null, "activation": "relu"}}, {"name": "OnOff_C1", "class_name": "InputLayer", "inbound_nodes": [], "config": {"name": "OnOff_C1", "batch_input_shape": [null, 1], "dtype": "float32", "sparse": false}}, {"name": "dense_3", "class_name": "Dense", "inbound_nodes": [[["dense_2", 0, 0, {}]]], "config": {"bias_initializer": {"class_name": "Zeros", "config": {}}, "kernel_regularizer": {"class_name": "L1L2", "config": {"l1": 0.0, "l2": 4.999999873689376e-06}}, "bias_regularizer": null, "bias_constraint": null, "kernel_initializer": {"class_name": "VarianceScaling", "config": {"scale": 1.0, "mode": "fan_avg", "distribution": "normal", "seed": 9947}}, "kernel_constraint": null, "trainable": true, "name": "dense_3", "units": 1, "use_bias": true, "activity_regularizer": null, "activation": "relu"}}, {"name": "OnOff_C2", "class_name": "InputLayer", "inbound_nodes": [], "config": {"name": "OnOff_C2", "batch_input_shape": [null, 1], "dtype": "float32", "sparse": false}}, {"name": "dense_6", "class_name": "Dense", "inbound_nodes": [[["dense_5", 0, 0, {}]]], "config": {"bias_initializer": {"class_name": "Zeros", "config": {}}, "kernel_regularizer": {"class_name": "L1L2", "config": {"l1": 0.0, "l2": 4.999999873689376e-06}}, "bias_regularizer": null, "bias_constraint": null, "kernel_initializer": {"class_name": "VarianceScaling", "config": {"scale": 1.0, "mode": "fan_avg", "distribution": "normal", "seed": 9947}}, "kernel_constraint": null, "trainable": true, "name": "dense_6", "units": 1, "use_bias": true, "activity_regularizer": null, "activation": "relu"}}, {"name": "OnOff_C3", "class_name": "InputLayer", "inbound_nodes": [], "config": {"name": "OnOff_C3", "batch_input_shape": [null, 1], "dtype": "float32", "sparse": false}}, {"name": "dense_9", "class_name": "Dense", "inbound_nodes": [[["dense_8", 0, 0, {}]]], "config": {"bias_initializer": {"class_name": "Zeros", "config": {}}, "kernel_regularizer": {"class_name": "L1L2", "config": {"l1": 0.0, "l2": 4.999999873689376e-06}}, "bias_regularizer": null, "bias_constraint": null, "kernel_initializer": {"class_name": "VarianceScaling", "config": {"scale": 1.0, "mode": "fan_avg", "distribution": "normal", "seed": 9947}}, "kernel_constraint": null, "trainable": true, "name": "dense_9", "units": 1, "use_bias": true, "activity_regularizer": null, "activation": "relu"}}, {"name": "OnOff_C4", "class_name": "InputLayer", "inbound_nodes": [], "config": {"name": "OnOff_C4", "batch_input_shape": [null, 1], "dtype": "float32", "sparse": false}}, {"name": "dense_12", "class_name": "Dense", "inbound_nodes": [[["dense_11", 0, 0, {}]]], "config": {"bias_initializer": {"class_name": "Zeros", "config": {}}, "kernel_regularizer": {"class_name": "L1L2", "config": {"l1": 0.0, "l2": 4.999999873689376e-06}}, "bias_regularizer": null, "bias_constraint": null, "kernel_initializer": {"class_name": "VarianceScaling", "config": {"scale": 1.0, "mode": "fan_avg", "distribution": "normal", "seed": 9947}}, "kernel_constraint": null, "trainable": true, "name": "dense_12", "units": 1, "use_bias": true, "activity_regularizer": null, "activation": "relu"}}, {"name": "OnOff_B1", "class_name": "InputLayer", "inbound_nodes": [], "config": {"name": "OnOff_B1", "batch_input_shape": [null, 1], "dtype": "float32", "sparse": false}}, {"name": "dense_15", "class_name": "Dense", "inbound_nodes": [[["dense_14", 0, 0, {}]]], "config": {"bias_initializer": {"class_name": "Zeros", "config": {}}, "kernel_regularizer": {"class_name": "L1L2", "config": {"l1": 0.0, "l2": 4.999999873689376e-06}}, "bias_regularizer": null, "bias_constraint": null, "kernel_initializer": {"class_name": "VarianceScaling", "config": {"scale": 1.0, "mode": "fan_avg", "distribution": "normal", "seed": 9947}}, "kernel_constraint": null, "trainable": true, "name": "dense_15", "units": 1, "use_bias": true, "activity_regularizer": null, "activation": "relu"}}, {"name": "OnOff_B3", "class_name": "InputLayer", "inbound_nodes": [], "config": {"name": "OnOff_B3", "batch_input_shape": [null, 1], "dtype": "float32", "sparse": false}}, {"name": "dense_18", "class_name": "Dense", "inbound_nodes": [[["dense_17", 0, 0, {}]]], "config": {"bias_initializer": {"class_name": "Zeros", "config": {}}, "kernel_regularizer": {"class_name": "L1L2", "config": {"l1": 0.0, "l2": 4.999999873689376e-06}}, "bias_regularizer": null, "bias_constraint": null, "kernel_initializer": {"class_name": "VarianceScaling", "config": {"scale": 1.0, "mode": "fan_avg", "distribution": "normal", "seed": 9947}}, "kernel_constraint": null, "trainable": true, "name": "dense_18", "units": 1, "use_bias": true, "activity_regularizer": null, "activation": "relu"}}, {"name": "OnOff_D1", "class_name": "InputLayer", "inbound_nodes": [], "config": {"name": "OnOff_D1", "batch_input_shape": [null, 1], "dtype": "float32", "sparse": false}}, {"name": "dense_21", "class_name": "Dense", "inbound_nodes": [[["dense_20", 0, 0, {}]]], "config": {"bias_initializer": {"class_name": "Zeros", "config": {}}, "kernel_regularizer": {"class_name": "L1L2", "config": {"l1": 0.0, "l2": 4.999999873689376e-06}}, "bias_regularizer": null, "bias_constraint": null, "kernel_initializer": {"class_name": "VarianceScaling", "config": {"scale": 1.0, "mode": "fan_avg", "distribution": "normal", "seed": 9947}}, "kernel_constraint": null, "trainable": true, "name": "dense_21", "units": 1, "use_bias": true, "activity_regularizer": null, "activation": "relu"}}, {"name": "C1_out", "class_name": "Multiply", "inbound_nodes": [[["OnOff_C1", 0, 0, {}], ["dense_3", 0, 0, {}]]], "config": {"name": "C1_out", "trainable": true}}, {"name": "C2_out", "class_name": "Multiply", "inbound_nodes": [[["OnOff_C2", 0, 0, {}], ["dense_6", 0, 0, {}]]], "config": {"name": "C2_out", "trainable": true}}, {"name": "C3_out", "class_name": "Multiply", "inbound_nodes": [[["OnOff_C3", 0, 0, {}], ["dense_9", 0, 0, {}]]], "config": {"name": "C3_out", "trainable": true}}, {"name": "C4_out", "class_name": "Multiply", "inbound_nodes": [[["OnOff_C4", 0, 0, {}], ["dense_12", 0, 0, {}]]], "config": {"name": "C4_out", "trainable": true}}, {"name": "B1_out", "class_name": "Multiply", "inbound_nodes": [[["OnOff_B1", 0, 0, {}], ["dense_15", 0, 0, {}]]], "config": {"name": "B1_out", "trainable": true}}, {"name": "B3_out", "class_name": "Multiply", "inbound_nodes": [[["OnOff_B3", 0, 0, {}], ["dense_18", 0, 0, {}]]], "config": {"name": "B3_out", "trainable": true}}, {"name": "D1_out", "class_name": "Multiply", "inbound_nodes": [[["OnOff_D1", 0, 0, {}], ["dense_21", 0, 0, {}]]], "config": {"name": "D1_out", "trainable": true}}, {"name": "GJOA_TOTAL", "class_name": "Add", "inbound_nodes": [[["C1_out", 0, 0, {}], ["C2_out", 0, 0, {}], ["C3_out", 0, 0, {}], ["C4_out", 0, 0, {}], ["B1_out", 0, 0, {}], ["B3_out", 0, 0, {}], ["D1_out", 0, 0, {}]]], "config": {"name": "GJOA_TOTAL", "trainable": true}}], "output_layers": [["C1_out", 0, 0], ["C2_out", 0, 0], ["C3_out", 0, 0], ["C4_out", 0, 0], ["B1_out", 0, 0], ["B3_out", 0, 0], ["D1_out", 0, 0], ["GJOA_TOTAL", 0, 0]]}}