{"keras_version": "2.0.1", "backend": "theano", "class_name": "Model", "config": {"output_layers": [["C1_PWH_out2", 0, 0], ["C1_PWH_out", 0, 0], ["C2_PWH_out2", 0, 0], ["C2_PWH_out", 0, 0], ["C3_PWH_out2", 0, 0], ["C3_PWH_out", 0, 0], ["C4_PWH_out2", 0, 0], ["C4_PWH_out", 0, 0], ["B1_PWH_out2", 0, 0], ["B1_PWH_out", 0, 0], ["B3_PWH_out2", 0, 0], ["B3_PWH_out", 0, 0], ["D1_PWH_out2", 0, 0], ["D1_PWH_out", 0, 0]], "name": "model_1", "layers": [{"name": "CHK_INPUT_PREV", "class_name": "InputLayer", "inbound_nodes": [], "config": {"name": "CHK_INPUT_PREV", "batch_input_shape": [null, 8], "dtype": "float32", "sparse": false}}, {"name": "CHK_INPUT_NOW", "class_name": "InputLayer", "inbound_nodes": [], "config": {"name": "CHK_INPUT_NOW", "batch_input_shape": [null, 8], "dtype": "float32", "sparse": false}}, {"name": "CHK_DELTA", "class_name": "Add", "inbound_nodes": [[["CHK_INPUT_PREV", 0, 0, {}], ["CHK_INPUT_NOW", 0, 0, {}]]], "config": {"name": "CHK_DELTA", "trainable": true}}, {"name": "C1_PWH_0", "class_name": "Dense", "inbound_nodes": [[["CHK_DELTA", 0, 0, {}]]], "config": {"bias_initializer": {"class_name": "Zeros", "config": {}}, "bias_constraint": null, "kernel_constraint": null, "kernel_initializer": {"class_name": "VarianceScaling", "config": {"seed": 3014, "scale": 1.0, "mode": "fan_avg", "distribution": "normal"}}, "kernel_regularizer": {"class_name": "L1L2", "config": {"l1": 0.0, "l2": 9.999999747378752e-06}}, "activation": "relu", "units": 90, "name": "C1_PWH_0", "activity_regularizer": null, "trainable": true, "use_bias": true, "bias_regularizer": null}}, {"name": "C2_PWH_0", "class_name": "Dense", "inbound_nodes": [[["CHK_DELTA", 0, 0, {}]]], "config": {"bias_initializer": {"class_name": "Zeros", "config": {}}, "bias_constraint": null, "kernel_constraint": null, "kernel_initializer": {"class_name": "VarianceScaling", "config": {"seed": 3014, "scale": 1.0, "mode": "fan_avg", "distribution": "normal"}}, "kernel_regularizer": {"class_name": "L1L2", "config": {"l1": 0.0, "l2": 9.999999747378752e-06}}, "activation": "relu", "units": 90, "name": "C2_PWH_0", "activity_regularizer": null, "trainable": true, "use_bias": true, "bias_regularizer": null}}, {"name": "C3_PWH_0", "class_name": "Dense", "inbound_nodes": [[["CHK_DELTA", 0, 0, {}]]], "config": {"bias_initializer": {"class_name": "Zeros", "config": {}}, "bias_constraint": null, "kernel_constraint": null, "kernel_initializer": {"class_name": "VarianceScaling", "config": {"seed": 3014, "scale": 1.0, "mode": "fan_avg", "distribution": "normal"}}, "kernel_regularizer": {"class_name": "L1L2", "config": {"l1": 0.0, "l2": 9.999999747378752e-06}}, "activation": "relu", "units": 90, "name": "C3_PWH_0", "activity_regularizer": null, "trainable": true, "use_bias": true, "bias_regularizer": null}}, {"name": "C4_PWH_0", "class_name": "Dense", "inbound_nodes": [[["CHK_DELTA", 0, 0, {}]]], "config": {"bias_initializer": {"class_name": "Zeros", "config": {}}, "bias_constraint": null, "kernel_constraint": null, "kernel_initializer": {"class_name": "VarianceScaling", "config": {"seed": 3014, "scale": 1.0, "mode": "fan_avg", "distribution": "normal"}}, "kernel_regularizer": {"class_name": "L1L2", "config": {"l1": 0.0, "l2": 9.999999747378752e-06}}, "activation": "relu", "units": 90, "name": "C4_PWH_0", "activity_regularizer": null, "trainable": true, "use_bias": true, "bias_regularizer": null}}, {"name": "B1_PWH_0", "class_name": "Dense", "inbound_nodes": [[["CHK_DELTA", 0, 0, {}]]], "config": {"bias_initializer": {"class_name": "Zeros", "config": {}}, "bias_constraint": null, "kernel_constraint": null, "kernel_initializer": {"class_name": "VarianceScaling", "config": {"seed": 3014, "scale": 1.0, "mode": "fan_avg", "distribution": "normal"}}, "kernel_regularizer": {"class_name": "L1L2", "config": {"l1": 0.0, "l2": 9.999999747378752e-06}}, "activation": "relu", "units": 90, "name": "B1_PWH_0", "activity_regularizer": null, "trainable": true, "use_bias": true, "bias_regularizer": null}}, {"name": "B3_PWH_0", "class_name": "Dense", "inbound_nodes": [[["CHK_DELTA", 0, 0, {}]]], "config": {"bias_initializer": {"class_name": "Zeros", "config": {}}, "bias_constraint": null, "kernel_constraint": null, "kernel_initializer": {"class_name": "VarianceScaling", "config": {"seed": 3014, "scale": 1.0, "mode": "fan_avg", "distribution": "normal"}}, "kernel_regularizer": {"class_name": "L1L2", "config": {"l1": 0.0, "l2": 9.999999747378752e-06}}, "activation": "relu", "units": 90, "name": "B3_PWH_0", "activity_regularizer": null, "trainable": true, "use_bias": true, "bias_regularizer": null}}, {"name": "D1_PWH_0", "class_name": "Dense", "inbound_nodes": [[["CHK_DELTA", 0, 0, {}]]], "config": {"bias_initializer": {"class_name": "Zeros", "config": {}}, "bias_constraint": null, "kernel_constraint": null, "kernel_initializer": {"class_name": "VarianceScaling", "config": {"seed": 3014, "scale": 1.0, "mode": "fan_avg", "distribution": "normal"}}, "kernel_regularizer": {"class_name": "L1L2", "config": {"l1": 0.0, "l2": 9.999999747378752e-06}}, "activation": "relu", "units": 90, "name": "D1_PWH_0", "activity_regularizer": null, "trainable": true, "use_bias": true, "bias_regularizer": null}}, {"name": "C1_PWH_1", "class_name": "Dense", "inbound_nodes": [[["C1_PWH_0", 0, 0, {}]]], "config": {"bias_initializer": {"class_name": "Zeros", "config": {}}, "bias_constraint": null, "kernel_constraint": null, "kernel_initializer": {"class_name": "VarianceScaling", "config": {"seed": 3014, "scale": 1.0, "mode": "fan_avg", "distribution": "normal"}}, "kernel_regularizer": {"class_name": "L1L2", "config": {"l1": 0.0, "l2": 9.999999747378752e-06}}, "activation": "relu", "units": 90, "name": "C1_PWH_1", "activity_regularizer": null, "trainable": true, "use_bias": true, "bias_regularizer": null}}, {"name": "C2_PWH_1", "class_name": "Dense", "inbound_nodes": [[["C2_PWH_0", 0, 0, {}]]], "config": {"bias_initializer": {"class_name": "Zeros", "config": {}}, "bias_constraint": null, "kernel_constraint": null, "kernel_initializer": {"class_name": "VarianceScaling", "config": {"seed": 3014, "scale": 1.0, "mode": "fan_avg", "distribution": "normal"}}, "kernel_regularizer": {"class_name": "L1L2", "config": {"l1": 0.0, "l2": 9.999999747378752e-06}}, "activation": "relu", "units": 90, "name": "C2_PWH_1", "activity_regularizer": null, "trainable": true, "use_bias": true, "bias_regularizer": null}}, {"name": "C3_PWH_1", "class_name": "Dense", "inbound_nodes": [[["C3_PWH_0", 0, 0, {}]]], "config": {"bias_initializer": {"class_name": "Zeros", "config": {}}, "bias_constraint": null, "kernel_constraint": null, "kernel_initializer": {"class_name": "VarianceScaling", "config": {"seed": 3014, "scale": 1.0, "mode": "fan_avg", "distribution": "normal"}}, "kernel_regularizer": {"class_name": "L1L2", "config": {"l1": 0.0, "l2": 9.999999747378752e-06}}, "activation": "relu", "units": 90, "name": "C3_PWH_1", "activity_regularizer": null, "trainable": true, "use_bias": true, "bias_regularizer": null}}, {"name": "C4_PWH_1", "class_name": "Dense", "inbound_nodes": [[["C4_PWH_0", 0, 0, {}]]], "config": {"bias_initializer": {"class_name": "Zeros", "config": {}}, "bias_constraint": null, "kernel_constraint": null, "kernel_initializer": {"class_name": "VarianceScaling", "config": {"seed": 3014, "scale": 1.0, "mode": "fan_avg", "distribution": "normal"}}, "kernel_regularizer": {"class_name": "L1L2", "config": {"l1": 0.0, "l2": 9.999999747378752e-06}}, "activation": "relu", "units": 90, "name": "C4_PWH_1", "activity_regularizer": null, "trainable": true, "use_bias": true, "bias_regularizer": null}}, {"name": "B1_PWH_1", "class_name": "Dense", "inbound_nodes": [[["B1_PWH_0", 0, 0, {}]]], "config": {"bias_initializer": {"class_name": "Zeros", "config": {}}, "bias_constraint": null, "kernel_constraint": null, "kernel_initializer": {"class_name": "VarianceScaling", "config": {"seed": 3014, "scale": 1.0, "mode": "fan_avg", "distribution": "normal"}}, "kernel_regularizer": {"class_name": "L1L2", "config": {"l1": 0.0, "l2": 9.999999747378752e-06}}, "activation": "relu", "units": 90, "name": "B1_PWH_1", "activity_regularizer": null, "trainable": true, "use_bias": true, "bias_regularizer": null}}, {"name": "B3_PWH_1", "class_name": "Dense", "inbound_nodes": [[["B3_PWH_0", 0, 0, {}]]], "config": {"bias_initializer": {"class_name": "Zeros", "config": {}}, "bias_constraint": null, "kernel_constraint": null, "kernel_initializer": {"class_name": "VarianceScaling", "config": {"seed": 3014, "scale": 1.0, "mode": "fan_avg", "distribution": "normal"}}, "kernel_regularizer": {"class_name": "L1L2", "config": {"l1": 0.0, "l2": 9.999999747378752e-06}}, "activation": "relu", "units": 90, "name": "B3_PWH_1", "activity_regularizer": null, "trainable": true, "use_bias": true, "bias_regularizer": null}}, {"name": "D1_PWH_1", "class_name": "Dense", "inbound_nodes": [[["D1_PWH_0", 0, 0, {}]]], "config": {"bias_initializer": {"class_name": "Zeros", "config": {}}, "bias_constraint": null, "kernel_constraint": null, "kernel_initializer": {"class_name": "VarianceScaling", "config": {"seed": 3014, "scale": 1.0, "mode": "fan_avg", "distribution": "normal"}}, "kernel_regularizer": {"class_name": "L1L2", "config": {"l1": 0.0, "l2": 9.999999747378752e-06}}, "activation": "relu", "units": 90, "name": "D1_PWH_1", "activity_regularizer": null, "trainable": true, "use_bias": true, "bias_regularizer": null}}, {"name": "C1_PWH_out", "class_name": "Dense", "inbound_nodes": [[["C1_PWH_1", 0, 0, {}]]], "config": {"bias_initializer": {"class_name": "Zeros", "config": {}}, "bias_constraint": null, "kernel_constraint": null, "kernel_initializer": {"class_name": "VarianceScaling", "config": {"seed": 3014, "scale": 1.0, "mode": "fan_avg", "distribution": "normal"}}, "kernel_regularizer": {"class_name": "L1L2", "config": {"l1": 0.0, "l2": 9.999999747378752e-06}}, "activation": "linear", "units": 1, "name": "C1_PWH_out", "activity_regularizer": null, "trainable": true, "use_bias": true, "bias_regularizer": null}}, {"name": "SHIFTED_PRESSURE_PWH_C1", "class_name": "InputLayer", "inbound_nodes": [], "config": {"name": "SHIFTED_PRESSURE_PWH_C1", "batch_input_shape": [null, 1], "dtype": "float32", "sparse": false}}, {"name": "C2_PWH_out", "class_name": "Dense", "inbound_nodes": [[["C2_PWH_1", 0, 0, {}]]], "config": {"bias_initializer": {"class_name": "Zeros", "config": {}}, "bias_constraint": null, "kernel_constraint": null, "kernel_initializer": {"class_name": "VarianceScaling", "config": {"seed": 3014, "scale": 1.0, "mode": "fan_avg", "distribution": "normal"}}, "kernel_regularizer": {"class_name": "L1L2", "config": {"l1": 0.0, "l2": 9.999999747378752e-06}}, "activation": "linear", "units": 1, "name": "C2_PWH_out", "activity_regularizer": null, "trainable": true, "use_bias": true, "bias_regularizer": null}}, {"name": "SHIFTED_PRESSURE_PWH_C2", "class_name": "InputLayer", "inbound_nodes": [], "config": {"name": "SHIFTED_PRESSURE_PWH_C2", "batch_input_shape": [null, 1], "dtype": "float32", "sparse": false}}, {"name": "C3_PWH_out", "class_name": "Dense", "inbound_nodes": [[["C3_PWH_1", 0, 0, {}]]], "config": {"bias_initializer": {"class_name": "Zeros", "config": {}}, "bias_constraint": null, "kernel_constraint": null, "kernel_initializer": {"class_name": "VarianceScaling", "config": {"seed": 3014, "scale": 1.0, "mode": "fan_avg", "distribution": "normal"}}, "kernel_regularizer": {"class_name": "L1L2", "config": {"l1": 0.0, "l2": 9.999999747378752e-06}}, "activation": "linear", "units": 1, "name": "C3_PWH_out", "activity_regularizer": null, "trainable": true, "use_bias": true, "bias_regularizer": null}}, {"name": "SHIFTED_PRESSURE_PWH_C3", "class_name": "InputLayer", "inbound_nodes": [], "config": {"name": "SHIFTED_PRESSURE_PWH_C3", "batch_input_shape": [null, 1], "dtype": "float32", "sparse": false}}, {"name": "C4_PWH_out", "class_name": "Dense", "inbound_nodes": [[["C4_PWH_1", 0, 0, {}]]], "config": {"bias_initializer": {"class_name": "Zeros", "config": {}}, "bias_constraint": null, "kernel_constraint": null, "kernel_initializer": {"class_name": "VarianceScaling", "config": {"seed": 3014, "scale": 1.0, "mode": "fan_avg", "distribution": "normal"}}, "kernel_regularizer": {"class_name": "L1L2", "config": {"l1": 0.0, "l2": 9.999999747378752e-06}}, "activation": "linear", "units": 1, "name": "C4_PWH_out", "activity_regularizer": null, "trainable": true, "use_bias": true, "bias_regularizer": null}}, {"name": "SHIFTED_PRESSURE_PWH_C4", "class_name": "InputLayer", "inbound_nodes": [], "config": {"name": "SHIFTED_PRESSURE_PWH_C4", "batch_input_shape": [null, 1], "dtype": "float32", "sparse": false}}, {"name": "B1_PWH_out", "class_name": "Dense", "inbound_nodes": [[["B1_PWH_1", 0, 0, {}]]], "config": {"bias_initializer": {"class_name": "Zeros", "config": {}}, "bias_constraint": null, "kernel_constraint": null, "kernel_initializer": {"class_name": "VarianceScaling", "config": {"seed": 3014, "scale": 1.0, "mode": "fan_avg", "distribution": "normal"}}, "kernel_regularizer": {"class_name": "L1L2", "config": {"l1": 0.0, "l2": 9.999999747378752e-06}}, "activation": "linear", "units": 1, "name": "B1_PWH_out", "activity_regularizer": null, "trainable": true, "use_bias": true, "bias_regularizer": null}}, {"name": "SHIFTED_PRESSURE_PWH_B1", "class_name": "InputLayer", "inbound_nodes": [], "config": {"name": "SHIFTED_PRESSURE_PWH_B1", "batch_input_shape": [null, 1], "dtype": "float32", "sparse": false}}, {"name": "B3_PWH_out", "class_name": "Dense", "inbound_nodes": [[["B3_PWH_1", 0, 0, {}]]], "config": {"bias_initializer": {"class_name": "Zeros", "config": {}}, "bias_constraint": null, "kernel_constraint": null, "kernel_initializer": {"class_name": "VarianceScaling", "config": {"seed": 3014, "scale": 1.0, "mode": "fan_avg", "distribution": "normal"}}, "kernel_regularizer": {"class_name": "L1L2", "config": {"l1": 0.0, "l2": 9.999999747378752e-06}}, "activation": "linear", "units": 1, "name": "B3_PWH_out", "activity_regularizer": null, "trainable": true, "use_bias": true, "bias_regularizer": null}}, {"name": "SHIFTED_PRESSURE_PWH_B3", "class_name": "InputLayer", "inbound_nodes": [], "config": {"name": "SHIFTED_PRESSURE_PWH_B3", "batch_input_shape": [null, 1], "dtype": "float32", "sparse": false}}, {"name": "D1_PWH_out", "class_name": "Dense", "inbound_nodes": [[["D1_PWH_1", 0, 0, {}]]], "config": {"bias_initializer": {"class_name": "Zeros", "config": {}}, "bias_constraint": null, "kernel_constraint": null, "kernel_initializer": {"class_name": "VarianceScaling", "config": {"seed": 3014, "scale": 1.0, "mode": "fan_avg", "distribution": "normal"}}, "kernel_regularizer": {"class_name": "L1L2", "config": {"l1": 0.0, "l2": 9.999999747378752e-06}}, "activation": "linear", "units": 1, "name": "D1_PWH_out", "activity_regularizer": null, "trainable": true, "use_bias": true, "bias_regularizer": null}}, {"name": "SHIFTED_PRESSURE_PWH_D1", "class_name": "InputLayer", "inbound_nodes": [], "config": {"name": "SHIFTED_PRESSURE_PWH_D1", "batch_input_shape": [null, 1], "dtype": "float32", "sparse": false}}, {"name": "C1_PWH_out2", "class_name": "Add", "inbound_nodes": [[["C1_PWH_out", 0, 0, {}], ["SHIFTED_PRESSURE_PWH_C1", 0, 0, {}]]], "config": {"name": "C1_PWH_out2", "trainable": true}}, {"name": "C2_PWH_out2", "class_name": "Add", "inbound_nodes": [[["C2_PWH_out", 0, 0, {}], ["SHIFTED_PRESSURE_PWH_C2", 0, 0, {}]]], "config": {"name": "C2_PWH_out2", "trainable": true}}, {"name": "C3_PWH_out2", "class_name": "Add", "inbound_nodes": [[["C3_PWH_out", 0, 0, {}], ["SHIFTED_PRESSURE_PWH_C3", 0, 0, {}]]], "config": {"name": "C3_PWH_out2", "trainable": true}}, {"name": "C4_PWH_out2", "class_name": "Add", "inbound_nodes": [[["C4_PWH_out", 0, 0, {}], ["SHIFTED_PRESSURE_PWH_C4", 0, 0, {}]]], "config": {"name": "C4_PWH_out2", "trainable": true}}, {"name": "B1_PWH_out2", "class_name": "Add", "inbound_nodes": [[["B1_PWH_out", 0, 0, {}], ["SHIFTED_PRESSURE_PWH_B1", 0, 0, {}]]], "config": {"name": "B1_PWH_out2", "trainable": true}}, {"name": "B3_PWH_out2", "class_name": "Add", "inbound_nodes": [[["B3_PWH_out", 0, 0, {}], ["SHIFTED_PRESSURE_PWH_B3", 0, 0, {}]]], "config": {"name": "B3_PWH_out2", "trainable": true}}, {"name": "D1_PWH_out2", "class_name": "Add", "inbound_nodes": [[["D1_PWH_out", 0, 0, {}], ["SHIFTED_PRESSURE_PWH_D1", 0, 0, {}]]], "config": {"name": "D1_PWH_out2", "trainable": true}}], "input_layers": [["CHK_INPUT_NOW", 0, 0], ["CHK_INPUT_PREV", 0, 0], ["SHIFTED_PRESSURE_PWH_C1", 0, 0], ["SHIFTED_PRESSURE_PWH_C2", 0, 0], ["SHIFTED_PRESSURE_PWH_C3", 0, 0], ["SHIFTED_PRESSURE_PWH_C4", 0, 0], ["SHIFTED_PRESSURE_PWH_B1", 0, 0], ["SHIFTED_PRESSURE_PWH_B3", 0, 0], ["SHIFTED_PRESSURE_PWH_D1", 0, 0]]}}