{"backend": "theano", "keras_version": "2.0.1", "class_name": "Model", "config": {"input_layers": [["CHK_INPUT_NOW", 0, 0], ["CHK_INPUT_PREV", 0, 0], ["SHIFTED_PRESSURE_PWH_C1", 0, 0], ["SHIFTED_PRESSURE_PWH_C2", 0, 0], ["SHIFTED_PRESSURE_PWH_C3", 0, 0], ["SHIFTED_PRESSURE_PWH_C4", 0, 0], ["SHIFTED_PRESSURE_PWH_B1", 0, 0], ["SHIFTED_PRESSURE_PWH_B3", 0, 0], ["SHIFTED_PRESSURE_PWH_D1", 0, 0]], "layers": [{"inbound_nodes": [], "class_name": "InputLayer", "name": "CHK_INPUT_PREV", "config": {"dtype": "float32", "batch_input_shape": [null, 8], "sparse": false, "name": "CHK_INPUT_PREV"}}, {"inbound_nodes": [], "class_name": "InputLayer", "name": "CHK_INPUT_NOW", "config": {"dtype": "float32", "batch_input_shape": [null, 8], "sparse": false, "name": "CHK_INPUT_NOW"}}, {"inbound_nodes": [[["CHK_INPUT_PREV", 0, 0, {}], ["CHK_INPUT_NOW", 0, 0, {}]]], "class_name": "Add", "name": "CHK_DELTA", "config": {"name": "CHK_DELTA", "trainable": true}}, {"inbound_nodes": [[["CHK_DELTA", 0, 0, {}]]], "class_name": "Dense", "name": "C1_PWH_0", "config": {"kernel_initializer": {"class_name": "VarianceScaling", "config": {"distribution": "normal", "mode": "fan_avg", "scale": 1.0, "seed": 3014}}, "name": "C1_PWH_0", "kernel_regularizer": {"class_name": "L1L2", "config": {"l2": 9.999999747378752e-05, "l1": 0.0}}, "activation": "relu", "trainable": true, "units": 90, "bias_regularizer": null, "bias_constraint": null, "use_bias": true, "kernel_constraint": null, "activity_regularizer": null, "bias_initializer": {"class_name": "Zeros", "config": {}}}}, {"inbound_nodes": [[["CHK_DELTA", 0, 0, {}]]], "class_name": "Dense", "name": "C2_PWH_0", "config": {"kernel_initializer": {"class_name": "VarianceScaling", "config": {"distribution": "normal", "mode": "fan_avg", "scale": 1.0, "seed": 3014}}, "name": "C2_PWH_0", "kernel_regularizer": {"class_name": "L1L2", "config": {"l2": 9.999999747378752e-05, "l1": 0.0}}, "activation": "relu", "trainable": true, "units": 90, "bias_regularizer": null, "bias_constraint": null, "use_bias": true, "kernel_constraint": null, "activity_regularizer": null, "bias_initializer": {"class_name": "Zeros", "config": {}}}}, {"inbound_nodes": [[["CHK_DELTA", 0, 0, {}]]], "class_name": "Dense", "name": "C3_PWH_0", "config": {"kernel_initializer": {"class_name": "VarianceScaling", "config": {"distribution": "normal", "mode": "fan_avg", "scale": 1.0, "seed": 3014}}, "name": "C3_PWH_0", "kernel_regularizer": {"class_name": "L1L2", "config": {"l2": 9.999999747378752e-05, "l1": 0.0}}, "activation": "relu", "trainable": true, "units": 90, "bias_regularizer": null, "bias_constraint": null, "use_bias": true, "kernel_constraint": null, "activity_regularizer": null, "bias_initializer": {"class_name": "Zeros", "config": {}}}}, {"inbound_nodes": [[["CHK_DELTA", 0, 0, {}]]], "class_name": "Dense", "name": "C4_PWH_0", "config": {"kernel_initializer": {"class_name": "VarianceScaling", "config": {"distribution": "normal", "mode": "fan_avg", "scale": 1.0, "seed": 3014}}, "name": "C4_PWH_0", "kernel_regularizer": {"class_name": "L1L2", "config": {"l2": 9.999999747378752e-05, "l1": 0.0}}, "activation": "relu", "trainable": true, "units": 90, "bias_regularizer": null, "bias_constraint": null, "use_bias": true, "kernel_constraint": null, "activity_regularizer": null, "bias_initializer": {"class_name": "Zeros", "config": {}}}}, {"inbound_nodes": [[["CHK_DELTA", 0, 0, {}]]], "class_name": "Dense", "name": "B1_PWH_0", "config": {"kernel_initializer": {"class_name": "VarianceScaling", "config": {"distribution": "normal", "mode": "fan_avg", "scale": 1.0, "seed": 3014}}, "name": "B1_PWH_0", "kernel_regularizer": {"class_name": "L1L2", "config": {"l2": 9.999999747378752e-05, "l1": 0.0}}, "activation": "relu", "trainable": true, "units": 90, "bias_regularizer": null, "bias_constraint": null, "use_bias": true, "kernel_constraint": null, "activity_regularizer": null, "bias_initializer": {"class_name": "Zeros", "config": {}}}}, {"inbound_nodes": [[["CHK_DELTA", 0, 0, {}]]], "class_name": "Dense", "name": "B3_PWH_0", "config": {"kernel_initializer": {"class_name": "VarianceScaling", "config": {"distribution": "normal", "mode": "fan_avg", "scale": 1.0, "seed": 3014}}, "name": "B3_PWH_0", "kernel_regularizer": {"class_name": "L1L2", "config": {"l2": 9.999999747378752e-05, "l1": 0.0}}, "activation": "relu", "trainable": true, "units": 90, "bias_regularizer": null, "bias_constraint": null, "use_bias": true, "kernel_constraint": null, "activity_regularizer": null, "bias_initializer": {"class_name": "Zeros", "config": {}}}}, {"inbound_nodes": [[["CHK_DELTA", 0, 0, {}]]], "class_name": "Dense", "name": "D1_PWH_0", "config": {"kernel_initializer": {"class_name": "VarianceScaling", "config": {"distribution": "normal", "mode": "fan_avg", "scale": 1.0, "seed": 3014}}, "name": "D1_PWH_0", "kernel_regularizer": {"class_name": "L1L2", "config": {"l2": 9.999999747378752e-05, "l1": 0.0}}, "activation": "relu", "trainable": true, "units": 90, "bias_regularizer": null, "bias_constraint": null, "use_bias": true, "kernel_constraint": null, "activity_regularizer": null, "bias_initializer": {"class_name": "Zeros", "config": {}}}}, {"inbound_nodes": [[["C1_PWH_0", 0, 0, {}]]], "class_name": "Dense", "name": "C1_PWH_1", "config": {"kernel_initializer": {"class_name": "VarianceScaling", "config": {"distribution": "normal", "mode": "fan_avg", "scale": 1.0, "seed": 3014}}, "name": "C1_PWH_1", "kernel_regularizer": {"class_name": "L1L2", "config": {"l2": 9.999999747378752e-05, "l1": 0.0}}, "activation": "relu", "trainable": true, "units": 90, "bias_regularizer": null, "bias_constraint": null, "use_bias": true, "kernel_constraint": null, "activity_regularizer": null, "bias_initializer": {"class_name": "Zeros", "config": {}}}}, {"inbound_nodes": [[["C2_PWH_0", 0, 0, {}]]], "class_name": "Dense", "name": "C2_PWH_1", "config": {"kernel_initializer": {"class_name": "VarianceScaling", "config": {"distribution": "normal", "mode": "fan_avg", "scale": 1.0, "seed": 3014}}, "name": "C2_PWH_1", "kernel_regularizer": {"class_name": "L1L2", "config": {"l2": 9.999999747378752e-05, "l1": 0.0}}, "activation": "relu", "trainable": true, "units": 90, "bias_regularizer": null, "bias_constraint": null, "use_bias": true, "kernel_constraint": null, "activity_regularizer": null, "bias_initializer": {"class_name": "Zeros", "config": {}}}}, {"inbound_nodes": [[["C3_PWH_0", 0, 0, {}]]], "class_name": "Dense", "name": "C3_PWH_1", "config": {"kernel_initializer": {"class_name": "VarianceScaling", "config": {"distribution": "normal", "mode": "fan_avg", "scale": 1.0, "seed": 3014}}, "name": "C3_PWH_1", "kernel_regularizer": {"class_name": "L1L2", "config": {"l2": 9.999999747378752e-05, "l1": 0.0}}, "activation": "relu", "trainable": true, "units": 90, "bias_regularizer": null, "bias_constraint": null, "use_bias": true, "kernel_constraint": null, "activity_regularizer": null, "bias_initializer": {"class_name": "Zeros", "config": {}}}}, {"inbound_nodes": [[["C4_PWH_0", 0, 0, {}]]], "class_name": "Dense", "name": "C4_PWH_1", "config": {"kernel_initializer": {"class_name": "VarianceScaling", "config": {"distribution": "normal", "mode": "fan_avg", "scale": 1.0, "seed": 3014}}, "name": "C4_PWH_1", "kernel_regularizer": {"class_name": "L1L2", "config": {"l2": 9.999999747378752e-05, "l1": 0.0}}, "activation": "relu", "trainable": true, "units": 90, "bias_regularizer": null, "bias_constraint": null, "use_bias": true, "kernel_constraint": null, "activity_regularizer": null, "bias_initializer": {"class_name": "Zeros", "config": {}}}}, {"inbound_nodes": [[["B1_PWH_0", 0, 0, {}]]], "class_name": "Dense", "name": "B1_PWH_1", "config": {"kernel_initializer": {"class_name": "VarianceScaling", "config": {"distribution": "normal", "mode": "fan_avg", "scale": 1.0, "seed": 3014}}, "name": "B1_PWH_1", "kernel_regularizer": {"class_name": "L1L2", "config": {"l2": 9.999999747378752e-05, "l1": 0.0}}, "activation": "relu", "trainable": true, "units": 90, "bias_regularizer": null, "bias_constraint": null, "use_bias": true, "kernel_constraint": null, "activity_regularizer": null, "bias_initializer": {"class_name": "Zeros", "config": {}}}}, {"inbound_nodes": [[["B3_PWH_0", 0, 0, {}]]], "class_name": "Dense", "name": "B3_PWH_1", "config": {"kernel_initializer": {"class_name": "VarianceScaling", "config": {"distribution": "normal", "mode": "fan_avg", "scale": 1.0, "seed": 3014}}, "name": "B3_PWH_1", "kernel_regularizer": {"class_name": "L1L2", "config": {"l2": 9.999999747378752e-05, "l1": 0.0}}, "activation": "relu", "trainable": true, "units": 90, "bias_regularizer": null, "bias_constraint": null, "use_bias": true, "kernel_constraint": null, "activity_regularizer": null, "bias_initializer": {"class_name": "Zeros", "config": {}}}}, {"inbound_nodes": [[["D1_PWH_0", 0, 0, {}]]], "class_name": "Dense", "name": "D1_PWH_1", "config": {"kernel_initializer": {"class_name": "VarianceScaling", "config": {"distribution": "normal", "mode": "fan_avg", "scale": 1.0, "seed": 3014}}, "name": "D1_PWH_1", "kernel_regularizer": {"class_name": "L1L2", "config": {"l2": 9.999999747378752e-05, "l1": 0.0}}, "activation": "relu", "trainable": true, "units": 90, "bias_regularizer": null, "bias_constraint": null, "use_bias": true, "kernel_constraint": null, "activity_regularizer": null, "bias_initializer": {"class_name": "Zeros", "config": {}}}}, {"inbound_nodes": [[["C1_PWH_1", 0, 0, {}]]], "class_name": "Dense", "name": "C1_PWH_out", "config": {"kernel_initializer": {"class_name": "VarianceScaling", "config": {"distribution": "normal", "mode": "fan_avg", "scale": 1.0, "seed": 3014}}, "name": "C1_PWH_out", "kernel_regularizer": {"class_name": "L1L2", "config": {"l2": 9.999999747378752e-05, "l1": 0.0}}, "activation": "linear", "trainable": true, "units": 1, "bias_regularizer": null, "bias_constraint": null, "use_bias": true, "kernel_constraint": null, "activity_regularizer": null, "bias_initializer": {"class_name": "Zeros", "config": {}}}}, {"inbound_nodes": [], "class_name": "InputLayer", "name": "SHIFTED_PRESSURE_PWH_C1", "config": {"dtype": "float32", "batch_input_shape": [null, 1], "sparse": false, "name": "SHIFTED_PRESSURE_PWH_C1"}}, {"inbound_nodes": [[["C2_PWH_1", 0, 0, {}]]], "class_name": "Dense", "name": "C2_PWH_out", "config": {"kernel_initializer": {"class_name": "VarianceScaling", "config": {"distribution": "normal", "mode": "fan_avg", "scale": 1.0, "seed": 3014}}, "name": "C2_PWH_out", "kernel_regularizer": {"class_name": "L1L2", "config": {"l2": 9.999999747378752e-05, "l1": 0.0}}, "activation": "linear", "trainable": true, "units": 1, "bias_regularizer": null, "bias_constraint": null, "use_bias": true, "kernel_constraint": null, "activity_regularizer": null, "bias_initializer": {"class_name": "Zeros", "config": {}}}}, {"inbound_nodes": [], "class_name": "InputLayer", "name": "SHIFTED_PRESSURE_PWH_C2", "config": {"dtype": "float32", "batch_input_shape": [null, 1], "sparse": false, "name": "SHIFTED_PRESSURE_PWH_C2"}}, {"inbound_nodes": [[["C3_PWH_1", 0, 0, {}]]], "class_name": "Dense", "name": "C3_PWH_out", "config": {"kernel_initializer": {"class_name": "VarianceScaling", "config": {"distribution": "normal", "mode": "fan_avg", "scale": 1.0, "seed": 3014}}, "name": "C3_PWH_out", "kernel_regularizer": {"class_name": "L1L2", "config": {"l2": 9.999999747378752e-05, "l1": 0.0}}, "activation": "linear", "trainable": true, "units": 1, "bias_regularizer": null, "bias_constraint": null, "use_bias": true, "kernel_constraint": null, "activity_regularizer": null, "bias_initializer": {"class_name": "Zeros", "config": {}}}}, {"inbound_nodes": [], "class_name": "InputLayer", "name": "SHIFTED_PRESSURE_PWH_C3", "config": {"dtype": "float32", "batch_input_shape": [null, 1], "sparse": false, "name": "SHIFTED_PRESSURE_PWH_C3"}}, {"inbound_nodes": [[["C4_PWH_1", 0, 0, {}]]], "class_name": "Dense", "name": "C4_PWH_out", "config": {"kernel_initializer": {"class_name": "VarianceScaling", "config": {"distribution": "normal", "mode": "fan_avg", "scale": 1.0, "seed": 3014}}, "name": "C4_PWH_out", "kernel_regularizer": {"class_name": "L1L2", "config": {"l2": 9.999999747378752e-05, "l1": 0.0}}, "activation": "linear", "trainable": true, "units": 1, "bias_regularizer": null, "bias_constraint": null, "use_bias": true, "kernel_constraint": null, "activity_regularizer": null, "bias_initializer": {"class_name": "Zeros", "config": {}}}}, {"inbound_nodes": [], "class_name": "InputLayer", "name": "SHIFTED_PRESSURE_PWH_C4", "config": {"dtype": "float32", "batch_input_shape": [null, 1], "sparse": false, "name": "SHIFTED_PRESSURE_PWH_C4"}}, {"inbound_nodes": [[["B1_PWH_1", 0, 0, {}]]], "class_name": "Dense", "name": "B1_PWH_out", "config": {"kernel_initializer": {"class_name": "VarianceScaling", "config": {"distribution": "normal", "mode": "fan_avg", "scale": 1.0, "seed": 3014}}, "name": "B1_PWH_out", "kernel_regularizer": {"class_name": "L1L2", "config": {"l2": 9.999999747378752e-05, "l1": 0.0}}, "activation": "linear", "trainable": true, "units": 1, "bias_regularizer": null, "bias_constraint": null, "use_bias": true, "kernel_constraint": null, "activity_regularizer": null, "bias_initializer": {"class_name": "Zeros", "config": {}}}}, {"inbound_nodes": [], "class_name": "InputLayer", "name": "SHIFTED_PRESSURE_PWH_B1", "config": {"dtype": "float32", "batch_input_shape": [null, 1], "sparse": false, "name": "SHIFTED_PRESSURE_PWH_B1"}}, {"inbound_nodes": [[["B3_PWH_1", 0, 0, {}]]], "class_name": "Dense", "name": "B3_PWH_out", "config": {"kernel_initializer": {"class_name": "VarianceScaling", "config": {"distribution": "normal", "mode": "fan_avg", "scale": 1.0, "seed": 3014}}, "name": "B3_PWH_out", "kernel_regularizer": {"class_name": "L1L2", "config": {"l2": 9.999999747378752e-05, "l1": 0.0}}, "activation": "linear", "trainable": true, "units": 1, "bias_regularizer": null, "bias_constraint": null, "use_bias": true, "kernel_constraint": null, "activity_regularizer": null, "bias_initializer": {"class_name": "Zeros", "config": {}}}}, {"inbound_nodes": [], "class_name": "InputLayer", "name": "SHIFTED_PRESSURE_PWH_B3", "config": {"dtype": "float32", "batch_input_shape": [null, 1], "sparse": false, "name": "SHIFTED_PRESSURE_PWH_B3"}}, {"inbound_nodes": [[["D1_PWH_1", 0, 0, {}]]], "class_name": "Dense", "name": "D1_PWH_out", "config": {"kernel_initializer": {"class_name": "VarianceScaling", "config": {"distribution": "normal", "mode": "fan_avg", "scale": 1.0, "seed": 3014}}, "name": "D1_PWH_out", "kernel_regularizer": {"class_name": "L1L2", "config": {"l2": 9.999999747378752e-05, "l1": 0.0}}, "activation": "linear", "trainable": true, "units": 1, "bias_regularizer": null, "bias_constraint": null, "use_bias": true, "kernel_constraint": null, "activity_regularizer": null, "bias_initializer": {"class_name": "Zeros", "config": {}}}}, {"inbound_nodes": [], "class_name": "InputLayer", "name": "SHIFTED_PRESSURE_PWH_D1", "config": {"dtype": "float32", "batch_input_shape": [null, 1], "sparse": false, "name": "SHIFTED_PRESSURE_PWH_D1"}}, {"inbound_nodes": [[["C1_PWH_out", 0, 0, {}], ["SHIFTED_PRESSURE_PWH_C1", 0, 0, {}]]], "class_name": "Add", "name": "C1_PWH_out2", "config": {"name": "C1_PWH_out2", "trainable": true}}, {"inbound_nodes": [[["C2_PWH_out", 0, 0, {}], ["SHIFTED_PRESSURE_PWH_C2", 0, 0, {}]]], "class_name": "Add", "name": "C2_PWH_out2", "config": {"name": "C2_PWH_out2", "trainable": true}}, {"inbound_nodes": [[["C3_PWH_out", 0, 0, {}], ["SHIFTED_PRESSURE_PWH_C3", 0, 0, {}]]], "class_name": "Add", "name": "C3_PWH_out2", "config": {"name": "C3_PWH_out2", "trainable": true}}, {"inbound_nodes": [[["C4_PWH_out", 0, 0, {}], ["SHIFTED_PRESSURE_PWH_C4", 0, 0, {}]]], "class_name": "Add", "name": "C4_PWH_out2", "config": {"name": "C4_PWH_out2", "trainable": true}}, {"inbound_nodes": [[["B1_PWH_out", 0, 0, {}], ["SHIFTED_PRESSURE_PWH_B1", 0, 0, {}]]], "class_name": "Add", "name": "B1_PWH_out2", "config": {"name": "B1_PWH_out2", "trainable": true}}, {"inbound_nodes": [[["B3_PWH_out", 0, 0, {}], ["SHIFTED_PRESSURE_PWH_B3", 0, 0, {}]]], "class_name": "Add", "name": "B3_PWH_out2", "config": {"name": "B3_PWH_out2", "trainable": true}}, {"inbound_nodes": [[["D1_PWH_out", 0, 0, {}], ["SHIFTED_PRESSURE_PWH_D1", 0, 0, {}]]], "class_name": "Add", "name": "D1_PWH_out2", "config": {"name": "D1_PWH_out2", "trainable": true}}], "output_layers": [["C1_PWH_out2", 0, 0], ["C1_PWH_out", 0, 0], ["C2_PWH_out2", 0, 0], ["C2_PWH_out", 0, 0], ["C3_PWH_out2", 0, 0], ["C3_PWH_out", 0, 0], ["C4_PWH_out2", 0, 0], ["C4_PWH_out", 0, 0], ["B1_PWH_out2", 0, 0], ["B1_PWH_out", 0, 0], ["B3_PWH_out2", 0, 0], ["B3_PWH_out", 0, 0], ["D1_PWH_out2", 0, 0], ["D1_PWH_out", 0, 0]], "name": "model_1"}}