{"backend": "theano", "class_name": "Model", "keras_version": "2.0.1", "config": {"name": "model_1", "output_layers": [["C1_out", 0, 0], ["C2_out", 0, 0], ["C3_out", 0, 0], ["C4_out", 0, 0], ["B1_out", 0, 0], ["B3_out", 0, 0], ["D1_out", 0, 0], ["GJOA_TOTAL", 0, 0]], "input_layers": [["C1", 0, 0], ["C2", 0, 0], ["C3", 0, 0], ["C4", 0, 0], ["B1", 0, 0], ["B3", 0, 0], ["D1", 0, 0], ["OnOff_C1", 0, 0], ["OnOff_C2", 0, 0], ["OnOff_C3", 0, 0], ["OnOff_C4", 0, 0], ["OnOff_B1", 0, 0], ["OnOff_B3", 0, 0], ["OnOff_D1", 0, 0]], "layers": [{"inbound_nodes": [], "class_name": "InputLayer", "name": "C1", "config": {"name": "C1", "sparse": false, "batch_input_shape": [null, 4], "dtype": "float32"}}, {"inbound_nodes": [], "class_name": "InputLayer", "name": "C2", "config": {"name": "C2", "sparse": false, "batch_input_shape": [null, 3], "dtype": "float32"}}, {"inbound_nodes": [], "class_name": "InputLayer", "name": "C3", "config": {"name": "C3", "sparse": false, "batch_input_shape": [null, 4], "dtype": "float32"}}, {"inbound_nodes": [], "class_name": "InputLayer", "name": "C4", "config": {"name": "C4", "sparse": false, "batch_input_shape": [null, 4], "dtype": "float32"}}, {"inbound_nodes": [], "class_name": "InputLayer", "name": "B1", "config": {"name": "B1", "sparse": false, "batch_input_shape": [null, 4], "dtype": "float32"}}, {"inbound_nodes": [], "class_name": "InputLayer", "name": "B3", "config": {"name": "B3", "sparse": false, "batch_input_shape": [null, 4], "dtype": "float32"}}, {"inbound_nodes": [], "class_name": "InputLayer", "name": "D1", "config": {"name": "D1", "sparse": false, "batch_input_shape": [null, 3], "dtype": "float32"}}, {"inbound_nodes": [[["C1", 0, 0, {}]]], "class_name": "Dense", "name": "C1_0", "config": {"name": "C1_0", "activity_regularizer": null, "kernel_initializer": {"class_name": "VarianceScaling", "config": {"distribution": "normal", "seed": 3014, "mode": "fan_avg", "scale": 1.0}}, "bias_constraint": null, "trainable": true, "units": 20, "bias_initializer": {"class_name": "Zeros", "config": {}}, "use_bias": true, "activation": "relu", "bias_regularizer": null, "kernel_regularizer": {"class_name": "L1L2", "config": {"l1": 0.0, "l2": 0.0002500000118743628}}, "kernel_constraint": null}}, {"inbound_nodes": [[["C2", 0, 0, {}]]], "class_name": "Dense", "name": "C2_0", "config": {"name": "C2_0", "activity_regularizer": null, "kernel_initializer": {"class_name": "VarianceScaling", "config": {"distribution": "normal", "seed": 3014, "mode": "fan_avg", "scale": 1.0}}, "bias_constraint": null, "trainable": true, "units": 20, "bias_initializer": {"class_name": "Zeros", "config": {}}, "use_bias": true, "activation": "relu", "bias_regularizer": null, "kernel_regularizer": {"class_name": "L1L2", "config": {"l1": 0.0, "l2": 0.0002500000118743628}}, "kernel_constraint": null}}, {"inbound_nodes": [[["C3", 0, 0, {}]]], "class_name": "Dense", "name": "C3_0", "config": {"name": "C3_0", "activity_regularizer": null, "kernel_initializer": {"class_name": "VarianceScaling", "config": {"distribution": "normal", "seed": 3014, "mode": "fan_avg", "scale": 1.0}}, "bias_constraint": null, "trainable": true, "units": 20, "bias_initializer": {"class_name": "Zeros", "config": {}}, "use_bias": true, "activation": "relu", "bias_regularizer": null, "kernel_regularizer": {"class_name": "L1L2", "config": {"l1": 0.0, "l2": 0.0002500000118743628}}, "kernel_constraint": null}}, {"inbound_nodes": [[["C4", 0, 0, {}]]], "class_name": "Dense", "name": "C4_0", "config": {"name": "C4_0", "activity_regularizer": null, "kernel_initializer": {"class_name": "VarianceScaling", "config": {"distribution": "normal", "seed": 3014, "mode": "fan_avg", "scale": 1.0}}, "bias_constraint": null, "trainable": true, "units": 20, "bias_initializer": {"class_name": "Zeros", "config": {}}, "use_bias": true, "activation": "relu", "bias_regularizer": null, "kernel_regularizer": {"class_name": "L1L2", "config": {"l1": 0.0, "l2": 0.0002500000118743628}}, "kernel_constraint": null}}, {"inbound_nodes": [[["B1", 0, 0, {}]]], "class_name": "Dense", "name": "B1_0", "config": {"name": "B1_0", "activity_regularizer": null, "kernel_initializer": {"class_name": "VarianceScaling", "config": {"distribution": "normal", "seed": 3014, "mode": "fan_avg", "scale": 1.0}}, "bias_constraint": null, "trainable": true, "units": 20, "bias_initializer": {"class_name": "Zeros", "config": {}}, "use_bias": true, "activation": "relu", "bias_regularizer": null, "kernel_regularizer": {"class_name": "L1L2", "config": {"l1": 0.0, "l2": 0.0002500000118743628}}, "kernel_constraint": null}}, {"inbound_nodes": [[["B3", 0, 0, {}]]], "class_name": "Dense", "name": "B3_0", "config": {"name": "B3_0", "activity_regularizer": null, "kernel_initializer": {"class_name": "VarianceScaling", "config": {"distribution": "normal", "seed": 3014, "mode": "fan_avg", "scale": 1.0}}, "bias_constraint": null, "trainable": true, "units": 20, "bias_initializer": {"class_name": "Zeros", "config": {}}, "use_bias": true, "activation": "relu", "bias_regularizer": null, "kernel_regularizer": {"class_name": "L1L2", "config": {"l1": 0.0, "l2": 0.0002500000118743628}}, "kernel_constraint": null}}, {"inbound_nodes": [[["D1", 0, 0, {}]]], "class_name": "Dense", "name": "D1_0", "config": {"name": "D1_0", "activity_regularizer": null, "kernel_initializer": {"class_name": "VarianceScaling", "config": {"distribution": "normal", "seed": 3014, "mode": "fan_avg", "scale": 1.0}}, "bias_constraint": null, "trainable": true, "units": 20, "bias_initializer": {"class_name": "Zeros", "config": {}}, "use_bias": true, "activation": "relu", "bias_regularizer": null, "kernel_regularizer": {"class_name": "L1L2", "config": {"l1": 0.0, "l2": 0.0002500000118743628}}, "kernel_constraint": null}}, {"inbound_nodes": [[["C1_0", 0, 0, {}]]], "class_name": "Dense", "name": "C1_1", "config": {"name": "C1_1", "activity_regularizer": null, "kernel_initializer": {"class_name": "VarianceScaling", "config": {"distribution": "normal", "seed": 3014, "mode": "fan_avg", "scale": 1.0}}, "bias_constraint": null, "trainable": true, "units": 20, "bias_initializer": {"class_name": "Zeros", "config": {}}, "use_bias": true, "activation": "relu", "bias_regularizer": null, "kernel_regularizer": {"class_name": "L1L2", "config": {"l1": 0.0, "l2": 0.0002500000118743628}}, "kernel_constraint": null}}, {"inbound_nodes": [[["C2_0", 0, 0, {}]]], "class_name": "Dense", "name": "C2_1", "config": {"name": "C2_1", "activity_regularizer": null, "kernel_initializer": {"class_name": "VarianceScaling", "config": {"distribution": "normal", "seed": 3014, "mode": "fan_avg", "scale": 1.0}}, "bias_constraint": null, "trainable": true, "units": 20, "bias_initializer": {"class_name": "Zeros", "config": {}}, "use_bias": true, "activation": "relu", "bias_regularizer": null, "kernel_regularizer": {"class_name": "L1L2", "config": {"l1": 0.0, "l2": 0.0002500000118743628}}, "kernel_constraint": null}}, {"inbound_nodes": [[["C3_0", 0, 0, {}]]], "class_name": "Dense", "name": "C3_1", "config": {"name": "C3_1", "activity_regularizer": null, "kernel_initializer": {"class_name": "VarianceScaling", "config": {"distribution": "normal", "seed": 3014, "mode": "fan_avg", "scale": 1.0}}, "bias_constraint": null, "trainable": true, "units": 20, "bias_initializer": {"class_name": "Zeros", "config": {}}, "use_bias": true, "activation": "relu", "bias_regularizer": null, "kernel_regularizer": {"class_name": "L1L2", "config": {"l1": 0.0, "l2": 0.0002500000118743628}}, "kernel_constraint": null}}, {"inbound_nodes": [[["C4_0", 0, 0, {}]]], "class_name": "Dense", "name": "C4_1", "config": {"name": "C4_1", "activity_regularizer": null, "kernel_initializer": {"class_name": "VarianceScaling", "config": {"distribution": "normal", "seed": 3014, "mode": "fan_avg", "scale": 1.0}}, "bias_constraint": null, "trainable": true, "units": 20, "bias_initializer": {"class_name": "Zeros", "config": {}}, "use_bias": true, "activation": "relu", "bias_regularizer": null, "kernel_regularizer": {"class_name": "L1L2", "config": {"l1": 0.0, "l2": 0.0002500000118743628}}, "kernel_constraint": null}}, {"inbound_nodes": [[["B1_0", 0, 0, {}]]], "class_name": "Dense", "name": "B1_1", "config": {"name": "B1_1", "activity_regularizer": null, "kernel_initializer": {"class_name": "VarianceScaling", "config": {"distribution": "normal", "seed": 3014, "mode": "fan_avg", "scale": 1.0}}, "bias_constraint": null, "trainable": true, "units": 20, "bias_initializer": {"class_name": "Zeros", "config": {}}, "use_bias": true, "activation": "relu", "bias_regularizer": null, "kernel_regularizer": {"class_name": "L1L2", "config": {"l1": 0.0, "l2": 0.0002500000118743628}}, "kernel_constraint": null}}, {"inbound_nodes": [[["B3_0", 0, 0, {}]]], "class_name": "Dense", "name": "B3_1", "config": {"name": "B3_1", "activity_regularizer": null, "kernel_initializer": {"class_name": "VarianceScaling", "config": {"distribution": "normal", "seed": 3014, "mode": "fan_avg", "scale": 1.0}}, "bias_constraint": null, "trainable": true, "units": 20, "bias_initializer": {"class_name": "Zeros", "config": {}}, "use_bias": true, "activation": "relu", "bias_regularizer": null, "kernel_regularizer": {"class_name": "L1L2", "config": {"l1": 0.0, "l2": 0.0002500000118743628}}, "kernel_constraint": null}}, {"inbound_nodes": [[["D1_0", 0, 0, {}]]], "class_name": "Dense", "name": "D1_1", "config": {"name": "D1_1", "activity_regularizer": null, "kernel_initializer": {"class_name": "VarianceScaling", "config": {"distribution": "normal", "seed": 3014, "mode": "fan_avg", "scale": 1.0}}, "bias_constraint": null, "trainable": true, "units": 20, "bias_initializer": {"class_name": "Zeros", "config": {}}, "use_bias": true, "activation": "relu", "bias_regularizer": null, "kernel_regularizer": {"class_name": "L1L2", "config": {"l1": 0.0, "l2": 0.0002500000118743628}}, "kernel_constraint": null}}, {"inbound_nodes": [], "class_name": "InputLayer", "name": "OnOff_C1", "config": {"name": "OnOff_C1", "sparse": false, "batch_input_shape": [null, 1], "dtype": "float32"}}, {"inbound_nodes": [[["C1_1", 0, 0, {}]]], "class_name": "Dense", "name": "C1_o", "config": {"name": "C1_o", "activity_regularizer": null, "kernel_initializer": {"class_name": "VarianceScaling", "config": {"distribution": "normal", "seed": 3014, "mode": "fan_avg", "scale": 1.0}}, "bias_constraint": null, "trainable": true, "units": 1, "bias_initializer": {"class_name": "Zeros", "config": {}}, "use_bias": true, "activation": "relu", "bias_regularizer": null, "kernel_regularizer": {"class_name": "L1L2", "config": {"l1": 0.0, "l2": 0.0002500000118743628}}, "kernel_constraint": null}}, {"inbound_nodes": [], "class_name": "InputLayer", "name": "OnOff_C2", "config": {"name": "OnOff_C2", "sparse": false, "batch_input_shape": [null, 1], "dtype": "float32"}}, {"inbound_nodes": [[["C2_1", 0, 0, {}]]], "class_name": "Dense", "name": "C2_o", "config": {"name": "C2_o", "activity_regularizer": null, "kernel_initializer": {"class_name": "VarianceScaling", "config": {"distribution": "normal", "seed": 3014, "mode": "fan_avg", "scale": 1.0}}, "bias_constraint": null, "trainable": true, "units": 1, "bias_initializer": {"class_name": "Zeros", "config": {}}, "use_bias": true, "activation": "relu", "bias_regularizer": null, "kernel_regularizer": {"class_name": "L1L2", "config": {"l1": 0.0, "l2": 0.0002500000118743628}}, "kernel_constraint": null}}, {"inbound_nodes": [], "class_name": "InputLayer", "name": "OnOff_C3", "config": {"name": "OnOff_C3", "sparse": false, "batch_input_shape": [null, 1], "dtype": "float32"}}, {"inbound_nodes": [[["C3_1", 0, 0, {}]]], "class_name": "Dense", "name": "C3_o", "config": {"name": "C3_o", "activity_regularizer": null, "kernel_initializer": {"class_name": "VarianceScaling", "config": {"distribution": "normal", "seed": 3014, "mode": "fan_avg", "scale": 1.0}}, "bias_constraint": null, "trainable": true, "units": 1, "bias_initializer": {"class_name": "Zeros", "config": {}}, "use_bias": true, "activation": "relu", "bias_regularizer": null, "kernel_regularizer": {"class_name": "L1L2", "config": {"l1": 0.0, "l2": 0.0002500000118743628}}, "kernel_constraint": null}}, {"inbound_nodes": [], "class_name": "InputLayer", "name": "OnOff_C4", "config": {"name": "OnOff_C4", "sparse": false, "batch_input_shape": [null, 1], "dtype": "float32"}}, {"inbound_nodes": [[["C4_1", 0, 0, {}]]], "class_name": "Dense", "name": "C4_o", "config": {"name": "C4_o", "activity_regularizer": null, "kernel_initializer": {"class_name": "VarianceScaling", "config": {"distribution": "normal", "seed": 3014, "mode": "fan_avg", "scale": 1.0}}, "bias_constraint": null, "trainable": true, "units": 1, "bias_initializer": {"class_name": "Zeros", "config": {}}, "use_bias": true, "activation": "relu", "bias_regularizer": null, "kernel_regularizer": {"class_name": "L1L2", "config": {"l1": 0.0, "l2": 0.0002500000118743628}}, "kernel_constraint": null}}, {"inbound_nodes": [], "class_name": "InputLayer", "name": "OnOff_B1", "config": {"name": "OnOff_B1", "sparse": false, "batch_input_shape": [null, 1], "dtype": "float32"}}, {"inbound_nodes": [[["B1_1", 0, 0, {}]]], "class_name": "Dense", "name": "B1_o", "config": {"name": "B1_o", "activity_regularizer": null, "kernel_initializer": {"class_name": "VarianceScaling", "config": {"distribution": "normal", "seed": 3014, "mode": "fan_avg", "scale": 1.0}}, "bias_constraint": null, "trainable": true, "units": 1, "bias_initializer": {"class_name": "Zeros", "config": {}}, "use_bias": true, "activation": "relu", "bias_regularizer": null, "kernel_regularizer": {"class_name": "L1L2", "config": {"l1": 0.0, "l2": 0.0002500000118743628}}, "kernel_constraint": null}}, {"inbound_nodes": [], "class_name": "InputLayer", "name": "OnOff_B3", "config": {"name": "OnOff_B3", "sparse": false, "batch_input_shape": [null, 1], "dtype": "float32"}}, {"inbound_nodes": [[["B3_1", 0, 0, {}]]], "class_name": "Dense", "name": "B3_o", "config": {"name": "B3_o", "activity_regularizer": null, "kernel_initializer": {"class_name": "VarianceScaling", "config": {"distribution": "normal", "seed": 3014, "mode": "fan_avg", "scale": 1.0}}, "bias_constraint": null, "trainable": true, "units": 1, "bias_initializer": {"class_name": "Zeros", "config": {}}, "use_bias": true, "activation": "relu", "bias_regularizer": null, "kernel_regularizer": {"class_name": "L1L2", "config": {"l1": 0.0, "l2": 0.0002500000118743628}}, "kernel_constraint": null}}, {"inbound_nodes": [], "class_name": "InputLayer", "name": "OnOff_D1", "config": {"name": "OnOff_D1", "sparse": false, "batch_input_shape": [null, 1], "dtype": "float32"}}, {"inbound_nodes": [[["D1_1", 0, 0, {}]]], "class_name": "Dense", "name": "D1_o", "config": {"name": "D1_o", "activity_regularizer": null, "kernel_initializer": {"class_name": "VarianceScaling", "config": {"distribution": "normal", "seed": 3014, "mode": "fan_avg", "scale": 1.0}}, "bias_constraint": null, "trainable": true, "units": 1, "bias_initializer": {"class_name": "Zeros", "config": {}}, "use_bias": true, "activation": "relu", "bias_regularizer": null, "kernel_regularizer": {"class_name": "L1L2", "config": {"l1": 0.0, "l2": 0.0002500000118743628}}, "kernel_constraint": null}}, {"inbound_nodes": [[["OnOff_C1", 0, 0, {}], ["C1_o", 0, 0, {}]]], "class_name": "Multiply", "name": "C1_out", "config": {"trainable": true, "name": "C1_out"}}, {"inbound_nodes": [[["OnOff_C2", 0, 0, {}], ["C2_o", 0, 0, {}]]], "class_name": "Multiply", "name": "C2_out", "config": {"trainable": true, "name": "C2_out"}}, {"inbound_nodes": [[["OnOff_C3", 0, 0, {}], ["C3_o", 0, 0, {}]]], "class_name": "Multiply", "name": "C3_out", "config": {"trainable": true, "name": "C3_out"}}, {"inbound_nodes": [[["OnOff_C4", 0, 0, {}], ["C4_o", 0, 0, {}]]], "class_name": "Multiply", "name": "C4_out", "config": {"trainable": true, "name": "C4_out"}}, {"inbound_nodes": [[["OnOff_B1", 0, 0, {}], ["B1_o", 0, 0, {}]]], "class_name": "Multiply", "name": "B1_out", "config": {"trainable": true, "name": "B1_out"}}, {"inbound_nodes": [[["OnOff_B3", 0, 0, {}], ["B3_o", 0, 0, {}]]], "class_name": "Multiply", "name": "B3_out", "config": {"trainable": true, "name": "B3_out"}}, {"inbound_nodes": [[["OnOff_D1", 0, 0, {}], ["D1_o", 0, 0, {}]]], "class_name": "Multiply", "name": "D1_out", "config": {"trainable": true, "name": "D1_out"}}, {"inbound_nodes": [[["C1_out", 0, 0, {}], ["C2_out", 0, 0, {}], ["C3_out", 0, 0, {}], ["C4_out", 0, 0, {}], ["B1_out", 0, 0, {}], ["B3_out", 0, 0, {}], ["D1_out", 0, 0, {}]]], "class_name": "Add", "name": "GJOA_TOTAL", "config": {"trainable": true, "name": "GJOA_TOTAL"}}]}}