{"class_name": "Model", "config": {"name": "model_2", "layers": [{"name": "PRESSURE_INPUT", "class_name": "InputLayer", "config": {"batch_input_shape": [null, 12], "input_dtype": "float32", "sparse": false, "name": "PRESSURE_INPUT"}, "inbound_nodes": []}, {"name": "RISER_B_CHK_INPUT", "class_name": "InputLayer", "config": {"batch_input_shape": [null, 1], "input_dtype": "float32", "sparse": false, "name": "RISER_B_CHK_INPUT"}, "inbound_nodes": []}, {"name": "merge_2", "class_name": "Merge", "config": {"name": "merge_2", "mode": "concat", "mode_type": "raw", "concat_axis": -1, "dot_axes": -1, "output_shape": null, "output_shape_type": "raw", "output_mask": null, "output_mask_type": "raw", "arguments": {}}, "inbound_nodes": [[["PRESSURE_INPUT", 0, 0], ["RISER_B_CHK_INPUT", 0, 0]]]}, {"name": "dense_29", "class_name": "Dense", "config": {"name": "dense_29", "trainable": true, "output_dim": 50, "init": "glorot_uniform", "activation": "relu", "W_regularizer": {"name": "L1L2Regularizer", "l1": 0.0, "l2": 9.999999747378752e-05}, "b_regularizer": null, "activity_regularizer": null, "W_constraint": null, "b_constraint": null, "bias": true, "input_dim": 12}, "inbound_nodes": [[["PRESSURE_INPUT", 0, 0]]]}, {"name": "dense_31", "class_name": "Dense", "config": {"name": "dense_31", "trainable": true, "output_dim": 50, "init": "glorot_uniform", "activation": "relu", "W_regularizer": {"name": "L1L2Regularizer", "l1": 0.0, "l2": 9.999999747378752e-05}, "b_regularizer": null, "activity_regularizer": null, "W_constraint": null, "b_constraint": null, "bias": true, "input_dim": 13}, "inbound_nodes": [[["merge_2", 0, 0]]]}, {"name": "dense_33", "class_name": "Dense", "config": {"name": "dense_33", "trainable": true, "output_dim": 50, "init": "glorot_uniform", "activation": "relu", "W_regularizer": {"name": "L1L2Regularizer", "l1": 0.0, "l2": 9.999999747378752e-05}, "b_regularizer": null, "activity_regularizer": null, "W_constraint": null, "b_constraint": null, "bias": true, "input_dim": 12}, "inbound_nodes": [[["PRESSURE_INPUT", 0, 0]]]}, {"name": "dense_35", "class_name": "Dense", "config": {"name": "dense_35", "trainable": true, "output_dim": 50, "init": "glorot_uniform", "activation": "relu", "W_regularizer": {"name": "L1L2Regularizer", "l1": 0.0, "l2": 9.999999747378752e-05}, "b_regularizer": null, "activity_regularizer": null, "W_constraint": null, "b_constraint": null, "bias": true, "input_dim": 13}, "inbound_nodes": [[["merge_2", 0, 0]]]}, {"name": "dense_37", "class_name": "Dense", "config": {"name": "dense_37", "trainable": true, "output_dim": 50, "init": "glorot_uniform", "activation": "relu", "W_regularizer": {"name": "L1L2Regularizer", "l1": 0.0, "l2": 9.999999747378752e-05}, "b_regularizer": null, "activity_regularizer": null, "W_constraint": null, "b_constraint": null, "bias": true, "input_dim": 12}, "inbound_nodes": [[["PRESSURE_INPUT", 0, 0]]]}, {"name": "dense_39", "class_name": "Dense", "config": {"name": "dense_39", "trainable": true, "output_dim": 50, "init": "glorot_uniform", "activation": "relu", "W_regularizer": {"name": "L1L2Regularizer", "l1": 0.0, "l2": 9.999999747378752e-05}, "b_regularizer": null, "activity_regularizer": null, "W_constraint": null, "b_constraint": null, "bias": true, "input_dim": 13}, "inbound_nodes": [[["merge_2", 0, 0]]]}, {"name": "dense_41", "class_name": "Dense", "config": {"name": "dense_41", "trainable": true, "output_dim": 50, "init": "glorot_uniform", "activation": "relu", "W_regularizer": {"name": "L1L2Regularizer", "l1": 0.0, "l2": 9.999999747378752e-05}, "b_regularizer": null, "activity_regularizer": null, "W_constraint": null, "b_constraint": null, "bias": true, "input_dim": 12}, "inbound_nodes": [[["PRESSURE_INPUT", 0, 0]]]}, {"name": "dense_43", "class_name": "Dense", "config": {"name": "dense_43", "trainable": true, "output_dim": 50, "init": "glorot_uniform", "activation": "relu", "W_regularizer": {"name": "L1L2Regularizer", "l1": 0.0, "l2": 9.999999747378752e-05}, "b_regularizer": null, "activity_regularizer": null, "W_constraint": null, "b_constraint": null, "bias": true, "input_dim": 13}, "inbound_nodes": [[["merge_2", 0, 0]]]}, {"name": "dense_45", "class_name": "Dense", "config": {"name": "dense_45", "trainable": true, "output_dim": 50, "init": "glorot_uniform", "activation": "relu", "W_regularizer": {"name": "L1L2Regularizer", "l1": 0.0, "l2": 9.999999747378752e-05}, "b_regularizer": null, "activity_regularizer": null, "W_constraint": null, "b_constraint": null, "bias": true, "input_dim": 12}, "inbound_nodes": [[["PRESSURE_INPUT", 0, 0]]]}, {"name": "dense_47", "class_name": "Dense", "config": {"name": "dense_47", "trainable": true, "output_dim": 50, "init": "glorot_uniform", "activation": "relu", "W_regularizer": {"name": "L1L2Regularizer", "l1": 0.0, "l2": 9.999999747378752e-05}, "b_regularizer": null, "activity_regularizer": null, "W_constraint": null, "b_constraint": null, "bias": true, "input_dim": 13}, "inbound_nodes": [[["merge_2", 0, 0]]]}, {"name": "dense_49", "class_name": "Dense", "config": {"name": "dense_49", "trainable": true, "output_dim": 50, "init": "glorot_uniform", "activation": "relu", "W_regularizer": {"name": "L1L2Regularizer", "l1": 0.0, "l2": 9.999999747378752e-05}, "b_regularizer": null, "activity_regularizer": null, "W_constraint": null, "b_constraint": null, "bias": true, "input_dim": 12}, "inbound_nodes": [[["PRESSURE_INPUT", 0, 0]]]}, {"name": "dense_51", "class_name": "Dense", "config": {"name": "dense_51", "trainable": true, "output_dim": 50, "init": "glorot_uniform", "activation": "relu", "W_regularizer": {"name": "L1L2Regularizer", "l1": 0.0, "l2": 9.999999747378752e-05}, "b_regularizer": null, "activity_regularizer": null, "W_constraint": null, "b_constraint": null, "bias": true, "input_dim": 13}, "inbound_nodes": [[["merge_2", 0, 0]]]}, {"name": "dense_53", "class_name": "Dense", "config": {"name": "dense_53", "trainable": true, "output_dim": 50, "init": "glorot_uniform", "activation": "relu", "W_regularizer": {"name": "L1L2Regularizer", "l1": 0.0, "l2": 9.999999747378752e-05}, "b_regularizer": null, "activity_regularizer": null, "W_constraint": null, "b_constraint": null, "bias": true, "input_dim": 12}, "inbound_nodes": [[["PRESSURE_INPUT", 0, 0]]]}, {"name": "dense_55", "class_name": "Dense", "config": {"name": "dense_55", "trainable": true, "output_dim": 50, "init": "glorot_uniform", "activation": "relu", "W_regularizer": {"name": "L1L2Regularizer", "l1": 0.0, "l2": 9.999999747378752e-05}, "b_regularizer": null, "activity_regularizer": null, "W_constraint": null, "b_constraint": null, "bias": true, "input_dim": 13}, "inbound_nodes": [[["merge_2", 0, 0]]]}, {"name": "dense_30", "class_name": "Dense", "config": {"name": "dense_30", "trainable": true, "output_dim": 50, "init": "glorot_uniform", "activation": "relu", "W_regularizer": {"name": "L1L2Regularizer", "l1": 0.0, "l2": 9.999999747378752e-05}, "b_regularizer": null, "activity_regularizer": null, "W_constraint": null, "b_constraint": null, "bias": true, "input_dim": 50}, "inbound_nodes": [[["dense_29", 0, 0]]]}, {"name": "dense_32", "class_name": "Dense", "config": {"name": "dense_32", "trainable": true, "output_dim": 50, "init": "glorot_uniform", "activation": "relu", "W_regularizer": {"name": "L1L2Regularizer", "l1": 0.0, "l2": 9.999999747378752e-05}, "b_regularizer": null, "activity_regularizer": null, "W_constraint": null, "b_constraint": null, "bias": true, "input_dim": 50}, "inbound_nodes": [[["dense_31", 0, 0]]]}, {"name": "dense_34", "class_name": "Dense", "config": {"name": "dense_34", "trainable": true, "output_dim": 50, "init": "glorot_uniform", "activation": "relu", "W_regularizer": {"name": "L1L2Regularizer", "l1": 0.0, "l2": 9.999999747378752e-05}, "b_regularizer": null, "activity_regularizer": null, "W_constraint": null, "b_constraint": null, "bias": true, "input_dim": 50}, "inbound_nodes": [[["dense_33", 0, 0]]]}, {"name": "dense_36", "class_name": "Dense", "config": {"name": "dense_36", "trainable": true, "output_dim": 50, "init": "glorot_uniform", "activation": "relu", "W_regularizer": {"name": "L1L2Regularizer", "l1": 0.0, "l2": 9.999999747378752e-05}, "b_regularizer": null, "activity_regularizer": null, "W_constraint": null, "b_constraint": null, "bias": true, "input_dim": 50}, "inbound_nodes": [[["dense_35", 0, 0]]]}, {"name": "dense_38", "class_name": "Dense", "config": {"name": "dense_38", "trainable": true, "output_dim": 50, "init": "glorot_uniform", "activation": "relu", "W_regularizer": {"name": "L1L2Regularizer", "l1": 0.0, "l2": 9.999999747378752e-05}, "b_regularizer": null, "activity_regularizer": null, "W_constraint": null, "b_constraint": null, "bias": true, "input_dim": 50}, "inbound_nodes": [[["dense_37", 0, 0]]]}, {"name": "dense_40", "class_name": "Dense", "config": {"name": "dense_40", "trainable": true, "output_dim": 50, "init": "glorot_uniform", "activation": "relu", "W_regularizer": {"name": "L1L2Regularizer", "l1": 0.0, "l2": 9.999999747378752e-05}, "b_regularizer": null, "activity_regularizer": null, "W_constraint": null, "b_constraint": null, "bias": true, "input_dim": 50}, "inbound_nodes": [[["dense_39", 0, 0]]]}, {"name": "dense_42", "class_name": "Dense", "config": {"name": "dense_42", "trainable": true, "output_dim": 50, "init": "glorot_uniform", "activation": "relu", "W_regularizer": {"name": "L1L2Regularizer", "l1": 0.0, "l2": 9.999999747378752e-05}, "b_regularizer": null, "activity_regularizer": null, "W_constraint": null, "b_constraint": null, "bias": true, "input_dim": 50}, "inbound_nodes": [[["dense_41", 0, 0]]]}, {"name": "dense_44", "class_name": "Dense", "config": {"name": "dense_44", "trainable": true, "output_dim": 50, "init": "glorot_uniform", "activation": "relu", "W_regularizer": {"name": "L1L2Regularizer", "l1": 0.0, "l2": 9.999999747378752e-05}, "b_regularizer": null, "activity_regularizer": null, "W_constraint": null, "b_constraint": null, "bias": true, "input_dim": 50}, "inbound_nodes": [[["dense_43", 0, 0]]]}, {"name": "dense_46", "class_name": "Dense", "config": {"name": "dense_46", "trainable": true, "output_dim": 50, "init": "glorot_uniform", "activation": "relu", "W_regularizer": {"name": "L1L2Regularizer", "l1": 0.0, "l2": 9.999999747378752e-05}, "b_regularizer": null, "activity_regularizer": null, "W_constraint": null, "b_constraint": null, "bias": true, "input_dim": 50}, "inbound_nodes": [[["dense_45", 0, 0]]]}, {"name": "dense_48", "class_name": "Dense", "config": {"name": "dense_48", "trainable": true, "output_dim": 50, "init": "glorot_uniform", "activation": "relu", "W_regularizer": {"name": "L1L2Regularizer", "l1": 0.0, "l2": 9.999999747378752e-05}, "b_regularizer": null, "activity_regularizer": null, "W_constraint": null, "b_constraint": null, "bias": true, "input_dim": 50}, "inbound_nodes": [[["dense_47", 0, 0]]]}, {"name": "dense_50", "class_name": "Dense", "config": {"name": "dense_50", "trainable": true, "output_dim": 50, "init": "glorot_uniform", "activation": "relu", "W_regularizer": {"name": "L1L2Regularizer", "l1": 0.0, "l2": 9.999999747378752e-05}, "b_regularizer": null, "activity_regularizer": null, "W_constraint": null, "b_constraint": null, "bias": true, "input_dim": 50}, "inbound_nodes": [[["dense_49", 0, 0]]]}, {"name": "dense_52", "class_name": "Dense", "config": {"name": "dense_52", "trainable": true, "output_dim": 50, "init": "glorot_uniform", "activation": "relu", "W_regularizer": {"name": "L1L2Regularizer", "l1": 0.0, "l2": 9.999999747378752e-05}, "b_regularizer": null, "activity_regularizer": null, "W_constraint": null, "b_constraint": null, "bias": true, "input_dim": 50}, "inbound_nodes": [[["dense_51", 0, 0]]]}, {"name": "dense_54", "class_name": "Dense", "config": {"name": "dense_54", "trainable": true, "output_dim": 50, "init": "glorot_uniform", "activation": "relu", "W_regularizer": {"name": "L1L2Regularizer", "l1": 0.0, "l2": 9.999999747378752e-05}, "b_regularizer": null, "activity_regularizer": null, "W_constraint": null, "b_constraint": null, "bias": true, "input_dim": 50}, "inbound_nodes": [[["dense_53", 0, 0]]]}, {"name": "dense_56", "class_name": "Dense", "config": {"name": "dense_56", "trainable": true, "output_dim": 50, "init": "glorot_uniform", "activation": "relu", "W_regularizer": {"name": "L1L2Regularizer", "l1": 0.0, "l2": 9.999999747378752e-05}, "b_regularizer": null, "activity_regularizer": null, "W_constraint": null, "b_constraint": null, "bias": true, "input_dim": 50}, "inbound_nodes": [[["dense_55", 0, 0]]]}, {"name": "C1_PWH_pred", "class_name": "Dense", "config": {"name": "C1_PWH_pred", "trainable": true, "output_dim": 1, "init": "glorot_uniform", "activation": "relu", "W_regularizer": {"name": "L1L2Regularizer", "l1": 0.0, "l2": 9.999999747378752e-05}, "b_regularizer": null, "activity_regularizer": null, "W_constraint": null, "b_constraint": null, "bias": true, "input_dim": 50}, "inbound_nodes": [[["dense_30", 0, 0]]]}, {"name": "C1_PDC_pred", "class_name": "Dense", "config": {"name": "C1_PDC_pred", "trainable": true, "output_dim": 1, "init": "glorot_uniform", "activation": "relu", "W_regularizer": {"name": "L1L2Regularizer", "l1": 0.0, "l2": 9.999999747378752e-05}, "b_regularizer": null, "activity_regularizer": null, "W_constraint": null, "b_constraint": null, "bias": true, "input_dim": 50}, "inbound_nodes": [[["dense_32", 0, 0]]]}, {"name": "C2_PWH_pred", "class_name": "Dense", "config": {"name": "C2_PWH_pred", "trainable": true, "output_dim": 1, "init": "glorot_uniform", "activation": "relu", "W_regularizer": {"name": "L1L2Regularizer", "l1": 0.0, "l2": 9.999999747378752e-05}, "b_regularizer": null, "activity_regularizer": null, "W_constraint": null, "b_constraint": null, "bias": true, "input_dim": 50}, "inbound_nodes": [[["dense_34", 0, 0]]]}, {"name": "C2_PDC_pred", "class_name": "Dense", "config": {"name": "C2_PDC_pred", "trainable": true, "output_dim": 1, "init": "glorot_uniform", "activation": "relu", "W_regularizer": {"name": "L1L2Regularizer", "l1": 0.0, "l2": 9.999999747378752e-05}, "b_regularizer": null, "activity_regularizer": null, "W_constraint": null, "b_constraint": null, "bias": true, "input_dim": 50}, "inbound_nodes": [[["dense_36", 0, 0]]]}, {"name": "C3_PWH_pred", "class_name": "Dense", "config": {"name": "C3_PWH_pred", "trainable": true, "output_dim": 1, "init": "glorot_uniform", "activation": "relu", "W_regularizer": {"name": "L1L2Regularizer", "l1": 0.0, "l2": 9.999999747378752e-05}, "b_regularizer": null, "activity_regularizer": null, "W_constraint": null, "b_constraint": null, "bias": true, "input_dim": 50}, "inbound_nodes": [[["dense_38", 0, 0]]]}, {"name": "C3_PDC_pred", "class_name": "Dense", "config": {"name": "C3_PDC_pred", "trainable": true, "output_dim": 1, "init": "glorot_uniform", "activation": "relu", "W_regularizer": {"name": "L1L2Regularizer", "l1": 0.0, "l2": 9.999999747378752e-05}, "b_regularizer": null, "activity_regularizer": null, "W_constraint": null, "b_constraint": null, "bias": true, "input_dim": 50}, "inbound_nodes": [[["dense_40", 0, 0]]]}, {"name": "C4_PWH_pred", "class_name": "Dense", "config": {"name": "C4_PWH_pred", "trainable": true, "output_dim": 1, "init": "glorot_uniform", "activation": "relu", "W_regularizer": {"name": "L1L2Regularizer", "l1": 0.0, "l2": 9.999999747378752e-05}, "b_regularizer": null, "activity_regularizer": null, "W_constraint": null, "b_constraint": null, "bias": true, "input_dim": 50}, "inbound_nodes": [[["dense_42", 0, 0]]]}, {"name": "C4_PDC_pred", "class_name": "Dense", "config": {"name": "C4_PDC_pred", "trainable": true, "output_dim": 1, "init": "glorot_uniform", "activation": "relu", "W_regularizer": {"name": "L1L2Regularizer", "l1": 0.0, "l2": 9.999999747378752e-05}, "b_regularizer": null, "activity_regularizer": null, "W_constraint": null, "b_constraint": null, "bias": true, "input_dim": 50}, "inbound_nodes": [[["dense_44", 0, 0]]]}, {"name": "B3_PWH_pred", "class_name": "Dense", "config": {"name": "B3_PWH_pred", "trainable": true, "output_dim": 1, "init": "glorot_uniform", "activation": "relu", "W_regularizer": {"name": "L1L2Regularizer", "l1": 0.0, "l2": 9.999999747378752e-05}, "b_regularizer": null, "activity_regularizer": null, "W_constraint": null, "b_constraint": null, "bias": true, "input_dim": 50}, "inbound_nodes": [[["dense_46", 0, 0]]]}, {"name": "B3_PDC_pred", "class_name": "Dense", "config": {"name": "B3_PDC_pred", "trainable": true, "output_dim": 1, "init": "glorot_uniform", "activation": "relu", "W_regularizer": {"name": "L1L2Regularizer", "l1": 0.0, "l2": 9.999999747378752e-05}, "b_regularizer": null, "activity_regularizer": null, "W_constraint": null, "b_constraint": null, "bias": true, "input_dim": 50}, "inbound_nodes": [[["dense_48", 0, 0]]]}, {"name": "B1_PWH_pred", "class_name": "Dense", "config": {"name": "B1_PWH_pred", "trainable": true, "output_dim": 1, "init": "glorot_uniform", "activation": "relu", "W_regularizer": {"name": "L1L2Regularizer", "l1": 0.0, "l2": 9.999999747378752e-05}, "b_regularizer": null, "activity_regularizer": null, "W_constraint": null, "b_constraint": null, "bias": true, "input_dim": 50}, "inbound_nodes": [[["dense_50", 0, 0]]]}, {"name": "B1_PDC_pred", "class_name": "Dense", "config": {"name": "B1_PDC_pred", "trainable": true, "output_dim": 1, "init": "glorot_uniform", "activation": "relu", "W_regularizer": {"name": "L1L2Regularizer", "l1": 0.0, "l2": 9.999999747378752e-05}, "b_regularizer": null, "activity_regularizer": null, "W_constraint": null, "b_constraint": null, "bias": true, "input_dim": 50}, "inbound_nodes": [[["dense_52", 0, 0]]]}, {"name": "D1_PWH_pred", "class_name": "Dense", "config": {"name": "D1_PWH_pred", "trainable": true, "output_dim": 1, "init": "glorot_uniform", "activation": "relu", "W_regularizer": {"name": "L1L2Regularizer", "l1": 0.0, "l2": 9.999999747378752e-05}, "b_regularizer": null, "activity_regularizer": null, "W_constraint": null, "b_constraint": null, "bias": true, "input_dim": 50}, "inbound_nodes": [[["dense_54", 0, 0]]]}, {"name": "D1_PDC_pred", "class_name": "Dense", "config": {"name": "D1_PDC_pred", "trainable": true, "output_dim": 1, "init": "glorot_uniform", "activation": "relu", "W_regularizer": {"name": "L1L2Regularizer", "l1": 0.0, "l2": 9.999999747378752e-05}, "b_regularizer": null, "activity_regularizer": null, "W_constraint": null, "b_constraint": null, "bias": true, "input_dim": 50}, "inbound_nodes": [[["dense_56", 0, 0]]]}], "input_layers": [["PRESSURE_INPUT", 0, 0], ["RISER_B_CHK_INPUT", 0, 0]], "output_layers": [["C1_PWH_pred", 0, 0], ["C1_PDC_pred", 0, 0], ["C2_PWH_pred", 0, 0], ["C2_PDC_pred", 0, 0], ["C3_PWH_pred", 0, 0], ["C3_PDC_pred", 0, 0], ["C4_PWH_pred", 0, 0], ["C4_PDC_pred", 0, 0], ["B3_PWH_pred", 0, 0], ["B3_PDC_pred", 0, 0], ["B1_PWH_pred", 0, 0], ["B1_PDC_pred", 0, 0], ["D1_PWH_pred", 0, 0], ["D1_PDC_pred", 0, 0]]}, "keras_version": "1.2.1"}