{"config": {"layers": [{"config": {"sparse": false, "dtype": "float32", "batch_input_shape": [null, 4], "name": "C1"}, "inbound_nodes": [], "name": "C1", "class_name": "InputLayer"}, {"config": {"sparse": false, "dtype": "float32", "batch_input_shape": [null, 3], "name": "C2"}, "inbound_nodes": [], "name": "C2", "class_name": "InputLayer"}, {"config": {"sparse": false, "dtype": "float32", "batch_input_shape": [null, 4], "name": "C3"}, "inbound_nodes": [], "name": "C3", "class_name": "InputLayer"}, {"config": {"sparse": false, "dtype": "float32", "batch_input_shape": [null, 4], "name": "C4"}, "inbound_nodes": [], "name": "C4", "class_name": "InputLayer"}, {"config": {"sparse": false, "dtype": "float32", "batch_input_shape": [null, 4], "name": "B1"}, "inbound_nodes": [], "name": "B1", "class_name": "InputLayer"}, {"config": {"sparse": false, "dtype": "float32", "batch_input_shape": [null, 4], "name": "B3"}, "inbound_nodes": [], "name": "B3", "class_name": "InputLayer"}, {"config": {"sparse": false, "dtype": "float32", "batch_input_shape": [null, 3], "name": "D1"}, "inbound_nodes": [], "name": "D1", "class_name": "InputLayer"}, {"config": {"activity_regularizer": null, "kernel_regularizer": {"config": {"l1": 0.0, "l2": 0.0003000000142492354}, "class_name": "L1L2"}, "activation": "relu", "bias_regularizer": null, "units": 100, "kernel_initializer": {"config": {"distribution": "normal", "mode": "fan_avg", "seed": 3014, "scale": 1.0}, "class_name": "VarianceScaling"}, "name": "C1_0", "bias_constraint": null, "trainable": true, "kernel_constraint": null, "bias_initializer": {"config": {}, "class_name": "Zeros"}, "use_bias": true}, "inbound_nodes": [[["C1", 0, 0, {}]]], "name": "C1_0", "class_name": "Dense"}, {"config": {"activity_regularizer": null, "kernel_regularizer": {"config": {"l1": 0.0, "l2": 0.0003000000142492354}, "class_name": "L1L2"}, "activation": "relu", "bias_regularizer": null, "units": 100, "kernel_initializer": {"config": {"distribution": "normal", "mode": "fan_avg", "seed": 3014, "scale": 1.0}, "class_name": "VarianceScaling"}, "name": "C2_0", "bias_constraint": null, "trainable": true, "kernel_constraint": null, "bias_initializer": {"config": {}, "class_name": "Zeros"}, "use_bias": true}, "inbound_nodes": [[["C2", 0, 0, {}]]], "name": "C2_0", "class_name": "Dense"}, {"config": {"activity_regularizer": null, "kernel_regularizer": {"config": {"l1": 0.0, "l2": 0.0003000000142492354}, "class_name": "L1L2"}, "activation": "relu", "bias_regularizer": null, "units": 100, "kernel_initializer": {"config": {"distribution": "normal", "mode": "fan_avg", "seed": 3014, "scale": 1.0}, "class_name": "VarianceScaling"}, "name": "C3_0", "bias_constraint": null, "trainable": true, "kernel_constraint": null, "bias_initializer": {"config": {}, "class_name": "Zeros"}, "use_bias": true}, "inbound_nodes": [[["C3", 0, 0, {}]]], "name": "C3_0", "class_name": "Dense"}, {"config": {"activity_regularizer": null, "kernel_regularizer": {"config": {"l1": 0.0, "l2": 0.0003000000142492354}, "class_name": "L1L2"}, "activation": "relu", "bias_regularizer": null, "units": 100, "kernel_initializer": {"config": {"distribution": "normal", "mode": "fan_avg", "seed": 3014, "scale": 1.0}, "class_name": "VarianceScaling"}, "name": "C4_0", "bias_constraint": null, "trainable": true, "kernel_constraint": null, "bias_initializer": {"config": {}, "class_name": "Zeros"}, "use_bias": true}, "inbound_nodes": [[["C4", 0, 0, {}]]], "name": "C4_0", "class_name": "Dense"}, {"config": {"activity_regularizer": null, "kernel_regularizer": {"config": {"l1": 0.0, "l2": 0.0003000000142492354}, "class_name": "L1L2"}, "activation": "relu", "bias_regularizer": null, "units": 100, "kernel_initializer": {"config": {"distribution": "normal", "mode": "fan_avg", "seed": 3014, "scale": 1.0}, "class_name": "VarianceScaling"}, "name": "B1_0", "bias_constraint": null, "trainable": true, "kernel_constraint": null, "bias_initializer": {"config": {}, "class_name": "Zeros"}, "use_bias": true}, "inbound_nodes": [[["B1", 0, 0, {}]]], "name": "B1_0", "class_name": "Dense"}, {"config": {"activity_regularizer": null, "kernel_regularizer": {"config": {"l1": 0.0, "l2": 0.0003000000142492354}, "class_name": "L1L2"}, "activation": "relu", "bias_regularizer": null, "units": 100, "kernel_initializer": {"config": {"distribution": "normal", "mode": "fan_avg", "seed": 3014, "scale": 1.0}, "class_name": "VarianceScaling"}, "name": "B3_0", "bias_constraint": null, "trainable": true, "kernel_constraint": null, "bias_initializer": {"config": {}, "class_name": "Zeros"}, "use_bias": true}, "inbound_nodes": [[["B3", 0, 0, {}]]], "name": "B3_0", "class_name": "Dense"}, {"config": {"activity_regularizer": null, "kernel_regularizer": {"config": {"l1": 0.0, "l2": 0.0003000000142492354}, "class_name": "L1L2"}, "activation": "relu", "bias_regularizer": null, "units": 100, "kernel_initializer": {"config": {"distribution": "normal", "mode": "fan_avg", "seed": 3014, "scale": 1.0}, "class_name": "VarianceScaling"}, "name": "D1_0", "bias_constraint": null, "trainable": true, "kernel_constraint": null, "bias_initializer": {"config": {}, "class_name": "Zeros"}, "use_bias": true}, "inbound_nodes": [[["D1", 0, 0, {}]]], "name": "D1_0", "class_name": "Dense"}, {"config": {"activity_regularizer": null, "kernel_regularizer": {"config": {"l1": 0.0, "l2": 0.0003000000142492354}, "class_name": "L1L2"}, "activation": "relu", "bias_regularizer": null, "units": 100, "kernel_initializer": {"config": {"distribution": "normal", "mode": "fan_avg", "seed": 3014, "scale": 1.0}, "class_name": "VarianceScaling"}, "name": "C1_1", "bias_constraint": null, "trainable": true, "kernel_constraint": null, "bias_initializer": {"config": {}, "class_name": "Zeros"}, "use_bias": true}, "inbound_nodes": [[["C1_0", 0, 0, {}]]], "name": "C1_1", "class_name": "Dense"}, {"config": {"activity_regularizer": null, "kernel_regularizer": {"config": {"l1": 0.0, "l2": 0.0003000000142492354}, "class_name": "L1L2"}, "activation": "relu", "bias_regularizer": null, "units": 100, "kernel_initializer": {"config": {"distribution": "normal", "mode": "fan_avg", "seed": 3014, "scale": 1.0}, "class_name": "VarianceScaling"}, "name": "C2_1", "bias_constraint": null, "trainable": true, "kernel_constraint": null, "bias_initializer": {"config": {}, "class_name": "Zeros"}, "use_bias": true}, "inbound_nodes": [[["C2_0", 0, 0, {}]]], "name": "C2_1", "class_name": "Dense"}, {"config": {"activity_regularizer": null, "kernel_regularizer": {"config": {"l1": 0.0, "l2": 0.0003000000142492354}, "class_name": "L1L2"}, "activation": "relu", "bias_regularizer": null, "units": 100, "kernel_initializer": {"config": {"distribution": "normal", "mode": "fan_avg", "seed": 3014, "scale": 1.0}, "class_name": "VarianceScaling"}, "name": "C3_1", "bias_constraint": null, "trainable": true, "kernel_constraint": null, "bias_initializer": {"config": {}, "class_name": "Zeros"}, "use_bias": true}, "inbound_nodes": [[["C3_0", 0, 0, {}]]], "name": "C3_1", "class_name": "Dense"}, {"config": {"activity_regularizer": null, "kernel_regularizer": {"config": {"l1": 0.0, "l2": 0.0003000000142492354}, "class_name": "L1L2"}, "activation": "relu", "bias_regularizer": null, "units": 100, "kernel_initializer": {"config": {"distribution": "normal", "mode": "fan_avg", "seed": 3014, "scale": 1.0}, "class_name": "VarianceScaling"}, "name": "C4_1", "bias_constraint": null, "trainable": true, "kernel_constraint": null, "bias_initializer": {"config": {}, "class_name": "Zeros"}, "use_bias": true}, "inbound_nodes": [[["C4_0", 0, 0, {}]]], "name": "C4_1", "class_name": "Dense"}, {"config": {"activity_regularizer": null, "kernel_regularizer": {"config": {"l1": 0.0, "l2": 0.0003000000142492354}, "class_name": "L1L2"}, "activation": "relu", "bias_regularizer": null, "units": 100, "kernel_initializer": {"config": {"distribution": "normal", "mode": "fan_avg", "seed": 3014, "scale": 1.0}, "class_name": "VarianceScaling"}, "name": "B1_1", "bias_constraint": null, "trainable": true, "kernel_constraint": null, "bias_initializer": {"config": {}, "class_name": "Zeros"}, "use_bias": true}, "inbound_nodes": [[["B1_0", 0, 0, {}]]], "name": "B1_1", "class_name": "Dense"}, {"config": {"activity_regularizer": null, "kernel_regularizer": {"config": {"l1": 0.0, "l2": 0.0003000000142492354}, "class_name": "L1L2"}, "activation": "relu", "bias_regularizer": null, "units": 100, "kernel_initializer": {"config": {"distribution": "normal", "mode": "fan_avg", "seed": 3014, "scale": 1.0}, "class_name": "VarianceScaling"}, "name": "B3_1", "bias_constraint": null, "trainable": true, "kernel_constraint": null, "bias_initializer": {"config": {}, "class_name": "Zeros"}, "use_bias": true}, "inbound_nodes": [[["B3_0", 0, 0, {}]]], "name": "B3_1", "class_name": "Dense"}, {"config": {"activity_regularizer": null, "kernel_regularizer": {"config": {"l1": 0.0, "l2": 0.0003000000142492354}, "class_name": "L1L2"}, "activation": "relu", "bias_regularizer": null, "units": 100, "kernel_initializer": {"config": {"distribution": "normal", "mode": "fan_avg", "seed": 3014, "scale": 1.0}, "class_name": "VarianceScaling"}, "name": "D1_1", "bias_constraint": null, "trainable": true, "kernel_constraint": null, "bias_initializer": {"config": {}, "class_name": "Zeros"}, "use_bias": true}, "inbound_nodes": [[["D1_0", 0, 0, {}]]], "name": "D1_1", "class_name": "Dense"}, {"config": {"sparse": false, "dtype": "float32", "batch_input_shape": [null, 1], "name": "OnOff_C1"}, "inbound_nodes": [], "name": "OnOff_C1", "class_name": "InputLayer"}, {"config": {"activity_regularizer": null, "kernel_regularizer": {"config": {"l1": 0.0, "l2": 0.0003000000142492354}, "class_name": "L1L2"}, "activation": "relu", "bias_regularizer": null, "units": 1, "kernel_initializer": {"config": {"distribution": "normal", "mode": "fan_avg", "seed": 3014, "scale": 1.0}, "class_name": "VarianceScaling"}, "name": "C1_o", "bias_constraint": null, "trainable": true, "kernel_constraint": null, "bias_initializer": {"config": {}, "class_name": "Zeros"}, "use_bias": true}, "inbound_nodes": [[["C1_1", 0, 0, {}]]], "name": "C1_o", "class_name": "Dense"}, {"config": {"sparse": false, "dtype": "float32", "batch_input_shape": [null, 1], "name": "OnOff_C2"}, "inbound_nodes": [], "name": "OnOff_C2", "class_name": "InputLayer"}, {"config": {"activity_regularizer": null, "kernel_regularizer": {"config": {"l1": 0.0, "l2": 0.0003000000142492354}, "class_name": "L1L2"}, "activation": "relu", "bias_regularizer": null, "units": 1, "kernel_initializer": {"config": {"distribution": "normal", "mode": "fan_avg", "seed": 3014, "scale": 1.0}, "class_name": "VarianceScaling"}, "name": "C2_o", "bias_constraint": null, "trainable": true, "kernel_constraint": null, "bias_initializer": {"config": {}, "class_name": "Zeros"}, "use_bias": true}, "inbound_nodes": [[["C2_1", 0, 0, {}]]], "name": "C2_o", "class_name": "Dense"}, {"config": {"sparse": false, "dtype": "float32", "batch_input_shape": [null, 1], "name": "OnOff_C3"}, "inbound_nodes": [], "name": "OnOff_C3", "class_name": "InputLayer"}, {"config": {"activity_regularizer": null, "kernel_regularizer": {"config": {"l1": 0.0, "l2": 0.0003000000142492354}, "class_name": "L1L2"}, "activation": "relu", "bias_regularizer": null, "units": 1, "kernel_initializer": {"config": {"distribution": "normal", "mode": "fan_avg", "seed": 3014, "scale": 1.0}, "class_name": "VarianceScaling"}, "name": "C3_o", "bias_constraint": null, "trainable": true, "kernel_constraint": null, "bias_initializer": {"config": {}, "class_name": "Zeros"}, "use_bias": true}, "inbound_nodes": [[["C3_1", 0, 0, {}]]], "name": "C3_o", "class_name": "Dense"}, {"config": {"sparse": false, "dtype": "float32", "batch_input_shape": [null, 1], "name": "OnOff_C4"}, "inbound_nodes": [], "name": "OnOff_C4", "class_name": "InputLayer"}, {"config": {"activity_regularizer": null, "kernel_regularizer": {"config": {"l1": 0.0, "l2": 0.0003000000142492354}, "class_name": "L1L2"}, "activation": "relu", "bias_regularizer": null, "units": 1, "kernel_initializer": {"config": {"distribution": "normal", "mode": "fan_avg", "seed": 3014, "scale": 1.0}, "class_name": "VarianceScaling"}, "name": "C4_o", "bias_constraint": null, "trainable": true, "kernel_constraint": null, "bias_initializer": {"config": {}, "class_name": "Zeros"}, "use_bias": true}, "inbound_nodes": [[["C4_1", 0, 0, {}]]], "name": "C4_o", "class_name": "Dense"}, {"config": {"sparse": false, "dtype": "float32", "batch_input_shape": [null, 1], "name": "OnOff_B1"}, "inbound_nodes": [], "name": "OnOff_B1", "class_name": "InputLayer"}, {"config": {"activity_regularizer": null, "kernel_regularizer": {"config": {"l1": 0.0, "l2": 0.0003000000142492354}, "class_name": "L1L2"}, "activation": "relu", "bias_regularizer": null, "units": 1, "kernel_initializer": {"config": {"distribution": "normal", "mode": "fan_avg", "seed": 3014, "scale": 1.0}, "class_name": "VarianceScaling"}, "name": "B1_o", "bias_constraint": null, "trainable": true, "kernel_constraint": null, "bias_initializer": {"config": {}, "class_name": "Zeros"}, "use_bias": true}, "inbound_nodes": [[["B1_1", 0, 0, {}]]], "name": "B1_o", "class_name": "Dense"}, {"config": {"sparse": false, "dtype": "float32", "batch_input_shape": [null, 1], "name": "OnOff_B3"}, "inbound_nodes": [], "name": "OnOff_B3", "class_name": "InputLayer"}, {"config": {"activity_regularizer": null, "kernel_regularizer": {"config": {"l1": 0.0, "l2": 0.0003000000142492354}, "class_name": "L1L2"}, "activation": "relu", "bias_regularizer": null, "units": 1, "kernel_initializer": {"config": {"distribution": "normal", "mode": "fan_avg", "seed": 3014, "scale": 1.0}, "class_name": "VarianceScaling"}, "name": "B3_o", "bias_constraint": null, "trainable": true, "kernel_constraint": null, "bias_initializer": {"config": {}, "class_name": "Zeros"}, "use_bias": true}, "inbound_nodes": [[["B3_1", 0, 0, {}]]], "name": "B3_o", "class_name": "Dense"}, {"config": {"sparse": false, "dtype": "float32", "batch_input_shape": [null, 1], "name": "OnOff_D1"}, "inbound_nodes": [], "name": "OnOff_D1", "class_name": "InputLayer"}, {"config": {"activity_regularizer": null, "kernel_regularizer": {"config": {"l1": 0.0, "l2": 0.0003000000142492354}, "class_name": "L1L2"}, "activation": "relu", "bias_regularizer": null, "units": 1, "kernel_initializer": {"config": {"distribution": "normal", "mode": "fan_avg", "seed": 3014, "scale": 1.0}, "class_name": "VarianceScaling"}, "name": "D1_o", "bias_constraint": null, "trainable": true, "kernel_constraint": null, "bias_initializer": {"config": {}, "class_name": "Zeros"}, "use_bias": true}, "inbound_nodes": [[["D1_1", 0, 0, {}]]], "name": "D1_o", "class_name": "Dense"}, {"config": {"name": "C1_out", "trainable": true}, "inbound_nodes": [[["OnOff_C1", 0, 0, {}], ["C1_o", 0, 0, {}]]], "name": "C1_out", "class_name": "Multiply"}, {"config": {"name": "C2_out", "trainable": true}, "inbound_nodes": [[["OnOff_C2", 0, 0, {}], ["C2_o", 0, 0, {}]]], "name": "C2_out", "class_name": "Multiply"}, {"config": {"name": "C3_out", "trainable": true}, "inbound_nodes": [[["OnOff_C3", 0, 0, {}], ["C3_o", 0, 0, {}]]], "name": "C3_out", "class_name": "Multiply"}, {"config": {"name": "C4_out", "trainable": true}, "inbound_nodes": [[["OnOff_C4", 0, 0, {}], ["C4_o", 0, 0, {}]]], "name": "C4_out", "class_name": "Multiply"}, {"config": {"name": "B1_out", "trainable": true}, "inbound_nodes": [[["OnOff_B1", 0, 0, {}], ["B1_o", 0, 0, {}]]], "name": "B1_out", "class_name": "Multiply"}, {"config": {"name": "B3_out", "trainable": true}, "inbound_nodes": [[["OnOff_B3", 0, 0, {}], ["B3_o", 0, 0, {}]]], "name": "B3_out", "class_name": "Multiply"}, {"config": {"name": "D1_out", "trainable": true}, "inbound_nodes": [[["OnOff_D1", 0, 0, {}], ["D1_o", 0, 0, {}]]], "name": "D1_out", "class_name": "Multiply"}, {"config": {"name": "GJOA_TOTAL", "trainable": true}, "inbound_nodes": [[["C1_out", 0, 0, {}], ["C2_out", 0, 0, {}], ["C3_out", 0, 0, {}], ["C4_out", 0, 0, {}], ["B1_out", 0, 0, {}], ["B3_out", 0, 0, {}], ["D1_out", 0, 0, {}]]], "name": "GJOA_TOTAL", "class_name": "Add"}], "output_layers": [["C1_out", 0, 0], ["C2_out", 0, 0], ["C3_out", 0, 0], ["C4_out", 0, 0], ["B1_out", 0, 0], ["B3_out", 0, 0], ["D1_out", 0, 0], ["GJOA_TOTAL", 0, 0]], "input_layers": [["C1", 0, 0], ["C2", 0, 0], ["C3", 0, 0], ["C4", 0, 0], ["B1", 0, 0], ["B3", 0, 0], ["D1", 0, 0], ["OnOff_C1", 0, 0], ["OnOff_C2", 0, 0], ["OnOff_C3", 0, 0], ["OnOff_C4", 0, 0], ["OnOff_B1", 0, 0], ["OnOff_B3", 0, 0], ["OnOff_D1", 0, 0]], "name": "model_1"}, "backend": "theano", "keras_version": "2.0.1", "class_name": "Model"}