{"class_name": "Model", "config": {"output_layers": [["C1_out", 0, 0], ["C2_out", 0, 0], ["C3_out", 0, 0], ["C4_out", 0, 0], ["B1_out", 0, 0], ["B3_out", 0, 0], ["D1_out", 0, 0], ["GJOA_TOTAL", 0, 0]], "input_layers": [["C1", 0, 0], ["C2", 0, 0], ["C3", 0, 0], ["C4", 0, 0], ["B1", 0, 0], ["B3", 0, 0], ["D1", 0, 0], ["OnOff_C1", 0, 0], ["OnOff_C2", 0, 0], ["OnOff_C3", 0, 0], ["OnOff_C4", 0, 0], ["OnOff_B1", 0, 0], ["OnOff_B3", 0, 0], ["OnOff_D1", 0, 0]], "name": "model_1", "layers": [{"class_name": "InputLayer", "config": {"sparse": false, "dtype": "float32", "batch_input_shape": [null, 4], "name": "C1"}, "name": "C1", "inbound_nodes": []}, {"class_name": "InputLayer", "config": {"sparse": false, "dtype": "float32", "batch_input_shape": [null, 3], "name": "C2"}, "name": "C2", "inbound_nodes": []}, {"class_name": "InputLayer", "config": {"sparse": false, "dtype": "float32", "batch_input_shape": [null, 4], "name": "C3"}, "name": "C3", "inbound_nodes": []}, {"class_name": "InputLayer", "config": {"sparse": false, "dtype": "float32", "batch_input_shape": [null, 4], "name": "C4"}, "name": "C4", "inbound_nodes": []}, {"class_name": "InputLayer", "config": {"sparse": false, "dtype": "float32", "batch_input_shape": [null, 4], "name": "B1"}, "name": "B1", "inbound_nodes": []}, {"class_name": "InputLayer", "config": {"sparse": false, "dtype": "float32", "batch_input_shape": [null, 4], "name": "B3"}, "name": "B3", "inbound_nodes": []}, {"class_name": "InputLayer", "config": {"sparse": false, "dtype": "float32", "batch_input_shape": [null, 3], "name": "D1"}, "name": "D1", "inbound_nodes": []}, {"class_name": "Dense", "config": {"trainable": true, "bias_constraint": null, "activation": "relu", "units": 100, "bias_regularizer": null, "kernel_regularizer": {"class_name": "L1L2", "config": {"l1": 0.0, "l2": 0.0007999999797903001}}, "use_bias": true, "bias_initializer": {"class_name": "Zeros", "config": {}}, "kernel_initializer": {"class_name": "VarianceScaling", "config": {"scale": 1.0, "mode": "fan_avg", "seed": 3014, "distribution": "normal"}}, "kernel_constraint": null, "name": "C1_0", "activity_regularizer": null}, "name": "C1_0", "inbound_nodes": [[["C1", 0, 0, {}]]]}, {"class_name": "Dense", "config": {"trainable": true, "bias_constraint": null, "activation": "relu", "units": 100, "bias_regularizer": null, "kernel_regularizer": {"class_name": "L1L2", "config": {"l1": 0.0, "l2": 0.0007999999797903001}}, "use_bias": true, "bias_initializer": {"class_name": "Zeros", "config": {}}, "kernel_initializer": {"class_name": "VarianceScaling", "config": {"scale": 1.0, "mode": "fan_avg", "seed": 3014, "distribution": "normal"}}, "kernel_constraint": null, "name": "C2_0", "activity_regularizer": null}, "name": "C2_0", "inbound_nodes": [[["C2", 0, 0, {}]]]}, {"class_name": "Dense", "config": {"trainable": true, "bias_constraint": null, "activation": "relu", "units": 100, "bias_regularizer": null, "kernel_regularizer": {"class_name": "L1L2", "config": {"l1": 0.0, "l2": 0.0007999999797903001}}, "use_bias": true, "bias_initializer": {"class_name": "Zeros", "config": {}}, "kernel_initializer": {"class_name": "VarianceScaling", "config": {"scale": 1.0, "mode": "fan_avg", "seed": 3014, "distribution": "normal"}}, "kernel_constraint": null, "name": "C3_0", "activity_regularizer": null}, "name": "C3_0", "inbound_nodes": [[["C3", 0, 0, {}]]]}, {"class_name": "Dense", "config": {"trainable": true, "bias_constraint": null, "activation": "relu", "units": 100, "bias_regularizer": null, "kernel_regularizer": {"class_name": "L1L2", "config": {"l1": 0.0, "l2": 0.0007999999797903001}}, "use_bias": true, "bias_initializer": {"class_name": "Zeros", "config": {}}, "kernel_initializer": {"class_name": "VarianceScaling", "config": {"scale": 1.0, "mode": "fan_avg", "seed": 3014, "distribution": "normal"}}, "kernel_constraint": null, "name": "C4_0", "activity_regularizer": null}, "name": "C4_0", "inbound_nodes": [[["C4", 0, 0, {}]]]}, {"class_name": "Dense", "config": {"trainable": true, "bias_constraint": null, "activation": "relu", "units": 100, "bias_regularizer": null, "kernel_regularizer": {"class_name": "L1L2", "config": {"l1": 0.0, "l2": 0.0007999999797903001}}, "use_bias": true, "bias_initializer": {"class_name": "Zeros", "config": {}}, "kernel_initializer": {"class_name": "VarianceScaling", "config": {"scale": 1.0, "mode": "fan_avg", "seed": 3014, "distribution": "normal"}}, "kernel_constraint": null, "name": "B1_0", "activity_regularizer": null}, "name": "B1_0", "inbound_nodes": [[["B1", 0, 0, {}]]]}, {"class_name": "Dense", "config": {"trainable": true, "bias_constraint": null, "activation": "relu", "units": 100, "bias_regularizer": null, "kernel_regularizer": {"class_name": "L1L2", "config": {"l1": 0.0, "l2": 0.0007999999797903001}}, "use_bias": true, "bias_initializer": {"class_name": "Zeros", "config": {}}, "kernel_initializer": {"class_name": "VarianceScaling", "config": {"scale": 1.0, "mode": "fan_avg", "seed": 3014, "distribution": "normal"}}, "kernel_constraint": null, "name": "B3_0", "activity_regularizer": null}, "name": "B3_0", "inbound_nodes": [[["B3", 0, 0, {}]]]}, {"class_name": "Dense", "config": {"trainable": true, "bias_constraint": null, "activation": "relu", "units": 100, "bias_regularizer": null, "kernel_regularizer": {"class_name": "L1L2", "config": {"l1": 0.0, "l2": 0.0007999999797903001}}, "use_bias": true, "bias_initializer": {"class_name": "Zeros", "config": {}}, "kernel_initializer": {"class_name": "VarianceScaling", "config": {"scale": 1.0, "mode": "fan_avg", "seed": 3014, "distribution": "normal"}}, "kernel_constraint": null, "name": "D1_0", "activity_regularizer": null}, "name": "D1_0", "inbound_nodes": [[["D1", 0, 0, {}]]]}, {"class_name": "Dense", "config": {"trainable": true, "bias_constraint": null, "activation": "relu", "units": 100, "bias_regularizer": null, "kernel_regularizer": {"class_name": "L1L2", "config": {"l1": 0.0, "l2": 0.0007999999797903001}}, "use_bias": true, "bias_initializer": {"class_name": "Zeros", "config": {}}, "kernel_initializer": {"class_name": "VarianceScaling", "config": {"scale": 1.0, "mode": "fan_avg", "seed": 3014, "distribution": "normal"}}, "kernel_constraint": null, "name": "C1_1", "activity_regularizer": null}, "name": "C1_1", "inbound_nodes": [[["C1_0", 0, 0, {}]]]}, {"class_name": "Dense", "config": {"trainable": true, "bias_constraint": null, "activation": "relu", "units": 100, "bias_regularizer": null, "kernel_regularizer": {"class_name": "L1L2", "config": {"l1": 0.0, "l2": 0.0007999999797903001}}, "use_bias": true, "bias_initializer": {"class_name": "Zeros", "config": {}}, "kernel_initializer": {"class_name": "VarianceScaling", "config": {"scale": 1.0, "mode": "fan_avg", "seed": 3014, "distribution": "normal"}}, "kernel_constraint": null, "name": "C2_1", "activity_regularizer": null}, "name": "C2_1", "inbound_nodes": [[["C2_0", 0, 0, {}]]]}, {"class_name": "Dense", "config": {"trainable": true, "bias_constraint": null, "activation": "relu", "units": 100, "bias_regularizer": null, "kernel_regularizer": {"class_name": "L1L2", "config": {"l1": 0.0, "l2": 0.0007999999797903001}}, "use_bias": true, "bias_initializer": {"class_name": "Zeros", "config": {}}, "kernel_initializer": {"class_name": "VarianceScaling", "config": {"scale": 1.0, "mode": "fan_avg", "seed": 3014, "distribution": "normal"}}, "kernel_constraint": null, "name": "C3_1", "activity_regularizer": null}, "name": "C3_1", "inbound_nodes": [[["C3_0", 0, 0, {}]]]}, {"class_name": "Dense", "config": {"trainable": true, "bias_constraint": null, "activation": "relu", "units": 100, "bias_regularizer": null, "kernel_regularizer": {"class_name": "L1L2", "config": {"l1": 0.0, "l2": 0.0007999999797903001}}, "use_bias": true, "bias_initializer": {"class_name": "Zeros", "config": {}}, "kernel_initializer": {"class_name": "VarianceScaling", "config": {"scale": 1.0, "mode": "fan_avg", "seed": 3014, "distribution": "normal"}}, "kernel_constraint": null, "name": "C4_1", "activity_regularizer": null}, "name": "C4_1", "inbound_nodes": [[["C4_0", 0, 0, {}]]]}, {"class_name": "Dense", "config": {"trainable": true, "bias_constraint": null, "activation": "relu", "units": 100, "bias_regularizer": null, "kernel_regularizer": {"class_name": "L1L2", "config": {"l1": 0.0, "l2": 0.0007999999797903001}}, "use_bias": true, "bias_initializer": {"class_name": "Zeros", "config": {}}, "kernel_initializer": {"class_name": "VarianceScaling", "config": {"scale": 1.0, "mode": "fan_avg", "seed": 3014, "distribution": "normal"}}, "kernel_constraint": null, "name": "B1_1", "activity_regularizer": null}, "name": "B1_1", "inbound_nodes": [[["B1_0", 0, 0, {}]]]}, {"class_name": "Dense", "config": {"trainable": true, "bias_constraint": null, "activation": "relu", "units": 100, "bias_regularizer": null, "kernel_regularizer": {"class_name": "L1L2", "config": {"l1": 0.0, "l2": 0.0007999999797903001}}, "use_bias": true, "bias_initializer": {"class_name": "Zeros", "config": {}}, "kernel_initializer": {"class_name": "VarianceScaling", "config": {"scale": 1.0, "mode": "fan_avg", "seed": 3014, "distribution": "normal"}}, "kernel_constraint": null, "name": "B3_1", "activity_regularizer": null}, "name": "B3_1", "inbound_nodes": [[["B3_0", 0, 0, {}]]]}, {"class_name": "Dense", "config": {"trainable": true, "bias_constraint": null, "activation": "relu", "units": 100, "bias_regularizer": null, "kernel_regularizer": {"class_name": "L1L2", "config": {"l1": 0.0, "l2": 0.0007999999797903001}}, "use_bias": true, "bias_initializer": {"class_name": "Zeros", "config": {}}, "kernel_initializer": {"class_name": "VarianceScaling", "config": {"scale": 1.0, "mode": "fan_avg", "seed": 3014, "distribution": "normal"}}, "kernel_constraint": null, "name": "D1_1", "activity_regularizer": null}, "name": "D1_1", "inbound_nodes": [[["D1_0", 0, 0, {}]]]}, {"class_name": "InputLayer", "config": {"sparse": false, "dtype": "float32", "batch_input_shape": [null, 1], "name": "OnOff_C1"}, "name": "OnOff_C1", "inbound_nodes": []}, {"class_name": "Dense", "config": {"trainable": true, "bias_constraint": null, "activation": "relu", "units": 1, "bias_regularizer": null, "kernel_regularizer": {"class_name": "L1L2", "config": {"l1": 0.0, "l2": 0.0007999999797903001}}, "use_bias": true, "bias_initializer": {"class_name": "Zeros", "config": {}}, "kernel_initializer": {"class_name": "VarianceScaling", "config": {"scale": 1.0, "mode": "fan_avg", "seed": 3014, "distribution": "normal"}}, "kernel_constraint": null, "name": "C1_o", "activity_regularizer": null}, "name": "C1_o", "inbound_nodes": [[["C1_1", 0, 0, {}]]]}, {"class_name": "InputLayer", "config": {"sparse": false, "dtype": "float32", "batch_input_shape": [null, 1], "name": "OnOff_C2"}, "name": "OnOff_C2", "inbound_nodes": []}, {"class_name": "Dense", "config": {"trainable": true, "bias_constraint": null, "activation": "relu", "units": 1, "bias_regularizer": null, "kernel_regularizer": {"class_name": "L1L2", "config": {"l1": 0.0, "l2": 0.0007999999797903001}}, "use_bias": true, "bias_initializer": {"class_name": "Zeros", "config": {}}, "kernel_initializer": {"class_name": "VarianceScaling", "config": {"scale": 1.0, "mode": "fan_avg", "seed": 3014, "distribution": "normal"}}, "kernel_constraint": null, "name": "C2_o", "activity_regularizer": null}, "name": "C2_o", "inbound_nodes": [[["C2_1", 0, 0, {}]]]}, {"class_name": "InputLayer", "config": {"sparse": false, "dtype": "float32", "batch_input_shape": [null, 1], "name": "OnOff_C3"}, "name": "OnOff_C3", "inbound_nodes": []}, {"class_name": "Dense", "config": {"trainable": true, "bias_constraint": null, "activation": "relu", "units": 1, "bias_regularizer": null, "kernel_regularizer": {"class_name": "L1L2", "config": {"l1": 0.0, "l2": 0.0007999999797903001}}, "use_bias": true, "bias_initializer": {"class_name": "Zeros", "config": {}}, "kernel_initializer": {"class_name": "VarianceScaling", "config": {"scale": 1.0, "mode": "fan_avg", "seed": 3014, "distribution": "normal"}}, "kernel_constraint": null, "name": "C3_o", "activity_regularizer": null}, "name": "C3_o", "inbound_nodes": [[["C3_1", 0, 0, {}]]]}, {"class_name": "InputLayer", "config": {"sparse": false, "dtype": "float32", "batch_input_shape": [null, 1], "name": "OnOff_C4"}, "name": "OnOff_C4", "inbound_nodes": []}, {"class_name": "Dense", "config": {"trainable": true, "bias_constraint": null, "activation": "relu", "units": 1, "bias_regularizer": null, "kernel_regularizer": {"class_name": "L1L2", "config": {"l1": 0.0, "l2": 0.0007999999797903001}}, "use_bias": true, "bias_initializer": {"class_name": "Zeros", "config": {}}, "kernel_initializer": {"class_name": "VarianceScaling", "config": {"scale": 1.0, "mode": "fan_avg", "seed": 3014, "distribution": "normal"}}, "kernel_constraint": null, "name": "C4_o", "activity_regularizer": null}, "name": "C4_o", "inbound_nodes": [[["C4_1", 0, 0, {}]]]}, {"class_name": "InputLayer", "config": {"sparse": false, "dtype": "float32", "batch_input_shape": [null, 1], "name": "OnOff_B1"}, "name": "OnOff_B1", "inbound_nodes": []}, {"class_name": "Dense", "config": {"trainable": true, "bias_constraint": null, "activation": "relu", "units": 1, "bias_regularizer": null, "kernel_regularizer": {"class_name": "L1L2", "config": {"l1": 0.0, "l2": 0.0007999999797903001}}, "use_bias": true, "bias_initializer": {"class_name": "Zeros", "config": {}}, "kernel_initializer": {"class_name": "VarianceScaling", "config": {"scale": 1.0, "mode": "fan_avg", "seed": 3014, "distribution": "normal"}}, "kernel_constraint": null, "name": "B1_o", "activity_regularizer": null}, "name": "B1_o", "inbound_nodes": [[["B1_1", 0, 0, {}]]]}, {"class_name": "InputLayer", "config": {"sparse": false, "dtype": "float32", "batch_input_shape": [null, 1], "name": "OnOff_B3"}, "name": "OnOff_B3", "inbound_nodes": []}, {"class_name": "Dense", "config": {"trainable": true, "bias_constraint": null, "activation": "relu", "units": 1, "bias_regularizer": null, "kernel_regularizer": {"class_name": "L1L2", "config": {"l1": 0.0, "l2": 0.0007999999797903001}}, "use_bias": true, "bias_initializer": {"class_name": "Zeros", "config": {}}, "kernel_initializer": {"class_name": "VarianceScaling", "config": {"scale": 1.0, "mode": "fan_avg", "seed": 3014, "distribution": "normal"}}, "kernel_constraint": null, "name": "B3_o", "activity_regularizer": null}, "name": "B3_o", "inbound_nodes": [[["B3_1", 0, 0, {}]]]}, {"class_name": "InputLayer", "config": {"sparse": false, "dtype": "float32", "batch_input_shape": [null, 1], "name": "OnOff_D1"}, "name": "OnOff_D1", "inbound_nodes": []}, {"class_name": "Dense", "config": {"trainable": true, "bias_constraint": null, "activation": "relu", "units": 1, "bias_regularizer": null, "kernel_regularizer": {"class_name": "L1L2", "config": {"l1": 0.0, "l2": 0.0007999999797903001}}, "use_bias": true, "bias_initializer": {"class_name": "Zeros", "config": {}}, "kernel_initializer": {"class_name": "VarianceScaling", "config": {"scale": 1.0, "mode": "fan_avg", "seed": 3014, "distribution": "normal"}}, "kernel_constraint": null, "name": "D1_o", "activity_regularizer": null}, "name": "D1_o", "inbound_nodes": [[["D1_1", 0, 0, {}]]]}, {"class_name": "Multiply", "config": {"trainable": true, "name": "C1_out"}, "name": "C1_out", "inbound_nodes": [[["OnOff_C1", 0, 0, {}], ["C1_o", 0, 0, {}]]]}, {"class_name": "Multiply", "config": {"trainable": true, "name": "C2_out"}, "name": "C2_out", "inbound_nodes": [[["OnOff_C2", 0, 0, {}], ["C2_o", 0, 0, {}]]]}, {"class_name": "Multiply", "config": {"trainable": true, "name": "C3_out"}, "name": "C3_out", "inbound_nodes": [[["OnOff_C3", 0, 0, {}], ["C3_o", 0, 0, {}]]]}, {"class_name": "Multiply", "config": {"trainable": true, "name": "C4_out"}, "name": "C4_out", "inbound_nodes": [[["OnOff_C4", 0, 0, {}], ["C4_o", 0, 0, {}]]]}, {"class_name": "Multiply", "config": {"trainable": true, "name": "B1_out"}, "name": "B1_out", "inbound_nodes": [[["OnOff_B1", 0, 0, {}], ["B1_o", 0, 0, {}]]]}, {"class_name": "Multiply", "config": {"trainable": true, "name": "B3_out"}, "name": "B3_out", "inbound_nodes": [[["OnOff_B3", 0, 0, {}], ["B3_o", 0, 0, {}]]]}, {"class_name": "Multiply", "config": {"trainable": true, "name": "D1_out"}, "name": "D1_out", "inbound_nodes": [[["OnOff_D1", 0, 0, {}], ["D1_o", 0, 0, {}]]]}, {"class_name": "Add", "config": {"trainable": true, "name": "GJOA_TOTAL"}, "name": "GJOA_TOTAL", "inbound_nodes": [[["C1_out", 0, 0, {}], ["C2_out", 0, 0, {}], ["C3_out", 0, 0, {}], ["C4_out", 0, 0, {}], ["B1_out", 0, 0, {}], ["B3_out", 0, 0, {}], ["D1_out", 0, 0, {}]]]}]}, "keras_version": "2.0.1", "backend": "theano"}