{"backend": "theano", "config": {"input_layers": [["C1", 0, 0], ["C2", 0, 0], ["C3", 0, 0], ["C4", 0, 0], ["B1", 0, 0], ["B3", 0, 0], ["D1", 0, 0], ["OnOff_C1", 0, 0], ["OnOff_C2", 0, 0], ["OnOff_C3", 0, 0], ["OnOff_C4", 0, 0], ["OnOff_B1", 0, 0], ["OnOff_B3", 0, 0], ["OnOff_D1", 0, 0]], "layers": [{"inbound_nodes": [], "config": {"sparse": false, "dtype": "float32", "batch_input_shape": [null, 4], "name": "C1"}, "name": "C1", "class_name": "InputLayer"}, {"inbound_nodes": [], "config": {"sparse": false, "dtype": "float32", "batch_input_shape": [null, 3], "name": "C2"}, "name": "C2", "class_name": "InputLayer"}, {"inbound_nodes": [], "config": {"sparse": false, "dtype": "float32", "batch_input_shape": [null, 4], "name": "C3"}, "name": "C3", "class_name": "InputLayer"}, {"inbound_nodes": [], "config": {"sparse": false, "dtype": "float32", "batch_input_shape": [null, 4], "name": "C4"}, "name": "C4", "class_name": "InputLayer"}, {"inbound_nodes": [], "config": {"sparse": false, "dtype": "float32", "batch_input_shape": [null, 4], "name": "B1"}, "name": "B1", "class_name": "InputLayer"}, {"inbound_nodes": [], "config": {"sparse": false, "dtype": "float32", "batch_input_shape": [null, 4], "name": "B3"}, "name": "B3", "class_name": "InputLayer"}, {"inbound_nodes": [], "config": {"sparse": false, "dtype": "float32", "batch_input_shape": [null, 3], "name": "D1"}, "name": "D1", "class_name": "InputLayer"}, {"inbound_nodes": [[["C1", 0, 0, {}]]], "config": {"kernel_initializer": {"config": {"seed": 9035, "distribution": "normal", "scale": 1.0, "mode": "fan_avg"}, "class_name": "VarianceScaling"}, "bias_constraint": null, "activity_regularizer": null, "kernel_constraint": null, "name": "dense_1", "use_bias": true, "activation": "relu", "bias_regularizer": null, "trainable": true, "bias_initializer": {"config": {}, "class_name": "Zeros"}, "units": 50, "kernel_regularizer": {"config": {"l2": 4.999999873689376e-05, "l1": 0.0}, "class_name": "L1L2"}}, "name": "dense_1", "class_name": "Dense"}, {"inbound_nodes": [[["C2", 0, 0, {}]]], "config": {"kernel_initializer": {"config": {"seed": 9035, "distribution": "normal", "scale": 1.0, "mode": "fan_avg"}, "class_name": "VarianceScaling"}, "bias_constraint": null, "activity_regularizer": null, "kernel_constraint": null, "name": "dense_5", "use_bias": true, "activation": "relu", "bias_regularizer": null, "trainable": true, "bias_initializer": {"config": {}, "class_name": "Zeros"}, "units": 50, "kernel_regularizer": {"config": {"l2": 4.999999873689376e-05, "l1": 0.0}, "class_name": "L1L2"}}, "name": "dense_5", "class_name": "Dense"}, {"inbound_nodes": [[["C3", 0, 0, {}]]], "config": {"kernel_initializer": {"config": {"seed": 9035, "distribution": "normal", "scale": 1.0, "mode": "fan_avg"}, "class_name": "VarianceScaling"}, "bias_constraint": null, "activity_regularizer": null, "kernel_constraint": null, "name": "dense_9", "use_bias": true, "activation": "relu", "bias_regularizer": null, "trainable": true, "bias_initializer": {"config": {}, "class_name": "Zeros"}, "units": 50, "kernel_regularizer": {"config": {"l2": 4.999999873689376e-05, "l1": 0.0}, "class_name": "L1L2"}}, "name": "dense_9", "class_name": "Dense"}, {"inbound_nodes": [[["C4", 0, 0, {}]]], "config": {"kernel_initializer": {"config": {"seed": 9035, "distribution": "normal", "scale": 1.0, "mode": "fan_avg"}, "class_name": "VarianceScaling"}, "bias_constraint": null, "activity_regularizer": null, "kernel_constraint": null, "name": "dense_13", "use_bias": true, "activation": "relu", "bias_regularizer": null, "trainable": true, "bias_initializer": {"config": {}, "class_name": "Zeros"}, "units": 50, "kernel_regularizer": {"config": {"l2": 4.999999873689376e-05, "l1": 0.0}, "class_name": "L1L2"}}, "name": "dense_13", "class_name": "Dense"}, {"inbound_nodes": [[["B1", 0, 0, {}]]], "config": {"kernel_initializer": {"config": {"seed": 9035, "distribution": "normal", "scale": 1.0, "mode": "fan_avg"}, "class_name": "VarianceScaling"}, "bias_constraint": null, "activity_regularizer": null, "kernel_constraint": null, "name": "dense_17", "use_bias": true, "activation": "relu", "bias_regularizer": null, "trainable": true, "bias_initializer": {"config": {}, "class_name": "Zeros"}, "units": 50, "kernel_regularizer": {"config": {"l2": 4.999999873689376e-05, "l1": 0.0}, "class_name": "L1L2"}}, "name": "dense_17", "class_name": "Dense"}, {"inbound_nodes": [[["B3", 0, 0, {}]]], "config": {"kernel_initializer": {"config": {"seed": 9035, "distribution": "normal", "scale": 1.0, "mode": "fan_avg"}, "class_name": "VarianceScaling"}, "bias_constraint": null, "activity_regularizer": null, "kernel_constraint": null, "name": "dense_21", "use_bias": true, "activation": "relu", "bias_regularizer": null, "trainable": true, "bias_initializer": {"config": {}, "class_name": "Zeros"}, "units": 50, "kernel_regularizer": {"config": {"l2": 4.999999873689376e-05, "l1": 0.0}, "class_name": "L1L2"}}, "name": "dense_21", "class_name": "Dense"}, {"inbound_nodes": [[["D1", 0, 0, {}]]], "config": {"kernel_initializer": {"config": {"seed": 9035, "distribution": "normal", "scale": 1.0, "mode": "fan_avg"}, "class_name": "VarianceScaling"}, "bias_constraint": null, "activity_regularizer": null, "kernel_constraint": null, "name": "dense_25", "use_bias": true, "activation": "relu", "bias_regularizer": null, "trainable": true, "bias_initializer": {"config": {}, "class_name": "Zeros"}, "units": 50, "kernel_regularizer": {"config": {"l2": 4.999999873689376e-05, "l1": 0.0}, "class_name": "L1L2"}}, "name": "dense_25", "class_name": "Dense"}, {"inbound_nodes": [[["dense_1", 0, 0, {}]]], "config": {"kernel_initializer": {"config": {"seed": 9035, "distribution": "normal", "scale": 1.0, "mode": "fan_avg"}, "class_name": "VarianceScaling"}, "bias_constraint": null, "activity_regularizer": null, "kernel_constraint": null, "name": "dense_2", "use_bias": true, "activation": "relu", "bias_regularizer": null, "trainable": true, "bias_initializer": {"config": {}, "class_name": "Zeros"}, "units": 50, "kernel_regularizer": {"config": {"l2": 4.999999873689376e-05, "l1": 0.0}, "class_name": "L1L2"}}, "name": "dense_2", "class_name": "Dense"}, {"inbound_nodes": [[["dense_5", 0, 0, {}]]], "config": {"kernel_initializer": {"config": {"seed": 9035, "distribution": "normal", "scale": 1.0, "mode": "fan_avg"}, "class_name": "VarianceScaling"}, "bias_constraint": null, "activity_regularizer": null, "kernel_constraint": null, "name": "dense_6", "use_bias": true, "activation": "relu", "bias_regularizer": null, "trainable": true, "bias_initializer": {"config": {}, "class_name": "Zeros"}, "units": 50, "kernel_regularizer": {"config": {"l2": 4.999999873689376e-05, "l1": 0.0}, "class_name": "L1L2"}}, "name": "dense_6", "class_name": "Dense"}, {"inbound_nodes": [[["dense_9", 0, 0, {}]]], "config": {"kernel_initializer": {"config": {"seed": 9035, "distribution": "normal", "scale": 1.0, "mode": "fan_avg"}, "class_name": "VarianceScaling"}, "bias_constraint": null, "activity_regularizer": null, "kernel_constraint": null, "name": "dense_10", "use_bias": true, "activation": "relu", "bias_regularizer": null, "trainable": true, "bias_initializer": {"config": {}, "class_name": "Zeros"}, "units": 50, "kernel_regularizer": {"config": {"l2": 4.999999873689376e-05, "l1": 0.0}, "class_name": "L1L2"}}, "name": "dense_10", "class_name": "Dense"}, {"inbound_nodes": [[["dense_13", 0, 0, {}]]], "config": {"kernel_initializer": {"config": {"seed": 9035, "distribution": "normal", "scale": 1.0, "mode": "fan_avg"}, "class_name": "VarianceScaling"}, "bias_constraint": null, "activity_regularizer": null, "kernel_constraint": null, "name": "dense_14", "use_bias": true, "activation": "relu", "bias_regularizer": null, "trainable": true, "bias_initializer": {"config": {}, "class_name": "Zeros"}, "units": 50, "kernel_regularizer": {"config": {"l2": 4.999999873689376e-05, "l1": 0.0}, "class_name": "L1L2"}}, "name": "dense_14", "class_name": "Dense"}, {"inbound_nodes": [[["dense_17", 0, 0, {}]]], "config": {"kernel_initializer": {"config": {"seed": 9035, "distribution": "normal", "scale": 1.0, "mode": "fan_avg"}, "class_name": "VarianceScaling"}, "bias_constraint": null, "activity_regularizer": null, "kernel_constraint": null, "name": "dense_18", "use_bias": true, "activation": "relu", "bias_regularizer": null, "trainable": true, "bias_initializer": {"config": {}, "class_name": "Zeros"}, "units": 50, "kernel_regularizer": {"config": {"l2": 4.999999873689376e-05, "l1": 0.0}, "class_name": "L1L2"}}, "name": "dense_18", "class_name": "Dense"}, {"inbound_nodes": [[["dense_21", 0, 0, {}]]], "config": {"kernel_initializer": {"config": {"seed": 9035, "distribution": "normal", "scale": 1.0, "mode": "fan_avg"}, "class_name": "VarianceScaling"}, "bias_constraint": null, "activity_regularizer": null, "kernel_constraint": null, "name": "dense_22", "use_bias": true, "activation": "relu", "bias_regularizer": null, "trainable": true, "bias_initializer": {"config": {}, "class_name": "Zeros"}, "units": 50, "kernel_regularizer": {"config": {"l2": 4.999999873689376e-05, "l1": 0.0}, "class_name": "L1L2"}}, "name": "dense_22", "class_name": "Dense"}, {"inbound_nodes": [[["dense_25", 0, 0, {}]]], "config": {"kernel_initializer": {"config": {"seed": 9035, "distribution": "normal", "scale": 1.0, "mode": "fan_avg"}, "class_name": "VarianceScaling"}, "bias_constraint": null, "activity_regularizer": null, "kernel_constraint": null, "name": "dense_26", "use_bias": true, "activation": "relu", "bias_regularizer": null, "trainable": true, "bias_initializer": {"config": {}, "class_name": "Zeros"}, "units": 50, "kernel_regularizer": {"config": {"l2": 4.999999873689376e-05, "l1": 0.0}, "class_name": "L1L2"}}, "name": "dense_26", "class_name": "Dense"}, {"inbound_nodes": [[["dense_2", 0, 0, {}]]], "config": {"kernel_initializer": {"config": {"seed": 9035, "distribution": "normal", "scale": 1.0, "mode": "fan_avg"}, "class_name": "VarianceScaling"}, "bias_constraint": null, "activity_regularizer": null, "kernel_constraint": null, "name": "dense_3", "use_bias": true, "activation": "relu", "bias_regularizer": null, "trainable": true, "bias_initializer": {"config": {}, "class_name": "Zeros"}, "units": 50, "kernel_regularizer": {"config": {"l2": 4.999999873689376e-05, "l1": 0.0}, "class_name": "L1L2"}}, "name": "dense_3", "class_name": "Dense"}, {"inbound_nodes": [[["dense_6", 0, 0, {}]]], "config": {"kernel_initializer": {"config": {"seed": 9035, "distribution": "normal", "scale": 1.0, "mode": "fan_avg"}, "class_name": "VarianceScaling"}, "bias_constraint": null, "activity_regularizer": null, "kernel_constraint": null, "name": "dense_7", "use_bias": true, "activation": "relu", "bias_regularizer": null, "trainable": true, "bias_initializer": {"config": {}, "class_name": "Zeros"}, "units": 50, "kernel_regularizer": {"config": {"l2": 4.999999873689376e-05, "l1": 0.0}, "class_name": "L1L2"}}, "name": "dense_7", "class_name": "Dense"}, {"inbound_nodes": [[["dense_10", 0, 0, {}]]], "config": {"kernel_initializer": {"config": {"seed": 9035, "distribution": "normal", "scale": 1.0, "mode": "fan_avg"}, "class_name": "VarianceScaling"}, "bias_constraint": null, "activity_regularizer": null, "kernel_constraint": null, "name": "dense_11", "use_bias": true, "activation": "relu", "bias_regularizer": null, "trainable": true, "bias_initializer": {"config": {}, "class_name": "Zeros"}, "units": 50, "kernel_regularizer": {"config": {"l2": 4.999999873689376e-05, "l1": 0.0}, "class_name": "L1L2"}}, "name": "dense_11", "class_name": "Dense"}, {"inbound_nodes": [[["dense_14", 0, 0, {}]]], "config": {"kernel_initializer": {"config": {"seed": 9035, "distribution": "normal", "scale": 1.0, "mode": "fan_avg"}, "class_name": "VarianceScaling"}, "bias_constraint": null, "activity_regularizer": null, "kernel_constraint": null, "name": "dense_15", "use_bias": true, "activation": "relu", "bias_regularizer": null, "trainable": true, "bias_initializer": {"config": {}, "class_name": "Zeros"}, "units": 50, "kernel_regularizer": {"config": {"l2": 4.999999873689376e-05, "l1": 0.0}, "class_name": "L1L2"}}, "name": "dense_15", "class_name": "Dense"}, {"inbound_nodes": [[["dense_18", 0, 0, {}]]], "config": {"kernel_initializer": {"config": {"seed": 9035, "distribution": "normal", "scale": 1.0, "mode": "fan_avg"}, "class_name": "VarianceScaling"}, "bias_constraint": null, "activity_regularizer": null, "kernel_constraint": null, "name": "dense_19", "use_bias": true, "activation": "relu", "bias_regularizer": null, "trainable": true, "bias_initializer": {"config": {}, "class_name": "Zeros"}, "units": 50, "kernel_regularizer": {"config": {"l2": 4.999999873689376e-05, "l1": 0.0}, "class_name": "L1L2"}}, "name": "dense_19", "class_name": "Dense"}, {"inbound_nodes": [[["dense_22", 0, 0, {}]]], "config": {"kernel_initializer": {"config": {"seed": 9035, "distribution": "normal", "scale": 1.0, "mode": "fan_avg"}, "class_name": "VarianceScaling"}, "bias_constraint": null, "activity_regularizer": null, "kernel_constraint": null, "name": "dense_23", "use_bias": true, "activation": "relu", "bias_regularizer": null, "trainable": true, "bias_initializer": {"config": {}, "class_name": "Zeros"}, "units": 50, "kernel_regularizer": {"config": {"l2": 4.999999873689376e-05, "l1": 0.0}, "class_name": "L1L2"}}, "name": "dense_23", "class_name": "Dense"}, {"inbound_nodes": [[["dense_26", 0, 0, {}]]], "config": {"kernel_initializer": {"config": {"seed": 9035, "distribution": "normal", "scale": 1.0, "mode": "fan_avg"}, "class_name": "VarianceScaling"}, "bias_constraint": null, "activity_regularizer": null, "kernel_constraint": null, "name": "dense_27", "use_bias": true, "activation": "relu", "bias_regularizer": null, "trainable": true, "bias_initializer": {"config": {}, "class_name": "Zeros"}, "units": 50, "kernel_regularizer": {"config": {"l2": 4.999999873689376e-05, "l1": 0.0}, "class_name": "L1L2"}}, "name": "dense_27", "class_name": "Dense"}, {"inbound_nodes": [], "config": {"sparse": false, "dtype": "float32", "batch_input_shape": [null, 1], "name": "OnOff_C1"}, "name": "OnOff_C1", "class_name": "InputLayer"}, {"inbound_nodes": [[["dense_3", 0, 0, {}]]], "config": {"kernel_initializer": {"config": {"seed": 9035, "distribution": "normal", "scale": 1.0, "mode": "fan_avg"}, "class_name": "VarianceScaling"}, "bias_constraint": null, "activity_regularizer": null, "kernel_constraint": null, "name": "dense_4", "use_bias": true, "activation": "relu", "bias_regularizer": null, "trainable": true, "bias_initializer": {"config": {}, "class_name": "Zeros"}, "units": 1, "kernel_regularizer": {"config": {"l2": 4.999999873689376e-05, "l1": 0.0}, "class_name": "L1L2"}}, "name": "dense_4", "class_name": "Dense"}, {"inbound_nodes": [], "config": {"sparse": false, "dtype": "float32", "batch_input_shape": [null, 1], "name": "OnOff_C2"}, "name": "OnOff_C2", "class_name": "InputLayer"}, {"inbound_nodes": [[["dense_7", 0, 0, {}]]], "config": {"kernel_initializer": {"config": {"seed": 9035, "distribution": "normal", "scale": 1.0, "mode": "fan_avg"}, "class_name": "VarianceScaling"}, "bias_constraint": null, "activity_regularizer": null, "kernel_constraint": null, "name": "dense_8", "use_bias": true, "activation": "relu", "bias_regularizer": null, "trainable": true, "bias_initializer": {"config": {}, "class_name": "Zeros"}, "units": 1, "kernel_regularizer": {"config": {"l2": 4.999999873689376e-05, "l1": 0.0}, "class_name": "L1L2"}}, "name": "dense_8", "class_name": "Dense"}, {"inbound_nodes": [], "config": {"sparse": false, "dtype": "float32", "batch_input_shape": [null, 1], "name": "OnOff_C3"}, "name": "OnOff_C3", "class_name": "InputLayer"}, {"inbound_nodes": [[["dense_11", 0, 0, {}]]], "config": {"kernel_initializer": {"config": {"seed": 9035, "distribution": "normal", "scale": 1.0, "mode": "fan_avg"}, "class_name": "VarianceScaling"}, "bias_constraint": null, "activity_regularizer": null, "kernel_constraint": null, "name": "dense_12", "use_bias": true, "activation": "relu", "bias_regularizer": null, "trainable": true, "bias_initializer": {"config": {}, "class_name": "Zeros"}, "units": 1, "kernel_regularizer": {"config": {"l2": 4.999999873689376e-05, "l1": 0.0}, "class_name": "L1L2"}}, "name": "dense_12", "class_name": "Dense"}, {"inbound_nodes": [], "config": {"sparse": false, "dtype": "float32", "batch_input_shape": [null, 1], "name": "OnOff_C4"}, "name": "OnOff_C4", "class_name": "InputLayer"}, {"inbound_nodes": [[["dense_15", 0, 0, {}]]], "config": {"kernel_initializer": {"config": {"seed": 9035, "distribution": "normal", "scale": 1.0, "mode": "fan_avg"}, "class_name": "VarianceScaling"}, "bias_constraint": null, "activity_regularizer": null, "kernel_constraint": null, "name": "dense_16", "use_bias": true, "activation": "relu", "bias_regularizer": null, "trainable": true, "bias_initializer": {"config": {}, "class_name": "Zeros"}, "units": 1, "kernel_regularizer": {"config": {"l2": 4.999999873689376e-05, "l1": 0.0}, "class_name": "L1L2"}}, "name": "dense_16", "class_name": "Dense"}, {"inbound_nodes": [], "config": {"sparse": false, "dtype": "float32", "batch_input_shape": [null, 1], "name": "OnOff_B1"}, "name": "OnOff_B1", "class_name": "InputLayer"}, {"inbound_nodes": [[["dense_19", 0, 0, {}]]], "config": {"kernel_initializer": {"config": {"seed": 9035, "distribution": "normal", "scale": 1.0, "mode": "fan_avg"}, "class_name": "VarianceScaling"}, "bias_constraint": null, "activity_regularizer": null, "kernel_constraint": null, "name": "dense_20", "use_bias": true, "activation": "relu", "bias_regularizer": null, "trainable": true, "bias_initializer": {"config": {}, "class_name": "Zeros"}, "units": 1, "kernel_regularizer": {"config": {"l2": 4.999999873689376e-05, "l1": 0.0}, "class_name": "L1L2"}}, "name": "dense_20", "class_name": "Dense"}, {"inbound_nodes": [], "config": {"sparse": false, "dtype": "float32", "batch_input_shape": [null, 1], "name": "OnOff_B3"}, "name": "OnOff_B3", "class_name": "InputLayer"}, {"inbound_nodes": [[["dense_23", 0, 0, {}]]], "config": {"kernel_initializer": {"config": {"seed": 9035, "distribution": "normal", "scale": 1.0, "mode": "fan_avg"}, "class_name": "VarianceScaling"}, "bias_constraint": null, "activity_regularizer": null, "kernel_constraint": null, "name": "dense_24", "use_bias": true, "activation": "relu", "bias_regularizer": null, "trainable": true, "bias_initializer": {"config": {}, "class_name": "Zeros"}, "units": 1, "kernel_regularizer": {"config": {"l2": 4.999999873689376e-05, "l1": 0.0}, "class_name": "L1L2"}}, "name": "dense_24", "class_name": "Dense"}, {"inbound_nodes": [], "config": {"sparse": false, "dtype": "float32", "batch_input_shape": [null, 1], "name": "OnOff_D1"}, "name": "OnOff_D1", "class_name": "InputLayer"}, {"inbound_nodes": [[["dense_27", 0, 0, {}]]], "config": {"kernel_initializer": {"config": {"seed": 9035, "distribution": "normal", "scale": 1.0, "mode": "fan_avg"}, "class_name": "VarianceScaling"}, "bias_constraint": null, "activity_regularizer": null, "kernel_constraint": null, "name": "dense_28", "use_bias": true, "activation": "relu", "bias_regularizer": null, "trainable": true, "bias_initializer": {"config": {}, "class_name": "Zeros"}, "units": 1, "kernel_regularizer": {"config": {"l2": 4.999999873689376e-05, "l1": 0.0}, "class_name": "L1L2"}}, "name": "dense_28", "class_name": "Dense"}, {"inbound_nodes": [[["OnOff_C1", 0, 0, {}], ["dense_4", 0, 0, {}]]], "config": {"trainable": true, "name": "C1_out"}, "name": "C1_out", "class_name": "Multiply"}, {"inbound_nodes": [[["OnOff_C2", 0, 0, {}], ["dense_8", 0, 0, {}]]], "config": {"trainable": true, "name": "C2_out"}, "name": "C2_out", "class_name": "Multiply"}, {"inbound_nodes": [[["OnOff_C3", 0, 0, {}], ["dense_12", 0, 0, {}]]], "config": {"trainable": true, "name": "C3_out"}, "name": "C3_out", "class_name": "Multiply"}, {"inbound_nodes": [[["OnOff_C4", 0, 0, {}], ["dense_16", 0, 0, {}]]], "config": {"trainable": true, "name": "C4_out"}, "name": "C4_out", "class_name": "Multiply"}, {"inbound_nodes": [[["OnOff_B1", 0, 0, {}], ["dense_20", 0, 0, {}]]], "config": {"trainable": true, "name": "B1_out"}, "name": "B1_out", "class_name": "Multiply"}, {"inbound_nodes": [[["OnOff_B3", 0, 0, {}], ["dense_24", 0, 0, {}]]], "config": {"trainable": true, "name": "B3_out"}, "name": "B3_out", "class_name": "Multiply"}, {"inbound_nodes": [[["OnOff_D1", 0, 0, {}], ["dense_28", 0, 0, {}]]], "config": {"trainable": true, "name": "D1_out"}, "name": "D1_out", "class_name": "Multiply"}, {"inbound_nodes": [[["C1_out", 0, 0, {}], ["C2_out", 0, 0, {}], ["C3_out", 0, 0, {}], ["C4_out", 0, 0, {}], ["B1_out", 0, 0, {}], ["B3_out", 0, 0, {}], ["D1_out", 0, 0, {}]]], "config": {"trainable": true, "name": "GJOA_TOTAL"}, "name": "GJOA_TOTAL", "class_name": "Add"}], "output_layers": [["C1_out", 0, 0], ["C2_out", 0, 0], ["C3_out", 0, 0], ["C4_out", 0, 0], ["B1_out", 0, 0], ["B3_out", 0, 0], ["D1_out", 0, 0], ["GJOA_TOTAL", 0, 0]], "name": "model_1"}, "keras_version": "2.0.1", "class_name": "Model"}