{"class_name": "Model", "config": {"name": "model_3", "layers": [{"name": "F1", "inbound_nodes": [], "class_name": "InputLayer", "config": {"dtype": "float32", "batch_input_shape": [null, 4], "name": "F1", "sparse": false}}, {"name": "B2", "inbound_nodes": [], "class_name": "InputLayer", "config": {"dtype": "float32", "batch_input_shape": [null, 4], "name": "B2", "sparse": false}}, {"name": "D3", "inbound_nodes": [], "class_name": "InputLayer", "config": {"dtype": "float32", "batch_input_shape": [null, 4], "name": "D3", "sparse": false}}, {"name": "E1", "inbound_nodes": [], "class_name": "InputLayer", "config": {"dtype": "float32", "batch_input_shape": [null, 4], "name": "E1", "sparse": false}}, {"name": "F1_0", "inbound_nodes": [[["F1", 0, 0, {}]]], "class_name": "Dense", "config": {"kernel_constraint": null, "bias_initializer": {"class_name": "Zeros", "config": {}}, "use_bias": true, "units": 90, "trainable": true, "kernel_regularizer": {"class_name": "L1L2", "config": {"l2": 9.999999747378752e-05, "l1": 0.0}}, "bias_regularizer": null, "activity_regularizer": null, "name": "F1_0", "activation": "relu", "bias_constraint": null, "kernel_initializer": {"class_name": "VarianceScaling", "config": {"mode": "fan_avg", "scale": 1.0, "distribution": "normal", "seed": 3014}}}}, {"name": "B2_0", "inbound_nodes": [[["B2", 0, 0, {}]]], "class_name": "Dense", "config": {"kernel_constraint": null, "bias_initializer": {"class_name": "Zeros", "config": {}}, "use_bias": true, "units": 90, "trainable": true, "kernel_regularizer": {"class_name": "L1L2", "config": {"l2": 9.999999747378752e-05, "l1": 0.0}}, "bias_regularizer": null, "activity_regularizer": null, "name": "B2_0", "activation": "relu", "bias_constraint": null, "kernel_initializer": {"class_name": "VarianceScaling", "config": {"mode": "fan_avg", "scale": 1.0, "distribution": "normal", "seed": 3014}}}}, {"name": "D3_0", "inbound_nodes": [[["D3", 0, 0, {}]]], "class_name": "Dense", "config": {"kernel_constraint": null, "bias_initializer": {"class_name": "Zeros", "config": {}}, "use_bias": true, "units": 90, "trainable": true, "kernel_regularizer": {"class_name": "L1L2", "config": {"l2": 9.999999747378752e-05, "l1": 0.0}}, "bias_regularizer": null, "activity_regularizer": null, "name": "D3_0", "activation": "relu", "bias_constraint": null, "kernel_initializer": {"class_name": "VarianceScaling", "config": {"mode": "fan_avg", "scale": 1.0, "distribution": "normal", "seed": 3014}}}}, {"name": "E1_0", "inbound_nodes": [[["E1", 0, 0, {}]]], "class_name": "Dense", "config": {"kernel_constraint": null, "bias_initializer": {"class_name": "Zeros", "config": {}}, "use_bias": true, "units": 90, "trainable": true, "kernel_regularizer": {"class_name": "L1L2", "config": {"l2": 9.999999747378752e-05, "l1": 0.0}}, "bias_regularizer": null, "activity_regularizer": null, "name": "E1_0", "activation": "relu", "bias_constraint": null, "kernel_initializer": {"class_name": "VarianceScaling", "config": {"mode": "fan_avg", "scale": 1.0, "distribution": "normal", "seed": 3014}}}}, {"name": "F1_dp_1", "inbound_nodes": [[["F1_0", 0, 0, {}]]], "class_name": "Dropout", "config": {"name": "F1_dp_1", "trainable": true, "rate": 0.1}}, {"name": "B2_dp_1", "inbound_nodes": [[["B2_0", 0, 0, {}]]], "class_name": "Dropout", "config": {"name": "B2_dp_1", "trainable": true, "rate": 0.1}}, {"name": "D3_dp_1", "inbound_nodes": [[["D3_0", 0, 0, {}]]], "class_name": "Dropout", "config": {"name": "D3_dp_1", "trainable": true, "rate": 0.1}}, {"name": "E1_dp_1", "inbound_nodes": [[["E1_0", 0, 0, {}]]], "class_name": "Dropout", "config": {"name": "E1_dp_1", "trainable": true, "rate": 0.1}}, {"name": "F1_1", "inbound_nodes": [[["F1_dp_1", 0, 0, {}]]], "class_name": "Dense", "config": {"kernel_constraint": null, "bias_initializer": {"class_name": "Zeros", "config": {}}, "use_bias": true, "units": 90, "trainable": true, "kernel_regularizer": {"class_name": "L1L2", "config": {"l2": 9.999999747378752e-05, "l1": 0.0}}, "bias_regularizer": null, "activity_regularizer": null, "name": "F1_1", "activation": "relu", "bias_constraint": null, "kernel_initializer": {"class_name": "VarianceScaling", "config": {"mode": "fan_avg", "scale": 1.0, "distribution": "normal", "seed": 3014}}}}, {"name": "B2_1", "inbound_nodes": [[["B2_dp_1", 0, 0, {}]]], "class_name": "Dense", "config": {"kernel_constraint": null, "bias_initializer": {"class_name": "Zeros", "config": {}}, "use_bias": true, "units": 90, "trainable": true, "kernel_regularizer": {"class_name": "L1L2", "config": {"l2": 9.999999747378752e-05, "l1": 0.0}}, "bias_regularizer": null, "activity_regularizer": null, "name": "B2_1", "activation": "relu", "bias_constraint": null, "kernel_initializer": {"class_name": "VarianceScaling", "config": {"mode": "fan_avg", "scale": 1.0, "distribution": "normal", "seed": 3014}}}}, {"name": "D3_1", "inbound_nodes": [[["D3_dp_1", 0, 0, {}]]], "class_name": "Dense", "config": {"kernel_constraint": null, "bias_initializer": {"class_name": "Zeros", "config": {}}, "use_bias": true, "units": 90, "trainable": true, "kernel_regularizer": {"class_name": "L1L2", "config": {"l2": 9.999999747378752e-05, "l1": 0.0}}, "bias_regularizer": null, "activity_regularizer": null, "name": "D3_1", "activation": "relu", "bias_constraint": null, "kernel_initializer": {"class_name": "VarianceScaling", "config": {"mode": "fan_avg", "scale": 1.0, "distribution": "normal", "seed": 3014}}}}, {"name": "E1_1", "inbound_nodes": [[["E1_dp_1", 0, 0, {}]]], "class_name": "Dense", "config": {"kernel_constraint": null, "bias_initializer": {"class_name": "Zeros", "config": {}}, "use_bias": true, "units": 90, "trainable": true, "kernel_regularizer": {"class_name": "L1L2", "config": {"l2": 9.999999747378752e-05, "l1": 0.0}}, "bias_regularizer": null, "activity_regularizer": null, "name": "E1_1", "activation": "relu", "bias_constraint": null, "kernel_initializer": {"class_name": "VarianceScaling", "config": {"mode": "fan_avg", "scale": 1.0, "distribution": "normal", "seed": 3014}}}}, {"name": "OnOff_F1", "inbound_nodes": [], "class_name": "InputLayer", "config": {"dtype": "float32", "batch_input_shape": [null, 1], "name": "OnOff_F1", "sparse": false}}, {"name": "F1_o", "inbound_nodes": [[["F1_1", 0, 0, {}]]], "class_name": "Dense", "config": {"kernel_constraint": null, "bias_initializer": {"class_name": "Zeros", "config": {}}, "use_bias": true, "units": 1, "trainable": true, "kernel_regularizer": {"class_name": "L1L2", "config": {"l2": 9.999999747378752e-05, "l1": 0.0}}, "bias_regularizer": null, "activity_regularizer": null, "name": "F1_o", "activation": "relu", "bias_constraint": null, "kernel_initializer": {"class_name": "VarianceScaling", "config": {"mode": "fan_avg", "scale": 1.0, "distribution": "normal", "seed": 3014}}}}, {"name": "OnOff_B2", "inbound_nodes": [], "class_name": "InputLayer", "config": {"dtype": "float32", "batch_input_shape": [null, 1], "name": "OnOff_B2", "sparse": false}}, {"name": "B2_o", "inbound_nodes": [[["B2_1", 0, 0, {}]]], "class_name": "Dense", "config": {"kernel_constraint": null, "bias_initializer": {"class_name": "Zeros", "config": {}}, "use_bias": true, "units": 1, "trainable": true, "kernel_regularizer": {"class_name": "L1L2", "config": {"l2": 9.999999747378752e-05, "l1": 0.0}}, "bias_regularizer": null, "activity_regularizer": null, "name": "B2_o", "activation": "relu", "bias_constraint": null, "kernel_initializer": {"class_name": "VarianceScaling", "config": {"mode": "fan_avg", "scale": 1.0, "distribution": "normal", "seed": 3014}}}}, {"name": "OnOff_D3", "inbound_nodes": [], "class_name": "InputLayer", "config": {"dtype": "float32", "batch_input_shape": [null, 1], "name": "OnOff_D3", "sparse": false}}, {"name": "D3_o", "inbound_nodes": [[["D3_1", 0, 0, {}]]], "class_name": "Dense", "config": {"kernel_constraint": null, "bias_initializer": {"class_name": "Zeros", "config": {}}, "use_bias": true, "units": 1, "trainable": true, "kernel_regularizer": {"class_name": "L1L2", "config": {"l2": 9.999999747378752e-05, "l1": 0.0}}, "bias_regularizer": null, "activity_regularizer": null, "name": "D3_o", "activation": "relu", "bias_constraint": null, "kernel_initializer": {"class_name": "VarianceScaling", "config": {"mode": "fan_avg", "scale": 1.0, "distribution": "normal", "seed": 3014}}}}, {"name": "OnOff_E1", "inbound_nodes": [], "class_name": "InputLayer", "config": {"dtype": "float32", "batch_input_shape": [null, 1], "name": "OnOff_E1", "sparse": false}}, {"name": "E1_o", "inbound_nodes": [[["E1_1", 0, 0, {}]]], "class_name": "Dense", "config": {"kernel_constraint": null, "bias_initializer": {"class_name": "Zeros", "config": {}}, "use_bias": true, "units": 1, "trainable": true, "kernel_regularizer": {"class_name": "L1L2", "config": {"l2": 9.999999747378752e-05, "l1": 0.0}}, "bias_regularizer": null, "activity_regularizer": null, "name": "E1_o", "activation": "relu", "bias_constraint": null, "kernel_initializer": {"class_name": "VarianceScaling", "config": {"mode": "fan_avg", "scale": 1.0, "distribution": "normal", "seed": 3014}}}}, {"name": "F1_out", "inbound_nodes": [[["OnOff_F1", 0, 0, {}], ["F1_o", 0, 0, {}]]], "class_name": "Multiply", "config": {"name": "F1_out", "trainable": true}}, {"name": "B2_out", "inbound_nodes": [[["OnOff_B2", 0, 0, {}], ["B2_o", 0, 0, {}]]], "class_name": "Multiply", "config": {"name": "B2_out", "trainable": true}}, {"name": "D3_out", "inbound_nodes": [[["OnOff_D3", 0, 0, {}], ["D3_o", 0, 0, {}]]], "class_name": "Multiply", "config": {"name": "D3_out", "trainable": true}}, {"name": "E1_out", "inbound_nodes": [[["OnOff_E1", 0, 0, {}], ["E1_o", 0, 0, {}]]], "class_name": "Multiply", "config": {"name": "E1_out", "trainable": true}}, {"name": "GJOA_QGAS", "inbound_nodes": [[["F1_out", 0, 0, {}], ["B2_out", 0, 0, {}], ["D3_out", 0, 0, {}], ["E1_out", 0, 0, {}]]], "class_name": "Add", "config": {"name": "GJOA_QGAS", "trainable": true}}], "input_layers": [["F1", 0, 0], ["B2", 0, 0], ["D3", 0, 0], ["E1", 0, 0], ["OnOff_F1", 0, 0], ["OnOff_B2", 0, 0], ["OnOff_D3", 0, 0], ["OnOff_E1", 0, 0]], "output_layers": [["F1_out", 0, 0], ["B2_out", 0, 0], ["D3_out", 0, 0], ["E1_out", 0, 0], ["GJOA_QGAS", 0, 0]]}, "backend": "theano", "keras_version": "2.0.1"}