{"backend": "theano", "class_name": "Model", "keras_version": "2.0.1", "config": {"input_layers": [["C1", 0, 0], ["C2", 0, 0], ["C3", 0, 0], ["C4", 0, 0], ["B1", 0, 0], ["B3", 0, 0], ["D1", 0, 0], ["OnOff_C1", 0, 0], ["OnOff_C2", 0, 0], ["OnOff_C3", 0, 0], ["OnOff_C4", 0, 0], ["OnOff_B1", 0, 0], ["OnOff_B3", 0, 0], ["OnOff_D1", 0, 0]], "name": "model_1", "output_layers": [["C1_out", 0, 0], ["C2_out", 0, 0], ["C3_out", 0, 0], ["C4_out", 0, 0], ["B1_out", 0, 0], ["B3_out", 0, 0], ["D1_out", 0, 0], ["GJOA_TOTAL", 0, 0]], "layers": [{"inbound_nodes": [], "class_name": "InputLayer", "name": "C1", "config": {"sparse": false, "name": "C1", "batch_input_shape": [null, 4], "dtype": "float32"}}, {"inbound_nodes": [], "class_name": "InputLayer", "name": "C2", "config": {"sparse": false, "name": "C2", "batch_input_shape": [null, 3], "dtype": "float32"}}, {"inbound_nodes": [], "class_name": "InputLayer", "name": "C3", "config": {"sparse": false, "name": "C3", "batch_input_shape": [null, 4], "dtype": "float32"}}, {"inbound_nodes": [], "class_name": "InputLayer", "name": "C4", "config": {"sparse": false, "name": "C4", "batch_input_shape": [null, 4], "dtype": "float32"}}, {"inbound_nodes": [], "class_name": "InputLayer", "name": "B1", "config": {"sparse": false, "name": "B1", "batch_input_shape": [null, 4], "dtype": "float32"}}, {"inbound_nodes": [], "class_name": "InputLayer", "name": "B3", "config": {"sparse": false, "name": "B3", "batch_input_shape": [null, 4], "dtype": "float32"}}, {"inbound_nodes": [], "class_name": "InputLayer", "name": "D1", "config": {"sparse": false, "name": "D1", "batch_input_shape": [null, 3], "dtype": "float32"}}, {"inbound_nodes": [[["C1", 0, 0, {}]]], "class_name": "Dense", "name": "dense_1", "config": {"activity_regularizer": null, "bias_regularizer": null, "trainable": true, "name": "dense_1", "kernel_initializer": {"class_name": "VarianceScaling", "config": {"distribution": "normal", "scale": 1.0, "mode": "fan_avg", "seed": 9035}}, "bias_constraint": null, "kernel_constraint": null, "kernel_regularizer": {"class_name": "L1L2", "config": {"l1": 0.0, "l2": 9.999999747378752e-05}}, "units": 20, "use_bias": true, "activation": "relu", "bias_initializer": {"class_name": "Zeros", "config": {}}}}, {"inbound_nodes": [[["C2", 0, 0, {}]]], "class_name": "Dense", "name": "dense_4", "config": {"activity_regularizer": null, "bias_regularizer": null, "trainable": true, "name": "dense_4", "kernel_initializer": {"class_name": "VarianceScaling", "config": {"distribution": "normal", "scale": 1.0, "mode": "fan_avg", "seed": 9035}}, "bias_constraint": null, "kernel_constraint": null, "kernel_regularizer": {"class_name": "L1L2", "config": {"l1": 0.0, "l2": 9.999999747378752e-05}}, "units": 20, "use_bias": true, "activation": "relu", "bias_initializer": {"class_name": "Zeros", "config": {}}}}, {"inbound_nodes": [[["C3", 0, 0, {}]]], "class_name": "Dense", "name": "dense_7", "config": {"activity_regularizer": null, "bias_regularizer": null, "trainable": true, "name": "dense_7", "kernel_initializer": {"class_name": "VarianceScaling", "config": {"distribution": "normal", "scale": 1.0, "mode": "fan_avg", "seed": 9035}}, "bias_constraint": null, "kernel_constraint": null, "kernel_regularizer": {"class_name": "L1L2", "config": {"l1": 0.0, "l2": 9.999999747378752e-05}}, "units": 20, "use_bias": true, "activation": "relu", "bias_initializer": {"class_name": "Zeros", "config": {}}}}, {"inbound_nodes": [[["C4", 0, 0, {}]]], "class_name": "Dense", "name": "dense_10", "config": {"activity_regularizer": null, "bias_regularizer": null, "trainable": true, "name": "dense_10", "kernel_initializer": {"class_name": "VarianceScaling", "config": {"distribution": "normal", "scale": 1.0, "mode": "fan_avg", "seed": 9035}}, "bias_constraint": null, "kernel_constraint": null, "kernel_regularizer": {"class_name": "L1L2", "config": {"l1": 0.0, "l2": 9.999999747378752e-05}}, "units": 20, "use_bias": true, "activation": "relu", "bias_initializer": {"class_name": "Zeros", "config": {}}}}, {"inbound_nodes": [[["B1", 0, 0, {}]]], "class_name": "Dense", "name": "dense_13", "config": {"activity_regularizer": null, "bias_regularizer": null, "trainable": true, "name": "dense_13", "kernel_initializer": {"class_name": "VarianceScaling", "config": {"distribution": "normal", "scale": 1.0, "mode": "fan_avg", "seed": 9035}}, "bias_constraint": null, "kernel_constraint": null, "kernel_regularizer": {"class_name": "L1L2", "config": {"l1": 0.0, "l2": 9.999999747378752e-05}}, "units": 20, "use_bias": true, "activation": "relu", "bias_initializer": {"class_name": "Zeros", "config": {}}}}, {"inbound_nodes": [[["B3", 0, 0, {}]]], "class_name": "Dense", "name": "dense_16", "config": {"activity_regularizer": null, "bias_regularizer": null, "trainable": true, "name": "dense_16", "kernel_initializer": {"class_name": "VarianceScaling", "config": {"distribution": "normal", "scale": 1.0, "mode": "fan_avg", "seed": 9035}}, "bias_constraint": null, "kernel_constraint": null, "kernel_regularizer": {"class_name": "L1L2", "config": {"l1": 0.0, "l2": 9.999999747378752e-05}}, "units": 20, "use_bias": true, "activation": "relu", "bias_initializer": {"class_name": "Zeros", "config": {}}}}, {"inbound_nodes": [[["D1", 0, 0, {}]]], "class_name": "Dense", "name": "dense_19", "config": {"activity_regularizer": null, "bias_regularizer": null, "trainable": true, "name": "dense_19", "kernel_initializer": {"class_name": "VarianceScaling", "config": {"distribution": "normal", "scale": 1.0, "mode": "fan_avg", "seed": 9035}}, "bias_constraint": null, "kernel_constraint": null, "kernel_regularizer": {"class_name": "L1L2", "config": {"l1": 0.0, "l2": 9.999999747378752e-05}}, "units": 20, "use_bias": true, "activation": "relu", "bias_initializer": {"class_name": "Zeros", "config": {}}}}, {"inbound_nodes": [[["dense_1", 0, 0, {}]]], "class_name": "Dense", "name": "dense_2", "config": {"activity_regularizer": null, "bias_regularizer": null, "trainable": true, "name": "dense_2", "kernel_initializer": {"class_name": "VarianceScaling", "config": {"distribution": "normal", "scale": 1.0, "mode": "fan_avg", "seed": 9035}}, "bias_constraint": null, "kernel_constraint": null, "kernel_regularizer": {"class_name": "L1L2", "config": {"l1": 0.0, "l2": 9.999999747378752e-05}}, "units": 20, "use_bias": true, "activation": "relu", "bias_initializer": {"class_name": "Zeros", "config": {}}}}, {"inbound_nodes": [[["dense_4", 0, 0, {}]]], "class_name": "Dense", "name": "dense_5", "config": {"activity_regularizer": null, "bias_regularizer": null, "trainable": true, "name": "dense_5", "kernel_initializer": {"class_name": "VarianceScaling", "config": {"distribution": "normal", "scale": 1.0, "mode": "fan_avg", "seed": 9035}}, "bias_constraint": null, "kernel_constraint": null, "kernel_regularizer": {"class_name": "L1L2", "config": {"l1": 0.0, "l2": 9.999999747378752e-05}}, "units": 20, "use_bias": true, "activation": "relu", "bias_initializer": {"class_name": "Zeros", "config": {}}}}, {"inbound_nodes": [[["dense_7", 0, 0, {}]]], "class_name": "Dense", "name": "dense_8", "config": {"activity_regularizer": null, "bias_regularizer": null, "trainable": true, "name": "dense_8", "kernel_initializer": {"class_name": "VarianceScaling", "config": {"distribution": "normal", "scale": 1.0, "mode": "fan_avg", "seed": 9035}}, "bias_constraint": null, "kernel_constraint": null, "kernel_regularizer": {"class_name": "L1L2", "config": {"l1": 0.0, "l2": 9.999999747378752e-05}}, "units": 20, "use_bias": true, "activation": "relu", "bias_initializer": {"class_name": "Zeros", "config": {}}}}, {"inbound_nodes": [[["dense_10", 0, 0, {}]]], "class_name": "Dense", "name": "dense_11", "config": {"activity_regularizer": null, "bias_regularizer": null, "trainable": true, "name": "dense_11", "kernel_initializer": {"class_name": "VarianceScaling", "config": {"distribution": "normal", "scale": 1.0, "mode": "fan_avg", "seed": 9035}}, "bias_constraint": null, "kernel_constraint": null, "kernel_regularizer": {"class_name": "L1L2", "config": {"l1": 0.0, "l2": 9.999999747378752e-05}}, "units": 20, "use_bias": true, "activation": "relu", "bias_initializer": {"class_name": "Zeros", "config": {}}}}, {"inbound_nodes": [[["dense_13", 0, 0, {}]]], "class_name": "Dense", "name": "dense_14", "config": {"activity_regularizer": null, "bias_regularizer": null, "trainable": true, "name": "dense_14", "kernel_initializer": {"class_name": "VarianceScaling", "config": {"distribution": "normal", "scale": 1.0, "mode": "fan_avg", "seed": 9035}}, "bias_constraint": null, "kernel_constraint": null, "kernel_regularizer": {"class_name": "L1L2", "config": {"l1": 0.0, "l2": 9.999999747378752e-05}}, "units": 20, "use_bias": true, "activation": "relu", "bias_initializer": {"class_name": "Zeros", "config": {}}}}, {"inbound_nodes": [[["dense_16", 0, 0, {}]]], "class_name": "Dense", "name": "dense_17", "config": {"activity_regularizer": null, "bias_regularizer": null, "trainable": true, "name": "dense_17", "kernel_initializer": {"class_name": "VarianceScaling", "config": {"distribution": "normal", "scale": 1.0, "mode": "fan_avg", "seed": 9035}}, "bias_constraint": null, "kernel_constraint": null, "kernel_regularizer": {"class_name": "L1L2", "config": {"l1": 0.0, "l2": 9.999999747378752e-05}}, "units": 20, "use_bias": true, "activation": "relu", "bias_initializer": {"class_name": "Zeros", "config": {}}}}, {"inbound_nodes": [[["dense_19", 0, 0, {}]]], "class_name": "Dense", "name": "dense_20", "config": {"activity_regularizer": null, "bias_regularizer": null, "trainable": true, "name": "dense_20", "kernel_initializer": {"class_name": "VarianceScaling", "config": {"distribution": "normal", "scale": 1.0, "mode": "fan_avg", "seed": 9035}}, "bias_constraint": null, "kernel_constraint": null, "kernel_regularizer": {"class_name": "L1L2", "config": {"l1": 0.0, "l2": 9.999999747378752e-05}}, "units": 20, "use_bias": true, "activation": "relu", "bias_initializer": {"class_name": "Zeros", "config": {}}}}, {"inbound_nodes": [], "class_name": "InputLayer", "name": "OnOff_C1", "config": {"sparse": false, "name": "OnOff_C1", "batch_input_shape": [null, 1], "dtype": "float32"}}, {"inbound_nodes": [[["dense_2", 0, 0, {}]]], "class_name": "Dense", "name": "dense_3", "config": {"activity_regularizer": null, "bias_regularizer": null, "trainable": true, "name": "dense_3", "kernel_initializer": {"class_name": "VarianceScaling", "config": {"distribution": "normal", "scale": 1.0, "mode": "fan_avg", "seed": 9035}}, "bias_constraint": null, "kernel_constraint": null, "kernel_regularizer": {"class_name": "L1L2", "config": {"l1": 0.0, "l2": 9.999999747378752e-05}}, "units": 1, "use_bias": true, "activation": "relu", "bias_initializer": {"class_name": "Zeros", "config": {}}}}, {"inbound_nodes": [], "class_name": "InputLayer", "name": "OnOff_C2", "config": {"sparse": false, "name": "OnOff_C2", "batch_input_shape": [null, 1], "dtype": "float32"}}, {"inbound_nodes": [[["dense_5", 0, 0, {}]]], "class_name": "Dense", "name": "dense_6", "config": {"activity_regularizer": null, "bias_regularizer": null, "trainable": true, "name": "dense_6", "kernel_initializer": {"class_name": "VarianceScaling", "config": {"distribution": "normal", "scale": 1.0, "mode": "fan_avg", "seed": 9035}}, "bias_constraint": null, "kernel_constraint": null, "kernel_regularizer": {"class_name": "L1L2", "config": {"l1": 0.0, "l2": 9.999999747378752e-05}}, "units": 1, "use_bias": true, "activation": "relu", "bias_initializer": {"class_name": "Zeros", "config": {}}}}, {"inbound_nodes": [], "class_name": "InputLayer", "name": "OnOff_C3", "config": {"sparse": false, "name": "OnOff_C3", "batch_input_shape": [null, 1], "dtype": "float32"}}, {"inbound_nodes": [[["dense_8", 0, 0, {}]]], "class_name": "Dense", "name": "dense_9", "config": {"activity_regularizer": null, "bias_regularizer": null, "trainable": true, "name": "dense_9", "kernel_initializer": {"class_name": "VarianceScaling", "config": {"distribution": "normal", "scale": 1.0, "mode": "fan_avg", "seed": 9035}}, "bias_constraint": null, "kernel_constraint": null, "kernel_regularizer": {"class_name": "L1L2", "config": {"l1": 0.0, "l2": 9.999999747378752e-05}}, "units": 1, "use_bias": true, "activation": "relu", "bias_initializer": {"class_name": "Zeros", "config": {}}}}, {"inbound_nodes": [], "class_name": "InputLayer", "name": "OnOff_C4", "config": {"sparse": false, "name": "OnOff_C4", "batch_input_shape": [null, 1], "dtype": "float32"}}, {"inbound_nodes": [[["dense_11", 0, 0, {}]]], "class_name": "Dense", "name": "dense_12", "config": {"activity_regularizer": null, "bias_regularizer": null, "trainable": true, "name": "dense_12", "kernel_initializer": {"class_name": "VarianceScaling", "config": {"distribution": "normal", "scale": 1.0, "mode": "fan_avg", "seed": 9035}}, "bias_constraint": null, "kernel_constraint": null, "kernel_regularizer": {"class_name": "L1L2", "config": {"l1": 0.0, "l2": 9.999999747378752e-05}}, "units": 1, "use_bias": true, "activation": "relu", "bias_initializer": {"class_name": "Zeros", "config": {}}}}, {"inbound_nodes": [], "class_name": "InputLayer", "name": "OnOff_B1", "config": {"sparse": false, "name": "OnOff_B1", "batch_input_shape": [null, 1], "dtype": "float32"}}, {"inbound_nodes": [[["dense_14", 0, 0, {}]]], "class_name": "Dense", "name": "dense_15", "config": {"activity_regularizer": null, "bias_regularizer": null, "trainable": true, "name": "dense_15", "kernel_initializer": {"class_name": "VarianceScaling", "config": {"distribution": "normal", "scale": 1.0, "mode": "fan_avg", "seed": 9035}}, "bias_constraint": null, "kernel_constraint": null, "kernel_regularizer": {"class_name": "L1L2", "config": {"l1": 0.0, "l2": 9.999999747378752e-05}}, "units": 1, "use_bias": true, "activation": "relu", "bias_initializer": {"class_name": "Zeros", "config": {}}}}, {"inbound_nodes": [], "class_name": "InputLayer", "name": "OnOff_B3", "config": {"sparse": false, "name": "OnOff_B3", "batch_input_shape": [null, 1], "dtype": "float32"}}, {"inbound_nodes": [[["dense_17", 0, 0, {}]]], "class_name": "Dense", "name": "dense_18", "config": {"activity_regularizer": null, "bias_regularizer": null, "trainable": true, "name": "dense_18", "kernel_initializer": {"class_name": "VarianceScaling", "config": {"distribution": "normal", "scale": 1.0, "mode": "fan_avg", "seed": 9035}}, "bias_constraint": null, "kernel_constraint": null, "kernel_regularizer": {"class_name": "L1L2", "config": {"l1": 0.0, "l2": 9.999999747378752e-05}}, "units": 1, "use_bias": true, "activation": "relu", "bias_initializer": {"class_name": "Zeros", "config": {}}}}, {"inbound_nodes": [], "class_name": "InputLayer", "name": "OnOff_D1", "config": {"sparse": false, "name": "OnOff_D1", "batch_input_shape": [null, 1], "dtype": "float32"}}, {"inbound_nodes": [[["dense_20", 0, 0, {}]]], "class_name": "Dense", "name": "dense_21", "config": {"activity_regularizer": null, "bias_regularizer": null, "trainable": true, "name": "dense_21", "kernel_initializer": {"class_name": "VarianceScaling", "config": {"distribution": "normal", "scale": 1.0, "mode": "fan_avg", "seed": 9035}}, "bias_constraint": null, "kernel_constraint": null, "kernel_regularizer": {"class_name": "L1L2", "config": {"l1": 0.0, "l2": 9.999999747378752e-05}}, "units": 1, "use_bias": true, "activation": "relu", "bias_initializer": {"class_name": "Zeros", "config": {}}}}, {"inbound_nodes": [[["OnOff_C1", 0, 0, {}], ["dense_3", 0, 0, {}]]], "class_name": "Multiply", "name": "C1_out", "config": {"trainable": true, "name": "C1_out"}}, {"inbound_nodes": [[["OnOff_C2", 0, 0, {}], ["dense_6", 0, 0, {}]]], "class_name": "Multiply", "name": "C2_out", "config": {"trainable": true, "name": "C2_out"}}, {"inbound_nodes": [[["OnOff_C3", 0, 0, {}], ["dense_9", 0, 0, {}]]], "class_name": "Multiply", "name": "C3_out", "config": {"trainable": true, "name": "C3_out"}}, {"inbound_nodes": [[["OnOff_C4", 0, 0, {}], ["dense_12", 0, 0, {}]]], "class_name": "Multiply", "name": "C4_out", "config": {"trainable": true, "name": "C4_out"}}, {"inbound_nodes": [[["OnOff_B1", 0, 0, {}], ["dense_15", 0, 0, {}]]], "class_name": "Multiply", "name": "B1_out", "config": {"trainable": true, "name": "B1_out"}}, {"inbound_nodes": [[["OnOff_B3", 0, 0, {}], ["dense_18", 0, 0, {}]]], "class_name": "Multiply", "name": "B3_out", "config": {"trainable": true, "name": "B3_out"}}, {"inbound_nodes": [[["OnOff_D1", 0, 0, {}], ["dense_21", 0, 0, {}]]], "class_name": "Multiply", "name": "D1_out", "config": {"trainable": true, "name": "D1_out"}}, {"inbound_nodes": [[["C1_out", 0, 0, {}], ["C2_out", 0, 0, {}], ["C3_out", 0, 0, {}], ["C4_out", 0, 0, {}], ["B1_out", 0, 0, {}], ["B3_out", 0, 0, {}], ["D1_out", 0, 0, {}]]], "class_name": "Add", "name": "GJOA_TOTAL", "config": {"trainable": true, "name": "GJOA_TOTAL"}}]}}