{"config": {"layers": [{"config": {"batch_input_shape": [null, 8], "dtype": "float32", "name": "CHK_INPUT_NOW", "sparse": false}, "inbound_nodes": [], "name": "CHK_INPUT_NOW", "class_name": "InputLayer"}, {"config": {"trainable": true, "activation": "relu", "bias_regularizer": null, "kernel_constraint": null, "use_bias": true, "units": 30, "name": "B1_PWH_0", "kernel_initializer": {"config": {"scale": 1.0, "mode": "fan_avg", "seed": 3014, "distribution": "normal"}, "class_name": "VarianceScaling"}, "bias_initializer": {"config": {}, "class_name": "Zeros"}, "bias_constraint": null, "activity_regularizer": null, "kernel_regularizer": {"config": {"l2": 0.0005000000237487257, "l1": 0.0}, "class_name": "L1L2"}}, "inbound_nodes": [[["CHK_INPUT_NOW", 0, 0, {}]]], "name": "B1_PWH_0", "class_name": "Dense"}, {"config": {"trainable": true, "activation": "relu", "bias_regularizer": null, "kernel_constraint": null, "use_bias": true, "units": 30, "name": "B3_PWH_0", "kernel_initializer": {"config": {"scale": 1.0, "mode": "fan_avg", "seed": 3014, "distribution": "normal"}, "class_name": "VarianceScaling"}, "bias_initializer": {"config": {}, "class_name": "Zeros"}, "bias_constraint": null, "activity_regularizer": null, "kernel_regularizer": {"config": {"l2": 0.0005000000237487257, "l1": 0.0}, "class_name": "L1L2"}}, "inbound_nodes": [[["CHK_INPUT_NOW", 0, 0, {}]]], "name": "B3_PWH_0", "class_name": "Dense"}, {"config": {"trainable": true, "activation": "relu", "bias_regularizer": null, "kernel_constraint": null, "use_bias": true, "units": 30, "name": "C1_PWH_0", "kernel_initializer": {"config": {"scale": 1.0, "mode": "fan_avg", "seed": 3014, "distribution": "normal"}, "class_name": "VarianceScaling"}, "bias_initializer": {"config": {}, "class_name": "Zeros"}, "bias_constraint": null, "activity_regularizer": null, "kernel_regularizer": {"config": {"l2": 0.0005000000237487257, "l1": 0.0}, "class_name": "L1L2"}}, "inbound_nodes": [[["CHK_INPUT_NOW", 0, 0, {}]]], "name": "C1_PWH_0", "class_name": "Dense"}, {"config": {"trainable": true, "activation": "relu", "bias_regularizer": null, "kernel_constraint": null, "use_bias": true, "units": 30, "name": "C2_PWH_0", "kernel_initializer": {"config": {"scale": 1.0, "mode": "fan_avg", "seed": 3014, "distribution": "normal"}, "class_name": "VarianceScaling"}, "bias_initializer": {"config": {}, "class_name": "Zeros"}, "bias_constraint": null, "activity_regularizer": null, "kernel_regularizer": {"config": {"l2": 0.0005000000237487257, "l1": 0.0}, "class_name": "L1L2"}}, "inbound_nodes": [[["CHK_INPUT_NOW", 0, 0, {}]]], "name": "C2_PWH_0", "class_name": "Dense"}, {"config": {"trainable": true, "activation": "relu", "bias_regularizer": null, "kernel_constraint": null, "use_bias": true, "units": 30, "name": "C3_PWH_0", "kernel_initializer": {"config": {"scale": 1.0, "mode": "fan_avg", "seed": 3014, "distribution": "normal"}, "class_name": "VarianceScaling"}, "bias_initializer": {"config": {}, "class_name": "Zeros"}, "bias_constraint": null, "activity_regularizer": null, "kernel_regularizer": {"config": {"l2": 0.0005000000237487257, "l1": 0.0}, "class_name": "L1L2"}}, "inbound_nodes": [[["CHK_INPUT_NOW", 0, 0, {}]]], "name": "C3_PWH_0", "class_name": "Dense"}, {"config": {"trainable": true, "activation": "relu", "bias_regularizer": null, "kernel_constraint": null, "use_bias": true, "units": 30, "name": "C4_PWH_0", "kernel_initializer": {"config": {"scale": 1.0, "mode": "fan_avg", "seed": 3014, "distribution": "normal"}, "class_name": "VarianceScaling"}, "bias_initializer": {"config": {}, "class_name": "Zeros"}, "bias_constraint": null, "activity_regularizer": null, "kernel_regularizer": {"config": {"l2": 0.0005000000237487257, "l1": 0.0}, "class_name": "L1L2"}}, "inbound_nodes": [[["CHK_INPUT_NOW", 0, 0, {}]]], "name": "C4_PWH_0", "class_name": "Dense"}, {"config": {"trainable": true, "activation": "relu", "bias_regularizer": null, "kernel_constraint": null, "use_bias": true, "units": 30, "name": "D1_PWH_0", "kernel_initializer": {"config": {"scale": 1.0, "mode": "fan_avg", "seed": 3014, "distribution": "normal"}, "class_name": "VarianceScaling"}, "bias_initializer": {"config": {}, "class_name": "Zeros"}, "bias_constraint": null, "activity_regularizer": null, "kernel_regularizer": {"config": {"l2": 0.0005000000237487257, "l1": 0.0}, "class_name": "L1L2"}}, "inbound_nodes": [[["CHK_INPUT_NOW", 0, 0, {}]]], "name": "D1_PWH_0", "class_name": "Dense"}, {"config": {"trainable": true, "activation": "relu", "bias_regularizer": null, "kernel_constraint": null, "use_bias": true, "units": 30, "name": "B1_PWH_1", "kernel_initializer": {"config": {"scale": 1.0, "mode": "fan_avg", "seed": 3014, "distribution": "normal"}, "class_name": "VarianceScaling"}, "bias_initializer": {"config": {}, "class_name": "Zeros"}, "bias_constraint": null, "activity_regularizer": null, "kernel_regularizer": {"config": {"l2": 0.0005000000237487257, "l1": 0.0}, "class_name": "L1L2"}}, "inbound_nodes": [[["B1_PWH_0", 0, 0, {}]]], "name": "B1_PWH_1", "class_name": "Dense"}, {"config": {"trainable": true, "activation": "relu", "bias_regularizer": null, "kernel_constraint": null, "use_bias": true, "units": 30, "name": "B3_PWH_1", "kernel_initializer": {"config": {"scale": 1.0, "mode": "fan_avg", "seed": 3014, "distribution": "normal"}, "class_name": "VarianceScaling"}, "bias_initializer": {"config": {}, "class_name": "Zeros"}, "bias_constraint": null, "activity_regularizer": null, "kernel_regularizer": {"config": {"l2": 0.0005000000237487257, "l1": 0.0}, "class_name": "L1L2"}}, "inbound_nodes": [[["B3_PWH_0", 0, 0, {}]]], "name": "B3_PWH_1", "class_name": "Dense"}, {"config": {"trainable": true, "activation": "relu", "bias_regularizer": null, "kernel_constraint": null, "use_bias": true, "units": 30, "name": "C1_PWH_1", "kernel_initializer": {"config": {"scale": 1.0, "mode": "fan_avg", "seed": 3014, "distribution": "normal"}, "class_name": "VarianceScaling"}, "bias_initializer": {"config": {}, "class_name": "Zeros"}, "bias_constraint": null, "activity_regularizer": null, "kernel_regularizer": {"config": {"l2": 0.0005000000237487257, "l1": 0.0}, "class_name": "L1L2"}}, "inbound_nodes": [[["C1_PWH_0", 0, 0, {}]]], "name": "C1_PWH_1", "class_name": "Dense"}, {"config": {"trainable": true, "activation": "relu", "bias_regularizer": null, "kernel_constraint": null, "use_bias": true, "units": 30, "name": "C2_PWH_1", "kernel_initializer": {"config": {"scale": 1.0, "mode": "fan_avg", "seed": 3014, "distribution": "normal"}, "class_name": "VarianceScaling"}, "bias_initializer": {"config": {}, "class_name": "Zeros"}, "bias_constraint": null, "activity_regularizer": null, "kernel_regularizer": {"config": {"l2": 0.0005000000237487257, "l1": 0.0}, "class_name": "L1L2"}}, "inbound_nodes": [[["C2_PWH_0", 0, 0, {}]]], "name": "C2_PWH_1", "class_name": "Dense"}, {"config": {"trainable": true, "activation": "relu", "bias_regularizer": null, "kernel_constraint": null, "use_bias": true, "units": 30, "name": "C3_PWH_1", "kernel_initializer": {"config": {"scale": 1.0, "mode": "fan_avg", "seed": 3014, "distribution": "normal"}, "class_name": "VarianceScaling"}, "bias_initializer": {"config": {}, "class_name": "Zeros"}, "bias_constraint": null, "activity_regularizer": null, "kernel_regularizer": {"config": {"l2": 0.0005000000237487257, "l1": 0.0}, "class_name": "L1L2"}}, "inbound_nodes": [[["C3_PWH_0", 0, 0, {}]]], "name": "C3_PWH_1", "class_name": "Dense"}, {"config": {"trainable": true, "activation": "relu", "bias_regularizer": null, "kernel_constraint": null, "use_bias": true, "units": 30, "name": "C4_PWH_1", "kernel_initializer": {"config": {"scale": 1.0, "mode": "fan_avg", "seed": 3014, "distribution": "normal"}, "class_name": "VarianceScaling"}, "bias_initializer": {"config": {}, "class_name": "Zeros"}, "bias_constraint": null, "activity_regularizer": null, "kernel_regularizer": {"config": {"l2": 0.0005000000237487257, "l1": 0.0}, "class_name": "L1L2"}}, "inbound_nodes": [[["C4_PWH_0", 0, 0, {}]]], "name": "C4_PWH_1", "class_name": "Dense"}, {"config": {"trainable": true, "activation": "relu", "bias_regularizer": null, "kernel_constraint": null, "use_bias": true, "units": 30, "name": "D1_PWH_1", "kernel_initializer": {"config": {"scale": 1.0, "mode": "fan_avg", "seed": 3014, "distribution": "normal"}, "class_name": "VarianceScaling"}, "bias_initializer": {"config": {}, "class_name": "Zeros"}, "bias_constraint": null, "activity_regularizer": null, "kernel_regularizer": {"config": {"l2": 0.0005000000237487257, "l1": 0.0}, "class_name": "L1L2"}}, "inbound_nodes": [[["D1_PWH_0", 0, 0, {}]]], "name": "D1_PWH_1", "class_name": "Dense"}, {"config": {"trainable": true, "activation": "linear", "bias_regularizer": null, "kernel_constraint": null, "use_bias": true, "units": 1, "name": "B1_PWH_out", "kernel_initializer": {"config": {"scale": 1.0, "mode": "fan_avg", "seed": 3014, "distribution": "normal"}, "class_name": "VarianceScaling"}, "bias_initializer": {"config": {}, "class_name": "Zeros"}, "bias_constraint": null, "activity_regularizer": null, "kernel_regularizer": {"config": {"l2": 0.0005000000237487257, "l1": 0.0}, "class_name": "L1L2"}}, "inbound_nodes": [[["B1_PWH_1", 0, 0, {}]]], "name": "B1_PWH_out", "class_name": "Dense"}, {"config": {"trainable": true, "activation": "linear", "bias_regularizer": null, "kernel_constraint": null, "use_bias": true, "units": 1, "name": "B3_PWH_out", "kernel_initializer": {"config": {"scale": 1.0, "mode": "fan_avg", "seed": 3014, "distribution": "normal"}, "class_name": "VarianceScaling"}, "bias_initializer": {"config": {}, "class_name": "Zeros"}, "bias_constraint": null, "activity_regularizer": null, "kernel_regularizer": {"config": {"l2": 0.0005000000237487257, "l1": 0.0}, "class_name": "L1L2"}}, "inbound_nodes": [[["B3_PWH_1", 0, 0, {}]]], "name": "B3_PWH_out", "class_name": "Dense"}, {"config": {"trainable": true, "activation": "linear", "bias_regularizer": null, "kernel_constraint": null, "use_bias": true, "units": 1, "name": "C1_PWH_out", "kernel_initializer": {"config": {"scale": 1.0, "mode": "fan_avg", "seed": 3014, "distribution": "normal"}, "class_name": "VarianceScaling"}, "bias_initializer": {"config": {}, "class_name": "Zeros"}, "bias_constraint": null, "activity_regularizer": null, "kernel_regularizer": {"config": {"l2": 0.0005000000237487257, "l1": 0.0}, "class_name": "L1L2"}}, "inbound_nodes": [[["C1_PWH_1", 0, 0, {}]]], "name": "C1_PWH_out", "class_name": "Dense"}, {"config": {"trainable": true, "activation": "linear", "bias_regularizer": null, "kernel_constraint": null, "use_bias": true, "units": 1, "name": "C2_PWH_out", "kernel_initializer": {"config": {"scale": 1.0, "mode": "fan_avg", "seed": 3014, "distribution": "normal"}, "class_name": "VarianceScaling"}, "bias_initializer": {"config": {}, "class_name": "Zeros"}, "bias_constraint": null, "activity_regularizer": null, "kernel_regularizer": {"config": {"l2": 0.0005000000237487257, "l1": 0.0}, "class_name": "L1L2"}}, "inbound_nodes": [[["C2_PWH_1", 0, 0, {}]]], "name": "C2_PWH_out", "class_name": "Dense"}, {"config": {"trainable": true, "activation": "linear", "bias_regularizer": null, "kernel_constraint": null, "use_bias": true, "units": 1, "name": "C3_PWH_out", "kernel_initializer": {"config": {"scale": 1.0, "mode": "fan_avg", "seed": 3014, "distribution": "normal"}, "class_name": "VarianceScaling"}, "bias_initializer": {"config": {}, "class_name": "Zeros"}, "bias_constraint": null, "activity_regularizer": null, "kernel_regularizer": {"config": {"l2": 0.0005000000237487257, "l1": 0.0}, "class_name": "L1L2"}}, "inbound_nodes": [[["C3_PWH_1", 0, 0, {}]]], "name": "C3_PWH_out", "class_name": "Dense"}, {"config": {"trainable": true, "activation": "linear", "bias_regularizer": null, "kernel_constraint": null, "use_bias": true, "units": 1, "name": "C4_PWH_out", "kernel_initializer": {"config": {"scale": 1.0, "mode": "fan_avg", "seed": 3014, "distribution": "normal"}, "class_name": "VarianceScaling"}, "bias_initializer": {"config": {}, "class_name": "Zeros"}, "bias_constraint": null, "activity_regularizer": null, "kernel_regularizer": {"config": {"l2": 0.0005000000237487257, "l1": 0.0}, "class_name": "L1L2"}}, "inbound_nodes": [[["C4_PWH_1", 0, 0, {}]]], "name": "C4_PWH_out", "class_name": "Dense"}, {"config": {"trainable": true, "activation": "linear", "bias_regularizer": null, "kernel_constraint": null, "use_bias": true, "units": 1, "name": "D1_PWH_out", "kernel_initializer": {"config": {"scale": 1.0, "mode": "fan_avg", "seed": 3014, "distribution": "normal"}, "class_name": "VarianceScaling"}, "bias_initializer": {"config": {}, "class_name": "Zeros"}, "bias_constraint": null, "activity_regularizer": null, "kernel_regularizer": {"config": {"l2": 0.0005000000237487257, "l1": 0.0}, "class_name": "L1L2"}}, "inbound_nodes": [[["D1_PWH_1", 0, 0, {}]]], "name": "D1_PWH_out", "class_name": "Dense"}], "input_layers": [["CHK_INPUT_NOW", 0, 0]], "name": "model_1", "output_layers": [["B1_PWH_out", 0, 0], ["B3_PWH_out", 0, 0], ["C1_PWH_out", 0, 0], ["C2_PWH_out", 0, 0], ["C3_PWH_out", 0, 0], ["C4_PWH_out", 0, 0], ["D1_PWH_out", 0, 0]]}, "keras_version": "2.0.1", "backend": "theano", "class_name": "Model"}