{"keras_version": "2.0.1", "backend": "theano", "config": {"layers": [{"inbound_nodes": [], "config": {"sparse": false, "batch_input_shape": [null, 8], "dtype": "float32", "name": "CHK_INPUT_PREV"}, "name": "CHK_INPUT_PREV", "class_name": "InputLayer"}, {"inbound_nodes": [], "config": {"sparse": false, "batch_input_shape": [null, 8], "dtype": "float32", "name": "CHK_INPUT_NOW"}, "name": "CHK_INPUT_NOW", "class_name": "InputLayer"}, {"inbound_nodes": [[["CHK_INPUT_PREV", 0, 0, {}], ["CHK_INPUT_NOW", 0, 0, {}]]], "config": {"trainable": true, "name": "CHK_DELTA"}, "name": "CHK_DELTA", "class_name": "Add"}, {"inbound_nodes": [[["CHK_DELTA", 0, 0, {}]]], "config": {"bias_initializer": {"config": {}, "class_name": "Zeros"}, "name": "C1_PDC_0", "bias_regularizer": null, "activation": "relu", "bias_constraint": null, "kernel_regularizer": {"config": {"l1": 0.0, "l2": 9.999999747378752e-05}, "class_name": "L1L2"}, "activity_regularizer": null, "trainable": true, "units": 50, "kernel_initializer": {"config": {"distribution": "normal", "scale": 1.0, "mode": "fan_avg", "seed": 3014}, "class_name": "VarianceScaling"}, "kernel_constraint": null, "use_bias": true}, "name": "C1_PDC_0", "class_name": "Dense"}, {"inbound_nodes": [[["CHK_DELTA", 0, 0, {}]]], "config": {"bias_initializer": {"config": {}, "class_name": "Zeros"}, "name": "C2_PDC_0", "bias_regularizer": null, "activation": "relu", "bias_constraint": null, "kernel_regularizer": {"config": {"l1": 0.0, "l2": 9.999999747378752e-05}, "class_name": "L1L2"}, "activity_regularizer": null, "trainable": true, "units": 50, "kernel_initializer": {"config": {"distribution": "normal", "scale": 1.0, "mode": "fan_avg", "seed": 3014}, "class_name": "VarianceScaling"}, "kernel_constraint": null, "use_bias": true}, "name": "C2_PDC_0", "class_name": "Dense"}, {"inbound_nodes": [[["CHK_DELTA", 0, 0, {}]]], "config": {"bias_initializer": {"config": {}, "class_name": "Zeros"}, "name": "C3_PDC_0", "bias_regularizer": null, "activation": "relu", "bias_constraint": null, "kernel_regularizer": {"config": {"l1": 0.0, "l2": 9.999999747378752e-05}, "class_name": "L1L2"}, "activity_regularizer": null, "trainable": true, "units": 50, "kernel_initializer": {"config": {"distribution": "normal", "scale": 1.0, "mode": "fan_avg", "seed": 3014}, "class_name": "VarianceScaling"}, "kernel_constraint": null, "use_bias": true}, "name": "C3_PDC_0", "class_name": "Dense"}, {"inbound_nodes": [[["CHK_DELTA", 0, 0, {}]]], "config": {"bias_initializer": {"config": {}, "class_name": "Zeros"}, "name": "C4_PDC_0", "bias_regularizer": null, "activation": "relu", "bias_constraint": null, "kernel_regularizer": {"config": {"l1": 0.0, "l2": 9.999999747378752e-05}, "class_name": "L1L2"}, "activity_regularizer": null, "trainable": true, "units": 50, "kernel_initializer": {"config": {"distribution": "normal", "scale": 1.0, "mode": "fan_avg", "seed": 3014}, "class_name": "VarianceScaling"}, "kernel_constraint": null, "use_bias": true}, "name": "C4_PDC_0", "class_name": "Dense"}, {"inbound_nodes": [[["CHK_DELTA", 0, 0, {}]]], "config": {"bias_initializer": {"config": {}, "class_name": "Zeros"}, "name": "B3_PDC_0", "bias_regularizer": null, "activation": "relu", "bias_constraint": null, "kernel_regularizer": {"config": {"l1": 0.0, "l2": 9.999999747378752e-05}, "class_name": "L1L2"}, "activity_regularizer": null, "trainable": true, "units": 50, "kernel_initializer": {"config": {"distribution": "normal", "scale": 1.0, "mode": "fan_avg", "seed": 3014}, "class_name": "VarianceScaling"}, "kernel_constraint": null, "use_bias": true}, "name": "B3_PDC_0", "class_name": "Dense"}, {"inbound_nodes": [[["CHK_DELTA", 0, 0, {}]]], "config": {"bias_initializer": {"config": {}, "class_name": "Zeros"}, "name": "B1_PDC_0", "bias_regularizer": null, "activation": "relu", "bias_constraint": null, "kernel_regularizer": {"config": {"l1": 0.0, "l2": 9.999999747378752e-05}, "class_name": "L1L2"}, "activity_regularizer": null, "trainable": true, "units": 50, "kernel_initializer": {"config": {"distribution": "normal", "scale": 1.0, "mode": "fan_avg", "seed": 3014}, "class_name": "VarianceScaling"}, "kernel_constraint": null, "use_bias": true}, "name": "B1_PDC_0", "class_name": "Dense"}, {"inbound_nodes": [[["CHK_DELTA", 0, 0, {}]]], "config": {"bias_initializer": {"config": {}, "class_name": "Zeros"}, "name": "D1_PDC_0", "bias_regularizer": null, "activation": "relu", "bias_constraint": null, "kernel_regularizer": {"config": {"l1": 0.0, "l2": 9.999999747378752e-05}, "class_name": "L1L2"}, "activity_regularizer": null, "trainable": true, "units": 50, "kernel_initializer": {"config": {"distribution": "normal", "scale": 1.0, "mode": "fan_avg", "seed": 3014}, "class_name": "VarianceScaling"}, "kernel_constraint": null, "use_bias": true}, "name": "D1_PDC_0", "class_name": "Dense"}, {"inbound_nodes": [[["C1_PDC_0", 0, 0, {}]]], "config": {"bias_initializer": {"config": {}, "class_name": "Zeros"}, "name": "C1_PDC_out", "bias_regularizer": null, "activation": "linear", "bias_constraint": null, "kernel_regularizer": {"config": {"l1": 0.0, "l2": 9.999999747378752e-05}, "class_name": "L1L2"}, "activity_regularizer": null, "trainable": true, "units": 1, "kernel_initializer": {"config": {"distribution": "normal", "scale": 1.0, "mode": "fan_avg", "seed": 3014}, "class_name": "VarianceScaling"}, "kernel_constraint": null, "use_bias": true}, "name": "C1_PDC_out", "class_name": "Dense"}, {"inbound_nodes": [], "config": {"sparse": false, "batch_input_shape": [null, 1], "dtype": "float32", "name": "SHIFTED_PRESSURE_PDC_C1"}, "name": "SHIFTED_PRESSURE_PDC_C1", "class_name": "InputLayer"}, {"inbound_nodes": [[["C2_PDC_0", 0, 0, {}]]], "config": {"bias_initializer": {"config": {}, "class_name": "Zeros"}, "name": "C2_PDC_out", "bias_regularizer": null, "activation": "linear", "bias_constraint": null, "kernel_regularizer": {"config": {"l1": 0.0, "l2": 9.999999747378752e-05}, "class_name": "L1L2"}, "activity_regularizer": null, "trainable": true, "units": 1, "kernel_initializer": {"config": {"distribution": "normal", "scale": 1.0, "mode": "fan_avg", "seed": 3014}, "class_name": "VarianceScaling"}, "kernel_constraint": null, "use_bias": true}, "name": "C2_PDC_out", "class_name": "Dense"}, {"inbound_nodes": [], "config": {"sparse": false, "batch_input_shape": [null, 1], "dtype": "float32", "name": "SHIFTED_PRESSURE_PDC_C2"}, "name": "SHIFTED_PRESSURE_PDC_C2", "class_name": "InputLayer"}, {"inbound_nodes": [[["C3_PDC_0", 0, 0, {}]]], "config": {"bias_initializer": {"config": {}, "class_name": "Zeros"}, "name": "C3_PDC_out", "bias_regularizer": null, "activation": "linear", "bias_constraint": null, "kernel_regularizer": {"config": {"l1": 0.0, "l2": 9.999999747378752e-05}, "class_name": "L1L2"}, "activity_regularizer": null, "trainable": true, "units": 1, "kernel_initializer": {"config": {"distribution": "normal", "scale": 1.0, "mode": "fan_avg", "seed": 3014}, "class_name": "VarianceScaling"}, "kernel_constraint": null, "use_bias": true}, "name": "C3_PDC_out", "class_name": "Dense"}, {"inbound_nodes": [], "config": {"sparse": false, "batch_input_shape": [null, 1], "dtype": "float32", "name": "SHIFTED_PRESSURE_PDC_C3"}, "name": "SHIFTED_PRESSURE_PDC_C3", "class_name": "InputLayer"}, {"inbound_nodes": [[["C4_PDC_0", 0, 0, {}]]], "config": {"bias_initializer": {"config": {}, "class_name": "Zeros"}, "name": "C4_PDC_out", "bias_regularizer": null, "activation": "linear", "bias_constraint": null, "kernel_regularizer": {"config": {"l1": 0.0, "l2": 9.999999747378752e-05}, "class_name": "L1L2"}, "activity_regularizer": null, "trainable": true, "units": 1, "kernel_initializer": {"config": {"distribution": "normal", "scale": 1.0, "mode": "fan_avg", "seed": 3014}, "class_name": "VarianceScaling"}, "kernel_constraint": null, "use_bias": true}, "name": "C4_PDC_out", "class_name": "Dense"}, {"inbound_nodes": [], "config": {"sparse": false, "batch_input_shape": [null, 1], "dtype": "float32", "name": "SHIFTED_PRESSURE_PDC_C4"}, "name": "SHIFTED_PRESSURE_PDC_C4", "class_name": "InputLayer"}, {"inbound_nodes": [[["B3_PDC_0", 0, 0, {}]]], "config": {"bias_initializer": {"config": {}, "class_name": "Zeros"}, "name": "B3_PDC_out", "bias_regularizer": null, "activation": "linear", "bias_constraint": null, "kernel_regularizer": {"config": {"l1": 0.0, "l2": 9.999999747378752e-05}, "class_name": "L1L2"}, "activity_regularizer": null, "trainable": true, "units": 1, "kernel_initializer": {"config": {"distribution": "normal", "scale": 1.0, "mode": "fan_avg", "seed": 3014}, "class_name": "VarianceScaling"}, "kernel_constraint": null, "use_bias": true}, "name": "B3_PDC_out", "class_name": "Dense"}, {"inbound_nodes": [], "config": {"sparse": false, "batch_input_shape": [null, 1], "dtype": "float32", "name": "SHIFTED_PRESSURE_PDC_B3"}, "name": "SHIFTED_PRESSURE_PDC_B3", "class_name": "InputLayer"}, {"inbound_nodes": [[["B1_PDC_0", 0, 0, {}]]], "config": {"bias_initializer": {"config": {}, "class_name": "Zeros"}, "name": "B1_PDC_out", "bias_regularizer": null, "activation": "linear", "bias_constraint": null, "kernel_regularizer": {"config": {"l1": 0.0, "l2": 9.999999747378752e-05}, "class_name": "L1L2"}, "activity_regularizer": null, "trainable": true, "units": 1, "kernel_initializer": {"config": {"distribution": "normal", "scale": 1.0, "mode": "fan_avg", "seed": 3014}, "class_name": "VarianceScaling"}, "kernel_constraint": null, "use_bias": true}, "name": "B1_PDC_out", "class_name": "Dense"}, {"inbound_nodes": [], "config": {"sparse": false, "batch_input_shape": [null, 1], "dtype": "float32", "name": "SHIFTED_PRESSURE_PDC_B1"}, "name": "SHIFTED_PRESSURE_PDC_B1", "class_name": "InputLayer"}, {"inbound_nodes": [[["D1_PDC_0", 0, 0, {}]]], "config": {"bias_initializer": {"config": {}, "class_name": "Zeros"}, "name": "D1_PDC_out", "bias_regularizer": null, "activation": "linear", "bias_constraint": null, "kernel_regularizer": {"config": {"l1": 0.0, "l2": 9.999999747378752e-05}, "class_name": "L1L2"}, "activity_regularizer": null, "trainable": true, "units": 1, "kernel_initializer": {"config": {"distribution": "normal", "scale": 1.0, "mode": "fan_avg", "seed": 3014}, "class_name": "VarianceScaling"}, "kernel_constraint": null, "use_bias": true}, "name": "D1_PDC_out", "class_name": "Dense"}, {"inbound_nodes": [], "config": {"sparse": false, "batch_input_shape": [null, 1], "dtype": "float32", "name": "SHIFTED_PRESSURE_PDC_D1"}, "name": "SHIFTED_PRESSURE_PDC_D1", "class_name": "InputLayer"}, {"inbound_nodes": [[["C1_PDC_out", 0, 0, {}], ["SHIFTED_PRESSURE_PDC_C1", 0, 0, {}]]], "config": {"trainable": true, "name": "C1_PDC_out2"}, "name": "C1_PDC_out2", "class_name": "Add"}, {"inbound_nodes": [[["C2_PDC_out", 0, 0, {}], ["SHIFTED_PRESSURE_PDC_C2", 0, 0, {}]]], "config": {"trainable": true, "name": "C2_PDC_out2"}, "name": "C2_PDC_out2", "class_name": "Add"}, {"inbound_nodes": [[["C3_PDC_out", 0, 0, {}], ["SHIFTED_PRESSURE_PDC_C3", 0, 0, {}]]], "config": {"trainable": true, "name": "C3_PDC_out2"}, "name": "C3_PDC_out2", "class_name": "Add"}, {"inbound_nodes": [[["C4_PDC_out", 0, 0, {}], ["SHIFTED_PRESSURE_PDC_C4", 0, 0, {}]]], "config": {"trainable": true, "name": "C4_PDC_out2"}, "name": "C4_PDC_out2", "class_name": "Add"}, {"inbound_nodes": [[["B3_PDC_out", 0, 0, {}], ["SHIFTED_PRESSURE_PDC_B3", 0, 0, {}]]], "config": {"trainable": true, "name": "B3_PDC_out2"}, "name": "B3_PDC_out2", "class_name": "Add"}, {"inbound_nodes": [[["B1_PDC_out", 0, 0, {}], ["SHIFTED_PRESSURE_PDC_B1", 0, 0, {}]]], "config": {"trainable": true, "name": "B1_PDC_out2"}, "name": "B1_PDC_out2", "class_name": "Add"}, {"inbound_nodes": [[["D1_PDC_out", 0, 0, {}], ["SHIFTED_PRESSURE_PDC_D1", 0, 0, {}]]], "config": {"trainable": true, "name": "D1_PDC_out2"}, "name": "D1_PDC_out2", "class_name": "Add"}], "input_layers": [["CHK_INPUT_NOW", 0, 0], ["CHK_INPUT_PREV", 0, 0], ["SHIFTED_PRESSURE_PDC_C1", 0, 0], ["SHIFTED_PRESSURE_PDC_C2", 0, 0], ["SHIFTED_PRESSURE_PDC_C3", 0, 0], ["SHIFTED_PRESSURE_PDC_C4", 0, 0], ["SHIFTED_PRESSURE_PDC_B3", 0, 0], ["SHIFTED_PRESSURE_PDC_B1", 0, 0], ["SHIFTED_PRESSURE_PDC_D1", 0, 0]], "name": "model_1", "output_layers": [["C1_PDC_out2", 0, 0], ["C1_PDC_out", 0, 0], ["C2_PDC_out2", 0, 0], ["C2_PDC_out", 0, 0], ["C3_PDC_out2", 0, 0], ["C3_PDC_out", 0, 0], ["C4_PDC_out2", 0, 0], ["C4_PDC_out", 0, 0], ["B3_PDC_out2", 0, 0], ["B3_PDC_out", 0, 0], ["B1_PDC_out2", 0, 0], ["B1_PDC_out", 0, 0], ["D1_PDC_out2", 0, 0], ["D1_PDC_out", 0, 0]]}, "class_name": "Model"}