{"class_name": "Model", "keras_version": "2.0.1", "config": {"output_layers": [["C1_PBH_out", 0, 0], ["C3_PBH_out", 0, 0], ["C4_PBH_out", 0, 0], ["B1_PBH_out", 0, 0], ["B3_PBH_out", 0, 0]], "input_layers": [["CHK_INPUT_NOW", 0, 0]], "name": "model_1", "layers": [{"class_name": "InputLayer", "config": {"dtype": "float32", "sparse": false, "batch_input_shape": [null, 8], "name": "CHK_INPUT_NOW"}, "inbound_nodes": [], "name": "CHK_INPUT_NOW"}, {"class_name": "Dense", "config": {"bias_constraint": null, "kernel_initializer": {"class_name": "VarianceScaling", "config": {"distribution": "normal", "mode": "fan_avg", "scale": 1.0, "seed": 3014}}, "activity_regularizer": null, "units": 30, "name": "C1_PBH_0", "kernel_constraint": null, "kernel_regularizer": {"class_name": "L1L2", "config": {"l2": 0.0005000000237487257, "l1": 0.0}}, "use_bias": true, "trainable": true, "bias_initializer": {"class_name": "Zeros", "config": {}}, "bias_regularizer": null, "activation": "relu"}, "inbound_nodes": [[["CHK_INPUT_NOW", 0, 0, {}]]], "name": "C1_PBH_0"}, {"class_name": "Dense", "config": {"bias_constraint": null, "kernel_initializer": {"class_name": "VarianceScaling", "config": {"distribution": "normal", "mode": "fan_avg", "scale": 1.0, "seed": 3014}}, "activity_regularizer": null, "units": 30, "name": "C3_PBH_0", "kernel_constraint": null, "kernel_regularizer": {"class_name": "L1L2", "config": {"l2": 0.0005000000237487257, "l1": 0.0}}, "use_bias": true, "trainable": true, "bias_initializer": {"class_name": "Zeros", "config": {}}, "bias_regularizer": null, "activation": "relu"}, "inbound_nodes": [[["CHK_INPUT_NOW", 0, 0, {}]]], "name": "C3_PBH_0"}, {"class_name": "Dense", "config": {"bias_constraint": null, "kernel_initializer": {"class_name": "VarianceScaling", "config": {"distribution": "normal", "mode": "fan_avg", "scale": 1.0, "seed": 3014}}, "activity_regularizer": null, "units": 30, "name": "C4_PBH_0", "kernel_constraint": null, "kernel_regularizer": {"class_name": "L1L2", "config": {"l2": 0.0005000000237487257, "l1": 0.0}}, "use_bias": true, "trainable": true, "bias_initializer": {"class_name": "Zeros", "config": {}}, "bias_regularizer": null, "activation": "relu"}, "inbound_nodes": [[["CHK_INPUT_NOW", 0, 0, {}]]], "name": "C4_PBH_0"}, {"class_name": "Dense", "config": {"bias_constraint": null, "kernel_initializer": {"class_name": "VarianceScaling", "config": {"distribution": "normal", "mode": "fan_avg", "scale": 1.0, "seed": 3014}}, "activity_regularizer": null, "units": 30, "name": "B1_PBH_0", "kernel_constraint": null, "kernel_regularizer": {"class_name": "L1L2", "config": {"l2": 0.0005000000237487257, "l1": 0.0}}, "use_bias": true, "trainable": true, "bias_initializer": {"class_name": "Zeros", "config": {}}, "bias_regularizer": null, "activation": "relu"}, "inbound_nodes": [[["CHK_INPUT_NOW", 0, 0, {}]]], "name": "B1_PBH_0"}, {"class_name": "Dense", "config": {"bias_constraint": null, "kernel_initializer": {"class_name": "VarianceScaling", "config": {"distribution": "normal", "mode": "fan_avg", "scale": 1.0, "seed": 3014}}, "activity_regularizer": null, "units": 30, "name": "B3_PBH_0", "kernel_constraint": null, "kernel_regularizer": {"class_name": "L1L2", "config": {"l2": 0.0005000000237487257, "l1": 0.0}}, "use_bias": true, "trainable": true, "bias_initializer": {"class_name": "Zeros", "config": {}}, "bias_regularizer": null, "activation": "relu"}, "inbound_nodes": [[["CHK_INPUT_NOW", 0, 0, {}]]], "name": "B3_PBH_0"}, {"class_name": "Dense", "config": {"bias_constraint": null, "kernel_initializer": {"class_name": "VarianceScaling", "config": {"distribution": "normal", "mode": "fan_avg", "scale": 1.0, "seed": 3014}}, "activity_regularizer": null, "units": 30, "name": "C1_PBH_1", "kernel_constraint": null, "kernel_regularizer": {"class_name": "L1L2", "config": {"l2": 0.0005000000237487257, "l1": 0.0}}, "use_bias": true, "trainable": true, "bias_initializer": {"class_name": "Zeros", "config": {}}, "bias_regularizer": null, "activation": "relu"}, "inbound_nodes": [[["C1_PBH_0", 0, 0, {}]]], "name": "C1_PBH_1"}, {"class_name": "Dense", "config": {"bias_constraint": null, "kernel_initializer": {"class_name": "VarianceScaling", "config": {"distribution": "normal", "mode": "fan_avg", "scale": 1.0, "seed": 3014}}, "activity_regularizer": null, "units": 30, "name": "C3_PBH_1", "kernel_constraint": null, "kernel_regularizer": {"class_name": "L1L2", "config": {"l2": 0.0005000000237487257, "l1": 0.0}}, "use_bias": true, "trainable": true, "bias_initializer": {"class_name": "Zeros", "config": {}}, "bias_regularizer": null, "activation": "relu"}, "inbound_nodes": [[["C3_PBH_0", 0, 0, {}]]], "name": "C3_PBH_1"}, {"class_name": "Dense", "config": {"bias_constraint": null, "kernel_initializer": {"class_name": "VarianceScaling", "config": {"distribution": "normal", "mode": "fan_avg", "scale": 1.0, "seed": 3014}}, "activity_regularizer": null, "units": 30, "name": "C4_PBH_1", "kernel_constraint": null, "kernel_regularizer": {"class_name": "L1L2", "config": {"l2": 0.0005000000237487257, "l1": 0.0}}, "use_bias": true, "trainable": true, "bias_initializer": {"class_name": "Zeros", "config": {}}, "bias_regularizer": null, "activation": "relu"}, "inbound_nodes": [[["C4_PBH_0", 0, 0, {}]]], "name": "C4_PBH_1"}, {"class_name": "Dense", "config": {"bias_constraint": null, "kernel_initializer": {"class_name": "VarianceScaling", "config": {"distribution": "normal", "mode": "fan_avg", "scale": 1.0, "seed": 3014}}, "activity_regularizer": null, "units": 30, "name": "B1_PBH_1", "kernel_constraint": null, "kernel_regularizer": {"class_name": "L1L2", "config": {"l2": 0.0005000000237487257, "l1": 0.0}}, "use_bias": true, "trainable": true, "bias_initializer": {"class_name": "Zeros", "config": {}}, "bias_regularizer": null, "activation": "relu"}, "inbound_nodes": [[["B1_PBH_0", 0, 0, {}]]], "name": "B1_PBH_1"}, {"class_name": "Dense", "config": {"bias_constraint": null, "kernel_initializer": {"class_name": "VarianceScaling", "config": {"distribution": "normal", "mode": "fan_avg", "scale": 1.0, "seed": 3014}}, "activity_regularizer": null, "units": 30, "name": "B3_PBH_1", "kernel_constraint": null, "kernel_regularizer": {"class_name": "L1L2", "config": {"l2": 0.0005000000237487257, "l1": 0.0}}, "use_bias": true, "trainable": true, "bias_initializer": {"class_name": "Zeros", "config": {}}, "bias_regularizer": null, "activation": "relu"}, "inbound_nodes": [[["B3_PBH_0", 0, 0, {}]]], "name": "B3_PBH_1"}, {"class_name": "Dense", "config": {"bias_constraint": null, "kernel_initializer": {"class_name": "VarianceScaling", "config": {"distribution": "normal", "mode": "fan_avg", "scale": 1.0, "seed": 3014}}, "activity_regularizer": null, "units": 1, "name": "C1_PBH_out", "kernel_constraint": null, "kernel_regularizer": {"class_name": "L1L2", "config": {"l2": 0.0005000000237487257, "l1": 0.0}}, "use_bias": true, "trainable": true, "bias_initializer": {"class_name": "Zeros", "config": {}}, "bias_regularizer": null, "activation": "linear"}, "inbound_nodes": [[["C1_PBH_1", 0, 0, {}]]], "name": "C1_PBH_out"}, {"class_name": "Dense", "config": {"bias_constraint": null, "kernel_initializer": {"class_name": "VarianceScaling", "config": {"distribution": "normal", "mode": "fan_avg", "scale": 1.0, "seed": 3014}}, "activity_regularizer": null, "units": 1, "name": "C3_PBH_out", "kernel_constraint": null, "kernel_regularizer": {"class_name": "L1L2", "config": {"l2": 0.0005000000237487257, "l1": 0.0}}, "use_bias": true, "trainable": true, "bias_initializer": {"class_name": "Zeros", "config": {}}, "bias_regularizer": null, "activation": "linear"}, "inbound_nodes": [[["C3_PBH_1", 0, 0, {}]]], "name": "C3_PBH_out"}, {"class_name": "Dense", "config": {"bias_constraint": null, "kernel_initializer": {"class_name": "VarianceScaling", "config": {"distribution": "normal", "mode": "fan_avg", "scale": 1.0, "seed": 3014}}, "activity_regularizer": null, "units": 1, "name": "C4_PBH_out", "kernel_constraint": null, "kernel_regularizer": {"class_name": "L1L2", "config": {"l2": 0.0005000000237487257, "l1": 0.0}}, "use_bias": true, "trainable": true, "bias_initializer": {"class_name": "Zeros", "config": {}}, "bias_regularizer": null, "activation": "linear"}, "inbound_nodes": [[["C4_PBH_1", 0, 0, {}]]], "name": "C4_PBH_out"}, {"class_name": "Dense", "config": {"bias_constraint": null, "kernel_initializer": {"class_name": "VarianceScaling", "config": {"distribution": "normal", "mode": "fan_avg", "scale": 1.0, "seed": 3014}}, "activity_regularizer": null, "units": 1, "name": "B1_PBH_out", "kernel_constraint": null, "kernel_regularizer": {"class_name": "L1L2", "config": {"l2": 0.0005000000237487257, "l1": 0.0}}, "use_bias": true, "trainable": true, "bias_initializer": {"class_name": "Zeros", "config": {}}, "bias_regularizer": null, "activation": "linear"}, "inbound_nodes": [[["B1_PBH_1", 0, 0, {}]]], "name": "B1_PBH_out"}, {"class_name": "Dense", "config": {"bias_constraint": null, "kernel_initializer": {"class_name": "VarianceScaling", "config": {"distribution": "normal", "mode": "fan_avg", "scale": 1.0, "seed": 3014}}, "activity_regularizer": null, "units": 1, "name": "B3_PBH_out", "kernel_constraint": null, "kernel_regularizer": {"class_name": "L1L2", "config": {"l2": 0.0005000000237487257, "l1": 0.0}}, "use_bias": true, "trainable": true, "bias_initializer": {"class_name": "Zeros", "config": {}}, "bias_regularizer": null, "activation": "linear"}, "inbound_nodes": [[["B3_PBH_1", 0, 0, {}]]], "name": "B3_PBH_out"}]}, "backend": "theano"}