{"config": {"layers": [{"inbound_nodes": [], "config": {"sparse": false, "batch_input_shape": [null, 8], "name": "CHK_INPUT_PREV", "dtype": "float32"}, "name": "CHK_INPUT_PREV", "class_name": "InputLayer"}, {"inbound_nodes": [], "config": {"sparse": false, "batch_input_shape": [null, 8], "name": "CHK_INPUT_NOW", "dtype": "float32"}, "name": "CHK_INPUT_NOW", "class_name": "InputLayer"}, {"inbound_nodes": [[["CHK_INPUT_PREV", 0, 0, {}], ["CHK_INPUT_NOW", 0, 0, {}]]], "config": {"trainable": true, "name": "CHK_DELTA"}, "name": "CHK_DELTA", "class_name": "Add"}, {"inbound_nodes": [[["CHK_DELTA", 0, 0, {}]]], "config": {"bias_constraint": null, "units": 90, "name": "C1_PWH_0", "activation": "relu", "bias_initializer": {"config": {}, "class_name": "Zeros"}, "bias_regularizer": null, "use_bias": true, "kernel_constraint": null, "kernel_initializer": {"config": {"distribution": "normal", "mode": "fan_avg", "scale": 1.0, "seed": 3014}, "class_name": "VarianceScaling"}, "trainable": true, "activity_regularizer": null, "kernel_regularizer": {"config": {"l1": 0.0, "l2": 9.999999747378752e-05}, "class_name": "L1L2"}}, "name": "C1_PWH_0", "class_name": "Dense"}, {"inbound_nodes": [[["CHK_DELTA", 0, 0, {}]]], "config": {"bias_constraint": null, "units": 90, "name": "C2_PWH_0", "activation": "relu", "bias_initializer": {"config": {}, "class_name": "Zeros"}, "bias_regularizer": null, "use_bias": true, "kernel_constraint": null, "kernel_initializer": {"config": {"distribution": "normal", "mode": "fan_avg", "scale": 1.0, "seed": 3014}, "class_name": "VarianceScaling"}, "trainable": true, "activity_regularizer": null, "kernel_regularizer": {"config": {"l1": 0.0, "l2": 9.999999747378752e-05}, "class_name": "L1L2"}}, "name": "C2_PWH_0", "class_name": "Dense"}, {"inbound_nodes": [[["CHK_DELTA", 0, 0, {}]]], "config": {"bias_constraint": null, "units": 90, "name": "C3_PWH_0", "activation": "relu", "bias_initializer": {"config": {}, "class_name": "Zeros"}, "bias_regularizer": null, "use_bias": true, "kernel_constraint": null, "kernel_initializer": {"config": {"distribution": "normal", "mode": "fan_avg", "scale": 1.0, "seed": 3014}, "class_name": "VarianceScaling"}, "trainable": true, "activity_regularizer": null, "kernel_regularizer": {"config": {"l1": 0.0, "l2": 9.999999747378752e-05}, "class_name": "L1L2"}}, "name": "C3_PWH_0", "class_name": "Dense"}, {"inbound_nodes": [[["CHK_DELTA", 0, 0, {}]]], "config": {"bias_constraint": null, "units": 90, "name": "C4_PWH_0", "activation": "relu", "bias_initializer": {"config": {}, "class_name": "Zeros"}, "bias_regularizer": null, "use_bias": true, "kernel_constraint": null, "kernel_initializer": {"config": {"distribution": "normal", "mode": "fan_avg", "scale": 1.0, "seed": 3014}, "class_name": "VarianceScaling"}, "trainable": true, "activity_regularizer": null, "kernel_regularizer": {"config": {"l1": 0.0, "l2": 9.999999747378752e-05}, "class_name": "L1L2"}}, "name": "C4_PWH_0", "class_name": "Dense"}, {"inbound_nodes": [[["CHK_DELTA", 0, 0, {}]]], "config": {"bias_constraint": null, "units": 90, "name": "B1_PWH_0", "activation": "relu", "bias_initializer": {"config": {}, "class_name": "Zeros"}, "bias_regularizer": null, "use_bias": true, "kernel_constraint": null, "kernel_initializer": {"config": {"distribution": "normal", "mode": "fan_avg", "scale": 1.0, "seed": 3014}, "class_name": "VarianceScaling"}, "trainable": true, "activity_regularizer": null, "kernel_regularizer": {"config": {"l1": 0.0, "l2": 9.999999747378752e-05}, "class_name": "L1L2"}}, "name": "B1_PWH_0", "class_name": "Dense"}, {"inbound_nodes": [[["CHK_DELTA", 0, 0, {}]]], "config": {"bias_constraint": null, "units": 90, "name": "B3_PWH_0", "activation": "relu", "bias_initializer": {"config": {}, "class_name": "Zeros"}, "bias_regularizer": null, "use_bias": true, "kernel_constraint": null, "kernel_initializer": {"config": {"distribution": "normal", "mode": "fan_avg", "scale": 1.0, "seed": 3014}, "class_name": "VarianceScaling"}, "trainable": true, "activity_regularizer": null, "kernel_regularizer": {"config": {"l1": 0.0, "l2": 9.999999747378752e-05}, "class_name": "L1L2"}}, "name": "B3_PWH_0", "class_name": "Dense"}, {"inbound_nodes": [[["CHK_DELTA", 0, 0, {}]]], "config": {"bias_constraint": null, "units": 90, "name": "D1_PWH_0", "activation": "relu", "bias_initializer": {"config": {}, "class_name": "Zeros"}, "bias_regularizer": null, "use_bias": true, "kernel_constraint": null, "kernel_initializer": {"config": {"distribution": "normal", "mode": "fan_avg", "scale": 1.0, "seed": 3014}, "class_name": "VarianceScaling"}, "trainable": true, "activity_regularizer": null, "kernel_regularizer": {"config": {"l1": 0.0, "l2": 9.999999747378752e-05}, "class_name": "L1L2"}}, "name": "D1_PWH_0", "class_name": "Dense"}, {"inbound_nodes": [[["C1_PWH_0", 0, 0, {}]]], "config": {"bias_constraint": null, "units": 90, "name": "C1_PWH_1", "activation": "relu", "bias_initializer": {"config": {}, "class_name": "Zeros"}, "bias_regularizer": null, "use_bias": true, "kernel_constraint": null, "kernel_initializer": {"config": {"distribution": "normal", "mode": "fan_avg", "scale": 1.0, "seed": 3014}, "class_name": "VarianceScaling"}, "trainable": true, "activity_regularizer": null, "kernel_regularizer": {"config": {"l1": 0.0, "l2": 9.999999747378752e-05}, "class_name": "L1L2"}}, "name": "C1_PWH_1", "class_name": "Dense"}, {"inbound_nodes": [[["C2_PWH_0", 0, 0, {}]]], "config": {"bias_constraint": null, "units": 90, "name": "C2_PWH_1", "activation": "relu", "bias_initializer": {"config": {}, "class_name": "Zeros"}, "bias_regularizer": null, "use_bias": true, "kernel_constraint": null, "kernel_initializer": {"config": {"distribution": "normal", "mode": "fan_avg", "scale": 1.0, "seed": 3014}, "class_name": "VarianceScaling"}, "trainable": true, "activity_regularizer": null, "kernel_regularizer": {"config": {"l1": 0.0, "l2": 9.999999747378752e-05}, "class_name": "L1L2"}}, "name": "C2_PWH_1", "class_name": "Dense"}, {"inbound_nodes": [[["C3_PWH_0", 0, 0, {}]]], "config": {"bias_constraint": null, "units": 90, "name": "C3_PWH_1", "activation": "relu", "bias_initializer": {"config": {}, "class_name": "Zeros"}, "bias_regularizer": null, "use_bias": true, "kernel_constraint": null, "kernel_initializer": {"config": {"distribution": "normal", "mode": "fan_avg", "scale": 1.0, "seed": 3014}, "class_name": "VarianceScaling"}, "trainable": true, "activity_regularizer": null, "kernel_regularizer": {"config": {"l1": 0.0, "l2": 9.999999747378752e-05}, "class_name": "L1L2"}}, "name": "C3_PWH_1", "class_name": "Dense"}, {"inbound_nodes": [[["C4_PWH_0", 0, 0, {}]]], "config": {"bias_constraint": null, "units": 90, "name": "C4_PWH_1", "activation": "relu", "bias_initializer": {"config": {}, "class_name": "Zeros"}, "bias_regularizer": null, "use_bias": true, "kernel_constraint": null, "kernel_initializer": {"config": {"distribution": "normal", "mode": "fan_avg", "scale": 1.0, "seed": 3014}, "class_name": "VarianceScaling"}, "trainable": true, "activity_regularizer": null, "kernel_regularizer": {"config": {"l1": 0.0, "l2": 9.999999747378752e-05}, "class_name": "L1L2"}}, "name": "C4_PWH_1", "class_name": "Dense"}, {"inbound_nodes": [[["B1_PWH_0", 0, 0, {}]]], "config": {"bias_constraint": null, "units": 90, "name": "B1_PWH_1", "activation": "relu", "bias_initializer": {"config": {}, "class_name": "Zeros"}, "bias_regularizer": null, "use_bias": true, "kernel_constraint": null, "kernel_initializer": {"config": {"distribution": "normal", "mode": "fan_avg", "scale": 1.0, "seed": 3014}, "class_name": "VarianceScaling"}, "trainable": true, "activity_regularizer": null, "kernel_regularizer": {"config": {"l1": 0.0, "l2": 9.999999747378752e-05}, "class_name": "L1L2"}}, "name": "B1_PWH_1", "class_name": "Dense"}, {"inbound_nodes": [[["B3_PWH_0", 0, 0, {}]]], "config": {"bias_constraint": null, "units": 90, "name": "B3_PWH_1", "activation": "relu", "bias_initializer": {"config": {}, "class_name": "Zeros"}, "bias_regularizer": null, "use_bias": true, "kernel_constraint": null, "kernel_initializer": {"config": {"distribution": "normal", "mode": "fan_avg", "scale": 1.0, "seed": 3014}, "class_name": "VarianceScaling"}, "trainable": true, "activity_regularizer": null, "kernel_regularizer": {"config": {"l1": 0.0, "l2": 9.999999747378752e-05}, "class_name": "L1L2"}}, "name": "B3_PWH_1", "class_name": "Dense"}, {"inbound_nodes": [[["D1_PWH_0", 0, 0, {}]]], "config": {"bias_constraint": null, "units": 90, "name": "D1_PWH_1", "activation": "relu", "bias_initializer": {"config": {}, "class_name": "Zeros"}, "bias_regularizer": null, "use_bias": true, "kernel_constraint": null, "kernel_initializer": {"config": {"distribution": "normal", "mode": "fan_avg", "scale": 1.0, "seed": 3014}, "class_name": "VarianceScaling"}, "trainable": true, "activity_regularizer": null, "kernel_regularizer": {"config": {"l1": 0.0, "l2": 9.999999747378752e-05}, "class_name": "L1L2"}}, "name": "D1_PWH_1", "class_name": "Dense"}, {"inbound_nodes": [[["C1_PWH_1", 0, 0, {}]]], "config": {"bias_constraint": null, "units": 1, "name": "C1_PWH_out", "activation": "linear", "bias_initializer": {"config": {}, "class_name": "Zeros"}, "bias_regularizer": null, "use_bias": true, "kernel_constraint": null, "kernel_initializer": {"config": {"distribution": "normal", "mode": "fan_avg", "scale": 1.0, "seed": 3014}, "class_name": "VarianceScaling"}, "trainable": true, "activity_regularizer": null, "kernel_regularizer": {"config": {"l1": 0.0, "l2": 9.999999747378752e-05}, "class_name": "L1L2"}}, "name": "C1_PWH_out", "class_name": "Dense"}, {"inbound_nodes": [], "config": {"sparse": false, "batch_input_shape": [null, 1], "name": "SHIFTED_PRESSURE_PWH_C1", "dtype": "float32"}, "name": "SHIFTED_PRESSURE_PWH_C1", "class_name": "InputLayer"}, {"inbound_nodes": [[["C2_PWH_1", 0, 0, {}]]], "config": {"bias_constraint": null, "units": 1, "name": "C2_PWH_out", "activation": "linear", "bias_initializer": {"config": {}, "class_name": "Zeros"}, "bias_regularizer": null, "use_bias": true, "kernel_constraint": null, "kernel_initializer": {"config": {"distribution": "normal", "mode": "fan_avg", "scale": 1.0, "seed": 3014}, "class_name": "VarianceScaling"}, "trainable": true, "activity_regularizer": null, "kernel_regularizer": {"config": {"l1": 0.0, "l2": 9.999999747378752e-05}, "class_name": "L1L2"}}, "name": "C2_PWH_out", "class_name": "Dense"}, {"inbound_nodes": [], "config": {"sparse": false, "batch_input_shape": [null, 1], "name": "SHIFTED_PRESSURE_PWH_C2", "dtype": "float32"}, "name": "SHIFTED_PRESSURE_PWH_C2", "class_name": "InputLayer"}, {"inbound_nodes": [[["C3_PWH_1", 0, 0, {}]]], "config": {"bias_constraint": null, "units": 1, "name": "C3_PWH_out", "activation": "linear", "bias_initializer": {"config": {}, "class_name": "Zeros"}, "bias_regularizer": null, "use_bias": true, "kernel_constraint": null, "kernel_initializer": {"config": {"distribution": "normal", "mode": "fan_avg", "scale": 1.0, "seed": 3014}, "class_name": "VarianceScaling"}, "trainable": true, "activity_regularizer": null, "kernel_regularizer": {"config": {"l1": 0.0, "l2": 9.999999747378752e-05}, "class_name": "L1L2"}}, "name": "C3_PWH_out", "class_name": "Dense"}, {"inbound_nodes": [], "config": {"sparse": false, "batch_input_shape": [null, 1], "name": "SHIFTED_PRESSURE_PWH_C3", "dtype": "float32"}, "name": "SHIFTED_PRESSURE_PWH_C3", "class_name": "InputLayer"}, {"inbound_nodes": [[["C4_PWH_1", 0, 0, {}]]], "config": {"bias_constraint": null, "units": 1, "name": "C4_PWH_out", "activation": "linear", "bias_initializer": {"config": {}, "class_name": "Zeros"}, "bias_regularizer": null, "use_bias": true, "kernel_constraint": null, "kernel_initializer": {"config": {"distribution": "normal", "mode": "fan_avg", "scale": 1.0, "seed": 3014}, "class_name": "VarianceScaling"}, "trainable": true, "activity_regularizer": null, "kernel_regularizer": {"config": {"l1": 0.0, "l2": 9.999999747378752e-05}, "class_name": "L1L2"}}, "name": "C4_PWH_out", "class_name": "Dense"}, {"inbound_nodes": [], "config": {"sparse": false, "batch_input_shape": [null, 1], "name": "SHIFTED_PRESSURE_PWH_C4", "dtype": "float32"}, "name": "SHIFTED_PRESSURE_PWH_C4", "class_name": "InputLayer"}, {"inbound_nodes": [[["B1_PWH_1", 0, 0, {}]]], "config": {"bias_constraint": null, "units": 1, "name": "B1_PWH_out", "activation": "linear", "bias_initializer": {"config": {}, "class_name": "Zeros"}, "bias_regularizer": null, "use_bias": true, "kernel_constraint": null, "kernel_initializer": {"config": {"distribution": "normal", "mode": "fan_avg", "scale": 1.0, "seed": 3014}, "class_name": "VarianceScaling"}, "trainable": true, "activity_regularizer": null, "kernel_regularizer": {"config": {"l1": 0.0, "l2": 9.999999747378752e-05}, "class_name": "L1L2"}}, "name": "B1_PWH_out", "class_name": "Dense"}, {"inbound_nodes": [], "config": {"sparse": false, "batch_input_shape": [null, 1], "name": "SHIFTED_PRESSURE_PWH_B1", "dtype": "float32"}, "name": "SHIFTED_PRESSURE_PWH_B1", "class_name": "InputLayer"}, {"inbound_nodes": [[["B3_PWH_1", 0, 0, {}]]], "config": {"bias_constraint": null, "units": 1, "name": "B3_PWH_out", "activation": "linear", "bias_initializer": {"config": {}, "class_name": "Zeros"}, "bias_regularizer": null, "use_bias": true, "kernel_constraint": null, "kernel_initializer": {"config": {"distribution": "normal", "mode": "fan_avg", "scale": 1.0, "seed": 3014}, "class_name": "VarianceScaling"}, "trainable": true, "activity_regularizer": null, "kernel_regularizer": {"config": {"l1": 0.0, "l2": 9.999999747378752e-05}, "class_name": "L1L2"}}, "name": "B3_PWH_out", "class_name": "Dense"}, {"inbound_nodes": [], "config": {"sparse": false, "batch_input_shape": [null, 1], "name": "SHIFTED_PRESSURE_PWH_B3", "dtype": "float32"}, "name": "SHIFTED_PRESSURE_PWH_B3", "class_name": "InputLayer"}, {"inbound_nodes": [[["D1_PWH_1", 0, 0, {}]]], "config": {"bias_constraint": null, "units": 1, "name": "D1_PWH_out", "activation": "linear", "bias_initializer": {"config": {}, "class_name": "Zeros"}, "bias_regularizer": null, "use_bias": true, "kernel_constraint": null, "kernel_initializer": {"config": {"distribution": "normal", "mode": "fan_avg", "scale": 1.0, "seed": 3014}, "class_name": "VarianceScaling"}, "trainable": true, "activity_regularizer": null, "kernel_regularizer": {"config": {"l1": 0.0, "l2": 9.999999747378752e-05}, "class_name": "L1L2"}}, "name": "D1_PWH_out", "class_name": "Dense"}, {"inbound_nodes": [], "config": {"sparse": false, "batch_input_shape": [null, 1], "name": "SHIFTED_PRESSURE_PWH_D1", "dtype": "float32"}, "name": "SHIFTED_PRESSURE_PWH_D1", "class_name": "InputLayer"}, {"inbound_nodes": [[["C1_PWH_out", 0, 0, {}], ["SHIFTED_PRESSURE_PWH_C1", 0, 0, {}]]], "config": {"trainable": true, "name": "C1_PWH_out2"}, "name": "C1_PWH_out2", "class_name": "Add"}, {"inbound_nodes": [[["C2_PWH_out", 0, 0, {}], ["SHIFTED_PRESSURE_PWH_C2", 0, 0, {}]]], "config": {"trainable": true, "name": "C2_PWH_out2"}, "name": "C2_PWH_out2", "class_name": "Add"}, {"inbound_nodes": [[["C3_PWH_out", 0, 0, {}], ["SHIFTED_PRESSURE_PWH_C3", 0, 0, {}]]], "config": {"trainable": true, "name": "C3_PWH_out2"}, "name": "C3_PWH_out2", "class_name": "Add"}, {"inbound_nodes": [[["C4_PWH_out", 0, 0, {}], ["SHIFTED_PRESSURE_PWH_C4", 0, 0, {}]]], "config": {"trainable": true, "name": "C4_PWH_out2"}, "name": "C4_PWH_out2", "class_name": "Add"}, {"inbound_nodes": [[["B1_PWH_out", 0, 0, {}], ["SHIFTED_PRESSURE_PWH_B1", 0, 0, {}]]], "config": {"trainable": true, "name": "B1_PWH_out2"}, "name": "B1_PWH_out2", "class_name": "Add"}, {"inbound_nodes": [[["B3_PWH_out", 0, 0, {}], ["SHIFTED_PRESSURE_PWH_B3", 0, 0, {}]]], "config": {"trainable": true, "name": "B3_PWH_out2"}, "name": "B3_PWH_out2", "class_name": "Add"}, {"inbound_nodes": [[["D1_PWH_out", 0, 0, {}], ["SHIFTED_PRESSURE_PWH_D1", 0, 0, {}]]], "config": {"trainable": true, "name": "D1_PWH_out2"}, "name": "D1_PWH_out2", "class_name": "Add"}], "output_layers": [["C1_PWH_out2", 0, 0], ["C2_PWH_out2", 0, 0], ["C3_PWH_out2", 0, 0], ["C4_PWH_out2", 0, 0], ["B1_PWH_out2", 0, 0], ["B3_PWH_out2", 0, 0], ["D1_PWH_out2", 0, 0]], "name": "model_1", "input_layers": [["CHK_INPUT_NOW", 0, 0], ["CHK_INPUT_PREV", 0, 0], ["SHIFTED_PRESSURE_PWH_C1", 0, 0], ["SHIFTED_PRESSURE_PWH_C2", 0, 0], ["SHIFTED_PRESSURE_PWH_C3", 0, 0], ["SHIFTED_PRESSURE_PWH_C4", 0, 0], ["SHIFTED_PRESSURE_PWH_B1", 0, 0], ["SHIFTED_PRESSURE_PWH_B3", 0, 0], ["SHIFTED_PRESSURE_PWH_D1", 0, 0]]}, "keras_version": "2.0.1", "class_name": "Model", "backend": "theano"}