{"class_name": "Model", "backend": "theano", "keras_version": "2.0.1", "config": {"name": "model_1", "input_layers": [["CHK_INPUT_NOW", 0, 0], ["CHK_INPUT_PREV", 0, 0], ["SHIFTED_PRESSURE_PDC_C1", 0, 0], ["SHIFTED_PRESSURE_PDC_C2", 0, 0], ["SHIFTED_PRESSURE_PDC_C3", 0, 0], ["SHIFTED_PRESSURE_PDC_C4", 0, 0], ["SHIFTED_PRESSURE_PDC_B1", 0, 0], ["SHIFTED_PRESSURE_PDC_B3", 0, 0], ["SHIFTED_PRESSURE_PDC_D1", 0, 0]], "output_layers": [["C1_PDC_out2", 0, 0], ["C1_PDC_out", 0, 0], ["C2_PDC_out2", 0, 0], ["C2_PDC_out", 0, 0], ["C3_PDC_out2", 0, 0], ["C3_PDC_out", 0, 0], ["C4_PDC_out2", 0, 0], ["C4_PDC_out", 0, 0], ["B1_PDC_out2", 0, 0], ["B1_PDC_out", 0, 0], ["B3_PDC_out2", 0, 0], ["B3_PDC_out", 0, 0], ["D1_PDC_out2", 0, 0], ["D1_PDC_out", 0, 0]], "layers": [{"inbound_nodes": [], "class_name": "InputLayer", "name": "CHK_INPUT_PREV", "config": {"dtype": "float32", "batch_input_shape": [null, 8], "sparse": false, "name": "CHK_INPUT_PREV"}}, {"inbound_nodes": [], "class_name": "InputLayer", "name": "CHK_INPUT_NOW", "config": {"dtype": "float32", "batch_input_shape": [null, 8], "sparse": false, "name": "CHK_INPUT_NOW"}}, {"inbound_nodes": [[["CHK_INPUT_PREV", 0, 0, {}], ["CHK_INPUT_NOW", 0, 0, {}]]], "class_name": "Add", "name": "CHK_DELTA", "config": {"trainable": true, "name": "CHK_DELTA"}}, {"inbound_nodes": [[["CHK_DELTA", 0, 0, {}]]], "class_name": "Dense", "name": "C1_PDC_0", "config": {"kernel_initializer": {"class_name": "VarianceScaling", "config": {"mode": "fan_avg", "distribution": "normal", "seed": 3014, "scale": 1.0}}, "units": 60, "bias_regularizer": null, "trainable": true, "name": "C1_PDC_0", "kernel_constraint": null, "activity_regularizer": null, "kernel_regularizer": {"class_name": "L1L2", "config": {"l1": 0.0, "l2": 0.00019999999494757503}}, "use_bias": true, "bias_constraint": null, "activation": "relu", "bias_initializer": {"class_name": "Zeros", "config": {}}}}, {"inbound_nodes": [[["CHK_DELTA", 0, 0, {}]]], "class_name": "Dense", "name": "C2_PDC_0", "config": {"kernel_initializer": {"class_name": "VarianceScaling", "config": {"mode": "fan_avg", "distribution": "normal", "seed": 3014, "scale": 1.0}}, "units": 60, "bias_regularizer": null, "trainable": true, "name": "C2_PDC_0", "kernel_constraint": null, "activity_regularizer": null, "kernel_regularizer": {"class_name": "L1L2", "config": {"l1": 0.0, "l2": 0.00019999999494757503}}, "use_bias": true, "bias_constraint": null, "activation": "relu", "bias_initializer": {"class_name": "Zeros", "config": {}}}}, {"inbound_nodes": [[["CHK_DELTA", 0, 0, {}]]], "class_name": "Dense", "name": "C3_PDC_0", "config": {"kernel_initializer": {"class_name": "VarianceScaling", "config": {"mode": "fan_avg", "distribution": "normal", "seed": 3014, "scale": 1.0}}, "units": 60, "bias_regularizer": null, "trainable": true, "name": "C3_PDC_0", "kernel_constraint": null, "activity_regularizer": null, "kernel_regularizer": {"class_name": "L1L2", "config": {"l1": 0.0, "l2": 0.00019999999494757503}}, "use_bias": true, "bias_constraint": null, "activation": "relu", "bias_initializer": {"class_name": "Zeros", "config": {}}}}, {"inbound_nodes": [[["CHK_DELTA", 0, 0, {}]]], "class_name": "Dense", "name": "C4_PDC_0", "config": {"kernel_initializer": {"class_name": "VarianceScaling", "config": {"mode": "fan_avg", "distribution": "normal", "seed": 3014, "scale": 1.0}}, "units": 60, "bias_regularizer": null, "trainable": true, "name": "C4_PDC_0", "kernel_constraint": null, "activity_regularizer": null, "kernel_regularizer": {"class_name": "L1L2", "config": {"l1": 0.0, "l2": 0.00019999999494757503}}, "use_bias": true, "bias_constraint": null, "activation": "relu", "bias_initializer": {"class_name": "Zeros", "config": {}}}}, {"inbound_nodes": [[["CHK_DELTA", 0, 0, {}]]], "class_name": "Dense", "name": "B1_PDC_0", "config": {"kernel_initializer": {"class_name": "VarianceScaling", "config": {"mode": "fan_avg", "distribution": "normal", "seed": 3014, "scale": 1.0}}, "units": 60, "bias_regularizer": null, "trainable": true, "name": "B1_PDC_0", "kernel_constraint": null, "activity_regularizer": null, "kernel_regularizer": {"class_name": "L1L2", "config": {"l1": 0.0, "l2": 0.00019999999494757503}}, "use_bias": true, "bias_constraint": null, "activation": "relu", "bias_initializer": {"class_name": "Zeros", "config": {}}}}, {"inbound_nodes": [[["CHK_DELTA", 0, 0, {}]]], "class_name": "Dense", "name": "B3_PDC_0", "config": {"kernel_initializer": {"class_name": "VarianceScaling", "config": {"mode": "fan_avg", "distribution": "normal", "seed": 3014, "scale": 1.0}}, "units": 60, "bias_regularizer": null, "trainable": true, "name": "B3_PDC_0", "kernel_constraint": null, "activity_regularizer": null, "kernel_regularizer": {"class_name": "L1L2", "config": {"l1": 0.0, "l2": 0.00019999999494757503}}, "use_bias": true, "bias_constraint": null, "activation": "relu", "bias_initializer": {"class_name": "Zeros", "config": {}}}}, {"inbound_nodes": [[["CHK_DELTA", 0, 0, {}]]], "class_name": "Dense", "name": "D1_PDC_0", "config": {"kernel_initializer": {"class_name": "VarianceScaling", "config": {"mode": "fan_avg", "distribution": "normal", "seed": 3014, "scale": 1.0}}, "units": 60, "bias_regularizer": null, "trainable": true, "name": "D1_PDC_0", "kernel_constraint": null, "activity_regularizer": null, "kernel_regularizer": {"class_name": "L1L2", "config": {"l1": 0.0, "l2": 0.00019999999494757503}}, "use_bias": true, "bias_constraint": null, "activation": "relu", "bias_initializer": {"class_name": "Zeros", "config": {}}}}, {"inbound_nodes": [[["C1_PDC_0", 0, 0, {}]]], "class_name": "Dense", "name": "C1_PDC_1", "config": {"kernel_initializer": {"class_name": "VarianceScaling", "config": {"mode": "fan_avg", "distribution": "normal", "seed": 3014, "scale": 1.0}}, "units": 60, "bias_regularizer": null, "trainable": true, "name": "C1_PDC_1", "kernel_constraint": null, "activity_regularizer": null, "kernel_regularizer": {"class_name": "L1L2", "config": {"l1": 0.0, "l2": 0.00019999999494757503}}, "use_bias": true, "bias_constraint": null, "activation": "relu", "bias_initializer": {"class_name": "Zeros", "config": {}}}}, {"inbound_nodes": [[["C2_PDC_0", 0, 0, {}]]], "class_name": "Dense", "name": "C2_PDC_1", "config": {"kernel_initializer": {"class_name": "VarianceScaling", "config": {"mode": "fan_avg", "distribution": "normal", "seed": 3014, "scale": 1.0}}, "units": 60, "bias_regularizer": null, "trainable": true, "name": "C2_PDC_1", "kernel_constraint": null, "activity_regularizer": null, "kernel_regularizer": {"class_name": "L1L2", "config": {"l1": 0.0, "l2": 0.00019999999494757503}}, "use_bias": true, "bias_constraint": null, "activation": "relu", "bias_initializer": {"class_name": "Zeros", "config": {}}}}, {"inbound_nodes": [[["C3_PDC_0", 0, 0, {}]]], "class_name": "Dense", "name": "C3_PDC_1", "config": {"kernel_initializer": {"class_name": "VarianceScaling", "config": {"mode": "fan_avg", "distribution": "normal", "seed": 3014, "scale": 1.0}}, "units": 60, "bias_regularizer": null, "trainable": true, "name": "C3_PDC_1", "kernel_constraint": null, "activity_regularizer": null, "kernel_regularizer": {"class_name": "L1L2", "config": {"l1": 0.0, "l2": 0.00019999999494757503}}, "use_bias": true, "bias_constraint": null, "activation": "relu", "bias_initializer": {"class_name": "Zeros", "config": {}}}}, {"inbound_nodes": [[["C4_PDC_0", 0, 0, {}]]], "class_name": "Dense", "name": "C4_PDC_1", "config": {"kernel_initializer": {"class_name": "VarianceScaling", "config": {"mode": "fan_avg", "distribution": "normal", "seed": 3014, "scale": 1.0}}, "units": 60, "bias_regularizer": null, "trainable": true, "name": "C4_PDC_1", "kernel_constraint": null, "activity_regularizer": null, "kernel_regularizer": {"class_name": "L1L2", "config": {"l1": 0.0, "l2": 0.00019999999494757503}}, "use_bias": true, "bias_constraint": null, "activation": "relu", "bias_initializer": {"class_name": "Zeros", "config": {}}}}, {"inbound_nodes": [[["B1_PDC_0", 0, 0, {}]]], "class_name": "Dense", "name": "B1_PDC_1", "config": {"kernel_initializer": {"class_name": "VarianceScaling", "config": {"mode": "fan_avg", "distribution": "normal", "seed": 3014, "scale": 1.0}}, "units": 60, "bias_regularizer": null, "trainable": true, "name": "B1_PDC_1", "kernel_constraint": null, "activity_regularizer": null, "kernel_regularizer": {"class_name": "L1L2", "config": {"l1": 0.0, "l2": 0.00019999999494757503}}, "use_bias": true, "bias_constraint": null, "activation": "relu", "bias_initializer": {"class_name": "Zeros", "config": {}}}}, {"inbound_nodes": [[["B3_PDC_0", 0, 0, {}]]], "class_name": "Dense", "name": "B3_PDC_1", "config": {"kernel_initializer": {"class_name": "VarianceScaling", "config": {"mode": "fan_avg", "distribution": "normal", "seed": 3014, "scale": 1.0}}, "units": 60, "bias_regularizer": null, "trainable": true, "name": "B3_PDC_1", "kernel_constraint": null, "activity_regularizer": null, "kernel_regularizer": {"class_name": "L1L2", "config": {"l1": 0.0, "l2": 0.00019999999494757503}}, "use_bias": true, "bias_constraint": null, "activation": "relu", "bias_initializer": {"class_name": "Zeros", "config": {}}}}, {"inbound_nodes": [[["D1_PDC_0", 0, 0, {}]]], "class_name": "Dense", "name": "D1_PDC_1", "config": {"kernel_initializer": {"class_name": "VarianceScaling", "config": {"mode": "fan_avg", "distribution": "normal", "seed": 3014, "scale": 1.0}}, "units": 60, "bias_regularizer": null, "trainable": true, "name": "D1_PDC_1", "kernel_constraint": null, "activity_regularizer": null, "kernel_regularizer": {"class_name": "L1L2", "config": {"l1": 0.0, "l2": 0.00019999999494757503}}, "use_bias": true, "bias_constraint": null, "activation": "relu", "bias_initializer": {"class_name": "Zeros", "config": {}}}}, {"inbound_nodes": [[["C1_PDC_1", 0, 0, {}]]], "class_name": "Dense", "name": "C1_PDC_out", "config": {"kernel_initializer": {"class_name": "VarianceScaling", "config": {"mode": "fan_avg", "distribution": "normal", "seed": 3014, "scale": 1.0}}, "units": 1, "bias_regularizer": null, "trainable": true, "name": "C1_PDC_out", "kernel_constraint": null, "activity_regularizer": null, "kernel_regularizer": {"class_name": "L1L2", "config": {"l1": 0.0, "l2": 0.00019999999494757503}}, "use_bias": true, "bias_constraint": null, "activation": "linear", "bias_initializer": {"class_name": "Zeros", "config": {}}}}, {"inbound_nodes": [], "class_name": "InputLayer", "name": "SHIFTED_PRESSURE_PDC_C1", "config": {"dtype": "float32", "batch_input_shape": [null, 1], "sparse": false, "name": "SHIFTED_PRESSURE_PDC_C1"}}, {"inbound_nodes": [[["C2_PDC_1", 0, 0, {}]]], "class_name": "Dense", "name": "C2_PDC_out", "config": {"kernel_initializer": {"class_name": "VarianceScaling", "config": {"mode": "fan_avg", "distribution": "normal", "seed": 3014, "scale": 1.0}}, "units": 1, "bias_regularizer": null, "trainable": true, "name": "C2_PDC_out", "kernel_constraint": null, "activity_regularizer": null, "kernel_regularizer": {"class_name": "L1L2", "config": {"l1": 0.0, "l2": 0.00019999999494757503}}, "use_bias": true, "bias_constraint": null, "activation": "linear", "bias_initializer": {"class_name": "Zeros", "config": {}}}}, {"inbound_nodes": [], "class_name": "InputLayer", "name": "SHIFTED_PRESSURE_PDC_C2", "config": {"dtype": "float32", "batch_input_shape": [null, 1], "sparse": false, "name": "SHIFTED_PRESSURE_PDC_C2"}}, {"inbound_nodes": [[["C3_PDC_1", 0, 0, {}]]], "class_name": "Dense", "name": "C3_PDC_out", "config": {"kernel_initializer": {"class_name": "VarianceScaling", "config": {"mode": "fan_avg", "distribution": "normal", "seed": 3014, "scale": 1.0}}, "units": 1, "bias_regularizer": null, "trainable": true, "name": "C3_PDC_out", "kernel_constraint": null, "activity_regularizer": null, "kernel_regularizer": {"class_name": "L1L2", "config": {"l1": 0.0, "l2": 0.00019999999494757503}}, "use_bias": true, "bias_constraint": null, "activation": "linear", "bias_initializer": {"class_name": "Zeros", "config": {}}}}, {"inbound_nodes": [], "class_name": "InputLayer", "name": "SHIFTED_PRESSURE_PDC_C3", "config": {"dtype": "float32", "batch_input_shape": [null, 1], "sparse": false, "name": "SHIFTED_PRESSURE_PDC_C3"}}, {"inbound_nodes": [[["C4_PDC_1", 0, 0, {}]]], "class_name": "Dense", "name": "C4_PDC_out", "config": {"kernel_initializer": {"class_name": "VarianceScaling", "config": {"mode": "fan_avg", "distribution": "normal", "seed": 3014, "scale": 1.0}}, "units": 1, "bias_regularizer": null, "trainable": true, "name": "C4_PDC_out", "kernel_constraint": null, "activity_regularizer": null, "kernel_regularizer": {"class_name": "L1L2", "config": {"l1": 0.0, "l2": 0.00019999999494757503}}, "use_bias": true, "bias_constraint": null, "activation": "linear", "bias_initializer": {"class_name": "Zeros", "config": {}}}}, {"inbound_nodes": [], "class_name": "InputLayer", "name": "SHIFTED_PRESSURE_PDC_C4", "config": {"dtype": "float32", "batch_input_shape": [null, 1], "sparse": false, "name": "SHIFTED_PRESSURE_PDC_C4"}}, {"inbound_nodes": [[["B1_PDC_1", 0, 0, {}]]], "class_name": "Dense", "name": "B1_PDC_out", "config": {"kernel_initializer": {"class_name": "VarianceScaling", "config": {"mode": "fan_avg", "distribution": "normal", "seed": 3014, "scale": 1.0}}, "units": 1, "bias_regularizer": null, "trainable": true, "name": "B1_PDC_out", "kernel_constraint": null, "activity_regularizer": null, "kernel_regularizer": {"class_name": "L1L2", "config": {"l1": 0.0, "l2": 0.00019999999494757503}}, "use_bias": true, "bias_constraint": null, "activation": "linear", "bias_initializer": {"class_name": "Zeros", "config": {}}}}, {"inbound_nodes": [], "class_name": "InputLayer", "name": "SHIFTED_PRESSURE_PDC_B1", "config": {"dtype": "float32", "batch_input_shape": [null, 1], "sparse": false, "name": "SHIFTED_PRESSURE_PDC_B1"}}, {"inbound_nodes": [[["B3_PDC_1", 0, 0, {}]]], "class_name": "Dense", "name": "B3_PDC_out", "config": {"kernel_initializer": {"class_name": "VarianceScaling", "config": {"mode": "fan_avg", "distribution": "normal", "seed": 3014, "scale": 1.0}}, "units": 1, "bias_regularizer": null, "trainable": true, "name": "B3_PDC_out", "kernel_constraint": null, "activity_regularizer": null, "kernel_regularizer": {"class_name": "L1L2", "config": {"l1": 0.0, "l2": 0.00019999999494757503}}, "use_bias": true, "bias_constraint": null, "activation": "linear", "bias_initializer": {"class_name": "Zeros", "config": {}}}}, {"inbound_nodes": [], "class_name": "InputLayer", "name": "SHIFTED_PRESSURE_PDC_B3", "config": {"dtype": "float32", "batch_input_shape": [null, 1], "sparse": false, "name": "SHIFTED_PRESSURE_PDC_B3"}}, {"inbound_nodes": [[["D1_PDC_1", 0, 0, {}]]], "class_name": "Dense", "name": "D1_PDC_out", "config": {"kernel_initializer": {"class_name": "VarianceScaling", "config": {"mode": "fan_avg", "distribution": "normal", "seed": 3014, "scale": 1.0}}, "units": 1, "bias_regularizer": null, "trainable": true, "name": "D1_PDC_out", "kernel_constraint": null, "activity_regularizer": null, "kernel_regularizer": {"class_name": "L1L2", "config": {"l1": 0.0, "l2": 0.00019999999494757503}}, "use_bias": true, "bias_constraint": null, "activation": "linear", "bias_initializer": {"class_name": "Zeros", "config": {}}}}, {"inbound_nodes": [], "class_name": "InputLayer", "name": "SHIFTED_PRESSURE_PDC_D1", "config": {"dtype": "float32", "batch_input_shape": [null, 1], "sparse": false, "name": "SHIFTED_PRESSURE_PDC_D1"}}, {"inbound_nodes": [[["C1_PDC_out", 0, 0, {}], ["SHIFTED_PRESSURE_PDC_C1", 0, 0, {}]]], "class_name": "Add", "name": "C1_PDC_out2", "config": {"trainable": true, "name": "C1_PDC_out2"}}, {"inbound_nodes": [[["C2_PDC_out", 0, 0, {}], ["SHIFTED_PRESSURE_PDC_C2", 0, 0, {}]]], "class_name": "Add", "name": "C2_PDC_out2", "config": {"trainable": true, "name": "C2_PDC_out2"}}, {"inbound_nodes": [[["C3_PDC_out", 0, 0, {}], ["SHIFTED_PRESSURE_PDC_C3", 0, 0, {}]]], "class_name": "Add", "name": "C3_PDC_out2", "config": {"trainable": true, "name": "C3_PDC_out2"}}, {"inbound_nodes": [[["C4_PDC_out", 0, 0, {}], ["SHIFTED_PRESSURE_PDC_C4", 0, 0, {}]]], "class_name": "Add", "name": "C4_PDC_out2", "config": {"trainable": true, "name": "C4_PDC_out2"}}, {"inbound_nodes": [[["B1_PDC_out", 0, 0, {}], ["SHIFTED_PRESSURE_PDC_B1", 0, 0, {}]]], "class_name": "Add", "name": "B1_PDC_out2", "config": {"trainable": true, "name": "B1_PDC_out2"}}, {"inbound_nodes": [[["B3_PDC_out", 0, 0, {}], ["SHIFTED_PRESSURE_PDC_B3", 0, 0, {}]]], "class_name": "Add", "name": "B3_PDC_out2", "config": {"trainable": true, "name": "B3_PDC_out2"}}, {"inbound_nodes": [[["D1_PDC_out", 0, 0, {}], ["SHIFTED_PRESSURE_PDC_D1", 0, 0, {}]]], "class_name": "Add", "name": "D1_PDC_out2", "config": {"trainable": true, "name": "D1_PDC_out2"}}]}}