{"backend": "theano", "config": {"layers": [{"inbound_nodes": [], "config": {"dtype": "float32", "batch_input_shape": [null, 4], "sparse": false, "name": "CHK_INPUT_NOW"}, "class_name": "InputLayer", "name": "CHK_INPUT_NOW"}, {"inbound_nodes": [[["CHK_INPUT_NOW", 0, 0, {}]]], "config": {"bias_regularizer": null, "use_bias": true, "name": "F1_PWH_0", "kernel_initializer": {"config": {"distribution": "normal", "seed": 3014, "mode": "fan_avg", "scale": 1.0}, "class_name": "VarianceScaling"}, "bias_constraint": null, "kernel_regularizer": {"config": {"l2": 9.999999747378752e-05, "l1": 0.0}, "class_name": "L1L2"}, "units": 60, "activation": "relu", "bias_initializer": {"config": {}, "class_name": "Zeros"}, "activity_regularizer": null, "trainable": true, "kernel_constraint": null}, "class_name": "Dense", "name": "F1_PWH_0"}, {"inbound_nodes": [[["CHK_INPUT_NOW", 0, 0, {}]]], "config": {"bias_regularizer": null, "use_bias": true, "name": "B2_PWH_0", "kernel_initializer": {"config": {"distribution": "normal", "seed": 3014, "mode": "fan_avg", "scale": 1.0}, "class_name": "VarianceScaling"}, "bias_constraint": null, "kernel_regularizer": {"config": {"l2": 9.999999747378752e-05, "l1": 0.0}, "class_name": "L1L2"}, "units": 60, "activation": "relu", "bias_initializer": {"config": {}, "class_name": "Zeros"}, "activity_regularizer": null, "trainable": true, "kernel_constraint": null}, "class_name": "Dense", "name": "B2_PWH_0"}, {"inbound_nodes": [[["CHK_INPUT_NOW", 0, 0, {}]]], "config": {"bias_regularizer": null, "use_bias": true, "name": "D3_PWH_0", "kernel_initializer": {"config": {"distribution": "normal", "seed": 3014, "mode": "fan_avg", "scale": 1.0}, "class_name": "VarianceScaling"}, "bias_constraint": null, "kernel_regularizer": {"config": {"l2": 9.999999747378752e-05, "l1": 0.0}, "class_name": "L1L2"}, "units": 60, "activation": "relu", "bias_initializer": {"config": {}, "class_name": "Zeros"}, "activity_regularizer": null, "trainable": true, "kernel_constraint": null}, "class_name": "Dense", "name": "D3_PWH_0"}, {"inbound_nodes": [[["CHK_INPUT_NOW", 0, 0, {}]]], "config": {"bias_regularizer": null, "use_bias": true, "name": "E1_PWH_0", "kernel_initializer": {"config": {"distribution": "normal", "seed": 3014, "mode": "fan_avg", "scale": 1.0}, "class_name": "VarianceScaling"}, "bias_constraint": null, "kernel_regularizer": {"config": {"l2": 9.999999747378752e-05, "l1": 0.0}, "class_name": "L1L2"}, "units": 60, "activation": "relu", "bias_initializer": {"config": {}, "class_name": "Zeros"}, "activity_regularizer": null, "trainable": true, "kernel_constraint": null}, "class_name": "Dense", "name": "E1_PWH_0"}, {"inbound_nodes": [[["F1_PWH_0", 0, 0, {}]]], "config": {"bias_regularizer": null, "use_bias": true, "name": "F1_PWH_1", "kernel_initializer": {"config": {"distribution": "normal", "seed": 3014, "mode": "fan_avg", "scale": 1.0}, "class_name": "VarianceScaling"}, "bias_constraint": null, "kernel_regularizer": {"config": {"l2": 9.999999747378752e-05, "l1": 0.0}, "class_name": "L1L2"}, "units": 60, "activation": "relu", "bias_initializer": {"config": {}, "class_name": "Zeros"}, "activity_regularizer": null, "trainable": true, "kernel_constraint": null}, "class_name": "Dense", "name": "F1_PWH_1"}, {"inbound_nodes": [[["B2_PWH_0", 0, 0, {}]]], "config": {"bias_regularizer": null, "use_bias": true, "name": "B2_PWH_1", "kernel_initializer": {"config": {"distribution": "normal", "seed": 3014, "mode": "fan_avg", "scale": 1.0}, "class_name": "VarianceScaling"}, "bias_constraint": null, "kernel_regularizer": {"config": {"l2": 9.999999747378752e-05, "l1": 0.0}, "class_name": "L1L2"}, "units": 60, "activation": "relu", "bias_initializer": {"config": {}, "class_name": "Zeros"}, "activity_regularizer": null, "trainable": true, "kernel_constraint": null}, "class_name": "Dense", "name": "B2_PWH_1"}, {"inbound_nodes": [[["D3_PWH_0", 0, 0, {}]]], "config": {"bias_regularizer": null, "use_bias": true, "name": "D3_PWH_1", "kernel_initializer": {"config": {"distribution": "normal", "seed": 3014, "mode": "fan_avg", "scale": 1.0}, "class_name": "VarianceScaling"}, "bias_constraint": null, "kernel_regularizer": {"config": {"l2": 9.999999747378752e-05, "l1": 0.0}, "class_name": "L1L2"}, "units": 60, "activation": "relu", "bias_initializer": {"config": {}, "class_name": "Zeros"}, "activity_regularizer": null, "trainable": true, "kernel_constraint": null}, "class_name": "Dense", "name": "D3_PWH_1"}, {"inbound_nodes": [[["E1_PWH_0", 0, 0, {}]]], "config": {"bias_regularizer": null, "use_bias": true, "name": "E1_PWH_1", "kernel_initializer": {"config": {"distribution": "normal", "seed": 3014, "mode": "fan_avg", "scale": 1.0}, "class_name": "VarianceScaling"}, "bias_constraint": null, "kernel_regularizer": {"config": {"l2": 9.999999747378752e-05, "l1": 0.0}, "class_name": "L1L2"}, "units": 60, "activation": "relu", "bias_initializer": {"config": {}, "class_name": "Zeros"}, "activity_regularizer": null, "trainable": true, "kernel_constraint": null}, "class_name": "Dense", "name": "E1_PWH_1"}, {"inbound_nodes": [[["F1_PWH_1", 0, 0, {}]]], "config": {"bias_regularizer": null, "use_bias": true, "name": "F1_PWH_out", "kernel_initializer": {"config": {"distribution": "normal", "seed": 3014, "mode": "fan_avg", "scale": 1.0}, "class_name": "VarianceScaling"}, "bias_constraint": null, "kernel_regularizer": {"config": {"l2": 9.999999747378752e-05, "l1": 0.0}, "class_name": "L1L2"}, "units": 1, "activation": "linear", "bias_initializer": {"config": {}, "class_name": "Zeros"}, "activity_regularizer": null, "trainable": true, "kernel_constraint": null}, "class_name": "Dense", "name": "F1_PWH_out"}, {"inbound_nodes": [[["B2_PWH_1", 0, 0, {}]]], "config": {"bias_regularizer": null, "use_bias": true, "name": "B2_PWH_out", "kernel_initializer": {"config": {"distribution": "normal", "seed": 3014, "mode": "fan_avg", "scale": 1.0}, "class_name": "VarianceScaling"}, "bias_constraint": null, "kernel_regularizer": {"config": {"l2": 9.999999747378752e-05, "l1": 0.0}, "class_name": "L1L2"}, "units": 1, "activation": "linear", "bias_initializer": {"config": {}, "class_name": "Zeros"}, "activity_regularizer": null, "trainable": true, "kernel_constraint": null}, "class_name": "Dense", "name": "B2_PWH_out"}, {"inbound_nodes": [[["D3_PWH_1", 0, 0, {}]]], "config": {"bias_regularizer": null, "use_bias": true, "name": "D3_PWH_out", "kernel_initializer": {"config": {"distribution": "normal", "seed": 3014, "mode": "fan_avg", "scale": 1.0}, "class_name": "VarianceScaling"}, "bias_constraint": null, "kernel_regularizer": {"config": {"l2": 9.999999747378752e-05, "l1": 0.0}, "class_name": "L1L2"}, "units": 1, "activation": "linear", "bias_initializer": {"config": {}, "class_name": "Zeros"}, "activity_regularizer": null, "trainable": true, "kernel_constraint": null}, "class_name": "Dense", "name": "D3_PWH_out"}, {"inbound_nodes": [[["E1_PWH_1", 0, 0, {}]]], "config": {"bias_regularizer": null, "use_bias": true, "name": "E1_PWH_out", "kernel_initializer": {"config": {"distribution": "normal", "seed": 3014, "mode": "fan_avg", "scale": 1.0}, "class_name": "VarianceScaling"}, "bias_constraint": null, "kernel_regularizer": {"config": {"l2": 9.999999747378752e-05, "l1": 0.0}, "class_name": "L1L2"}, "units": 1, "activation": "linear", "bias_initializer": {"config": {}, "class_name": "Zeros"}, "activity_regularizer": null, "trainable": true, "kernel_constraint": null}, "class_name": "Dense", "name": "E1_PWH_out"}], "name": "model_1", "output_layers": [["F1_PWH_out", 0, 0], ["B2_PWH_out", 0, 0], ["D3_PWH_out", 0, 0], ["E1_PWH_out", 0, 0]], "input_layers": [["CHK_INPUT_NOW", 0, 0]]}, "class_name": "Model", "keras_version": "2.0.1"}