{"keras_version": "2.0.1", "class_name": "Model", "config": {"layers": [{"config": {"batch_input_shape": [null, 7], "dtype": "float32", "name": "CHK_INPUT", "sparse": false}, "inbound_nodes": [], "class_name": "InputLayer", "name": "CHK_INPUT"}, {"config": {"units": 100, "trainable": true, "kernel_initializer": {"class_name": "VarianceScaling", "config": {"scale": 1.0, "mode": "fan_avg", "distribution": "normal", "seed": 3014}}, "use_bias": true, "bias_regularizer": null, "kernel_constraint": null, "activity_regularizer": null, "bias_initializer": {"class_name": "Zeros", "config": {}}, "activation": "relu", "kernel_regularizer": {"class_name": "L1L2", "config": {"l2": 0.0010000000474974513, "l1": 0.0}}, "name": "C1_PBH_0", "bias_constraint": null}, "inbound_nodes": [[["CHK_INPUT", 0, 0, {}]]], "class_name": "Dense", "name": "C1_PBH_0"}, {"config": {"units": 100, "trainable": true, "kernel_initializer": {"class_name": "VarianceScaling", "config": {"scale": 1.0, "mode": "fan_avg", "distribution": "normal", "seed": 3014}}, "use_bias": true, "bias_regularizer": null, "kernel_constraint": null, "activity_regularizer": null, "bias_initializer": {"class_name": "Zeros", "config": {}}, "activation": "relu", "kernel_regularizer": {"class_name": "L1L2", "config": {"l2": 0.0010000000474974513, "l1": 0.0}}, "name": "C3_PBH_0", "bias_constraint": null}, "inbound_nodes": [[["CHK_INPUT", 0, 0, {}]]], "class_name": "Dense", "name": "C3_PBH_0"}, {"config": {"units": 100, "trainable": true, "kernel_initializer": {"class_name": "VarianceScaling", "config": {"scale": 1.0, "mode": "fan_avg", "distribution": "normal", "seed": 3014}}, "use_bias": true, "bias_regularizer": null, "kernel_constraint": null, "activity_regularizer": null, "bias_initializer": {"class_name": "Zeros", "config": {}}, "activation": "relu", "kernel_regularizer": {"class_name": "L1L2", "config": {"l2": 0.0010000000474974513, "l1": 0.0}}, "name": "C4_PBH_0", "bias_constraint": null}, "inbound_nodes": [[["CHK_INPUT", 0, 0, {}]]], "class_name": "Dense", "name": "C4_PBH_0"}, {"config": {"units": 100, "trainable": true, "kernel_initializer": {"class_name": "VarianceScaling", "config": {"scale": 1.0, "mode": "fan_avg", "distribution": "normal", "seed": 3014}}, "use_bias": true, "bias_regularizer": null, "kernel_constraint": null, "activity_regularizer": null, "bias_initializer": {"class_name": "Zeros", "config": {}}, "activation": "relu", "kernel_regularizer": {"class_name": "L1L2", "config": {"l2": 0.0010000000474974513, "l1": 0.0}}, "name": "B1_PBH_0", "bias_constraint": null}, "inbound_nodes": [[["CHK_INPUT", 0, 0, {}]]], "class_name": "Dense", "name": "B1_PBH_0"}, {"config": {"units": 100, "trainable": true, "kernel_initializer": {"class_name": "VarianceScaling", "config": {"scale": 1.0, "mode": "fan_avg", "distribution": "normal", "seed": 3014}}, "use_bias": true, "bias_regularizer": null, "kernel_constraint": null, "activity_regularizer": null, "bias_initializer": {"class_name": "Zeros", "config": {}}, "activation": "relu", "kernel_regularizer": {"class_name": "L1L2", "config": {"l2": 0.0010000000474974513, "l1": 0.0}}, "name": "B3_PBH_0", "bias_constraint": null}, "inbound_nodes": [[["CHK_INPUT", 0, 0, {}]]], "class_name": "Dense", "name": "B3_PBH_0"}, {"config": {"units": 100, "trainable": true, "kernel_initializer": {"class_name": "VarianceScaling", "config": {"scale": 1.0, "mode": "fan_avg", "distribution": "normal", "seed": 3014}}, "use_bias": true, "bias_regularizer": null, "kernel_constraint": null, "activity_regularizer": null, "bias_initializer": {"class_name": "Zeros", "config": {}}, "activation": "relu", "kernel_regularizer": {"class_name": "L1L2", "config": {"l2": 0.0010000000474974513, "l1": 0.0}}, "name": "C1_PBH_1", "bias_constraint": null}, "inbound_nodes": [[["C1_PBH_0", 0, 0, {}]]], "class_name": "Dense", "name": "C1_PBH_1"}, {"config": {"units": 100, "trainable": true, "kernel_initializer": {"class_name": "VarianceScaling", "config": {"scale": 1.0, "mode": "fan_avg", "distribution": "normal", "seed": 3014}}, "use_bias": true, "bias_regularizer": null, "kernel_constraint": null, "activity_regularizer": null, "bias_initializer": {"class_name": "Zeros", "config": {}}, "activation": "relu", "kernel_regularizer": {"class_name": "L1L2", "config": {"l2": 0.0010000000474974513, "l1": 0.0}}, "name": "C3_PBH_1", "bias_constraint": null}, "inbound_nodes": [[["C3_PBH_0", 0, 0, {}]]], "class_name": "Dense", "name": "C3_PBH_1"}, {"config": {"units": 100, "trainable": true, "kernel_initializer": {"class_name": "VarianceScaling", "config": {"scale": 1.0, "mode": "fan_avg", "distribution": "normal", "seed": 3014}}, "use_bias": true, "bias_regularizer": null, "kernel_constraint": null, "activity_regularizer": null, "bias_initializer": {"class_name": "Zeros", "config": {}}, "activation": "relu", "kernel_regularizer": {"class_name": "L1L2", "config": {"l2": 0.0010000000474974513, "l1": 0.0}}, "name": "C4_PBH_1", "bias_constraint": null}, "inbound_nodes": [[["C4_PBH_0", 0, 0, {}]]], "class_name": "Dense", "name": "C4_PBH_1"}, {"config": {"units": 100, "trainable": true, "kernel_initializer": {"class_name": "VarianceScaling", "config": {"scale": 1.0, "mode": "fan_avg", "distribution": "normal", "seed": 3014}}, "use_bias": true, "bias_regularizer": null, "kernel_constraint": null, "activity_regularizer": null, "bias_initializer": {"class_name": "Zeros", "config": {}}, "activation": "relu", "kernel_regularizer": {"class_name": "L1L2", "config": {"l2": 0.0010000000474974513, "l1": 0.0}}, "name": "B1_PBH_1", "bias_constraint": null}, "inbound_nodes": [[["B1_PBH_0", 0, 0, {}]]], "class_name": "Dense", "name": "B1_PBH_1"}, {"config": {"units": 100, "trainable": true, "kernel_initializer": {"class_name": "VarianceScaling", "config": {"scale": 1.0, "mode": "fan_avg", "distribution": "normal", "seed": 3014}}, "use_bias": true, "bias_regularizer": null, "kernel_constraint": null, "activity_regularizer": null, "bias_initializer": {"class_name": "Zeros", "config": {}}, "activation": "relu", "kernel_regularizer": {"class_name": "L1L2", "config": {"l2": 0.0010000000474974513, "l1": 0.0}}, "name": "B3_PBH_1", "bias_constraint": null}, "inbound_nodes": [[["B3_PBH_0", 0, 0, {}]]], "class_name": "Dense", "name": "B3_PBH_1"}, {"config": {"units": 1, "trainable": true, "kernel_initializer": {"class_name": "VarianceScaling", "config": {"scale": 1.0, "mode": "fan_avg", "distribution": "normal", "seed": 3014}}, "use_bias": true, "bias_regularizer": null, "kernel_constraint": null, "activity_regularizer": null, "bias_initializer": {"class_name": "Zeros", "config": {}}, "activation": "linear", "kernel_regularizer": {"class_name": "L1L2", "config": {"l2": 0.0010000000474974513, "l1": 0.0}}, "name": "C1_PBH_out", "bias_constraint": null}, "inbound_nodes": [[["C1_PBH_1", 0, 0, {}]]], "class_name": "Dense", "name": "C1_PBH_out"}, {"config": {"units": 1, "trainable": true, "kernel_initializer": {"class_name": "VarianceScaling", "config": {"scale": 1.0, "mode": "fan_avg", "distribution": "normal", "seed": 3014}}, "use_bias": true, "bias_regularizer": null, "kernel_constraint": null, "activity_regularizer": null, "bias_initializer": {"class_name": "Zeros", "config": {}}, "activation": "linear", "kernel_regularizer": {"class_name": "L1L2", "config": {"l2": 0.0010000000474974513, "l1": 0.0}}, "name": "C3_PBH_out", "bias_constraint": null}, "inbound_nodes": [[["C3_PBH_1", 0, 0, {}]]], "class_name": "Dense", "name": "C3_PBH_out"}, {"config": {"units": 1, "trainable": true, "kernel_initializer": {"class_name": "VarianceScaling", "config": {"scale": 1.0, "mode": "fan_avg", "distribution": "normal", "seed": 3014}}, "use_bias": true, "bias_regularizer": null, "kernel_constraint": null, "activity_regularizer": null, "bias_initializer": {"class_name": "Zeros", "config": {}}, "activation": "linear", "kernel_regularizer": {"class_name": "L1L2", "config": {"l2": 0.0010000000474974513, "l1": 0.0}}, "name": "C4_PBH_out", "bias_constraint": null}, "inbound_nodes": [[["C4_PBH_1", 0, 0, {}]]], "class_name": "Dense", "name": "C4_PBH_out"}, {"config": {"units": 1, "trainable": true, "kernel_initializer": {"class_name": "VarianceScaling", "config": {"scale": 1.0, "mode": "fan_avg", "distribution": "normal", "seed": 3014}}, "use_bias": true, "bias_regularizer": null, "kernel_constraint": null, "activity_regularizer": null, "bias_initializer": {"class_name": "Zeros", "config": {}}, "activation": "linear", "kernel_regularizer": {"class_name": "L1L2", "config": {"l2": 0.0010000000474974513, "l1": 0.0}}, "name": "B1_PBH_out", "bias_constraint": null}, "inbound_nodes": [[["B1_PBH_1", 0, 0, {}]]], "class_name": "Dense", "name": "B1_PBH_out"}, {"config": {"units": 1, "trainable": true, "kernel_initializer": {"class_name": "VarianceScaling", "config": {"scale": 1.0, "mode": "fan_avg", "distribution": "normal", "seed": 3014}}, "use_bias": true, "bias_regularizer": null, "kernel_constraint": null, "activity_regularizer": null, "bias_initializer": {"class_name": "Zeros", "config": {}}, "activation": "linear", "kernel_regularizer": {"class_name": "L1L2", "config": {"l2": 0.0010000000474974513, "l1": 0.0}}, "name": "B3_PBH_out", "bias_constraint": null}, "inbound_nodes": [[["B3_PBH_1", 0, 0, {}]]], "class_name": "Dense", "name": "B3_PBH_out"}], "output_layers": [["C1_PBH_out", 0, 0], ["C3_PBH_out", 0, 0], ["C4_PBH_out", 0, 0], ["B1_PBH_out", 0, 0], ["B3_PBH_out", 0, 0]], "input_layers": [["CHK_INPUT", 0, 0]], "name": "model_1"}, "backend": "theano"}