{"backend": "theano", "keras_version": "2.0.1", "config": {"layers": [{"inbound_nodes": [], "name": "C1", "config": {"batch_input_shape": [null, 4], "dtype": "float32", "name": "C1", "sparse": false}, "class_name": "InputLayer"}, {"inbound_nodes": [], "name": "C2", "config": {"batch_input_shape": [null, 3], "dtype": "float32", "name": "C2", "sparse": false}, "class_name": "InputLayer"}, {"inbound_nodes": [], "name": "C3", "config": {"batch_input_shape": [null, 4], "dtype": "float32", "name": "C3", "sparse": false}, "class_name": "InputLayer"}, {"inbound_nodes": [], "name": "C4", "config": {"batch_input_shape": [null, 4], "dtype": "float32", "name": "C4", "sparse": false}, "class_name": "InputLayer"}, {"inbound_nodes": [], "name": "B1", "config": {"batch_input_shape": [null, 4], "dtype": "float32", "name": "B1", "sparse": false}, "class_name": "InputLayer"}, {"inbound_nodes": [], "name": "B3", "config": {"batch_input_shape": [null, 4], "dtype": "float32", "name": "B3", "sparse": false}, "class_name": "InputLayer"}, {"inbound_nodes": [], "name": "D1", "config": {"batch_input_shape": [null, 3], "dtype": "float32", "name": "D1", "sparse": false}, "class_name": "InputLayer"}, {"inbound_nodes": [[["C1", 0, 0, {}]]], "name": "C1_0", "config": {"bias_regularizer": null, "units": 100, "kernel_initializer": {"config": {"seed": 3014, "mode": "fan_avg", "distribution": "normal", "scale": 1.0}, "class_name": "VarianceScaling"}, "name": "C1_0", "use_bias": true, "kernel_constraint": null, "activity_regularizer": null, "kernel_regularizer": {"config": {"l2": 0.0001500000071246177, "l1": 0.0}, "class_name": "L1L2"}, "activation": "relu", "trainable": true, "bias_constraint": null, "bias_initializer": {"config": {}, "class_name": "Zeros"}}, "class_name": "Dense"}, {"inbound_nodes": [[["C2", 0, 0, {}]]], "name": "C2_0", "config": {"bias_regularizer": null, "units": 100, "kernel_initializer": {"config": {"seed": 3014, "mode": "fan_avg", "distribution": "normal", "scale": 1.0}, "class_name": "VarianceScaling"}, "name": "C2_0", "use_bias": true, "kernel_constraint": null, "activity_regularizer": null, "kernel_regularizer": {"config": {"l2": 0.0001500000071246177, "l1": 0.0}, "class_name": "L1L2"}, "activation": "relu", "trainable": true, "bias_constraint": null, "bias_initializer": {"config": {}, "class_name": "Zeros"}}, "class_name": "Dense"}, {"inbound_nodes": [[["C3", 0, 0, {}]]], "name": "C3_0", "config": {"bias_regularizer": null, "units": 100, "kernel_initializer": {"config": {"seed": 3014, "mode": "fan_avg", "distribution": "normal", "scale": 1.0}, "class_name": "VarianceScaling"}, "name": "C3_0", "use_bias": true, "kernel_constraint": null, "activity_regularizer": null, "kernel_regularizer": {"config": {"l2": 0.0001500000071246177, "l1": 0.0}, "class_name": "L1L2"}, "activation": "relu", "trainable": true, "bias_constraint": null, "bias_initializer": {"config": {}, "class_name": "Zeros"}}, "class_name": "Dense"}, {"inbound_nodes": [[["C4", 0, 0, {}]]], "name": "C4_0", "config": {"bias_regularizer": null, "units": 100, "kernel_initializer": {"config": {"seed": 3014, "mode": "fan_avg", "distribution": "normal", "scale": 1.0}, "class_name": "VarianceScaling"}, "name": "C4_0", "use_bias": true, "kernel_constraint": null, "activity_regularizer": null, "kernel_regularizer": {"config": {"l2": 0.0001500000071246177, "l1": 0.0}, "class_name": "L1L2"}, "activation": "relu", "trainable": true, "bias_constraint": null, "bias_initializer": {"config": {}, "class_name": "Zeros"}}, "class_name": "Dense"}, {"inbound_nodes": [[["B1", 0, 0, {}]]], "name": "B1_0", "config": {"bias_regularizer": null, "units": 100, "kernel_initializer": {"config": {"seed": 3014, "mode": "fan_avg", "distribution": "normal", "scale": 1.0}, "class_name": "VarianceScaling"}, "name": "B1_0", "use_bias": true, "kernel_constraint": null, "activity_regularizer": null, "kernel_regularizer": {"config": {"l2": 0.0001500000071246177, "l1": 0.0}, "class_name": "L1L2"}, "activation": "relu", "trainable": true, "bias_constraint": null, "bias_initializer": {"config": {}, "class_name": "Zeros"}}, "class_name": "Dense"}, {"inbound_nodes": [[["B3", 0, 0, {}]]], "name": "B3_0", "config": {"bias_regularizer": null, "units": 100, "kernel_initializer": {"config": {"seed": 3014, "mode": "fan_avg", "distribution": "normal", "scale": 1.0}, "class_name": "VarianceScaling"}, "name": "B3_0", "use_bias": true, "kernel_constraint": null, "activity_regularizer": null, "kernel_regularizer": {"config": {"l2": 0.0001500000071246177, "l1": 0.0}, "class_name": "L1L2"}, "activation": "relu", "trainable": true, "bias_constraint": null, "bias_initializer": {"config": {}, "class_name": "Zeros"}}, "class_name": "Dense"}, {"inbound_nodes": [[["D1", 0, 0, {}]]], "name": "D1_0", "config": {"bias_regularizer": null, "units": 100, "kernel_initializer": {"config": {"seed": 3014, "mode": "fan_avg", "distribution": "normal", "scale": 1.0}, "class_name": "VarianceScaling"}, "name": "D1_0", "use_bias": true, "kernel_constraint": null, "activity_regularizer": null, "kernel_regularizer": {"config": {"l2": 0.0001500000071246177, "l1": 0.0}, "class_name": "L1L2"}, "activation": "relu", "trainable": true, "bias_constraint": null, "bias_initializer": {"config": {}, "class_name": "Zeros"}}, "class_name": "Dense"}, {"inbound_nodes": [[["C1_0", 0, 0, {}]]], "name": "C1_1", "config": {"bias_regularizer": null, "units": 100, "kernel_initializer": {"config": {"seed": 3014, "mode": "fan_avg", "distribution": "normal", "scale": 1.0}, "class_name": "VarianceScaling"}, "name": "C1_1", "use_bias": true, "kernel_constraint": null, "activity_regularizer": null, "kernel_regularizer": {"config": {"l2": 0.0001500000071246177, "l1": 0.0}, "class_name": "L1L2"}, "activation": "relu", "trainable": true, "bias_constraint": null, "bias_initializer": {"config": {}, "class_name": "Zeros"}}, "class_name": "Dense"}, {"inbound_nodes": [[["C2_0", 0, 0, {}]]], "name": "C2_1", "config": {"bias_regularizer": null, "units": 100, "kernel_initializer": {"config": {"seed": 3014, "mode": "fan_avg", "distribution": "normal", "scale": 1.0}, "class_name": "VarianceScaling"}, "name": "C2_1", "use_bias": true, "kernel_constraint": null, "activity_regularizer": null, "kernel_regularizer": {"config": {"l2": 0.0001500000071246177, "l1": 0.0}, "class_name": "L1L2"}, "activation": "relu", "trainable": true, "bias_constraint": null, "bias_initializer": {"config": {}, "class_name": "Zeros"}}, "class_name": "Dense"}, {"inbound_nodes": [[["C3_0", 0, 0, {}]]], "name": "C3_1", "config": {"bias_regularizer": null, "units": 100, "kernel_initializer": {"config": {"seed": 3014, "mode": "fan_avg", "distribution": "normal", "scale": 1.0}, "class_name": "VarianceScaling"}, "name": "C3_1", "use_bias": true, "kernel_constraint": null, "activity_regularizer": null, "kernel_regularizer": {"config": {"l2": 0.0001500000071246177, "l1": 0.0}, "class_name": "L1L2"}, "activation": "relu", "trainable": true, "bias_constraint": null, "bias_initializer": {"config": {}, "class_name": "Zeros"}}, "class_name": "Dense"}, {"inbound_nodes": [[["C4_0", 0, 0, {}]]], "name": "C4_1", "config": {"bias_regularizer": null, "units": 100, "kernel_initializer": {"config": {"seed": 3014, "mode": "fan_avg", "distribution": "normal", "scale": 1.0}, "class_name": "VarianceScaling"}, "name": "C4_1", "use_bias": true, "kernel_constraint": null, "activity_regularizer": null, "kernel_regularizer": {"config": {"l2": 0.0001500000071246177, "l1": 0.0}, "class_name": "L1L2"}, "activation": "relu", "trainable": true, "bias_constraint": null, "bias_initializer": {"config": {}, "class_name": "Zeros"}}, "class_name": "Dense"}, {"inbound_nodes": [[["B1_0", 0, 0, {}]]], "name": "B1_1", "config": {"bias_regularizer": null, "units": 100, "kernel_initializer": {"config": {"seed": 3014, "mode": "fan_avg", "distribution": "normal", "scale": 1.0}, "class_name": "VarianceScaling"}, "name": "B1_1", "use_bias": true, "kernel_constraint": null, "activity_regularizer": null, "kernel_regularizer": {"config": {"l2": 0.0001500000071246177, "l1": 0.0}, "class_name": "L1L2"}, "activation": "relu", "trainable": true, "bias_constraint": null, "bias_initializer": {"config": {}, "class_name": "Zeros"}}, "class_name": "Dense"}, {"inbound_nodes": [[["B3_0", 0, 0, {}]]], "name": "B3_1", "config": {"bias_regularizer": null, "units": 100, "kernel_initializer": {"config": {"seed": 3014, "mode": "fan_avg", "distribution": "normal", "scale": 1.0}, "class_name": "VarianceScaling"}, "name": "B3_1", "use_bias": true, "kernel_constraint": null, "activity_regularizer": null, "kernel_regularizer": {"config": {"l2": 0.0001500000071246177, "l1": 0.0}, "class_name": "L1L2"}, "activation": "relu", "trainable": true, "bias_constraint": null, "bias_initializer": {"config": {}, "class_name": "Zeros"}}, "class_name": "Dense"}, {"inbound_nodes": [[["D1_0", 0, 0, {}]]], "name": "D1_1", "config": {"bias_regularizer": null, "units": 100, "kernel_initializer": {"config": {"seed": 3014, "mode": "fan_avg", "distribution": "normal", "scale": 1.0}, "class_name": "VarianceScaling"}, "name": "D1_1", "use_bias": true, "kernel_constraint": null, "activity_regularizer": null, "kernel_regularizer": {"config": {"l2": 0.0001500000071246177, "l1": 0.0}, "class_name": "L1L2"}, "activation": "relu", "trainable": true, "bias_constraint": null, "bias_initializer": {"config": {}, "class_name": "Zeros"}}, "class_name": "Dense"}, {"inbound_nodes": [], "name": "OnOff_C1", "config": {"batch_input_shape": [null, 1], "dtype": "float32", "name": "OnOff_C1", "sparse": false}, "class_name": "InputLayer"}, {"inbound_nodes": [[["C1_1", 0, 0, {}]]], "name": "C1_o", "config": {"bias_regularizer": null, "units": 1, "kernel_initializer": {"config": {"seed": 3014, "mode": "fan_avg", "distribution": "normal", "scale": 1.0}, "class_name": "VarianceScaling"}, "name": "C1_o", "use_bias": true, "kernel_constraint": null, "activity_regularizer": null, "kernel_regularizer": {"config": {"l2": 0.0001500000071246177, "l1": 0.0}, "class_name": "L1L2"}, "activation": "relu", "trainable": true, "bias_constraint": null, "bias_initializer": {"config": {}, "class_name": "Zeros"}}, "class_name": "Dense"}, {"inbound_nodes": [], "name": "OnOff_C2", "config": {"batch_input_shape": [null, 1], "dtype": "float32", "name": "OnOff_C2", "sparse": false}, "class_name": "InputLayer"}, {"inbound_nodes": [[["C2_1", 0, 0, {}]]], "name": "C2_o", "config": {"bias_regularizer": null, "units": 1, "kernel_initializer": {"config": {"seed": 3014, "mode": "fan_avg", "distribution": "normal", "scale": 1.0}, "class_name": "VarianceScaling"}, "name": "C2_o", "use_bias": true, "kernel_constraint": null, "activity_regularizer": null, "kernel_regularizer": {"config": {"l2": 0.0001500000071246177, "l1": 0.0}, "class_name": "L1L2"}, "activation": "relu", "trainable": true, "bias_constraint": null, "bias_initializer": {"config": {}, "class_name": "Zeros"}}, "class_name": "Dense"}, {"inbound_nodes": [], "name": "OnOff_C3", "config": {"batch_input_shape": [null, 1], "dtype": "float32", "name": "OnOff_C3", "sparse": false}, "class_name": "InputLayer"}, {"inbound_nodes": [[["C3_1", 0, 0, {}]]], "name": "C3_o", "config": {"bias_regularizer": null, "units": 1, "kernel_initializer": {"config": {"seed": 3014, "mode": "fan_avg", "distribution": "normal", "scale": 1.0}, "class_name": "VarianceScaling"}, "name": "C3_o", "use_bias": true, "kernel_constraint": null, "activity_regularizer": null, "kernel_regularizer": {"config": {"l2": 0.0001500000071246177, "l1": 0.0}, "class_name": "L1L2"}, "activation": "relu", "trainable": true, "bias_constraint": null, "bias_initializer": {"config": {}, "class_name": "Zeros"}}, "class_name": "Dense"}, {"inbound_nodes": [], "name": "OnOff_C4", "config": {"batch_input_shape": [null, 1], "dtype": "float32", "name": "OnOff_C4", "sparse": false}, "class_name": "InputLayer"}, {"inbound_nodes": [[["C4_1", 0, 0, {}]]], "name": "C4_o", "config": {"bias_regularizer": null, "units": 1, "kernel_initializer": {"config": {"seed": 3014, "mode": "fan_avg", "distribution": "normal", "scale": 1.0}, "class_name": "VarianceScaling"}, "name": "C4_o", "use_bias": true, "kernel_constraint": null, "activity_regularizer": null, "kernel_regularizer": {"config": {"l2": 0.0001500000071246177, "l1": 0.0}, "class_name": "L1L2"}, "activation": "relu", "trainable": true, "bias_constraint": null, "bias_initializer": {"config": {}, "class_name": "Zeros"}}, "class_name": "Dense"}, {"inbound_nodes": [], "name": "OnOff_B1", "config": {"batch_input_shape": [null, 1], "dtype": "float32", "name": "OnOff_B1", "sparse": false}, "class_name": "InputLayer"}, {"inbound_nodes": [[["B1_1", 0, 0, {}]]], "name": "B1_o", "config": {"bias_regularizer": null, "units": 1, "kernel_initializer": {"config": {"seed": 3014, "mode": "fan_avg", "distribution": "normal", "scale": 1.0}, "class_name": "VarianceScaling"}, "name": "B1_o", "use_bias": true, "kernel_constraint": null, "activity_regularizer": null, "kernel_regularizer": {"config": {"l2": 0.0001500000071246177, "l1": 0.0}, "class_name": "L1L2"}, "activation": "relu", "trainable": true, "bias_constraint": null, "bias_initializer": {"config": {}, "class_name": "Zeros"}}, "class_name": "Dense"}, {"inbound_nodes": [], "name": "OnOff_B3", "config": {"batch_input_shape": [null, 1], "dtype": "float32", "name": "OnOff_B3", "sparse": false}, "class_name": "InputLayer"}, {"inbound_nodes": [[["B3_1", 0, 0, {}]]], "name": "B3_o", "config": {"bias_regularizer": null, "units": 1, "kernel_initializer": {"config": {"seed": 3014, "mode": "fan_avg", "distribution": "normal", "scale": 1.0}, "class_name": "VarianceScaling"}, "name": "B3_o", "use_bias": true, "kernel_constraint": null, "activity_regularizer": null, "kernel_regularizer": {"config": {"l2": 0.0001500000071246177, "l1": 0.0}, "class_name": "L1L2"}, "activation": "relu", "trainable": true, "bias_constraint": null, "bias_initializer": {"config": {}, "class_name": "Zeros"}}, "class_name": "Dense"}, {"inbound_nodes": [], "name": "OnOff_D1", "config": {"batch_input_shape": [null, 1], "dtype": "float32", "name": "OnOff_D1", "sparse": false}, "class_name": "InputLayer"}, {"inbound_nodes": [[["D1_1", 0, 0, {}]]], "name": "D1_o", "config": {"bias_regularizer": null, "units": 1, "kernel_initializer": {"config": {"seed": 3014, "mode": "fan_avg", "distribution": "normal", "scale": 1.0}, "class_name": "VarianceScaling"}, "name": "D1_o", "use_bias": true, "kernel_constraint": null, "activity_regularizer": null, "kernel_regularizer": {"config": {"l2": 0.0001500000071246177, "l1": 0.0}, "class_name": "L1L2"}, "activation": "relu", "trainable": true, "bias_constraint": null, "bias_initializer": {"config": {}, "class_name": "Zeros"}}, "class_name": "Dense"}, {"inbound_nodes": [[["OnOff_C1", 0, 0, {}], ["C1_o", 0, 0, {}]]], "name": "C1_out", "config": {"trainable": true, "name": "C1_out"}, "class_name": "Multiply"}, {"inbound_nodes": [[["OnOff_C2", 0, 0, {}], ["C2_o", 0, 0, {}]]], "name": "C2_out", "config": {"trainable": true, "name": "C2_out"}, "class_name": "Multiply"}, {"inbound_nodes": [[["OnOff_C3", 0, 0, {}], ["C3_o", 0, 0, {}]]], "name": "C3_out", "config": {"trainable": true, "name": "C3_out"}, "class_name": "Multiply"}, {"inbound_nodes": [[["OnOff_C4", 0, 0, {}], ["C4_o", 0, 0, {}]]], "name": "C4_out", "config": {"trainable": true, "name": "C4_out"}, "class_name": "Multiply"}, {"inbound_nodes": [[["OnOff_B1", 0, 0, {}], ["B1_o", 0, 0, {}]]], "name": "B1_out", "config": {"trainable": true, "name": "B1_out"}, "class_name": "Multiply"}, {"inbound_nodes": [[["OnOff_B3", 0, 0, {}], ["B3_o", 0, 0, {}]]], "name": "B3_out", "config": {"trainable": true, "name": "B3_out"}, "class_name": "Multiply"}, {"inbound_nodes": [[["OnOff_D1", 0, 0, {}], ["D1_o", 0, 0, {}]]], "name": "D1_out", "config": {"trainable": true, "name": "D1_out"}, "class_name": "Multiply"}, {"inbound_nodes": [[["C1_out", 0, 0, {}], ["C2_out", 0, 0, {}], ["C3_out", 0, 0, {}], ["C4_out", 0, 0, {}], ["B1_out", 0, 0, {}], ["B3_out", 0, 0, {}], ["D1_out", 0, 0, {}]]], "name": "GJOA_TOTAL", "config": {"trainable": true, "name": "GJOA_TOTAL"}, "class_name": "Add"}], "input_layers": [["C1", 0, 0], ["C2", 0, 0], ["C3", 0, 0], ["C4", 0, 0], ["B1", 0, 0], ["B3", 0, 0], ["D1", 0, 0], ["OnOff_C1", 0, 0], ["OnOff_C2", 0, 0], ["OnOff_C3", 0, 0], ["OnOff_C4", 0, 0], ["OnOff_B1", 0, 0], ["OnOff_B3", 0, 0], ["OnOff_D1", 0, 0]], "output_layers": [["C1_out", 0, 0], ["C2_out", 0, 0], ["C3_out", 0, 0], ["C4_out", 0, 0], ["B1_out", 0, 0], ["B3_out", 0, 0], ["D1_out", 0, 0], ["GJOA_TOTAL", 0, 0]], "name": "model_1"}, "class_name": "Model"}