{"keras_version": "2.0.1", "backend": "theano", "class_name": "Model", "config": {"name": "model_1", "layers": [{"inbound_nodes": [], "name": "CHK_INPUT_PREV", "class_name": "InputLayer", "config": {"sparse": false, "batch_input_shape": [null, 4], "name": "CHK_INPUT_PREV", "dtype": "float32"}}, {"inbound_nodes": [], "name": "CHK_INPUT_NOW", "class_name": "InputLayer", "config": {"sparse": false, "batch_input_shape": [null, 4], "name": "CHK_INPUT_NOW", "dtype": "float32"}}, {"inbound_nodes": [[["CHK_INPUT_PREV", 0, 0, {}], ["CHK_INPUT_NOW", 0, 0, {}]]], "name": "CHK_DELTA", "class_name": "Add", "config": {"name": "CHK_DELTA", "trainable": true}}, {"inbound_nodes": [[["CHK_DELTA", 0, 0, {}]]], "name": "F1_PWH_0", "class_name": "Dense", "config": {"name": "F1_PWH_0", "bias_constraint": null, "kernel_constraint": null, "bias_initializer": {"class_name": "Zeros", "config": {}}, "activation": "relu", "use_bias": true, "units": 60, "trainable": true, "kernel_initializer": {"class_name": "VarianceScaling", "config": {"scale": 1.0, "mode": "fan_avg", "distribution": "normal", "seed": 3014}}, "bias_regularizer": null, "activity_regularizer": null, "kernel_regularizer": {"class_name": "L1L2", "config": {"l2": 0.00019999999494757503, "l1": 0.0}}}}, {"inbound_nodes": [[["CHK_DELTA", 0, 0, {}]]], "name": "B2_PWH_0", "class_name": "Dense", "config": {"name": "B2_PWH_0", "bias_constraint": null, "kernel_constraint": null, "bias_initializer": {"class_name": "Zeros", "config": {}}, "activation": "relu", "use_bias": true, "units": 60, "trainable": true, "kernel_initializer": {"class_name": "VarianceScaling", "config": {"scale": 1.0, "mode": "fan_avg", "distribution": "normal", "seed": 3014}}, "bias_regularizer": null, "activity_regularizer": null, "kernel_regularizer": {"class_name": "L1L2", "config": {"l2": 0.00019999999494757503, "l1": 0.0}}}}, {"inbound_nodes": [[["CHK_DELTA", 0, 0, {}]]], "name": "D3_PWH_0", "class_name": "Dense", "config": {"name": "D3_PWH_0", "bias_constraint": null, "kernel_constraint": null, "bias_initializer": {"class_name": "Zeros", "config": {}}, "activation": "relu", "use_bias": true, "units": 60, "trainable": true, "kernel_initializer": {"class_name": "VarianceScaling", "config": {"scale": 1.0, "mode": "fan_avg", "distribution": "normal", "seed": 3014}}, "bias_regularizer": null, "activity_regularizer": null, "kernel_regularizer": {"class_name": "L1L2", "config": {"l2": 0.00019999999494757503, "l1": 0.0}}}}, {"inbound_nodes": [[["CHK_DELTA", 0, 0, {}]]], "name": "E1_PWH_0", "class_name": "Dense", "config": {"name": "E1_PWH_0", "bias_constraint": null, "kernel_constraint": null, "bias_initializer": {"class_name": "Zeros", "config": {}}, "activation": "relu", "use_bias": true, "units": 60, "trainable": true, "kernel_initializer": {"class_name": "VarianceScaling", "config": {"scale": 1.0, "mode": "fan_avg", "distribution": "normal", "seed": 3014}}, "bias_regularizer": null, "activity_regularizer": null, "kernel_regularizer": {"class_name": "L1L2", "config": {"l2": 0.00019999999494757503, "l1": 0.0}}}}, {"inbound_nodes": [[["F1_PWH_0", 0, 0, {}]]], "name": "F1_PWH_1", "class_name": "Dense", "config": {"name": "F1_PWH_1", "bias_constraint": null, "kernel_constraint": null, "bias_initializer": {"class_name": "Zeros", "config": {}}, "activation": "relu", "use_bias": true, "units": 60, "trainable": true, "kernel_initializer": {"class_name": "VarianceScaling", "config": {"scale": 1.0, "mode": "fan_avg", "distribution": "normal", "seed": 3014}}, "bias_regularizer": null, "activity_regularizer": null, "kernel_regularizer": {"class_name": "L1L2", "config": {"l2": 0.00019999999494757503, "l1": 0.0}}}}, {"inbound_nodes": [[["B2_PWH_0", 0, 0, {}]]], "name": "B2_PWH_1", "class_name": "Dense", "config": {"name": "B2_PWH_1", "bias_constraint": null, "kernel_constraint": null, "bias_initializer": {"class_name": "Zeros", "config": {}}, "activation": "relu", "use_bias": true, "units": 60, "trainable": true, "kernel_initializer": {"class_name": "VarianceScaling", "config": {"scale": 1.0, "mode": "fan_avg", "distribution": "normal", "seed": 3014}}, "bias_regularizer": null, "activity_regularizer": null, "kernel_regularizer": {"class_name": "L1L2", "config": {"l2": 0.00019999999494757503, "l1": 0.0}}}}, {"inbound_nodes": [[["D3_PWH_0", 0, 0, {}]]], "name": "D3_PWH_1", "class_name": "Dense", "config": {"name": "D3_PWH_1", "bias_constraint": null, "kernel_constraint": null, "bias_initializer": {"class_name": "Zeros", "config": {}}, "activation": "relu", "use_bias": true, "units": 60, "trainable": true, "kernel_initializer": {"class_name": "VarianceScaling", "config": {"scale": 1.0, "mode": "fan_avg", "distribution": "normal", "seed": 3014}}, "bias_regularizer": null, "activity_regularizer": null, "kernel_regularizer": {"class_name": "L1L2", "config": {"l2": 0.00019999999494757503, "l1": 0.0}}}}, {"inbound_nodes": [[["E1_PWH_0", 0, 0, {}]]], "name": "E1_PWH_1", "class_name": "Dense", "config": {"name": "E1_PWH_1", "bias_constraint": null, "kernel_constraint": null, "bias_initializer": {"class_name": "Zeros", "config": {}}, "activation": "relu", "use_bias": true, "units": 60, "trainable": true, "kernel_initializer": {"class_name": "VarianceScaling", "config": {"scale": 1.0, "mode": "fan_avg", "distribution": "normal", "seed": 3014}}, "bias_regularizer": null, "activity_regularizer": null, "kernel_regularizer": {"class_name": "L1L2", "config": {"l2": 0.00019999999494757503, "l1": 0.0}}}}, {"inbound_nodes": [[["F1_PWH_1", 0, 0, {}]]], "name": "F1_PWH_out", "class_name": "Dense", "config": {"name": "F1_PWH_out", "bias_constraint": null, "kernel_constraint": null, "bias_initializer": {"class_name": "Zeros", "config": {}}, "activation": "linear", "use_bias": true, "units": 1, "trainable": true, "kernel_initializer": {"class_name": "VarianceScaling", "config": {"scale": 1.0, "mode": "fan_avg", "distribution": "normal", "seed": 3014}}, "bias_regularizer": null, "activity_regularizer": null, "kernel_regularizer": {"class_name": "L1L2", "config": {"l2": 0.00019999999494757503, "l1": 0.0}}}}, {"inbound_nodes": [], "name": "SHIFTED_PRESSURE_PWH_F1", "class_name": "InputLayer", "config": {"sparse": false, "batch_input_shape": [null, 1], "name": "SHIFTED_PRESSURE_PWH_F1", "dtype": "float32"}}, {"inbound_nodes": [[["B2_PWH_1", 0, 0, {}]]], "name": "B2_PWH_out", "class_name": "Dense", "config": {"name": "B2_PWH_out", "bias_constraint": null, "kernel_constraint": null, "bias_initializer": {"class_name": "Zeros", "config": {}}, "activation": "linear", "use_bias": true, "units": 1, "trainable": true, "kernel_initializer": {"class_name": "VarianceScaling", "config": {"scale": 1.0, "mode": "fan_avg", "distribution": "normal", "seed": 3014}}, "bias_regularizer": null, "activity_regularizer": null, "kernel_regularizer": {"class_name": "L1L2", "config": {"l2": 0.00019999999494757503, "l1": 0.0}}}}, {"inbound_nodes": [], "name": "SHIFTED_PRESSURE_PWH_B2", "class_name": "InputLayer", "config": {"sparse": false, "batch_input_shape": [null, 1], "name": "SHIFTED_PRESSURE_PWH_B2", "dtype": "float32"}}, {"inbound_nodes": [[["D3_PWH_1", 0, 0, {}]]], "name": "D3_PWH_out", "class_name": "Dense", "config": {"name": "D3_PWH_out", "bias_constraint": null, "kernel_constraint": null, "bias_initializer": {"class_name": "Zeros", "config": {}}, "activation": "linear", "use_bias": true, "units": 1, "trainable": true, "kernel_initializer": {"class_name": "VarianceScaling", "config": {"scale": 1.0, "mode": "fan_avg", "distribution": "normal", "seed": 3014}}, "bias_regularizer": null, "activity_regularizer": null, "kernel_regularizer": {"class_name": "L1L2", "config": {"l2": 0.00019999999494757503, "l1": 0.0}}}}, {"inbound_nodes": [], "name": "SHIFTED_PRESSURE_PWH_D3", "class_name": "InputLayer", "config": {"sparse": false, "batch_input_shape": [null, 1], "name": "SHIFTED_PRESSURE_PWH_D3", "dtype": "float32"}}, {"inbound_nodes": [[["E1_PWH_1", 0, 0, {}]]], "name": "E1_PWH_out", "class_name": "Dense", "config": {"name": "E1_PWH_out", "bias_constraint": null, "kernel_constraint": null, "bias_initializer": {"class_name": "Zeros", "config": {}}, "activation": "linear", "use_bias": true, "units": 1, "trainable": true, "kernel_initializer": {"class_name": "VarianceScaling", "config": {"scale": 1.0, "mode": "fan_avg", "distribution": "normal", "seed": 3014}}, "bias_regularizer": null, "activity_regularizer": null, "kernel_regularizer": {"class_name": "L1L2", "config": {"l2": 0.00019999999494757503, "l1": 0.0}}}}, {"inbound_nodes": [], "name": "SHIFTED_PRESSURE_PWH_E1", "class_name": "InputLayer", "config": {"sparse": false, "batch_input_shape": [null, 1], "name": "SHIFTED_PRESSURE_PWH_E1", "dtype": "float32"}}, {"inbound_nodes": [[["F1_PWH_out", 0, 0, {}], ["SHIFTED_PRESSURE_PWH_F1", 0, 0, {}]]], "name": "F1_PWH_out2", "class_name": "Add", "config": {"name": "F1_PWH_out2", "trainable": true}}, {"inbound_nodes": [[["B2_PWH_out", 0, 0, {}], ["SHIFTED_PRESSURE_PWH_B2", 0, 0, {}]]], "name": "B2_PWH_out2", "class_name": "Add", "config": {"name": "B2_PWH_out2", "trainable": true}}, {"inbound_nodes": [[["D3_PWH_out", 0, 0, {}], ["SHIFTED_PRESSURE_PWH_D3", 0, 0, {}]]], "name": "D3_PWH_out2", "class_name": "Add", "config": {"name": "D3_PWH_out2", "trainable": true}}, {"inbound_nodes": [[["E1_PWH_out", 0, 0, {}], ["SHIFTED_PRESSURE_PWH_E1", 0, 0, {}]]], "name": "E1_PWH_out2", "class_name": "Add", "config": {"name": "E1_PWH_out2", "trainable": true}}], "output_layers": [["F1_PWH_out2", 0, 0], ["F1_PWH_out", 0, 0], ["B2_PWH_out2", 0, 0], ["B2_PWH_out", 0, 0], ["D3_PWH_out2", 0, 0], ["D3_PWH_out", 0, 0], ["E1_PWH_out2", 0, 0], ["E1_PWH_out", 0, 0]], "input_layers": [["CHK_INPUT_NOW", 0, 0], ["CHK_INPUT_PREV", 0, 0], ["SHIFTED_PRESSURE_PWH_F1", 0, 0], ["SHIFTED_PRESSURE_PWH_B2", 0, 0], ["SHIFTED_PRESSURE_PWH_D3", 0, 0], ["SHIFTED_PRESSURE_PWH_E1", 0, 0]]}}