{"class_name": "Model", "config": {"layers": [{"class_name": "InputLayer", "inbound_nodes": [], "config": {"batch_input_shape": [null, 4], "dtype": "float32", "name": "C1", "sparse": false}, "name": "C1"}, {"class_name": "InputLayer", "inbound_nodes": [], "config": {"batch_input_shape": [null, 3], "dtype": "float32", "name": "C2", "sparse": false}, "name": "C2"}, {"class_name": "InputLayer", "inbound_nodes": [], "config": {"batch_input_shape": [null, 4], "dtype": "float32", "name": "C3", "sparse": false}, "name": "C3"}, {"class_name": "InputLayer", "inbound_nodes": [], "config": {"batch_input_shape": [null, 4], "dtype": "float32", "name": "C4", "sparse": false}, "name": "C4"}, {"class_name": "InputLayer", "inbound_nodes": [], "config": {"batch_input_shape": [null, 4], "dtype": "float32", "name": "B1", "sparse": false}, "name": "B1"}, {"class_name": "InputLayer", "inbound_nodes": [], "config": {"batch_input_shape": [null, 4], "dtype": "float32", "name": "B3", "sparse": false}, "name": "B3"}, {"class_name": "InputLayer", "inbound_nodes": [], "config": {"batch_input_shape": [null, 3], "dtype": "float32", "name": "D1", "sparse": false}, "name": "D1"}, {"class_name": "Dense", "inbound_nodes": [[["C1", 0, 0, {}]]], "config": {"kernel_constraint": null, "activation": "relu", "name": "C1_0", "units": 80, "bias_constraint": null, "trainable": true, "bias_regularizer": null, "kernel_regularizer": {"class_name": "L1L2", "config": {"l1": 0.0, "l2": 0.0003000000142492354}}, "kernel_initializer": {"class_name": "VarianceScaling", "config": {"distribution": "normal", "scale": 1.0, "mode": "fan_avg", "seed": 3014}}, "bias_initializer": {"class_name": "Zeros", "config": {}}, "use_bias": true, "activity_regularizer": null}, "name": "C1_0"}, {"class_name": "Dense", "inbound_nodes": [[["C2", 0, 0, {}]]], "config": {"kernel_constraint": null, "activation": "relu", "name": "C2_0", "units": 80, "bias_constraint": null, "trainable": true, "bias_regularizer": null, "kernel_regularizer": {"class_name": "L1L2", "config": {"l1": 0.0, "l2": 0.0003000000142492354}}, "kernel_initializer": {"class_name": "VarianceScaling", "config": {"distribution": "normal", "scale": 1.0, "mode": "fan_avg", "seed": 3014}}, "bias_initializer": {"class_name": "Zeros", "config": {}}, "use_bias": true, "activity_regularizer": null}, "name": "C2_0"}, {"class_name": "Dense", "inbound_nodes": [[["C3", 0, 0, {}]]], "config": {"kernel_constraint": null, "activation": "relu", "name": "C3_0", "units": 80, "bias_constraint": null, "trainable": true, "bias_regularizer": null, "kernel_regularizer": {"class_name": "L1L2", "config": {"l1": 0.0, "l2": 0.0003000000142492354}}, "kernel_initializer": {"class_name": "VarianceScaling", "config": {"distribution": "normal", "scale": 1.0, "mode": "fan_avg", "seed": 3014}}, "bias_initializer": {"class_name": "Zeros", "config": {}}, "use_bias": true, "activity_regularizer": null}, "name": "C3_0"}, {"class_name": "Dense", "inbound_nodes": [[["C4", 0, 0, {}]]], "config": {"kernel_constraint": null, "activation": "relu", "name": "C4_0", "units": 80, "bias_constraint": null, "trainable": true, "bias_regularizer": null, "kernel_regularizer": {"class_name": "L1L2", "config": {"l1": 0.0, "l2": 0.0003000000142492354}}, "kernel_initializer": {"class_name": "VarianceScaling", "config": {"distribution": "normal", "scale": 1.0, "mode": "fan_avg", "seed": 3014}}, "bias_initializer": {"class_name": "Zeros", "config": {}}, "use_bias": true, "activity_regularizer": null}, "name": "C4_0"}, {"class_name": "Dense", "inbound_nodes": [[["B1", 0, 0, {}]]], "config": {"kernel_constraint": null, "activation": "relu", "name": "B1_0", "units": 80, "bias_constraint": null, "trainable": true, "bias_regularizer": null, "kernel_regularizer": {"class_name": "L1L2", "config": {"l1": 0.0, "l2": 0.0003000000142492354}}, "kernel_initializer": {"class_name": "VarianceScaling", "config": {"distribution": "normal", "scale": 1.0, "mode": "fan_avg", "seed": 3014}}, "bias_initializer": {"class_name": "Zeros", "config": {}}, "use_bias": true, "activity_regularizer": null}, "name": "B1_0"}, {"class_name": "Dense", "inbound_nodes": [[["B3", 0, 0, {}]]], "config": {"kernel_constraint": null, "activation": "relu", "name": "B3_0", "units": 80, "bias_constraint": null, "trainable": true, "bias_regularizer": null, "kernel_regularizer": {"class_name": "L1L2", "config": {"l1": 0.0, "l2": 0.0003000000142492354}}, "kernel_initializer": {"class_name": "VarianceScaling", "config": {"distribution": "normal", "scale": 1.0, "mode": "fan_avg", "seed": 3014}}, "bias_initializer": {"class_name": "Zeros", "config": {}}, "use_bias": true, "activity_regularizer": null}, "name": "B3_0"}, {"class_name": "Dense", "inbound_nodes": [[["D1", 0, 0, {}]]], "config": {"kernel_constraint": null, "activation": "relu", "name": "D1_0", "units": 80, "bias_constraint": null, "trainable": true, "bias_regularizer": null, "kernel_regularizer": {"class_name": "L1L2", "config": {"l1": 0.0, "l2": 0.0003000000142492354}}, "kernel_initializer": {"class_name": "VarianceScaling", "config": {"distribution": "normal", "scale": 1.0, "mode": "fan_avg", "seed": 3014}}, "bias_initializer": {"class_name": "Zeros", "config": {}}, "use_bias": true, "activity_regularizer": null}, "name": "D1_0"}, {"class_name": "Dropout", "inbound_nodes": [[["C1_0", 0, 0, {}]]], "config": {"rate": 0.1, "trainable": true, "name": "C1_dp_1"}, "name": "C1_dp_1"}, {"class_name": "Dropout", "inbound_nodes": [[["C2_0", 0, 0, {}]]], "config": {"rate": 0.1, "trainable": true, "name": "C2_dp_1"}, "name": "C2_dp_1"}, {"class_name": "Dropout", "inbound_nodes": [[["C3_0", 0, 0, {}]]], "config": {"rate": 0.1, "trainable": true, "name": "C3_dp_1"}, "name": "C3_dp_1"}, {"class_name": "Dropout", "inbound_nodes": [[["C4_0", 0, 0, {}]]], "config": {"rate": 0.1, "trainable": true, "name": "C4_dp_1"}, "name": "C4_dp_1"}, {"class_name": "Dropout", "inbound_nodes": [[["B1_0", 0, 0, {}]]], "config": {"rate": 0.1, "trainable": true, "name": "B1_dp_1"}, "name": "B1_dp_1"}, {"class_name": "Dropout", "inbound_nodes": [[["B3_0", 0, 0, {}]]], "config": {"rate": 0.1, "trainable": true, "name": "B3_dp_1"}, "name": "B3_dp_1"}, {"class_name": "Dropout", "inbound_nodes": [[["D1_0", 0, 0, {}]]], "config": {"rate": 0.1, "trainable": true, "name": "D1_dp_1"}, "name": "D1_dp_1"}, {"class_name": "Dense", "inbound_nodes": [[["C1_dp_1", 0, 0, {}]]], "config": {"kernel_constraint": null, "activation": "relu", "name": "C1_1", "units": 80, "bias_constraint": null, "trainable": true, "bias_regularizer": null, "kernel_regularizer": {"class_name": "L1L2", "config": {"l1": 0.0, "l2": 0.0003000000142492354}}, "kernel_initializer": {"class_name": "VarianceScaling", "config": {"distribution": "normal", "scale": 1.0, "mode": "fan_avg", "seed": 3014}}, "bias_initializer": {"class_name": "Zeros", "config": {}}, "use_bias": true, "activity_regularizer": null}, "name": "C1_1"}, {"class_name": "Dense", "inbound_nodes": [[["C2_dp_1", 0, 0, {}]]], "config": {"kernel_constraint": null, "activation": "relu", "name": "C2_1", "units": 80, "bias_constraint": null, "trainable": true, "bias_regularizer": null, "kernel_regularizer": {"class_name": "L1L2", "config": {"l1": 0.0, "l2": 0.0003000000142492354}}, "kernel_initializer": {"class_name": "VarianceScaling", "config": {"distribution": "normal", "scale": 1.0, "mode": "fan_avg", "seed": 3014}}, "bias_initializer": {"class_name": "Zeros", "config": {}}, "use_bias": true, "activity_regularizer": null}, "name": "C2_1"}, {"class_name": "Dense", "inbound_nodes": [[["C3_dp_1", 0, 0, {}]]], "config": {"kernel_constraint": null, "activation": "relu", "name": "C3_1", "units": 80, "bias_constraint": null, "trainable": true, "bias_regularizer": null, "kernel_regularizer": {"class_name": "L1L2", "config": {"l1": 0.0, "l2": 0.0003000000142492354}}, "kernel_initializer": {"class_name": "VarianceScaling", "config": {"distribution": "normal", "scale": 1.0, "mode": "fan_avg", "seed": 3014}}, "bias_initializer": {"class_name": "Zeros", "config": {}}, "use_bias": true, "activity_regularizer": null}, "name": "C3_1"}, {"class_name": "Dense", "inbound_nodes": [[["C4_dp_1", 0, 0, {}]]], "config": {"kernel_constraint": null, "activation": "relu", "name": "C4_1", "units": 80, "bias_constraint": null, "trainable": true, "bias_regularizer": null, "kernel_regularizer": {"class_name": "L1L2", "config": {"l1": 0.0, "l2": 0.0003000000142492354}}, "kernel_initializer": {"class_name": "VarianceScaling", "config": {"distribution": "normal", "scale": 1.0, "mode": "fan_avg", "seed": 3014}}, "bias_initializer": {"class_name": "Zeros", "config": {}}, "use_bias": true, "activity_regularizer": null}, "name": "C4_1"}, {"class_name": "Dense", "inbound_nodes": [[["B1_dp_1", 0, 0, {}]]], "config": {"kernel_constraint": null, "activation": "relu", "name": "B1_1", "units": 80, "bias_constraint": null, "trainable": true, "bias_regularizer": null, "kernel_regularizer": {"class_name": "L1L2", "config": {"l1": 0.0, "l2": 0.0003000000142492354}}, "kernel_initializer": {"class_name": "VarianceScaling", "config": {"distribution": "normal", "scale": 1.0, "mode": "fan_avg", "seed": 3014}}, "bias_initializer": {"class_name": "Zeros", "config": {}}, "use_bias": true, "activity_regularizer": null}, "name": "B1_1"}, {"class_name": "Dense", "inbound_nodes": [[["B3_dp_1", 0, 0, {}]]], "config": {"kernel_constraint": null, "activation": "relu", "name": "B3_1", "units": 80, "bias_constraint": null, "trainable": true, "bias_regularizer": null, "kernel_regularizer": {"class_name": "L1L2", "config": {"l1": 0.0, "l2": 0.0003000000142492354}}, "kernel_initializer": {"class_name": "VarianceScaling", "config": {"distribution": "normal", "scale": 1.0, "mode": "fan_avg", "seed": 3014}}, "bias_initializer": {"class_name": "Zeros", "config": {}}, "use_bias": true, "activity_regularizer": null}, "name": "B3_1"}, {"class_name": "Dense", "inbound_nodes": [[["D1_dp_1", 0, 0, {}]]], "config": {"kernel_constraint": null, "activation": "relu", "name": "D1_1", "units": 80, "bias_constraint": null, "trainable": true, "bias_regularizer": null, "kernel_regularizer": {"class_name": "L1L2", "config": {"l1": 0.0, "l2": 0.0003000000142492354}}, "kernel_initializer": {"class_name": "VarianceScaling", "config": {"distribution": "normal", "scale": 1.0, "mode": "fan_avg", "seed": 3014}}, "bias_initializer": {"class_name": "Zeros", "config": {}}, "use_bias": true, "activity_regularizer": null}, "name": "D1_1"}, {"class_name": "InputLayer", "inbound_nodes": [], "config": {"batch_input_shape": [null, 1], "dtype": "float32", "name": "OnOff_C1", "sparse": false}, "name": "OnOff_C1"}, {"class_name": "Dense", "inbound_nodes": [[["C1_1", 0, 0, {}]]], "config": {"kernel_constraint": null, "activation": "relu", "name": "C1_o", "units": 1, "bias_constraint": null, "trainable": true, "bias_regularizer": null, "kernel_regularizer": {"class_name": "L1L2", "config": {"l1": 0.0, "l2": 0.0003000000142492354}}, "kernel_initializer": {"class_name": "VarianceScaling", "config": {"distribution": "normal", "scale": 1.0, "mode": "fan_avg", "seed": 3014}}, "bias_initializer": {"class_name": "Zeros", "config": {}}, "use_bias": true, "activity_regularizer": null}, "name": "C1_o"}, {"class_name": "InputLayer", "inbound_nodes": [], "config": {"batch_input_shape": [null, 1], "dtype": "float32", "name": "OnOff_C2", "sparse": false}, "name": "OnOff_C2"}, {"class_name": "Dense", "inbound_nodes": [[["C2_1", 0, 0, {}]]], "config": {"kernel_constraint": null, "activation": "relu", "name": "C2_o", "units": 1, "bias_constraint": null, "trainable": true, "bias_regularizer": null, "kernel_regularizer": {"class_name": "L1L2", "config": {"l1": 0.0, "l2": 0.0003000000142492354}}, "kernel_initializer": {"class_name": "VarianceScaling", "config": {"distribution": "normal", "scale": 1.0, "mode": "fan_avg", "seed": 3014}}, "bias_initializer": {"class_name": "Zeros", "config": {}}, "use_bias": true, "activity_regularizer": null}, "name": "C2_o"}, {"class_name": "InputLayer", "inbound_nodes": [], "config": {"batch_input_shape": [null, 1], "dtype": "float32", "name": "OnOff_C3", "sparse": false}, "name": "OnOff_C3"}, {"class_name": "Dense", "inbound_nodes": [[["C3_1", 0, 0, {}]]], "config": {"kernel_constraint": null, "activation": "relu", "name": "C3_o", "units": 1, "bias_constraint": null, "trainable": true, "bias_regularizer": null, "kernel_regularizer": {"class_name": "L1L2", "config": {"l1": 0.0, "l2": 0.0003000000142492354}}, "kernel_initializer": {"class_name": "VarianceScaling", "config": {"distribution": "normal", "scale": 1.0, "mode": "fan_avg", "seed": 3014}}, "bias_initializer": {"class_name": "Zeros", "config": {}}, "use_bias": true, "activity_regularizer": null}, "name": "C3_o"}, {"class_name": "InputLayer", "inbound_nodes": [], "config": {"batch_input_shape": [null, 1], "dtype": "float32", "name": "OnOff_C4", "sparse": false}, "name": "OnOff_C4"}, {"class_name": "Dense", "inbound_nodes": [[["C4_1", 0, 0, {}]]], "config": {"kernel_constraint": null, "activation": "relu", "name": "C4_o", "units": 1, "bias_constraint": null, "trainable": true, "bias_regularizer": null, "kernel_regularizer": {"class_name": "L1L2", "config": {"l1": 0.0, "l2": 0.0003000000142492354}}, "kernel_initializer": {"class_name": "VarianceScaling", "config": {"distribution": "normal", "scale": 1.0, "mode": "fan_avg", "seed": 3014}}, "bias_initializer": {"class_name": "Zeros", "config": {}}, "use_bias": true, "activity_regularizer": null}, "name": "C4_o"}, {"class_name": "InputLayer", "inbound_nodes": [], "config": {"batch_input_shape": [null, 1], "dtype": "float32", "name": "OnOff_B1", "sparse": false}, "name": "OnOff_B1"}, {"class_name": "Dense", "inbound_nodes": [[["B1_1", 0, 0, {}]]], "config": {"kernel_constraint": null, "activation": "relu", "name": "B1_o", "units": 1, "bias_constraint": null, "trainable": true, "bias_regularizer": null, "kernel_regularizer": {"class_name": "L1L2", "config": {"l1": 0.0, "l2": 0.0003000000142492354}}, "kernel_initializer": {"class_name": "VarianceScaling", "config": {"distribution": "normal", "scale": 1.0, "mode": "fan_avg", "seed": 3014}}, "bias_initializer": {"class_name": "Zeros", "config": {}}, "use_bias": true, "activity_regularizer": null}, "name": "B1_o"}, {"class_name": "InputLayer", "inbound_nodes": [], "config": {"batch_input_shape": [null, 1], "dtype": "float32", "name": "OnOff_B3", "sparse": false}, "name": "OnOff_B3"}, {"class_name": "Dense", "inbound_nodes": [[["B3_1", 0, 0, {}]]], "config": {"kernel_constraint": null, "activation": "relu", "name": "B3_o", "units": 1, "bias_constraint": null, "trainable": true, "bias_regularizer": null, "kernel_regularizer": {"class_name": "L1L2", "config": {"l1": 0.0, "l2": 0.0003000000142492354}}, "kernel_initializer": {"class_name": "VarianceScaling", "config": {"distribution": "normal", "scale": 1.0, "mode": "fan_avg", "seed": 3014}}, "bias_initializer": {"class_name": "Zeros", "config": {}}, "use_bias": true, "activity_regularizer": null}, "name": "B3_o"}, {"class_name": "InputLayer", "inbound_nodes": [], "config": {"batch_input_shape": [null, 1], "dtype": "float32", "name": "OnOff_D1", "sparse": false}, "name": "OnOff_D1"}, {"class_name": "Dense", "inbound_nodes": [[["D1_1", 0, 0, {}]]], "config": {"kernel_constraint": null, "activation": "relu", "name": "D1_o", "units": 1, "bias_constraint": null, "trainable": true, "bias_regularizer": null, "kernel_regularizer": {"class_name": "L1L2", "config": {"l1": 0.0, "l2": 0.0003000000142492354}}, "kernel_initializer": {"class_name": "VarianceScaling", "config": {"distribution": "normal", "scale": 1.0, "mode": "fan_avg", "seed": 3014}}, "bias_initializer": {"class_name": "Zeros", "config": {}}, "use_bias": true, "activity_regularizer": null}, "name": "D1_o"}, {"class_name": "Multiply", "inbound_nodes": [[["OnOff_C1", 0, 0, {}], ["C1_o", 0, 0, {}]]], "config": {"trainable": true, "name": "C1_out"}, "name": "C1_out"}, {"class_name": "Multiply", "inbound_nodes": [[["OnOff_C2", 0, 0, {}], ["C2_o", 0, 0, {}]]], "config": {"trainable": true, "name": "C2_out"}, "name": "C2_out"}, {"class_name": "Multiply", "inbound_nodes": [[["OnOff_C3", 0, 0, {}], ["C3_o", 0, 0, {}]]], "config": {"trainable": true, "name": "C3_out"}, "name": "C3_out"}, {"class_name": "Multiply", "inbound_nodes": [[["OnOff_C4", 0, 0, {}], ["C4_o", 0, 0, {}]]], "config": {"trainable": true, "name": "C4_out"}, "name": "C4_out"}, {"class_name": "Multiply", "inbound_nodes": [[["OnOff_B1", 0, 0, {}], ["B1_o", 0, 0, {}]]], "config": {"trainable": true, "name": "B1_out"}, "name": "B1_out"}, {"class_name": "Multiply", "inbound_nodes": [[["OnOff_B3", 0, 0, {}], ["B3_o", 0, 0, {}]]], "config": {"trainable": true, "name": "B3_out"}, "name": "B3_out"}, {"class_name": "Multiply", "inbound_nodes": [[["OnOff_D1", 0, 0, {}], ["D1_o", 0, 0, {}]]], "config": {"trainable": true, "name": "D1_out"}, "name": "D1_out"}, {"class_name": "Add", "inbound_nodes": [[["C1_out", 0, 0, {}], ["C2_out", 0, 0, {}], ["C3_out", 0, 0, {}], ["C4_out", 0, 0, {}], ["B1_out", 0, 0, {}], ["B3_out", 0, 0, {}], ["D1_out", 0, 0, {}]]], "config": {"trainable": true, "name": "GJOA_TOTAL"}, "name": "GJOA_TOTAL"}], "input_layers": [["C1", 0, 0], ["C2", 0, 0], ["C3", 0, 0], ["C4", 0, 0], ["B1", 0, 0], ["B3", 0, 0], ["D1", 0, 0], ["OnOff_C1", 0, 0], ["OnOff_C2", 0, 0], ["OnOff_C3", 0, 0], ["OnOff_C4", 0, 0], ["OnOff_B1", 0, 0], ["OnOff_B3", 0, 0], ["OnOff_D1", 0, 0]], "name": "model_1", "output_layers": [["C1_out", 0, 0], ["C2_out", 0, 0], ["C3_out", 0, 0], ["C4_out", 0, 0], ["B1_out", 0, 0], ["B3_out", 0, 0], ["D1_out", 0, 0], ["GJOA_TOTAL", 0, 0]]}, "backend": "theano", "keras_version": "2.0.1"}