{"keras_version": "2.0.1", "class_name": "Model", "config": {"layers": [{"class_name": "InputLayer", "config": {"sparse": false, "batch_input_shape": [null, 4], "dtype": "float32", "name": "F1"}, "name": "F1", "inbound_nodes": []}, {"class_name": "InputLayer", "config": {"sparse": false, "batch_input_shape": [null, 4], "dtype": "float32", "name": "B2"}, "name": "B2", "inbound_nodes": []}, {"class_name": "InputLayer", "config": {"sparse": false, "batch_input_shape": [null, 4], "dtype": "float32", "name": "D3"}, "name": "D3", "inbound_nodes": []}, {"class_name": "InputLayer", "config": {"sparse": false, "batch_input_shape": [null, 4], "dtype": "float32", "name": "E1"}, "name": "E1", "inbound_nodes": []}, {"class_name": "Dense", "config": {"bias_constraint": null, "use_bias": true, "kernel_constraint": null, "kernel_regularizer": {"class_name": "L1L2", "config": {"l2": 0.0005000000237487257, "l1": 0.0}}, "kernel_initializer": {"class_name": "VarianceScaling", "config": {"seed": 9035, "scale": 1.0, "mode": "fan_avg", "distribution": "normal"}}, "bias_initializer": {"class_name": "Zeros", "config": {}}, "activation": "relu", "trainable": true, "activity_regularizer": null, "bias_regularizer": null, "units": 50, "name": "dense_1"}, "name": "dense_1", "inbound_nodes": [[["F1", 0, 0, {}]]]}, {"class_name": "Dense", "config": {"bias_constraint": null, "use_bias": true, "kernel_constraint": null, "kernel_regularizer": {"class_name": "L1L2", "config": {"l2": 0.0005000000237487257, "l1": 0.0}}, "kernel_initializer": {"class_name": "VarianceScaling", "config": {"seed": 9035, "scale": 1.0, "mode": "fan_avg", "distribution": "normal"}}, "bias_initializer": {"class_name": "Zeros", "config": {}}, "activation": "relu", "trainable": true, "activity_regularizer": null, "bias_regularizer": null, "units": 50, "name": "dense_4"}, "name": "dense_4", "inbound_nodes": [[["B2", 0, 0, {}]]]}, {"class_name": "Dense", "config": {"bias_constraint": null, "use_bias": true, "kernel_constraint": null, "kernel_regularizer": {"class_name": "L1L2", "config": {"l2": 0.0005000000237487257, "l1": 0.0}}, "kernel_initializer": {"class_name": "VarianceScaling", "config": {"seed": 9035, "scale": 1.0, "mode": "fan_avg", "distribution": "normal"}}, "bias_initializer": {"class_name": "Zeros", "config": {}}, "activation": "relu", "trainable": true, "activity_regularizer": null, "bias_regularizer": null, "units": 50, "name": "dense_7"}, "name": "dense_7", "inbound_nodes": [[["D3", 0, 0, {}]]]}, {"class_name": "Dense", "config": {"bias_constraint": null, "use_bias": true, "kernel_constraint": null, "kernel_regularizer": {"class_name": "L1L2", "config": {"l2": 0.0005000000237487257, "l1": 0.0}}, "kernel_initializer": {"class_name": "VarianceScaling", "config": {"seed": 9035, "scale": 1.0, "mode": "fan_avg", "distribution": "normal"}}, "bias_initializer": {"class_name": "Zeros", "config": {}}, "activation": "relu", "trainable": true, "activity_regularizer": null, "bias_regularizer": null, "units": 50, "name": "dense_10"}, "name": "dense_10", "inbound_nodes": [[["E1", 0, 0, {}]]]}, {"class_name": "Dropout", "config": {"trainable": true, "name": "dropout_1", "rate": 0.1}, "name": "dropout_1", "inbound_nodes": [[["dense_1", 0, 0, {}]]]}, {"class_name": "Dropout", "config": {"trainable": true, "name": "dropout_2", "rate": 0.1}, "name": "dropout_2", "inbound_nodes": [[["dense_4", 0, 0, {}]]]}, {"class_name": "Dropout", "config": {"trainable": true, "name": "dropout_3", "rate": 0.1}, "name": "dropout_3", "inbound_nodes": [[["dense_7", 0, 0, {}]]]}, {"class_name": "Dropout", "config": {"trainable": true, "name": "dropout_4", "rate": 0.1}, "name": "dropout_4", "inbound_nodes": [[["dense_10", 0, 0, {}]]]}, {"class_name": "Dense", "config": {"bias_constraint": null, "use_bias": true, "kernel_constraint": null, "kernel_regularizer": {"class_name": "L1L2", "config": {"l2": 0.0005000000237487257, "l1": 0.0}}, "kernel_initializer": {"class_name": "VarianceScaling", "config": {"seed": 9035, "scale": 1.0, "mode": "fan_avg", "distribution": "normal"}}, "bias_initializer": {"class_name": "Zeros", "config": {}}, "activation": "relu", "trainable": true, "activity_regularizer": null, "bias_regularizer": null, "units": 50, "name": "dense_2"}, "name": "dense_2", "inbound_nodes": [[["dropout_1", 0, 0, {}]]]}, {"class_name": "Dense", "config": {"bias_constraint": null, "use_bias": true, "kernel_constraint": null, "kernel_regularizer": {"class_name": "L1L2", "config": {"l2": 0.0005000000237487257, "l1": 0.0}}, "kernel_initializer": {"class_name": "VarianceScaling", "config": {"seed": 9035, "scale": 1.0, "mode": "fan_avg", "distribution": "normal"}}, "bias_initializer": {"class_name": "Zeros", "config": {}}, "activation": "relu", "trainable": true, "activity_regularizer": null, "bias_regularizer": null, "units": 50, "name": "dense_5"}, "name": "dense_5", "inbound_nodes": [[["dropout_2", 0, 0, {}]]]}, {"class_name": "Dense", "config": {"bias_constraint": null, "use_bias": true, "kernel_constraint": null, "kernel_regularizer": {"class_name": "L1L2", "config": {"l2": 0.0005000000237487257, "l1": 0.0}}, "kernel_initializer": {"class_name": "VarianceScaling", "config": {"seed": 9035, "scale": 1.0, "mode": "fan_avg", "distribution": "normal"}}, "bias_initializer": {"class_name": "Zeros", "config": {}}, "activation": "relu", "trainable": true, "activity_regularizer": null, "bias_regularizer": null, "units": 50, "name": "dense_8"}, "name": "dense_8", "inbound_nodes": [[["dropout_3", 0, 0, {}]]]}, {"class_name": "Dense", "config": {"bias_constraint": null, "use_bias": true, "kernel_constraint": null, "kernel_regularizer": {"class_name": "L1L2", "config": {"l2": 0.0005000000237487257, "l1": 0.0}}, "kernel_initializer": {"class_name": "VarianceScaling", "config": {"seed": 9035, "scale": 1.0, "mode": "fan_avg", "distribution": "normal"}}, "bias_initializer": {"class_name": "Zeros", "config": {}}, "activation": "relu", "trainable": true, "activity_regularizer": null, "bias_regularizer": null, "units": 50, "name": "dense_11"}, "name": "dense_11", "inbound_nodes": [[["dropout_4", 0, 0, {}]]]}, {"class_name": "InputLayer", "config": {"sparse": false, "batch_input_shape": [null, 1], "dtype": "float32", "name": "OnOff_F1"}, "name": "OnOff_F1", "inbound_nodes": []}, {"class_name": "Dense", "config": {"bias_constraint": null, "use_bias": true, "kernel_constraint": null, "kernel_regularizer": {"class_name": "L1L2", "config": {"l2": 0.0005000000237487257, "l1": 0.0}}, "kernel_initializer": {"class_name": "VarianceScaling", "config": {"seed": 9035, "scale": 1.0, "mode": "fan_avg", "distribution": "normal"}}, "bias_initializer": {"class_name": "Zeros", "config": {}}, "activation": "relu", "trainable": true, "activity_regularizer": null, "bias_regularizer": null, "units": 1, "name": "dense_3"}, "name": "dense_3", "inbound_nodes": [[["dense_2", 0, 0, {}]]]}, {"class_name": "InputLayer", "config": {"sparse": false, "batch_input_shape": [null, 1], "dtype": "float32", "name": "OnOff_B2"}, "name": "OnOff_B2", "inbound_nodes": []}, {"class_name": "Dense", "config": {"bias_constraint": null, "use_bias": true, "kernel_constraint": null, "kernel_regularizer": {"class_name": "L1L2", "config": {"l2": 0.0005000000237487257, "l1": 0.0}}, "kernel_initializer": {"class_name": "VarianceScaling", "config": {"seed": 9035, "scale": 1.0, "mode": "fan_avg", "distribution": "normal"}}, "bias_initializer": {"class_name": "Zeros", "config": {}}, "activation": "relu", "trainable": true, "activity_regularizer": null, "bias_regularizer": null, "units": 1, "name": "dense_6"}, "name": "dense_6", "inbound_nodes": [[["dense_5", 0, 0, {}]]]}, {"class_name": "InputLayer", "config": {"sparse": false, "batch_input_shape": [null, 1], "dtype": "float32", "name": "OnOff_D3"}, "name": "OnOff_D3", "inbound_nodes": []}, {"class_name": "Dense", "config": {"bias_constraint": null, "use_bias": true, "kernel_constraint": null, "kernel_regularizer": {"class_name": "L1L2", "config": {"l2": 0.0005000000237487257, "l1": 0.0}}, "kernel_initializer": {"class_name": "VarianceScaling", "config": {"seed": 9035, "scale": 1.0, "mode": "fan_avg", "distribution": "normal"}}, "bias_initializer": {"class_name": "Zeros", "config": {}}, "activation": "relu", "trainable": true, "activity_regularizer": null, "bias_regularizer": null, "units": 1, "name": "dense_9"}, "name": "dense_9", "inbound_nodes": [[["dense_8", 0, 0, {}]]]}, {"class_name": "InputLayer", "config": {"sparse": false, "batch_input_shape": [null, 1], "dtype": "float32", "name": "OnOff_E1"}, "name": "OnOff_E1", "inbound_nodes": []}, {"class_name": "Dense", "config": {"bias_constraint": null, "use_bias": true, "kernel_constraint": null, "kernel_regularizer": {"class_name": "L1L2", "config": {"l2": 0.0005000000237487257, "l1": 0.0}}, "kernel_initializer": {"class_name": "VarianceScaling", "config": {"seed": 9035, "scale": 1.0, "mode": "fan_avg", "distribution": "normal"}}, "bias_initializer": {"class_name": "Zeros", "config": {}}, "activation": "relu", "trainable": true, "activity_regularizer": null, "bias_regularizer": null, "units": 1, "name": "dense_12"}, "name": "dense_12", "inbound_nodes": [[["dense_11", 0, 0, {}]]]}, {"class_name": "Multiply", "config": {"name": "F1_out", "trainable": true}, "name": "F1_out", "inbound_nodes": [[["OnOff_F1", 0, 0, {}], ["dense_3", 0, 0, {}]]]}, {"class_name": "Multiply", "config": {"name": "B2_out", "trainable": true}, "name": "B2_out", "inbound_nodes": [[["OnOff_B2", 0, 0, {}], ["dense_6", 0, 0, {}]]]}, {"class_name": "Multiply", "config": {"name": "D3_out", "trainable": true}, "name": "D3_out", "inbound_nodes": [[["OnOff_D3", 0, 0, {}], ["dense_9", 0, 0, {}]]]}, {"class_name": "Multiply", "config": {"name": "E1_out", "trainable": true}, "name": "E1_out", "inbound_nodes": [[["OnOff_E1", 0, 0, {}], ["dense_12", 0, 0, {}]]]}, {"class_name": "Add", "config": {"name": "GJOA_QGAS", "trainable": true}, "name": "GJOA_QGAS", "inbound_nodes": [[["F1_out", 0, 0, {}], ["B2_out", 0, 0, {}], ["D3_out", 0, 0, {}], ["E1_out", 0, 0, {}]]]}], "output_layers": [["F1_out", 0, 0], ["B2_out", 0, 0], ["D3_out", 0, 0], ["E1_out", 0, 0], ["GJOA_QGAS", 0, 0]], "input_layers": [["F1", 0, 0], ["B2", 0, 0], ["D3", 0, 0], ["E1", 0, 0], ["OnOff_F1", 0, 0], ["OnOff_B2", 0, 0], ["OnOff_D3", 0, 0], ["OnOff_E1", 0, 0]], "name": "model_1"}, "backend": "theano"}