{"class_name": "Model", "config": {"layers": [{"class_name": "InputLayer", "config": {"batch_input_shape": [null, 4], "dtype": "float32", "sparse": false, "name": "C1"}, "inbound_nodes": [], "name": "C1"}, {"class_name": "InputLayer", "config": {"batch_input_shape": [null, 3], "dtype": "float32", "sparse": false, "name": "C2"}, "inbound_nodes": [], "name": "C2"}, {"class_name": "InputLayer", "config": {"batch_input_shape": [null, 4], "dtype": "float32", "sparse": false, "name": "C3"}, "inbound_nodes": [], "name": "C3"}, {"class_name": "InputLayer", "config": {"batch_input_shape": [null, 4], "dtype": "float32", "sparse": false, "name": "C4"}, "inbound_nodes": [], "name": "C4"}, {"class_name": "InputLayer", "config": {"batch_input_shape": [null, 4], "dtype": "float32", "sparse": false, "name": "B1"}, "inbound_nodes": [], "name": "B1"}, {"class_name": "InputLayer", "config": {"batch_input_shape": [null, 4], "dtype": "float32", "sparse": false, "name": "B3"}, "inbound_nodes": [], "name": "B3"}, {"class_name": "InputLayer", "config": {"batch_input_shape": [null, 3], "dtype": "float32", "sparse": false, "name": "D1"}, "inbound_nodes": [], "name": "D1"}, {"class_name": "Dense", "config": {"use_bias": true, "kernel_initializer": {"class_name": "VarianceScaling", "config": {"distribution": "normal", "mode": "fan_avg", "scale": 1.0, "seed": 9035}}, "bias_constraint": null, "name": "dense_1", "kernel_regularizer": {"class_name": "L1L2", "config": {"l2": 9.999999747378752e-06, "l1": 0.0}}, "trainable": true, "activity_regularizer": null, "bias_regularizer": null, "bias_initializer": {"class_name": "Zeros", "config": {}}, "kernel_constraint": null, "activation": "relu", "units": 50}, "inbound_nodes": [[["C1", 0, 0, {}]]], "name": "dense_1"}, {"class_name": "Dense", "config": {"use_bias": true, "kernel_initializer": {"class_name": "VarianceScaling", "config": {"distribution": "normal", "mode": "fan_avg", "scale": 1.0, "seed": 9035}}, "bias_constraint": null, "name": "dense_5", "kernel_regularizer": {"class_name": "L1L2", "config": {"l2": 9.999999747378752e-06, "l1": 0.0}}, "trainable": true, "activity_regularizer": null, "bias_regularizer": null, "bias_initializer": {"class_name": "Zeros", "config": {}}, "kernel_constraint": null, "activation": "relu", "units": 50}, "inbound_nodes": [[["C2", 0, 0, {}]]], "name": "dense_5"}, {"class_name": "Dense", "config": {"use_bias": true, "kernel_initializer": {"class_name": "VarianceScaling", "config": {"distribution": "normal", "mode": "fan_avg", "scale": 1.0, "seed": 9035}}, "bias_constraint": null, "name": "dense_9", "kernel_regularizer": {"class_name": "L1L2", "config": {"l2": 9.999999747378752e-06, "l1": 0.0}}, "trainable": true, "activity_regularizer": null, "bias_regularizer": null, "bias_initializer": {"class_name": "Zeros", "config": {}}, "kernel_constraint": null, "activation": "relu", "units": 50}, "inbound_nodes": [[["C3", 0, 0, {}]]], "name": "dense_9"}, {"class_name": "Dense", "config": {"use_bias": true, "kernel_initializer": {"class_name": "VarianceScaling", "config": {"distribution": "normal", "mode": "fan_avg", "scale": 1.0, "seed": 9035}}, "bias_constraint": null, "name": "dense_13", "kernel_regularizer": {"class_name": "L1L2", "config": {"l2": 9.999999747378752e-06, "l1": 0.0}}, "trainable": true, "activity_regularizer": null, "bias_regularizer": null, "bias_initializer": {"class_name": "Zeros", "config": {}}, "kernel_constraint": null, "activation": "relu", "units": 50}, "inbound_nodes": [[["C4", 0, 0, {}]]], "name": "dense_13"}, {"class_name": "Dense", "config": {"use_bias": true, "kernel_initializer": {"class_name": "VarianceScaling", "config": {"distribution": "normal", "mode": "fan_avg", "scale": 1.0, "seed": 9035}}, "bias_constraint": null, "name": "dense_17", "kernel_regularizer": {"class_name": "L1L2", "config": {"l2": 9.999999747378752e-06, "l1": 0.0}}, "trainable": true, "activity_regularizer": null, "bias_regularizer": null, "bias_initializer": {"class_name": "Zeros", "config": {}}, "kernel_constraint": null, "activation": "relu", "units": 50}, "inbound_nodes": [[["B1", 0, 0, {}]]], "name": "dense_17"}, {"class_name": "Dense", "config": {"use_bias": true, "kernel_initializer": {"class_name": "VarianceScaling", "config": {"distribution": "normal", "mode": "fan_avg", "scale": 1.0, "seed": 9035}}, "bias_constraint": null, "name": "dense_21", "kernel_regularizer": {"class_name": "L1L2", "config": {"l2": 9.999999747378752e-06, "l1": 0.0}}, "trainable": true, "activity_regularizer": null, "bias_regularizer": null, "bias_initializer": {"class_name": "Zeros", "config": {}}, "kernel_constraint": null, "activation": "relu", "units": 50}, "inbound_nodes": [[["B3", 0, 0, {}]]], "name": "dense_21"}, {"class_name": "Dense", "config": {"use_bias": true, "kernel_initializer": {"class_name": "VarianceScaling", "config": {"distribution": "normal", "mode": "fan_avg", "scale": 1.0, "seed": 9035}}, "bias_constraint": null, "name": "dense_25", "kernel_regularizer": {"class_name": "L1L2", "config": {"l2": 9.999999747378752e-06, "l1": 0.0}}, "trainable": true, "activity_regularizer": null, "bias_regularizer": null, "bias_initializer": {"class_name": "Zeros", "config": {}}, "kernel_constraint": null, "activation": "relu", "units": 50}, "inbound_nodes": [[["D1", 0, 0, {}]]], "name": "dense_25"}, {"class_name": "Dense", "config": {"use_bias": true, "kernel_initializer": {"class_name": "VarianceScaling", "config": {"distribution": "normal", "mode": "fan_avg", "scale": 1.0, "seed": 9035}}, "bias_constraint": null, "name": "dense_2", "kernel_regularizer": {"class_name": "L1L2", "config": {"l2": 9.999999747378752e-06, "l1": 0.0}}, "trainable": true, "activity_regularizer": null, "bias_regularizer": null, "bias_initializer": {"class_name": "Zeros", "config": {}}, "kernel_constraint": null, "activation": "relu", "units": 50}, "inbound_nodes": [[["dense_1", 0, 0, {}]]], "name": "dense_2"}, {"class_name": "Dense", "config": {"use_bias": true, "kernel_initializer": {"class_name": "VarianceScaling", "config": {"distribution": "normal", "mode": "fan_avg", "scale": 1.0, "seed": 9035}}, "bias_constraint": null, "name": "dense_6", "kernel_regularizer": {"class_name": "L1L2", "config": {"l2": 9.999999747378752e-06, "l1": 0.0}}, "trainable": true, "activity_regularizer": null, "bias_regularizer": null, "bias_initializer": {"class_name": "Zeros", "config": {}}, "kernel_constraint": null, "activation": "relu", "units": 50}, "inbound_nodes": [[["dense_5", 0, 0, {}]]], "name": "dense_6"}, {"class_name": "Dense", "config": {"use_bias": true, "kernel_initializer": {"class_name": "VarianceScaling", "config": {"distribution": "normal", "mode": "fan_avg", "scale": 1.0, "seed": 9035}}, "bias_constraint": null, "name": "dense_10", "kernel_regularizer": {"class_name": "L1L2", "config": {"l2": 9.999999747378752e-06, "l1": 0.0}}, "trainable": true, "activity_regularizer": null, "bias_regularizer": null, "bias_initializer": {"class_name": "Zeros", "config": {}}, "kernel_constraint": null, "activation": "relu", "units": 50}, "inbound_nodes": [[["dense_9", 0, 0, {}]]], "name": "dense_10"}, {"class_name": "Dense", "config": {"use_bias": true, "kernel_initializer": {"class_name": "VarianceScaling", "config": {"distribution": "normal", "mode": "fan_avg", "scale": 1.0, "seed": 9035}}, "bias_constraint": null, "name": "dense_14", "kernel_regularizer": {"class_name": "L1L2", "config": {"l2": 9.999999747378752e-06, "l1": 0.0}}, "trainable": true, "activity_regularizer": null, "bias_regularizer": null, "bias_initializer": {"class_name": "Zeros", "config": {}}, "kernel_constraint": null, "activation": "relu", "units": 50}, "inbound_nodes": [[["dense_13", 0, 0, {}]]], "name": "dense_14"}, {"class_name": "Dense", "config": {"use_bias": true, "kernel_initializer": {"class_name": "VarianceScaling", "config": {"distribution": "normal", "mode": "fan_avg", "scale": 1.0, "seed": 9035}}, "bias_constraint": null, "name": "dense_18", "kernel_regularizer": {"class_name": "L1L2", "config": {"l2": 9.999999747378752e-06, "l1": 0.0}}, "trainable": true, "activity_regularizer": null, "bias_regularizer": null, "bias_initializer": {"class_name": "Zeros", "config": {}}, "kernel_constraint": null, "activation": "relu", "units": 50}, "inbound_nodes": [[["dense_17", 0, 0, {}]]], "name": "dense_18"}, {"class_name": "Dense", "config": {"use_bias": true, "kernel_initializer": {"class_name": "VarianceScaling", "config": {"distribution": "normal", "mode": "fan_avg", "scale": 1.0, "seed": 9035}}, "bias_constraint": null, "name": "dense_22", "kernel_regularizer": {"class_name": "L1L2", "config": {"l2": 9.999999747378752e-06, "l1": 0.0}}, "trainable": true, "activity_regularizer": null, "bias_regularizer": null, "bias_initializer": {"class_name": "Zeros", "config": {}}, "kernel_constraint": null, "activation": "relu", "units": 50}, "inbound_nodes": [[["dense_21", 0, 0, {}]]], "name": "dense_22"}, {"class_name": "Dense", "config": {"use_bias": true, "kernel_initializer": {"class_name": "VarianceScaling", "config": {"distribution": "normal", "mode": "fan_avg", "scale": 1.0, "seed": 9035}}, "bias_constraint": null, "name": "dense_26", "kernel_regularizer": {"class_name": "L1L2", "config": {"l2": 9.999999747378752e-06, "l1": 0.0}}, "trainable": true, "activity_regularizer": null, "bias_regularizer": null, "bias_initializer": {"class_name": "Zeros", "config": {}}, "kernel_constraint": null, "activation": "relu", "units": 50}, "inbound_nodes": [[["dense_25", 0, 0, {}]]], "name": "dense_26"}, {"class_name": "Dense", "config": {"use_bias": true, "kernel_initializer": {"class_name": "VarianceScaling", "config": {"distribution": "normal", "mode": "fan_avg", "scale": 1.0, "seed": 9035}}, "bias_constraint": null, "name": "dense_3", "kernel_regularizer": {"class_name": "L1L2", "config": {"l2": 9.999999747378752e-06, "l1": 0.0}}, "trainable": true, "activity_regularizer": null, "bias_regularizer": null, "bias_initializer": {"class_name": "Zeros", "config": {}}, "kernel_constraint": null, "activation": "relu", "units": 50}, "inbound_nodes": [[["dense_2", 0, 0, {}]]], "name": "dense_3"}, {"class_name": "Dense", "config": {"use_bias": true, "kernel_initializer": {"class_name": "VarianceScaling", "config": {"distribution": "normal", "mode": "fan_avg", "scale": 1.0, "seed": 9035}}, "bias_constraint": null, "name": "dense_7", "kernel_regularizer": {"class_name": "L1L2", "config": {"l2": 9.999999747378752e-06, "l1": 0.0}}, "trainable": true, "activity_regularizer": null, "bias_regularizer": null, "bias_initializer": {"class_name": "Zeros", "config": {}}, "kernel_constraint": null, "activation": "relu", "units": 50}, "inbound_nodes": [[["dense_6", 0, 0, {}]]], "name": "dense_7"}, {"class_name": "Dense", "config": {"use_bias": true, "kernel_initializer": {"class_name": "VarianceScaling", "config": {"distribution": "normal", "mode": "fan_avg", "scale": 1.0, "seed": 9035}}, "bias_constraint": null, "name": "dense_11", "kernel_regularizer": {"class_name": "L1L2", "config": {"l2": 9.999999747378752e-06, "l1": 0.0}}, "trainable": true, "activity_regularizer": null, "bias_regularizer": null, "bias_initializer": {"class_name": "Zeros", "config": {}}, "kernel_constraint": null, "activation": "relu", "units": 50}, "inbound_nodes": [[["dense_10", 0, 0, {}]]], "name": "dense_11"}, {"class_name": "Dense", "config": {"use_bias": true, "kernel_initializer": {"class_name": "VarianceScaling", "config": {"distribution": "normal", "mode": "fan_avg", "scale": 1.0, "seed": 9035}}, "bias_constraint": null, "name": "dense_15", "kernel_regularizer": {"class_name": "L1L2", "config": {"l2": 9.999999747378752e-06, "l1": 0.0}}, "trainable": true, "activity_regularizer": null, "bias_regularizer": null, "bias_initializer": {"class_name": "Zeros", "config": {}}, "kernel_constraint": null, "activation": "relu", "units": 50}, "inbound_nodes": [[["dense_14", 0, 0, {}]]], "name": "dense_15"}, {"class_name": "Dense", "config": {"use_bias": true, "kernel_initializer": {"class_name": "VarianceScaling", "config": {"distribution": "normal", "mode": "fan_avg", "scale": 1.0, "seed": 9035}}, "bias_constraint": null, "name": "dense_19", "kernel_regularizer": {"class_name": "L1L2", "config": {"l2": 9.999999747378752e-06, "l1": 0.0}}, "trainable": true, "activity_regularizer": null, "bias_regularizer": null, "bias_initializer": {"class_name": "Zeros", "config": {}}, "kernel_constraint": null, "activation": "relu", "units": 50}, "inbound_nodes": [[["dense_18", 0, 0, {}]]], "name": "dense_19"}, {"class_name": "Dense", "config": {"use_bias": true, "kernel_initializer": {"class_name": "VarianceScaling", "config": {"distribution": "normal", "mode": "fan_avg", "scale": 1.0, "seed": 9035}}, "bias_constraint": null, "name": "dense_23", "kernel_regularizer": {"class_name": "L1L2", "config": {"l2": 9.999999747378752e-06, "l1": 0.0}}, "trainable": true, "activity_regularizer": null, "bias_regularizer": null, "bias_initializer": {"class_name": "Zeros", "config": {}}, "kernel_constraint": null, "activation": "relu", "units": 50}, "inbound_nodes": [[["dense_22", 0, 0, {}]]], "name": "dense_23"}, {"class_name": "Dense", "config": {"use_bias": true, "kernel_initializer": {"class_name": "VarianceScaling", "config": {"distribution": "normal", "mode": "fan_avg", "scale": 1.0, "seed": 9035}}, "bias_constraint": null, "name": "dense_27", "kernel_regularizer": {"class_name": "L1L2", "config": {"l2": 9.999999747378752e-06, "l1": 0.0}}, "trainable": true, "activity_regularizer": null, "bias_regularizer": null, "bias_initializer": {"class_name": "Zeros", "config": {}}, "kernel_constraint": null, "activation": "relu", "units": 50}, "inbound_nodes": [[["dense_26", 0, 0, {}]]], "name": "dense_27"}, {"class_name": "InputLayer", "config": {"batch_input_shape": [null, 1], "dtype": "float32", "sparse": false, "name": "OnOff_C1"}, "inbound_nodes": [], "name": "OnOff_C1"}, {"class_name": "Dense", "config": {"use_bias": true, "kernel_initializer": {"class_name": "VarianceScaling", "config": {"distribution": "normal", "mode": "fan_avg", "scale": 1.0, "seed": 9035}}, "bias_constraint": null, "name": "dense_4", "kernel_regularizer": {"class_name": "L1L2", "config": {"l2": 9.999999747378752e-06, "l1": 0.0}}, "trainable": true, "activity_regularizer": null, "bias_regularizer": null, "bias_initializer": {"class_name": "Zeros", "config": {}}, "kernel_constraint": null, "activation": "relu", "units": 1}, "inbound_nodes": [[["dense_3", 0, 0, {}]]], "name": "dense_4"}, {"class_name": "InputLayer", "config": {"batch_input_shape": [null, 1], "dtype": "float32", "sparse": false, "name": "OnOff_C2"}, "inbound_nodes": [], "name": "OnOff_C2"}, {"class_name": "Dense", "config": {"use_bias": true, "kernel_initializer": {"class_name": "VarianceScaling", "config": {"distribution": "normal", "mode": "fan_avg", "scale": 1.0, "seed": 9035}}, "bias_constraint": null, "name": "dense_8", "kernel_regularizer": {"class_name": "L1L2", "config": {"l2": 9.999999747378752e-06, "l1": 0.0}}, "trainable": true, "activity_regularizer": null, "bias_regularizer": null, "bias_initializer": {"class_name": "Zeros", "config": {}}, "kernel_constraint": null, "activation": "relu", "units": 1}, "inbound_nodes": [[["dense_7", 0, 0, {}]]], "name": "dense_8"}, {"class_name": "InputLayer", "config": {"batch_input_shape": [null, 1], "dtype": "float32", "sparse": false, "name": "OnOff_C3"}, "inbound_nodes": [], "name": "OnOff_C3"}, {"class_name": "Dense", "config": {"use_bias": true, "kernel_initializer": {"class_name": "VarianceScaling", "config": {"distribution": "normal", "mode": "fan_avg", "scale": 1.0, "seed": 9035}}, "bias_constraint": null, "name": "dense_12", "kernel_regularizer": {"class_name": "L1L2", "config": {"l2": 9.999999747378752e-06, "l1": 0.0}}, "trainable": true, "activity_regularizer": null, "bias_regularizer": null, "bias_initializer": {"class_name": "Zeros", "config": {}}, "kernel_constraint": null, "activation": "relu", "units": 1}, "inbound_nodes": [[["dense_11", 0, 0, {}]]], "name": "dense_12"}, {"class_name": "InputLayer", "config": {"batch_input_shape": [null, 1], "dtype": "float32", "sparse": false, "name": "OnOff_C4"}, "inbound_nodes": [], "name": "OnOff_C4"}, {"class_name": "Dense", "config": {"use_bias": true, "kernel_initializer": {"class_name": "VarianceScaling", "config": {"distribution": "normal", "mode": "fan_avg", "scale": 1.0, "seed": 9035}}, "bias_constraint": null, "name": "dense_16", "kernel_regularizer": {"class_name": "L1L2", "config": {"l2": 9.999999747378752e-06, "l1": 0.0}}, "trainable": true, "activity_regularizer": null, "bias_regularizer": null, "bias_initializer": {"class_name": "Zeros", "config": {}}, "kernel_constraint": null, "activation": "relu", "units": 1}, "inbound_nodes": [[["dense_15", 0, 0, {}]]], "name": "dense_16"}, {"class_name": "InputLayer", "config": {"batch_input_shape": [null, 1], "dtype": "float32", "sparse": false, "name": "OnOff_B1"}, "inbound_nodes": [], "name": "OnOff_B1"}, {"class_name": "Dense", "config": {"use_bias": true, "kernel_initializer": {"class_name": "VarianceScaling", "config": {"distribution": "normal", "mode": "fan_avg", "scale": 1.0, "seed": 9035}}, "bias_constraint": null, "name": "dense_20", "kernel_regularizer": {"class_name": "L1L2", "config": {"l2": 9.999999747378752e-06, "l1": 0.0}}, "trainable": true, "activity_regularizer": null, "bias_regularizer": null, "bias_initializer": {"class_name": "Zeros", "config": {}}, "kernel_constraint": null, "activation": "relu", "units": 1}, "inbound_nodes": [[["dense_19", 0, 0, {}]]], "name": "dense_20"}, {"class_name": "InputLayer", "config": {"batch_input_shape": [null, 1], "dtype": "float32", "sparse": false, "name": "OnOff_B3"}, "inbound_nodes": [], "name": "OnOff_B3"}, {"class_name": "Dense", "config": {"use_bias": true, "kernel_initializer": {"class_name": "VarianceScaling", "config": {"distribution": "normal", "mode": "fan_avg", "scale": 1.0, "seed": 9035}}, "bias_constraint": null, "name": "dense_24", "kernel_regularizer": {"class_name": "L1L2", "config": {"l2": 9.999999747378752e-06, "l1": 0.0}}, "trainable": true, "activity_regularizer": null, "bias_regularizer": null, "bias_initializer": {"class_name": "Zeros", "config": {}}, "kernel_constraint": null, "activation": "relu", "units": 1}, "inbound_nodes": [[["dense_23", 0, 0, {}]]], "name": "dense_24"}, {"class_name": "InputLayer", "config": {"batch_input_shape": [null, 1], "dtype": "float32", "sparse": false, "name": "OnOff_D1"}, "inbound_nodes": [], "name": "OnOff_D1"}, {"class_name": "Dense", "config": {"use_bias": true, "kernel_initializer": {"class_name": "VarianceScaling", "config": {"distribution": "normal", "mode": "fan_avg", "scale": 1.0, "seed": 9035}}, "bias_constraint": null, "name": "dense_28", "kernel_regularizer": {"class_name": "L1L2", "config": {"l2": 9.999999747378752e-06, "l1": 0.0}}, "trainable": true, "activity_regularizer": null, "bias_regularizer": null, "bias_initializer": {"class_name": "Zeros", "config": {}}, "kernel_constraint": null, "activation": "relu", "units": 1}, "inbound_nodes": [[["dense_27", 0, 0, {}]]], "name": "dense_28"}, {"class_name": "Multiply", "config": {"trainable": true, "name": "C1_out"}, "inbound_nodes": [[["OnOff_C1", 0, 0, {}], ["dense_4", 0, 0, {}]]], "name": "C1_out"}, {"class_name": "Multiply", "config": {"trainable": true, "name": "C2_out"}, "inbound_nodes": [[["OnOff_C2", 0, 0, {}], ["dense_8", 0, 0, {}]]], "name": "C2_out"}, {"class_name": "Multiply", "config": {"trainable": true, "name": "C3_out"}, "inbound_nodes": [[["OnOff_C3", 0, 0, {}], ["dense_12", 0, 0, {}]]], "name": "C3_out"}, {"class_name": "Multiply", "config": {"trainable": true, "name": "C4_out"}, "inbound_nodes": [[["OnOff_C4", 0, 0, {}], ["dense_16", 0, 0, {}]]], "name": "C4_out"}, {"class_name": "Multiply", "config": {"trainable": true, "name": "B1_out"}, "inbound_nodes": [[["OnOff_B1", 0, 0, {}], ["dense_20", 0, 0, {}]]], "name": "B1_out"}, {"class_name": "Multiply", "config": {"trainable": true, "name": "B3_out"}, "inbound_nodes": [[["OnOff_B3", 0, 0, {}], ["dense_24", 0, 0, {}]]], "name": "B3_out"}, {"class_name": "Multiply", "config": {"trainable": true, "name": "D1_out"}, "inbound_nodes": [[["OnOff_D1", 0, 0, {}], ["dense_28", 0, 0, {}]]], "name": "D1_out"}, {"class_name": "Add", "config": {"trainable": true, "name": "GJOA_TOTAL"}, "inbound_nodes": [[["C1_out", 0, 0, {}], ["C2_out", 0, 0, {}], ["C3_out", 0, 0, {}], ["C4_out", 0, 0, {}], ["B1_out", 0, 0, {}], ["B3_out", 0, 0, {}], ["D1_out", 0, 0, {}]]], "name": "GJOA_TOTAL"}], "input_layers": [["C1", 0, 0], ["C2", 0, 0], ["C3", 0, 0], ["C4", 0, 0], ["B1", 0, 0], ["B3", 0, 0], ["D1", 0, 0], ["OnOff_C1", 0, 0], ["OnOff_C2", 0, 0], ["OnOff_C3", 0, 0], ["OnOff_C4", 0, 0], ["OnOff_B1", 0, 0], ["OnOff_B3", 0, 0], ["OnOff_D1", 0, 0]], "output_layers": [["C1_out", 0, 0], ["C2_out", 0, 0], ["C3_out", 0, 0], ["C4_out", 0, 0], ["B1_out", 0, 0], ["B3_out", 0, 0], ["D1_out", 0, 0], ["GJOA_TOTAL", 0, 0]], "name": "model_1"}, "backend": "theano", "keras_version": "2.0.1"}