{"backend": "theano", "config": {"layers": [{"inbound_nodes": [], "config": {"dtype": "float32", "batch_input_shape": [null, 4], "name": "F1", "sparse": false}, "name": "F1", "class_name": "InputLayer"}, {"inbound_nodes": [], "config": {"dtype": "float32", "batch_input_shape": [null, 4], "name": "B2", "sparse": false}, "name": "B2", "class_name": "InputLayer"}, {"inbound_nodes": [], "config": {"dtype": "float32", "batch_input_shape": [null, 4], "name": "D3", "sparse": false}, "name": "D3", "class_name": "InputLayer"}, {"inbound_nodes": [], "config": {"dtype": "float32", "batch_input_shape": [null, 4], "name": "E1", "sparse": false}, "name": "E1", "class_name": "InputLayer"}, {"inbound_nodes": [[["F1", 0, 0, {}]]], "config": {"use_bias": true, "kernel_constraint": null, "activation": "relu", "name": "dense_1", "activity_regularizer": null, "units": 50, "kernel_initializer": {"config": {"seed": 9035, "scale": 1.0, "mode": "fan_avg", "distribution": "normal"}, "class_name": "VarianceScaling"}, "bias_regularizer": null, "bias_constraint": null, "bias_initializer": {"config": {}, "class_name": "Zeros"}, "kernel_regularizer": {"config": {"l2": 9.999999747378752e-06, "l1": 0.0}, "class_name": "L1L2"}, "trainable": true}, "name": "dense_1", "class_name": "Dense"}, {"inbound_nodes": [[["B2", 0, 0, {}]]], "config": {"use_bias": true, "kernel_constraint": null, "activation": "relu", "name": "dense_4", "activity_regularizer": null, "units": 50, "kernel_initializer": {"config": {"seed": 9035, "scale": 1.0, "mode": "fan_avg", "distribution": "normal"}, "class_name": "VarianceScaling"}, "bias_regularizer": null, "bias_constraint": null, "bias_initializer": {"config": {}, "class_name": "Zeros"}, "kernel_regularizer": {"config": {"l2": 9.999999747378752e-06, "l1": 0.0}, "class_name": "L1L2"}, "trainable": true}, "name": "dense_4", "class_name": "Dense"}, {"inbound_nodes": [[["D3", 0, 0, {}]]], "config": {"use_bias": true, "kernel_constraint": null, "activation": "relu", "name": "dense_7", "activity_regularizer": null, "units": 50, "kernel_initializer": {"config": {"seed": 9035, "scale": 1.0, "mode": "fan_avg", "distribution": "normal"}, "class_name": "VarianceScaling"}, "bias_regularizer": null, "bias_constraint": null, "bias_initializer": {"config": {}, "class_name": "Zeros"}, "kernel_regularizer": {"config": {"l2": 9.999999747378752e-06, "l1": 0.0}, "class_name": "L1L2"}, "trainable": true}, "name": "dense_7", "class_name": "Dense"}, {"inbound_nodes": [[["E1", 0, 0, {}]]], "config": {"use_bias": true, "kernel_constraint": null, "activation": "relu", "name": "dense_10", "activity_regularizer": null, "units": 50, "kernel_initializer": {"config": {"seed": 9035, "scale": 1.0, "mode": "fan_avg", "distribution": "normal"}, "class_name": "VarianceScaling"}, "bias_regularizer": null, "bias_constraint": null, "bias_initializer": {"config": {}, "class_name": "Zeros"}, "kernel_regularizer": {"config": {"l2": 9.999999747378752e-06, "l1": 0.0}, "class_name": "L1L2"}, "trainable": true}, "name": "dense_10", "class_name": "Dense"}, {"inbound_nodes": [[["dense_1", 0, 0, {}]]], "config": {"use_bias": true, "kernel_constraint": null, "activation": "relu", "name": "dense_2", "activity_regularizer": null, "units": 50, "kernel_initializer": {"config": {"seed": 9035, "scale": 1.0, "mode": "fan_avg", "distribution": "normal"}, "class_name": "VarianceScaling"}, "bias_regularizer": null, "bias_constraint": null, "bias_initializer": {"config": {}, "class_name": "Zeros"}, "kernel_regularizer": {"config": {"l2": 9.999999747378752e-06, "l1": 0.0}, "class_name": "L1L2"}, "trainable": true}, "name": "dense_2", "class_name": "Dense"}, {"inbound_nodes": [[["dense_4", 0, 0, {}]]], "config": {"use_bias": true, "kernel_constraint": null, "activation": "relu", "name": "dense_5", "activity_regularizer": null, "units": 50, "kernel_initializer": {"config": {"seed": 9035, "scale": 1.0, "mode": "fan_avg", "distribution": "normal"}, "class_name": "VarianceScaling"}, "bias_regularizer": null, "bias_constraint": null, "bias_initializer": {"config": {}, "class_name": "Zeros"}, "kernel_regularizer": {"config": {"l2": 9.999999747378752e-06, "l1": 0.0}, "class_name": "L1L2"}, "trainable": true}, "name": "dense_5", "class_name": "Dense"}, {"inbound_nodes": [[["dense_7", 0, 0, {}]]], "config": {"use_bias": true, "kernel_constraint": null, "activation": "relu", "name": "dense_8", "activity_regularizer": null, "units": 50, "kernel_initializer": {"config": {"seed": 9035, "scale": 1.0, "mode": "fan_avg", "distribution": "normal"}, "class_name": "VarianceScaling"}, "bias_regularizer": null, "bias_constraint": null, "bias_initializer": {"config": {}, "class_name": "Zeros"}, "kernel_regularizer": {"config": {"l2": 9.999999747378752e-06, "l1": 0.0}, "class_name": "L1L2"}, "trainable": true}, "name": "dense_8", "class_name": "Dense"}, {"inbound_nodes": [[["dense_10", 0, 0, {}]]], "config": {"use_bias": true, "kernel_constraint": null, "activation": "relu", "name": "dense_11", "activity_regularizer": null, "units": 50, "kernel_initializer": {"config": {"seed": 9035, "scale": 1.0, "mode": "fan_avg", "distribution": "normal"}, "class_name": "VarianceScaling"}, "bias_regularizer": null, "bias_constraint": null, "bias_initializer": {"config": {}, "class_name": "Zeros"}, "kernel_regularizer": {"config": {"l2": 9.999999747378752e-06, "l1": 0.0}, "class_name": "L1L2"}, "trainable": true}, "name": "dense_11", "class_name": "Dense"}, {"inbound_nodes": [], "config": {"dtype": "float32", "batch_input_shape": [null, 1], "name": "OnOff_F1", "sparse": false}, "name": "OnOff_F1", "class_name": "InputLayer"}, {"inbound_nodes": [[["dense_2", 0, 0, {}]]], "config": {"use_bias": true, "kernel_constraint": null, "activation": "relu", "name": "dense_3", "activity_regularizer": null, "units": 1, "kernel_initializer": {"config": {"seed": 9035, "scale": 1.0, "mode": "fan_avg", "distribution": "normal"}, "class_name": "VarianceScaling"}, "bias_regularizer": null, "bias_constraint": null, "bias_initializer": {"config": {}, "class_name": "Zeros"}, "kernel_regularizer": {"config": {"l2": 9.999999747378752e-06, "l1": 0.0}, "class_name": "L1L2"}, "trainable": true}, "name": "dense_3", "class_name": "Dense"}, {"inbound_nodes": [], "config": {"dtype": "float32", "batch_input_shape": [null, 1], "name": "OnOff_B2", "sparse": false}, "name": "OnOff_B2", "class_name": "InputLayer"}, {"inbound_nodes": [[["dense_5", 0, 0, {}]]], "config": {"use_bias": true, "kernel_constraint": null, "activation": "relu", "name": "dense_6", "activity_regularizer": null, "units": 1, "kernel_initializer": {"config": {"seed": 9035, "scale": 1.0, "mode": "fan_avg", "distribution": "normal"}, "class_name": "VarianceScaling"}, "bias_regularizer": null, "bias_constraint": null, "bias_initializer": {"config": {}, "class_name": "Zeros"}, "kernel_regularizer": {"config": {"l2": 9.999999747378752e-06, "l1": 0.0}, "class_name": "L1L2"}, "trainable": true}, "name": "dense_6", "class_name": "Dense"}, {"inbound_nodes": [], "config": {"dtype": "float32", "batch_input_shape": [null, 1], "name": "OnOff_D3", "sparse": false}, "name": "OnOff_D3", "class_name": "InputLayer"}, {"inbound_nodes": [[["dense_8", 0, 0, {}]]], "config": {"use_bias": true, "kernel_constraint": null, "activation": "relu", "name": "dense_9", "activity_regularizer": null, "units": 1, "kernel_initializer": {"config": {"seed": 9035, "scale": 1.0, "mode": "fan_avg", "distribution": "normal"}, "class_name": "VarianceScaling"}, "bias_regularizer": null, "bias_constraint": null, "bias_initializer": {"config": {}, "class_name": "Zeros"}, "kernel_regularizer": {"config": {"l2": 9.999999747378752e-06, "l1": 0.0}, "class_name": "L1L2"}, "trainable": true}, "name": "dense_9", "class_name": "Dense"}, {"inbound_nodes": [], "config": {"dtype": "float32", "batch_input_shape": [null, 1], "name": "OnOff_E1", "sparse": false}, "name": "OnOff_E1", "class_name": "InputLayer"}, {"inbound_nodes": [[["dense_11", 0, 0, {}]]], "config": {"use_bias": true, "kernel_constraint": null, "activation": "relu", "name": "dense_12", "activity_regularizer": null, "units": 1, "kernel_initializer": {"config": {"seed": 9035, "scale": 1.0, "mode": "fan_avg", "distribution": "normal"}, "class_name": "VarianceScaling"}, "bias_regularizer": null, "bias_constraint": null, "bias_initializer": {"config": {}, "class_name": "Zeros"}, "kernel_regularizer": {"config": {"l2": 9.999999747378752e-06, "l1": 0.0}, "class_name": "L1L2"}, "trainable": true}, "name": "dense_12", "class_name": "Dense"}, {"inbound_nodes": [[["OnOff_F1", 0, 0, {}], ["dense_3", 0, 0, {}]]], "config": {"name": "F1_out", "trainable": true}, "name": "F1_out", "class_name": "Multiply"}, {"inbound_nodes": [[["OnOff_B2", 0, 0, {}], ["dense_6", 0, 0, {}]]], "config": {"name": "B2_out", "trainable": true}, "name": "B2_out", "class_name": "Multiply"}, {"inbound_nodes": [[["OnOff_D3", 0, 0, {}], ["dense_9", 0, 0, {}]]], "config": {"name": "D3_out", "trainable": true}, "name": "D3_out", "class_name": "Multiply"}, {"inbound_nodes": [[["OnOff_E1", 0, 0, {}], ["dense_12", 0, 0, {}]]], "config": {"name": "E1_out", "trainable": true}, "name": "E1_out", "class_name": "Multiply"}, {"inbound_nodes": [[["F1_out", 0, 0, {}], ["B2_out", 0, 0, {}], ["D3_out", 0, 0, {}], ["E1_out", 0, 0, {}]]], "config": {"name": "GJOA_QGAS", "trainable": true}, "name": "GJOA_QGAS", "class_name": "Add"}], "output_layers": [["F1_out", 0, 0], ["B2_out", 0, 0], ["D3_out", 0, 0], ["E1_out", 0, 0], ["GJOA_QGAS", 0, 0]], "input_layers": [["F1", 0, 0], ["B2", 0, 0], ["D3", 0, 0], ["E1", 0, 0], ["OnOff_F1", 0, 0], ["OnOff_B2", 0, 0], ["OnOff_D3", 0, 0], ["OnOff_E1", 0, 0]], "name": "model_1"}, "class_name": "Model", "keras_version": "2.0.1"}