{"class_name": "Model", "backend": "theano", "config": {"input_layers": [["C1", 0, 0], ["C2", 0, 0], ["C3", 0, 0], ["C4", 0, 0], ["B1", 0, 0], ["B3", 0, 0], ["D1", 0, 0], ["OnOff_C1", 0, 0], ["OnOff_C2", 0, 0], ["OnOff_C3", 0, 0], ["OnOff_C4", 0, 0], ["OnOff_B1", 0, 0], ["OnOff_B3", 0, 0], ["OnOff_D1", 0, 0]], "name": "model_1", "output_layers": [["C1_out", 0, 0], ["C2_out", 0, 0], ["C3_out", 0, 0], ["C4_out", 0, 0], ["B1_out", 0, 0], ["B3_out", 0, 0], ["D1_out", 0, 0], ["GJOA_TOTAL", 0, 0]], "layers": [{"name": "C1", "class_name": "InputLayer", "config": {"name": "C1", "batch_input_shape": [null, 4], "sparse": false, "dtype": "float32"}, "inbound_nodes": []}, {"name": "C2", "class_name": "InputLayer", "config": {"name": "C2", "batch_input_shape": [null, 3], "sparse": false, "dtype": "float32"}, "inbound_nodes": []}, {"name": "C3", "class_name": "InputLayer", "config": {"name": "C3", "batch_input_shape": [null, 4], "sparse": false, "dtype": "float32"}, "inbound_nodes": []}, {"name": "C4", "class_name": "InputLayer", "config": {"name": "C4", "batch_input_shape": [null, 4], "sparse": false, "dtype": "float32"}, "inbound_nodes": []}, {"name": "B1", "class_name": "InputLayer", "config": {"name": "B1", "batch_input_shape": [null, 4], "sparse": false, "dtype": "float32"}, "inbound_nodes": []}, {"name": "B3", "class_name": "InputLayer", "config": {"name": "B3", "batch_input_shape": [null, 4], "sparse": false, "dtype": "float32"}, "inbound_nodes": []}, {"name": "D1", "class_name": "InputLayer", "config": {"name": "D1", "batch_input_shape": [null, 3], "sparse": false, "dtype": "float32"}, "inbound_nodes": []}, {"name": "dense_1", "class_name": "Dense", "config": {"activity_regularizer": null, "kernel_initializer": {"class_name": "VarianceScaling", "config": {"seed": 9035, "scale": 1.0, "distribution": "normal", "mode": "fan_avg"}}, "bias_constraint": null, "units": 50, "kernel_constraint": null, "use_bias": true, "trainable": true, "name": "dense_1", "activation": "relu", "kernel_regularizer": {"class_name": "L1L2", "config": {"l2": 0.0005000000237487257, "l1": 0.0}}, "bias_initializer": {"class_name": "Zeros", "config": {}}, "bias_regularizer": null}, "inbound_nodes": [[["C1", 0, 0, {}]]]}, {"name": "dense_4", "class_name": "Dense", "config": {"activity_regularizer": null, "kernel_initializer": {"class_name": "VarianceScaling", "config": {"seed": 9035, "scale": 1.0, "distribution": "normal", "mode": "fan_avg"}}, "bias_constraint": null, "units": 50, "kernel_constraint": null, "use_bias": true, "trainable": true, "name": "dense_4", "activation": "relu", "kernel_regularizer": {"class_name": "L1L2", "config": {"l2": 0.0005000000237487257, "l1": 0.0}}, "bias_initializer": {"class_name": "Zeros", "config": {}}, "bias_regularizer": null}, "inbound_nodes": [[["C2", 0, 0, {}]]]}, {"name": "dense_7", "class_name": "Dense", "config": {"activity_regularizer": null, "kernel_initializer": {"class_name": "VarianceScaling", "config": {"seed": 9035, "scale": 1.0, "distribution": "normal", "mode": "fan_avg"}}, "bias_constraint": null, "units": 50, "kernel_constraint": null, "use_bias": true, "trainable": true, "name": "dense_7", "activation": "relu", "kernel_regularizer": {"class_name": "L1L2", "config": {"l2": 0.0005000000237487257, "l1": 0.0}}, "bias_initializer": {"class_name": "Zeros", "config": {}}, "bias_regularizer": null}, "inbound_nodes": [[["C3", 0, 0, {}]]]}, {"name": "dense_10", "class_name": "Dense", "config": {"activity_regularizer": null, "kernel_initializer": {"class_name": "VarianceScaling", "config": {"seed": 9035, "scale": 1.0, "distribution": "normal", "mode": "fan_avg"}}, "bias_constraint": null, "units": 50, "kernel_constraint": null, "use_bias": true, "trainable": true, "name": "dense_10", "activation": "relu", "kernel_regularizer": {"class_name": "L1L2", "config": {"l2": 0.0005000000237487257, "l1": 0.0}}, "bias_initializer": {"class_name": "Zeros", "config": {}}, "bias_regularizer": null}, "inbound_nodes": [[["C4", 0, 0, {}]]]}, {"name": "dense_13", "class_name": "Dense", "config": {"activity_regularizer": null, "kernel_initializer": {"class_name": "VarianceScaling", "config": {"seed": 9035, "scale": 1.0, "distribution": "normal", "mode": "fan_avg"}}, "bias_constraint": null, "units": 50, "kernel_constraint": null, "use_bias": true, "trainable": true, "name": "dense_13", "activation": "relu", "kernel_regularizer": {"class_name": "L1L2", "config": {"l2": 0.0005000000237487257, "l1": 0.0}}, "bias_initializer": {"class_name": "Zeros", "config": {}}, "bias_regularizer": null}, "inbound_nodes": [[["B1", 0, 0, {}]]]}, {"name": "dense_16", "class_name": "Dense", "config": {"activity_regularizer": null, "kernel_initializer": {"class_name": "VarianceScaling", "config": {"seed": 9035, "scale": 1.0, "distribution": "normal", "mode": "fan_avg"}}, "bias_constraint": null, "units": 50, "kernel_constraint": null, "use_bias": true, "trainable": true, "name": "dense_16", "activation": "relu", "kernel_regularizer": {"class_name": "L1L2", "config": {"l2": 0.0005000000237487257, "l1": 0.0}}, "bias_initializer": {"class_name": "Zeros", "config": {}}, "bias_regularizer": null}, "inbound_nodes": [[["B3", 0, 0, {}]]]}, {"name": "dense_19", "class_name": "Dense", "config": {"activity_regularizer": null, "kernel_initializer": {"class_name": "VarianceScaling", "config": {"seed": 9035, "scale": 1.0, "distribution": "normal", "mode": "fan_avg"}}, "bias_constraint": null, "units": 50, "kernel_constraint": null, "use_bias": true, "trainable": true, "name": "dense_19", "activation": "relu", "kernel_regularizer": {"class_name": "L1L2", "config": {"l2": 0.0005000000237487257, "l1": 0.0}}, "bias_initializer": {"class_name": "Zeros", "config": {}}, "bias_regularizer": null}, "inbound_nodes": [[["D1", 0, 0, {}]]]}, {"name": "dense_2", "class_name": "Dense", "config": {"activity_regularizer": null, "kernel_initializer": {"class_name": "VarianceScaling", "config": {"seed": 9035, "scale": 1.0, "distribution": "normal", "mode": "fan_avg"}}, "bias_constraint": null, "units": 50, "kernel_constraint": null, "use_bias": true, "trainable": true, "name": "dense_2", "activation": "relu", "kernel_regularizer": {"class_name": "L1L2", "config": {"l2": 0.0005000000237487257, "l1": 0.0}}, "bias_initializer": {"class_name": "Zeros", "config": {}}, "bias_regularizer": null}, "inbound_nodes": [[["dense_1", 0, 0, {}]]]}, {"name": "dense_5", "class_name": "Dense", "config": {"activity_regularizer": null, "kernel_initializer": {"class_name": "VarianceScaling", "config": {"seed": 9035, "scale": 1.0, "distribution": "normal", "mode": "fan_avg"}}, "bias_constraint": null, "units": 50, "kernel_constraint": null, "use_bias": true, "trainable": true, "name": "dense_5", "activation": "relu", "kernel_regularizer": {"class_name": "L1L2", "config": {"l2": 0.0005000000237487257, "l1": 0.0}}, "bias_initializer": {"class_name": "Zeros", "config": {}}, "bias_regularizer": null}, "inbound_nodes": [[["dense_4", 0, 0, {}]]]}, {"name": "dense_8", "class_name": "Dense", "config": {"activity_regularizer": null, "kernel_initializer": {"class_name": "VarianceScaling", "config": {"seed": 9035, "scale": 1.0, "distribution": "normal", "mode": "fan_avg"}}, "bias_constraint": null, "units": 50, "kernel_constraint": null, "use_bias": true, "trainable": true, "name": "dense_8", "activation": "relu", "kernel_regularizer": {"class_name": "L1L2", "config": {"l2": 0.0005000000237487257, "l1": 0.0}}, "bias_initializer": {"class_name": "Zeros", "config": {}}, "bias_regularizer": null}, "inbound_nodes": [[["dense_7", 0, 0, {}]]]}, {"name": "dense_11", "class_name": "Dense", "config": {"activity_regularizer": null, "kernel_initializer": {"class_name": "VarianceScaling", "config": {"seed": 9035, "scale": 1.0, "distribution": "normal", "mode": "fan_avg"}}, "bias_constraint": null, "units": 50, "kernel_constraint": null, "use_bias": true, "trainable": true, "name": "dense_11", "activation": "relu", "kernel_regularizer": {"class_name": "L1L2", "config": {"l2": 0.0005000000237487257, "l1": 0.0}}, "bias_initializer": {"class_name": "Zeros", "config": {}}, "bias_regularizer": null}, "inbound_nodes": [[["dense_10", 0, 0, {}]]]}, {"name": "dense_14", "class_name": "Dense", "config": {"activity_regularizer": null, "kernel_initializer": {"class_name": "VarianceScaling", "config": {"seed": 9035, "scale": 1.0, "distribution": "normal", "mode": "fan_avg"}}, "bias_constraint": null, "units": 50, "kernel_constraint": null, "use_bias": true, "trainable": true, "name": "dense_14", "activation": "relu", "kernel_regularizer": {"class_name": "L1L2", "config": {"l2": 0.0005000000237487257, "l1": 0.0}}, "bias_initializer": {"class_name": "Zeros", "config": {}}, "bias_regularizer": null}, "inbound_nodes": [[["dense_13", 0, 0, {}]]]}, {"name": "dense_17", "class_name": "Dense", "config": {"activity_regularizer": null, "kernel_initializer": {"class_name": "VarianceScaling", "config": {"seed": 9035, "scale": 1.0, "distribution": "normal", "mode": "fan_avg"}}, "bias_constraint": null, "units": 50, "kernel_constraint": null, "use_bias": true, "trainable": true, "name": "dense_17", "activation": "relu", "kernel_regularizer": {"class_name": "L1L2", "config": {"l2": 0.0005000000237487257, "l1": 0.0}}, "bias_initializer": {"class_name": "Zeros", "config": {}}, "bias_regularizer": null}, "inbound_nodes": [[["dense_16", 0, 0, {}]]]}, {"name": "dense_20", "class_name": "Dense", "config": {"activity_regularizer": null, "kernel_initializer": {"class_name": "VarianceScaling", "config": {"seed": 9035, "scale": 1.0, "distribution": "normal", "mode": "fan_avg"}}, "bias_constraint": null, "units": 50, "kernel_constraint": null, "use_bias": true, "trainable": true, "name": "dense_20", "activation": "relu", "kernel_regularizer": {"class_name": "L1L2", "config": {"l2": 0.0005000000237487257, "l1": 0.0}}, "bias_initializer": {"class_name": "Zeros", "config": {}}, "bias_regularizer": null}, "inbound_nodes": [[["dense_19", 0, 0, {}]]]}, {"name": "OnOff_C1", "class_name": "InputLayer", "config": {"name": "OnOff_C1", "batch_input_shape": [null, 1], "sparse": false, "dtype": "float32"}, "inbound_nodes": []}, {"name": "dense_3", "class_name": "Dense", "config": {"activity_regularizer": null, "kernel_initializer": {"class_name": "VarianceScaling", "config": {"seed": 9035, "scale": 1.0, "distribution": "normal", "mode": "fan_avg"}}, "bias_constraint": null, "units": 1, "kernel_constraint": null, "use_bias": true, "trainable": true, "name": "dense_3", "activation": "relu", "kernel_regularizer": {"class_name": "L1L2", "config": {"l2": 0.0005000000237487257, "l1": 0.0}}, "bias_initializer": {"class_name": "Zeros", "config": {}}, "bias_regularizer": null}, "inbound_nodes": [[["dense_2", 0, 0, {}]]]}, {"name": "OnOff_C2", "class_name": "InputLayer", "config": {"name": "OnOff_C2", "batch_input_shape": [null, 1], "sparse": false, "dtype": "float32"}, "inbound_nodes": []}, {"name": "dense_6", "class_name": "Dense", "config": {"activity_regularizer": null, "kernel_initializer": {"class_name": "VarianceScaling", "config": {"seed": 9035, "scale": 1.0, "distribution": "normal", "mode": "fan_avg"}}, "bias_constraint": null, "units": 1, "kernel_constraint": null, "use_bias": true, "trainable": true, "name": "dense_6", "activation": "relu", "kernel_regularizer": {"class_name": "L1L2", "config": {"l2": 0.0005000000237487257, "l1": 0.0}}, "bias_initializer": {"class_name": "Zeros", "config": {}}, "bias_regularizer": null}, "inbound_nodes": [[["dense_5", 0, 0, {}]]]}, {"name": "OnOff_C3", "class_name": "InputLayer", "config": {"name": "OnOff_C3", "batch_input_shape": [null, 1], "sparse": false, "dtype": "float32"}, "inbound_nodes": []}, {"name": "dense_9", "class_name": "Dense", "config": {"activity_regularizer": null, "kernel_initializer": {"class_name": "VarianceScaling", "config": {"seed": 9035, "scale": 1.0, "distribution": "normal", "mode": "fan_avg"}}, "bias_constraint": null, "units": 1, "kernel_constraint": null, "use_bias": true, "trainable": true, "name": "dense_9", "activation": "relu", "kernel_regularizer": {"class_name": "L1L2", "config": {"l2": 0.0005000000237487257, "l1": 0.0}}, "bias_initializer": {"class_name": "Zeros", "config": {}}, "bias_regularizer": null}, "inbound_nodes": [[["dense_8", 0, 0, {}]]]}, {"name": "OnOff_C4", "class_name": "InputLayer", "config": {"name": "OnOff_C4", "batch_input_shape": [null, 1], "sparse": false, "dtype": "float32"}, "inbound_nodes": []}, {"name": "dense_12", "class_name": "Dense", "config": {"activity_regularizer": null, "kernel_initializer": {"class_name": "VarianceScaling", "config": {"seed": 9035, "scale": 1.0, "distribution": "normal", "mode": "fan_avg"}}, "bias_constraint": null, "units": 1, "kernel_constraint": null, "use_bias": true, "trainable": true, "name": "dense_12", "activation": "relu", "kernel_regularizer": {"class_name": "L1L2", "config": {"l2": 0.0005000000237487257, "l1": 0.0}}, "bias_initializer": {"class_name": "Zeros", "config": {}}, "bias_regularizer": null}, "inbound_nodes": [[["dense_11", 0, 0, {}]]]}, {"name": "OnOff_B1", "class_name": "InputLayer", "config": {"name": "OnOff_B1", "batch_input_shape": [null, 1], "sparse": false, "dtype": "float32"}, "inbound_nodes": []}, {"name": "dense_15", "class_name": "Dense", "config": {"activity_regularizer": null, "kernel_initializer": {"class_name": "VarianceScaling", "config": {"seed": 9035, "scale": 1.0, "distribution": "normal", "mode": "fan_avg"}}, "bias_constraint": null, "units": 1, "kernel_constraint": null, "use_bias": true, "trainable": true, "name": "dense_15", "activation": "relu", "kernel_regularizer": {"class_name": "L1L2", "config": {"l2": 0.0005000000237487257, "l1": 0.0}}, "bias_initializer": {"class_name": "Zeros", "config": {}}, "bias_regularizer": null}, "inbound_nodes": [[["dense_14", 0, 0, {}]]]}, {"name": "OnOff_B3", "class_name": "InputLayer", "config": {"name": "OnOff_B3", "batch_input_shape": [null, 1], "sparse": false, "dtype": "float32"}, "inbound_nodes": []}, {"name": "dense_18", "class_name": "Dense", "config": {"activity_regularizer": null, "kernel_initializer": {"class_name": "VarianceScaling", "config": {"seed": 9035, "scale": 1.0, "distribution": "normal", "mode": "fan_avg"}}, "bias_constraint": null, "units": 1, "kernel_constraint": null, "use_bias": true, "trainable": true, "name": "dense_18", "activation": "relu", "kernel_regularizer": {"class_name": "L1L2", "config": {"l2": 0.0005000000237487257, "l1": 0.0}}, "bias_initializer": {"class_name": "Zeros", "config": {}}, "bias_regularizer": null}, "inbound_nodes": [[["dense_17", 0, 0, {}]]]}, {"name": "OnOff_D1", "class_name": "InputLayer", "config": {"name": "OnOff_D1", "batch_input_shape": [null, 1], "sparse": false, "dtype": "float32"}, "inbound_nodes": []}, {"name": "dense_21", "class_name": "Dense", "config": {"activity_regularizer": null, "kernel_initializer": {"class_name": "VarianceScaling", "config": {"seed": 9035, "scale": 1.0, "distribution": "normal", "mode": "fan_avg"}}, "bias_constraint": null, "units": 1, "kernel_constraint": null, "use_bias": true, "trainable": true, "name": "dense_21", "activation": "relu", "kernel_regularizer": {"class_name": "L1L2", "config": {"l2": 0.0005000000237487257, "l1": 0.0}}, "bias_initializer": {"class_name": "Zeros", "config": {}}, "bias_regularizer": null}, "inbound_nodes": [[["dense_20", 0, 0, {}]]]}, {"name": "C1_out", "class_name": "Multiply", "config": {"name": "C1_out", "trainable": true}, "inbound_nodes": [[["OnOff_C1", 0, 0, {}], ["dense_3", 0, 0, {}]]]}, {"name": "C2_out", "class_name": "Multiply", "config": {"name": "C2_out", "trainable": true}, "inbound_nodes": [[["OnOff_C2", 0, 0, {}], ["dense_6", 0, 0, {}]]]}, {"name": "C3_out", "class_name": "Multiply", "config": {"name": "C3_out", "trainable": true}, "inbound_nodes": [[["OnOff_C3", 0, 0, {}], ["dense_9", 0, 0, {}]]]}, {"name": "C4_out", "class_name": "Multiply", "config": {"name": "C4_out", "trainable": true}, "inbound_nodes": [[["OnOff_C4", 0, 0, {}], ["dense_12", 0, 0, {}]]]}, {"name": "B1_out", "class_name": "Multiply", "config": {"name": "B1_out", "trainable": true}, "inbound_nodes": [[["OnOff_B1", 0, 0, {}], ["dense_15", 0, 0, {}]]]}, {"name": "B3_out", "class_name": "Multiply", "config": {"name": "B3_out", "trainable": true}, "inbound_nodes": [[["OnOff_B3", 0, 0, {}], ["dense_18", 0, 0, {}]]]}, {"name": "D1_out", "class_name": "Multiply", "config": {"name": "D1_out", "trainable": true}, "inbound_nodes": [[["OnOff_D1", 0, 0, {}], ["dense_21", 0, 0, {}]]]}, {"name": "GJOA_TOTAL", "class_name": "Add", "config": {"name": "GJOA_TOTAL", "trainable": true}, "inbound_nodes": [[["C1_out", 0, 0, {}], ["C2_out", 0, 0, {}], ["C3_out", 0, 0, {}], ["C4_out", 0, 0, {}], ["B1_out", 0, 0, {}], ["B3_out", 0, 0, {}], ["D1_out", 0, 0, {}]]]}]}, "keras_version": "2.0.1"}