{"keras_version": "2.0.1", "class_name": "Model", "config": {"name": "model_1", "input_layers": [["CHK_INPUT_NOW", 0, 0], ["CHK_INPUT_PREV", 0, 0], ["SHIFTED_PRESSURE_PWH_C1", 0, 0], ["SHIFTED_PRESSURE_PWH_C2", 0, 0], ["SHIFTED_PRESSURE_PWH_C3", 0, 0], ["SHIFTED_PRESSURE_PWH_C4", 0, 0], ["SHIFTED_PRESSURE_PWH_B3", 0, 0], ["SHIFTED_PRESSURE_PWH_B1", 0, 0], ["SHIFTED_PRESSURE_PWH_D1", 0, 0]], "layers": [{"name": "CHK_INPUT_PREV", "class_name": "InputLayer", "config": {"batch_input_shape": [null, 7], "name": "CHK_INPUT_PREV", "dtype": "float32", "sparse": false}, "inbound_nodes": []}, {"name": "CHK_INPUT_NOW", "class_name": "InputLayer", "config": {"batch_input_shape": [null, 7], "name": "CHK_INPUT_NOW", "dtype": "float32", "sparse": false}, "inbound_nodes": []}, {"name": "CHK_DELTA", "class_name": "Add", "config": {"name": "CHK_DELTA", "trainable": true}, "inbound_nodes": [[["CHK_INPUT_PREV", 0, 0, {}], ["CHK_INPUT_NOW", 0, 0, {}]]]}, {"name": "C1_PWH_0", "class_name": "Dense", "config": {"bias_constraint": null, "name": "C1_PWH_0", "activation": "relu", "bias_regularizer": null, "trainable": true, "kernel_constraint": null, "bias_initializer": {"class_name": "Zeros", "config": {}}, "units": 50, "kernel_regularizer": {"class_name": "L1L2", "config": {"l2": 9.999999747378752e-05, "l1": 0.0}}, "kernel_initializer": {"class_name": "VarianceScaling", "config": {"scale": 1.0, "mode": "fan_avg", "distribution": "normal", "seed": 3014}}, "use_bias": true, "activity_regularizer": null}, "inbound_nodes": [[["CHK_DELTA", 0, 0, {}]]]}, {"name": "C2_PWH_0", "class_name": "Dense", "config": {"bias_constraint": null, "name": "C2_PWH_0", "activation": "relu", "bias_regularizer": null, "trainable": true, "kernel_constraint": null, "bias_initializer": {"class_name": "Zeros", "config": {}}, "units": 50, "kernel_regularizer": {"class_name": "L1L2", "config": {"l2": 9.999999747378752e-05, "l1": 0.0}}, "kernel_initializer": {"class_name": "VarianceScaling", "config": {"scale": 1.0, "mode": "fan_avg", "distribution": "normal", "seed": 3014}}, "use_bias": true, "activity_regularizer": null}, "inbound_nodes": [[["CHK_DELTA", 0, 0, {}]]]}, {"name": "C3_PWH_0", "class_name": "Dense", "config": {"bias_constraint": null, "name": "C3_PWH_0", "activation": "relu", "bias_regularizer": null, "trainable": true, "kernel_constraint": null, "bias_initializer": {"class_name": "Zeros", "config": {}}, "units": 50, "kernel_regularizer": {"class_name": "L1L2", "config": {"l2": 9.999999747378752e-05, "l1": 0.0}}, "kernel_initializer": {"class_name": "VarianceScaling", "config": {"scale": 1.0, "mode": "fan_avg", "distribution": "normal", "seed": 3014}}, "use_bias": true, "activity_regularizer": null}, "inbound_nodes": [[["CHK_DELTA", 0, 0, {}]]]}, {"name": "C4_PWH_0", "class_name": "Dense", "config": {"bias_constraint": null, "name": "C4_PWH_0", "activation": "relu", "bias_regularizer": null, "trainable": true, "kernel_constraint": null, "bias_initializer": {"class_name": "Zeros", "config": {}}, "units": 50, "kernel_regularizer": {"class_name": "L1L2", "config": {"l2": 9.999999747378752e-05, "l1": 0.0}}, "kernel_initializer": {"class_name": "VarianceScaling", "config": {"scale": 1.0, "mode": "fan_avg", "distribution": "normal", "seed": 3014}}, "use_bias": true, "activity_regularizer": null}, "inbound_nodes": [[["CHK_DELTA", 0, 0, {}]]]}, {"name": "B3_PWH_0", "class_name": "Dense", "config": {"bias_constraint": null, "name": "B3_PWH_0", "activation": "relu", "bias_regularizer": null, "trainable": true, "kernel_constraint": null, "bias_initializer": {"class_name": "Zeros", "config": {}}, "units": 50, "kernel_regularizer": {"class_name": "L1L2", "config": {"l2": 9.999999747378752e-05, "l1": 0.0}}, "kernel_initializer": {"class_name": "VarianceScaling", "config": {"scale": 1.0, "mode": "fan_avg", "distribution": "normal", "seed": 3014}}, "use_bias": true, "activity_regularizer": null}, "inbound_nodes": [[["CHK_DELTA", 0, 0, {}]]]}, {"name": "B1_PWH_0", "class_name": "Dense", "config": {"bias_constraint": null, "name": "B1_PWH_0", "activation": "relu", "bias_regularizer": null, "trainable": true, "kernel_constraint": null, "bias_initializer": {"class_name": "Zeros", "config": {}}, "units": 50, "kernel_regularizer": {"class_name": "L1L2", "config": {"l2": 9.999999747378752e-05, "l1": 0.0}}, "kernel_initializer": {"class_name": "VarianceScaling", "config": {"scale": 1.0, "mode": "fan_avg", "distribution": "normal", "seed": 3014}}, "use_bias": true, "activity_regularizer": null}, "inbound_nodes": [[["CHK_DELTA", 0, 0, {}]]]}, {"name": "D1_PWH_0", "class_name": "Dense", "config": {"bias_constraint": null, "name": "D1_PWH_0", "activation": "relu", "bias_regularizer": null, "trainable": true, "kernel_constraint": null, "bias_initializer": {"class_name": "Zeros", "config": {}}, "units": 50, "kernel_regularizer": {"class_name": "L1L2", "config": {"l2": 9.999999747378752e-05, "l1": 0.0}}, "kernel_initializer": {"class_name": "VarianceScaling", "config": {"scale": 1.0, "mode": "fan_avg", "distribution": "normal", "seed": 3014}}, "use_bias": true, "activity_regularizer": null}, "inbound_nodes": [[["CHK_DELTA", 0, 0, {}]]]}, {"name": "C1_PWH_out", "class_name": "Dense", "config": {"bias_constraint": null, "name": "C1_PWH_out", "activation": "linear", "bias_regularizer": null, "trainable": true, "kernel_constraint": null, "bias_initializer": {"class_name": "Zeros", "config": {}}, "units": 1, "kernel_regularizer": {"class_name": "L1L2", "config": {"l2": 9.999999747378752e-05, "l1": 0.0}}, "kernel_initializer": {"class_name": "VarianceScaling", "config": {"scale": 1.0, "mode": "fan_avg", "distribution": "normal", "seed": 3014}}, "use_bias": true, "activity_regularizer": null}, "inbound_nodes": [[["C1_PWH_0", 0, 0, {}]]]}, {"name": "SHIFTED_PRESSURE_PWH_C1", "class_name": "InputLayer", "config": {"batch_input_shape": [null, 1], "name": "SHIFTED_PRESSURE_PWH_C1", "dtype": "float32", "sparse": false}, "inbound_nodes": []}, {"name": "C2_PWH_out", "class_name": "Dense", "config": {"bias_constraint": null, "name": "C2_PWH_out", "activation": "linear", "bias_regularizer": null, "trainable": true, "kernel_constraint": null, "bias_initializer": {"class_name": "Zeros", "config": {}}, "units": 1, "kernel_regularizer": {"class_name": "L1L2", "config": {"l2": 9.999999747378752e-05, "l1": 0.0}}, "kernel_initializer": {"class_name": "VarianceScaling", "config": {"scale": 1.0, "mode": "fan_avg", "distribution": "normal", "seed": 3014}}, "use_bias": true, "activity_regularizer": null}, "inbound_nodes": [[["C2_PWH_0", 0, 0, {}]]]}, {"name": "SHIFTED_PRESSURE_PWH_C2", "class_name": "InputLayer", "config": {"batch_input_shape": [null, 1], "name": "SHIFTED_PRESSURE_PWH_C2", "dtype": "float32", "sparse": false}, "inbound_nodes": []}, {"name": "C3_PWH_out", "class_name": "Dense", "config": {"bias_constraint": null, "name": "C3_PWH_out", "activation": "linear", "bias_regularizer": null, "trainable": true, "kernel_constraint": null, "bias_initializer": {"class_name": "Zeros", "config": {}}, "units": 1, "kernel_regularizer": {"class_name": "L1L2", "config": {"l2": 9.999999747378752e-05, "l1": 0.0}}, "kernel_initializer": {"class_name": "VarianceScaling", "config": {"scale": 1.0, "mode": "fan_avg", "distribution": "normal", "seed": 3014}}, "use_bias": true, "activity_regularizer": null}, "inbound_nodes": [[["C3_PWH_0", 0, 0, {}]]]}, {"name": "SHIFTED_PRESSURE_PWH_C3", "class_name": "InputLayer", "config": {"batch_input_shape": [null, 1], "name": "SHIFTED_PRESSURE_PWH_C3", "dtype": "float32", "sparse": false}, "inbound_nodes": []}, {"name": "C4_PWH_out", "class_name": "Dense", "config": {"bias_constraint": null, "name": "C4_PWH_out", "activation": "linear", "bias_regularizer": null, "trainable": true, "kernel_constraint": null, "bias_initializer": {"class_name": "Zeros", "config": {}}, "units": 1, "kernel_regularizer": {"class_name": "L1L2", "config": {"l2": 9.999999747378752e-05, "l1": 0.0}}, "kernel_initializer": {"class_name": "VarianceScaling", "config": {"scale": 1.0, "mode": "fan_avg", "distribution": "normal", "seed": 3014}}, "use_bias": true, "activity_regularizer": null}, "inbound_nodes": [[["C4_PWH_0", 0, 0, {}]]]}, {"name": "SHIFTED_PRESSURE_PWH_C4", "class_name": "InputLayer", "config": {"batch_input_shape": [null, 1], "name": "SHIFTED_PRESSURE_PWH_C4", "dtype": "float32", "sparse": false}, "inbound_nodes": []}, {"name": "B3_PWH_out", "class_name": "Dense", "config": {"bias_constraint": null, "name": "B3_PWH_out", "activation": "linear", "bias_regularizer": null, "trainable": true, "kernel_constraint": null, "bias_initializer": {"class_name": "Zeros", "config": {}}, "units": 1, "kernel_regularizer": {"class_name": "L1L2", "config": {"l2": 9.999999747378752e-05, "l1": 0.0}}, "kernel_initializer": {"class_name": "VarianceScaling", "config": {"scale": 1.0, "mode": "fan_avg", "distribution": "normal", "seed": 3014}}, "use_bias": true, "activity_regularizer": null}, "inbound_nodes": [[["B3_PWH_0", 0, 0, {}]]]}, {"name": "SHIFTED_PRESSURE_PWH_B3", "class_name": "InputLayer", "config": {"batch_input_shape": [null, 1], "name": "SHIFTED_PRESSURE_PWH_B3", "dtype": "float32", "sparse": false}, "inbound_nodes": []}, {"name": "B1_PWH_out", "class_name": "Dense", "config": {"bias_constraint": null, "name": "B1_PWH_out", "activation": "linear", "bias_regularizer": null, "trainable": true, "kernel_constraint": null, "bias_initializer": {"class_name": "Zeros", "config": {}}, "units": 1, "kernel_regularizer": {"class_name": "L1L2", "config": {"l2": 9.999999747378752e-05, "l1": 0.0}}, "kernel_initializer": {"class_name": "VarianceScaling", "config": {"scale": 1.0, "mode": "fan_avg", "distribution": "normal", "seed": 3014}}, "use_bias": true, "activity_regularizer": null}, "inbound_nodes": [[["B1_PWH_0", 0, 0, {}]]]}, {"name": "SHIFTED_PRESSURE_PWH_B1", "class_name": "InputLayer", "config": {"batch_input_shape": [null, 1], "name": "SHIFTED_PRESSURE_PWH_B1", "dtype": "float32", "sparse": false}, "inbound_nodes": []}, {"name": "D1_PWH_out", "class_name": "Dense", "config": {"bias_constraint": null, "name": "D1_PWH_out", "activation": "linear", "bias_regularizer": null, "trainable": true, "kernel_constraint": null, "bias_initializer": {"class_name": "Zeros", "config": {}}, "units": 1, "kernel_regularizer": {"class_name": "L1L2", "config": {"l2": 9.999999747378752e-05, "l1": 0.0}}, "kernel_initializer": {"class_name": "VarianceScaling", "config": {"scale": 1.0, "mode": "fan_avg", "distribution": "normal", "seed": 3014}}, "use_bias": true, "activity_regularizer": null}, "inbound_nodes": [[["D1_PWH_0", 0, 0, {}]]]}, {"name": "SHIFTED_PRESSURE_PWH_D1", "class_name": "InputLayer", "config": {"batch_input_shape": [null, 1], "name": "SHIFTED_PRESSURE_PWH_D1", "dtype": "float32", "sparse": false}, "inbound_nodes": []}, {"name": "C1_PWH_out2", "class_name": "Add", "config": {"name": "C1_PWH_out2", "trainable": true}, "inbound_nodes": [[["C1_PWH_out", 0, 0, {}], ["SHIFTED_PRESSURE_PWH_C1", 0, 0, {}]]]}, {"name": "C2_PWH_out2", "class_name": "Add", "config": {"name": "C2_PWH_out2", "trainable": true}, "inbound_nodes": [[["C2_PWH_out", 0, 0, {}], ["SHIFTED_PRESSURE_PWH_C2", 0, 0, {}]]]}, {"name": "C3_PWH_out2", "class_name": "Add", "config": {"name": "C3_PWH_out2", "trainable": true}, "inbound_nodes": [[["C3_PWH_out", 0, 0, {}], ["SHIFTED_PRESSURE_PWH_C3", 0, 0, {}]]]}, {"name": "C4_PWH_out2", "class_name": "Add", "config": {"name": "C4_PWH_out2", "trainable": true}, "inbound_nodes": [[["C4_PWH_out", 0, 0, {}], ["SHIFTED_PRESSURE_PWH_C4", 0, 0, {}]]]}, {"name": "B3_PWH_out2", "class_name": "Add", "config": {"name": "B3_PWH_out2", "trainable": true}, "inbound_nodes": [[["B3_PWH_out", 0, 0, {}], ["SHIFTED_PRESSURE_PWH_B3", 0, 0, {}]]]}, {"name": "B1_PWH_out2", "class_name": "Add", "config": {"name": "B1_PWH_out2", "trainable": true}, "inbound_nodes": [[["B1_PWH_out", 0, 0, {}], ["SHIFTED_PRESSURE_PWH_B1", 0, 0, {}]]]}, {"name": "D1_PWH_out2", "class_name": "Add", "config": {"name": "D1_PWH_out2", "trainable": true}, "inbound_nodes": [[["D1_PWH_out", 0, 0, {}], ["SHIFTED_PRESSURE_PWH_D1", 0, 0, {}]]]}], "output_layers": [["C1_PWH_out2", 0, 0], ["C1_PWH_out", 0, 0], ["C2_PWH_out2", 0, 0], ["C2_PWH_out", 0, 0], ["C3_PWH_out2", 0, 0], ["C3_PWH_out", 0, 0], ["C4_PWH_out2", 0, 0], ["C4_PWH_out", 0, 0], ["B3_PWH_out2", 0, 0], ["B3_PWH_out", 0, 0], ["B1_PWH_out2", 0, 0], ["B1_PWH_out", 0, 0], ["D1_PWH_out2", 0, 0], ["D1_PWH_out", 0, 0]]}, "backend": "theano"}