{"class_name": "Model", "config": {"name": "model_1", "layers": [{"name": "PRESSURE_INPUT", "class_name": "InputLayer", "config": {"batch_input_shape": [null, 12], "input_dtype": "float32", "sparse": false, "name": "PRESSURE_INPUT"}, "inbound_nodes": []}, {"name": "RISER_B_CHK_INPUT", "class_name": "InputLayer", "config": {"batch_input_shape": [null, 1], "input_dtype": "float32", "sparse": false, "name": "RISER_B_CHK_INPUT"}, "inbound_nodes": []}, {"name": "RISER_MERGE", "class_name": "Merge", "config": {"name": "RISER_MERGE", "mode": "concat", "mode_type": "raw", "concat_axis": -1, "dot_axes": -1, "output_shape": null, "output_shape_type": "raw", "output_mask": null, "output_mask_type": "raw", "arguments": {}}, "inbound_nodes": [[["PRESSURE_INPUT", 0, 0], ["RISER_B_CHK_INPUT", 0, 0]]]}, {"name": "C1_PWH_0", "class_name": "Dense", "config": {"name": "C1_PWH_0", "trainable": true, "output_dim": 50, "init": "glorot_uniform", "activation": "relu", "W_regularizer": {"name": "L1L2Regularizer", "l1": 0.0, "l2": 9.999999747378752e-05}, "b_regularizer": null, "activity_regularizer": null, "W_constraint": null, "b_constraint": null, "bias": true, "input_dim": 12}, "inbound_nodes": [[["PRESSURE_INPUT", 0, 0]]]}, {"name": "C1_PDC_0", "class_name": "Dense", "config": {"name": "C1_PDC_0", "trainable": true, "output_dim": 50, "init": "glorot_uniform", "activation": "relu", "W_regularizer": {"name": "L1L2Regularizer", "l1": 0.0, "l2": 9.999999747378752e-05}, "b_regularizer": null, "activity_regularizer": null, "W_constraint": null, "b_constraint": null, "bias": true, "input_dim": 13}, "inbound_nodes": [[["RISER_MERGE", 0, 0]]]}, {"name": "C2_PWH_0", "class_name": "Dense", "config": {"name": "C2_PWH_0", "trainable": true, "output_dim": 50, "init": "glorot_uniform", "activation": "relu", "W_regularizer": {"name": "L1L2Regularizer", "l1": 0.0, "l2": 9.999999747378752e-05}, "b_regularizer": null, "activity_regularizer": null, "W_constraint": null, "b_constraint": null, "bias": true, "input_dim": 12}, "inbound_nodes": [[["PRESSURE_INPUT", 0, 0]]]}, {"name": "C2_PDC_0", "class_name": "Dense", "config": {"name": "C2_PDC_0", "trainable": true, "output_dim": 50, "init": "glorot_uniform", "activation": "relu", "W_regularizer": {"name": "L1L2Regularizer", "l1": 0.0, "l2": 9.999999747378752e-05}, "b_regularizer": null, "activity_regularizer": null, "W_constraint": null, "b_constraint": null, "bias": true, "input_dim": 13}, "inbound_nodes": [[["RISER_MERGE", 0, 0]]]}, {"name": "C3_PWH_0", "class_name": "Dense", "config": {"name": "C3_PWH_0", "trainable": true, "output_dim": 50, "init": "glorot_uniform", "activation": "relu", "W_regularizer": {"name": "L1L2Regularizer", "l1": 0.0, "l2": 9.999999747378752e-05}, "b_regularizer": null, "activity_regularizer": null, "W_constraint": null, "b_constraint": null, "bias": true, "input_dim": 12}, "inbound_nodes": [[["PRESSURE_INPUT", 0, 0]]]}, {"name": "C3_PDC_0", "class_name": "Dense", "config": {"name": "C3_PDC_0", "trainable": true, "output_dim": 50, "init": "glorot_uniform", "activation": "relu", "W_regularizer": {"name": "L1L2Regularizer", "l1": 0.0, "l2": 9.999999747378752e-05}, "b_regularizer": null, "activity_regularizer": null, "W_constraint": null, "b_constraint": null, "bias": true, "input_dim": 13}, "inbound_nodes": [[["RISER_MERGE", 0, 0]]]}, {"name": "C4_PWH_0", "class_name": "Dense", "config": {"name": "C4_PWH_0", "trainable": true, "output_dim": 50, "init": "glorot_uniform", "activation": "relu", "W_regularizer": {"name": "L1L2Regularizer", "l1": 0.0, "l2": 9.999999747378752e-05}, "b_regularizer": null, "activity_regularizer": null, "W_constraint": null, "b_constraint": null, "bias": true, "input_dim": 12}, "inbound_nodes": [[["PRESSURE_INPUT", 0, 0]]]}, {"name": "C4_PDC_0", "class_name": "Dense", "config": {"name": "C4_PDC_0", "trainable": true, "output_dim": 50, "init": "glorot_uniform", "activation": "relu", "W_regularizer": {"name": "L1L2Regularizer", "l1": 0.0, "l2": 9.999999747378752e-05}, "b_regularizer": null, "activity_regularizer": null, "W_constraint": null, "b_constraint": null, "bias": true, "input_dim": 13}, "inbound_nodes": [[["RISER_MERGE", 0, 0]]]}, {"name": "B3_PWH_0", "class_name": "Dense", "config": {"name": "B3_PWH_0", "trainable": true, "output_dim": 50, "init": "glorot_uniform", "activation": "relu", "W_regularizer": {"name": "L1L2Regularizer", "l1": 0.0, "l2": 9.999999747378752e-05}, "b_regularizer": null, "activity_regularizer": null, "W_constraint": null, "b_constraint": null, "bias": true, "input_dim": 12}, "inbound_nodes": [[["PRESSURE_INPUT", 0, 0]]]}, {"name": "B3_PDC_0", "class_name": "Dense", "config": {"name": "B3_PDC_0", "trainable": true, "output_dim": 50, "init": "glorot_uniform", "activation": "relu", "W_regularizer": {"name": "L1L2Regularizer", "l1": 0.0, "l2": 9.999999747378752e-05}, "b_regularizer": null, "activity_regularizer": null, "W_constraint": null, "b_constraint": null, "bias": true, "input_dim": 13}, "inbound_nodes": [[["RISER_MERGE", 0, 0]]]}, {"name": "B1_PWH_0", "class_name": "Dense", "config": {"name": "B1_PWH_0", "trainable": true, "output_dim": 50, "init": "glorot_uniform", "activation": "relu", "W_regularizer": {"name": "L1L2Regularizer", "l1": 0.0, "l2": 9.999999747378752e-05}, "b_regularizer": null, "activity_regularizer": null, "W_constraint": null, "b_constraint": null, "bias": true, "input_dim": 12}, "inbound_nodes": [[["PRESSURE_INPUT", 0, 0]]]}, {"name": "B1_PDC_0", "class_name": "Dense", "config": {"name": "B1_PDC_0", "trainable": true, "output_dim": 50, "init": "glorot_uniform", "activation": "relu", "W_regularizer": {"name": "L1L2Regularizer", "l1": 0.0, "l2": 9.999999747378752e-05}, "b_regularizer": null, "activity_regularizer": null, "W_constraint": null, "b_constraint": null, "bias": true, "input_dim": 13}, "inbound_nodes": [[["RISER_MERGE", 0, 0]]]}, {"name": "D1_PWH_0", "class_name": "Dense", "config": {"name": "D1_PWH_0", "trainable": true, "output_dim": 50, "init": "glorot_uniform", "activation": "relu", "W_regularizer": {"name": "L1L2Regularizer", "l1": 0.0, "l2": 9.999999747378752e-05}, "b_regularizer": null, "activity_regularizer": null, "W_constraint": null, "b_constraint": null, "bias": true, "input_dim": 12}, "inbound_nodes": [[["PRESSURE_INPUT", 0, 0]]]}, {"name": "D1_PDC_0", "class_name": "Dense", "config": {"name": "D1_PDC_0", "trainable": true, "output_dim": 50, "init": "glorot_uniform", "activation": "relu", "W_regularizer": {"name": "L1L2Regularizer", "l1": 0.0, "l2": 9.999999747378752e-05}, "b_regularizer": null, "activity_regularizer": null, "W_constraint": null, "b_constraint": null, "bias": true, "input_dim": 13}, "inbound_nodes": [[["RISER_MERGE", 0, 0]]]}, {"name": "C1_PWH_1", "class_name": "Dense", "config": {"name": "C1_PWH_1", "trainable": true, "output_dim": 50, "init": "glorot_uniform", "activation": "relu", "W_regularizer": {"name": "L1L2Regularizer", "l1": 0.0, "l2": 9.999999747378752e-05}, "b_regularizer": null, "activity_regularizer": null, "W_constraint": null, "b_constraint": null, "bias": true, "input_dim": 50}, "inbound_nodes": [[["C1_PWH_0", 0, 0]]]}, {"name": "C1_PDC_1", "class_name": "Dense", "config": {"name": "C1_PDC_1", "trainable": true, "output_dim": 50, "init": "glorot_uniform", "activation": "relu", "W_regularizer": {"name": "L1L2Regularizer", "l1": 0.0, "l2": 9.999999747378752e-05}, "b_regularizer": null, "activity_regularizer": null, "W_constraint": null, "b_constraint": null, "bias": true, "input_dim": 50}, "inbound_nodes": [[["C1_PDC_0", 0, 0]]]}, {"name": "C2_PWH_1", "class_name": "Dense", "config": {"name": "C2_PWH_1", "trainable": true, "output_dim": 50, "init": "glorot_uniform", "activation": "relu", "W_regularizer": {"name": "L1L2Regularizer", "l1": 0.0, "l2": 9.999999747378752e-05}, "b_regularizer": null, "activity_regularizer": null, "W_constraint": null, "b_constraint": null, "bias": true, "input_dim": 50}, "inbound_nodes": [[["C2_PWH_0", 0, 0]]]}, {"name": "C2_PDC_1", "class_name": "Dense", "config": {"name": "C2_PDC_1", "trainable": true, "output_dim": 50, "init": "glorot_uniform", "activation": "relu", "W_regularizer": {"name": "L1L2Regularizer", "l1": 0.0, "l2": 9.999999747378752e-05}, "b_regularizer": null, "activity_regularizer": null, "W_constraint": null, "b_constraint": null, "bias": true, "input_dim": 50}, "inbound_nodes": [[["C2_PDC_0", 0, 0]]]}, {"name": "C3_PWH_1", "class_name": "Dense", "config": {"name": "C3_PWH_1", "trainable": true, "output_dim": 50, "init": "glorot_uniform", "activation": "relu", "W_regularizer": {"name": "L1L2Regularizer", "l1": 0.0, "l2": 9.999999747378752e-05}, "b_regularizer": null, "activity_regularizer": null, "W_constraint": null, "b_constraint": null, "bias": true, "input_dim": 50}, "inbound_nodes": [[["C3_PWH_0", 0, 0]]]}, {"name": "C3_PDC_1", "class_name": "Dense", "config": {"name": "C3_PDC_1", "trainable": true, "output_dim": 50, "init": "glorot_uniform", "activation": "relu", "W_regularizer": {"name": "L1L2Regularizer", "l1": 0.0, "l2": 9.999999747378752e-05}, "b_regularizer": null, "activity_regularizer": null, "W_constraint": null, "b_constraint": null, "bias": true, "input_dim": 50}, "inbound_nodes": [[["C3_PDC_0", 0, 0]]]}, {"name": "C4_PWH_1", "class_name": "Dense", "config": {"name": "C4_PWH_1", "trainable": true, "output_dim": 50, "init": "glorot_uniform", "activation": "relu", "W_regularizer": {"name": "L1L2Regularizer", "l1": 0.0, "l2": 9.999999747378752e-05}, "b_regularizer": null, "activity_regularizer": null, "W_constraint": null, "b_constraint": null, "bias": true, "input_dim": 50}, "inbound_nodes": [[["C4_PWH_0", 0, 0]]]}, {"name": "C4_PDC_1", "class_name": "Dense", "config": {"name": "C4_PDC_1", "trainable": true, "output_dim": 50, "init": "glorot_uniform", "activation": "relu", "W_regularizer": {"name": "L1L2Regularizer", "l1": 0.0, "l2": 9.999999747378752e-05}, "b_regularizer": null, "activity_regularizer": null, "W_constraint": null, "b_constraint": null, "bias": true, "input_dim": 50}, "inbound_nodes": [[["C4_PDC_0", 0, 0]]]}, {"name": "B3_PWH_1", "class_name": "Dense", "config": {"name": "B3_PWH_1", "trainable": true, "output_dim": 50, "init": "glorot_uniform", "activation": "relu", "W_regularizer": {"name": "L1L2Regularizer", "l1": 0.0, "l2": 9.999999747378752e-05}, "b_regularizer": null, "activity_regularizer": null, "W_constraint": null, "b_constraint": null, "bias": true, "input_dim": 50}, "inbound_nodes": [[["B3_PWH_0", 0, 0]]]}, {"name": "B3_PDC_1", "class_name": "Dense", "config": {"name": "B3_PDC_1", "trainable": true, "output_dim": 50, "init": "glorot_uniform", "activation": "relu", "W_regularizer": {"name": "L1L2Regularizer", "l1": 0.0, "l2": 9.999999747378752e-05}, "b_regularizer": null, "activity_regularizer": null, "W_constraint": null, "b_constraint": null, "bias": true, "input_dim": 50}, "inbound_nodes": [[["B3_PDC_0", 0, 0]]]}, {"name": "B1_PWH_1", "class_name": "Dense", "config": {"name": "B1_PWH_1", "trainable": true, "output_dim": 50, "init": "glorot_uniform", "activation": "relu", "W_regularizer": {"name": "L1L2Regularizer", "l1": 0.0, "l2": 9.999999747378752e-05}, "b_regularizer": null, "activity_regularizer": null, "W_constraint": null, "b_constraint": null, "bias": true, "input_dim": 50}, "inbound_nodes": [[["B1_PWH_0", 0, 0]]]}, {"name": "B1_PDC_1", "class_name": "Dense", "config": {"name": "B1_PDC_1", "trainable": true, "output_dim": 50, "init": "glorot_uniform", "activation": "relu", "W_regularizer": {"name": "L1L2Regularizer", "l1": 0.0, "l2": 9.999999747378752e-05}, "b_regularizer": null, "activity_regularizer": null, "W_constraint": null, "b_constraint": null, "bias": true, "input_dim": 50}, "inbound_nodes": [[["B1_PDC_0", 0, 0]]]}, {"name": "D1_PWH_1", "class_name": "Dense", "config": {"name": "D1_PWH_1", "trainable": true, "output_dim": 50, "init": "glorot_uniform", "activation": "relu", "W_regularizer": {"name": "L1L2Regularizer", "l1": 0.0, "l2": 9.999999747378752e-05}, "b_regularizer": null, "activity_regularizer": null, "W_constraint": null, "b_constraint": null, "bias": true, "input_dim": 50}, "inbound_nodes": [[["D1_PWH_0", 0, 0]]]}, {"name": "D1_PDC_1", "class_name": "Dense", "config": {"name": "D1_PDC_1", "trainable": true, "output_dim": 50, "init": "glorot_uniform", "activation": "relu", "W_regularizer": {"name": "L1L2Regularizer", "l1": 0.0, "l2": 9.999999747378752e-05}, "b_regularizer": null, "activity_regularizer": null, "W_constraint": null, "b_constraint": null, "bias": true, "input_dim": 50}, "inbound_nodes": [[["D1_PDC_0", 0, 0]]]}, {"name": "C1_PWH_out", "class_name": "Dense", "config": {"name": "C1_PWH_out", "trainable": true, "output_dim": 1, "init": "glorot_uniform", "activation": "relu", "W_regularizer": {"name": "L1L2Regularizer", "l1": 0.0, "l2": 9.999999747378752e-05}, "b_regularizer": null, "activity_regularizer": null, "W_constraint": null, "b_constraint": null, "bias": true, "input_dim": 50}, "inbound_nodes": [[["C1_PWH_1", 0, 0]]]}, {"name": "OnOff_PWH_C1", "class_name": "InputLayer", "config": {"batch_input_shape": [null, 1], "input_dtype": "float32", "sparse": false, "name": "OnOff_PWH_C1"}, "inbound_nodes": []}, {"name": "C1_PDC_out", "class_name": "Dense", "config": {"name": "C1_PDC_out", "trainable": true, "output_dim": 1, "init": "glorot_uniform", "activation": "relu", "W_regularizer": {"name": "L1L2Regularizer", "l1": 0.0, "l2": 9.999999747378752e-05}, "b_regularizer": null, "activity_regularizer": null, "W_constraint": null, "b_constraint": null, "bias": true, "input_dim": 50}, "inbound_nodes": [[["C1_PDC_1", 0, 0]]]}, {"name": "OnOff_PDC_C1", "class_name": "InputLayer", "config": {"batch_input_shape": [null, 1], "input_dtype": "float32", "sparse": false, "name": "OnOff_PDC_C1"}, "inbound_nodes": []}, {"name": "C2_PWH_out", "class_name": "Dense", "config": {"name": "C2_PWH_out", "trainable": true, "output_dim": 1, "init": "glorot_uniform", "activation": "relu", "W_regularizer": {"name": "L1L2Regularizer", "l1": 0.0, "l2": 9.999999747378752e-05}, "b_regularizer": null, "activity_regularizer": null, "W_constraint": null, "b_constraint": null, "bias": true, "input_dim": 50}, "inbound_nodes": [[["C2_PWH_1", 0, 0]]]}, {"name": "OnOff_PWH_C2", "class_name": "InputLayer", "config": {"batch_input_shape": [null, 1], "input_dtype": "float32", "sparse": false, "name": "OnOff_PWH_C2"}, "inbound_nodes": []}, {"name": "C2_PDC_out", "class_name": "Dense", "config": {"name": "C2_PDC_out", "trainable": true, "output_dim": 1, "init": "glorot_uniform", "activation": "relu", "W_regularizer": {"name": "L1L2Regularizer", "l1": 0.0, "l2": 9.999999747378752e-05}, "b_regularizer": null, "activity_regularizer": null, "W_constraint": null, "b_constraint": null, "bias": true, "input_dim": 50}, "inbound_nodes": [[["C2_PDC_1", 0, 0]]]}, {"name": "OnOff_PDC_C2", "class_name": "InputLayer", "config": {"batch_input_shape": [null, 1], "input_dtype": "float32", "sparse": false, "name": "OnOff_PDC_C2"}, "inbound_nodes": []}, {"name": "C3_PWH_out", "class_name": "Dense", "config": {"name": "C3_PWH_out", "trainable": true, "output_dim": 1, "init": "glorot_uniform", "activation": "relu", "W_regularizer": {"name": "L1L2Regularizer", "l1": 0.0, "l2": 9.999999747378752e-05}, "b_regularizer": null, "activity_regularizer": null, "W_constraint": null, "b_constraint": null, "bias": true, "input_dim": 50}, "inbound_nodes": [[["C3_PWH_1", 0, 0]]]}, {"name": "OnOff_PWH_C3", "class_name": "InputLayer", "config": {"batch_input_shape": [null, 1], "input_dtype": "float32", "sparse": false, "name": "OnOff_PWH_C3"}, "inbound_nodes": []}, {"name": "C3_PDC_out", "class_name": "Dense", "config": {"name": "C3_PDC_out", "trainable": true, "output_dim": 1, "init": "glorot_uniform", "activation": "relu", "W_regularizer": {"name": "L1L2Regularizer", "l1": 0.0, "l2": 9.999999747378752e-05}, "b_regularizer": null, "activity_regularizer": null, "W_constraint": null, "b_constraint": null, "bias": true, "input_dim": 50}, "inbound_nodes": [[["C3_PDC_1", 0, 0]]]}, {"name": "OnOff_PDC_C3", "class_name": "InputLayer", "config": {"batch_input_shape": [null, 1], "input_dtype": "float32", "sparse": false, "name": "OnOff_PDC_C3"}, "inbound_nodes": []}, {"name": "C4_PWH_out", "class_name": "Dense", "config": {"name": "C4_PWH_out", "trainable": true, "output_dim": 1, "init": "glorot_uniform", "activation": "relu", "W_regularizer": {"name": "L1L2Regularizer", "l1": 0.0, "l2": 9.999999747378752e-05}, "b_regularizer": null, "activity_regularizer": null, "W_constraint": null, "b_constraint": null, "bias": true, "input_dim": 50}, "inbound_nodes": [[["C4_PWH_1", 0, 0]]]}, {"name": "OnOff_PWH_C4", "class_name": "InputLayer", "config": {"batch_input_shape": [null, 1], "input_dtype": "float32", "sparse": false, "name": "OnOff_PWH_C4"}, "inbound_nodes": []}, {"name": "C4_PDC_out", "class_name": "Dense", "config": {"name": "C4_PDC_out", "trainable": true, "output_dim": 1, "init": "glorot_uniform", "activation": "relu", "W_regularizer": {"name": "L1L2Regularizer", "l1": 0.0, "l2": 9.999999747378752e-05}, "b_regularizer": null, "activity_regularizer": null, "W_constraint": null, "b_constraint": null, "bias": true, "input_dim": 50}, "inbound_nodes": [[["C4_PDC_1", 0, 0]]]}, {"name": "OnOff_PDC_C4", "class_name": "InputLayer", "config": {"batch_input_shape": [null, 1], "input_dtype": "float32", "sparse": false, "name": "OnOff_PDC_C4"}, "inbound_nodes": []}, {"name": "B3_PWH_out", "class_name": "Dense", "config": {"name": "B3_PWH_out", "trainable": true, "output_dim": 1, "init": "glorot_uniform", "activation": "relu", "W_regularizer": {"name": "L1L2Regularizer", "l1": 0.0, "l2": 9.999999747378752e-05}, "b_regularizer": null, "activity_regularizer": null, "W_constraint": null, "b_constraint": null, "bias": true, "input_dim": 50}, "inbound_nodes": [[["B3_PWH_1", 0, 0]]]}, {"name": "OnOff_PWH_B3", "class_name": "InputLayer", "config": {"batch_input_shape": [null, 1], "input_dtype": "float32", "sparse": false, "name": "OnOff_PWH_B3"}, "inbound_nodes": []}, {"name": "B3_PDC_out", "class_name": "Dense", "config": {"name": "B3_PDC_out", "trainable": true, "output_dim": 1, "init": "glorot_uniform", "activation": "relu", "W_regularizer": {"name": "L1L2Regularizer", "l1": 0.0, "l2": 9.999999747378752e-05}, "b_regularizer": null, "activity_regularizer": null, "W_constraint": null, "b_constraint": null, "bias": true, "input_dim": 50}, "inbound_nodes": [[["B3_PDC_1", 0, 0]]]}, {"name": "OnOff_PDC_B3", "class_name": "InputLayer", "config": {"batch_input_shape": [null, 1], "input_dtype": "float32", "sparse": false, "name": "OnOff_PDC_B3"}, "inbound_nodes": []}, {"name": "B1_PWH_out", "class_name": "Dense", "config": {"name": "B1_PWH_out", "trainable": true, "output_dim": 1, "init": "glorot_uniform", "activation": "relu", "W_regularizer": {"name": "L1L2Regularizer", "l1": 0.0, "l2": 9.999999747378752e-05}, "b_regularizer": null, "activity_regularizer": null, "W_constraint": null, "b_constraint": null, "bias": true, "input_dim": 50}, "inbound_nodes": [[["B1_PWH_1", 0, 0]]]}, {"name": "OnOff_PWH_B1", "class_name": "InputLayer", "config": {"batch_input_shape": [null, 1], "input_dtype": "float32", "sparse": false, "name": "OnOff_PWH_B1"}, "inbound_nodes": []}, {"name": "B1_PDC_out", "class_name": "Dense", "config": {"name": "B1_PDC_out", "trainable": true, "output_dim": 1, "init": "glorot_uniform", "activation": "relu", "W_regularizer": {"name": "L1L2Regularizer", "l1": 0.0, "l2": 9.999999747378752e-05}, "b_regularizer": null, "activity_regularizer": null, "W_constraint": null, "b_constraint": null, "bias": true, "input_dim": 50}, "inbound_nodes": [[["B1_PDC_1", 0, 0]]]}, {"name": "OnOff_PDC_B1", "class_name": "InputLayer", "config": {"batch_input_shape": [null, 1], "input_dtype": "float32", "sparse": false, "name": "OnOff_PDC_B1"}, "inbound_nodes": []}, {"name": "D1_PWH_out", "class_name": "Dense", "config": {"name": "D1_PWH_out", "trainable": true, "output_dim": 1, "init": "glorot_uniform", "activation": "relu", "W_regularizer": {"name": "L1L2Regularizer", "l1": 0.0, "l2": 9.999999747378752e-05}, "b_regularizer": null, "activity_regularizer": null, "W_constraint": null, "b_constraint": null, "bias": true, "input_dim": 50}, "inbound_nodes": [[["D1_PWH_1", 0, 0]]]}, {"name": "OnOff_PWH_D1", "class_name": "InputLayer", "config": {"batch_input_shape": [null, 1], "input_dtype": "float32", "sparse": false, "name": "OnOff_PWH_D1"}, "inbound_nodes": []}, {"name": "D1_PDC_out", "class_name": "Dense", "config": {"name": "D1_PDC_out", "trainable": true, "output_dim": 1, "init": "glorot_uniform", "activation": "relu", "W_regularizer": {"name": "L1L2Regularizer", "l1": 0.0, "l2": 9.999999747378752e-05}, "b_regularizer": null, "activity_regularizer": null, "W_constraint": null, "b_constraint": null, "bias": true, "input_dim": 50}, "inbound_nodes": [[["D1_PDC_1", 0, 0]]]}, {"name": "OnOff_PDC_D1", "class_name": "InputLayer", "config": {"batch_input_shape": [null, 1], "input_dtype": "float32", "sparse": false, "name": "OnOff_PDC_D1"}, "inbound_nodes": []}, {"name": "C1_PWH_pred", "class_name": "Merge", "config": {"name": "C1_PWH_pred", "mode": "mul", "mode_type": "raw", "concat_axis": -1, "dot_axes": -1, "output_shape": null, "output_shape_type": "raw", "output_mask": null, "output_mask_type": "raw", "arguments": {}}, "inbound_nodes": [[["C1_PWH_out", 0, 0], ["OnOff_PWH_C1", 0, 0]]]}, {"name": "C1_PDC_pred", "class_name": "Merge", "config": {"name": "C1_PDC_pred", "mode": "mul", "mode_type": "raw", "concat_axis": -1, "dot_axes": -1, "output_shape": null, "output_shape_type": "raw", "output_mask": null, "output_mask_type": "raw", "arguments": {}}, "inbound_nodes": [[["C1_PDC_out", 0, 0], ["OnOff_PDC_C1", 0, 0]]]}, {"name": "C2_PWH_pred", "class_name": "Merge", "config": {"name": "C2_PWH_pred", "mode": "mul", "mode_type": "raw", "concat_axis": -1, "dot_axes": -1, "output_shape": null, "output_shape_type": "raw", "output_mask": null, "output_mask_type": "raw", "arguments": {}}, "inbound_nodes": [[["C2_PWH_out", 0, 0], ["OnOff_PWH_C2", 0, 0]]]}, {"name": "C2_PDC_pred", "class_name": "Merge", "config": {"name": "C2_PDC_pred", "mode": "mul", "mode_type": "raw", "concat_axis": -1, "dot_axes": -1, "output_shape": null, "output_shape_type": "raw", "output_mask": null, "output_mask_type": "raw", "arguments": {}}, "inbound_nodes": [[["C2_PDC_out", 0, 0], ["OnOff_PDC_C2", 0, 0]]]}, {"name": "C3_PWH_pred", "class_name": "Merge", "config": {"name": "C3_PWH_pred", "mode": "mul", "mode_type": "raw", "concat_axis": -1, "dot_axes": -1, "output_shape": null, "output_shape_type": "raw", "output_mask": null, "output_mask_type": "raw", "arguments": {}}, "inbound_nodes": [[["C3_PWH_out", 0, 0], ["OnOff_PWH_C3", 0, 0]]]}, {"name": "C3_PDC_pred", "class_name": "Merge", "config": {"name": "C3_PDC_pred", "mode": "mul", "mode_type": "raw", "concat_axis": -1, "dot_axes": -1, "output_shape": null, "output_shape_type": "raw", "output_mask": null, "output_mask_type": "raw", "arguments": {}}, "inbound_nodes": [[["C3_PDC_out", 0, 0], ["OnOff_PDC_C3", 0, 0]]]}, {"name": "C4_PWH_pred", "class_name": "Merge", "config": {"name": "C4_PWH_pred", "mode": "mul", "mode_type": "raw", "concat_axis": -1, "dot_axes": -1, "output_shape": null, "output_shape_type": "raw", "output_mask": null, "output_mask_type": "raw", "arguments": {}}, "inbound_nodes": [[["C4_PWH_out", 0, 0], ["OnOff_PWH_C4", 0, 0]]]}, {"name": "C4_PDC_pred", "class_name": "Merge", "config": {"name": "C4_PDC_pred", "mode": "mul", "mode_type": "raw", "concat_axis": -1, "dot_axes": -1, "output_shape": null, "output_shape_type": "raw", "output_mask": null, "output_mask_type": "raw", "arguments": {}}, "inbound_nodes": [[["C4_PDC_out", 0, 0], ["OnOff_PDC_C4", 0, 0]]]}, {"name": "B3_PWH_pred", "class_name": "Merge", "config": {"name": "B3_PWH_pred", "mode": "mul", "mode_type": "raw", "concat_axis": -1, "dot_axes": -1, "output_shape": null, "output_shape_type": "raw", "output_mask": null, "output_mask_type": "raw", "arguments": {}}, "inbound_nodes": [[["B3_PWH_out", 0, 0], ["OnOff_PWH_B3", 0, 0]]]}, {"name": "B3_PDC_pred", "class_name": "Merge", "config": {"name": "B3_PDC_pred", "mode": "mul", "mode_type": "raw", "concat_axis": -1, "dot_axes": -1, "output_shape": null, "output_shape_type": "raw", "output_mask": null, "output_mask_type": "raw", "arguments": {}}, "inbound_nodes": [[["B3_PDC_out", 0, 0], ["OnOff_PDC_B3", 0, 0]]]}, {"name": "B1_PWH_pred", "class_name": "Merge", "config": {"name": "B1_PWH_pred", "mode": "mul", "mode_type": "raw", "concat_axis": -1, "dot_axes": -1, "output_shape": null, "output_shape_type": "raw", "output_mask": null, "output_mask_type": "raw", "arguments": {}}, "inbound_nodes": [[["B1_PWH_out", 0, 0], ["OnOff_PWH_B1", 0, 0]]]}, {"name": "B1_PDC_pred", "class_name": "Merge", "config": {"name": "B1_PDC_pred", "mode": "mul", "mode_type": "raw", "concat_axis": -1, "dot_axes": -1, "output_shape": null, "output_shape_type": "raw", "output_mask": null, "output_mask_type": "raw", "arguments": {}}, "inbound_nodes": [[["B1_PDC_out", 0, 0], ["OnOff_PDC_B1", 0, 0]]]}, {"name": "D1_PWH_pred", "class_name": "Merge", "config": {"name": "D1_PWH_pred", "mode": "mul", "mode_type": "raw", "concat_axis": -1, "dot_axes": -1, "output_shape": null, "output_shape_type": "raw", "output_mask": null, "output_mask_type": "raw", "arguments": {}}, "inbound_nodes": [[["D1_PWH_out", 0, 0], ["OnOff_PWH_D1", 0, 0]]]}, {"name": "D1_PDC_pred", "class_name": "Merge", "config": {"name": "D1_PDC_pred", "mode": "mul", "mode_type": "raw", "concat_axis": -1, "dot_axes": -1, "output_shape": null, "output_shape_type": "raw", "output_mask": null, "output_mask_type": "raw", "arguments": {}}, "inbound_nodes": [[["D1_PDC_out", 0, 0], ["OnOff_PDC_D1", 0, 0]]]}], "input_layers": [["PRESSURE_INPUT", 0, 0], ["RISER_B_CHK_INPUT", 0, 0], ["OnOff_PDC_C1", 0, 0], ["OnOff_PWH_C1", 0, 0], ["OnOff_PDC_C2", 0, 0], ["OnOff_PWH_C2", 0, 0], ["OnOff_PDC_C3", 0, 0], ["OnOff_PWH_C3", 0, 0], ["OnOff_PDC_C4", 0, 0], ["OnOff_PWH_C4", 0, 0], ["OnOff_PDC_B3", 0, 0], ["OnOff_PWH_B3", 0, 0], ["OnOff_PDC_B1", 0, 0], ["OnOff_PWH_B1", 0, 0], ["OnOff_PDC_D1", 0, 0], ["OnOff_PWH_D1", 0, 0]], "output_layers": [["C1_PWH_pred", 0, 0], ["C1_PDC_pred", 0, 0], ["C2_PWH_pred", 0, 0], ["C2_PDC_pred", 0, 0], ["C3_PWH_pred", 0, 0], ["C3_PDC_pred", 0, 0], ["C4_PWH_pred", 0, 0], ["C4_PDC_pred", 0, 0], ["B3_PWH_pred", 0, 0], ["B3_PDC_pred", 0, 0], ["B1_PWH_pred", 0, 0], ["B1_PDC_pred", 0, 0], ["D1_PWH_pred", 0, 0], ["D1_PDC_pred", 0, 0]]}, "keras_version": "1.2.1"}