{"keras_version": "2.0.1", "config": {"layers": [{"config": {"dtype": "float32", "batch_input_shape": [null, 8], "name": "CHK_INPUT_PREV", "sparse": false}, "name": "CHK_INPUT_PREV", "inbound_nodes": [], "class_name": "InputLayer"}, {"config": {"dtype": "float32", "batch_input_shape": [null, 8], "name": "CHK_INPUT_NOW", "sparse": false}, "name": "CHK_INPUT_NOW", "inbound_nodes": [], "class_name": "InputLayer"}, {"config": {"name": "CHK_DELTA", "trainable": true}, "name": "CHK_DELTA", "inbound_nodes": [[["CHK_INPUT_PREV", 0, 0, {}], ["CHK_INPUT_NOW", 0, 0, {}]]], "class_name": "Add"}, {"config": {"kernel_initializer": {"config": {"scale": 1.0, "distribution": "normal", "seed": 3014, "mode": "fan_avg"}, "class_name": "VarianceScaling"}, "use_bias": true, "trainable": true, "kernel_constraint": null, "activity_regularizer": null, "bias_initializer": {"config": {}, "class_name": "Zeros"}, "units": 60, "activation": "relu", "bias_constraint": null, "name": "C1_PDC_0", "bias_regularizer": null, "kernel_regularizer": {"config": {"l2": 0.00019999999494757503, "l1": 0.0}, "class_name": "L1L2"}}, "name": "C1_PDC_0", "inbound_nodes": [[["CHK_DELTA", 0, 0, {}]]], "class_name": "Dense"}, {"config": {"kernel_initializer": {"config": {"scale": 1.0, "distribution": "normal", "seed": 3014, "mode": "fan_avg"}, "class_name": "VarianceScaling"}, "use_bias": true, "trainable": true, "kernel_constraint": null, "activity_regularizer": null, "bias_initializer": {"config": {}, "class_name": "Zeros"}, "units": 60, "activation": "relu", "bias_constraint": null, "name": "C2_PDC_0", "bias_regularizer": null, "kernel_regularizer": {"config": {"l2": 0.00019999999494757503, "l1": 0.0}, "class_name": "L1L2"}}, "name": "C2_PDC_0", "inbound_nodes": [[["CHK_DELTA", 0, 0, {}]]], "class_name": "Dense"}, {"config": {"kernel_initializer": {"config": {"scale": 1.0, "distribution": "normal", "seed": 3014, "mode": "fan_avg"}, "class_name": "VarianceScaling"}, "use_bias": true, "trainable": true, "kernel_constraint": null, "activity_regularizer": null, "bias_initializer": {"config": {}, "class_name": "Zeros"}, "units": 60, "activation": "relu", "bias_constraint": null, "name": "C3_PDC_0", "bias_regularizer": null, "kernel_regularizer": {"config": {"l2": 0.00019999999494757503, "l1": 0.0}, "class_name": "L1L2"}}, "name": "C3_PDC_0", "inbound_nodes": [[["CHK_DELTA", 0, 0, {}]]], "class_name": "Dense"}, {"config": {"kernel_initializer": {"config": {"scale": 1.0, "distribution": "normal", "seed": 3014, "mode": "fan_avg"}, "class_name": "VarianceScaling"}, "use_bias": true, "trainable": true, "kernel_constraint": null, "activity_regularizer": null, "bias_initializer": {"config": {}, "class_name": "Zeros"}, "units": 60, "activation": "relu", "bias_constraint": null, "name": "C4_PDC_0", "bias_regularizer": null, "kernel_regularizer": {"config": {"l2": 0.00019999999494757503, "l1": 0.0}, "class_name": "L1L2"}}, "name": "C4_PDC_0", "inbound_nodes": [[["CHK_DELTA", 0, 0, {}]]], "class_name": "Dense"}, {"config": {"kernel_initializer": {"config": {"scale": 1.0, "distribution": "normal", "seed": 3014, "mode": "fan_avg"}, "class_name": "VarianceScaling"}, "use_bias": true, "trainable": true, "kernel_constraint": null, "activity_regularizer": null, "bias_initializer": {"config": {}, "class_name": "Zeros"}, "units": 60, "activation": "relu", "bias_constraint": null, "name": "B1_PDC_0", "bias_regularizer": null, "kernel_regularizer": {"config": {"l2": 0.00019999999494757503, "l1": 0.0}, "class_name": "L1L2"}}, "name": "B1_PDC_0", "inbound_nodes": [[["CHK_DELTA", 0, 0, {}]]], "class_name": "Dense"}, {"config": {"kernel_initializer": {"config": {"scale": 1.0, "distribution": "normal", "seed": 3014, "mode": "fan_avg"}, "class_name": "VarianceScaling"}, "use_bias": true, "trainable": true, "kernel_constraint": null, "activity_regularizer": null, "bias_initializer": {"config": {}, "class_name": "Zeros"}, "units": 60, "activation": "relu", "bias_constraint": null, "name": "B3_PDC_0", "bias_regularizer": null, "kernel_regularizer": {"config": {"l2": 0.00019999999494757503, "l1": 0.0}, "class_name": "L1L2"}}, "name": "B3_PDC_0", "inbound_nodes": [[["CHK_DELTA", 0, 0, {}]]], "class_name": "Dense"}, {"config": {"kernel_initializer": {"config": {"scale": 1.0, "distribution": "normal", "seed": 3014, "mode": "fan_avg"}, "class_name": "VarianceScaling"}, "use_bias": true, "trainable": true, "kernel_constraint": null, "activity_regularizer": null, "bias_initializer": {"config": {}, "class_name": "Zeros"}, "units": 60, "activation": "relu", "bias_constraint": null, "name": "D1_PDC_0", "bias_regularizer": null, "kernel_regularizer": {"config": {"l2": 0.00019999999494757503, "l1": 0.0}, "class_name": "L1L2"}}, "name": "D1_PDC_0", "inbound_nodes": [[["CHK_DELTA", 0, 0, {}]]], "class_name": "Dense"}, {"config": {"kernel_initializer": {"config": {"scale": 1.0, "distribution": "normal", "seed": 3014, "mode": "fan_avg"}, "class_name": "VarianceScaling"}, "use_bias": true, "trainable": true, "kernel_constraint": null, "activity_regularizer": null, "bias_initializer": {"config": {}, "class_name": "Zeros"}, "units": 60, "activation": "relu", "bias_constraint": null, "name": "C1_PDC_1", "bias_regularizer": null, "kernel_regularizer": {"config": {"l2": 0.00019999999494757503, "l1": 0.0}, "class_name": "L1L2"}}, "name": "C1_PDC_1", "inbound_nodes": [[["C1_PDC_0", 0, 0, {}]]], "class_name": "Dense"}, {"config": {"kernel_initializer": {"config": {"scale": 1.0, "distribution": "normal", "seed": 3014, "mode": "fan_avg"}, "class_name": "VarianceScaling"}, "use_bias": true, "trainable": true, "kernel_constraint": null, "activity_regularizer": null, "bias_initializer": {"config": {}, "class_name": "Zeros"}, "units": 60, "activation": "relu", "bias_constraint": null, "name": "C2_PDC_1", "bias_regularizer": null, "kernel_regularizer": {"config": {"l2": 0.00019999999494757503, "l1": 0.0}, "class_name": "L1L2"}}, "name": "C2_PDC_1", "inbound_nodes": [[["C2_PDC_0", 0, 0, {}]]], "class_name": "Dense"}, {"config": {"kernel_initializer": {"config": {"scale": 1.0, "distribution": "normal", "seed": 3014, "mode": "fan_avg"}, "class_name": "VarianceScaling"}, "use_bias": true, "trainable": true, "kernel_constraint": null, "activity_regularizer": null, "bias_initializer": {"config": {}, "class_name": "Zeros"}, "units": 60, "activation": "relu", "bias_constraint": null, "name": "C3_PDC_1", "bias_regularizer": null, "kernel_regularizer": {"config": {"l2": 0.00019999999494757503, "l1": 0.0}, "class_name": "L1L2"}}, "name": "C3_PDC_1", "inbound_nodes": [[["C3_PDC_0", 0, 0, {}]]], "class_name": "Dense"}, {"config": {"kernel_initializer": {"config": {"scale": 1.0, "distribution": "normal", "seed": 3014, "mode": "fan_avg"}, "class_name": "VarianceScaling"}, "use_bias": true, "trainable": true, "kernel_constraint": null, "activity_regularizer": null, "bias_initializer": {"config": {}, "class_name": "Zeros"}, "units": 60, "activation": "relu", "bias_constraint": null, "name": "C4_PDC_1", "bias_regularizer": null, "kernel_regularizer": {"config": {"l2": 0.00019999999494757503, "l1": 0.0}, "class_name": "L1L2"}}, "name": "C4_PDC_1", "inbound_nodes": [[["C4_PDC_0", 0, 0, {}]]], "class_name": "Dense"}, {"config": {"kernel_initializer": {"config": {"scale": 1.0, "distribution": "normal", "seed": 3014, "mode": "fan_avg"}, "class_name": "VarianceScaling"}, "use_bias": true, "trainable": true, "kernel_constraint": null, "activity_regularizer": null, "bias_initializer": {"config": {}, "class_name": "Zeros"}, "units": 60, "activation": "relu", "bias_constraint": null, "name": "B1_PDC_1", "bias_regularizer": null, "kernel_regularizer": {"config": {"l2": 0.00019999999494757503, "l1": 0.0}, "class_name": "L1L2"}}, "name": "B1_PDC_1", "inbound_nodes": [[["B1_PDC_0", 0, 0, {}]]], "class_name": "Dense"}, {"config": {"kernel_initializer": {"config": {"scale": 1.0, "distribution": "normal", "seed": 3014, "mode": "fan_avg"}, "class_name": "VarianceScaling"}, "use_bias": true, "trainable": true, "kernel_constraint": null, "activity_regularizer": null, "bias_initializer": {"config": {}, "class_name": "Zeros"}, "units": 60, "activation": "relu", "bias_constraint": null, "name": "B3_PDC_1", "bias_regularizer": null, "kernel_regularizer": {"config": {"l2": 0.00019999999494757503, "l1": 0.0}, "class_name": "L1L2"}}, "name": "B3_PDC_1", "inbound_nodes": [[["B3_PDC_0", 0, 0, {}]]], "class_name": "Dense"}, {"config": {"kernel_initializer": {"config": {"scale": 1.0, "distribution": "normal", "seed": 3014, "mode": "fan_avg"}, "class_name": "VarianceScaling"}, "use_bias": true, "trainable": true, "kernel_constraint": null, "activity_regularizer": null, "bias_initializer": {"config": {}, "class_name": "Zeros"}, "units": 60, "activation": "relu", "bias_constraint": null, "name": "D1_PDC_1", "bias_regularizer": null, "kernel_regularizer": {"config": {"l2": 0.00019999999494757503, "l1": 0.0}, "class_name": "L1L2"}}, "name": "D1_PDC_1", "inbound_nodes": [[["D1_PDC_0", 0, 0, {}]]], "class_name": "Dense"}, {"config": {"kernel_initializer": {"config": {"scale": 1.0, "distribution": "normal", "seed": 3014, "mode": "fan_avg"}, "class_name": "VarianceScaling"}, "use_bias": true, "trainable": true, "kernel_constraint": null, "activity_regularizer": null, "bias_initializer": {"config": {}, "class_name": "Zeros"}, "units": 1, "activation": "linear", "bias_constraint": null, "name": "C1_PDC_out", "bias_regularizer": null, "kernel_regularizer": {"config": {"l2": 0.00019999999494757503, "l1": 0.0}, "class_name": "L1L2"}}, "name": "C1_PDC_out", "inbound_nodes": [[["C1_PDC_1", 0, 0, {}]]], "class_name": "Dense"}, {"config": {"dtype": "float32", "batch_input_shape": [null, 1], "name": "SHIFTED_PRESSURE_PDC_C1", "sparse": false}, "name": "SHIFTED_PRESSURE_PDC_C1", "inbound_nodes": [], "class_name": "InputLayer"}, {"config": {"kernel_initializer": {"config": {"scale": 1.0, "distribution": "normal", "seed": 3014, "mode": "fan_avg"}, "class_name": "VarianceScaling"}, "use_bias": true, "trainable": true, "kernel_constraint": null, "activity_regularizer": null, "bias_initializer": {"config": {}, "class_name": "Zeros"}, "units": 1, "activation": "linear", "bias_constraint": null, "name": "C2_PDC_out", "bias_regularizer": null, "kernel_regularizer": {"config": {"l2": 0.00019999999494757503, "l1": 0.0}, "class_name": "L1L2"}}, "name": "C2_PDC_out", "inbound_nodes": [[["C2_PDC_1", 0, 0, {}]]], "class_name": "Dense"}, {"config": {"dtype": "float32", "batch_input_shape": [null, 1], "name": "SHIFTED_PRESSURE_PDC_C2", "sparse": false}, "name": "SHIFTED_PRESSURE_PDC_C2", "inbound_nodes": [], "class_name": "InputLayer"}, {"config": {"kernel_initializer": {"config": {"scale": 1.0, "distribution": "normal", "seed": 3014, "mode": "fan_avg"}, "class_name": "VarianceScaling"}, "use_bias": true, "trainable": true, "kernel_constraint": null, "activity_regularizer": null, "bias_initializer": {"config": {}, "class_name": "Zeros"}, "units": 1, "activation": "linear", "bias_constraint": null, "name": "C3_PDC_out", "bias_regularizer": null, "kernel_regularizer": {"config": {"l2": 0.00019999999494757503, "l1": 0.0}, "class_name": "L1L2"}}, "name": "C3_PDC_out", "inbound_nodes": [[["C3_PDC_1", 0, 0, {}]]], "class_name": "Dense"}, {"config": {"dtype": "float32", "batch_input_shape": [null, 1], "name": "SHIFTED_PRESSURE_PDC_C3", "sparse": false}, "name": "SHIFTED_PRESSURE_PDC_C3", "inbound_nodes": [], "class_name": "InputLayer"}, {"config": {"kernel_initializer": {"config": {"scale": 1.0, "distribution": "normal", "seed": 3014, "mode": "fan_avg"}, "class_name": "VarianceScaling"}, "use_bias": true, "trainable": true, "kernel_constraint": null, "activity_regularizer": null, "bias_initializer": {"config": {}, "class_name": "Zeros"}, "units": 1, "activation": "linear", "bias_constraint": null, "name": "C4_PDC_out", "bias_regularizer": null, "kernel_regularizer": {"config": {"l2": 0.00019999999494757503, "l1": 0.0}, "class_name": "L1L2"}}, "name": "C4_PDC_out", "inbound_nodes": [[["C4_PDC_1", 0, 0, {}]]], "class_name": "Dense"}, {"config": {"dtype": "float32", "batch_input_shape": [null, 1], "name": "SHIFTED_PRESSURE_PDC_C4", "sparse": false}, "name": "SHIFTED_PRESSURE_PDC_C4", "inbound_nodes": [], "class_name": "InputLayer"}, {"config": {"kernel_initializer": {"config": {"scale": 1.0, "distribution": "normal", "seed": 3014, "mode": "fan_avg"}, "class_name": "VarianceScaling"}, "use_bias": true, "trainable": true, "kernel_constraint": null, "activity_regularizer": null, "bias_initializer": {"config": {}, "class_name": "Zeros"}, "units": 1, "activation": "linear", "bias_constraint": null, "name": "B1_PDC_out", "bias_regularizer": null, "kernel_regularizer": {"config": {"l2": 0.00019999999494757503, "l1": 0.0}, "class_name": "L1L2"}}, "name": "B1_PDC_out", "inbound_nodes": [[["B1_PDC_1", 0, 0, {}]]], "class_name": "Dense"}, {"config": {"dtype": "float32", "batch_input_shape": [null, 1], "name": "SHIFTED_PRESSURE_PDC_B1", "sparse": false}, "name": "SHIFTED_PRESSURE_PDC_B1", "inbound_nodes": [], "class_name": "InputLayer"}, {"config": {"kernel_initializer": {"config": {"scale": 1.0, "distribution": "normal", "seed": 3014, "mode": "fan_avg"}, "class_name": "VarianceScaling"}, "use_bias": true, "trainable": true, "kernel_constraint": null, "activity_regularizer": null, "bias_initializer": {"config": {}, "class_name": "Zeros"}, "units": 1, "activation": "linear", "bias_constraint": null, "name": "B3_PDC_out", "bias_regularizer": null, "kernel_regularizer": {"config": {"l2": 0.00019999999494757503, "l1": 0.0}, "class_name": "L1L2"}}, "name": "B3_PDC_out", "inbound_nodes": [[["B3_PDC_1", 0, 0, {}]]], "class_name": "Dense"}, {"config": {"dtype": "float32", "batch_input_shape": [null, 1], "name": "SHIFTED_PRESSURE_PDC_B3", "sparse": false}, "name": "SHIFTED_PRESSURE_PDC_B3", "inbound_nodes": [], "class_name": "InputLayer"}, {"config": {"kernel_initializer": {"config": {"scale": 1.0, "distribution": "normal", "seed": 3014, "mode": "fan_avg"}, "class_name": "VarianceScaling"}, "use_bias": true, "trainable": true, "kernel_constraint": null, "activity_regularizer": null, "bias_initializer": {"config": {}, "class_name": "Zeros"}, "units": 1, "activation": "linear", "bias_constraint": null, "name": "D1_PDC_out", "bias_regularizer": null, "kernel_regularizer": {"config": {"l2": 0.00019999999494757503, "l1": 0.0}, "class_name": "L1L2"}}, "name": "D1_PDC_out", "inbound_nodes": [[["D1_PDC_1", 0, 0, {}]]], "class_name": "Dense"}, {"config": {"dtype": "float32", "batch_input_shape": [null, 1], "name": "SHIFTED_PRESSURE_PDC_D1", "sparse": false}, "name": "SHIFTED_PRESSURE_PDC_D1", "inbound_nodes": [], "class_name": "InputLayer"}, {"config": {"name": "C1_PDC_out2", "trainable": true}, "name": "C1_PDC_out2", "inbound_nodes": [[["C1_PDC_out", 0, 0, {}], ["SHIFTED_PRESSURE_PDC_C1", 0, 0, {}]]], "class_name": "Add"}, {"config": {"name": "C2_PDC_out2", "trainable": true}, "name": "C2_PDC_out2", "inbound_nodes": [[["C2_PDC_out", 0, 0, {}], ["SHIFTED_PRESSURE_PDC_C2", 0, 0, {}]]], "class_name": "Add"}, {"config": {"name": "C3_PDC_out2", "trainable": true}, "name": "C3_PDC_out2", "inbound_nodes": [[["C3_PDC_out", 0, 0, {}], ["SHIFTED_PRESSURE_PDC_C3", 0, 0, {}]]], "class_name": "Add"}, {"config": {"name": "C4_PDC_out2", "trainable": true}, "name": "C4_PDC_out2", "inbound_nodes": [[["C4_PDC_out", 0, 0, {}], ["SHIFTED_PRESSURE_PDC_C4", 0, 0, {}]]], "class_name": "Add"}, {"config": {"name": "B1_PDC_out2", "trainable": true}, "name": "B1_PDC_out2", "inbound_nodes": [[["B1_PDC_out", 0, 0, {}], ["SHIFTED_PRESSURE_PDC_B1", 0, 0, {}]]], "class_name": "Add"}, {"config": {"name": "B3_PDC_out2", "trainable": true}, "name": "B3_PDC_out2", "inbound_nodes": [[["B3_PDC_out", 0, 0, {}], ["SHIFTED_PRESSURE_PDC_B3", 0, 0, {}]]], "class_name": "Add"}, {"config": {"name": "D1_PDC_out2", "trainable": true}, "name": "D1_PDC_out2", "inbound_nodes": [[["D1_PDC_out", 0, 0, {}], ["SHIFTED_PRESSURE_PDC_D1", 0, 0, {}]]], "class_name": "Add"}], "input_layers": [["CHK_INPUT_NOW", 0, 0], ["CHK_INPUT_PREV", 0, 0], ["SHIFTED_PRESSURE_PDC_C1", 0, 0], ["SHIFTED_PRESSURE_PDC_C2", 0, 0], ["SHIFTED_PRESSURE_PDC_C3", 0, 0], ["SHIFTED_PRESSURE_PDC_C4", 0, 0], ["SHIFTED_PRESSURE_PDC_B1", 0, 0], ["SHIFTED_PRESSURE_PDC_B3", 0, 0], ["SHIFTED_PRESSURE_PDC_D1", 0, 0]], "output_layers": [["C1_PDC_out2", 0, 0], ["C1_PDC_out", 0, 0], ["C2_PDC_out2", 0, 0], ["C2_PDC_out", 0, 0], ["C3_PDC_out2", 0, 0], ["C3_PDC_out", 0, 0], ["C4_PDC_out2", 0, 0], ["C4_PDC_out", 0, 0], ["B1_PDC_out2", 0, 0], ["B1_PDC_out", 0, 0], ["B3_PDC_out2", 0, 0], ["B3_PDC_out", 0, 0], ["D1_PDC_out2", 0, 0], ["D1_PDC_out", 0, 0]], "name": "model_1"}, "backend": "theano", "class_name": "Model"}