{"config": {"input_layers": [["PRESSURE_INPUT", 0, 0], ["RISER_B_CHK_INPUT", 0, 0]], "name": "model_1", "layers": [{"class_name": "InputLayer", "config": {"batch_input_shape": [null, 12], "sparse": false, "name": "PRESSURE_INPUT", "dtype": "float32"}, "name": "PRESSURE_INPUT", "inbound_nodes": []}, {"class_name": "InputLayer", "config": {"batch_input_shape": [null, 1], "sparse": false, "name": "RISER_B_CHK_INPUT", "dtype": "float32"}, "name": "RISER_B_CHK_INPUT", "inbound_nodes": []}, {"class_name": "Concatenate", "config": {"axis": -1, "name": "RISER_MERGE", "trainable": true}, "name": "RISER_MERGE", "inbound_nodes": [[["PRESSURE_INPUT", 0, 0, {}], ["RISER_B_CHK_INPUT", 0, 0, {}]]]}, {"class_name": "Dense", "config": {"activity_regularizer": null, "bias_regularizer": null, "kernel_initializer": {"config": {"distribution": "normal", "mode": "fan_avg", "seed": 3014, "scale": 1.0}, "class_name": "VarianceScaling"}, "units": 50, "kernel_regularizer": {"config": {"l2": 0.0020000000949949026, "l1": 0.0}, "class_name": "L1L2"}, "activation": "relu", "trainable": true, "bias_initializer": {"config": {}, "class_name": "Zeros"}, "bias_constraint": null, "use_bias": true, "kernel_constraint": null, "name": "C1_PDC_0"}, "name": "C1_PDC_0", "inbound_nodes": [[["RISER_MERGE", 0, 0, {}]]]}, {"class_name": "Dense", "config": {"activity_regularizer": null, "bias_regularizer": null, "kernel_initializer": {"config": {"distribution": "normal", "mode": "fan_avg", "seed": 3014, "scale": 1.0}, "class_name": "VarianceScaling"}, "units": 50, "kernel_regularizer": {"config": {"l2": 0.0020000000949949026, "l1": 0.0}, "class_name": "L1L2"}, "activation": "relu", "trainable": true, "bias_initializer": {"config": {}, "class_name": "Zeros"}, "bias_constraint": null, "use_bias": true, "kernel_constraint": null, "name": "C2_PDC_0"}, "name": "C2_PDC_0", "inbound_nodes": [[["RISER_MERGE", 0, 0, {}]]]}, {"class_name": "Dense", "config": {"activity_regularizer": null, "bias_regularizer": null, "kernel_initializer": {"config": {"distribution": "normal", "mode": "fan_avg", "seed": 3014, "scale": 1.0}, "class_name": "VarianceScaling"}, "units": 50, "kernel_regularizer": {"config": {"l2": 0.0020000000949949026, "l1": 0.0}, "class_name": "L1L2"}, "activation": "relu", "trainable": true, "bias_initializer": {"config": {}, "class_name": "Zeros"}, "bias_constraint": null, "use_bias": true, "kernel_constraint": null, "name": "C3_PDC_0"}, "name": "C3_PDC_0", "inbound_nodes": [[["RISER_MERGE", 0, 0, {}]]]}, {"class_name": "Dense", "config": {"activity_regularizer": null, "bias_regularizer": null, "kernel_initializer": {"config": {"distribution": "normal", "mode": "fan_avg", "seed": 3014, "scale": 1.0}, "class_name": "VarianceScaling"}, "units": 50, "kernel_regularizer": {"config": {"l2": 0.0020000000949949026, "l1": 0.0}, "class_name": "L1L2"}, "activation": "relu", "trainable": true, "bias_initializer": {"config": {}, "class_name": "Zeros"}, "bias_constraint": null, "use_bias": true, "kernel_constraint": null, "name": "C4_PDC_0"}, "name": "C4_PDC_0", "inbound_nodes": [[["RISER_MERGE", 0, 0, {}]]]}, {"class_name": "Dense", "config": {"activity_regularizer": null, "bias_regularizer": null, "kernel_initializer": {"config": {"distribution": "normal", "mode": "fan_avg", "seed": 3014, "scale": 1.0}, "class_name": "VarianceScaling"}, "units": 50, "kernel_regularizer": {"config": {"l2": 0.0020000000949949026, "l1": 0.0}, "class_name": "L1L2"}, "activation": "relu", "trainable": true, "bias_initializer": {"config": {}, "class_name": "Zeros"}, "bias_constraint": null, "use_bias": true, "kernel_constraint": null, "name": "B3_PDC_0"}, "name": "B3_PDC_0", "inbound_nodes": [[["RISER_MERGE", 0, 0, {}]]]}, {"class_name": "Dense", "config": {"activity_regularizer": null, "bias_regularizer": null, "kernel_initializer": {"config": {"distribution": "normal", "mode": "fan_avg", "seed": 3014, "scale": 1.0}, "class_name": "VarianceScaling"}, "units": 50, "kernel_regularizer": {"config": {"l2": 0.0020000000949949026, "l1": 0.0}, "class_name": "L1L2"}, "activation": "relu", "trainable": true, "bias_initializer": {"config": {}, "class_name": "Zeros"}, "bias_constraint": null, "use_bias": true, "kernel_constraint": null, "name": "B1_PDC_0"}, "name": "B1_PDC_0", "inbound_nodes": [[["RISER_MERGE", 0, 0, {}]]]}, {"class_name": "Dense", "config": {"activity_regularizer": null, "bias_regularizer": null, "kernel_initializer": {"config": {"distribution": "normal", "mode": "fan_avg", "seed": 3014, "scale": 1.0}, "class_name": "VarianceScaling"}, "units": 50, "kernel_regularizer": {"config": {"l2": 0.0020000000949949026, "l1": 0.0}, "class_name": "L1L2"}, "activation": "relu", "trainable": true, "bias_initializer": {"config": {}, "class_name": "Zeros"}, "bias_constraint": null, "use_bias": true, "kernel_constraint": null, "name": "D1_PDC_0"}, "name": "D1_PDC_0", "inbound_nodes": [[["RISER_MERGE", 0, 0, {}]]]}, {"class_name": "Dense", "config": {"activity_regularizer": null, "bias_regularizer": null, "kernel_initializer": {"config": {"distribution": "normal", "mode": "fan_avg", "seed": 3014, "scale": 1.0}, "class_name": "VarianceScaling"}, "units": 50, "kernel_regularizer": {"config": {"l2": 0.0020000000949949026, "l1": 0.0}, "class_name": "L1L2"}, "activation": "relu", "trainable": true, "bias_initializer": {"config": {}, "class_name": "Zeros"}, "bias_constraint": null, "use_bias": true, "kernel_constraint": null, "name": "C1_PDC_1"}, "name": "C1_PDC_1", "inbound_nodes": [[["C1_PDC_0", 0, 0, {}]]]}, {"class_name": "Dense", "config": {"activity_regularizer": null, "bias_regularizer": null, "kernel_initializer": {"config": {"distribution": "normal", "mode": "fan_avg", "seed": 3014, "scale": 1.0}, "class_name": "VarianceScaling"}, "units": 50, "kernel_regularizer": {"config": {"l2": 0.0020000000949949026, "l1": 0.0}, "class_name": "L1L2"}, "activation": "relu", "trainable": true, "bias_initializer": {"config": {}, "class_name": "Zeros"}, "bias_constraint": null, "use_bias": true, "kernel_constraint": null, "name": "C2_PDC_1"}, "name": "C2_PDC_1", "inbound_nodes": [[["C2_PDC_0", 0, 0, {}]]]}, {"class_name": "Dense", "config": {"activity_regularizer": null, "bias_regularizer": null, "kernel_initializer": {"config": {"distribution": "normal", "mode": "fan_avg", "seed": 3014, "scale": 1.0}, "class_name": "VarianceScaling"}, "units": 50, "kernel_regularizer": {"config": {"l2": 0.0020000000949949026, "l1": 0.0}, "class_name": "L1L2"}, "activation": "relu", "trainable": true, "bias_initializer": {"config": {}, "class_name": "Zeros"}, "bias_constraint": null, "use_bias": true, "kernel_constraint": null, "name": "C3_PDC_1"}, "name": "C3_PDC_1", "inbound_nodes": [[["C3_PDC_0", 0, 0, {}]]]}, {"class_name": "Dense", "config": {"activity_regularizer": null, "bias_regularizer": null, "kernel_initializer": {"config": {"distribution": "normal", "mode": "fan_avg", "seed": 3014, "scale": 1.0}, "class_name": "VarianceScaling"}, "units": 50, "kernel_regularizer": {"config": {"l2": 0.0020000000949949026, "l1": 0.0}, "class_name": "L1L2"}, "activation": "relu", "trainable": true, "bias_initializer": {"config": {}, "class_name": "Zeros"}, "bias_constraint": null, "use_bias": true, "kernel_constraint": null, "name": "C4_PDC_1"}, "name": "C4_PDC_1", "inbound_nodes": [[["C4_PDC_0", 0, 0, {}]]]}, {"class_name": "Dense", "config": {"activity_regularizer": null, "bias_regularizer": null, "kernel_initializer": {"config": {"distribution": "normal", "mode": "fan_avg", "seed": 3014, "scale": 1.0}, "class_name": "VarianceScaling"}, "units": 50, "kernel_regularizer": {"config": {"l2": 0.0020000000949949026, "l1": 0.0}, "class_name": "L1L2"}, "activation": "relu", "trainable": true, "bias_initializer": {"config": {}, "class_name": "Zeros"}, "bias_constraint": null, "use_bias": true, "kernel_constraint": null, "name": "B3_PDC_1"}, "name": "B3_PDC_1", "inbound_nodes": [[["B3_PDC_0", 0, 0, {}]]]}, {"class_name": "Dense", "config": {"activity_regularizer": null, "bias_regularizer": null, "kernel_initializer": {"config": {"distribution": "normal", "mode": "fan_avg", "seed": 3014, "scale": 1.0}, "class_name": "VarianceScaling"}, "units": 50, "kernel_regularizer": {"config": {"l2": 0.0020000000949949026, "l1": 0.0}, "class_name": "L1L2"}, "activation": "relu", "trainable": true, "bias_initializer": {"config": {}, "class_name": "Zeros"}, "bias_constraint": null, "use_bias": true, "kernel_constraint": null, "name": "B1_PDC_1"}, "name": "B1_PDC_1", "inbound_nodes": [[["B1_PDC_0", 0, 0, {}]]]}, {"class_name": "Dense", "config": {"activity_regularizer": null, "bias_regularizer": null, "kernel_initializer": {"config": {"distribution": "normal", "mode": "fan_avg", "seed": 3014, "scale": 1.0}, "class_name": "VarianceScaling"}, "units": 50, "kernel_regularizer": {"config": {"l2": 0.0020000000949949026, "l1": 0.0}, "class_name": "L1L2"}, "activation": "relu", "trainable": true, "bias_initializer": {"config": {}, "class_name": "Zeros"}, "bias_constraint": null, "use_bias": true, "kernel_constraint": null, "name": "D1_PDC_1"}, "name": "D1_PDC_1", "inbound_nodes": [[["D1_PDC_0", 0, 0, {}]]]}, {"class_name": "Dense", "config": {"activity_regularizer": null, "bias_regularizer": null, "kernel_initializer": {"config": {"distribution": "normal", "mode": "fan_avg", "seed": 3014, "scale": 1.0}, "class_name": "VarianceScaling"}, "units": 1, "kernel_regularizer": {"config": {"l2": 0.0020000000949949026, "l1": 0.0}, "class_name": "L1L2"}, "activation": "linear", "trainable": true, "bias_initializer": {"config": {}, "class_name": "Zeros"}, "bias_constraint": null, "use_bias": true, "kernel_constraint": null, "name": "C1_PDC_out"}, "name": "C1_PDC_out", "inbound_nodes": [[["C1_PDC_1", 0, 0, {}]]]}, {"class_name": "Dense", "config": {"activity_regularizer": null, "bias_regularizer": null, "kernel_initializer": {"config": {"distribution": "normal", "mode": "fan_avg", "seed": 3014, "scale": 1.0}, "class_name": "VarianceScaling"}, "units": 1, "kernel_regularizer": {"config": {"l2": 0.0020000000949949026, "l1": 0.0}, "class_name": "L1L2"}, "activation": "linear", "trainable": true, "bias_initializer": {"config": {}, "class_name": "Zeros"}, "bias_constraint": null, "use_bias": true, "kernel_constraint": null, "name": "C2_PDC_out"}, "name": "C2_PDC_out", "inbound_nodes": [[["C2_PDC_1", 0, 0, {}]]]}, {"class_name": "Dense", "config": {"activity_regularizer": null, "bias_regularizer": null, "kernel_initializer": {"config": {"distribution": "normal", "mode": "fan_avg", "seed": 3014, "scale": 1.0}, "class_name": "VarianceScaling"}, "units": 1, "kernel_regularizer": {"config": {"l2": 0.0020000000949949026, "l1": 0.0}, "class_name": "L1L2"}, "activation": "linear", "trainable": true, "bias_initializer": {"config": {}, "class_name": "Zeros"}, "bias_constraint": null, "use_bias": true, "kernel_constraint": null, "name": "C3_PDC_out"}, "name": "C3_PDC_out", "inbound_nodes": [[["C3_PDC_1", 0, 0, {}]]]}, {"class_name": "Dense", "config": {"activity_regularizer": null, "bias_regularizer": null, "kernel_initializer": {"config": {"distribution": "normal", "mode": "fan_avg", "seed": 3014, "scale": 1.0}, "class_name": "VarianceScaling"}, "units": 1, "kernel_regularizer": {"config": {"l2": 0.0020000000949949026, "l1": 0.0}, "class_name": "L1L2"}, "activation": "linear", "trainable": true, "bias_initializer": {"config": {}, "class_name": "Zeros"}, "bias_constraint": null, "use_bias": true, "kernel_constraint": null, "name": "C4_PDC_out"}, "name": "C4_PDC_out", "inbound_nodes": [[["C4_PDC_1", 0, 0, {}]]]}, {"class_name": "Dense", "config": {"activity_regularizer": null, "bias_regularizer": null, "kernel_initializer": {"config": {"distribution": "normal", "mode": "fan_avg", "seed": 3014, "scale": 1.0}, "class_name": "VarianceScaling"}, "units": 1, "kernel_regularizer": {"config": {"l2": 0.0020000000949949026, "l1": 0.0}, "class_name": "L1L2"}, "activation": "linear", "trainable": true, "bias_initializer": {"config": {}, "class_name": "Zeros"}, "bias_constraint": null, "use_bias": true, "kernel_constraint": null, "name": "B3_PDC_out"}, "name": "B3_PDC_out", "inbound_nodes": [[["B3_PDC_1", 0, 0, {}]]]}, {"class_name": "Dense", "config": {"activity_regularizer": null, "bias_regularizer": null, "kernel_initializer": {"config": {"distribution": "normal", "mode": "fan_avg", "seed": 3014, "scale": 1.0}, "class_name": "VarianceScaling"}, "units": 1, "kernel_regularizer": {"config": {"l2": 0.0020000000949949026, "l1": 0.0}, "class_name": "L1L2"}, "activation": "linear", "trainable": true, "bias_initializer": {"config": {}, "class_name": "Zeros"}, "bias_constraint": null, "use_bias": true, "kernel_constraint": null, "name": "B1_PDC_out"}, "name": "B1_PDC_out", "inbound_nodes": [[["B1_PDC_1", 0, 0, {}]]]}, {"class_name": "Dense", "config": {"activity_regularizer": null, "bias_regularizer": null, "kernel_initializer": {"config": {"distribution": "normal", "mode": "fan_avg", "seed": 3014, "scale": 1.0}, "class_name": "VarianceScaling"}, "units": 1, "kernel_regularizer": {"config": {"l2": 0.0020000000949949026, "l1": 0.0}, "class_name": "L1L2"}, "activation": "linear", "trainable": true, "bias_initializer": {"config": {}, "class_name": "Zeros"}, "bias_constraint": null, "use_bias": true, "kernel_constraint": null, "name": "D1_PDC_out"}, "name": "D1_PDC_out", "inbound_nodes": [[["D1_PDC_1", 0, 0, {}]]]}], "output_layers": [["C1_PDC_out", 0, 0], ["C2_PDC_out", 0, 0], ["C3_PDC_out", 0, 0], ["C4_PDC_out", 0, 0], ["B3_PDC_out", 0, 0], ["B1_PDC_out", 0, 0], ["D1_PDC_out", 0, 0]]}, "keras_version": "2.0.1", "class_name": "Model", "backend": "theano"}