{"config": {"output_layers": [["C1_out", 0, 0], ["C2_out", 0, 0], ["C3_out", 0, 0], ["C4_out", 0, 0], ["B1_out", 0, 0], ["B3_out", 0, 0], ["D1_out", 0, 0], ["GJOA_TOTAL", 0, 0]], "name": "model_1", "layers": [{"config": {"dtype": "float32", "sparse": false, "batch_input_shape": [null, 4], "name": "C1"}, "name": "C1", "class_name": "InputLayer", "inbound_nodes": []}, {"config": {"dtype": "float32", "sparse": false, "batch_input_shape": [null, 3], "name": "C2"}, "name": "C2", "class_name": "InputLayer", "inbound_nodes": []}, {"config": {"dtype": "float32", "sparse": false, "batch_input_shape": [null, 4], "name": "C3"}, "name": "C3", "class_name": "InputLayer", "inbound_nodes": []}, {"config": {"dtype": "float32", "sparse": false, "batch_input_shape": [null, 4], "name": "C4"}, "name": "C4", "class_name": "InputLayer", "inbound_nodes": []}, {"config": {"dtype": "float32", "sparse": false, "batch_input_shape": [null, 4], "name": "B1"}, "name": "B1", "class_name": "InputLayer", "inbound_nodes": []}, {"config": {"dtype": "float32", "sparse": false, "batch_input_shape": [null, 4], "name": "B3"}, "name": "B3", "class_name": "InputLayer", "inbound_nodes": []}, {"config": {"dtype": "float32", "sparse": false, "batch_input_shape": [null, 3], "name": "D1"}, "name": "D1", "class_name": "InputLayer", "inbound_nodes": []}, {"config": {"bias_regularizer": null, "trainable": true, "units": 50, "activity_regularizer": null, "bias_initializer": {"config": {}, "class_name": "Zeros"}, "name": "dense_1", "use_bias": true, "kernel_regularizer": {"config": {"l2": 9.999999747378752e-05, "l1": 0.0}, "class_name": "L1L2"}, "bias_constraint": null, "kernel_initializer": {"config": {"scale": 1.0, "mode": "fan_avg", "seed": 3014, "distribution": "normal"}, "class_name": "VarianceScaling"}, "activation": "relu", "kernel_constraint": null}, "name": "dense_1", "class_name": "Dense", "inbound_nodes": [[["C1", 0, 0, {}]]]}, {"config": {"bias_regularizer": null, "trainable": true, "units": 50, "activity_regularizer": null, "bias_initializer": {"config": {}, "class_name": "Zeros"}, "name": "dense_4", "use_bias": true, "kernel_regularizer": {"config": {"l2": 9.999999747378752e-05, "l1": 0.0}, "class_name": "L1L2"}, "bias_constraint": null, "kernel_initializer": {"config": {"scale": 1.0, "mode": "fan_avg", "seed": 3014, "distribution": "normal"}, "class_name": "VarianceScaling"}, "activation": "relu", "kernel_constraint": null}, "name": "dense_4", "class_name": "Dense", "inbound_nodes": [[["C2", 0, 0, {}]]]}, {"config": {"bias_regularizer": null, "trainable": true, "units": 50, "activity_regularizer": null, "bias_initializer": {"config": {}, "class_name": "Zeros"}, "name": "dense_7", "use_bias": true, "kernel_regularizer": {"config": {"l2": 9.999999747378752e-05, "l1": 0.0}, "class_name": "L1L2"}, "bias_constraint": null, "kernel_initializer": {"config": {"scale": 1.0, "mode": "fan_avg", "seed": 3014, "distribution": "normal"}, "class_name": "VarianceScaling"}, "activation": "relu", "kernel_constraint": null}, "name": "dense_7", "class_name": "Dense", "inbound_nodes": [[["C3", 0, 0, {}]]]}, {"config": {"bias_regularizer": null, "trainable": true, "units": 50, "activity_regularizer": null, "bias_initializer": {"config": {}, "class_name": "Zeros"}, "name": "dense_10", "use_bias": true, "kernel_regularizer": {"config": {"l2": 9.999999747378752e-05, "l1": 0.0}, "class_name": "L1L2"}, "bias_constraint": null, "kernel_initializer": {"config": {"scale": 1.0, "mode": "fan_avg", "seed": 3014, "distribution": "normal"}, "class_name": "VarianceScaling"}, "activation": "relu", "kernel_constraint": null}, "name": "dense_10", "class_name": "Dense", "inbound_nodes": [[["C4", 0, 0, {}]]]}, {"config": {"bias_regularizer": null, "trainable": true, "units": 50, "activity_regularizer": null, "bias_initializer": {"config": {}, "class_name": "Zeros"}, "name": "dense_13", "use_bias": true, "kernel_regularizer": {"config": {"l2": 9.999999747378752e-05, "l1": 0.0}, "class_name": "L1L2"}, "bias_constraint": null, "kernel_initializer": {"config": {"scale": 1.0, "mode": "fan_avg", "seed": 3014, "distribution": "normal"}, "class_name": "VarianceScaling"}, "activation": "relu", "kernel_constraint": null}, "name": "dense_13", "class_name": "Dense", "inbound_nodes": [[["B1", 0, 0, {}]]]}, {"config": {"bias_regularizer": null, "trainable": true, "units": 50, "activity_regularizer": null, "bias_initializer": {"config": {}, "class_name": "Zeros"}, "name": "dense_16", "use_bias": true, "kernel_regularizer": {"config": {"l2": 9.999999747378752e-05, "l1": 0.0}, "class_name": "L1L2"}, "bias_constraint": null, "kernel_initializer": {"config": {"scale": 1.0, "mode": "fan_avg", "seed": 3014, "distribution": "normal"}, "class_name": "VarianceScaling"}, "activation": "relu", "kernel_constraint": null}, "name": "dense_16", "class_name": "Dense", "inbound_nodes": [[["B3", 0, 0, {}]]]}, {"config": {"bias_regularizer": null, "trainable": true, "units": 50, "activity_regularizer": null, "bias_initializer": {"config": {}, "class_name": "Zeros"}, "name": "dense_19", "use_bias": true, "kernel_regularizer": {"config": {"l2": 9.999999747378752e-05, "l1": 0.0}, "class_name": "L1L2"}, "bias_constraint": null, "kernel_initializer": {"config": {"scale": 1.0, "mode": "fan_avg", "seed": 3014, "distribution": "normal"}, "class_name": "VarianceScaling"}, "activation": "relu", "kernel_constraint": null}, "name": "dense_19", "class_name": "Dense", "inbound_nodes": [[["D1", 0, 0, {}]]]}, {"config": {"bias_regularizer": null, "trainable": true, "units": 50, "activity_regularizer": null, "bias_initializer": {"config": {}, "class_name": "Zeros"}, "name": "dense_2", "use_bias": true, "kernel_regularizer": {"config": {"l2": 9.999999747378752e-05, "l1": 0.0}, "class_name": "L1L2"}, "bias_constraint": null, "kernel_initializer": {"config": {"scale": 1.0, "mode": "fan_avg", "seed": 3014, "distribution": "normal"}, "class_name": "VarianceScaling"}, "activation": "relu", "kernel_constraint": null}, "name": "dense_2", "class_name": "Dense", "inbound_nodes": [[["dense_1", 0, 0, {}]]]}, {"config": {"bias_regularizer": null, "trainable": true, "units": 50, "activity_regularizer": null, "bias_initializer": {"config": {}, "class_name": "Zeros"}, "name": "dense_5", "use_bias": true, "kernel_regularizer": {"config": {"l2": 9.999999747378752e-05, "l1": 0.0}, "class_name": "L1L2"}, "bias_constraint": null, "kernel_initializer": {"config": {"scale": 1.0, "mode": "fan_avg", "seed": 3014, "distribution": "normal"}, "class_name": "VarianceScaling"}, "activation": "relu", "kernel_constraint": null}, "name": "dense_5", "class_name": "Dense", "inbound_nodes": [[["dense_4", 0, 0, {}]]]}, {"config": {"bias_regularizer": null, "trainable": true, "units": 50, "activity_regularizer": null, "bias_initializer": {"config": {}, "class_name": "Zeros"}, "name": "dense_8", "use_bias": true, "kernel_regularizer": {"config": {"l2": 9.999999747378752e-05, "l1": 0.0}, "class_name": "L1L2"}, "bias_constraint": null, "kernel_initializer": {"config": {"scale": 1.0, "mode": "fan_avg", "seed": 3014, "distribution": "normal"}, "class_name": "VarianceScaling"}, "activation": "relu", "kernel_constraint": null}, "name": "dense_8", "class_name": "Dense", "inbound_nodes": [[["dense_7", 0, 0, {}]]]}, {"config": {"bias_regularizer": null, "trainable": true, "units": 50, "activity_regularizer": null, "bias_initializer": {"config": {}, "class_name": "Zeros"}, "name": "dense_11", "use_bias": true, "kernel_regularizer": {"config": {"l2": 9.999999747378752e-05, "l1": 0.0}, "class_name": "L1L2"}, "bias_constraint": null, "kernel_initializer": {"config": {"scale": 1.0, "mode": "fan_avg", "seed": 3014, "distribution": "normal"}, "class_name": "VarianceScaling"}, "activation": "relu", "kernel_constraint": null}, "name": "dense_11", "class_name": "Dense", "inbound_nodes": [[["dense_10", 0, 0, {}]]]}, {"config": {"bias_regularizer": null, "trainable": true, "units": 50, "activity_regularizer": null, "bias_initializer": {"config": {}, "class_name": "Zeros"}, "name": "dense_14", "use_bias": true, "kernel_regularizer": {"config": {"l2": 9.999999747378752e-05, "l1": 0.0}, "class_name": "L1L2"}, "bias_constraint": null, "kernel_initializer": {"config": {"scale": 1.0, "mode": "fan_avg", "seed": 3014, "distribution": "normal"}, "class_name": "VarianceScaling"}, "activation": "relu", "kernel_constraint": null}, "name": "dense_14", "class_name": "Dense", "inbound_nodes": [[["dense_13", 0, 0, {}]]]}, {"config": {"bias_regularizer": null, "trainable": true, "units": 50, "activity_regularizer": null, "bias_initializer": {"config": {}, "class_name": "Zeros"}, "name": "dense_17", "use_bias": true, "kernel_regularizer": {"config": {"l2": 9.999999747378752e-05, "l1": 0.0}, "class_name": "L1L2"}, "bias_constraint": null, "kernel_initializer": {"config": {"scale": 1.0, "mode": "fan_avg", "seed": 3014, "distribution": "normal"}, "class_name": "VarianceScaling"}, "activation": "relu", "kernel_constraint": null}, "name": "dense_17", "class_name": "Dense", "inbound_nodes": [[["dense_16", 0, 0, {}]]]}, {"config": {"bias_regularizer": null, "trainable": true, "units": 50, "activity_regularizer": null, "bias_initializer": {"config": {}, "class_name": "Zeros"}, "name": "dense_20", "use_bias": true, "kernel_regularizer": {"config": {"l2": 9.999999747378752e-05, "l1": 0.0}, "class_name": "L1L2"}, "bias_constraint": null, "kernel_initializer": {"config": {"scale": 1.0, "mode": "fan_avg", "seed": 3014, "distribution": "normal"}, "class_name": "VarianceScaling"}, "activation": "relu", "kernel_constraint": null}, "name": "dense_20", "class_name": "Dense", "inbound_nodes": [[["dense_19", 0, 0, {}]]]}, {"config": {"dtype": "float32", "sparse": false, "batch_input_shape": [null, 1], "name": "OnOff_C1"}, "name": "OnOff_C1", "class_name": "InputLayer", "inbound_nodes": []}, {"config": {"bias_regularizer": null, "trainable": true, "units": 1, "activity_regularizer": null, "bias_initializer": {"config": {}, "class_name": "Zeros"}, "name": "dense_3", "use_bias": true, "kernel_regularizer": {"config": {"l2": 9.999999747378752e-05, "l1": 0.0}, "class_name": "L1L2"}, "bias_constraint": null, "kernel_initializer": {"config": {"scale": 1.0, "mode": "fan_avg", "seed": 3014, "distribution": "normal"}, "class_name": "VarianceScaling"}, "activation": "relu", "kernel_constraint": null}, "name": "dense_3", "class_name": "Dense", "inbound_nodes": [[["dense_2", 0, 0, {}]]]}, {"config": {"dtype": "float32", "sparse": false, "batch_input_shape": [null, 1], "name": "OnOff_C2"}, "name": "OnOff_C2", "class_name": "InputLayer", "inbound_nodes": []}, {"config": {"bias_regularizer": null, "trainable": true, "units": 1, "activity_regularizer": null, "bias_initializer": {"config": {}, "class_name": "Zeros"}, "name": "dense_6", "use_bias": true, "kernel_regularizer": {"config": {"l2": 9.999999747378752e-05, "l1": 0.0}, "class_name": "L1L2"}, "bias_constraint": null, "kernel_initializer": {"config": {"scale": 1.0, "mode": "fan_avg", "seed": 3014, "distribution": "normal"}, "class_name": "VarianceScaling"}, "activation": "relu", "kernel_constraint": null}, "name": "dense_6", "class_name": "Dense", "inbound_nodes": [[["dense_5", 0, 0, {}]]]}, {"config": {"dtype": "float32", "sparse": false, "batch_input_shape": [null, 1], "name": "OnOff_C3"}, "name": "OnOff_C3", "class_name": "InputLayer", "inbound_nodes": []}, {"config": {"bias_regularizer": null, "trainable": true, "units": 1, "activity_regularizer": null, "bias_initializer": {"config": {}, "class_name": "Zeros"}, "name": "dense_9", "use_bias": true, "kernel_regularizer": {"config": {"l2": 9.999999747378752e-05, "l1": 0.0}, "class_name": "L1L2"}, "bias_constraint": null, "kernel_initializer": {"config": {"scale": 1.0, "mode": "fan_avg", "seed": 3014, "distribution": "normal"}, "class_name": "VarianceScaling"}, "activation": "relu", "kernel_constraint": null}, "name": "dense_9", "class_name": "Dense", "inbound_nodes": [[["dense_8", 0, 0, {}]]]}, {"config": {"dtype": "float32", "sparse": false, "batch_input_shape": [null, 1], "name": "OnOff_C4"}, "name": "OnOff_C4", "class_name": "InputLayer", "inbound_nodes": []}, {"config": {"bias_regularizer": null, "trainable": true, "units": 1, "activity_regularizer": null, "bias_initializer": {"config": {}, "class_name": "Zeros"}, "name": "dense_12", "use_bias": true, "kernel_regularizer": {"config": {"l2": 9.999999747378752e-05, "l1": 0.0}, "class_name": "L1L2"}, "bias_constraint": null, "kernel_initializer": {"config": {"scale": 1.0, "mode": "fan_avg", "seed": 3014, "distribution": "normal"}, "class_name": "VarianceScaling"}, "activation": "relu", "kernel_constraint": null}, "name": "dense_12", "class_name": "Dense", "inbound_nodes": [[["dense_11", 0, 0, {}]]]}, {"config": {"dtype": "float32", "sparse": false, "batch_input_shape": [null, 1], "name": "OnOff_B1"}, "name": "OnOff_B1", "class_name": "InputLayer", "inbound_nodes": []}, {"config": {"bias_regularizer": null, "trainable": true, "units": 1, "activity_regularizer": null, "bias_initializer": {"config": {}, "class_name": "Zeros"}, "name": "dense_15", "use_bias": true, "kernel_regularizer": {"config": {"l2": 9.999999747378752e-05, "l1": 0.0}, "class_name": "L1L2"}, "bias_constraint": null, "kernel_initializer": {"config": {"scale": 1.0, "mode": "fan_avg", "seed": 3014, "distribution": "normal"}, "class_name": "VarianceScaling"}, "activation": "relu", "kernel_constraint": null}, "name": "dense_15", "class_name": "Dense", "inbound_nodes": [[["dense_14", 0, 0, {}]]]}, {"config": {"dtype": "float32", "sparse": false, "batch_input_shape": [null, 1], "name": "OnOff_B3"}, "name": "OnOff_B3", "class_name": "InputLayer", "inbound_nodes": []}, {"config": {"bias_regularizer": null, "trainable": true, "units": 1, "activity_regularizer": null, "bias_initializer": {"config": {}, "class_name": "Zeros"}, "name": "dense_18", "use_bias": true, "kernel_regularizer": {"config": {"l2": 9.999999747378752e-05, "l1": 0.0}, "class_name": "L1L2"}, "bias_constraint": null, "kernel_initializer": {"config": {"scale": 1.0, "mode": "fan_avg", "seed": 3014, "distribution": "normal"}, "class_name": "VarianceScaling"}, "activation": "relu", "kernel_constraint": null}, "name": "dense_18", "class_name": "Dense", "inbound_nodes": [[["dense_17", 0, 0, {}]]]}, {"config": {"dtype": "float32", "sparse": false, "batch_input_shape": [null, 1], "name": "OnOff_D1"}, "name": "OnOff_D1", "class_name": "InputLayer", "inbound_nodes": []}, {"config": {"bias_regularizer": null, "trainable": true, "units": 1, "activity_regularizer": null, "bias_initializer": {"config": {}, "class_name": "Zeros"}, "name": "dense_21", "use_bias": true, "kernel_regularizer": {"config": {"l2": 9.999999747378752e-05, "l1": 0.0}, "class_name": "L1L2"}, "bias_constraint": null, "kernel_initializer": {"config": {"scale": 1.0, "mode": "fan_avg", "seed": 3014, "distribution": "normal"}, "class_name": "VarianceScaling"}, "activation": "relu", "kernel_constraint": null}, "name": "dense_21", "class_name": "Dense", "inbound_nodes": [[["dense_20", 0, 0, {}]]]}, {"config": {"name": "C1_out", "trainable": true}, "name": "C1_out", "class_name": "Multiply", "inbound_nodes": [[["OnOff_C1", 0, 0, {}], ["dense_3", 0, 0, {}]]]}, {"config": {"name": "C2_out", "trainable": true}, "name": "C2_out", "class_name": "Multiply", "inbound_nodes": [[["OnOff_C2", 0, 0, {}], ["dense_6", 0, 0, {}]]]}, {"config": {"name": "C3_out", "trainable": true}, "name": "C3_out", "class_name": "Multiply", "inbound_nodes": [[["OnOff_C3", 0, 0, {}], ["dense_9", 0, 0, {}]]]}, {"config": {"name": "C4_out", "trainable": true}, "name": "C4_out", "class_name": "Multiply", "inbound_nodes": [[["OnOff_C4", 0, 0, {}], ["dense_12", 0, 0, {}]]]}, {"config": {"name": "B1_out", "trainable": true}, "name": "B1_out", "class_name": "Multiply", "inbound_nodes": [[["OnOff_B1", 0, 0, {}], ["dense_15", 0, 0, {}]]]}, {"config": {"name": "B3_out", "trainable": true}, "name": "B3_out", "class_name": "Multiply", "inbound_nodes": [[["OnOff_B3", 0, 0, {}], ["dense_18", 0, 0, {}]]]}, {"config": {"name": "D1_out", "trainable": true}, "name": "D1_out", "class_name": "Multiply", "inbound_nodes": [[["OnOff_D1", 0, 0, {}], ["dense_21", 0, 0, {}]]]}, {"config": {"name": "GJOA_TOTAL", "trainable": true}, "name": "GJOA_TOTAL", "class_name": "Add", "inbound_nodes": [[["C1_out", 0, 0, {}], ["C2_out", 0, 0, {}], ["C3_out", 0, 0, {}], ["C4_out", 0, 0, {}], ["B1_out", 0, 0, {}], ["B3_out", 0, 0, {}], ["D1_out", 0, 0, {}]]]}], "input_layers": [["C1", 0, 0], ["C2", 0, 0], ["C3", 0, 0], ["C4", 0, 0], ["B1", 0, 0], ["B3", 0, 0], ["D1", 0, 0], ["OnOff_C1", 0, 0], ["OnOff_C2", 0, 0], ["OnOff_C3", 0, 0], ["OnOff_C4", 0, 0], ["OnOff_B1", 0, 0], ["OnOff_B3", 0, 0], ["OnOff_D1", 0, 0]]}, "backend": "theano", "keras_version": "2.0.1", "class_name": "Model"}