{"keras_version": "2.0.1", "class_name": "Model", "backend": "theano", "config": {"name": "model_1", "layers": [{"name": "C1", "inbound_nodes": [], "class_name": "InputLayer", "config": {"name": "C1", "dtype": "float32", "sparse": false, "batch_input_shape": [null, 4]}}, {"name": "C2", "inbound_nodes": [], "class_name": "InputLayer", "config": {"name": "C2", "dtype": "float32", "sparse": false, "batch_input_shape": [null, 3]}}, {"name": "C3", "inbound_nodes": [], "class_name": "InputLayer", "config": {"name": "C3", "dtype": "float32", "sparse": false, "batch_input_shape": [null, 4]}}, {"name": "C4", "inbound_nodes": [], "class_name": "InputLayer", "config": {"name": "C4", "dtype": "float32", "sparse": false, "batch_input_shape": [null, 4]}}, {"name": "B1", "inbound_nodes": [], "class_name": "InputLayer", "config": {"name": "B1", "dtype": "float32", "sparse": false, "batch_input_shape": [null, 4]}}, {"name": "B3", "inbound_nodes": [], "class_name": "InputLayer", "config": {"name": "B3", "dtype": "float32", "sparse": false, "batch_input_shape": [null, 4]}}, {"name": "D1", "inbound_nodes": [], "class_name": "InputLayer", "config": {"name": "D1", "dtype": "float32", "sparse": false, "batch_input_shape": [null, 3]}}, {"name": "dense_1", "inbound_nodes": [[["C1", 0, 0, {}]]], "class_name": "Dense", "config": {"activity_regularizer": null, "bias_regularizer": null, "units": 50, "bias_constraint": null, "trainable": true, "kernel_initializer": {"class_name": "VarianceScaling", "config": {"scale": 1.0, "distribution": "normal", "mode": "fan_avg", "seed": 9035}}, "kernel_constraint": null, "kernel_regularizer": {"class_name": "L1L2", "config": {"l1": 0.0, "l2": 0.00019999999494757503}}, "activation": "relu", "use_bias": true, "name": "dense_1", "bias_initializer": {"class_name": "Zeros", "config": {}}}}, {"name": "dense_5", "inbound_nodes": [[["C2", 0, 0, {}]]], "class_name": "Dense", "config": {"activity_regularizer": null, "bias_regularizer": null, "units": 50, "bias_constraint": null, "trainable": true, "kernel_initializer": {"class_name": "VarianceScaling", "config": {"scale": 1.0, "distribution": "normal", "mode": "fan_avg", "seed": 9035}}, "kernel_constraint": null, "kernel_regularizer": {"class_name": "L1L2", "config": {"l1": 0.0, "l2": 0.00019999999494757503}}, "activation": "relu", "use_bias": true, "name": "dense_5", "bias_initializer": {"class_name": "Zeros", "config": {}}}}, {"name": "dense_9", "inbound_nodes": [[["C3", 0, 0, {}]]], "class_name": "Dense", "config": {"activity_regularizer": null, "bias_regularizer": null, "units": 50, "bias_constraint": null, "trainable": true, "kernel_initializer": {"class_name": "VarianceScaling", "config": {"scale": 1.0, "distribution": "normal", "mode": "fan_avg", "seed": 9035}}, "kernel_constraint": null, "kernel_regularizer": {"class_name": "L1L2", "config": {"l1": 0.0, "l2": 0.00019999999494757503}}, "activation": "relu", "use_bias": true, "name": "dense_9", "bias_initializer": {"class_name": "Zeros", "config": {}}}}, {"name": "dense_13", "inbound_nodes": [[["C4", 0, 0, {}]]], "class_name": "Dense", "config": {"activity_regularizer": null, "bias_regularizer": null, "units": 50, "bias_constraint": null, "trainable": true, "kernel_initializer": {"class_name": "VarianceScaling", "config": {"scale": 1.0, "distribution": "normal", "mode": "fan_avg", "seed": 9035}}, "kernel_constraint": null, "kernel_regularizer": {"class_name": "L1L2", "config": {"l1": 0.0, "l2": 0.00019999999494757503}}, "activation": "relu", "use_bias": true, "name": "dense_13", "bias_initializer": {"class_name": "Zeros", "config": {}}}}, {"name": "dense_17", "inbound_nodes": [[["B1", 0, 0, {}]]], "class_name": "Dense", "config": {"activity_regularizer": null, "bias_regularizer": null, "units": 50, "bias_constraint": null, "trainable": true, "kernel_initializer": {"class_name": "VarianceScaling", "config": {"scale": 1.0, "distribution": "normal", "mode": "fan_avg", "seed": 9035}}, "kernel_constraint": null, "kernel_regularizer": {"class_name": "L1L2", "config": {"l1": 0.0, "l2": 0.00019999999494757503}}, "activation": "relu", "use_bias": true, "name": "dense_17", "bias_initializer": {"class_name": "Zeros", "config": {}}}}, {"name": "dense_21", "inbound_nodes": [[["B3", 0, 0, {}]]], "class_name": "Dense", "config": {"activity_regularizer": null, "bias_regularizer": null, "units": 50, "bias_constraint": null, "trainable": true, "kernel_initializer": {"class_name": "VarianceScaling", "config": {"scale": 1.0, "distribution": "normal", "mode": "fan_avg", "seed": 9035}}, "kernel_constraint": null, "kernel_regularizer": {"class_name": "L1L2", "config": {"l1": 0.0, "l2": 0.00019999999494757503}}, "activation": "relu", "use_bias": true, "name": "dense_21", "bias_initializer": {"class_name": "Zeros", "config": {}}}}, {"name": "dense_25", "inbound_nodes": [[["D1", 0, 0, {}]]], "class_name": "Dense", "config": {"activity_regularizer": null, "bias_regularizer": null, "units": 50, "bias_constraint": null, "trainable": true, "kernel_initializer": {"class_name": "VarianceScaling", "config": {"scale": 1.0, "distribution": "normal", "mode": "fan_avg", "seed": 9035}}, "kernel_constraint": null, "kernel_regularizer": {"class_name": "L1L2", "config": {"l1": 0.0, "l2": 0.00019999999494757503}}, "activation": "relu", "use_bias": true, "name": "dense_25", "bias_initializer": {"class_name": "Zeros", "config": {}}}}, {"name": "dense_2", "inbound_nodes": [[["dense_1", 0, 0, {}]]], "class_name": "Dense", "config": {"activity_regularizer": null, "bias_regularizer": null, "units": 50, "bias_constraint": null, "trainable": true, "kernel_initializer": {"class_name": "VarianceScaling", "config": {"scale": 1.0, "distribution": "normal", "mode": "fan_avg", "seed": 9035}}, "kernel_constraint": null, "kernel_regularizer": {"class_name": "L1L2", "config": {"l1": 0.0, "l2": 0.00019999999494757503}}, "activation": "relu", "use_bias": true, "name": "dense_2", "bias_initializer": {"class_name": "Zeros", "config": {}}}}, {"name": "dense_6", "inbound_nodes": [[["dense_5", 0, 0, {}]]], "class_name": "Dense", "config": {"activity_regularizer": null, "bias_regularizer": null, "units": 50, "bias_constraint": null, "trainable": true, "kernel_initializer": {"class_name": "VarianceScaling", "config": {"scale": 1.0, "distribution": "normal", "mode": "fan_avg", "seed": 9035}}, "kernel_constraint": null, "kernel_regularizer": {"class_name": "L1L2", "config": {"l1": 0.0, "l2": 0.00019999999494757503}}, "activation": "relu", "use_bias": true, "name": "dense_6", "bias_initializer": {"class_name": "Zeros", "config": {}}}}, {"name": "dense_10", "inbound_nodes": [[["dense_9", 0, 0, {}]]], "class_name": "Dense", "config": {"activity_regularizer": null, "bias_regularizer": null, "units": 50, "bias_constraint": null, "trainable": true, "kernel_initializer": {"class_name": "VarianceScaling", "config": {"scale": 1.0, "distribution": "normal", "mode": "fan_avg", "seed": 9035}}, "kernel_constraint": null, "kernel_regularizer": {"class_name": "L1L2", "config": {"l1": 0.0, "l2": 0.00019999999494757503}}, "activation": "relu", "use_bias": true, "name": "dense_10", "bias_initializer": {"class_name": "Zeros", "config": {}}}}, {"name": "dense_14", "inbound_nodes": [[["dense_13", 0, 0, {}]]], "class_name": "Dense", "config": {"activity_regularizer": null, "bias_regularizer": null, "units": 50, "bias_constraint": null, "trainable": true, "kernel_initializer": {"class_name": "VarianceScaling", "config": {"scale": 1.0, "distribution": "normal", "mode": "fan_avg", "seed": 9035}}, "kernel_constraint": null, "kernel_regularizer": {"class_name": "L1L2", "config": {"l1": 0.0, "l2": 0.00019999999494757503}}, "activation": "relu", "use_bias": true, "name": "dense_14", "bias_initializer": {"class_name": "Zeros", "config": {}}}}, {"name": "dense_18", "inbound_nodes": [[["dense_17", 0, 0, {}]]], "class_name": "Dense", "config": {"activity_regularizer": null, "bias_regularizer": null, "units": 50, "bias_constraint": null, "trainable": true, "kernel_initializer": {"class_name": "VarianceScaling", "config": {"scale": 1.0, "distribution": "normal", "mode": "fan_avg", "seed": 9035}}, "kernel_constraint": null, "kernel_regularizer": {"class_name": "L1L2", "config": {"l1": 0.0, "l2": 0.00019999999494757503}}, "activation": "relu", "use_bias": true, "name": "dense_18", "bias_initializer": {"class_name": "Zeros", "config": {}}}}, {"name": "dense_22", "inbound_nodes": [[["dense_21", 0, 0, {}]]], "class_name": "Dense", "config": {"activity_regularizer": null, "bias_regularizer": null, "units": 50, "bias_constraint": null, "trainable": true, "kernel_initializer": {"class_name": "VarianceScaling", "config": {"scale": 1.0, "distribution": "normal", "mode": "fan_avg", "seed": 9035}}, "kernel_constraint": null, "kernel_regularizer": {"class_name": "L1L2", "config": {"l1": 0.0, "l2": 0.00019999999494757503}}, "activation": "relu", "use_bias": true, "name": "dense_22", "bias_initializer": {"class_name": "Zeros", "config": {}}}}, {"name": "dense_26", "inbound_nodes": [[["dense_25", 0, 0, {}]]], "class_name": "Dense", "config": {"activity_regularizer": null, "bias_regularizer": null, "units": 50, "bias_constraint": null, "trainable": true, "kernel_initializer": {"class_name": "VarianceScaling", "config": {"scale": 1.0, "distribution": "normal", "mode": "fan_avg", "seed": 9035}}, "kernel_constraint": null, "kernel_regularizer": {"class_name": "L1L2", "config": {"l1": 0.0, "l2": 0.00019999999494757503}}, "activation": "relu", "use_bias": true, "name": "dense_26", "bias_initializer": {"class_name": "Zeros", "config": {}}}}, {"name": "dense_3", "inbound_nodes": [[["dense_2", 0, 0, {}]]], "class_name": "Dense", "config": {"activity_regularizer": null, "bias_regularizer": null, "units": 50, "bias_constraint": null, "trainable": true, "kernel_initializer": {"class_name": "VarianceScaling", "config": {"scale": 1.0, "distribution": "normal", "mode": "fan_avg", "seed": 9035}}, "kernel_constraint": null, "kernel_regularizer": {"class_name": "L1L2", "config": {"l1": 0.0, "l2": 0.00019999999494757503}}, "activation": "relu", "use_bias": true, "name": "dense_3", "bias_initializer": {"class_name": "Zeros", "config": {}}}}, {"name": "dense_7", "inbound_nodes": [[["dense_6", 0, 0, {}]]], "class_name": "Dense", "config": {"activity_regularizer": null, "bias_regularizer": null, "units": 50, "bias_constraint": null, "trainable": true, "kernel_initializer": {"class_name": "VarianceScaling", "config": {"scale": 1.0, "distribution": "normal", "mode": "fan_avg", "seed": 9035}}, "kernel_constraint": null, "kernel_regularizer": {"class_name": "L1L2", "config": {"l1": 0.0, "l2": 0.00019999999494757503}}, "activation": "relu", "use_bias": true, "name": "dense_7", "bias_initializer": {"class_name": "Zeros", "config": {}}}}, {"name": "dense_11", "inbound_nodes": [[["dense_10", 0, 0, {}]]], "class_name": "Dense", "config": {"activity_regularizer": null, "bias_regularizer": null, "units": 50, "bias_constraint": null, "trainable": true, "kernel_initializer": {"class_name": "VarianceScaling", "config": {"scale": 1.0, "distribution": "normal", "mode": "fan_avg", "seed": 9035}}, "kernel_constraint": null, "kernel_regularizer": {"class_name": "L1L2", "config": {"l1": 0.0, "l2": 0.00019999999494757503}}, "activation": "relu", "use_bias": true, "name": "dense_11", "bias_initializer": {"class_name": "Zeros", "config": {}}}}, {"name": "dense_15", "inbound_nodes": [[["dense_14", 0, 0, {}]]], "class_name": "Dense", "config": {"activity_regularizer": null, "bias_regularizer": null, "units": 50, "bias_constraint": null, "trainable": true, "kernel_initializer": {"class_name": "VarianceScaling", "config": {"scale": 1.0, "distribution": "normal", "mode": "fan_avg", "seed": 9035}}, "kernel_constraint": null, "kernel_regularizer": {"class_name": "L1L2", "config": {"l1": 0.0, "l2": 0.00019999999494757503}}, "activation": "relu", "use_bias": true, "name": "dense_15", "bias_initializer": {"class_name": "Zeros", "config": {}}}}, {"name": "dense_19", "inbound_nodes": [[["dense_18", 0, 0, {}]]], "class_name": "Dense", "config": {"activity_regularizer": null, "bias_regularizer": null, "units": 50, "bias_constraint": null, "trainable": true, "kernel_initializer": {"class_name": "VarianceScaling", "config": {"scale": 1.0, "distribution": "normal", "mode": "fan_avg", "seed": 9035}}, "kernel_constraint": null, "kernel_regularizer": {"class_name": "L1L2", "config": {"l1": 0.0, "l2": 0.00019999999494757503}}, "activation": "relu", "use_bias": true, "name": "dense_19", "bias_initializer": {"class_name": "Zeros", "config": {}}}}, {"name": "dense_23", "inbound_nodes": [[["dense_22", 0, 0, {}]]], "class_name": "Dense", "config": {"activity_regularizer": null, "bias_regularizer": null, "units": 50, "bias_constraint": null, "trainable": true, "kernel_initializer": {"class_name": "VarianceScaling", "config": {"scale": 1.0, "distribution": "normal", "mode": "fan_avg", "seed": 9035}}, "kernel_constraint": null, "kernel_regularizer": {"class_name": "L1L2", "config": {"l1": 0.0, "l2": 0.00019999999494757503}}, "activation": "relu", "use_bias": true, "name": "dense_23", "bias_initializer": {"class_name": "Zeros", "config": {}}}}, {"name": "dense_27", "inbound_nodes": [[["dense_26", 0, 0, {}]]], "class_name": "Dense", "config": {"activity_regularizer": null, "bias_regularizer": null, "units": 50, "bias_constraint": null, "trainable": true, "kernel_initializer": {"class_name": "VarianceScaling", "config": {"scale": 1.0, "distribution": "normal", "mode": "fan_avg", "seed": 9035}}, "kernel_constraint": null, "kernel_regularizer": {"class_name": "L1L2", "config": {"l1": 0.0, "l2": 0.00019999999494757503}}, "activation": "relu", "use_bias": true, "name": "dense_27", "bias_initializer": {"class_name": "Zeros", "config": {}}}}, {"name": "OnOff_C1", "inbound_nodes": [], "class_name": "InputLayer", "config": {"name": "OnOff_C1", "dtype": "float32", "sparse": false, "batch_input_shape": [null, 1]}}, {"name": "dense_4", "inbound_nodes": [[["dense_3", 0, 0, {}]]], "class_name": "Dense", "config": {"activity_regularizer": null, "bias_regularizer": null, "units": 1, "bias_constraint": null, "trainable": true, "kernel_initializer": {"class_name": "VarianceScaling", "config": {"scale": 1.0, "distribution": "normal", "mode": "fan_avg", "seed": 9035}}, "kernel_constraint": null, "kernel_regularizer": {"class_name": "L1L2", "config": {"l1": 0.0, "l2": 0.00019999999494757503}}, "activation": "relu", "use_bias": true, "name": "dense_4", "bias_initializer": {"class_name": "Zeros", "config": {}}}}, {"name": "OnOff_C2", "inbound_nodes": [], "class_name": "InputLayer", "config": {"name": "OnOff_C2", "dtype": "float32", "sparse": false, "batch_input_shape": [null, 1]}}, {"name": "dense_8", "inbound_nodes": [[["dense_7", 0, 0, {}]]], "class_name": "Dense", "config": {"activity_regularizer": null, "bias_regularizer": null, "units": 1, "bias_constraint": null, "trainable": true, "kernel_initializer": {"class_name": "VarianceScaling", "config": {"scale": 1.0, "distribution": "normal", "mode": "fan_avg", "seed": 9035}}, "kernel_constraint": null, "kernel_regularizer": {"class_name": "L1L2", "config": {"l1": 0.0, "l2": 0.00019999999494757503}}, "activation": "relu", "use_bias": true, "name": "dense_8", "bias_initializer": {"class_name": "Zeros", "config": {}}}}, {"name": "OnOff_C3", "inbound_nodes": [], "class_name": "InputLayer", "config": {"name": "OnOff_C3", "dtype": "float32", "sparse": false, "batch_input_shape": [null, 1]}}, {"name": "dense_12", "inbound_nodes": [[["dense_11", 0, 0, {}]]], "class_name": "Dense", "config": {"activity_regularizer": null, "bias_regularizer": null, "units": 1, "bias_constraint": null, "trainable": true, "kernel_initializer": {"class_name": "VarianceScaling", "config": {"scale": 1.0, "distribution": "normal", "mode": "fan_avg", "seed": 9035}}, "kernel_constraint": null, "kernel_regularizer": {"class_name": "L1L2", "config": {"l1": 0.0, "l2": 0.00019999999494757503}}, "activation": "relu", "use_bias": true, "name": "dense_12", "bias_initializer": {"class_name": "Zeros", "config": {}}}}, {"name": "OnOff_C4", "inbound_nodes": [], "class_name": "InputLayer", "config": {"name": "OnOff_C4", "dtype": "float32", "sparse": false, "batch_input_shape": [null, 1]}}, {"name": "dense_16", "inbound_nodes": [[["dense_15", 0, 0, {}]]], "class_name": "Dense", "config": {"activity_regularizer": null, "bias_regularizer": null, "units": 1, "bias_constraint": null, "trainable": true, "kernel_initializer": {"class_name": "VarianceScaling", "config": {"scale": 1.0, "distribution": "normal", "mode": "fan_avg", "seed": 9035}}, "kernel_constraint": null, "kernel_regularizer": {"class_name": "L1L2", "config": {"l1": 0.0, "l2": 0.00019999999494757503}}, "activation": "relu", "use_bias": true, "name": "dense_16", "bias_initializer": {"class_name": "Zeros", "config": {}}}}, {"name": "OnOff_B1", "inbound_nodes": [], "class_name": "InputLayer", "config": {"name": "OnOff_B1", "dtype": "float32", "sparse": false, "batch_input_shape": [null, 1]}}, {"name": "dense_20", "inbound_nodes": [[["dense_19", 0, 0, {}]]], "class_name": "Dense", "config": {"activity_regularizer": null, "bias_regularizer": null, "units": 1, "bias_constraint": null, "trainable": true, "kernel_initializer": {"class_name": "VarianceScaling", "config": {"scale": 1.0, "distribution": "normal", "mode": "fan_avg", "seed": 9035}}, "kernel_constraint": null, "kernel_regularizer": {"class_name": "L1L2", "config": {"l1": 0.0, "l2": 0.00019999999494757503}}, "activation": "relu", "use_bias": true, "name": "dense_20", "bias_initializer": {"class_name": "Zeros", "config": {}}}}, {"name": "OnOff_B3", "inbound_nodes": [], "class_name": "InputLayer", "config": {"name": "OnOff_B3", "dtype": "float32", "sparse": false, "batch_input_shape": [null, 1]}}, {"name": "dense_24", "inbound_nodes": [[["dense_23", 0, 0, {}]]], "class_name": "Dense", "config": {"activity_regularizer": null, "bias_regularizer": null, "units": 1, "bias_constraint": null, "trainable": true, "kernel_initializer": {"class_name": "VarianceScaling", "config": {"scale": 1.0, "distribution": "normal", "mode": "fan_avg", "seed": 9035}}, "kernel_constraint": null, "kernel_regularizer": {"class_name": "L1L2", "config": {"l1": 0.0, "l2": 0.00019999999494757503}}, "activation": "relu", "use_bias": true, "name": "dense_24", "bias_initializer": {"class_name": "Zeros", "config": {}}}}, {"name": "OnOff_D1", "inbound_nodes": [], "class_name": "InputLayer", "config": {"name": "OnOff_D1", "dtype": "float32", "sparse": false, "batch_input_shape": [null, 1]}}, {"name": "dense_28", "inbound_nodes": [[["dense_27", 0, 0, {}]]], "class_name": "Dense", "config": {"activity_regularizer": null, "bias_regularizer": null, "units": 1, "bias_constraint": null, "trainable": true, "kernel_initializer": {"class_name": "VarianceScaling", "config": {"scale": 1.0, "distribution": "normal", "mode": "fan_avg", "seed": 9035}}, "kernel_constraint": null, "kernel_regularizer": {"class_name": "L1L2", "config": {"l1": 0.0, "l2": 0.00019999999494757503}}, "activation": "relu", "use_bias": true, "name": "dense_28", "bias_initializer": {"class_name": "Zeros", "config": {}}}}, {"name": "C1_out", "inbound_nodes": [[["OnOff_C1", 0, 0, {}], ["dense_4", 0, 0, {}]]], "class_name": "Multiply", "config": {"name": "C1_out", "trainable": true}}, {"name": "C2_out", "inbound_nodes": [[["OnOff_C2", 0, 0, {}], ["dense_8", 0, 0, {}]]], "class_name": "Multiply", "config": {"name": "C2_out", "trainable": true}}, {"name": "C3_out", "inbound_nodes": [[["OnOff_C3", 0, 0, {}], ["dense_12", 0, 0, {}]]], "class_name": "Multiply", "config": {"name": "C3_out", "trainable": true}}, {"name": "C4_out", "inbound_nodes": [[["OnOff_C4", 0, 0, {}], ["dense_16", 0, 0, {}]]], "class_name": "Multiply", "config": {"name": "C4_out", "trainable": true}}, {"name": "B1_out", "inbound_nodes": [[["OnOff_B1", 0, 0, {}], ["dense_20", 0, 0, {}]]], "class_name": "Multiply", "config": {"name": "B1_out", "trainable": true}}, {"name": "B3_out", "inbound_nodes": [[["OnOff_B3", 0, 0, {}], ["dense_24", 0, 0, {}]]], "class_name": "Multiply", "config": {"name": "B3_out", "trainable": true}}, {"name": "D1_out", "inbound_nodes": [[["OnOff_D1", 0, 0, {}], ["dense_28", 0, 0, {}]]], "class_name": "Multiply", "config": {"name": "D1_out", "trainable": true}}, {"name": "GJOA_TOTAL", "inbound_nodes": [[["C1_out", 0, 0, {}], ["C2_out", 0, 0, {}], ["C3_out", 0, 0, {}], ["C4_out", 0, 0, {}], ["B1_out", 0, 0, {}], ["B3_out", 0, 0, {}], ["D1_out", 0, 0, {}]]], "class_name": "Add", "config": {"name": "GJOA_TOTAL", "trainable": true}}], "input_layers": [["C1", 0, 0], ["C2", 0, 0], ["C3", 0, 0], ["C4", 0, 0], ["B1", 0, 0], ["B3", 0, 0], ["D1", 0, 0], ["OnOff_C1", 0, 0], ["OnOff_C2", 0, 0], ["OnOff_C3", 0, 0], ["OnOff_C4", 0, 0], ["OnOff_B1", 0, 0], ["OnOff_B3", 0, 0], ["OnOff_D1", 0, 0]], "output_layers": [["C1_out", 0, 0], ["C2_out", 0, 0], ["C3_out", 0, 0], ["C4_out", 0, 0], ["B1_out", 0, 0], ["B3_out", 0, 0], ["D1_out", 0, 0], ["GJOA_TOTAL", 0, 0]]}}