{"class_name": "Model", "backend": "theano", "keras_version": "2.0.1", "config": {"name": "model_3", "input_layers": [["F1", 0, 0], ["B2", 0, 0], ["D3", 0, 0], ["E1", 0, 0], ["OnOff_F1", 0, 0], ["OnOff_B2", 0, 0], ["OnOff_D3", 0, 0], ["OnOff_E1", 0, 0]], "layers": [{"name": "F1", "class_name": "InputLayer", "inbound_nodes": [], "config": {"dtype": "float32", "name": "F1", "batch_input_shape": [null, 4], "sparse": false}}, {"name": "B2", "class_name": "InputLayer", "inbound_nodes": [], "config": {"dtype": "float32", "name": "B2", "batch_input_shape": [null, 4], "sparse": false}}, {"name": "D3", "class_name": "InputLayer", "inbound_nodes": [], "config": {"dtype": "float32", "name": "D3", "batch_input_shape": [null, 4], "sparse": false}}, {"name": "E1", "class_name": "InputLayer", "inbound_nodes": [], "config": {"dtype": "float32", "name": "E1", "batch_input_shape": [null, 4], "sparse": false}}, {"name": "dense_25", "class_name": "Dense", "inbound_nodes": [[["F1", 0, 0, {}]]], "config": {"bias_regularizer": null, "activity_regularizer": null, "kernel_initializer": {"class_name": "VarianceScaling", "config": {"mode": "fan_avg", "seed": 3014, "distribution": "normal", "scale": 1.0}}, "bias_initializer": {"class_name": "Zeros", "config": {}}, "kernel_regularizer": {"class_name": "L1L2", "config": {"l1": 0.0, "l2": 9.999999747378752e-05}}, "units": 90, "kernel_constraint": null, "use_bias": true, "activation": "relu", "name": "dense_25", "trainable": true, "bias_constraint": null}}, {"name": "dense_28", "class_name": "Dense", "inbound_nodes": [[["B2", 0, 0, {}]]], "config": {"bias_regularizer": null, "activity_regularizer": null, "kernel_initializer": {"class_name": "VarianceScaling", "config": {"mode": "fan_avg", "seed": 3014, "distribution": "normal", "scale": 1.0}}, "bias_initializer": {"class_name": "Zeros", "config": {}}, "kernel_regularizer": {"class_name": "L1L2", "config": {"l1": 0.0, "l2": 9.999999747378752e-05}}, "units": 90, "kernel_constraint": null, "use_bias": true, "activation": "relu", "name": "dense_28", "trainable": true, "bias_constraint": null}}, {"name": "dense_31", "class_name": "Dense", "inbound_nodes": [[["D3", 0, 0, {}]]], "config": {"bias_regularizer": null, "activity_regularizer": null, "kernel_initializer": {"class_name": "VarianceScaling", "config": {"mode": "fan_avg", "seed": 3014, "distribution": "normal", "scale": 1.0}}, "bias_initializer": {"class_name": "Zeros", "config": {}}, "kernel_regularizer": {"class_name": "L1L2", "config": {"l1": 0.0, "l2": 9.999999747378752e-05}}, "units": 90, "kernel_constraint": null, "use_bias": true, "activation": "relu", "name": "dense_31", "trainable": true, "bias_constraint": null}}, {"name": "dense_34", "class_name": "Dense", "inbound_nodes": [[["E1", 0, 0, {}]]], "config": {"bias_regularizer": null, "activity_regularizer": null, "kernel_initializer": {"class_name": "VarianceScaling", "config": {"mode": "fan_avg", "seed": 3014, "distribution": "normal", "scale": 1.0}}, "bias_initializer": {"class_name": "Zeros", "config": {}}, "kernel_regularizer": {"class_name": "L1L2", "config": {"l1": 0.0, "l2": 9.999999747378752e-05}}, "units": 90, "kernel_constraint": null, "use_bias": true, "activation": "relu", "name": "dense_34", "trainable": true, "bias_constraint": null}}, {"name": "dense_26", "class_name": "Dense", "inbound_nodes": [[["dense_25", 0, 0, {}]]], "config": {"bias_regularizer": null, "activity_regularizer": null, "kernel_initializer": {"class_name": "VarianceScaling", "config": {"mode": "fan_avg", "seed": 3014, "distribution": "normal", "scale": 1.0}}, "bias_initializer": {"class_name": "Zeros", "config": {}}, "kernel_regularizer": {"class_name": "L1L2", "config": {"l1": 0.0, "l2": 9.999999747378752e-05}}, "units": 90, "kernel_constraint": null, "use_bias": true, "activation": "relu", "name": "dense_26", "trainable": true, "bias_constraint": null}}, {"name": "dense_29", "class_name": "Dense", "inbound_nodes": [[["dense_28", 0, 0, {}]]], "config": {"bias_regularizer": null, "activity_regularizer": null, "kernel_initializer": {"class_name": "VarianceScaling", "config": {"mode": "fan_avg", "seed": 3014, "distribution": "normal", "scale": 1.0}}, "bias_initializer": {"class_name": "Zeros", "config": {}}, "kernel_regularizer": {"class_name": "L1L2", "config": {"l1": 0.0, "l2": 9.999999747378752e-05}}, "units": 90, "kernel_constraint": null, "use_bias": true, "activation": "relu", "name": "dense_29", "trainable": true, "bias_constraint": null}}, {"name": "dense_32", "class_name": "Dense", "inbound_nodes": [[["dense_31", 0, 0, {}]]], "config": {"bias_regularizer": null, "activity_regularizer": null, "kernel_initializer": {"class_name": "VarianceScaling", "config": {"mode": "fan_avg", "seed": 3014, "distribution": "normal", "scale": 1.0}}, "bias_initializer": {"class_name": "Zeros", "config": {}}, "kernel_regularizer": {"class_name": "L1L2", "config": {"l1": 0.0, "l2": 9.999999747378752e-05}}, "units": 90, "kernel_constraint": null, "use_bias": true, "activation": "relu", "name": "dense_32", "trainable": true, "bias_constraint": null}}, {"name": "dense_35", "class_name": "Dense", "inbound_nodes": [[["dense_34", 0, 0, {}]]], "config": {"bias_regularizer": null, "activity_regularizer": null, "kernel_initializer": {"class_name": "VarianceScaling", "config": {"mode": "fan_avg", "seed": 3014, "distribution": "normal", "scale": 1.0}}, "bias_initializer": {"class_name": "Zeros", "config": {}}, "kernel_regularizer": {"class_name": "L1L2", "config": {"l1": 0.0, "l2": 9.999999747378752e-05}}, "units": 90, "kernel_constraint": null, "use_bias": true, "activation": "relu", "name": "dense_35", "trainable": true, "bias_constraint": null}}, {"name": "OnOff_F1", "class_name": "InputLayer", "inbound_nodes": [], "config": {"dtype": "float32", "name": "OnOff_F1", "batch_input_shape": [null, 1], "sparse": false}}, {"name": "dense_27", "class_name": "Dense", "inbound_nodes": [[["dense_26", 0, 0, {}]]], "config": {"bias_regularizer": null, "activity_regularizer": null, "kernel_initializer": {"class_name": "VarianceScaling", "config": {"mode": "fan_avg", "seed": 3014, "distribution": "normal", "scale": 1.0}}, "bias_initializer": {"class_name": "Zeros", "config": {}}, "kernel_regularizer": {"class_name": "L1L2", "config": {"l1": 0.0, "l2": 9.999999747378752e-05}}, "units": 1, "kernel_constraint": null, "use_bias": true, "activation": "relu", "name": "dense_27", "trainable": true, "bias_constraint": null}}, {"name": "OnOff_B2", "class_name": "InputLayer", "inbound_nodes": [], "config": {"dtype": "float32", "name": "OnOff_B2", "batch_input_shape": [null, 1], "sparse": false}}, {"name": "dense_30", "class_name": "Dense", "inbound_nodes": [[["dense_29", 0, 0, {}]]], "config": {"bias_regularizer": null, "activity_regularizer": null, "kernel_initializer": {"class_name": "VarianceScaling", "config": {"mode": "fan_avg", "seed": 3014, "distribution": "normal", "scale": 1.0}}, "bias_initializer": {"class_name": "Zeros", "config": {}}, "kernel_regularizer": {"class_name": "L1L2", "config": {"l1": 0.0, "l2": 9.999999747378752e-05}}, "units": 1, "kernel_constraint": null, "use_bias": true, "activation": "relu", "name": "dense_30", "trainable": true, "bias_constraint": null}}, {"name": "OnOff_D3", "class_name": "InputLayer", "inbound_nodes": [], "config": {"dtype": "float32", "name": "OnOff_D3", "batch_input_shape": [null, 1], "sparse": false}}, {"name": "dense_33", "class_name": "Dense", "inbound_nodes": [[["dense_32", 0, 0, {}]]], "config": {"bias_regularizer": null, "activity_regularizer": null, "kernel_initializer": {"class_name": "VarianceScaling", "config": {"mode": "fan_avg", "seed": 3014, "distribution": "normal", "scale": 1.0}}, "bias_initializer": {"class_name": "Zeros", "config": {}}, "kernel_regularizer": {"class_name": "L1L2", "config": {"l1": 0.0, "l2": 9.999999747378752e-05}}, "units": 1, "kernel_constraint": null, "use_bias": true, "activation": "relu", "name": "dense_33", "trainable": true, "bias_constraint": null}}, {"name": "OnOff_E1", "class_name": "InputLayer", "inbound_nodes": [], "config": {"dtype": "float32", "name": "OnOff_E1", "batch_input_shape": [null, 1], "sparse": false}}, {"name": "dense_36", "class_name": "Dense", "inbound_nodes": [[["dense_35", 0, 0, {}]]], "config": {"bias_regularizer": null, "activity_regularizer": null, "kernel_initializer": {"class_name": "VarianceScaling", "config": {"mode": "fan_avg", "seed": 3014, "distribution": "normal", "scale": 1.0}}, "bias_initializer": {"class_name": "Zeros", "config": {}}, "kernel_regularizer": {"class_name": "L1L2", "config": {"l1": 0.0, "l2": 9.999999747378752e-05}}, "units": 1, "kernel_constraint": null, "use_bias": true, "activation": "relu", "name": "dense_36", "trainable": true, "bias_constraint": null}}, {"name": "F1_out", "class_name": "Multiply", "inbound_nodes": [[["OnOff_F1", 0, 0, {}], ["dense_27", 0, 0, {}]]], "config": {"name": "F1_out", "trainable": true}}, {"name": "B2_out", "class_name": "Multiply", "inbound_nodes": [[["OnOff_B2", 0, 0, {}], ["dense_30", 0, 0, {}]]], "config": {"name": "B2_out", "trainable": true}}, {"name": "D3_out", "class_name": "Multiply", "inbound_nodes": [[["OnOff_D3", 0, 0, {}], ["dense_33", 0, 0, {}]]], "config": {"name": "D3_out", "trainable": true}}, {"name": "E1_out", "class_name": "Multiply", "inbound_nodes": [[["OnOff_E1", 0, 0, {}], ["dense_36", 0, 0, {}]]], "config": {"name": "E1_out", "trainable": true}}, {"name": "GJOA_QGAS", "class_name": "Add", "inbound_nodes": [[["F1_out", 0, 0, {}], ["B2_out", 0, 0, {}], ["D3_out", 0, 0, {}], ["E1_out", 0, 0, {}]]], "config": {"name": "GJOA_QGAS", "trainable": true}}], "output_layers": [["F1_out", 0, 0], ["B2_out", 0, 0], ["D3_out", 0, 0], ["E1_out", 0, 0], ["GJOA_QGAS", 0, 0]]}}