{"class_name": "Model", "config": {"input_layers": [["PRESSURE_INPUT", 0, 0]], "output_layers": [["C1_PWH_out", 0, 0], ["C2_PWH_out", 0, 0], ["C3_PWH_out", 0, 0], ["C4_PWH_out", 0, 0], ["B3_PWH_out", 0, 0], ["B1_PWH_out", 0, 0], ["D1_PWH_out", 0, 0]], "layers": [{"class_name": "InputLayer", "config": {"batch_input_shape": [null, 8], "sparse": false, "name": "PRESSURE_INPUT", "dtype": "float32"}, "name": "PRESSURE_INPUT", "inbound_nodes": []}, {"class_name": "Dense", "config": {"trainable": true, "bias_initializer": {"class_name": "Zeros", "config": {}}, "kernel_initializer": {"class_name": "VarianceScaling", "config": {"seed": 3014, "mode": "fan_avg", "scale": 1.0, "distribution": "normal"}}, "kernel_constraint": null, "kernel_regularizer": {"class_name": "L1L2", "config": {"l1": 0.0, "l2": 0.0020000000949949026}}, "units": 100, "activation": "relu", "bias_constraint": null, "use_bias": true, "activity_regularizer": null, "bias_regularizer": null, "name": "C1_PWH_0"}, "name": "C1_PWH_0", "inbound_nodes": [[["PRESSURE_INPUT", 0, 0, {}]]]}, {"class_name": "Dense", "config": {"trainable": true, "bias_initializer": {"class_name": "Zeros", "config": {}}, "kernel_initializer": {"class_name": "VarianceScaling", "config": {"seed": 3014, "mode": "fan_avg", "scale": 1.0, "distribution": "normal"}}, "kernel_constraint": null, "kernel_regularizer": {"class_name": "L1L2", "config": {"l1": 0.0, "l2": 0.0020000000949949026}}, "units": 100, "activation": "relu", "bias_constraint": null, "use_bias": true, "activity_regularizer": null, "bias_regularizer": null, "name": "C2_PWH_0"}, "name": "C2_PWH_0", "inbound_nodes": [[["PRESSURE_INPUT", 0, 0, {}]]]}, {"class_name": "Dense", "config": {"trainable": true, "bias_initializer": {"class_name": "Zeros", "config": {}}, "kernel_initializer": {"class_name": "VarianceScaling", "config": {"seed": 3014, "mode": "fan_avg", "scale": 1.0, "distribution": "normal"}}, "kernel_constraint": null, "kernel_regularizer": {"class_name": "L1L2", "config": {"l1": 0.0, "l2": 0.0020000000949949026}}, "units": 100, "activation": "relu", "bias_constraint": null, "use_bias": true, "activity_regularizer": null, "bias_regularizer": null, "name": "C3_PWH_0"}, "name": "C3_PWH_0", "inbound_nodes": [[["PRESSURE_INPUT", 0, 0, {}]]]}, {"class_name": "Dense", "config": {"trainable": true, "bias_initializer": {"class_name": "Zeros", "config": {}}, "kernel_initializer": {"class_name": "VarianceScaling", "config": {"seed": 3014, "mode": "fan_avg", "scale": 1.0, "distribution": "normal"}}, "kernel_constraint": null, "kernel_regularizer": {"class_name": "L1L2", "config": {"l1": 0.0, "l2": 0.0020000000949949026}}, "units": 100, "activation": "relu", "bias_constraint": null, "use_bias": true, "activity_regularizer": null, "bias_regularizer": null, "name": "C4_PWH_0"}, "name": "C4_PWH_0", "inbound_nodes": [[["PRESSURE_INPUT", 0, 0, {}]]]}, {"class_name": "Dense", "config": {"trainable": true, "bias_initializer": {"class_name": "Zeros", "config": {}}, "kernel_initializer": {"class_name": "VarianceScaling", "config": {"seed": 3014, "mode": "fan_avg", "scale": 1.0, "distribution": "normal"}}, "kernel_constraint": null, "kernel_regularizer": {"class_name": "L1L2", "config": {"l1": 0.0, "l2": 0.0020000000949949026}}, "units": 100, "activation": "relu", "bias_constraint": null, "use_bias": true, "activity_regularizer": null, "bias_regularizer": null, "name": "B3_PWH_0"}, "name": "B3_PWH_0", "inbound_nodes": [[["PRESSURE_INPUT", 0, 0, {}]]]}, {"class_name": "Dense", "config": {"trainable": true, "bias_initializer": {"class_name": "Zeros", "config": {}}, "kernel_initializer": {"class_name": "VarianceScaling", "config": {"seed": 3014, "mode": "fan_avg", "scale": 1.0, "distribution": "normal"}}, "kernel_constraint": null, "kernel_regularizer": {"class_name": "L1L2", "config": {"l1": 0.0, "l2": 0.0020000000949949026}}, "units": 100, "activation": "relu", "bias_constraint": null, "use_bias": true, "activity_regularizer": null, "bias_regularizer": null, "name": "B1_PWH_0"}, "name": "B1_PWH_0", "inbound_nodes": [[["PRESSURE_INPUT", 0, 0, {}]]]}, {"class_name": "Dense", "config": {"trainable": true, "bias_initializer": {"class_name": "Zeros", "config": {}}, "kernel_initializer": {"class_name": "VarianceScaling", "config": {"seed": 3014, "mode": "fan_avg", "scale": 1.0, "distribution": "normal"}}, "kernel_constraint": null, "kernel_regularizer": {"class_name": "L1L2", "config": {"l1": 0.0, "l2": 0.0020000000949949026}}, "units": 100, "activation": "relu", "bias_constraint": null, "use_bias": true, "activity_regularizer": null, "bias_regularizer": null, "name": "D1_PWH_0"}, "name": "D1_PWH_0", "inbound_nodes": [[["PRESSURE_INPUT", 0, 0, {}]]]}, {"class_name": "Dense", "config": {"trainable": true, "bias_initializer": {"class_name": "Zeros", "config": {}}, "kernel_initializer": {"class_name": "VarianceScaling", "config": {"seed": 3014, "mode": "fan_avg", "scale": 1.0, "distribution": "normal"}}, "kernel_constraint": null, "kernel_regularizer": {"class_name": "L1L2", "config": {"l1": 0.0, "l2": 0.0020000000949949026}}, "units": 100, "activation": "relu", "bias_constraint": null, "use_bias": true, "activity_regularizer": null, "bias_regularizer": null, "name": "C1_PWH_1"}, "name": "C1_PWH_1", "inbound_nodes": [[["C1_PWH_0", 0, 0, {}]]]}, {"class_name": "Dense", "config": {"trainable": true, "bias_initializer": {"class_name": "Zeros", "config": {}}, "kernel_initializer": {"class_name": "VarianceScaling", "config": {"seed": 3014, "mode": "fan_avg", "scale": 1.0, "distribution": "normal"}}, "kernel_constraint": null, "kernel_regularizer": {"class_name": "L1L2", "config": {"l1": 0.0, "l2": 0.0020000000949949026}}, "units": 100, "activation": "relu", "bias_constraint": null, "use_bias": true, "activity_regularizer": null, "bias_regularizer": null, "name": "C2_PWH_1"}, "name": "C2_PWH_1", "inbound_nodes": [[["C2_PWH_0", 0, 0, {}]]]}, {"class_name": "Dense", "config": {"trainable": true, "bias_initializer": {"class_name": "Zeros", "config": {}}, "kernel_initializer": {"class_name": "VarianceScaling", "config": {"seed": 3014, "mode": "fan_avg", "scale": 1.0, "distribution": "normal"}}, "kernel_constraint": null, "kernel_regularizer": {"class_name": "L1L2", "config": {"l1": 0.0, "l2": 0.0020000000949949026}}, "units": 100, "activation": "relu", "bias_constraint": null, "use_bias": true, "activity_regularizer": null, "bias_regularizer": null, "name": "C3_PWH_1"}, "name": "C3_PWH_1", "inbound_nodes": [[["C3_PWH_0", 0, 0, {}]]]}, {"class_name": "Dense", "config": {"trainable": true, "bias_initializer": {"class_name": "Zeros", "config": {}}, "kernel_initializer": {"class_name": "VarianceScaling", "config": {"seed": 3014, "mode": "fan_avg", "scale": 1.0, "distribution": "normal"}}, "kernel_constraint": null, "kernel_regularizer": {"class_name": "L1L2", "config": {"l1": 0.0, "l2": 0.0020000000949949026}}, "units": 100, "activation": "relu", "bias_constraint": null, "use_bias": true, "activity_regularizer": null, "bias_regularizer": null, "name": "C4_PWH_1"}, "name": "C4_PWH_1", "inbound_nodes": [[["C4_PWH_0", 0, 0, {}]]]}, {"class_name": "Dense", "config": {"trainable": true, "bias_initializer": {"class_name": "Zeros", "config": {}}, "kernel_initializer": {"class_name": "VarianceScaling", "config": {"seed": 3014, "mode": "fan_avg", "scale": 1.0, "distribution": "normal"}}, "kernel_constraint": null, "kernel_regularizer": {"class_name": "L1L2", "config": {"l1": 0.0, "l2": 0.0020000000949949026}}, "units": 100, "activation": "relu", "bias_constraint": null, "use_bias": true, "activity_regularizer": null, "bias_regularizer": null, "name": "B3_PWH_1"}, "name": "B3_PWH_1", "inbound_nodes": [[["B3_PWH_0", 0, 0, {}]]]}, {"class_name": "Dense", "config": {"trainable": true, "bias_initializer": {"class_name": "Zeros", "config": {}}, "kernel_initializer": {"class_name": "VarianceScaling", "config": {"seed": 3014, "mode": "fan_avg", "scale": 1.0, "distribution": "normal"}}, "kernel_constraint": null, "kernel_regularizer": {"class_name": "L1L2", "config": {"l1": 0.0, "l2": 0.0020000000949949026}}, "units": 100, "activation": "relu", "bias_constraint": null, "use_bias": true, "activity_regularizer": null, "bias_regularizer": null, "name": "B1_PWH_1"}, "name": "B1_PWH_1", "inbound_nodes": [[["B1_PWH_0", 0, 0, {}]]]}, {"class_name": "Dense", "config": {"trainable": true, "bias_initializer": {"class_name": "Zeros", "config": {}}, "kernel_initializer": {"class_name": "VarianceScaling", "config": {"seed": 3014, "mode": "fan_avg", "scale": 1.0, "distribution": "normal"}}, "kernel_constraint": null, "kernel_regularizer": {"class_name": "L1L2", "config": {"l1": 0.0, "l2": 0.0020000000949949026}}, "units": 100, "activation": "relu", "bias_constraint": null, "use_bias": true, "activity_regularizer": null, "bias_regularizer": null, "name": "D1_PWH_1"}, "name": "D1_PWH_1", "inbound_nodes": [[["D1_PWH_0", 0, 0, {}]]]}, {"class_name": "Dense", "config": {"trainable": true, "bias_initializer": {"class_name": "Zeros", "config": {}}, "kernel_initializer": {"class_name": "VarianceScaling", "config": {"seed": 3014, "mode": "fan_avg", "scale": 1.0, "distribution": "normal"}}, "kernel_constraint": null, "kernel_regularizer": {"class_name": "L1L2", "config": {"l1": 0.0, "l2": 0.0020000000949949026}}, "units": 1, "activation": "linear", "bias_constraint": null, "use_bias": true, "activity_regularizer": null, "bias_regularizer": null, "name": "C1_PWH_out"}, "name": "C1_PWH_out", "inbound_nodes": [[["C1_PWH_1", 0, 0, {}]]]}, {"class_name": "Dense", "config": {"trainable": true, "bias_initializer": {"class_name": "Zeros", "config": {}}, "kernel_initializer": {"class_name": "VarianceScaling", "config": {"seed": 3014, "mode": "fan_avg", "scale": 1.0, "distribution": "normal"}}, "kernel_constraint": null, "kernel_regularizer": {"class_name": "L1L2", "config": {"l1": 0.0, "l2": 0.0020000000949949026}}, "units": 1, "activation": "linear", "bias_constraint": null, "use_bias": true, "activity_regularizer": null, "bias_regularizer": null, "name": "C2_PWH_out"}, "name": "C2_PWH_out", "inbound_nodes": [[["C2_PWH_1", 0, 0, {}]]]}, {"class_name": "Dense", "config": {"trainable": true, "bias_initializer": {"class_name": "Zeros", "config": {}}, "kernel_initializer": {"class_name": "VarianceScaling", "config": {"seed": 3014, "mode": "fan_avg", "scale": 1.0, "distribution": "normal"}}, "kernel_constraint": null, "kernel_regularizer": {"class_name": "L1L2", "config": {"l1": 0.0, "l2": 0.0020000000949949026}}, "units": 1, "activation": "linear", "bias_constraint": null, "use_bias": true, "activity_regularizer": null, "bias_regularizer": null, "name": "C3_PWH_out"}, "name": "C3_PWH_out", "inbound_nodes": [[["C3_PWH_1", 0, 0, {}]]]}, {"class_name": "Dense", "config": {"trainable": true, "bias_initializer": {"class_name": "Zeros", "config": {}}, "kernel_initializer": {"class_name": "VarianceScaling", "config": {"seed": 3014, "mode": "fan_avg", "scale": 1.0, "distribution": "normal"}}, "kernel_constraint": null, "kernel_regularizer": {"class_name": "L1L2", "config": {"l1": 0.0, "l2": 0.0020000000949949026}}, "units": 1, "activation": "linear", "bias_constraint": null, "use_bias": true, "activity_regularizer": null, "bias_regularizer": null, "name": "C4_PWH_out"}, "name": "C4_PWH_out", "inbound_nodes": [[["C4_PWH_1", 0, 0, {}]]]}, {"class_name": "Dense", "config": {"trainable": true, "bias_initializer": {"class_name": "Zeros", "config": {}}, "kernel_initializer": {"class_name": "VarianceScaling", "config": {"seed": 3014, "mode": "fan_avg", "scale": 1.0, "distribution": "normal"}}, "kernel_constraint": null, "kernel_regularizer": {"class_name": "L1L2", "config": {"l1": 0.0, "l2": 0.0020000000949949026}}, "units": 1, "activation": "linear", "bias_constraint": null, "use_bias": true, "activity_regularizer": null, "bias_regularizer": null, "name": "B3_PWH_out"}, "name": "B3_PWH_out", "inbound_nodes": [[["B3_PWH_1", 0, 0, {}]]]}, {"class_name": "Dense", "config": {"trainable": true, "bias_initializer": {"class_name": "Zeros", "config": {}}, "kernel_initializer": {"class_name": "VarianceScaling", "config": {"seed": 3014, "mode": "fan_avg", "scale": 1.0, "distribution": "normal"}}, "kernel_constraint": null, "kernel_regularizer": {"class_name": "L1L2", "config": {"l1": 0.0, "l2": 0.0020000000949949026}}, "units": 1, "activation": "linear", "bias_constraint": null, "use_bias": true, "activity_regularizer": null, "bias_regularizer": null, "name": "B1_PWH_out"}, "name": "B1_PWH_out", "inbound_nodes": [[["B1_PWH_1", 0, 0, {}]]]}, {"class_name": "Dense", "config": {"trainable": true, "bias_initializer": {"class_name": "Zeros", "config": {}}, "kernel_initializer": {"class_name": "VarianceScaling", "config": {"seed": 3014, "mode": "fan_avg", "scale": 1.0, "distribution": "normal"}}, "kernel_constraint": null, "kernel_regularizer": {"class_name": "L1L2", "config": {"l1": 0.0, "l2": 0.0020000000949949026}}, "units": 1, "activation": "linear", "bias_constraint": null, "use_bias": true, "activity_regularizer": null, "bias_regularizer": null, "name": "D1_PWH_out"}, "name": "D1_PWH_out", "inbound_nodes": [[["D1_PWH_1", 0, 0, {}]]]}], "name": "model_1"}, "keras_version": "2.0.1", "backend": "theano"}