{"config": {"name": "model_1", "layers": [{"name": "C1", "config": {"name": "C1", "sparse": false, "dtype": "float32", "batch_input_shape": [null, 4]}, "inbound_nodes": [], "class_name": "InputLayer"}, {"name": "C2", "config": {"name": "C2", "sparse": false, "dtype": "float32", "batch_input_shape": [null, 3]}, "inbound_nodes": [], "class_name": "InputLayer"}, {"name": "C3", "config": {"name": "C3", "sparse": false, "dtype": "float32", "batch_input_shape": [null, 4]}, "inbound_nodes": [], "class_name": "InputLayer"}, {"name": "C4", "config": {"name": "C4", "sparse": false, "dtype": "float32", "batch_input_shape": [null, 4]}, "inbound_nodes": [], "class_name": "InputLayer"}, {"name": "B1", "config": {"name": "B1", "sparse": false, "dtype": "float32", "batch_input_shape": [null, 4]}, "inbound_nodes": [], "class_name": "InputLayer"}, {"name": "B3", "config": {"name": "B3", "sparse": false, "dtype": "float32", "batch_input_shape": [null, 4]}, "inbound_nodes": [], "class_name": "InputLayer"}, {"name": "D1", "config": {"name": "D1", "sparse": false, "dtype": "float32", "batch_input_shape": [null, 3]}, "inbound_nodes": [], "class_name": "InputLayer"}, {"name": "dense_1", "config": {"name": "dense_1", "activity_regularizer": null, "activation": "relu", "trainable": true, "kernel_regularizer": {"config": {"l1": 0.0, "l2": 9.999999747378752e-05}, "class_name": "L1L2"}, "use_bias": true, "kernel_constraint": null, "bias_constraint": null, "units": 50, "bias_initializer": {"config": {}, "class_name": "Zeros"}, "bias_regularizer": null, "kernel_initializer": {"config": {"scale": 1.0, "seed": 9035, "distribution": "normal", "mode": "fan_avg"}, "class_name": "VarianceScaling"}}, "inbound_nodes": [[["C1", 0, 0, {}]]], "class_name": "Dense"}, {"name": "dense_5", "config": {"name": "dense_5", "activity_regularizer": null, "activation": "relu", "trainable": true, "kernel_regularizer": {"config": {"l1": 0.0, "l2": 9.999999747378752e-05}, "class_name": "L1L2"}, "use_bias": true, "kernel_constraint": null, "bias_constraint": null, "units": 50, "bias_initializer": {"config": {}, "class_name": "Zeros"}, "bias_regularizer": null, "kernel_initializer": {"config": {"scale": 1.0, "seed": 9035, "distribution": "normal", "mode": "fan_avg"}, "class_name": "VarianceScaling"}}, "inbound_nodes": [[["C2", 0, 0, {}]]], "class_name": "Dense"}, {"name": "dense_9", "config": {"name": "dense_9", "activity_regularizer": null, "activation": "relu", "trainable": true, "kernel_regularizer": {"config": {"l1": 0.0, "l2": 9.999999747378752e-05}, "class_name": "L1L2"}, "use_bias": true, "kernel_constraint": null, "bias_constraint": null, "units": 50, "bias_initializer": {"config": {}, "class_name": "Zeros"}, "bias_regularizer": null, "kernel_initializer": {"config": {"scale": 1.0, "seed": 9035, "distribution": "normal", "mode": "fan_avg"}, "class_name": "VarianceScaling"}}, "inbound_nodes": [[["C3", 0, 0, {}]]], "class_name": "Dense"}, {"name": "dense_13", "config": {"name": "dense_13", "activity_regularizer": null, "activation": "relu", "trainable": true, "kernel_regularizer": {"config": {"l1": 0.0, "l2": 9.999999747378752e-05}, "class_name": "L1L2"}, "use_bias": true, "kernel_constraint": null, "bias_constraint": null, "units": 50, "bias_initializer": {"config": {}, "class_name": "Zeros"}, "bias_regularizer": null, "kernel_initializer": {"config": {"scale": 1.0, "seed": 9035, "distribution": "normal", "mode": "fan_avg"}, "class_name": "VarianceScaling"}}, "inbound_nodes": [[["C4", 0, 0, {}]]], "class_name": "Dense"}, {"name": "dense_17", "config": {"name": "dense_17", "activity_regularizer": null, "activation": "relu", "trainable": true, "kernel_regularizer": {"config": {"l1": 0.0, "l2": 9.999999747378752e-05}, "class_name": "L1L2"}, "use_bias": true, "kernel_constraint": null, "bias_constraint": null, "units": 50, "bias_initializer": {"config": {}, "class_name": "Zeros"}, "bias_regularizer": null, "kernel_initializer": {"config": {"scale": 1.0, "seed": 9035, "distribution": "normal", "mode": "fan_avg"}, "class_name": "VarianceScaling"}}, "inbound_nodes": [[["B1", 0, 0, {}]]], "class_name": "Dense"}, {"name": "dense_21", "config": {"name": "dense_21", "activity_regularizer": null, "activation": "relu", "trainable": true, "kernel_regularizer": {"config": {"l1": 0.0, "l2": 9.999999747378752e-05}, "class_name": "L1L2"}, "use_bias": true, "kernel_constraint": null, "bias_constraint": null, "units": 50, "bias_initializer": {"config": {}, "class_name": "Zeros"}, "bias_regularizer": null, "kernel_initializer": {"config": {"scale": 1.0, "seed": 9035, "distribution": "normal", "mode": "fan_avg"}, "class_name": "VarianceScaling"}}, "inbound_nodes": [[["B3", 0, 0, {}]]], "class_name": "Dense"}, {"name": "dense_25", "config": {"name": "dense_25", "activity_regularizer": null, "activation": "relu", "trainable": true, "kernel_regularizer": {"config": {"l1": 0.0, "l2": 9.999999747378752e-05}, "class_name": "L1L2"}, "use_bias": true, "kernel_constraint": null, "bias_constraint": null, "units": 50, "bias_initializer": {"config": {}, "class_name": "Zeros"}, "bias_regularizer": null, "kernel_initializer": {"config": {"scale": 1.0, "seed": 9035, "distribution": "normal", "mode": "fan_avg"}, "class_name": "VarianceScaling"}}, "inbound_nodes": [[["D1", 0, 0, {}]]], "class_name": "Dense"}, {"name": "dense_2", "config": {"name": "dense_2", "activity_regularizer": null, "activation": "relu", "trainable": true, "kernel_regularizer": {"config": {"l1": 0.0, "l2": 9.999999747378752e-05}, "class_name": "L1L2"}, "use_bias": true, "kernel_constraint": null, "bias_constraint": null, "units": 50, "bias_initializer": {"config": {}, "class_name": "Zeros"}, "bias_regularizer": null, "kernel_initializer": {"config": {"scale": 1.0, "seed": 9035, "distribution": "normal", "mode": "fan_avg"}, "class_name": "VarianceScaling"}}, "inbound_nodes": [[["dense_1", 0, 0, {}]]], "class_name": "Dense"}, {"name": "dense_6", "config": {"name": "dense_6", "activity_regularizer": null, "activation": "relu", "trainable": true, "kernel_regularizer": {"config": {"l1": 0.0, "l2": 9.999999747378752e-05}, "class_name": "L1L2"}, "use_bias": true, "kernel_constraint": null, "bias_constraint": null, "units": 50, "bias_initializer": {"config": {}, "class_name": "Zeros"}, "bias_regularizer": null, "kernel_initializer": {"config": {"scale": 1.0, "seed": 9035, "distribution": "normal", "mode": "fan_avg"}, "class_name": "VarianceScaling"}}, "inbound_nodes": [[["dense_5", 0, 0, {}]]], "class_name": "Dense"}, {"name": "dense_10", "config": {"name": "dense_10", "activity_regularizer": null, "activation": "relu", "trainable": true, "kernel_regularizer": {"config": {"l1": 0.0, "l2": 9.999999747378752e-05}, "class_name": "L1L2"}, "use_bias": true, "kernel_constraint": null, "bias_constraint": null, "units": 50, "bias_initializer": {"config": {}, "class_name": "Zeros"}, "bias_regularizer": null, "kernel_initializer": {"config": {"scale": 1.0, "seed": 9035, "distribution": "normal", "mode": "fan_avg"}, "class_name": "VarianceScaling"}}, "inbound_nodes": [[["dense_9", 0, 0, {}]]], "class_name": "Dense"}, {"name": "dense_14", "config": {"name": "dense_14", "activity_regularizer": null, "activation": "relu", "trainable": true, "kernel_regularizer": {"config": {"l1": 0.0, "l2": 9.999999747378752e-05}, "class_name": "L1L2"}, "use_bias": true, "kernel_constraint": null, "bias_constraint": null, "units": 50, "bias_initializer": {"config": {}, "class_name": "Zeros"}, "bias_regularizer": null, "kernel_initializer": {"config": {"scale": 1.0, "seed": 9035, "distribution": "normal", "mode": "fan_avg"}, "class_name": "VarianceScaling"}}, "inbound_nodes": [[["dense_13", 0, 0, {}]]], "class_name": "Dense"}, {"name": "dense_18", "config": {"name": "dense_18", "activity_regularizer": null, "activation": "relu", "trainable": true, "kernel_regularizer": {"config": {"l1": 0.0, "l2": 9.999999747378752e-05}, "class_name": "L1L2"}, "use_bias": true, "kernel_constraint": null, "bias_constraint": null, "units": 50, "bias_initializer": {"config": {}, "class_name": "Zeros"}, "bias_regularizer": null, "kernel_initializer": {"config": {"scale": 1.0, "seed": 9035, "distribution": "normal", "mode": "fan_avg"}, "class_name": "VarianceScaling"}}, "inbound_nodes": [[["dense_17", 0, 0, {}]]], "class_name": "Dense"}, {"name": "dense_22", "config": {"name": "dense_22", "activity_regularizer": null, "activation": "relu", "trainable": true, "kernel_regularizer": {"config": {"l1": 0.0, "l2": 9.999999747378752e-05}, "class_name": "L1L2"}, "use_bias": true, "kernel_constraint": null, "bias_constraint": null, "units": 50, "bias_initializer": {"config": {}, "class_name": "Zeros"}, "bias_regularizer": null, "kernel_initializer": {"config": {"scale": 1.0, "seed": 9035, "distribution": "normal", "mode": "fan_avg"}, "class_name": "VarianceScaling"}}, "inbound_nodes": [[["dense_21", 0, 0, {}]]], "class_name": "Dense"}, {"name": "dense_26", "config": {"name": "dense_26", "activity_regularizer": null, "activation": "relu", "trainable": true, "kernel_regularizer": {"config": {"l1": 0.0, "l2": 9.999999747378752e-05}, "class_name": "L1L2"}, "use_bias": true, "kernel_constraint": null, "bias_constraint": null, "units": 50, "bias_initializer": {"config": {}, "class_name": "Zeros"}, "bias_regularizer": null, "kernel_initializer": {"config": {"scale": 1.0, "seed": 9035, "distribution": "normal", "mode": "fan_avg"}, "class_name": "VarianceScaling"}}, "inbound_nodes": [[["dense_25", 0, 0, {}]]], "class_name": "Dense"}, {"name": "dense_3", "config": {"name": "dense_3", "activity_regularizer": null, "activation": "relu", "trainable": true, "kernel_regularizer": {"config": {"l1": 0.0, "l2": 9.999999747378752e-05}, "class_name": "L1L2"}, "use_bias": true, "kernel_constraint": null, "bias_constraint": null, "units": 50, "bias_initializer": {"config": {}, "class_name": "Zeros"}, "bias_regularizer": null, "kernel_initializer": {"config": {"scale": 1.0, "seed": 9035, "distribution": "normal", "mode": "fan_avg"}, "class_name": "VarianceScaling"}}, "inbound_nodes": [[["dense_2", 0, 0, {}]]], "class_name": "Dense"}, {"name": "dense_7", "config": {"name": "dense_7", "activity_regularizer": null, "activation": "relu", "trainable": true, "kernel_regularizer": {"config": {"l1": 0.0, "l2": 9.999999747378752e-05}, "class_name": "L1L2"}, "use_bias": true, "kernel_constraint": null, "bias_constraint": null, "units": 50, "bias_initializer": {"config": {}, "class_name": "Zeros"}, "bias_regularizer": null, "kernel_initializer": {"config": {"scale": 1.0, "seed": 9035, "distribution": "normal", "mode": "fan_avg"}, "class_name": "VarianceScaling"}}, "inbound_nodes": [[["dense_6", 0, 0, {}]]], "class_name": "Dense"}, {"name": "dense_11", "config": {"name": "dense_11", "activity_regularizer": null, "activation": "relu", "trainable": true, "kernel_regularizer": {"config": {"l1": 0.0, "l2": 9.999999747378752e-05}, "class_name": "L1L2"}, "use_bias": true, "kernel_constraint": null, "bias_constraint": null, "units": 50, "bias_initializer": {"config": {}, "class_name": "Zeros"}, "bias_regularizer": null, "kernel_initializer": {"config": {"scale": 1.0, "seed": 9035, "distribution": "normal", "mode": "fan_avg"}, "class_name": "VarianceScaling"}}, "inbound_nodes": [[["dense_10", 0, 0, {}]]], "class_name": "Dense"}, {"name": "dense_15", "config": {"name": "dense_15", "activity_regularizer": null, "activation": "relu", "trainable": true, "kernel_regularizer": {"config": {"l1": 0.0, "l2": 9.999999747378752e-05}, "class_name": "L1L2"}, "use_bias": true, "kernel_constraint": null, "bias_constraint": null, "units": 50, "bias_initializer": {"config": {}, "class_name": "Zeros"}, "bias_regularizer": null, "kernel_initializer": {"config": {"scale": 1.0, "seed": 9035, "distribution": "normal", "mode": "fan_avg"}, "class_name": "VarianceScaling"}}, "inbound_nodes": [[["dense_14", 0, 0, {}]]], "class_name": "Dense"}, {"name": "dense_19", "config": {"name": "dense_19", "activity_regularizer": null, "activation": "relu", "trainable": true, "kernel_regularizer": {"config": {"l1": 0.0, "l2": 9.999999747378752e-05}, "class_name": "L1L2"}, "use_bias": true, "kernel_constraint": null, "bias_constraint": null, "units": 50, "bias_initializer": {"config": {}, "class_name": "Zeros"}, "bias_regularizer": null, "kernel_initializer": {"config": {"scale": 1.0, "seed": 9035, "distribution": "normal", "mode": "fan_avg"}, "class_name": "VarianceScaling"}}, "inbound_nodes": [[["dense_18", 0, 0, {}]]], "class_name": "Dense"}, {"name": "dense_23", "config": {"name": "dense_23", "activity_regularizer": null, "activation": "relu", "trainable": true, "kernel_regularizer": {"config": {"l1": 0.0, "l2": 9.999999747378752e-05}, "class_name": "L1L2"}, "use_bias": true, "kernel_constraint": null, "bias_constraint": null, "units": 50, "bias_initializer": {"config": {}, "class_name": "Zeros"}, "bias_regularizer": null, "kernel_initializer": {"config": {"scale": 1.0, "seed": 9035, "distribution": "normal", "mode": "fan_avg"}, "class_name": "VarianceScaling"}}, "inbound_nodes": [[["dense_22", 0, 0, {}]]], "class_name": "Dense"}, {"name": "dense_27", "config": {"name": "dense_27", "activity_regularizer": null, "activation": "relu", "trainable": true, "kernel_regularizer": {"config": {"l1": 0.0, "l2": 9.999999747378752e-05}, "class_name": "L1L2"}, "use_bias": true, "kernel_constraint": null, "bias_constraint": null, "units": 50, "bias_initializer": {"config": {}, "class_name": "Zeros"}, "bias_regularizer": null, "kernel_initializer": {"config": {"scale": 1.0, "seed": 9035, "distribution": "normal", "mode": "fan_avg"}, "class_name": "VarianceScaling"}}, "inbound_nodes": [[["dense_26", 0, 0, {}]]], "class_name": "Dense"}, {"name": "OnOff_C1", "config": {"name": "OnOff_C1", "sparse": false, "dtype": "float32", "batch_input_shape": [null, 1]}, "inbound_nodes": [], "class_name": "InputLayer"}, {"name": "dense_4", "config": {"name": "dense_4", "activity_regularizer": null, "activation": "relu", "trainable": true, "kernel_regularizer": {"config": {"l1": 0.0, "l2": 9.999999747378752e-05}, "class_name": "L1L2"}, "use_bias": true, "kernel_constraint": null, "bias_constraint": null, "units": 1, "bias_initializer": {"config": {}, "class_name": "Zeros"}, "bias_regularizer": null, "kernel_initializer": {"config": {"scale": 1.0, "seed": 9035, "distribution": "normal", "mode": "fan_avg"}, "class_name": "VarianceScaling"}}, "inbound_nodes": [[["dense_3", 0, 0, {}]]], "class_name": "Dense"}, {"name": "OnOff_C2", "config": {"name": "OnOff_C2", "sparse": false, "dtype": "float32", "batch_input_shape": [null, 1]}, "inbound_nodes": [], "class_name": "InputLayer"}, {"name": "dense_8", "config": {"name": "dense_8", "activity_regularizer": null, "activation": "relu", "trainable": true, "kernel_regularizer": {"config": {"l1": 0.0, "l2": 9.999999747378752e-05}, "class_name": "L1L2"}, "use_bias": true, "kernel_constraint": null, "bias_constraint": null, "units": 1, "bias_initializer": {"config": {}, "class_name": "Zeros"}, "bias_regularizer": null, "kernel_initializer": {"config": {"scale": 1.0, "seed": 9035, "distribution": "normal", "mode": "fan_avg"}, "class_name": "VarianceScaling"}}, "inbound_nodes": [[["dense_7", 0, 0, {}]]], "class_name": "Dense"}, {"name": "OnOff_C3", "config": {"name": "OnOff_C3", "sparse": false, "dtype": "float32", "batch_input_shape": [null, 1]}, "inbound_nodes": [], "class_name": "InputLayer"}, {"name": "dense_12", "config": {"name": "dense_12", "activity_regularizer": null, "activation": "relu", "trainable": true, "kernel_regularizer": {"config": {"l1": 0.0, "l2": 9.999999747378752e-05}, "class_name": "L1L2"}, "use_bias": true, "kernel_constraint": null, "bias_constraint": null, "units": 1, "bias_initializer": {"config": {}, "class_name": "Zeros"}, "bias_regularizer": null, "kernel_initializer": {"config": {"scale": 1.0, "seed": 9035, "distribution": "normal", "mode": "fan_avg"}, "class_name": "VarianceScaling"}}, "inbound_nodes": [[["dense_11", 0, 0, {}]]], "class_name": "Dense"}, {"name": "OnOff_C4", "config": {"name": "OnOff_C4", "sparse": false, "dtype": "float32", "batch_input_shape": [null, 1]}, "inbound_nodes": [], "class_name": "InputLayer"}, {"name": "dense_16", "config": {"name": "dense_16", "activity_regularizer": null, "activation": "relu", "trainable": true, "kernel_regularizer": {"config": {"l1": 0.0, "l2": 9.999999747378752e-05}, "class_name": "L1L2"}, "use_bias": true, "kernel_constraint": null, "bias_constraint": null, "units": 1, "bias_initializer": {"config": {}, "class_name": "Zeros"}, "bias_regularizer": null, "kernel_initializer": {"config": {"scale": 1.0, "seed": 9035, "distribution": "normal", "mode": "fan_avg"}, "class_name": "VarianceScaling"}}, "inbound_nodes": [[["dense_15", 0, 0, {}]]], "class_name": "Dense"}, {"name": "OnOff_B1", "config": {"name": "OnOff_B1", "sparse": false, "dtype": "float32", "batch_input_shape": [null, 1]}, "inbound_nodes": [], "class_name": "InputLayer"}, {"name": "dense_20", "config": {"name": "dense_20", "activity_regularizer": null, "activation": "relu", "trainable": true, "kernel_regularizer": {"config": {"l1": 0.0, "l2": 9.999999747378752e-05}, "class_name": "L1L2"}, "use_bias": true, "kernel_constraint": null, "bias_constraint": null, "units": 1, "bias_initializer": {"config": {}, "class_name": "Zeros"}, "bias_regularizer": null, "kernel_initializer": {"config": {"scale": 1.0, "seed": 9035, "distribution": "normal", "mode": "fan_avg"}, "class_name": "VarianceScaling"}}, "inbound_nodes": [[["dense_19", 0, 0, {}]]], "class_name": "Dense"}, {"name": "OnOff_B3", "config": {"name": "OnOff_B3", "sparse": false, "dtype": "float32", "batch_input_shape": [null, 1]}, "inbound_nodes": [], "class_name": "InputLayer"}, {"name": "dense_24", "config": {"name": "dense_24", "activity_regularizer": null, "activation": "relu", "trainable": true, "kernel_regularizer": {"config": {"l1": 0.0, "l2": 9.999999747378752e-05}, "class_name": "L1L2"}, "use_bias": true, "kernel_constraint": null, "bias_constraint": null, "units": 1, "bias_initializer": {"config": {}, "class_name": "Zeros"}, "bias_regularizer": null, "kernel_initializer": {"config": {"scale": 1.0, "seed": 9035, "distribution": "normal", "mode": "fan_avg"}, "class_name": "VarianceScaling"}}, "inbound_nodes": [[["dense_23", 0, 0, {}]]], "class_name": "Dense"}, {"name": "OnOff_D1", "config": {"name": "OnOff_D1", "sparse": false, "dtype": "float32", "batch_input_shape": [null, 1]}, "inbound_nodes": [], "class_name": "InputLayer"}, {"name": "dense_28", "config": {"name": "dense_28", "activity_regularizer": null, "activation": "relu", "trainable": true, "kernel_regularizer": {"config": {"l1": 0.0, "l2": 9.999999747378752e-05}, "class_name": "L1L2"}, "use_bias": true, "kernel_constraint": null, "bias_constraint": null, "units": 1, "bias_initializer": {"config": {}, "class_name": "Zeros"}, "bias_regularizer": null, "kernel_initializer": {"config": {"scale": 1.0, "seed": 9035, "distribution": "normal", "mode": "fan_avg"}, "class_name": "VarianceScaling"}}, "inbound_nodes": [[["dense_27", 0, 0, {}]]], "class_name": "Dense"}, {"name": "C1_out", "config": {"name": "C1_out", "trainable": true}, "inbound_nodes": [[["OnOff_C1", 0, 0, {}], ["dense_4", 0, 0, {}]]], "class_name": "Multiply"}, {"name": "C2_out", "config": {"name": "C2_out", "trainable": true}, "inbound_nodes": [[["OnOff_C2", 0, 0, {}], ["dense_8", 0, 0, {}]]], "class_name": "Multiply"}, {"name": "C3_out", "config": {"name": "C3_out", "trainable": true}, "inbound_nodes": [[["OnOff_C3", 0, 0, {}], ["dense_12", 0, 0, {}]]], "class_name": "Multiply"}, {"name": "C4_out", "config": {"name": "C4_out", "trainable": true}, "inbound_nodes": [[["OnOff_C4", 0, 0, {}], ["dense_16", 0, 0, {}]]], "class_name": "Multiply"}, {"name": "B1_out", "config": {"name": "B1_out", "trainable": true}, "inbound_nodes": [[["OnOff_B1", 0, 0, {}], ["dense_20", 0, 0, {}]]], "class_name": "Multiply"}, {"name": "B3_out", "config": {"name": "B3_out", "trainable": true}, "inbound_nodes": [[["OnOff_B3", 0, 0, {}], ["dense_24", 0, 0, {}]]], "class_name": "Multiply"}, {"name": "D1_out", "config": {"name": "D1_out", "trainable": true}, "inbound_nodes": [[["OnOff_D1", 0, 0, {}], ["dense_28", 0, 0, {}]]], "class_name": "Multiply"}, {"name": "GJOA_TOTAL", "config": {"name": "GJOA_TOTAL", "trainable": true}, "inbound_nodes": [[["C1_out", 0, 0, {}], ["C2_out", 0, 0, {}], ["C3_out", 0, 0, {}], ["C4_out", 0, 0, {}], ["B1_out", 0, 0, {}], ["B3_out", 0, 0, {}], ["D1_out", 0, 0, {}]]], "class_name": "Add"}], "output_layers": [["C1_out", 0, 0], ["C2_out", 0, 0], ["C3_out", 0, 0], ["C4_out", 0, 0], ["B1_out", 0, 0], ["B3_out", 0, 0], ["D1_out", 0, 0], ["GJOA_TOTAL", 0, 0]], "input_layers": [["C1", 0, 0], ["C2", 0, 0], ["C3", 0, 0], ["C4", 0, 0], ["B1", 0, 0], ["B3", 0, 0], ["D1", 0, 0], ["OnOff_C1", 0, 0], ["OnOff_C2", 0, 0], ["OnOff_C3", 0, 0], ["OnOff_C4", 0, 0], ["OnOff_B1", 0, 0], ["OnOff_B3", 0, 0], ["OnOff_D1", 0, 0]]}, "backend": "theano", "class_name": "Model", "keras_version": "2.0.1"}