{"config": {"output_layers": [["C1_out", 0, 0], ["C2_out", 0, 0], ["C3_out", 0, 0], ["C4_out", 0, 0], ["B1_out", 0, 0], ["B3_out", 0, 0], ["D1_out", 0, 0], ["GJOA_TOTAL", 0, 0]], "name": "model_1", "input_layers": [["C1", 0, 0], ["C2", 0, 0], ["C3", 0, 0], ["C4", 0, 0], ["B1", 0, 0], ["B3", 0, 0], ["D1", 0, 0], ["OnOff_C1", 0, 0], ["OnOff_C2", 0, 0], ["OnOff_C3", 0, 0], ["OnOff_C4", 0, 0], ["OnOff_B1", 0, 0], ["OnOff_B3", 0, 0], ["OnOff_D1", 0, 0]], "layers": [{"inbound_nodes": [], "config": {"batch_input_shape": [null, 4], "dtype": "float32", "sparse": false, "name": "C1"}, "class_name": "InputLayer", "name": "C1"}, {"inbound_nodes": [], "config": {"batch_input_shape": [null, 3], "dtype": "float32", "sparse": false, "name": "C2"}, "class_name": "InputLayer", "name": "C2"}, {"inbound_nodes": [], "config": {"batch_input_shape": [null, 4], "dtype": "float32", "sparse": false, "name": "C3"}, "class_name": "InputLayer", "name": "C3"}, {"inbound_nodes": [], "config": {"batch_input_shape": [null, 4], "dtype": "float32", "sparse": false, "name": "C4"}, "class_name": "InputLayer", "name": "C4"}, {"inbound_nodes": [], "config": {"batch_input_shape": [null, 4], "dtype": "float32", "sparse": false, "name": "B1"}, "class_name": "InputLayer", "name": "B1"}, {"inbound_nodes": [], "config": {"batch_input_shape": [null, 4], "dtype": "float32", "sparse": false, "name": "B3"}, "class_name": "InputLayer", "name": "B3"}, {"inbound_nodes": [], "config": {"batch_input_shape": [null, 3], "dtype": "float32", "sparse": false, "name": "D1"}, "class_name": "InputLayer", "name": "D1"}, {"inbound_nodes": [[["C1", 0, 0, {}]]], "config": {"kernel_initializer": {"class_name": "VarianceScaling", "config": {"scale": 1.0, "mode": "fan_avg", "distribution": "normal", "seed": 9035}}, "activity_regularizer": null, "units": 50, "kernel_constraint": null, "bias_initializer": {"class_name": "Zeros", "config": {}}, "trainable": true, "bias_regularizer": null, "kernel_regularizer": {"class_name": "L1L2", "config": {"l1": 0.0, "l2": 0.0010000000474974513}}, "use_bias": true, "activation": "relu", "name": "dense_1", "bias_constraint": null}, "class_name": "Dense", "name": "dense_1"}, {"inbound_nodes": [[["C2", 0, 0, {}]]], "config": {"kernel_initializer": {"class_name": "VarianceScaling", "config": {"scale": 1.0, "mode": "fan_avg", "distribution": "normal", "seed": 9035}}, "activity_regularizer": null, "units": 50, "kernel_constraint": null, "bias_initializer": {"class_name": "Zeros", "config": {}}, "trainable": true, "bias_regularizer": null, "kernel_regularizer": {"class_name": "L1L2", "config": {"l1": 0.0, "l2": 0.0010000000474974513}}, "use_bias": true, "activation": "relu", "name": "dense_5", "bias_constraint": null}, "class_name": "Dense", "name": "dense_5"}, {"inbound_nodes": [[["C3", 0, 0, {}]]], "config": {"kernel_initializer": {"class_name": "VarianceScaling", "config": {"scale": 1.0, "mode": "fan_avg", "distribution": "normal", "seed": 9035}}, "activity_regularizer": null, "units": 50, "kernel_constraint": null, "bias_initializer": {"class_name": "Zeros", "config": {}}, "trainable": true, "bias_regularizer": null, "kernel_regularizer": {"class_name": "L1L2", "config": {"l1": 0.0, "l2": 0.0010000000474974513}}, "use_bias": true, "activation": "relu", "name": "dense_9", "bias_constraint": null}, "class_name": "Dense", "name": "dense_9"}, {"inbound_nodes": [[["C4", 0, 0, {}]]], "config": {"kernel_initializer": {"class_name": "VarianceScaling", "config": {"scale": 1.0, "mode": "fan_avg", "distribution": "normal", "seed": 9035}}, "activity_regularizer": null, "units": 50, "kernel_constraint": null, "bias_initializer": {"class_name": "Zeros", "config": {}}, "trainable": true, "bias_regularizer": null, "kernel_regularizer": {"class_name": "L1L2", "config": {"l1": 0.0, "l2": 0.0010000000474974513}}, "use_bias": true, "activation": "relu", "name": "dense_13", "bias_constraint": null}, "class_name": "Dense", "name": "dense_13"}, {"inbound_nodes": [[["B1", 0, 0, {}]]], "config": {"kernel_initializer": {"class_name": "VarianceScaling", "config": {"scale": 1.0, "mode": "fan_avg", "distribution": "normal", "seed": 9035}}, "activity_regularizer": null, "units": 50, "kernel_constraint": null, "bias_initializer": {"class_name": "Zeros", "config": {}}, "trainable": true, "bias_regularizer": null, "kernel_regularizer": {"class_name": "L1L2", "config": {"l1": 0.0, "l2": 0.0010000000474974513}}, "use_bias": true, "activation": "relu", "name": "dense_17", "bias_constraint": null}, "class_name": "Dense", "name": "dense_17"}, {"inbound_nodes": [[["B3", 0, 0, {}]]], "config": {"kernel_initializer": {"class_name": "VarianceScaling", "config": {"scale": 1.0, "mode": "fan_avg", "distribution": "normal", "seed": 9035}}, "activity_regularizer": null, "units": 50, "kernel_constraint": null, "bias_initializer": {"class_name": "Zeros", "config": {}}, "trainable": true, "bias_regularizer": null, "kernel_regularizer": {"class_name": "L1L2", "config": {"l1": 0.0, "l2": 0.0010000000474974513}}, "use_bias": true, "activation": "relu", "name": "dense_21", "bias_constraint": null}, "class_name": "Dense", "name": "dense_21"}, {"inbound_nodes": [[["D1", 0, 0, {}]]], "config": {"kernel_initializer": {"class_name": "VarianceScaling", "config": {"scale": 1.0, "mode": "fan_avg", "distribution": "normal", "seed": 9035}}, "activity_regularizer": null, "units": 50, "kernel_constraint": null, "bias_initializer": {"class_name": "Zeros", "config": {}}, "trainable": true, "bias_regularizer": null, "kernel_regularizer": {"class_name": "L1L2", "config": {"l1": 0.0, "l2": 0.0010000000474974513}}, "use_bias": true, "activation": "relu", "name": "dense_25", "bias_constraint": null}, "class_name": "Dense", "name": "dense_25"}, {"inbound_nodes": [[["dense_1", 0, 0, {}]]], "config": {"kernel_initializer": {"class_name": "VarianceScaling", "config": {"scale": 1.0, "mode": "fan_avg", "distribution": "normal", "seed": 9035}}, "activity_regularizer": null, "units": 50, "kernel_constraint": null, "bias_initializer": {"class_name": "Zeros", "config": {}}, "trainable": true, "bias_regularizer": null, "kernel_regularizer": {"class_name": "L1L2", "config": {"l1": 0.0, "l2": 0.0010000000474974513}}, "use_bias": true, "activation": "relu", "name": "dense_2", "bias_constraint": null}, "class_name": "Dense", "name": "dense_2"}, {"inbound_nodes": [[["dense_5", 0, 0, {}]]], "config": {"kernel_initializer": {"class_name": "VarianceScaling", "config": {"scale": 1.0, "mode": "fan_avg", "distribution": "normal", "seed": 9035}}, "activity_regularizer": null, "units": 50, "kernel_constraint": null, "bias_initializer": {"class_name": "Zeros", "config": {}}, "trainable": true, "bias_regularizer": null, "kernel_regularizer": {"class_name": "L1L2", "config": {"l1": 0.0, "l2": 0.0010000000474974513}}, "use_bias": true, "activation": "relu", "name": "dense_6", "bias_constraint": null}, "class_name": "Dense", "name": "dense_6"}, {"inbound_nodes": [[["dense_9", 0, 0, {}]]], "config": {"kernel_initializer": {"class_name": "VarianceScaling", "config": {"scale": 1.0, "mode": "fan_avg", "distribution": "normal", "seed": 9035}}, "activity_regularizer": null, "units": 50, "kernel_constraint": null, "bias_initializer": {"class_name": "Zeros", "config": {}}, "trainable": true, "bias_regularizer": null, "kernel_regularizer": {"class_name": "L1L2", "config": {"l1": 0.0, "l2": 0.0010000000474974513}}, "use_bias": true, "activation": "relu", "name": "dense_10", "bias_constraint": null}, "class_name": "Dense", "name": "dense_10"}, {"inbound_nodes": [[["dense_13", 0, 0, {}]]], "config": {"kernel_initializer": {"class_name": "VarianceScaling", "config": {"scale": 1.0, "mode": "fan_avg", "distribution": "normal", "seed": 9035}}, "activity_regularizer": null, "units": 50, "kernel_constraint": null, "bias_initializer": {"class_name": "Zeros", "config": {}}, "trainable": true, "bias_regularizer": null, "kernel_regularizer": {"class_name": "L1L2", "config": {"l1": 0.0, "l2": 0.0010000000474974513}}, "use_bias": true, "activation": "relu", "name": "dense_14", "bias_constraint": null}, "class_name": "Dense", "name": "dense_14"}, {"inbound_nodes": [[["dense_17", 0, 0, {}]]], "config": {"kernel_initializer": {"class_name": "VarianceScaling", "config": {"scale": 1.0, "mode": "fan_avg", "distribution": "normal", "seed": 9035}}, "activity_regularizer": null, "units": 50, "kernel_constraint": null, "bias_initializer": {"class_name": "Zeros", "config": {}}, "trainable": true, "bias_regularizer": null, "kernel_regularizer": {"class_name": "L1L2", "config": {"l1": 0.0, "l2": 0.0010000000474974513}}, "use_bias": true, "activation": "relu", "name": "dense_18", "bias_constraint": null}, "class_name": "Dense", "name": "dense_18"}, {"inbound_nodes": [[["dense_21", 0, 0, {}]]], "config": {"kernel_initializer": {"class_name": "VarianceScaling", "config": {"scale": 1.0, "mode": "fan_avg", "distribution": "normal", "seed": 9035}}, "activity_regularizer": null, "units": 50, "kernel_constraint": null, "bias_initializer": {"class_name": "Zeros", "config": {}}, "trainable": true, "bias_regularizer": null, "kernel_regularizer": {"class_name": "L1L2", "config": {"l1": 0.0, "l2": 0.0010000000474974513}}, "use_bias": true, "activation": "relu", "name": "dense_22", "bias_constraint": null}, "class_name": "Dense", "name": "dense_22"}, {"inbound_nodes": [[["dense_25", 0, 0, {}]]], "config": {"kernel_initializer": {"class_name": "VarianceScaling", "config": {"scale": 1.0, "mode": "fan_avg", "distribution": "normal", "seed": 9035}}, "activity_regularizer": null, "units": 50, "kernel_constraint": null, "bias_initializer": {"class_name": "Zeros", "config": {}}, "trainable": true, "bias_regularizer": null, "kernel_regularizer": {"class_name": "L1L2", "config": {"l1": 0.0, "l2": 0.0010000000474974513}}, "use_bias": true, "activation": "relu", "name": "dense_26", "bias_constraint": null}, "class_name": "Dense", "name": "dense_26"}, {"inbound_nodes": [[["dense_2", 0, 0, {}]]], "config": {"kernel_initializer": {"class_name": "VarianceScaling", "config": {"scale": 1.0, "mode": "fan_avg", "distribution": "normal", "seed": 9035}}, "activity_regularizer": null, "units": 50, "kernel_constraint": null, "bias_initializer": {"class_name": "Zeros", "config": {}}, "trainable": true, "bias_regularizer": null, "kernel_regularizer": {"class_name": "L1L2", "config": {"l1": 0.0, "l2": 0.0010000000474974513}}, "use_bias": true, "activation": "relu", "name": "dense_3", "bias_constraint": null}, "class_name": "Dense", "name": "dense_3"}, {"inbound_nodes": [[["dense_6", 0, 0, {}]]], "config": {"kernel_initializer": {"class_name": "VarianceScaling", "config": {"scale": 1.0, "mode": "fan_avg", "distribution": "normal", "seed": 9035}}, "activity_regularizer": null, "units": 50, "kernel_constraint": null, "bias_initializer": {"class_name": "Zeros", "config": {}}, "trainable": true, "bias_regularizer": null, "kernel_regularizer": {"class_name": "L1L2", "config": {"l1": 0.0, "l2": 0.0010000000474974513}}, "use_bias": true, "activation": "relu", "name": "dense_7", "bias_constraint": null}, "class_name": "Dense", "name": "dense_7"}, {"inbound_nodes": [[["dense_10", 0, 0, {}]]], "config": {"kernel_initializer": {"class_name": "VarianceScaling", "config": {"scale": 1.0, "mode": "fan_avg", "distribution": "normal", "seed": 9035}}, "activity_regularizer": null, "units": 50, "kernel_constraint": null, "bias_initializer": {"class_name": "Zeros", "config": {}}, "trainable": true, "bias_regularizer": null, "kernel_regularizer": {"class_name": "L1L2", "config": {"l1": 0.0, "l2": 0.0010000000474974513}}, "use_bias": true, "activation": "relu", "name": "dense_11", "bias_constraint": null}, "class_name": "Dense", "name": "dense_11"}, {"inbound_nodes": [[["dense_14", 0, 0, {}]]], "config": {"kernel_initializer": {"class_name": "VarianceScaling", "config": {"scale": 1.0, "mode": "fan_avg", "distribution": "normal", "seed": 9035}}, "activity_regularizer": null, "units": 50, "kernel_constraint": null, "bias_initializer": {"class_name": "Zeros", "config": {}}, "trainable": true, "bias_regularizer": null, "kernel_regularizer": {"class_name": "L1L2", "config": {"l1": 0.0, "l2": 0.0010000000474974513}}, "use_bias": true, "activation": "relu", "name": "dense_15", "bias_constraint": null}, "class_name": "Dense", "name": "dense_15"}, {"inbound_nodes": [[["dense_18", 0, 0, {}]]], "config": {"kernel_initializer": {"class_name": "VarianceScaling", "config": {"scale": 1.0, "mode": "fan_avg", "distribution": "normal", "seed": 9035}}, "activity_regularizer": null, "units": 50, "kernel_constraint": null, "bias_initializer": {"class_name": "Zeros", "config": {}}, "trainable": true, "bias_regularizer": null, "kernel_regularizer": {"class_name": "L1L2", "config": {"l1": 0.0, "l2": 0.0010000000474974513}}, "use_bias": true, "activation": "relu", "name": "dense_19", "bias_constraint": null}, "class_name": "Dense", "name": "dense_19"}, {"inbound_nodes": [[["dense_22", 0, 0, {}]]], "config": {"kernel_initializer": {"class_name": "VarianceScaling", "config": {"scale": 1.0, "mode": "fan_avg", "distribution": "normal", "seed": 9035}}, "activity_regularizer": null, "units": 50, "kernel_constraint": null, "bias_initializer": {"class_name": "Zeros", "config": {}}, "trainable": true, "bias_regularizer": null, "kernel_regularizer": {"class_name": "L1L2", "config": {"l1": 0.0, "l2": 0.0010000000474974513}}, "use_bias": true, "activation": "relu", "name": "dense_23", "bias_constraint": null}, "class_name": "Dense", "name": "dense_23"}, {"inbound_nodes": [[["dense_26", 0, 0, {}]]], "config": {"kernel_initializer": {"class_name": "VarianceScaling", "config": {"scale": 1.0, "mode": "fan_avg", "distribution": "normal", "seed": 9035}}, "activity_regularizer": null, "units": 50, "kernel_constraint": null, "bias_initializer": {"class_name": "Zeros", "config": {}}, "trainable": true, "bias_regularizer": null, "kernel_regularizer": {"class_name": "L1L2", "config": {"l1": 0.0, "l2": 0.0010000000474974513}}, "use_bias": true, "activation": "relu", "name": "dense_27", "bias_constraint": null}, "class_name": "Dense", "name": "dense_27"}, {"inbound_nodes": [], "config": {"batch_input_shape": [null, 1], "dtype": "float32", "sparse": false, "name": "OnOff_C1"}, "class_name": "InputLayer", "name": "OnOff_C1"}, {"inbound_nodes": [[["dense_3", 0, 0, {}]]], "config": {"kernel_initializer": {"class_name": "VarianceScaling", "config": {"scale": 1.0, "mode": "fan_avg", "distribution": "normal", "seed": 9035}}, "activity_regularizer": null, "units": 1, "kernel_constraint": null, "bias_initializer": {"class_name": "Zeros", "config": {}}, "trainable": true, "bias_regularizer": null, "kernel_regularizer": {"class_name": "L1L2", "config": {"l1": 0.0, "l2": 0.0010000000474974513}}, "use_bias": true, "activation": "relu", "name": "dense_4", "bias_constraint": null}, "class_name": "Dense", "name": "dense_4"}, {"inbound_nodes": [], "config": {"batch_input_shape": [null, 1], "dtype": "float32", "sparse": false, "name": "OnOff_C2"}, "class_name": "InputLayer", "name": "OnOff_C2"}, {"inbound_nodes": [[["dense_7", 0, 0, {}]]], "config": {"kernel_initializer": {"class_name": "VarianceScaling", "config": {"scale": 1.0, "mode": "fan_avg", "distribution": "normal", "seed": 9035}}, "activity_regularizer": null, "units": 1, "kernel_constraint": null, "bias_initializer": {"class_name": "Zeros", "config": {}}, "trainable": true, "bias_regularizer": null, "kernel_regularizer": {"class_name": "L1L2", "config": {"l1": 0.0, "l2": 0.0010000000474974513}}, "use_bias": true, "activation": "relu", "name": "dense_8", "bias_constraint": null}, "class_name": "Dense", "name": "dense_8"}, {"inbound_nodes": [], "config": {"batch_input_shape": [null, 1], "dtype": "float32", "sparse": false, "name": "OnOff_C3"}, "class_name": "InputLayer", "name": "OnOff_C3"}, {"inbound_nodes": [[["dense_11", 0, 0, {}]]], "config": {"kernel_initializer": {"class_name": "VarianceScaling", "config": {"scale": 1.0, "mode": "fan_avg", "distribution": "normal", "seed": 9035}}, "activity_regularizer": null, "units": 1, "kernel_constraint": null, "bias_initializer": {"class_name": "Zeros", "config": {}}, "trainable": true, "bias_regularizer": null, "kernel_regularizer": {"class_name": "L1L2", "config": {"l1": 0.0, "l2": 0.0010000000474974513}}, "use_bias": true, "activation": "relu", "name": "dense_12", "bias_constraint": null}, "class_name": "Dense", "name": "dense_12"}, {"inbound_nodes": [], "config": {"batch_input_shape": [null, 1], "dtype": "float32", "sparse": false, "name": "OnOff_C4"}, "class_name": "InputLayer", "name": "OnOff_C4"}, {"inbound_nodes": [[["dense_15", 0, 0, {}]]], "config": {"kernel_initializer": {"class_name": "VarianceScaling", "config": {"scale": 1.0, "mode": "fan_avg", "distribution": "normal", "seed": 9035}}, "activity_regularizer": null, "units": 1, "kernel_constraint": null, "bias_initializer": {"class_name": "Zeros", "config": {}}, "trainable": true, "bias_regularizer": null, "kernel_regularizer": {"class_name": "L1L2", "config": {"l1": 0.0, "l2": 0.0010000000474974513}}, "use_bias": true, "activation": "relu", "name": "dense_16", "bias_constraint": null}, "class_name": "Dense", "name": "dense_16"}, {"inbound_nodes": [], "config": {"batch_input_shape": [null, 1], "dtype": "float32", "sparse": false, "name": "OnOff_B1"}, "class_name": "InputLayer", "name": "OnOff_B1"}, {"inbound_nodes": [[["dense_19", 0, 0, {}]]], "config": {"kernel_initializer": {"class_name": "VarianceScaling", "config": {"scale": 1.0, "mode": "fan_avg", "distribution": "normal", "seed": 9035}}, "activity_regularizer": null, "units": 1, "kernel_constraint": null, "bias_initializer": {"class_name": "Zeros", "config": {}}, "trainable": true, "bias_regularizer": null, "kernel_regularizer": {"class_name": "L1L2", "config": {"l1": 0.0, "l2": 0.0010000000474974513}}, "use_bias": true, "activation": "relu", "name": "dense_20", "bias_constraint": null}, "class_name": "Dense", "name": "dense_20"}, {"inbound_nodes": [], "config": {"batch_input_shape": [null, 1], "dtype": "float32", "sparse": false, "name": "OnOff_B3"}, "class_name": "InputLayer", "name": "OnOff_B3"}, {"inbound_nodes": [[["dense_23", 0, 0, {}]]], "config": {"kernel_initializer": {"class_name": "VarianceScaling", "config": {"scale": 1.0, "mode": "fan_avg", "distribution": "normal", "seed": 9035}}, "activity_regularizer": null, "units": 1, "kernel_constraint": null, "bias_initializer": {"class_name": "Zeros", "config": {}}, "trainable": true, "bias_regularizer": null, "kernel_regularizer": {"class_name": "L1L2", "config": {"l1": 0.0, "l2": 0.0010000000474974513}}, "use_bias": true, "activation": "relu", "name": "dense_24", "bias_constraint": null}, "class_name": "Dense", "name": "dense_24"}, {"inbound_nodes": [], "config": {"batch_input_shape": [null, 1], "dtype": "float32", "sparse": false, "name": "OnOff_D1"}, "class_name": "InputLayer", "name": "OnOff_D1"}, {"inbound_nodes": [[["dense_27", 0, 0, {}]]], "config": {"kernel_initializer": {"class_name": "VarianceScaling", "config": {"scale": 1.0, "mode": "fan_avg", "distribution": "normal", "seed": 9035}}, "activity_regularizer": null, "units": 1, "kernel_constraint": null, "bias_initializer": {"class_name": "Zeros", "config": {}}, "trainable": true, "bias_regularizer": null, "kernel_regularizer": {"class_name": "L1L2", "config": {"l1": 0.0, "l2": 0.0010000000474974513}}, "use_bias": true, "activation": "relu", "name": "dense_28", "bias_constraint": null}, "class_name": "Dense", "name": "dense_28"}, {"inbound_nodes": [[["OnOff_C1", 0, 0, {}], ["dense_4", 0, 0, {}]]], "config": {"trainable": true, "name": "C1_out"}, "class_name": "Multiply", "name": "C1_out"}, {"inbound_nodes": [[["OnOff_C2", 0, 0, {}], ["dense_8", 0, 0, {}]]], "config": {"trainable": true, "name": "C2_out"}, "class_name": "Multiply", "name": "C2_out"}, {"inbound_nodes": [[["OnOff_C3", 0, 0, {}], ["dense_12", 0, 0, {}]]], "config": {"trainable": true, "name": "C3_out"}, "class_name": "Multiply", "name": "C3_out"}, {"inbound_nodes": [[["OnOff_C4", 0, 0, {}], ["dense_16", 0, 0, {}]]], "config": {"trainable": true, "name": "C4_out"}, "class_name": "Multiply", "name": "C4_out"}, {"inbound_nodes": [[["OnOff_B1", 0, 0, {}], ["dense_20", 0, 0, {}]]], "config": {"trainable": true, "name": "B1_out"}, "class_name": "Multiply", "name": "B1_out"}, {"inbound_nodes": [[["OnOff_B3", 0, 0, {}], ["dense_24", 0, 0, {}]]], "config": {"trainable": true, "name": "B3_out"}, "class_name": "Multiply", "name": "B3_out"}, {"inbound_nodes": [[["OnOff_D1", 0, 0, {}], ["dense_28", 0, 0, {}]]], "config": {"trainable": true, "name": "D1_out"}, "class_name": "Multiply", "name": "D1_out"}, {"inbound_nodes": [[["C1_out", 0, 0, {}], ["C2_out", 0, 0, {}], ["C3_out", 0, 0, {}], ["C4_out", 0, 0, {}], ["B1_out", 0, 0, {}], ["B3_out", 0, 0, {}], ["D1_out", 0, 0, {}]]], "config": {"trainable": true, "name": "GJOA_TOTAL"}, "class_name": "Add", "name": "GJOA_TOTAL"}]}, "backend": "theano", "class_name": "Model", "keras_version": "2.0.1"}