{"keras_version": "2.0.1", "config": {"layers": [{"config": {"dtype": "float32", "batch_input_shape": [null, 1], "name": "C1", "sparse": false}, "class_name": "InputLayer", "name": "C1", "inbound_nodes": []}, {"config": {"dtype": "float32", "batch_input_shape": [null, 1], "name": "C2", "sparse": false}, "class_name": "InputLayer", "name": "C2", "inbound_nodes": []}, {"config": {"dtype": "float32", "batch_input_shape": [null, 1], "name": "C3", "sparse": false}, "class_name": "InputLayer", "name": "C3", "inbound_nodes": []}, {"config": {"dtype": "float32", "batch_input_shape": [null, 1], "name": "C4", "sparse": false}, "class_name": "InputLayer", "name": "C4", "inbound_nodes": []}, {"config": {"dtype": "float32", "batch_input_shape": [null, 1], "name": "B1", "sparse": false}, "class_name": "InputLayer", "name": "B1", "inbound_nodes": []}, {"config": {"dtype": "float32", "batch_input_shape": [null, 1], "name": "B3", "sparse": false}, "class_name": "InputLayer", "name": "B3", "inbound_nodes": []}, {"config": {"dtype": "float32", "batch_input_shape": [null, 1], "name": "D1", "sparse": false}, "class_name": "InputLayer", "name": "D1", "inbound_nodes": []}, {"config": {"bias_regularizer": null, "bias_initializer": {"config": {}, "class_name": "Zeros"}, "kernel_constraint": null, "bias_constraint": null, "kernel_regularizer": {"config": {"l1": 0.0, "l2": 0.0003000000142492354}, "class_name": "L1L2"}, "units": 50, "activity_regularizer": null, "name": "C1_0", "use_bias": true, "activation": "relu", "trainable": true, "kernel_initializer": {"config": {"distribution": "normal", "scale": 1.0, "seed": 3014, "mode": "fan_avg"}, "class_name": "VarianceScaling"}}, "class_name": "Dense", "name": "C1_0", "inbound_nodes": [[["C1", 0, 0, {}]]]}, {"config": {"bias_regularizer": null, "bias_initializer": {"config": {}, "class_name": "Zeros"}, "kernel_constraint": null, "bias_constraint": null, "kernel_regularizer": {"config": {"l1": 0.0, "l2": 0.0003000000142492354}, "class_name": "L1L2"}, "units": 50, "activity_regularizer": null, "name": "C2_0", "use_bias": true, "activation": "relu", "trainable": true, "kernel_initializer": {"config": {"distribution": "normal", "scale": 1.0, "seed": 3014, "mode": "fan_avg"}, "class_name": "VarianceScaling"}}, "class_name": "Dense", "name": "C2_0", "inbound_nodes": [[["C2", 0, 0, {}]]]}, {"config": {"bias_regularizer": null, "bias_initializer": {"config": {}, "class_name": "Zeros"}, "kernel_constraint": null, "bias_constraint": null, "kernel_regularizer": {"config": {"l1": 0.0, "l2": 0.0003000000142492354}, "class_name": "L1L2"}, "units": 50, "activity_regularizer": null, "name": "C3_0", "use_bias": true, "activation": "relu", "trainable": true, "kernel_initializer": {"config": {"distribution": "normal", "scale": 1.0, "seed": 3014, "mode": "fan_avg"}, "class_name": "VarianceScaling"}}, "class_name": "Dense", "name": "C3_0", "inbound_nodes": [[["C3", 0, 0, {}]]]}, {"config": {"bias_regularizer": null, "bias_initializer": {"config": {}, "class_name": "Zeros"}, "kernel_constraint": null, "bias_constraint": null, "kernel_regularizer": {"config": {"l1": 0.0, "l2": 0.0003000000142492354}, "class_name": "L1L2"}, "units": 50, "activity_regularizer": null, "name": "C4_0", "use_bias": true, "activation": "relu", "trainable": true, "kernel_initializer": {"config": {"distribution": "normal", "scale": 1.0, "seed": 3014, "mode": "fan_avg"}, "class_name": "VarianceScaling"}}, "class_name": "Dense", "name": "C4_0", "inbound_nodes": [[["C4", 0, 0, {}]]]}, {"config": {"bias_regularizer": null, "bias_initializer": {"config": {}, "class_name": "Zeros"}, "kernel_constraint": null, "bias_constraint": null, "kernel_regularizer": {"config": {"l1": 0.0, "l2": 0.0003000000142492354}, "class_name": "L1L2"}, "units": 50, "activity_regularizer": null, "name": "B1_0", "use_bias": true, "activation": "relu", "trainable": true, "kernel_initializer": {"config": {"distribution": "normal", "scale": 1.0, "seed": 3014, "mode": "fan_avg"}, "class_name": "VarianceScaling"}}, "class_name": "Dense", "name": "B1_0", "inbound_nodes": [[["B1", 0, 0, {}]]]}, {"config": {"bias_regularizer": null, "bias_initializer": {"config": {}, "class_name": "Zeros"}, "kernel_constraint": null, "bias_constraint": null, "kernel_regularizer": {"config": {"l1": 0.0, "l2": 0.0003000000142492354}, "class_name": "L1L2"}, "units": 50, "activity_regularizer": null, "name": "B3_0", "use_bias": true, "activation": "relu", "trainable": true, "kernel_initializer": {"config": {"distribution": "normal", "scale": 1.0, "seed": 3014, "mode": "fan_avg"}, "class_name": "VarianceScaling"}}, "class_name": "Dense", "name": "B3_0", "inbound_nodes": [[["B3", 0, 0, {}]]]}, {"config": {"bias_regularizer": null, "bias_initializer": {"config": {}, "class_name": "Zeros"}, "kernel_constraint": null, "bias_constraint": null, "kernel_regularizer": {"config": {"l1": 0.0, "l2": 0.0003000000142492354}, "class_name": "L1L2"}, "units": 50, "activity_regularizer": null, "name": "D1_0", "use_bias": true, "activation": "relu", "trainable": true, "kernel_initializer": {"config": {"distribution": "normal", "scale": 1.0, "seed": 3014, "mode": "fan_avg"}, "class_name": "VarianceScaling"}}, "class_name": "Dense", "name": "D1_0", "inbound_nodes": [[["D1", 0, 0, {}]]]}, {"config": {"bias_regularizer": null, "bias_initializer": {"config": {}, "class_name": "Zeros"}, "kernel_constraint": null, "bias_constraint": null, "kernel_regularizer": {"config": {"l1": 0.0, "l2": 0.0003000000142492354}, "class_name": "L1L2"}, "units": 50, "activity_regularizer": null, "name": "C1_1", "use_bias": true, "activation": "relu", "trainable": true, "kernel_initializer": {"config": {"distribution": "normal", "scale": 1.0, "seed": 3014, "mode": "fan_avg"}, "class_name": "VarianceScaling"}}, "class_name": "Dense", "name": "C1_1", "inbound_nodes": [[["C1_0", 0, 0, {}]]]}, {"config": {"bias_regularizer": null, "bias_initializer": {"config": {}, "class_name": "Zeros"}, "kernel_constraint": null, "bias_constraint": null, "kernel_regularizer": {"config": {"l1": 0.0, "l2": 0.0003000000142492354}, "class_name": "L1L2"}, "units": 50, "activity_regularizer": null, "name": "C2_1", "use_bias": true, "activation": "relu", "trainable": true, "kernel_initializer": {"config": {"distribution": "normal", "scale": 1.0, "seed": 3014, "mode": "fan_avg"}, "class_name": "VarianceScaling"}}, "class_name": "Dense", "name": "C2_1", "inbound_nodes": [[["C2_0", 0, 0, {}]]]}, {"config": {"bias_regularizer": null, "bias_initializer": {"config": {}, "class_name": "Zeros"}, "kernel_constraint": null, "bias_constraint": null, "kernel_regularizer": {"config": {"l1": 0.0, "l2": 0.0003000000142492354}, "class_name": "L1L2"}, "units": 50, "activity_regularizer": null, "name": "C3_1", "use_bias": true, "activation": "relu", "trainable": true, "kernel_initializer": {"config": {"distribution": "normal", "scale": 1.0, "seed": 3014, "mode": "fan_avg"}, "class_name": "VarianceScaling"}}, "class_name": "Dense", "name": "C3_1", "inbound_nodes": [[["C3_0", 0, 0, {}]]]}, {"config": {"bias_regularizer": null, "bias_initializer": {"config": {}, "class_name": "Zeros"}, "kernel_constraint": null, "bias_constraint": null, "kernel_regularizer": {"config": {"l1": 0.0, "l2": 0.0003000000142492354}, "class_name": "L1L2"}, "units": 50, "activity_regularizer": null, "name": "C4_1", "use_bias": true, "activation": "relu", "trainable": true, "kernel_initializer": {"config": {"distribution": "normal", "scale": 1.0, "seed": 3014, "mode": "fan_avg"}, "class_name": "VarianceScaling"}}, "class_name": "Dense", "name": "C4_1", "inbound_nodes": [[["C4_0", 0, 0, {}]]]}, {"config": {"bias_regularizer": null, "bias_initializer": {"config": {}, "class_name": "Zeros"}, "kernel_constraint": null, "bias_constraint": null, "kernel_regularizer": {"config": {"l1": 0.0, "l2": 0.0003000000142492354}, "class_name": "L1L2"}, "units": 50, "activity_regularizer": null, "name": "B1_1", "use_bias": true, "activation": "relu", "trainable": true, "kernel_initializer": {"config": {"distribution": "normal", "scale": 1.0, "seed": 3014, "mode": "fan_avg"}, "class_name": "VarianceScaling"}}, "class_name": "Dense", "name": "B1_1", "inbound_nodes": [[["B1_0", 0, 0, {}]]]}, {"config": {"bias_regularizer": null, "bias_initializer": {"config": {}, "class_name": "Zeros"}, "kernel_constraint": null, "bias_constraint": null, "kernel_regularizer": {"config": {"l1": 0.0, "l2": 0.0003000000142492354}, "class_name": "L1L2"}, "units": 50, "activity_regularizer": null, "name": "B3_1", "use_bias": true, "activation": "relu", "trainable": true, "kernel_initializer": {"config": {"distribution": "normal", "scale": 1.0, "seed": 3014, "mode": "fan_avg"}, "class_name": "VarianceScaling"}}, "class_name": "Dense", "name": "B3_1", "inbound_nodes": [[["B3_0", 0, 0, {}]]]}, {"config": {"bias_regularizer": null, "bias_initializer": {"config": {}, "class_name": "Zeros"}, "kernel_constraint": null, "bias_constraint": null, "kernel_regularizer": {"config": {"l1": 0.0, "l2": 0.0003000000142492354}, "class_name": "L1L2"}, "units": 50, "activity_regularizer": null, "name": "D1_1", "use_bias": true, "activation": "relu", "trainable": true, "kernel_initializer": {"config": {"distribution": "normal", "scale": 1.0, "seed": 3014, "mode": "fan_avg"}, "class_name": "VarianceScaling"}}, "class_name": "Dense", "name": "D1_1", "inbound_nodes": [[["D1_0", 0, 0, {}]]]}, {"config": {"dtype": "float32", "batch_input_shape": [null, 1], "name": "OnOff_C1", "sparse": false}, "class_name": "InputLayer", "name": "OnOff_C1", "inbound_nodes": []}, {"config": {"bias_regularizer": null, "bias_initializer": {"config": {}, "class_name": "Zeros"}, "kernel_constraint": null, "bias_constraint": null, "kernel_regularizer": {"config": {"l1": 0.0, "l2": 0.0003000000142492354}, "class_name": "L1L2"}, "units": 1, "activity_regularizer": null, "name": "C1_o", "use_bias": true, "activation": "relu", "trainable": true, "kernel_initializer": {"config": {"distribution": "normal", "scale": 1.0, "seed": 3014, "mode": "fan_avg"}, "class_name": "VarianceScaling"}}, "class_name": "Dense", "name": "C1_o", "inbound_nodes": [[["C1_1", 0, 0, {}]]]}, {"config": {"dtype": "float32", "batch_input_shape": [null, 1], "name": "OnOff_C2", "sparse": false}, "class_name": "InputLayer", "name": "OnOff_C2", "inbound_nodes": []}, {"config": {"bias_regularizer": null, "bias_initializer": {"config": {}, "class_name": "Zeros"}, "kernel_constraint": null, "bias_constraint": null, "kernel_regularizer": {"config": {"l1": 0.0, "l2": 0.0003000000142492354}, "class_name": "L1L2"}, "units": 1, "activity_regularizer": null, "name": "C2_o", "use_bias": true, "activation": "relu", "trainable": true, "kernel_initializer": {"config": {"distribution": "normal", "scale": 1.0, "seed": 3014, "mode": "fan_avg"}, "class_name": "VarianceScaling"}}, "class_name": "Dense", "name": "C2_o", "inbound_nodes": [[["C2_1", 0, 0, {}]]]}, {"config": {"dtype": "float32", "batch_input_shape": [null, 1], "name": "OnOff_C3", "sparse": false}, "class_name": "InputLayer", "name": "OnOff_C3", "inbound_nodes": []}, {"config": {"bias_regularizer": null, "bias_initializer": {"config": {}, "class_name": "Zeros"}, "kernel_constraint": null, "bias_constraint": null, "kernel_regularizer": {"config": {"l1": 0.0, "l2": 0.0003000000142492354}, "class_name": "L1L2"}, "units": 1, "activity_regularizer": null, "name": "C3_o", "use_bias": true, "activation": "relu", "trainable": true, "kernel_initializer": {"config": {"distribution": "normal", "scale": 1.0, "seed": 3014, "mode": "fan_avg"}, "class_name": "VarianceScaling"}}, "class_name": "Dense", "name": "C3_o", "inbound_nodes": [[["C3_1", 0, 0, {}]]]}, {"config": {"dtype": "float32", "batch_input_shape": [null, 1], "name": "OnOff_C4", "sparse": false}, "class_name": "InputLayer", "name": "OnOff_C4", "inbound_nodes": []}, {"config": {"bias_regularizer": null, "bias_initializer": {"config": {}, "class_name": "Zeros"}, "kernel_constraint": null, "bias_constraint": null, "kernel_regularizer": {"config": {"l1": 0.0, "l2": 0.0003000000142492354}, "class_name": "L1L2"}, "units": 1, "activity_regularizer": null, "name": "C4_o", "use_bias": true, "activation": "relu", "trainable": true, "kernel_initializer": {"config": {"distribution": "normal", "scale": 1.0, "seed": 3014, "mode": "fan_avg"}, "class_name": "VarianceScaling"}}, "class_name": "Dense", "name": "C4_o", "inbound_nodes": [[["C4_1", 0, 0, {}]]]}, {"config": {"dtype": "float32", "batch_input_shape": [null, 1], "name": "OnOff_B1", "sparse": false}, "class_name": "InputLayer", "name": "OnOff_B1", "inbound_nodes": []}, {"config": {"bias_regularizer": null, "bias_initializer": {"config": {}, "class_name": "Zeros"}, "kernel_constraint": null, "bias_constraint": null, "kernel_regularizer": {"config": {"l1": 0.0, "l2": 0.0003000000142492354}, "class_name": "L1L2"}, "units": 1, "activity_regularizer": null, "name": "B1_o", "use_bias": true, "activation": "relu", "trainable": true, "kernel_initializer": {"config": {"distribution": "normal", "scale": 1.0, "seed": 3014, "mode": "fan_avg"}, "class_name": "VarianceScaling"}}, "class_name": "Dense", "name": "B1_o", "inbound_nodes": [[["B1_1", 0, 0, {}]]]}, {"config": {"dtype": "float32", "batch_input_shape": [null, 1], "name": "OnOff_B3", "sparse": false}, "class_name": "InputLayer", "name": "OnOff_B3", "inbound_nodes": []}, {"config": {"bias_regularizer": null, "bias_initializer": {"config": {}, "class_name": "Zeros"}, "kernel_constraint": null, "bias_constraint": null, "kernel_regularizer": {"config": {"l1": 0.0, "l2": 0.0003000000142492354}, "class_name": "L1L2"}, "units": 1, "activity_regularizer": null, "name": "B3_o", "use_bias": true, "activation": "relu", "trainable": true, "kernel_initializer": {"config": {"distribution": "normal", "scale": 1.0, "seed": 3014, "mode": "fan_avg"}, "class_name": "VarianceScaling"}}, "class_name": "Dense", "name": "B3_o", "inbound_nodes": [[["B3_1", 0, 0, {}]]]}, {"config": {"dtype": "float32", "batch_input_shape": [null, 1], "name": "OnOff_D1", "sparse": false}, "class_name": "InputLayer", "name": "OnOff_D1", "inbound_nodes": []}, {"config": {"bias_regularizer": null, "bias_initializer": {"config": {}, "class_name": "Zeros"}, "kernel_constraint": null, "bias_constraint": null, "kernel_regularizer": {"config": {"l1": 0.0, "l2": 0.0003000000142492354}, "class_name": "L1L2"}, "units": 1, "activity_regularizer": null, "name": "D1_o", "use_bias": true, "activation": "relu", "trainable": true, "kernel_initializer": {"config": {"distribution": "normal", "scale": 1.0, "seed": 3014, "mode": "fan_avg"}, "class_name": "VarianceScaling"}}, "class_name": "Dense", "name": "D1_o", "inbound_nodes": [[["D1_1", 0, 0, {}]]]}, {"config": {"trainable": true, "name": "C1_out"}, "class_name": "Multiply", "name": "C1_out", "inbound_nodes": [[["OnOff_C1", 0, 0, {}], ["C1_o", 0, 0, {}]]]}, {"config": {"trainable": true, "name": "C2_out"}, "class_name": "Multiply", "name": "C2_out", "inbound_nodes": [[["OnOff_C2", 0, 0, {}], ["C2_o", 0, 0, {}]]]}, {"config": {"trainable": true, "name": "C3_out"}, "class_name": "Multiply", "name": "C3_out", "inbound_nodes": [[["OnOff_C3", 0, 0, {}], ["C3_o", 0, 0, {}]]]}, {"config": {"trainable": true, "name": "C4_out"}, "class_name": "Multiply", "name": "C4_out", "inbound_nodes": [[["OnOff_C4", 0, 0, {}], ["C4_o", 0, 0, {}]]]}, {"config": {"trainable": true, "name": "B1_out"}, "class_name": "Multiply", "name": "B1_out", "inbound_nodes": [[["OnOff_B1", 0, 0, {}], ["B1_o", 0, 0, {}]]]}, {"config": {"trainable": true, "name": "B3_out"}, "class_name": "Multiply", "name": "B3_out", "inbound_nodes": [[["OnOff_B3", 0, 0, {}], ["B3_o", 0, 0, {}]]]}, {"config": {"trainable": true, "name": "D1_out"}, "class_name": "Multiply", "name": "D1_out", "inbound_nodes": [[["OnOff_D1", 0, 0, {}], ["D1_o", 0, 0, {}]]]}, {"config": {"trainable": true, "name": "GJOA_TOTAL"}, "class_name": "Add", "name": "GJOA_TOTAL", "inbound_nodes": [[["C1_out", 0, 0, {}], ["C2_out", 0, 0, {}], ["C3_out", 0, 0, {}], ["C4_out", 0, 0, {}], ["B1_out", 0, 0, {}], ["B3_out", 0, 0, {}], ["D1_out", 0, 0, {}]]]}], "output_layers": [["C1_out", 0, 0], ["C2_out", 0, 0], ["C3_out", 0, 0], ["C4_out", 0, 0], ["B1_out", 0, 0], ["B3_out", 0, 0], ["D1_out", 0, 0], ["GJOA_TOTAL", 0, 0]], "input_layers": [["C1", 0, 0], ["C2", 0, 0], ["C3", 0, 0], ["C4", 0, 0], ["B1", 0, 0], ["B3", 0, 0], ["D1", 0, 0], ["OnOff_C1", 0, 0], ["OnOff_C2", 0, 0], ["OnOff_C3", 0, 0], ["OnOff_C4", 0, 0], ["OnOff_B1", 0, 0], ["OnOff_B3", 0, 0], ["OnOff_D1", 0, 0]], "name": "model_1"}, "class_name": "Model", "backend": "theano"}