{"config": {"layers": [{"config": {"dtype": "float32", "name": "C1", "batch_input_shape": [null, 4], "sparse": false}, "inbound_nodes": [], "name": "C1", "class_name": "InputLayer"}, {"config": {"dtype": "float32", "name": "C2", "batch_input_shape": [null, 3], "sparse": false}, "inbound_nodes": [], "name": "C2", "class_name": "InputLayer"}, {"config": {"dtype": "float32", "name": "C3", "batch_input_shape": [null, 4], "sparse": false}, "inbound_nodes": [], "name": "C3", "class_name": "InputLayer"}, {"config": {"dtype": "float32", "name": "C4", "batch_input_shape": [null, 4], "sparse": false}, "inbound_nodes": [], "name": "C4", "class_name": "InputLayer"}, {"config": {"dtype": "float32", "name": "B1", "batch_input_shape": [null, 4], "sparse": false}, "inbound_nodes": [], "name": "B1", "class_name": "InputLayer"}, {"config": {"dtype": "float32", "name": "B3", "batch_input_shape": [null, 4], "sparse": false}, "inbound_nodes": [], "name": "B3", "class_name": "InputLayer"}, {"config": {"dtype": "float32", "name": "D1", "batch_input_shape": [null, 3], "sparse": false}, "inbound_nodes": [], "name": "D1", "class_name": "InputLayer"}, {"config": {"kernel_regularizer": {"config": {"l1": 0.0, "l2": 9.999999747378752e-05}, "class_name": "L1L2"}, "bias_initializer": {"config": {}, "class_name": "Zeros"}, "activity_regularizer": null, "name": "C1_0", "kernel_initializer": {"config": {"scale": 1.0, "mode": "fan_avg", "distribution": "normal", "seed": 3014}, "class_name": "VarianceScaling"}, "kernel_constraint": null, "activation": "relu", "bias_regularizer": null, "trainable": true, "use_bias": true, "units": 90, "bias_constraint": null}, "inbound_nodes": [[["C1", 0, 0, {}]]], "name": "C1_0", "class_name": "Dense"}, {"config": {"kernel_regularizer": {"config": {"l1": 0.0, "l2": 9.999999747378752e-05}, "class_name": "L1L2"}, "bias_initializer": {"config": {}, "class_name": "Zeros"}, "activity_regularizer": null, "name": "C2_0", "kernel_initializer": {"config": {"scale": 1.0, "mode": "fan_avg", "distribution": "normal", "seed": 3014}, "class_name": "VarianceScaling"}, "kernel_constraint": null, "activation": "relu", "bias_regularizer": null, "trainable": true, "use_bias": true, "units": 90, "bias_constraint": null}, "inbound_nodes": [[["C2", 0, 0, {}]]], "name": "C2_0", "class_name": "Dense"}, {"config": {"kernel_regularizer": {"config": {"l1": 0.0, "l2": 9.999999747378752e-05}, "class_name": "L1L2"}, "bias_initializer": {"config": {}, "class_name": "Zeros"}, "activity_regularizer": null, "name": "C3_0", "kernel_initializer": {"config": {"scale": 1.0, "mode": "fan_avg", "distribution": "normal", "seed": 3014}, "class_name": "VarianceScaling"}, "kernel_constraint": null, "activation": "relu", "bias_regularizer": null, "trainable": true, "use_bias": true, "units": 90, "bias_constraint": null}, "inbound_nodes": [[["C3", 0, 0, {}]]], "name": "C3_0", "class_name": "Dense"}, {"config": {"kernel_regularizer": {"config": {"l1": 0.0, "l2": 9.999999747378752e-05}, "class_name": "L1L2"}, "bias_initializer": {"config": {}, "class_name": "Zeros"}, "activity_regularizer": null, "name": "C4_0", "kernel_initializer": {"config": {"scale": 1.0, "mode": "fan_avg", "distribution": "normal", "seed": 3014}, "class_name": "VarianceScaling"}, "kernel_constraint": null, "activation": "relu", "bias_regularizer": null, "trainable": true, "use_bias": true, "units": 90, "bias_constraint": null}, "inbound_nodes": [[["C4", 0, 0, {}]]], "name": "C4_0", "class_name": "Dense"}, {"config": {"kernel_regularizer": {"config": {"l1": 0.0, "l2": 9.999999747378752e-05}, "class_name": "L1L2"}, "bias_initializer": {"config": {}, "class_name": "Zeros"}, "activity_regularizer": null, "name": "B1_0", "kernel_initializer": {"config": {"scale": 1.0, "mode": "fan_avg", "distribution": "normal", "seed": 3014}, "class_name": "VarianceScaling"}, "kernel_constraint": null, "activation": "relu", "bias_regularizer": null, "trainable": true, "use_bias": true, "units": 90, "bias_constraint": null}, "inbound_nodes": [[["B1", 0, 0, {}]]], "name": "B1_0", "class_name": "Dense"}, {"config": {"kernel_regularizer": {"config": {"l1": 0.0, "l2": 9.999999747378752e-05}, "class_name": "L1L2"}, "bias_initializer": {"config": {}, "class_name": "Zeros"}, "activity_regularizer": null, "name": "B3_0", "kernel_initializer": {"config": {"scale": 1.0, "mode": "fan_avg", "distribution": "normal", "seed": 3014}, "class_name": "VarianceScaling"}, "kernel_constraint": null, "activation": "relu", "bias_regularizer": null, "trainable": true, "use_bias": true, "units": 90, "bias_constraint": null}, "inbound_nodes": [[["B3", 0, 0, {}]]], "name": "B3_0", "class_name": "Dense"}, {"config": {"kernel_regularizer": {"config": {"l1": 0.0, "l2": 9.999999747378752e-05}, "class_name": "L1L2"}, "bias_initializer": {"config": {}, "class_name": "Zeros"}, "activity_regularizer": null, "name": "D1_0", "kernel_initializer": {"config": {"scale": 1.0, "mode": "fan_avg", "distribution": "normal", "seed": 3014}, "class_name": "VarianceScaling"}, "kernel_constraint": null, "activation": "relu", "bias_regularizer": null, "trainable": true, "use_bias": true, "units": 90, "bias_constraint": null}, "inbound_nodes": [[["D1", 0, 0, {}]]], "name": "D1_0", "class_name": "Dense"}, {"config": {"kernel_regularizer": {"config": {"l1": 0.0, "l2": 9.999999747378752e-05}, "class_name": "L1L2"}, "bias_initializer": {"config": {}, "class_name": "Zeros"}, "activity_regularizer": null, "name": "C1_1", "kernel_initializer": {"config": {"scale": 1.0, "mode": "fan_avg", "distribution": "normal", "seed": 3014}, "class_name": "VarianceScaling"}, "kernel_constraint": null, "activation": "relu", "bias_regularizer": null, "trainable": true, "use_bias": true, "units": 90, "bias_constraint": null}, "inbound_nodes": [[["C1_0", 0, 0, {}]]], "name": "C1_1", "class_name": "Dense"}, {"config": {"kernel_regularizer": {"config": {"l1": 0.0, "l2": 9.999999747378752e-05}, "class_name": "L1L2"}, "bias_initializer": {"config": {}, "class_name": "Zeros"}, "activity_regularizer": null, "name": "C2_1", "kernel_initializer": {"config": {"scale": 1.0, "mode": "fan_avg", "distribution": "normal", "seed": 3014}, "class_name": "VarianceScaling"}, "kernel_constraint": null, "activation": "relu", "bias_regularizer": null, "trainable": true, "use_bias": true, "units": 90, "bias_constraint": null}, "inbound_nodes": [[["C2_0", 0, 0, {}]]], "name": "C2_1", "class_name": "Dense"}, {"config": {"kernel_regularizer": {"config": {"l1": 0.0, "l2": 9.999999747378752e-05}, "class_name": "L1L2"}, "bias_initializer": {"config": {}, "class_name": "Zeros"}, "activity_regularizer": null, "name": "C3_1", "kernel_initializer": {"config": {"scale": 1.0, "mode": "fan_avg", "distribution": "normal", "seed": 3014}, "class_name": "VarianceScaling"}, "kernel_constraint": null, "activation": "relu", "bias_regularizer": null, "trainable": true, "use_bias": true, "units": 90, "bias_constraint": null}, "inbound_nodes": [[["C3_0", 0, 0, {}]]], "name": "C3_1", "class_name": "Dense"}, {"config": {"kernel_regularizer": {"config": {"l1": 0.0, "l2": 9.999999747378752e-05}, "class_name": "L1L2"}, "bias_initializer": {"config": {}, "class_name": "Zeros"}, "activity_regularizer": null, "name": "C4_1", "kernel_initializer": {"config": {"scale": 1.0, "mode": "fan_avg", "distribution": "normal", "seed": 3014}, "class_name": "VarianceScaling"}, "kernel_constraint": null, "activation": "relu", "bias_regularizer": null, "trainable": true, "use_bias": true, "units": 90, "bias_constraint": null}, "inbound_nodes": [[["C4_0", 0, 0, {}]]], "name": "C4_1", "class_name": "Dense"}, {"config": {"kernel_regularizer": {"config": {"l1": 0.0, "l2": 9.999999747378752e-05}, "class_name": "L1L2"}, "bias_initializer": {"config": {}, "class_name": "Zeros"}, "activity_regularizer": null, "name": "B1_1", "kernel_initializer": {"config": {"scale": 1.0, "mode": "fan_avg", "distribution": "normal", "seed": 3014}, "class_name": "VarianceScaling"}, "kernel_constraint": null, "activation": "relu", "bias_regularizer": null, "trainable": true, "use_bias": true, "units": 90, "bias_constraint": null}, "inbound_nodes": [[["B1_0", 0, 0, {}]]], "name": "B1_1", "class_name": "Dense"}, {"config": {"kernel_regularizer": {"config": {"l1": 0.0, "l2": 9.999999747378752e-05}, "class_name": "L1L2"}, "bias_initializer": {"config": {}, "class_name": "Zeros"}, "activity_regularizer": null, "name": "B3_1", "kernel_initializer": {"config": {"scale": 1.0, "mode": "fan_avg", "distribution": "normal", "seed": 3014}, "class_name": "VarianceScaling"}, "kernel_constraint": null, "activation": "relu", "bias_regularizer": null, "trainable": true, "use_bias": true, "units": 90, "bias_constraint": null}, "inbound_nodes": [[["B3_0", 0, 0, {}]]], "name": "B3_1", "class_name": "Dense"}, {"config": {"kernel_regularizer": {"config": {"l1": 0.0, "l2": 9.999999747378752e-05}, "class_name": "L1L2"}, "bias_initializer": {"config": {}, "class_name": "Zeros"}, "activity_regularizer": null, "name": "D1_1", "kernel_initializer": {"config": {"scale": 1.0, "mode": "fan_avg", "distribution": "normal", "seed": 3014}, "class_name": "VarianceScaling"}, "kernel_constraint": null, "activation": "relu", "bias_regularizer": null, "trainable": true, "use_bias": true, "units": 90, "bias_constraint": null}, "inbound_nodes": [[["D1_0", 0, 0, {}]]], "name": "D1_1", "class_name": "Dense"}, {"config": {"dtype": "float32", "name": "OnOff_C1", "batch_input_shape": [null, 1], "sparse": false}, "inbound_nodes": [], "name": "OnOff_C1", "class_name": "InputLayer"}, {"config": {"kernel_regularizer": {"config": {"l1": 0.0, "l2": 9.999999747378752e-05}, "class_name": "L1L2"}, "bias_initializer": {"config": {}, "class_name": "Zeros"}, "activity_regularizer": null, "name": "C1_o", "kernel_initializer": {"config": {"scale": 1.0, "mode": "fan_avg", "distribution": "normal", "seed": 3014}, "class_name": "VarianceScaling"}, "kernel_constraint": null, "activation": "relu", "bias_regularizer": null, "trainable": true, "use_bias": true, "units": 1, "bias_constraint": null}, "inbound_nodes": [[["C1_1", 0, 0, {}]]], "name": "C1_o", "class_name": "Dense"}, {"config": {"dtype": "float32", "name": "OnOff_C2", "batch_input_shape": [null, 1], "sparse": false}, "inbound_nodes": [], "name": "OnOff_C2", "class_name": "InputLayer"}, {"config": {"kernel_regularizer": {"config": {"l1": 0.0, "l2": 9.999999747378752e-05}, "class_name": "L1L2"}, "bias_initializer": {"config": {}, "class_name": "Zeros"}, "activity_regularizer": null, "name": "C2_o", "kernel_initializer": {"config": {"scale": 1.0, "mode": "fan_avg", "distribution": "normal", "seed": 3014}, "class_name": "VarianceScaling"}, "kernel_constraint": null, "activation": "relu", "bias_regularizer": null, "trainable": true, "use_bias": true, "units": 1, "bias_constraint": null}, "inbound_nodes": [[["C2_1", 0, 0, {}]]], "name": "C2_o", "class_name": "Dense"}, {"config": {"dtype": "float32", "name": "OnOff_C3", "batch_input_shape": [null, 1], "sparse": false}, "inbound_nodes": [], "name": "OnOff_C3", "class_name": "InputLayer"}, {"config": {"kernel_regularizer": {"config": {"l1": 0.0, "l2": 9.999999747378752e-05}, "class_name": "L1L2"}, "bias_initializer": {"config": {}, "class_name": "Zeros"}, "activity_regularizer": null, "name": "C3_o", "kernel_initializer": {"config": {"scale": 1.0, "mode": "fan_avg", "distribution": "normal", "seed": 3014}, "class_name": "VarianceScaling"}, "kernel_constraint": null, "activation": "relu", "bias_regularizer": null, "trainable": true, "use_bias": true, "units": 1, "bias_constraint": null}, "inbound_nodes": [[["C3_1", 0, 0, {}]]], "name": "C3_o", "class_name": "Dense"}, {"config": {"dtype": "float32", "name": "OnOff_C4", "batch_input_shape": [null, 1], "sparse": false}, "inbound_nodes": [], "name": "OnOff_C4", "class_name": "InputLayer"}, {"config": {"kernel_regularizer": {"config": {"l1": 0.0, "l2": 9.999999747378752e-05}, "class_name": "L1L2"}, "bias_initializer": {"config": {}, "class_name": "Zeros"}, "activity_regularizer": null, "name": "C4_o", "kernel_initializer": {"config": {"scale": 1.0, "mode": "fan_avg", "distribution": "normal", "seed": 3014}, "class_name": "VarianceScaling"}, "kernel_constraint": null, "activation": "relu", "bias_regularizer": null, "trainable": true, "use_bias": true, "units": 1, "bias_constraint": null}, "inbound_nodes": [[["C4_1", 0, 0, {}]]], "name": "C4_o", "class_name": "Dense"}, {"config": {"dtype": "float32", "name": "OnOff_B1", "batch_input_shape": [null, 1], "sparse": false}, "inbound_nodes": [], "name": "OnOff_B1", "class_name": "InputLayer"}, {"config": {"kernel_regularizer": {"config": {"l1": 0.0, "l2": 9.999999747378752e-05}, "class_name": "L1L2"}, "bias_initializer": {"config": {}, "class_name": "Zeros"}, "activity_regularizer": null, "name": "B1_o", "kernel_initializer": {"config": {"scale": 1.0, "mode": "fan_avg", "distribution": "normal", "seed": 3014}, "class_name": "VarianceScaling"}, "kernel_constraint": null, "activation": "relu", "bias_regularizer": null, "trainable": true, "use_bias": true, "units": 1, "bias_constraint": null}, "inbound_nodes": [[["B1_1", 0, 0, {}]]], "name": "B1_o", "class_name": "Dense"}, {"config": {"dtype": "float32", "name": "OnOff_B3", "batch_input_shape": [null, 1], "sparse": false}, "inbound_nodes": [], "name": "OnOff_B3", "class_name": "InputLayer"}, {"config": {"kernel_regularizer": {"config": {"l1": 0.0, "l2": 9.999999747378752e-05}, "class_name": "L1L2"}, "bias_initializer": {"config": {}, "class_name": "Zeros"}, "activity_regularizer": null, "name": "B3_o", "kernel_initializer": {"config": {"scale": 1.0, "mode": "fan_avg", "distribution": "normal", "seed": 3014}, "class_name": "VarianceScaling"}, "kernel_constraint": null, "activation": "relu", "bias_regularizer": null, "trainable": true, "use_bias": true, "units": 1, "bias_constraint": null}, "inbound_nodes": [[["B3_1", 0, 0, {}]]], "name": "B3_o", "class_name": "Dense"}, {"config": {"dtype": "float32", "name": "OnOff_D1", "batch_input_shape": [null, 1], "sparse": false}, "inbound_nodes": [], "name": "OnOff_D1", "class_name": "InputLayer"}, {"config": {"kernel_regularizer": {"config": {"l1": 0.0, "l2": 9.999999747378752e-05}, "class_name": "L1L2"}, "bias_initializer": {"config": {}, "class_name": "Zeros"}, "activity_regularizer": null, "name": "D1_o", "kernel_initializer": {"config": {"scale": 1.0, "mode": "fan_avg", "distribution": "normal", "seed": 3014}, "class_name": "VarianceScaling"}, "kernel_constraint": null, "activation": "relu", "bias_regularizer": null, "trainable": true, "use_bias": true, "units": 1, "bias_constraint": null}, "inbound_nodes": [[["D1_1", 0, 0, {}]]], "name": "D1_o", "class_name": "Dense"}, {"config": {"trainable": true, "name": "C1_out"}, "inbound_nodes": [[["OnOff_C1", 0, 0, {}], ["C1_o", 0, 0, {}]]], "name": "C1_out", "class_name": "Multiply"}, {"config": {"trainable": true, "name": "C2_out"}, "inbound_nodes": [[["OnOff_C2", 0, 0, {}], ["C2_o", 0, 0, {}]]], "name": "C2_out", "class_name": "Multiply"}, {"config": {"trainable": true, "name": "C3_out"}, "inbound_nodes": [[["OnOff_C3", 0, 0, {}], ["C3_o", 0, 0, {}]]], "name": "C3_out", "class_name": "Multiply"}, {"config": {"trainable": true, "name": "C4_out"}, "inbound_nodes": [[["OnOff_C4", 0, 0, {}], ["C4_o", 0, 0, {}]]], "name": "C4_out", "class_name": "Multiply"}, {"config": {"trainable": true, "name": "B1_out"}, "inbound_nodes": [[["OnOff_B1", 0, 0, {}], ["B1_o", 0, 0, {}]]], "name": "B1_out", "class_name": "Multiply"}, {"config": {"trainable": true, "name": "B3_out"}, "inbound_nodes": [[["OnOff_B3", 0, 0, {}], ["B3_o", 0, 0, {}]]], "name": "B3_out", "class_name": "Multiply"}, {"config": {"trainable": true, "name": "D1_out"}, "inbound_nodes": [[["OnOff_D1", 0, 0, {}], ["D1_o", 0, 0, {}]]], "name": "D1_out", "class_name": "Multiply"}, {"config": {"trainable": true, "name": "GJOA_TOTAL"}, "inbound_nodes": [[["C1_out", 0, 0, {}], ["C2_out", 0, 0, {}], ["C3_out", 0, 0, {}], ["C4_out", 0, 0, {}], ["B1_out", 0, 0, {}], ["B3_out", 0, 0, {}], ["D1_out", 0, 0, {}]]], "name": "GJOA_TOTAL", "class_name": "Add"}], "output_layers": [["C1_out", 0, 0], ["C2_out", 0, 0], ["C3_out", 0, 0], ["C4_out", 0, 0], ["B1_out", 0, 0], ["B3_out", 0, 0], ["D1_out", 0, 0], ["GJOA_TOTAL", 0, 0]], "input_layers": [["C1", 0, 0], ["C2", 0, 0], ["C3", 0, 0], ["C4", 0, 0], ["B1", 0, 0], ["B3", 0, 0], ["D1", 0, 0], ["OnOff_C1", 0, 0], ["OnOff_C2", 0, 0], ["OnOff_C3", 0, 0], ["OnOff_C4", 0, 0], ["OnOff_B1", 0, 0], ["OnOff_B3", 0, 0], ["OnOff_D1", 0, 0]], "name": "model_3"}, "keras_version": "2.0.1", "backend": "theano", "class_name": "Model"}