{"config": {"output_layers": [["C1_PBH_out", 0, 0], ["C3_PBH_out", 0, 0], ["C4_PBH_out", 0, 0], ["B1_PBH_out", 0, 0], ["B3_PBH_out", 0, 0]], "layers": [{"inbound_nodes": [], "config": {"sparse": false, "batch_input_shape": [null, 8], "dtype": "float32", "name": "CHK_INPUT"}, "name": "CHK_INPUT", "class_name": "InputLayer"}, {"inbound_nodes": [[["CHK_INPUT", 0, 0, {}]]], "config": {"activation": "relu", "kernel_initializer": {"config": {"scale": 1.0, "seed": 3014, "distribution": "normal", "mode": "fan_avg"}, "class_name": "VarianceScaling"}, "kernel_regularizer": {"config": {"l1": 0.0, "l2": 9.999999747378752e-06}, "class_name": "L1L2"}, "units": 100, "bias_regularizer": null, "bias_constraint": null, "activity_regularizer": null, "trainable": true, "name": "C1_PBH_0", "bias_initializer": {"config": {}, "class_name": "Zeros"}, "use_bias": true, "kernel_constraint": null}, "name": "C1_PBH_0", "class_name": "Dense"}, {"inbound_nodes": [[["CHK_INPUT", 0, 0, {}]]], "config": {"activation": "relu", "kernel_initializer": {"config": {"scale": 1.0, "seed": 3014, "distribution": "normal", "mode": "fan_avg"}, "class_name": "VarianceScaling"}, "kernel_regularizer": {"config": {"l1": 0.0, "l2": 9.999999747378752e-06}, "class_name": "L1L2"}, "units": 100, "bias_regularizer": null, "bias_constraint": null, "activity_regularizer": null, "trainable": true, "name": "C3_PBH_0", "bias_initializer": {"config": {}, "class_name": "Zeros"}, "use_bias": true, "kernel_constraint": null}, "name": "C3_PBH_0", "class_name": "Dense"}, {"inbound_nodes": [[["CHK_INPUT", 0, 0, {}]]], "config": {"activation": "relu", "kernel_initializer": {"config": {"scale": 1.0, "seed": 3014, "distribution": "normal", "mode": "fan_avg"}, "class_name": "VarianceScaling"}, "kernel_regularizer": {"config": {"l1": 0.0, "l2": 9.999999747378752e-06}, "class_name": "L1L2"}, "units": 100, "bias_regularizer": null, "bias_constraint": null, "activity_regularizer": null, "trainable": true, "name": "C4_PBH_0", "bias_initializer": {"config": {}, "class_name": "Zeros"}, "use_bias": true, "kernel_constraint": null}, "name": "C4_PBH_0", "class_name": "Dense"}, {"inbound_nodes": [[["CHK_INPUT", 0, 0, {}]]], "config": {"activation": "relu", "kernel_initializer": {"config": {"scale": 1.0, "seed": 3014, "distribution": "normal", "mode": "fan_avg"}, "class_name": "VarianceScaling"}, "kernel_regularizer": {"config": {"l1": 0.0, "l2": 9.999999747378752e-06}, "class_name": "L1L2"}, "units": 100, "bias_regularizer": null, "bias_constraint": null, "activity_regularizer": null, "trainable": true, "name": "B1_PBH_0", "bias_initializer": {"config": {}, "class_name": "Zeros"}, "use_bias": true, "kernel_constraint": null}, "name": "B1_PBH_0", "class_name": "Dense"}, {"inbound_nodes": [[["CHK_INPUT", 0, 0, {}]]], "config": {"activation": "relu", "kernel_initializer": {"config": {"scale": 1.0, "seed": 3014, "distribution": "normal", "mode": "fan_avg"}, "class_name": "VarianceScaling"}, "kernel_regularizer": {"config": {"l1": 0.0, "l2": 9.999999747378752e-06}, "class_name": "L1L2"}, "units": 100, "bias_regularizer": null, "bias_constraint": null, "activity_regularizer": null, "trainable": true, "name": "B3_PBH_0", "bias_initializer": {"config": {}, "class_name": "Zeros"}, "use_bias": true, "kernel_constraint": null}, "name": "B3_PBH_0", "class_name": "Dense"}, {"inbound_nodes": [[["C1_PBH_0", 0, 0, {}]]], "config": {"trainable": true, "name": "C1_PBH_dp_1", "rate": 0.2}, "name": "C1_PBH_dp_1", "class_name": "Dropout"}, {"inbound_nodes": [[["C3_PBH_0", 0, 0, {}]]], "config": {"trainable": true, "name": "C3_PBH_dp_1", "rate": 0.2}, "name": "C3_PBH_dp_1", "class_name": "Dropout"}, {"inbound_nodes": [[["C4_PBH_0", 0, 0, {}]]], "config": {"trainable": true, "name": "C4_PBH_dp_1", "rate": 0.2}, "name": "C4_PBH_dp_1", "class_name": "Dropout"}, {"inbound_nodes": [[["B1_PBH_0", 0, 0, {}]]], "config": {"trainable": true, "name": "B1_PBH_dp_1", "rate": 0.2}, "name": "B1_PBH_dp_1", "class_name": "Dropout"}, {"inbound_nodes": [[["B3_PBH_0", 0, 0, {}]]], "config": {"trainable": true, "name": "B3_PBH_dp_1", "rate": 0.2}, "name": "B3_PBH_dp_1", "class_name": "Dropout"}, {"inbound_nodes": [[["C1_PBH_dp_1", 0, 0, {}]]], "config": {"activation": "relu", "kernel_initializer": {"config": {"scale": 1.0, "seed": 3014, "distribution": "normal", "mode": "fan_avg"}, "class_name": "VarianceScaling"}, "kernel_regularizer": {"config": {"l1": 0.0, "l2": 9.999999747378752e-06}, "class_name": "L1L2"}, "units": 100, "bias_regularizer": null, "bias_constraint": null, "activity_regularizer": null, "trainable": true, "name": "C1_PBH_1", "bias_initializer": {"config": {}, "class_name": "Zeros"}, "use_bias": true, "kernel_constraint": null}, "name": "C1_PBH_1", "class_name": "Dense"}, {"inbound_nodes": [[["C3_PBH_dp_1", 0, 0, {}]]], "config": {"activation": "relu", "kernel_initializer": {"config": {"scale": 1.0, "seed": 3014, "distribution": "normal", "mode": "fan_avg"}, "class_name": "VarianceScaling"}, "kernel_regularizer": {"config": {"l1": 0.0, "l2": 9.999999747378752e-06}, "class_name": "L1L2"}, "units": 100, "bias_regularizer": null, "bias_constraint": null, "activity_regularizer": null, "trainable": true, "name": "C3_PBH_1", "bias_initializer": {"config": {}, "class_name": "Zeros"}, "use_bias": true, "kernel_constraint": null}, "name": "C3_PBH_1", "class_name": "Dense"}, {"inbound_nodes": [[["C4_PBH_dp_1", 0, 0, {}]]], "config": {"activation": "relu", "kernel_initializer": {"config": {"scale": 1.0, "seed": 3014, "distribution": "normal", "mode": "fan_avg"}, "class_name": "VarianceScaling"}, "kernel_regularizer": {"config": {"l1": 0.0, "l2": 9.999999747378752e-06}, "class_name": "L1L2"}, "units": 100, "bias_regularizer": null, "bias_constraint": null, "activity_regularizer": null, "trainable": true, "name": "C4_PBH_1", "bias_initializer": {"config": {}, "class_name": "Zeros"}, "use_bias": true, "kernel_constraint": null}, "name": "C4_PBH_1", "class_name": "Dense"}, {"inbound_nodes": [[["B1_PBH_dp_1", 0, 0, {}]]], "config": {"activation": "relu", "kernel_initializer": {"config": {"scale": 1.0, "seed": 3014, "distribution": "normal", "mode": "fan_avg"}, "class_name": "VarianceScaling"}, "kernel_regularizer": {"config": {"l1": 0.0, "l2": 9.999999747378752e-06}, "class_name": "L1L2"}, "units": 100, "bias_regularizer": null, "bias_constraint": null, "activity_regularizer": null, "trainable": true, "name": "B1_PBH_1", "bias_initializer": {"config": {}, "class_name": "Zeros"}, "use_bias": true, "kernel_constraint": null}, "name": "B1_PBH_1", "class_name": "Dense"}, {"inbound_nodes": [[["B3_PBH_dp_1", 0, 0, {}]]], "config": {"activation": "relu", "kernel_initializer": {"config": {"scale": 1.0, "seed": 3014, "distribution": "normal", "mode": "fan_avg"}, "class_name": "VarianceScaling"}, "kernel_regularizer": {"config": {"l1": 0.0, "l2": 9.999999747378752e-06}, "class_name": "L1L2"}, "units": 100, "bias_regularizer": null, "bias_constraint": null, "activity_regularizer": null, "trainable": true, "name": "B3_PBH_1", "bias_initializer": {"config": {}, "class_name": "Zeros"}, "use_bias": true, "kernel_constraint": null}, "name": "B3_PBH_1", "class_name": "Dense"}, {"inbound_nodes": [[["C1_PBH_1", 0, 0, {}]]], "config": {"activation": "linear", "kernel_initializer": {"config": {"scale": 1.0, "seed": 3014, "distribution": "normal", "mode": "fan_avg"}, "class_name": "VarianceScaling"}, "kernel_regularizer": {"config": {"l1": 0.0, "l2": 9.999999747378752e-06}, "class_name": "L1L2"}, "units": 1, "bias_regularizer": null, "bias_constraint": null, "activity_regularizer": null, "trainable": true, "name": "C1_PBH_out", "bias_initializer": {"config": {}, "class_name": "Zeros"}, "use_bias": true, "kernel_constraint": null}, "name": "C1_PBH_out", "class_name": "Dense"}, {"inbound_nodes": [[["C3_PBH_1", 0, 0, {}]]], "config": {"activation": "linear", "kernel_initializer": {"config": {"scale": 1.0, "seed": 3014, "distribution": "normal", "mode": "fan_avg"}, "class_name": "VarianceScaling"}, "kernel_regularizer": {"config": {"l1": 0.0, "l2": 9.999999747378752e-06}, "class_name": "L1L2"}, "units": 1, "bias_regularizer": null, "bias_constraint": null, "activity_regularizer": null, "trainable": true, "name": "C3_PBH_out", "bias_initializer": {"config": {}, "class_name": "Zeros"}, "use_bias": true, "kernel_constraint": null}, "name": "C3_PBH_out", "class_name": "Dense"}, {"inbound_nodes": [[["C4_PBH_1", 0, 0, {}]]], "config": {"activation": "linear", "kernel_initializer": {"config": {"scale": 1.0, "seed": 3014, "distribution": "normal", "mode": "fan_avg"}, "class_name": "VarianceScaling"}, "kernel_regularizer": {"config": {"l1": 0.0, "l2": 9.999999747378752e-06}, "class_name": "L1L2"}, "units": 1, "bias_regularizer": null, "bias_constraint": null, "activity_regularizer": null, "trainable": true, "name": "C4_PBH_out", "bias_initializer": {"config": {}, "class_name": "Zeros"}, "use_bias": true, "kernel_constraint": null}, "name": "C4_PBH_out", "class_name": "Dense"}, {"inbound_nodes": [[["B1_PBH_1", 0, 0, {}]]], "config": {"activation": "linear", "kernel_initializer": {"config": {"scale": 1.0, "seed": 3014, "distribution": "normal", "mode": "fan_avg"}, "class_name": "VarianceScaling"}, "kernel_regularizer": {"config": {"l1": 0.0, "l2": 9.999999747378752e-06}, "class_name": "L1L2"}, "units": 1, "bias_regularizer": null, "bias_constraint": null, "activity_regularizer": null, "trainable": true, "name": "B1_PBH_out", "bias_initializer": {"config": {}, "class_name": "Zeros"}, "use_bias": true, "kernel_constraint": null}, "name": "B1_PBH_out", "class_name": "Dense"}, {"inbound_nodes": [[["B3_PBH_1", 0, 0, {}]]], "config": {"activation": "linear", "kernel_initializer": {"config": {"scale": 1.0, "seed": 3014, "distribution": "normal", "mode": "fan_avg"}, "class_name": "VarianceScaling"}, "kernel_regularizer": {"config": {"l1": 0.0, "l2": 9.999999747378752e-06}, "class_name": "L1L2"}, "units": 1, "bias_regularizer": null, "bias_constraint": null, "activity_regularizer": null, "trainable": true, "name": "B3_PBH_out", "bias_initializer": {"config": {}, "class_name": "Zeros"}, "use_bias": true, "kernel_constraint": null}, "name": "B3_PBH_out", "class_name": "Dense"}], "name": "model_1", "input_layers": [["CHK_INPUT", 0, 0]]}, "backend": "theano", "class_name": "Model", "keras_version": "2.0.1"}