{"keras_version": "2.0.1", "class_name": "Model", "config": {"input_layers": [["PRESSURE_INPUT", 0, 0], ["RISER_B_CHK_INPUT", 0, 0]], "name": "model_1", "layers": [{"class_name": "InputLayer", "config": {"dtype": "float32", "batch_input_shape": [null, 12], "name": "PRESSURE_INPUT", "sparse": false}, "name": "PRESSURE_INPUT", "inbound_nodes": []}, {"class_name": "InputLayer", "config": {"dtype": "float32", "batch_input_shape": [null, 1], "name": "RISER_B_CHK_INPUT", "sparse": false}, "name": "RISER_B_CHK_INPUT", "inbound_nodes": []}, {"class_name": "Concatenate", "config": {"trainable": true, "name": "RISER_MERGE", "axis": -1}, "name": "RISER_MERGE", "inbound_nodes": [[["PRESSURE_INPUT", 0, 0, {}], ["RISER_B_CHK_INPUT", 0, 0, {}]]]}, {"class_name": "Dense", "config": {"use_bias": true, "kernel_constraint": null, "kernel_initializer": {"class_name": "VarianceScaling", "config": {"seed": 3014, "distribution": "normal", "mode": "fan_avg", "scale": 1.0}}, "units": 80, "activation": "relu", "bias_initializer": {"class_name": "Zeros", "config": {}}, "bias_constraint": null, "kernel_regularizer": {"class_name": "L1L2", "config": {"l1": 0.0, "l2": 0.0003000000142492354}}, "activity_regularizer": null, "trainable": true, "name": "C1_PDC_0", "bias_regularizer": null}, "name": "C1_PDC_0", "inbound_nodes": [[["RISER_MERGE", 0, 0, {}]]]}, {"class_name": "Dense", "config": {"use_bias": true, "kernel_constraint": null, "kernel_initializer": {"class_name": "VarianceScaling", "config": {"seed": 3014, "distribution": "normal", "mode": "fan_avg", "scale": 1.0}}, "units": 80, "activation": "relu", "bias_initializer": {"class_name": "Zeros", "config": {}}, "bias_constraint": null, "kernel_regularizer": {"class_name": "L1L2", "config": {"l1": 0.0, "l2": 0.0003000000142492354}}, "activity_regularizer": null, "trainable": true, "name": "C2_PDC_0", "bias_regularizer": null}, "name": "C2_PDC_0", "inbound_nodes": [[["RISER_MERGE", 0, 0, {}]]]}, {"class_name": "Dense", "config": {"use_bias": true, "kernel_constraint": null, "kernel_initializer": {"class_name": "VarianceScaling", "config": {"seed": 3014, "distribution": "normal", "mode": "fan_avg", "scale": 1.0}}, "units": 80, "activation": "relu", "bias_initializer": {"class_name": "Zeros", "config": {}}, "bias_constraint": null, "kernel_regularizer": {"class_name": "L1L2", "config": {"l1": 0.0, "l2": 0.0003000000142492354}}, "activity_regularizer": null, "trainable": true, "name": "C3_PDC_0", "bias_regularizer": null}, "name": "C3_PDC_0", "inbound_nodes": [[["RISER_MERGE", 0, 0, {}]]]}, {"class_name": "Dense", "config": {"use_bias": true, "kernel_constraint": null, "kernel_initializer": {"class_name": "VarianceScaling", "config": {"seed": 3014, "distribution": "normal", "mode": "fan_avg", "scale": 1.0}}, "units": 80, "activation": "relu", "bias_initializer": {"class_name": "Zeros", "config": {}}, "bias_constraint": null, "kernel_regularizer": {"class_name": "L1L2", "config": {"l1": 0.0, "l2": 0.0003000000142492354}}, "activity_regularizer": null, "trainable": true, "name": "C4_PDC_0", "bias_regularizer": null}, "name": "C4_PDC_0", "inbound_nodes": [[["RISER_MERGE", 0, 0, {}]]]}, {"class_name": "Dense", "config": {"use_bias": true, "kernel_constraint": null, "kernel_initializer": {"class_name": "VarianceScaling", "config": {"seed": 3014, "distribution": "normal", "mode": "fan_avg", "scale": 1.0}}, "units": 80, "activation": "relu", "bias_initializer": {"class_name": "Zeros", "config": {}}, "bias_constraint": null, "kernel_regularizer": {"class_name": "L1L2", "config": {"l1": 0.0, "l2": 0.0003000000142492354}}, "activity_regularizer": null, "trainable": true, "name": "B3_PDC_0", "bias_regularizer": null}, "name": "B3_PDC_0", "inbound_nodes": [[["RISER_MERGE", 0, 0, {}]]]}, {"class_name": "Dense", "config": {"use_bias": true, "kernel_constraint": null, "kernel_initializer": {"class_name": "VarianceScaling", "config": {"seed": 3014, "distribution": "normal", "mode": "fan_avg", "scale": 1.0}}, "units": 80, "activation": "relu", "bias_initializer": {"class_name": "Zeros", "config": {}}, "bias_constraint": null, "kernel_regularizer": {"class_name": "L1L2", "config": {"l1": 0.0, "l2": 0.0003000000142492354}}, "activity_regularizer": null, "trainable": true, "name": "B1_PDC_0", "bias_regularizer": null}, "name": "B1_PDC_0", "inbound_nodes": [[["RISER_MERGE", 0, 0, {}]]]}, {"class_name": "Dense", "config": {"use_bias": true, "kernel_constraint": null, "kernel_initializer": {"class_name": "VarianceScaling", "config": {"seed": 3014, "distribution": "normal", "mode": "fan_avg", "scale": 1.0}}, "units": 80, "activation": "relu", "bias_initializer": {"class_name": "Zeros", "config": {}}, "bias_constraint": null, "kernel_regularizer": {"class_name": "L1L2", "config": {"l1": 0.0, "l2": 0.0003000000142492354}}, "activity_regularizer": null, "trainable": true, "name": "D1_PDC_0", "bias_regularizer": null}, "name": "D1_PDC_0", "inbound_nodes": [[["RISER_MERGE", 0, 0, {}]]]}, {"class_name": "Dense", "config": {"use_bias": true, "kernel_constraint": null, "kernel_initializer": {"class_name": "VarianceScaling", "config": {"seed": 3014, "distribution": "normal", "mode": "fan_avg", "scale": 1.0}}, "units": 80, "activation": "relu", "bias_initializer": {"class_name": "Zeros", "config": {}}, "bias_constraint": null, "kernel_regularizer": {"class_name": "L1L2", "config": {"l1": 0.0, "l2": 0.0003000000142492354}}, "activity_regularizer": null, "trainable": true, "name": "C1_PDC_1", "bias_regularizer": null}, "name": "C1_PDC_1", "inbound_nodes": [[["C1_PDC_0", 0, 0, {}]]]}, {"class_name": "Dense", "config": {"use_bias": true, "kernel_constraint": null, "kernel_initializer": {"class_name": "VarianceScaling", "config": {"seed": 3014, "distribution": "normal", "mode": "fan_avg", "scale": 1.0}}, "units": 80, "activation": "relu", "bias_initializer": {"class_name": "Zeros", "config": {}}, "bias_constraint": null, "kernel_regularizer": {"class_name": "L1L2", "config": {"l1": 0.0, "l2": 0.0003000000142492354}}, "activity_regularizer": null, "trainable": true, "name": "C2_PDC_1", "bias_regularizer": null}, "name": "C2_PDC_1", "inbound_nodes": [[["C2_PDC_0", 0, 0, {}]]]}, {"class_name": "Dense", "config": {"use_bias": true, "kernel_constraint": null, "kernel_initializer": {"class_name": "VarianceScaling", "config": {"seed": 3014, "distribution": "normal", "mode": "fan_avg", "scale": 1.0}}, "units": 80, "activation": "relu", "bias_initializer": {"class_name": "Zeros", "config": {}}, "bias_constraint": null, "kernel_regularizer": {"class_name": "L1L2", "config": {"l1": 0.0, "l2": 0.0003000000142492354}}, "activity_regularizer": null, "trainable": true, "name": "C3_PDC_1", "bias_regularizer": null}, "name": "C3_PDC_1", "inbound_nodes": [[["C3_PDC_0", 0, 0, {}]]]}, {"class_name": "Dense", "config": {"use_bias": true, "kernel_constraint": null, "kernel_initializer": {"class_name": "VarianceScaling", "config": {"seed": 3014, "distribution": "normal", "mode": "fan_avg", "scale": 1.0}}, "units": 80, "activation": "relu", "bias_initializer": {"class_name": "Zeros", "config": {}}, "bias_constraint": null, "kernel_regularizer": {"class_name": "L1L2", "config": {"l1": 0.0, "l2": 0.0003000000142492354}}, "activity_regularizer": null, "trainable": true, "name": "C4_PDC_1", "bias_regularizer": null}, "name": "C4_PDC_1", "inbound_nodes": [[["C4_PDC_0", 0, 0, {}]]]}, {"class_name": "Dense", "config": {"use_bias": true, "kernel_constraint": null, "kernel_initializer": {"class_name": "VarianceScaling", "config": {"seed": 3014, "distribution": "normal", "mode": "fan_avg", "scale": 1.0}}, "units": 80, "activation": "relu", "bias_initializer": {"class_name": "Zeros", "config": {}}, "bias_constraint": null, "kernel_regularizer": {"class_name": "L1L2", "config": {"l1": 0.0, "l2": 0.0003000000142492354}}, "activity_regularizer": null, "trainable": true, "name": "B3_PDC_1", "bias_regularizer": null}, "name": "B3_PDC_1", "inbound_nodes": [[["B3_PDC_0", 0, 0, {}]]]}, {"class_name": "Dense", "config": {"use_bias": true, "kernel_constraint": null, "kernel_initializer": {"class_name": "VarianceScaling", "config": {"seed": 3014, "distribution": "normal", "mode": "fan_avg", "scale": 1.0}}, "units": 80, "activation": "relu", "bias_initializer": {"class_name": "Zeros", "config": {}}, "bias_constraint": null, "kernel_regularizer": {"class_name": "L1L2", "config": {"l1": 0.0, "l2": 0.0003000000142492354}}, "activity_regularizer": null, "trainable": true, "name": "B1_PDC_1", "bias_regularizer": null}, "name": "B1_PDC_1", "inbound_nodes": [[["B1_PDC_0", 0, 0, {}]]]}, {"class_name": "Dense", "config": {"use_bias": true, "kernel_constraint": null, "kernel_initializer": {"class_name": "VarianceScaling", "config": {"seed": 3014, "distribution": "normal", "mode": "fan_avg", "scale": 1.0}}, "units": 80, "activation": "relu", "bias_initializer": {"class_name": "Zeros", "config": {}}, "bias_constraint": null, "kernel_regularizer": {"class_name": "L1L2", "config": {"l1": 0.0, "l2": 0.0003000000142492354}}, "activity_regularizer": null, "trainable": true, "name": "D1_PDC_1", "bias_regularizer": null}, "name": "D1_PDC_1", "inbound_nodes": [[["D1_PDC_0", 0, 0, {}]]]}, {"class_name": "Dense", "config": {"use_bias": true, "kernel_constraint": null, "kernel_initializer": {"class_name": "VarianceScaling", "config": {"seed": 3014, "distribution": "normal", "mode": "fan_avg", "scale": 1.0}}, "units": 1, "activation": "linear", "bias_initializer": {"class_name": "Zeros", "config": {}}, "bias_constraint": null, "kernel_regularizer": {"class_name": "L1L2", "config": {"l1": 0.0, "l2": 0.0003000000142492354}}, "activity_regularizer": null, "trainable": true, "name": "C1_PDC_out", "bias_regularizer": null}, "name": "C1_PDC_out", "inbound_nodes": [[["C1_PDC_1", 0, 0, {}]]]}, {"class_name": "Dense", "config": {"use_bias": true, "kernel_constraint": null, "kernel_initializer": {"class_name": "VarianceScaling", "config": {"seed": 3014, "distribution": "normal", "mode": "fan_avg", "scale": 1.0}}, "units": 1, "activation": "linear", "bias_initializer": {"class_name": "Zeros", "config": {}}, "bias_constraint": null, "kernel_regularizer": {"class_name": "L1L2", "config": {"l1": 0.0, "l2": 0.0003000000142492354}}, "activity_regularizer": null, "trainable": true, "name": "C2_PDC_out", "bias_regularizer": null}, "name": "C2_PDC_out", "inbound_nodes": [[["C2_PDC_1", 0, 0, {}]]]}, {"class_name": "Dense", "config": {"use_bias": true, "kernel_constraint": null, "kernel_initializer": {"class_name": "VarianceScaling", "config": {"seed": 3014, "distribution": "normal", "mode": "fan_avg", "scale": 1.0}}, "units": 1, "activation": "linear", "bias_initializer": {"class_name": "Zeros", "config": {}}, "bias_constraint": null, "kernel_regularizer": {"class_name": "L1L2", "config": {"l1": 0.0, "l2": 0.0003000000142492354}}, "activity_regularizer": null, "trainable": true, "name": "C3_PDC_out", "bias_regularizer": null}, "name": "C3_PDC_out", "inbound_nodes": [[["C3_PDC_1", 0, 0, {}]]]}, {"class_name": "Dense", "config": {"use_bias": true, "kernel_constraint": null, "kernel_initializer": {"class_name": "VarianceScaling", "config": {"seed": 3014, "distribution": "normal", "mode": "fan_avg", "scale": 1.0}}, "units": 1, "activation": "linear", "bias_initializer": {"class_name": "Zeros", "config": {}}, "bias_constraint": null, "kernel_regularizer": {"class_name": "L1L2", "config": {"l1": 0.0, "l2": 0.0003000000142492354}}, "activity_regularizer": null, "trainable": true, "name": "C4_PDC_out", "bias_regularizer": null}, "name": "C4_PDC_out", "inbound_nodes": [[["C4_PDC_1", 0, 0, {}]]]}, {"class_name": "Dense", "config": {"use_bias": true, "kernel_constraint": null, "kernel_initializer": {"class_name": "VarianceScaling", "config": {"seed": 3014, "distribution": "normal", "mode": "fan_avg", "scale": 1.0}}, "units": 1, "activation": "linear", "bias_initializer": {"class_name": "Zeros", "config": {}}, "bias_constraint": null, "kernel_regularizer": {"class_name": "L1L2", "config": {"l1": 0.0, "l2": 0.0003000000142492354}}, "activity_regularizer": null, "trainable": true, "name": "B3_PDC_out", "bias_regularizer": null}, "name": "B3_PDC_out", "inbound_nodes": [[["B3_PDC_1", 0, 0, {}]]]}, {"class_name": "Dense", "config": {"use_bias": true, "kernel_constraint": null, "kernel_initializer": {"class_name": "VarianceScaling", "config": {"seed": 3014, "distribution": "normal", "mode": "fan_avg", "scale": 1.0}}, "units": 1, "activation": "linear", "bias_initializer": {"class_name": "Zeros", "config": {}}, "bias_constraint": null, "kernel_regularizer": {"class_name": "L1L2", "config": {"l1": 0.0, "l2": 0.0003000000142492354}}, "activity_regularizer": null, "trainable": true, "name": "B1_PDC_out", "bias_regularizer": null}, "name": "B1_PDC_out", "inbound_nodes": [[["B1_PDC_1", 0, 0, {}]]]}, {"class_name": "Dense", "config": {"use_bias": true, "kernel_constraint": null, "kernel_initializer": {"class_name": "VarianceScaling", "config": {"seed": 3014, "distribution": "normal", "mode": "fan_avg", "scale": 1.0}}, "units": 1, "activation": "linear", "bias_initializer": {"class_name": "Zeros", "config": {}}, "bias_constraint": null, "kernel_regularizer": {"class_name": "L1L2", "config": {"l1": 0.0, "l2": 0.0003000000142492354}}, "activity_regularizer": null, "trainable": true, "name": "D1_PDC_out", "bias_regularizer": null}, "name": "D1_PDC_out", "inbound_nodes": [[["D1_PDC_1", 0, 0, {}]]]}], "output_layers": [["C1_PDC_out", 0, 0], ["C2_PDC_out", 0, 0], ["C3_PDC_out", 0, 0], ["C4_PDC_out", 0, 0], ["B3_PDC_out", 0, 0], ["B1_PDC_out", 0, 0], ["D1_PDC_out", 0, 0]]}, "backend": "theano"}