{"keras_version": "2.0.1", "config": {"output_layers": [["C1_out", 0, 0], ["C2_out", 0, 0], ["C3_out", 0, 0], ["C4_out", 0, 0], ["B1_out", 0, 0], ["B3_out", 0, 0], ["D1_out", 0, 0], ["GJOA_TOTAL", 0, 0]], "name": "model_1", "input_layers": [["C1", 0, 0], ["C2", 0, 0], ["C3", 0, 0], ["C4", 0, 0], ["B1", 0, 0], ["B3", 0, 0], ["D1", 0, 0], ["OnOff_C1", 0, 0], ["OnOff_C2", 0, 0], ["OnOff_C3", 0, 0], ["OnOff_C4", 0, 0], ["OnOff_B1", 0, 0], ["OnOff_B3", 0, 0], ["OnOff_D1", 0, 0]], "layers": [{"class_name": "InputLayer", "config": {"sparse": false, "batch_input_shape": [null, 4], "dtype": "float32", "name": "C1"}, "inbound_nodes": [], "name": "C1"}, {"class_name": "InputLayer", "config": {"sparse": false, "batch_input_shape": [null, 3], "dtype": "float32", "name": "C2"}, "inbound_nodes": [], "name": "C2"}, {"class_name": "InputLayer", "config": {"sparse": false, "batch_input_shape": [null, 4], "dtype": "float32", "name": "C3"}, "inbound_nodes": [], "name": "C3"}, {"class_name": "InputLayer", "config": {"sparse": false, "batch_input_shape": [null, 4], "dtype": "float32", "name": "C4"}, "inbound_nodes": [], "name": "C4"}, {"class_name": "InputLayer", "config": {"sparse": false, "batch_input_shape": [null, 4], "dtype": "float32", "name": "B1"}, "inbound_nodes": [], "name": "B1"}, {"class_name": "InputLayer", "config": {"sparse": false, "batch_input_shape": [null, 4], "dtype": "float32", "name": "B3"}, "inbound_nodes": [], "name": "B3"}, {"class_name": "InputLayer", "config": {"sparse": false, "batch_input_shape": [null, 3], "dtype": "float32", "name": "D1"}, "inbound_nodes": [], "name": "D1"}, {"class_name": "Dense", "config": {"bias_regularizer": null, "activity_regularizer": null, "bias_initializer": {"class_name": "Zeros", "config": {}}, "bias_constraint": null, "name": "dense_1", "use_bias": true, "kernel_regularizer": {"class_name": "L1L2", "config": {"l1": 0.0, "l2": 9.999999974752427e-07}}, "kernel_initializer": {"class_name": "VarianceScaling", "config": {"seed": 3014, "distribution": "normal", "mode": "fan_avg", "scale": 1.0}}, "trainable": true, "units": 50, "kernel_constraint": null, "activation": "relu"}, "inbound_nodes": [[["C1", 0, 0, {}]]], "name": "dense_1"}, {"class_name": "Dense", "config": {"bias_regularizer": null, "activity_regularizer": null, "bias_initializer": {"class_name": "Zeros", "config": {}}, "bias_constraint": null, "name": "dense_4", "use_bias": true, "kernel_regularizer": {"class_name": "L1L2", "config": {"l1": 0.0, "l2": 9.999999974752427e-07}}, "kernel_initializer": {"class_name": "VarianceScaling", "config": {"seed": 3014, "distribution": "normal", "mode": "fan_avg", "scale": 1.0}}, "trainable": true, "units": 50, "kernel_constraint": null, "activation": "relu"}, "inbound_nodes": [[["C2", 0, 0, {}]]], "name": "dense_4"}, {"class_name": "Dense", "config": {"bias_regularizer": null, "activity_regularizer": null, "bias_initializer": {"class_name": "Zeros", "config": {}}, "bias_constraint": null, "name": "dense_7", "use_bias": true, "kernel_regularizer": {"class_name": "L1L2", "config": {"l1": 0.0, "l2": 9.999999974752427e-07}}, "kernel_initializer": {"class_name": "VarianceScaling", "config": {"seed": 3014, "distribution": "normal", "mode": "fan_avg", "scale": 1.0}}, "trainable": true, "units": 50, "kernel_constraint": null, "activation": "relu"}, "inbound_nodes": [[["C3", 0, 0, {}]]], "name": "dense_7"}, {"class_name": "Dense", "config": {"bias_regularizer": null, "activity_regularizer": null, "bias_initializer": {"class_name": "Zeros", "config": {}}, "bias_constraint": null, "name": "dense_10", "use_bias": true, "kernel_regularizer": {"class_name": "L1L2", "config": {"l1": 0.0, "l2": 9.999999974752427e-07}}, "kernel_initializer": {"class_name": "VarianceScaling", "config": {"seed": 3014, "distribution": "normal", "mode": "fan_avg", "scale": 1.0}}, "trainable": true, "units": 50, "kernel_constraint": null, "activation": "relu"}, "inbound_nodes": [[["C4", 0, 0, {}]]], "name": "dense_10"}, {"class_name": "Dense", "config": {"bias_regularizer": null, "activity_regularizer": null, "bias_initializer": {"class_name": "Zeros", "config": {}}, "bias_constraint": null, "name": "dense_13", "use_bias": true, "kernel_regularizer": {"class_name": "L1L2", "config": {"l1": 0.0, "l2": 9.999999974752427e-07}}, "kernel_initializer": {"class_name": "VarianceScaling", "config": {"seed": 3014, "distribution": "normal", "mode": "fan_avg", "scale": 1.0}}, "trainable": true, "units": 50, "kernel_constraint": null, "activation": "relu"}, "inbound_nodes": [[["B1", 0, 0, {}]]], "name": "dense_13"}, {"class_name": "Dense", "config": {"bias_regularizer": null, "activity_regularizer": null, "bias_initializer": {"class_name": "Zeros", "config": {}}, "bias_constraint": null, "name": "dense_16", "use_bias": true, "kernel_regularizer": {"class_name": "L1L2", "config": {"l1": 0.0, "l2": 9.999999974752427e-07}}, "kernel_initializer": {"class_name": "VarianceScaling", "config": {"seed": 3014, "distribution": "normal", "mode": "fan_avg", "scale": 1.0}}, "trainable": true, "units": 50, "kernel_constraint": null, "activation": "relu"}, "inbound_nodes": [[["B3", 0, 0, {}]]], "name": "dense_16"}, {"class_name": "Dense", "config": {"bias_regularizer": null, "activity_regularizer": null, "bias_initializer": {"class_name": "Zeros", "config": {}}, "bias_constraint": null, "name": "dense_19", "use_bias": true, "kernel_regularizer": {"class_name": "L1L2", "config": {"l1": 0.0, "l2": 9.999999974752427e-07}}, "kernel_initializer": {"class_name": "VarianceScaling", "config": {"seed": 3014, "distribution": "normal", "mode": "fan_avg", "scale": 1.0}}, "trainable": true, "units": 50, "kernel_constraint": null, "activation": "relu"}, "inbound_nodes": [[["D1", 0, 0, {}]]], "name": "dense_19"}, {"class_name": "Dropout", "config": {"trainable": true, "rate": 0.1, "name": "dropout_1"}, "inbound_nodes": [[["dense_1", 0, 0, {}]]], "name": "dropout_1"}, {"class_name": "Dropout", "config": {"trainable": true, "rate": 0.1, "name": "dropout_2"}, "inbound_nodes": [[["dense_4", 0, 0, {}]]], "name": "dropout_2"}, {"class_name": "Dropout", "config": {"trainable": true, "rate": 0.1, "name": "dropout_3"}, "inbound_nodes": [[["dense_7", 0, 0, {}]]], "name": "dropout_3"}, {"class_name": "Dropout", "config": {"trainable": true, "rate": 0.1, "name": "dropout_4"}, "inbound_nodes": [[["dense_10", 0, 0, {}]]], "name": "dropout_4"}, {"class_name": "Dropout", "config": {"trainable": true, "rate": 0.1, "name": "dropout_5"}, "inbound_nodes": [[["dense_13", 0, 0, {}]]], "name": "dropout_5"}, {"class_name": "Dropout", "config": {"trainable": true, "rate": 0.1, "name": "dropout_6"}, "inbound_nodes": [[["dense_16", 0, 0, {}]]], "name": "dropout_6"}, {"class_name": "Dropout", "config": {"trainable": true, "rate": 0.1, "name": "dropout_7"}, "inbound_nodes": [[["dense_19", 0, 0, {}]]], "name": "dropout_7"}, {"class_name": "Dense", "config": {"bias_regularizer": null, "activity_regularizer": null, "bias_initializer": {"class_name": "Zeros", "config": {}}, "bias_constraint": null, "name": "dense_2", "use_bias": true, "kernel_regularizer": {"class_name": "L1L2", "config": {"l1": 0.0, "l2": 9.999999974752427e-07}}, "kernel_initializer": {"class_name": "VarianceScaling", "config": {"seed": 3014, "distribution": "normal", "mode": "fan_avg", "scale": 1.0}}, "trainable": true, "units": 50, "kernel_constraint": null, "activation": "relu"}, "inbound_nodes": [[["dropout_1", 0, 0, {}]]], "name": "dense_2"}, {"class_name": "Dense", "config": {"bias_regularizer": null, "activity_regularizer": null, "bias_initializer": {"class_name": "Zeros", "config": {}}, "bias_constraint": null, "name": "dense_5", "use_bias": true, "kernel_regularizer": {"class_name": "L1L2", "config": {"l1": 0.0, "l2": 9.999999974752427e-07}}, "kernel_initializer": {"class_name": "VarianceScaling", "config": {"seed": 3014, "distribution": "normal", "mode": "fan_avg", "scale": 1.0}}, "trainable": true, "units": 50, "kernel_constraint": null, "activation": "relu"}, "inbound_nodes": [[["dropout_2", 0, 0, {}]]], "name": "dense_5"}, {"class_name": "Dense", "config": {"bias_regularizer": null, "activity_regularizer": null, "bias_initializer": {"class_name": "Zeros", "config": {}}, "bias_constraint": null, "name": "dense_8", "use_bias": true, "kernel_regularizer": {"class_name": "L1L2", "config": {"l1": 0.0, "l2": 9.999999974752427e-07}}, "kernel_initializer": {"class_name": "VarianceScaling", "config": {"seed": 3014, "distribution": "normal", "mode": "fan_avg", "scale": 1.0}}, "trainable": true, "units": 50, "kernel_constraint": null, "activation": "relu"}, "inbound_nodes": [[["dropout_3", 0, 0, {}]]], "name": "dense_8"}, {"class_name": "Dense", "config": {"bias_regularizer": null, "activity_regularizer": null, "bias_initializer": {"class_name": "Zeros", "config": {}}, "bias_constraint": null, "name": "dense_11", "use_bias": true, "kernel_regularizer": {"class_name": "L1L2", "config": {"l1": 0.0, "l2": 9.999999974752427e-07}}, "kernel_initializer": {"class_name": "VarianceScaling", "config": {"seed": 3014, "distribution": "normal", "mode": "fan_avg", "scale": 1.0}}, "trainable": true, "units": 50, "kernel_constraint": null, "activation": "relu"}, "inbound_nodes": [[["dropout_4", 0, 0, {}]]], "name": "dense_11"}, {"class_name": "Dense", "config": {"bias_regularizer": null, "activity_regularizer": null, "bias_initializer": {"class_name": "Zeros", "config": {}}, "bias_constraint": null, "name": "dense_14", "use_bias": true, "kernel_regularizer": {"class_name": "L1L2", "config": {"l1": 0.0, "l2": 9.999999974752427e-07}}, "kernel_initializer": {"class_name": "VarianceScaling", "config": {"seed": 3014, "distribution": "normal", "mode": "fan_avg", "scale": 1.0}}, "trainable": true, "units": 50, "kernel_constraint": null, "activation": "relu"}, "inbound_nodes": [[["dropout_5", 0, 0, {}]]], "name": "dense_14"}, {"class_name": "Dense", "config": {"bias_regularizer": null, "activity_regularizer": null, "bias_initializer": {"class_name": "Zeros", "config": {}}, "bias_constraint": null, "name": "dense_17", "use_bias": true, "kernel_regularizer": {"class_name": "L1L2", "config": {"l1": 0.0, "l2": 9.999999974752427e-07}}, "kernel_initializer": {"class_name": "VarianceScaling", "config": {"seed": 3014, "distribution": "normal", "mode": "fan_avg", "scale": 1.0}}, "trainable": true, "units": 50, "kernel_constraint": null, "activation": "relu"}, "inbound_nodes": [[["dropout_6", 0, 0, {}]]], "name": "dense_17"}, {"class_name": "Dense", "config": {"bias_regularizer": null, "activity_regularizer": null, "bias_initializer": {"class_name": "Zeros", "config": {}}, "bias_constraint": null, "name": "dense_20", "use_bias": true, "kernel_regularizer": {"class_name": "L1L2", "config": {"l1": 0.0, "l2": 9.999999974752427e-07}}, "kernel_initializer": {"class_name": "VarianceScaling", "config": {"seed": 3014, "distribution": "normal", "mode": "fan_avg", "scale": 1.0}}, "trainable": true, "units": 50, "kernel_constraint": null, "activation": "relu"}, "inbound_nodes": [[["dropout_7", 0, 0, {}]]], "name": "dense_20"}, {"class_name": "InputLayer", "config": {"sparse": false, "batch_input_shape": [null, 1], "dtype": "float32", "name": "OnOff_C1"}, "inbound_nodes": [], "name": "OnOff_C1"}, {"class_name": "Dense", "config": {"bias_regularizer": null, "activity_regularizer": null, "bias_initializer": {"class_name": "Zeros", "config": {}}, "bias_constraint": null, "name": "dense_3", "use_bias": true, "kernel_regularizer": {"class_name": "L1L2", "config": {"l1": 0.0, "l2": 9.999999974752427e-07}}, "kernel_initializer": {"class_name": "VarianceScaling", "config": {"seed": 3014, "distribution": "normal", "mode": "fan_avg", "scale": 1.0}}, "trainable": true, "units": 1, "kernel_constraint": null, "activation": "relu"}, "inbound_nodes": [[["dense_2", 0, 0, {}]]], "name": "dense_3"}, {"class_name": "InputLayer", "config": {"sparse": false, "batch_input_shape": [null, 1], "dtype": "float32", "name": "OnOff_C2"}, "inbound_nodes": [], "name": "OnOff_C2"}, {"class_name": "Dense", "config": {"bias_regularizer": null, "activity_regularizer": null, "bias_initializer": {"class_name": "Zeros", "config": {}}, "bias_constraint": null, "name": "dense_6", "use_bias": true, "kernel_regularizer": {"class_name": "L1L2", "config": {"l1": 0.0, "l2": 9.999999974752427e-07}}, "kernel_initializer": {"class_name": "VarianceScaling", "config": {"seed": 3014, "distribution": "normal", "mode": "fan_avg", "scale": 1.0}}, "trainable": true, "units": 1, "kernel_constraint": null, "activation": "relu"}, "inbound_nodes": [[["dense_5", 0, 0, {}]]], "name": "dense_6"}, {"class_name": "InputLayer", "config": {"sparse": false, "batch_input_shape": [null, 1], "dtype": "float32", "name": "OnOff_C3"}, "inbound_nodes": [], "name": "OnOff_C3"}, {"class_name": "Dense", "config": {"bias_regularizer": null, "activity_regularizer": null, "bias_initializer": {"class_name": "Zeros", "config": {}}, "bias_constraint": null, "name": "dense_9", "use_bias": true, "kernel_regularizer": {"class_name": "L1L2", "config": {"l1": 0.0, "l2": 9.999999974752427e-07}}, "kernel_initializer": {"class_name": "VarianceScaling", "config": {"seed": 3014, "distribution": "normal", "mode": "fan_avg", "scale": 1.0}}, "trainable": true, "units": 1, "kernel_constraint": null, "activation": "relu"}, "inbound_nodes": [[["dense_8", 0, 0, {}]]], "name": "dense_9"}, {"class_name": "InputLayer", "config": {"sparse": false, "batch_input_shape": [null, 1], "dtype": "float32", "name": "OnOff_C4"}, "inbound_nodes": [], "name": "OnOff_C4"}, {"class_name": "Dense", "config": {"bias_regularizer": null, "activity_regularizer": null, "bias_initializer": {"class_name": "Zeros", "config": {}}, "bias_constraint": null, "name": "dense_12", "use_bias": true, "kernel_regularizer": {"class_name": "L1L2", "config": {"l1": 0.0, "l2": 9.999999974752427e-07}}, "kernel_initializer": {"class_name": "VarianceScaling", "config": {"seed": 3014, "distribution": "normal", "mode": "fan_avg", "scale": 1.0}}, "trainable": true, "units": 1, "kernel_constraint": null, "activation": "relu"}, "inbound_nodes": [[["dense_11", 0, 0, {}]]], "name": "dense_12"}, {"class_name": "InputLayer", "config": {"sparse": false, "batch_input_shape": [null, 1], "dtype": "float32", "name": "OnOff_B1"}, "inbound_nodes": [], "name": "OnOff_B1"}, {"class_name": "Dense", "config": {"bias_regularizer": null, "activity_regularizer": null, "bias_initializer": {"class_name": "Zeros", "config": {}}, "bias_constraint": null, "name": "dense_15", "use_bias": true, "kernel_regularizer": {"class_name": "L1L2", "config": {"l1": 0.0, "l2": 9.999999974752427e-07}}, "kernel_initializer": {"class_name": "VarianceScaling", "config": {"seed": 3014, "distribution": "normal", "mode": "fan_avg", "scale": 1.0}}, "trainable": true, "units": 1, "kernel_constraint": null, "activation": "relu"}, "inbound_nodes": [[["dense_14", 0, 0, {}]]], "name": "dense_15"}, {"class_name": "InputLayer", "config": {"sparse": false, "batch_input_shape": [null, 1], "dtype": "float32", "name": "OnOff_B3"}, "inbound_nodes": [], "name": "OnOff_B3"}, {"class_name": "Dense", "config": {"bias_regularizer": null, "activity_regularizer": null, "bias_initializer": {"class_name": "Zeros", "config": {}}, "bias_constraint": null, "name": "dense_18", "use_bias": true, "kernel_regularizer": {"class_name": "L1L2", "config": {"l1": 0.0, "l2": 9.999999974752427e-07}}, "kernel_initializer": {"class_name": "VarianceScaling", "config": {"seed": 3014, "distribution": "normal", "mode": "fan_avg", "scale": 1.0}}, "trainable": true, "units": 1, "kernel_constraint": null, "activation": "relu"}, "inbound_nodes": [[["dense_17", 0, 0, {}]]], "name": "dense_18"}, {"class_name": "InputLayer", "config": {"sparse": false, "batch_input_shape": [null, 1], "dtype": "float32", "name": "OnOff_D1"}, "inbound_nodes": [], "name": "OnOff_D1"}, {"class_name": "Dense", "config": {"bias_regularizer": null, "activity_regularizer": null, "bias_initializer": {"class_name": "Zeros", "config": {}}, "bias_constraint": null, "name": "dense_21", "use_bias": true, "kernel_regularizer": {"class_name": "L1L2", "config": {"l1": 0.0, "l2": 9.999999974752427e-07}}, "kernel_initializer": {"class_name": "VarianceScaling", "config": {"seed": 3014, "distribution": "normal", "mode": "fan_avg", "scale": 1.0}}, "trainable": true, "units": 1, "kernel_constraint": null, "activation": "relu"}, "inbound_nodes": [[["dense_20", 0, 0, {}]]], "name": "dense_21"}, {"class_name": "Multiply", "config": {"trainable": true, "name": "C1_out"}, "inbound_nodes": [[["OnOff_C1", 0, 0, {}], ["dense_3", 0, 0, {}]]], "name": "C1_out"}, {"class_name": "Multiply", "config": {"trainable": true, "name": "C2_out"}, "inbound_nodes": [[["OnOff_C2", 0, 0, {}], ["dense_6", 0, 0, {}]]], "name": "C2_out"}, {"class_name": "Multiply", "config": {"trainable": true, "name": "C3_out"}, "inbound_nodes": [[["OnOff_C3", 0, 0, {}], ["dense_9", 0, 0, {}]]], "name": "C3_out"}, {"class_name": "Multiply", "config": {"trainable": true, "name": "C4_out"}, "inbound_nodes": [[["OnOff_C4", 0, 0, {}], ["dense_12", 0, 0, {}]]], "name": "C4_out"}, {"class_name": "Multiply", "config": {"trainable": true, "name": "B1_out"}, "inbound_nodes": [[["OnOff_B1", 0, 0, {}], ["dense_15", 0, 0, {}]]], "name": "B1_out"}, {"class_name": "Multiply", "config": {"trainable": true, "name": "B3_out"}, "inbound_nodes": [[["OnOff_B3", 0, 0, {}], ["dense_18", 0, 0, {}]]], "name": "B3_out"}, {"class_name": "Multiply", "config": {"trainable": true, "name": "D1_out"}, "inbound_nodes": [[["OnOff_D1", 0, 0, {}], ["dense_21", 0, 0, {}]]], "name": "D1_out"}, {"class_name": "Add", "config": {"trainable": true, "name": "GJOA_TOTAL"}, "inbound_nodes": [[["C1_out", 0, 0, {}], ["C2_out", 0, 0, {}], ["C3_out", 0, 0, {}], ["C4_out", 0, 0, {}], ["B1_out", 0, 0, {}], ["B3_out", 0, 0, {}], ["D1_out", 0, 0, {}]]], "name": "GJOA_TOTAL"}]}, "class_name": "Model", "backend": "theano"}