{"config": {"name": "model_1", "output_layers": [["C1_PBH_out", 0, 0], ["C3_PBH_out", 0, 0], ["C4_PBH_out", 0, 0], ["B1_PBH_out", 0, 0], ["B3_PBH_out", 0, 0]], "layers": [{"class_name": "InputLayer", "inbound_nodes": [], "name": "CHK_INPUT_NOW", "config": {"sparse": false, "batch_input_shape": [null, 8], "name": "CHK_INPUT_NOW", "dtype": "float32"}}, {"class_name": "Dense", "inbound_nodes": [[["CHK_INPUT_NOW", 0, 0, {}]]], "name": "C1_PBH_0", "config": {"use_bias": true, "name": "C1_PBH_0", "units": 90, "activation": "relu", "kernel_constraint": null, "kernel_regularizer": {"config": {"l1": 0.0, "l2": 0.00019999999494757503}, "class_name": "L1L2"}, "bias_regularizer": null, "bias_constraint": null, "activity_regularizer": null, "trainable": true, "kernel_initializer": {"config": {"distribution": "normal", "seed": 3014, "mode": "fan_avg", "scale": 1.0}, "class_name": "VarianceScaling"}, "bias_initializer": {"config": {}, "class_name": "Zeros"}}}, {"class_name": "Dense", "inbound_nodes": [[["CHK_INPUT_NOW", 0, 0, {}]]], "name": "C3_PBH_0", "config": {"use_bias": true, "name": "C3_PBH_0", "units": 90, "activation": "relu", "kernel_constraint": null, "kernel_regularizer": {"config": {"l1": 0.0, "l2": 0.00019999999494757503}, "class_name": "L1L2"}, "bias_regularizer": null, "bias_constraint": null, "activity_regularizer": null, "trainable": true, "kernel_initializer": {"config": {"distribution": "normal", "seed": 3014, "mode": "fan_avg", "scale": 1.0}, "class_name": "VarianceScaling"}, "bias_initializer": {"config": {}, "class_name": "Zeros"}}}, {"class_name": "Dense", "inbound_nodes": [[["CHK_INPUT_NOW", 0, 0, {}]]], "name": "C4_PBH_0", "config": {"use_bias": true, "name": "C4_PBH_0", "units": 90, "activation": "relu", "kernel_constraint": null, "kernel_regularizer": {"config": {"l1": 0.0, "l2": 0.00019999999494757503}, "class_name": "L1L2"}, "bias_regularizer": null, "bias_constraint": null, "activity_regularizer": null, "trainable": true, "kernel_initializer": {"config": {"distribution": "normal", "seed": 3014, "mode": "fan_avg", "scale": 1.0}, "class_name": "VarianceScaling"}, "bias_initializer": {"config": {}, "class_name": "Zeros"}}}, {"class_name": "Dense", "inbound_nodes": [[["CHK_INPUT_NOW", 0, 0, {}]]], "name": "B1_PBH_0", "config": {"use_bias": true, "name": "B1_PBH_0", "units": 90, "activation": "relu", "kernel_constraint": null, "kernel_regularizer": {"config": {"l1": 0.0, "l2": 0.00019999999494757503}, "class_name": "L1L2"}, "bias_regularizer": null, "bias_constraint": null, "activity_regularizer": null, "trainable": true, "kernel_initializer": {"config": {"distribution": "normal", "seed": 3014, "mode": "fan_avg", "scale": 1.0}, "class_name": "VarianceScaling"}, "bias_initializer": {"config": {}, "class_name": "Zeros"}}}, {"class_name": "Dense", "inbound_nodes": [[["CHK_INPUT_NOW", 0, 0, {}]]], "name": "B3_PBH_0", "config": {"use_bias": true, "name": "B3_PBH_0", "units": 90, "activation": "relu", "kernel_constraint": null, "kernel_regularizer": {"config": {"l1": 0.0, "l2": 0.00019999999494757503}, "class_name": "L1L2"}, "bias_regularizer": null, "bias_constraint": null, "activity_regularizer": null, "trainable": true, "kernel_initializer": {"config": {"distribution": "normal", "seed": 3014, "mode": "fan_avg", "scale": 1.0}, "class_name": "VarianceScaling"}, "bias_initializer": {"config": {}, "class_name": "Zeros"}}}, {"class_name": "Dense", "inbound_nodes": [[["C1_PBH_0", 0, 0, {}]]], "name": "C1_PBH_1", "config": {"use_bias": true, "name": "C1_PBH_1", "units": 90, "activation": "relu", "kernel_constraint": null, "kernel_regularizer": {"config": {"l1": 0.0, "l2": 0.00019999999494757503}, "class_name": "L1L2"}, "bias_regularizer": null, "bias_constraint": null, "activity_regularizer": null, "trainable": true, "kernel_initializer": {"config": {"distribution": "normal", "seed": 3014, "mode": "fan_avg", "scale": 1.0}, "class_name": "VarianceScaling"}, "bias_initializer": {"config": {}, "class_name": "Zeros"}}}, {"class_name": "Dense", "inbound_nodes": [[["C3_PBH_0", 0, 0, {}]]], "name": "C3_PBH_1", "config": {"use_bias": true, "name": "C3_PBH_1", "units": 90, "activation": "relu", "kernel_constraint": null, "kernel_regularizer": {"config": {"l1": 0.0, "l2": 0.00019999999494757503}, "class_name": "L1L2"}, "bias_regularizer": null, "bias_constraint": null, "activity_regularizer": null, "trainable": true, "kernel_initializer": {"config": {"distribution": "normal", "seed": 3014, "mode": "fan_avg", "scale": 1.0}, "class_name": "VarianceScaling"}, "bias_initializer": {"config": {}, "class_name": "Zeros"}}}, {"class_name": "Dense", "inbound_nodes": [[["C4_PBH_0", 0, 0, {}]]], "name": "C4_PBH_1", "config": {"use_bias": true, "name": "C4_PBH_1", "units": 90, "activation": "relu", "kernel_constraint": null, "kernel_regularizer": {"config": {"l1": 0.0, "l2": 0.00019999999494757503}, "class_name": "L1L2"}, "bias_regularizer": null, "bias_constraint": null, "activity_regularizer": null, "trainable": true, "kernel_initializer": {"config": {"distribution": "normal", "seed": 3014, "mode": "fan_avg", "scale": 1.0}, "class_name": "VarianceScaling"}, "bias_initializer": {"config": {}, "class_name": "Zeros"}}}, {"class_name": "Dense", "inbound_nodes": [[["B1_PBH_0", 0, 0, {}]]], "name": "B1_PBH_1", "config": {"use_bias": true, "name": "B1_PBH_1", "units": 90, "activation": "relu", "kernel_constraint": null, "kernel_regularizer": {"config": {"l1": 0.0, "l2": 0.00019999999494757503}, "class_name": "L1L2"}, "bias_regularizer": null, "bias_constraint": null, "activity_regularizer": null, "trainable": true, "kernel_initializer": {"config": {"distribution": "normal", "seed": 3014, "mode": "fan_avg", "scale": 1.0}, "class_name": "VarianceScaling"}, "bias_initializer": {"config": {}, "class_name": "Zeros"}}}, {"class_name": "Dense", "inbound_nodes": [[["B3_PBH_0", 0, 0, {}]]], "name": "B3_PBH_1", "config": {"use_bias": true, "name": "B3_PBH_1", "units": 90, "activation": "relu", "kernel_constraint": null, "kernel_regularizer": {"config": {"l1": 0.0, "l2": 0.00019999999494757503}, "class_name": "L1L2"}, "bias_regularizer": null, "bias_constraint": null, "activity_regularizer": null, "trainable": true, "kernel_initializer": {"config": {"distribution": "normal", "seed": 3014, "mode": "fan_avg", "scale": 1.0}, "class_name": "VarianceScaling"}, "bias_initializer": {"config": {}, "class_name": "Zeros"}}}, {"class_name": "Dense", "inbound_nodes": [[["C1_PBH_1", 0, 0, {}]]], "name": "C1_PBH_out", "config": {"use_bias": true, "name": "C1_PBH_out", "units": 1, "activation": "linear", "kernel_constraint": null, "kernel_regularizer": {"config": {"l1": 0.0, "l2": 0.00019999999494757503}, "class_name": "L1L2"}, "bias_regularizer": null, "bias_constraint": null, "activity_regularizer": null, "trainable": true, "kernel_initializer": {"config": {"distribution": "normal", "seed": 3014, "mode": "fan_avg", "scale": 1.0}, "class_name": "VarianceScaling"}, "bias_initializer": {"config": {}, "class_name": "Zeros"}}}, {"class_name": "Dense", "inbound_nodes": [[["C3_PBH_1", 0, 0, {}]]], "name": "C3_PBH_out", "config": {"use_bias": true, "name": "C3_PBH_out", "units": 1, "activation": "linear", "kernel_constraint": null, "kernel_regularizer": {"config": {"l1": 0.0, "l2": 0.00019999999494757503}, "class_name": "L1L2"}, "bias_regularizer": null, "bias_constraint": null, "activity_regularizer": null, "trainable": true, "kernel_initializer": {"config": {"distribution": "normal", "seed": 3014, "mode": "fan_avg", "scale": 1.0}, "class_name": "VarianceScaling"}, "bias_initializer": {"config": {}, "class_name": "Zeros"}}}, {"class_name": "Dense", "inbound_nodes": [[["C4_PBH_1", 0, 0, {}]]], "name": "C4_PBH_out", "config": {"use_bias": true, "name": "C4_PBH_out", "units": 1, "activation": "linear", "kernel_constraint": null, "kernel_regularizer": {"config": {"l1": 0.0, "l2": 0.00019999999494757503}, "class_name": "L1L2"}, "bias_regularizer": null, "bias_constraint": null, "activity_regularizer": null, "trainable": true, "kernel_initializer": {"config": {"distribution": "normal", "seed": 3014, "mode": "fan_avg", "scale": 1.0}, "class_name": "VarianceScaling"}, "bias_initializer": {"config": {}, "class_name": "Zeros"}}}, {"class_name": "Dense", "inbound_nodes": [[["B1_PBH_1", 0, 0, {}]]], "name": "B1_PBH_out", "config": {"use_bias": true, "name": "B1_PBH_out", "units": 1, "activation": "linear", "kernel_constraint": null, "kernel_regularizer": {"config": {"l1": 0.0, "l2": 0.00019999999494757503}, "class_name": "L1L2"}, "bias_regularizer": null, "bias_constraint": null, "activity_regularizer": null, "trainable": true, "kernel_initializer": {"config": {"distribution": "normal", "seed": 3014, "mode": "fan_avg", "scale": 1.0}, "class_name": "VarianceScaling"}, "bias_initializer": {"config": {}, "class_name": "Zeros"}}}, {"class_name": "Dense", "inbound_nodes": [[["B3_PBH_1", 0, 0, {}]]], "name": "B3_PBH_out", "config": {"use_bias": true, "name": "B3_PBH_out", "units": 1, "activation": "linear", "kernel_constraint": null, "kernel_regularizer": {"config": {"l1": 0.0, "l2": 0.00019999999494757503}, "class_name": "L1L2"}, "bias_regularizer": null, "bias_constraint": null, "activity_regularizer": null, "trainable": true, "kernel_initializer": {"config": {"distribution": "normal", "seed": 3014, "mode": "fan_avg", "scale": 1.0}, "class_name": "VarianceScaling"}, "bias_initializer": {"config": {}, "class_name": "Zeros"}}}], "input_layers": [["CHK_INPUT_NOW", 0, 0]]}, "keras_version": "2.0.1", "class_name": "Model", "backend": "theano"}