{"keras_version": "2.0.1", "class_name": "Model", "backend": "theano", "config": {"layers": [{"inbound_nodes": [], "class_name": "InputLayer", "name": "CHK_INPUT_NOW", "config": {"batch_input_shape": [null, 8], "sparse": false, "dtype": "float32", "name": "CHK_INPUT_NOW"}}, {"inbound_nodes": [[["CHK_INPUT_NOW", 0, 0, {}]]], "class_name": "Dense", "name": "C1_PDC_0", "config": {"units": 30, "bias_initializer": {"class_name": "Zeros", "config": {}}, "use_bias": true, "activity_regularizer": null, "kernel_constraint": null, "name": "C1_PDC_0", "kernel_regularizer": {"class_name": "L1L2", "config": {"l1": 0.0, "l2": 0.0005000000237487257}}, "bias_constraint": null, "activation": "relu", "bias_regularizer": null, "kernel_initializer": {"class_name": "VarianceScaling", "config": {"distribution": "normal", "seed": 3014, "mode": "fan_avg", "scale": 1.0}}, "trainable": true}}, {"inbound_nodes": [[["CHK_INPUT_NOW", 0, 0, {}]]], "class_name": "Dense", "name": "C2_PDC_0", "config": {"units": 30, "bias_initializer": {"class_name": "Zeros", "config": {}}, "use_bias": true, "activity_regularizer": null, "kernel_constraint": null, "name": "C2_PDC_0", "kernel_regularizer": {"class_name": "L1L2", "config": {"l1": 0.0, "l2": 0.0005000000237487257}}, "bias_constraint": null, "activation": "relu", "bias_regularizer": null, "kernel_initializer": {"class_name": "VarianceScaling", "config": {"distribution": "normal", "seed": 3014, "mode": "fan_avg", "scale": 1.0}}, "trainable": true}}, {"inbound_nodes": [[["CHK_INPUT_NOW", 0, 0, {}]]], "class_name": "Dense", "name": "C3_PDC_0", "config": {"units": 30, "bias_initializer": {"class_name": "Zeros", "config": {}}, "use_bias": true, "activity_regularizer": null, "kernel_constraint": null, "name": "C3_PDC_0", "kernel_regularizer": {"class_name": "L1L2", "config": {"l1": 0.0, "l2": 0.0005000000237487257}}, "bias_constraint": null, "activation": "relu", "bias_regularizer": null, "kernel_initializer": {"class_name": "VarianceScaling", "config": {"distribution": "normal", "seed": 3014, "mode": "fan_avg", "scale": 1.0}}, "trainable": true}}, {"inbound_nodes": [[["CHK_INPUT_NOW", 0, 0, {}]]], "class_name": "Dense", "name": "C4_PDC_0", "config": {"units": 30, "bias_initializer": {"class_name": "Zeros", "config": {}}, "use_bias": true, "activity_regularizer": null, "kernel_constraint": null, "name": "C4_PDC_0", "kernel_regularizer": {"class_name": "L1L2", "config": {"l1": 0.0, "l2": 0.0005000000237487257}}, "bias_constraint": null, "activation": "relu", "bias_regularizer": null, "kernel_initializer": {"class_name": "VarianceScaling", "config": {"distribution": "normal", "seed": 3014, "mode": "fan_avg", "scale": 1.0}}, "trainable": true}}, {"inbound_nodes": [[["CHK_INPUT_NOW", 0, 0, {}]]], "class_name": "Dense", "name": "B1_PDC_0", "config": {"units": 30, "bias_initializer": {"class_name": "Zeros", "config": {}}, "use_bias": true, "activity_regularizer": null, "kernel_constraint": null, "name": "B1_PDC_0", "kernel_regularizer": {"class_name": "L1L2", "config": {"l1": 0.0, "l2": 0.0005000000237487257}}, "bias_constraint": null, "activation": "relu", "bias_regularizer": null, "kernel_initializer": {"class_name": "VarianceScaling", "config": {"distribution": "normal", "seed": 3014, "mode": "fan_avg", "scale": 1.0}}, "trainable": true}}, {"inbound_nodes": [[["CHK_INPUT_NOW", 0, 0, {}]]], "class_name": "Dense", "name": "B3_PDC_0", "config": {"units": 30, "bias_initializer": {"class_name": "Zeros", "config": {}}, "use_bias": true, "activity_regularizer": null, "kernel_constraint": null, "name": "B3_PDC_0", "kernel_regularizer": {"class_name": "L1L2", "config": {"l1": 0.0, "l2": 0.0005000000237487257}}, "bias_constraint": null, "activation": "relu", "bias_regularizer": null, "kernel_initializer": {"class_name": "VarianceScaling", "config": {"distribution": "normal", "seed": 3014, "mode": "fan_avg", "scale": 1.0}}, "trainable": true}}, {"inbound_nodes": [[["CHK_INPUT_NOW", 0, 0, {}]]], "class_name": "Dense", "name": "D1_PDC_0", "config": {"units": 30, "bias_initializer": {"class_name": "Zeros", "config": {}}, "use_bias": true, "activity_regularizer": null, "kernel_constraint": null, "name": "D1_PDC_0", "kernel_regularizer": {"class_name": "L1L2", "config": {"l1": 0.0, "l2": 0.0005000000237487257}}, "bias_constraint": null, "activation": "relu", "bias_regularizer": null, "kernel_initializer": {"class_name": "VarianceScaling", "config": {"distribution": "normal", "seed": 3014, "mode": "fan_avg", "scale": 1.0}}, "trainable": true}}, {"inbound_nodes": [[["C1_PDC_0", 0, 0, {}]]], "class_name": "Dense", "name": "C1_PDC_1", "config": {"units": 30, "bias_initializer": {"class_name": "Zeros", "config": {}}, "use_bias": true, "activity_regularizer": null, "kernel_constraint": null, "name": "C1_PDC_1", "kernel_regularizer": {"class_name": "L1L2", "config": {"l1": 0.0, "l2": 0.0005000000237487257}}, "bias_constraint": null, "activation": "relu", "bias_regularizer": null, "kernel_initializer": {"class_name": "VarianceScaling", "config": {"distribution": "normal", "seed": 3014, "mode": "fan_avg", "scale": 1.0}}, "trainable": true}}, {"inbound_nodes": [[["C2_PDC_0", 0, 0, {}]]], "class_name": "Dense", "name": "C2_PDC_1", "config": {"units": 30, "bias_initializer": {"class_name": "Zeros", "config": {}}, "use_bias": true, "activity_regularizer": null, "kernel_constraint": null, "name": "C2_PDC_1", "kernel_regularizer": {"class_name": "L1L2", "config": {"l1": 0.0, "l2": 0.0005000000237487257}}, "bias_constraint": null, "activation": "relu", "bias_regularizer": null, "kernel_initializer": {"class_name": "VarianceScaling", "config": {"distribution": "normal", "seed": 3014, "mode": "fan_avg", "scale": 1.0}}, "trainable": true}}, {"inbound_nodes": [[["C3_PDC_0", 0, 0, {}]]], "class_name": "Dense", "name": "C3_PDC_1", "config": {"units": 30, "bias_initializer": {"class_name": "Zeros", "config": {}}, "use_bias": true, "activity_regularizer": null, "kernel_constraint": null, "name": "C3_PDC_1", "kernel_regularizer": {"class_name": "L1L2", "config": {"l1": 0.0, "l2": 0.0005000000237487257}}, "bias_constraint": null, "activation": "relu", "bias_regularizer": null, "kernel_initializer": {"class_name": "VarianceScaling", "config": {"distribution": "normal", "seed": 3014, "mode": "fan_avg", "scale": 1.0}}, "trainable": true}}, {"inbound_nodes": [[["C4_PDC_0", 0, 0, {}]]], "class_name": "Dense", "name": "C4_PDC_1", "config": {"units": 30, "bias_initializer": {"class_name": "Zeros", "config": {}}, "use_bias": true, "activity_regularizer": null, "kernel_constraint": null, "name": "C4_PDC_1", "kernel_regularizer": {"class_name": "L1L2", "config": {"l1": 0.0, "l2": 0.0005000000237487257}}, "bias_constraint": null, "activation": "relu", "bias_regularizer": null, "kernel_initializer": {"class_name": "VarianceScaling", "config": {"distribution": "normal", "seed": 3014, "mode": "fan_avg", "scale": 1.0}}, "trainable": true}}, {"inbound_nodes": [[["B1_PDC_0", 0, 0, {}]]], "class_name": "Dense", "name": "B1_PDC_1", "config": {"units": 30, "bias_initializer": {"class_name": "Zeros", "config": {}}, "use_bias": true, "activity_regularizer": null, "kernel_constraint": null, "name": "B1_PDC_1", "kernel_regularizer": {"class_name": "L1L2", "config": {"l1": 0.0, "l2": 0.0005000000237487257}}, "bias_constraint": null, "activation": "relu", "bias_regularizer": null, "kernel_initializer": {"class_name": "VarianceScaling", "config": {"distribution": "normal", "seed": 3014, "mode": "fan_avg", "scale": 1.0}}, "trainable": true}}, {"inbound_nodes": [[["B3_PDC_0", 0, 0, {}]]], "class_name": "Dense", "name": "B3_PDC_1", "config": {"units": 30, "bias_initializer": {"class_name": "Zeros", "config": {}}, "use_bias": true, "activity_regularizer": null, "kernel_constraint": null, "name": "B3_PDC_1", "kernel_regularizer": {"class_name": "L1L2", "config": {"l1": 0.0, "l2": 0.0005000000237487257}}, "bias_constraint": null, "activation": "relu", "bias_regularizer": null, "kernel_initializer": {"class_name": "VarianceScaling", "config": {"distribution": "normal", "seed": 3014, "mode": "fan_avg", "scale": 1.0}}, "trainable": true}}, {"inbound_nodes": [[["D1_PDC_0", 0, 0, {}]]], "class_name": "Dense", "name": "D1_PDC_1", "config": {"units": 30, "bias_initializer": {"class_name": "Zeros", "config": {}}, "use_bias": true, "activity_regularizer": null, "kernel_constraint": null, "name": "D1_PDC_1", "kernel_regularizer": {"class_name": "L1L2", "config": {"l1": 0.0, "l2": 0.0005000000237487257}}, "bias_constraint": null, "activation": "relu", "bias_regularizer": null, "kernel_initializer": {"class_name": "VarianceScaling", "config": {"distribution": "normal", "seed": 3014, "mode": "fan_avg", "scale": 1.0}}, "trainable": true}}, {"inbound_nodes": [[["C1_PDC_1", 0, 0, {}]]], "class_name": "Dense", "name": "C1_PDC_out", "config": {"units": 1, "bias_initializer": {"class_name": "Zeros", "config": {}}, "use_bias": true, "activity_regularizer": null, "kernel_constraint": null, "name": "C1_PDC_out", "kernel_regularizer": {"class_name": "L1L2", "config": {"l1": 0.0, "l2": 0.0005000000237487257}}, "bias_constraint": null, "activation": "linear", "bias_regularizer": null, "kernel_initializer": {"class_name": "VarianceScaling", "config": {"distribution": "normal", "seed": 3014, "mode": "fan_avg", "scale": 1.0}}, "trainable": true}}, {"inbound_nodes": [[["C2_PDC_1", 0, 0, {}]]], "class_name": "Dense", "name": "C2_PDC_out", "config": {"units": 1, "bias_initializer": {"class_name": "Zeros", "config": {}}, "use_bias": true, "activity_regularizer": null, "kernel_constraint": null, "name": "C2_PDC_out", "kernel_regularizer": {"class_name": "L1L2", "config": {"l1": 0.0, "l2": 0.0005000000237487257}}, "bias_constraint": null, "activation": "linear", "bias_regularizer": null, "kernel_initializer": {"class_name": "VarianceScaling", "config": {"distribution": "normal", "seed": 3014, "mode": "fan_avg", "scale": 1.0}}, "trainable": true}}, {"inbound_nodes": [[["C3_PDC_1", 0, 0, {}]]], "class_name": "Dense", "name": "C3_PDC_out", "config": {"units": 1, "bias_initializer": {"class_name": "Zeros", "config": {}}, "use_bias": true, "activity_regularizer": null, "kernel_constraint": null, "name": "C3_PDC_out", "kernel_regularizer": {"class_name": "L1L2", "config": {"l1": 0.0, "l2": 0.0005000000237487257}}, "bias_constraint": null, "activation": "linear", "bias_regularizer": null, "kernel_initializer": {"class_name": "VarianceScaling", "config": {"distribution": "normal", "seed": 3014, "mode": "fan_avg", "scale": 1.0}}, "trainable": true}}, {"inbound_nodes": [[["C4_PDC_1", 0, 0, {}]]], "class_name": "Dense", "name": "C4_PDC_out", "config": {"units": 1, "bias_initializer": {"class_name": "Zeros", "config": {}}, "use_bias": true, "activity_regularizer": null, "kernel_constraint": null, "name": "C4_PDC_out", "kernel_regularizer": {"class_name": "L1L2", "config": {"l1": 0.0, "l2": 0.0005000000237487257}}, "bias_constraint": null, "activation": "linear", "bias_regularizer": null, "kernel_initializer": {"class_name": "VarianceScaling", "config": {"distribution": "normal", "seed": 3014, "mode": "fan_avg", "scale": 1.0}}, "trainable": true}}, {"inbound_nodes": [[["B1_PDC_1", 0, 0, {}]]], "class_name": "Dense", "name": "B1_PDC_out", "config": {"units": 1, "bias_initializer": {"class_name": "Zeros", "config": {}}, "use_bias": true, "activity_regularizer": null, "kernel_constraint": null, "name": "B1_PDC_out", "kernel_regularizer": {"class_name": "L1L2", "config": {"l1": 0.0, "l2": 0.0005000000237487257}}, "bias_constraint": null, "activation": "linear", "bias_regularizer": null, "kernel_initializer": {"class_name": "VarianceScaling", "config": {"distribution": "normal", "seed": 3014, "mode": "fan_avg", "scale": 1.0}}, "trainable": true}}, {"inbound_nodes": [[["B3_PDC_1", 0, 0, {}]]], "class_name": "Dense", "name": "B3_PDC_out", "config": {"units": 1, "bias_initializer": {"class_name": "Zeros", "config": {}}, "use_bias": true, "activity_regularizer": null, "kernel_constraint": null, "name": "B3_PDC_out", "kernel_regularizer": {"class_name": "L1L2", "config": {"l1": 0.0, "l2": 0.0005000000237487257}}, "bias_constraint": null, "activation": "linear", "bias_regularizer": null, "kernel_initializer": {"class_name": "VarianceScaling", "config": {"distribution": "normal", "seed": 3014, "mode": "fan_avg", "scale": 1.0}}, "trainable": true}}, {"inbound_nodes": [[["D1_PDC_1", 0, 0, {}]]], "class_name": "Dense", "name": "D1_PDC_out", "config": {"units": 1, "bias_initializer": {"class_name": "Zeros", "config": {}}, "use_bias": true, "activity_regularizer": null, "kernel_constraint": null, "name": "D1_PDC_out", "kernel_regularizer": {"class_name": "L1L2", "config": {"l1": 0.0, "l2": 0.0005000000237487257}}, "bias_constraint": null, "activation": "linear", "bias_regularizer": null, "kernel_initializer": {"class_name": "VarianceScaling", "config": {"distribution": "normal", "seed": 3014, "mode": "fan_avg", "scale": 1.0}}, "trainable": true}}], "input_layers": [["CHK_INPUT_NOW", 0, 0]], "name": "model_1", "output_layers": [["C1_PDC_out", 0, 0], ["C2_PDC_out", 0, 0], ["C3_PDC_out", 0, 0], ["C4_PDC_out", 0, 0], ["B1_PDC_out", 0, 0], ["B3_PDC_out", 0, 0], ["D1_PDC_out", 0, 0]]}}