{"config": {"name": "model_1", "layers": [{"name": "C1", "class_name": "InputLayer", "inbound_nodes": [], "config": {"batch_input_shape": [null, 4], "dtype": "float32", "sparse": false, "name": "C1"}}, {"name": "C2", "class_name": "InputLayer", "inbound_nodes": [], "config": {"batch_input_shape": [null, 3], "dtype": "float32", "sparse": false, "name": "C2"}}, {"name": "C3", "class_name": "InputLayer", "inbound_nodes": [], "config": {"batch_input_shape": [null, 4], "dtype": "float32", "sparse": false, "name": "C3"}}, {"name": "C4", "class_name": "InputLayer", "inbound_nodes": [], "config": {"batch_input_shape": [null, 4], "dtype": "float32", "sparse": false, "name": "C4"}}, {"name": "B1", "class_name": "InputLayer", "inbound_nodes": [], "config": {"batch_input_shape": [null, 4], "dtype": "float32", "sparse": false, "name": "B1"}}, {"name": "B3", "class_name": "InputLayer", "inbound_nodes": [], "config": {"batch_input_shape": [null, 4], "dtype": "float32", "sparse": false, "name": "B3"}}, {"name": "D1", "class_name": "InputLayer", "inbound_nodes": [], "config": {"batch_input_shape": [null, 3], "dtype": "float32", "sparse": false, "name": "D1"}}, {"name": "C1_0", "class_name": "Dense", "inbound_nodes": [[["C1", 0, 0, {}]]], "config": {"bias_constraint": null, "bias_initializer": {"config": {}, "class_name": "Zeros"}, "kernel_initializer": {"config": {"seed": 3014, "scale": 1.0, "distribution": "normal", "mode": "fan_avg"}, "class_name": "VarianceScaling"}, "name": "C1_0", "activity_regularizer": null, "kernel_regularizer": {"config": {"l2": 0.00019999999494757503, "l1": 0.0}, "class_name": "L1L2"}, "activation": "relu", "bias_regularizer": null, "units": 100, "use_bias": true, "kernel_constraint": null, "trainable": true}}, {"name": "C2_0", "class_name": "Dense", "inbound_nodes": [[["C2", 0, 0, {}]]], "config": {"bias_constraint": null, "bias_initializer": {"config": {}, "class_name": "Zeros"}, "kernel_initializer": {"config": {"seed": 3014, "scale": 1.0, "distribution": "normal", "mode": "fan_avg"}, "class_name": "VarianceScaling"}, "name": "C2_0", "activity_regularizer": null, "kernel_regularizer": {"config": {"l2": 0.00019999999494757503, "l1": 0.0}, "class_name": "L1L2"}, "activation": "relu", "bias_regularizer": null, "units": 100, "use_bias": true, "kernel_constraint": null, "trainable": true}}, {"name": "C3_0", "class_name": "Dense", "inbound_nodes": [[["C3", 0, 0, {}]]], "config": {"bias_constraint": null, "bias_initializer": {"config": {}, "class_name": "Zeros"}, "kernel_initializer": {"config": {"seed": 3014, "scale": 1.0, "distribution": "normal", "mode": "fan_avg"}, "class_name": "VarianceScaling"}, "name": "C3_0", "activity_regularizer": null, "kernel_regularizer": {"config": {"l2": 0.00019999999494757503, "l1": 0.0}, "class_name": "L1L2"}, "activation": "relu", "bias_regularizer": null, "units": 100, "use_bias": true, "kernel_constraint": null, "trainable": true}}, {"name": "C4_0", "class_name": "Dense", "inbound_nodes": [[["C4", 0, 0, {}]]], "config": {"bias_constraint": null, "bias_initializer": {"config": {}, "class_name": "Zeros"}, "kernel_initializer": {"config": {"seed": 3014, "scale": 1.0, "distribution": "normal", "mode": "fan_avg"}, "class_name": "VarianceScaling"}, "name": "C4_0", "activity_regularizer": null, "kernel_regularizer": {"config": {"l2": 0.00019999999494757503, "l1": 0.0}, "class_name": "L1L2"}, "activation": "relu", "bias_regularizer": null, "units": 100, "use_bias": true, "kernel_constraint": null, "trainable": true}}, {"name": "B1_0", "class_name": "Dense", "inbound_nodes": [[["B1", 0, 0, {}]]], "config": {"bias_constraint": null, "bias_initializer": {"config": {}, "class_name": "Zeros"}, "kernel_initializer": {"config": {"seed": 3014, "scale": 1.0, "distribution": "normal", "mode": "fan_avg"}, "class_name": "VarianceScaling"}, "name": "B1_0", "activity_regularizer": null, "kernel_regularizer": {"config": {"l2": 0.00019999999494757503, "l1": 0.0}, "class_name": "L1L2"}, "activation": "relu", "bias_regularizer": null, "units": 100, "use_bias": true, "kernel_constraint": null, "trainable": true}}, {"name": "B3_0", "class_name": "Dense", "inbound_nodes": [[["B3", 0, 0, {}]]], "config": {"bias_constraint": null, "bias_initializer": {"config": {}, "class_name": "Zeros"}, "kernel_initializer": {"config": {"seed": 3014, "scale": 1.0, "distribution": "normal", "mode": "fan_avg"}, "class_name": "VarianceScaling"}, "name": "B3_0", "activity_regularizer": null, "kernel_regularizer": {"config": {"l2": 0.00019999999494757503, "l1": 0.0}, "class_name": "L1L2"}, "activation": "relu", "bias_regularizer": null, "units": 100, "use_bias": true, "kernel_constraint": null, "trainable": true}}, {"name": "D1_0", "class_name": "Dense", "inbound_nodes": [[["D1", 0, 0, {}]]], "config": {"bias_constraint": null, "bias_initializer": {"config": {}, "class_name": "Zeros"}, "kernel_initializer": {"config": {"seed": 3014, "scale": 1.0, "distribution": "normal", "mode": "fan_avg"}, "class_name": "VarianceScaling"}, "name": "D1_0", "activity_regularizer": null, "kernel_regularizer": {"config": {"l2": 0.00019999999494757503, "l1": 0.0}, "class_name": "L1L2"}, "activation": "relu", "bias_regularizer": null, "units": 100, "use_bias": true, "kernel_constraint": null, "trainable": true}}, {"name": "C1_1", "class_name": "Dense", "inbound_nodes": [[["C1_0", 0, 0, {}]]], "config": {"bias_constraint": null, "bias_initializer": {"config": {}, "class_name": "Zeros"}, "kernel_initializer": {"config": {"seed": 3014, "scale": 1.0, "distribution": "normal", "mode": "fan_avg"}, "class_name": "VarianceScaling"}, "name": "C1_1", "activity_regularizer": null, "kernel_regularizer": {"config": {"l2": 0.00019999999494757503, "l1": 0.0}, "class_name": "L1L2"}, "activation": "relu", "bias_regularizer": null, "units": 100, "use_bias": true, "kernel_constraint": null, "trainable": true}}, {"name": "C2_1", "class_name": "Dense", "inbound_nodes": [[["C2_0", 0, 0, {}]]], "config": {"bias_constraint": null, "bias_initializer": {"config": {}, "class_name": "Zeros"}, "kernel_initializer": {"config": {"seed": 3014, "scale": 1.0, "distribution": "normal", "mode": "fan_avg"}, "class_name": "VarianceScaling"}, "name": "C2_1", "activity_regularizer": null, "kernel_regularizer": {"config": {"l2": 0.00019999999494757503, "l1": 0.0}, "class_name": "L1L2"}, "activation": "relu", "bias_regularizer": null, "units": 100, "use_bias": true, "kernel_constraint": null, "trainable": true}}, {"name": "C3_1", "class_name": "Dense", "inbound_nodes": [[["C3_0", 0, 0, {}]]], "config": {"bias_constraint": null, "bias_initializer": {"config": {}, "class_name": "Zeros"}, "kernel_initializer": {"config": {"seed": 3014, "scale": 1.0, "distribution": "normal", "mode": "fan_avg"}, "class_name": "VarianceScaling"}, "name": "C3_1", "activity_regularizer": null, "kernel_regularizer": {"config": {"l2": 0.00019999999494757503, "l1": 0.0}, "class_name": "L1L2"}, "activation": "relu", "bias_regularizer": null, "units": 100, "use_bias": true, "kernel_constraint": null, "trainable": true}}, {"name": "C4_1", "class_name": "Dense", "inbound_nodes": [[["C4_0", 0, 0, {}]]], "config": {"bias_constraint": null, "bias_initializer": {"config": {}, "class_name": "Zeros"}, "kernel_initializer": {"config": {"seed": 3014, "scale": 1.0, "distribution": "normal", "mode": "fan_avg"}, "class_name": "VarianceScaling"}, "name": "C4_1", "activity_regularizer": null, "kernel_regularizer": {"config": {"l2": 0.00019999999494757503, "l1": 0.0}, "class_name": "L1L2"}, "activation": "relu", "bias_regularizer": null, "units": 100, "use_bias": true, "kernel_constraint": null, "trainable": true}}, {"name": "B1_1", "class_name": "Dense", "inbound_nodes": [[["B1_0", 0, 0, {}]]], "config": {"bias_constraint": null, "bias_initializer": {"config": {}, "class_name": "Zeros"}, "kernel_initializer": {"config": {"seed": 3014, "scale": 1.0, "distribution": "normal", "mode": "fan_avg"}, "class_name": "VarianceScaling"}, "name": "B1_1", "activity_regularizer": null, "kernel_regularizer": {"config": {"l2": 0.00019999999494757503, "l1": 0.0}, "class_name": "L1L2"}, "activation": "relu", "bias_regularizer": null, "units": 100, "use_bias": true, "kernel_constraint": null, "trainable": true}}, {"name": "B3_1", "class_name": "Dense", "inbound_nodes": [[["B3_0", 0, 0, {}]]], "config": {"bias_constraint": null, "bias_initializer": {"config": {}, "class_name": "Zeros"}, "kernel_initializer": {"config": {"seed": 3014, "scale": 1.0, "distribution": "normal", "mode": "fan_avg"}, "class_name": "VarianceScaling"}, "name": "B3_1", "activity_regularizer": null, "kernel_regularizer": {"config": {"l2": 0.00019999999494757503, "l1": 0.0}, "class_name": "L1L2"}, "activation": "relu", "bias_regularizer": null, "units": 100, "use_bias": true, "kernel_constraint": null, "trainable": true}}, {"name": "D1_1", "class_name": "Dense", "inbound_nodes": [[["D1_0", 0, 0, {}]]], "config": {"bias_constraint": null, "bias_initializer": {"config": {}, "class_name": "Zeros"}, "kernel_initializer": {"config": {"seed": 3014, "scale": 1.0, "distribution": "normal", "mode": "fan_avg"}, "class_name": "VarianceScaling"}, "name": "D1_1", "activity_regularizer": null, "kernel_regularizer": {"config": {"l2": 0.00019999999494757503, "l1": 0.0}, "class_name": "L1L2"}, "activation": "relu", "bias_regularizer": null, "units": 100, "use_bias": true, "kernel_constraint": null, "trainable": true}}, {"name": "OnOff_C1", "class_name": "InputLayer", "inbound_nodes": [], "config": {"batch_input_shape": [null, 1], "dtype": "float32", "sparse": false, "name": "OnOff_C1"}}, {"name": "C1_o", "class_name": "Dense", "inbound_nodes": [[["C1_1", 0, 0, {}]]], "config": {"bias_constraint": null, "bias_initializer": {"config": {}, "class_name": "Zeros"}, "kernel_initializer": {"config": {"seed": 3014, "scale": 1.0, "distribution": "normal", "mode": "fan_avg"}, "class_name": "VarianceScaling"}, "name": "C1_o", "activity_regularizer": null, "kernel_regularizer": {"config": {"l2": 0.00019999999494757503, "l1": 0.0}, "class_name": "L1L2"}, "activation": "relu", "bias_regularizer": null, "units": 1, "use_bias": true, "kernel_constraint": null, "trainable": true}}, {"name": "OnOff_C2", "class_name": "InputLayer", "inbound_nodes": [], "config": {"batch_input_shape": [null, 1], "dtype": "float32", "sparse": false, "name": "OnOff_C2"}}, {"name": "C2_o", "class_name": "Dense", "inbound_nodes": [[["C2_1", 0, 0, {}]]], "config": {"bias_constraint": null, "bias_initializer": {"config": {}, "class_name": "Zeros"}, "kernel_initializer": {"config": {"seed": 3014, "scale": 1.0, "distribution": "normal", "mode": "fan_avg"}, "class_name": "VarianceScaling"}, "name": "C2_o", "activity_regularizer": null, "kernel_regularizer": {"config": {"l2": 0.00019999999494757503, "l1": 0.0}, "class_name": "L1L2"}, "activation": "relu", "bias_regularizer": null, "units": 1, "use_bias": true, "kernel_constraint": null, "trainable": true}}, {"name": "OnOff_C3", "class_name": "InputLayer", "inbound_nodes": [], "config": {"batch_input_shape": [null, 1], "dtype": "float32", "sparse": false, "name": "OnOff_C3"}}, {"name": "C3_o", "class_name": "Dense", "inbound_nodes": [[["C3_1", 0, 0, {}]]], "config": {"bias_constraint": null, "bias_initializer": {"config": {}, "class_name": "Zeros"}, "kernel_initializer": {"config": {"seed": 3014, "scale": 1.0, "distribution": "normal", "mode": "fan_avg"}, "class_name": "VarianceScaling"}, "name": "C3_o", "activity_regularizer": null, "kernel_regularizer": {"config": {"l2": 0.00019999999494757503, "l1": 0.0}, "class_name": "L1L2"}, "activation": "relu", "bias_regularizer": null, "units": 1, "use_bias": true, "kernel_constraint": null, "trainable": true}}, {"name": "OnOff_C4", "class_name": "InputLayer", "inbound_nodes": [], "config": {"batch_input_shape": [null, 1], "dtype": "float32", "sparse": false, "name": "OnOff_C4"}}, {"name": "C4_o", "class_name": "Dense", "inbound_nodes": [[["C4_1", 0, 0, {}]]], "config": {"bias_constraint": null, "bias_initializer": {"config": {}, "class_name": "Zeros"}, "kernel_initializer": {"config": {"seed": 3014, "scale": 1.0, "distribution": "normal", "mode": "fan_avg"}, "class_name": "VarianceScaling"}, "name": "C4_o", "activity_regularizer": null, "kernel_regularizer": {"config": {"l2": 0.00019999999494757503, "l1": 0.0}, "class_name": "L1L2"}, "activation": "relu", "bias_regularizer": null, "units": 1, "use_bias": true, "kernel_constraint": null, "trainable": true}}, {"name": "OnOff_B1", "class_name": "InputLayer", "inbound_nodes": [], "config": {"batch_input_shape": [null, 1], "dtype": "float32", "sparse": false, "name": "OnOff_B1"}}, {"name": "B1_o", "class_name": "Dense", "inbound_nodes": [[["B1_1", 0, 0, {}]]], "config": {"bias_constraint": null, "bias_initializer": {"config": {}, "class_name": "Zeros"}, "kernel_initializer": {"config": {"seed": 3014, "scale": 1.0, "distribution": "normal", "mode": "fan_avg"}, "class_name": "VarianceScaling"}, "name": "B1_o", "activity_regularizer": null, "kernel_regularizer": {"config": {"l2": 0.00019999999494757503, "l1": 0.0}, "class_name": "L1L2"}, "activation": "relu", "bias_regularizer": null, "units": 1, "use_bias": true, "kernel_constraint": null, "trainable": true}}, {"name": "OnOff_B3", "class_name": "InputLayer", "inbound_nodes": [], "config": {"batch_input_shape": [null, 1], "dtype": "float32", "sparse": false, "name": "OnOff_B3"}}, {"name": "B3_o", "class_name": "Dense", "inbound_nodes": [[["B3_1", 0, 0, {}]]], "config": {"bias_constraint": null, "bias_initializer": {"config": {}, "class_name": "Zeros"}, "kernel_initializer": {"config": {"seed": 3014, "scale": 1.0, "distribution": "normal", "mode": "fan_avg"}, "class_name": "VarianceScaling"}, "name": "B3_o", "activity_regularizer": null, "kernel_regularizer": {"config": {"l2": 0.00019999999494757503, "l1": 0.0}, "class_name": "L1L2"}, "activation": "relu", "bias_regularizer": null, "units": 1, "use_bias": true, "kernel_constraint": null, "trainable": true}}, {"name": "OnOff_D1", "class_name": "InputLayer", "inbound_nodes": [], "config": {"batch_input_shape": [null, 1], "dtype": "float32", "sparse": false, "name": "OnOff_D1"}}, {"name": "D1_o", "class_name": "Dense", "inbound_nodes": [[["D1_1", 0, 0, {}]]], "config": {"bias_constraint": null, "bias_initializer": {"config": {}, "class_name": "Zeros"}, "kernel_initializer": {"config": {"seed": 3014, "scale": 1.0, "distribution": "normal", "mode": "fan_avg"}, "class_name": "VarianceScaling"}, "name": "D1_o", "activity_regularizer": null, "kernel_regularizer": {"config": {"l2": 0.00019999999494757503, "l1": 0.0}, "class_name": "L1L2"}, "activation": "relu", "bias_regularizer": null, "units": 1, "use_bias": true, "kernel_constraint": null, "trainable": true}}, {"name": "C1_out", "class_name": "Multiply", "inbound_nodes": [[["OnOff_C1", 0, 0, {}], ["C1_o", 0, 0, {}]]], "config": {"name": "C1_out", "trainable": true}}, {"name": "C2_out", "class_name": "Multiply", "inbound_nodes": [[["OnOff_C2", 0, 0, {}], ["C2_o", 0, 0, {}]]], "config": {"name": "C2_out", "trainable": true}}, {"name": "C3_out", "class_name": "Multiply", "inbound_nodes": [[["OnOff_C3", 0, 0, {}], ["C3_o", 0, 0, {}]]], "config": {"name": "C3_out", "trainable": true}}, {"name": "C4_out", "class_name": "Multiply", "inbound_nodes": [[["OnOff_C4", 0, 0, {}], ["C4_o", 0, 0, {}]]], "config": {"name": "C4_out", "trainable": true}}, {"name": "B1_out", "class_name": "Multiply", "inbound_nodes": [[["OnOff_B1", 0, 0, {}], ["B1_o", 0, 0, {}]]], "config": {"name": "B1_out", "trainable": true}}, {"name": "B3_out", "class_name": "Multiply", "inbound_nodes": [[["OnOff_B3", 0, 0, {}], ["B3_o", 0, 0, {}]]], "config": {"name": "B3_out", "trainable": true}}, {"name": "D1_out", "class_name": "Multiply", "inbound_nodes": [[["OnOff_D1", 0, 0, {}], ["D1_o", 0, 0, {}]]], "config": {"name": "D1_out", "trainable": true}}, {"name": "GJOA_TOTAL", "class_name": "Add", "inbound_nodes": [[["C1_out", 0, 0, {}], ["C2_out", 0, 0, {}], ["C3_out", 0, 0, {}], ["C4_out", 0, 0, {}], ["B1_out", 0, 0, {}], ["B3_out", 0, 0, {}], ["D1_out", 0, 0, {}]]], "config": {"name": "GJOA_TOTAL", "trainable": true}}], "input_layers": [["C1", 0, 0], ["C2", 0, 0], ["C3", 0, 0], ["C4", 0, 0], ["B1", 0, 0], ["B3", 0, 0], ["D1", 0, 0], ["OnOff_C1", 0, 0], ["OnOff_C2", 0, 0], ["OnOff_C3", 0, 0], ["OnOff_C4", 0, 0], ["OnOff_B1", 0, 0], ["OnOff_B3", 0, 0], ["OnOff_D1", 0, 0]], "output_layers": [["C1_out", 0, 0], ["C2_out", 0, 0], ["C3_out", 0, 0], ["C4_out", 0, 0], ["B1_out", 0, 0], ["B3_out", 0, 0], ["D1_out", 0, 0], ["GJOA_TOTAL", 0, 0]]}, "backend": "theano", "keras_version": "2.0.1", "class_name": "Model"}