{"class_name": "Model", "backend": "theano", "config": {"layers": [{"inbound_nodes": [], "class_name": "InputLayer", "name": "C1", "config": {"batch_input_shape": [null, 4], "dtype": "float32", "name": "C1", "sparse": false}}, {"inbound_nodes": [], "class_name": "InputLayer", "name": "C2", "config": {"batch_input_shape": [null, 3], "dtype": "float32", "name": "C2", "sparse": false}}, {"inbound_nodes": [], "class_name": "InputLayer", "name": "C3", "config": {"batch_input_shape": [null, 4], "dtype": "float32", "name": "C3", "sparse": false}}, {"inbound_nodes": [], "class_name": "InputLayer", "name": "C4", "config": {"batch_input_shape": [null, 4], "dtype": "float32", "name": "C4", "sparse": false}}, {"inbound_nodes": [], "class_name": "InputLayer", "name": "B1", "config": {"batch_input_shape": [null, 4], "dtype": "float32", "name": "B1", "sparse": false}}, {"inbound_nodes": [], "class_name": "InputLayer", "name": "B3", "config": {"batch_input_shape": [null, 4], "dtype": "float32", "name": "B3", "sparse": false}}, {"inbound_nodes": [], "class_name": "InputLayer", "name": "D1", "config": {"batch_input_shape": [null, 3], "dtype": "float32", "name": "D1", "sparse": false}}, {"inbound_nodes": [[["C1", 0, 0, {}]]], "class_name": "Dense", "name": "dense_1", "config": {"kernel_regularizer": {"class_name": "L1L2", "config": {"l2": 0.0010000000474974513, "l1": 0.0}}, "trainable": true, "kernel_initializer": {"class_name": "VarianceScaling", "config": {"mode": "fan_avg", "scale": 1.0, "seed": 9947, "distribution": "normal"}}, "use_bias": true, "activity_regularizer": null, "bias_regularizer": null, "units": 20, "kernel_constraint": null, "name": "dense_1", "bias_constraint": null, "bias_initializer": {"class_name": "Zeros", "config": {}}, "activation": "relu"}}, {"inbound_nodes": [[["C2", 0, 0, {}]]], "class_name": "Dense", "name": "dense_4", "config": {"kernel_regularizer": {"class_name": "L1L2", "config": {"l2": 0.0010000000474974513, "l1": 0.0}}, "trainable": true, "kernel_initializer": {"class_name": "VarianceScaling", "config": {"mode": "fan_avg", "scale": 1.0, "seed": 9947, "distribution": "normal"}}, "use_bias": true, "activity_regularizer": null, "bias_regularizer": null, "units": 20, "kernel_constraint": null, "name": "dense_4", "bias_constraint": null, "bias_initializer": {"class_name": "Zeros", "config": {}}, "activation": "relu"}}, {"inbound_nodes": [[["C3", 0, 0, {}]]], "class_name": "Dense", "name": "dense_7", "config": {"kernel_regularizer": {"class_name": "L1L2", "config": {"l2": 0.0010000000474974513, "l1": 0.0}}, "trainable": true, "kernel_initializer": {"class_name": "VarianceScaling", "config": {"mode": "fan_avg", "scale": 1.0, "seed": 9947, "distribution": "normal"}}, "use_bias": true, "activity_regularizer": null, "bias_regularizer": null, "units": 20, "kernel_constraint": null, "name": "dense_7", "bias_constraint": null, "bias_initializer": {"class_name": "Zeros", "config": {}}, "activation": "relu"}}, {"inbound_nodes": [[["C4", 0, 0, {}]]], "class_name": "Dense", "name": "dense_10", "config": {"kernel_regularizer": {"class_name": "L1L2", "config": {"l2": 0.0010000000474974513, "l1": 0.0}}, "trainable": true, "kernel_initializer": {"class_name": "VarianceScaling", "config": {"mode": "fan_avg", "scale": 1.0, "seed": 9947, "distribution": "normal"}}, "use_bias": true, "activity_regularizer": null, "bias_regularizer": null, "units": 20, "kernel_constraint": null, "name": "dense_10", "bias_constraint": null, "bias_initializer": {"class_name": "Zeros", "config": {}}, "activation": "relu"}}, {"inbound_nodes": [[["B1", 0, 0, {}]]], "class_name": "Dense", "name": "dense_13", "config": {"kernel_regularizer": {"class_name": "L1L2", "config": {"l2": 0.0010000000474974513, "l1": 0.0}}, "trainable": true, "kernel_initializer": {"class_name": "VarianceScaling", "config": {"mode": "fan_avg", "scale": 1.0, "seed": 9947, "distribution": "normal"}}, "use_bias": true, "activity_regularizer": null, "bias_regularizer": null, "units": 20, "kernel_constraint": null, "name": "dense_13", "bias_constraint": null, "bias_initializer": {"class_name": "Zeros", "config": {}}, "activation": "relu"}}, {"inbound_nodes": [[["B3", 0, 0, {}]]], "class_name": "Dense", "name": "dense_16", "config": {"kernel_regularizer": {"class_name": "L1L2", "config": {"l2": 0.0010000000474974513, "l1": 0.0}}, "trainable": true, "kernel_initializer": {"class_name": "VarianceScaling", "config": {"mode": "fan_avg", "scale": 1.0, "seed": 9947, "distribution": "normal"}}, "use_bias": true, "activity_regularizer": null, "bias_regularizer": null, "units": 20, "kernel_constraint": null, "name": "dense_16", "bias_constraint": null, "bias_initializer": {"class_name": "Zeros", "config": {}}, "activation": "relu"}}, {"inbound_nodes": [[["D1", 0, 0, {}]]], "class_name": "Dense", "name": "dense_19", "config": {"kernel_regularizer": {"class_name": "L1L2", "config": {"l2": 0.0010000000474974513, "l1": 0.0}}, "trainable": true, "kernel_initializer": {"class_name": "VarianceScaling", "config": {"mode": "fan_avg", "scale": 1.0, "seed": 9947, "distribution": "normal"}}, "use_bias": true, "activity_regularizer": null, "bias_regularizer": null, "units": 20, "kernel_constraint": null, "name": "dense_19", "bias_constraint": null, "bias_initializer": {"class_name": "Zeros", "config": {}}, "activation": "relu"}}, {"inbound_nodes": [[["dense_1", 0, 0, {}]]], "class_name": "Dense", "name": "dense_2", "config": {"kernel_regularizer": {"class_name": "L1L2", "config": {"l2": 0.0010000000474974513, "l1": 0.0}}, "trainable": true, "kernel_initializer": {"class_name": "VarianceScaling", "config": {"mode": "fan_avg", "scale": 1.0, "seed": 9947, "distribution": "normal"}}, "use_bias": true, "activity_regularizer": null, "bias_regularizer": null, "units": 20, "kernel_constraint": null, "name": "dense_2", "bias_constraint": null, "bias_initializer": {"class_name": "Zeros", "config": {}}, "activation": "relu"}}, {"inbound_nodes": [[["dense_4", 0, 0, {}]]], "class_name": "Dense", "name": "dense_5", "config": {"kernel_regularizer": {"class_name": "L1L2", "config": {"l2": 0.0010000000474974513, "l1": 0.0}}, "trainable": true, "kernel_initializer": {"class_name": "VarianceScaling", "config": {"mode": "fan_avg", "scale": 1.0, "seed": 9947, "distribution": "normal"}}, "use_bias": true, "activity_regularizer": null, "bias_regularizer": null, "units": 20, "kernel_constraint": null, "name": "dense_5", "bias_constraint": null, "bias_initializer": {"class_name": "Zeros", "config": {}}, "activation": "relu"}}, {"inbound_nodes": [[["dense_7", 0, 0, {}]]], "class_name": "Dense", "name": "dense_8", "config": {"kernel_regularizer": {"class_name": "L1L2", "config": {"l2": 0.0010000000474974513, "l1": 0.0}}, "trainable": true, "kernel_initializer": {"class_name": "VarianceScaling", "config": {"mode": "fan_avg", "scale": 1.0, "seed": 9947, "distribution": "normal"}}, "use_bias": true, "activity_regularizer": null, "bias_regularizer": null, "units": 20, "kernel_constraint": null, "name": "dense_8", "bias_constraint": null, "bias_initializer": {"class_name": "Zeros", "config": {}}, "activation": "relu"}}, {"inbound_nodes": [[["dense_10", 0, 0, {}]]], "class_name": "Dense", "name": "dense_11", "config": {"kernel_regularizer": {"class_name": "L1L2", "config": {"l2": 0.0010000000474974513, "l1": 0.0}}, "trainable": true, "kernel_initializer": {"class_name": "VarianceScaling", "config": {"mode": "fan_avg", "scale": 1.0, "seed": 9947, "distribution": "normal"}}, "use_bias": true, "activity_regularizer": null, "bias_regularizer": null, "units": 20, "kernel_constraint": null, "name": "dense_11", "bias_constraint": null, "bias_initializer": {"class_name": "Zeros", "config": {}}, "activation": "relu"}}, {"inbound_nodes": [[["dense_13", 0, 0, {}]]], "class_name": "Dense", "name": "dense_14", "config": {"kernel_regularizer": {"class_name": "L1L2", "config": {"l2": 0.0010000000474974513, "l1": 0.0}}, "trainable": true, "kernel_initializer": {"class_name": "VarianceScaling", "config": {"mode": "fan_avg", "scale": 1.0, "seed": 9947, "distribution": "normal"}}, "use_bias": true, "activity_regularizer": null, "bias_regularizer": null, "units": 20, "kernel_constraint": null, "name": "dense_14", "bias_constraint": null, "bias_initializer": {"class_name": "Zeros", "config": {}}, "activation": "relu"}}, {"inbound_nodes": [[["dense_16", 0, 0, {}]]], "class_name": "Dense", "name": "dense_17", "config": {"kernel_regularizer": {"class_name": "L1L2", "config": {"l2": 0.0010000000474974513, "l1": 0.0}}, "trainable": true, "kernel_initializer": {"class_name": "VarianceScaling", "config": {"mode": "fan_avg", "scale": 1.0, "seed": 9947, "distribution": "normal"}}, "use_bias": true, "activity_regularizer": null, "bias_regularizer": null, "units": 20, "kernel_constraint": null, "name": "dense_17", "bias_constraint": null, "bias_initializer": {"class_name": "Zeros", "config": {}}, "activation": "relu"}}, {"inbound_nodes": [[["dense_19", 0, 0, {}]]], "class_name": "Dense", "name": "dense_20", "config": {"kernel_regularizer": {"class_name": "L1L2", "config": {"l2": 0.0010000000474974513, "l1": 0.0}}, "trainable": true, "kernel_initializer": {"class_name": "VarianceScaling", "config": {"mode": "fan_avg", "scale": 1.0, "seed": 9947, "distribution": "normal"}}, "use_bias": true, "activity_regularizer": null, "bias_regularizer": null, "units": 20, "kernel_constraint": null, "name": "dense_20", "bias_constraint": null, "bias_initializer": {"class_name": "Zeros", "config": {}}, "activation": "relu"}}, {"inbound_nodes": [], "class_name": "InputLayer", "name": "OnOff_C1", "config": {"batch_input_shape": [null, 1], "dtype": "float32", "name": "OnOff_C1", "sparse": false}}, {"inbound_nodes": [[["dense_2", 0, 0, {}]]], "class_name": "Dense", "name": "dense_3", "config": {"kernel_regularizer": {"class_name": "L1L2", "config": {"l2": 0.0010000000474974513, "l1": 0.0}}, "trainable": true, "kernel_initializer": {"class_name": "VarianceScaling", "config": {"mode": "fan_avg", "scale": 1.0, "seed": 9947, "distribution": "normal"}}, "use_bias": true, "activity_regularizer": null, "bias_regularizer": null, "units": 1, "kernel_constraint": null, "name": "dense_3", "bias_constraint": null, "bias_initializer": {"class_name": "Zeros", "config": {}}, "activation": "relu"}}, {"inbound_nodes": [], "class_name": "InputLayer", "name": "OnOff_C2", "config": {"batch_input_shape": [null, 1], "dtype": "float32", "name": "OnOff_C2", "sparse": false}}, {"inbound_nodes": [[["dense_5", 0, 0, {}]]], "class_name": "Dense", "name": "dense_6", "config": {"kernel_regularizer": {"class_name": "L1L2", "config": {"l2": 0.0010000000474974513, "l1": 0.0}}, "trainable": true, "kernel_initializer": {"class_name": "VarianceScaling", "config": {"mode": "fan_avg", "scale": 1.0, "seed": 9947, "distribution": "normal"}}, "use_bias": true, "activity_regularizer": null, "bias_regularizer": null, "units": 1, "kernel_constraint": null, "name": "dense_6", "bias_constraint": null, "bias_initializer": {"class_name": "Zeros", "config": {}}, "activation": "relu"}}, {"inbound_nodes": [], "class_name": "InputLayer", "name": "OnOff_C3", "config": {"batch_input_shape": [null, 1], "dtype": "float32", "name": "OnOff_C3", "sparse": false}}, {"inbound_nodes": [[["dense_8", 0, 0, {}]]], "class_name": "Dense", "name": "dense_9", "config": {"kernel_regularizer": {"class_name": "L1L2", "config": {"l2": 0.0010000000474974513, "l1": 0.0}}, "trainable": true, "kernel_initializer": {"class_name": "VarianceScaling", "config": {"mode": "fan_avg", "scale": 1.0, "seed": 9947, "distribution": "normal"}}, "use_bias": true, "activity_regularizer": null, "bias_regularizer": null, "units": 1, "kernel_constraint": null, "name": "dense_9", "bias_constraint": null, "bias_initializer": {"class_name": "Zeros", "config": {}}, "activation": "relu"}}, {"inbound_nodes": [], "class_name": "InputLayer", "name": "OnOff_C4", "config": {"batch_input_shape": [null, 1], "dtype": "float32", "name": "OnOff_C4", "sparse": false}}, {"inbound_nodes": [[["dense_11", 0, 0, {}]]], "class_name": "Dense", "name": "dense_12", "config": {"kernel_regularizer": {"class_name": "L1L2", "config": {"l2": 0.0010000000474974513, "l1": 0.0}}, "trainable": true, "kernel_initializer": {"class_name": "VarianceScaling", "config": {"mode": "fan_avg", "scale": 1.0, "seed": 9947, "distribution": "normal"}}, "use_bias": true, "activity_regularizer": null, "bias_regularizer": null, "units": 1, "kernel_constraint": null, "name": "dense_12", "bias_constraint": null, "bias_initializer": {"class_name": "Zeros", "config": {}}, "activation": "relu"}}, {"inbound_nodes": [], "class_name": "InputLayer", "name": "OnOff_B1", "config": {"batch_input_shape": [null, 1], "dtype": "float32", "name": "OnOff_B1", "sparse": false}}, {"inbound_nodes": [[["dense_14", 0, 0, {}]]], "class_name": "Dense", "name": "dense_15", "config": {"kernel_regularizer": {"class_name": "L1L2", "config": {"l2": 0.0010000000474974513, "l1": 0.0}}, "trainable": true, "kernel_initializer": {"class_name": "VarianceScaling", "config": {"mode": "fan_avg", "scale": 1.0, "seed": 9947, "distribution": "normal"}}, "use_bias": true, "activity_regularizer": null, "bias_regularizer": null, "units": 1, "kernel_constraint": null, "name": "dense_15", "bias_constraint": null, "bias_initializer": {"class_name": "Zeros", "config": {}}, "activation": "relu"}}, {"inbound_nodes": [], "class_name": "InputLayer", "name": "OnOff_B3", "config": {"batch_input_shape": [null, 1], "dtype": "float32", "name": "OnOff_B3", "sparse": false}}, {"inbound_nodes": [[["dense_17", 0, 0, {}]]], "class_name": "Dense", "name": "dense_18", "config": {"kernel_regularizer": {"class_name": "L1L2", "config": {"l2": 0.0010000000474974513, "l1": 0.0}}, "trainable": true, "kernel_initializer": {"class_name": "VarianceScaling", "config": {"mode": "fan_avg", "scale": 1.0, "seed": 9947, "distribution": "normal"}}, "use_bias": true, "activity_regularizer": null, "bias_regularizer": null, "units": 1, "kernel_constraint": null, "name": "dense_18", "bias_constraint": null, "bias_initializer": {"class_name": "Zeros", "config": {}}, "activation": "relu"}}, {"inbound_nodes": [], "class_name": "InputLayer", "name": "OnOff_D1", "config": {"batch_input_shape": [null, 1], "dtype": "float32", "name": "OnOff_D1", "sparse": false}}, {"inbound_nodes": [[["dense_20", 0, 0, {}]]], "class_name": "Dense", "name": "dense_21", "config": {"kernel_regularizer": {"class_name": "L1L2", "config": {"l2": 0.0010000000474974513, "l1": 0.0}}, "trainable": true, "kernel_initializer": {"class_name": "VarianceScaling", "config": {"mode": "fan_avg", "scale": 1.0, "seed": 9947, "distribution": "normal"}}, "use_bias": true, "activity_regularizer": null, "bias_regularizer": null, "units": 1, "kernel_constraint": null, "name": "dense_21", "bias_constraint": null, "bias_initializer": {"class_name": "Zeros", "config": {}}, "activation": "relu"}}, {"inbound_nodes": [[["OnOff_C1", 0, 0, {}], ["dense_3", 0, 0, {}]]], "class_name": "Multiply", "name": "C1_out", "config": {"trainable": true, "name": "C1_out"}}, {"inbound_nodes": [[["OnOff_C2", 0, 0, {}], ["dense_6", 0, 0, {}]]], "class_name": "Multiply", "name": "C2_out", "config": {"trainable": true, "name": "C2_out"}}, {"inbound_nodes": [[["OnOff_C3", 0, 0, {}], ["dense_9", 0, 0, {}]]], "class_name": "Multiply", "name": "C3_out", "config": {"trainable": true, "name": "C3_out"}}, {"inbound_nodes": [[["OnOff_C4", 0, 0, {}], ["dense_12", 0, 0, {}]]], "class_name": "Multiply", "name": "C4_out", "config": {"trainable": true, "name": "C4_out"}}, {"inbound_nodes": [[["OnOff_B1", 0, 0, {}], ["dense_15", 0, 0, {}]]], "class_name": "Multiply", "name": "B1_out", "config": {"trainable": true, "name": "B1_out"}}, {"inbound_nodes": [[["OnOff_B3", 0, 0, {}], ["dense_18", 0, 0, {}]]], "class_name": "Multiply", "name": "B3_out", "config": {"trainable": true, "name": "B3_out"}}, {"inbound_nodes": [[["OnOff_D1", 0, 0, {}], ["dense_21", 0, 0, {}]]], "class_name": "Multiply", "name": "D1_out", "config": {"trainable": true, "name": "D1_out"}}, {"inbound_nodes": [[["C1_out", 0, 0, {}], ["C2_out", 0, 0, {}], ["C3_out", 0, 0, {}], ["C4_out", 0, 0, {}], ["B1_out", 0, 0, {}], ["B3_out", 0, 0, {}], ["D1_out", 0, 0, {}]]], "class_name": "Add", "name": "GJOA_TOTAL", "config": {"trainable": true, "name": "GJOA_TOTAL"}}], "name": "model_1", "input_layers": [["C1", 0, 0], ["C2", 0, 0], ["C3", 0, 0], ["C4", 0, 0], ["B1", 0, 0], ["B3", 0, 0], ["D1", 0, 0], ["OnOff_C1", 0, 0], ["OnOff_C2", 0, 0], ["OnOff_C3", 0, 0], ["OnOff_C4", 0, 0], ["OnOff_B1", 0, 0], ["OnOff_B3", 0, 0], ["OnOff_D1", 0, 0]], "output_layers": [["C1_out", 0, 0], ["C2_out", 0, 0], ["C3_out", 0, 0], ["C4_out", 0, 0], ["B1_out", 0, 0], ["B3_out", 0, 0], ["D1_out", 0, 0], ["GJOA_TOTAL", 0, 0]]}, "keras_version": "2.0.1"}