{"keras_version": "2.0.1", "config": {"name": "model_1", "input_layers": [["C1", 0, 0], ["C2", 0, 0], ["C3", 0, 0], ["C4", 0, 0], ["B1", 0, 0], ["B3", 0, 0], ["D1", 0, 0], ["OnOff_C1", 0, 0], ["OnOff_C2", 0, 0], ["OnOff_C3", 0, 0], ["OnOff_C4", 0, 0], ["OnOff_B1", 0, 0], ["OnOff_B3", 0, 0], ["OnOff_D1", 0, 0]], "layers": [{"name": "C1", "inbound_nodes": [], "config": {"name": "C1", "sparse": false, "dtype": "float32", "batch_input_shape": [null, 4]}, "class_name": "InputLayer"}, {"name": "C2", "inbound_nodes": [], "config": {"name": "C2", "sparse": false, "dtype": "float32", "batch_input_shape": [null, 3]}, "class_name": "InputLayer"}, {"name": "C3", "inbound_nodes": [], "config": {"name": "C3", "sparse": false, "dtype": "float32", "batch_input_shape": [null, 4]}, "class_name": "InputLayer"}, {"name": "C4", "inbound_nodes": [], "config": {"name": "C4", "sparse": false, "dtype": "float32", "batch_input_shape": [null, 4]}, "class_name": "InputLayer"}, {"name": "B1", "inbound_nodes": [], "config": {"name": "B1", "sparse": false, "dtype": "float32", "batch_input_shape": [null, 4]}, "class_name": "InputLayer"}, {"name": "B3", "inbound_nodes": [], "config": {"name": "B3", "sparse": false, "dtype": "float32", "batch_input_shape": [null, 4]}, "class_name": "InputLayer"}, {"name": "D1", "inbound_nodes": [], "config": {"name": "D1", "sparse": false, "dtype": "float32", "batch_input_shape": [null, 3]}, "class_name": "InputLayer"}, {"name": "C1_0", "inbound_nodes": [[["C1", 0, 0, {}]]], "config": {"use_bias": true, "bias_initializer": {"config": {}, "class_name": "Zeros"}, "kernel_initializer": {"config": {"scale": 1.0, "distribution": "normal", "seed": 3014, "mode": "fan_avg"}, "class_name": "VarianceScaling"}, "activation": "relu", "kernel_constraint": null, "activity_regularizer": null, "kernel_regularizer": {"config": {"l1": 0.0, "l2": 0.0002500000118743628}, "class_name": "L1L2"}, "name": "C1_0", "bias_constraint": null, "trainable": true, "units": 20, "bias_regularizer": null}, "class_name": "Dense"}, {"name": "C2_0", "inbound_nodes": [[["C2", 0, 0, {}]]], "config": {"use_bias": true, "bias_initializer": {"config": {}, "class_name": "Zeros"}, "kernel_initializer": {"config": {"scale": 1.0, "distribution": "normal", "seed": 3014, "mode": "fan_avg"}, "class_name": "VarianceScaling"}, "activation": "relu", "kernel_constraint": null, "activity_regularizer": null, "kernel_regularizer": {"config": {"l1": 0.0, "l2": 0.0002500000118743628}, "class_name": "L1L2"}, "name": "C2_0", "bias_constraint": null, "trainable": true, "units": 20, "bias_regularizer": null}, "class_name": "Dense"}, {"name": "C3_0", "inbound_nodes": [[["C3", 0, 0, {}]]], "config": {"use_bias": true, "bias_initializer": {"config": {}, "class_name": "Zeros"}, "kernel_initializer": {"config": {"scale": 1.0, "distribution": "normal", "seed": 3014, "mode": "fan_avg"}, "class_name": "VarianceScaling"}, "activation": "relu", "kernel_constraint": null, "activity_regularizer": null, "kernel_regularizer": {"config": {"l1": 0.0, "l2": 0.0002500000118743628}, "class_name": "L1L2"}, "name": "C3_0", "bias_constraint": null, "trainable": true, "units": 20, "bias_regularizer": null}, "class_name": "Dense"}, {"name": "C4_0", "inbound_nodes": [[["C4", 0, 0, {}]]], "config": {"use_bias": true, "bias_initializer": {"config": {}, "class_name": "Zeros"}, "kernel_initializer": {"config": {"scale": 1.0, "distribution": "normal", "seed": 3014, "mode": "fan_avg"}, "class_name": "VarianceScaling"}, "activation": "relu", "kernel_constraint": null, "activity_regularizer": null, "kernel_regularizer": {"config": {"l1": 0.0, "l2": 0.0002500000118743628}, "class_name": "L1L2"}, "name": "C4_0", "bias_constraint": null, "trainable": true, "units": 20, "bias_regularizer": null}, "class_name": "Dense"}, {"name": "B1_0", "inbound_nodes": [[["B1", 0, 0, {}]]], "config": {"use_bias": true, "bias_initializer": {"config": {}, "class_name": "Zeros"}, "kernel_initializer": {"config": {"scale": 1.0, "distribution": "normal", "seed": 3014, "mode": "fan_avg"}, "class_name": "VarianceScaling"}, "activation": "relu", "kernel_constraint": null, "activity_regularizer": null, "kernel_regularizer": {"config": {"l1": 0.0, "l2": 0.0002500000118743628}, "class_name": "L1L2"}, "name": "B1_0", "bias_constraint": null, "trainable": true, "units": 20, "bias_regularizer": null}, "class_name": "Dense"}, {"name": "B3_0", "inbound_nodes": [[["B3", 0, 0, {}]]], "config": {"use_bias": true, "bias_initializer": {"config": {}, "class_name": "Zeros"}, "kernel_initializer": {"config": {"scale": 1.0, "distribution": "normal", "seed": 3014, "mode": "fan_avg"}, "class_name": "VarianceScaling"}, "activation": "relu", "kernel_constraint": null, "activity_regularizer": null, "kernel_regularizer": {"config": {"l1": 0.0, "l2": 0.0002500000118743628}, "class_name": "L1L2"}, "name": "B3_0", "bias_constraint": null, "trainable": true, "units": 20, "bias_regularizer": null}, "class_name": "Dense"}, {"name": "D1_0", "inbound_nodes": [[["D1", 0, 0, {}]]], "config": {"use_bias": true, "bias_initializer": {"config": {}, "class_name": "Zeros"}, "kernel_initializer": {"config": {"scale": 1.0, "distribution": "normal", "seed": 3014, "mode": "fan_avg"}, "class_name": "VarianceScaling"}, "activation": "relu", "kernel_constraint": null, "activity_regularizer": null, "kernel_regularizer": {"config": {"l1": 0.0, "l2": 0.0002500000118743628}, "class_name": "L1L2"}, "name": "D1_0", "bias_constraint": null, "trainable": true, "units": 20, "bias_regularizer": null}, "class_name": "Dense"}, {"name": "C1_1", "inbound_nodes": [[["C1_0", 0, 0, {}]]], "config": {"use_bias": true, "bias_initializer": {"config": {}, "class_name": "Zeros"}, "kernel_initializer": {"config": {"scale": 1.0, "distribution": "normal", "seed": 3014, "mode": "fan_avg"}, "class_name": "VarianceScaling"}, "activation": "relu", "kernel_constraint": null, "activity_regularizer": null, "kernel_regularizer": {"config": {"l1": 0.0, "l2": 0.0002500000118743628}, "class_name": "L1L2"}, "name": "C1_1", "bias_constraint": null, "trainable": true, "units": 20, "bias_regularizer": null}, "class_name": "Dense"}, {"name": "C2_1", "inbound_nodes": [[["C2_0", 0, 0, {}]]], "config": {"use_bias": true, "bias_initializer": {"config": {}, "class_name": "Zeros"}, "kernel_initializer": {"config": {"scale": 1.0, "distribution": "normal", "seed": 3014, "mode": "fan_avg"}, "class_name": "VarianceScaling"}, "activation": "relu", "kernel_constraint": null, "activity_regularizer": null, "kernel_regularizer": {"config": {"l1": 0.0, "l2": 0.0002500000118743628}, "class_name": "L1L2"}, "name": "C2_1", "bias_constraint": null, "trainable": true, "units": 20, "bias_regularizer": null}, "class_name": "Dense"}, {"name": "C3_1", "inbound_nodes": [[["C3_0", 0, 0, {}]]], "config": {"use_bias": true, "bias_initializer": {"config": {}, "class_name": "Zeros"}, "kernel_initializer": {"config": {"scale": 1.0, "distribution": "normal", "seed": 3014, "mode": "fan_avg"}, "class_name": "VarianceScaling"}, "activation": "relu", "kernel_constraint": null, "activity_regularizer": null, "kernel_regularizer": {"config": {"l1": 0.0, "l2": 0.0002500000118743628}, "class_name": "L1L2"}, "name": "C3_1", "bias_constraint": null, "trainable": true, "units": 20, "bias_regularizer": null}, "class_name": "Dense"}, {"name": "C4_1", "inbound_nodes": [[["C4_0", 0, 0, {}]]], "config": {"use_bias": true, "bias_initializer": {"config": {}, "class_name": "Zeros"}, "kernel_initializer": {"config": {"scale": 1.0, "distribution": "normal", "seed": 3014, "mode": "fan_avg"}, "class_name": "VarianceScaling"}, "activation": "relu", "kernel_constraint": null, "activity_regularizer": null, "kernel_regularizer": {"config": {"l1": 0.0, "l2": 0.0002500000118743628}, "class_name": "L1L2"}, "name": "C4_1", "bias_constraint": null, "trainable": true, "units": 20, "bias_regularizer": null}, "class_name": "Dense"}, {"name": "B1_1", "inbound_nodes": [[["B1_0", 0, 0, {}]]], "config": {"use_bias": true, "bias_initializer": {"config": {}, "class_name": "Zeros"}, "kernel_initializer": {"config": {"scale": 1.0, "distribution": "normal", "seed": 3014, "mode": "fan_avg"}, "class_name": "VarianceScaling"}, "activation": "relu", "kernel_constraint": null, "activity_regularizer": null, "kernel_regularizer": {"config": {"l1": 0.0, "l2": 0.0002500000118743628}, "class_name": "L1L2"}, "name": "B1_1", "bias_constraint": null, "trainable": true, "units": 20, "bias_regularizer": null}, "class_name": "Dense"}, {"name": "B3_1", "inbound_nodes": [[["B3_0", 0, 0, {}]]], "config": {"use_bias": true, "bias_initializer": {"config": {}, "class_name": "Zeros"}, "kernel_initializer": {"config": {"scale": 1.0, "distribution": "normal", "seed": 3014, "mode": "fan_avg"}, "class_name": "VarianceScaling"}, "activation": "relu", "kernel_constraint": null, "activity_regularizer": null, "kernel_regularizer": {"config": {"l1": 0.0, "l2": 0.0002500000118743628}, "class_name": "L1L2"}, "name": "B3_1", "bias_constraint": null, "trainable": true, "units": 20, "bias_regularizer": null}, "class_name": "Dense"}, {"name": "D1_1", "inbound_nodes": [[["D1_0", 0, 0, {}]]], "config": {"use_bias": true, "bias_initializer": {"config": {}, "class_name": "Zeros"}, "kernel_initializer": {"config": {"scale": 1.0, "distribution": "normal", "seed": 3014, "mode": "fan_avg"}, "class_name": "VarianceScaling"}, "activation": "relu", "kernel_constraint": null, "activity_regularizer": null, "kernel_regularizer": {"config": {"l1": 0.0, "l2": 0.0002500000118743628}, "class_name": "L1L2"}, "name": "D1_1", "bias_constraint": null, "trainable": true, "units": 20, "bias_regularizer": null}, "class_name": "Dense"}, {"name": "OnOff_C1", "inbound_nodes": [], "config": {"name": "OnOff_C1", "sparse": false, "dtype": "float32", "batch_input_shape": [null, 1]}, "class_name": "InputLayer"}, {"name": "C1_o", "inbound_nodes": [[["C1_1", 0, 0, {}]]], "config": {"use_bias": true, "bias_initializer": {"config": {}, "class_name": "Zeros"}, "kernel_initializer": {"config": {"scale": 1.0, "distribution": "normal", "seed": 3014, "mode": "fan_avg"}, "class_name": "VarianceScaling"}, "activation": "relu", "kernel_constraint": null, "activity_regularizer": null, "kernel_regularizer": {"config": {"l1": 0.0, "l2": 0.0002500000118743628}, "class_name": "L1L2"}, "name": "C1_o", "bias_constraint": null, "trainable": true, "units": 1, "bias_regularizer": null}, "class_name": "Dense"}, {"name": "OnOff_C2", "inbound_nodes": [], "config": {"name": "OnOff_C2", "sparse": false, "dtype": "float32", "batch_input_shape": [null, 1]}, "class_name": "InputLayer"}, {"name": "C2_o", "inbound_nodes": [[["C2_1", 0, 0, {}]]], "config": {"use_bias": true, "bias_initializer": {"config": {}, "class_name": "Zeros"}, "kernel_initializer": {"config": {"scale": 1.0, "distribution": "normal", "seed": 3014, "mode": "fan_avg"}, "class_name": "VarianceScaling"}, "activation": "relu", "kernel_constraint": null, "activity_regularizer": null, "kernel_regularizer": {"config": {"l1": 0.0, "l2": 0.0002500000118743628}, "class_name": "L1L2"}, "name": "C2_o", "bias_constraint": null, "trainable": true, "units": 1, "bias_regularizer": null}, "class_name": "Dense"}, {"name": "OnOff_C3", "inbound_nodes": [], "config": {"name": "OnOff_C3", "sparse": false, "dtype": "float32", "batch_input_shape": [null, 1]}, "class_name": "InputLayer"}, {"name": "C3_o", "inbound_nodes": [[["C3_1", 0, 0, {}]]], "config": {"use_bias": true, "bias_initializer": {"config": {}, "class_name": "Zeros"}, "kernel_initializer": {"config": {"scale": 1.0, "distribution": "normal", "seed": 3014, "mode": "fan_avg"}, "class_name": "VarianceScaling"}, "activation": "relu", "kernel_constraint": null, "activity_regularizer": null, "kernel_regularizer": {"config": {"l1": 0.0, "l2": 0.0002500000118743628}, "class_name": "L1L2"}, "name": "C3_o", "bias_constraint": null, "trainable": true, "units": 1, "bias_regularizer": null}, "class_name": "Dense"}, {"name": "OnOff_C4", "inbound_nodes": [], "config": {"name": "OnOff_C4", "sparse": false, "dtype": "float32", "batch_input_shape": [null, 1]}, "class_name": "InputLayer"}, {"name": "C4_o", "inbound_nodes": [[["C4_1", 0, 0, {}]]], "config": {"use_bias": true, "bias_initializer": {"config": {}, "class_name": "Zeros"}, "kernel_initializer": {"config": {"scale": 1.0, "distribution": "normal", "seed": 3014, "mode": "fan_avg"}, "class_name": "VarianceScaling"}, "activation": "relu", "kernel_constraint": null, "activity_regularizer": null, "kernel_regularizer": {"config": {"l1": 0.0, "l2": 0.0002500000118743628}, "class_name": "L1L2"}, "name": "C4_o", "bias_constraint": null, "trainable": true, "units": 1, "bias_regularizer": null}, "class_name": "Dense"}, {"name": "OnOff_B1", "inbound_nodes": [], "config": {"name": "OnOff_B1", "sparse": false, "dtype": "float32", "batch_input_shape": [null, 1]}, "class_name": "InputLayer"}, {"name": "B1_o", "inbound_nodes": [[["B1_1", 0, 0, {}]]], "config": {"use_bias": true, "bias_initializer": {"config": {}, "class_name": "Zeros"}, "kernel_initializer": {"config": {"scale": 1.0, "distribution": "normal", "seed": 3014, "mode": "fan_avg"}, "class_name": "VarianceScaling"}, "activation": "relu", "kernel_constraint": null, "activity_regularizer": null, "kernel_regularizer": {"config": {"l1": 0.0, "l2": 0.0002500000118743628}, "class_name": "L1L2"}, "name": "B1_o", "bias_constraint": null, "trainable": true, "units": 1, "bias_regularizer": null}, "class_name": "Dense"}, {"name": "OnOff_B3", "inbound_nodes": [], "config": {"name": "OnOff_B3", "sparse": false, "dtype": "float32", "batch_input_shape": [null, 1]}, "class_name": "InputLayer"}, {"name": "B3_o", "inbound_nodes": [[["B3_1", 0, 0, {}]]], "config": {"use_bias": true, "bias_initializer": {"config": {}, "class_name": "Zeros"}, "kernel_initializer": {"config": {"scale": 1.0, "distribution": "normal", "seed": 3014, "mode": "fan_avg"}, "class_name": "VarianceScaling"}, "activation": "relu", "kernel_constraint": null, "activity_regularizer": null, "kernel_regularizer": {"config": {"l1": 0.0, "l2": 0.0002500000118743628}, "class_name": "L1L2"}, "name": "B3_o", "bias_constraint": null, "trainable": true, "units": 1, "bias_regularizer": null}, "class_name": "Dense"}, {"name": "OnOff_D1", "inbound_nodes": [], "config": {"name": "OnOff_D1", "sparse": false, "dtype": "float32", "batch_input_shape": [null, 1]}, "class_name": "InputLayer"}, {"name": "D1_o", "inbound_nodes": [[["D1_1", 0, 0, {}]]], "config": {"use_bias": true, "bias_initializer": {"config": {}, "class_name": "Zeros"}, "kernel_initializer": {"config": {"scale": 1.0, "distribution": "normal", "seed": 3014, "mode": "fan_avg"}, "class_name": "VarianceScaling"}, "activation": "relu", "kernel_constraint": null, "activity_regularizer": null, "kernel_regularizer": {"config": {"l1": 0.0, "l2": 0.0002500000118743628}, "class_name": "L1L2"}, "name": "D1_o", "bias_constraint": null, "trainable": true, "units": 1, "bias_regularizer": null}, "class_name": "Dense"}, {"name": "C1_out", "inbound_nodes": [[["OnOff_C1", 0, 0, {}], ["C1_o", 0, 0, {}]]], "config": {"name": "C1_out", "trainable": true}, "class_name": "Multiply"}, {"name": "C2_out", "inbound_nodes": [[["OnOff_C2", 0, 0, {}], ["C2_o", 0, 0, {}]]], "config": {"name": "C2_out", "trainable": true}, "class_name": "Multiply"}, {"name": "C3_out", "inbound_nodes": [[["OnOff_C3", 0, 0, {}], ["C3_o", 0, 0, {}]]], "config": {"name": "C3_out", "trainable": true}, "class_name": "Multiply"}, {"name": "C4_out", "inbound_nodes": [[["OnOff_C4", 0, 0, {}], ["C4_o", 0, 0, {}]]], "config": {"name": "C4_out", "trainable": true}, "class_name": "Multiply"}, {"name": "B1_out", "inbound_nodes": [[["OnOff_B1", 0, 0, {}], ["B1_o", 0, 0, {}]]], "config": {"name": "B1_out", "trainable": true}, "class_name": "Multiply"}, {"name": "B3_out", "inbound_nodes": [[["OnOff_B3", 0, 0, {}], ["B3_o", 0, 0, {}]]], "config": {"name": "B3_out", "trainable": true}, "class_name": "Multiply"}, {"name": "D1_out", "inbound_nodes": [[["OnOff_D1", 0, 0, {}], ["D1_o", 0, 0, {}]]], "config": {"name": "D1_out", "trainable": true}, "class_name": "Multiply"}, {"name": "GJOA_TOTAL", "inbound_nodes": [[["C1_out", 0, 0, {}], ["C2_out", 0, 0, {}], ["C3_out", 0, 0, {}], ["C4_out", 0, 0, {}], ["B1_out", 0, 0, {}], ["B3_out", 0, 0, {}], ["D1_out", 0, 0, {}]]], "config": {"name": "GJOA_TOTAL", "trainable": true}, "class_name": "Add"}], "output_layers": [["C1_out", 0, 0], ["C2_out", 0, 0], ["C3_out", 0, 0], ["C4_out", 0, 0], ["B1_out", 0, 0], ["B3_out", 0, 0], ["D1_out", 0, 0], ["GJOA_TOTAL", 0, 0]]}, "class_name": "Model", "backend": "theano"}