{"class_name": "Model", "keras_version": "2.0.1", "config": {"layers": [{"inbound_nodes": [], "name": "PRESSURE_INPUT", "config": {"dtype": "float32", "batch_input_shape": [null, 7], "sparse": false, "name": "PRESSURE_INPUT"}, "class_name": "InputLayer"}, {"inbound_nodes": [[["PRESSURE_INPUT", 0, 0, {}]]], "name": "C1_PWH_0", "config": {"bias_initializer": {"class_name": "Zeros", "config": {}}, "units": 50, "bias_regularizer": null, "kernel_initializer": {"class_name": "VarianceScaling", "config": {"seed": 3014, "scale": 1.0, "mode": "fan_avg", "distribution": "normal"}}, "name": "C1_PWH_0", "bias_constraint": null, "kernel_regularizer": {"class_name": "L1L2", "config": {"l1": 0.0, "l2": 9.999999747378752e-05}}, "activity_regularizer": null, "trainable": true, "use_bias": true, "kernel_constraint": null, "activation": "relu"}, "class_name": "Dense"}, {"inbound_nodes": [[["PRESSURE_INPUT", 0, 0, {}]]], "name": "C2_PWH_0", "config": {"bias_initializer": {"class_name": "Zeros", "config": {}}, "units": 50, "bias_regularizer": null, "kernel_initializer": {"class_name": "VarianceScaling", "config": {"seed": 3014, "scale": 1.0, "mode": "fan_avg", "distribution": "normal"}}, "name": "C2_PWH_0", "bias_constraint": null, "kernel_regularizer": {"class_name": "L1L2", "config": {"l1": 0.0, "l2": 9.999999747378752e-05}}, "activity_regularizer": null, "trainable": true, "use_bias": true, "kernel_constraint": null, "activation": "relu"}, "class_name": "Dense"}, {"inbound_nodes": [[["PRESSURE_INPUT", 0, 0, {}]]], "name": "C3_PWH_0", "config": {"bias_initializer": {"class_name": "Zeros", "config": {}}, "units": 50, "bias_regularizer": null, "kernel_initializer": {"class_name": "VarianceScaling", "config": {"seed": 3014, "scale": 1.0, "mode": "fan_avg", "distribution": "normal"}}, "name": "C3_PWH_0", "bias_constraint": null, "kernel_regularizer": {"class_name": "L1L2", "config": {"l1": 0.0, "l2": 9.999999747378752e-05}}, "activity_regularizer": null, "trainable": true, "use_bias": true, "kernel_constraint": null, "activation": "relu"}, "class_name": "Dense"}, {"inbound_nodes": [[["PRESSURE_INPUT", 0, 0, {}]]], "name": "C4_PWH_0", "config": {"bias_initializer": {"class_name": "Zeros", "config": {}}, "units": 50, "bias_regularizer": null, "kernel_initializer": {"class_name": "VarianceScaling", "config": {"seed": 3014, "scale": 1.0, "mode": "fan_avg", "distribution": "normal"}}, "name": "C4_PWH_0", "bias_constraint": null, "kernel_regularizer": {"class_name": "L1L2", "config": {"l1": 0.0, "l2": 9.999999747378752e-05}}, "activity_regularizer": null, "trainable": true, "use_bias": true, "kernel_constraint": null, "activation": "relu"}, "class_name": "Dense"}, {"inbound_nodes": [[["PRESSURE_INPUT", 0, 0, {}]]], "name": "B3_PWH_0", "config": {"bias_initializer": {"class_name": "Zeros", "config": {}}, "units": 50, "bias_regularizer": null, "kernel_initializer": {"class_name": "VarianceScaling", "config": {"seed": 3014, "scale": 1.0, "mode": "fan_avg", "distribution": "normal"}}, "name": "B3_PWH_0", "bias_constraint": null, "kernel_regularizer": {"class_name": "L1L2", "config": {"l1": 0.0, "l2": 9.999999747378752e-05}}, "activity_regularizer": null, "trainable": true, "use_bias": true, "kernel_constraint": null, "activation": "relu"}, "class_name": "Dense"}, {"inbound_nodes": [[["PRESSURE_INPUT", 0, 0, {}]]], "name": "B1_PWH_0", "config": {"bias_initializer": {"class_name": "Zeros", "config": {}}, "units": 50, "bias_regularizer": null, "kernel_initializer": {"class_name": "VarianceScaling", "config": {"seed": 3014, "scale": 1.0, "mode": "fan_avg", "distribution": "normal"}}, "name": "B1_PWH_0", "bias_constraint": null, "kernel_regularizer": {"class_name": "L1L2", "config": {"l1": 0.0, "l2": 9.999999747378752e-05}}, "activity_regularizer": null, "trainable": true, "use_bias": true, "kernel_constraint": null, "activation": "relu"}, "class_name": "Dense"}, {"inbound_nodes": [[["PRESSURE_INPUT", 0, 0, {}]]], "name": "D1_PWH_0", "config": {"bias_initializer": {"class_name": "Zeros", "config": {}}, "units": 50, "bias_regularizer": null, "kernel_initializer": {"class_name": "VarianceScaling", "config": {"seed": 3014, "scale": 1.0, "mode": "fan_avg", "distribution": "normal"}}, "name": "D1_PWH_0", "bias_constraint": null, "kernel_regularizer": {"class_name": "L1L2", "config": {"l1": 0.0, "l2": 9.999999747378752e-05}}, "activity_regularizer": null, "trainable": true, "use_bias": true, "kernel_constraint": null, "activation": "relu"}, "class_name": "Dense"}, {"inbound_nodes": [[["C1_PWH_0", 0, 0, {}]]], "name": "C1_PWH_1", "config": {"bias_initializer": {"class_name": "Zeros", "config": {}}, "units": 50, "bias_regularizer": null, "kernel_initializer": {"class_name": "VarianceScaling", "config": {"seed": 3014, "scale": 1.0, "mode": "fan_avg", "distribution": "normal"}}, "name": "C1_PWH_1", "bias_constraint": null, "kernel_regularizer": {"class_name": "L1L2", "config": {"l1": 0.0, "l2": 9.999999747378752e-05}}, "activity_regularizer": null, "trainable": true, "use_bias": true, "kernel_constraint": null, "activation": "relu"}, "class_name": "Dense"}, {"inbound_nodes": [[["C2_PWH_0", 0, 0, {}]]], "name": "C2_PWH_1", "config": {"bias_initializer": {"class_name": "Zeros", "config": {}}, "units": 50, "bias_regularizer": null, "kernel_initializer": {"class_name": "VarianceScaling", "config": {"seed": 3014, "scale": 1.0, "mode": "fan_avg", "distribution": "normal"}}, "name": "C2_PWH_1", "bias_constraint": null, "kernel_regularizer": {"class_name": "L1L2", "config": {"l1": 0.0, "l2": 9.999999747378752e-05}}, "activity_regularizer": null, "trainable": true, "use_bias": true, "kernel_constraint": null, "activation": "relu"}, "class_name": "Dense"}, {"inbound_nodes": [[["C3_PWH_0", 0, 0, {}]]], "name": "C3_PWH_1", "config": {"bias_initializer": {"class_name": "Zeros", "config": {}}, "units": 50, "bias_regularizer": null, "kernel_initializer": {"class_name": "VarianceScaling", "config": {"seed": 3014, "scale": 1.0, "mode": "fan_avg", "distribution": "normal"}}, "name": "C3_PWH_1", "bias_constraint": null, "kernel_regularizer": {"class_name": "L1L2", "config": {"l1": 0.0, "l2": 9.999999747378752e-05}}, "activity_regularizer": null, "trainable": true, "use_bias": true, "kernel_constraint": null, "activation": "relu"}, "class_name": "Dense"}, {"inbound_nodes": [[["C4_PWH_0", 0, 0, {}]]], "name": "C4_PWH_1", "config": {"bias_initializer": {"class_name": "Zeros", "config": {}}, "units": 50, "bias_regularizer": null, "kernel_initializer": {"class_name": "VarianceScaling", "config": {"seed": 3014, "scale": 1.0, "mode": "fan_avg", "distribution": "normal"}}, "name": "C4_PWH_1", "bias_constraint": null, "kernel_regularizer": {"class_name": "L1L2", "config": {"l1": 0.0, "l2": 9.999999747378752e-05}}, "activity_regularizer": null, "trainable": true, "use_bias": true, "kernel_constraint": null, "activation": "relu"}, "class_name": "Dense"}, {"inbound_nodes": [[["B3_PWH_0", 0, 0, {}]]], "name": "B3_PWH_1", "config": {"bias_initializer": {"class_name": "Zeros", "config": {}}, "units": 50, "bias_regularizer": null, "kernel_initializer": {"class_name": "VarianceScaling", "config": {"seed": 3014, "scale": 1.0, "mode": "fan_avg", "distribution": "normal"}}, "name": "B3_PWH_1", "bias_constraint": null, "kernel_regularizer": {"class_name": "L1L2", "config": {"l1": 0.0, "l2": 9.999999747378752e-05}}, "activity_regularizer": null, "trainable": true, "use_bias": true, "kernel_constraint": null, "activation": "relu"}, "class_name": "Dense"}, {"inbound_nodes": [[["B1_PWH_0", 0, 0, {}]]], "name": "B1_PWH_1", "config": {"bias_initializer": {"class_name": "Zeros", "config": {}}, "units": 50, "bias_regularizer": null, "kernel_initializer": {"class_name": "VarianceScaling", "config": {"seed": 3014, "scale": 1.0, "mode": "fan_avg", "distribution": "normal"}}, "name": "B1_PWH_1", "bias_constraint": null, "kernel_regularizer": {"class_name": "L1L2", "config": {"l1": 0.0, "l2": 9.999999747378752e-05}}, "activity_regularizer": null, "trainable": true, "use_bias": true, "kernel_constraint": null, "activation": "relu"}, "class_name": "Dense"}, {"inbound_nodes": [[["D1_PWH_0", 0, 0, {}]]], "name": "D1_PWH_1", "config": {"bias_initializer": {"class_name": "Zeros", "config": {}}, "units": 50, "bias_regularizer": null, "kernel_initializer": {"class_name": "VarianceScaling", "config": {"seed": 3014, "scale": 1.0, "mode": "fan_avg", "distribution": "normal"}}, "name": "D1_PWH_1", "bias_constraint": null, "kernel_regularizer": {"class_name": "L1L2", "config": {"l1": 0.0, "l2": 9.999999747378752e-05}}, "activity_regularizer": null, "trainable": true, "use_bias": true, "kernel_constraint": null, "activation": "relu"}, "class_name": "Dense"}, {"inbound_nodes": [[["C1_PWH_1", 0, 0, {}]]], "name": "C1_PWH_2", "config": {"bias_initializer": {"class_name": "Zeros", "config": {}}, "units": 50, "bias_regularizer": null, "kernel_initializer": {"class_name": "VarianceScaling", "config": {"seed": 3014, "scale": 1.0, "mode": "fan_avg", "distribution": "normal"}}, "name": "C1_PWH_2", "bias_constraint": null, "kernel_regularizer": {"class_name": "L1L2", "config": {"l1": 0.0, "l2": 9.999999747378752e-05}}, "activity_regularizer": null, "trainable": true, "use_bias": true, "kernel_constraint": null, "activation": "relu"}, "class_name": "Dense"}, {"inbound_nodes": [[["C2_PWH_1", 0, 0, {}]]], "name": "C2_PWH_2", "config": {"bias_initializer": {"class_name": "Zeros", "config": {}}, "units": 50, "bias_regularizer": null, "kernel_initializer": {"class_name": "VarianceScaling", "config": {"seed": 3014, "scale": 1.0, "mode": "fan_avg", "distribution": "normal"}}, "name": "C2_PWH_2", "bias_constraint": null, "kernel_regularizer": {"class_name": "L1L2", "config": {"l1": 0.0, "l2": 9.999999747378752e-05}}, "activity_regularizer": null, "trainable": true, "use_bias": true, "kernel_constraint": null, "activation": "relu"}, "class_name": "Dense"}, {"inbound_nodes": [[["C3_PWH_1", 0, 0, {}]]], "name": "C3_PWH_2", "config": {"bias_initializer": {"class_name": "Zeros", "config": {}}, "units": 50, "bias_regularizer": null, "kernel_initializer": {"class_name": "VarianceScaling", "config": {"seed": 3014, "scale": 1.0, "mode": "fan_avg", "distribution": "normal"}}, "name": "C3_PWH_2", "bias_constraint": null, "kernel_regularizer": {"class_name": "L1L2", "config": {"l1": 0.0, "l2": 9.999999747378752e-05}}, "activity_regularizer": null, "trainable": true, "use_bias": true, "kernel_constraint": null, "activation": "relu"}, "class_name": "Dense"}, {"inbound_nodes": [[["C4_PWH_1", 0, 0, {}]]], "name": "C4_PWH_2", "config": {"bias_initializer": {"class_name": "Zeros", "config": {}}, "units": 50, "bias_regularizer": null, "kernel_initializer": {"class_name": "VarianceScaling", "config": {"seed": 3014, "scale": 1.0, "mode": "fan_avg", "distribution": "normal"}}, "name": "C4_PWH_2", "bias_constraint": null, "kernel_regularizer": {"class_name": "L1L2", "config": {"l1": 0.0, "l2": 9.999999747378752e-05}}, "activity_regularizer": null, "trainable": true, "use_bias": true, "kernel_constraint": null, "activation": "relu"}, "class_name": "Dense"}, {"inbound_nodes": [[["B3_PWH_1", 0, 0, {}]]], "name": "B3_PWH_2", "config": {"bias_initializer": {"class_name": "Zeros", "config": {}}, "units": 50, "bias_regularizer": null, "kernel_initializer": {"class_name": "VarianceScaling", "config": {"seed": 3014, "scale": 1.0, "mode": "fan_avg", "distribution": "normal"}}, "name": "B3_PWH_2", "bias_constraint": null, "kernel_regularizer": {"class_name": "L1L2", "config": {"l1": 0.0, "l2": 9.999999747378752e-05}}, "activity_regularizer": null, "trainable": true, "use_bias": true, "kernel_constraint": null, "activation": "relu"}, "class_name": "Dense"}, {"inbound_nodes": [[["B1_PWH_1", 0, 0, {}]]], "name": "B1_PWH_2", "config": {"bias_initializer": {"class_name": "Zeros", "config": {}}, "units": 50, "bias_regularizer": null, "kernel_initializer": {"class_name": "VarianceScaling", "config": {"seed": 3014, "scale": 1.0, "mode": "fan_avg", "distribution": "normal"}}, "name": "B1_PWH_2", "bias_constraint": null, "kernel_regularizer": {"class_name": "L1L2", "config": {"l1": 0.0, "l2": 9.999999747378752e-05}}, "activity_regularizer": null, "trainable": true, "use_bias": true, "kernel_constraint": null, "activation": "relu"}, "class_name": "Dense"}, {"inbound_nodes": [[["D1_PWH_1", 0, 0, {}]]], "name": "D1_PWH_2", "config": {"bias_initializer": {"class_name": "Zeros", "config": {}}, "units": 50, "bias_regularizer": null, "kernel_initializer": {"class_name": "VarianceScaling", "config": {"seed": 3014, "scale": 1.0, "mode": "fan_avg", "distribution": "normal"}}, "name": "D1_PWH_2", "bias_constraint": null, "kernel_regularizer": {"class_name": "L1L2", "config": {"l1": 0.0, "l2": 9.999999747378752e-05}}, "activity_regularizer": null, "trainable": true, "use_bias": true, "kernel_constraint": null, "activation": "relu"}, "class_name": "Dense"}, {"inbound_nodes": [[["C1_PWH_2", 0, 0, {}]]], "name": "C1_PWH_out", "config": {"bias_initializer": {"class_name": "Zeros", "config": {}}, "units": 1, "bias_regularizer": null, "kernel_initializer": {"class_name": "VarianceScaling", "config": {"seed": 3014, "scale": 1.0, "mode": "fan_avg", "distribution": "normal"}}, "name": "C1_PWH_out", "bias_constraint": null, "kernel_regularizer": {"class_name": "L1L2", "config": {"l1": 0.0, "l2": 9.999999747378752e-05}}, "activity_regularizer": null, "trainable": true, "use_bias": true, "kernel_constraint": null, "activation": "linear"}, "class_name": "Dense"}, {"inbound_nodes": [[["C2_PWH_2", 0, 0, {}]]], "name": "C2_PWH_out", "config": {"bias_initializer": {"class_name": "Zeros", "config": {}}, "units": 1, "bias_regularizer": null, "kernel_initializer": {"class_name": "VarianceScaling", "config": {"seed": 3014, "scale": 1.0, "mode": "fan_avg", "distribution": "normal"}}, "name": "C2_PWH_out", "bias_constraint": null, "kernel_regularizer": {"class_name": "L1L2", "config": {"l1": 0.0, "l2": 9.999999747378752e-05}}, "activity_regularizer": null, "trainable": true, "use_bias": true, "kernel_constraint": null, "activation": "linear"}, "class_name": "Dense"}, {"inbound_nodes": [[["C3_PWH_2", 0, 0, {}]]], "name": "C3_PWH_out", "config": {"bias_initializer": {"class_name": "Zeros", "config": {}}, "units": 1, "bias_regularizer": null, "kernel_initializer": {"class_name": "VarianceScaling", "config": {"seed": 3014, "scale": 1.0, "mode": "fan_avg", "distribution": "normal"}}, "name": "C3_PWH_out", "bias_constraint": null, "kernel_regularizer": {"class_name": "L1L2", "config": {"l1": 0.0, "l2": 9.999999747378752e-05}}, "activity_regularizer": null, "trainable": true, "use_bias": true, "kernel_constraint": null, "activation": "linear"}, "class_name": "Dense"}, {"inbound_nodes": [[["C4_PWH_2", 0, 0, {}]]], "name": "C4_PWH_out", "config": {"bias_initializer": {"class_name": "Zeros", "config": {}}, "units": 1, "bias_regularizer": null, "kernel_initializer": {"class_name": "VarianceScaling", "config": {"seed": 3014, "scale": 1.0, "mode": "fan_avg", "distribution": "normal"}}, "name": "C4_PWH_out", "bias_constraint": null, "kernel_regularizer": {"class_name": "L1L2", "config": {"l1": 0.0, "l2": 9.999999747378752e-05}}, "activity_regularizer": null, "trainable": true, "use_bias": true, "kernel_constraint": null, "activation": "linear"}, "class_name": "Dense"}, {"inbound_nodes": [[["B3_PWH_2", 0, 0, {}]]], "name": "B3_PWH_out", "config": {"bias_initializer": {"class_name": "Zeros", "config": {}}, "units": 1, "bias_regularizer": null, "kernel_initializer": {"class_name": "VarianceScaling", "config": {"seed": 3014, "scale": 1.0, "mode": "fan_avg", "distribution": "normal"}}, "name": "B3_PWH_out", "bias_constraint": null, "kernel_regularizer": {"class_name": "L1L2", "config": {"l1": 0.0, "l2": 9.999999747378752e-05}}, "activity_regularizer": null, "trainable": true, "use_bias": true, "kernel_constraint": null, "activation": "linear"}, "class_name": "Dense"}, {"inbound_nodes": [[["B1_PWH_2", 0, 0, {}]]], "name": "B1_PWH_out", "config": {"bias_initializer": {"class_name": "Zeros", "config": {}}, "units": 1, "bias_regularizer": null, "kernel_initializer": {"class_name": "VarianceScaling", "config": {"seed": 3014, "scale": 1.0, "mode": "fan_avg", "distribution": "normal"}}, "name": "B1_PWH_out", "bias_constraint": null, "kernel_regularizer": {"class_name": "L1L2", "config": {"l1": 0.0, "l2": 9.999999747378752e-05}}, "activity_regularizer": null, "trainable": true, "use_bias": true, "kernel_constraint": null, "activation": "linear"}, "class_name": "Dense"}, {"inbound_nodes": [[["D1_PWH_2", 0, 0, {}]]], "name": "D1_PWH_out", "config": {"bias_initializer": {"class_name": "Zeros", "config": {}}, "units": 1, "bias_regularizer": null, "kernel_initializer": {"class_name": "VarianceScaling", "config": {"seed": 3014, "scale": 1.0, "mode": "fan_avg", "distribution": "normal"}}, "name": "D1_PWH_out", "bias_constraint": null, "kernel_regularizer": {"class_name": "L1L2", "config": {"l1": 0.0, "l2": 9.999999747378752e-05}}, "activity_regularizer": null, "trainable": true, "use_bias": true, "kernel_constraint": null, "activation": "linear"}, "class_name": "Dense"}], "output_layers": [["C1_PWH_out", 0, 0], ["C2_PWH_out", 0, 0], ["C3_PWH_out", 0, 0], ["C4_PWH_out", 0, 0], ["B3_PWH_out", 0, 0], ["B1_PWH_out", 0, 0], ["D1_PWH_out", 0, 0]], "input_layers": [["PRESSURE_INPUT", 0, 0]], "name": "model_1"}, "backend": "theano"}