{"config": {"name": "model_1", "output_layers": [["C1_out", 0, 0], ["C2_out", 0, 0], ["C3_out", 0, 0], ["C4_out", 0, 0], ["B1_out", 0, 0], ["B3_out", 0, 0], ["D1_out", 0, 0], ["GJOA_TOTAL", 0, 0]], "layers": [{"class_name": "InputLayer", "name": "C1", "config": {"batch_input_shape": [null, 4], "sparse": false, "dtype": "float32", "name": "C1"}, "inbound_nodes": []}, {"class_name": "InputLayer", "name": "C2", "config": {"batch_input_shape": [null, 3], "sparse": false, "dtype": "float32", "name": "C2"}, "inbound_nodes": []}, {"class_name": "InputLayer", "name": "C3", "config": {"batch_input_shape": [null, 4], "sparse": false, "dtype": "float32", "name": "C3"}, "inbound_nodes": []}, {"class_name": "InputLayer", "name": "C4", "config": {"batch_input_shape": [null, 4], "sparse": false, "dtype": "float32", "name": "C4"}, "inbound_nodes": []}, {"class_name": "InputLayer", "name": "B1", "config": {"batch_input_shape": [null, 4], "sparse": false, "dtype": "float32", "name": "B1"}, "inbound_nodes": []}, {"class_name": "InputLayer", "name": "B3", "config": {"batch_input_shape": [null, 4], "sparse": false, "dtype": "float32", "name": "B3"}, "inbound_nodes": []}, {"class_name": "InputLayer", "name": "D1", "config": {"batch_input_shape": [null, 3], "sparse": false, "dtype": "float32", "name": "D1"}, "inbound_nodes": []}, {"class_name": "Dense", "name": "dense_1", "config": {"kernel_regularizer": {"class_name": "L1L2", "config": {"l2": 9.999999747378752e-05, "l1": 0.0}}, "use_bias": true, "bias_regularizer": null, "name": "dense_1", "kernel_constraint": null, "bias_initializer": {"class_name": "Zeros", "config": {}}, "activation": "relu", "bias_constraint": null, "trainable": true, "activity_regularizer": null, "kernel_initializer": {"class_name": "VarianceScaling", "config": {"distribution": "normal", "scale": 1.0, "mode": "fan_avg", "seed": 3014}}, "units": 50}, "inbound_nodes": [[["C1", 0, 0, {}]]]}, {"class_name": "Dense", "name": "dense_6", "config": {"kernel_regularizer": {"class_name": "L1L2", "config": {"l2": 9.999999747378752e-05, "l1": 0.0}}, "use_bias": true, "bias_regularizer": null, "name": "dense_6", "kernel_constraint": null, "bias_initializer": {"class_name": "Zeros", "config": {}}, "activation": "relu", "bias_constraint": null, "trainable": true, "activity_regularizer": null, "kernel_initializer": {"class_name": "VarianceScaling", "config": {"distribution": "normal", "scale": 1.0, "mode": "fan_avg", "seed": 3014}}, "units": 50}, "inbound_nodes": [[["C2", 0, 0, {}]]]}, {"class_name": "Dense", "name": "dense_11", "config": {"kernel_regularizer": {"class_name": "L1L2", "config": {"l2": 9.999999747378752e-05, "l1": 0.0}}, "use_bias": true, "bias_regularizer": null, "name": "dense_11", "kernel_constraint": null, "bias_initializer": {"class_name": "Zeros", "config": {}}, "activation": "relu", "bias_constraint": null, "trainable": true, "activity_regularizer": null, "kernel_initializer": {"class_name": "VarianceScaling", "config": {"distribution": "normal", "scale": 1.0, "mode": "fan_avg", "seed": 3014}}, "units": 50}, "inbound_nodes": [[["C3", 0, 0, {}]]]}, {"class_name": "Dense", "name": "dense_16", "config": {"kernel_regularizer": {"class_name": "L1L2", "config": {"l2": 9.999999747378752e-05, "l1": 0.0}}, "use_bias": true, "bias_regularizer": null, "name": "dense_16", "kernel_constraint": null, "bias_initializer": {"class_name": "Zeros", "config": {}}, "activation": "relu", "bias_constraint": null, "trainable": true, "activity_regularizer": null, "kernel_initializer": {"class_name": "VarianceScaling", "config": {"distribution": "normal", "scale": 1.0, "mode": "fan_avg", "seed": 3014}}, "units": 50}, "inbound_nodes": [[["C4", 0, 0, {}]]]}, {"class_name": "Dense", "name": "dense_21", "config": {"kernel_regularizer": {"class_name": "L1L2", "config": {"l2": 9.999999747378752e-05, "l1": 0.0}}, "use_bias": true, "bias_regularizer": null, "name": "dense_21", "kernel_constraint": null, "bias_initializer": {"class_name": "Zeros", "config": {}}, "activation": "relu", "bias_constraint": null, "trainable": true, "activity_regularizer": null, "kernel_initializer": {"class_name": "VarianceScaling", "config": {"distribution": "normal", "scale": 1.0, "mode": "fan_avg", "seed": 3014}}, "units": 50}, "inbound_nodes": [[["B1", 0, 0, {}]]]}, {"class_name": "Dense", "name": "dense_26", "config": {"kernel_regularizer": {"class_name": "L1L2", "config": {"l2": 9.999999747378752e-05, "l1": 0.0}}, "use_bias": true, "bias_regularizer": null, "name": "dense_26", "kernel_constraint": null, "bias_initializer": {"class_name": "Zeros", "config": {}}, "activation": "relu", "bias_constraint": null, "trainable": true, "activity_regularizer": null, "kernel_initializer": {"class_name": "VarianceScaling", "config": {"distribution": "normal", "scale": 1.0, "mode": "fan_avg", "seed": 3014}}, "units": 50}, "inbound_nodes": [[["B3", 0, 0, {}]]]}, {"class_name": "Dense", "name": "dense_31", "config": {"kernel_regularizer": {"class_name": "L1L2", "config": {"l2": 9.999999747378752e-05, "l1": 0.0}}, "use_bias": true, "bias_regularizer": null, "name": "dense_31", "kernel_constraint": null, "bias_initializer": {"class_name": "Zeros", "config": {}}, "activation": "relu", "bias_constraint": null, "trainable": true, "activity_regularizer": null, "kernel_initializer": {"class_name": "VarianceScaling", "config": {"distribution": "normal", "scale": 1.0, "mode": "fan_avg", "seed": 3014}}, "units": 50}, "inbound_nodes": [[["D1", 0, 0, {}]]]}, {"class_name": "Dense", "name": "dense_2", "config": {"kernel_regularizer": {"class_name": "L1L2", "config": {"l2": 9.999999747378752e-05, "l1": 0.0}}, "use_bias": true, "bias_regularizer": null, "name": "dense_2", "kernel_constraint": null, "bias_initializer": {"class_name": "Zeros", "config": {}}, "activation": "relu", "bias_constraint": null, "trainable": true, "activity_regularizer": null, "kernel_initializer": {"class_name": "VarianceScaling", "config": {"distribution": "normal", "scale": 1.0, "mode": "fan_avg", "seed": 3014}}, "units": 50}, "inbound_nodes": [[["dense_1", 0, 0, {}]]]}, {"class_name": "Dense", "name": "dense_7", "config": {"kernel_regularizer": {"class_name": "L1L2", "config": {"l2": 9.999999747378752e-05, "l1": 0.0}}, "use_bias": true, "bias_regularizer": null, "name": "dense_7", "kernel_constraint": null, "bias_initializer": {"class_name": "Zeros", "config": {}}, "activation": "relu", "bias_constraint": null, "trainable": true, "activity_regularizer": null, "kernel_initializer": {"class_name": "VarianceScaling", "config": {"distribution": "normal", "scale": 1.0, "mode": "fan_avg", "seed": 3014}}, "units": 50}, "inbound_nodes": [[["dense_6", 0, 0, {}]]]}, {"class_name": "Dense", "name": "dense_12", "config": {"kernel_regularizer": {"class_name": "L1L2", "config": {"l2": 9.999999747378752e-05, "l1": 0.0}}, "use_bias": true, "bias_regularizer": null, "name": "dense_12", "kernel_constraint": null, "bias_initializer": {"class_name": "Zeros", "config": {}}, "activation": "relu", "bias_constraint": null, "trainable": true, "activity_regularizer": null, "kernel_initializer": {"class_name": "VarianceScaling", "config": {"distribution": "normal", "scale": 1.0, "mode": "fan_avg", "seed": 3014}}, "units": 50}, "inbound_nodes": [[["dense_11", 0, 0, {}]]]}, {"class_name": "Dense", "name": "dense_17", "config": {"kernel_regularizer": {"class_name": "L1L2", "config": {"l2": 9.999999747378752e-05, "l1": 0.0}}, "use_bias": true, "bias_regularizer": null, "name": "dense_17", "kernel_constraint": null, "bias_initializer": {"class_name": "Zeros", "config": {}}, "activation": "relu", "bias_constraint": null, "trainable": true, "activity_regularizer": null, "kernel_initializer": {"class_name": "VarianceScaling", "config": {"distribution": "normal", "scale": 1.0, "mode": "fan_avg", "seed": 3014}}, "units": 50}, "inbound_nodes": [[["dense_16", 0, 0, {}]]]}, {"class_name": "Dense", "name": "dense_22", "config": {"kernel_regularizer": {"class_name": "L1L2", "config": {"l2": 9.999999747378752e-05, "l1": 0.0}}, "use_bias": true, "bias_regularizer": null, "name": "dense_22", "kernel_constraint": null, "bias_initializer": {"class_name": "Zeros", "config": {}}, "activation": "relu", "bias_constraint": null, "trainable": true, "activity_regularizer": null, "kernel_initializer": {"class_name": "VarianceScaling", "config": {"distribution": "normal", "scale": 1.0, "mode": "fan_avg", "seed": 3014}}, "units": 50}, "inbound_nodes": [[["dense_21", 0, 0, {}]]]}, {"class_name": "Dense", "name": "dense_27", "config": {"kernel_regularizer": {"class_name": "L1L2", "config": {"l2": 9.999999747378752e-05, "l1": 0.0}}, "use_bias": true, "bias_regularizer": null, "name": "dense_27", "kernel_constraint": null, "bias_initializer": {"class_name": "Zeros", "config": {}}, "activation": "relu", "bias_constraint": null, "trainable": true, "activity_regularizer": null, "kernel_initializer": {"class_name": "VarianceScaling", "config": {"distribution": "normal", "scale": 1.0, "mode": "fan_avg", "seed": 3014}}, "units": 50}, "inbound_nodes": [[["dense_26", 0, 0, {}]]]}, {"class_name": "Dense", "name": "dense_32", "config": {"kernel_regularizer": {"class_name": "L1L2", "config": {"l2": 9.999999747378752e-05, "l1": 0.0}}, "use_bias": true, "bias_regularizer": null, "name": "dense_32", "kernel_constraint": null, "bias_initializer": {"class_name": "Zeros", "config": {}}, "activation": "relu", "bias_constraint": null, "trainable": true, "activity_regularizer": null, "kernel_initializer": {"class_name": "VarianceScaling", "config": {"distribution": "normal", "scale": 1.0, "mode": "fan_avg", "seed": 3014}}, "units": 50}, "inbound_nodes": [[["dense_31", 0, 0, {}]]]}, {"class_name": "Dense", "name": "dense_3", "config": {"kernel_regularizer": {"class_name": "L1L2", "config": {"l2": 9.999999747378752e-05, "l1": 0.0}}, "use_bias": true, "bias_regularizer": null, "name": "dense_3", "kernel_constraint": null, "bias_initializer": {"class_name": "Zeros", "config": {}}, "activation": "relu", "bias_constraint": null, "trainable": true, "activity_regularizer": null, "kernel_initializer": {"class_name": "VarianceScaling", "config": {"distribution": "normal", "scale": 1.0, "mode": "fan_avg", "seed": 3014}}, "units": 50}, "inbound_nodes": [[["dense_2", 0, 0, {}]]]}, {"class_name": "Dense", "name": "dense_8", "config": {"kernel_regularizer": {"class_name": "L1L2", "config": {"l2": 9.999999747378752e-05, "l1": 0.0}}, "use_bias": true, "bias_regularizer": null, "name": "dense_8", "kernel_constraint": null, "bias_initializer": {"class_name": "Zeros", "config": {}}, "activation": "relu", "bias_constraint": null, "trainable": true, "activity_regularizer": null, "kernel_initializer": {"class_name": "VarianceScaling", "config": {"distribution": "normal", "scale": 1.0, "mode": "fan_avg", "seed": 3014}}, "units": 50}, "inbound_nodes": [[["dense_7", 0, 0, {}]]]}, {"class_name": "Dense", "name": "dense_13", "config": {"kernel_regularizer": {"class_name": "L1L2", "config": {"l2": 9.999999747378752e-05, "l1": 0.0}}, "use_bias": true, "bias_regularizer": null, "name": "dense_13", "kernel_constraint": null, "bias_initializer": {"class_name": "Zeros", "config": {}}, "activation": "relu", "bias_constraint": null, "trainable": true, "activity_regularizer": null, "kernel_initializer": {"class_name": "VarianceScaling", "config": {"distribution": "normal", "scale": 1.0, "mode": "fan_avg", "seed": 3014}}, "units": 50}, "inbound_nodes": [[["dense_12", 0, 0, {}]]]}, {"class_name": "Dense", "name": "dense_18", "config": {"kernel_regularizer": {"class_name": "L1L2", "config": {"l2": 9.999999747378752e-05, "l1": 0.0}}, "use_bias": true, "bias_regularizer": null, "name": "dense_18", "kernel_constraint": null, "bias_initializer": {"class_name": "Zeros", "config": {}}, "activation": "relu", "bias_constraint": null, "trainable": true, "activity_regularizer": null, "kernel_initializer": {"class_name": "VarianceScaling", "config": {"distribution": "normal", "scale": 1.0, "mode": "fan_avg", "seed": 3014}}, "units": 50}, "inbound_nodes": [[["dense_17", 0, 0, {}]]]}, {"class_name": "Dense", "name": "dense_23", "config": {"kernel_regularizer": {"class_name": "L1L2", "config": {"l2": 9.999999747378752e-05, "l1": 0.0}}, "use_bias": true, "bias_regularizer": null, "name": "dense_23", "kernel_constraint": null, "bias_initializer": {"class_name": "Zeros", "config": {}}, "activation": "relu", "bias_constraint": null, "trainable": true, "activity_regularizer": null, "kernel_initializer": {"class_name": "VarianceScaling", "config": {"distribution": "normal", "scale": 1.0, "mode": "fan_avg", "seed": 3014}}, "units": 50}, "inbound_nodes": [[["dense_22", 0, 0, {}]]]}, {"class_name": "Dense", "name": "dense_28", "config": {"kernel_regularizer": {"class_name": "L1L2", "config": {"l2": 9.999999747378752e-05, "l1": 0.0}}, "use_bias": true, "bias_regularizer": null, "name": "dense_28", "kernel_constraint": null, "bias_initializer": {"class_name": "Zeros", "config": {}}, "activation": "relu", "bias_constraint": null, "trainable": true, "activity_regularizer": null, "kernel_initializer": {"class_name": "VarianceScaling", "config": {"distribution": "normal", "scale": 1.0, "mode": "fan_avg", "seed": 3014}}, "units": 50}, "inbound_nodes": [[["dense_27", 0, 0, {}]]]}, {"class_name": "Dense", "name": "dense_33", "config": {"kernel_regularizer": {"class_name": "L1L2", "config": {"l2": 9.999999747378752e-05, "l1": 0.0}}, "use_bias": true, "bias_regularizer": null, "name": "dense_33", "kernel_constraint": null, "bias_initializer": {"class_name": "Zeros", "config": {}}, "activation": "relu", "bias_constraint": null, "trainable": true, "activity_regularizer": null, "kernel_initializer": {"class_name": "VarianceScaling", "config": {"distribution": "normal", "scale": 1.0, "mode": "fan_avg", "seed": 3014}}, "units": 50}, "inbound_nodes": [[["dense_32", 0, 0, {}]]]}, {"class_name": "Dense", "name": "dense_4", "config": {"kernel_regularizer": {"class_name": "L1L2", "config": {"l2": 9.999999747378752e-05, "l1": 0.0}}, "use_bias": true, "bias_regularizer": null, "name": "dense_4", "kernel_constraint": null, "bias_initializer": {"class_name": "Zeros", "config": {}}, "activation": "relu", "bias_constraint": null, "trainable": true, "activity_regularizer": null, "kernel_initializer": {"class_name": "VarianceScaling", "config": {"distribution": "normal", "scale": 1.0, "mode": "fan_avg", "seed": 3014}}, "units": 50}, "inbound_nodes": [[["dense_3", 0, 0, {}]]]}, {"class_name": "Dense", "name": "dense_9", "config": {"kernel_regularizer": {"class_name": "L1L2", "config": {"l2": 9.999999747378752e-05, "l1": 0.0}}, "use_bias": true, "bias_regularizer": null, "name": "dense_9", "kernel_constraint": null, "bias_initializer": {"class_name": "Zeros", "config": {}}, "activation": "relu", "bias_constraint": null, "trainable": true, "activity_regularizer": null, "kernel_initializer": {"class_name": "VarianceScaling", "config": {"distribution": "normal", "scale": 1.0, "mode": "fan_avg", "seed": 3014}}, "units": 50}, "inbound_nodes": [[["dense_8", 0, 0, {}]]]}, {"class_name": "Dense", "name": "dense_14", "config": {"kernel_regularizer": {"class_name": "L1L2", "config": {"l2": 9.999999747378752e-05, "l1": 0.0}}, "use_bias": true, "bias_regularizer": null, "name": "dense_14", "kernel_constraint": null, "bias_initializer": {"class_name": "Zeros", "config": {}}, "activation": "relu", "bias_constraint": null, "trainable": true, "activity_regularizer": null, "kernel_initializer": {"class_name": "VarianceScaling", "config": {"distribution": "normal", "scale": 1.0, "mode": "fan_avg", "seed": 3014}}, "units": 50}, "inbound_nodes": [[["dense_13", 0, 0, {}]]]}, {"class_name": "Dense", "name": "dense_19", "config": {"kernel_regularizer": {"class_name": "L1L2", "config": {"l2": 9.999999747378752e-05, "l1": 0.0}}, "use_bias": true, "bias_regularizer": null, "name": "dense_19", "kernel_constraint": null, "bias_initializer": {"class_name": "Zeros", "config": {}}, "activation": "relu", "bias_constraint": null, "trainable": true, "activity_regularizer": null, "kernel_initializer": {"class_name": "VarianceScaling", "config": {"distribution": "normal", "scale": 1.0, "mode": "fan_avg", "seed": 3014}}, "units": 50}, "inbound_nodes": [[["dense_18", 0, 0, {}]]]}, {"class_name": "Dense", "name": "dense_24", "config": {"kernel_regularizer": {"class_name": "L1L2", "config": {"l2": 9.999999747378752e-05, "l1": 0.0}}, "use_bias": true, "bias_regularizer": null, "name": "dense_24", "kernel_constraint": null, "bias_initializer": {"class_name": "Zeros", "config": {}}, "activation": "relu", "bias_constraint": null, "trainable": true, "activity_regularizer": null, "kernel_initializer": {"class_name": "VarianceScaling", "config": {"distribution": "normal", "scale": 1.0, "mode": "fan_avg", "seed": 3014}}, "units": 50}, "inbound_nodes": [[["dense_23", 0, 0, {}]]]}, {"class_name": "Dense", "name": "dense_29", "config": {"kernel_regularizer": {"class_name": "L1L2", "config": {"l2": 9.999999747378752e-05, "l1": 0.0}}, "use_bias": true, "bias_regularizer": null, "name": "dense_29", "kernel_constraint": null, "bias_initializer": {"class_name": "Zeros", "config": {}}, "activation": "relu", "bias_constraint": null, "trainable": true, "activity_regularizer": null, "kernel_initializer": {"class_name": "VarianceScaling", "config": {"distribution": "normal", "scale": 1.0, "mode": "fan_avg", "seed": 3014}}, "units": 50}, "inbound_nodes": [[["dense_28", 0, 0, {}]]]}, {"class_name": "Dense", "name": "dense_34", "config": {"kernel_regularizer": {"class_name": "L1L2", "config": {"l2": 9.999999747378752e-05, "l1": 0.0}}, "use_bias": true, "bias_regularizer": null, "name": "dense_34", "kernel_constraint": null, "bias_initializer": {"class_name": "Zeros", "config": {}}, "activation": "relu", "bias_constraint": null, "trainable": true, "activity_regularizer": null, "kernel_initializer": {"class_name": "VarianceScaling", "config": {"distribution": "normal", "scale": 1.0, "mode": "fan_avg", "seed": 3014}}, "units": 50}, "inbound_nodes": [[["dense_33", 0, 0, {}]]]}, {"class_name": "InputLayer", "name": "OnOff_C1", "config": {"batch_input_shape": [null, 1], "sparse": false, "dtype": "float32", "name": "OnOff_C1"}, "inbound_nodes": []}, {"class_name": "Dense", "name": "dense_5", "config": {"kernel_regularizer": {"class_name": "L1L2", "config": {"l2": 9.999999747378752e-05, "l1": 0.0}}, "use_bias": true, "bias_regularizer": null, "name": "dense_5", "kernel_constraint": null, "bias_initializer": {"class_name": "Zeros", "config": {}}, "activation": "relu", "bias_constraint": null, "trainable": true, "activity_regularizer": null, "kernel_initializer": {"class_name": "VarianceScaling", "config": {"distribution": "normal", "scale": 1.0, "mode": "fan_avg", "seed": 3014}}, "units": 1}, "inbound_nodes": [[["dense_4", 0, 0, {}]]]}, {"class_name": "InputLayer", "name": "OnOff_C2", "config": {"batch_input_shape": [null, 1], "sparse": false, "dtype": "float32", "name": "OnOff_C2"}, "inbound_nodes": []}, {"class_name": "Dense", "name": "dense_10", "config": {"kernel_regularizer": {"class_name": "L1L2", "config": {"l2": 9.999999747378752e-05, "l1": 0.0}}, "use_bias": true, "bias_regularizer": null, "name": "dense_10", "kernel_constraint": null, "bias_initializer": {"class_name": "Zeros", "config": {}}, "activation": "relu", "bias_constraint": null, "trainable": true, "activity_regularizer": null, "kernel_initializer": {"class_name": "VarianceScaling", "config": {"distribution": "normal", "scale": 1.0, "mode": "fan_avg", "seed": 3014}}, "units": 1}, "inbound_nodes": [[["dense_9", 0, 0, {}]]]}, {"class_name": "InputLayer", "name": "OnOff_C3", "config": {"batch_input_shape": [null, 1], "sparse": false, "dtype": "float32", "name": "OnOff_C3"}, "inbound_nodes": []}, {"class_name": "Dense", "name": "dense_15", "config": {"kernel_regularizer": {"class_name": "L1L2", "config": {"l2": 9.999999747378752e-05, "l1": 0.0}}, "use_bias": true, "bias_regularizer": null, "name": "dense_15", "kernel_constraint": null, "bias_initializer": {"class_name": "Zeros", "config": {}}, "activation": "relu", "bias_constraint": null, "trainable": true, "activity_regularizer": null, "kernel_initializer": {"class_name": "VarianceScaling", "config": {"distribution": "normal", "scale": 1.0, "mode": "fan_avg", "seed": 3014}}, "units": 1}, "inbound_nodes": [[["dense_14", 0, 0, {}]]]}, {"class_name": "InputLayer", "name": "OnOff_C4", "config": {"batch_input_shape": [null, 1], "sparse": false, "dtype": "float32", "name": "OnOff_C4"}, "inbound_nodes": []}, {"class_name": "Dense", "name": "dense_20", "config": {"kernel_regularizer": {"class_name": "L1L2", "config": {"l2": 9.999999747378752e-05, "l1": 0.0}}, "use_bias": true, "bias_regularizer": null, "name": "dense_20", "kernel_constraint": null, "bias_initializer": {"class_name": "Zeros", "config": {}}, "activation": "relu", "bias_constraint": null, "trainable": true, "activity_regularizer": null, "kernel_initializer": {"class_name": "VarianceScaling", "config": {"distribution": "normal", "scale": 1.0, "mode": "fan_avg", "seed": 3014}}, "units": 1}, "inbound_nodes": [[["dense_19", 0, 0, {}]]]}, {"class_name": "InputLayer", "name": "OnOff_B1", "config": {"batch_input_shape": [null, 1], "sparse": false, "dtype": "float32", "name": "OnOff_B1"}, "inbound_nodes": []}, {"class_name": "Dense", "name": "dense_25", "config": {"kernel_regularizer": {"class_name": "L1L2", "config": {"l2": 9.999999747378752e-05, "l1": 0.0}}, "use_bias": true, "bias_regularizer": null, "name": "dense_25", "kernel_constraint": null, "bias_initializer": {"class_name": "Zeros", "config": {}}, "activation": "relu", "bias_constraint": null, "trainable": true, "activity_regularizer": null, "kernel_initializer": {"class_name": "VarianceScaling", "config": {"distribution": "normal", "scale": 1.0, "mode": "fan_avg", "seed": 3014}}, "units": 1}, "inbound_nodes": [[["dense_24", 0, 0, {}]]]}, {"class_name": "InputLayer", "name": "OnOff_B3", "config": {"batch_input_shape": [null, 1], "sparse": false, "dtype": "float32", "name": "OnOff_B3"}, "inbound_nodes": []}, {"class_name": "Dense", "name": "dense_30", "config": {"kernel_regularizer": {"class_name": "L1L2", "config": {"l2": 9.999999747378752e-05, "l1": 0.0}}, "use_bias": true, "bias_regularizer": null, "name": "dense_30", "kernel_constraint": null, "bias_initializer": {"class_name": "Zeros", "config": {}}, "activation": "relu", "bias_constraint": null, "trainable": true, "activity_regularizer": null, "kernel_initializer": {"class_name": "VarianceScaling", "config": {"distribution": "normal", "scale": 1.0, "mode": "fan_avg", "seed": 3014}}, "units": 1}, "inbound_nodes": [[["dense_29", 0, 0, {}]]]}, {"class_name": "InputLayer", "name": "OnOff_D1", "config": {"batch_input_shape": [null, 1], "sparse": false, "dtype": "float32", "name": "OnOff_D1"}, "inbound_nodes": []}, {"class_name": "Dense", "name": "dense_35", "config": {"kernel_regularizer": {"class_name": "L1L2", "config": {"l2": 9.999999747378752e-05, "l1": 0.0}}, "use_bias": true, "bias_regularizer": null, "name": "dense_35", "kernel_constraint": null, "bias_initializer": {"class_name": "Zeros", "config": {}}, "activation": "relu", "bias_constraint": null, "trainable": true, "activity_regularizer": null, "kernel_initializer": {"class_name": "VarianceScaling", "config": {"distribution": "normal", "scale": 1.0, "mode": "fan_avg", "seed": 3014}}, "units": 1}, "inbound_nodes": [[["dense_34", 0, 0, {}]]]}, {"class_name": "Multiply", "name": "C1_out", "config": {"name": "C1_out", "trainable": true}, "inbound_nodes": [[["OnOff_C1", 0, 0, {}], ["dense_5", 0, 0, {}]]]}, {"class_name": "Multiply", "name": "C2_out", "config": {"name": "C2_out", "trainable": true}, "inbound_nodes": [[["OnOff_C2", 0, 0, {}], ["dense_10", 0, 0, {}]]]}, {"class_name": "Multiply", "name": "C3_out", "config": {"name": "C3_out", "trainable": true}, "inbound_nodes": [[["OnOff_C3", 0, 0, {}], ["dense_15", 0, 0, {}]]]}, {"class_name": "Multiply", "name": "C4_out", "config": {"name": "C4_out", "trainable": true}, "inbound_nodes": [[["OnOff_C4", 0, 0, {}], ["dense_20", 0, 0, {}]]]}, {"class_name": "Multiply", "name": "B1_out", "config": {"name": "B1_out", "trainable": true}, "inbound_nodes": [[["OnOff_B1", 0, 0, {}], ["dense_25", 0, 0, {}]]]}, {"class_name": "Multiply", "name": "B3_out", "config": {"name": "B3_out", "trainable": true}, "inbound_nodes": [[["OnOff_B3", 0, 0, {}], ["dense_30", 0, 0, {}]]]}, {"class_name": "Multiply", "name": "D1_out", "config": {"name": "D1_out", "trainable": true}, "inbound_nodes": [[["OnOff_D1", 0, 0, {}], ["dense_35", 0, 0, {}]]]}, {"class_name": "Add", "name": "GJOA_TOTAL", "config": {"name": "GJOA_TOTAL", "trainable": true}, "inbound_nodes": [[["C1_out", 0, 0, {}], ["C2_out", 0, 0, {}], ["C3_out", 0, 0, {}], ["C4_out", 0, 0, {}], ["B1_out", 0, 0, {}], ["B3_out", 0, 0, {}], ["D1_out", 0, 0, {}]]]}], "input_layers": [["C1", 0, 0], ["C2", 0, 0], ["C3", 0, 0], ["C4", 0, 0], ["B1", 0, 0], ["B3", 0, 0], ["D1", 0, 0], ["OnOff_C1", 0, 0], ["OnOff_C2", 0, 0], ["OnOff_C3", 0, 0], ["OnOff_C4", 0, 0], ["OnOff_B1", 0, 0], ["OnOff_B3", 0, 0], ["OnOff_D1", 0, 0]]}, "class_name": "Model", "backend": "theano", "keras_version": "2.0.1"}