{"class_name": "Model", "backend": "theano", "keras_version": "2.0.1", "config": {"name": "model_1", "input_layers": [["C1", 0, 0], ["C2", 0, 0], ["C3", 0, 0], ["C4", 0, 0], ["B1", 0, 0], ["B3", 0, 0], ["D1", 0, 0], ["OnOff_C1", 0, 0], ["OnOff_C2", 0, 0], ["OnOff_C3", 0, 0], ["OnOff_C4", 0, 0], ["OnOff_B1", 0, 0], ["OnOff_B3", 0, 0], ["OnOff_D1", 0, 0]], "layers": [{"name": "C1", "class_name": "InputLayer", "inbound_nodes": [], "config": {"name": "C1", "sparse": false, "batch_input_shape": [null, 4], "dtype": "float32"}}, {"name": "C2", "class_name": "InputLayer", "inbound_nodes": [], "config": {"name": "C2", "sparse": false, "batch_input_shape": [null, 3], "dtype": "float32"}}, {"name": "C3", "class_name": "InputLayer", "inbound_nodes": [], "config": {"name": "C3", "sparse": false, "batch_input_shape": [null, 4], "dtype": "float32"}}, {"name": "C4", "class_name": "InputLayer", "inbound_nodes": [], "config": {"name": "C4", "sparse": false, "batch_input_shape": [null, 4], "dtype": "float32"}}, {"name": "B1", "class_name": "InputLayer", "inbound_nodes": [], "config": {"name": "B1", "sparse": false, "batch_input_shape": [null, 4], "dtype": "float32"}}, {"name": "B3", "class_name": "InputLayer", "inbound_nodes": [], "config": {"name": "B3", "sparse": false, "batch_input_shape": [null, 4], "dtype": "float32"}}, {"name": "D1", "class_name": "InputLayer", "inbound_nodes": [], "config": {"name": "D1", "sparse": false, "batch_input_shape": [null, 3], "dtype": "float32"}}, {"name": "dense_1", "class_name": "Dense", "inbound_nodes": [[["C1", 0, 0, {}]]], "config": {"use_bias": true, "bias_initializer": {"class_name": "Zeros", "config": {}}, "kernel_constraint": null, "bias_constraint": null, "activation": "relu", "kernel_regularizer": {"class_name": "L1L2", "config": {"l1": 0.0, "l2": 4.999999873689376e-05}}, "units": 50, "name": "dense_1", "kernel_initializer": {"class_name": "VarianceScaling", "config": {"distribution": "normal", "mode": "fan_avg", "scale": 1.0, "seed": 3014}}, "trainable": true, "bias_regularizer": null, "activity_regularizer": null}}, {"name": "dense_4", "class_name": "Dense", "inbound_nodes": [[["C2", 0, 0, {}]]], "config": {"use_bias": true, "bias_initializer": {"class_name": "Zeros", "config": {}}, "kernel_constraint": null, "bias_constraint": null, "activation": "relu", "kernel_regularizer": {"class_name": "L1L2", "config": {"l1": 0.0, "l2": 4.999999873689376e-05}}, "units": 50, "name": "dense_4", "kernel_initializer": {"class_name": "VarianceScaling", "config": {"distribution": "normal", "mode": "fan_avg", "scale": 1.0, "seed": 3014}}, "trainable": true, "bias_regularizer": null, "activity_regularizer": null}}, {"name": "dense_7", "class_name": "Dense", "inbound_nodes": [[["C3", 0, 0, {}]]], "config": {"use_bias": true, "bias_initializer": {"class_name": "Zeros", "config": {}}, "kernel_constraint": null, "bias_constraint": null, "activation": "relu", "kernel_regularizer": {"class_name": "L1L2", "config": {"l1": 0.0, "l2": 4.999999873689376e-05}}, "units": 50, "name": "dense_7", "kernel_initializer": {"class_name": "VarianceScaling", "config": {"distribution": "normal", "mode": "fan_avg", "scale": 1.0, "seed": 3014}}, "trainable": true, "bias_regularizer": null, "activity_regularizer": null}}, {"name": "dense_10", "class_name": "Dense", "inbound_nodes": [[["C4", 0, 0, {}]]], "config": {"use_bias": true, "bias_initializer": {"class_name": "Zeros", "config": {}}, "kernel_constraint": null, "bias_constraint": null, "activation": "relu", "kernel_regularizer": {"class_name": "L1L2", "config": {"l1": 0.0, "l2": 4.999999873689376e-05}}, "units": 50, "name": "dense_10", "kernel_initializer": {"class_name": "VarianceScaling", "config": {"distribution": "normal", "mode": "fan_avg", "scale": 1.0, "seed": 3014}}, "trainable": true, "bias_regularizer": null, "activity_regularizer": null}}, {"name": "dense_13", "class_name": "Dense", "inbound_nodes": [[["B1", 0, 0, {}]]], "config": {"use_bias": true, "bias_initializer": {"class_name": "Zeros", "config": {}}, "kernel_constraint": null, "bias_constraint": null, "activation": "relu", "kernel_regularizer": {"class_name": "L1L2", "config": {"l1": 0.0, "l2": 4.999999873689376e-05}}, "units": 50, "name": "dense_13", "kernel_initializer": {"class_name": "VarianceScaling", "config": {"distribution": "normal", "mode": "fan_avg", "scale": 1.0, "seed": 3014}}, "trainable": true, "bias_regularizer": null, "activity_regularizer": null}}, {"name": "dense_16", "class_name": "Dense", "inbound_nodes": [[["B3", 0, 0, {}]]], "config": {"use_bias": true, "bias_initializer": {"class_name": "Zeros", "config": {}}, "kernel_constraint": null, "bias_constraint": null, "activation": "relu", "kernel_regularizer": {"class_name": "L1L2", "config": {"l1": 0.0, "l2": 4.999999873689376e-05}}, "units": 50, "name": "dense_16", "kernel_initializer": {"class_name": "VarianceScaling", "config": {"distribution": "normal", "mode": "fan_avg", "scale": 1.0, "seed": 3014}}, "trainable": true, "bias_regularizer": null, "activity_regularizer": null}}, {"name": "dense_19", "class_name": "Dense", "inbound_nodes": [[["D1", 0, 0, {}]]], "config": {"use_bias": true, "bias_initializer": {"class_name": "Zeros", "config": {}}, "kernel_constraint": null, "bias_constraint": null, "activation": "relu", "kernel_regularizer": {"class_name": "L1L2", "config": {"l1": 0.0, "l2": 4.999999873689376e-05}}, "units": 50, "name": "dense_19", "kernel_initializer": {"class_name": "VarianceScaling", "config": {"distribution": "normal", "mode": "fan_avg", "scale": 1.0, "seed": 3014}}, "trainable": true, "bias_regularizer": null, "activity_regularizer": null}}, {"name": "dense_2", "class_name": "Dense", "inbound_nodes": [[["dense_1", 0, 0, {}]]], "config": {"use_bias": true, "bias_initializer": {"class_name": "Zeros", "config": {}}, "kernel_constraint": null, "bias_constraint": null, "activation": "relu", "kernel_regularizer": {"class_name": "L1L2", "config": {"l1": 0.0, "l2": 4.999999873689376e-05}}, "units": 50, "name": "dense_2", "kernel_initializer": {"class_name": "VarianceScaling", "config": {"distribution": "normal", "mode": "fan_avg", "scale": 1.0, "seed": 3014}}, "trainable": true, "bias_regularizer": null, "activity_regularizer": null}}, {"name": "dense_5", "class_name": "Dense", "inbound_nodes": [[["dense_4", 0, 0, {}]]], "config": {"use_bias": true, "bias_initializer": {"class_name": "Zeros", "config": {}}, "kernel_constraint": null, "bias_constraint": null, "activation": "relu", "kernel_regularizer": {"class_name": "L1L2", "config": {"l1": 0.0, "l2": 4.999999873689376e-05}}, "units": 50, "name": "dense_5", "kernel_initializer": {"class_name": "VarianceScaling", "config": {"distribution": "normal", "mode": "fan_avg", "scale": 1.0, "seed": 3014}}, "trainable": true, "bias_regularizer": null, "activity_regularizer": null}}, {"name": "dense_8", "class_name": "Dense", "inbound_nodes": [[["dense_7", 0, 0, {}]]], "config": {"use_bias": true, "bias_initializer": {"class_name": "Zeros", "config": {}}, "kernel_constraint": null, "bias_constraint": null, "activation": "relu", "kernel_regularizer": {"class_name": "L1L2", "config": {"l1": 0.0, "l2": 4.999999873689376e-05}}, "units": 50, "name": "dense_8", "kernel_initializer": {"class_name": "VarianceScaling", "config": {"distribution": "normal", "mode": "fan_avg", "scale": 1.0, "seed": 3014}}, "trainable": true, "bias_regularizer": null, "activity_regularizer": null}}, {"name": "dense_11", "class_name": "Dense", "inbound_nodes": [[["dense_10", 0, 0, {}]]], "config": {"use_bias": true, "bias_initializer": {"class_name": "Zeros", "config": {}}, "kernel_constraint": null, "bias_constraint": null, "activation": "relu", "kernel_regularizer": {"class_name": "L1L2", "config": {"l1": 0.0, "l2": 4.999999873689376e-05}}, "units": 50, "name": "dense_11", "kernel_initializer": {"class_name": "VarianceScaling", "config": {"distribution": "normal", "mode": "fan_avg", "scale": 1.0, "seed": 3014}}, "trainable": true, "bias_regularizer": null, "activity_regularizer": null}}, {"name": "dense_14", "class_name": "Dense", "inbound_nodes": [[["dense_13", 0, 0, {}]]], "config": {"use_bias": true, "bias_initializer": {"class_name": "Zeros", "config": {}}, "kernel_constraint": null, "bias_constraint": null, "activation": "relu", "kernel_regularizer": {"class_name": "L1L2", "config": {"l1": 0.0, "l2": 4.999999873689376e-05}}, "units": 50, "name": "dense_14", "kernel_initializer": {"class_name": "VarianceScaling", "config": {"distribution": "normal", "mode": "fan_avg", "scale": 1.0, "seed": 3014}}, "trainable": true, "bias_regularizer": null, "activity_regularizer": null}}, {"name": "dense_17", "class_name": "Dense", "inbound_nodes": [[["dense_16", 0, 0, {}]]], "config": {"use_bias": true, "bias_initializer": {"class_name": "Zeros", "config": {}}, "kernel_constraint": null, "bias_constraint": null, "activation": "relu", "kernel_regularizer": {"class_name": "L1L2", "config": {"l1": 0.0, "l2": 4.999999873689376e-05}}, "units": 50, "name": "dense_17", "kernel_initializer": {"class_name": "VarianceScaling", "config": {"distribution": "normal", "mode": "fan_avg", "scale": 1.0, "seed": 3014}}, "trainable": true, "bias_regularizer": null, "activity_regularizer": null}}, {"name": "dense_20", "class_name": "Dense", "inbound_nodes": [[["dense_19", 0, 0, {}]]], "config": {"use_bias": true, "bias_initializer": {"class_name": "Zeros", "config": {}}, "kernel_constraint": null, "bias_constraint": null, "activation": "relu", "kernel_regularizer": {"class_name": "L1L2", "config": {"l1": 0.0, "l2": 4.999999873689376e-05}}, "units": 50, "name": "dense_20", "kernel_initializer": {"class_name": "VarianceScaling", "config": {"distribution": "normal", "mode": "fan_avg", "scale": 1.0, "seed": 3014}}, "trainable": true, "bias_regularizer": null, "activity_regularizer": null}}, {"name": "OnOff_C1", "class_name": "InputLayer", "inbound_nodes": [], "config": {"name": "OnOff_C1", "sparse": false, "batch_input_shape": [null, 1], "dtype": "float32"}}, {"name": "dense_3", "class_name": "Dense", "inbound_nodes": [[["dense_2", 0, 0, {}]]], "config": {"use_bias": true, "bias_initializer": {"class_name": "Zeros", "config": {}}, "kernel_constraint": null, "bias_constraint": null, "activation": "relu", "kernel_regularizer": {"class_name": "L1L2", "config": {"l1": 0.0, "l2": 4.999999873689376e-05}}, "units": 1, "name": "dense_3", "kernel_initializer": {"class_name": "VarianceScaling", "config": {"distribution": "normal", "mode": "fan_avg", "scale": 1.0, "seed": 3014}}, "trainable": true, "bias_regularizer": null, "activity_regularizer": null}}, {"name": "OnOff_C2", "class_name": "InputLayer", "inbound_nodes": [], "config": {"name": "OnOff_C2", "sparse": false, "batch_input_shape": [null, 1], "dtype": "float32"}}, {"name": "dense_6", "class_name": "Dense", "inbound_nodes": [[["dense_5", 0, 0, {}]]], "config": {"use_bias": true, "bias_initializer": {"class_name": "Zeros", "config": {}}, "kernel_constraint": null, "bias_constraint": null, "activation": "relu", "kernel_regularizer": {"class_name": "L1L2", "config": {"l1": 0.0, "l2": 4.999999873689376e-05}}, "units": 1, "name": "dense_6", "kernel_initializer": {"class_name": "VarianceScaling", "config": {"distribution": "normal", "mode": "fan_avg", "scale": 1.0, "seed": 3014}}, "trainable": true, "bias_regularizer": null, "activity_regularizer": null}}, {"name": "OnOff_C3", "class_name": "InputLayer", "inbound_nodes": [], "config": {"name": "OnOff_C3", "sparse": false, "batch_input_shape": [null, 1], "dtype": "float32"}}, {"name": "dense_9", "class_name": "Dense", "inbound_nodes": [[["dense_8", 0, 0, {}]]], "config": {"use_bias": true, "bias_initializer": {"class_name": "Zeros", "config": {}}, "kernel_constraint": null, "bias_constraint": null, "activation": "relu", "kernel_regularizer": {"class_name": "L1L2", "config": {"l1": 0.0, "l2": 4.999999873689376e-05}}, "units": 1, "name": "dense_9", "kernel_initializer": {"class_name": "VarianceScaling", "config": {"distribution": "normal", "mode": "fan_avg", "scale": 1.0, "seed": 3014}}, "trainable": true, "bias_regularizer": null, "activity_regularizer": null}}, {"name": "OnOff_C4", "class_name": "InputLayer", "inbound_nodes": [], "config": {"name": "OnOff_C4", "sparse": false, "batch_input_shape": [null, 1], "dtype": "float32"}}, {"name": "dense_12", "class_name": "Dense", "inbound_nodes": [[["dense_11", 0, 0, {}]]], "config": {"use_bias": true, "bias_initializer": {"class_name": "Zeros", "config": {}}, "kernel_constraint": null, "bias_constraint": null, "activation": "relu", "kernel_regularizer": {"class_name": "L1L2", "config": {"l1": 0.0, "l2": 4.999999873689376e-05}}, "units": 1, "name": "dense_12", "kernel_initializer": {"class_name": "VarianceScaling", "config": {"distribution": "normal", "mode": "fan_avg", "scale": 1.0, "seed": 3014}}, "trainable": true, "bias_regularizer": null, "activity_regularizer": null}}, {"name": "OnOff_B1", "class_name": "InputLayer", "inbound_nodes": [], "config": {"name": "OnOff_B1", "sparse": false, "batch_input_shape": [null, 1], "dtype": "float32"}}, {"name": "dense_15", "class_name": "Dense", "inbound_nodes": [[["dense_14", 0, 0, {}]]], "config": {"use_bias": true, "bias_initializer": {"class_name": "Zeros", "config": {}}, "kernel_constraint": null, "bias_constraint": null, "activation": "relu", "kernel_regularizer": {"class_name": "L1L2", "config": {"l1": 0.0, "l2": 4.999999873689376e-05}}, "units": 1, "name": "dense_15", "kernel_initializer": {"class_name": "VarianceScaling", "config": {"distribution": "normal", "mode": "fan_avg", "scale": 1.0, "seed": 3014}}, "trainable": true, "bias_regularizer": null, "activity_regularizer": null}}, {"name": "OnOff_B3", "class_name": "InputLayer", "inbound_nodes": [], "config": {"name": "OnOff_B3", "sparse": false, "batch_input_shape": [null, 1], "dtype": "float32"}}, {"name": "dense_18", "class_name": "Dense", "inbound_nodes": [[["dense_17", 0, 0, {}]]], "config": {"use_bias": true, "bias_initializer": {"class_name": "Zeros", "config": {}}, "kernel_constraint": null, "bias_constraint": null, "activation": "relu", "kernel_regularizer": {"class_name": "L1L2", "config": {"l1": 0.0, "l2": 4.999999873689376e-05}}, "units": 1, "name": "dense_18", "kernel_initializer": {"class_name": "VarianceScaling", "config": {"distribution": "normal", "mode": "fan_avg", "scale": 1.0, "seed": 3014}}, "trainable": true, "bias_regularizer": null, "activity_regularizer": null}}, {"name": "OnOff_D1", "class_name": "InputLayer", "inbound_nodes": [], "config": {"name": "OnOff_D1", "sparse": false, "batch_input_shape": [null, 1], "dtype": "float32"}}, {"name": "dense_21", "class_name": "Dense", "inbound_nodes": [[["dense_20", 0, 0, {}]]], "config": {"use_bias": true, "bias_initializer": {"class_name": "Zeros", "config": {}}, "kernel_constraint": null, "bias_constraint": null, "activation": "relu", "kernel_regularizer": {"class_name": "L1L2", "config": {"l1": 0.0, "l2": 4.999999873689376e-05}}, "units": 1, "name": "dense_21", "kernel_initializer": {"class_name": "VarianceScaling", "config": {"distribution": "normal", "mode": "fan_avg", "scale": 1.0, "seed": 3014}}, "trainable": true, "bias_regularizer": null, "activity_regularizer": null}}, {"name": "C1_out", "class_name": "Multiply", "inbound_nodes": [[["OnOff_C1", 0, 0, {}], ["dense_3", 0, 0, {}]]], "config": {"name": "C1_out", "trainable": true}}, {"name": "C2_out", "class_name": "Multiply", "inbound_nodes": [[["OnOff_C2", 0, 0, {}], ["dense_6", 0, 0, {}]]], "config": {"name": "C2_out", "trainable": true}}, {"name": "C3_out", "class_name": "Multiply", "inbound_nodes": [[["OnOff_C3", 0, 0, {}], ["dense_9", 0, 0, {}]]], "config": {"name": "C3_out", "trainable": true}}, {"name": "C4_out", "class_name": "Multiply", "inbound_nodes": [[["OnOff_C4", 0, 0, {}], ["dense_12", 0, 0, {}]]], "config": {"name": "C4_out", "trainable": true}}, {"name": "B1_out", "class_name": "Multiply", "inbound_nodes": [[["OnOff_B1", 0, 0, {}], ["dense_15", 0, 0, {}]]], "config": {"name": "B1_out", "trainable": true}}, {"name": "B3_out", "class_name": "Multiply", "inbound_nodes": [[["OnOff_B3", 0, 0, {}], ["dense_18", 0, 0, {}]]], "config": {"name": "B3_out", "trainable": true}}, {"name": "D1_out", "class_name": "Multiply", "inbound_nodes": [[["OnOff_D1", 0, 0, {}], ["dense_21", 0, 0, {}]]], "config": {"name": "D1_out", "trainable": true}}, {"name": "GJOA_TOTAL", "class_name": "Add", "inbound_nodes": [[["C1_out", 0, 0, {}], ["C2_out", 0, 0, {}], ["C3_out", 0, 0, {}], ["C4_out", 0, 0, {}], ["B1_out", 0, 0, {}], ["B3_out", 0, 0, {}], ["D1_out", 0, 0, {}]]], "config": {"name": "GJOA_TOTAL", "trainable": true}}], "output_layers": [["C1_out", 0, 0], ["C2_out", 0, 0], ["C3_out", 0, 0], ["C4_out", 0, 0], ["B1_out", 0, 0], ["B3_out", 0, 0], ["D1_out", 0, 0], ["GJOA_TOTAL", 0, 0]]}}