{"keras_version": "2.0.1", "backend": "theano", "config": {"name": "model_1", "input_layers": [["F1", 0, 0], ["B2", 0, 0], ["D3", 0, 0], ["E1", 0, 0], ["OnOff_F1", 0, 0], ["OnOff_B2", 0, 0], ["OnOff_D3", 0, 0], ["OnOff_E1", 0, 0]], "layers": [{"name": "F1", "config": {"batch_input_shape": [null, 4], "sparse": false, "dtype": "float32", "name": "F1"}, "class_name": "InputLayer", "inbound_nodes": []}, {"name": "B2", "config": {"batch_input_shape": [null, 4], "sparse": false, "dtype": "float32", "name": "B2"}, "class_name": "InputLayer", "inbound_nodes": []}, {"name": "D3", "config": {"batch_input_shape": [null, 4], "sparse": false, "dtype": "float32", "name": "D3"}, "class_name": "InputLayer", "inbound_nodes": []}, {"name": "E1", "config": {"batch_input_shape": [null, 4], "sparse": false, "dtype": "float32", "name": "E1"}, "class_name": "InputLayer", "inbound_nodes": []}, {"name": "dense_1", "config": {"activation": "relu", "bias_constraint": null, "trainable": true, "kernel_constraint": null, "kernel_regularizer": {"config": {"l1": 0.0, "l2": 9.999999747378752e-05}, "class_name": "L1L2"}, "name": "dense_1", "bias_regularizer": null, "bias_initializer": {"config": {}, "class_name": "Zeros"}, "use_bias": true, "kernel_initializer": {"config": {"mode": "fan_avg", "scale": 1.0, "seed": 9035, "distribution": "normal"}, "class_name": "VarianceScaling"}, "activity_regularizer": null, "units": 50}, "class_name": "Dense", "inbound_nodes": [[["F1", 0, 0, {}]]]}, {"name": "dense_4", "config": {"activation": "relu", "bias_constraint": null, "trainable": true, "kernel_constraint": null, "kernel_regularizer": {"config": {"l1": 0.0, "l2": 9.999999747378752e-05}, "class_name": "L1L2"}, "name": "dense_4", "bias_regularizer": null, "bias_initializer": {"config": {}, "class_name": "Zeros"}, "use_bias": true, "kernel_initializer": {"config": {"mode": "fan_avg", "scale": 1.0, "seed": 9035, "distribution": "normal"}, "class_name": "VarianceScaling"}, "activity_regularizer": null, "units": 50}, "class_name": "Dense", "inbound_nodes": [[["B2", 0, 0, {}]]]}, {"name": "dense_7", "config": {"activation": "relu", "bias_constraint": null, "trainable": true, "kernel_constraint": null, "kernel_regularizer": {"config": {"l1": 0.0, "l2": 9.999999747378752e-05}, "class_name": "L1L2"}, "name": "dense_7", "bias_regularizer": null, "bias_initializer": {"config": {}, "class_name": "Zeros"}, "use_bias": true, "kernel_initializer": {"config": {"mode": "fan_avg", "scale": 1.0, "seed": 9035, "distribution": "normal"}, "class_name": "VarianceScaling"}, "activity_regularizer": null, "units": 50}, "class_name": "Dense", "inbound_nodes": [[["D3", 0, 0, {}]]]}, {"name": "dense_10", "config": {"activation": "relu", "bias_constraint": null, "trainable": true, "kernel_constraint": null, "kernel_regularizer": {"config": {"l1": 0.0, "l2": 9.999999747378752e-05}, "class_name": "L1L2"}, "name": "dense_10", "bias_regularizer": null, "bias_initializer": {"config": {}, "class_name": "Zeros"}, "use_bias": true, "kernel_initializer": {"config": {"mode": "fan_avg", "scale": 1.0, "seed": 9035, "distribution": "normal"}, "class_name": "VarianceScaling"}, "activity_regularizer": null, "units": 50}, "class_name": "Dense", "inbound_nodes": [[["E1", 0, 0, {}]]]}, {"name": "dense_2", "config": {"activation": "relu", "bias_constraint": null, "trainable": true, "kernel_constraint": null, "kernel_regularizer": {"config": {"l1": 0.0, "l2": 9.999999747378752e-05}, "class_name": "L1L2"}, "name": "dense_2", "bias_regularizer": null, "bias_initializer": {"config": {}, "class_name": "Zeros"}, "use_bias": true, "kernel_initializer": {"config": {"mode": "fan_avg", "scale": 1.0, "seed": 9035, "distribution": "normal"}, "class_name": "VarianceScaling"}, "activity_regularizer": null, "units": 50}, "class_name": "Dense", "inbound_nodes": [[["dense_1", 0, 0, {}]]]}, {"name": "dense_5", "config": {"activation": "relu", "bias_constraint": null, "trainable": true, "kernel_constraint": null, "kernel_regularizer": {"config": {"l1": 0.0, "l2": 9.999999747378752e-05}, "class_name": "L1L2"}, "name": "dense_5", "bias_regularizer": null, "bias_initializer": {"config": {}, "class_name": "Zeros"}, "use_bias": true, "kernel_initializer": {"config": {"mode": "fan_avg", "scale": 1.0, "seed": 9035, "distribution": "normal"}, "class_name": "VarianceScaling"}, "activity_regularizer": null, "units": 50}, "class_name": "Dense", "inbound_nodes": [[["dense_4", 0, 0, {}]]]}, {"name": "dense_8", "config": {"activation": "relu", "bias_constraint": null, "trainable": true, "kernel_constraint": null, "kernel_regularizer": {"config": {"l1": 0.0, "l2": 9.999999747378752e-05}, "class_name": "L1L2"}, "name": "dense_8", "bias_regularizer": null, "bias_initializer": {"config": {}, "class_name": "Zeros"}, "use_bias": true, "kernel_initializer": {"config": {"mode": "fan_avg", "scale": 1.0, "seed": 9035, "distribution": "normal"}, "class_name": "VarianceScaling"}, "activity_regularizer": null, "units": 50}, "class_name": "Dense", "inbound_nodes": [[["dense_7", 0, 0, {}]]]}, {"name": "dense_11", "config": {"activation": "relu", "bias_constraint": null, "trainable": true, "kernel_constraint": null, "kernel_regularizer": {"config": {"l1": 0.0, "l2": 9.999999747378752e-05}, "class_name": "L1L2"}, "name": "dense_11", "bias_regularizer": null, "bias_initializer": {"config": {}, "class_name": "Zeros"}, "use_bias": true, "kernel_initializer": {"config": {"mode": "fan_avg", "scale": 1.0, "seed": 9035, "distribution": "normal"}, "class_name": "VarianceScaling"}, "activity_regularizer": null, "units": 50}, "class_name": "Dense", "inbound_nodes": [[["dense_10", 0, 0, {}]]]}, {"name": "OnOff_F1", "config": {"batch_input_shape": [null, 1], "sparse": false, "dtype": "float32", "name": "OnOff_F1"}, "class_name": "InputLayer", "inbound_nodes": []}, {"name": "dense_3", "config": {"activation": "relu", "bias_constraint": null, "trainable": true, "kernel_constraint": null, "kernel_regularizer": {"config": {"l1": 0.0, "l2": 9.999999747378752e-05}, "class_name": "L1L2"}, "name": "dense_3", "bias_regularizer": null, "bias_initializer": {"config": {}, "class_name": "Zeros"}, "use_bias": true, "kernel_initializer": {"config": {"mode": "fan_avg", "scale": 1.0, "seed": 9035, "distribution": "normal"}, "class_name": "VarianceScaling"}, "activity_regularizer": null, "units": 1}, "class_name": "Dense", "inbound_nodes": [[["dense_2", 0, 0, {}]]]}, {"name": "OnOff_B2", "config": {"batch_input_shape": [null, 1], "sparse": false, "dtype": "float32", "name": "OnOff_B2"}, "class_name": "InputLayer", "inbound_nodes": []}, {"name": "dense_6", "config": {"activation": "relu", "bias_constraint": null, "trainable": true, "kernel_constraint": null, "kernel_regularizer": {"config": {"l1": 0.0, "l2": 9.999999747378752e-05}, "class_name": "L1L2"}, "name": "dense_6", "bias_regularizer": null, "bias_initializer": {"config": {}, "class_name": "Zeros"}, "use_bias": true, "kernel_initializer": {"config": {"mode": "fan_avg", "scale": 1.0, "seed": 9035, "distribution": "normal"}, "class_name": "VarianceScaling"}, "activity_regularizer": null, "units": 1}, "class_name": "Dense", "inbound_nodes": [[["dense_5", 0, 0, {}]]]}, {"name": "OnOff_D3", "config": {"batch_input_shape": [null, 1], "sparse": false, "dtype": "float32", "name": "OnOff_D3"}, "class_name": "InputLayer", "inbound_nodes": []}, {"name": "dense_9", "config": {"activation": "relu", "bias_constraint": null, "trainable": true, "kernel_constraint": null, "kernel_regularizer": {"config": {"l1": 0.0, "l2": 9.999999747378752e-05}, "class_name": "L1L2"}, "name": "dense_9", "bias_regularizer": null, "bias_initializer": {"config": {}, "class_name": "Zeros"}, "use_bias": true, "kernel_initializer": {"config": {"mode": "fan_avg", "scale": 1.0, "seed": 9035, "distribution": "normal"}, "class_name": "VarianceScaling"}, "activity_regularizer": null, "units": 1}, "class_name": "Dense", "inbound_nodes": [[["dense_8", 0, 0, {}]]]}, {"name": "OnOff_E1", "config": {"batch_input_shape": [null, 1], "sparse": false, "dtype": "float32", "name": "OnOff_E1"}, "class_name": "InputLayer", "inbound_nodes": []}, {"name": "dense_12", "config": {"activation": "relu", "bias_constraint": null, "trainable": true, "kernel_constraint": null, "kernel_regularizer": {"config": {"l1": 0.0, "l2": 9.999999747378752e-05}, "class_name": "L1L2"}, "name": "dense_12", "bias_regularizer": null, "bias_initializer": {"config": {}, "class_name": "Zeros"}, "use_bias": true, "kernel_initializer": {"config": {"mode": "fan_avg", "scale": 1.0, "seed": 9035, "distribution": "normal"}, "class_name": "VarianceScaling"}, "activity_regularizer": null, "units": 1}, "class_name": "Dense", "inbound_nodes": [[["dense_11", 0, 0, {}]]]}, {"name": "F1_out", "config": {"name": "F1_out", "trainable": true}, "class_name": "Multiply", "inbound_nodes": [[["OnOff_F1", 0, 0, {}], ["dense_3", 0, 0, {}]]]}, {"name": "B2_out", "config": {"name": "B2_out", "trainable": true}, "class_name": "Multiply", "inbound_nodes": [[["OnOff_B2", 0, 0, {}], ["dense_6", 0, 0, {}]]]}, {"name": "D3_out", "config": {"name": "D3_out", "trainable": true}, "class_name": "Multiply", "inbound_nodes": [[["OnOff_D3", 0, 0, {}], ["dense_9", 0, 0, {}]]]}, {"name": "E1_out", "config": {"name": "E1_out", "trainable": true}, "class_name": "Multiply", "inbound_nodes": [[["OnOff_E1", 0, 0, {}], ["dense_12", 0, 0, {}]]]}, {"name": "GJOA_QGAS", "config": {"name": "GJOA_QGAS", "trainable": true}, "class_name": "Add", "inbound_nodes": [[["F1_out", 0, 0, {}], ["B2_out", 0, 0, {}], ["D3_out", 0, 0, {}], ["E1_out", 0, 0, {}]]]}], "output_layers": [["F1_out", 0, 0], ["B2_out", 0, 0], ["D3_out", 0, 0], ["E1_out", 0, 0], ["GJOA_QGAS", 0, 0]]}, "class_name": "Model"}