{"keras_version": "2.0.1", "config": {"layers": [{"config": {"sparse": false, "dtype": "float32", "batch_input_shape": [null, 4], "name": "C1"}, "class_name": "InputLayer", "name": "C1", "inbound_nodes": []}, {"config": {"sparse": false, "dtype": "float32", "batch_input_shape": [null, 3], "name": "C2"}, "class_name": "InputLayer", "name": "C2", "inbound_nodes": []}, {"config": {"sparse": false, "dtype": "float32", "batch_input_shape": [null, 4], "name": "C3"}, "class_name": "InputLayer", "name": "C3", "inbound_nodes": []}, {"config": {"sparse": false, "dtype": "float32", "batch_input_shape": [null, 4], "name": "C4"}, "class_name": "InputLayer", "name": "C4", "inbound_nodes": []}, {"config": {"sparse": false, "dtype": "float32", "batch_input_shape": [null, 4], "name": "B1"}, "class_name": "InputLayer", "name": "B1", "inbound_nodes": []}, {"config": {"sparse": false, "dtype": "float32", "batch_input_shape": [null, 4], "name": "B3"}, "class_name": "InputLayer", "name": "B3", "inbound_nodes": []}, {"config": {"sparse": false, "dtype": "float32", "batch_input_shape": [null, 3], "name": "D1"}, "class_name": "InputLayer", "name": "D1", "inbound_nodes": []}, {"config": {"bias_regularizer": null, "units": 20, "kernel_initializer": {"config": {"mode": "fan_avg", "distribution": "normal", "seed": 9035, "scale": 1.0}, "class_name": "VarianceScaling"}, "activation": "relu", "use_bias": true, "bias_constraint": null, "kernel_regularizer": {"config": {"l2": 0.0010000000474974513, "l1": 0.0}, "class_name": "L1L2"}, "trainable": true, "kernel_constraint": null, "bias_initializer": {"config": {}, "class_name": "Zeros"}, "name": "dense_22", "activity_regularizer": null}, "class_name": "Dense", "name": "dense_22", "inbound_nodes": [[["C1", 0, 0, {}]]]}, {"config": {"bias_regularizer": null, "units": 20, "kernel_initializer": {"config": {"mode": "fan_avg", "distribution": "normal", "seed": 9035, "scale": 1.0}, "class_name": "VarianceScaling"}, "activation": "relu", "use_bias": true, "bias_constraint": null, "kernel_regularizer": {"config": {"l2": 0.0010000000474974513, "l1": 0.0}, "class_name": "L1L2"}, "trainable": true, "kernel_constraint": null, "bias_initializer": {"config": {}, "class_name": "Zeros"}, "name": "dense_25", "activity_regularizer": null}, "class_name": "Dense", "name": "dense_25", "inbound_nodes": [[["C2", 0, 0, {}]]]}, {"config": {"bias_regularizer": null, "units": 20, "kernel_initializer": {"config": {"mode": "fan_avg", "distribution": "normal", "seed": 9035, "scale": 1.0}, "class_name": "VarianceScaling"}, "activation": "relu", "use_bias": true, "bias_constraint": null, "kernel_regularizer": {"config": {"l2": 0.0010000000474974513, "l1": 0.0}, "class_name": "L1L2"}, "trainable": true, "kernel_constraint": null, "bias_initializer": {"config": {}, "class_name": "Zeros"}, "name": "dense_28", "activity_regularizer": null}, "class_name": "Dense", "name": "dense_28", "inbound_nodes": [[["C3", 0, 0, {}]]]}, {"config": {"bias_regularizer": null, "units": 20, "kernel_initializer": {"config": {"mode": "fan_avg", "distribution": "normal", "seed": 9035, "scale": 1.0}, "class_name": "VarianceScaling"}, "activation": "relu", "use_bias": true, "bias_constraint": null, "kernel_regularizer": {"config": {"l2": 0.0010000000474974513, "l1": 0.0}, "class_name": "L1L2"}, "trainable": true, "kernel_constraint": null, "bias_initializer": {"config": {}, "class_name": "Zeros"}, "name": "dense_31", "activity_regularizer": null}, "class_name": "Dense", "name": "dense_31", "inbound_nodes": [[["C4", 0, 0, {}]]]}, {"config": {"bias_regularizer": null, "units": 20, "kernel_initializer": {"config": {"mode": "fan_avg", "distribution": "normal", "seed": 9035, "scale": 1.0}, "class_name": "VarianceScaling"}, "activation": "relu", "use_bias": true, "bias_constraint": null, "kernel_regularizer": {"config": {"l2": 0.0010000000474974513, "l1": 0.0}, "class_name": "L1L2"}, "trainable": true, "kernel_constraint": null, "bias_initializer": {"config": {}, "class_name": "Zeros"}, "name": "dense_34", "activity_regularizer": null}, "class_name": "Dense", "name": "dense_34", "inbound_nodes": [[["B1", 0, 0, {}]]]}, {"config": {"bias_regularizer": null, "units": 20, "kernel_initializer": {"config": {"mode": "fan_avg", "distribution": "normal", "seed": 9035, "scale": 1.0}, "class_name": "VarianceScaling"}, "activation": "relu", "use_bias": true, "bias_constraint": null, "kernel_regularizer": {"config": {"l2": 0.0010000000474974513, "l1": 0.0}, "class_name": "L1L2"}, "trainable": true, "kernel_constraint": null, "bias_initializer": {"config": {}, "class_name": "Zeros"}, "name": "dense_37", "activity_regularizer": null}, "class_name": "Dense", "name": "dense_37", "inbound_nodes": [[["B3", 0, 0, {}]]]}, {"config": {"bias_regularizer": null, "units": 20, "kernel_initializer": {"config": {"mode": "fan_avg", "distribution": "normal", "seed": 9035, "scale": 1.0}, "class_name": "VarianceScaling"}, "activation": "relu", "use_bias": true, "bias_constraint": null, "kernel_regularizer": {"config": {"l2": 0.0010000000474974513, "l1": 0.0}, "class_name": "L1L2"}, "trainable": true, "kernel_constraint": null, "bias_initializer": {"config": {}, "class_name": "Zeros"}, "name": "dense_40", "activity_regularizer": null}, "class_name": "Dense", "name": "dense_40", "inbound_nodes": [[["D1", 0, 0, {}]]]}, {"config": {"name": "dropout_8", "rate": 0.1, "trainable": true}, "class_name": "Dropout", "name": "dropout_8", "inbound_nodes": [[["dense_22", 0, 0, {}]]]}, {"config": {"name": "dropout_9", "rate": 0.1, "trainable": true}, "class_name": "Dropout", "name": "dropout_9", "inbound_nodes": [[["dense_25", 0, 0, {}]]]}, {"config": {"name": "dropout_10", "rate": 0.1, "trainable": true}, "class_name": "Dropout", "name": "dropout_10", "inbound_nodes": [[["dense_28", 0, 0, {}]]]}, {"config": {"name": "dropout_11", "rate": 0.1, "trainable": true}, "class_name": "Dropout", "name": "dropout_11", "inbound_nodes": [[["dense_31", 0, 0, {}]]]}, {"config": {"name": "dropout_12", "rate": 0.1, "trainable": true}, "class_name": "Dropout", "name": "dropout_12", "inbound_nodes": [[["dense_34", 0, 0, {}]]]}, {"config": {"name": "dropout_13", "rate": 0.1, "trainable": true}, "class_name": "Dropout", "name": "dropout_13", "inbound_nodes": [[["dense_37", 0, 0, {}]]]}, {"config": {"name": "dropout_14", "rate": 0.1, "trainable": true}, "class_name": "Dropout", "name": "dropout_14", "inbound_nodes": [[["dense_40", 0, 0, {}]]]}, {"config": {"bias_regularizer": null, "units": 20, "kernel_initializer": {"config": {"mode": "fan_avg", "distribution": "normal", "seed": 9035, "scale": 1.0}, "class_name": "VarianceScaling"}, "activation": "relu", "use_bias": true, "bias_constraint": null, "kernel_regularizer": {"config": {"l2": 0.0010000000474974513, "l1": 0.0}, "class_name": "L1L2"}, "trainable": true, "kernel_constraint": null, "bias_initializer": {"config": {}, "class_name": "Zeros"}, "name": "dense_23", "activity_regularizer": null}, "class_name": "Dense", "name": "dense_23", "inbound_nodes": [[["dropout_8", 0, 0, {}]]]}, {"config": {"bias_regularizer": null, "units": 20, "kernel_initializer": {"config": {"mode": "fan_avg", "distribution": "normal", "seed": 9035, "scale": 1.0}, "class_name": "VarianceScaling"}, "activation": "relu", "use_bias": true, "bias_constraint": null, "kernel_regularizer": {"config": {"l2": 0.0010000000474974513, "l1": 0.0}, "class_name": "L1L2"}, "trainable": true, "kernel_constraint": null, "bias_initializer": {"config": {}, "class_name": "Zeros"}, "name": "dense_26", "activity_regularizer": null}, "class_name": "Dense", "name": "dense_26", "inbound_nodes": [[["dropout_9", 0, 0, {}]]]}, {"config": {"bias_regularizer": null, "units": 20, "kernel_initializer": {"config": {"mode": "fan_avg", "distribution": "normal", "seed": 9035, "scale": 1.0}, "class_name": "VarianceScaling"}, "activation": "relu", "use_bias": true, "bias_constraint": null, "kernel_regularizer": {"config": {"l2": 0.0010000000474974513, "l1": 0.0}, "class_name": "L1L2"}, "trainable": true, "kernel_constraint": null, "bias_initializer": {"config": {}, "class_name": "Zeros"}, "name": "dense_29", "activity_regularizer": null}, "class_name": "Dense", "name": "dense_29", "inbound_nodes": [[["dropout_10", 0, 0, {}]]]}, {"config": {"bias_regularizer": null, "units": 20, "kernel_initializer": {"config": {"mode": "fan_avg", "distribution": "normal", "seed": 9035, "scale": 1.0}, "class_name": "VarianceScaling"}, "activation": "relu", "use_bias": true, "bias_constraint": null, "kernel_regularizer": {"config": {"l2": 0.0010000000474974513, "l1": 0.0}, "class_name": "L1L2"}, "trainable": true, "kernel_constraint": null, "bias_initializer": {"config": {}, "class_name": "Zeros"}, "name": "dense_32", "activity_regularizer": null}, "class_name": "Dense", "name": "dense_32", "inbound_nodes": [[["dropout_11", 0, 0, {}]]]}, {"config": {"bias_regularizer": null, "units": 20, "kernel_initializer": {"config": {"mode": "fan_avg", "distribution": "normal", "seed": 9035, "scale": 1.0}, "class_name": "VarianceScaling"}, "activation": "relu", "use_bias": true, "bias_constraint": null, "kernel_regularizer": {"config": {"l2": 0.0010000000474974513, "l1": 0.0}, "class_name": "L1L2"}, "trainable": true, "kernel_constraint": null, "bias_initializer": {"config": {}, "class_name": "Zeros"}, "name": "dense_35", "activity_regularizer": null}, "class_name": "Dense", "name": "dense_35", "inbound_nodes": [[["dropout_12", 0, 0, {}]]]}, {"config": {"bias_regularizer": null, "units": 20, "kernel_initializer": {"config": {"mode": "fan_avg", "distribution": "normal", "seed": 9035, "scale": 1.0}, "class_name": "VarianceScaling"}, "activation": "relu", "use_bias": true, "bias_constraint": null, "kernel_regularizer": {"config": {"l2": 0.0010000000474974513, "l1": 0.0}, "class_name": "L1L2"}, "trainable": true, "kernel_constraint": null, "bias_initializer": {"config": {}, "class_name": "Zeros"}, "name": "dense_38", "activity_regularizer": null}, "class_name": "Dense", "name": "dense_38", "inbound_nodes": [[["dropout_13", 0, 0, {}]]]}, {"config": {"bias_regularizer": null, "units": 20, "kernel_initializer": {"config": {"mode": "fan_avg", "distribution": "normal", "seed": 9035, "scale": 1.0}, "class_name": "VarianceScaling"}, "activation": "relu", "use_bias": true, "bias_constraint": null, "kernel_regularizer": {"config": {"l2": 0.0010000000474974513, "l1": 0.0}, "class_name": "L1L2"}, "trainable": true, "kernel_constraint": null, "bias_initializer": {"config": {}, "class_name": "Zeros"}, "name": "dense_41", "activity_regularizer": null}, "class_name": "Dense", "name": "dense_41", "inbound_nodes": [[["dropout_14", 0, 0, {}]]]}, {"config": {"sparse": false, "dtype": "float32", "batch_input_shape": [null, 1], "name": "OnOff_C1"}, "class_name": "InputLayer", "name": "OnOff_C1", "inbound_nodes": []}, {"config": {"bias_regularizer": null, "units": 1, "kernel_initializer": {"config": {"mode": "fan_avg", "distribution": "normal", "seed": 9035, "scale": 1.0}, "class_name": "VarianceScaling"}, "activation": "relu", "use_bias": true, "bias_constraint": null, "kernel_regularizer": {"config": {"l2": 0.0010000000474974513, "l1": 0.0}, "class_name": "L1L2"}, "trainable": true, "kernel_constraint": null, "bias_initializer": {"config": {}, "class_name": "Zeros"}, "name": "dense_24", "activity_regularizer": null}, "class_name": "Dense", "name": "dense_24", "inbound_nodes": [[["dense_23", 0, 0, {}]]]}, {"config": {"sparse": false, "dtype": "float32", "batch_input_shape": [null, 1], "name": "OnOff_C2"}, "class_name": "InputLayer", "name": "OnOff_C2", "inbound_nodes": []}, {"config": {"bias_regularizer": null, "units": 1, "kernel_initializer": {"config": {"mode": "fan_avg", "distribution": "normal", "seed": 9035, "scale": 1.0}, "class_name": "VarianceScaling"}, "activation": "relu", "use_bias": true, "bias_constraint": null, "kernel_regularizer": {"config": {"l2": 0.0010000000474974513, "l1": 0.0}, "class_name": "L1L2"}, "trainable": true, "kernel_constraint": null, "bias_initializer": {"config": {}, "class_name": "Zeros"}, "name": "dense_27", "activity_regularizer": null}, "class_name": "Dense", "name": "dense_27", "inbound_nodes": [[["dense_26", 0, 0, {}]]]}, {"config": {"sparse": false, "dtype": "float32", "batch_input_shape": [null, 1], "name": "OnOff_C3"}, "class_name": "InputLayer", "name": "OnOff_C3", "inbound_nodes": []}, {"config": {"bias_regularizer": null, "units": 1, "kernel_initializer": {"config": {"mode": "fan_avg", "distribution": "normal", "seed": 9035, "scale": 1.0}, "class_name": "VarianceScaling"}, "activation": "relu", "use_bias": true, "bias_constraint": null, "kernel_regularizer": {"config": {"l2": 0.0010000000474974513, "l1": 0.0}, "class_name": "L1L2"}, "trainable": true, "kernel_constraint": null, "bias_initializer": {"config": {}, "class_name": "Zeros"}, "name": "dense_30", "activity_regularizer": null}, "class_name": "Dense", "name": "dense_30", "inbound_nodes": [[["dense_29", 0, 0, {}]]]}, {"config": {"sparse": false, "dtype": "float32", "batch_input_shape": [null, 1], "name": "OnOff_C4"}, "class_name": "InputLayer", "name": "OnOff_C4", "inbound_nodes": []}, {"config": {"bias_regularizer": null, "units": 1, "kernel_initializer": {"config": {"mode": "fan_avg", "distribution": "normal", "seed": 9035, "scale": 1.0}, "class_name": "VarianceScaling"}, "activation": "relu", "use_bias": true, "bias_constraint": null, "kernel_regularizer": {"config": {"l2": 0.0010000000474974513, "l1": 0.0}, "class_name": "L1L2"}, "trainable": true, "kernel_constraint": null, "bias_initializer": {"config": {}, "class_name": "Zeros"}, "name": "dense_33", "activity_regularizer": null}, "class_name": "Dense", "name": "dense_33", "inbound_nodes": [[["dense_32", 0, 0, {}]]]}, {"config": {"sparse": false, "dtype": "float32", "batch_input_shape": [null, 1], "name": "OnOff_B1"}, "class_name": "InputLayer", "name": "OnOff_B1", "inbound_nodes": []}, {"config": {"bias_regularizer": null, "units": 1, "kernel_initializer": {"config": {"mode": "fan_avg", "distribution": "normal", "seed": 9035, "scale": 1.0}, "class_name": "VarianceScaling"}, "activation": "relu", "use_bias": true, "bias_constraint": null, "kernel_regularizer": {"config": {"l2": 0.0010000000474974513, "l1": 0.0}, "class_name": "L1L2"}, "trainable": true, "kernel_constraint": null, "bias_initializer": {"config": {}, "class_name": "Zeros"}, "name": "dense_36", "activity_regularizer": null}, "class_name": "Dense", "name": "dense_36", "inbound_nodes": [[["dense_35", 0, 0, {}]]]}, {"config": {"sparse": false, "dtype": "float32", "batch_input_shape": [null, 1], "name": "OnOff_B3"}, "class_name": "InputLayer", "name": "OnOff_B3", "inbound_nodes": []}, {"config": {"bias_regularizer": null, "units": 1, "kernel_initializer": {"config": {"mode": "fan_avg", "distribution": "normal", "seed": 9035, "scale": 1.0}, "class_name": "VarianceScaling"}, "activation": "relu", "use_bias": true, "bias_constraint": null, "kernel_regularizer": {"config": {"l2": 0.0010000000474974513, "l1": 0.0}, "class_name": "L1L2"}, "trainable": true, "kernel_constraint": null, "bias_initializer": {"config": {}, "class_name": "Zeros"}, "name": "dense_39", "activity_regularizer": null}, "class_name": "Dense", "name": "dense_39", "inbound_nodes": [[["dense_38", 0, 0, {}]]]}, {"config": {"sparse": false, "dtype": "float32", "batch_input_shape": [null, 1], "name": "OnOff_D1"}, "class_name": "InputLayer", "name": "OnOff_D1", "inbound_nodes": []}, {"config": {"bias_regularizer": null, "units": 1, "kernel_initializer": {"config": {"mode": "fan_avg", "distribution": "normal", "seed": 9035, "scale": 1.0}, "class_name": "VarianceScaling"}, "activation": "relu", "use_bias": true, "bias_constraint": null, "kernel_regularizer": {"config": {"l2": 0.0010000000474974513, "l1": 0.0}, "class_name": "L1L2"}, "trainable": true, "kernel_constraint": null, "bias_initializer": {"config": {}, "class_name": "Zeros"}, "name": "dense_42", "activity_regularizer": null}, "class_name": "Dense", "name": "dense_42", "inbound_nodes": [[["dense_41", 0, 0, {}]]]}, {"config": {"name": "C1_out", "trainable": true}, "class_name": "Multiply", "name": "C1_out", "inbound_nodes": [[["OnOff_C1", 0, 0, {}], ["dense_24", 0, 0, {}]]]}, {"config": {"name": "C2_out", "trainable": true}, "class_name": "Multiply", "name": "C2_out", "inbound_nodes": [[["OnOff_C2", 0, 0, {}], ["dense_27", 0, 0, {}]]]}, {"config": {"name": "C3_out", "trainable": true}, "class_name": "Multiply", "name": "C3_out", "inbound_nodes": [[["OnOff_C3", 0, 0, {}], ["dense_30", 0, 0, {}]]]}, {"config": {"name": "C4_out", "trainable": true}, "class_name": "Multiply", "name": "C4_out", "inbound_nodes": [[["OnOff_C4", 0, 0, {}], ["dense_33", 0, 0, {}]]]}, {"config": {"name": "B1_out", "trainable": true}, "class_name": "Multiply", "name": "B1_out", "inbound_nodes": [[["OnOff_B1", 0, 0, {}], ["dense_36", 0, 0, {}]]]}, {"config": {"name": "B3_out", "trainable": true}, "class_name": "Multiply", "name": "B3_out", "inbound_nodes": [[["OnOff_B3", 0, 0, {}], ["dense_39", 0, 0, {}]]]}, {"config": {"name": "D1_out", "trainable": true}, "class_name": "Multiply", "name": "D1_out", "inbound_nodes": [[["OnOff_D1", 0, 0, {}], ["dense_42", 0, 0, {}]]]}, {"config": {"name": "GJOA_TOTAL", "trainable": true}, "class_name": "Add", "name": "GJOA_TOTAL", "inbound_nodes": [[["C1_out", 0, 0, {}], ["C2_out", 0, 0, {}], ["C3_out", 0, 0, {}], ["C4_out", 0, 0, {}], ["B1_out", 0, 0, {}], ["B3_out", 0, 0, {}], ["D1_out", 0, 0, {}]]]}], "input_layers": [["C1", 0, 0], ["C2", 0, 0], ["C3", 0, 0], ["C4", 0, 0], ["B1", 0, 0], ["B3", 0, 0], ["D1", 0, 0], ["OnOff_C1", 0, 0], ["OnOff_C2", 0, 0], ["OnOff_C3", 0, 0], ["OnOff_C4", 0, 0], ["OnOff_B1", 0, 0], ["OnOff_B3", 0, 0], ["OnOff_D1", 0, 0]], "name": "model_2", "output_layers": [["C1_out", 0, 0], ["C2_out", 0, 0], ["C3_out", 0, 0], ["C4_out", 0, 0], ["B1_out", 0, 0], ["B3_out", 0, 0], ["D1_out", 0, 0], ["GJOA_TOTAL", 0, 0]]}, "backend": "theano", "class_name": "Model"}