{"config": {"name": "model_1", "output_layers": [["B1_PBH_out", 0, 0], ["B3_PBH_out", 0, 0], ["C1_PBH_out", 0, 0], ["C3_PBH_out", 0, 0], ["C4_PBH_out", 0, 0]], "layers": [{"config": {"dtype": "float32", "name": "CHK_INPUT_NOW", "batch_input_shape": [null, 8], "sparse": false}, "name": "CHK_INPUT_NOW", "inbound_nodes": [], "class_name": "InputLayer"}, {"config": {"bias_initializer": {"config": {}, "class_name": "Zeros"}, "name": "B1_PBH_0", "units": 90, "kernel_regularizer": {"config": {"l1": 0.0, "l2": 0.00019999999494757503}, "class_name": "L1L2"}, "bias_constraint": null, "activity_regularizer": null, "activation": "relu", "use_bias": true, "bias_regularizer": null, "trainable": true, "kernel_constraint": null, "kernel_initializer": {"config": {"distribution": "normal", "mode": "fan_avg", "scale": 1.0, "seed": 3014}, "class_name": "VarianceScaling"}}, "name": "B1_PBH_0", "inbound_nodes": [[["CHK_INPUT_NOW", 0, 0, {}]]], "class_name": "Dense"}, {"config": {"bias_initializer": {"config": {}, "class_name": "Zeros"}, "name": "B3_PBH_0", "units": 90, "kernel_regularizer": {"config": {"l1": 0.0, "l2": 0.00019999999494757503}, "class_name": "L1L2"}, "bias_constraint": null, "activity_regularizer": null, "activation": "relu", "use_bias": true, "bias_regularizer": null, "trainable": true, "kernel_constraint": null, "kernel_initializer": {"config": {"distribution": "normal", "mode": "fan_avg", "scale": 1.0, "seed": 3014}, "class_name": "VarianceScaling"}}, "name": "B3_PBH_0", "inbound_nodes": [[["CHK_INPUT_NOW", 0, 0, {}]]], "class_name": "Dense"}, {"config": {"bias_initializer": {"config": {}, "class_name": "Zeros"}, "name": "C1_PBH_0", "units": 90, "kernel_regularizer": {"config": {"l1": 0.0, "l2": 0.00019999999494757503}, "class_name": "L1L2"}, "bias_constraint": null, "activity_regularizer": null, "activation": "relu", "use_bias": true, "bias_regularizer": null, "trainable": true, "kernel_constraint": null, "kernel_initializer": {"config": {"distribution": "normal", "mode": "fan_avg", "scale": 1.0, "seed": 3014}, "class_name": "VarianceScaling"}}, "name": "C1_PBH_0", "inbound_nodes": [[["CHK_INPUT_NOW", 0, 0, {}]]], "class_name": "Dense"}, {"config": {"bias_initializer": {"config": {}, "class_name": "Zeros"}, "name": "C3_PBH_0", "units": 90, "kernel_regularizer": {"config": {"l1": 0.0, "l2": 0.00019999999494757503}, "class_name": "L1L2"}, "bias_constraint": null, "activity_regularizer": null, "activation": "relu", "use_bias": true, "bias_regularizer": null, "trainable": true, "kernel_constraint": null, "kernel_initializer": {"config": {"distribution": "normal", "mode": "fan_avg", "scale": 1.0, "seed": 3014}, "class_name": "VarianceScaling"}}, "name": "C3_PBH_0", "inbound_nodes": [[["CHK_INPUT_NOW", 0, 0, {}]]], "class_name": "Dense"}, {"config": {"bias_initializer": {"config": {}, "class_name": "Zeros"}, "name": "C4_PBH_0", "units": 90, "kernel_regularizer": {"config": {"l1": 0.0, "l2": 0.00019999999494757503}, "class_name": "L1L2"}, "bias_constraint": null, "activity_regularizer": null, "activation": "relu", "use_bias": true, "bias_regularizer": null, "trainable": true, "kernel_constraint": null, "kernel_initializer": {"config": {"distribution": "normal", "mode": "fan_avg", "scale": 1.0, "seed": 3014}, "class_name": "VarianceScaling"}}, "name": "C4_PBH_0", "inbound_nodes": [[["CHK_INPUT_NOW", 0, 0, {}]]], "class_name": "Dense"}, {"config": {"bias_initializer": {"config": {}, "class_name": "Zeros"}, "name": "B1_PBH_1", "units": 90, "kernel_regularizer": {"config": {"l1": 0.0, "l2": 0.00019999999494757503}, "class_name": "L1L2"}, "bias_constraint": null, "activity_regularizer": null, "activation": "relu", "use_bias": true, "bias_regularizer": null, "trainable": true, "kernel_constraint": null, "kernel_initializer": {"config": {"distribution": "normal", "mode": "fan_avg", "scale": 1.0, "seed": 3014}, "class_name": "VarianceScaling"}}, "name": "B1_PBH_1", "inbound_nodes": [[["B1_PBH_0", 0, 0, {}]]], "class_name": "Dense"}, {"config": {"bias_initializer": {"config": {}, "class_name": "Zeros"}, "name": "B3_PBH_1", "units": 90, "kernel_regularizer": {"config": {"l1": 0.0, "l2": 0.00019999999494757503}, "class_name": "L1L2"}, "bias_constraint": null, "activity_regularizer": null, "activation": "relu", "use_bias": true, "bias_regularizer": null, "trainable": true, "kernel_constraint": null, "kernel_initializer": {"config": {"distribution": "normal", "mode": "fan_avg", "scale": 1.0, "seed": 3014}, "class_name": "VarianceScaling"}}, "name": "B3_PBH_1", "inbound_nodes": [[["B3_PBH_0", 0, 0, {}]]], "class_name": "Dense"}, {"config": {"bias_initializer": {"config": {}, "class_name": "Zeros"}, "name": "C1_PBH_1", "units": 90, "kernel_regularizer": {"config": {"l1": 0.0, "l2": 0.00019999999494757503}, "class_name": "L1L2"}, "bias_constraint": null, "activity_regularizer": null, "activation": "relu", "use_bias": true, "bias_regularizer": null, "trainable": true, "kernel_constraint": null, "kernel_initializer": {"config": {"distribution": "normal", "mode": "fan_avg", "scale": 1.0, "seed": 3014}, "class_name": "VarianceScaling"}}, "name": "C1_PBH_1", "inbound_nodes": [[["C1_PBH_0", 0, 0, {}]]], "class_name": "Dense"}, {"config": {"bias_initializer": {"config": {}, "class_name": "Zeros"}, "name": "C3_PBH_1", "units": 90, "kernel_regularizer": {"config": {"l1": 0.0, "l2": 0.00019999999494757503}, "class_name": "L1L2"}, "bias_constraint": null, "activity_regularizer": null, "activation": "relu", "use_bias": true, "bias_regularizer": null, "trainable": true, "kernel_constraint": null, "kernel_initializer": {"config": {"distribution": "normal", "mode": "fan_avg", "scale": 1.0, "seed": 3014}, "class_name": "VarianceScaling"}}, "name": "C3_PBH_1", "inbound_nodes": [[["C3_PBH_0", 0, 0, {}]]], "class_name": "Dense"}, {"config": {"bias_initializer": {"config": {}, "class_name": "Zeros"}, "name": "C4_PBH_1", "units": 90, "kernel_regularizer": {"config": {"l1": 0.0, "l2": 0.00019999999494757503}, "class_name": "L1L2"}, "bias_constraint": null, "activity_regularizer": null, "activation": "relu", "use_bias": true, "bias_regularizer": null, "trainable": true, "kernel_constraint": null, "kernel_initializer": {"config": {"distribution": "normal", "mode": "fan_avg", "scale": 1.0, "seed": 3014}, "class_name": "VarianceScaling"}}, "name": "C4_PBH_1", "inbound_nodes": [[["C4_PBH_0", 0, 0, {}]]], "class_name": "Dense"}, {"config": {"bias_initializer": {"config": {}, "class_name": "Zeros"}, "name": "B1_PBH_out", "units": 1, "kernel_regularizer": {"config": {"l1": 0.0, "l2": 0.00019999999494757503}, "class_name": "L1L2"}, "bias_constraint": null, "activity_regularizer": null, "activation": "linear", "use_bias": true, "bias_regularizer": null, "trainable": true, "kernel_constraint": null, "kernel_initializer": {"config": {"distribution": "normal", "mode": "fan_avg", "scale": 1.0, "seed": 3014}, "class_name": "VarianceScaling"}}, "name": "B1_PBH_out", "inbound_nodes": [[["B1_PBH_1", 0, 0, {}]]], "class_name": "Dense"}, {"config": {"bias_initializer": {"config": {}, "class_name": "Zeros"}, "name": "B3_PBH_out", "units": 1, "kernel_regularizer": {"config": {"l1": 0.0, "l2": 0.00019999999494757503}, "class_name": "L1L2"}, "bias_constraint": null, "activity_regularizer": null, "activation": "linear", "use_bias": true, "bias_regularizer": null, "trainable": true, "kernel_constraint": null, "kernel_initializer": {"config": {"distribution": "normal", "mode": "fan_avg", "scale": 1.0, "seed": 3014}, "class_name": "VarianceScaling"}}, "name": "B3_PBH_out", "inbound_nodes": [[["B3_PBH_1", 0, 0, {}]]], "class_name": "Dense"}, {"config": {"bias_initializer": {"config": {}, "class_name": "Zeros"}, "name": "C1_PBH_out", "units": 1, "kernel_regularizer": {"config": {"l1": 0.0, "l2": 0.00019999999494757503}, "class_name": "L1L2"}, "bias_constraint": null, "activity_regularizer": null, "activation": "linear", "use_bias": true, "bias_regularizer": null, "trainable": true, "kernel_constraint": null, "kernel_initializer": {"config": {"distribution": "normal", "mode": "fan_avg", "scale": 1.0, "seed": 3014}, "class_name": "VarianceScaling"}}, "name": "C1_PBH_out", "inbound_nodes": [[["C1_PBH_1", 0, 0, {}]]], "class_name": "Dense"}, {"config": {"bias_initializer": {"config": {}, "class_name": "Zeros"}, "name": "C3_PBH_out", "units": 1, "kernel_regularizer": {"config": {"l1": 0.0, "l2": 0.00019999999494757503}, "class_name": "L1L2"}, "bias_constraint": null, "activity_regularizer": null, "activation": "linear", "use_bias": true, "bias_regularizer": null, "trainable": true, "kernel_constraint": null, "kernel_initializer": {"config": {"distribution": "normal", "mode": "fan_avg", "scale": 1.0, "seed": 3014}, "class_name": "VarianceScaling"}}, "name": "C3_PBH_out", "inbound_nodes": [[["C3_PBH_1", 0, 0, {}]]], "class_name": "Dense"}, {"config": {"bias_initializer": {"config": {}, "class_name": "Zeros"}, "name": "C4_PBH_out", "units": 1, "kernel_regularizer": {"config": {"l1": 0.0, "l2": 0.00019999999494757503}, "class_name": "L1L2"}, "bias_constraint": null, "activity_regularizer": null, "activation": "linear", "use_bias": true, "bias_regularizer": null, "trainable": true, "kernel_constraint": null, "kernel_initializer": {"config": {"distribution": "normal", "mode": "fan_avg", "scale": 1.0, "seed": 3014}, "class_name": "VarianceScaling"}}, "name": "C4_PBH_out", "inbound_nodes": [[["C4_PBH_1", 0, 0, {}]]], "class_name": "Dense"}], "input_layers": [["CHK_INPUT_NOW", 0, 0]]}, "keras_version": "2.0.1", "backend": "theano", "class_name": "Model"}