{"backend": "theano", "keras_version": "2.0.1", "config": {"input_layers": [["C1", 0, 0], ["C2", 0, 0], ["C3", 0, 0], ["C4", 0, 0], ["B1", 0, 0], ["B3", 0, 0], ["D1", 0, 0], ["OnOff_C1", 0, 0], ["OnOff_C2", 0, 0], ["OnOff_C3", 0, 0], ["OnOff_C4", 0, 0], ["OnOff_B1", 0, 0], ["OnOff_B3", 0, 0], ["OnOff_D1", 0, 0]], "output_layers": [["C1_out", 0, 0], ["C2_out", 0, 0], ["C3_out", 0, 0], ["C4_out", 0, 0], ["B1_out", 0, 0], ["B3_out", 0, 0], ["D1_out", 0, 0], ["GJOA_TOTAL", 0, 0]], "name": "model_3", "layers": [{"inbound_nodes": [], "name": "C1", "class_name": "InputLayer", "config": {"sparse": false, "batch_input_shape": [null, 4], "name": "C1", "dtype": "float32"}}, {"inbound_nodes": [], "name": "C2", "class_name": "InputLayer", "config": {"sparse": false, "batch_input_shape": [null, 3], "name": "C2", "dtype": "float32"}}, {"inbound_nodes": [], "name": "C3", "class_name": "InputLayer", "config": {"sparse": false, "batch_input_shape": [null, 4], "name": "C3", "dtype": "float32"}}, {"inbound_nodes": [], "name": "C4", "class_name": "InputLayer", "config": {"sparse": false, "batch_input_shape": [null, 4], "name": "C4", "dtype": "float32"}}, {"inbound_nodes": [], "name": "B1", "class_name": "InputLayer", "config": {"sparse": false, "batch_input_shape": [null, 4], "name": "B1", "dtype": "float32"}}, {"inbound_nodes": [], "name": "B3", "class_name": "InputLayer", "config": {"sparse": false, "batch_input_shape": [null, 4], "name": "B3", "dtype": "float32"}}, {"inbound_nodes": [], "name": "D1", "class_name": "InputLayer", "config": {"sparse": false, "batch_input_shape": [null, 3], "name": "D1", "dtype": "float32"}}, {"inbound_nodes": [[["C1", 0, 0, {}]]], "name": "C1_0", "class_name": "Dense", "config": {"kernel_regularizer": {"class_name": "L1L2", "config": {"l2": 9.999999747378752e-05, "l1": 0.0}}, "activity_regularizer": null, "bias_initializer": {"class_name": "Zeros", "config": {}}, "name": "C1_0", "trainable": true, "kernel_initializer": {"class_name": "VarianceScaling", "config": {"scale": 1.0, "mode": "fan_avg", "seed": 3014, "distribution": "normal"}}, "bias_regularizer": null, "activation": "relu", "kernel_constraint": null, "units": 90, "use_bias": true, "bias_constraint": null}}, {"inbound_nodes": [[["C2", 0, 0, {}]]], "name": "C2_0", "class_name": "Dense", "config": {"kernel_regularizer": {"class_name": "L1L2", "config": {"l2": 9.999999747378752e-05, "l1": 0.0}}, "activity_regularizer": null, "bias_initializer": {"class_name": "Zeros", "config": {}}, "name": "C2_0", "trainable": true, "kernel_initializer": {"class_name": "VarianceScaling", "config": {"scale": 1.0, "mode": "fan_avg", "seed": 3014, "distribution": "normal"}}, "bias_regularizer": null, "activation": "relu", "kernel_constraint": null, "units": 90, "use_bias": true, "bias_constraint": null}}, {"inbound_nodes": [[["C3", 0, 0, {}]]], "name": "C3_0", "class_name": "Dense", "config": {"kernel_regularizer": {"class_name": "L1L2", "config": {"l2": 9.999999747378752e-05, "l1": 0.0}}, "activity_regularizer": null, "bias_initializer": {"class_name": "Zeros", "config": {}}, "name": "C3_0", "trainable": true, "kernel_initializer": {"class_name": "VarianceScaling", "config": {"scale": 1.0, "mode": "fan_avg", "seed": 3014, "distribution": "normal"}}, "bias_regularizer": null, "activation": "relu", "kernel_constraint": null, "units": 90, "use_bias": true, "bias_constraint": null}}, {"inbound_nodes": [[["C4", 0, 0, {}]]], "name": "C4_0", "class_name": "Dense", "config": {"kernel_regularizer": {"class_name": "L1L2", "config": {"l2": 9.999999747378752e-05, "l1": 0.0}}, "activity_regularizer": null, "bias_initializer": {"class_name": "Zeros", "config": {}}, "name": "C4_0", "trainable": true, "kernel_initializer": {"class_name": "VarianceScaling", "config": {"scale": 1.0, "mode": "fan_avg", "seed": 3014, "distribution": "normal"}}, "bias_regularizer": null, "activation": "relu", "kernel_constraint": null, "units": 90, "use_bias": true, "bias_constraint": null}}, {"inbound_nodes": [[["B1", 0, 0, {}]]], "name": "B1_0", "class_name": "Dense", "config": {"kernel_regularizer": {"class_name": "L1L2", "config": {"l2": 9.999999747378752e-05, "l1": 0.0}}, "activity_regularizer": null, "bias_initializer": {"class_name": "Zeros", "config": {}}, "name": "B1_0", "trainable": true, "kernel_initializer": {"class_name": "VarianceScaling", "config": {"scale": 1.0, "mode": "fan_avg", "seed": 3014, "distribution": "normal"}}, "bias_regularizer": null, "activation": "relu", "kernel_constraint": null, "units": 90, "use_bias": true, "bias_constraint": null}}, {"inbound_nodes": [[["B3", 0, 0, {}]]], "name": "B3_0", "class_name": "Dense", "config": {"kernel_regularizer": {"class_name": "L1L2", "config": {"l2": 9.999999747378752e-05, "l1": 0.0}}, "activity_regularizer": null, "bias_initializer": {"class_name": "Zeros", "config": {}}, "name": "B3_0", "trainable": true, "kernel_initializer": {"class_name": "VarianceScaling", "config": {"scale": 1.0, "mode": "fan_avg", "seed": 3014, "distribution": "normal"}}, "bias_regularizer": null, "activation": "relu", "kernel_constraint": null, "units": 90, "use_bias": true, "bias_constraint": null}}, {"inbound_nodes": [[["D1", 0, 0, {}]]], "name": "D1_0", "class_name": "Dense", "config": {"kernel_regularizer": {"class_name": "L1L2", "config": {"l2": 9.999999747378752e-05, "l1": 0.0}}, "activity_regularizer": null, "bias_initializer": {"class_name": "Zeros", "config": {}}, "name": "D1_0", "trainable": true, "kernel_initializer": {"class_name": "VarianceScaling", "config": {"scale": 1.0, "mode": "fan_avg", "seed": 3014, "distribution": "normal"}}, "bias_regularizer": null, "activation": "relu", "kernel_constraint": null, "units": 90, "use_bias": true, "bias_constraint": null}}, {"inbound_nodes": [[["C1_0", 0, 0, {}]]], "name": "C1_1", "class_name": "Dense", "config": {"kernel_regularizer": {"class_name": "L1L2", "config": {"l2": 9.999999747378752e-05, "l1": 0.0}}, "activity_regularizer": null, "bias_initializer": {"class_name": "Zeros", "config": {}}, "name": "C1_1", "trainable": true, "kernel_initializer": {"class_name": "VarianceScaling", "config": {"scale": 1.0, "mode": "fan_avg", "seed": 3014, "distribution": "normal"}}, "bias_regularizer": null, "activation": "relu", "kernel_constraint": null, "units": 90, "use_bias": true, "bias_constraint": null}}, {"inbound_nodes": [[["C2_0", 0, 0, {}]]], "name": "C2_1", "class_name": "Dense", "config": {"kernel_regularizer": {"class_name": "L1L2", "config": {"l2": 9.999999747378752e-05, "l1": 0.0}}, "activity_regularizer": null, "bias_initializer": {"class_name": "Zeros", "config": {}}, "name": "C2_1", "trainable": true, "kernel_initializer": {"class_name": "VarianceScaling", "config": {"scale": 1.0, "mode": "fan_avg", "seed": 3014, "distribution": "normal"}}, "bias_regularizer": null, "activation": "relu", "kernel_constraint": null, "units": 90, "use_bias": true, "bias_constraint": null}}, {"inbound_nodes": [[["C3_0", 0, 0, {}]]], "name": "C3_1", "class_name": "Dense", "config": {"kernel_regularizer": {"class_name": "L1L2", "config": {"l2": 9.999999747378752e-05, "l1": 0.0}}, "activity_regularizer": null, "bias_initializer": {"class_name": "Zeros", "config": {}}, "name": "C3_1", "trainable": true, "kernel_initializer": {"class_name": "VarianceScaling", "config": {"scale": 1.0, "mode": "fan_avg", "seed": 3014, "distribution": "normal"}}, "bias_regularizer": null, "activation": "relu", "kernel_constraint": null, "units": 90, "use_bias": true, "bias_constraint": null}}, {"inbound_nodes": [[["C4_0", 0, 0, {}]]], "name": "C4_1", "class_name": "Dense", "config": {"kernel_regularizer": {"class_name": "L1L2", "config": {"l2": 9.999999747378752e-05, "l1": 0.0}}, "activity_regularizer": null, "bias_initializer": {"class_name": "Zeros", "config": {}}, "name": "C4_1", "trainable": true, "kernel_initializer": {"class_name": "VarianceScaling", "config": {"scale": 1.0, "mode": "fan_avg", "seed": 3014, "distribution": "normal"}}, "bias_regularizer": null, "activation": "relu", "kernel_constraint": null, "units": 90, "use_bias": true, "bias_constraint": null}}, {"inbound_nodes": [[["B1_0", 0, 0, {}]]], "name": "B1_1", "class_name": "Dense", "config": {"kernel_regularizer": {"class_name": "L1L2", "config": {"l2": 9.999999747378752e-05, "l1": 0.0}}, "activity_regularizer": null, "bias_initializer": {"class_name": "Zeros", "config": {}}, "name": "B1_1", "trainable": true, "kernel_initializer": {"class_name": "VarianceScaling", "config": {"scale": 1.0, "mode": "fan_avg", "seed": 3014, "distribution": "normal"}}, "bias_regularizer": null, "activation": "relu", "kernel_constraint": null, "units": 90, "use_bias": true, "bias_constraint": null}}, {"inbound_nodes": [[["B3_0", 0, 0, {}]]], "name": "B3_1", "class_name": "Dense", "config": {"kernel_regularizer": {"class_name": "L1L2", "config": {"l2": 9.999999747378752e-05, "l1": 0.0}}, "activity_regularizer": null, "bias_initializer": {"class_name": "Zeros", "config": {}}, "name": "B3_1", "trainable": true, "kernel_initializer": {"class_name": "VarianceScaling", "config": {"scale": 1.0, "mode": "fan_avg", "seed": 3014, "distribution": "normal"}}, "bias_regularizer": null, "activation": "relu", "kernel_constraint": null, "units": 90, "use_bias": true, "bias_constraint": null}}, {"inbound_nodes": [[["D1_0", 0, 0, {}]]], "name": "D1_1", "class_name": "Dense", "config": {"kernel_regularizer": {"class_name": "L1L2", "config": {"l2": 9.999999747378752e-05, "l1": 0.0}}, "activity_regularizer": null, "bias_initializer": {"class_name": "Zeros", "config": {}}, "name": "D1_1", "trainable": true, "kernel_initializer": {"class_name": "VarianceScaling", "config": {"scale": 1.0, "mode": "fan_avg", "seed": 3014, "distribution": "normal"}}, "bias_regularizer": null, "activation": "relu", "kernel_constraint": null, "units": 90, "use_bias": true, "bias_constraint": null}}, {"inbound_nodes": [], "name": "OnOff_C1", "class_name": "InputLayer", "config": {"sparse": false, "batch_input_shape": [null, 1], "name": "OnOff_C1", "dtype": "float32"}}, {"inbound_nodes": [[["C1_1", 0, 0, {}]]], "name": "C1_o", "class_name": "Dense", "config": {"kernel_regularizer": {"class_name": "L1L2", "config": {"l2": 9.999999747378752e-05, "l1": 0.0}}, "activity_regularizer": null, "bias_initializer": {"class_name": "Zeros", "config": {}}, "name": "C1_o", "trainable": true, "kernel_initializer": {"class_name": "VarianceScaling", "config": {"scale": 1.0, "mode": "fan_avg", "seed": 3014, "distribution": "normal"}}, "bias_regularizer": null, "activation": "relu", "kernel_constraint": null, "units": 1, "use_bias": true, "bias_constraint": null}}, {"inbound_nodes": [], "name": "OnOff_C2", "class_name": "InputLayer", "config": {"sparse": false, "batch_input_shape": [null, 1], "name": "OnOff_C2", "dtype": "float32"}}, {"inbound_nodes": [[["C2_1", 0, 0, {}]]], "name": "C2_o", "class_name": "Dense", "config": {"kernel_regularizer": {"class_name": "L1L2", "config": {"l2": 9.999999747378752e-05, "l1": 0.0}}, "activity_regularizer": null, "bias_initializer": {"class_name": "Zeros", "config": {}}, "name": "C2_o", "trainable": true, "kernel_initializer": {"class_name": "VarianceScaling", "config": {"scale": 1.0, "mode": "fan_avg", "seed": 3014, "distribution": "normal"}}, "bias_regularizer": null, "activation": "relu", "kernel_constraint": null, "units": 1, "use_bias": true, "bias_constraint": null}}, {"inbound_nodes": [], "name": "OnOff_C3", "class_name": "InputLayer", "config": {"sparse": false, "batch_input_shape": [null, 1], "name": "OnOff_C3", "dtype": "float32"}}, {"inbound_nodes": [[["C3_1", 0, 0, {}]]], "name": "C3_o", "class_name": "Dense", "config": {"kernel_regularizer": {"class_name": "L1L2", "config": {"l2": 9.999999747378752e-05, "l1": 0.0}}, "activity_regularizer": null, "bias_initializer": {"class_name": "Zeros", "config": {}}, "name": "C3_o", "trainable": true, "kernel_initializer": {"class_name": "VarianceScaling", "config": {"scale": 1.0, "mode": "fan_avg", "seed": 3014, "distribution": "normal"}}, "bias_regularizer": null, "activation": "relu", "kernel_constraint": null, "units": 1, "use_bias": true, "bias_constraint": null}}, {"inbound_nodes": [], "name": "OnOff_C4", "class_name": "InputLayer", "config": {"sparse": false, "batch_input_shape": [null, 1], "name": "OnOff_C4", "dtype": "float32"}}, {"inbound_nodes": [[["C4_1", 0, 0, {}]]], "name": "C4_o", "class_name": "Dense", "config": {"kernel_regularizer": {"class_name": "L1L2", "config": {"l2": 9.999999747378752e-05, "l1": 0.0}}, "activity_regularizer": null, "bias_initializer": {"class_name": "Zeros", "config": {}}, "name": "C4_o", "trainable": true, "kernel_initializer": {"class_name": "VarianceScaling", "config": {"scale": 1.0, "mode": "fan_avg", "seed": 3014, "distribution": "normal"}}, "bias_regularizer": null, "activation": "relu", "kernel_constraint": null, "units": 1, "use_bias": true, "bias_constraint": null}}, {"inbound_nodes": [], "name": "OnOff_B1", "class_name": "InputLayer", "config": {"sparse": false, "batch_input_shape": [null, 1], "name": "OnOff_B1", "dtype": "float32"}}, {"inbound_nodes": [[["B1_1", 0, 0, {}]]], "name": "B1_o", "class_name": "Dense", "config": {"kernel_regularizer": {"class_name": "L1L2", "config": {"l2": 9.999999747378752e-05, "l1": 0.0}}, "activity_regularizer": null, "bias_initializer": {"class_name": "Zeros", "config": {}}, "name": "B1_o", "trainable": true, "kernel_initializer": {"class_name": "VarianceScaling", "config": {"scale": 1.0, "mode": "fan_avg", "seed": 3014, "distribution": "normal"}}, "bias_regularizer": null, "activation": "relu", "kernel_constraint": null, "units": 1, "use_bias": true, "bias_constraint": null}}, {"inbound_nodes": [], "name": "OnOff_B3", "class_name": "InputLayer", "config": {"sparse": false, "batch_input_shape": [null, 1], "name": "OnOff_B3", "dtype": "float32"}}, {"inbound_nodes": [[["B3_1", 0, 0, {}]]], "name": "B3_o", "class_name": "Dense", "config": {"kernel_regularizer": {"class_name": "L1L2", "config": {"l2": 9.999999747378752e-05, "l1": 0.0}}, "activity_regularizer": null, "bias_initializer": {"class_name": "Zeros", "config": {}}, "name": "B3_o", "trainable": true, "kernel_initializer": {"class_name": "VarianceScaling", "config": {"scale": 1.0, "mode": "fan_avg", "seed": 3014, "distribution": "normal"}}, "bias_regularizer": null, "activation": "relu", "kernel_constraint": null, "units": 1, "use_bias": true, "bias_constraint": null}}, {"inbound_nodes": [], "name": "OnOff_D1", "class_name": "InputLayer", "config": {"sparse": false, "batch_input_shape": [null, 1], "name": "OnOff_D1", "dtype": "float32"}}, {"inbound_nodes": [[["D1_1", 0, 0, {}]]], "name": "D1_o", "class_name": "Dense", "config": {"kernel_regularizer": {"class_name": "L1L2", "config": {"l2": 9.999999747378752e-05, "l1": 0.0}}, "activity_regularizer": null, "bias_initializer": {"class_name": "Zeros", "config": {}}, "name": "D1_o", "trainable": true, "kernel_initializer": {"class_name": "VarianceScaling", "config": {"scale": 1.0, "mode": "fan_avg", "seed": 3014, "distribution": "normal"}}, "bias_regularizer": null, "activation": "relu", "kernel_constraint": null, "units": 1, "use_bias": true, "bias_constraint": null}}, {"inbound_nodes": [[["OnOff_C1", 0, 0, {}], ["C1_o", 0, 0, {}]]], "name": "C1_out", "class_name": "Multiply", "config": {"trainable": true, "name": "C1_out"}}, {"inbound_nodes": [[["OnOff_C2", 0, 0, {}], ["C2_o", 0, 0, {}]]], "name": "C2_out", "class_name": "Multiply", "config": {"trainable": true, "name": "C2_out"}}, {"inbound_nodes": [[["OnOff_C3", 0, 0, {}], ["C3_o", 0, 0, {}]]], "name": "C3_out", "class_name": "Multiply", "config": {"trainable": true, "name": "C3_out"}}, {"inbound_nodes": [[["OnOff_C4", 0, 0, {}], ["C4_o", 0, 0, {}]]], "name": "C4_out", "class_name": "Multiply", "config": {"trainable": true, "name": "C4_out"}}, {"inbound_nodes": [[["OnOff_B1", 0, 0, {}], ["B1_o", 0, 0, {}]]], "name": "B1_out", "class_name": "Multiply", "config": {"trainable": true, "name": "B1_out"}}, {"inbound_nodes": [[["OnOff_B3", 0, 0, {}], ["B3_o", 0, 0, {}]]], "name": "B3_out", "class_name": "Multiply", "config": {"trainable": true, "name": "B3_out"}}, {"inbound_nodes": [[["OnOff_D1", 0, 0, {}], ["D1_o", 0, 0, {}]]], "name": "D1_out", "class_name": "Multiply", "config": {"trainable": true, "name": "D1_out"}}, {"inbound_nodes": [[["C1_out", 0, 0, {}], ["C2_out", 0, 0, {}], ["C3_out", 0, 0, {}], ["C4_out", 0, 0, {}], ["B1_out", 0, 0, {}], ["B3_out", 0, 0, {}], ["D1_out", 0, 0, {}]]], "name": "GJOA_TOTAL", "class_name": "Add", "config": {"trainable": true, "name": "GJOA_TOTAL"}}]}, "class_name": "Model"}