{"backend": "theano", "class_name": "Model", "config": {"name": "model_1", "input_layers": [["PRESSURE_INPUT", 0, 0], ["RISER_B_CHK_INPUT", 0, 0]], "layers": [{"inbound_nodes": [], "name": "PRESSURE_INPUT", "class_name": "InputLayer", "config": {"batch_input_shape": [null, 12], "dtype": "float32", "name": "PRESSURE_INPUT", "sparse": false}}, {"inbound_nodes": [], "name": "RISER_B_CHK_INPUT", "class_name": "InputLayer", "config": {"batch_input_shape": [null, 1], "dtype": "float32", "name": "RISER_B_CHK_INPUT", "sparse": false}}, {"inbound_nodes": [[["PRESSURE_INPUT", 0, 0, {}], ["RISER_B_CHK_INPUT", 0, 0, {}]]], "name": "RISER_MERGE", "class_name": "Concatenate", "config": {"name": "RISER_MERGE", "trainable": true, "axis": -1}}, {"inbound_nodes": [[["RISER_MERGE", 0, 0, {}]]], "name": "C1_PDC_0", "class_name": "Dense", "config": {"bias_initializer": {"class_name": "Zeros", "config": {}}, "activity_regularizer": null, "trainable": true, "kernel_constraint": null, "kernel_initializer": {"class_name": "VarianceScaling", "config": {"scale": 1.0, "mode": "fan_avg", "distribution": "normal", "seed": 3014}}, "bias_regularizer": null, "bias_constraint": null, "name": "C1_PDC_0", "activation": "relu", "use_bias": true, "kernel_regularizer": {"class_name": "L1L2", "config": {"l2": 9.999999747378752e-05, "l1": 0.0}}, "units": 50}}, {"inbound_nodes": [[["RISER_MERGE", 0, 0, {}]]], "name": "C2_PDC_0", "class_name": "Dense", "config": {"bias_initializer": {"class_name": "Zeros", "config": {}}, "activity_regularizer": null, "trainable": true, "kernel_constraint": null, "kernel_initializer": {"class_name": "VarianceScaling", "config": {"scale": 1.0, "mode": "fan_avg", "distribution": "normal", "seed": 3014}}, "bias_regularizer": null, "bias_constraint": null, "name": "C2_PDC_0", "activation": "relu", "use_bias": true, "kernel_regularizer": {"class_name": "L1L2", "config": {"l2": 9.999999747378752e-05, "l1": 0.0}}, "units": 50}}, {"inbound_nodes": [[["RISER_MERGE", 0, 0, {}]]], "name": "C3_PDC_0", "class_name": "Dense", "config": {"bias_initializer": {"class_name": "Zeros", "config": {}}, "activity_regularizer": null, "trainable": true, "kernel_constraint": null, "kernel_initializer": {"class_name": "VarianceScaling", "config": {"scale": 1.0, "mode": "fan_avg", "distribution": "normal", "seed": 3014}}, "bias_regularizer": null, "bias_constraint": null, "name": "C3_PDC_0", "activation": "relu", "use_bias": true, "kernel_regularizer": {"class_name": "L1L2", "config": {"l2": 9.999999747378752e-05, "l1": 0.0}}, "units": 50}}, {"inbound_nodes": [[["RISER_MERGE", 0, 0, {}]]], "name": "C4_PDC_0", "class_name": "Dense", "config": {"bias_initializer": {"class_name": "Zeros", "config": {}}, "activity_regularizer": null, "trainable": true, "kernel_constraint": null, "kernel_initializer": {"class_name": "VarianceScaling", "config": {"scale": 1.0, "mode": "fan_avg", "distribution": "normal", "seed": 3014}}, "bias_regularizer": null, "bias_constraint": null, "name": "C4_PDC_0", "activation": "relu", "use_bias": true, "kernel_regularizer": {"class_name": "L1L2", "config": {"l2": 9.999999747378752e-05, "l1": 0.0}}, "units": 50}}, {"inbound_nodes": [[["RISER_MERGE", 0, 0, {}]]], "name": "B3_PDC_0", "class_name": "Dense", "config": {"bias_initializer": {"class_name": "Zeros", "config": {}}, "activity_regularizer": null, "trainable": true, "kernel_constraint": null, "kernel_initializer": {"class_name": "VarianceScaling", "config": {"scale": 1.0, "mode": "fan_avg", "distribution": "normal", "seed": 3014}}, "bias_regularizer": null, "bias_constraint": null, "name": "B3_PDC_0", "activation": "relu", "use_bias": true, "kernel_regularizer": {"class_name": "L1L2", "config": {"l2": 9.999999747378752e-05, "l1": 0.0}}, "units": 50}}, {"inbound_nodes": [[["RISER_MERGE", 0, 0, {}]]], "name": "B1_PDC_0", "class_name": "Dense", "config": {"bias_initializer": {"class_name": "Zeros", "config": {}}, "activity_regularizer": null, "trainable": true, "kernel_constraint": null, "kernel_initializer": {"class_name": "VarianceScaling", "config": {"scale": 1.0, "mode": "fan_avg", "distribution": "normal", "seed": 3014}}, "bias_regularizer": null, "bias_constraint": null, "name": "B1_PDC_0", "activation": "relu", "use_bias": true, "kernel_regularizer": {"class_name": "L1L2", "config": {"l2": 9.999999747378752e-05, "l1": 0.0}}, "units": 50}}, {"inbound_nodes": [[["RISER_MERGE", 0, 0, {}]]], "name": "D1_PDC_0", "class_name": "Dense", "config": {"bias_initializer": {"class_name": "Zeros", "config": {}}, "activity_regularizer": null, "trainable": true, "kernel_constraint": null, "kernel_initializer": {"class_name": "VarianceScaling", "config": {"scale": 1.0, "mode": "fan_avg", "distribution": "normal", "seed": 3014}}, "bias_regularizer": null, "bias_constraint": null, "name": "D1_PDC_0", "activation": "relu", "use_bias": true, "kernel_regularizer": {"class_name": "L1L2", "config": {"l2": 9.999999747378752e-05, "l1": 0.0}}, "units": 50}}, {"inbound_nodes": [[["C1_PDC_0", 0, 0, {}]]], "name": "C1_PDC_1", "class_name": "Dense", "config": {"bias_initializer": {"class_name": "Zeros", "config": {}}, "activity_regularizer": null, "trainable": true, "kernel_constraint": null, "kernel_initializer": {"class_name": "VarianceScaling", "config": {"scale": 1.0, "mode": "fan_avg", "distribution": "normal", "seed": 3014}}, "bias_regularizer": null, "bias_constraint": null, "name": "C1_PDC_1", "activation": "relu", "use_bias": true, "kernel_regularizer": {"class_name": "L1L2", "config": {"l2": 9.999999747378752e-05, "l1": 0.0}}, "units": 50}}, {"inbound_nodes": [[["C2_PDC_0", 0, 0, {}]]], "name": "C2_PDC_1", "class_name": "Dense", "config": {"bias_initializer": {"class_name": "Zeros", "config": {}}, "activity_regularizer": null, "trainable": true, "kernel_constraint": null, "kernel_initializer": {"class_name": "VarianceScaling", "config": {"scale": 1.0, "mode": "fan_avg", "distribution": "normal", "seed": 3014}}, "bias_regularizer": null, "bias_constraint": null, "name": "C2_PDC_1", "activation": "relu", "use_bias": true, "kernel_regularizer": {"class_name": "L1L2", "config": {"l2": 9.999999747378752e-05, "l1": 0.0}}, "units": 50}}, {"inbound_nodes": [[["C3_PDC_0", 0, 0, {}]]], "name": "C3_PDC_1", "class_name": "Dense", "config": {"bias_initializer": {"class_name": "Zeros", "config": {}}, "activity_regularizer": null, "trainable": true, "kernel_constraint": null, "kernel_initializer": {"class_name": "VarianceScaling", "config": {"scale": 1.0, "mode": "fan_avg", "distribution": "normal", "seed": 3014}}, "bias_regularizer": null, "bias_constraint": null, "name": "C3_PDC_1", "activation": "relu", "use_bias": true, "kernel_regularizer": {"class_name": "L1L2", "config": {"l2": 9.999999747378752e-05, "l1": 0.0}}, "units": 50}}, {"inbound_nodes": [[["C4_PDC_0", 0, 0, {}]]], "name": "C4_PDC_1", "class_name": "Dense", "config": {"bias_initializer": {"class_name": "Zeros", "config": {}}, "activity_regularizer": null, "trainable": true, "kernel_constraint": null, "kernel_initializer": {"class_name": "VarianceScaling", "config": {"scale": 1.0, "mode": "fan_avg", "distribution": "normal", "seed": 3014}}, "bias_regularizer": null, "bias_constraint": null, "name": "C4_PDC_1", "activation": "relu", "use_bias": true, "kernel_regularizer": {"class_name": "L1L2", "config": {"l2": 9.999999747378752e-05, "l1": 0.0}}, "units": 50}}, {"inbound_nodes": [[["B3_PDC_0", 0, 0, {}]]], "name": "B3_PDC_1", "class_name": "Dense", "config": {"bias_initializer": {"class_name": "Zeros", "config": {}}, "activity_regularizer": null, "trainable": true, "kernel_constraint": null, "kernel_initializer": {"class_name": "VarianceScaling", "config": {"scale": 1.0, "mode": "fan_avg", "distribution": "normal", "seed": 3014}}, "bias_regularizer": null, "bias_constraint": null, "name": "B3_PDC_1", "activation": "relu", "use_bias": true, "kernel_regularizer": {"class_name": "L1L2", "config": {"l2": 9.999999747378752e-05, "l1": 0.0}}, "units": 50}}, {"inbound_nodes": [[["B1_PDC_0", 0, 0, {}]]], "name": "B1_PDC_1", "class_name": "Dense", "config": {"bias_initializer": {"class_name": "Zeros", "config": {}}, "activity_regularizer": null, "trainable": true, "kernel_constraint": null, "kernel_initializer": {"class_name": "VarianceScaling", "config": {"scale": 1.0, "mode": "fan_avg", "distribution": "normal", "seed": 3014}}, "bias_regularizer": null, "bias_constraint": null, "name": "B1_PDC_1", "activation": "relu", "use_bias": true, "kernel_regularizer": {"class_name": "L1L2", "config": {"l2": 9.999999747378752e-05, "l1": 0.0}}, "units": 50}}, {"inbound_nodes": [[["D1_PDC_0", 0, 0, {}]]], "name": "D1_PDC_1", "class_name": "Dense", "config": {"bias_initializer": {"class_name": "Zeros", "config": {}}, "activity_regularizer": null, "trainable": true, "kernel_constraint": null, "kernel_initializer": {"class_name": "VarianceScaling", "config": {"scale": 1.0, "mode": "fan_avg", "distribution": "normal", "seed": 3014}}, "bias_regularizer": null, "bias_constraint": null, "name": "D1_PDC_1", "activation": "relu", "use_bias": true, "kernel_regularizer": {"class_name": "L1L2", "config": {"l2": 9.999999747378752e-05, "l1": 0.0}}, "units": 50}}, {"inbound_nodes": [[["C1_PDC_1", 0, 0, {}]]], "name": "C1_PDC_out", "class_name": "Dense", "config": {"bias_initializer": {"class_name": "Zeros", "config": {}}, "activity_regularizer": null, "trainable": true, "kernel_constraint": null, "kernel_initializer": {"class_name": "VarianceScaling", "config": {"scale": 1.0, "mode": "fan_avg", "distribution": "normal", "seed": 3014}}, "bias_regularizer": null, "bias_constraint": null, "name": "C1_PDC_out", "activation": "linear", "use_bias": true, "kernel_regularizer": {"class_name": "L1L2", "config": {"l2": 9.999999747378752e-05, "l1": 0.0}}, "units": 1}}, {"inbound_nodes": [[["C2_PDC_1", 0, 0, {}]]], "name": "C2_PDC_out", "class_name": "Dense", "config": {"bias_initializer": {"class_name": "Zeros", "config": {}}, "activity_regularizer": null, "trainable": true, "kernel_constraint": null, "kernel_initializer": {"class_name": "VarianceScaling", "config": {"scale": 1.0, "mode": "fan_avg", "distribution": "normal", "seed": 3014}}, "bias_regularizer": null, "bias_constraint": null, "name": "C2_PDC_out", "activation": "linear", "use_bias": true, "kernel_regularizer": {"class_name": "L1L2", "config": {"l2": 9.999999747378752e-05, "l1": 0.0}}, "units": 1}}, {"inbound_nodes": [[["C3_PDC_1", 0, 0, {}]]], "name": "C3_PDC_out", "class_name": "Dense", "config": {"bias_initializer": {"class_name": "Zeros", "config": {}}, "activity_regularizer": null, "trainable": true, "kernel_constraint": null, "kernel_initializer": {"class_name": "VarianceScaling", "config": {"scale": 1.0, "mode": "fan_avg", "distribution": "normal", "seed": 3014}}, "bias_regularizer": null, "bias_constraint": null, "name": "C3_PDC_out", "activation": "linear", "use_bias": true, "kernel_regularizer": {"class_name": "L1L2", "config": {"l2": 9.999999747378752e-05, "l1": 0.0}}, "units": 1}}, {"inbound_nodes": [[["C4_PDC_1", 0, 0, {}]]], "name": "C4_PDC_out", "class_name": "Dense", "config": {"bias_initializer": {"class_name": "Zeros", "config": {}}, "activity_regularizer": null, "trainable": true, "kernel_constraint": null, "kernel_initializer": {"class_name": "VarianceScaling", "config": {"scale": 1.0, "mode": "fan_avg", "distribution": "normal", "seed": 3014}}, "bias_regularizer": null, "bias_constraint": null, "name": "C4_PDC_out", "activation": "linear", "use_bias": true, "kernel_regularizer": {"class_name": "L1L2", "config": {"l2": 9.999999747378752e-05, "l1": 0.0}}, "units": 1}}, {"inbound_nodes": [[["B3_PDC_1", 0, 0, {}]]], "name": "B3_PDC_out", "class_name": "Dense", "config": {"bias_initializer": {"class_name": "Zeros", "config": {}}, "activity_regularizer": null, "trainable": true, "kernel_constraint": null, "kernel_initializer": {"class_name": "VarianceScaling", "config": {"scale": 1.0, "mode": "fan_avg", "distribution": "normal", "seed": 3014}}, "bias_regularizer": null, "bias_constraint": null, "name": "B3_PDC_out", "activation": "linear", "use_bias": true, "kernel_regularizer": {"class_name": "L1L2", "config": {"l2": 9.999999747378752e-05, "l1": 0.0}}, "units": 1}}, {"inbound_nodes": [[["B1_PDC_1", 0, 0, {}]]], "name": "B1_PDC_out", "class_name": "Dense", "config": {"bias_initializer": {"class_name": "Zeros", "config": {}}, "activity_regularizer": null, "trainable": true, "kernel_constraint": null, "kernel_initializer": {"class_name": "VarianceScaling", "config": {"scale": 1.0, "mode": "fan_avg", "distribution": "normal", "seed": 3014}}, "bias_regularizer": null, "bias_constraint": null, "name": "B1_PDC_out", "activation": "linear", "use_bias": true, "kernel_regularizer": {"class_name": "L1L2", "config": {"l2": 9.999999747378752e-05, "l1": 0.0}}, "units": 1}}, {"inbound_nodes": [[["D1_PDC_1", 0, 0, {}]]], "name": "D1_PDC_out", "class_name": "Dense", "config": {"bias_initializer": {"class_name": "Zeros", "config": {}}, "activity_regularizer": null, "trainable": true, "kernel_constraint": null, "kernel_initializer": {"class_name": "VarianceScaling", "config": {"scale": 1.0, "mode": "fan_avg", "distribution": "normal", "seed": 3014}}, "bias_regularizer": null, "bias_constraint": null, "name": "D1_PDC_out", "activation": "linear", "use_bias": true, "kernel_regularizer": {"class_name": "L1L2", "config": {"l2": 9.999999747378752e-05, "l1": 0.0}}, "units": 1}}], "output_layers": [["C1_PDC_out", 0, 0], ["C2_PDC_out", 0, 0], ["C3_PDC_out", 0, 0], ["C4_PDC_out", 0, 0], ["B3_PDC_out", 0, 0], ["B1_PDC_out", 0, 0], ["D1_PDC_out", 0, 0]]}, "keras_version": "2.0.1"}