{"class_name": "Model", "backend": "theano", "config": {"name": "model_1", "layers": [{"name": "F1", "inbound_nodes": [], "config": {"dtype": "float32", "name": "F1", "sparse": false, "batch_input_shape": [null, 4]}, "class_name": "InputLayer"}, {"name": "B2", "inbound_nodes": [], "config": {"dtype": "float32", "name": "B2", "sparse": false, "batch_input_shape": [null, 4]}, "class_name": "InputLayer"}, {"name": "D3", "inbound_nodes": [], "config": {"dtype": "float32", "name": "D3", "sparse": false, "batch_input_shape": [null, 4]}, "class_name": "InputLayer"}, {"name": "E1", "inbound_nodes": [], "config": {"dtype": "float32", "name": "E1", "sparse": false, "batch_input_shape": [null, 4]}, "class_name": "InputLayer"}, {"name": "dense_1", "inbound_nodes": [[["F1", 0, 0, {}]]], "config": {"name": "dense_1", "units": 50, "kernel_initializer": {"class_name": "VarianceScaling", "config": {"scale": 1.0, "mode": "fan_avg", "distribution": "normal", "seed": 9035}}, "kernel_constraint": null, "use_bias": true, "bias_regularizer": null, "trainable": true, "bias_constraint": null, "activity_regularizer": null, "activation": "relu", "kernel_regularizer": {"class_name": "L1L2", "config": {"l2": 9.999999974752427e-07, "l1": 0.0}}, "bias_initializer": {"class_name": "Zeros", "config": {}}}, "class_name": "Dense"}, {"name": "dense_4", "inbound_nodes": [[["B2", 0, 0, {}]]], "config": {"name": "dense_4", "units": 50, "kernel_initializer": {"class_name": "VarianceScaling", "config": {"scale": 1.0, "mode": "fan_avg", "distribution": "normal", "seed": 9035}}, "kernel_constraint": null, "use_bias": true, "bias_regularizer": null, "trainable": true, "bias_constraint": null, "activity_regularizer": null, "activation": "relu", "kernel_regularizer": {"class_name": "L1L2", "config": {"l2": 9.999999974752427e-07, "l1": 0.0}}, "bias_initializer": {"class_name": "Zeros", "config": {}}}, "class_name": "Dense"}, {"name": "dense_7", "inbound_nodes": [[["D3", 0, 0, {}]]], "config": {"name": "dense_7", "units": 50, "kernel_initializer": {"class_name": "VarianceScaling", "config": {"scale": 1.0, "mode": "fan_avg", "distribution": "normal", "seed": 9035}}, "kernel_constraint": null, "use_bias": true, "bias_regularizer": null, "trainable": true, "bias_constraint": null, "activity_regularizer": null, "activation": "relu", "kernel_regularizer": {"class_name": "L1L2", "config": {"l2": 9.999999974752427e-07, "l1": 0.0}}, "bias_initializer": {"class_name": "Zeros", "config": {}}}, "class_name": "Dense"}, {"name": "dense_10", "inbound_nodes": [[["E1", 0, 0, {}]]], "config": {"name": "dense_10", "units": 50, "kernel_initializer": {"class_name": "VarianceScaling", "config": {"scale": 1.0, "mode": "fan_avg", "distribution": "normal", "seed": 9035}}, "kernel_constraint": null, "use_bias": true, "bias_regularizer": null, "trainable": true, "bias_constraint": null, "activity_regularizer": null, "activation": "relu", "kernel_regularizer": {"class_name": "L1L2", "config": {"l2": 9.999999974752427e-07, "l1": 0.0}}, "bias_initializer": {"class_name": "Zeros", "config": {}}}, "class_name": "Dense"}, {"name": "dropout_1", "inbound_nodes": [[["dense_1", 0, 0, {}]]], "config": {"name": "dropout_1", "trainable": true, "rate": 0.4}, "class_name": "Dropout"}, {"name": "dropout_2", "inbound_nodes": [[["dense_4", 0, 0, {}]]], "config": {"name": "dropout_2", "trainable": true, "rate": 0.4}, "class_name": "Dropout"}, {"name": "dropout_3", "inbound_nodes": [[["dense_7", 0, 0, {}]]], "config": {"name": "dropout_3", "trainable": true, "rate": 0.4}, "class_name": "Dropout"}, {"name": "dropout_4", "inbound_nodes": [[["dense_10", 0, 0, {}]]], "config": {"name": "dropout_4", "trainable": true, "rate": 0.4}, "class_name": "Dropout"}, {"name": "dense_2", "inbound_nodes": [[["dropout_1", 0, 0, {}]]], "config": {"name": "dense_2", "units": 50, "kernel_initializer": {"class_name": "VarianceScaling", "config": {"scale": 1.0, "mode": "fan_avg", "distribution": "normal", "seed": 9035}}, "kernel_constraint": null, "use_bias": true, "bias_regularizer": null, "trainable": true, "bias_constraint": null, "activity_regularizer": null, "activation": "relu", "kernel_regularizer": {"class_name": "L1L2", "config": {"l2": 9.999999974752427e-07, "l1": 0.0}}, "bias_initializer": {"class_name": "Zeros", "config": {}}}, "class_name": "Dense"}, {"name": "dense_5", "inbound_nodes": [[["dropout_2", 0, 0, {}]]], "config": {"name": "dense_5", "units": 50, "kernel_initializer": {"class_name": "VarianceScaling", "config": {"scale": 1.0, "mode": "fan_avg", "distribution": "normal", "seed": 9035}}, "kernel_constraint": null, "use_bias": true, "bias_regularizer": null, "trainable": true, "bias_constraint": null, "activity_regularizer": null, "activation": "relu", "kernel_regularizer": {"class_name": "L1L2", "config": {"l2": 9.999999974752427e-07, "l1": 0.0}}, "bias_initializer": {"class_name": "Zeros", "config": {}}}, "class_name": "Dense"}, {"name": "dense_8", "inbound_nodes": [[["dropout_3", 0, 0, {}]]], "config": {"name": "dense_8", "units": 50, "kernel_initializer": {"class_name": "VarianceScaling", "config": {"scale": 1.0, "mode": "fan_avg", "distribution": "normal", "seed": 9035}}, "kernel_constraint": null, "use_bias": true, "bias_regularizer": null, "trainable": true, "bias_constraint": null, "activity_regularizer": null, "activation": "relu", "kernel_regularizer": {"class_name": "L1L2", "config": {"l2": 9.999999974752427e-07, "l1": 0.0}}, "bias_initializer": {"class_name": "Zeros", "config": {}}}, "class_name": "Dense"}, {"name": "dense_11", "inbound_nodes": [[["dropout_4", 0, 0, {}]]], "config": {"name": "dense_11", "units": 50, "kernel_initializer": {"class_name": "VarianceScaling", "config": {"scale": 1.0, "mode": "fan_avg", "distribution": "normal", "seed": 9035}}, "kernel_constraint": null, "use_bias": true, "bias_regularizer": null, "trainable": true, "bias_constraint": null, "activity_regularizer": null, "activation": "relu", "kernel_regularizer": {"class_name": "L1L2", "config": {"l2": 9.999999974752427e-07, "l1": 0.0}}, "bias_initializer": {"class_name": "Zeros", "config": {}}}, "class_name": "Dense"}, {"name": "OnOff_F1", "inbound_nodes": [], "config": {"dtype": "float32", "name": "OnOff_F1", "sparse": false, "batch_input_shape": [null, 1]}, "class_name": "InputLayer"}, {"name": "dense_3", "inbound_nodes": [[["dense_2", 0, 0, {}]]], "config": {"name": "dense_3", "units": 1, "kernel_initializer": {"class_name": "VarianceScaling", "config": {"scale": 1.0, "mode": "fan_avg", "distribution": "normal", "seed": 9035}}, "kernel_constraint": null, "use_bias": true, "bias_regularizer": null, "trainable": true, "bias_constraint": null, "activity_regularizer": null, "activation": "relu", "kernel_regularizer": {"class_name": "L1L2", "config": {"l2": 9.999999974752427e-07, "l1": 0.0}}, "bias_initializer": {"class_name": "Zeros", "config": {}}}, "class_name": "Dense"}, {"name": "OnOff_B2", "inbound_nodes": [], "config": {"dtype": "float32", "name": "OnOff_B2", "sparse": false, "batch_input_shape": [null, 1]}, "class_name": "InputLayer"}, {"name": "dense_6", "inbound_nodes": [[["dense_5", 0, 0, {}]]], "config": {"name": "dense_6", "units": 1, "kernel_initializer": {"class_name": "VarianceScaling", "config": {"scale": 1.0, "mode": "fan_avg", "distribution": "normal", "seed": 9035}}, "kernel_constraint": null, "use_bias": true, "bias_regularizer": null, "trainable": true, "bias_constraint": null, "activity_regularizer": null, "activation": "relu", "kernel_regularizer": {"class_name": "L1L2", "config": {"l2": 9.999999974752427e-07, "l1": 0.0}}, "bias_initializer": {"class_name": "Zeros", "config": {}}}, "class_name": "Dense"}, {"name": "OnOff_D3", "inbound_nodes": [], "config": {"dtype": "float32", "name": "OnOff_D3", "sparse": false, "batch_input_shape": [null, 1]}, "class_name": "InputLayer"}, {"name": "dense_9", "inbound_nodes": [[["dense_8", 0, 0, {}]]], "config": {"name": "dense_9", "units": 1, "kernel_initializer": {"class_name": "VarianceScaling", "config": {"scale": 1.0, "mode": "fan_avg", "distribution": "normal", "seed": 9035}}, "kernel_constraint": null, "use_bias": true, "bias_regularizer": null, "trainable": true, "bias_constraint": null, "activity_regularizer": null, "activation": "relu", "kernel_regularizer": {"class_name": "L1L2", "config": {"l2": 9.999999974752427e-07, "l1": 0.0}}, "bias_initializer": {"class_name": "Zeros", "config": {}}}, "class_name": "Dense"}, {"name": "OnOff_E1", "inbound_nodes": [], "config": {"dtype": "float32", "name": "OnOff_E1", "sparse": false, "batch_input_shape": [null, 1]}, "class_name": "InputLayer"}, {"name": "dense_12", "inbound_nodes": [[["dense_11", 0, 0, {}]]], "config": {"name": "dense_12", "units": 1, "kernel_initializer": {"class_name": "VarianceScaling", "config": {"scale": 1.0, "mode": "fan_avg", "distribution": "normal", "seed": 9035}}, "kernel_constraint": null, "use_bias": true, "bias_regularizer": null, "trainable": true, "bias_constraint": null, "activity_regularizer": null, "activation": "relu", "kernel_regularizer": {"class_name": "L1L2", "config": {"l2": 9.999999974752427e-07, "l1": 0.0}}, "bias_initializer": {"class_name": "Zeros", "config": {}}}, "class_name": "Dense"}, {"name": "F1_out", "inbound_nodes": [[["OnOff_F1", 0, 0, {}], ["dense_3", 0, 0, {}]]], "config": {"name": "F1_out", "trainable": true}, "class_name": "Multiply"}, {"name": "B2_out", "inbound_nodes": [[["OnOff_B2", 0, 0, {}], ["dense_6", 0, 0, {}]]], "config": {"name": "B2_out", "trainable": true}, "class_name": "Multiply"}, {"name": "D3_out", "inbound_nodes": [[["OnOff_D3", 0, 0, {}], ["dense_9", 0, 0, {}]]], "config": {"name": "D3_out", "trainable": true}, "class_name": "Multiply"}, {"name": "E1_out", "inbound_nodes": [[["OnOff_E1", 0, 0, {}], ["dense_12", 0, 0, {}]]], "config": {"name": "E1_out", "trainable": true}, "class_name": "Multiply"}, {"name": "GJOA_QGAS", "inbound_nodes": [[["F1_out", 0, 0, {}], ["B2_out", 0, 0, {}], ["D3_out", 0, 0, {}], ["E1_out", 0, 0, {}]]], "config": {"name": "GJOA_QGAS", "trainable": true}, "class_name": "Add"}], "output_layers": [["F1_out", 0, 0], ["B2_out", 0, 0], ["D3_out", 0, 0], ["E1_out", 0, 0], ["GJOA_QGAS", 0, 0]], "input_layers": [["F1", 0, 0], ["B2", 0, 0], ["D3", 0, 0], ["E1", 0, 0], ["OnOff_F1", 0, 0], ["OnOff_B2", 0, 0], ["OnOff_D3", 0, 0], ["OnOff_E1", 0, 0]]}, "keras_version": "2.0.1"}