{"class_name": "Model", "backend": "theano", "keras_version": "2.0.1", "config": {"name": "model_1", "layers": [{"class_name": "InputLayer", "name": "CHK_INPUT_PREV", "inbound_nodes": [], "config": {"sparse": false, "name": "CHK_INPUT_PREV", "dtype": "float32", "batch_input_shape": [null, 4]}}, {"class_name": "InputLayer", "name": "CHK_INPUT_NOW", "inbound_nodes": [], "config": {"sparse": false, "name": "CHK_INPUT_NOW", "dtype": "float32", "batch_input_shape": [null, 4]}}, {"class_name": "Add", "name": "CHK_DELTA", "inbound_nodes": [[["CHK_INPUT_PREV", 0, 0, {}], ["CHK_INPUT_NOW", 0, 0, {}]]], "config": {"name": "CHK_DELTA", "trainable": true}}, {"class_name": "Dense", "name": "F1_PWH_0", "inbound_nodes": [[["CHK_DELTA", 0, 0, {}]]], "config": {"activity_regularizer": null, "kernel_regularizer": {"class_name": "L1L2", "config": {"l2": 0.00039999998989515007, "l1": 0.0}}, "name": "F1_PWH_0", "trainable": true, "activation": "relu", "bias_constraint": null, "use_bias": true, "units": 80, "kernel_initializer": {"class_name": "VarianceScaling", "config": {"mode": "fan_avg", "scale": 1.0, "seed": 3014, "distribution": "normal"}}, "bias_regularizer": null, "bias_initializer": {"class_name": "Zeros", "config": {}}, "kernel_constraint": null}}, {"class_name": "Dense", "name": "B2_PWH_0", "inbound_nodes": [[["CHK_DELTA", 0, 0, {}]]], "config": {"activity_regularizer": null, "kernel_regularizer": {"class_name": "L1L2", "config": {"l2": 0.00039999998989515007, "l1": 0.0}}, "name": "B2_PWH_0", "trainable": true, "activation": "relu", "bias_constraint": null, "use_bias": true, "units": 80, "kernel_initializer": {"class_name": "VarianceScaling", "config": {"mode": "fan_avg", "scale": 1.0, "seed": 3014, "distribution": "normal"}}, "bias_regularizer": null, "bias_initializer": {"class_name": "Zeros", "config": {}}, "kernel_constraint": null}}, {"class_name": "Dense", "name": "D3_PWH_0", "inbound_nodes": [[["CHK_DELTA", 0, 0, {}]]], "config": {"activity_regularizer": null, "kernel_regularizer": {"class_name": "L1L2", "config": {"l2": 0.00039999998989515007, "l1": 0.0}}, "name": "D3_PWH_0", "trainable": true, "activation": "relu", "bias_constraint": null, "use_bias": true, "units": 80, "kernel_initializer": {"class_name": "VarianceScaling", "config": {"mode": "fan_avg", "scale": 1.0, "seed": 3014, "distribution": "normal"}}, "bias_regularizer": null, "bias_initializer": {"class_name": "Zeros", "config": {}}, "kernel_constraint": null}}, {"class_name": "Dense", "name": "E1_PWH_0", "inbound_nodes": [[["CHK_DELTA", 0, 0, {}]]], "config": {"activity_regularizer": null, "kernel_regularizer": {"class_name": "L1L2", "config": {"l2": 0.00039999998989515007, "l1": 0.0}}, "name": "E1_PWH_0", "trainable": true, "activation": "relu", "bias_constraint": null, "use_bias": true, "units": 80, "kernel_initializer": {"class_name": "VarianceScaling", "config": {"mode": "fan_avg", "scale": 1.0, "seed": 3014, "distribution": "normal"}}, "bias_regularizer": null, "bias_initializer": {"class_name": "Zeros", "config": {}}, "kernel_constraint": null}}, {"class_name": "Dense", "name": "F1_PWH_1", "inbound_nodes": [[["F1_PWH_0", 0, 0, {}]]], "config": {"activity_regularizer": null, "kernel_regularizer": {"class_name": "L1L2", "config": {"l2": 0.00039999998989515007, "l1": 0.0}}, "name": "F1_PWH_1", "trainable": true, "activation": "relu", "bias_constraint": null, "use_bias": true, "units": 80, "kernel_initializer": {"class_name": "VarianceScaling", "config": {"mode": "fan_avg", "scale": 1.0, "seed": 3014, "distribution": "normal"}}, "bias_regularizer": null, "bias_initializer": {"class_name": "Zeros", "config": {}}, "kernel_constraint": null}}, {"class_name": "Dense", "name": "B2_PWH_1", "inbound_nodes": [[["B2_PWH_0", 0, 0, {}]]], "config": {"activity_regularizer": null, "kernel_regularizer": {"class_name": "L1L2", "config": {"l2": 0.00039999998989515007, "l1": 0.0}}, "name": "B2_PWH_1", "trainable": true, "activation": "relu", "bias_constraint": null, "use_bias": true, "units": 80, "kernel_initializer": {"class_name": "VarianceScaling", "config": {"mode": "fan_avg", "scale": 1.0, "seed": 3014, "distribution": "normal"}}, "bias_regularizer": null, "bias_initializer": {"class_name": "Zeros", "config": {}}, "kernel_constraint": null}}, {"class_name": "Dense", "name": "D3_PWH_1", "inbound_nodes": [[["D3_PWH_0", 0, 0, {}]]], "config": {"activity_regularizer": null, "kernel_regularizer": {"class_name": "L1L2", "config": {"l2": 0.00039999998989515007, "l1": 0.0}}, "name": "D3_PWH_1", "trainable": true, "activation": "relu", "bias_constraint": null, "use_bias": true, "units": 80, "kernel_initializer": {"class_name": "VarianceScaling", "config": {"mode": "fan_avg", "scale": 1.0, "seed": 3014, "distribution": "normal"}}, "bias_regularizer": null, "bias_initializer": {"class_name": "Zeros", "config": {}}, "kernel_constraint": null}}, {"class_name": "Dense", "name": "E1_PWH_1", "inbound_nodes": [[["E1_PWH_0", 0, 0, {}]]], "config": {"activity_regularizer": null, "kernel_regularizer": {"class_name": "L1L2", "config": {"l2": 0.00039999998989515007, "l1": 0.0}}, "name": "E1_PWH_1", "trainable": true, "activation": "relu", "bias_constraint": null, "use_bias": true, "units": 80, "kernel_initializer": {"class_name": "VarianceScaling", "config": {"mode": "fan_avg", "scale": 1.0, "seed": 3014, "distribution": "normal"}}, "bias_regularizer": null, "bias_initializer": {"class_name": "Zeros", "config": {}}, "kernel_constraint": null}}, {"class_name": "Dense", "name": "F1_PWH_out", "inbound_nodes": [[["F1_PWH_1", 0, 0, {}]]], "config": {"activity_regularizer": null, "kernel_regularizer": {"class_name": "L1L2", "config": {"l2": 0.00039999998989515007, "l1": 0.0}}, "name": "F1_PWH_out", "trainable": true, "activation": "linear", "bias_constraint": null, "use_bias": true, "units": 1, "kernel_initializer": {"class_name": "VarianceScaling", "config": {"mode": "fan_avg", "scale": 1.0, "seed": 3014, "distribution": "normal"}}, "bias_regularizer": null, "bias_initializer": {"class_name": "Zeros", "config": {}}, "kernel_constraint": null}}, {"class_name": "InputLayer", "name": "SHIFTED_PRESSURE_PWH_F1", "inbound_nodes": [], "config": {"sparse": false, "name": "SHIFTED_PRESSURE_PWH_F1", "dtype": "float32", "batch_input_shape": [null, 1]}}, {"class_name": "Dense", "name": "B2_PWH_out", "inbound_nodes": [[["B2_PWH_1", 0, 0, {}]]], "config": {"activity_regularizer": null, "kernel_regularizer": {"class_name": "L1L2", "config": {"l2": 0.00039999998989515007, "l1": 0.0}}, "name": "B2_PWH_out", "trainable": true, "activation": "linear", "bias_constraint": null, "use_bias": true, "units": 1, "kernel_initializer": {"class_name": "VarianceScaling", "config": {"mode": "fan_avg", "scale": 1.0, "seed": 3014, "distribution": "normal"}}, "bias_regularizer": null, "bias_initializer": {"class_name": "Zeros", "config": {}}, "kernel_constraint": null}}, {"class_name": "InputLayer", "name": "SHIFTED_PRESSURE_PWH_B2", "inbound_nodes": [], "config": {"sparse": false, "name": "SHIFTED_PRESSURE_PWH_B2", "dtype": "float32", "batch_input_shape": [null, 1]}}, {"class_name": "Dense", "name": "D3_PWH_out", "inbound_nodes": [[["D3_PWH_1", 0, 0, {}]]], "config": {"activity_regularizer": null, "kernel_regularizer": {"class_name": "L1L2", "config": {"l2": 0.00039999998989515007, "l1": 0.0}}, "name": "D3_PWH_out", "trainable": true, "activation": "linear", "bias_constraint": null, "use_bias": true, "units": 1, "kernel_initializer": {"class_name": "VarianceScaling", "config": {"mode": "fan_avg", "scale": 1.0, "seed": 3014, "distribution": "normal"}}, "bias_regularizer": null, "bias_initializer": {"class_name": "Zeros", "config": {}}, "kernel_constraint": null}}, {"class_name": "InputLayer", "name": "SHIFTED_PRESSURE_PWH_D3", "inbound_nodes": [], "config": {"sparse": false, "name": "SHIFTED_PRESSURE_PWH_D3", "dtype": "float32", "batch_input_shape": [null, 1]}}, {"class_name": "Dense", "name": "E1_PWH_out", "inbound_nodes": [[["E1_PWH_1", 0, 0, {}]]], "config": {"activity_regularizer": null, "kernel_regularizer": {"class_name": "L1L2", "config": {"l2": 0.00039999998989515007, "l1": 0.0}}, "name": "E1_PWH_out", "trainable": true, "activation": "linear", "bias_constraint": null, "use_bias": true, "units": 1, "kernel_initializer": {"class_name": "VarianceScaling", "config": {"mode": "fan_avg", "scale": 1.0, "seed": 3014, "distribution": "normal"}}, "bias_regularizer": null, "bias_initializer": {"class_name": "Zeros", "config": {}}, "kernel_constraint": null}}, {"class_name": "InputLayer", "name": "SHIFTED_PRESSURE_PWH_E1", "inbound_nodes": [], "config": {"sparse": false, "name": "SHIFTED_PRESSURE_PWH_E1", "dtype": "float32", "batch_input_shape": [null, 1]}}, {"class_name": "Add", "name": "F1_PWH_out2", "inbound_nodes": [[["F1_PWH_out", 0, 0, {}], ["SHIFTED_PRESSURE_PWH_F1", 0, 0, {}]]], "config": {"name": "F1_PWH_out2", "trainable": true}}, {"class_name": "Add", "name": "B2_PWH_out2", "inbound_nodes": [[["B2_PWH_out", 0, 0, {}], ["SHIFTED_PRESSURE_PWH_B2", 0, 0, {}]]], "config": {"name": "B2_PWH_out2", "trainable": true}}, {"class_name": "Add", "name": "D3_PWH_out2", "inbound_nodes": [[["D3_PWH_out", 0, 0, {}], ["SHIFTED_PRESSURE_PWH_D3", 0, 0, {}]]], "config": {"name": "D3_PWH_out2", "trainable": true}}, {"class_name": "Add", "name": "E1_PWH_out2", "inbound_nodes": [[["E1_PWH_out", 0, 0, {}], ["SHIFTED_PRESSURE_PWH_E1", 0, 0, {}]]], "config": {"name": "E1_PWH_out2", "trainable": true}}], "input_layers": [["CHK_INPUT_NOW", 0, 0], ["CHK_INPUT_PREV", 0, 0], ["SHIFTED_PRESSURE_PWH_F1", 0, 0], ["SHIFTED_PRESSURE_PWH_B2", 0, 0], ["SHIFTED_PRESSURE_PWH_D3", 0, 0], ["SHIFTED_PRESSURE_PWH_E1", 0, 0]], "output_layers": [["F1_PWH_out2", 0, 0], ["F1_PWH_out", 0, 0], ["B2_PWH_out2", 0, 0], ["B2_PWH_out", 0, 0], ["D3_PWH_out2", 0, 0], ["D3_PWH_out", 0, 0], ["E1_PWH_out2", 0, 0], ["E1_PWH_out", 0, 0]]}}