{"keras_version": "2.0.1", "class_name": "Model", "backend": "theano", "config": {"layers": [{"class_name": "InputLayer", "name": "F1", "config": {"sparse": false, "name": "F1", "dtype": "float32", "batch_input_shape": [null, 4]}, "inbound_nodes": []}, {"class_name": "InputLayer", "name": "B2", "config": {"sparse": false, "name": "B2", "dtype": "float32", "batch_input_shape": [null, 4]}, "inbound_nodes": []}, {"class_name": "InputLayer", "name": "D3", "config": {"sparse": false, "name": "D3", "dtype": "float32", "batch_input_shape": [null, 4]}, "inbound_nodes": []}, {"class_name": "InputLayer", "name": "E1", "config": {"sparse": false, "name": "E1", "dtype": "float32", "batch_input_shape": [null, 4]}, "inbound_nodes": []}, {"class_name": "Dense", "name": "dense_1", "config": {"activity_regularizer": null, "name": "dense_1", "use_bias": true, "activation": "relu", "bias_initializer": {"class_name": "Zeros", "config": {}}, "kernel_constraint": null, "bias_regularizer": null, "bias_constraint": null, "kernel_regularizer": {"class_name": "L1L2", "config": {"l2": 0.0010000000474974513, "l1": 0.0}}, "kernel_initializer": {"class_name": "VarianceScaling", "config": {"scale": 1.0, "seed": 9035, "distribution": "normal", "mode": "fan_avg"}}, "units": 50, "trainable": true}, "inbound_nodes": [[["F1", 0, 0, {}]]]}, {"class_name": "Dense", "name": "dense_4", "config": {"activity_regularizer": null, "name": "dense_4", "use_bias": true, "activation": "relu", "bias_initializer": {"class_name": "Zeros", "config": {}}, "kernel_constraint": null, "bias_regularizer": null, "bias_constraint": null, "kernel_regularizer": {"class_name": "L1L2", "config": {"l2": 0.0010000000474974513, "l1": 0.0}}, "kernel_initializer": {"class_name": "VarianceScaling", "config": {"scale": 1.0, "seed": 9035, "distribution": "normal", "mode": "fan_avg"}}, "units": 50, "trainable": true}, "inbound_nodes": [[["B2", 0, 0, {}]]]}, {"class_name": "Dense", "name": "dense_7", "config": {"activity_regularizer": null, "name": "dense_7", "use_bias": true, "activation": "relu", "bias_initializer": {"class_name": "Zeros", "config": {}}, "kernel_constraint": null, "bias_regularizer": null, "bias_constraint": null, "kernel_regularizer": {"class_name": "L1L2", "config": {"l2": 0.0010000000474974513, "l1": 0.0}}, "kernel_initializer": {"class_name": "VarianceScaling", "config": {"scale": 1.0, "seed": 9035, "distribution": "normal", "mode": "fan_avg"}}, "units": 50, "trainable": true}, "inbound_nodes": [[["D3", 0, 0, {}]]]}, {"class_name": "Dense", "name": "dense_10", "config": {"activity_regularizer": null, "name": "dense_10", "use_bias": true, "activation": "relu", "bias_initializer": {"class_name": "Zeros", "config": {}}, "kernel_constraint": null, "bias_regularizer": null, "bias_constraint": null, "kernel_regularizer": {"class_name": "L1L2", "config": {"l2": 0.0010000000474974513, "l1": 0.0}}, "kernel_initializer": {"class_name": "VarianceScaling", "config": {"scale": 1.0, "seed": 9035, "distribution": "normal", "mode": "fan_avg"}}, "units": 50, "trainable": true}, "inbound_nodes": [[["E1", 0, 0, {}]]]}, {"class_name": "Dense", "name": "dense_2", "config": {"activity_regularizer": null, "name": "dense_2", "use_bias": true, "activation": "relu", "bias_initializer": {"class_name": "Zeros", "config": {}}, "kernel_constraint": null, "bias_regularizer": null, "bias_constraint": null, "kernel_regularizer": {"class_name": "L1L2", "config": {"l2": 0.0010000000474974513, "l1": 0.0}}, "kernel_initializer": {"class_name": "VarianceScaling", "config": {"scale": 1.0, "seed": 9035, "distribution": "normal", "mode": "fan_avg"}}, "units": 50, "trainable": true}, "inbound_nodes": [[["dense_1", 0, 0, {}]]]}, {"class_name": "Dense", "name": "dense_5", "config": {"activity_regularizer": null, "name": "dense_5", "use_bias": true, "activation": "relu", "bias_initializer": {"class_name": "Zeros", "config": {}}, "kernel_constraint": null, "bias_regularizer": null, "bias_constraint": null, "kernel_regularizer": {"class_name": "L1L2", "config": {"l2": 0.0010000000474974513, "l1": 0.0}}, "kernel_initializer": {"class_name": "VarianceScaling", "config": {"scale": 1.0, "seed": 9035, "distribution": "normal", "mode": "fan_avg"}}, "units": 50, "trainable": true}, "inbound_nodes": [[["dense_4", 0, 0, {}]]]}, {"class_name": "Dense", "name": "dense_8", "config": {"activity_regularizer": null, "name": "dense_8", "use_bias": true, "activation": "relu", "bias_initializer": {"class_name": "Zeros", "config": {}}, "kernel_constraint": null, "bias_regularizer": null, "bias_constraint": null, "kernel_regularizer": {"class_name": "L1L2", "config": {"l2": 0.0010000000474974513, "l1": 0.0}}, "kernel_initializer": {"class_name": "VarianceScaling", "config": {"scale": 1.0, "seed": 9035, "distribution": "normal", "mode": "fan_avg"}}, "units": 50, "trainable": true}, "inbound_nodes": [[["dense_7", 0, 0, {}]]]}, {"class_name": "Dense", "name": "dense_11", "config": {"activity_regularizer": null, "name": "dense_11", "use_bias": true, "activation": "relu", "bias_initializer": {"class_name": "Zeros", "config": {}}, "kernel_constraint": null, "bias_regularizer": null, "bias_constraint": null, "kernel_regularizer": {"class_name": "L1L2", "config": {"l2": 0.0010000000474974513, "l1": 0.0}}, "kernel_initializer": {"class_name": "VarianceScaling", "config": {"scale": 1.0, "seed": 9035, "distribution": "normal", "mode": "fan_avg"}}, "units": 50, "trainable": true}, "inbound_nodes": [[["dense_10", 0, 0, {}]]]}, {"class_name": "InputLayer", "name": "OnOff_F1", "config": {"sparse": false, "name": "OnOff_F1", "dtype": "float32", "batch_input_shape": [null, 1]}, "inbound_nodes": []}, {"class_name": "Dense", "name": "dense_3", "config": {"activity_regularizer": null, "name": "dense_3", "use_bias": true, "activation": "relu", "bias_initializer": {"class_name": "Zeros", "config": {}}, "kernel_constraint": null, "bias_regularizer": null, "bias_constraint": null, "kernel_regularizer": {"class_name": "L1L2", "config": {"l2": 0.0010000000474974513, "l1": 0.0}}, "kernel_initializer": {"class_name": "VarianceScaling", "config": {"scale": 1.0, "seed": 9035, "distribution": "normal", "mode": "fan_avg"}}, "units": 1, "trainable": true}, "inbound_nodes": [[["dense_2", 0, 0, {}]]]}, {"class_name": "InputLayer", "name": "OnOff_B2", "config": {"sparse": false, "name": "OnOff_B2", "dtype": "float32", "batch_input_shape": [null, 1]}, "inbound_nodes": []}, {"class_name": "Dense", "name": "dense_6", "config": {"activity_regularizer": null, "name": "dense_6", "use_bias": true, "activation": "relu", "bias_initializer": {"class_name": "Zeros", "config": {}}, "kernel_constraint": null, "bias_regularizer": null, "bias_constraint": null, "kernel_regularizer": {"class_name": "L1L2", "config": {"l2": 0.0010000000474974513, "l1": 0.0}}, "kernel_initializer": {"class_name": "VarianceScaling", "config": {"scale": 1.0, "seed": 9035, "distribution": "normal", "mode": "fan_avg"}}, "units": 1, "trainable": true}, "inbound_nodes": [[["dense_5", 0, 0, {}]]]}, {"class_name": "InputLayer", "name": "OnOff_D3", "config": {"sparse": false, "name": "OnOff_D3", "dtype": "float32", "batch_input_shape": [null, 1]}, "inbound_nodes": []}, {"class_name": "Dense", "name": "dense_9", "config": {"activity_regularizer": null, "name": "dense_9", "use_bias": true, "activation": "relu", "bias_initializer": {"class_name": "Zeros", "config": {}}, "kernel_constraint": null, "bias_regularizer": null, "bias_constraint": null, "kernel_regularizer": {"class_name": "L1L2", "config": {"l2": 0.0010000000474974513, "l1": 0.0}}, "kernel_initializer": {"class_name": "VarianceScaling", "config": {"scale": 1.0, "seed": 9035, "distribution": "normal", "mode": "fan_avg"}}, "units": 1, "trainable": true}, "inbound_nodes": [[["dense_8", 0, 0, {}]]]}, {"class_name": "InputLayer", "name": "OnOff_E1", "config": {"sparse": false, "name": "OnOff_E1", "dtype": "float32", "batch_input_shape": [null, 1]}, "inbound_nodes": []}, {"class_name": "Dense", "name": "dense_12", "config": {"activity_regularizer": null, "name": "dense_12", "use_bias": true, "activation": "relu", "bias_initializer": {"class_name": "Zeros", "config": {}}, "kernel_constraint": null, "bias_regularizer": null, "bias_constraint": null, "kernel_regularizer": {"class_name": "L1L2", "config": {"l2": 0.0010000000474974513, "l1": 0.0}}, "kernel_initializer": {"class_name": "VarianceScaling", "config": {"scale": 1.0, "seed": 9035, "distribution": "normal", "mode": "fan_avg"}}, "units": 1, "trainable": true}, "inbound_nodes": [[["dense_11", 0, 0, {}]]]}, {"class_name": "Multiply", "name": "F1_out", "config": {"name": "F1_out", "trainable": true}, "inbound_nodes": [[["OnOff_F1", 0, 0, {}], ["dense_3", 0, 0, {}]]]}, {"class_name": "Multiply", "name": "B2_out", "config": {"name": "B2_out", "trainable": true}, "inbound_nodes": [[["OnOff_B2", 0, 0, {}], ["dense_6", 0, 0, {}]]]}, {"class_name": "Multiply", "name": "D3_out", "config": {"name": "D3_out", "trainable": true}, "inbound_nodes": [[["OnOff_D3", 0, 0, {}], ["dense_9", 0, 0, {}]]]}, {"class_name": "Multiply", "name": "E1_out", "config": {"name": "E1_out", "trainable": true}, "inbound_nodes": [[["OnOff_E1", 0, 0, {}], ["dense_12", 0, 0, {}]]]}, {"class_name": "Add", "name": "GJOA_QGAS", "config": {"name": "GJOA_QGAS", "trainable": true}, "inbound_nodes": [[["F1_out", 0, 0, {}], ["B2_out", 0, 0, {}], ["D3_out", 0, 0, {}], ["E1_out", 0, 0, {}]]]}], "input_layers": [["F1", 0, 0], ["B2", 0, 0], ["D3", 0, 0], ["E1", 0, 0], ["OnOff_F1", 0, 0], ["OnOff_B2", 0, 0], ["OnOff_D3", 0, 0], ["OnOff_E1", 0, 0]], "name": "model_1", "output_layers": [["F1_out", 0, 0], ["B2_out", 0, 0], ["D3_out", 0, 0], ["E1_out", 0, 0], ["GJOA_QGAS", 0, 0]]}}