{"backend": "theano", "keras_version": "2.0.1", "class_name": "Model", "config": {"name": "model_1", "output_layers": [["F1_out", 0, 0], ["B2_out", 0, 0], ["D3_out", 0, 0], ["E1_out", 0, 0], ["GJOA_QGAS", 0, 0]], "layers": [{"name": "F1", "inbound_nodes": [], "class_name": "InputLayer", "config": {"name": "F1", "dtype": "float32", "batch_input_shape": [null, 4], "sparse": false}}, {"name": "B2", "inbound_nodes": [], "class_name": "InputLayer", "config": {"name": "B2", "dtype": "float32", "batch_input_shape": [null, 4], "sparse": false}}, {"name": "D3", "inbound_nodes": [], "class_name": "InputLayer", "config": {"name": "D3", "dtype": "float32", "batch_input_shape": [null, 4], "sparse": false}}, {"name": "E1", "inbound_nodes": [], "class_name": "InputLayer", "config": {"name": "E1", "dtype": "float32", "batch_input_shape": [null, 4], "sparse": false}}, {"name": "dense_1", "inbound_nodes": [[["F1", 0, 0, {}]]], "class_name": "Dense", "config": {"name": "dense_1", "bias_constraint": null, "trainable": true, "bias_initializer": {"class_name": "Zeros", "config": {}}, "activity_regularizer": null, "kernel_regularizer": {"class_name": "L1L2", "config": {"l2": 4.999999873689376e-05, "l1": 0.0}}, "kernel_constraint": null, "activation": "relu", "units": 20, "bias_regularizer": null, "kernel_initializer": {"class_name": "VarianceScaling", "config": {"scale": 1.0, "seed": 9035, "mode": "fan_avg", "distribution": "normal"}}, "use_bias": true}}, {"name": "dense_4", "inbound_nodes": [[["B2", 0, 0, {}]]], "class_name": "Dense", "config": {"name": "dense_4", "bias_constraint": null, "trainable": true, "bias_initializer": {"class_name": "Zeros", "config": {}}, "activity_regularizer": null, "kernel_regularizer": {"class_name": "L1L2", "config": {"l2": 4.999999873689376e-05, "l1": 0.0}}, "kernel_constraint": null, "activation": "relu", "units": 20, "bias_regularizer": null, "kernel_initializer": {"class_name": "VarianceScaling", "config": {"scale": 1.0, "seed": 9035, "mode": "fan_avg", "distribution": "normal"}}, "use_bias": true}}, {"name": "dense_7", "inbound_nodes": [[["D3", 0, 0, {}]]], "class_name": "Dense", "config": {"name": "dense_7", "bias_constraint": null, "trainable": true, "bias_initializer": {"class_name": "Zeros", "config": {}}, "activity_regularizer": null, "kernel_regularizer": {"class_name": "L1L2", "config": {"l2": 4.999999873689376e-05, "l1": 0.0}}, "kernel_constraint": null, "activation": "relu", "units": 20, "bias_regularizer": null, "kernel_initializer": {"class_name": "VarianceScaling", "config": {"scale": 1.0, "seed": 9035, "mode": "fan_avg", "distribution": "normal"}}, "use_bias": true}}, {"name": "dense_10", "inbound_nodes": [[["E1", 0, 0, {}]]], "class_name": "Dense", "config": {"name": "dense_10", "bias_constraint": null, "trainable": true, "bias_initializer": {"class_name": "Zeros", "config": {}}, "activity_regularizer": null, "kernel_regularizer": {"class_name": "L1L2", "config": {"l2": 4.999999873689376e-05, "l1": 0.0}}, "kernel_constraint": null, "activation": "relu", "units": 20, "bias_regularizer": null, "kernel_initializer": {"class_name": "VarianceScaling", "config": {"scale": 1.0, "seed": 9035, "mode": "fan_avg", "distribution": "normal"}}, "use_bias": true}}, {"name": "dense_2", "inbound_nodes": [[["dense_1", 0, 0, {}]]], "class_name": "Dense", "config": {"name": "dense_2", "bias_constraint": null, "trainable": true, "bias_initializer": {"class_name": "Zeros", "config": {}}, "activity_regularizer": null, "kernel_regularizer": {"class_name": "L1L2", "config": {"l2": 4.999999873689376e-05, "l1": 0.0}}, "kernel_constraint": null, "activation": "relu", "units": 20, "bias_regularizer": null, "kernel_initializer": {"class_name": "VarianceScaling", "config": {"scale": 1.0, "seed": 9035, "mode": "fan_avg", "distribution": "normal"}}, "use_bias": true}}, {"name": "dense_5", "inbound_nodes": [[["dense_4", 0, 0, {}]]], "class_name": "Dense", "config": {"name": "dense_5", "bias_constraint": null, "trainable": true, "bias_initializer": {"class_name": "Zeros", "config": {}}, "activity_regularizer": null, "kernel_regularizer": {"class_name": "L1L2", "config": {"l2": 4.999999873689376e-05, "l1": 0.0}}, "kernel_constraint": null, "activation": "relu", "units": 20, "bias_regularizer": null, "kernel_initializer": {"class_name": "VarianceScaling", "config": {"scale": 1.0, "seed": 9035, "mode": "fan_avg", "distribution": "normal"}}, "use_bias": true}}, {"name": "dense_8", "inbound_nodes": [[["dense_7", 0, 0, {}]]], "class_name": "Dense", "config": {"name": "dense_8", "bias_constraint": null, "trainable": true, "bias_initializer": {"class_name": "Zeros", "config": {}}, "activity_regularizer": null, "kernel_regularizer": {"class_name": "L1L2", "config": {"l2": 4.999999873689376e-05, "l1": 0.0}}, "kernel_constraint": null, "activation": "relu", "units": 20, "bias_regularizer": null, "kernel_initializer": {"class_name": "VarianceScaling", "config": {"scale": 1.0, "seed": 9035, "mode": "fan_avg", "distribution": "normal"}}, "use_bias": true}}, {"name": "dense_11", "inbound_nodes": [[["dense_10", 0, 0, {}]]], "class_name": "Dense", "config": {"name": "dense_11", "bias_constraint": null, "trainable": true, "bias_initializer": {"class_name": "Zeros", "config": {}}, "activity_regularizer": null, "kernel_regularizer": {"class_name": "L1L2", "config": {"l2": 4.999999873689376e-05, "l1": 0.0}}, "kernel_constraint": null, "activation": "relu", "units": 20, "bias_regularizer": null, "kernel_initializer": {"class_name": "VarianceScaling", "config": {"scale": 1.0, "seed": 9035, "mode": "fan_avg", "distribution": "normal"}}, "use_bias": true}}, {"name": "OnOff_F1", "inbound_nodes": [], "class_name": "InputLayer", "config": {"name": "OnOff_F1", "dtype": "float32", "batch_input_shape": [null, 1], "sparse": false}}, {"name": "dense_3", "inbound_nodes": [[["dense_2", 0, 0, {}]]], "class_name": "Dense", "config": {"name": "dense_3", "bias_constraint": null, "trainable": true, "bias_initializer": {"class_name": "Zeros", "config": {}}, "activity_regularizer": null, "kernel_regularizer": {"class_name": "L1L2", "config": {"l2": 4.999999873689376e-05, "l1": 0.0}}, "kernel_constraint": null, "activation": "relu", "units": 1, "bias_regularizer": null, "kernel_initializer": {"class_name": "VarianceScaling", "config": {"scale": 1.0, "seed": 9035, "mode": "fan_avg", "distribution": "normal"}}, "use_bias": true}}, {"name": "OnOff_B2", "inbound_nodes": [], "class_name": "InputLayer", "config": {"name": "OnOff_B2", "dtype": "float32", "batch_input_shape": [null, 1], "sparse": false}}, {"name": "dense_6", "inbound_nodes": [[["dense_5", 0, 0, {}]]], "class_name": "Dense", "config": {"name": "dense_6", "bias_constraint": null, "trainable": true, "bias_initializer": {"class_name": "Zeros", "config": {}}, "activity_regularizer": null, "kernel_regularizer": {"class_name": "L1L2", "config": {"l2": 4.999999873689376e-05, "l1": 0.0}}, "kernel_constraint": null, "activation": "relu", "units": 1, "bias_regularizer": null, "kernel_initializer": {"class_name": "VarianceScaling", "config": {"scale": 1.0, "seed": 9035, "mode": "fan_avg", "distribution": "normal"}}, "use_bias": true}}, {"name": "OnOff_D3", "inbound_nodes": [], "class_name": "InputLayer", "config": {"name": "OnOff_D3", "dtype": "float32", "batch_input_shape": [null, 1], "sparse": false}}, {"name": "dense_9", "inbound_nodes": [[["dense_8", 0, 0, {}]]], "class_name": "Dense", "config": {"name": "dense_9", "bias_constraint": null, "trainable": true, "bias_initializer": {"class_name": "Zeros", "config": {}}, "activity_regularizer": null, "kernel_regularizer": {"class_name": "L1L2", "config": {"l2": 4.999999873689376e-05, "l1": 0.0}}, "kernel_constraint": null, "activation": "relu", "units": 1, "bias_regularizer": null, "kernel_initializer": {"class_name": "VarianceScaling", "config": {"scale": 1.0, "seed": 9035, "mode": "fan_avg", "distribution": "normal"}}, "use_bias": true}}, {"name": "OnOff_E1", "inbound_nodes": [], "class_name": "InputLayer", "config": {"name": "OnOff_E1", "dtype": "float32", "batch_input_shape": [null, 1], "sparse": false}}, {"name": "dense_12", "inbound_nodes": [[["dense_11", 0, 0, {}]]], "class_name": "Dense", "config": {"name": "dense_12", "bias_constraint": null, "trainable": true, "bias_initializer": {"class_name": "Zeros", "config": {}}, "activity_regularizer": null, "kernel_regularizer": {"class_name": "L1L2", "config": {"l2": 4.999999873689376e-05, "l1": 0.0}}, "kernel_constraint": null, "activation": "relu", "units": 1, "bias_regularizer": null, "kernel_initializer": {"class_name": "VarianceScaling", "config": {"scale": 1.0, "seed": 9035, "mode": "fan_avg", "distribution": "normal"}}, "use_bias": true}}, {"name": "F1_out", "inbound_nodes": [[["OnOff_F1", 0, 0, {}], ["dense_3", 0, 0, {}]]], "class_name": "Multiply", "config": {"name": "F1_out", "trainable": true}}, {"name": "B2_out", "inbound_nodes": [[["OnOff_B2", 0, 0, {}], ["dense_6", 0, 0, {}]]], "class_name": "Multiply", "config": {"name": "B2_out", "trainable": true}}, {"name": "D3_out", "inbound_nodes": [[["OnOff_D3", 0, 0, {}], ["dense_9", 0, 0, {}]]], "class_name": "Multiply", "config": {"name": "D3_out", "trainable": true}}, {"name": "E1_out", "inbound_nodes": [[["OnOff_E1", 0, 0, {}], ["dense_12", 0, 0, {}]]], "class_name": "Multiply", "config": {"name": "E1_out", "trainable": true}}, {"name": "GJOA_QGAS", "inbound_nodes": [[["F1_out", 0, 0, {}], ["B2_out", 0, 0, {}], ["D3_out", 0, 0, {}], ["E1_out", 0, 0, {}]]], "class_name": "Add", "config": {"name": "GJOA_QGAS", "trainable": true}}], "input_layers": [["F1", 0, 0], ["B2", 0, 0], ["D3", 0, 0], ["E1", 0, 0], ["OnOff_F1", 0, 0], ["OnOff_B2", 0, 0], ["OnOff_D3", 0, 0], ["OnOff_E1", 0, 0]]}}