{"config": {"layers": [{"config": {"batch_input_shape": [null, 4], "sparse": false, "dtype": "float32", "name": "F1"}, "name": "F1", "inbound_nodes": [], "class_name": "InputLayer"}, {"config": {"batch_input_shape": [null, 4], "sparse": false, "dtype": "float32", "name": "B2"}, "name": "B2", "inbound_nodes": [], "class_name": "InputLayer"}, {"config": {"batch_input_shape": [null, 4], "sparse": false, "dtype": "float32", "name": "D3"}, "name": "D3", "inbound_nodes": [], "class_name": "InputLayer"}, {"config": {"batch_input_shape": [null, 4], "sparse": false, "dtype": "float32", "name": "E1"}, "name": "E1", "inbound_nodes": [], "class_name": "InputLayer"}, {"config": {"bias_constraint": null, "activation": "relu", "bias_initializer": {"config": {}, "class_name": "Zeros"}, "bias_regularizer": null, "kernel_regularizer": {"config": {"l1": 0.0, "l2": 4.999999873689376e-06}, "class_name": "L1L2"}, "name": "dense_1", "trainable": true, "kernel_constraint": null, "use_bias": true, "units": 50, "kernel_initializer": {"config": {"scale": 1.0, "distribution": "normal", "seed": 9035, "mode": "fan_avg"}, "class_name": "VarianceScaling"}, "activity_regularizer": null}, "name": "dense_1", "inbound_nodes": [[["F1", 0, 0, {}]]], "class_name": "Dense"}, {"config": {"bias_constraint": null, "activation": "relu", "bias_initializer": {"config": {}, "class_name": "Zeros"}, "bias_regularizer": null, "kernel_regularizer": {"config": {"l1": 0.0, "l2": 4.999999873689376e-06}, "class_name": "L1L2"}, "name": "dense_4", "trainable": true, "kernel_constraint": null, "use_bias": true, "units": 50, "kernel_initializer": {"config": {"scale": 1.0, "distribution": "normal", "seed": 9035, "mode": "fan_avg"}, "class_name": "VarianceScaling"}, "activity_regularizer": null}, "name": "dense_4", "inbound_nodes": [[["B2", 0, 0, {}]]], "class_name": "Dense"}, {"config": {"bias_constraint": null, "activation": "relu", "bias_initializer": {"config": {}, "class_name": "Zeros"}, "bias_regularizer": null, "kernel_regularizer": {"config": {"l1": 0.0, "l2": 4.999999873689376e-06}, "class_name": "L1L2"}, "name": "dense_7", "trainable": true, "kernel_constraint": null, "use_bias": true, "units": 50, "kernel_initializer": {"config": {"scale": 1.0, "distribution": "normal", "seed": 9035, "mode": "fan_avg"}, "class_name": "VarianceScaling"}, "activity_regularizer": null}, "name": "dense_7", "inbound_nodes": [[["D3", 0, 0, {}]]], "class_name": "Dense"}, {"config": {"bias_constraint": null, "activation": "relu", "bias_initializer": {"config": {}, "class_name": "Zeros"}, "bias_regularizer": null, "kernel_regularizer": {"config": {"l1": 0.0, "l2": 4.999999873689376e-06}, "class_name": "L1L2"}, "name": "dense_10", "trainable": true, "kernel_constraint": null, "use_bias": true, "units": 50, "kernel_initializer": {"config": {"scale": 1.0, "distribution": "normal", "seed": 9035, "mode": "fan_avg"}, "class_name": "VarianceScaling"}, "activity_regularizer": null}, "name": "dense_10", "inbound_nodes": [[["E1", 0, 0, {}]]], "class_name": "Dense"}, {"config": {"bias_constraint": null, "activation": "relu", "bias_initializer": {"config": {}, "class_name": "Zeros"}, "bias_regularizer": null, "kernel_regularizer": {"config": {"l1": 0.0, "l2": 4.999999873689376e-06}, "class_name": "L1L2"}, "name": "dense_2", "trainable": true, "kernel_constraint": null, "use_bias": true, "units": 50, "kernel_initializer": {"config": {"scale": 1.0, "distribution": "normal", "seed": 9035, "mode": "fan_avg"}, "class_name": "VarianceScaling"}, "activity_regularizer": null}, "name": "dense_2", "inbound_nodes": [[["dense_1", 0, 0, {}]]], "class_name": "Dense"}, {"config": {"bias_constraint": null, "activation": "relu", "bias_initializer": {"config": {}, "class_name": "Zeros"}, "bias_regularizer": null, "kernel_regularizer": {"config": {"l1": 0.0, "l2": 4.999999873689376e-06}, "class_name": "L1L2"}, "name": "dense_5", "trainable": true, "kernel_constraint": null, "use_bias": true, "units": 50, "kernel_initializer": {"config": {"scale": 1.0, "distribution": "normal", "seed": 9035, "mode": "fan_avg"}, "class_name": "VarianceScaling"}, "activity_regularizer": null}, "name": "dense_5", "inbound_nodes": [[["dense_4", 0, 0, {}]]], "class_name": "Dense"}, {"config": {"bias_constraint": null, "activation": "relu", "bias_initializer": {"config": {}, "class_name": "Zeros"}, "bias_regularizer": null, "kernel_regularizer": {"config": {"l1": 0.0, "l2": 4.999999873689376e-06}, "class_name": "L1L2"}, "name": "dense_8", "trainable": true, "kernel_constraint": null, "use_bias": true, "units": 50, "kernel_initializer": {"config": {"scale": 1.0, "distribution": "normal", "seed": 9035, "mode": "fan_avg"}, "class_name": "VarianceScaling"}, "activity_regularizer": null}, "name": "dense_8", "inbound_nodes": [[["dense_7", 0, 0, {}]]], "class_name": "Dense"}, {"config": {"bias_constraint": null, "activation": "relu", "bias_initializer": {"config": {}, "class_name": "Zeros"}, "bias_regularizer": null, "kernel_regularizer": {"config": {"l1": 0.0, "l2": 4.999999873689376e-06}, "class_name": "L1L2"}, "name": "dense_11", "trainable": true, "kernel_constraint": null, "use_bias": true, "units": 50, "kernel_initializer": {"config": {"scale": 1.0, "distribution": "normal", "seed": 9035, "mode": "fan_avg"}, "class_name": "VarianceScaling"}, "activity_regularizer": null}, "name": "dense_11", "inbound_nodes": [[["dense_10", 0, 0, {}]]], "class_name": "Dense"}, {"config": {"batch_input_shape": [null, 1], "sparse": false, "dtype": "float32", "name": "OnOff_F1"}, "name": "OnOff_F1", "inbound_nodes": [], "class_name": "InputLayer"}, {"config": {"bias_constraint": null, "activation": "linear", "bias_initializer": {"config": {}, "class_name": "Zeros"}, "bias_regularizer": null, "kernel_regularizer": {"config": {"l1": 0.0, "l2": 4.999999873689376e-06}, "class_name": "L1L2"}, "name": "dense_3", "trainable": true, "kernel_constraint": null, "use_bias": true, "units": 1, "kernel_initializer": {"config": {"scale": 1.0, "distribution": "normal", "seed": 9035, "mode": "fan_avg"}, "class_name": "VarianceScaling"}, "activity_regularizer": null}, "name": "dense_3", "inbound_nodes": [[["dense_2", 0, 0, {}]]], "class_name": "Dense"}, {"config": {"batch_input_shape": [null, 1], "sparse": false, "dtype": "float32", "name": "OnOff_B2"}, "name": "OnOff_B2", "inbound_nodes": [], "class_name": "InputLayer"}, {"config": {"bias_constraint": null, "activation": "linear", "bias_initializer": {"config": {}, "class_name": "Zeros"}, "bias_regularizer": null, "kernel_regularizer": {"config": {"l1": 0.0, "l2": 4.999999873689376e-06}, "class_name": "L1L2"}, "name": "dense_6", "trainable": true, "kernel_constraint": null, "use_bias": true, "units": 1, "kernel_initializer": {"config": {"scale": 1.0, "distribution": "normal", "seed": 9035, "mode": "fan_avg"}, "class_name": "VarianceScaling"}, "activity_regularizer": null}, "name": "dense_6", "inbound_nodes": [[["dense_5", 0, 0, {}]]], "class_name": "Dense"}, {"config": {"batch_input_shape": [null, 1], "sparse": false, "dtype": "float32", "name": "OnOff_D3"}, "name": "OnOff_D3", "inbound_nodes": [], "class_name": "InputLayer"}, {"config": {"bias_constraint": null, "activation": "linear", "bias_initializer": {"config": {}, "class_name": "Zeros"}, "bias_regularizer": null, "kernel_regularizer": {"config": {"l1": 0.0, "l2": 4.999999873689376e-06}, "class_name": "L1L2"}, "name": "dense_9", "trainable": true, "kernel_constraint": null, "use_bias": true, "units": 1, "kernel_initializer": {"config": {"scale": 1.0, "distribution": "normal", "seed": 9035, "mode": "fan_avg"}, "class_name": "VarianceScaling"}, "activity_regularizer": null}, "name": "dense_9", "inbound_nodes": [[["dense_8", 0, 0, {}]]], "class_name": "Dense"}, {"config": {"batch_input_shape": [null, 1], "sparse": false, "dtype": "float32", "name": "OnOff_E1"}, "name": "OnOff_E1", "inbound_nodes": [], "class_name": "InputLayer"}, {"config": {"bias_constraint": null, "activation": "linear", "bias_initializer": {"config": {}, "class_name": "Zeros"}, "bias_regularizer": null, "kernel_regularizer": {"config": {"l1": 0.0, "l2": 4.999999873689376e-06}, "class_name": "L1L2"}, "name": "dense_12", "trainable": true, "kernel_constraint": null, "use_bias": true, "units": 1, "kernel_initializer": {"config": {"scale": 1.0, "distribution": "normal", "seed": 9035, "mode": "fan_avg"}, "class_name": "VarianceScaling"}, "activity_regularizer": null}, "name": "dense_12", "inbound_nodes": [[["dense_11", 0, 0, {}]]], "class_name": "Dense"}, {"config": {"trainable": true, "name": "F1_out"}, "name": "F1_out", "inbound_nodes": [[["OnOff_F1", 0, 0, {}], ["dense_3", 0, 0, {}]]], "class_name": "Multiply"}, {"config": {"trainable": true, "name": "B2_out"}, "name": "B2_out", "inbound_nodes": [[["OnOff_B2", 0, 0, {}], ["dense_6", 0, 0, {}]]], "class_name": "Multiply"}, {"config": {"trainable": true, "name": "D3_out"}, "name": "D3_out", "inbound_nodes": [[["OnOff_D3", 0, 0, {}], ["dense_9", 0, 0, {}]]], "class_name": "Multiply"}, {"config": {"trainable": true, "name": "E1_out"}, "name": "E1_out", "inbound_nodes": [[["OnOff_E1", 0, 0, {}], ["dense_12", 0, 0, {}]]], "class_name": "Multiply"}, {"config": {"trainable": true, "name": "GJOA_QGAS"}, "name": "GJOA_QGAS", "inbound_nodes": [[["F1_out", 0, 0, {}], ["B2_out", 0, 0, {}], ["D3_out", 0, 0, {}], ["E1_out", 0, 0, {}]]], "class_name": "Add"}], "input_layers": [["F1", 0, 0], ["B2", 0, 0], ["D3", 0, 0], ["E1", 0, 0], ["OnOff_F1", 0, 0], ["OnOff_B2", 0, 0], ["OnOff_D3", 0, 0], ["OnOff_E1", 0, 0]], "output_layers": [["F1_out", 0, 0], ["B2_out", 0, 0], ["D3_out", 0, 0], ["E1_out", 0, 0], ["GJOA_QGAS", 0, 0]], "name": "model_1"}, "keras_version": "2.0.1", "backend": "theano", "class_name": "Model"}