{"class_name": "Model", "keras_version": "2.0.1", "backend": "theano", "config": {"output_layers": [["C1_PWH_out2", 0, 0], ["C1_PWH_out", 0, 0], ["C2_PWH_out2", 0, 0], ["C2_PWH_out", 0, 0], ["C3_PWH_out2", 0, 0], ["C3_PWH_out", 0, 0], ["C4_PWH_out2", 0, 0], ["C4_PWH_out", 0, 0], ["B1_PWH_out2", 0, 0], ["B1_PWH_out", 0, 0], ["B3_PWH_out2", 0, 0], ["B3_PWH_out", 0, 0], ["D1_PWH_out2", 0, 0], ["D1_PWH_out", 0, 0]], "layers": [{"class_name": "InputLayer", "name": "CHK_INPUT_PREV", "inbound_nodes": [], "config": {"sparse": false, "name": "CHK_INPUT_PREV", "batch_input_shape": [null, 8], "dtype": "float32"}}, {"class_name": "InputLayer", "name": "CHK_INPUT_NOW", "inbound_nodes": [], "config": {"sparse": false, "name": "CHK_INPUT_NOW", "batch_input_shape": [null, 8], "dtype": "float32"}}, {"class_name": "Add", "name": "CHK_DELTA", "inbound_nodes": [[["CHK_INPUT_PREV", 0, 0, {}], ["CHK_INPUT_NOW", 0, 0, {}]]], "config": {"name": "CHK_DELTA", "trainable": true}}, {"class_name": "Dense", "name": "C1_PWH_0", "inbound_nodes": [[["CHK_DELTA", 0, 0, {}]]], "config": {"activity_regularizer": null, "bias_constraint": null, "bias_initializer": {"class_name": "Zeros", "config": {}}, "kernel_initializer": {"class_name": "VarianceScaling", "config": {"mode": "fan_avg", "seed": 3014, "scale": 1.0, "distribution": "normal"}}, "name": "C1_PWH_0", "bias_regularizer": null, "kernel_constraint": null, "units": 90, "kernel_regularizer": {"class_name": "L1L2", "config": {"l1": 0.0, "l2": 9.999999747378752e-05}}, "trainable": true, "use_bias": true, "activation": "relu"}}, {"class_name": "Dense", "name": "C2_PWH_0", "inbound_nodes": [[["CHK_DELTA", 0, 0, {}]]], "config": {"activity_regularizer": null, "bias_constraint": null, "bias_initializer": {"class_name": "Zeros", "config": {}}, "kernel_initializer": {"class_name": "VarianceScaling", "config": {"mode": "fan_avg", "seed": 3014, "scale": 1.0, "distribution": "normal"}}, "name": "C2_PWH_0", "bias_regularizer": null, "kernel_constraint": null, "units": 90, "kernel_regularizer": {"class_name": "L1L2", "config": {"l1": 0.0, "l2": 9.999999747378752e-05}}, "trainable": true, "use_bias": true, "activation": "relu"}}, {"class_name": "Dense", "name": "C3_PWH_0", "inbound_nodes": [[["CHK_DELTA", 0, 0, {}]]], "config": {"activity_regularizer": null, "bias_constraint": null, "bias_initializer": {"class_name": "Zeros", "config": {}}, "kernel_initializer": {"class_name": "VarianceScaling", "config": {"mode": "fan_avg", "seed": 3014, "scale": 1.0, "distribution": "normal"}}, "name": "C3_PWH_0", "bias_regularizer": null, "kernel_constraint": null, "units": 90, "kernel_regularizer": {"class_name": "L1L2", "config": {"l1": 0.0, "l2": 9.999999747378752e-05}}, "trainable": true, "use_bias": true, "activation": "relu"}}, {"class_name": "Dense", "name": "C4_PWH_0", "inbound_nodes": [[["CHK_DELTA", 0, 0, {}]]], "config": {"activity_regularizer": null, "bias_constraint": null, "bias_initializer": {"class_name": "Zeros", "config": {}}, "kernel_initializer": {"class_name": "VarianceScaling", "config": {"mode": "fan_avg", "seed": 3014, "scale": 1.0, "distribution": "normal"}}, "name": "C4_PWH_0", "bias_regularizer": null, "kernel_constraint": null, "units": 90, "kernel_regularizer": {"class_name": "L1L2", "config": {"l1": 0.0, "l2": 9.999999747378752e-05}}, "trainable": true, "use_bias": true, "activation": "relu"}}, {"class_name": "Dense", "name": "B1_PWH_0", "inbound_nodes": [[["CHK_DELTA", 0, 0, {}]]], "config": {"activity_regularizer": null, "bias_constraint": null, "bias_initializer": {"class_name": "Zeros", "config": {}}, "kernel_initializer": {"class_name": "VarianceScaling", "config": {"mode": "fan_avg", "seed": 3014, "scale": 1.0, "distribution": "normal"}}, "name": "B1_PWH_0", "bias_regularizer": null, "kernel_constraint": null, "units": 90, "kernel_regularizer": {"class_name": "L1L2", "config": {"l1": 0.0, "l2": 9.999999747378752e-05}}, "trainable": true, "use_bias": true, "activation": "relu"}}, {"class_name": "Dense", "name": "B3_PWH_0", "inbound_nodes": [[["CHK_DELTA", 0, 0, {}]]], "config": {"activity_regularizer": null, "bias_constraint": null, "bias_initializer": {"class_name": "Zeros", "config": {}}, "kernel_initializer": {"class_name": "VarianceScaling", "config": {"mode": "fan_avg", "seed": 3014, "scale": 1.0, "distribution": "normal"}}, "name": "B3_PWH_0", "bias_regularizer": null, "kernel_constraint": null, "units": 90, "kernel_regularizer": {"class_name": "L1L2", "config": {"l1": 0.0, "l2": 9.999999747378752e-05}}, "trainable": true, "use_bias": true, "activation": "relu"}}, {"class_name": "Dense", "name": "D1_PWH_0", "inbound_nodes": [[["CHK_DELTA", 0, 0, {}]]], "config": {"activity_regularizer": null, "bias_constraint": null, "bias_initializer": {"class_name": "Zeros", "config": {}}, "kernel_initializer": {"class_name": "VarianceScaling", "config": {"mode": "fan_avg", "seed": 3014, "scale": 1.0, "distribution": "normal"}}, "name": "D1_PWH_0", "bias_regularizer": null, "kernel_constraint": null, "units": 90, "kernel_regularizer": {"class_name": "L1L2", "config": {"l1": 0.0, "l2": 9.999999747378752e-05}}, "trainable": true, "use_bias": true, "activation": "relu"}}, {"class_name": "Dense", "name": "C1_PWH_1", "inbound_nodes": [[["C1_PWH_0", 0, 0, {}]]], "config": {"activity_regularizer": null, "bias_constraint": null, "bias_initializer": {"class_name": "Zeros", "config": {}}, "kernel_initializer": {"class_name": "VarianceScaling", "config": {"mode": "fan_avg", "seed": 3014, "scale": 1.0, "distribution": "normal"}}, "name": "C1_PWH_1", "bias_regularizer": null, "kernel_constraint": null, "units": 90, "kernel_regularizer": {"class_name": "L1L2", "config": {"l1": 0.0, "l2": 9.999999747378752e-05}}, "trainable": true, "use_bias": true, "activation": "relu"}}, {"class_name": "Dense", "name": "C2_PWH_1", "inbound_nodes": [[["C2_PWH_0", 0, 0, {}]]], "config": {"activity_regularizer": null, "bias_constraint": null, "bias_initializer": {"class_name": "Zeros", "config": {}}, "kernel_initializer": {"class_name": "VarianceScaling", "config": {"mode": "fan_avg", "seed": 3014, "scale": 1.0, "distribution": "normal"}}, "name": "C2_PWH_1", "bias_regularizer": null, "kernel_constraint": null, "units": 90, "kernel_regularizer": {"class_name": "L1L2", "config": {"l1": 0.0, "l2": 9.999999747378752e-05}}, "trainable": true, "use_bias": true, "activation": "relu"}}, {"class_name": "Dense", "name": "C3_PWH_1", "inbound_nodes": [[["C3_PWH_0", 0, 0, {}]]], "config": {"activity_regularizer": null, "bias_constraint": null, "bias_initializer": {"class_name": "Zeros", "config": {}}, "kernel_initializer": {"class_name": "VarianceScaling", "config": {"mode": "fan_avg", "seed": 3014, "scale": 1.0, "distribution": "normal"}}, "name": "C3_PWH_1", "bias_regularizer": null, "kernel_constraint": null, "units": 90, "kernel_regularizer": {"class_name": "L1L2", "config": {"l1": 0.0, "l2": 9.999999747378752e-05}}, "trainable": true, "use_bias": true, "activation": "relu"}}, {"class_name": "Dense", "name": "C4_PWH_1", "inbound_nodes": [[["C4_PWH_0", 0, 0, {}]]], "config": {"activity_regularizer": null, "bias_constraint": null, "bias_initializer": {"class_name": "Zeros", "config": {}}, "kernel_initializer": {"class_name": "VarianceScaling", "config": {"mode": "fan_avg", "seed": 3014, "scale": 1.0, "distribution": "normal"}}, "name": "C4_PWH_1", "bias_regularizer": null, "kernel_constraint": null, "units": 90, "kernel_regularizer": {"class_name": "L1L2", "config": {"l1": 0.0, "l2": 9.999999747378752e-05}}, "trainable": true, "use_bias": true, "activation": "relu"}}, {"class_name": "Dense", "name": "B1_PWH_1", "inbound_nodes": [[["B1_PWH_0", 0, 0, {}]]], "config": {"activity_regularizer": null, "bias_constraint": null, "bias_initializer": {"class_name": "Zeros", "config": {}}, "kernel_initializer": {"class_name": "VarianceScaling", "config": {"mode": "fan_avg", "seed": 3014, "scale": 1.0, "distribution": "normal"}}, "name": "B1_PWH_1", "bias_regularizer": null, "kernel_constraint": null, "units": 90, "kernel_regularizer": {"class_name": "L1L2", "config": {"l1": 0.0, "l2": 9.999999747378752e-05}}, "trainable": true, "use_bias": true, "activation": "relu"}}, {"class_name": "Dense", "name": "B3_PWH_1", "inbound_nodes": [[["B3_PWH_0", 0, 0, {}]]], "config": {"activity_regularizer": null, "bias_constraint": null, "bias_initializer": {"class_name": "Zeros", "config": {}}, "kernel_initializer": {"class_name": "VarianceScaling", "config": {"mode": "fan_avg", "seed": 3014, "scale": 1.0, "distribution": "normal"}}, "name": "B3_PWH_1", "bias_regularizer": null, "kernel_constraint": null, "units": 90, "kernel_regularizer": {"class_name": "L1L2", "config": {"l1": 0.0, "l2": 9.999999747378752e-05}}, "trainable": true, "use_bias": true, "activation": "relu"}}, {"class_name": "Dense", "name": "D1_PWH_1", "inbound_nodes": [[["D1_PWH_0", 0, 0, {}]]], "config": {"activity_regularizer": null, "bias_constraint": null, "bias_initializer": {"class_name": "Zeros", "config": {}}, "kernel_initializer": {"class_name": "VarianceScaling", "config": {"mode": "fan_avg", "seed": 3014, "scale": 1.0, "distribution": "normal"}}, "name": "D1_PWH_1", "bias_regularizer": null, "kernel_constraint": null, "units": 90, "kernel_regularizer": {"class_name": "L1L2", "config": {"l1": 0.0, "l2": 9.999999747378752e-05}}, "trainable": true, "use_bias": true, "activation": "relu"}}, {"class_name": "Dense", "name": "C1_PWH_out", "inbound_nodes": [[["C1_PWH_1", 0, 0, {}]]], "config": {"activity_regularizer": null, "bias_constraint": null, "bias_initializer": {"class_name": "Zeros", "config": {}}, "kernel_initializer": {"class_name": "VarianceScaling", "config": {"mode": "fan_avg", "seed": 3014, "scale": 1.0, "distribution": "normal"}}, "name": "C1_PWH_out", "bias_regularizer": null, "kernel_constraint": null, "units": 1, "kernel_regularizer": {"class_name": "L1L2", "config": {"l1": 0.0, "l2": 9.999999747378752e-05}}, "trainable": true, "use_bias": true, "activation": "linear"}}, {"class_name": "InputLayer", "name": "SHIFTED_PRESSURE_PWH_C1", "inbound_nodes": [], "config": {"sparse": false, "name": "SHIFTED_PRESSURE_PWH_C1", "batch_input_shape": [null, 1], "dtype": "float32"}}, {"class_name": "Dense", "name": "C2_PWH_out", "inbound_nodes": [[["C2_PWH_1", 0, 0, {}]]], "config": {"activity_regularizer": null, "bias_constraint": null, "bias_initializer": {"class_name": "Zeros", "config": {}}, "kernel_initializer": {"class_name": "VarianceScaling", "config": {"mode": "fan_avg", "seed": 3014, "scale": 1.0, "distribution": "normal"}}, "name": "C2_PWH_out", "bias_regularizer": null, "kernel_constraint": null, "units": 1, "kernel_regularizer": {"class_name": "L1L2", "config": {"l1": 0.0, "l2": 9.999999747378752e-05}}, "trainable": true, "use_bias": true, "activation": "linear"}}, {"class_name": "InputLayer", "name": "SHIFTED_PRESSURE_PWH_C2", "inbound_nodes": [], "config": {"sparse": false, "name": "SHIFTED_PRESSURE_PWH_C2", "batch_input_shape": [null, 1], "dtype": "float32"}}, {"class_name": "Dense", "name": "C3_PWH_out", "inbound_nodes": [[["C3_PWH_1", 0, 0, {}]]], "config": {"activity_regularizer": null, "bias_constraint": null, "bias_initializer": {"class_name": "Zeros", "config": {}}, "kernel_initializer": {"class_name": "VarianceScaling", "config": {"mode": "fan_avg", "seed": 3014, "scale": 1.0, "distribution": "normal"}}, "name": "C3_PWH_out", "bias_regularizer": null, "kernel_constraint": null, "units": 1, "kernel_regularizer": {"class_name": "L1L2", "config": {"l1": 0.0, "l2": 9.999999747378752e-05}}, "trainable": true, "use_bias": true, "activation": "linear"}}, {"class_name": "InputLayer", "name": "SHIFTED_PRESSURE_PWH_C3", "inbound_nodes": [], "config": {"sparse": false, "name": "SHIFTED_PRESSURE_PWH_C3", "batch_input_shape": [null, 1], "dtype": "float32"}}, {"class_name": "Dense", "name": "C4_PWH_out", "inbound_nodes": [[["C4_PWH_1", 0, 0, {}]]], "config": {"activity_regularizer": null, "bias_constraint": null, "bias_initializer": {"class_name": "Zeros", "config": {}}, "kernel_initializer": {"class_name": "VarianceScaling", "config": {"mode": "fan_avg", "seed": 3014, "scale": 1.0, "distribution": "normal"}}, "name": "C4_PWH_out", "bias_regularizer": null, "kernel_constraint": null, "units": 1, "kernel_regularizer": {"class_name": "L1L2", "config": {"l1": 0.0, "l2": 9.999999747378752e-05}}, "trainable": true, "use_bias": true, "activation": "linear"}}, {"class_name": "InputLayer", "name": "SHIFTED_PRESSURE_PWH_C4", "inbound_nodes": [], "config": {"sparse": false, "name": "SHIFTED_PRESSURE_PWH_C4", "batch_input_shape": [null, 1], "dtype": "float32"}}, {"class_name": "Dense", "name": "B1_PWH_out", "inbound_nodes": [[["B1_PWH_1", 0, 0, {}]]], "config": {"activity_regularizer": null, "bias_constraint": null, "bias_initializer": {"class_name": "Zeros", "config": {}}, "kernel_initializer": {"class_name": "VarianceScaling", "config": {"mode": "fan_avg", "seed": 3014, "scale": 1.0, "distribution": "normal"}}, "name": "B1_PWH_out", "bias_regularizer": null, "kernel_constraint": null, "units": 1, "kernel_regularizer": {"class_name": "L1L2", "config": {"l1": 0.0, "l2": 9.999999747378752e-05}}, "trainable": true, "use_bias": true, "activation": "linear"}}, {"class_name": "InputLayer", "name": "SHIFTED_PRESSURE_PWH_B1", "inbound_nodes": [], "config": {"sparse": false, "name": "SHIFTED_PRESSURE_PWH_B1", "batch_input_shape": [null, 1], "dtype": "float32"}}, {"class_name": "Dense", "name": "B3_PWH_out", "inbound_nodes": [[["B3_PWH_1", 0, 0, {}]]], "config": {"activity_regularizer": null, "bias_constraint": null, "bias_initializer": {"class_name": "Zeros", "config": {}}, "kernel_initializer": {"class_name": "VarianceScaling", "config": {"mode": "fan_avg", "seed": 3014, "scale": 1.0, "distribution": "normal"}}, "name": "B3_PWH_out", "bias_regularizer": null, "kernel_constraint": null, "units": 1, "kernel_regularizer": {"class_name": "L1L2", "config": {"l1": 0.0, "l2": 9.999999747378752e-05}}, "trainable": true, "use_bias": true, "activation": "linear"}}, {"class_name": "InputLayer", "name": "SHIFTED_PRESSURE_PWH_B3", "inbound_nodes": [], "config": {"sparse": false, "name": "SHIFTED_PRESSURE_PWH_B3", "batch_input_shape": [null, 1], "dtype": "float32"}}, {"class_name": "Dense", "name": "D1_PWH_out", "inbound_nodes": [[["D1_PWH_1", 0, 0, {}]]], "config": {"activity_regularizer": null, "bias_constraint": null, "bias_initializer": {"class_name": "Zeros", "config": {}}, "kernel_initializer": {"class_name": "VarianceScaling", "config": {"mode": "fan_avg", "seed": 3014, "scale": 1.0, "distribution": "normal"}}, "name": "D1_PWH_out", "bias_regularizer": null, "kernel_constraint": null, "units": 1, "kernel_regularizer": {"class_name": "L1L2", "config": {"l1": 0.0, "l2": 9.999999747378752e-05}}, "trainable": true, "use_bias": true, "activation": "linear"}}, {"class_name": "InputLayer", "name": "SHIFTED_PRESSURE_PWH_D1", "inbound_nodes": [], "config": {"sparse": false, "name": "SHIFTED_PRESSURE_PWH_D1", "batch_input_shape": [null, 1], "dtype": "float32"}}, {"class_name": "Add", "name": "C1_PWH_out2", "inbound_nodes": [[["C1_PWH_out", 0, 0, {}], ["SHIFTED_PRESSURE_PWH_C1", 0, 0, {}]]], "config": {"name": "C1_PWH_out2", "trainable": true}}, {"class_name": "Add", "name": "C2_PWH_out2", "inbound_nodes": [[["C2_PWH_out", 0, 0, {}], ["SHIFTED_PRESSURE_PWH_C2", 0, 0, {}]]], "config": {"name": "C2_PWH_out2", "trainable": true}}, {"class_name": "Add", "name": "C3_PWH_out2", "inbound_nodes": [[["C3_PWH_out", 0, 0, {}], ["SHIFTED_PRESSURE_PWH_C3", 0, 0, {}]]], "config": {"name": "C3_PWH_out2", "trainable": true}}, {"class_name": "Add", "name": "C4_PWH_out2", "inbound_nodes": [[["C4_PWH_out", 0, 0, {}], ["SHIFTED_PRESSURE_PWH_C4", 0, 0, {}]]], "config": {"name": "C4_PWH_out2", "trainable": true}}, {"class_name": "Add", "name": "B1_PWH_out2", "inbound_nodes": [[["B1_PWH_out", 0, 0, {}], ["SHIFTED_PRESSURE_PWH_B1", 0, 0, {}]]], "config": {"name": "B1_PWH_out2", "trainable": true}}, {"class_name": "Add", "name": "B3_PWH_out2", "inbound_nodes": [[["B3_PWH_out", 0, 0, {}], ["SHIFTED_PRESSURE_PWH_B3", 0, 0, {}]]], "config": {"name": "B3_PWH_out2", "trainable": true}}, {"class_name": "Add", "name": "D1_PWH_out2", "inbound_nodes": [[["D1_PWH_out", 0, 0, {}], ["SHIFTED_PRESSURE_PWH_D1", 0, 0, {}]]], "config": {"name": "D1_PWH_out2", "trainable": true}}], "name": "model_1", "input_layers": [["CHK_INPUT_NOW", 0, 0], ["CHK_INPUT_PREV", 0, 0], ["SHIFTED_PRESSURE_PWH_C1", 0, 0], ["SHIFTED_PRESSURE_PWH_C2", 0, 0], ["SHIFTED_PRESSURE_PWH_C3", 0, 0], ["SHIFTED_PRESSURE_PWH_C4", 0, 0], ["SHIFTED_PRESSURE_PWH_B1", 0, 0], ["SHIFTED_PRESSURE_PWH_B3", 0, 0], ["SHIFTED_PRESSURE_PWH_D1", 0, 0]]}}