{"class_name": "Model", "backend": "theano", "config": {"output_layers": [["C1_PDC_out", 0, 0], ["C2_PDC_out", 0, 0], ["C3_PDC_out", 0, 0], ["C4_PDC_out", 0, 0], ["B3_PDC_out", 0, 0], ["B1_PDC_out", 0, 0], ["D1_PDC_out", 0, 0]], "layers": [{"config": {"batch_input_shape": [null, 12], "dtype": "float32", "name": "PRESSURE_INPUT", "sparse": false}, "inbound_nodes": [], "class_name": "InputLayer", "name": "PRESSURE_INPUT"}, {"config": {"batch_input_shape": [null, 1], "dtype": "float32", "name": "RISER_B_CHK_INPUT", "sparse": false}, "inbound_nodes": [], "class_name": "InputLayer", "name": "RISER_B_CHK_INPUT"}, {"config": {"axis": -1, "trainable": true, "name": "RISER_MERGE"}, "inbound_nodes": [[["PRESSURE_INPUT", 0, 0, {}], ["RISER_B_CHK_INPUT", 0, 0, {}]]], "class_name": "Concatenate", "name": "RISER_MERGE"}, {"config": {"bias_regularizer": null, "trainable": true, "kernel_constraint": null, "bias_constraint": null, "kernel_regularizer": {"class_name": "L1L2", "config": {"l1": 0.0, "l2": 0.0020000000949949026}}, "use_bias": true, "units": 50, "kernel_initializer": {"class_name": "VarianceScaling", "config": {"seed": 3014, "mode": "fan_avg", "scale": 1.0, "distribution": "normal"}}, "activation": "relu", "bias_initializer": {"class_name": "Zeros", "config": {}}, "activity_regularizer": null, "name": "C1_PDC_0"}, "inbound_nodes": [[["RISER_MERGE", 0, 0, {}]]], "class_name": "Dense", "name": "C1_PDC_0"}, {"config": {"bias_regularizer": null, "trainable": true, "kernel_constraint": null, "bias_constraint": null, "kernel_regularizer": {"class_name": "L1L2", "config": {"l1": 0.0, "l2": 0.0020000000949949026}}, "use_bias": true, "units": 50, "kernel_initializer": {"class_name": "VarianceScaling", "config": {"seed": 3014, "mode": "fan_avg", "scale": 1.0, "distribution": "normal"}}, "activation": "relu", "bias_initializer": {"class_name": "Zeros", "config": {}}, "activity_regularizer": null, "name": "C2_PDC_0"}, "inbound_nodes": [[["RISER_MERGE", 0, 0, {}]]], "class_name": "Dense", "name": "C2_PDC_0"}, {"config": {"bias_regularizer": null, "trainable": true, "kernel_constraint": null, "bias_constraint": null, "kernel_regularizer": {"class_name": "L1L2", "config": {"l1": 0.0, "l2": 0.0020000000949949026}}, "use_bias": true, "units": 50, "kernel_initializer": {"class_name": "VarianceScaling", "config": {"seed": 3014, "mode": "fan_avg", "scale": 1.0, "distribution": "normal"}}, "activation": "relu", "bias_initializer": {"class_name": "Zeros", "config": {}}, "activity_regularizer": null, "name": "C3_PDC_0"}, "inbound_nodes": [[["RISER_MERGE", 0, 0, {}]]], "class_name": "Dense", "name": "C3_PDC_0"}, {"config": {"bias_regularizer": null, "trainable": true, "kernel_constraint": null, "bias_constraint": null, "kernel_regularizer": {"class_name": "L1L2", "config": {"l1": 0.0, "l2": 0.0020000000949949026}}, "use_bias": true, "units": 50, "kernel_initializer": {"class_name": "VarianceScaling", "config": {"seed": 3014, "mode": "fan_avg", "scale": 1.0, "distribution": "normal"}}, "activation": "relu", "bias_initializer": {"class_name": "Zeros", "config": {}}, "activity_regularizer": null, "name": "C4_PDC_0"}, "inbound_nodes": [[["RISER_MERGE", 0, 0, {}]]], "class_name": "Dense", "name": "C4_PDC_0"}, {"config": {"bias_regularizer": null, "trainable": true, "kernel_constraint": null, "bias_constraint": null, "kernel_regularizer": {"class_name": "L1L2", "config": {"l1": 0.0, "l2": 0.0020000000949949026}}, "use_bias": true, "units": 50, "kernel_initializer": {"class_name": "VarianceScaling", "config": {"seed": 3014, "mode": "fan_avg", "scale": 1.0, "distribution": "normal"}}, "activation": "relu", "bias_initializer": {"class_name": "Zeros", "config": {}}, "activity_regularizer": null, "name": "B3_PDC_0"}, "inbound_nodes": [[["RISER_MERGE", 0, 0, {}]]], "class_name": "Dense", "name": "B3_PDC_0"}, {"config": {"bias_regularizer": null, "trainable": true, "kernel_constraint": null, "bias_constraint": null, "kernel_regularizer": {"class_name": "L1L2", "config": {"l1": 0.0, "l2": 0.0020000000949949026}}, "use_bias": true, "units": 50, "kernel_initializer": {"class_name": "VarianceScaling", "config": {"seed": 3014, "mode": "fan_avg", "scale": 1.0, "distribution": "normal"}}, "activation": "relu", "bias_initializer": {"class_name": "Zeros", "config": {}}, "activity_regularizer": null, "name": "B1_PDC_0"}, "inbound_nodes": [[["RISER_MERGE", 0, 0, {}]]], "class_name": "Dense", "name": "B1_PDC_0"}, {"config": {"bias_regularizer": null, "trainable": true, "kernel_constraint": null, "bias_constraint": null, "kernel_regularizer": {"class_name": "L1L2", "config": {"l1": 0.0, "l2": 0.0020000000949949026}}, "use_bias": true, "units": 50, "kernel_initializer": {"class_name": "VarianceScaling", "config": {"seed": 3014, "mode": "fan_avg", "scale": 1.0, "distribution": "normal"}}, "activation": "relu", "bias_initializer": {"class_name": "Zeros", "config": {}}, "activity_regularizer": null, "name": "D1_PDC_0"}, "inbound_nodes": [[["RISER_MERGE", 0, 0, {}]]], "class_name": "Dense", "name": "D1_PDC_0"}, {"config": {"bias_regularizer": null, "trainable": true, "kernel_constraint": null, "bias_constraint": null, "kernel_regularizer": {"class_name": "L1L2", "config": {"l1": 0.0, "l2": 0.0020000000949949026}}, "use_bias": true, "units": 50, "kernel_initializer": {"class_name": "VarianceScaling", "config": {"seed": 3014, "mode": "fan_avg", "scale": 1.0, "distribution": "normal"}}, "activation": "relu", "bias_initializer": {"class_name": "Zeros", "config": {}}, "activity_regularizer": null, "name": "C1_PDC_1"}, "inbound_nodes": [[["C1_PDC_0", 0, 0, {}]]], "class_name": "Dense", "name": "C1_PDC_1"}, {"config": {"bias_regularizer": null, "trainable": true, "kernel_constraint": null, "bias_constraint": null, "kernel_regularizer": {"class_name": "L1L2", "config": {"l1": 0.0, "l2": 0.0020000000949949026}}, "use_bias": true, "units": 50, "kernel_initializer": {"class_name": "VarianceScaling", "config": {"seed": 3014, "mode": "fan_avg", "scale": 1.0, "distribution": "normal"}}, "activation": "relu", "bias_initializer": {"class_name": "Zeros", "config": {}}, "activity_regularizer": null, "name": "C2_PDC_1"}, "inbound_nodes": [[["C2_PDC_0", 0, 0, {}]]], "class_name": "Dense", "name": "C2_PDC_1"}, {"config": {"bias_regularizer": null, "trainable": true, "kernel_constraint": null, "bias_constraint": null, "kernel_regularizer": {"class_name": "L1L2", "config": {"l1": 0.0, "l2": 0.0020000000949949026}}, "use_bias": true, "units": 50, "kernel_initializer": {"class_name": "VarianceScaling", "config": {"seed": 3014, "mode": "fan_avg", "scale": 1.0, "distribution": "normal"}}, "activation": "relu", "bias_initializer": {"class_name": "Zeros", "config": {}}, "activity_regularizer": null, "name": "C3_PDC_1"}, "inbound_nodes": [[["C3_PDC_0", 0, 0, {}]]], "class_name": "Dense", "name": "C3_PDC_1"}, {"config": {"bias_regularizer": null, "trainable": true, "kernel_constraint": null, "bias_constraint": null, "kernel_regularizer": {"class_name": "L1L2", "config": {"l1": 0.0, "l2": 0.0020000000949949026}}, "use_bias": true, "units": 50, "kernel_initializer": {"class_name": "VarianceScaling", "config": {"seed": 3014, "mode": "fan_avg", "scale": 1.0, "distribution": "normal"}}, "activation": "relu", "bias_initializer": {"class_name": "Zeros", "config": {}}, "activity_regularizer": null, "name": "C4_PDC_1"}, "inbound_nodes": [[["C4_PDC_0", 0, 0, {}]]], "class_name": "Dense", "name": "C4_PDC_1"}, {"config": {"bias_regularizer": null, "trainable": true, "kernel_constraint": null, "bias_constraint": null, "kernel_regularizer": {"class_name": "L1L2", "config": {"l1": 0.0, "l2": 0.0020000000949949026}}, "use_bias": true, "units": 50, "kernel_initializer": {"class_name": "VarianceScaling", "config": {"seed": 3014, "mode": "fan_avg", "scale": 1.0, "distribution": "normal"}}, "activation": "relu", "bias_initializer": {"class_name": "Zeros", "config": {}}, "activity_regularizer": null, "name": "B3_PDC_1"}, "inbound_nodes": [[["B3_PDC_0", 0, 0, {}]]], "class_name": "Dense", "name": "B3_PDC_1"}, {"config": {"bias_regularizer": null, "trainable": true, "kernel_constraint": null, "bias_constraint": null, "kernel_regularizer": {"class_name": "L1L2", "config": {"l1": 0.0, "l2": 0.0020000000949949026}}, "use_bias": true, "units": 50, "kernel_initializer": {"class_name": "VarianceScaling", "config": {"seed": 3014, "mode": "fan_avg", "scale": 1.0, "distribution": "normal"}}, "activation": "relu", "bias_initializer": {"class_name": "Zeros", "config": {}}, "activity_regularizer": null, "name": "B1_PDC_1"}, "inbound_nodes": [[["B1_PDC_0", 0, 0, {}]]], "class_name": "Dense", "name": "B1_PDC_1"}, {"config": {"bias_regularizer": null, "trainable": true, "kernel_constraint": null, "bias_constraint": null, "kernel_regularizer": {"class_name": "L1L2", "config": {"l1": 0.0, "l2": 0.0020000000949949026}}, "use_bias": true, "units": 50, "kernel_initializer": {"class_name": "VarianceScaling", "config": {"seed": 3014, "mode": "fan_avg", "scale": 1.0, "distribution": "normal"}}, "activation": "relu", "bias_initializer": {"class_name": "Zeros", "config": {}}, "activity_regularizer": null, "name": "D1_PDC_1"}, "inbound_nodes": [[["D1_PDC_0", 0, 0, {}]]], "class_name": "Dense", "name": "D1_PDC_1"}, {"config": {"bias_regularizer": null, "trainable": true, "kernel_constraint": null, "bias_constraint": null, "kernel_regularizer": {"class_name": "L1L2", "config": {"l1": 0.0, "l2": 0.0020000000949949026}}, "use_bias": true, "units": 50, "kernel_initializer": {"class_name": "VarianceScaling", "config": {"seed": 3014, "mode": "fan_avg", "scale": 1.0, "distribution": "normal"}}, "activation": "relu", "bias_initializer": {"class_name": "Zeros", "config": {}}, "activity_regularizer": null, "name": "C1_PDC_2"}, "inbound_nodes": [[["C1_PDC_1", 0, 0, {}]]], "class_name": "Dense", "name": "C1_PDC_2"}, {"config": {"bias_regularizer": null, "trainable": true, "kernel_constraint": null, "bias_constraint": null, "kernel_regularizer": {"class_name": "L1L2", "config": {"l1": 0.0, "l2": 0.0020000000949949026}}, "use_bias": true, "units": 50, "kernel_initializer": {"class_name": "VarianceScaling", "config": {"seed": 3014, "mode": "fan_avg", "scale": 1.0, "distribution": "normal"}}, "activation": "relu", "bias_initializer": {"class_name": "Zeros", "config": {}}, "activity_regularizer": null, "name": "C2_PDC_2"}, "inbound_nodes": [[["C2_PDC_1", 0, 0, {}]]], "class_name": "Dense", "name": "C2_PDC_2"}, {"config": {"bias_regularizer": null, "trainable": true, "kernel_constraint": null, "bias_constraint": null, "kernel_regularizer": {"class_name": "L1L2", "config": {"l1": 0.0, "l2": 0.0020000000949949026}}, "use_bias": true, "units": 50, "kernel_initializer": {"class_name": "VarianceScaling", "config": {"seed": 3014, "mode": "fan_avg", "scale": 1.0, "distribution": "normal"}}, "activation": "relu", "bias_initializer": {"class_name": "Zeros", "config": {}}, "activity_regularizer": null, "name": "C3_PDC_2"}, "inbound_nodes": [[["C3_PDC_1", 0, 0, {}]]], "class_name": "Dense", "name": "C3_PDC_2"}, {"config": {"bias_regularizer": null, "trainable": true, "kernel_constraint": null, "bias_constraint": null, "kernel_regularizer": {"class_name": "L1L2", "config": {"l1": 0.0, "l2": 0.0020000000949949026}}, "use_bias": true, "units": 50, "kernel_initializer": {"class_name": "VarianceScaling", "config": {"seed": 3014, "mode": "fan_avg", "scale": 1.0, "distribution": "normal"}}, "activation": "relu", "bias_initializer": {"class_name": "Zeros", "config": {}}, "activity_regularizer": null, "name": "C4_PDC_2"}, "inbound_nodes": [[["C4_PDC_1", 0, 0, {}]]], "class_name": "Dense", "name": "C4_PDC_2"}, {"config": {"bias_regularizer": null, "trainable": true, "kernel_constraint": null, "bias_constraint": null, "kernel_regularizer": {"class_name": "L1L2", "config": {"l1": 0.0, "l2": 0.0020000000949949026}}, "use_bias": true, "units": 50, "kernel_initializer": {"class_name": "VarianceScaling", "config": {"seed": 3014, "mode": "fan_avg", "scale": 1.0, "distribution": "normal"}}, "activation": "relu", "bias_initializer": {"class_name": "Zeros", "config": {}}, "activity_regularizer": null, "name": "B3_PDC_2"}, "inbound_nodes": [[["B3_PDC_1", 0, 0, {}]]], "class_name": "Dense", "name": "B3_PDC_2"}, {"config": {"bias_regularizer": null, "trainable": true, "kernel_constraint": null, "bias_constraint": null, "kernel_regularizer": {"class_name": "L1L2", "config": {"l1": 0.0, "l2": 0.0020000000949949026}}, "use_bias": true, "units": 50, "kernel_initializer": {"class_name": "VarianceScaling", "config": {"seed": 3014, "mode": "fan_avg", "scale": 1.0, "distribution": "normal"}}, "activation": "relu", "bias_initializer": {"class_name": "Zeros", "config": {}}, "activity_regularizer": null, "name": "B1_PDC_2"}, "inbound_nodes": [[["B1_PDC_1", 0, 0, {}]]], "class_name": "Dense", "name": "B1_PDC_2"}, {"config": {"bias_regularizer": null, "trainable": true, "kernel_constraint": null, "bias_constraint": null, "kernel_regularizer": {"class_name": "L1L2", "config": {"l1": 0.0, "l2": 0.0020000000949949026}}, "use_bias": true, "units": 50, "kernel_initializer": {"class_name": "VarianceScaling", "config": {"seed": 3014, "mode": "fan_avg", "scale": 1.0, "distribution": "normal"}}, "activation": "relu", "bias_initializer": {"class_name": "Zeros", "config": {}}, "activity_regularizer": null, "name": "D1_PDC_2"}, "inbound_nodes": [[["D1_PDC_1", 0, 0, {}]]], "class_name": "Dense", "name": "D1_PDC_2"}, {"config": {"bias_regularizer": null, "trainable": true, "kernel_constraint": null, "bias_constraint": null, "kernel_regularizer": {"class_name": "L1L2", "config": {"l1": 0.0, "l2": 0.0020000000949949026}}, "use_bias": true, "units": 50, "kernel_initializer": {"class_name": "VarianceScaling", "config": {"seed": 3014, "mode": "fan_avg", "scale": 1.0, "distribution": "normal"}}, "activation": "relu", "bias_initializer": {"class_name": "Zeros", "config": {}}, "activity_regularizer": null, "name": "C1_PDC_3"}, "inbound_nodes": [[["C1_PDC_2", 0, 0, {}]]], "class_name": "Dense", "name": "C1_PDC_3"}, {"config": {"bias_regularizer": null, "trainable": true, "kernel_constraint": null, "bias_constraint": null, "kernel_regularizer": {"class_name": "L1L2", "config": {"l1": 0.0, "l2": 0.0020000000949949026}}, "use_bias": true, "units": 50, "kernel_initializer": {"class_name": "VarianceScaling", "config": {"seed": 3014, "mode": "fan_avg", "scale": 1.0, "distribution": "normal"}}, "activation": "relu", "bias_initializer": {"class_name": "Zeros", "config": {}}, "activity_regularizer": null, "name": "C2_PDC_3"}, "inbound_nodes": [[["C2_PDC_2", 0, 0, {}]]], "class_name": "Dense", "name": "C2_PDC_3"}, {"config": {"bias_regularizer": null, "trainable": true, "kernel_constraint": null, "bias_constraint": null, "kernel_regularizer": {"class_name": "L1L2", "config": {"l1": 0.0, "l2": 0.0020000000949949026}}, "use_bias": true, "units": 50, "kernel_initializer": {"class_name": "VarianceScaling", "config": {"seed": 3014, "mode": "fan_avg", "scale": 1.0, "distribution": "normal"}}, "activation": "relu", "bias_initializer": {"class_name": "Zeros", "config": {}}, "activity_regularizer": null, "name": "C3_PDC_3"}, "inbound_nodes": [[["C3_PDC_2", 0, 0, {}]]], "class_name": "Dense", "name": "C3_PDC_3"}, {"config": {"bias_regularizer": null, "trainable": true, "kernel_constraint": null, "bias_constraint": null, "kernel_regularizer": {"class_name": "L1L2", "config": {"l1": 0.0, "l2": 0.0020000000949949026}}, "use_bias": true, "units": 50, "kernel_initializer": {"class_name": "VarianceScaling", "config": {"seed": 3014, "mode": "fan_avg", "scale": 1.0, "distribution": "normal"}}, "activation": "relu", "bias_initializer": {"class_name": "Zeros", "config": {}}, "activity_regularizer": null, "name": "C4_PDC_3"}, "inbound_nodes": [[["C4_PDC_2", 0, 0, {}]]], "class_name": "Dense", "name": "C4_PDC_3"}, {"config": {"bias_regularizer": null, "trainable": true, "kernel_constraint": null, "bias_constraint": null, "kernel_regularizer": {"class_name": "L1L2", "config": {"l1": 0.0, "l2": 0.0020000000949949026}}, "use_bias": true, "units": 50, "kernel_initializer": {"class_name": "VarianceScaling", "config": {"seed": 3014, "mode": "fan_avg", "scale": 1.0, "distribution": "normal"}}, "activation": "relu", "bias_initializer": {"class_name": "Zeros", "config": {}}, "activity_regularizer": null, "name": "B3_PDC_3"}, "inbound_nodes": [[["B3_PDC_2", 0, 0, {}]]], "class_name": "Dense", "name": "B3_PDC_3"}, {"config": {"bias_regularizer": null, "trainable": true, "kernel_constraint": null, "bias_constraint": null, "kernel_regularizer": {"class_name": "L1L2", "config": {"l1": 0.0, "l2": 0.0020000000949949026}}, "use_bias": true, "units": 50, "kernel_initializer": {"class_name": "VarianceScaling", "config": {"seed": 3014, "mode": "fan_avg", "scale": 1.0, "distribution": "normal"}}, "activation": "relu", "bias_initializer": {"class_name": "Zeros", "config": {}}, "activity_regularizer": null, "name": "B1_PDC_3"}, "inbound_nodes": [[["B1_PDC_2", 0, 0, {}]]], "class_name": "Dense", "name": "B1_PDC_3"}, {"config": {"bias_regularizer": null, "trainable": true, "kernel_constraint": null, "bias_constraint": null, "kernel_regularizer": {"class_name": "L1L2", "config": {"l1": 0.0, "l2": 0.0020000000949949026}}, "use_bias": true, "units": 50, "kernel_initializer": {"class_name": "VarianceScaling", "config": {"seed": 3014, "mode": "fan_avg", "scale": 1.0, "distribution": "normal"}}, "activation": "relu", "bias_initializer": {"class_name": "Zeros", "config": {}}, "activity_regularizer": null, "name": "D1_PDC_3"}, "inbound_nodes": [[["D1_PDC_2", 0, 0, {}]]], "class_name": "Dense", "name": "D1_PDC_3"}, {"config": {"bias_regularizer": null, "trainable": true, "kernel_constraint": null, "bias_constraint": null, "kernel_regularizer": {"class_name": "L1L2", "config": {"l1": 0.0, "l2": 0.0020000000949949026}}, "use_bias": true, "units": 1, "kernel_initializer": {"class_name": "VarianceScaling", "config": {"seed": 3014, "mode": "fan_avg", "scale": 1.0, "distribution": "normal"}}, "activation": "linear", "bias_initializer": {"class_name": "Zeros", "config": {}}, "activity_regularizer": null, "name": "C1_PDC_out"}, "inbound_nodes": [[["C1_PDC_3", 0, 0, {}]]], "class_name": "Dense", "name": "C1_PDC_out"}, {"config": {"bias_regularizer": null, "trainable": true, "kernel_constraint": null, "bias_constraint": null, "kernel_regularizer": {"class_name": "L1L2", "config": {"l1": 0.0, "l2": 0.0020000000949949026}}, "use_bias": true, "units": 1, "kernel_initializer": {"class_name": "VarianceScaling", "config": {"seed": 3014, "mode": "fan_avg", "scale": 1.0, "distribution": "normal"}}, "activation": "linear", "bias_initializer": {"class_name": "Zeros", "config": {}}, "activity_regularizer": null, "name": "C2_PDC_out"}, "inbound_nodes": [[["C2_PDC_3", 0, 0, {}]]], "class_name": "Dense", "name": "C2_PDC_out"}, {"config": {"bias_regularizer": null, "trainable": true, "kernel_constraint": null, "bias_constraint": null, "kernel_regularizer": {"class_name": "L1L2", "config": {"l1": 0.0, "l2": 0.0020000000949949026}}, "use_bias": true, "units": 1, "kernel_initializer": {"class_name": "VarianceScaling", "config": {"seed": 3014, "mode": "fan_avg", "scale": 1.0, "distribution": "normal"}}, "activation": "linear", "bias_initializer": {"class_name": "Zeros", "config": {}}, "activity_regularizer": null, "name": "C3_PDC_out"}, "inbound_nodes": [[["C3_PDC_3", 0, 0, {}]]], "class_name": "Dense", "name": "C3_PDC_out"}, {"config": {"bias_regularizer": null, "trainable": true, "kernel_constraint": null, "bias_constraint": null, "kernel_regularizer": {"class_name": "L1L2", "config": {"l1": 0.0, "l2": 0.0020000000949949026}}, "use_bias": true, "units": 1, "kernel_initializer": {"class_name": "VarianceScaling", "config": {"seed": 3014, "mode": "fan_avg", "scale": 1.0, "distribution": "normal"}}, "activation": "linear", "bias_initializer": {"class_name": "Zeros", "config": {}}, "activity_regularizer": null, "name": "C4_PDC_out"}, "inbound_nodes": [[["C4_PDC_3", 0, 0, {}]]], "class_name": "Dense", "name": "C4_PDC_out"}, {"config": {"bias_regularizer": null, "trainable": true, "kernel_constraint": null, "bias_constraint": null, "kernel_regularizer": {"class_name": "L1L2", "config": {"l1": 0.0, "l2": 0.0020000000949949026}}, "use_bias": true, "units": 1, "kernel_initializer": {"class_name": "VarianceScaling", "config": {"seed": 3014, "mode": "fan_avg", "scale": 1.0, "distribution": "normal"}}, "activation": "linear", "bias_initializer": {"class_name": "Zeros", "config": {}}, "activity_regularizer": null, "name": "B3_PDC_out"}, "inbound_nodes": [[["B3_PDC_3", 0, 0, {}]]], "class_name": "Dense", "name": "B3_PDC_out"}, {"config": {"bias_regularizer": null, "trainable": true, "kernel_constraint": null, "bias_constraint": null, "kernel_regularizer": {"class_name": "L1L2", "config": {"l1": 0.0, "l2": 0.0020000000949949026}}, "use_bias": true, "units": 1, "kernel_initializer": {"class_name": "VarianceScaling", "config": {"seed": 3014, "mode": "fan_avg", "scale": 1.0, "distribution": "normal"}}, "activation": "linear", "bias_initializer": {"class_name": "Zeros", "config": {}}, "activity_regularizer": null, "name": "B1_PDC_out"}, "inbound_nodes": [[["B1_PDC_3", 0, 0, {}]]], "class_name": "Dense", "name": "B1_PDC_out"}, {"config": {"bias_regularizer": null, "trainable": true, "kernel_constraint": null, "bias_constraint": null, "kernel_regularizer": {"class_name": "L1L2", "config": {"l1": 0.0, "l2": 0.0020000000949949026}}, "use_bias": true, "units": 1, "kernel_initializer": {"class_name": "VarianceScaling", "config": {"seed": 3014, "mode": "fan_avg", "scale": 1.0, "distribution": "normal"}}, "activation": "linear", "bias_initializer": {"class_name": "Zeros", "config": {}}, "activity_regularizer": null, "name": "D1_PDC_out"}, "inbound_nodes": [[["D1_PDC_3", 0, 0, {}]]], "class_name": "Dense", "name": "D1_PDC_out"}], "input_layers": [["PRESSURE_INPUT", 0, 0], ["RISER_B_CHK_INPUT", 0, 0]], "name": "model_1"}, "keras_version": "2.0.1"}