{"class_name": "Model", "keras_version": "2.0.1", "backend": "theano", "config": {"name": "model_2", "output_layers": [["C1_out", 0, 0], ["C2_out", 0, 0], ["C3_out", 0, 0], ["C4_out", 0, 0], ["B1_out", 0, 0], ["B3_out", 0, 0], ["D1_out", 0, 0], ["GJOA_TOTAL", 0, 0]], "layers": [{"inbound_nodes": [], "name": "C1", "class_name": "InputLayer", "config": {"batch_input_shape": [null, 4], "sparse": false, "dtype": "float32", "name": "C1"}}, {"inbound_nodes": [], "name": "C2", "class_name": "InputLayer", "config": {"batch_input_shape": [null, 3], "sparse": false, "dtype": "float32", "name": "C2"}}, {"inbound_nodes": [], "name": "C3", "class_name": "InputLayer", "config": {"batch_input_shape": [null, 4], "sparse": false, "dtype": "float32", "name": "C3"}}, {"inbound_nodes": [], "name": "C4", "class_name": "InputLayer", "config": {"batch_input_shape": [null, 4], "sparse": false, "dtype": "float32", "name": "C4"}}, {"inbound_nodes": [], "name": "B1", "class_name": "InputLayer", "config": {"batch_input_shape": [null, 4], "sparse": false, "dtype": "float32", "name": "B1"}}, {"inbound_nodes": [], "name": "B3", "class_name": "InputLayer", "config": {"batch_input_shape": [null, 4], "sparse": false, "dtype": "float32", "name": "B3"}}, {"inbound_nodes": [], "name": "D1", "class_name": "InputLayer", "config": {"batch_input_shape": [null, 3], "sparse": false, "dtype": "float32", "name": "D1"}}, {"inbound_nodes": [[["C1", 0, 0, {}]]], "name": "dense_22", "class_name": "Dense", "config": {"bias_constraint": null, "units": 50, "trainable": true, "kernel_constraint": null, "bias_regularizer": null, "use_bias": true, "activation": "relu", "name": "dense_22", "activity_regularizer": null, "bias_initializer": {"class_name": "Zeros", "config": {}}, "kernel_regularizer": {"class_name": "L1L2", "config": {"l1": 0.0, "l2": 4.999999873689376e-05}}, "kernel_initializer": {"class_name": "VarianceScaling", "config": {"scale": 1.0, "mode": "fan_avg", "distribution": "normal", "seed": 5708}}}}, {"inbound_nodes": [[["C2", 0, 0, {}]]], "name": "dense_25", "class_name": "Dense", "config": {"bias_constraint": null, "units": 50, "trainable": true, "kernel_constraint": null, "bias_regularizer": null, "use_bias": true, "activation": "relu", "name": "dense_25", "activity_regularizer": null, "bias_initializer": {"class_name": "Zeros", "config": {}}, "kernel_regularizer": {"class_name": "L1L2", "config": {"l1": 0.0, "l2": 4.999999873689376e-05}}, "kernel_initializer": {"class_name": "VarianceScaling", "config": {"scale": 1.0, "mode": "fan_avg", "distribution": "normal", "seed": 5708}}}}, {"inbound_nodes": [[["C3", 0, 0, {}]]], "name": "dense_28", "class_name": "Dense", "config": {"bias_constraint": null, "units": 50, "trainable": true, "kernel_constraint": null, "bias_regularizer": null, "use_bias": true, "activation": "relu", "name": "dense_28", "activity_regularizer": null, "bias_initializer": {"class_name": "Zeros", "config": {}}, "kernel_regularizer": {"class_name": "L1L2", "config": {"l1": 0.0, "l2": 4.999999873689376e-05}}, "kernel_initializer": {"class_name": "VarianceScaling", "config": {"scale": 1.0, "mode": "fan_avg", "distribution": "normal", "seed": 5708}}}}, {"inbound_nodes": [[["C4", 0, 0, {}]]], "name": "dense_31", "class_name": "Dense", "config": {"bias_constraint": null, "units": 50, "trainable": true, "kernel_constraint": null, "bias_regularizer": null, "use_bias": true, "activation": "relu", "name": "dense_31", "activity_regularizer": null, "bias_initializer": {"class_name": "Zeros", "config": {}}, "kernel_regularizer": {"class_name": "L1L2", "config": {"l1": 0.0, "l2": 4.999999873689376e-05}}, "kernel_initializer": {"class_name": "VarianceScaling", "config": {"scale": 1.0, "mode": "fan_avg", "distribution": "normal", "seed": 5708}}}}, {"inbound_nodes": [[["B1", 0, 0, {}]]], "name": "dense_34", "class_name": "Dense", "config": {"bias_constraint": null, "units": 50, "trainable": true, "kernel_constraint": null, "bias_regularizer": null, "use_bias": true, "activation": "relu", "name": "dense_34", "activity_regularizer": null, "bias_initializer": {"class_name": "Zeros", "config": {}}, "kernel_regularizer": {"class_name": "L1L2", "config": {"l1": 0.0, "l2": 4.999999873689376e-05}}, "kernel_initializer": {"class_name": "VarianceScaling", "config": {"scale": 1.0, "mode": "fan_avg", "distribution": "normal", "seed": 5708}}}}, {"inbound_nodes": [[["B3", 0, 0, {}]]], "name": "dense_37", "class_name": "Dense", "config": {"bias_constraint": null, "units": 50, "trainable": true, "kernel_constraint": null, "bias_regularizer": null, "use_bias": true, "activation": "relu", "name": "dense_37", "activity_regularizer": null, "bias_initializer": {"class_name": "Zeros", "config": {}}, "kernel_regularizer": {"class_name": "L1L2", "config": {"l1": 0.0, "l2": 4.999999873689376e-05}}, "kernel_initializer": {"class_name": "VarianceScaling", "config": {"scale": 1.0, "mode": "fan_avg", "distribution": "normal", "seed": 5708}}}}, {"inbound_nodes": [[["D1", 0, 0, {}]]], "name": "dense_40", "class_name": "Dense", "config": {"bias_constraint": null, "units": 50, "trainable": true, "kernel_constraint": null, "bias_regularizer": null, "use_bias": true, "activation": "relu", "name": "dense_40", "activity_regularizer": null, "bias_initializer": {"class_name": "Zeros", "config": {}}, "kernel_regularizer": {"class_name": "L1L2", "config": {"l1": 0.0, "l2": 4.999999873689376e-05}}, "kernel_initializer": {"class_name": "VarianceScaling", "config": {"scale": 1.0, "mode": "fan_avg", "distribution": "normal", "seed": 5708}}}}, {"inbound_nodes": [[["dense_22", 0, 0, {}]]], "name": "dense_23", "class_name": "Dense", "config": {"bias_constraint": null, "units": 50, "trainable": true, "kernel_constraint": null, "bias_regularizer": null, "use_bias": true, "activation": "relu", "name": "dense_23", "activity_regularizer": null, "bias_initializer": {"class_name": "Zeros", "config": {}}, "kernel_regularizer": {"class_name": "L1L2", "config": {"l1": 0.0, "l2": 4.999999873689376e-05}}, "kernel_initializer": {"class_name": "VarianceScaling", "config": {"scale": 1.0, "mode": "fan_avg", "distribution": "normal", "seed": 5708}}}}, {"inbound_nodes": [[["dense_25", 0, 0, {}]]], "name": "dense_26", "class_name": "Dense", "config": {"bias_constraint": null, "units": 50, "trainable": true, "kernel_constraint": null, "bias_regularizer": null, "use_bias": true, "activation": "relu", "name": "dense_26", "activity_regularizer": null, "bias_initializer": {"class_name": "Zeros", "config": {}}, "kernel_regularizer": {"class_name": "L1L2", "config": {"l1": 0.0, "l2": 4.999999873689376e-05}}, "kernel_initializer": {"class_name": "VarianceScaling", "config": {"scale": 1.0, "mode": "fan_avg", "distribution": "normal", "seed": 5708}}}}, {"inbound_nodes": [[["dense_28", 0, 0, {}]]], "name": "dense_29", "class_name": "Dense", "config": {"bias_constraint": null, "units": 50, "trainable": true, "kernel_constraint": null, "bias_regularizer": null, "use_bias": true, "activation": "relu", "name": "dense_29", "activity_regularizer": null, "bias_initializer": {"class_name": "Zeros", "config": {}}, "kernel_regularizer": {"class_name": "L1L2", "config": {"l1": 0.0, "l2": 4.999999873689376e-05}}, "kernel_initializer": {"class_name": "VarianceScaling", "config": {"scale": 1.0, "mode": "fan_avg", "distribution": "normal", "seed": 5708}}}}, {"inbound_nodes": [[["dense_31", 0, 0, {}]]], "name": "dense_32", "class_name": "Dense", "config": {"bias_constraint": null, "units": 50, "trainable": true, "kernel_constraint": null, "bias_regularizer": null, "use_bias": true, "activation": "relu", "name": "dense_32", "activity_regularizer": null, "bias_initializer": {"class_name": "Zeros", "config": {}}, "kernel_regularizer": {"class_name": "L1L2", "config": {"l1": 0.0, "l2": 4.999999873689376e-05}}, "kernel_initializer": {"class_name": "VarianceScaling", "config": {"scale": 1.0, "mode": "fan_avg", "distribution": "normal", "seed": 5708}}}}, {"inbound_nodes": [[["dense_34", 0, 0, {}]]], "name": "dense_35", "class_name": "Dense", "config": {"bias_constraint": null, "units": 50, "trainable": true, "kernel_constraint": null, "bias_regularizer": null, "use_bias": true, "activation": "relu", "name": "dense_35", "activity_regularizer": null, "bias_initializer": {"class_name": "Zeros", "config": {}}, "kernel_regularizer": {"class_name": "L1L2", "config": {"l1": 0.0, "l2": 4.999999873689376e-05}}, "kernel_initializer": {"class_name": "VarianceScaling", "config": {"scale": 1.0, "mode": "fan_avg", "distribution": "normal", "seed": 5708}}}}, {"inbound_nodes": [[["dense_37", 0, 0, {}]]], "name": "dense_38", "class_name": "Dense", "config": {"bias_constraint": null, "units": 50, "trainable": true, "kernel_constraint": null, "bias_regularizer": null, "use_bias": true, "activation": "relu", "name": "dense_38", "activity_regularizer": null, "bias_initializer": {"class_name": "Zeros", "config": {}}, "kernel_regularizer": {"class_name": "L1L2", "config": {"l1": 0.0, "l2": 4.999999873689376e-05}}, "kernel_initializer": {"class_name": "VarianceScaling", "config": {"scale": 1.0, "mode": "fan_avg", "distribution": "normal", "seed": 5708}}}}, {"inbound_nodes": [[["dense_40", 0, 0, {}]]], "name": "dense_41", "class_name": "Dense", "config": {"bias_constraint": null, "units": 50, "trainable": true, "kernel_constraint": null, "bias_regularizer": null, "use_bias": true, "activation": "relu", "name": "dense_41", "activity_regularizer": null, "bias_initializer": {"class_name": "Zeros", "config": {}}, "kernel_regularizer": {"class_name": "L1L2", "config": {"l1": 0.0, "l2": 4.999999873689376e-05}}, "kernel_initializer": {"class_name": "VarianceScaling", "config": {"scale": 1.0, "mode": "fan_avg", "distribution": "normal", "seed": 5708}}}}, {"inbound_nodes": [], "name": "OnOff_C1", "class_name": "InputLayer", "config": {"batch_input_shape": [null, 1], "sparse": false, "dtype": "float32", "name": "OnOff_C1"}}, {"inbound_nodes": [[["dense_23", 0, 0, {}]]], "name": "dense_24", "class_name": "Dense", "config": {"bias_constraint": null, "units": 1, "trainable": true, "kernel_constraint": null, "bias_regularizer": null, "use_bias": true, "activation": "relu", "name": "dense_24", "activity_regularizer": null, "bias_initializer": {"class_name": "Zeros", "config": {}}, "kernel_regularizer": {"class_name": "L1L2", "config": {"l1": 0.0, "l2": 4.999999873689376e-05}}, "kernel_initializer": {"class_name": "VarianceScaling", "config": {"scale": 1.0, "mode": "fan_avg", "distribution": "normal", "seed": 5708}}}}, {"inbound_nodes": [], "name": "OnOff_C2", "class_name": "InputLayer", "config": {"batch_input_shape": [null, 1], "sparse": false, "dtype": "float32", "name": "OnOff_C2"}}, {"inbound_nodes": [[["dense_26", 0, 0, {}]]], "name": "dense_27", "class_name": "Dense", "config": {"bias_constraint": null, "units": 1, "trainable": true, "kernel_constraint": null, "bias_regularizer": null, "use_bias": true, "activation": "relu", "name": "dense_27", "activity_regularizer": null, "bias_initializer": {"class_name": "Zeros", "config": {}}, "kernel_regularizer": {"class_name": "L1L2", "config": {"l1": 0.0, "l2": 4.999999873689376e-05}}, "kernel_initializer": {"class_name": "VarianceScaling", "config": {"scale": 1.0, "mode": "fan_avg", "distribution": "normal", "seed": 5708}}}}, {"inbound_nodes": [], "name": "OnOff_C3", "class_name": "InputLayer", "config": {"batch_input_shape": [null, 1], "sparse": false, "dtype": "float32", "name": "OnOff_C3"}}, {"inbound_nodes": [[["dense_29", 0, 0, {}]]], "name": "dense_30", "class_name": "Dense", "config": {"bias_constraint": null, "units": 1, "trainable": true, "kernel_constraint": null, "bias_regularizer": null, "use_bias": true, "activation": "relu", "name": "dense_30", "activity_regularizer": null, "bias_initializer": {"class_name": "Zeros", "config": {}}, "kernel_regularizer": {"class_name": "L1L2", "config": {"l1": 0.0, "l2": 4.999999873689376e-05}}, "kernel_initializer": {"class_name": "VarianceScaling", "config": {"scale": 1.0, "mode": "fan_avg", "distribution": "normal", "seed": 5708}}}}, {"inbound_nodes": [], "name": "OnOff_C4", "class_name": "InputLayer", "config": {"batch_input_shape": [null, 1], "sparse": false, "dtype": "float32", "name": "OnOff_C4"}}, {"inbound_nodes": [[["dense_32", 0, 0, {}]]], "name": "dense_33", "class_name": "Dense", "config": {"bias_constraint": null, "units": 1, "trainable": true, "kernel_constraint": null, "bias_regularizer": null, "use_bias": true, "activation": "relu", "name": "dense_33", "activity_regularizer": null, "bias_initializer": {"class_name": "Zeros", "config": {}}, "kernel_regularizer": {"class_name": "L1L2", "config": {"l1": 0.0, "l2": 4.999999873689376e-05}}, "kernel_initializer": {"class_name": "VarianceScaling", "config": {"scale": 1.0, "mode": "fan_avg", "distribution": "normal", "seed": 5708}}}}, {"inbound_nodes": [], "name": "OnOff_B1", "class_name": "InputLayer", "config": {"batch_input_shape": [null, 1], "sparse": false, "dtype": "float32", "name": "OnOff_B1"}}, {"inbound_nodes": [[["dense_35", 0, 0, {}]]], "name": "dense_36", "class_name": "Dense", "config": {"bias_constraint": null, "units": 1, "trainable": true, "kernel_constraint": null, "bias_regularizer": null, "use_bias": true, "activation": "relu", "name": "dense_36", "activity_regularizer": null, "bias_initializer": {"class_name": "Zeros", "config": {}}, "kernel_regularizer": {"class_name": "L1L2", "config": {"l1": 0.0, "l2": 4.999999873689376e-05}}, "kernel_initializer": {"class_name": "VarianceScaling", "config": {"scale": 1.0, "mode": "fan_avg", "distribution": "normal", "seed": 5708}}}}, {"inbound_nodes": [], "name": "OnOff_B3", "class_name": "InputLayer", "config": {"batch_input_shape": [null, 1], "sparse": false, "dtype": "float32", "name": "OnOff_B3"}}, {"inbound_nodes": [[["dense_38", 0, 0, {}]]], "name": "dense_39", "class_name": "Dense", "config": {"bias_constraint": null, "units": 1, "trainable": true, "kernel_constraint": null, "bias_regularizer": null, "use_bias": true, "activation": "relu", "name": "dense_39", "activity_regularizer": null, "bias_initializer": {"class_name": "Zeros", "config": {}}, "kernel_regularizer": {"class_name": "L1L2", "config": {"l1": 0.0, "l2": 4.999999873689376e-05}}, "kernel_initializer": {"class_name": "VarianceScaling", "config": {"scale": 1.0, "mode": "fan_avg", "distribution": "normal", "seed": 5708}}}}, {"inbound_nodes": [], "name": "OnOff_D1", "class_name": "InputLayer", "config": {"batch_input_shape": [null, 1], "sparse": false, "dtype": "float32", "name": "OnOff_D1"}}, {"inbound_nodes": [[["dense_41", 0, 0, {}]]], "name": "dense_42", "class_name": "Dense", "config": {"bias_constraint": null, "units": 1, "trainable": true, "kernel_constraint": null, "bias_regularizer": null, "use_bias": true, "activation": "relu", "name": "dense_42", "activity_regularizer": null, "bias_initializer": {"class_name": "Zeros", "config": {}}, "kernel_regularizer": {"class_name": "L1L2", "config": {"l1": 0.0, "l2": 4.999999873689376e-05}}, "kernel_initializer": {"class_name": "VarianceScaling", "config": {"scale": 1.0, "mode": "fan_avg", "distribution": "normal", "seed": 5708}}}}, {"inbound_nodes": [[["OnOff_C1", 0, 0, {}], ["dense_24", 0, 0, {}]]], "name": "C1_out", "class_name": "Multiply", "config": {"name": "C1_out", "trainable": true}}, {"inbound_nodes": [[["OnOff_C2", 0, 0, {}], ["dense_27", 0, 0, {}]]], "name": "C2_out", "class_name": "Multiply", "config": {"name": "C2_out", "trainable": true}}, {"inbound_nodes": [[["OnOff_C3", 0, 0, {}], ["dense_30", 0, 0, {}]]], "name": "C3_out", "class_name": "Multiply", "config": {"name": "C3_out", "trainable": true}}, {"inbound_nodes": [[["OnOff_C4", 0, 0, {}], ["dense_33", 0, 0, {}]]], "name": "C4_out", "class_name": "Multiply", "config": {"name": "C4_out", "trainable": true}}, {"inbound_nodes": [[["OnOff_B1", 0, 0, {}], ["dense_36", 0, 0, {}]]], "name": "B1_out", "class_name": "Multiply", "config": {"name": "B1_out", "trainable": true}}, {"inbound_nodes": [[["OnOff_B3", 0, 0, {}], ["dense_39", 0, 0, {}]]], "name": "B3_out", "class_name": "Multiply", "config": {"name": "B3_out", "trainable": true}}, {"inbound_nodes": [[["OnOff_D1", 0, 0, {}], ["dense_42", 0, 0, {}]]], "name": "D1_out", "class_name": "Multiply", "config": {"name": "D1_out", "trainable": true}}, {"inbound_nodes": [[["C1_out", 0, 0, {}], ["C2_out", 0, 0, {}], ["C3_out", 0, 0, {}], ["C4_out", 0, 0, {}], ["B1_out", 0, 0, {}], ["B3_out", 0, 0, {}], ["D1_out", 0, 0, {}]]], "name": "GJOA_TOTAL", "class_name": "Add", "config": {"name": "GJOA_TOTAL", "trainable": true}}], "input_layers": [["C1", 0, 0], ["C2", 0, 0], ["C3", 0, 0], ["C4", 0, 0], ["B1", 0, 0], ["B3", 0, 0], ["D1", 0, 0], ["OnOff_C1", 0, 0], ["OnOff_C2", 0, 0], ["OnOff_C3", 0, 0], ["OnOff_C4", 0, 0], ["OnOff_B1", 0, 0], ["OnOff_B3", 0, 0], ["OnOff_D1", 0, 0]]}}