{"keras_version": "2.0.1", "config": {"name": "model_2", "input_layers": [["C1", 0, 0], ["C2", 0, 0], ["C3", 0, 0], ["C4", 0, 0], ["B1", 0, 0], ["B3", 0, 0], ["D1", 0, 0], ["OnOff_C1", 0, 0], ["OnOff_C2", 0, 0], ["OnOff_C3", 0, 0], ["OnOff_C4", 0, 0], ["OnOff_B1", 0, 0], ["OnOff_B3", 0, 0], ["OnOff_D1", 0, 0]], "output_layers": [["C1_out", 0, 0], ["C2_out", 0, 0], ["C3_out", 0, 0], ["C4_out", 0, 0], ["B1_out", 0, 0], ["B3_out", 0, 0], ["D1_out", 0, 0], ["GJOA_TOTAL", 0, 0]], "layers": [{"name": "C1", "config": {"dtype": "float32", "name": "C1", "batch_input_shape": [null, 4], "sparse": false}, "class_name": "InputLayer", "inbound_nodes": []}, {"name": "C2", "config": {"dtype": "float32", "name": "C2", "batch_input_shape": [null, 3], "sparse": false}, "class_name": "InputLayer", "inbound_nodes": []}, {"name": "C3", "config": {"dtype": "float32", "name": "C3", "batch_input_shape": [null, 4], "sparse": false}, "class_name": "InputLayer", "inbound_nodes": []}, {"name": "C4", "config": {"dtype": "float32", "name": "C4", "batch_input_shape": [null, 4], "sparse": false}, "class_name": "InputLayer", "inbound_nodes": []}, {"name": "B1", "config": {"dtype": "float32", "name": "B1", "batch_input_shape": [null, 4], "sparse": false}, "class_name": "InputLayer", "inbound_nodes": []}, {"name": "B3", "config": {"dtype": "float32", "name": "B3", "batch_input_shape": [null, 4], "sparse": false}, "class_name": "InputLayer", "inbound_nodes": []}, {"name": "D1", "config": {"dtype": "float32", "name": "D1", "batch_input_shape": [null, 3], "sparse": false}, "class_name": "InputLayer", "inbound_nodes": []}, {"name": "dense_29", "config": {"bias_regularizer": null, "kernel_initializer": {"config": {"seed": 4783, "scale": 1.0, "distribution": "normal", "mode": "fan_avg"}, "class_name": "VarianceScaling"}, "bias_initializer": {"config": {}, "class_name": "Zeros"}, "kernel_regularizer": {"config": {"l2": 4.999999873689376e-05, "l1": 0.0}, "class_name": "L1L2"}, "trainable": true, "name": "dense_29", "use_bias": true, "activation": "relu", "activity_regularizer": null, "units": 50, "bias_constraint": null, "kernel_constraint": null}, "class_name": "Dense", "inbound_nodes": [[["C1", 0, 0, {}]]]}, {"name": "dense_33", "config": {"bias_regularizer": null, "kernel_initializer": {"config": {"seed": 4783, "scale": 1.0, "distribution": "normal", "mode": "fan_avg"}, "class_name": "VarianceScaling"}, "bias_initializer": {"config": {}, "class_name": "Zeros"}, "kernel_regularizer": {"config": {"l2": 4.999999873689376e-05, "l1": 0.0}, "class_name": "L1L2"}, "trainable": true, "name": "dense_33", "use_bias": true, "activation": "relu", "activity_regularizer": null, "units": 50, "bias_constraint": null, "kernel_constraint": null}, "class_name": "Dense", "inbound_nodes": [[["C2", 0, 0, {}]]]}, {"name": "dense_37", "config": {"bias_regularizer": null, "kernel_initializer": {"config": {"seed": 4783, "scale": 1.0, "distribution": "normal", "mode": "fan_avg"}, "class_name": "VarianceScaling"}, "bias_initializer": {"config": {}, "class_name": "Zeros"}, "kernel_regularizer": {"config": {"l2": 4.999999873689376e-05, "l1": 0.0}, "class_name": "L1L2"}, "trainable": true, "name": "dense_37", "use_bias": true, "activation": "relu", "activity_regularizer": null, "units": 50, "bias_constraint": null, "kernel_constraint": null}, "class_name": "Dense", "inbound_nodes": [[["C3", 0, 0, {}]]]}, {"name": "dense_41", "config": {"bias_regularizer": null, "kernel_initializer": {"config": {"seed": 4783, "scale": 1.0, "distribution": "normal", "mode": "fan_avg"}, "class_name": "VarianceScaling"}, "bias_initializer": {"config": {}, "class_name": "Zeros"}, "kernel_regularizer": {"config": {"l2": 4.999999873689376e-05, "l1": 0.0}, "class_name": "L1L2"}, "trainable": true, "name": "dense_41", "use_bias": true, "activation": "relu", "activity_regularizer": null, "units": 50, "bias_constraint": null, "kernel_constraint": null}, "class_name": "Dense", "inbound_nodes": [[["C4", 0, 0, {}]]]}, {"name": "dense_45", "config": {"bias_regularizer": null, "kernel_initializer": {"config": {"seed": 4783, "scale": 1.0, "distribution": "normal", "mode": "fan_avg"}, "class_name": "VarianceScaling"}, "bias_initializer": {"config": {}, "class_name": "Zeros"}, "kernel_regularizer": {"config": {"l2": 4.999999873689376e-05, "l1": 0.0}, "class_name": "L1L2"}, "trainable": true, "name": "dense_45", "use_bias": true, "activation": "relu", "activity_regularizer": null, "units": 50, "bias_constraint": null, "kernel_constraint": null}, "class_name": "Dense", "inbound_nodes": [[["B1", 0, 0, {}]]]}, {"name": "dense_49", "config": {"bias_regularizer": null, "kernel_initializer": {"config": {"seed": 4783, "scale": 1.0, "distribution": "normal", "mode": "fan_avg"}, "class_name": "VarianceScaling"}, "bias_initializer": {"config": {}, "class_name": "Zeros"}, "kernel_regularizer": {"config": {"l2": 4.999999873689376e-05, "l1": 0.0}, "class_name": "L1L2"}, "trainable": true, "name": "dense_49", "use_bias": true, "activation": "relu", "activity_regularizer": null, "units": 50, "bias_constraint": null, "kernel_constraint": null}, "class_name": "Dense", "inbound_nodes": [[["B3", 0, 0, {}]]]}, {"name": "dense_53", "config": {"bias_regularizer": null, "kernel_initializer": {"config": {"seed": 4783, "scale": 1.0, "distribution": "normal", "mode": "fan_avg"}, "class_name": "VarianceScaling"}, "bias_initializer": {"config": {}, "class_name": "Zeros"}, "kernel_regularizer": {"config": {"l2": 4.999999873689376e-05, "l1": 0.0}, "class_name": "L1L2"}, "trainable": true, "name": "dense_53", "use_bias": true, "activation": "relu", "activity_regularizer": null, "units": 50, "bias_constraint": null, "kernel_constraint": null}, "class_name": "Dense", "inbound_nodes": [[["D1", 0, 0, {}]]]}, {"name": "dense_30", "config": {"bias_regularizer": null, "kernel_initializer": {"config": {"seed": 4783, "scale": 1.0, "distribution": "normal", "mode": "fan_avg"}, "class_name": "VarianceScaling"}, "bias_initializer": {"config": {}, "class_name": "Zeros"}, "kernel_regularizer": {"config": {"l2": 4.999999873689376e-05, "l1": 0.0}, "class_name": "L1L2"}, "trainable": true, "name": "dense_30", "use_bias": true, "activation": "relu", "activity_regularizer": null, "units": 50, "bias_constraint": null, "kernel_constraint": null}, "class_name": "Dense", "inbound_nodes": [[["dense_29", 0, 0, {}]]]}, {"name": "dense_34", "config": {"bias_regularizer": null, "kernel_initializer": {"config": {"seed": 4783, "scale": 1.0, "distribution": "normal", "mode": "fan_avg"}, "class_name": "VarianceScaling"}, "bias_initializer": {"config": {}, "class_name": "Zeros"}, "kernel_regularizer": {"config": {"l2": 4.999999873689376e-05, "l1": 0.0}, "class_name": "L1L2"}, "trainable": true, "name": "dense_34", "use_bias": true, "activation": "relu", "activity_regularizer": null, "units": 50, "bias_constraint": null, "kernel_constraint": null}, "class_name": "Dense", "inbound_nodes": [[["dense_33", 0, 0, {}]]]}, {"name": "dense_38", "config": {"bias_regularizer": null, "kernel_initializer": {"config": {"seed": 4783, "scale": 1.0, "distribution": "normal", "mode": "fan_avg"}, "class_name": "VarianceScaling"}, "bias_initializer": {"config": {}, "class_name": "Zeros"}, "kernel_regularizer": {"config": {"l2": 4.999999873689376e-05, "l1": 0.0}, "class_name": "L1L2"}, "trainable": true, "name": "dense_38", "use_bias": true, "activation": "relu", "activity_regularizer": null, "units": 50, "bias_constraint": null, "kernel_constraint": null}, "class_name": "Dense", "inbound_nodes": [[["dense_37", 0, 0, {}]]]}, {"name": "dense_42", "config": {"bias_regularizer": null, "kernel_initializer": {"config": {"seed": 4783, "scale": 1.0, "distribution": "normal", "mode": "fan_avg"}, "class_name": "VarianceScaling"}, "bias_initializer": {"config": {}, "class_name": "Zeros"}, "kernel_regularizer": {"config": {"l2": 4.999999873689376e-05, "l1": 0.0}, "class_name": "L1L2"}, "trainable": true, "name": "dense_42", "use_bias": true, "activation": "relu", "activity_regularizer": null, "units": 50, "bias_constraint": null, "kernel_constraint": null}, "class_name": "Dense", "inbound_nodes": [[["dense_41", 0, 0, {}]]]}, {"name": "dense_46", "config": {"bias_regularizer": null, "kernel_initializer": {"config": {"seed": 4783, "scale": 1.0, "distribution": "normal", "mode": "fan_avg"}, "class_name": "VarianceScaling"}, "bias_initializer": {"config": {}, "class_name": "Zeros"}, "kernel_regularizer": {"config": {"l2": 4.999999873689376e-05, "l1": 0.0}, "class_name": "L1L2"}, "trainable": true, "name": "dense_46", "use_bias": true, "activation": "relu", "activity_regularizer": null, "units": 50, "bias_constraint": null, "kernel_constraint": null}, "class_name": "Dense", "inbound_nodes": [[["dense_45", 0, 0, {}]]]}, {"name": "dense_50", "config": {"bias_regularizer": null, "kernel_initializer": {"config": {"seed": 4783, "scale": 1.0, "distribution": "normal", "mode": "fan_avg"}, "class_name": "VarianceScaling"}, "bias_initializer": {"config": {}, "class_name": "Zeros"}, "kernel_regularizer": {"config": {"l2": 4.999999873689376e-05, "l1": 0.0}, "class_name": "L1L2"}, "trainable": true, "name": "dense_50", "use_bias": true, "activation": "relu", "activity_regularizer": null, "units": 50, "bias_constraint": null, "kernel_constraint": null}, "class_name": "Dense", "inbound_nodes": [[["dense_49", 0, 0, {}]]]}, {"name": "dense_54", "config": {"bias_regularizer": null, "kernel_initializer": {"config": {"seed": 4783, "scale": 1.0, "distribution": "normal", "mode": "fan_avg"}, "class_name": "VarianceScaling"}, "bias_initializer": {"config": {}, "class_name": "Zeros"}, "kernel_regularizer": {"config": {"l2": 4.999999873689376e-05, "l1": 0.0}, "class_name": "L1L2"}, "trainable": true, "name": "dense_54", "use_bias": true, "activation": "relu", "activity_regularizer": null, "units": 50, "bias_constraint": null, "kernel_constraint": null}, "class_name": "Dense", "inbound_nodes": [[["dense_53", 0, 0, {}]]]}, {"name": "dense_31", "config": {"bias_regularizer": null, "kernel_initializer": {"config": {"seed": 4783, "scale": 1.0, "distribution": "normal", "mode": "fan_avg"}, "class_name": "VarianceScaling"}, "bias_initializer": {"config": {}, "class_name": "Zeros"}, "kernel_regularizer": {"config": {"l2": 4.999999873689376e-05, "l1": 0.0}, "class_name": "L1L2"}, "trainable": true, "name": "dense_31", "use_bias": true, "activation": "relu", "activity_regularizer": null, "units": 50, "bias_constraint": null, "kernel_constraint": null}, "class_name": "Dense", "inbound_nodes": [[["dense_30", 0, 0, {}]]]}, {"name": "dense_35", "config": {"bias_regularizer": null, "kernel_initializer": {"config": {"seed": 4783, "scale": 1.0, "distribution": "normal", "mode": "fan_avg"}, "class_name": "VarianceScaling"}, "bias_initializer": {"config": {}, "class_name": "Zeros"}, "kernel_regularizer": {"config": {"l2": 4.999999873689376e-05, "l1": 0.0}, "class_name": "L1L2"}, "trainable": true, "name": "dense_35", "use_bias": true, "activation": "relu", "activity_regularizer": null, "units": 50, "bias_constraint": null, "kernel_constraint": null}, "class_name": "Dense", "inbound_nodes": [[["dense_34", 0, 0, {}]]]}, {"name": "dense_39", "config": {"bias_regularizer": null, "kernel_initializer": {"config": {"seed": 4783, "scale": 1.0, "distribution": "normal", "mode": "fan_avg"}, "class_name": "VarianceScaling"}, "bias_initializer": {"config": {}, "class_name": "Zeros"}, "kernel_regularizer": {"config": {"l2": 4.999999873689376e-05, "l1": 0.0}, "class_name": "L1L2"}, "trainable": true, "name": "dense_39", "use_bias": true, "activation": "relu", "activity_regularizer": null, "units": 50, "bias_constraint": null, "kernel_constraint": null}, "class_name": "Dense", "inbound_nodes": [[["dense_38", 0, 0, {}]]]}, {"name": "dense_43", "config": {"bias_regularizer": null, "kernel_initializer": {"config": {"seed": 4783, "scale": 1.0, "distribution": "normal", "mode": "fan_avg"}, "class_name": "VarianceScaling"}, "bias_initializer": {"config": {}, "class_name": "Zeros"}, "kernel_regularizer": {"config": {"l2": 4.999999873689376e-05, "l1": 0.0}, "class_name": "L1L2"}, "trainable": true, "name": "dense_43", "use_bias": true, "activation": "relu", "activity_regularizer": null, "units": 50, "bias_constraint": null, "kernel_constraint": null}, "class_name": "Dense", "inbound_nodes": [[["dense_42", 0, 0, {}]]]}, {"name": "dense_47", "config": {"bias_regularizer": null, "kernel_initializer": {"config": {"seed": 4783, "scale": 1.0, "distribution": "normal", "mode": "fan_avg"}, "class_name": "VarianceScaling"}, "bias_initializer": {"config": {}, "class_name": "Zeros"}, "kernel_regularizer": {"config": {"l2": 4.999999873689376e-05, "l1": 0.0}, "class_name": "L1L2"}, "trainable": true, "name": "dense_47", "use_bias": true, "activation": "relu", "activity_regularizer": null, "units": 50, "bias_constraint": null, "kernel_constraint": null}, "class_name": "Dense", "inbound_nodes": [[["dense_46", 0, 0, {}]]]}, {"name": "dense_51", "config": {"bias_regularizer": null, "kernel_initializer": {"config": {"seed": 4783, "scale": 1.0, "distribution": "normal", "mode": "fan_avg"}, "class_name": "VarianceScaling"}, "bias_initializer": {"config": {}, "class_name": "Zeros"}, "kernel_regularizer": {"config": {"l2": 4.999999873689376e-05, "l1": 0.0}, "class_name": "L1L2"}, "trainable": true, "name": "dense_51", "use_bias": true, "activation": "relu", "activity_regularizer": null, "units": 50, "bias_constraint": null, "kernel_constraint": null}, "class_name": "Dense", "inbound_nodes": [[["dense_50", 0, 0, {}]]]}, {"name": "dense_55", "config": {"bias_regularizer": null, "kernel_initializer": {"config": {"seed": 4783, "scale": 1.0, "distribution": "normal", "mode": "fan_avg"}, "class_name": "VarianceScaling"}, "bias_initializer": {"config": {}, "class_name": "Zeros"}, "kernel_regularizer": {"config": {"l2": 4.999999873689376e-05, "l1": 0.0}, "class_name": "L1L2"}, "trainable": true, "name": "dense_55", "use_bias": true, "activation": "relu", "activity_regularizer": null, "units": 50, "bias_constraint": null, "kernel_constraint": null}, "class_name": "Dense", "inbound_nodes": [[["dense_54", 0, 0, {}]]]}, {"name": "OnOff_C1", "config": {"dtype": "float32", "name": "OnOff_C1", "batch_input_shape": [null, 1], "sparse": false}, "class_name": "InputLayer", "inbound_nodes": []}, {"name": "dense_32", "config": {"bias_regularizer": null, "kernel_initializer": {"config": {"seed": 4783, "scale": 1.0, "distribution": "normal", "mode": "fan_avg"}, "class_name": "VarianceScaling"}, "bias_initializer": {"config": {}, "class_name": "Zeros"}, "kernel_regularizer": {"config": {"l2": 4.999999873689376e-05, "l1": 0.0}, "class_name": "L1L2"}, "trainable": true, "name": "dense_32", "use_bias": true, "activation": "relu", "activity_regularizer": null, "units": 1, "bias_constraint": null, "kernel_constraint": null}, "class_name": "Dense", "inbound_nodes": [[["dense_31", 0, 0, {}]]]}, {"name": "OnOff_C2", "config": {"dtype": "float32", "name": "OnOff_C2", "batch_input_shape": [null, 1], "sparse": false}, "class_name": "InputLayer", "inbound_nodes": []}, {"name": "dense_36", "config": {"bias_regularizer": null, "kernel_initializer": {"config": {"seed": 4783, "scale": 1.0, "distribution": "normal", "mode": "fan_avg"}, "class_name": "VarianceScaling"}, "bias_initializer": {"config": {}, "class_name": "Zeros"}, "kernel_regularizer": {"config": {"l2": 4.999999873689376e-05, "l1": 0.0}, "class_name": "L1L2"}, "trainable": true, "name": "dense_36", "use_bias": true, "activation": "relu", "activity_regularizer": null, "units": 1, "bias_constraint": null, "kernel_constraint": null}, "class_name": "Dense", "inbound_nodes": [[["dense_35", 0, 0, {}]]]}, {"name": "OnOff_C3", "config": {"dtype": "float32", "name": "OnOff_C3", "batch_input_shape": [null, 1], "sparse": false}, "class_name": "InputLayer", "inbound_nodes": []}, {"name": "dense_40", "config": {"bias_regularizer": null, "kernel_initializer": {"config": {"seed": 4783, "scale": 1.0, "distribution": "normal", "mode": "fan_avg"}, "class_name": "VarianceScaling"}, "bias_initializer": {"config": {}, "class_name": "Zeros"}, "kernel_regularizer": {"config": {"l2": 4.999999873689376e-05, "l1": 0.0}, "class_name": "L1L2"}, "trainable": true, "name": "dense_40", "use_bias": true, "activation": "relu", "activity_regularizer": null, "units": 1, "bias_constraint": null, "kernel_constraint": null}, "class_name": "Dense", "inbound_nodes": [[["dense_39", 0, 0, {}]]]}, {"name": "OnOff_C4", "config": {"dtype": "float32", "name": "OnOff_C4", "batch_input_shape": [null, 1], "sparse": false}, "class_name": "InputLayer", "inbound_nodes": []}, {"name": "dense_44", "config": {"bias_regularizer": null, "kernel_initializer": {"config": {"seed": 4783, "scale": 1.0, "distribution": "normal", "mode": "fan_avg"}, "class_name": "VarianceScaling"}, "bias_initializer": {"config": {}, "class_name": "Zeros"}, "kernel_regularizer": {"config": {"l2": 4.999999873689376e-05, "l1": 0.0}, "class_name": "L1L2"}, "trainable": true, "name": "dense_44", "use_bias": true, "activation": "relu", "activity_regularizer": null, "units": 1, "bias_constraint": null, "kernel_constraint": null}, "class_name": "Dense", "inbound_nodes": [[["dense_43", 0, 0, {}]]]}, {"name": "OnOff_B1", "config": {"dtype": "float32", "name": "OnOff_B1", "batch_input_shape": [null, 1], "sparse": false}, "class_name": "InputLayer", "inbound_nodes": []}, {"name": "dense_48", "config": {"bias_regularizer": null, "kernel_initializer": {"config": {"seed": 4783, "scale": 1.0, "distribution": "normal", "mode": "fan_avg"}, "class_name": "VarianceScaling"}, "bias_initializer": {"config": {}, "class_name": "Zeros"}, "kernel_regularizer": {"config": {"l2": 4.999999873689376e-05, "l1": 0.0}, "class_name": "L1L2"}, "trainable": true, "name": "dense_48", "use_bias": true, "activation": "relu", "activity_regularizer": null, "units": 1, "bias_constraint": null, "kernel_constraint": null}, "class_name": "Dense", "inbound_nodes": [[["dense_47", 0, 0, {}]]]}, {"name": "OnOff_B3", "config": {"dtype": "float32", "name": "OnOff_B3", "batch_input_shape": [null, 1], "sparse": false}, "class_name": "InputLayer", "inbound_nodes": []}, {"name": "dense_52", "config": {"bias_regularizer": null, "kernel_initializer": {"config": {"seed": 4783, "scale": 1.0, "distribution": "normal", "mode": "fan_avg"}, "class_name": "VarianceScaling"}, "bias_initializer": {"config": {}, "class_name": "Zeros"}, "kernel_regularizer": {"config": {"l2": 4.999999873689376e-05, "l1": 0.0}, "class_name": "L1L2"}, "trainable": true, "name": "dense_52", "use_bias": true, "activation": "relu", "activity_regularizer": null, "units": 1, "bias_constraint": null, "kernel_constraint": null}, "class_name": "Dense", "inbound_nodes": [[["dense_51", 0, 0, {}]]]}, {"name": "OnOff_D1", "config": {"dtype": "float32", "name": "OnOff_D1", "batch_input_shape": [null, 1], "sparse": false}, "class_name": "InputLayer", "inbound_nodes": []}, {"name": "dense_56", "config": {"bias_regularizer": null, "kernel_initializer": {"config": {"seed": 4783, "scale": 1.0, "distribution": "normal", "mode": "fan_avg"}, "class_name": "VarianceScaling"}, "bias_initializer": {"config": {}, "class_name": "Zeros"}, "kernel_regularizer": {"config": {"l2": 4.999999873689376e-05, "l1": 0.0}, "class_name": "L1L2"}, "trainable": true, "name": "dense_56", "use_bias": true, "activation": "relu", "activity_regularizer": null, "units": 1, "bias_constraint": null, "kernel_constraint": null}, "class_name": "Dense", "inbound_nodes": [[["dense_55", 0, 0, {}]]]}, {"name": "C1_out", "config": {"name": "C1_out", "trainable": true}, "class_name": "Multiply", "inbound_nodes": [[["OnOff_C1", 0, 0, {}], ["dense_32", 0, 0, {}]]]}, {"name": "C2_out", "config": {"name": "C2_out", "trainable": true}, "class_name": "Multiply", "inbound_nodes": [[["OnOff_C2", 0, 0, {}], ["dense_36", 0, 0, {}]]]}, {"name": "C3_out", "config": {"name": "C3_out", "trainable": true}, "class_name": "Multiply", "inbound_nodes": [[["OnOff_C3", 0, 0, {}], ["dense_40", 0, 0, {}]]]}, {"name": "C4_out", "config": {"name": "C4_out", "trainable": true}, "class_name": "Multiply", "inbound_nodes": [[["OnOff_C4", 0, 0, {}], ["dense_44", 0, 0, {}]]]}, {"name": "B1_out", "config": {"name": "B1_out", "trainable": true}, "class_name": "Multiply", "inbound_nodes": [[["OnOff_B1", 0, 0, {}], ["dense_48", 0, 0, {}]]]}, {"name": "B3_out", "config": {"name": "B3_out", "trainable": true}, "class_name": "Multiply", "inbound_nodes": [[["OnOff_B3", 0, 0, {}], ["dense_52", 0, 0, {}]]]}, {"name": "D1_out", "config": {"name": "D1_out", "trainable": true}, "class_name": "Multiply", "inbound_nodes": [[["OnOff_D1", 0, 0, {}], ["dense_56", 0, 0, {}]]]}, {"name": "GJOA_TOTAL", "config": {"name": "GJOA_TOTAL", "trainable": true}, "class_name": "Add", "inbound_nodes": [[["C1_out", 0, 0, {}], ["C2_out", 0, 0, {}], ["C3_out", 0, 0, {}], ["C4_out", 0, 0, {}], ["B1_out", 0, 0, {}], ["B3_out", 0, 0, {}], ["D1_out", 0, 0, {}]]]}]}, "backend": "theano", "class_name": "Model"}