{"keras_version": "2.0.1", "backend": "theano", "config": {"output_layers": [["C1_out", 0, 0], ["C2_out", 0, 0], ["C3_out", 0, 0], ["C4_out", 0, 0], ["B1_out", 0, 0], ["B3_out", 0, 0], ["D1_out", 0, 0], ["GJOA_TOTAL", 0, 0]], "input_layers": [["C1", 0, 0], ["C2", 0, 0], ["C3", 0, 0], ["C4", 0, 0], ["B1", 0, 0], ["B3", 0, 0], ["D1", 0, 0], ["OnOff_C1", 0, 0], ["OnOff_C2", 0, 0], ["OnOff_C3", 0, 0], ["OnOff_C4", 0, 0], ["OnOff_B1", 0, 0], ["OnOff_B3", 0, 0], ["OnOff_D1", 0, 0]], "name": "model_2", "layers": [{"inbound_nodes": [], "config": {"sparse": false, "batch_input_shape": [null, 4], "dtype": "float32", "name": "C1"}, "name": "C1", "class_name": "InputLayer"}, {"inbound_nodes": [], "config": {"sparse": false, "batch_input_shape": [null, 3], "dtype": "float32", "name": "C2"}, "name": "C2", "class_name": "InputLayer"}, {"inbound_nodes": [], "config": {"sparse": false, "batch_input_shape": [null, 4], "dtype": "float32", "name": "C3"}, "name": "C3", "class_name": "InputLayer"}, {"inbound_nodes": [], "config": {"sparse": false, "batch_input_shape": [null, 4], "dtype": "float32", "name": "C4"}, "name": "C4", "class_name": "InputLayer"}, {"inbound_nodes": [], "config": {"sparse": false, "batch_input_shape": [null, 4], "dtype": "float32", "name": "B1"}, "name": "B1", "class_name": "InputLayer"}, {"inbound_nodes": [], "config": {"sparse": false, "batch_input_shape": [null, 4], "dtype": "float32", "name": "B3"}, "name": "B3", "class_name": "InputLayer"}, {"inbound_nodes": [], "config": {"sparse": false, "batch_input_shape": [null, 3], "dtype": "float32", "name": "D1"}, "name": "D1", "class_name": "InputLayer"}, {"inbound_nodes": [[["C1", 0, 0, {}]]], "config": {"name": "dense_29", "bias_initializer": {"config": {}, "class_name": "Zeros"}, "kernel_constraint": null, "kernel_regularizer": {"config": {"l1": 0.0, "l2": 9.999999974752427e-07}, "class_name": "L1L2"}, "units": 50, "use_bias": true, "activation": "relu", "bias_regularizer": null, "activity_regularizer": null, "trainable": true, "kernel_initializer": {"config": {"scale": 1.0, "distribution": "uniform", "seed": 512, "mode": "fan_avg"}, "class_name": "VarianceScaling"}, "bias_constraint": null}, "name": "dense_29", "class_name": "Dense"}, {"inbound_nodes": [[["C2", 0, 0, {}]]], "config": {"name": "dense_33", "bias_initializer": {"config": {}, "class_name": "Zeros"}, "kernel_constraint": null, "kernel_regularizer": {"config": {"l1": 0.0, "l2": 9.999999974752427e-07}, "class_name": "L1L2"}, "units": 50, "use_bias": true, "activation": "relu", "bias_regularizer": null, "activity_regularizer": null, "trainable": true, "kernel_initializer": {"config": {"scale": 1.0, "distribution": "uniform", "seed": 512, "mode": "fan_avg"}, "class_name": "VarianceScaling"}, "bias_constraint": null}, "name": "dense_33", "class_name": "Dense"}, {"inbound_nodes": [[["C3", 0, 0, {}]]], "config": {"name": "dense_37", "bias_initializer": {"config": {}, "class_name": "Zeros"}, "kernel_constraint": null, "kernel_regularizer": {"config": {"l1": 0.0, "l2": 9.999999974752427e-07}, "class_name": "L1L2"}, "units": 50, "use_bias": true, "activation": "relu", "bias_regularizer": null, "activity_regularizer": null, "trainable": true, "kernel_initializer": {"config": {"scale": 1.0, "distribution": "uniform", "seed": 512, "mode": "fan_avg"}, "class_name": "VarianceScaling"}, "bias_constraint": null}, "name": "dense_37", "class_name": "Dense"}, {"inbound_nodes": [[["C4", 0, 0, {}]]], "config": {"name": "dense_41", "bias_initializer": {"config": {}, "class_name": "Zeros"}, "kernel_constraint": null, "kernel_regularizer": {"config": {"l1": 0.0, "l2": 9.999999974752427e-07}, "class_name": "L1L2"}, "units": 50, "use_bias": true, "activation": "relu", "bias_regularizer": null, "activity_regularizer": null, "trainable": true, "kernel_initializer": {"config": {"scale": 1.0, "distribution": "uniform", "seed": 512, "mode": "fan_avg"}, "class_name": "VarianceScaling"}, "bias_constraint": null}, "name": "dense_41", "class_name": "Dense"}, {"inbound_nodes": [[["B1", 0, 0, {}]]], "config": {"name": "dense_45", "bias_initializer": {"config": {}, "class_name": "Zeros"}, "kernel_constraint": null, "kernel_regularizer": {"config": {"l1": 0.0, "l2": 9.999999974752427e-07}, "class_name": "L1L2"}, "units": 50, "use_bias": true, "activation": "relu", "bias_regularizer": null, "activity_regularizer": null, "trainable": true, "kernel_initializer": {"config": {"scale": 1.0, "distribution": "uniform", "seed": 512, "mode": "fan_avg"}, "class_name": "VarianceScaling"}, "bias_constraint": null}, "name": "dense_45", "class_name": "Dense"}, {"inbound_nodes": [[["B3", 0, 0, {}]]], "config": {"name": "dense_49", "bias_initializer": {"config": {}, "class_name": "Zeros"}, "kernel_constraint": null, "kernel_regularizer": {"config": {"l1": 0.0, "l2": 9.999999974752427e-07}, "class_name": "L1L2"}, "units": 50, "use_bias": true, "activation": "relu", "bias_regularizer": null, "activity_regularizer": null, "trainable": true, "kernel_initializer": {"config": {"scale": 1.0, "distribution": "uniform", "seed": 512, "mode": "fan_avg"}, "class_name": "VarianceScaling"}, "bias_constraint": null}, "name": "dense_49", "class_name": "Dense"}, {"inbound_nodes": [[["D1", 0, 0, {}]]], "config": {"name": "dense_53", "bias_initializer": {"config": {}, "class_name": "Zeros"}, "kernel_constraint": null, "kernel_regularizer": {"config": {"l1": 0.0, "l2": 9.999999974752427e-07}, "class_name": "L1L2"}, "units": 50, "use_bias": true, "activation": "relu", "bias_regularizer": null, "activity_regularizer": null, "trainable": true, "kernel_initializer": {"config": {"scale": 1.0, "distribution": "uniform", "seed": 512, "mode": "fan_avg"}, "class_name": "VarianceScaling"}, "bias_constraint": null}, "name": "dense_53", "class_name": "Dense"}, {"inbound_nodes": [[["dense_29", 0, 0, {}]]], "config": {"name": "dense_30", "bias_initializer": {"config": {}, "class_name": "Zeros"}, "kernel_constraint": null, "kernel_regularizer": {"config": {"l1": 0.0, "l2": 9.999999974752427e-07}, "class_name": "L1L2"}, "units": 50, "use_bias": true, "activation": "relu", "bias_regularizer": null, "activity_regularizer": null, "trainable": true, "kernel_initializer": {"config": {"scale": 1.0, "distribution": "uniform", "seed": 512, "mode": "fan_avg"}, "class_name": "VarianceScaling"}, "bias_constraint": null}, "name": "dense_30", "class_name": "Dense"}, {"inbound_nodes": [[["dense_33", 0, 0, {}]]], "config": {"name": "dense_34", "bias_initializer": {"config": {}, "class_name": "Zeros"}, "kernel_constraint": null, "kernel_regularizer": {"config": {"l1": 0.0, "l2": 9.999999974752427e-07}, "class_name": "L1L2"}, "units": 50, "use_bias": true, "activation": "relu", "bias_regularizer": null, "activity_regularizer": null, "trainable": true, "kernel_initializer": {"config": {"scale": 1.0, "distribution": "uniform", "seed": 512, "mode": "fan_avg"}, "class_name": "VarianceScaling"}, "bias_constraint": null}, "name": "dense_34", "class_name": "Dense"}, {"inbound_nodes": [[["dense_37", 0, 0, {}]]], "config": {"name": "dense_38", "bias_initializer": {"config": {}, "class_name": "Zeros"}, "kernel_constraint": null, "kernel_regularizer": {"config": {"l1": 0.0, "l2": 9.999999974752427e-07}, "class_name": "L1L2"}, "units": 50, "use_bias": true, "activation": "relu", "bias_regularizer": null, "activity_regularizer": null, "trainable": true, "kernel_initializer": {"config": {"scale": 1.0, "distribution": "uniform", "seed": 512, "mode": "fan_avg"}, "class_name": "VarianceScaling"}, "bias_constraint": null}, "name": "dense_38", "class_name": "Dense"}, {"inbound_nodes": [[["dense_41", 0, 0, {}]]], "config": {"name": "dense_42", "bias_initializer": {"config": {}, "class_name": "Zeros"}, "kernel_constraint": null, "kernel_regularizer": {"config": {"l1": 0.0, "l2": 9.999999974752427e-07}, "class_name": "L1L2"}, "units": 50, "use_bias": true, "activation": "relu", "bias_regularizer": null, "activity_regularizer": null, "trainable": true, "kernel_initializer": {"config": {"scale": 1.0, "distribution": "uniform", "seed": 512, "mode": "fan_avg"}, "class_name": "VarianceScaling"}, "bias_constraint": null}, "name": "dense_42", "class_name": "Dense"}, {"inbound_nodes": [[["dense_45", 0, 0, {}]]], "config": {"name": "dense_46", "bias_initializer": {"config": {}, "class_name": "Zeros"}, "kernel_constraint": null, "kernel_regularizer": {"config": {"l1": 0.0, "l2": 9.999999974752427e-07}, "class_name": "L1L2"}, "units": 50, "use_bias": true, "activation": "relu", "bias_regularizer": null, "activity_regularizer": null, "trainable": true, "kernel_initializer": {"config": {"scale": 1.0, "distribution": "uniform", "seed": 512, "mode": "fan_avg"}, "class_name": "VarianceScaling"}, "bias_constraint": null}, "name": "dense_46", "class_name": "Dense"}, {"inbound_nodes": [[["dense_49", 0, 0, {}]]], "config": {"name": "dense_50", "bias_initializer": {"config": {}, "class_name": "Zeros"}, "kernel_constraint": null, "kernel_regularizer": {"config": {"l1": 0.0, "l2": 9.999999974752427e-07}, "class_name": "L1L2"}, "units": 50, "use_bias": true, "activation": "relu", "bias_regularizer": null, "activity_regularizer": null, "trainable": true, "kernel_initializer": {"config": {"scale": 1.0, "distribution": "uniform", "seed": 512, "mode": "fan_avg"}, "class_name": "VarianceScaling"}, "bias_constraint": null}, "name": "dense_50", "class_name": "Dense"}, {"inbound_nodes": [[["dense_53", 0, 0, {}]]], "config": {"name": "dense_54", "bias_initializer": {"config": {}, "class_name": "Zeros"}, "kernel_constraint": null, "kernel_regularizer": {"config": {"l1": 0.0, "l2": 9.999999974752427e-07}, "class_name": "L1L2"}, "units": 50, "use_bias": true, "activation": "relu", "bias_regularizer": null, "activity_regularizer": null, "trainable": true, "kernel_initializer": {"config": {"scale": 1.0, "distribution": "uniform", "seed": 512, "mode": "fan_avg"}, "class_name": "VarianceScaling"}, "bias_constraint": null}, "name": "dense_54", "class_name": "Dense"}, {"inbound_nodes": [[["dense_30", 0, 0, {}]]], "config": {"name": "dense_31", "bias_initializer": {"config": {}, "class_name": "Zeros"}, "kernel_constraint": null, "kernel_regularizer": {"config": {"l1": 0.0, "l2": 9.999999974752427e-07}, "class_name": "L1L2"}, "units": 50, "use_bias": true, "activation": "relu", "bias_regularizer": null, "activity_regularizer": null, "trainable": true, "kernel_initializer": {"config": {"scale": 1.0, "distribution": "uniform", "seed": 512, "mode": "fan_avg"}, "class_name": "VarianceScaling"}, "bias_constraint": null}, "name": "dense_31", "class_name": "Dense"}, {"inbound_nodes": [[["dense_34", 0, 0, {}]]], "config": {"name": "dense_35", "bias_initializer": {"config": {}, "class_name": "Zeros"}, "kernel_constraint": null, "kernel_regularizer": {"config": {"l1": 0.0, "l2": 9.999999974752427e-07}, "class_name": "L1L2"}, "units": 50, "use_bias": true, "activation": "relu", "bias_regularizer": null, "activity_regularizer": null, "trainable": true, "kernel_initializer": {"config": {"scale": 1.0, "distribution": "uniform", "seed": 512, "mode": "fan_avg"}, "class_name": "VarianceScaling"}, "bias_constraint": null}, "name": "dense_35", "class_name": "Dense"}, {"inbound_nodes": [[["dense_38", 0, 0, {}]]], "config": {"name": "dense_39", "bias_initializer": {"config": {}, "class_name": "Zeros"}, "kernel_constraint": null, "kernel_regularizer": {"config": {"l1": 0.0, "l2": 9.999999974752427e-07}, "class_name": "L1L2"}, "units": 50, "use_bias": true, "activation": "relu", "bias_regularizer": null, "activity_regularizer": null, "trainable": true, "kernel_initializer": {"config": {"scale": 1.0, "distribution": "uniform", "seed": 512, "mode": "fan_avg"}, "class_name": "VarianceScaling"}, "bias_constraint": null}, "name": "dense_39", "class_name": "Dense"}, {"inbound_nodes": [[["dense_42", 0, 0, {}]]], "config": {"name": "dense_43", "bias_initializer": {"config": {}, "class_name": "Zeros"}, "kernel_constraint": null, "kernel_regularizer": {"config": {"l1": 0.0, "l2": 9.999999974752427e-07}, "class_name": "L1L2"}, "units": 50, "use_bias": true, "activation": "relu", "bias_regularizer": null, "activity_regularizer": null, "trainable": true, "kernel_initializer": {"config": {"scale": 1.0, "distribution": "uniform", "seed": 512, "mode": "fan_avg"}, "class_name": "VarianceScaling"}, "bias_constraint": null}, "name": "dense_43", "class_name": "Dense"}, {"inbound_nodes": [[["dense_46", 0, 0, {}]]], "config": {"name": "dense_47", "bias_initializer": {"config": {}, "class_name": "Zeros"}, "kernel_constraint": null, "kernel_regularizer": {"config": {"l1": 0.0, "l2": 9.999999974752427e-07}, "class_name": "L1L2"}, "units": 50, "use_bias": true, "activation": "relu", "bias_regularizer": null, "activity_regularizer": null, "trainable": true, "kernel_initializer": {"config": {"scale": 1.0, "distribution": "uniform", "seed": 512, "mode": "fan_avg"}, "class_name": "VarianceScaling"}, "bias_constraint": null}, "name": "dense_47", "class_name": "Dense"}, {"inbound_nodes": [[["dense_50", 0, 0, {}]]], "config": {"name": "dense_51", "bias_initializer": {"config": {}, "class_name": "Zeros"}, "kernel_constraint": null, "kernel_regularizer": {"config": {"l1": 0.0, "l2": 9.999999974752427e-07}, "class_name": "L1L2"}, "units": 50, "use_bias": true, "activation": "relu", "bias_regularizer": null, "activity_regularizer": null, "trainable": true, "kernel_initializer": {"config": {"scale": 1.0, "distribution": "uniform", "seed": 512, "mode": "fan_avg"}, "class_name": "VarianceScaling"}, "bias_constraint": null}, "name": "dense_51", "class_name": "Dense"}, {"inbound_nodes": [[["dense_54", 0, 0, {}]]], "config": {"name": "dense_55", "bias_initializer": {"config": {}, "class_name": "Zeros"}, "kernel_constraint": null, "kernel_regularizer": {"config": {"l1": 0.0, "l2": 9.999999974752427e-07}, "class_name": "L1L2"}, "units": 50, "use_bias": true, "activation": "relu", "bias_regularizer": null, "activity_regularizer": null, "trainable": true, "kernel_initializer": {"config": {"scale": 1.0, "distribution": "uniform", "seed": 512, "mode": "fan_avg"}, "class_name": "VarianceScaling"}, "bias_constraint": null}, "name": "dense_55", "class_name": "Dense"}, {"inbound_nodes": [], "config": {"sparse": false, "batch_input_shape": [null, 1], "dtype": "float32", "name": "OnOff_C1"}, "name": "OnOff_C1", "class_name": "InputLayer"}, {"inbound_nodes": [[["dense_31", 0, 0, {}]]], "config": {"name": "dense_32", "bias_initializer": {"config": {}, "class_name": "Zeros"}, "kernel_constraint": null, "kernel_regularizer": {"config": {"l1": 0.0, "l2": 9.999999974752427e-07}, "class_name": "L1L2"}, "units": 1, "use_bias": true, "activation": "relu", "bias_regularizer": null, "activity_regularizer": null, "trainable": true, "kernel_initializer": {"config": {"scale": 1.0, "distribution": "uniform", "seed": 512, "mode": "fan_avg"}, "class_name": "VarianceScaling"}, "bias_constraint": null}, "name": "dense_32", "class_name": "Dense"}, {"inbound_nodes": [], "config": {"sparse": false, "batch_input_shape": [null, 1], "dtype": "float32", "name": "OnOff_C2"}, "name": "OnOff_C2", "class_name": "InputLayer"}, {"inbound_nodes": [[["dense_35", 0, 0, {}]]], "config": {"name": "dense_36", "bias_initializer": {"config": {}, "class_name": "Zeros"}, "kernel_constraint": null, "kernel_regularizer": {"config": {"l1": 0.0, "l2": 9.999999974752427e-07}, "class_name": "L1L2"}, "units": 1, "use_bias": true, "activation": "relu", "bias_regularizer": null, "activity_regularizer": null, "trainable": true, "kernel_initializer": {"config": {"scale": 1.0, "distribution": "uniform", "seed": 512, "mode": "fan_avg"}, "class_name": "VarianceScaling"}, "bias_constraint": null}, "name": "dense_36", "class_name": "Dense"}, {"inbound_nodes": [], "config": {"sparse": false, "batch_input_shape": [null, 1], "dtype": "float32", "name": "OnOff_C3"}, "name": "OnOff_C3", "class_name": "InputLayer"}, {"inbound_nodes": [[["dense_39", 0, 0, {}]]], "config": {"name": "dense_40", "bias_initializer": {"config": {}, "class_name": "Zeros"}, "kernel_constraint": null, "kernel_regularizer": {"config": {"l1": 0.0, "l2": 9.999999974752427e-07}, "class_name": "L1L2"}, "units": 1, "use_bias": true, "activation": "relu", "bias_regularizer": null, "activity_regularizer": null, "trainable": true, "kernel_initializer": {"config": {"scale": 1.0, "distribution": "uniform", "seed": 512, "mode": "fan_avg"}, "class_name": "VarianceScaling"}, "bias_constraint": null}, "name": "dense_40", "class_name": "Dense"}, {"inbound_nodes": [], "config": {"sparse": false, "batch_input_shape": [null, 1], "dtype": "float32", "name": "OnOff_C4"}, "name": "OnOff_C4", "class_name": "InputLayer"}, {"inbound_nodes": [[["dense_43", 0, 0, {}]]], "config": {"name": "dense_44", "bias_initializer": {"config": {}, "class_name": "Zeros"}, "kernel_constraint": null, "kernel_regularizer": {"config": {"l1": 0.0, "l2": 9.999999974752427e-07}, "class_name": "L1L2"}, "units": 1, "use_bias": true, "activation": "relu", "bias_regularizer": null, "activity_regularizer": null, "trainable": true, "kernel_initializer": {"config": {"scale": 1.0, "distribution": "uniform", "seed": 512, "mode": "fan_avg"}, "class_name": "VarianceScaling"}, "bias_constraint": null}, "name": "dense_44", "class_name": "Dense"}, {"inbound_nodes": [], "config": {"sparse": false, "batch_input_shape": [null, 1], "dtype": "float32", "name": "OnOff_B1"}, "name": "OnOff_B1", "class_name": "InputLayer"}, {"inbound_nodes": [[["dense_47", 0, 0, {}]]], "config": {"name": "dense_48", "bias_initializer": {"config": {}, "class_name": "Zeros"}, "kernel_constraint": null, "kernel_regularizer": {"config": {"l1": 0.0, "l2": 9.999999974752427e-07}, "class_name": "L1L2"}, "units": 1, "use_bias": true, "activation": "relu", "bias_regularizer": null, "activity_regularizer": null, "trainable": true, "kernel_initializer": {"config": {"scale": 1.0, "distribution": "uniform", "seed": 512, "mode": "fan_avg"}, "class_name": "VarianceScaling"}, "bias_constraint": null}, "name": "dense_48", "class_name": "Dense"}, {"inbound_nodes": [], "config": {"sparse": false, "batch_input_shape": [null, 1], "dtype": "float32", "name": "OnOff_B3"}, "name": "OnOff_B3", "class_name": "InputLayer"}, {"inbound_nodes": [[["dense_51", 0, 0, {}]]], "config": {"name": "dense_52", "bias_initializer": {"config": {}, "class_name": "Zeros"}, "kernel_constraint": null, "kernel_regularizer": {"config": {"l1": 0.0, "l2": 9.999999974752427e-07}, "class_name": "L1L2"}, "units": 1, "use_bias": true, "activation": "relu", "bias_regularizer": null, "activity_regularizer": null, "trainable": true, "kernel_initializer": {"config": {"scale": 1.0, "distribution": "uniform", "seed": 512, "mode": "fan_avg"}, "class_name": "VarianceScaling"}, "bias_constraint": null}, "name": "dense_52", "class_name": "Dense"}, {"inbound_nodes": [], "config": {"sparse": false, "batch_input_shape": [null, 1], "dtype": "float32", "name": "OnOff_D1"}, "name": "OnOff_D1", "class_name": "InputLayer"}, {"inbound_nodes": [[["dense_55", 0, 0, {}]]], "config": {"name": "dense_56", "bias_initializer": {"config": {}, "class_name": "Zeros"}, "kernel_constraint": null, "kernel_regularizer": {"config": {"l1": 0.0, "l2": 9.999999974752427e-07}, "class_name": "L1L2"}, "units": 1, "use_bias": true, "activation": "relu", "bias_regularizer": null, "activity_regularizer": null, "trainable": true, "kernel_initializer": {"config": {"scale": 1.0, "distribution": "uniform", "seed": 512, "mode": "fan_avg"}, "class_name": "VarianceScaling"}, "bias_constraint": null}, "name": "dense_56", "class_name": "Dense"}, {"inbound_nodes": [[["OnOff_C1", 0, 0, {}], ["dense_32", 0, 0, {}]]], "config": {"name": "C1_out", "trainable": true}, "name": "C1_out", "class_name": "Multiply"}, {"inbound_nodes": [[["OnOff_C2", 0, 0, {}], ["dense_36", 0, 0, {}]]], "config": {"name": "C2_out", "trainable": true}, "name": "C2_out", "class_name": "Multiply"}, {"inbound_nodes": [[["OnOff_C3", 0, 0, {}], ["dense_40", 0, 0, {}]]], "config": {"name": "C3_out", "trainable": true}, "name": "C3_out", "class_name": "Multiply"}, {"inbound_nodes": [[["OnOff_C4", 0, 0, {}], ["dense_44", 0, 0, {}]]], "config": {"name": "C4_out", "trainable": true}, "name": "C4_out", "class_name": "Multiply"}, {"inbound_nodes": [[["OnOff_B1", 0, 0, {}], ["dense_48", 0, 0, {}]]], "config": {"name": "B1_out", "trainable": true}, "name": "B1_out", "class_name": "Multiply"}, {"inbound_nodes": [[["OnOff_B3", 0, 0, {}], ["dense_52", 0, 0, {}]]], "config": {"name": "B3_out", "trainable": true}, "name": "B3_out", "class_name": "Multiply"}, {"inbound_nodes": [[["OnOff_D1", 0, 0, {}], ["dense_56", 0, 0, {}]]], "config": {"name": "D1_out", "trainable": true}, "name": "D1_out", "class_name": "Multiply"}, {"inbound_nodes": [[["C1_out", 0, 0, {}], ["C2_out", 0, 0, {}], ["C3_out", 0, 0, {}], ["C4_out", 0, 0, {}], ["B1_out", 0, 0, {}], ["B3_out", 0, 0, {}], ["D1_out", 0, 0, {}]]], "config": {"name": "GJOA_TOTAL", "trainable": true}, "name": "GJOA_TOTAL", "class_name": "Add"}]}, "class_name": "Model"}