{"keras_version": "2.0.1", "backend": "theano", "config": {"output_layers": [["C1_out", 0, 0], ["C2_out", 0, 0], ["C3_out", 0, 0], ["C4_out", 0, 0], ["B1_out", 0, 0], ["B3_out", 0, 0], ["D1_out", 0, 0], ["GJOA_TOTAL", 0, 0]], "layers": [{"inbound_nodes": [], "config": {"dtype": "float32", "batch_input_shape": [null, 4], "name": "C1", "sparse": false}, "name": "C1", "class_name": "InputLayer"}, {"inbound_nodes": [], "config": {"dtype": "float32", "batch_input_shape": [null, 3], "name": "C2", "sparse": false}, "name": "C2", "class_name": "InputLayer"}, {"inbound_nodes": [], "config": {"dtype": "float32", "batch_input_shape": [null, 4], "name": "C3", "sparse": false}, "name": "C3", "class_name": "InputLayer"}, {"inbound_nodes": [], "config": {"dtype": "float32", "batch_input_shape": [null, 4], "name": "C4", "sparse": false}, "name": "C4", "class_name": "InputLayer"}, {"inbound_nodes": [], "config": {"dtype": "float32", "batch_input_shape": [null, 4], "name": "B1", "sparse": false}, "name": "B1", "class_name": "InputLayer"}, {"inbound_nodes": [], "config": {"dtype": "float32", "batch_input_shape": [null, 4], "name": "B3", "sparse": false}, "name": "B3", "class_name": "InputLayer"}, {"inbound_nodes": [], "config": {"dtype": "float32", "batch_input_shape": [null, 3], "name": "D1", "sparse": false}, "name": "D1", "class_name": "InputLayer"}, {"inbound_nodes": [[["C1", 0, 0, {}]]], "config": {"bias_regularizer": null, "activation": "relu", "kernel_initializer": {"config": {"distribution": "uniform", "mode": "fan_avg", "scale": 1.0, "seed": null}, "class_name": "VarianceScaling"}, "name": "dense_36", "kernel_regularizer": {"config": {"l2": 9.999999747378752e-06, "l1": 0.0}, "class_name": "L1L2"}, "trainable": true, "activity_regularizer": null, "units": 20, "kernel_constraint": null, "use_bias": true, "bias_initializer": {"config": {}, "class_name": "Zeros"}, "bias_constraint": null}, "name": "dense_36", "class_name": "Dense"}, {"inbound_nodes": [[["C2", 0, 0, {}]]], "config": {"bias_regularizer": null, "activation": "relu", "kernel_initializer": {"config": {"distribution": "uniform", "mode": "fan_avg", "scale": 1.0, "seed": null}, "class_name": "VarianceScaling"}, "name": "dense_41", "kernel_regularizer": {"config": {"l2": 9.999999747378752e-06, "l1": 0.0}, "class_name": "L1L2"}, "trainable": true, "activity_regularizer": null, "units": 20, "kernel_constraint": null, "use_bias": true, "bias_initializer": {"config": {}, "class_name": "Zeros"}, "bias_constraint": null}, "name": "dense_41", "class_name": "Dense"}, {"inbound_nodes": [[["C3", 0, 0, {}]]], "config": {"bias_regularizer": null, "activation": "relu", "kernel_initializer": {"config": {"distribution": "uniform", "mode": "fan_avg", "scale": 1.0, "seed": null}, "class_name": "VarianceScaling"}, "name": "dense_46", "kernel_regularizer": {"config": {"l2": 9.999999747378752e-06, "l1": 0.0}, "class_name": "L1L2"}, "trainable": true, "activity_regularizer": null, "units": 20, "kernel_constraint": null, "use_bias": true, "bias_initializer": {"config": {}, "class_name": "Zeros"}, "bias_constraint": null}, "name": "dense_46", "class_name": "Dense"}, {"inbound_nodes": [[["C4", 0, 0, {}]]], "config": {"bias_regularizer": null, "activation": "relu", "kernel_initializer": {"config": {"distribution": "uniform", "mode": "fan_avg", "scale": 1.0, "seed": null}, "class_name": "VarianceScaling"}, "name": "dense_51", "kernel_regularizer": {"config": {"l2": 9.999999747378752e-06, "l1": 0.0}, "class_name": "L1L2"}, "trainable": true, "activity_regularizer": null, "units": 20, "kernel_constraint": null, "use_bias": true, "bias_initializer": {"config": {}, "class_name": "Zeros"}, "bias_constraint": null}, "name": "dense_51", "class_name": "Dense"}, {"inbound_nodes": [[["B1", 0, 0, {}]]], "config": {"bias_regularizer": null, "activation": "relu", "kernel_initializer": {"config": {"distribution": "uniform", "mode": "fan_avg", "scale": 1.0, "seed": null}, "class_name": "VarianceScaling"}, "name": "dense_56", "kernel_regularizer": {"config": {"l2": 9.999999747378752e-06, "l1": 0.0}, "class_name": "L1L2"}, "trainable": true, "activity_regularizer": null, "units": 20, "kernel_constraint": null, "use_bias": true, "bias_initializer": {"config": {}, "class_name": "Zeros"}, "bias_constraint": null}, "name": "dense_56", "class_name": "Dense"}, {"inbound_nodes": [[["B3", 0, 0, {}]]], "config": {"bias_regularizer": null, "activation": "relu", "kernel_initializer": {"config": {"distribution": "uniform", "mode": "fan_avg", "scale": 1.0, "seed": null}, "class_name": "VarianceScaling"}, "name": "dense_61", "kernel_regularizer": {"config": {"l2": 9.999999747378752e-06, "l1": 0.0}, "class_name": "L1L2"}, "trainable": true, "activity_regularizer": null, "units": 20, "kernel_constraint": null, "use_bias": true, "bias_initializer": {"config": {}, "class_name": "Zeros"}, "bias_constraint": null}, "name": "dense_61", "class_name": "Dense"}, {"inbound_nodes": [[["D1", 0, 0, {}]]], "config": {"bias_regularizer": null, "activation": "relu", "kernel_initializer": {"config": {"distribution": "uniform", "mode": "fan_avg", "scale": 1.0, "seed": null}, "class_name": "VarianceScaling"}, "name": "dense_66", "kernel_regularizer": {"config": {"l2": 9.999999747378752e-06, "l1": 0.0}, "class_name": "L1L2"}, "trainable": true, "activity_regularizer": null, "units": 20, "kernel_constraint": null, "use_bias": true, "bias_initializer": {"config": {}, "class_name": "Zeros"}, "bias_constraint": null}, "name": "dense_66", "class_name": "Dense"}, {"inbound_nodes": [[["dense_36", 0, 0, {}]]], "config": {"bias_regularizer": null, "activation": "relu", "kernel_initializer": {"config": {"distribution": "uniform", "mode": "fan_avg", "scale": 1.0, "seed": null}, "class_name": "VarianceScaling"}, "name": "dense_37", "kernel_regularizer": {"config": {"l2": 9.999999747378752e-06, "l1": 0.0}, "class_name": "L1L2"}, "trainable": true, "activity_regularizer": null, "units": 20, "kernel_constraint": null, "use_bias": true, "bias_initializer": {"config": {}, "class_name": "Zeros"}, "bias_constraint": null}, "name": "dense_37", "class_name": "Dense"}, {"inbound_nodes": [[["dense_41", 0, 0, {}]]], "config": {"bias_regularizer": null, "activation": "relu", "kernel_initializer": {"config": {"distribution": "uniform", "mode": "fan_avg", "scale": 1.0, "seed": null}, "class_name": "VarianceScaling"}, "name": "dense_42", "kernel_regularizer": {"config": {"l2": 9.999999747378752e-06, "l1": 0.0}, "class_name": "L1L2"}, "trainable": true, "activity_regularizer": null, "units": 20, "kernel_constraint": null, "use_bias": true, "bias_initializer": {"config": {}, "class_name": "Zeros"}, "bias_constraint": null}, "name": "dense_42", "class_name": "Dense"}, {"inbound_nodes": [[["dense_46", 0, 0, {}]]], "config": {"bias_regularizer": null, "activation": "relu", "kernel_initializer": {"config": {"distribution": "uniform", "mode": "fan_avg", "scale": 1.0, "seed": null}, "class_name": "VarianceScaling"}, "name": "dense_47", "kernel_regularizer": {"config": {"l2": 9.999999747378752e-06, "l1": 0.0}, "class_name": "L1L2"}, "trainable": true, "activity_regularizer": null, "units": 20, "kernel_constraint": null, "use_bias": true, "bias_initializer": {"config": {}, "class_name": "Zeros"}, "bias_constraint": null}, "name": "dense_47", "class_name": "Dense"}, {"inbound_nodes": [[["dense_51", 0, 0, {}]]], "config": {"bias_regularizer": null, "activation": "relu", "kernel_initializer": {"config": {"distribution": "uniform", "mode": "fan_avg", "scale": 1.0, "seed": null}, "class_name": "VarianceScaling"}, "name": "dense_52", "kernel_regularizer": {"config": {"l2": 9.999999747378752e-06, "l1": 0.0}, "class_name": "L1L2"}, "trainable": true, "activity_regularizer": null, "units": 20, "kernel_constraint": null, "use_bias": true, "bias_initializer": {"config": {}, "class_name": "Zeros"}, "bias_constraint": null}, "name": "dense_52", "class_name": "Dense"}, {"inbound_nodes": [[["dense_56", 0, 0, {}]]], "config": {"bias_regularizer": null, "activation": "relu", "kernel_initializer": {"config": {"distribution": "uniform", "mode": "fan_avg", "scale": 1.0, "seed": null}, "class_name": "VarianceScaling"}, "name": "dense_57", "kernel_regularizer": {"config": {"l2": 9.999999747378752e-06, "l1": 0.0}, "class_name": "L1L2"}, "trainable": true, "activity_regularizer": null, "units": 20, "kernel_constraint": null, "use_bias": true, "bias_initializer": {"config": {}, "class_name": "Zeros"}, "bias_constraint": null}, "name": "dense_57", "class_name": "Dense"}, {"inbound_nodes": [[["dense_61", 0, 0, {}]]], "config": {"bias_regularizer": null, "activation": "relu", "kernel_initializer": {"config": {"distribution": "uniform", "mode": "fan_avg", "scale": 1.0, "seed": null}, "class_name": "VarianceScaling"}, "name": "dense_62", "kernel_regularizer": {"config": {"l2": 9.999999747378752e-06, "l1": 0.0}, "class_name": "L1L2"}, "trainable": true, "activity_regularizer": null, "units": 20, "kernel_constraint": null, "use_bias": true, "bias_initializer": {"config": {}, "class_name": "Zeros"}, "bias_constraint": null}, "name": "dense_62", "class_name": "Dense"}, {"inbound_nodes": [[["dense_66", 0, 0, {}]]], "config": {"bias_regularizer": null, "activation": "relu", "kernel_initializer": {"config": {"distribution": "uniform", "mode": "fan_avg", "scale": 1.0, "seed": null}, "class_name": "VarianceScaling"}, "name": "dense_67", "kernel_regularizer": {"config": {"l2": 9.999999747378752e-06, "l1": 0.0}, "class_name": "L1L2"}, "trainable": true, "activity_regularizer": null, "units": 20, "kernel_constraint": null, "use_bias": true, "bias_initializer": {"config": {}, "class_name": "Zeros"}, "bias_constraint": null}, "name": "dense_67", "class_name": "Dense"}, {"inbound_nodes": [[["dense_37", 0, 0, {}]]], "config": {"bias_regularizer": null, "activation": "relu", "kernel_initializer": {"config": {"distribution": "uniform", "mode": "fan_avg", "scale": 1.0, "seed": null}, "class_name": "VarianceScaling"}, "name": "dense_38", "kernel_regularizer": {"config": {"l2": 9.999999747378752e-06, "l1": 0.0}, "class_name": "L1L2"}, "trainable": true, "activity_regularizer": null, "units": 20, "kernel_constraint": null, "use_bias": true, "bias_initializer": {"config": {}, "class_name": "Zeros"}, "bias_constraint": null}, "name": "dense_38", "class_name": "Dense"}, {"inbound_nodes": [[["dense_42", 0, 0, {}]]], "config": {"bias_regularizer": null, "activation": "relu", "kernel_initializer": {"config": {"distribution": "uniform", "mode": "fan_avg", "scale": 1.0, "seed": null}, "class_name": "VarianceScaling"}, "name": "dense_43", "kernel_regularizer": {"config": {"l2": 9.999999747378752e-06, "l1": 0.0}, "class_name": "L1L2"}, "trainable": true, "activity_regularizer": null, "units": 20, "kernel_constraint": null, "use_bias": true, "bias_initializer": {"config": {}, "class_name": "Zeros"}, "bias_constraint": null}, "name": "dense_43", "class_name": "Dense"}, {"inbound_nodes": [[["dense_47", 0, 0, {}]]], "config": {"bias_regularizer": null, "activation": "relu", "kernel_initializer": {"config": {"distribution": "uniform", "mode": "fan_avg", "scale": 1.0, "seed": null}, "class_name": "VarianceScaling"}, "name": "dense_48", "kernel_regularizer": {"config": {"l2": 9.999999747378752e-06, "l1": 0.0}, "class_name": "L1L2"}, "trainable": true, "activity_regularizer": null, "units": 20, "kernel_constraint": null, "use_bias": true, "bias_initializer": {"config": {}, "class_name": "Zeros"}, "bias_constraint": null}, "name": "dense_48", "class_name": "Dense"}, {"inbound_nodes": [[["dense_52", 0, 0, {}]]], "config": {"bias_regularizer": null, "activation": "relu", "kernel_initializer": {"config": {"distribution": "uniform", "mode": "fan_avg", "scale": 1.0, "seed": null}, "class_name": "VarianceScaling"}, "name": "dense_53", "kernel_regularizer": {"config": {"l2": 9.999999747378752e-06, "l1": 0.0}, "class_name": "L1L2"}, "trainable": true, "activity_regularizer": null, "units": 20, "kernel_constraint": null, "use_bias": true, "bias_initializer": {"config": {}, "class_name": "Zeros"}, "bias_constraint": null}, "name": "dense_53", "class_name": "Dense"}, {"inbound_nodes": [[["dense_57", 0, 0, {}]]], "config": {"bias_regularizer": null, "activation": "relu", "kernel_initializer": {"config": {"distribution": "uniform", "mode": "fan_avg", "scale": 1.0, "seed": null}, "class_name": "VarianceScaling"}, "name": "dense_58", "kernel_regularizer": {"config": {"l2": 9.999999747378752e-06, "l1": 0.0}, "class_name": "L1L2"}, "trainable": true, "activity_regularizer": null, "units": 20, "kernel_constraint": null, "use_bias": true, "bias_initializer": {"config": {}, "class_name": "Zeros"}, "bias_constraint": null}, "name": "dense_58", "class_name": "Dense"}, {"inbound_nodes": [[["dense_62", 0, 0, {}]]], "config": {"bias_regularizer": null, "activation": "relu", "kernel_initializer": {"config": {"distribution": "uniform", "mode": "fan_avg", "scale": 1.0, "seed": null}, "class_name": "VarianceScaling"}, "name": "dense_63", "kernel_regularizer": {"config": {"l2": 9.999999747378752e-06, "l1": 0.0}, "class_name": "L1L2"}, "trainable": true, "activity_regularizer": null, "units": 20, "kernel_constraint": null, "use_bias": true, "bias_initializer": {"config": {}, "class_name": "Zeros"}, "bias_constraint": null}, "name": "dense_63", "class_name": "Dense"}, {"inbound_nodes": [[["dense_67", 0, 0, {}]]], "config": {"bias_regularizer": null, "activation": "relu", "kernel_initializer": {"config": {"distribution": "uniform", "mode": "fan_avg", "scale": 1.0, "seed": null}, "class_name": "VarianceScaling"}, "name": "dense_68", "kernel_regularizer": {"config": {"l2": 9.999999747378752e-06, "l1": 0.0}, "class_name": "L1L2"}, "trainable": true, "activity_regularizer": null, "units": 20, "kernel_constraint": null, "use_bias": true, "bias_initializer": {"config": {}, "class_name": "Zeros"}, "bias_constraint": null}, "name": "dense_68", "class_name": "Dense"}, {"inbound_nodes": [[["dense_38", 0, 0, {}]]], "config": {"bias_regularizer": null, "activation": "relu", "kernel_initializer": {"config": {"distribution": "uniform", "mode": "fan_avg", "scale": 1.0, "seed": null}, "class_name": "VarianceScaling"}, "name": "dense_39", "kernel_regularizer": {"config": {"l2": 9.999999747378752e-06, "l1": 0.0}, "class_name": "L1L2"}, "trainable": true, "activity_regularizer": null, "units": 20, "kernel_constraint": null, "use_bias": true, "bias_initializer": {"config": {}, "class_name": "Zeros"}, "bias_constraint": null}, "name": "dense_39", "class_name": "Dense"}, {"inbound_nodes": [[["dense_43", 0, 0, {}]]], "config": {"bias_regularizer": null, "activation": "relu", "kernel_initializer": {"config": {"distribution": "uniform", "mode": "fan_avg", "scale": 1.0, "seed": null}, "class_name": "VarianceScaling"}, "name": "dense_44", "kernel_regularizer": {"config": {"l2": 9.999999747378752e-06, "l1": 0.0}, "class_name": "L1L2"}, "trainable": true, "activity_regularizer": null, "units": 20, "kernel_constraint": null, "use_bias": true, "bias_initializer": {"config": {}, "class_name": "Zeros"}, "bias_constraint": null}, "name": "dense_44", "class_name": "Dense"}, {"inbound_nodes": [[["dense_48", 0, 0, {}]]], "config": {"bias_regularizer": null, "activation": "relu", "kernel_initializer": {"config": {"distribution": "uniform", "mode": "fan_avg", "scale": 1.0, "seed": null}, "class_name": "VarianceScaling"}, "name": "dense_49", "kernel_regularizer": {"config": {"l2": 9.999999747378752e-06, "l1": 0.0}, "class_name": "L1L2"}, "trainable": true, "activity_regularizer": null, "units": 20, "kernel_constraint": null, "use_bias": true, "bias_initializer": {"config": {}, "class_name": "Zeros"}, "bias_constraint": null}, "name": "dense_49", "class_name": "Dense"}, {"inbound_nodes": [[["dense_53", 0, 0, {}]]], "config": {"bias_regularizer": null, "activation": "relu", "kernel_initializer": {"config": {"distribution": "uniform", "mode": "fan_avg", "scale": 1.0, "seed": null}, "class_name": "VarianceScaling"}, "name": "dense_54", "kernel_regularizer": {"config": {"l2": 9.999999747378752e-06, "l1": 0.0}, "class_name": "L1L2"}, "trainable": true, "activity_regularizer": null, "units": 20, "kernel_constraint": null, "use_bias": true, "bias_initializer": {"config": {}, "class_name": "Zeros"}, "bias_constraint": null}, "name": "dense_54", "class_name": "Dense"}, {"inbound_nodes": [[["dense_58", 0, 0, {}]]], "config": {"bias_regularizer": null, "activation": "relu", "kernel_initializer": {"config": {"distribution": "uniform", "mode": "fan_avg", "scale": 1.0, "seed": null}, "class_name": "VarianceScaling"}, "name": "dense_59", "kernel_regularizer": {"config": {"l2": 9.999999747378752e-06, "l1": 0.0}, "class_name": "L1L2"}, "trainable": true, "activity_regularizer": null, "units": 20, "kernel_constraint": null, "use_bias": true, "bias_initializer": {"config": {}, "class_name": "Zeros"}, "bias_constraint": null}, "name": "dense_59", "class_name": "Dense"}, {"inbound_nodes": [[["dense_63", 0, 0, {}]]], "config": {"bias_regularizer": null, "activation": "relu", "kernel_initializer": {"config": {"distribution": "uniform", "mode": "fan_avg", "scale": 1.0, "seed": null}, "class_name": "VarianceScaling"}, "name": "dense_64", "kernel_regularizer": {"config": {"l2": 9.999999747378752e-06, "l1": 0.0}, "class_name": "L1L2"}, "trainable": true, "activity_regularizer": null, "units": 20, "kernel_constraint": null, "use_bias": true, "bias_initializer": {"config": {}, "class_name": "Zeros"}, "bias_constraint": null}, "name": "dense_64", "class_name": "Dense"}, {"inbound_nodes": [[["dense_68", 0, 0, {}]]], "config": {"bias_regularizer": null, "activation": "relu", "kernel_initializer": {"config": {"distribution": "uniform", "mode": "fan_avg", "scale": 1.0, "seed": null}, "class_name": "VarianceScaling"}, "name": "dense_69", "kernel_regularizer": {"config": {"l2": 9.999999747378752e-06, "l1": 0.0}, "class_name": "L1L2"}, "trainable": true, "activity_regularizer": null, "units": 20, "kernel_constraint": null, "use_bias": true, "bias_initializer": {"config": {}, "class_name": "Zeros"}, "bias_constraint": null}, "name": "dense_69", "class_name": "Dense"}, {"inbound_nodes": [], "config": {"dtype": "float32", "batch_input_shape": [null, 1], "name": "OnOff_C1", "sparse": false}, "name": "OnOff_C1", "class_name": "InputLayer"}, {"inbound_nodes": [[["dense_39", 0, 0, {}]]], "config": {"bias_regularizer": null, "activation": "relu", "kernel_initializer": {"config": {"distribution": "uniform", "mode": "fan_avg", "scale": 1.0, "seed": null}, "class_name": "VarianceScaling"}, "name": "dense_40", "kernel_regularizer": {"config": {"l2": 9.999999747378752e-06, "l1": 0.0}, "class_name": "L1L2"}, "trainable": true, "activity_regularizer": null, "units": 1, "kernel_constraint": null, "use_bias": true, "bias_initializer": {"config": {}, "class_name": "Zeros"}, "bias_constraint": null}, "name": "dense_40", "class_name": "Dense"}, {"inbound_nodes": [], "config": {"dtype": "float32", "batch_input_shape": [null, 1], "name": "OnOff_C2", "sparse": false}, "name": "OnOff_C2", "class_name": "InputLayer"}, {"inbound_nodes": [[["dense_44", 0, 0, {}]]], "config": {"bias_regularizer": null, "activation": "relu", "kernel_initializer": {"config": {"distribution": "uniform", "mode": "fan_avg", "scale": 1.0, "seed": null}, "class_name": "VarianceScaling"}, "name": "dense_45", "kernel_regularizer": {"config": {"l2": 9.999999747378752e-06, "l1": 0.0}, "class_name": "L1L2"}, "trainable": true, "activity_regularizer": null, "units": 1, "kernel_constraint": null, "use_bias": true, "bias_initializer": {"config": {}, "class_name": "Zeros"}, "bias_constraint": null}, "name": "dense_45", "class_name": "Dense"}, {"inbound_nodes": [], "config": {"dtype": "float32", "batch_input_shape": [null, 1], "name": "OnOff_C3", "sparse": false}, "name": "OnOff_C3", "class_name": "InputLayer"}, {"inbound_nodes": [[["dense_49", 0, 0, {}]]], "config": {"bias_regularizer": null, "activation": "relu", "kernel_initializer": {"config": {"distribution": "uniform", "mode": "fan_avg", "scale": 1.0, "seed": null}, "class_name": "VarianceScaling"}, "name": "dense_50", "kernel_regularizer": {"config": {"l2": 9.999999747378752e-06, "l1": 0.0}, "class_name": "L1L2"}, "trainable": true, "activity_regularizer": null, "units": 1, "kernel_constraint": null, "use_bias": true, "bias_initializer": {"config": {}, "class_name": "Zeros"}, "bias_constraint": null}, "name": "dense_50", "class_name": "Dense"}, {"inbound_nodes": [], "config": {"dtype": "float32", "batch_input_shape": [null, 1], "name": "OnOff_C4", "sparse": false}, "name": "OnOff_C4", "class_name": "InputLayer"}, {"inbound_nodes": [[["dense_54", 0, 0, {}]]], "config": {"bias_regularizer": null, "activation": "relu", "kernel_initializer": {"config": {"distribution": "uniform", "mode": "fan_avg", "scale": 1.0, "seed": null}, "class_name": "VarianceScaling"}, "name": "dense_55", "kernel_regularizer": {"config": {"l2": 9.999999747378752e-06, "l1": 0.0}, "class_name": "L1L2"}, "trainable": true, "activity_regularizer": null, "units": 1, "kernel_constraint": null, "use_bias": true, "bias_initializer": {"config": {}, "class_name": "Zeros"}, "bias_constraint": null}, "name": "dense_55", "class_name": "Dense"}, {"inbound_nodes": [], "config": {"dtype": "float32", "batch_input_shape": [null, 1], "name": "OnOff_B1", "sparse": false}, "name": "OnOff_B1", "class_name": "InputLayer"}, {"inbound_nodes": [[["dense_59", 0, 0, {}]]], "config": {"bias_regularizer": null, "activation": "relu", "kernel_initializer": {"config": {"distribution": "uniform", "mode": "fan_avg", "scale": 1.0, "seed": null}, "class_name": "VarianceScaling"}, "name": "dense_60", "kernel_regularizer": {"config": {"l2": 9.999999747378752e-06, "l1": 0.0}, "class_name": "L1L2"}, "trainable": true, "activity_regularizer": null, "units": 1, "kernel_constraint": null, "use_bias": true, "bias_initializer": {"config": {}, "class_name": "Zeros"}, "bias_constraint": null}, "name": "dense_60", "class_name": "Dense"}, {"inbound_nodes": [], "config": {"dtype": "float32", "batch_input_shape": [null, 1], "name": "OnOff_B3", "sparse": false}, "name": "OnOff_B3", "class_name": "InputLayer"}, {"inbound_nodes": [[["dense_64", 0, 0, {}]]], "config": {"bias_regularizer": null, "activation": "relu", "kernel_initializer": {"config": {"distribution": "uniform", "mode": "fan_avg", "scale": 1.0, "seed": null}, "class_name": "VarianceScaling"}, "name": "dense_65", "kernel_regularizer": {"config": {"l2": 9.999999747378752e-06, "l1": 0.0}, "class_name": "L1L2"}, "trainable": true, "activity_regularizer": null, "units": 1, "kernel_constraint": null, "use_bias": true, "bias_initializer": {"config": {}, "class_name": "Zeros"}, "bias_constraint": null}, "name": "dense_65", "class_name": "Dense"}, {"inbound_nodes": [], "config": {"dtype": "float32", "batch_input_shape": [null, 1], "name": "OnOff_D1", "sparse": false}, "name": "OnOff_D1", "class_name": "InputLayer"}, {"inbound_nodes": [[["dense_69", 0, 0, {}]]], "config": {"bias_regularizer": null, "activation": "relu", "kernel_initializer": {"config": {"distribution": "uniform", "mode": "fan_avg", "scale": 1.0, "seed": null}, "class_name": "VarianceScaling"}, "name": "dense_70", "kernel_regularizer": {"config": {"l2": 9.999999747378752e-06, "l1": 0.0}, "class_name": "L1L2"}, "trainable": true, "activity_regularizer": null, "units": 1, "kernel_constraint": null, "use_bias": true, "bias_initializer": {"config": {}, "class_name": "Zeros"}, "bias_constraint": null}, "name": "dense_70", "class_name": "Dense"}, {"inbound_nodes": [[["OnOff_C1", 0, 0, {}], ["dense_40", 0, 0, {}]]], "config": {"name": "C1_out", "trainable": true}, "name": "C1_out", "class_name": "Multiply"}, {"inbound_nodes": [[["OnOff_C2", 0, 0, {}], ["dense_45", 0, 0, {}]]], "config": {"name": "C2_out", "trainable": true}, "name": "C2_out", "class_name": "Multiply"}, {"inbound_nodes": [[["OnOff_C3", 0, 0, {}], ["dense_50", 0, 0, {}]]], "config": {"name": "C3_out", "trainable": true}, "name": "C3_out", "class_name": "Multiply"}, {"inbound_nodes": [[["OnOff_C4", 0, 0, {}], ["dense_55", 0, 0, {}]]], "config": {"name": "C4_out", "trainable": true}, "name": "C4_out", "class_name": "Multiply"}, {"inbound_nodes": [[["OnOff_B1", 0, 0, {}], ["dense_60", 0, 0, {}]]], "config": {"name": "B1_out", "trainable": true}, "name": "B1_out", "class_name": "Multiply"}, {"inbound_nodes": [[["OnOff_B3", 0, 0, {}], ["dense_65", 0, 0, {}]]], "config": {"name": "B3_out", "trainable": true}, "name": "B3_out", "class_name": "Multiply"}, {"inbound_nodes": [[["OnOff_D1", 0, 0, {}], ["dense_70", 0, 0, {}]]], "config": {"name": "D1_out", "trainable": true}, "name": "D1_out", "class_name": "Multiply"}, {"inbound_nodes": [[["C1_out", 0, 0, {}], ["C2_out", 0, 0, {}], ["C3_out", 0, 0, {}], ["C4_out", 0, 0, {}], ["B1_out", 0, 0, {}], ["B3_out", 0, 0, {}], ["D1_out", 0, 0, {}]]], "config": {"name": "GJOA_TOTAL", "trainable": true}, "name": "GJOA_TOTAL", "class_name": "Add"}], "name": "model_2", "input_layers": [["C1", 0, 0], ["C2", 0, 0], ["C3", 0, 0], ["C4", 0, 0], ["B1", 0, 0], ["B3", 0, 0], ["D1", 0, 0], ["OnOff_C1", 0, 0], ["OnOff_C2", 0, 0], ["OnOff_C3", 0, 0], ["OnOff_C4", 0, 0], ["OnOff_B1", 0, 0], ["OnOff_B3", 0, 0], ["OnOff_D1", 0, 0]]}, "class_name": "Model"}