{"class_name": "Model", "config": {"name": "model_2", "layers": [{"name": "PRESSURE_INPUT", "class_name": "InputLayer", "config": {"batch_input_shape": [null, 12], "input_dtype": "float32", "sparse": false, "name": "PRESSURE_INPUT"}, "inbound_nodes": []}, {"name": "RISER_B_CHK_INPUT", "class_name": "InputLayer", "config": {"batch_input_shape": [null, 1], "input_dtype": "float32", "sparse": false, "name": "RISER_B_CHK_INPUT"}, "inbound_nodes": []}, {"name": "RISER_MERGE", "class_name": "Merge", "config": {"name": "RISER_MERGE", "mode": "concat", "mode_type": "raw", "concat_axis": -1, "dot_axes": -1, "output_shape": null, "output_shape_type": "raw", "output_mask": null, "output_mask_type": "raw", "arguments": {}}, "inbound_nodes": [[["PRESSURE_INPUT", 0, 0], ["RISER_B_CHK_INPUT", 0, 0]]]}, {"name": "C1_PWH_0", "class_name": "Dense", "config": {"name": "C1_PWH_0", "trainable": false, "output_dim": 50, "init": "glorot_uniform", "activation": "relu", "W_regularizer": {"name": "L1L2Regularizer", "l1": 0.0, "l2": 4.999999873689376e-05}, "b_regularizer": null, "activity_regularizer": null, "W_constraint": null, "b_constraint": null, "bias": true, "input_dim": 12}, "inbound_nodes": [[["PRESSURE_INPUT", 0, 0]]]}, {"name": "C1_PDC_0", "class_name": "Dense", "config": {"name": "C1_PDC_0", "trainable": false, "output_dim": 50, "init": "glorot_uniform", "activation": "relu", "W_regularizer": {"name": "L1L2Regularizer", "l1": 0.0, "l2": 4.999999873689376e-05}, "b_regularizer": null, "activity_regularizer": null, "W_constraint": null, "b_constraint": null, "bias": true, "input_dim": 13}, "inbound_nodes": [[["RISER_MERGE", 0, 0]]]}, {"name": "C2_PWH_0", "class_name": "Dense", "config": {"name": "C2_PWH_0", "trainable": false, "output_dim": 50, "init": "glorot_uniform", "activation": "relu", "W_regularizer": {"name": "L1L2Regularizer", "l1": 0.0, "l2": 4.999999873689376e-05}, "b_regularizer": null, "activity_regularizer": null, "W_constraint": null, "b_constraint": null, "bias": true, "input_dim": 12}, "inbound_nodes": [[["PRESSURE_INPUT", 0, 0]]]}, {"name": "C2_PDC_0", "class_name": "Dense", "config": {"name": "C2_PDC_0", "trainable": false, "output_dim": 50, "init": "glorot_uniform", "activation": "relu", "W_regularizer": {"name": "L1L2Regularizer", "l1": 0.0, "l2": 4.999999873689376e-05}, "b_regularizer": null, "activity_regularizer": null, "W_constraint": null, "b_constraint": null, "bias": true, "input_dim": 13}, "inbound_nodes": [[["RISER_MERGE", 0, 0]]]}, {"name": "C3_PWH_0", "class_name": "Dense", "config": {"name": "C3_PWH_0", "trainable": false, "output_dim": 50, "init": "glorot_uniform", "activation": "relu", "W_regularizer": {"name": "L1L2Regularizer", "l1": 0.0, "l2": 4.999999873689376e-05}, "b_regularizer": null, "activity_regularizer": null, "W_constraint": null, "b_constraint": null, "bias": true, "input_dim": 12}, "inbound_nodes": [[["PRESSURE_INPUT", 0, 0]]]}, {"name": "C3_PDC_0", "class_name": "Dense", "config": {"name": "C3_PDC_0", "trainable": false, "output_dim": 50, "init": "glorot_uniform", "activation": "relu", "W_regularizer": {"name": "L1L2Regularizer", "l1": 0.0, "l2": 4.999999873689376e-05}, "b_regularizer": null, "activity_regularizer": null, "W_constraint": null, "b_constraint": null, "bias": true, "input_dim": 13}, "inbound_nodes": [[["RISER_MERGE", 0, 0]]]}, {"name": "C4_PWH_0", "class_name": "Dense", "config": {"name": "C4_PWH_0", "trainable": false, "output_dim": 50, "init": "glorot_uniform", "activation": "relu", "W_regularizer": {"name": "L1L2Regularizer", "l1": 0.0, "l2": 4.999999873689376e-05}, "b_regularizer": null, "activity_regularizer": null, "W_constraint": null, "b_constraint": null, "bias": true, "input_dim": 12}, "inbound_nodes": [[["PRESSURE_INPUT", 0, 0]]]}, {"name": "C4_PDC_0", "class_name": "Dense", "config": {"name": "C4_PDC_0", "trainable": false, "output_dim": 50, "init": "glorot_uniform", "activation": "relu", "W_regularizer": {"name": "L1L2Regularizer", "l1": 0.0, "l2": 4.999999873689376e-05}, "b_regularizer": null, "activity_regularizer": null, "W_constraint": null, "b_constraint": null, "bias": true, "input_dim": 13}, "inbound_nodes": [[["RISER_MERGE", 0, 0]]]}, {"name": "B1_PWH_0", "class_name": "Dense", "config": {"name": "B1_PWH_0", "trainable": false, "output_dim": 50, "init": "glorot_uniform", "activation": "relu", "W_regularizer": {"name": "L1L2Regularizer", "l1": 0.0, "l2": 4.999999873689376e-05}, "b_regularizer": null, "activity_regularizer": null, "W_constraint": null, "b_constraint": null, "bias": true, "input_dim": 12}, "inbound_nodes": [[["PRESSURE_INPUT", 0, 0]]]}, {"name": "B1_PDC_0", "class_name": "Dense", "config": {"name": "B1_PDC_0", "trainable": false, "output_dim": 50, "init": "glorot_uniform", "activation": "relu", "W_regularizer": {"name": "L1L2Regularizer", "l1": 0.0, "l2": 4.999999873689376e-05}, "b_regularizer": null, "activity_regularizer": null, "W_constraint": null, "b_constraint": null, "bias": true, "input_dim": 13}, "inbound_nodes": [[["RISER_MERGE", 0, 0]]]}, {"name": "B3_PWH_0", "class_name": "Dense", "config": {"name": "B3_PWH_0", "trainable": false, "output_dim": 50, "init": "glorot_uniform", "activation": "relu", "W_regularizer": {"name": "L1L2Regularizer", "l1": 0.0, "l2": 4.999999873689376e-05}, "b_regularizer": null, "activity_regularizer": null, "W_constraint": null, "b_constraint": null, "bias": true, "input_dim": 12}, "inbound_nodes": [[["PRESSURE_INPUT", 0, 0]]]}, {"name": "B3_PDC_0", "class_name": "Dense", "config": {"name": "B3_PDC_0", "trainable": false, "output_dim": 50, "init": "glorot_uniform", "activation": "relu", "W_regularizer": {"name": "L1L2Regularizer", "l1": 0.0, "l2": 4.999999873689376e-05}, "b_regularizer": null, "activity_regularizer": null, "W_constraint": null, "b_constraint": null, "bias": true, "input_dim": 13}, "inbound_nodes": [[["RISER_MERGE", 0, 0]]]}, {"name": "D1_PWH_0", "class_name": "Dense", "config": {"name": "D1_PWH_0", "trainable": false, "output_dim": 50, "init": "glorot_uniform", "activation": "relu", "W_regularizer": {"name": "L1L2Regularizer", "l1": 0.0, "l2": 4.999999873689376e-05}, "b_regularizer": null, "activity_regularizer": null, "W_constraint": null, "b_constraint": null, "bias": true, "input_dim": 12}, "inbound_nodes": [[["PRESSURE_INPUT", 0, 0]]]}, {"name": "D1_PDC_0", "class_name": "Dense", "config": {"name": "D1_PDC_0", "trainable": false, "output_dim": 50, "init": "glorot_uniform", "activation": "relu", "W_regularizer": {"name": "L1L2Regularizer", "l1": 0.0, "l2": 4.999999873689376e-05}, "b_regularizer": null, "activity_regularizer": null, "W_constraint": null, "b_constraint": null, "bias": true, "input_dim": 13}, "inbound_nodes": [[["RISER_MERGE", 0, 0]]]}, {"name": "C1_PWH_1", "class_name": "Dense", "config": {"name": "C1_PWH_1", "trainable": false, "output_dim": 50, "init": "glorot_uniform", "activation": "relu", "W_regularizer": {"name": "L1L2Regularizer", "l1": 0.0, "l2": 4.999999873689376e-05}, "b_regularizer": null, "activity_regularizer": null, "W_constraint": null, "b_constraint": null, "bias": true, "input_dim": 50}, "inbound_nodes": [[["C1_PWH_0", 0, 0]]]}, {"name": "C1_PDC_1", "class_name": "Dense", "config": {"name": "C1_PDC_1", "trainable": false, "output_dim": 50, "init": "glorot_uniform", "activation": "relu", "W_regularizer": {"name": "L1L2Regularizer", "l1": 0.0, "l2": 4.999999873689376e-05}, "b_regularizer": null, "activity_regularizer": null, "W_constraint": null, "b_constraint": null, "bias": true, "input_dim": 50}, "inbound_nodes": [[["C1_PDC_0", 0, 0]]]}, {"name": "C2_PWH_1", "class_name": "Dense", "config": {"name": "C2_PWH_1", "trainable": false, "output_dim": 50, "init": "glorot_uniform", "activation": "relu", "W_regularizer": {"name": "L1L2Regularizer", "l1": 0.0, "l2": 4.999999873689376e-05}, "b_regularizer": null, "activity_regularizer": null, "W_constraint": null, "b_constraint": null, "bias": true, "input_dim": 50}, "inbound_nodes": [[["C2_PWH_0", 0, 0]]]}, {"name": "C2_PDC_1", "class_name": "Dense", "config": {"name": "C2_PDC_1", "trainable": false, "output_dim": 50, "init": "glorot_uniform", "activation": "relu", "W_regularizer": {"name": "L1L2Regularizer", "l1": 0.0, "l2": 4.999999873689376e-05}, "b_regularizer": null, "activity_regularizer": null, "W_constraint": null, "b_constraint": null, "bias": true, "input_dim": 50}, "inbound_nodes": [[["C2_PDC_0", 0, 0]]]}, {"name": "C3_PWH_1", "class_name": "Dense", "config": {"name": "C3_PWH_1", "trainable": false, "output_dim": 50, "init": "glorot_uniform", "activation": "relu", "W_regularizer": {"name": "L1L2Regularizer", "l1": 0.0, "l2": 4.999999873689376e-05}, "b_regularizer": null, "activity_regularizer": null, "W_constraint": null, "b_constraint": null, "bias": true, "input_dim": 50}, "inbound_nodes": [[["C3_PWH_0", 0, 0]]]}, {"name": "C3_PDC_1", "class_name": "Dense", "config": {"name": "C3_PDC_1", "trainable": false, "output_dim": 50, "init": "glorot_uniform", "activation": "relu", "W_regularizer": {"name": "L1L2Regularizer", "l1": 0.0, "l2": 4.999999873689376e-05}, "b_regularizer": null, "activity_regularizer": null, "W_constraint": null, "b_constraint": null, "bias": true, "input_dim": 50}, "inbound_nodes": [[["C3_PDC_0", 0, 0]]]}, {"name": "C4_PWH_1", "class_name": "Dense", "config": {"name": "C4_PWH_1", "trainable": false, "output_dim": 50, "init": "glorot_uniform", "activation": "relu", "W_regularizer": {"name": "L1L2Regularizer", "l1": 0.0, "l2": 4.999999873689376e-05}, "b_regularizer": null, "activity_regularizer": null, "W_constraint": null, "b_constraint": null, "bias": true, "input_dim": 50}, "inbound_nodes": [[["C4_PWH_0", 0, 0]]]}, {"name": "C4_PDC_1", "class_name": "Dense", "config": {"name": "C4_PDC_1", "trainable": false, "output_dim": 50, "init": "glorot_uniform", "activation": "relu", "W_regularizer": {"name": "L1L2Regularizer", "l1": 0.0, "l2": 4.999999873689376e-05}, "b_regularizer": null, "activity_regularizer": null, "W_constraint": null, "b_constraint": null, "bias": true, "input_dim": 50}, "inbound_nodes": [[["C4_PDC_0", 0, 0]]]}, {"name": "B1_PWH_1", "class_name": "Dense", "config": {"name": "B1_PWH_1", "trainable": false, "output_dim": 50, "init": "glorot_uniform", "activation": "relu", "W_regularizer": {"name": "L1L2Regularizer", "l1": 0.0, "l2": 4.999999873689376e-05}, "b_regularizer": null, "activity_regularizer": null, "W_constraint": null, "b_constraint": null, "bias": true, "input_dim": 50}, "inbound_nodes": [[["B1_PWH_0", 0, 0]]]}, {"name": "B1_PDC_1", "class_name": "Dense", "config": {"name": "B1_PDC_1", "trainable": false, "output_dim": 50, "init": "glorot_uniform", "activation": "relu", "W_regularizer": {"name": "L1L2Regularizer", "l1": 0.0, "l2": 4.999999873689376e-05}, "b_regularizer": null, "activity_regularizer": null, "W_constraint": null, "b_constraint": null, "bias": true, "input_dim": 50}, "inbound_nodes": [[["B1_PDC_0", 0, 0]]]}, {"name": "B3_PWH_1", "class_name": "Dense", "config": {"name": "B3_PWH_1", "trainable": false, "output_dim": 50, "init": "glorot_uniform", "activation": "relu", "W_regularizer": {"name": "L1L2Regularizer", "l1": 0.0, "l2": 4.999999873689376e-05}, "b_regularizer": null, "activity_regularizer": null, "W_constraint": null, "b_constraint": null, "bias": true, "input_dim": 50}, "inbound_nodes": [[["B3_PWH_0", 0, 0]]]}, {"name": "B3_PDC_1", "class_name": "Dense", "config": {"name": "B3_PDC_1", "trainable": false, "output_dim": 50, "init": "glorot_uniform", "activation": "relu", "W_regularizer": {"name": "L1L2Regularizer", "l1": 0.0, "l2": 4.999999873689376e-05}, "b_regularizer": null, "activity_regularizer": null, "W_constraint": null, "b_constraint": null, "bias": true, "input_dim": 50}, "inbound_nodes": [[["B3_PDC_0", 0, 0]]]}, {"name": "D1_PWH_1", "class_name": "Dense", "config": {"name": "D1_PWH_1", "trainable": false, "output_dim": 50, "init": "glorot_uniform", "activation": "relu", "W_regularizer": {"name": "L1L2Regularizer", "l1": 0.0, "l2": 4.999999873689376e-05}, "b_regularizer": null, "activity_regularizer": null, "W_constraint": null, "b_constraint": null, "bias": true, "input_dim": 50}, "inbound_nodes": [[["D1_PWH_0", 0, 0]]]}, {"name": "D1_PDC_1", "class_name": "Dense", "config": {"name": "D1_PDC_1", "trainable": false, "output_dim": 50, "init": "glorot_uniform", "activation": "relu", "W_regularizer": {"name": "L1L2Regularizer", "l1": 0.0, "l2": 4.999999873689376e-05}, "b_regularizer": null, "activity_regularizer": null, "W_constraint": null, "b_constraint": null, "bias": true, "input_dim": 50}, "inbound_nodes": [[["D1_PDC_0", 0, 0]]]}, {"name": "C1_PWH_out", "class_name": "Dense", "config": {"name": "C1_PWH_out", "trainable": false, "output_dim": 1, "init": "glorot_uniform", "activation": "relu", "W_regularizer": {"name": "L1L2Regularizer", "l1": 0.0, "l2": 4.999999873689376e-05}, "b_regularizer": null, "activity_regularizer": null, "W_constraint": null, "b_constraint": null, "bias": true, "input_dim": 50}, "inbound_nodes": [[["C1_PWH_1", 0, 0]]]}, {"name": "OnOff_PWH_C1", "class_name": "InputLayer", "config": {"batch_input_shape": [null, 1], "input_dtype": "float32", "sparse": false, "name": "OnOff_PWH_C1"}, "inbound_nodes": []}, {"name": "C1_PDC_out", "class_name": "Dense", "config": {"name": "C1_PDC_out", "trainable": false, "output_dim": 1, "init": "glorot_uniform", "activation": "relu", "W_regularizer": {"name": "L1L2Regularizer", "l1": 0.0, "l2": 4.999999873689376e-05}, "b_regularizer": null, "activity_regularizer": null, "W_constraint": null, "b_constraint": null, "bias": true, "input_dim": 50}, "inbound_nodes": [[["C1_PDC_1", 0, 0]]]}, {"name": "OnOff_PDC_C1", "class_name": "InputLayer", "config": {"batch_input_shape": [null, 1], "input_dtype": "float32", "sparse": false, "name": "OnOff_PDC_C1"}, "inbound_nodes": []}, {"name": "C2_PWH_out", "class_name": "Dense", "config": {"name": "C2_PWH_out", "trainable": false, "output_dim": 1, "init": "glorot_uniform", "activation": "relu", "W_regularizer": {"name": "L1L2Regularizer", "l1": 0.0, "l2": 4.999999873689376e-05}, "b_regularizer": null, "activity_regularizer": null, "W_constraint": null, "b_constraint": null, "bias": true, "input_dim": 50}, "inbound_nodes": [[["C2_PWH_1", 0, 0]]]}, {"name": "OnOff_PWH_C2", "class_name": "InputLayer", "config": {"batch_input_shape": [null, 1], "input_dtype": "float32", "sparse": false, "name": "OnOff_PWH_C2"}, "inbound_nodes": []}, {"name": "C2_PDC_out", "class_name": "Dense", "config": {"name": "C2_PDC_out", "trainable": false, "output_dim": 1, "init": "glorot_uniform", "activation": "relu", "W_regularizer": {"name": "L1L2Regularizer", "l1": 0.0, "l2": 4.999999873689376e-05}, "b_regularizer": null, "activity_regularizer": null, "W_constraint": null, "b_constraint": null, "bias": true, "input_dim": 50}, "inbound_nodes": [[["C2_PDC_1", 0, 0]]]}, {"name": "OnOff_PDC_C2", "class_name": "InputLayer", "config": {"batch_input_shape": [null, 1], "input_dtype": "float32", "sparse": false, "name": "OnOff_PDC_C2"}, "inbound_nodes": []}, {"name": "C3_PWH_out", "class_name": "Dense", "config": {"name": "C3_PWH_out", "trainable": false, "output_dim": 1, "init": "glorot_uniform", "activation": "relu", "W_regularizer": {"name": "L1L2Regularizer", "l1": 0.0, "l2": 4.999999873689376e-05}, "b_regularizer": null, "activity_regularizer": null, "W_constraint": null, "b_constraint": null, "bias": true, "input_dim": 50}, "inbound_nodes": [[["C3_PWH_1", 0, 0]]]}, {"name": "OnOff_PWH_C3", "class_name": "InputLayer", "config": {"batch_input_shape": [null, 1], "input_dtype": "float32", "sparse": false, "name": "OnOff_PWH_C3"}, "inbound_nodes": []}, {"name": "C3_PDC_out", "class_name": "Dense", "config": {"name": "C3_PDC_out", "trainable": false, "output_dim": 1, "init": "glorot_uniform", "activation": "relu", "W_regularizer": {"name": "L1L2Regularizer", "l1": 0.0, "l2": 4.999999873689376e-05}, "b_regularizer": null, "activity_regularizer": null, "W_constraint": null, "b_constraint": null, "bias": true, "input_dim": 50}, "inbound_nodes": [[["C3_PDC_1", 0, 0]]]}, {"name": "OnOff_PDC_C3", "class_name": "InputLayer", "config": {"batch_input_shape": [null, 1], "input_dtype": "float32", "sparse": false, "name": "OnOff_PDC_C3"}, "inbound_nodes": []}, {"name": "C4_PWH_out", "class_name": "Dense", "config": {"name": "C4_PWH_out", "trainable": false, "output_dim": 1, "init": "glorot_uniform", "activation": "relu", "W_regularizer": {"name": "L1L2Regularizer", "l1": 0.0, "l2": 4.999999873689376e-05}, "b_regularizer": null, "activity_regularizer": null, "W_constraint": null, "b_constraint": null, "bias": true, "input_dim": 50}, "inbound_nodes": [[["C4_PWH_1", 0, 0]]]}, {"name": "OnOff_PWH_C4", "class_name": "InputLayer", "config": {"batch_input_shape": [null, 1], "input_dtype": "float32", "sparse": false, "name": "OnOff_PWH_C4"}, "inbound_nodes": []}, {"name": "C4_PDC_out", "class_name": "Dense", "config": {"name": "C4_PDC_out", "trainable": false, "output_dim": 1, "init": "glorot_uniform", "activation": "relu", "W_regularizer": {"name": "L1L2Regularizer", "l1": 0.0, "l2": 4.999999873689376e-05}, "b_regularizer": null, "activity_regularizer": null, "W_constraint": null, "b_constraint": null, "bias": true, "input_dim": 50}, "inbound_nodes": [[["C4_PDC_1", 0, 0]]]}, {"name": "OnOff_PDC_C4", "class_name": "InputLayer", "config": {"batch_input_shape": [null, 1], "input_dtype": "float32", "sparse": false, "name": "OnOff_PDC_C4"}, "inbound_nodes": []}, {"name": "B1_PWH_out", "class_name": "Dense", "config": {"name": "B1_PWH_out", "trainable": false, "output_dim": 1, "init": "glorot_uniform", "activation": "relu", "W_regularizer": {"name": "L1L2Regularizer", "l1": 0.0, "l2": 4.999999873689376e-05}, "b_regularizer": null, "activity_regularizer": null, "W_constraint": null, "b_constraint": null, "bias": true, "input_dim": 50}, "inbound_nodes": [[["B1_PWH_1", 0, 0]]]}, {"name": "OnOff_PWH_B1", "class_name": "InputLayer", "config": {"batch_input_shape": [null, 1], "input_dtype": "float32", "sparse": false, "name": "OnOff_PWH_B1"}, "inbound_nodes": []}, {"name": "B1_PDC_out", "class_name": "Dense", "config": {"name": "B1_PDC_out", "trainable": false, "output_dim": 1, "init": "glorot_uniform", "activation": "relu", "W_regularizer": {"name": "L1L2Regularizer", "l1": 0.0, "l2": 4.999999873689376e-05}, "b_regularizer": null, "activity_regularizer": null, "W_constraint": null, "b_constraint": null, "bias": true, "input_dim": 50}, "inbound_nodes": [[["B1_PDC_1", 0, 0]]]}, {"name": "OnOff_PDC_B1", "class_name": "InputLayer", "config": {"batch_input_shape": [null, 1], "input_dtype": "float32", "sparse": false, "name": "OnOff_PDC_B1"}, "inbound_nodes": []}, {"name": "B3_PWH_out", "class_name": "Dense", "config": {"name": "B3_PWH_out", "trainable": false, "output_dim": 1, "init": "glorot_uniform", "activation": "relu", "W_regularizer": {"name": "L1L2Regularizer", "l1": 0.0, "l2": 4.999999873689376e-05}, "b_regularizer": null, "activity_regularizer": null, "W_constraint": null, "b_constraint": null, "bias": true, "input_dim": 50}, "inbound_nodes": [[["B3_PWH_1", 0, 0]]]}, {"name": "OnOff_PWH_B3", "class_name": "InputLayer", "config": {"batch_input_shape": [null, 1], "input_dtype": "float32", "sparse": false, "name": "OnOff_PWH_B3"}, "inbound_nodes": []}, {"name": "B3_PDC_out", "class_name": "Dense", "config": {"name": "B3_PDC_out", "trainable": false, "output_dim": 1, "init": "glorot_uniform", "activation": "relu", "W_regularizer": {"name": "L1L2Regularizer", "l1": 0.0, "l2": 4.999999873689376e-05}, "b_regularizer": null, "activity_regularizer": null, "W_constraint": null, "b_constraint": null, "bias": true, "input_dim": 50}, "inbound_nodes": [[["B3_PDC_1", 0, 0]]]}, {"name": "OnOff_PDC_B3", "class_name": "InputLayer", "config": {"batch_input_shape": [null, 1], "input_dtype": "float32", "sparse": false, "name": "OnOff_PDC_B3"}, "inbound_nodes": []}, {"name": "D1_PWH_out", "class_name": "Dense", "config": {"name": "D1_PWH_out", "trainable": false, "output_dim": 1, "init": "glorot_uniform", "activation": "relu", "W_regularizer": {"name": "L1L2Regularizer", "l1": 0.0, "l2": 4.999999873689376e-05}, "b_regularizer": null, "activity_regularizer": null, "W_constraint": null, "b_constraint": null, "bias": true, "input_dim": 50}, "inbound_nodes": [[["D1_PWH_1", 0, 0]]]}, {"name": "OnOff_PWH_D1", "class_name": "InputLayer", "config": {"batch_input_shape": [null, 1], "input_dtype": "float32", "sparse": false, "name": "OnOff_PWH_D1"}, "inbound_nodes": []}, {"name": "D1_PDC_out", "class_name": "Dense", "config": {"name": "D1_PDC_out", "trainable": false, "output_dim": 1, "init": "glorot_uniform", "activation": "relu", "W_regularizer": {"name": "L1L2Regularizer", "l1": 0.0, "l2": 4.999999873689376e-05}, "b_regularizer": null, "activity_regularizer": null, "W_constraint": null, "b_constraint": null, "bias": true, "input_dim": 50}, "inbound_nodes": [[["D1_PDC_1", 0, 0]]]}, {"name": "OnOff_PDC_D1", "class_name": "InputLayer", "config": {"batch_input_shape": [null, 1], "input_dtype": "float32", "sparse": false, "name": "OnOff_PDC_D1"}, "inbound_nodes": []}, {"name": "C1_PWH_pred", "class_name": "Merge", "config": {"name": "C1_PWH_pred", "mode": "mul", "mode_type": "raw", "concat_axis": -1, "dot_axes": -1, "output_shape": null, "output_shape_type": "raw", "output_mask": null, "output_mask_type": "raw", "arguments": {}}, "inbound_nodes": [[["C1_PWH_out", 0, 0], ["OnOff_PWH_C1", 0, 0]]]}, {"name": "C1_PDC_pred", "class_name": "Merge", "config": {"name": "C1_PDC_pred", "mode": "mul", "mode_type": "raw", "concat_axis": -1, "dot_axes": -1, "output_shape": null, "output_shape_type": "raw", "output_mask": null, "output_mask_type": "raw", "arguments": {}}, "inbound_nodes": [[["C1_PDC_out", 0, 0], ["OnOff_PDC_C1", 0, 0]]]}, {"name": "C2_PWH_pred", "class_name": "Merge", "config": {"name": "C2_PWH_pred", "mode": "mul", "mode_type": "raw", "concat_axis": -1, "dot_axes": -1, "output_shape": null, "output_shape_type": "raw", "output_mask": null, "output_mask_type": "raw", "arguments": {}}, "inbound_nodes": [[["C2_PWH_out", 0, 0], ["OnOff_PWH_C2", 0, 0]]]}, {"name": "C2_PDC_pred", "class_name": "Merge", "config": {"name": "C2_PDC_pred", "mode": "mul", "mode_type": "raw", "concat_axis": -1, "dot_axes": -1, "output_shape": null, "output_shape_type": "raw", "output_mask": null, "output_mask_type": "raw", "arguments": {}}, "inbound_nodes": [[["C2_PDC_out", 0, 0], ["OnOff_PDC_C2", 0, 0]]]}, {"name": "C3_PWH_pred", "class_name": "Merge", "config": {"name": "C3_PWH_pred", "mode": "mul", "mode_type": "raw", "concat_axis": -1, "dot_axes": -1, "output_shape": null, "output_shape_type": "raw", "output_mask": null, "output_mask_type": "raw", "arguments": {}}, "inbound_nodes": [[["C3_PWH_out", 0, 0], ["OnOff_PWH_C3", 0, 0]]]}, {"name": "C3_PDC_pred", "class_name": "Merge", "config": {"name": "C3_PDC_pred", "mode": "mul", "mode_type": "raw", "concat_axis": -1, "dot_axes": -1, "output_shape": null, "output_shape_type": "raw", "output_mask": null, "output_mask_type": "raw", "arguments": {}}, "inbound_nodes": [[["C3_PDC_out", 0, 0], ["OnOff_PDC_C3", 0, 0]]]}, {"name": "C4_PWH_pred", "class_name": "Merge", "config": {"name": "C4_PWH_pred", "mode": "mul", "mode_type": "raw", "concat_axis": -1, "dot_axes": -1, "output_shape": null, "output_shape_type": "raw", "output_mask": null, "output_mask_type": "raw", "arguments": {}}, "inbound_nodes": [[["C4_PWH_out", 0, 0], ["OnOff_PWH_C4", 0, 0]]]}, {"name": "C4_PDC_pred", "class_name": "Merge", "config": {"name": "C4_PDC_pred", "mode": "mul", "mode_type": "raw", "concat_axis": -1, "dot_axes": -1, "output_shape": null, "output_shape_type": "raw", "output_mask": null, "output_mask_type": "raw", "arguments": {}}, "inbound_nodes": [[["C4_PDC_out", 0, 0], ["OnOff_PDC_C4", 0, 0]]]}, {"name": "B1_PWH_pred", "class_name": "Merge", "config": {"name": "B1_PWH_pred", "mode": "mul", "mode_type": "raw", "concat_axis": -1, "dot_axes": -1, "output_shape": null, "output_shape_type": "raw", "output_mask": null, "output_mask_type": "raw", "arguments": {}}, "inbound_nodes": [[["B1_PWH_out", 0, 0], ["OnOff_PWH_B1", 0, 0]]]}, {"name": "B1_PDC_pred", "class_name": "Merge", "config": {"name": "B1_PDC_pred", "mode": "mul", "mode_type": "raw", "concat_axis": -1, "dot_axes": -1, "output_shape": null, "output_shape_type": "raw", "output_mask": null, "output_mask_type": "raw", "arguments": {}}, "inbound_nodes": [[["B1_PDC_out", 0, 0], ["OnOff_PDC_B1", 0, 0]]]}, {"name": "B3_PWH_pred", "class_name": "Merge", "config": {"name": "B3_PWH_pred", "mode": "mul", "mode_type": "raw", "concat_axis": -1, "dot_axes": -1, "output_shape": null, "output_shape_type": "raw", "output_mask": null, "output_mask_type": "raw", "arguments": {}}, "inbound_nodes": [[["B3_PWH_out", 0, 0], ["OnOff_PWH_B3", 0, 0]]]}, {"name": "B3_PDC_pred", "class_name": "Merge", "config": {"name": "B3_PDC_pred", "mode": "mul", "mode_type": "raw", "concat_axis": -1, "dot_axes": -1, "output_shape": null, "output_shape_type": "raw", "output_mask": null, "output_mask_type": "raw", "arguments": {}}, "inbound_nodes": [[["B3_PDC_out", 0, 0], ["OnOff_PDC_B3", 0, 0]]]}, {"name": "D1_PWH_pred", "class_name": "Merge", "config": {"name": "D1_PWH_pred", "mode": "mul", "mode_type": "raw", "concat_axis": -1, "dot_axes": -1, "output_shape": null, "output_shape_type": "raw", "output_mask": null, "output_mask_type": "raw", "arguments": {}}, "inbound_nodes": [[["D1_PWH_out", 0, 0], ["OnOff_PWH_D1", 0, 0]]]}, {"name": "D1_PDC_pred", "class_name": "Merge", "config": {"name": "D1_PDC_pred", "mode": "mul", "mode_type": "raw", "concat_axis": -1, "dot_axes": -1, "output_shape": null, "output_shape_type": "raw", "output_mask": null, "output_mask_type": "raw", "arguments": {}}, "inbound_nodes": [[["D1_PDC_out", 0, 0], ["OnOff_PDC_D1", 0, 0]]]}, {"name": "C1_PBH_IN", "class_name": "InputLayer", "config": {"batch_input_shape": [null, 1], "input_dtype": "float32", "sparse": false, "name": "C1_PBH_IN"}, "inbound_nodes": []}, {"name": "C3_PBH_IN", "class_name": "InputLayer", "config": {"batch_input_shape": [null, 1], "input_dtype": "float32", "sparse": false, "name": "C3_PBH_IN"}, "inbound_nodes": []}, {"name": "C4_PBH_IN", "class_name": "InputLayer", "config": {"batch_input_shape": [null, 1], "input_dtype": "float32", "sparse": false, "name": "C4_PBH_IN"}, "inbound_nodes": []}, {"name": "B1_PBH_IN", "class_name": "InputLayer", "config": {"batch_input_shape": [null, 1], "input_dtype": "float32", "sparse": false, "name": "B1_PBH_IN"}, "inbound_nodes": []}, {"name": "B3_PBH_IN", "class_name": "InputLayer", "config": {"batch_input_shape": [null, 1], "input_dtype": "float32", "sparse": false, "name": "B3_PBH_IN"}, "inbound_nodes": []}, {"name": "merge_15", "class_name": "Merge", "config": {"name": "merge_15", "mode": "concat", "mode_type": "raw", "concat_axis": -1, "dot_axes": -1, "output_shape": null, "output_shape_type": "raw", "output_mask": null, "output_mask_type": "raw", "arguments": {}}, "inbound_nodes": [[["C1_PWH_pred", 0, 0], ["C1_PDC_pred", 0, 0], ["C1_PBH_IN", 0, 0]]]}, {"name": "C1", "class_name": "InputLayer", "config": {"batch_input_shape": [null, 1], "input_dtype": "float32", "sparse": false, "name": "C1"}, "inbound_nodes": []}, {"name": "merge_16", "class_name": "Merge", "config": {"name": "merge_16", "mode": "concat", "mode_type": "raw", "concat_axis": -1, "dot_axes": -1, "output_shape": null, "output_shape_type": "raw", "output_mask": null, "output_mask_type": "raw", "arguments": {}}, "inbound_nodes": [[["C2_PWH_pred", 0, 0], ["C2_PDC_pred", 0, 0]]]}, {"name": "C2", "class_name": "InputLayer", "config": {"batch_input_shape": [null, 1], "input_dtype": "float32", "sparse": false, "name": "C2"}, "inbound_nodes": []}, {"name": "merge_17", "class_name": "Merge", "config": {"name": "merge_17", "mode": "concat", "mode_type": "raw", "concat_axis": -1, "dot_axes": -1, "output_shape": null, "output_shape_type": "raw", "output_mask": null, "output_mask_type": "raw", "arguments": {}}, "inbound_nodes": [[["C3_PWH_pred", 0, 0], ["C3_PDC_pred", 0, 0], ["C3_PBH_IN", 0, 0]]]}, {"name": "C3", "class_name": "InputLayer", "config": {"batch_input_shape": [null, 1], "input_dtype": "float32", "sparse": false, "name": "C3"}, "inbound_nodes": []}, {"name": "merge_18", "class_name": "Merge", "config": {"name": "merge_18", "mode": "concat", "mode_type": "raw", "concat_axis": -1, "dot_axes": -1, "output_shape": null, "output_shape_type": "raw", "output_mask": null, "output_mask_type": "raw", "arguments": {}}, "inbound_nodes": [[["C4_PWH_pred", 0, 0], ["C4_PDC_pred", 0, 0], ["C4_PBH_IN", 0, 0]]]}, {"name": "C4", "class_name": "InputLayer", "config": {"batch_input_shape": [null, 1], "input_dtype": "float32", "sparse": false, "name": "C4"}, "inbound_nodes": []}, {"name": "merge_19", "class_name": "Merge", "config": {"name": "merge_19", "mode": "concat", "mode_type": "raw", "concat_axis": -1, "dot_axes": -1, "output_shape": null, "output_shape_type": "raw", "output_mask": null, "output_mask_type": "raw", "arguments": {}}, "inbound_nodes": [[["B1_PWH_pred", 0, 0], ["B1_PDC_pred", 0, 0], ["B1_PBH_IN", 0, 0]]]}, {"name": "B1", "class_name": "InputLayer", "config": {"batch_input_shape": [null, 1], "input_dtype": "float32", "sparse": false, "name": "B1"}, "inbound_nodes": []}, {"name": "merge_20", "class_name": "Merge", "config": {"name": "merge_20", "mode": "concat", "mode_type": "raw", "concat_axis": -1, "dot_axes": -1, "output_shape": null, "output_shape_type": "raw", "output_mask": null, "output_mask_type": "raw", "arguments": {}}, "inbound_nodes": [[["B3_PWH_pred", 0, 0], ["B3_PDC_pred", 0, 0], ["B3_PBH_IN", 0, 0]]]}, {"name": "B3", "class_name": "InputLayer", "config": {"batch_input_shape": [null, 1], "input_dtype": "float32", "sparse": false, "name": "B3"}, "inbound_nodes": []}, {"name": "merge_21", "class_name": "Merge", "config": {"name": "merge_21", "mode": "concat", "mode_type": "raw", "concat_axis": -1, "dot_axes": -1, "output_shape": null, "output_shape_type": "raw", "output_mask": null, "output_mask_type": "raw", "arguments": {}}, "inbound_nodes": [[["D1_PWH_pred", 0, 0], ["D1_PDC_pred", 0, 0]]]}, {"name": "D1", "class_name": "InputLayer", "config": {"batch_input_shape": [null, 1], "input_dtype": "float32", "sparse": false, "name": "D1"}, "inbound_nodes": []}, {"name": "merge_22", "class_name": "Merge", "config": {"name": "merge_22", "mode": "concat", "mode_type": "raw", "concat_axis": -1, "dot_axes": -1, "output_shape": null, "output_shape_type": "raw", "output_mask": null, "output_mask_type": "raw", "arguments": {}}, "inbound_nodes": [[["merge_15", 0, 0], ["C1", 0, 0]]]}, {"name": "merge_23", "class_name": "Merge", "config": {"name": "merge_23", "mode": "concat", "mode_type": "raw", "concat_axis": -1, "dot_axes": -1, "output_shape": null, "output_shape_type": "raw", "output_mask": null, "output_mask_type": "raw", "arguments": {}}, "inbound_nodes": [[["merge_16", 0, 0], ["C2", 0, 0]]]}, {"name": "merge_24", "class_name": "Merge", "config": {"name": "merge_24", "mode": "concat", "mode_type": "raw", "concat_axis": -1, "dot_axes": -1, "output_shape": null, "output_shape_type": "raw", "output_mask": null, "output_mask_type": "raw", "arguments": {}}, "inbound_nodes": [[["merge_17", 0, 0], ["C3", 0, 0]]]}, {"name": "merge_25", "class_name": "Merge", "config": {"name": "merge_25", "mode": "concat", "mode_type": "raw", "concat_axis": -1, "dot_axes": -1, "output_shape": null, "output_shape_type": "raw", "output_mask": null, "output_mask_type": "raw", "arguments": {}}, "inbound_nodes": [[["merge_18", 0, 0], ["C4", 0, 0]]]}, {"name": "merge_26", "class_name": "Merge", "config": {"name": "merge_26", "mode": "concat", "mode_type": "raw", "concat_axis": -1, "dot_axes": -1, "output_shape": null, "output_shape_type": "raw", "output_mask": null, "output_mask_type": "raw", "arguments": {}}, "inbound_nodes": [[["merge_19", 0, 0], ["B1", 0, 0]]]}, {"name": "merge_27", "class_name": "Merge", "config": {"name": "merge_27", "mode": "concat", "mode_type": "raw", "concat_axis": -1, "dot_axes": -1, "output_shape": null, "output_shape_type": "raw", "output_mask": null, "output_mask_type": "raw", "arguments": {}}, "inbound_nodes": [[["merge_20", 0, 0], ["B3", 0, 0]]]}, {"name": "merge_28", "class_name": "Merge", "config": {"name": "merge_28", "mode": "concat", "mode_type": "raw", "concat_axis": -1, "dot_axes": -1, "output_shape": null, "output_shape_type": "raw", "output_mask": null, "output_mask_type": "raw", "arguments": {}}, "inbound_nodes": [[["merge_21", 0, 0], ["D1", 0, 0]]]}, {"name": "dense_22", "class_name": "Dense", "config": {"name": "dense_22", "trainable": true, "output_dim": 20, "init": "glorot_uniform", "activation": "relu", "W_regularizer": {"name": "L1L2Regularizer", "l1": 0.0, "l2": 4.999999873689376e-05}, "b_regularizer": null, "activity_regularizer": null, "W_constraint": null, "b_constraint": null, "bias": true, "input_dim": 4}, "inbound_nodes": [[["merge_22", 0, 0]]]}, {"name": "dense_25", "class_name": "Dense", "config": {"name": "dense_25", "trainable": true, "output_dim": 20, "init": "glorot_uniform", "activation": "relu", "W_regularizer": {"name": "L1L2Regularizer", "l1": 0.0, "l2": 4.999999873689376e-05}, "b_regularizer": null, "activity_regularizer": null, "W_constraint": null, "b_constraint": null, "bias": true, "input_dim": 3}, "inbound_nodes": [[["merge_23", 0, 0]]]}, {"name": "dense_28", "class_name": "Dense", "config": {"name": "dense_28", "trainable": true, "output_dim": 20, "init": "glorot_uniform", "activation": "relu", "W_regularizer": {"name": "L1L2Regularizer", "l1": 0.0, "l2": 4.999999873689376e-05}, "b_regularizer": null, "activity_regularizer": null, "W_constraint": null, "b_constraint": null, "bias": true, "input_dim": 4}, "inbound_nodes": [[["merge_24", 0, 0]]]}, {"name": "dense_31", "class_name": "Dense", "config": {"name": "dense_31", "trainable": true, "output_dim": 20, "init": "glorot_uniform", "activation": "relu", "W_regularizer": {"name": "L1L2Regularizer", "l1": 0.0, "l2": 4.999999873689376e-05}, "b_regularizer": null, "activity_regularizer": null, "W_constraint": null, "b_constraint": null, "bias": true, "input_dim": 4}, "inbound_nodes": [[["merge_25", 0, 0]]]}, {"name": "dense_34", "class_name": "Dense", "config": {"name": "dense_34", "trainable": true, "output_dim": 20, "init": "glorot_uniform", "activation": "relu", "W_regularizer": {"name": "L1L2Regularizer", "l1": 0.0, "l2": 4.999999873689376e-05}, "b_regularizer": null, "activity_regularizer": null, "W_constraint": null, "b_constraint": null, "bias": true, "input_dim": 4}, "inbound_nodes": [[["merge_26", 0, 0]]]}, {"name": "dense_37", "class_name": "Dense", "config": {"name": "dense_37", "trainable": true, "output_dim": 20, "init": "glorot_uniform", "activation": "relu", "W_regularizer": {"name": "L1L2Regularizer", "l1": 0.0, "l2": 4.999999873689376e-05}, "b_regularizer": null, "activity_regularizer": null, "W_constraint": null, "b_constraint": null, "bias": true, "input_dim": 4}, "inbound_nodes": [[["merge_27", 0, 0]]]}, {"name": "dense_40", "class_name": "Dense", "config": {"name": "dense_40", "trainable": true, "output_dim": 20, "init": "glorot_uniform", "activation": "relu", "W_regularizer": {"name": "L1L2Regularizer", "l1": 0.0, "l2": 4.999999873689376e-05}, "b_regularizer": null, "activity_regularizer": null, "W_constraint": null, "b_constraint": null, "bias": true, "input_dim": 3}, "inbound_nodes": [[["merge_28", 0, 0]]]}, {"name": "dense_23", "class_name": "Dense", "config": {"name": "dense_23", "trainable": true, "output_dim": 20, "init": "glorot_uniform", "activation": "relu", "W_regularizer": {"name": "L1L2Regularizer", "l1": 0.0, "l2": 4.999999873689376e-05}, "b_regularizer": null, "activity_regularizer": null, "W_constraint": null, "b_constraint": null, "bias": true, "input_dim": 20}, "inbound_nodes": [[["dense_22", 0, 0]]]}, {"name": "dense_26", "class_name": "Dense", "config": {"name": "dense_26", "trainable": true, "output_dim": 20, "init": "glorot_uniform", "activation": "relu", "W_regularizer": {"name": "L1L2Regularizer", "l1": 0.0, "l2": 4.999999873689376e-05}, "b_regularizer": null, "activity_regularizer": null, "W_constraint": null, "b_constraint": null, "bias": true, "input_dim": 20}, "inbound_nodes": [[["dense_25", 0, 0]]]}, {"name": "dense_29", "class_name": "Dense", "config": {"name": "dense_29", "trainable": true, "output_dim": 20, "init": "glorot_uniform", "activation": "relu", "W_regularizer": {"name": "L1L2Regularizer", "l1": 0.0, "l2": 4.999999873689376e-05}, "b_regularizer": null, "activity_regularizer": null, "W_constraint": null, "b_constraint": null, "bias": true, "input_dim": 20}, "inbound_nodes": [[["dense_28", 0, 0]]]}, {"name": "dense_32", "class_name": "Dense", "config": {"name": "dense_32", "trainable": true, "output_dim": 20, "init": "glorot_uniform", "activation": "relu", "W_regularizer": {"name": "L1L2Regularizer", "l1": 0.0, "l2": 4.999999873689376e-05}, "b_regularizer": null, "activity_regularizer": null, "W_constraint": null, "b_constraint": null, "bias": true, "input_dim": 20}, "inbound_nodes": [[["dense_31", 0, 0]]]}, {"name": "dense_35", "class_name": "Dense", "config": {"name": "dense_35", "trainable": true, "output_dim": 20, "init": "glorot_uniform", "activation": "relu", "W_regularizer": {"name": "L1L2Regularizer", "l1": 0.0, "l2": 4.999999873689376e-05}, "b_regularizer": null, "activity_regularizer": null, "W_constraint": null, "b_constraint": null, "bias": true, "input_dim": 20}, "inbound_nodes": [[["dense_34", 0, 0]]]}, {"name": "dense_38", "class_name": "Dense", "config": {"name": "dense_38", "trainable": true, "output_dim": 20, "init": "glorot_uniform", "activation": "relu", "W_regularizer": {"name": "L1L2Regularizer", "l1": 0.0, "l2": 4.999999873689376e-05}, "b_regularizer": null, "activity_regularizer": null, "W_constraint": null, "b_constraint": null, "bias": true, "input_dim": 20}, "inbound_nodes": [[["dense_37", 0, 0]]]}, {"name": "dense_41", "class_name": "Dense", "config": {"name": "dense_41", "trainable": true, "output_dim": 20, "init": "glorot_uniform", "activation": "relu", "W_regularizer": {"name": "L1L2Regularizer", "l1": 0.0, "l2": 4.999999873689376e-05}, "b_regularizer": null, "activity_regularizer": null, "W_constraint": null, "b_constraint": null, "bias": true, "input_dim": 20}, "inbound_nodes": [[["dense_40", 0, 0]]]}, {"name": "OnOff_C1", "class_name": "InputLayer", "config": {"batch_input_shape": [null, 1], "input_dtype": "float32", "sparse": false, "name": "OnOff_C1"}, "inbound_nodes": []}, {"name": "dense_24", "class_name": "Dense", "config": {"name": "dense_24", "trainable": true, "output_dim": 1, "init": "glorot_uniform", "activation": "relu", "W_regularizer": {"name": "L1L2Regularizer", "l1": 0.0, "l2": 4.999999873689376e-05}, "b_regularizer": null, "activity_regularizer": null, "W_constraint": null, "b_constraint": null, "bias": true, "input_dim": 20}, "inbound_nodes": [[["dense_23", 0, 0]]]}, {"name": "OnOff_C2", "class_name": "InputLayer", "config": {"batch_input_shape": [null, 1], "input_dtype": "float32", "sparse": false, "name": "OnOff_C2"}, "inbound_nodes": []}, {"name": "dense_27", "class_name": "Dense", "config": {"name": "dense_27", "trainable": true, "output_dim": 1, "init": "glorot_uniform", "activation": "relu", "W_regularizer": {"name": "L1L2Regularizer", "l1": 0.0, "l2": 4.999999873689376e-05}, "b_regularizer": null, "activity_regularizer": null, "W_constraint": null, "b_constraint": null, "bias": true, "input_dim": 20}, "inbound_nodes": [[["dense_26", 0, 0]]]}, {"name": "OnOff_C3", "class_name": "InputLayer", "config": {"batch_input_shape": [null, 1], "input_dtype": "float32", "sparse": false, "name": "OnOff_C3"}, "inbound_nodes": []}, {"name": "dense_30", "class_name": "Dense", "config": {"name": "dense_30", "trainable": true, "output_dim": 1, "init": "glorot_uniform", "activation": "relu", "W_regularizer": {"name": "L1L2Regularizer", "l1": 0.0, "l2": 4.999999873689376e-05}, "b_regularizer": null, "activity_regularizer": null, "W_constraint": null, "b_constraint": null, "bias": true, "input_dim": 20}, "inbound_nodes": [[["dense_29", 0, 0]]]}, {"name": "OnOff_C4", "class_name": "InputLayer", "config": {"batch_input_shape": [null, 1], "input_dtype": "float32", "sparse": false, "name": "OnOff_C4"}, "inbound_nodes": []}, {"name": "dense_33", "class_name": "Dense", "config": {"name": "dense_33", "trainable": true, "output_dim": 1, "init": "glorot_uniform", "activation": "relu", "W_regularizer": {"name": "L1L2Regularizer", "l1": 0.0, "l2": 4.999999873689376e-05}, "b_regularizer": null, "activity_regularizer": null, "W_constraint": null, "b_constraint": null, "bias": true, "input_dim": 20}, "inbound_nodes": [[["dense_32", 0, 0]]]}, {"name": "OnOff_B1", "class_name": "InputLayer", "config": {"batch_input_shape": [null, 1], "input_dtype": "float32", "sparse": false, "name": "OnOff_B1"}, "inbound_nodes": []}, {"name": "dense_36", "class_name": "Dense", "config": {"name": "dense_36", "trainable": true, "output_dim": 1, "init": "glorot_uniform", "activation": "relu", "W_regularizer": {"name": "L1L2Regularizer", "l1": 0.0, "l2": 4.999999873689376e-05}, "b_regularizer": null, "activity_regularizer": null, "W_constraint": null, "b_constraint": null, "bias": true, "input_dim": 20}, "inbound_nodes": [[["dense_35", 0, 0]]]}, {"name": "OnOff_B3", "class_name": "InputLayer", "config": {"batch_input_shape": [null, 1], "input_dtype": "float32", "sparse": false, "name": "OnOff_B3"}, "inbound_nodes": []}, {"name": "dense_39", "class_name": "Dense", "config": {"name": "dense_39", "trainable": true, "output_dim": 1, "init": "glorot_uniform", "activation": "relu", "W_regularizer": {"name": "L1L2Regularizer", "l1": 0.0, "l2": 4.999999873689376e-05}, "b_regularizer": null, "activity_regularizer": null, "W_constraint": null, "b_constraint": null, "bias": true, "input_dim": 20}, "inbound_nodes": [[["dense_38", 0, 0]]]}, {"name": "OnOff_D1", "class_name": "InputLayer", "config": {"batch_input_shape": [null, 1], "input_dtype": "float32", "sparse": false, "name": "OnOff_D1"}, "inbound_nodes": []}, {"name": "dense_42", "class_name": "Dense", "config": {"name": "dense_42", "trainable": true, "output_dim": 1, "init": "glorot_uniform", "activation": "relu", "W_regularizer": {"name": "L1L2Regularizer", "l1": 0.0, "l2": 4.999999873689376e-05}, "b_regularizer": null, "activity_regularizer": null, "W_constraint": null, "b_constraint": null, "bias": true, "input_dim": 20}, "inbound_nodes": [[["dense_41", 0, 0]]]}, {"name": "C1_OUT", "class_name": "Merge", "config": {"name": "C1_OUT", "mode": "mul", "mode_type": "raw", "concat_axis": -1, "dot_axes": -1, "output_shape": null, "output_shape_type": "raw", "output_mask": null, "output_mask_type": "raw", "arguments": {}}, "inbound_nodes": [[["OnOff_C1", 0, 0], ["dense_24", 0, 0]]]}, {"name": "C2_OUT", "class_name": "Merge", "config": {"name": "C2_OUT", "mode": "mul", "mode_type": "raw", "concat_axis": -1, "dot_axes": -1, "output_shape": null, "output_shape_type": "raw", "output_mask": null, "output_mask_type": "raw", "arguments": {}}, "inbound_nodes": [[["OnOff_C2", 0, 0], ["dense_27", 0, 0]]]}, {"name": "C3_OUT", "class_name": "Merge", "config": {"name": "C3_OUT", "mode": "mul", "mode_type": "raw", "concat_axis": -1, "dot_axes": -1, "output_shape": null, "output_shape_type": "raw", "output_mask": null, "output_mask_type": "raw", "arguments": {}}, "inbound_nodes": [[["OnOff_C3", 0, 0], ["dense_30", 0, 0]]]}, {"name": "C4_OUT", "class_name": "Merge", "config": {"name": "C4_OUT", "mode": "mul", "mode_type": "raw", "concat_axis": -1, "dot_axes": -1, "output_shape": null, "output_shape_type": "raw", "output_mask": null, "output_mask_type": "raw", "arguments": {}}, "inbound_nodes": [[["OnOff_C4", 0, 0], ["dense_33", 0, 0]]]}, {"name": "B1_OUT", "class_name": "Merge", "config": {"name": "B1_OUT", "mode": "mul", "mode_type": "raw", "concat_axis": -1, "dot_axes": -1, "output_shape": null, "output_shape_type": "raw", "output_mask": null, "output_mask_type": "raw", "arguments": {}}, "inbound_nodes": [[["OnOff_B1", 0, 0], ["dense_36", 0, 0]]]}, {"name": "B3_OUT", "class_name": "Merge", "config": {"name": "B3_OUT", "mode": "mul", "mode_type": "raw", "concat_axis": -1, "dot_axes": -1, "output_shape": null, "output_shape_type": "raw", "output_mask": null, "output_mask_type": "raw", "arguments": {}}, "inbound_nodes": [[["OnOff_B3", 0, 0], ["dense_39", 0, 0]]]}, {"name": "D1_OUT", "class_name": "Merge", "config": {"name": "D1_OUT", "mode": "mul", "mode_type": "raw", "concat_axis": -1, "dot_axes": -1, "output_shape": null, "output_shape_type": "raw", "output_mask": null, "output_mask_type": "raw", "arguments": {}}, "inbound_nodes": [[["OnOff_D1", 0, 0], ["dense_42", 0, 0]]]}, {"name": "GJOA_TOTAL", "class_name": "Merge", "config": {"name": "GJOA_TOTAL", "mode": "sum", "mode_type": "raw", "concat_axis": -1, "dot_axes": -1, "output_shape": null, "output_shape_type": "raw", "output_mask": null, "output_mask_type": "raw", "arguments": {}}, "inbound_nodes": [[["C1_OUT", 0, 0], ["C2_OUT", 0, 0], ["C3_OUT", 0, 0], ["C4_OUT", 0, 0], ["B1_OUT", 0, 0], ["B3_OUT", 0, 0], ["D1_OUT", 0, 0]]]}], "input_layers": [["PRESSURE_INPUT", 0, 0], ["RISER_B_CHK_INPUT", 0, 0], ["C1_PBH_IN", 0, 0], ["OnOff_PDC_C1", 0, 0], ["OnOff_PWH_C1", 0, 0], ["OnOff_PDC_C2", 0, 0], ["OnOff_PWH_C2", 0, 0], ["C3_PBH_IN", 0, 0], ["OnOff_PDC_C3", 0, 0], ["OnOff_PWH_C3", 0, 0], ["C4_PBH_IN", 0, 0], ["OnOff_PDC_C4", 0, 0], ["OnOff_PWH_C4", 0, 0], ["B1_PBH_IN", 0, 0], ["OnOff_PDC_B1", 0, 0], ["OnOff_PWH_B1", 0, 0], ["B3_PBH_IN", 0, 0], ["OnOff_PDC_B3", 0, 0], ["OnOff_PWH_B3", 0, 0], ["OnOff_PDC_D1", 0, 0], ["OnOff_PWH_D1", 0, 0], ["C1", 0, 0], ["OnOff_C1", 0, 0], ["C2", 0, 0], ["OnOff_C2", 0, 0], ["C3", 0, 0], ["OnOff_C3", 0, 0], ["C4", 0, 0], ["OnOff_C4", 0, 0], ["B1", 0, 0], ["OnOff_B1", 0, 0], ["B3", 0, 0], ["OnOff_B3", 0, 0], ["D1", 0, 0], ["OnOff_D1", 0, 0]], "output_layers": [["C1_PWH_pred", 0, 0], ["C1_PDC_pred", 0, 0], ["C2_PWH_pred", 0, 0], ["C2_PDC_pred", 0, 0], ["C3_PWH_pred", 0, 0], ["C3_PDC_pred", 0, 0], ["C4_PWH_pred", 0, 0], ["C4_PDC_pred", 0, 0], ["B1_PWH_pred", 0, 0], ["B1_PDC_pred", 0, 0], ["B3_PWH_pred", 0, 0], ["B3_PDC_pred", 0, 0], ["D1_PWH_pred", 0, 0], ["D1_PDC_pred", 0, 0], ["C1_OUT", 0, 0], ["C2_OUT", 0, 0], ["C3_OUT", 0, 0], ["C4_OUT", 0, 0], ["B1_OUT", 0, 0], ["B3_OUT", 0, 0], ["D1_OUT", 0, 0], ["GJOA_TOTAL", 0, 0]]}, "keras_version": "1.2.1"}