{"backend": "theano", "config": {"name": "model_1", "input_layers": [["F1", 0, 0], ["B2", 0, 0], ["D3", 0, 0], ["E1", 0, 0], ["OnOff_F1", 0, 0], ["OnOff_B2", 0, 0], ["OnOff_D3", 0, 0], ["OnOff_E1", 0, 0]], "layers": [{"name": "F1", "inbound_nodes": [], "class_name": "InputLayer", "config": {"dtype": "float32", "name": "F1", "batch_input_shape": [null, 4], "sparse": false}}, {"name": "B2", "inbound_nodes": [], "class_name": "InputLayer", "config": {"dtype": "float32", "name": "B2", "batch_input_shape": [null, 4], "sparse": false}}, {"name": "D3", "inbound_nodes": [], "class_name": "InputLayer", "config": {"dtype": "float32", "name": "D3", "batch_input_shape": [null, 4], "sparse": false}}, {"name": "E1", "inbound_nodes": [], "class_name": "InputLayer", "config": {"dtype": "float32", "name": "E1", "batch_input_shape": [null, 4], "sparse": false}}, {"name": "F1_0", "inbound_nodes": [[["F1", 0, 0, {}]]], "class_name": "Dense", "config": {"name": "F1_0", "kernel_constraint": null, "kernel_regularizer": {"config": {"l2": 9.999999747378752e-05, "l1": 0.0}, "class_name": "L1L2"}, "bias_initializer": {"config": {}, "class_name": "Zeros"}, "units": 60, "activation": "relu", "kernel_initializer": {"config": {"mode": "fan_avg", "scale": 1.0, "distribution": "normal", "seed": 3014}, "class_name": "VarianceScaling"}, "use_bias": true, "bias_constraint": null, "trainable": true, "activity_regularizer": null, "bias_regularizer": null}}, {"name": "B2_0", "inbound_nodes": [[["B2", 0, 0, {}]]], "class_name": "Dense", "config": {"name": "B2_0", "kernel_constraint": null, "kernel_regularizer": {"config": {"l2": 9.999999747378752e-05, "l1": 0.0}, "class_name": "L1L2"}, "bias_initializer": {"config": {}, "class_name": "Zeros"}, "units": 60, "activation": "relu", "kernel_initializer": {"config": {"mode": "fan_avg", "scale": 1.0, "distribution": "normal", "seed": 3014}, "class_name": "VarianceScaling"}, "use_bias": true, "bias_constraint": null, "trainable": true, "activity_regularizer": null, "bias_regularizer": null}}, {"name": "D3_0", "inbound_nodes": [[["D3", 0, 0, {}]]], "class_name": "Dense", "config": {"name": "D3_0", "kernel_constraint": null, "kernel_regularizer": {"config": {"l2": 9.999999747378752e-05, "l1": 0.0}, "class_name": "L1L2"}, "bias_initializer": {"config": {}, "class_name": "Zeros"}, "units": 60, "activation": "relu", "kernel_initializer": {"config": {"mode": "fan_avg", "scale": 1.0, "distribution": "normal", "seed": 3014}, "class_name": "VarianceScaling"}, "use_bias": true, "bias_constraint": null, "trainable": true, "activity_regularizer": null, "bias_regularizer": null}}, {"name": "E1_0", "inbound_nodes": [[["E1", 0, 0, {}]]], "class_name": "Dense", "config": {"name": "E1_0", "kernel_constraint": null, "kernel_regularizer": {"config": {"l2": 9.999999747378752e-05, "l1": 0.0}, "class_name": "L1L2"}, "bias_initializer": {"config": {}, "class_name": "Zeros"}, "units": 60, "activation": "relu", "kernel_initializer": {"config": {"mode": "fan_avg", "scale": 1.0, "distribution": "normal", "seed": 3014}, "class_name": "VarianceScaling"}, "use_bias": true, "bias_constraint": null, "trainable": true, "activity_regularizer": null, "bias_regularizer": null}}, {"name": "F1_1", "inbound_nodes": [[["F1_0", 0, 0, {}]]], "class_name": "Dense", "config": {"name": "F1_1", "kernel_constraint": null, "kernel_regularizer": {"config": {"l2": 9.999999747378752e-05, "l1": 0.0}, "class_name": "L1L2"}, "bias_initializer": {"config": {}, "class_name": "Zeros"}, "units": 60, "activation": "relu", "kernel_initializer": {"config": {"mode": "fan_avg", "scale": 1.0, "distribution": "normal", "seed": 3014}, "class_name": "VarianceScaling"}, "use_bias": true, "bias_constraint": null, "trainable": true, "activity_regularizer": null, "bias_regularizer": null}}, {"name": "B2_1", "inbound_nodes": [[["B2_0", 0, 0, {}]]], "class_name": "Dense", "config": {"name": "B2_1", "kernel_constraint": null, "kernel_regularizer": {"config": {"l2": 9.999999747378752e-05, "l1": 0.0}, "class_name": "L1L2"}, "bias_initializer": {"config": {}, "class_name": "Zeros"}, "units": 60, "activation": "relu", "kernel_initializer": {"config": {"mode": "fan_avg", "scale": 1.0, "distribution": "normal", "seed": 3014}, "class_name": "VarianceScaling"}, "use_bias": true, "bias_constraint": null, "trainable": true, "activity_regularizer": null, "bias_regularizer": null}}, {"name": "D3_1", "inbound_nodes": [[["D3_0", 0, 0, {}]]], "class_name": "Dense", "config": {"name": "D3_1", "kernel_constraint": null, "kernel_regularizer": {"config": {"l2": 9.999999747378752e-05, "l1": 0.0}, "class_name": "L1L2"}, "bias_initializer": {"config": {}, "class_name": "Zeros"}, "units": 60, "activation": "relu", "kernel_initializer": {"config": {"mode": "fan_avg", "scale": 1.0, "distribution": "normal", "seed": 3014}, "class_name": "VarianceScaling"}, "use_bias": true, "bias_constraint": null, "trainable": true, "activity_regularizer": null, "bias_regularizer": null}}, {"name": "E1_1", "inbound_nodes": [[["E1_0", 0, 0, {}]]], "class_name": "Dense", "config": {"name": "E1_1", "kernel_constraint": null, "kernel_regularizer": {"config": {"l2": 9.999999747378752e-05, "l1": 0.0}, "class_name": "L1L2"}, "bias_initializer": {"config": {}, "class_name": "Zeros"}, "units": 60, "activation": "relu", "kernel_initializer": {"config": {"mode": "fan_avg", "scale": 1.0, "distribution": "normal", "seed": 3014}, "class_name": "VarianceScaling"}, "use_bias": true, "bias_constraint": null, "trainable": true, "activity_regularizer": null, "bias_regularizer": null}}, {"name": "OnOff_F1", "inbound_nodes": [], "class_name": "InputLayer", "config": {"dtype": "float32", "name": "OnOff_F1", "batch_input_shape": [null, 1], "sparse": false}}, {"name": "F1_o", "inbound_nodes": [[["F1_1", 0, 0, {}]]], "class_name": "Dense", "config": {"name": "F1_o", "kernel_constraint": null, "kernel_regularizer": {"config": {"l2": 9.999999747378752e-05, "l1": 0.0}, "class_name": "L1L2"}, "bias_initializer": {"config": {}, "class_name": "Zeros"}, "units": 1, "activation": "relu", "kernel_initializer": {"config": {"mode": "fan_avg", "scale": 1.0, "distribution": "normal", "seed": 3014}, "class_name": "VarianceScaling"}, "use_bias": true, "bias_constraint": null, "trainable": true, "activity_regularizer": null, "bias_regularizer": null}}, {"name": "OnOff_B2", "inbound_nodes": [], "class_name": "InputLayer", "config": {"dtype": "float32", "name": "OnOff_B2", "batch_input_shape": [null, 1], "sparse": false}}, {"name": "B2_o", "inbound_nodes": [[["B2_1", 0, 0, {}]]], "class_name": "Dense", "config": {"name": "B2_o", "kernel_constraint": null, "kernel_regularizer": {"config": {"l2": 9.999999747378752e-05, "l1": 0.0}, "class_name": "L1L2"}, "bias_initializer": {"config": {}, "class_name": "Zeros"}, "units": 1, "activation": "relu", "kernel_initializer": {"config": {"mode": "fan_avg", "scale": 1.0, "distribution": "normal", "seed": 3014}, "class_name": "VarianceScaling"}, "use_bias": true, "bias_constraint": null, "trainable": true, "activity_regularizer": null, "bias_regularizer": null}}, {"name": "OnOff_D3", "inbound_nodes": [], "class_name": "InputLayer", "config": {"dtype": "float32", "name": "OnOff_D3", "batch_input_shape": [null, 1], "sparse": false}}, {"name": "D3_o", "inbound_nodes": [[["D3_1", 0, 0, {}]]], "class_name": "Dense", "config": {"name": "D3_o", "kernel_constraint": null, "kernel_regularizer": {"config": {"l2": 9.999999747378752e-05, "l1": 0.0}, "class_name": "L1L2"}, "bias_initializer": {"config": {}, "class_name": "Zeros"}, "units": 1, "activation": "relu", "kernel_initializer": {"config": {"mode": "fan_avg", "scale": 1.0, "distribution": "normal", "seed": 3014}, "class_name": "VarianceScaling"}, "use_bias": true, "bias_constraint": null, "trainable": true, "activity_regularizer": null, "bias_regularizer": null}}, {"name": "OnOff_E1", "inbound_nodes": [], "class_name": "InputLayer", "config": {"dtype": "float32", "name": "OnOff_E1", "batch_input_shape": [null, 1], "sparse": false}}, {"name": "E1_o", "inbound_nodes": [[["E1_1", 0, 0, {}]]], "class_name": "Dense", "config": {"name": "E1_o", "kernel_constraint": null, "kernel_regularizer": {"config": {"l2": 9.999999747378752e-05, "l1": 0.0}, "class_name": "L1L2"}, "bias_initializer": {"config": {}, "class_name": "Zeros"}, "units": 1, "activation": "relu", "kernel_initializer": {"config": {"mode": "fan_avg", "scale": 1.0, "distribution": "normal", "seed": 3014}, "class_name": "VarianceScaling"}, "use_bias": true, "bias_constraint": null, "trainable": true, "activity_regularizer": null, "bias_regularizer": null}}, {"name": "F1_out", "inbound_nodes": [[["OnOff_F1", 0, 0, {}], ["F1_o", 0, 0, {}]]], "class_name": "Multiply", "config": {"name": "F1_out", "trainable": true}}, {"name": "B2_out", "inbound_nodes": [[["OnOff_B2", 0, 0, {}], ["B2_o", 0, 0, {}]]], "class_name": "Multiply", "config": {"name": "B2_out", "trainable": true}}, {"name": "D3_out", "inbound_nodes": [[["OnOff_D3", 0, 0, {}], ["D3_o", 0, 0, {}]]], "class_name": "Multiply", "config": {"name": "D3_out", "trainable": true}}, {"name": "E1_out", "inbound_nodes": [[["OnOff_E1", 0, 0, {}], ["E1_o", 0, 0, {}]]], "class_name": "Multiply", "config": {"name": "E1_out", "trainable": true}}, {"name": "GJOA_QGAS", "inbound_nodes": [[["F1_out", 0, 0, {}], ["B2_out", 0, 0, {}], ["D3_out", 0, 0, {}], ["E1_out", 0, 0, {}]]], "class_name": "Add", "config": {"name": "GJOA_QGAS", "trainable": true}}], "output_layers": [["F1_out", 0, 0], ["B2_out", 0, 0], ["D3_out", 0, 0], ["E1_out", 0, 0], ["GJOA_QGAS", 0, 0]]}, "keras_version": "2.0.1", "class_name": "Model"}