{"class_name": "Model", "config": {"name": "model_2", "output_layers": [["C1_out", 0, 0], ["C2_out", 0, 0], ["C3_out", 0, 0], ["C4_out", 0, 0], ["B1_out", 0, 0], ["B3_out", 0, 0], ["D1_out", 0, 0], ["GJOA_TOTAL", 0, 0]], "input_layers": [["C1", 0, 0], ["C2", 0, 0], ["C3", 0, 0], ["C4", 0, 0], ["B1", 0, 0], ["B3", 0, 0], ["D1", 0, 0], ["OnOff_C1", 0, 0], ["OnOff_C2", 0, 0], ["OnOff_C3", 0, 0], ["OnOff_C4", 0, 0], ["OnOff_B1", 0, 0], ["OnOff_B3", 0, 0], ["OnOff_D1", 0, 0]], "layers": [{"class_name": "InputLayer", "name": "C1", "config": {"batch_input_shape": [null, 4], "name": "C1", "dtype": "float32", "sparse": false}, "inbound_nodes": []}, {"class_name": "InputLayer", "name": "C2", "config": {"batch_input_shape": [null, 3], "name": "C2", "dtype": "float32", "sparse": false}, "inbound_nodes": []}, {"class_name": "InputLayer", "name": "C3", "config": {"batch_input_shape": [null, 4], "name": "C3", "dtype": "float32", "sparse": false}, "inbound_nodes": []}, {"class_name": "InputLayer", "name": "C4", "config": {"batch_input_shape": [null, 4], "name": "C4", "dtype": "float32", "sparse": false}, "inbound_nodes": []}, {"class_name": "InputLayer", "name": "B1", "config": {"batch_input_shape": [null, 4], "name": "B1", "dtype": "float32", "sparse": false}, "inbound_nodes": []}, {"class_name": "InputLayer", "name": "B3", "config": {"batch_input_shape": [null, 4], "name": "B3", "dtype": "float32", "sparse": false}, "inbound_nodes": []}, {"class_name": "InputLayer", "name": "D1", "config": {"batch_input_shape": [null, 3], "name": "D1", "dtype": "float32", "sparse": false}, "inbound_nodes": []}, {"class_name": "Dense", "name": "dense_22", "config": {"kernel_initializer": {"class_name": "VarianceScaling", "config": {"distribution": "normal", "scale": 1.0, "seed": 9035, "mode": "fan_avg"}}, "kernel_regularizer": {"class_name": "L1L2", "config": {"l2": 9.999999747378752e-05, "l1": 0.0}}, "kernel_constraint": null, "name": "dense_22", "use_bias": true, "activation": "relu", "bias_initializer": {"class_name": "Zeros", "config": {}}, "bias_regularizer": null, "bias_constraint": null, "trainable": true, "activity_regularizer": null, "units": 50}, "inbound_nodes": [[["C1", 0, 0, {}]]]}, {"class_name": "Dense", "name": "dense_25", "config": {"kernel_initializer": {"class_name": "VarianceScaling", "config": {"distribution": "normal", "scale": 1.0, "seed": 9035, "mode": "fan_avg"}}, "kernel_regularizer": {"class_name": "L1L2", "config": {"l2": 9.999999747378752e-05, "l1": 0.0}}, "kernel_constraint": null, "name": "dense_25", "use_bias": true, "activation": "relu", "bias_initializer": {"class_name": "Zeros", "config": {}}, "bias_regularizer": null, "bias_constraint": null, "trainable": true, "activity_regularizer": null, "units": 50}, "inbound_nodes": [[["C2", 0, 0, {}]]]}, {"class_name": "Dense", "name": "dense_28", "config": {"kernel_initializer": {"class_name": "VarianceScaling", "config": {"distribution": "normal", "scale": 1.0, "seed": 9035, "mode": "fan_avg"}}, "kernel_regularizer": {"class_name": "L1L2", "config": {"l2": 9.999999747378752e-05, "l1": 0.0}}, "kernel_constraint": null, "name": "dense_28", "use_bias": true, "activation": "relu", "bias_initializer": {"class_name": "Zeros", "config": {}}, "bias_regularizer": null, "bias_constraint": null, "trainable": true, "activity_regularizer": null, "units": 50}, "inbound_nodes": [[["C3", 0, 0, {}]]]}, {"class_name": "Dense", "name": "dense_31", "config": {"kernel_initializer": {"class_name": "VarianceScaling", "config": {"distribution": "normal", "scale": 1.0, "seed": 9035, "mode": "fan_avg"}}, "kernel_regularizer": {"class_name": "L1L2", "config": {"l2": 9.999999747378752e-05, "l1": 0.0}}, "kernel_constraint": null, "name": "dense_31", "use_bias": true, "activation": "relu", "bias_initializer": {"class_name": "Zeros", "config": {}}, "bias_regularizer": null, "bias_constraint": null, "trainable": true, "activity_regularizer": null, "units": 50}, "inbound_nodes": [[["C4", 0, 0, {}]]]}, {"class_name": "Dense", "name": "dense_34", "config": {"kernel_initializer": {"class_name": "VarianceScaling", "config": {"distribution": "normal", "scale": 1.0, "seed": 9035, "mode": "fan_avg"}}, "kernel_regularizer": {"class_name": "L1L2", "config": {"l2": 9.999999747378752e-05, "l1": 0.0}}, "kernel_constraint": null, "name": "dense_34", "use_bias": true, "activation": "relu", "bias_initializer": {"class_name": "Zeros", "config": {}}, "bias_regularizer": null, "bias_constraint": null, "trainable": true, "activity_regularizer": null, "units": 50}, "inbound_nodes": [[["B1", 0, 0, {}]]]}, {"class_name": "Dense", "name": "dense_37", "config": {"kernel_initializer": {"class_name": "VarianceScaling", "config": {"distribution": "normal", "scale": 1.0, "seed": 9035, "mode": "fan_avg"}}, "kernel_regularizer": {"class_name": "L1L2", "config": {"l2": 9.999999747378752e-05, "l1": 0.0}}, "kernel_constraint": null, "name": "dense_37", "use_bias": true, "activation": "relu", "bias_initializer": {"class_name": "Zeros", "config": {}}, "bias_regularizer": null, "bias_constraint": null, "trainable": true, "activity_regularizer": null, "units": 50}, "inbound_nodes": [[["B3", 0, 0, {}]]]}, {"class_name": "Dense", "name": "dense_40", "config": {"kernel_initializer": {"class_name": "VarianceScaling", "config": {"distribution": "normal", "scale": 1.0, "seed": 9035, "mode": "fan_avg"}}, "kernel_regularizer": {"class_name": "L1L2", "config": {"l2": 9.999999747378752e-05, "l1": 0.0}}, "kernel_constraint": null, "name": "dense_40", "use_bias": true, "activation": "relu", "bias_initializer": {"class_name": "Zeros", "config": {}}, "bias_regularizer": null, "bias_constraint": null, "trainable": true, "activity_regularizer": null, "units": 50}, "inbound_nodes": [[["D1", 0, 0, {}]]]}, {"class_name": "Dense", "name": "dense_23", "config": {"kernel_initializer": {"class_name": "VarianceScaling", "config": {"distribution": "normal", "scale": 1.0, "seed": 9035, "mode": "fan_avg"}}, "kernel_regularizer": {"class_name": "L1L2", "config": {"l2": 9.999999747378752e-05, "l1": 0.0}}, "kernel_constraint": null, "name": "dense_23", "use_bias": true, "activation": "relu", "bias_initializer": {"class_name": "Zeros", "config": {}}, "bias_regularizer": null, "bias_constraint": null, "trainable": true, "activity_regularizer": null, "units": 50}, "inbound_nodes": [[["dense_22", 0, 0, {}]]]}, {"class_name": "Dense", "name": "dense_26", "config": {"kernel_initializer": {"class_name": "VarianceScaling", "config": {"distribution": "normal", "scale": 1.0, "seed": 9035, "mode": "fan_avg"}}, "kernel_regularizer": {"class_name": "L1L2", "config": {"l2": 9.999999747378752e-05, "l1": 0.0}}, "kernel_constraint": null, "name": "dense_26", "use_bias": true, "activation": "relu", "bias_initializer": {"class_name": "Zeros", "config": {}}, "bias_regularizer": null, "bias_constraint": null, "trainable": true, "activity_regularizer": null, "units": 50}, "inbound_nodes": [[["dense_25", 0, 0, {}]]]}, {"class_name": "Dense", "name": "dense_29", "config": {"kernel_initializer": {"class_name": "VarianceScaling", "config": {"distribution": "normal", "scale": 1.0, "seed": 9035, "mode": "fan_avg"}}, "kernel_regularizer": {"class_name": "L1L2", "config": {"l2": 9.999999747378752e-05, "l1": 0.0}}, "kernel_constraint": null, "name": "dense_29", "use_bias": true, "activation": "relu", "bias_initializer": {"class_name": "Zeros", "config": {}}, "bias_regularizer": null, "bias_constraint": null, "trainable": true, "activity_regularizer": null, "units": 50}, "inbound_nodes": [[["dense_28", 0, 0, {}]]]}, {"class_name": "Dense", "name": "dense_32", "config": {"kernel_initializer": {"class_name": "VarianceScaling", "config": {"distribution": "normal", "scale": 1.0, "seed": 9035, "mode": "fan_avg"}}, "kernel_regularizer": {"class_name": "L1L2", "config": {"l2": 9.999999747378752e-05, "l1": 0.0}}, "kernel_constraint": null, "name": "dense_32", "use_bias": true, "activation": "relu", "bias_initializer": {"class_name": "Zeros", "config": {}}, "bias_regularizer": null, "bias_constraint": null, "trainable": true, "activity_regularizer": null, "units": 50}, "inbound_nodes": [[["dense_31", 0, 0, {}]]]}, {"class_name": "Dense", "name": "dense_35", "config": {"kernel_initializer": {"class_name": "VarianceScaling", "config": {"distribution": "normal", "scale": 1.0, "seed": 9035, "mode": "fan_avg"}}, "kernel_regularizer": {"class_name": "L1L2", "config": {"l2": 9.999999747378752e-05, "l1": 0.0}}, "kernel_constraint": null, "name": "dense_35", "use_bias": true, "activation": "relu", "bias_initializer": {"class_name": "Zeros", "config": {}}, "bias_regularizer": null, "bias_constraint": null, "trainable": true, "activity_regularizer": null, "units": 50}, "inbound_nodes": [[["dense_34", 0, 0, {}]]]}, {"class_name": "Dense", "name": "dense_38", "config": {"kernel_initializer": {"class_name": "VarianceScaling", "config": {"distribution": "normal", "scale": 1.0, "seed": 9035, "mode": "fan_avg"}}, "kernel_regularizer": {"class_name": "L1L2", "config": {"l2": 9.999999747378752e-05, "l1": 0.0}}, "kernel_constraint": null, "name": "dense_38", "use_bias": true, "activation": "relu", "bias_initializer": {"class_name": "Zeros", "config": {}}, "bias_regularizer": null, "bias_constraint": null, "trainable": true, "activity_regularizer": null, "units": 50}, "inbound_nodes": [[["dense_37", 0, 0, {}]]]}, {"class_name": "Dense", "name": "dense_41", "config": {"kernel_initializer": {"class_name": "VarianceScaling", "config": {"distribution": "normal", "scale": 1.0, "seed": 9035, "mode": "fan_avg"}}, "kernel_regularizer": {"class_name": "L1L2", "config": {"l2": 9.999999747378752e-05, "l1": 0.0}}, "kernel_constraint": null, "name": "dense_41", "use_bias": true, "activation": "relu", "bias_initializer": {"class_name": "Zeros", "config": {}}, "bias_regularizer": null, "bias_constraint": null, "trainable": true, "activity_regularizer": null, "units": 50}, "inbound_nodes": [[["dense_40", 0, 0, {}]]]}, {"class_name": "InputLayer", "name": "OnOff_C1", "config": {"batch_input_shape": [null, 1], "name": "OnOff_C1", "dtype": "float32", "sparse": false}, "inbound_nodes": []}, {"class_name": "Dense", "name": "dense_24", "config": {"kernel_initializer": {"class_name": "VarianceScaling", "config": {"distribution": "normal", "scale": 1.0, "seed": 9035, "mode": "fan_avg"}}, "kernel_regularizer": {"class_name": "L1L2", "config": {"l2": 9.999999747378752e-05, "l1": 0.0}}, "kernel_constraint": null, "name": "dense_24", "use_bias": true, "activation": "relu", "bias_initializer": {"class_name": "Zeros", "config": {}}, "bias_regularizer": null, "bias_constraint": null, "trainable": true, "activity_regularizer": null, "units": 1}, "inbound_nodes": [[["dense_23", 0, 0, {}]]]}, {"class_name": "InputLayer", "name": "OnOff_C2", "config": {"batch_input_shape": [null, 1], "name": "OnOff_C2", "dtype": "float32", "sparse": false}, "inbound_nodes": []}, {"class_name": "Dense", "name": "dense_27", "config": {"kernel_initializer": {"class_name": "VarianceScaling", "config": {"distribution": "normal", "scale": 1.0, "seed": 9035, "mode": "fan_avg"}}, "kernel_regularizer": {"class_name": "L1L2", "config": {"l2": 9.999999747378752e-05, "l1": 0.0}}, "kernel_constraint": null, "name": "dense_27", "use_bias": true, "activation": "relu", "bias_initializer": {"class_name": "Zeros", "config": {}}, "bias_regularizer": null, "bias_constraint": null, "trainable": true, "activity_regularizer": null, "units": 1}, "inbound_nodes": [[["dense_26", 0, 0, {}]]]}, {"class_name": "InputLayer", "name": "OnOff_C3", "config": {"batch_input_shape": [null, 1], "name": "OnOff_C3", "dtype": "float32", "sparse": false}, "inbound_nodes": []}, {"class_name": "Dense", "name": "dense_30", "config": {"kernel_initializer": {"class_name": "VarianceScaling", "config": {"distribution": "normal", "scale": 1.0, "seed": 9035, "mode": "fan_avg"}}, "kernel_regularizer": {"class_name": "L1L2", "config": {"l2": 9.999999747378752e-05, "l1": 0.0}}, "kernel_constraint": null, "name": "dense_30", "use_bias": true, "activation": "relu", "bias_initializer": {"class_name": "Zeros", "config": {}}, "bias_regularizer": null, "bias_constraint": null, "trainable": true, "activity_regularizer": null, "units": 1}, "inbound_nodes": [[["dense_29", 0, 0, {}]]]}, {"class_name": "InputLayer", "name": "OnOff_C4", "config": {"batch_input_shape": [null, 1], "name": "OnOff_C4", "dtype": "float32", "sparse": false}, "inbound_nodes": []}, {"class_name": "Dense", "name": "dense_33", "config": {"kernel_initializer": {"class_name": "VarianceScaling", "config": {"distribution": "normal", "scale": 1.0, "seed": 9035, "mode": "fan_avg"}}, "kernel_regularizer": {"class_name": "L1L2", "config": {"l2": 9.999999747378752e-05, "l1": 0.0}}, "kernel_constraint": null, "name": "dense_33", "use_bias": true, "activation": "relu", "bias_initializer": {"class_name": "Zeros", "config": {}}, "bias_regularizer": null, "bias_constraint": null, "trainable": true, "activity_regularizer": null, "units": 1}, "inbound_nodes": [[["dense_32", 0, 0, {}]]]}, {"class_name": "InputLayer", "name": "OnOff_B1", "config": {"batch_input_shape": [null, 1], "name": "OnOff_B1", "dtype": "float32", "sparse": false}, "inbound_nodes": []}, {"class_name": "Dense", "name": "dense_36", "config": {"kernel_initializer": {"class_name": "VarianceScaling", "config": {"distribution": "normal", "scale": 1.0, "seed": 9035, "mode": "fan_avg"}}, "kernel_regularizer": {"class_name": "L1L2", "config": {"l2": 9.999999747378752e-05, "l1": 0.0}}, "kernel_constraint": null, "name": "dense_36", "use_bias": true, "activation": "relu", "bias_initializer": {"class_name": "Zeros", "config": {}}, "bias_regularizer": null, "bias_constraint": null, "trainable": true, "activity_regularizer": null, "units": 1}, "inbound_nodes": [[["dense_35", 0, 0, {}]]]}, {"class_name": "InputLayer", "name": "OnOff_B3", "config": {"batch_input_shape": [null, 1], "name": "OnOff_B3", "dtype": "float32", "sparse": false}, "inbound_nodes": []}, {"class_name": "Dense", "name": "dense_39", "config": {"kernel_initializer": {"class_name": "VarianceScaling", "config": {"distribution": "normal", "scale": 1.0, "seed": 9035, "mode": "fan_avg"}}, "kernel_regularizer": {"class_name": "L1L2", "config": {"l2": 9.999999747378752e-05, "l1": 0.0}}, "kernel_constraint": null, "name": "dense_39", "use_bias": true, "activation": "relu", "bias_initializer": {"class_name": "Zeros", "config": {}}, "bias_regularizer": null, "bias_constraint": null, "trainable": true, "activity_regularizer": null, "units": 1}, "inbound_nodes": [[["dense_38", 0, 0, {}]]]}, {"class_name": "InputLayer", "name": "OnOff_D1", "config": {"batch_input_shape": [null, 1], "name": "OnOff_D1", "dtype": "float32", "sparse": false}, "inbound_nodes": []}, {"class_name": "Dense", "name": "dense_42", "config": {"kernel_initializer": {"class_name": "VarianceScaling", "config": {"distribution": "normal", "scale": 1.0, "seed": 9035, "mode": "fan_avg"}}, "kernel_regularizer": {"class_name": "L1L2", "config": {"l2": 9.999999747378752e-05, "l1": 0.0}}, "kernel_constraint": null, "name": "dense_42", "use_bias": true, "activation": "relu", "bias_initializer": {"class_name": "Zeros", "config": {}}, "bias_regularizer": null, "bias_constraint": null, "trainable": true, "activity_regularizer": null, "units": 1}, "inbound_nodes": [[["dense_41", 0, 0, {}]]]}, {"class_name": "Multiply", "name": "C1_out", "config": {"name": "C1_out", "trainable": true}, "inbound_nodes": [[["OnOff_C1", 0, 0, {}], ["dense_24", 0, 0, {}]]]}, {"class_name": "Multiply", "name": "C2_out", "config": {"name": "C2_out", "trainable": true}, "inbound_nodes": [[["OnOff_C2", 0, 0, {}], ["dense_27", 0, 0, {}]]]}, {"class_name": "Multiply", "name": "C3_out", "config": {"name": "C3_out", "trainable": true}, "inbound_nodes": [[["OnOff_C3", 0, 0, {}], ["dense_30", 0, 0, {}]]]}, {"class_name": "Multiply", "name": "C4_out", "config": {"name": "C4_out", "trainable": true}, "inbound_nodes": [[["OnOff_C4", 0, 0, {}], ["dense_33", 0, 0, {}]]]}, {"class_name": "Multiply", "name": "B1_out", "config": {"name": "B1_out", "trainable": true}, "inbound_nodes": [[["OnOff_B1", 0, 0, {}], ["dense_36", 0, 0, {}]]]}, {"class_name": "Multiply", "name": "B3_out", "config": {"name": "B3_out", "trainable": true}, "inbound_nodes": [[["OnOff_B3", 0, 0, {}], ["dense_39", 0, 0, {}]]]}, {"class_name": "Multiply", "name": "D1_out", "config": {"name": "D1_out", "trainable": true}, "inbound_nodes": [[["OnOff_D1", 0, 0, {}], ["dense_42", 0, 0, {}]]]}, {"class_name": "Add", "name": "GJOA_TOTAL", "config": {"name": "GJOA_TOTAL", "trainable": true}, "inbound_nodes": [[["C1_out", 0, 0, {}], ["C2_out", 0, 0, {}], ["C3_out", 0, 0, {}], ["C4_out", 0, 0, {}], ["B1_out", 0, 0, {}], ["B3_out", 0, 0, {}], ["D1_out", 0, 0, {}]]]}]}, "keras_version": "2.0.1", "backend": "theano"}