{"keras_version": "2.0.1", "backend": "theano", "config": {"layers": [{"config": {"dtype": "float32", "batch_input_shape": [null, 4], "name": "C1", "sparse": false}, "name": "C1", "class_name": "InputLayer", "inbound_nodes": []}, {"config": {"dtype": "float32", "batch_input_shape": [null, 3], "name": "C2", "sparse": false}, "name": "C2", "class_name": "InputLayer", "inbound_nodes": []}, {"config": {"dtype": "float32", "batch_input_shape": [null, 4], "name": "C3", "sparse": false}, "name": "C3", "class_name": "InputLayer", "inbound_nodes": []}, {"config": {"dtype": "float32", "batch_input_shape": [null, 4], "name": "C4", "sparse": false}, "name": "C4", "class_name": "InputLayer", "inbound_nodes": []}, {"config": {"dtype": "float32", "batch_input_shape": [null, 4], "name": "B1", "sparse": false}, "name": "B1", "class_name": "InputLayer", "inbound_nodes": []}, {"config": {"dtype": "float32", "batch_input_shape": [null, 4], "name": "B3", "sparse": false}, "name": "B3", "class_name": "InputLayer", "inbound_nodes": []}, {"config": {"dtype": "float32", "batch_input_shape": [null, 3], "name": "D1", "sparse": false}, "name": "D1", "class_name": "InputLayer", "inbound_nodes": []}, {"config": {"use_bias": true, "activity_regularizer": null, "bias_constraint": null, "trainable": true, "bias_regularizer": null, "kernel_regularizer": {"config": {"l1": 0.0, "l2": 4.999999873689376e-06}, "class_name": "L1L2"}, "kernel_initializer": {"config": {"scale": 1.0, "seed": 151, "mode": "fan_avg", "distribution": "uniform"}, "class_name": "VarianceScaling"}, "kernel_constraint": null, "units": 20, "bias_initializer": {"config": {}, "class_name": "Zeros"}, "name": "dense_22", "activation": "relu"}, "name": "dense_22", "class_name": "Dense", "inbound_nodes": [[["C1", 0, 0, {}]]]}, {"config": {"use_bias": true, "activity_regularizer": null, "bias_constraint": null, "trainable": true, "bias_regularizer": null, "kernel_regularizer": {"config": {"l1": 0.0, "l2": 4.999999873689376e-06}, "class_name": "L1L2"}, "kernel_initializer": {"config": {"scale": 1.0, "seed": 151, "mode": "fan_avg", "distribution": "uniform"}, "class_name": "VarianceScaling"}, "kernel_constraint": null, "units": 20, "bias_initializer": {"config": {}, "class_name": "Zeros"}, "name": "dense_25", "activation": "relu"}, "name": "dense_25", "class_name": "Dense", "inbound_nodes": [[["C2", 0, 0, {}]]]}, {"config": {"use_bias": true, "activity_regularizer": null, "bias_constraint": null, "trainable": true, "bias_regularizer": null, "kernel_regularizer": {"config": {"l1": 0.0, "l2": 4.999999873689376e-06}, "class_name": "L1L2"}, "kernel_initializer": {"config": {"scale": 1.0, "seed": 151, "mode": "fan_avg", "distribution": "uniform"}, "class_name": "VarianceScaling"}, "kernel_constraint": null, "units": 20, "bias_initializer": {"config": {}, "class_name": "Zeros"}, "name": "dense_28", "activation": "relu"}, "name": "dense_28", "class_name": "Dense", "inbound_nodes": [[["C3", 0, 0, {}]]]}, {"config": {"use_bias": true, "activity_regularizer": null, "bias_constraint": null, "trainable": true, "bias_regularizer": null, "kernel_regularizer": {"config": {"l1": 0.0, "l2": 4.999999873689376e-06}, "class_name": "L1L2"}, "kernel_initializer": {"config": {"scale": 1.0, "seed": 151, "mode": "fan_avg", "distribution": "uniform"}, "class_name": "VarianceScaling"}, "kernel_constraint": null, "units": 20, "bias_initializer": {"config": {}, "class_name": "Zeros"}, "name": "dense_31", "activation": "relu"}, "name": "dense_31", "class_name": "Dense", "inbound_nodes": [[["C4", 0, 0, {}]]]}, {"config": {"use_bias": true, "activity_regularizer": null, "bias_constraint": null, "trainable": true, "bias_regularizer": null, "kernel_regularizer": {"config": {"l1": 0.0, "l2": 4.999999873689376e-06}, "class_name": "L1L2"}, "kernel_initializer": {"config": {"scale": 1.0, "seed": 151, "mode": "fan_avg", "distribution": "uniform"}, "class_name": "VarianceScaling"}, "kernel_constraint": null, "units": 20, "bias_initializer": {"config": {}, "class_name": "Zeros"}, "name": "dense_34", "activation": "relu"}, "name": "dense_34", "class_name": "Dense", "inbound_nodes": [[["B1", 0, 0, {}]]]}, {"config": {"use_bias": true, "activity_regularizer": null, "bias_constraint": null, "trainable": true, "bias_regularizer": null, "kernel_regularizer": {"config": {"l1": 0.0, "l2": 4.999999873689376e-06}, "class_name": "L1L2"}, "kernel_initializer": {"config": {"scale": 1.0, "seed": 151, "mode": "fan_avg", "distribution": "uniform"}, "class_name": "VarianceScaling"}, "kernel_constraint": null, "units": 20, "bias_initializer": {"config": {}, "class_name": "Zeros"}, "name": "dense_37", "activation": "relu"}, "name": "dense_37", "class_name": "Dense", "inbound_nodes": [[["B3", 0, 0, {}]]]}, {"config": {"use_bias": true, "activity_regularizer": null, "bias_constraint": null, "trainable": true, "bias_regularizer": null, "kernel_regularizer": {"config": {"l1": 0.0, "l2": 4.999999873689376e-06}, "class_name": "L1L2"}, "kernel_initializer": {"config": {"scale": 1.0, "seed": 151, "mode": "fan_avg", "distribution": "uniform"}, "class_name": "VarianceScaling"}, "kernel_constraint": null, "units": 20, "bias_initializer": {"config": {}, "class_name": "Zeros"}, "name": "dense_40", "activation": "relu"}, "name": "dense_40", "class_name": "Dense", "inbound_nodes": [[["D1", 0, 0, {}]]]}, {"config": {"use_bias": true, "activity_regularizer": null, "bias_constraint": null, "trainable": true, "bias_regularizer": null, "kernel_regularizer": {"config": {"l1": 0.0, "l2": 4.999999873689376e-06}, "class_name": "L1L2"}, "kernel_initializer": {"config": {"scale": 1.0, "seed": 151, "mode": "fan_avg", "distribution": "uniform"}, "class_name": "VarianceScaling"}, "kernel_constraint": null, "units": 20, "bias_initializer": {"config": {}, "class_name": "Zeros"}, "name": "dense_23", "activation": "relu"}, "name": "dense_23", "class_name": "Dense", "inbound_nodes": [[["dense_22", 0, 0, {}]]]}, {"config": {"use_bias": true, "activity_regularizer": null, "bias_constraint": null, "trainable": true, "bias_regularizer": null, "kernel_regularizer": {"config": {"l1": 0.0, "l2": 4.999999873689376e-06}, "class_name": "L1L2"}, "kernel_initializer": {"config": {"scale": 1.0, "seed": 151, "mode": "fan_avg", "distribution": "uniform"}, "class_name": "VarianceScaling"}, "kernel_constraint": null, "units": 20, "bias_initializer": {"config": {}, "class_name": "Zeros"}, "name": "dense_26", "activation": "relu"}, "name": "dense_26", "class_name": "Dense", "inbound_nodes": [[["dense_25", 0, 0, {}]]]}, {"config": {"use_bias": true, "activity_regularizer": null, "bias_constraint": null, "trainable": true, "bias_regularizer": null, "kernel_regularizer": {"config": {"l1": 0.0, "l2": 4.999999873689376e-06}, "class_name": "L1L2"}, "kernel_initializer": {"config": {"scale": 1.0, "seed": 151, "mode": "fan_avg", "distribution": "uniform"}, "class_name": "VarianceScaling"}, "kernel_constraint": null, "units": 20, "bias_initializer": {"config": {}, "class_name": "Zeros"}, "name": "dense_29", "activation": "relu"}, "name": "dense_29", "class_name": "Dense", "inbound_nodes": [[["dense_28", 0, 0, {}]]]}, {"config": {"use_bias": true, "activity_regularizer": null, "bias_constraint": null, "trainable": true, "bias_regularizer": null, "kernel_regularizer": {"config": {"l1": 0.0, "l2": 4.999999873689376e-06}, "class_name": "L1L2"}, "kernel_initializer": {"config": {"scale": 1.0, "seed": 151, "mode": "fan_avg", "distribution": "uniform"}, "class_name": "VarianceScaling"}, "kernel_constraint": null, "units": 20, "bias_initializer": {"config": {}, "class_name": "Zeros"}, "name": "dense_32", "activation": "relu"}, "name": "dense_32", "class_name": "Dense", "inbound_nodes": [[["dense_31", 0, 0, {}]]]}, {"config": {"use_bias": true, "activity_regularizer": null, "bias_constraint": null, "trainable": true, "bias_regularizer": null, "kernel_regularizer": {"config": {"l1": 0.0, "l2": 4.999999873689376e-06}, "class_name": "L1L2"}, "kernel_initializer": {"config": {"scale": 1.0, "seed": 151, "mode": "fan_avg", "distribution": "uniform"}, "class_name": "VarianceScaling"}, "kernel_constraint": null, "units": 20, "bias_initializer": {"config": {}, "class_name": "Zeros"}, "name": "dense_35", "activation": "relu"}, "name": "dense_35", "class_name": "Dense", "inbound_nodes": [[["dense_34", 0, 0, {}]]]}, {"config": {"use_bias": true, "activity_regularizer": null, "bias_constraint": null, "trainable": true, "bias_regularizer": null, "kernel_regularizer": {"config": {"l1": 0.0, "l2": 4.999999873689376e-06}, "class_name": "L1L2"}, "kernel_initializer": {"config": {"scale": 1.0, "seed": 151, "mode": "fan_avg", "distribution": "uniform"}, "class_name": "VarianceScaling"}, "kernel_constraint": null, "units": 20, "bias_initializer": {"config": {}, "class_name": "Zeros"}, "name": "dense_38", "activation": "relu"}, "name": "dense_38", "class_name": "Dense", "inbound_nodes": [[["dense_37", 0, 0, {}]]]}, {"config": {"use_bias": true, "activity_regularizer": null, "bias_constraint": null, "trainable": true, "bias_regularizer": null, "kernel_regularizer": {"config": {"l1": 0.0, "l2": 4.999999873689376e-06}, "class_name": "L1L2"}, "kernel_initializer": {"config": {"scale": 1.0, "seed": 151, "mode": "fan_avg", "distribution": "uniform"}, "class_name": "VarianceScaling"}, "kernel_constraint": null, "units": 20, "bias_initializer": {"config": {}, "class_name": "Zeros"}, "name": "dense_41", "activation": "relu"}, "name": "dense_41", "class_name": "Dense", "inbound_nodes": [[["dense_40", 0, 0, {}]]]}, {"config": {"dtype": "float32", "batch_input_shape": [null, 1], "name": "OnOff_C1", "sparse": false}, "name": "OnOff_C1", "class_name": "InputLayer", "inbound_nodes": []}, {"config": {"use_bias": true, "activity_regularizer": null, "bias_constraint": null, "trainable": true, "bias_regularizer": null, "kernel_regularizer": {"config": {"l1": 0.0, "l2": 4.999999873689376e-06}, "class_name": "L1L2"}, "kernel_initializer": {"config": {"scale": 1.0, "seed": 151, "mode": "fan_avg", "distribution": "uniform"}, "class_name": "VarianceScaling"}, "kernel_constraint": null, "units": 1, "bias_initializer": {"config": {}, "class_name": "Zeros"}, "name": "dense_24", "activation": "relu"}, "name": "dense_24", "class_name": "Dense", "inbound_nodes": [[["dense_23", 0, 0, {}]]]}, {"config": {"dtype": "float32", "batch_input_shape": [null, 1], "name": "OnOff_C2", "sparse": false}, "name": "OnOff_C2", "class_name": "InputLayer", "inbound_nodes": []}, {"config": {"use_bias": true, "activity_regularizer": null, "bias_constraint": null, "trainable": true, "bias_regularizer": null, "kernel_regularizer": {"config": {"l1": 0.0, "l2": 4.999999873689376e-06}, "class_name": "L1L2"}, "kernel_initializer": {"config": {"scale": 1.0, "seed": 151, "mode": "fan_avg", "distribution": "uniform"}, "class_name": "VarianceScaling"}, "kernel_constraint": null, "units": 1, "bias_initializer": {"config": {}, "class_name": "Zeros"}, "name": "dense_27", "activation": "relu"}, "name": "dense_27", "class_name": "Dense", "inbound_nodes": [[["dense_26", 0, 0, {}]]]}, {"config": {"dtype": "float32", "batch_input_shape": [null, 1], "name": "OnOff_C3", "sparse": false}, "name": "OnOff_C3", "class_name": "InputLayer", "inbound_nodes": []}, {"config": {"use_bias": true, "activity_regularizer": null, "bias_constraint": null, "trainable": true, "bias_regularizer": null, "kernel_regularizer": {"config": {"l1": 0.0, "l2": 4.999999873689376e-06}, "class_name": "L1L2"}, "kernel_initializer": {"config": {"scale": 1.0, "seed": 151, "mode": "fan_avg", "distribution": "uniform"}, "class_name": "VarianceScaling"}, "kernel_constraint": null, "units": 1, "bias_initializer": {"config": {}, "class_name": "Zeros"}, "name": "dense_30", "activation": "relu"}, "name": "dense_30", "class_name": "Dense", "inbound_nodes": [[["dense_29", 0, 0, {}]]]}, {"config": {"dtype": "float32", "batch_input_shape": [null, 1], "name": "OnOff_C4", "sparse": false}, "name": "OnOff_C4", "class_name": "InputLayer", "inbound_nodes": []}, {"config": {"use_bias": true, "activity_regularizer": null, "bias_constraint": null, "trainable": true, "bias_regularizer": null, "kernel_regularizer": {"config": {"l1": 0.0, "l2": 4.999999873689376e-06}, "class_name": "L1L2"}, "kernel_initializer": {"config": {"scale": 1.0, "seed": 151, "mode": "fan_avg", "distribution": "uniform"}, "class_name": "VarianceScaling"}, "kernel_constraint": null, "units": 1, "bias_initializer": {"config": {}, "class_name": "Zeros"}, "name": "dense_33", "activation": "relu"}, "name": "dense_33", "class_name": "Dense", "inbound_nodes": [[["dense_32", 0, 0, {}]]]}, {"config": {"dtype": "float32", "batch_input_shape": [null, 1], "name": "OnOff_B1", "sparse": false}, "name": "OnOff_B1", "class_name": "InputLayer", "inbound_nodes": []}, {"config": {"use_bias": true, "activity_regularizer": null, "bias_constraint": null, "trainable": true, "bias_regularizer": null, "kernel_regularizer": {"config": {"l1": 0.0, "l2": 4.999999873689376e-06}, "class_name": "L1L2"}, "kernel_initializer": {"config": {"scale": 1.0, "seed": 151, "mode": "fan_avg", "distribution": "uniform"}, "class_name": "VarianceScaling"}, "kernel_constraint": null, "units": 1, "bias_initializer": {"config": {}, "class_name": "Zeros"}, "name": "dense_36", "activation": "relu"}, "name": "dense_36", "class_name": "Dense", "inbound_nodes": [[["dense_35", 0, 0, {}]]]}, {"config": {"dtype": "float32", "batch_input_shape": [null, 1], "name": "OnOff_B3", "sparse": false}, "name": "OnOff_B3", "class_name": "InputLayer", "inbound_nodes": []}, {"config": {"use_bias": true, "activity_regularizer": null, "bias_constraint": null, "trainable": true, "bias_regularizer": null, "kernel_regularizer": {"config": {"l1": 0.0, "l2": 4.999999873689376e-06}, "class_name": "L1L2"}, "kernel_initializer": {"config": {"scale": 1.0, "seed": 151, "mode": "fan_avg", "distribution": "uniform"}, "class_name": "VarianceScaling"}, "kernel_constraint": null, "units": 1, "bias_initializer": {"config": {}, "class_name": "Zeros"}, "name": "dense_39", "activation": "relu"}, "name": "dense_39", "class_name": "Dense", "inbound_nodes": [[["dense_38", 0, 0, {}]]]}, {"config": {"dtype": "float32", "batch_input_shape": [null, 1], "name": "OnOff_D1", "sparse": false}, "name": "OnOff_D1", "class_name": "InputLayer", "inbound_nodes": []}, {"config": {"use_bias": true, "activity_regularizer": null, "bias_constraint": null, "trainable": true, "bias_regularizer": null, "kernel_regularizer": {"config": {"l1": 0.0, "l2": 4.999999873689376e-06}, "class_name": "L1L2"}, "kernel_initializer": {"config": {"scale": 1.0, "seed": 151, "mode": "fan_avg", "distribution": "uniform"}, "class_name": "VarianceScaling"}, "kernel_constraint": null, "units": 1, "bias_initializer": {"config": {}, "class_name": "Zeros"}, "name": "dense_42", "activation": "relu"}, "name": "dense_42", "class_name": "Dense", "inbound_nodes": [[["dense_41", 0, 0, {}]]]}, {"config": {"name": "C1_out", "trainable": true}, "name": "C1_out", "class_name": "Multiply", "inbound_nodes": [[["OnOff_C1", 0, 0, {}], ["dense_24", 0, 0, {}]]]}, {"config": {"name": "C2_out", "trainable": true}, "name": "C2_out", "class_name": "Multiply", "inbound_nodes": [[["OnOff_C2", 0, 0, {}], ["dense_27", 0, 0, {}]]]}, {"config": {"name": "C3_out", "trainable": true}, "name": "C3_out", "class_name": "Multiply", "inbound_nodes": [[["OnOff_C3", 0, 0, {}], ["dense_30", 0, 0, {}]]]}, {"config": {"name": "C4_out", "trainable": true}, "name": "C4_out", "class_name": "Multiply", "inbound_nodes": [[["OnOff_C4", 0, 0, {}], ["dense_33", 0, 0, {}]]]}, {"config": {"name": "B1_out", "trainable": true}, "name": "B1_out", "class_name": "Multiply", "inbound_nodes": [[["OnOff_B1", 0, 0, {}], ["dense_36", 0, 0, {}]]]}, {"config": {"name": "B3_out", "trainable": true}, "name": "B3_out", "class_name": "Multiply", "inbound_nodes": [[["OnOff_B3", 0, 0, {}], ["dense_39", 0, 0, {}]]]}, {"config": {"name": "D1_out", "trainable": true}, "name": "D1_out", "class_name": "Multiply", "inbound_nodes": [[["OnOff_D1", 0, 0, {}], ["dense_42", 0, 0, {}]]]}, {"config": {"name": "GJOA_TOTAL", "trainable": true}, "name": "GJOA_TOTAL", "class_name": "Add", "inbound_nodes": [[["C1_out", 0, 0, {}], ["C2_out", 0, 0, {}], ["C3_out", 0, 0, {}], ["C4_out", 0, 0, {}], ["B1_out", 0, 0, {}], ["B3_out", 0, 0, {}], ["D1_out", 0, 0, {}]]]}], "input_layers": [["C1", 0, 0], ["C2", 0, 0], ["C3", 0, 0], ["C4", 0, 0], ["B1", 0, 0], ["B3", 0, 0], ["D1", 0, 0], ["OnOff_C1", 0, 0], ["OnOff_C2", 0, 0], ["OnOff_C3", 0, 0], ["OnOff_C4", 0, 0], ["OnOff_B1", 0, 0], ["OnOff_B3", 0, 0], ["OnOff_D1", 0, 0]], "name": "model_2", "output_layers": [["C1_out", 0, 0], ["C2_out", 0, 0], ["C3_out", 0, 0], ["C4_out", 0, 0], ["B1_out", 0, 0], ["B3_out", 0, 0], ["D1_out", 0, 0], ["GJOA_TOTAL", 0, 0]]}, "class_name": "Model"}