{"keras_version": "2.0.1", "class_name": "Model", "backend": "theano", "config": {"name": "model_2", "input_layers": [["C1", 0, 0], ["C2", 0, 0], ["C3", 0, 0], ["C4", 0, 0], ["B1", 0, 0], ["B3", 0, 0], ["D1", 0, 0], ["OnOff_C1", 0, 0], ["OnOff_C2", 0, 0], ["OnOff_C3", 0, 0], ["OnOff_C4", 0, 0], ["OnOff_B1", 0, 0], ["OnOff_B3", 0, 0], ["OnOff_D1", 0, 0]], "output_layers": [["C1_out", 0, 0], ["C2_out", 0, 0], ["C3_out", 0, 0], ["C4_out", 0, 0], ["B1_out", 0, 0], ["B3_out", 0, 0], ["D1_out", 0, 0], ["GJOA_TOTAL", 0, 0]], "layers": [{"name": "C1", "class_name": "InputLayer", "config": {"dtype": "float32", "sparse": false, "batch_input_shape": [null, 4], "name": "C1"}, "inbound_nodes": []}, {"name": "C2", "class_name": "InputLayer", "config": {"dtype": "float32", "sparse": false, "batch_input_shape": [null, 3], "name": "C2"}, "inbound_nodes": []}, {"name": "C3", "class_name": "InputLayer", "config": {"dtype": "float32", "sparse": false, "batch_input_shape": [null, 4], "name": "C3"}, "inbound_nodes": []}, {"name": "C4", "class_name": "InputLayer", "config": {"dtype": "float32", "sparse": false, "batch_input_shape": [null, 4], "name": "C4"}, "inbound_nodes": []}, {"name": "B1", "class_name": "InputLayer", "config": {"dtype": "float32", "sparse": false, "batch_input_shape": [null, 4], "name": "B1"}, "inbound_nodes": []}, {"name": "B3", "class_name": "InputLayer", "config": {"dtype": "float32", "sparse": false, "batch_input_shape": [null, 4], "name": "B3"}, "inbound_nodes": []}, {"name": "D1", "class_name": "InputLayer", "config": {"dtype": "float32", "sparse": false, "batch_input_shape": [null, 3], "name": "D1"}, "inbound_nodes": []}, {"name": "dense_50", "class_name": "Dense", "config": {"kernel_initializer": {"class_name": "VarianceScaling", "config": {"mode": "fan_avg", "seed": null, "distribution": "uniform", "scale": 1.0}}, "units": 50, "bias_initializer": {"class_name": "Zeros", "config": {}}, "activation": "relu", "bias_constraint": null, "name": "dense_50", "use_bias": true, "trainable": true, "activity_regularizer": null, "bias_regularizer": null, "kernel_constraint": null, "kernel_regularizer": {"class_name": "L1L2", "config": {"l2": 4.999999873689376e-06, "l1": 0.0}}}, "inbound_nodes": [[["C1", 0, 0, {}]]]}, {"name": "dense_57", "class_name": "Dense", "config": {"kernel_initializer": {"class_name": "VarianceScaling", "config": {"mode": "fan_avg", "seed": null, "distribution": "uniform", "scale": 1.0}}, "units": 50, "bias_initializer": {"class_name": "Zeros", "config": {}}, "activation": "relu", "bias_constraint": null, "name": "dense_57", "use_bias": true, "trainable": true, "activity_regularizer": null, "bias_regularizer": null, "kernel_constraint": null, "kernel_regularizer": {"class_name": "L1L2", "config": {"l2": 4.999999873689376e-06, "l1": 0.0}}}, "inbound_nodes": [[["C2", 0, 0, {}]]]}, {"name": "dense_64", "class_name": "Dense", "config": {"kernel_initializer": {"class_name": "VarianceScaling", "config": {"mode": "fan_avg", "seed": null, "distribution": "uniform", "scale": 1.0}}, "units": 50, "bias_initializer": {"class_name": "Zeros", "config": {}}, "activation": "relu", "bias_constraint": null, "name": "dense_64", "use_bias": true, "trainable": true, "activity_regularizer": null, "bias_regularizer": null, "kernel_constraint": null, "kernel_regularizer": {"class_name": "L1L2", "config": {"l2": 4.999999873689376e-06, "l1": 0.0}}}, "inbound_nodes": [[["C3", 0, 0, {}]]]}, {"name": "dense_71", "class_name": "Dense", "config": {"kernel_initializer": {"class_name": "VarianceScaling", "config": {"mode": "fan_avg", "seed": null, "distribution": "uniform", "scale": 1.0}}, "units": 50, "bias_initializer": {"class_name": "Zeros", "config": {}}, "activation": "relu", "bias_constraint": null, "name": "dense_71", "use_bias": true, "trainable": true, "activity_regularizer": null, "bias_regularizer": null, "kernel_constraint": null, "kernel_regularizer": {"class_name": "L1L2", "config": {"l2": 4.999999873689376e-06, "l1": 0.0}}}, "inbound_nodes": [[["C4", 0, 0, {}]]]}, {"name": "dense_78", "class_name": "Dense", "config": {"kernel_initializer": {"class_name": "VarianceScaling", "config": {"mode": "fan_avg", "seed": null, "distribution": "uniform", "scale": 1.0}}, "units": 50, "bias_initializer": {"class_name": "Zeros", "config": {}}, "activation": "relu", "bias_constraint": null, "name": "dense_78", "use_bias": true, "trainable": true, "activity_regularizer": null, "bias_regularizer": null, "kernel_constraint": null, "kernel_regularizer": {"class_name": "L1L2", "config": {"l2": 4.999999873689376e-06, "l1": 0.0}}}, "inbound_nodes": [[["B1", 0, 0, {}]]]}, {"name": "dense_85", "class_name": "Dense", "config": {"kernel_initializer": {"class_name": "VarianceScaling", "config": {"mode": "fan_avg", "seed": null, "distribution": "uniform", "scale": 1.0}}, "units": 50, "bias_initializer": {"class_name": "Zeros", "config": {}}, "activation": "relu", "bias_constraint": null, "name": "dense_85", "use_bias": true, "trainable": true, "activity_regularizer": null, "bias_regularizer": null, "kernel_constraint": null, "kernel_regularizer": {"class_name": "L1L2", "config": {"l2": 4.999999873689376e-06, "l1": 0.0}}}, "inbound_nodes": [[["B3", 0, 0, {}]]]}, {"name": "dense_92", "class_name": "Dense", "config": {"kernel_initializer": {"class_name": "VarianceScaling", "config": {"mode": "fan_avg", "seed": null, "distribution": "uniform", "scale": 1.0}}, "units": 50, "bias_initializer": {"class_name": "Zeros", "config": {}}, "activation": "relu", "bias_constraint": null, "name": "dense_92", "use_bias": true, "trainable": true, "activity_regularizer": null, "bias_regularizer": null, "kernel_constraint": null, "kernel_regularizer": {"class_name": "L1L2", "config": {"l2": 4.999999873689376e-06, "l1": 0.0}}}, "inbound_nodes": [[["D1", 0, 0, {}]]]}, {"name": "dense_53", "class_name": "Dense", "config": {"kernel_initializer": {"class_name": "VarianceScaling", "config": {"mode": "fan_avg", "seed": null, "distribution": "uniform", "scale": 1.0}}, "units": 10, "bias_initializer": {"class_name": "Zeros", "config": {}}, "activation": "relu", "bias_constraint": null, "name": "dense_53", "use_bias": true, "trainable": true, "activity_regularizer": null, "bias_regularizer": null, "kernel_constraint": null, "kernel_regularizer": {"class_name": "L1L2", "config": {"l2": 4.999999873689376e-06, "l1": 0.0}}}, "inbound_nodes": [[["dense_50", 0, 0, {}]]]}, {"name": "dense_60", "class_name": "Dense", "config": {"kernel_initializer": {"class_name": "VarianceScaling", "config": {"mode": "fan_avg", "seed": null, "distribution": "uniform", "scale": 1.0}}, "units": 10, "bias_initializer": {"class_name": "Zeros", "config": {}}, "activation": "relu", "bias_constraint": null, "name": "dense_60", "use_bias": true, "trainable": true, "activity_regularizer": null, "bias_regularizer": null, "kernel_constraint": null, "kernel_regularizer": {"class_name": "L1L2", "config": {"l2": 4.999999873689376e-06, "l1": 0.0}}}, "inbound_nodes": [[["dense_57", 0, 0, {}]]]}, {"name": "dense_67", "class_name": "Dense", "config": {"kernel_initializer": {"class_name": "VarianceScaling", "config": {"mode": "fan_avg", "seed": null, "distribution": "uniform", "scale": 1.0}}, "units": 10, "bias_initializer": {"class_name": "Zeros", "config": {}}, "activation": "relu", "bias_constraint": null, "name": "dense_67", "use_bias": true, "trainable": true, "activity_regularizer": null, "bias_regularizer": null, "kernel_constraint": null, "kernel_regularizer": {"class_name": "L1L2", "config": {"l2": 4.999999873689376e-06, "l1": 0.0}}}, "inbound_nodes": [[["dense_64", 0, 0, {}]]]}, {"name": "dense_74", "class_name": "Dense", "config": {"kernel_initializer": {"class_name": "VarianceScaling", "config": {"mode": "fan_avg", "seed": null, "distribution": "uniform", "scale": 1.0}}, "units": 10, "bias_initializer": {"class_name": "Zeros", "config": {}}, "activation": "relu", "bias_constraint": null, "name": "dense_74", "use_bias": true, "trainable": true, "activity_regularizer": null, "bias_regularizer": null, "kernel_constraint": null, "kernel_regularizer": {"class_name": "L1L2", "config": {"l2": 4.999999873689376e-06, "l1": 0.0}}}, "inbound_nodes": [[["dense_71", 0, 0, {}]]]}, {"name": "dense_81", "class_name": "Dense", "config": {"kernel_initializer": {"class_name": "VarianceScaling", "config": {"mode": "fan_avg", "seed": null, "distribution": "uniform", "scale": 1.0}}, "units": 10, "bias_initializer": {"class_name": "Zeros", "config": {}}, "activation": "relu", "bias_constraint": null, "name": "dense_81", "use_bias": true, "trainable": true, "activity_regularizer": null, "bias_regularizer": null, "kernel_constraint": null, "kernel_regularizer": {"class_name": "L1L2", "config": {"l2": 4.999999873689376e-06, "l1": 0.0}}}, "inbound_nodes": [[["dense_78", 0, 0, {}]]]}, {"name": "dense_88", "class_name": "Dense", "config": {"kernel_initializer": {"class_name": "VarianceScaling", "config": {"mode": "fan_avg", "seed": null, "distribution": "uniform", "scale": 1.0}}, "units": 10, "bias_initializer": {"class_name": "Zeros", "config": {}}, "activation": "relu", "bias_constraint": null, "name": "dense_88", "use_bias": true, "trainable": true, "activity_regularizer": null, "bias_regularizer": null, "kernel_constraint": null, "kernel_regularizer": {"class_name": "L1L2", "config": {"l2": 4.999999873689376e-06, "l1": 0.0}}}, "inbound_nodes": [[["dense_85", 0, 0, {}]]]}, {"name": "dense_95", "class_name": "Dense", "config": {"kernel_initializer": {"class_name": "VarianceScaling", "config": {"mode": "fan_avg", "seed": null, "distribution": "uniform", "scale": 1.0}}, "units": 10, "bias_initializer": {"class_name": "Zeros", "config": {}}, "activation": "relu", "bias_constraint": null, "name": "dense_95", "use_bias": true, "trainable": true, "activity_regularizer": null, "bias_regularizer": null, "kernel_constraint": null, "kernel_regularizer": {"class_name": "L1L2", "config": {"l2": 4.999999873689376e-06, "l1": 0.0}}}, "inbound_nodes": [[["dense_92", 0, 0, {}]]]}, {"name": "dense_51", "class_name": "Dense", "config": {"kernel_initializer": {"class_name": "VarianceScaling", "config": {"mode": "fan_avg", "seed": null, "distribution": "uniform", "scale": 1.0}}, "units": 10, "bias_initializer": {"class_name": "Zeros", "config": {}}, "activation": "relu", "bias_constraint": null, "name": "dense_51", "use_bias": true, "trainable": true, "activity_regularizer": null, "bias_regularizer": null, "kernel_constraint": null, "kernel_regularizer": {"class_name": "L1L2", "config": {"l2": 4.999999873689376e-06, "l1": 0.0}}}, "inbound_nodes": [[["dense_50", 0, 0, {}]]]}, {"name": "dense_54", "class_name": "Dense", "config": {"kernel_initializer": {"class_name": "VarianceScaling", "config": {"mode": "fan_avg", "seed": null, "distribution": "uniform", "scale": 1.0}}, "units": 20, "bias_initializer": {"class_name": "Zeros", "config": {}}, "activation": "relu", "bias_constraint": null, "name": "dense_54", "use_bias": true, "trainable": true, "activity_regularizer": null, "bias_regularizer": null, "kernel_constraint": null, "kernel_regularizer": {"class_name": "L1L2", "config": {"l2": 4.999999873689376e-06, "l1": 0.0}}}, "inbound_nodes": [[["dense_53", 0, 0, {}]]]}, {"name": "dense_58", "class_name": "Dense", "config": {"kernel_initializer": {"class_name": "VarianceScaling", "config": {"mode": "fan_avg", "seed": null, "distribution": "uniform", "scale": 1.0}}, "units": 10, "bias_initializer": {"class_name": "Zeros", "config": {}}, "activation": "relu", "bias_constraint": null, "name": "dense_58", "use_bias": true, "trainable": true, "activity_regularizer": null, "bias_regularizer": null, "kernel_constraint": null, "kernel_regularizer": {"class_name": "L1L2", "config": {"l2": 4.999999873689376e-06, "l1": 0.0}}}, "inbound_nodes": [[["dense_57", 0, 0, {}]]]}, {"name": "dense_61", "class_name": "Dense", "config": {"kernel_initializer": {"class_name": "VarianceScaling", "config": {"mode": "fan_avg", "seed": null, "distribution": "uniform", "scale": 1.0}}, "units": 20, "bias_initializer": {"class_name": "Zeros", "config": {}}, "activation": "relu", "bias_constraint": null, "name": "dense_61", "use_bias": true, "trainable": true, "activity_regularizer": null, "bias_regularizer": null, "kernel_constraint": null, "kernel_regularizer": {"class_name": "L1L2", "config": {"l2": 4.999999873689376e-06, "l1": 0.0}}}, "inbound_nodes": [[["dense_60", 0, 0, {}]]]}, {"name": "dense_65", "class_name": "Dense", "config": {"kernel_initializer": {"class_name": "VarianceScaling", "config": {"mode": "fan_avg", "seed": null, "distribution": "uniform", "scale": 1.0}}, "units": 10, "bias_initializer": {"class_name": "Zeros", "config": {}}, "activation": "relu", "bias_constraint": null, "name": "dense_65", "use_bias": true, "trainable": true, "activity_regularizer": null, "bias_regularizer": null, "kernel_constraint": null, "kernel_regularizer": {"class_name": "L1L2", "config": {"l2": 4.999999873689376e-06, "l1": 0.0}}}, "inbound_nodes": [[["dense_64", 0, 0, {}]]]}, {"name": "dense_68", "class_name": "Dense", "config": {"kernel_initializer": {"class_name": "VarianceScaling", "config": {"mode": "fan_avg", "seed": null, "distribution": "uniform", "scale": 1.0}}, "units": 20, "bias_initializer": {"class_name": "Zeros", "config": {}}, "activation": "relu", "bias_constraint": null, "name": "dense_68", "use_bias": true, "trainable": true, "activity_regularizer": null, "bias_regularizer": null, "kernel_constraint": null, "kernel_regularizer": {"class_name": "L1L2", "config": {"l2": 4.999999873689376e-06, "l1": 0.0}}}, "inbound_nodes": [[["dense_67", 0, 0, {}]]]}, {"name": "dense_72", "class_name": "Dense", "config": {"kernel_initializer": {"class_name": "VarianceScaling", "config": {"mode": "fan_avg", "seed": null, "distribution": "uniform", "scale": 1.0}}, "units": 10, "bias_initializer": {"class_name": "Zeros", "config": {}}, "activation": "relu", "bias_constraint": null, "name": "dense_72", "use_bias": true, "trainable": true, "activity_regularizer": null, "bias_regularizer": null, "kernel_constraint": null, "kernel_regularizer": {"class_name": "L1L2", "config": {"l2": 4.999999873689376e-06, "l1": 0.0}}}, "inbound_nodes": [[["dense_71", 0, 0, {}]]]}, {"name": "dense_75", "class_name": "Dense", "config": {"kernel_initializer": {"class_name": "VarianceScaling", "config": {"mode": "fan_avg", "seed": null, "distribution": "uniform", "scale": 1.0}}, "units": 20, "bias_initializer": {"class_name": "Zeros", "config": {}}, "activation": "relu", "bias_constraint": null, "name": "dense_75", "use_bias": true, "trainable": true, "activity_regularizer": null, "bias_regularizer": null, "kernel_constraint": null, "kernel_regularizer": {"class_name": "L1L2", "config": {"l2": 4.999999873689376e-06, "l1": 0.0}}}, "inbound_nodes": [[["dense_74", 0, 0, {}]]]}, {"name": "dense_79", "class_name": "Dense", "config": {"kernel_initializer": {"class_name": "VarianceScaling", "config": {"mode": "fan_avg", "seed": null, "distribution": "uniform", "scale": 1.0}}, "units": 10, "bias_initializer": {"class_name": "Zeros", "config": {}}, "activation": "relu", "bias_constraint": null, "name": "dense_79", "use_bias": true, "trainable": true, "activity_regularizer": null, "bias_regularizer": null, "kernel_constraint": null, "kernel_regularizer": {"class_name": "L1L2", "config": {"l2": 4.999999873689376e-06, "l1": 0.0}}}, "inbound_nodes": [[["dense_78", 0, 0, {}]]]}, {"name": "dense_82", "class_name": "Dense", "config": {"kernel_initializer": {"class_name": "VarianceScaling", "config": {"mode": "fan_avg", "seed": null, "distribution": "uniform", "scale": 1.0}}, "units": 20, "bias_initializer": {"class_name": "Zeros", "config": {}}, "activation": "relu", "bias_constraint": null, "name": "dense_82", "use_bias": true, "trainable": true, "activity_regularizer": null, "bias_regularizer": null, "kernel_constraint": null, "kernel_regularizer": {"class_name": "L1L2", "config": {"l2": 4.999999873689376e-06, "l1": 0.0}}}, "inbound_nodes": [[["dense_81", 0, 0, {}]]]}, {"name": "dense_86", "class_name": "Dense", "config": {"kernel_initializer": {"class_name": "VarianceScaling", "config": {"mode": "fan_avg", "seed": null, "distribution": "uniform", "scale": 1.0}}, "units": 10, "bias_initializer": {"class_name": "Zeros", "config": {}}, "activation": "relu", "bias_constraint": null, "name": "dense_86", "use_bias": true, "trainable": true, "activity_regularizer": null, "bias_regularizer": null, "kernel_constraint": null, "kernel_regularizer": {"class_name": "L1L2", "config": {"l2": 4.999999873689376e-06, "l1": 0.0}}}, "inbound_nodes": [[["dense_85", 0, 0, {}]]]}, {"name": "dense_89", "class_name": "Dense", "config": {"kernel_initializer": {"class_name": "VarianceScaling", "config": {"mode": "fan_avg", "seed": null, "distribution": "uniform", "scale": 1.0}}, "units": 20, "bias_initializer": {"class_name": "Zeros", "config": {}}, "activation": "relu", "bias_constraint": null, "name": "dense_89", "use_bias": true, "trainable": true, "activity_regularizer": null, "bias_regularizer": null, "kernel_constraint": null, "kernel_regularizer": {"class_name": "L1L2", "config": {"l2": 4.999999873689376e-06, "l1": 0.0}}}, "inbound_nodes": [[["dense_88", 0, 0, {}]]]}, {"name": "dense_93", "class_name": "Dense", "config": {"kernel_initializer": {"class_name": "VarianceScaling", "config": {"mode": "fan_avg", "seed": null, "distribution": "uniform", "scale": 1.0}}, "units": 10, "bias_initializer": {"class_name": "Zeros", "config": {}}, "activation": "relu", "bias_constraint": null, "name": "dense_93", "use_bias": true, "trainable": true, "activity_regularizer": null, "bias_regularizer": null, "kernel_constraint": null, "kernel_regularizer": {"class_name": "L1L2", "config": {"l2": 4.999999873689376e-06, "l1": 0.0}}}, "inbound_nodes": [[["dense_92", 0, 0, {}]]]}, {"name": "dense_96", "class_name": "Dense", "config": {"kernel_initializer": {"class_name": "VarianceScaling", "config": {"mode": "fan_avg", "seed": null, "distribution": "uniform", "scale": 1.0}}, "units": 20, "bias_initializer": {"class_name": "Zeros", "config": {}}, "activation": "relu", "bias_constraint": null, "name": "dense_96", "use_bias": true, "trainable": true, "activity_regularizer": null, "bias_regularizer": null, "kernel_constraint": null, "kernel_regularizer": {"class_name": "L1L2", "config": {"l2": 4.999999873689376e-06, "l1": 0.0}}}, "inbound_nodes": [[["dense_95", 0, 0, {}]]]}, {"name": "dense_52", "class_name": "Dense", "config": {"kernel_initializer": {"class_name": "VarianceScaling", "config": {"mode": "fan_avg", "seed": null, "distribution": "uniform", "scale": 1.0}}, "units": 30, "bias_initializer": {"class_name": "Zeros", "config": {}}, "activation": "relu", "bias_constraint": null, "name": "dense_52", "use_bias": true, "trainable": true, "activity_regularizer": null, "bias_regularizer": null, "kernel_constraint": null, "kernel_regularizer": {"class_name": "L1L2", "config": {"l2": 4.999999873689376e-06, "l1": 0.0}}}, "inbound_nodes": [[["dense_51", 0, 0, {}]]]}, {"name": "dense_55", "class_name": "Dense", "config": {"kernel_initializer": {"class_name": "VarianceScaling", "config": {"mode": "fan_avg", "seed": null, "distribution": "uniform", "scale": 1.0}}, "units": 20, "bias_initializer": {"class_name": "Zeros", "config": {}}, "activation": "relu", "bias_constraint": null, "name": "dense_55", "use_bias": true, "trainable": true, "activity_regularizer": null, "bias_regularizer": null, "kernel_constraint": null, "kernel_regularizer": {"class_name": "L1L2", "config": {"l2": 4.999999873689376e-06, "l1": 0.0}}}, "inbound_nodes": [[["dense_54", 0, 0, {}]]]}, {"name": "dense_59", "class_name": "Dense", "config": {"kernel_initializer": {"class_name": "VarianceScaling", "config": {"mode": "fan_avg", "seed": null, "distribution": "uniform", "scale": 1.0}}, "units": 30, "bias_initializer": {"class_name": "Zeros", "config": {}}, "activation": "relu", "bias_constraint": null, "name": "dense_59", "use_bias": true, "trainable": true, "activity_regularizer": null, "bias_regularizer": null, "kernel_constraint": null, "kernel_regularizer": {"class_name": "L1L2", "config": {"l2": 4.999999873689376e-06, "l1": 0.0}}}, "inbound_nodes": [[["dense_58", 0, 0, {}]]]}, {"name": "dense_62", "class_name": "Dense", "config": {"kernel_initializer": {"class_name": "VarianceScaling", "config": {"mode": "fan_avg", "seed": null, "distribution": "uniform", "scale": 1.0}}, "units": 20, "bias_initializer": {"class_name": "Zeros", "config": {}}, "activation": "relu", "bias_constraint": null, "name": "dense_62", "use_bias": true, "trainable": true, "activity_regularizer": null, "bias_regularizer": null, "kernel_constraint": null, "kernel_regularizer": {"class_name": "L1L2", "config": {"l2": 4.999999873689376e-06, "l1": 0.0}}}, "inbound_nodes": [[["dense_61", 0, 0, {}]]]}, {"name": "dense_66", "class_name": "Dense", "config": {"kernel_initializer": {"class_name": "VarianceScaling", "config": {"mode": "fan_avg", "seed": null, "distribution": "uniform", "scale": 1.0}}, "units": 30, "bias_initializer": {"class_name": "Zeros", "config": {}}, "activation": "relu", "bias_constraint": null, "name": "dense_66", "use_bias": true, "trainable": true, "activity_regularizer": null, "bias_regularizer": null, "kernel_constraint": null, "kernel_regularizer": {"class_name": "L1L2", "config": {"l2": 4.999999873689376e-06, "l1": 0.0}}}, "inbound_nodes": [[["dense_65", 0, 0, {}]]]}, {"name": "dense_69", "class_name": "Dense", "config": {"kernel_initializer": {"class_name": "VarianceScaling", "config": {"mode": "fan_avg", "seed": null, "distribution": "uniform", "scale": 1.0}}, "units": 20, "bias_initializer": {"class_name": "Zeros", "config": {}}, "activation": "relu", "bias_constraint": null, "name": "dense_69", "use_bias": true, "trainable": true, "activity_regularizer": null, "bias_regularizer": null, "kernel_constraint": null, "kernel_regularizer": {"class_name": "L1L2", "config": {"l2": 4.999999873689376e-06, "l1": 0.0}}}, "inbound_nodes": [[["dense_68", 0, 0, {}]]]}, {"name": "dense_73", "class_name": "Dense", "config": {"kernel_initializer": {"class_name": "VarianceScaling", "config": {"mode": "fan_avg", "seed": null, "distribution": "uniform", "scale": 1.0}}, "units": 30, "bias_initializer": {"class_name": "Zeros", "config": {}}, "activation": "relu", "bias_constraint": null, "name": "dense_73", "use_bias": true, "trainable": true, "activity_regularizer": null, "bias_regularizer": null, "kernel_constraint": null, "kernel_regularizer": {"class_name": "L1L2", "config": {"l2": 4.999999873689376e-06, "l1": 0.0}}}, "inbound_nodes": [[["dense_72", 0, 0, {}]]]}, {"name": "dense_76", "class_name": "Dense", "config": {"kernel_initializer": {"class_name": "VarianceScaling", "config": {"mode": "fan_avg", "seed": null, "distribution": "uniform", "scale": 1.0}}, "units": 20, "bias_initializer": {"class_name": "Zeros", "config": {}}, "activation": "relu", "bias_constraint": null, "name": "dense_76", "use_bias": true, "trainable": true, "activity_regularizer": null, "bias_regularizer": null, "kernel_constraint": null, "kernel_regularizer": {"class_name": "L1L2", "config": {"l2": 4.999999873689376e-06, "l1": 0.0}}}, "inbound_nodes": [[["dense_75", 0, 0, {}]]]}, {"name": "dense_80", "class_name": "Dense", "config": {"kernel_initializer": {"class_name": "VarianceScaling", "config": {"mode": "fan_avg", "seed": null, "distribution": "uniform", "scale": 1.0}}, "units": 30, "bias_initializer": {"class_name": "Zeros", "config": {}}, "activation": "relu", "bias_constraint": null, "name": "dense_80", "use_bias": true, "trainable": true, "activity_regularizer": null, "bias_regularizer": null, "kernel_constraint": null, "kernel_regularizer": {"class_name": "L1L2", "config": {"l2": 4.999999873689376e-06, "l1": 0.0}}}, "inbound_nodes": [[["dense_79", 0, 0, {}]]]}, {"name": "dense_83", "class_name": "Dense", "config": {"kernel_initializer": {"class_name": "VarianceScaling", "config": {"mode": "fan_avg", "seed": null, "distribution": "uniform", "scale": 1.0}}, "units": 20, "bias_initializer": {"class_name": "Zeros", "config": {}}, "activation": "relu", "bias_constraint": null, "name": "dense_83", "use_bias": true, "trainable": true, "activity_regularizer": null, "bias_regularizer": null, "kernel_constraint": null, "kernel_regularizer": {"class_name": "L1L2", "config": {"l2": 4.999999873689376e-06, "l1": 0.0}}}, "inbound_nodes": [[["dense_82", 0, 0, {}]]]}, {"name": "dense_87", "class_name": "Dense", "config": {"kernel_initializer": {"class_name": "VarianceScaling", "config": {"mode": "fan_avg", "seed": null, "distribution": "uniform", "scale": 1.0}}, "units": 30, "bias_initializer": {"class_name": "Zeros", "config": {}}, "activation": "relu", "bias_constraint": null, "name": "dense_87", "use_bias": true, "trainable": true, "activity_regularizer": null, "bias_regularizer": null, "kernel_constraint": null, "kernel_regularizer": {"class_name": "L1L2", "config": {"l2": 4.999999873689376e-06, "l1": 0.0}}}, "inbound_nodes": [[["dense_86", 0, 0, {}]]]}, {"name": "dense_90", "class_name": "Dense", "config": {"kernel_initializer": {"class_name": "VarianceScaling", "config": {"mode": "fan_avg", "seed": null, "distribution": "uniform", "scale": 1.0}}, "units": 20, "bias_initializer": {"class_name": "Zeros", "config": {}}, "activation": "relu", "bias_constraint": null, "name": "dense_90", "use_bias": true, "trainable": true, "activity_regularizer": null, "bias_regularizer": null, "kernel_constraint": null, "kernel_regularizer": {"class_name": "L1L2", "config": {"l2": 4.999999873689376e-06, "l1": 0.0}}}, "inbound_nodes": [[["dense_89", 0, 0, {}]]]}, {"name": "dense_94", "class_name": "Dense", "config": {"kernel_initializer": {"class_name": "VarianceScaling", "config": {"mode": "fan_avg", "seed": null, "distribution": "uniform", "scale": 1.0}}, "units": 30, "bias_initializer": {"class_name": "Zeros", "config": {}}, "activation": "relu", "bias_constraint": null, "name": "dense_94", "use_bias": true, "trainable": true, "activity_regularizer": null, "bias_regularizer": null, "kernel_constraint": null, "kernel_regularizer": {"class_name": "L1L2", "config": {"l2": 4.999999873689376e-06, "l1": 0.0}}}, "inbound_nodes": [[["dense_93", 0, 0, {}]]]}, {"name": "dense_97", "class_name": "Dense", "config": {"kernel_initializer": {"class_name": "VarianceScaling", "config": {"mode": "fan_avg", "seed": null, "distribution": "uniform", "scale": 1.0}}, "units": 20, "bias_initializer": {"class_name": "Zeros", "config": {}}, "activation": "relu", "bias_constraint": null, "name": "dense_97", "use_bias": true, "trainable": true, "activity_regularizer": null, "bias_regularizer": null, "kernel_constraint": null, "kernel_regularizer": {"class_name": "L1L2", "config": {"l2": 4.999999873689376e-06, "l1": 0.0}}}, "inbound_nodes": [[["dense_96", 0, 0, {}]]]}, {"name": "concatenate_8", "class_name": "Concatenate", "config": {"trainable": true, "name": "concatenate_8", "axis": -1}, "inbound_nodes": [[["dense_52", 0, 0, {}], ["dense_55", 0, 0, {}]]]}, {"name": "concatenate_9", "class_name": "Concatenate", "config": {"trainable": true, "name": "concatenate_9", "axis": -1}, "inbound_nodes": [[["dense_59", 0, 0, {}], ["dense_62", 0, 0, {}]]]}, {"name": "concatenate_10", "class_name": "Concatenate", "config": {"trainable": true, "name": "concatenate_10", "axis": -1}, "inbound_nodes": [[["dense_66", 0, 0, {}], ["dense_69", 0, 0, {}]]]}, {"name": "concatenate_11", "class_name": "Concatenate", "config": {"trainable": true, "name": "concatenate_11", "axis": -1}, "inbound_nodes": [[["dense_73", 0, 0, {}], ["dense_76", 0, 0, {}]]]}, {"name": "concatenate_12", "class_name": "Concatenate", "config": {"trainable": true, "name": "concatenate_12", "axis": -1}, "inbound_nodes": [[["dense_80", 0, 0, {}], ["dense_83", 0, 0, {}]]]}, {"name": "concatenate_13", "class_name": "Concatenate", "config": {"trainable": true, "name": "concatenate_13", "axis": -1}, "inbound_nodes": [[["dense_87", 0, 0, {}], ["dense_90", 0, 0, {}]]]}, {"name": "concatenate_14", "class_name": "Concatenate", "config": {"trainable": true, "name": "concatenate_14", "axis": -1}, "inbound_nodes": [[["dense_94", 0, 0, {}], ["dense_97", 0, 0, {}]]]}, {"name": "OnOff_C1", "class_name": "InputLayer", "config": {"dtype": "float32", "sparse": false, "batch_input_shape": [null, 1], "name": "OnOff_C1"}, "inbound_nodes": []}, {"name": "dense_56", "class_name": "Dense", "config": {"kernel_initializer": {"class_name": "VarianceScaling", "config": {"mode": "fan_avg", "seed": null, "distribution": "uniform", "scale": 1.0}}, "units": 1, "bias_initializer": {"class_name": "Zeros", "config": {}}, "activation": "relu", "bias_constraint": null, "name": "dense_56", "use_bias": true, "trainable": true, "activity_regularizer": null, "bias_regularizer": null, "kernel_constraint": null, "kernel_regularizer": {"class_name": "L1L2", "config": {"l2": 4.999999873689376e-06, "l1": 0.0}}}, "inbound_nodes": [[["concatenate_8", 0, 0, {}]]]}, {"name": "OnOff_C2", "class_name": "InputLayer", "config": {"dtype": "float32", "sparse": false, "batch_input_shape": [null, 1], "name": "OnOff_C2"}, "inbound_nodes": []}, {"name": "dense_63", "class_name": "Dense", "config": {"kernel_initializer": {"class_name": "VarianceScaling", "config": {"mode": "fan_avg", "seed": null, "distribution": "uniform", "scale": 1.0}}, "units": 1, "bias_initializer": {"class_name": "Zeros", "config": {}}, "activation": "relu", "bias_constraint": null, "name": "dense_63", "use_bias": true, "trainable": true, "activity_regularizer": null, "bias_regularizer": null, "kernel_constraint": null, "kernel_regularizer": {"class_name": "L1L2", "config": {"l2": 4.999999873689376e-06, "l1": 0.0}}}, "inbound_nodes": [[["concatenate_9", 0, 0, {}]]]}, {"name": "OnOff_C3", "class_name": "InputLayer", "config": {"dtype": "float32", "sparse": false, "batch_input_shape": [null, 1], "name": "OnOff_C3"}, "inbound_nodes": []}, {"name": "dense_70", "class_name": "Dense", "config": {"kernel_initializer": {"class_name": "VarianceScaling", "config": {"mode": "fan_avg", "seed": null, "distribution": "uniform", "scale": 1.0}}, "units": 1, "bias_initializer": {"class_name": "Zeros", "config": {}}, "activation": "relu", "bias_constraint": null, "name": "dense_70", "use_bias": true, "trainable": true, "activity_regularizer": null, "bias_regularizer": null, "kernel_constraint": null, "kernel_regularizer": {"class_name": "L1L2", "config": {"l2": 4.999999873689376e-06, "l1": 0.0}}}, "inbound_nodes": [[["concatenate_10", 0, 0, {}]]]}, {"name": "OnOff_C4", "class_name": "InputLayer", "config": {"dtype": "float32", "sparse": false, "batch_input_shape": [null, 1], "name": "OnOff_C4"}, "inbound_nodes": []}, {"name": "dense_77", "class_name": "Dense", "config": {"kernel_initializer": {"class_name": "VarianceScaling", "config": {"mode": "fan_avg", "seed": null, "distribution": "uniform", "scale": 1.0}}, "units": 1, "bias_initializer": {"class_name": "Zeros", "config": {}}, "activation": "relu", "bias_constraint": null, "name": "dense_77", "use_bias": true, "trainable": true, "activity_regularizer": null, "bias_regularizer": null, "kernel_constraint": null, "kernel_regularizer": {"class_name": "L1L2", "config": {"l2": 4.999999873689376e-06, "l1": 0.0}}}, "inbound_nodes": [[["concatenate_11", 0, 0, {}]]]}, {"name": "OnOff_B1", "class_name": "InputLayer", "config": {"dtype": "float32", "sparse": false, "batch_input_shape": [null, 1], "name": "OnOff_B1"}, "inbound_nodes": []}, {"name": "dense_84", "class_name": "Dense", "config": {"kernel_initializer": {"class_name": "VarianceScaling", "config": {"mode": "fan_avg", "seed": null, "distribution": "uniform", "scale": 1.0}}, "units": 1, "bias_initializer": {"class_name": "Zeros", "config": {}}, "activation": "relu", "bias_constraint": null, "name": "dense_84", "use_bias": true, "trainable": true, "activity_regularizer": null, "bias_regularizer": null, "kernel_constraint": null, "kernel_regularizer": {"class_name": "L1L2", "config": {"l2": 4.999999873689376e-06, "l1": 0.0}}}, "inbound_nodes": [[["concatenate_12", 0, 0, {}]]]}, {"name": "OnOff_B3", "class_name": "InputLayer", "config": {"dtype": "float32", "sparse": false, "batch_input_shape": [null, 1], "name": "OnOff_B3"}, "inbound_nodes": []}, {"name": "dense_91", "class_name": "Dense", "config": {"kernel_initializer": {"class_name": "VarianceScaling", "config": {"mode": "fan_avg", "seed": null, "distribution": "uniform", "scale": 1.0}}, "units": 1, "bias_initializer": {"class_name": "Zeros", "config": {}}, "activation": "relu", "bias_constraint": null, "name": "dense_91", "use_bias": true, "trainable": true, "activity_regularizer": null, "bias_regularizer": null, "kernel_constraint": null, "kernel_regularizer": {"class_name": "L1L2", "config": {"l2": 4.999999873689376e-06, "l1": 0.0}}}, "inbound_nodes": [[["concatenate_13", 0, 0, {}]]]}, {"name": "OnOff_D1", "class_name": "InputLayer", "config": {"dtype": "float32", "sparse": false, "batch_input_shape": [null, 1], "name": "OnOff_D1"}, "inbound_nodes": []}, {"name": "dense_98", "class_name": "Dense", "config": {"kernel_initializer": {"class_name": "VarianceScaling", "config": {"mode": "fan_avg", "seed": null, "distribution": "uniform", "scale": 1.0}}, "units": 1, "bias_initializer": {"class_name": "Zeros", "config": {}}, "activation": "relu", "bias_constraint": null, "name": "dense_98", "use_bias": true, "trainable": true, "activity_regularizer": null, "bias_regularizer": null, "kernel_constraint": null, "kernel_regularizer": {"class_name": "L1L2", "config": {"l2": 4.999999873689376e-06, "l1": 0.0}}}, "inbound_nodes": [[["concatenate_14", 0, 0, {}]]]}, {"name": "C1_out", "class_name": "Multiply", "config": {"trainable": true, "name": "C1_out"}, "inbound_nodes": [[["OnOff_C1", 0, 0, {}], ["dense_56", 0, 0, {}]]]}, {"name": "C2_out", "class_name": "Multiply", "config": {"trainable": true, "name": "C2_out"}, "inbound_nodes": [[["OnOff_C2", 0, 0, {}], ["dense_63", 0, 0, {}]]]}, {"name": "C3_out", "class_name": "Multiply", "config": {"trainable": true, "name": "C3_out"}, "inbound_nodes": [[["OnOff_C3", 0, 0, {}], ["dense_70", 0, 0, {}]]]}, {"name": "C4_out", "class_name": "Multiply", "config": {"trainable": true, "name": "C4_out"}, "inbound_nodes": [[["OnOff_C4", 0, 0, {}], ["dense_77", 0, 0, {}]]]}, {"name": "B1_out", "class_name": "Multiply", "config": {"trainable": true, "name": "B1_out"}, "inbound_nodes": [[["OnOff_B1", 0, 0, {}], ["dense_84", 0, 0, {}]]]}, {"name": "B3_out", "class_name": "Multiply", "config": {"trainable": true, "name": "B3_out"}, "inbound_nodes": [[["OnOff_B3", 0, 0, {}], ["dense_91", 0, 0, {}]]]}, {"name": "D1_out", "class_name": "Multiply", "config": {"trainable": true, "name": "D1_out"}, "inbound_nodes": [[["OnOff_D1", 0, 0, {}], ["dense_98", 0, 0, {}]]]}, {"name": "GJOA_TOTAL", "class_name": "Add", "config": {"trainable": true, "name": "GJOA_TOTAL"}, "inbound_nodes": [[["C1_out", 0, 0, {}], ["C2_out", 0, 0, {}], ["C3_out", 0, 0, {}], ["C4_out", 0, 0, {}], ["B1_out", 0, 0, {}], ["B3_out", 0, 0, {}], ["D1_out", 0, 0, {}]]]}]}}