{"class_name": "Model", "config": {"name": "model_2", "layers": [{"name": "F1", "class_name": "InputLayer", "config": {"batch_input_shape": [null, 4], "input_dtype": "float32", "sparse": false, "name": "F1"}, "inbound_nodes": []}, {"name": "B2", "class_name": "InputLayer", "config": {"batch_input_shape": [null, 4], "input_dtype": "float32", "sparse": false, "name": "B2"}, "inbound_nodes": []}, {"name": "D3", "class_name": "InputLayer", "config": {"batch_input_shape": [null, 4], "input_dtype": "float32", "sparse": false, "name": "D3"}, "inbound_nodes": []}, {"name": "E1", "class_name": "InputLayer", "config": {"batch_input_shape": [null, 4], "input_dtype": "float32", "sparse": false, "name": "E1"}, "inbound_nodes": []}, {"name": "dense_9", "class_name": "Dense", "config": {"name": "dense_9", "trainable": true, "output_dim": 20, "init": "glorot_uniform", "activation": "relu", "W_regularizer": null, "b_regularizer": null, "activity_regularizer": null, "W_constraint": {"name": "MaxNorm", "m": 2, "axis": 0}, "b_constraint": null, "bias": true, "input_dim": 4}, "inbound_nodes": [[["F1", 0, 0]]]}, {"name": "dense_11", "class_name": "Dense", "config": {"name": "dense_11", "trainable": true, "output_dim": 20, "init": "glorot_uniform", "activation": "relu", "W_regularizer": null, "b_regularizer": null, "activity_regularizer": null, "W_constraint": {"name": "MaxNorm", "m": 2, "axis": 0}, "b_constraint": null, "bias": true, "input_dim": 4}, "inbound_nodes": [[["B2", 0, 0]]]}, {"name": "dense_13", "class_name": "Dense", "config": {"name": "dense_13", "trainable": true, "output_dim": 20, "init": "glorot_uniform", "activation": "relu", "W_regularizer": null, "b_regularizer": null, "activity_regularizer": null, "W_constraint": {"name": "MaxNorm", "m": 2, "axis": 0}, "b_constraint": null, "bias": true, "input_dim": 4}, "inbound_nodes": [[["D3", 0, 0]]]}, {"name": "dense_15", "class_name": "Dense", "config": {"name": "dense_15", "trainable": true, "output_dim": 20, "init": "glorot_uniform", "activation": "relu", "W_regularizer": null, "b_regularizer": null, "activity_regularizer": null, "W_constraint": {"name": "MaxNorm", "m": 2, "axis": 0}, "b_constraint": null, "bias": true, "input_dim": 4}, "inbound_nodes": [[["E1", 0, 0]]]}, {"name": "OnOff_F1", "class_name": "InputLayer", "config": {"batch_input_shape": [null, 1], "input_dtype": "float32", "sparse": false, "name": "OnOff_F1"}, "inbound_nodes": []}, {"name": "dense_10", "class_name": "Dense", "config": {"name": "dense_10", "trainable": true, "output_dim": 1, "init": "glorot_uniform", "activation": "relu", "W_regularizer": null, "b_regularizer": null, "activity_regularizer": null, "W_constraint": {"name": "MaxNorm", "m": 2, "axis": 0}, "b_constraint": null, "bias": true, "input_dim": 20}, "inbound_nodes": [[["dense_9", 0, 0]]]}, {"name": "OnOff_B2", "class_name": "InputLayer", "config": {"batch_input_shape": [null, 1], "input_dtype": "float32", "sparse": false, "name": "OnOff_B2"}, "inbound_nodes": []}, {"name": "dense_12", "class_name": "Dense", "config": {"name": "dense_12", "trainable": true, "output_dim": 1, "init": "glorot_uniform", "activation": "relu", "W_regularizer": null, "b_regularizer": null, "activity_regularizer": null, "W_constraint": {"name": "MaxNorm", "m": 2, "axis": 0}, "b_constraint": null, "bias": true, "input_dim": 20}, "inbound_nodes": [[["dense_11", 0, 0]]]}, {"name": "OnOff_D3", "class_name": "InputLayer", "config": {"batch_input_shape": [null, 1], "input_dtype": "float32", "sparse": false, "name": "OnOff_D3"}, "inbound_nodes": []}, {"name": "dense_14", "class_name": "Dense", "config": {"name": "dense_14", "trainable": true, "output_dim": 1, "init": "glorot_uniform", "activation": "relu", "W_regularizer": null, "b_regularizer": null, "activity_regularizer": null, "W_constraint": {"name": "MaxNorm", "m": 2, "axis": 0}, "b_constraint": null, "bias": true, "input_dim": 20}, "inbound_nodes": [[["dense_13", 0, 0]]]}, {"name": "OnOff_E1", "class_name": "InputLayer", "config": {"batch_input_shape": [null, 1], "input_dtype": "float32", "sparse": false, "name": "OnOff_E1"}, "inbound_nodes": []}, {"name": "dense_16", "class_name": "Dense", "config": {"name": "dense_16", "trainable": true, "output_dim": 1, "init": "glorot_uniform", "activation": "relu", "W_regularizer": null, "b_regularizer": null, "activity_regularizer": null, "W_constraint": {"name": "MaxNorm", "m": 2, "axis": 0}, "b_constraint": null, "bias": true, "input_dim": 20}, "inbound_nodes": [[["dense_15", 0, 0]]]}, {"name": "F1_out", "class_name": "Merge", "config": {"name": "F1_out", "mode": "mul", "mode_type": "raw", "concat_axis": -1, "dot_axes": -1, "output_shape": null, "output_shape_type": "raw", "output_mask": null, "output_mask_type": "raw", "arguments": {}}, "inbound_nodes": [[["OnOff_F1", 0, 0], ["dense_10", 0, 0]]]}, {"name": "B2_out", "class_name": "Merge", "config": {"name": "B2_out", "mode": "mul", "mode_type": "raw", "concat_axis": -1, "dot_axes": -1, "output_shape": null, "output_shape_type": "raw", "output_mask": null, "output_mask_type": "raw", "arguments": {}}, "inbound_nodes": [[["OnOff_B2", 0, 0], ["dense_12", 0, 0]]]}, {"name": "D3_out", "class_name": "Merge", "config": {"name": "D3_out", "mode": "mul", "mode_type": "raw", "concat_axis": -1, "dot_axes": -1, "output_shape": null, "output_shape_type": "raw", "output_mask": null, "output_mask_type": "raw", "arguments": {}}, "inbound_nodes": [[["OnOff_D3", 0, 0], ["dense_14", 0, 0]]]}, {"name": "E1_out", "class_name": "Merge", "config": {"name": "E1_out", "mode": "mul", "mode_type": "raw", "concat_axis": -1, "dot_axes": -1, "output_shape": null, "output_shape_type": "raw", "output_mask": null, "output_mask_type": "raw", "arguments": {}}, "inbound_nodes": [[["OnOff_E1", 0, 0], ["dense_16", 0, 0]]]}, {"name": "GJOA_QGAS", "class_name": "Merge", "config": {"name": "GJOA_QGAS", "mode": "sum", "mode_type": "raw", "concat_axis": -1, "dot_axes": -1, "output_shape": null, "output_shape_type": "raw", "output_mask": null, "output_mask_type": "raw", "arguments": {}}, "inbound_nodes": [[["F1_out", 0, 0], ["B2_out", 0, 0], ["D3_out", 0, 0], ["E1_out", 0, 0]]]}], "input_layers": [["F1", 0, 0], ["B2", 0, 0], ["D3", 0, 0], ["E1", 0, 0], ["OnOff_F1", 0, 0], ["OnOff_B2", 0, 0], ["OnOff_D3", 0, 0], ["OnOff_E1", 0, 0]], "output_layers": [["F1_out", 0, 0], ["B2_out", 0, 0], ["D3_out", 0, 0], ["E1_out", 0, 0], ["GJOA_QGAS", 0, 0]]}, "keras_version": "1.2.1"}