{"keras_version": "2.0.1", "config": {"name": "model_2", "output_layers": [["C1_out", 0, 0], ["C2_out", 0, 0], ["C3_out", 0, 0], ["C4_out", 0, 0], ["B1_out", 0, 0], ["B3_out", 0, 0], ["D1_out", 0, 0], ["GJOA_TOTAL", 0, 0]], "layers": [{"class_name": "InputLayer", "name": "C1", "inbound_nodes": [], "config": {"batch_input_shape": [null, 4], "dtype": "float32", "sparse": false, "name": "C1"}}, {"class_name": "InputLayer", "name": "C2", "inbound_nodes": [], "config": {"batch_input_shape": [null, 3], "dtype": "float32", "sparse": false, "name": "C2"}}, {"class_name": "InputLayer", "name": "C3", "inbound_nodes": [], "config": {"batch_input_shape": [null, 4], "dtype": "float32", "sparse": false, "name": "C3"}}, {"class_name": "InputLayer", "name": "C4", "inbound_nodes": [], "config": {"batch_input_shape": [null, 4], "dtype": "float32", "sparse": false, "name": "C4"}}, {"class_name": "InputLayer", "name": "B1", "inbound_nodes": [], "config": {"batch_input_shape": [null, 4], "dtype": "float32", "sparse": false, "name": "B1"}}, {"class_name": "InputLayer", "name": "B3", "inbound_nodes": [], "config": {"batch_input_shape": [null, 4], "dtype": "float32", "sparse": false, "name": "B3"}}, {"class_name": "InputLayer", "name": "D1", "inbound_nodes": [], "config": {"batch_input_shape": [null, 3], "dtype": "float32", "sparse": false, "name": "D1"}}, {"class_name": "Dense", "name": "dense_29", "inbound_nodes": [[["C1", 0, 0, {}]]], "config": {"kernel_regularizer": {"class_name": "L1L2", "config": {"l1": 0.0, "l2": 9.999999974752427e-07}}, "kernel_initializer": {"class_name": "VarianceScaling", "config": {"mode": "fan_avg", "scale": 1.0, "seed": 1024, "distribution": "uniform"}}, "trainable": true, "name": "dense_29", "bias_constraint": null, "units": 50, "bias_regularizer": null, "activation": "relu", "activity_regularizer": null, "bias_initializer": {"class_name": "Zeros", "config": {}}, "kernel_constraint": null, "use_bias": true}}, {"class_name": "Dense", "name": "dense_33", "inbound_nodes": [[["C2", 0, 0, {}]]], "config": {"kernel_regularizer": {"class_name": "L1L2", "config": {"l1": 0.0, "l2": 9.999999974752427e-07}}, "kernel_initializer": {"class_name": "VarianceScaling", "config": {"mode": "fan_avg", "scale": 1.0, "seed": 1024, "distribution": "uniform"}}, "trainable": true, "name": "dense_33", "bias_constraint": null, "units": 50, "bias_regularizer": null, "activation": "relu", "activity_regularizer": null, "bias_initializer": {"class_name": "Zeros", "config": {}}, "kernel_constraint": null, "use_bias": true}}, {"class_name": "Dense", "name": "dense_37", "inbound_nodes": [[["C3", 0, 0, {}]]], "config": {"kernel_regularizer": {"class_name": "L1L2", "config": {"l1": 0.0, "l2": 9.999999974752427e-07}}, "kernel_initializer": {"class_name": "VarianceScaling", "config": {"mode": "fan_avg", "scale": 1.0, "seed": 1024, "distribution": "uniform"}}, "trainable": true, "name": "dense_37", "bias_constraint": null, "units": 50, "bias_regularizer": null, "activation": "relu", "activity_regularizer": null, "bias_initializer": {"class_name": "Zeros", "config": {}}, "kernel_constraint": null, "use_bias": true}}, {"class_name": "Dense", "name": "dense_41", "inbound_nodes": [[["C4", 0, 0, {}]]], "config": {"kernel_regularizer": {"class_name": "L1L2", "config": {"l1": 0.0, "l2": 9.999999974752427e-07}}, "kernel_initializer": {"class_name": "VarianceScaling", "config": {"mode": "fan_avg", "scale": 1.0, "seed": 1024, "distribution": "uniform"}}, "trainable": true, "name": "dense_41", "bias_constraint": null, "units": 50, "bias_regularizer": null, "activation": "relu", "activity_regularizer": null, "bias_initializer": {"class_name": "Zeros", "config": {}}, "kernel_constraint": null, "use_bias": true}}, {"class_name": "Dense", "name": "dense_45", "inbound_nodes": [[["B1", 0, 0, {}]]], "config": {"kernel_regularizer": {"class_name": "L1L2", "config": {"l1": 0.0, "l2": 9.999999974752427e-07}}, "kernel_initializer": {"class_name": "VarianceScaling", "config": {"mode": "fan_avg", "scale": 1.0, "seed": 1024, "distribution": "uniform"}}, "trainable": true, "name": "dense_45", "bias_constraint": null, "units": 50, "bias_regularizer": null, "activation": "relu", "activity_regularizer": null, "bias_initializer": {"class_name": "Zeros", "config": {}}, "kernel_constraint": null, "use_bias": true}}, {"class_name": "Dense", "name": "dense_49", "inbound_nodes": [[["B3", 0, 0, {}]]], "config": {"kernel_regularizer": {"class_name": "L1L2", "config": {"l1": 0.0, "l2": 9.999999974752427e-07}}, "kernel_initializer": {"class_name": "VarianceScaling", "config": {"mode": "fan_avg", "scale": 1.0, "seed": 1024, "distribution": "uniform"}}, "trainable": true, "name": "dense_49", "bias_constraint": null, "units": 50, "bias_regularizer": null, "activation": "relu", "activity_regularizer": null, "bias_initializer": {"class_name": "Zeros", "config": {}}, "kernel_constraint": null, "use_bias": true}}, {"class_name": "Dense", "name": "dense_53", "inbound_nodes": [[["D1", 0, 0, {}]]], "config": {"kernel_regularizer": {"class_name": "L1L2", "config": {"l1": 0.0, "l2": 9.999999974752427e-07}}, "kernel_initializer": {"class_name": "VarianceScaling", "config": {"mode": "fan_avg", "scale": 1.0, "seed": 1024, "distribution": "uniform"}}, "trainable": true, "name": "dense_53", "bias_constraint": null, "units": 50, "bias_regularizer": null, "activation": "relu", "activity_regularizer": null, "bias_initializer": {"class_name": "Zeros", "config": {}}, "kernel_constraint": null, "use_bias": true}}, {"class_name": "Dense", "name": "dense_30", "inbound_nodes": [[["dense_29", 0, 0, {}]]], "config": {"kernel_regularizer": {"class_name": "L1L2", "config": {"l1": 0.0, "l2": 9.999999974752427e-07}}, "kernel_initializer": {"class_name": "VarianceScaling", "config": {"mode": "fan_avg", "scale": 1.0, "seed": 1024, "distribution": "uniform"}}, "trainable": true, "name": "dense_30", "bias_constraint": null, "units": 50, "bias_regularizer": null, "activation": "relu", "activity_regularizer": null, "bias_initializer": {"class_name": "Zeros", "config": {}}, "kernel_constraint": null, "use_bias": true}}, {"class_name": "Dense", "name": "dense_34", "inbound_nodes": [[["dense_33", 0, 0, {}]]], "config": {"kernel_regularizer": {"class_name": "L1L2", "config": {"l1": 0.0, "l2": 9.999999974752427e-07}}, "kernel_initializer": {"class_name": "VarianceScaling", "config": {"mode": "fan_avg", "scale": 1.0, "seed": 1024, "distribution": "uniform"}}, "trainable": true, "name": "dense_34", "bias_constraint": null, "units": 50, "bias_regularizer": null, "activation": "relu", "activity_regularizer": null, "bias_initializer": {"class_name": "Zeros", "config": {}}, "kernel_constraint": null, "use_bias": true}}, {"class_name": "Dense", "name": "dense_38", "inbound_nodes": [[["dense_37", 0, 0, {}]]], "config": {"kernel_regularizer": {"class_name": "L1L2", "config": {"l1": 0.0, "l2": 9.999999974752427e-07}}, "kernel_initializer": {"class_name": "VarianceScaling", "config": {"mode": "fan_avg", "scale": 1.0, "seed": 1024, "distribution": "uniform"}}, "trainable": true, "name": "dense_38", "bias_constraint": null, "units": 50, "bias_regularizer": null, "activation": "relu", "activity_regularizer": null, "bias_initializer": {"class_name": "Zeros", "config": {}}, "kernel_constraint": null, "use_bias": true}}, {"class_name": "Dense", "name": "dense_42", "inbound_nodes": [[["dense_41", 0, 0, {}]]], "config": {"kernel_regularizer": {"class_name": "L1L2", "config": {"l1": 0.0, "l2": 9.999999974752427e-07}}, "kernel_initializer": {"class_name": "VarianceScaling", "config": {"mode": "fan_avg", "scale": 1.0, "seed": 1024, "distribution": "uniform"}}, "trainable": true, "name": "dense_42", "bias_constraint": null, "units": 50, "bias_regularizer": null, "activation": "relu", "activity_regularizer": null, "bias_initializer": {"class_name": "Zeros", "config": {}}, "kernel_constraint": null, "use_bias": true}}, {"class_name": "Dense", "name": "dense_46", "inbound_nodes": [[["dense_45", 0, 0, {}]]], "config": {"kernel_regularizer": {"class_name": "L1L2", "config": {"l1": 0.0, "l2": 9.999999974752427e-07}}, "kernel_initializer": {"class_name": "VarianceScaling", "config": {"mode": "fan_avg", "scale": 1.0, "seed": 1024, "distribution": "uniform"}}, "trainable": true, "name": "dense_46", "bias_constraint": null, "units": 50, "bias_regularizer": null, "activation": "relu", "activity_regularizer": null, "bias_initializer": {"class_name": "Zeros", "config": {}}, "kernel_constraint": null, "use_bias": true}}, {"class_name": "Dense", "name": "dense_50", "inbound_nodes": [[["dense_49", 0, 0, {}]]], "config": {"kernel_regularizer": {"class_name": "L1L2", "config": {"l1": 0.0, "l2": 9.999999974752427e-07}}, "kernel_initializer": {"class_name": "VarianceScaling", "config": {"mode": "fan_avg", "scale": 1.0, "seed": 1024, "distribution": "uniform"}}, "trainable": true, "name": "dense_50", "bias_constraint": null, "units": 50, "bias_regularizer": null, "activation": "relu", "activity_regularizer": null, "bias_initializer": {"class_name": "Zeros", "config": {}}, "kernel_constraint": null, "use_bias": true}}, {"class_name": "Dense", "name": "dense_54", "inbound_nodes": [[["dense_53", 0, 0, {}]]], "config": {"kernel_regularizer": {"class_name": "L1L2", "config": {"l1": 0.0, "l2": 9.999999974752427e-07}}, "kernel_initializer": {"class_name": "VarianceScaling", "config": {"mode": "fan_avg", "scale": 1.0, "seed": 1024, "distribution": "uniform"}}, "trainable": true, "name": "dense_54", "bias_constraint": null, "units": 50, "bias_regularizer": null, "activation": "relu", "activity_regularizer": null, "bias_initializer": {"class_name": "Zeros", "config": {}}, "kernel_constraint": null, "use_bias": true}}, {"class_name": "Dense", "name": "dense_31", "inbound_nodes": [[["dense_30", 0, 0, {}]]], "config": {"kernel_regularizer": {"class_name": "L1L2", "config": {"l1": 0.0, "l2": 9.999999974752427e-07}}, "kernel_initializer": {"class_name": "VarianceScaling", "config": {"mode": "fan_avg", "scale": 1.0, "seed": 1024, "distribution": "uniform"}}, "trainable": true, "name": "dense_31", "bias_constraint": null, "units": 50, "bias_regularizer": null, "activation": "relu", "activity_regularizer": null, "bias_initializer": {"class_name": "Zeros", "config": {}}, "kernel_constraint": null, "use_bias": true}}, {"class_name": "Dense", "name": "dense_35", "inbound_nodes": [[["dense_34", 0, 0, {}]]], "config": {"kernel_regularizer": {"class_name": "L1L2", "config": {"l1": 0.0, "l2": 9.999999974752427e-07}}, "kernel_initializer": {"class_name": "VarianceScaling", "config": {"mode": "fan_avg", "scale": 1.0, "seed": 1024, "distribution": "uniform"}}, "trainable": true, "name": "dense_35", "bias_constraint": null, "units": 50, "bias_regularizer": null, "activation": "relu", "activity_regularizer": null, "bias_initializer": {"class_name": "Zeros", "config": {}}, "kernel_constraint": null, "use_bias": true}}, {"class_name": "Dense", "name": "dense_39", "inbound_nodes": [[["dense_38", 0, 0, {}]]], "config": {"kernel_regularizer": {"class_name": "L1L2", "config": {"l1": 0.0, "l2": 9.999999974752427e-07}}, "kernel_initializer": {"class_name": "VarianceScaling", "config": {"mode": "fan_avg", "scale": 1.0, "seed": 1024, "distribution": "uniform"}}, "trainable": true, "name": "dense_39", "bias_constraint": null, "units": 50, "bias_regularizer": null, "activation": "relu", "activity_regularizer": null, "bias_initializer": {"class_name": "Zeros", "config": {}}, "kernel_constraint": null, "use_bias": true}}, {"class_name": "Dense", "name": "dense_43", "inbound_nodes": [[["dense_42", 0, 0, {}]]], "config": {"kernel_regularizer": {"class_name": "L1L2", "config": {"l1": 0.0, "l2": 9.999999974752427e-07}}, "kernel_initializer": {"class_name": "VarianceScaling", "config": {"mode": "fan_avg", "scale": 1.0, "seed": 1024, "distribution": "uniform"}}, "trainable": true, "name": "dense_43", "bias_constraint": null, "units": 50, "bias_regularizer": null, "activation": "relu", "activity_regularizer": null, "bias_initializer": {"class_name": "Zeros", "config": {}}, "kernel_constraint": null, "use_bias": true}}, {"class_name": "Dense", "name": "dense_47", "inbound_nodes": [[["dense_46", 0, 0, {}]]], "config": {"kernel_regularizer": {"class_name": "L1L2", "config": {"l1": 0.0, "l2": 9.999999974752427e-07}}, "kernel_initializer": {"class_name": "VarianceScaling", "config": {"mode": "fan_avg", "scale": 1.0, "seed": 1024, "distribution": "uniform"}}, "trainable": true, "name": "dense_47", "bias_constraint": null, "units": 50, "bias_regularizer": null, "activation": "relu", "activity_regularizer": null, "bias_initializer": {"class_name": "Zeros", "config": {}}, "kernel_constraint": null, "use_bias": true}}, {"class_name": "Dense", "name": "dense_51", "inbound_nodes": [[["dense_50", 0, 0, {}]]], "config": {"kernel_regularizer": {"class_name": "L1L2", "config": {"l1": 0.0, "l2": 9.999999974752427e-07}}, "kernel_initializer": {"class_name": "VarianceScaling", "config": {"mode": "fan_avg", "scale": 1.0, "seed": 1024, "distribution": "uniform"}}, "trainable": true, "name": "dense_51", "bias_constraint": null, "units": 50, "bias_regularizer": null, "activation": "relu", "activity_regularizer": null, "bias_initializer": {"class_name": "Zeros", "config": {}}, "kernel_constraint": null, "use_bias": true}}, {"class_name": "Dense", "name": "dense_55", "inbound_nodes": [[["dense_54", 0, 0, {}]]], "config": {"kernel_regularizer": {"class_name": "L1L2", "config": {"l1": 0.0, "l2": 9.999999974752427e-07}}, "kernel_initializer": {"class_name": "VarianceScaling", "config": {"mode": "fan_avg", "scale": 1.0, "seed": 1024, "distribution": "uniform"}}, "trainable": true, "name": "dense_55", "bias_constraint": null, "units": 50, "bias_regularizer": null, "activation": "relu", "activity_regularizer": null, "bias_initializer": {"class_name": "Zeros", "config": {}}, "kernel_constraint": null, "use_bias": true}}, {"class_name": "InputLayer", "name": "OnOff_C1", "inbound_nodes": [], "config": {"batch_input_shape": [null, 1], "dtype": "float32", "sparse": false, "name": "OnOff_C1"}}, {"class_name": "Dense", "name": "dense_32", "inbound_nodes": [[["dense_31", 0, 0, {}]]], "config": {"kernel_regularizer": {"class_name": "L1L2", "config": {"l1": 0.0, "l2": 9.999999974752427e-07}}, "kernel_initializer": {"class_name": "VarianceScaling", "config": {"mode": "fan_avg", "scale": 1.0, "seed": 1024, "distribution": "uniform"}}, "trainable": true, "name": "dense_32", "bias_constraint": null, "units": 1, "bias_regularizer": null, "activation": "relu", "activity_regularizer": null, "bias_initializer": {"class_name": "Zeros", "config": {}}, "kernel_constraint": null, "use_bias": true}}, {"class_name": "InputLayer", "name": "OnOff_C2", "inbound_nodes": [], "config": {"batch_input_shape": [null, 1], "dtype": "float32", "sparse": false, "name": "OnOff_C2"}}, {"class_name": "Dense", "name": "dense_36", "inbound_nodes": [[["dense_35", 0, 0, {}]]], "config": {"kernel_regularizer": {"class_name": "L1L2", "config": {"l1": 0.0, "l2": 9.999999974752427e-07}}, "kernel_initializer": {"class_name": "VarianceScaling", "config": {"mode": "fan_avg", "scale": 1.0, "seed": 1024, "distribution": "uniform"}}, "trainable": true, "name": "dense_36", "bias_constraint": null, "units": 1, "bias_regularizer": null, "activation": "relu", "activity_regularizer": null, "bias_initializer": {"class_name": "Zeros", "config": {}}, "kernel_constraint": null, "use_bias": true}}, {"class_name": "InputLayer", "name": "OnOff_C3", "inbound_nodes": [], "config": {"batch_input_shape": [null, 1], "dtype": "float32", "sparse": false, "name": "OnOff_C3"}}, {"class_name": "Dense", "name": "dense_40", "inbound_nodes": [[["dense_39", 0, 0, {}]]], "config": {"kernel_regularizer": {"class_name": "L1L2", "config": {"l1": 0.0, "l2": 9.999999974752427e-07}}, "kernel_initializer": {"class_name": "VarianceScaling", "config": {"mode": "fan_avg", "scale": 1.0, "seed": 1024, "distribution": "uniform"}}, "trainable": true, "name": "dense_40", "bias_constraint": null, "units": 1, "bias_regularizer": null, "activation": "relu", "activity_regularizer": null, "bias_initializer": {"class_name": "Zeros", "config": {}}, "kernel_constraint": null, "use_bias": true}}, {"class_name": "InputLayer", "name": "OnOff_C4", "inbound_nodes": [], "config": {"batch_input_shape": [null, 1], "dtype": "float32", "sparse": false, "name": "OnOff_C4"}}, {"class_name": "Dense", "name": "dense_44", "inbound_nodes": [[["dense_43", 0, 0, {}]]], "config": {"kernel_regularizer": {"class_name": "L1L2", "config": {"l1": 0.0, "l2": 9.999999974752427e-07}}, "kernel_initializer": {"class_name": "VarianceScaling", "config": {"mode": "fan_avg", "scale": 1.0, "seed": 1024, "distribution": "uniform"}}, "trainable": true, "name": "dense_44", "bias_constraint": null, "units": 1, "bias_regularizer": null, "activation": "relu", "activity_regularizer": null, "bias_initializer": {"class_name": "Zeros", "config": {}}, "kernel_constraint": null, "use_bias": true}}, {"class_name": "InputLayer", "name": "OnOff_B1", "inbound_nodes": [], "config": {"batch_input_shape": [null, 1], "dtype": "float32", "sparse": false, "name": "OnOff_B1"}}, {"class_name": "Dense", "name": "dense_48", "inbound_nodes": [[["dense_47", 0, 0, {}]]], "config": {"kernel_regularizer": {"class_name": "L1L2", "config": {"l1": 0.0, "l2": 9.999999974752427e-07}}, "kernel_initializer": {"class_name": "VarianceScaling", "config": {"mode": "fan_avg", "scale": 1.0, "seed": 1024, "distribution": "uniform"}}, "trainable": true, "name": "dense_48", "bias_constraint": null, "units": 1, "bias_regularizer": null, "activation": "relu", "activity_regularizer": null, "bias_initializer": {"class_name": "Zeros", "config": {}}, "kernel_constraint": null, "use_bias": true}}, {"class_name": "InputLayer", "name": "OnOff_B3", "inbound_nodes": [], "config": {"batch_input_shape": [null, 1], "dtype": "float32", "sparse": false, "name": "OnOff_B3"}}, {"class_name": "Dense", "name": "dense_52", "inbound_nodes": [[["dense_51", 0, 0, {}]]], "config": {"kernel_regularizer": {"class_name": "L1L2", "config": {"l1": 0.0, "l2": 9.999999974752427e-07}}, "kernel_initializer": {"class_name": "VarianceScaling", "config": {"mode": "fan_avg", "scale": 1.0, "seed": 1024, "distribution": "uniform"}}, "trainable": true, "name": "dense_52", "bias_constraint": null, "units": 1, "bias_regularizer": null, "activation": "relu", "activity_regularizer": null, "bias_initializer": {"class_name": "Zeros", "config": {}}, "kernel_constraint": null, "use_bias": true}}, {"class_name": "InputLayer", "name": "OnOff_D1", "inbound_nodes": [], "config": {"batch_input_shape": [null, 1], "dtype": "float32", "sparse": false, "name": "OnOff_D1"}}, {"class_name": "Dense", "name": "dense_56", "inbound_nodes": [[["dense_55", 0, 0, {}]]], "config": {"kernel_regularizer": {"class_name": "L1L2", "config": {"l1": 0.0, "l2": 9.999999974752427e-07}}, "kernel_initializer": {"class_name": "VarianceScaling", "config": {"mode": "fan_avg", "scale": 1.0, "seed": 1024, "distribution": "uniform"}}, "trainable": true, "name": "dense_56", "bias_constraint": null, "units": 1, "bias_regularizer": null, "activation": "relu", "activity_regularizer": null, "bias_initializer": {"class_name": "Zeros", "config": {}}, "kernel_constraint": null, "use_bias": true}}, {"class_name": "Multiply", "name": "C1_out", "inbound_nodes": [[["OnOff_C1", 0, 0, {}], ["dense_32", 0, 0, {}]]], "config": {"name": "C1_out", "trainable": true}}, {"class_name": "Multiply", "name": "C2_out", "inbound_nodes": [[["OnOff_C2", 0, 0, {}], ["dense_36", 0, 0, {}]]], "config": {"name": "C2_out", "trainable": true}}, {"class_name": "Multiply", "name": "C3_out", "inbound_nodes": [[["OnOff_C3", 0, 0, {}], ["dense_40", 0, 0, {}]]], "config": {"name": "C3_out", "trainable": true}}, {"class_name": "Multiply", "name": "C4_out", "inbound_nodes": [[["OnOff_C4", 0, 0, {}], ["dense_44", 0, 0, {}]]], "config": {"name": "C4_out", "trainable": true}}, {"class_name": "Multiply", "name": "B1_out", "inbound_nodes": [[["OnOff_B1", 0, 0, {}], ["dense_48", 0, 0, {}]]], "config": {"name": "B1_out", "trainable": true}}, {"class_name": "Multiply", "name": "B3_out", "inbound_nodes": [[["OnOff_B3", 0, 0, {}], ["dense_52", 0, 0, {}]]], "config": {"name": "B3_out", "trainable": true}}, {"class_name": "Multiply", "name": "D1_out", "inbound_nodes": [[["OnOff_D1", 0, 0, {}], ["dense_56", 0, 0, {}]]], "config": {"name": "D1_out", "trainable": true}}, {"class_name": "Add", "name": "GJOA_TOTAL", "inbound_nodes": [[["C1_out", 0, 0, {}], ["C2_out", 0, 0, {}], ["C3_out", 0, 0, {}], ["C4_out", 0, 0, {}], ["B1_out", 0, 0, {}], ["B3_out", 0, 0, {}], ["D1_out", 0, 0, {}]]], "config": {"name": "GJOA_TOTAL", "trainable": true}}], "input_layers": [["C1", 0, 0], ["C2", 0, 0], ["C3", 0, 0], ["C4", 0, 0], ["B1", 0, 0], ["B3", 0, 0], ["D1", 0, 0], ["OnOff_C1", 0, 0], ["OnOff_C2", 0, 0], ["OnOff_C3", 0, 0], ["OnOff_C4", 0, 0], ["OnOff_B1", 0, 0], ["OnOff_B3", 0, 0], ["OnOff_D1", 0, 0]]}, "backend": "theano", "class_name": "Model"}