{"class_name": "Model", "config": {"output_layers": [["C1_out", 0, 0], ["C2_out", 0, 0], ["C3_out", 0, 0], ["C4_out", 0, 0], ["B1_out", 0, 0], ["B3_out", 0, 0], ["D1_out", 0, 0], ["GJOA_TOTAL", 0, 0]], "name": "model_2", "input_layers": [["C1", 0, 0], ["C2", 0, 0], ["C3", 0, 0], ["C4", 0, 0], ["B1", 0, 0], ["B3", 0, 0], ["D1", 0, 0], ["OnOff_C1", 0, 0], ["OnOff_C2", 0, 0], ["OnOff_C3", 0, 0], ["OnOff_C4", 0, 0], ["OnOff_B1", 0, 0], ["OnOff_B3", 0, 0], ["OnOff_D1", 0, 0]], "layers": [{"class_name": "InputLayer", "name": "C1", "config": {"dtype": "float32", "name": "C1", "sparse": false, "batch_input_shape": [null, 4]}, "inbound_nodes": []}, {"class_name": "InputLayer", "name": "C2", "config": {"dtype": "float32", "name": "C2", "sparse": false, "batch_input_shape": [null, 3]}, "inbound_nodes": []}, {"class_name": "InputLayer", "name": "C3", "config": {"dtype": "float32", "name": "C3", "sparse": false, "batch_input_shape": [null, 4]}, "inbound_nodes": []}, {"class_name": "InputLayer", "name": "C4", "config": {"dtype": "float32", "name": "C4", "sparse": false, "batch_input_shape": [null, 4]}, "inbound_nodes": []}, {"class_name": "InputLayer", "name": "B1", "config": {"dtype": "float32", "name": "B1", "sparse": false, "batch_input_shape": [null, 4]}, "inbound_nodes": []}, {"class_name": "InputLayer", "name": "B3", "config": {"dtype": "float32", "name": "B3", "sparse": false, "batch_input_shape": [null, 4]}, "inbound_nodes": []}, {"class_name": "InputLayer", "name": "D1", "config": {"dtype": "float32", "name": "D1", "sparse": false, "batch_input_shape": [null, 3]}, "inbound_nodes": []}, {"class_name": "Dense", "name": "dense_22", "config": {"units": 50, "trainable": true, "activity_regularizer": null, "bias_constraint": null, "bias_regularizer": null, "kernel_constraint": null, "kernel_initializer": {"class_name": "VarianceScaling", "config": {"seed": 4783, "scale": 1.0, "mode": "fan_avg", "distribution": "normal"}}, "use_bias": true, "kernel_regularizer": {"class_name": "L1L2", "config": {"l2": 4.999999873689376e-06, "l1": 0.0}}, "bias_initializer": {"class_name": "Zeros", "config": {}}, "name": "dense_22", "activation": "relu"}, "inbound_nodes": [[["C1", 0, 0, {}]]]}, {"class_name": "Dense", "name": "dense_25", "config": {"units": 50, "trainable": true, "activity_regularizer": null, "bias_constraint": null, "bias_regularizer": null, "kernel_constraint": null, "kernel_initializer": {"class_name": "VarianceScaling", "config": {"seed": 4783, "scale": 1.0, "mode": "fan_avg", "distribution": "normal"}}, "use_bias": true, "kernel_regularizer": {"class_name": "L1L2", "config": {"l2": 4.999999873689376e-06, "l1": 0.0}}, "bias_initializer": {"class_name": "Zeros", "config": {}}, "name": "dense_25", "activation": "relu"}, "inbound_nodes": [[["C2", 0, 0, {}]]]}, {"class_name": "Dense", "name": "dense_28", "config": {"units": 50, "trainable": true, "activity_regularizer": null, "bias_constraint": null, "bias_regularizer": null, "kernel_constraint": null, "kernel_initializer": {"class_name": "VarianceScaling", "config": {"seed": 4783, "scale": 1.0, "mode": "fan_avg", "distribution": "normal"}}, "use_bias": true, "kernel_regularizer": {"class_name": "L1L2", "config": {"l2": 4.999999873689376e-06, "l1": 0.0}}, "bias_initializer": {"class_name": "Zeros", "config": {}}, "name": "dense_28", "activation": "relu"}, "inbound_nodes": [[["C3", 0, 0, {}]]]}, {"class_name": "Dense", "name": "dense_31", "config": {"units": 50, "trainable": true, "activity_regularizer": null, "bias_constraint": null, "bias_regularizer": null, "kernel_constraint": null, "kernel_initializer": {"class_name": "VarianceScaling", "config": {"seed": 4783, "scale": 1.0, "mode": "fan_avg", "distribution": "normal"}}, "use_bias": true, "kernel_regularizer": {"class_name": "L1L2", "config": {"l2": 4.999999873689376e-06, "l1": 0.0}}, "bias_initializer": {"class_name": "Zeros", "config": {}}, "name": "dense_31", "activation": "relu"}, "inbound_nodes": [[["C4", 0, 0, {}]]]}, {"class_name": "Dense", "name": "dense_34", "config": {"units": 50, "trainable": true, "activity_regularizer": null, "bias_constraint": null, "bias_regularizer": null, "kernel_constraint": null, "kernel_initializer": {"class_name": "VarianceScaling", "config": {"seed": 4783, "scale": 1.0, "mode": "fan_avg", "distribution": "normal"}}, "use_bias": true, "kernel_regularizer": {"class_name": "L1L2", "config": {"l2": 4.999999873689376e-06, "l1": 0.0}}, "bias_initializer": {"class_name": "Zeros", "config": {}}, "name": "dense_34", "activation": "relu"}, "inbound_nodes": [[["B1", 0, 0, {}]]]}, {"class_name": "Dense", "name": "dense_37", "config": {"units": 50, "trainable": true, "activity_regularizer": null, "bias_constraint": null, "bias_regularizer": null, "kernel_constraint": null, "kernel_initializer": {"class_name": "VarianceScaling", "config": {"seed": 4783, "scale": 1.0, "mode": "fan_avg", "distribution": "normal"}}, "use_bias": true, "kernel_regularizer": {"class_name": "L1L2", "config": {"l2": 4.999999873689376e-06, "l1": 0.0}}, "bias_initializer": {"class_name": "Zeros", "config": {}}, "name": "dense_37", "activation": "relu"}, "inbound_nodes": [[["B3", 0, 0, {}]]]}, {"class_name": "Dense", "name": "dense_40", "config": {"units": 50, "trainable": true, "activity_regularizer": null, "bias_constraint": null, "bias_regularizer": null, "kernel_constraint": null, "kernel_initializer": {"class_name": "VarianceScaling", "config": {"seed": 4783, "scale": 1.0, "mode": "fan_avg", "distribution": "normal"}}, "use_bias": true, "kernel_regularizer": {"class_name": "L1L2", "config": {"l2": 4.999999873689376e-06, "l1": 0.0}}, "bias_initializer": {"class_name": "Zeros", "config": {}}, "name": "dense_40", "activation": "relu"}, "inbound_nodes": [[["D1", 0, 0, {}]]]}, {"class_name": "Dense", "name": "dense_23", "config": {"units": 50, "trainable": true, "activity_regularizer": null, "bias_constraint": null, "bias_regularizer": null, "kernel_constraint": null, "kernel_initializer": {"class_name": "VarianceScaling", "config": {"seed": 4783, "scale": 1.0, "mode": "fan_avg", "distribution": "normal"}}, "use_bias": true, "kernel_regularizer": {"class_name": "L1L2", "config": {"l2": 4.999999873689376e-06, "l1": 0.0}}, "bias_initializer": {"class_name": "Zeros", "config": {}}, "name": "dense_23", "activation": "relu"}, "inbound_nodes": [[["dense_22", 0, 0, {}]]]}, {"class_name": "Dense", "name": "dense_26", "config": {"units": 50, "trainable": true, "activity_regularizer": null, "bias_constraint": null, "bias_regularizer": null, "kernel_constraint": null, "kernel_initializer": {"class_name": "VarianceScaling", "config": {"seed": 4783, "scale": 1.0, "mode": "fan_avg", "distribution": "normal"}}, "use_bias": true, "kernel_regularizer": {"class_name": "L1L2", "config": {"l2": 4.999999873689376e-06, "l1": 0.0}}, "bias_initializer": {"class_name": "Zeros", "config": {}}, "name": "dense_26", "activation": "relu"}, "inbound_nodes": [[["dense_25", 0, 0, {}]]]}, {"class_name": "Dense", "name": "dense_29", "config": {"units": 50, "trainable": true, "activity_regularizer": null, "bias_constraint": null, "bias_regularizer": null, "kernel_constraint": null, "kernel_initializer": {"class_name": "VarianceScaling", "config": {"seed": 4783, "scale": 1.0, "mode": "fan_avg", "distribution": "normal"}}, "use_bias": true, "kernel_regularizer": {"class_name": "L1L2", "config": {"l2": 4.999999873689376e-06, "l1": 0.0}}, "bias_initializer": {"class_name": "Zeros", "config": {}}, "name": "dense_29", "activation": "relu"}, "inbound_nodes": [[["dense_28", 0, 0, {}]]]}, {"class_name": "Dense", "name": "dense_32", "config": {"units": 50, "trainable": true, "activity_regularizer": null, "bias_constraint": null, "bias_regularizer": null, "kernel_constraint": null, "kernel_initializer": {"class_name": "VarianceScaling", "config": {"seed": 4783, "scale": 1.0, "mode": "fan_avg", "distribution": "normal"}}, "use_bias": true, "kernel_regularizer": {"class_name": "L1L2", "config": {"l2": 4.999999873689376e-06, "l1": 0.0}}, "bias_initializer": {"class_name": "Zeros", "config": {}}, "name": "dense_32", "activation": "relu"}, "inbound_nodes": [[["dense_31", 0, 0, {}]]]}, {"class_name": "Dense", "name": "dense_35", "config": {"units": 50, "trainable": true, "activity_regularizer": null, "bias_constraint": null, "bias_regularizer": null, "kernel_constraint": null, "kernel_initializer": {"class_name": "VarianceScaling", "config": {"seed": 4783, "scale": 1.0, "mode": "fan_avg", "distribution": "normal"}}, "use_bias": true, "kernel_regularizer": {"class_name": "L1L2", "config": {"l2": 4.999999873689376e-06, "l1": 0.0}}, "bias_initializer": {"class_name": "Zeros", "config": {}}, "name": "dense_35", "activation": "relu"}, "inbound_nodes": [[["dense_34", 0, 0, {}]]]}, {"class_name": "Dense", "name": "dense_38", "config": {"units": 50, "trainable": true, "activity_regularizer": null, "bias_constraint": null, "bias_regularizer": null, "kernel_constraint": null, "kernel_initializer": {"class_name": "VarianceScaling", "config": {"seed": 4783, "scale": 1.0, "mode": "fan_avg", "distribution": "normal"}}, "use_bias": true, "kernel_regularizer": {"class_name": "L1L2", "config": {"l2": 4.999999873689376e-06, "l1": 0.0}}, "bias_initializer": {"class_name": "Zeros", "config": {}}, "name": "dense_38", "activation": "relu"}, "inbound_nodes": [[["dense_37", 0, 0, {}]]]}, {"class_name": "Dense", "name": "dense_41", "config": {"units": 50, "trainable": true, "activity_regularizer": null, "bias_constraint": null, "bias_regularizer": null, "kernel_constraint": null, "kernel_initializer": {"class_name": "VarianceScaling", "config": {"seed": 4783, "scale": 1.0, "mode": "fan_avg", "distribution": "normal"}}, "use_bias": true, "kernel_regularizer": {"class_name": "L1L2", "config": {"l2": 4.999999873689376e-06, "l1": 0.0}}, "bias_initializer": {"class_name": "Zeros", "config": {}}, "name": "dense_41", "activation": "relu"}, "inbound_nodes": [[["dense_40", 0, 0, {}]]]}, {"class_name": "InputLayer", "name": "OnOff_C1", "config": {"dtype": "float32", "name": "OnOff_C1", "sparse": false, "batch_input_shape": [null, 1]}, "inbound_nodes": []}, {"class_name": "Dense", "name": "dense_24", "config": {"units": 1, "trainable": true, "activity_regularizer": null, "bias_constraint": null, "bias_regularizer": null, "kernel_constraint": null, "kernel_initializer": {"class_name": "VarianceScaling", "config": {"seed": 4783, "scale": 1.0, "mode": "fan_avg", "distribution": "normal"}}, "use_bias": true, "kernel_regularizer": {"class_name": "L1L2", "config": {"l2": 4.999999873689376e-06, "l1": 0.0}}, "bias_initializer": {"class_name": "Zeros", "config": {}}, "name": "dense_24", "activation": "relu"}, "inbound_nodes": [[["dense_23", 0, 0, {}]]]}, {"class_name": "InputLayer", "name": "OnOff_C2", "config": {"dtype": "float32", "name": "OnOff_C2", "sparse": false, "batch_input_shape": [null, 1]}, "inbound_nodes": []}, {"class_name": "Dense", "name": "dense_27", "config": {"units": 1, "trainable": true, "activity_regularizer": null, "bias_constraint": null, "bias_regularizer": null, "kernel_constraint": null, "kernel_initializer": {"class_name": "VarianceScaling", "config": {"seed": 4783, "scale": 1.0, "mode": "fan_avg", "distribution": "normal"}}, "use_bias": true, "kernel_regularizer": {"class_name": "L1L2", "config": {"l2": 4.999999873689376e-06, "l1": 0.0}}, "bias_initializer": {"class_name": "Zeros", "config": {}}, "name": "dense_27", "activation": "relu"}, "inbound_nodes": [[["dense_26", 0, 0, {}]]]}, {"class_name": "InputLayer", "name": "OnOff_C3", "config": {"dtype": "float32", "name": "OnOff_C3", "sparse": false, "batch_input_shape": [null, 1]}, "inbound_nodes": []}, {"class_name": "Dense", "name": "dense_30", "config": {"units": 1, "trainable": true, "activity_regularizer": null, "bias_constraint": null, "bias_regularizer": null, "kernel_constraint": null, "kernel_initializer": {"class_name": "VarianceScaling", "config": {"seed": 4783, "scale": 1.0, "mode": "fan_avg", "distribution": "normal"}}, "use_bias": true, "kernel_regularizer": {"class_name": "L1L2", "config": {"l2": 4.999999873689376e-06, "l1": 0.0}}, "bias_initializer": {"class_name": "Zeros", "config": {}}, "name": "dense_30", "activation": "relu"}, "inbound_nodes": [[["dense_29", 0, 0, {}]]]}, {"class_name": "InputLayer", "name": "OnOff_C4", "config": {"dtype": "float32", "name": "OnOff_C4", "sparse": false, "batch_input_shape": [null, 1]}, "inbound_nodes": []}, {"class_name": "Dense", "name": "dense_33", "config": {"units": 1, "trainable": true, "activity_regularizer": null, "bias_constraint": null, "bias_regularizer": null, "kernel_constraint": null, "kernel_initializer": {"class_name": "VarianceScaling", "config": {"seed": 4783, "scale": 1.0, "mode": "fan_avg", "distribution": "normal"}}, "use_bias": true, "kernel_regularizer": {"class_name": "L1L2", "config": {"l2": 4.999999873689376e-06, "l1": 0.0}}, "bias_initializer": {"class_name": "Zeros", "config": {}}, "name": "dense_33", "activation": "relu"}, "inbound_nodes": [[["dense_32", 0, 0, {}]]]}, {"class_name": "InputLayer", "name": "OnOff_B1", "config": {"dtype": "float32", "name": "OnOff_B1", "sparse": false, "batch_input_shape": [null, 1]}, "inbound_nodes": []}, {"class_name": "Dense", "name": "dense_36", "config": {"units": 1, "trainable": true, "activity_regularizer": null, "bias_constraint": null, "bias_regularizer": null, "kernel_constraint": null, "kernel_initializer": {"class_name": "VarianceScaling", "config": {"seed": 4783, "scale": 1.0, "mode": "fan_avg", "distribution": "normal"}}, "use_bias": true, "kernel_regularizer": {"class_name": "L1L2", "config": {"l2": 4.999999873689376e-06, "l1": 0.0}}, "bias_initializer": {"class_name": "Zeros", "config": {}}, "name": "dense_36", "activation": "relu"}, "inbound_nodes": [[["dense_35", 0, 0, {}]]]}, {"class_name": "InputLayer", "name": "OnOff_B3", "config": {"dtype": "float32", "name": "OnOff_B3", "sparse": false, "batch_input_shape": [null, 1]}, "inbound_nodes": []}, {"class_name": "Dense", "name": "dense_39", "config": {"units": 1, "trainable": true, "activity_regularizer": null, "bias_constraint": null, "bias_regularizer": null, "kernel_constraint": null, "kernel_initializer": {"class_name": "VarianceScaling", "config": {"seed": 4783, "scale": 1.0, "mode": "fan_avg", "distribution": "normal"}}, "use_bias": true, "kernel_regularizer": {"class_name": "L1L2", "config": {"l2": 4.999999873689376e-06, "l1": 0.0}}, "bias_initializer": {"class_name": "Zeros", "config": {}}, "name": "dense_39", "activation": "relu"}, "inbound_nodes": [[["dense_38", 0, 0, {}]]]}, {"class_name": "InputLayer", "name": "OnOff_D1", "config": {"dtype": "float32", "name": "OnOff_D1", "sparse": false, "batch_input_shape": [null, 1]}, "inbound_nodes": []}, {"class_name": "Dense", "name": "dense_42", "config": {"units": 1, "trainable": true, "activity_regularizer": null, "bias_constraint": null, "bias_regularizer": null, "kernel_constraint": null, "kernel_initializer": {"class_name": "VarianceScaling", "config": {"seed": 4783, "scale": 1.0, "mode": "fan_avg", "distribution": "normal"}}, "use_bias": true, "kernel_regularizer": {"class_name": "L1L2", "config": {"l2": 4.999999873689376e-06, "l1": 0.0}}, "bias_initializer": {"class_name": "Zeros", "config": {}}, "name": "dense_42", "activation": "relu"}, "inbound_nodes": [[["dense_41", 0, 0, {}]]]}, {"class_name": "Multiply", "name": "C1_out", "config": {"name": "C1_out", "trainable": true}, "inbound_nodes": [[["OnOff_C1", 0, 0, {}], ["dense_24", 0, 0, {}]]]}, {"class_name": "Multiply", "name": "C2_out", "config": {"name": "C2_out", "trainable": true}, "inbound_nodes": [[["OnOff_C2", 0, 0, {}], ["dense_27", 0, 0, {}]]]}, {"class_name": "Multiply", "name": "C3_out", "config": {"name": "C3_out", "trainable": true}, "inbound_nodes": [[["OnOff_C3", 0, 0, {}], ["dense_30", 0, 0, {}]]]}, {"class_name": "Multiply", "name": "C4_out", "config": {"name": "C4_out", "trainable": true}, "inbound_nodes": [[["OnOff_C4", 0, 0, {}], ["dense_33", 0, 0, {}]]]}, {"class_name": "Multiply", "name": "B1_out", "config": {"name": "B1_out", "trainable": true}, "inbound_nodes": [[["OnOff_B1", 0, 0, {}], ["dense_36", 0, 0, {}]]]}, {"class_name": "Multiply", "name": "B3_out", "config": {"name": "B3_out", "trainable": true}, "inbound_nodes": [[["OnOff_B3", 0, 0, {}], ["dense_39", 0, 0, {}]]]}, {"class_name": "Multiply", "name": "D1_out", "config": {"name": "D1_out", "trainable": true}, "inbound_nodes": [[["OnOff_D1", 0, 0, {}], ["dense_42", 0, 0, {}]]]}, {"class_name": "Add", "name": "GJOA_TOTAL", "config": {"name": "GJOA_TOTAL", "trainable": true}, "inbound_nodes": [[["C1_out", 0, 0, {}], ["C2_out", 0, 0, {}], ["C3_out", 0, 0, {}], ["C4_out", 0, 0, {}], ["B1_out", 0, 0, {}], ["B3_out", 0, 0, {}], ["D1_out", 0, 0, {}]]]}]}, "backend": "theano", "keras_version": "2.0.1"}