{"keras_version": "2.0.1", "backend": "theano", "class_name": "Model", "config": {"input_layers": [["PRESSURE_INPUT", 0, 0], ["RISER_B_CHK_INPUT", 0, 0], ["C1_CHK", 0, 0], ["OnOff_C1", 0, 0], ["C1_PBH_IN", 0, 0], ["C2_CHK", 0, 0], ["OnOff_C2", 0, 0], ["C3_CHK", 0, 0], ["OnOff_C3", 0, 0], ["C3_PBH_IN", 0, 0], ["C4_CHK", 0, 0], ["OnOff_C4", 0, 0], ["C4_PBH_IN", 0, 0], ["B1_CHK", 0, 0], ["OnOff_B1", 0, 0], ["B1_PBH_IN", 0, 0], ["B3_CHK", 0, 0], ["OnOff_B3", 0, 0], ["B3_PBH_IN", 0, 0], ["D1_CHK", 0, 0], ["OnOff_D1", 0, 0]], "layers": [{"inbound_nodes": [], "class_name": "InputLayer", "name": "PRESSURE_INPUT", "config": {"batch_input_shape": [null, 12], "sparse": false, "name": "PRESSURE_INPUT", "dtype": "float32"}}, {"inbound_nodes": [], "class_name": "InputLayer", "name": "RISER_B_CHK_INPUT", "config": {"batch_input_shape": [null, 1], "sparse": false, "name": "RISER_B_CHK_INPUT", "dtype": "float32"}}, {"inbound_nodes": [[["PRESSURE_INPUT", 0, 0, {}], ["RISER_B_CHK_INPUT", 0, 0, {}]]], "class_name": "Concatenate", "name": "RISER_MERGE", "config": {"trainable": true, "name": "RISER_MERGE", "axis": -1}}, {"inbound_nodes": [[["PRESSURE_INPUT", 0, 0, {}]]], "class_name": "Dense", "name": "C1_PWH_0", "config": {"kernel_initializer": {"class_name": "VarianceScaling", "config": {"mode": "fan_avg", "scale": 1.0, "distribution": "uniform", "seed": null}}, "bias_regularizer": null, "units": 50, "trainable": false, "bias_initializer": {"class_name": "Zeros", "config": {}}, "name": "C1_PWH_0", "use_bias": true, "activity_regularizer": null, "kernel_constraint": null, "kernel_regularizer": {"class_name": "L1L2", "config": {"l2": 9.999999747378752e-05, "l1": 0.0}}, "bias_constraint": null, "activation": "relu"}}, {"inbound_nodes": [[["RISER_MERGE", 0, 0, {}]]], "class_name": "Dense", "name": "C1_PDC_0", "config": {"kernel_initializer": {"class_name": "VarianceScaling", "config": {"mode": "fan_avg", "scale": 1.0, "distribution": "uniform", "seed": null}}, "bias_regularizer": null, "units": 50, "trainable": false, "bias_initializer": {"class_name": "Zeros", "config": {}}, "name": "C1_PDC_0", "use_bias": true, "activity_regularizer": null, "kernel_constraint": null, "kernel_regularizer": {"class_name": "L1L2", "config": {"l2": 9.999999747378752e-05, "l1": 0.0}}, "bias_constraint": null, "activation": "relu"}}, {"inbound_nodes": [[["PRESSURE_INPUT", 0, 0, {}]]], "class_name": "Dense", "name": "C2_PWH_0", "config": {"kernel_initializer": {"class_name": "VarianceScaling", "config": {"mode": "fan_avg", "scale": 1.0, "distribution": "uniform", "seed": null}}, "bias_regularizer": null, "units": 50, "trainable": false, "bias_initializer": {"class_name": "Zeros", "config": {}}, "name": "C2_PWH_0", "use_bias": true, "activity_regularizer": null, "kernel_constraint": null, "kernel_regularizer": {"class_name": "L1L2", "config": {"l2": 9.999999747378752e-05, "l1": 0.0}}, "bias_constraint": null, "activation": "relu"}}, {"inbound_nodes": [[["RISER_MERGE", 0, 0, {}]]], "class_name": "Dense", "name": "C2_PDC_0", "config": {"kernel_initializer": {"class_name": "VarianceScaling", "config": {"mode": "fan_avg", "scale": 1.0, "distribution": "uniform", "seed": null}}, "bias_regularizer": null, "units": 50, "trainable": false, "bias_initializer": {"class_name": "Zeros", "config": {}}, "name": "C2_PDC_0", "use_bias": true, "activity_regularizer": null, "kernel_constraint": null, "kernel_regularizer": {"class_name": "L1L2", "config": {"l2": 9.999999747378752e-05, "l1": 0.0}}, "bias_constraint": null, "activation": "relu"}}, {"inbound_nodes": [[["PRESSURE_INPUT", 0, 0, {}]]], "class_name": "Dense", "name": "C3_PWH_0", "config": {"kernel_initializer": {"class_name": "VarianceScaling", "config": {"mode": "fan_avg", "scale": 1.0, "distribution": "uniform", "seed": null}}, "bias_regularizer": null, "units": 50, "trainable": false, "bias_initializer": {"class_name": "Zeros", "config": {}}, "name": "C3_PWH_0", "use_bias": true, "activity_regularizer": null, "kernel_constraint": null, "kernel_regularizer": {"class_name": "L1L2", "config": {"l2": 9.999999747378752e-05, "l1": 0.0}}, "bias_constraint": null, "activation": "relu"}}, {"inbound_nodes": [[["RISER_MERGE", 0, 0, {}]]], "class_name": "Dense", "name": "C3_PDC_0", "config": {"kernel_initializer": {"class_name": "VarianceScaling", "config": {"mode": "fan_avg", "scale": 1.0, "distribution": "uniform", "seed": null}}, "bias_regularizer": null, "units": 50, "trainable": false, "bias_initializer": {"class_name": "Zeros", "config": {}}, "name": "C3_PDC_0", "use_bias": true, "activity_regularizer": null, "kernel_constraint": null, "kernel_regularizer": {"class_name": "L1L2", "config": {"l2": 9.999999747378752e-05, "l1": 0.0}}, "bias_constraint": null, "activation": "relu"}}, {"inbound_nodes": [[["PRESSURE_INPUT", 0, 0, {}]]], "class_name": "Dense", "name": "C4_PWH_0", "config": {"kernel_initializer": {"class_name": "VarianceScaling", "config": {"mode": "fan_avg", "scale": 1.0, "distribution": "uniform", "seed": null}}, "bias_regularizer": null, "units": 50, "trainable": false, "bias_initializer": {"class_name": "Zeros", "config": {}}, "name": "C4_PWH_0", "use_bias": true, "activity_regularizer": null, "kernel_constraint": null, "kernel_regularizer": {"class_name": "L1L2", "config": {"l2": 9.999999747378752e-05, "l1": 0.0}}, "bias_constraint": null, "activation": "relu"}}, {"inbound_nodes": [[["RISER_MERGE", 0, 0, {}]]], "class_name": "Dense", "name": "C4_PDC_0", "config": {"kernel_initializer": {"class_name": "VarianceScaling", "config": {"mode": "fan_avg", "scale": 1.0, "distribution": "uniform", "seed": null}}, "bias_regularizer": null, "units": 50, "trainable": false, "bias_initializer": {"class_name": "Zeros", "config": {}}, "name": "C4_PDC_0", "use_bias": true, "activity_regularizer": null, "kernel_constraint": null, "kernel_regularizer": {"class_name": "L1L2", "config": {"l2": 9.999999747378752e-05, "l1": 0.0}}, "bias_constraint": null, "activation": "relu"}}, {"inbound_nodes": [[["PRESSURE_INPUT", 0, 0, {}]]], "class_name": "Dense", "name": "B1_PWH_0", "config": {"kernel_initializer": {"class_name": "VarianceScaling", "config": {"mode": "fan_avg", "scale": 1.0, "distribution": "uniform", "seed": null}}, "bias_regularizer": null, "units": 50, "trainable": false, "bias_initializer": {"class_name": "Zeros", "config": {}}, "name": "B1_PWH_0", "use_bias": true, "activity_regularizer": null, "kernel_constraint": null, "kernel_regularizer": {"class_name": "L1L2", "config": {"l2": 9.999999747378752e-05, "l1": 0.0}}, "bias_constraint": null, "activation": "relu"}}, {"inbound_nodes": [[["RISER_MERGE", 0, 0, {}]]], "class_name": "Dense", "name": "B1_PDC_0", "config": {"kernel_initializer": {"class_name": "VarianceScaling", "config": {"mode": "fan_avg", "scale": 1.0, "distribution": "uniform", "seed": null}}, "bias_regularizer": null, "units": 50, "trainable": false, "bias_initializer": {"class_name": "Zeros", "config": {}}, "name": "B1_PDC_0", "use_bias": true, "activity_regularizer": null, "kernel_constraint": null, "kernel_regularizer": {"class_name": "L1L2", "config": {"l2": 9.999999747378752e-05, "l1": 0.0}}, "bias_constraint": null, "activation": "relu"}}, {"inbound_nodes": [[["PRESSURE_INPUT", 0, 0, {}]]], "class_name": "Dense", "name": "B3_PWH_0", "config": {"kernel_initializer": {"class_name": "VarianceScaling", "config": {"mode": "fan_avg", "scale": 1.0, "distribution": "uniform", "seed": null}}, "bias_regularizer": null, "units": 50, "trainable": false, "bias_initializer": {"class_name": "Zeros", "config": {}}, "name": "B3_PWH_0", "use_bias": true, "activity_regularizer": null, "kernel_constraint": null, "kernel_regularizer": {"class_name": "L1L2", "config": {"l2": 9.999999747378752e-05, "l1": 0.0}}, "bias_constraint": null, "activation": "relu"}}, {"inbound_nodes": [[["RISER_MERGE", 0, 0, {}]]], "class_name": "Dense", "name": "B3_PDC_0", "config": {"kernel_initializer": {"class_name": "VarianceScaling", "config": {"mode": "fan_avg", "scale": 1.0, "distribution": "uniform", "seed": null}}, "bias_regularizer": null, "units": 50, "trainable": false, "bias_initializer": {"class_name": "Zeros", "config": {}}, "name": "B3_PDC_0", "use_bias": true, "activity_regularizer": null, "kernel_constraint": null, "kernel_regularizer": {"class_name": "L1L2", "config": {"l2": 9.999999747378752e-05, "l1": 0.0}}, "bias_constraint": null, "activation": "relu"}}, {"inbound_nodes": [[["PRESSURE_INPUT", 0, 0, {}]]], "class_name": "Dense", "name": "D1_PWH_0", "config": {"kernel_initializer": {"class_name": "VarianceScaling", "config": {"mode": "fan_avg", "scale": 1.0, "distribution": "uniform", "seed": null}}, "bias_regularizer": null, "units": 50, "trainable": false, "bias_initializer": {"class_name": "Zeros", "config": {}}, "name": "D1_PWH_0", "use_bias": true, "activity_regularizer": null, "kernel_constraint": null, "kernel_regularizer": {"class_name": "L1L2", "config": {"l2": 9.999999747378752e-05, "l1": 0.0}}, "bias_constraint": null, "activation": "relu"}}, {"inbound_nodes": [[["RISER_MERGE", 0, 0, {}]]], "class_name": "Dense", "name": "D1_PDC_0", "config": {"kernel_initializer": {"class_name": "VarianceScaling", "config": {"mode": "fan_avg", "scale": 1.0, "distribution": "uniform", "seed": null}}, "bias_regularizer": null, "units": 50, "trainable": false, "bias_initializer": {"class_name": "Zeros", "config": {}}, "name": "D1_PDC_0", "use_bias": true, "activity_regularizer": null, "kernel_constraint": null, "kernel_regularizer": {"class_name": "L1L2", "config": {"l2": 9.999999747378752e-05, "l1": 0.0}}, "bias_constraint": null, "activation": "relu"}}, {"inbound_nodes": [[["C1_PWH_0", 0, 0, {}]]], "class_name": "Dense", "name": "C1_PWH_1", "config": {"kernel_initializer": {"class_name": "VarianceScaling", "config": {"mode": "fan_avg", "scale": 1.0, "distribution": "uniform", "seed": null}}, "bias_regularizer": null, "units": 50, "trainable": false, "bias_initializer": {"class_name": "Zeros", "config": {}}, "name": "C1_PWH_1", "use_bias": true, "activity_regularizer": null, "kernel_constraint": null, "kernel_regularizer": {"class_name": "L1L2", "config": {"l2": 9.999999747378752e-05, "l1": 0.0}}, "bias_constraint": null, "activation": "relu"}}, {"inbound_nodes": [[["C1_PDC_0", 0, 0, {}]]], "class_name": "Dense", "name": "C1_PDC_1", "config": {"kernel_initializer": {"class_name": "VarianceScaling", "config": {"mode": "fan_avg", "scale": 1.0, "distribution": "uniform", "seed": null}}, "bias_regularizer": null, "units": 50, "trainable": false, "bias_initializer": {"class_name": "Zeros", "config": {}}, "name": "C1_PDC_1", "use_bias": true, "activity_regularizer": null, "kernel_constraint": null, "kernel_regularizer": {"class_name": "L1L2", "config": {"l2": 9.999999747378752e-05, "l1": 0.0}}, "bias_constraint": null, "activation": "relu"}}, {"inbound_nodes": [[["C2_PWH_0", 0, 0, {}]]], "class_name": "Dense", "name": "C2_PWH_1", "config": {"kernel_initializer": {"class_name": "VarianceScaling", "config": {"mode": "fan_avg", "scale": 1.0, "distribution": "uniform", "seed": null}}, "bias_regularizer": null, "units": 50, "trainable": false, "bias_initializer": {"class_name": "Zeros", "config": {}}, "name": "C2_PWH_1", "use_bias": true, "activity_regularizer": null, "kernel_constraint": null, "kernel_regularizer": {"class_name": "L1L2", "config": {"l2": 9.999999747378752e-05, "l1": 0.0}}, "bias_constraint": null, "activation": "relu"}}, {"inbound_nodes": [[["C2_PDC_0", 0, 0, {}]]], "class_name": "Dense", "name": "C2_PDC_1", "config": {"kernel_initializer": {"class_name": "VarianceScaling", "config": {"mode": "fan_avg", "scale": 1.0, "distribution": "uniform", "seed": null}}, "bias_regularizer": null, "units": 50, "trainable": false, "bias_initializer": {"class_name": "Zeros", "config": {}}, "name": "C2_PDC_1", "use_bias": true, "activity_regularizer": null, "kernel_constraint": null, "kernel_regularizer": {"class_name": "L1L2", "config": {"l2": 9.999999747378752e-05, "l1": 0.0}}, "bias_constraint": null, "activation": "relu"}}, {"inbound_nodes": [[["C3_PWH_0", 0, 0, {}]]], "class_name": "Dense", "name": "C3_PWH_1", "config": {"kernel_initializer": {"class_name": "VarianceScaling", "config": {"mode": "fan_avg", "scale": 1.0, "distribution": "uniform", "seed": null}}, "bias_regularizer": null, "units": 50, "trainable": false, "bias_initializer": {"class_name": "Zeros", "config": {}}, "name": "C3_PWH_1", "use_bias": true, "activity_regularizer": null, "kernel_constraint": null, "kernel_regularizer": {"class_name": "L1L2", "config": {"l2": 9.999999747378752e-05, "l1": 0.0}}, "bias_constraint": null, "activation": "relu"}}, {"inbound_nodes": [[["C3_PDC_0", 0, 0, {}]]], "class_name": "Dense", "name": "C3_PDC_1", "config": {"kernel_initializer": {"class_name": "VarianceScaling", "config": {"mode": "fan_avg", "scale": 1.0, "distribution": "uniform", "seed": null}}, "bias_regularizer": null, "units": 50, "trainable": false, "bias_initializer": {"class_name": "Zeros", "config": {}}, "name": "C3_PDC_1", "use_bias": true, "activity_regularizer": null, "kernel_constraint": null, "kernel_regularizer": {"class_name": "L1L2", "config": {"l2": 9.999999747378752e-05, "l1": 0.0}}, "bias_constraint": null, "activation": "relu"}}, {"inbound_nodes": [[["C4_PWH_0", 0, 0, {}]]], "class_name": "Dense", "name": "C4_PWH_1", "config": {"kernel_initializer": {"class_name": "VarianceScaling", "config": {"mode": "fan_avg", "scale": 1.0, "distribution": "uniform", "seed": null}}, "bias_regularizer": null, "units": 50, "trainable": false, "bias_initializer": {"class_name": "Zeros", "config": {}}, "name": "C4_PWH_1", "use_bias": true, "activity_regularizer": null, "kernel_constraint": null, "kernel_regularizer": {"class_name": "L1L2", "config": {"l2": 9.999999747378752e-05, "l1": 0.0}}, "bias_constraint": null, "activation": "relu"}}, {"inbound_nodes": [[["C4_PDC_0", 0, 0, {}]]], "class_name": "Dense", "name": "C4_PDC_1", "config": {"kernel_initializer": {"class_name": "VarianceScaling", "config": {"mode": "fan_avg", "scale": 1.0, "distribution": "uniform", "seed": null}}, "bias_regularizer": null, "units": 50, "trainable": false, "bias_initializer": {"class_name": "Zeros", "config": {}}, "name": "C4_PDC_1", "use_bias": true, "activity_regularizer": null, "kernel_constraint": null, "kernel_regularizer": {"class_name": "L1L2", "config": {"l2": 9.999999747378752e-05, "l1": 0.0}}, "bias_constraint": null, "activation": "relu"}}, {"inbound_nodes": [[["B1_PWH_0", 0, 0, {}]]], "class_name": "Dense", "name": "B1_PWH_1", "config": {"kernel_initializer": {"class_name": "VarianceScaling", "config": {"mode": "fan_avg", "scale": 1.0, "distribution": "uniform", "seed": null}}, "bias_regularizer": null, "units": 50, "trainable": false, "bias_initializer": {"class_name": "Zeros", "config": {}}, "name": "B1_PWH_1", "use_bias": true, "activity_regularizer": null, "kernel_constraint": null, "kernel_regularizer": {"class_name": "L1L2", "config": {"l2": 9.999999747378752e-05, "l1": 0.0}}, "bias_constraint": null, "activation": "relu"}}, {"inbound_nodes": [[["B1_PDC_0", 0, 0, {}]]], "class_name": "Dense", "name": "B1_PDC_1", "config": {"kernel_initializer": {"class_name": "VarianceScaling", "config": {"mode": "fan_avg", "scale": 1.0, "distribution": "uniform", "seed": null}}, "bias_regularizer": null, "units": 50, "trainable": false, "bias_initializer": {"class_name": "Zeros", "config": {}}, "name": "B1_PDC_1", "use_bias": true, "activity_regularizer": null, "kernel_constraint": null, "kernel_regularizer": {"class_name": "L1L2", "config": {"l2": 9.999999747378752e-05, "l1": 0.0}}, "bias_constraint": null, "activation": "relu"}}, {"inbound_nodes": [[["B3_PWH_0", 0, 0, {}]]], "class_name": "Dense", "name": "B3_PWH_1", "config": {"kernel_initializer": {"class_name": "VarianceScaling", "config": {"mode": "fan_avg", "scale": 1.0, "distribution": "uniform", "seed": null}}, "bias_regularizer": null, "units": 50, "trainable": false, "bias_initializer": {"class_name": "Zeros", "config": {}}, "name": "B3_PWH_1", "use_bias": true, "activity_regularizer": null, "kernel_constraint": null, "kernel_regularizer": {"class_name": "L1L2", "config": {"l2": 9.999999747378752e-05, "l1": 0.0}}, "bias_constraint": null, "activation": "relu"}}, {"inbound_nodes": [[["B3_PDC_0", 0, 0, {}]]], "class_name": "Dense", "name": "B3_PDC_1", "config": {"kernel_initializer": {"class_name": "VarianceScaling", "config": {"mode": "fan_avg", "scale": 1.0, "distribution": "uniform", "seed": null}}, "bias_regularizer": null, "units": 50, "trainable": false, "bias_initializer": {"class_name": "Zeros", "config": {}}, "name": "B3_PDC_1", "use_bias": true, "activity_regularizer": null, "kernel_constraint": null, "kernel_regularizer": {"class_name": "L1L2", "config": {"l2": 9.999999747378752e-05, "l1": 0.0}}, "bias_constraint": null, "activation": "relu"}}, {"inbound_nodes": [[["D1_PWH_0", 0, 0, {}]]], "class_name": "Dense", "name": "D1_PWH_1", "config": {"kernel_initializer": {"class_name": "VarianceScaling", "config": {"mode": "fan_avg", "scale": 1.0, "distribution": "uniform", "seed": null}}, "bias_regularizer": null, "units": 50, "trainable": false, "bias_initializer": {"class_name": "Zeros", "config": {}}, "name": "D1_PWH_1", "use_bias": true, "activity_regularizer": null, "kernel_constraint": null, "kernel_regularizer": {"class_name": "L1L2", "config": {"l2": 9.999999747378752e-05, "l1": 0.0}}, "bias_constraint": null, "activation": "relu"}}, {"inbound_nodes": [[["D1_PDC_0", 0, 0, {}]]], "class_name": "Dense", "name": "D1_PDC_1", "config": {"kernel_initializer": {"class_name": "VarianceScaling", "config": {"mode": "fan_avg", "scale": 1.0, "distribution": "uniform", "seed": null}}, "bias_regularizer": null, "units": 50, "trainable": false, "bias_initializer": {"class_name": "Zeros", "config": {}}, "name": "D1_PDC_1", "use_bias": true, "activity_regularizer": null, "kernel_constraint": null, "kernel_regularizer": {"class_name": "L1L2", "config": {"l2": 9.999999747378752e-05, "l1": 0.0}}, "bias_constraint": null, "activation": "relu"}}, {"inbound_nodes": [[["C1_PWH_1", 0, 0, {}]]], "class_name": "Dense", "name": "C1_PWH_out", "config": {"kernel_initializer": {"class_name": "VarianceScaling", "config": {"mode": "fan_avg", "scale": 1.0, "distribution": "uniform", "seed": null}}, "bias_regularizer": null, "units": 1, "trainable": false, "bias_initializer": {"class_name": "Zeros", "config": {}}, "name": "C1_PWH_out", "use_bias": true, "activity_regularizer": null, "kernel_constraint": null, "kernel_regularizer": {"class_name": "L1L2", "config": {"l2": 9.999999747378752e-05, "l1": 0.0}}, "bias_constraint": null, "activation": "linear"}}, {"inbound_nodes": [[["C1_PDC_1", 0, 0, {}]]], "class_name": "Dense", "name": "C1_PDC_out", "config": {"kernel_initializer": {"class_name": "VarianceScaling", "config": {"mode": "fan_avg", "scale": 1.0, "distribution": "uniform", "seed": null}}, "bias_regularizer": null, "units": 1, "trainable": false, "bias_initializer": {"class_name": "Zeros", "config": {}}, "name": "C1_PDC_out", "use_bias": true, "activity_regularizer": null, "kernel_constraint": null, "kernel_regularizer": {"class_name": "L1L2", "config": {"l2": 9.999999747378752e-05, "l1": 0.0}}, "bias_constraint": null, "activation": "linear"}}, {"inbound_nodes": [[["C2_PWH_1", 0, 0, {}]]], "class_name": "Dense", "name": "C2_PWH_out", "config": {"kernel_initializer": {"class_name": "VarianceScaling", "config": {"mode": "fan_avg", "scale": 1.0, "distribution": "uniform", "seed": null}}, "bias_regularizer": null, "units": 1, "trainable": false, "bias_initializer": {"class_name": "Zeros", "config": {}}, "name": "C2_PWH_out", "use_bias": true, "activity_regularizer": null, "kernel_constraint": null, "kernel_regularizer": {"class_name": "L1L2", "config": {"l2": 9.999999747378752e-05, "l1": 0.0}}, "bias_constraint": null, "activation": "linear"}}, {"inbound_nodes": [[["C2_PDC_1", 0, 0, {}]]], "class_name": "Dense", "name": "C2_PDC_out", "config": {"kernel_initializer": {"class_name": "VarianceScaling", "config": {"mode": "fan_avg", "scale": 1.0, "distribution": "uniform", "seed": null}}, "bias_regularizer": null, "units": 1, "trainable": false, "bias_initializer": {"class_name": "Zeros", "config": {}}, "name": "C2_PDC_out", "use_bias": true, "activity_regularizer": null, "kernel_constraint": null, "kernel_regularizer": {"class_name": "L1L2", "config": {"l2": 9.999999747378752e-05, "l1": 0.0}}, "bias_constraint": null, "activation": "linear"}}, {"inbound_nodes": [[["C3_PWH_1", 0, 0, {}]]], "class_name": "Dense", "name": "C3_PWH_out", "config": {"kernel_initializer": {"class_name": "VarianceScaling", "config": {"mode": "fan_avg", "scale": 1.0, "distribution": "uniform", "seed": null}}, "bias_regularizer": null, "units": 1, "trainable": false, "bias_initializer": {"class_name": "Zeros", "config": {}}, "name": "C3_PWH_out", "use_bias": true, "activity_regularizer": null, "kernel_constraint": null, "kernel_regularizer": {"class_name": "L1L2", "config": {"l2": 9.999999747378752e-05, "l1": 0.0}}, "bias_constraint": null, "activation": "linear"}}, {"inbound_nodes": [[["C3_PDC_1", 0, 0, {}]]], "class_name": "Dense", "name": "C3_PDC_out", "config": {"kernel_initializer": {"class_name": "VarianceScaling", "config": {"mode": "fan_avg", "scale": 1.0, "distribution": "uniform", "seed": null}}, "bias_regularizer": null, "units": 1, "trainable": false, "bias_initializer": {"class_name": "Zeros", "config": {}}, "name": "C3_PDC_out", "use_bias": true, "activity_regularizer": null, "kernel_constraint": null, "kernel_regularizer": {"class_name": "L1L2", "config": {"l2": 9.999999747378752e-05, "l1": 0.0}}, "bias_constraint": null, "activation": "linear"}}, {"inbound_nodes": [[["C4_PWH_1", 0, 0, {}]]], "class_name": "Dense", "name": "C4_PWH_out", "config": {"kernel_initializer": {"class_name": "VarianceScaling", "config": {"mode": "fan_avg", "scale": 1.0, "distribution": "uniform", "seed": null}}, "bias_regularizer": null, "units": 1, "trainable": false, "bias_initializer": {"class_name": "Zeros", "config": {}}, "name": "C4_PWH_out", "use_bias": true, "activity_regularizer": null, "kernel_constraint": null, "kernel_regularizer": {"class_name": "L1L2", "config": {"l2": 9.999999747378752e-05, "l1": 0.0}}, "bias_constraint": null, "activation": "linear"}}, {"inbound_nodes": [[["C4_PDC_1", 0, 0, {}]]], "class_name": "Dense", "name": "C4_PDC_out", "config": {"kernel_initializer": {"class_name": "VarianceScaling", "config": {"mode": "fan_avg", "scale": 1.0, "distribution": "uniform", "seed": null}}, "bias_regularizer": null, "units": 1, "trainable": false, "bias_initializer": {"class_name": "Zeros", "config": {}}, "name": "C4_PDC_out", "use_bias": true, "activity_regularizer": null, "kernel_constraint": null, "kernel_regularizer": {"class_name": "L1L2", "config": {"l2": 9.999999747378752e-05, "l1": 0.0}}, "bias_constraint": null, "activation": "linear"}}, {"inbound_nodes": [[["B1_PWH_1", 0, 0, {}]]], "class_name": "Dense", "name": "B1_PWH_out", "config": {"kernel_initializer": {"class_name": "VarianceScaling", "config": {"mode": "fan_avg", "scale": 1.0, "distribution": "uniform", "seed": null}}, "bias_regularizer": null, "units": 1, "trainable": false, "bias_initializer": {"class_name": "Zeros", "config": {}}, "name": "B1_PWH_out", "use_bias": true, "activity_regularizer": null, "kernel_constraint": null, "kernel_regularizer": {"class_name": "L1L2", "config": {"l2": 9.999999747378752e-05, "l1": 0.0}}, "bias_constraint": null, "activation": "linear"}}, {"inbound_nodes": [[["B1_PDC_1", 0, 0, {}]]], "class_name": "Dense", "name": "B1_PDC_out", "config": {"kernel_initializer": {"class_name": "VarianceScaling", "config": {"mode": "fan_avg", "scale": 1.0, "distribution": "uniform", "seed": null}}, "bias_regularizer": null, "units": 1, "trainable": false, "bias_initializer": {"class_name": "Zeros", "config": {}}, "name": "B1_PDC_out", "use_bias": true, "activity_regularizer": null, "kernel_constraint": null, "kernel_regularizer": {"class_name": "L1L2", "config": {"l2": 9.999999747378752e-05, "l1": 0.0}}, "bias_constraint": null, "activation": "linear"}}, {"inbound_nodes": [[["B3_PWH_1", 0, 0, {}]]], "class_name": "Dense", "name": "B3_PWH_out", "config": {"kernel_initializer": {"class_name": "VarianceScaling", "config": {"mode": "fan_avg", "scale": 1.0, "distribution": "uniform", "seed": null}}, "bias_regularizer": null, "units": 1, "trainable": false, "bias_initializer": {"class_name": "Zeros", "config": {}}, "name": "B3_PWH_out", "use_bias": true, "activity_regularizer": null, "kernel_constraint": null, "kernel_regularizer": {"class_name": "L1L2", "config": {"l2": 9.999999747378752e-05, "l1": 0.0}}, "bias_constraint": null, "activation": "linear"}}, {"inbound_nodes": [[["B3_PDC_1", 0, 0, {}]]], "class_name": "Dense", "name": "B3_PDC_out", "config": {"kernel_initializer": {"class_name": "VarianceScaling", "config": {"mode": "fan_avg", "scale": 1.0, "distribution": "uniform", "seed": null}}, "bias_regularizer": null, "units": 1, "trainable": false, "bias_initializer": {"class_name": "Zeros", "config": {}}, "name": "B3_PDC_out", "use_bias": true, "activity_regularizer": null, "kernel_constraint": null, "kernel_regularizer": {"class_name": "L1L2", "config": {"l2": 9.999999747378752e-05, "l1": 0.0}}, "bias_constraint": null, "activation": "linear"}}, {"inbound_nodes": [[["D1_PWH_1", 0, 0, {}]]], "class_name": "Dense", "name": "D1_PWH_out", "config": {"kernel_initializer": {"class_name": "VarianceScaling", "config": {"mode": "fan_avg", "scale": 1.0, "distribution": "uniform", "seed": null}}, "bias_regularizer": null, "units": 1, "trainable": false, "bias_initializer": {"class_name": "Zeros", "config": {}}, "name": "D1_PWH_out", "use_bias": true, "activity_regularizer": null, "kernel_constraint": null, "kernel_regularizer": {"class_name": "L1L2", "config": {"l2": 9.999999747378752e-05, "l1": 0.0}}, "bias_constraint": null, "activation": "linear"}}, {"inbound_nodes": [[["D1_PDC_1", 0, 0, {}]]], "class_name": "Dense", "name": "D1_PDC_out", "config": {"kernel_initializer": {"class_name": "VarianceScaling", "config": {"mode": "fan_avg", "scale": 1.0, "distribution": "uniform", "seed": null}}, "bias_regularizer": null, "units": 1, "trainable": false, "bias_initializer": {"class_name": "Zeros", "config": {}}, "name": "D1_PDC_out", "use_bias": true, "activity_regularizer": null, "kernel_constraint": null, "kernel_regularizer": {"class_name": "L1L2", "config": {"l2": 9.999999747378752e-05, "l1": 0.0}}, "bias_constraint": null, "activation": "linear"}}, {"inbound_nodes": [], "class_name": "InputLayer", "name": "C1_CHK", "config": {"batch_input_shape": [null, 1], "sparse": false, "name": "C1_CHK", "dtype": "float32"}}, {"inbound_nodes": [], "class_name": "InputLayer", "name": "C1_PBH_IN", "config": {"batch_input_shape": [null, 1], "sparse": false, "name": "C1_PBH_IN", "dtype": "float32"}}, {"inbound_nodes": [], "class_name": "InputLayer", "name": "C2_CHK", "config": {"batch_input_shape": [null, 1], "sparse": false, "name": "C2_CHK", "dtype": "float32"}}, {"inbound_nodes": [], "class_name": "InputLayer", "name": "C3_CHK", "config": {"batch_input_shape": [null, 1], "sparse": false, "name": "C3_CHK", "dtype": "float32"}}, {"inbound_nodes": [], "class_name": "InputLayer", "name": "C3_PBH_IN", "config": {"batch_input_shape": [null, 1], "sparse": false, "name": "C3_PBH_IN", "dtype": "float32"}}, {"inbound_nodes": [], "class_name": "InputLayer", "name": "C4_CHK", "config": {"batch_input_shape": [null, 1], "sparse": false, "name": "C4_CHK", "dtype": "float32"}}, {"inbound_nodes": [], "class_name": "InputLayer", "name": "C4_PBH_IN", "config": {"batch_input_shape": [null, 1], "sparse": false, "name": "C4_PBH_IN", "dtype": "float32"}}, {"inbound_nodes": [], "class_name": "InputLayer", "name": "B1_CHK", "config": {"batch_input_shape": [null, 1], "sparse": false, "name": "B1_CHK", "dtype": "float32"}}, {"inbound_nodes": [], "class_name": "InputLayer", "name": "B1_PBH_IN", "config": {"batch_input_shape": [null, 1], "sparse": false, "name": "B1_PBH_IN", "dtype": "float32"}}, {"inbound_nodes": [], "class_name": "InputLayer", "name": "B3_CHK", "config": {"batch_input_shape": [null, 1], "sparse": false, "name": "B3_CHK", "dtype": "float32"}}, {"inbound_nodes": [], "class_name": "InputLayer", "name": "B3_PBH_IN", "config": {"batch_input_shape": [null, 1], "sparse": false, "name": "B3_PBH_IN", "dtype": "float32"}}, {"inbound_nodes": [], "class_name": "InputLayer", "name": "D1_CHK", "config": {"batch_input_shape": [null, 1], "sparse": false, "name": "D1_CHK", "dtype": "float32"}}, {"inbound_nodes": [[["C1_CHK", 0, 0, {}], ["C1_PWH_out", 0, 0, {}], ["C1_PDC_out", 0, 0, {}], ["C1_PBH_IN", 0, 0, {}]]], "class_name": "Concatenate", "name": "C1", "config": {"trainable": true, "name": "C1", "axis": -1}}, {"inbound_nodes": [[["C2_CHK", 0, 0, {}], ["C2_PWH_out", 0, 0, {}], ["C2_PDC_out", 0, 0, {}]]], "class_name": "Concatenate", "name": "C2", "config": {"trainable": true, "name": "C2", "axis": -1}}, {"inbound_nodes": [[["C3_CHK", 0, 0, {}], ["C3_PWH_out", 0, 0, {}], ["C3_PDC_out", 0, 0, {}], ["C3_PBH_IN", 0, 0, {}]]], "class_name": "Concatenate", "name": "C3", "config": {"trainable": true, "name": "C3", "axis": -1}}, {"inbound_nodes": [[["C4_CHK", 0, 0, {}], ["C4_PWH_out", 0, 0, {}], ["C4_PDC_out", 0, 0, {}], ["C4_PBH_IN", 0, 0, {}]]], "class_name": "Concatenate", "name": "C4", "config": {"trainable": true, "name": "C4", "axis": -1}}, {"inbound_nodes": [[["B1_CHK", 0, 0, {}], ["B1_PWH_out", 0, 0, {}], ["B1_PDC_out", 0, 0, {}], ["B1_PBH_IN", 0, 0, {}]]], "class_name": "Concatenate", "name": "B1", "config": {"trainable": true, "name": "B1", "axis": -1}}, {"inbound_nodes": [[["B3_CHK", 0, 0, {}], ["B3_PWH_out", 0, 0, {}], ["B3_PDC_out", 0, 0, {}], ["B3_PBH_IN", 0, 0, {}]]], "class_name": "Concatenate", "name": "B3", "config": {"trainable": true, "name": "B3", "axis": -1}}, {"inbound_nodes": [[["D1_CHK", 0, 0, {}], ["D1_PWH_out", 0, 0, {}], ["D1_PDC_out", 0, 0, {}]]], "class_name": "Concatenate", "name": "D1", "config": {"trainable": true, "name": "D1", "axis": -1}}, {"inbound_nodes": [[["C1", 0, 0, {}]]], "class_name": "Dense", "name": "C1_0", "config": {"kernel_initializer": {"class_name": "VarianceScaling", "config": {"mode": "fan_avg", "scale": 1.0, "distribution": "normal", "seed": 3014}}, "bias_regularizer": null, "units": 50, "trainable": true, "bias_initializer": {"class_name": "Zeros", "config": {}}, "name": "C1_0", "use_bias": true, "activity_regularizer": null, "kernel_constraint": null, "kernel_regularizer": {"class_name": "L1L2", "config": {"l2": 9.999999747378752e-05, "l1": 0.0}}, "bias_constraint": null, "activation": "relu"}}, {"inbound_nodes": [[["C2", 0, 0, {}]]], "class_name": "Dense", "name": "C2_0", "config": {"kernel_initializer": {"class_name": "VarianceScaling", "config": {"mode": "fan_avg", "scale": 1.0, "distribution": "normal", "seed": 3014}}, "bias_regularizer": null, "units": 50, "trainable": true, "bias_initializer": {"class_name": "Zeros", "config": {}}, "name": "C2_0", "use_bias": true, "activity_regularizer": null, "kernel_constraint": null, "kernel_regularizer": {"class_name": "L1L2", "config": {"l2": 9.999999747378752e-05, "l1": 0.0}}, "bias_constraint": null, "activation": "relu"}}, {"inbound_nodes": [[["C3", 0, 0, {}]]], "class_name": "Dense", "name": "C3_0", "config": {"kernel_initializer": {"class_name": "VarianceScaling", "config": {"mode": "fan_avg", "scale": 1.0, "distribution": "normal", "seed": 3014}}, "bias_regularizer": null, "units": 50, "trainable": true, "bias_initializer": {"class_name": "Zeros", "config": {}}, "name": "C3_0", "use_bias": true, "activity_regularizer": null, "kernel_constraint": null, "kernel_regularizer": {"class_name": "L1L2", "config": {"l2": 9.999999747378752e-05, "l1": 0.0}}, "bias_constraint": null, "activation": "relu"}}, {"inbound_nodes": [[["C4", 0, 0, {}]]], "class_name": "Dense", "name": "C4_0", "config": {"kernel_initializer": {"class_name": "VarianceScaling", "config": {"mode": "fan_avg", "scale": 1.0, "distribution": "normal", "seed": 3014}}, "bias_regularizer": null, "units": 50, "trainable": true, "bias_initializer": {"class_name": "Zeros", "config": {}}, "name": "C4_0", "use_bias": true, "activity_regularizer": null, "kernel_constraint": null, "kernel_regularizer": {"class_name": "L1L2", "config": {"l2": 9.999999747378752e-05, "l1": 0.0}}, "bias_constraint": null, "activation": "relu"}}, {"inbound_nodes": [[["B1", 0, 0, {}]]], "class_name": "Dense", "name": "B1_0", "config": {"kernel_initializer": {"class_name": "VarianceScaling", "config": {"mode": "fan_avg", "scale": 1.0, "distribution": "normal", "seed": 3014}}, "bias_regularizer": null, "units": 50, "trainable": true, "bias_initializer": {"class_name": "Zeros", "config": {}}, "name": "B1_0", "use_bias": true, "activity_regularizer": null, "kernel_constraint": null, "kernel_regularizer": {"class_name": "L1L2", "config": {"l2": 9.999999747378752e-05, "l1": 0.0}}, "bias_constraint": null, "activation": "relu"}}, {"inbound_nodes": [[["B3", 0, 0, {}]]], "class_name": "Dense", "name": "B3_0", "config": {"kernel_initializer": {"class_name": "VarianceScaling", "config": {"mode": "fan_avg", "scale": 1.0, "distribution": "normal", "seed": 3014}}, "bias_regularizer": null, "units": 50, "trainable": true, "bias_initializer": {"class_name": "Zeros", "config": {}}, "name": "B3_0", "use_bias": true, "activity_regularizer": null, "kernel_constraint": null, "kernel_regularizer": {"class_name": "L1L2", "config": {"l2": 9.999999747378752e-05, "l1": 0.0}}, "bias_constraint": null, "activation": "relu"}}, {"inbound_nodes": [[["D1", 0, 0, {}]]], "class_name": "Dense", "name": "D1_0", "config": {"kernel_initializer": {"class_name": "VarianceScaling", "config": {"mode": "fan_avg", "scale": 1.0, "distribution": "normal", "seed": 3014}}, "bias_regularizer": null, "units": 50, "trainable": true, "bias_initializer": {"class_name": "Zeros", "config": {}}, "name": "D1_0", "use_bias": true, "activity_regularizer": null, "kernel_constraint": null, "kernel_regularizer": {"class_name": "L1L2", "config": {"l2": 9.999999747378752e-05, "l1": 0.0}}, "bias_constraint": null, "activation": "relu"}}, {"inbound_nodes": [[["C1_0", 0, 0, {}]]], "class_name": "Dense", "name": "C1_1", "config": {"kernel_initializer": {"class_name": "VarianceScaling", "config": {"mode": "fan_avg", "scale": 1.0, "distribution": "normal", "seed": 3014}}, "bias_regularizer": null, "units": 50, "trainable": true, "bias_initializer": {"class_name": "Zeros", "config": {}}, "name": "C1_1", "use_bias": true, "activity_regularizer": null, "kernel_constraint": null, "kernel_regularizer": {"class_name": "L1L2", "config": {"l2": 9.999999747378752e-05, "l1": 0.0}}, "bias_constraint": null, "activation": "relu"}}, {"inbound_nodes": [[["C2_0", 0, 0, {}]]], "class_name": "Dense", "name": "C2_1", "config": {"kernel_initializer": {"class_name": "VarianceScaling", "config": {"mode": "fan_avg", "scale": 1.0, "distribution": "normal", "seed": 3014}}, "bias_regularizer": null, "units": 50, "trainable": true, "bias_initializer": {"class_name": "Zeros", "config": {}}, "name": "C2_1", "use_bias": true, "activity_regularizer": null, "kernel_constraint": null, "kernel_regularizer": {"class_name": "L1L2", "config": {"l2": 9.999999747378752e-05, "l1": 0.0}}, "bias_constraint": null, "activation": "relu"}}, {"inbound_nodes": [[["C3_0", 0, 0, {}]]], "class_name": "Dense", "name": "C3_1", "config": {"kernel_initializer": {"class_name": "VarianceScaling", "config": {"mode": "fan_avg", "scale": 1.0, "distribution": "normal", "seed": 3014}}, "bias_regularizer": null, "units": 50, "trainable": true, "bias_initializer": {"class_name": "Zeros", "config": {}}, "name": "C3_1", "use_bias": true, "activity_regularizer": null, "kernel_constraint": null, "kernel_regularizer": {"class_name": "L1L2", "config": {"l2": 9.999999747378752e-05, "l1": 0.0}}, "bias_constraint": null, "activation": "relu"}}, {"inbound_nodes": [[["C4_0", 0, 0, {}]]], "class_name": "Dense", "name": "C4_1", "config": {"kernel_initializer": {"class_name": "VarianceScaling", "config": {"mode": "fan_avg", "scale": 1.0, "distribution": "normal", "seed": 3014}}, "bias_regularizer": null, "units": 50, "trainable": true, "bias_initializer": {"class_name": "Zeros", "config": {}}, "name": "C4_1", "use_bias": true, "activity_regularizer": null, "kernel_constraint": null, "kernel_regularizer": {"class_name": "L1L2", "config": {"l2": 9.999999747378752e-05, "l1": 0.0}}, "bias_constraint": null, "activation": "relu"}}, {"inbound_nodes": [[["B1_0", 0, 0, {}]]], "class_name": "Dense", "name": "B1_1", "config": {"kernel_initializer": {"class_name": "VarianceScaling", "config": {"mode": "fan_avg", "scale": 1.0, "distribution": "normal", "seed": 3014}}, "bias_regularizer": null, "units": 50, "trainable": true, "bias_initializer": {"class_name": "Zeros", "config": {}}, "name": "B1_1", "use_bias": true, "activity_regularizer": null, "kernel_constraint": null, "kernel_regularizer": {"class_name": "L1L2", "config": {"l2": 9.999999747378752e-05, "l1": 0.0}}, "bias_constraint": null, "activation": "relu"}}, {"inbound_nodes": [[["B3_0", 0, 0, {}]]], "class_name": "Dense", "name": "B3_1", "config": {"kernel_initializer": {"class_name": "VarianceScaling", "config": {"mode": "fan_avg", "scale": 1.0, "distribution": "normal", "seed": 3014}}, "bias_regularizer": null, "units": 50, "trainable": true, "bias_initializer": {"class_name": "Zeros", "config": {}}, "name": "B3_1", "use_bias": true, "activity_regularizer": null, "kernel_constraint": null, "kernel_regularizer": {"class_name": "L1L2", "config": {"l2": 9.999999747378752e-05, "l1": 0.0}}, "bias_constraint": null, "activation": "relu"}}, {"inbound_nodes": [[["D1_0", 0, 0, {}]]], "class_name": "Dense", "name": "D1_1", "config": {"kernel_initializer": {"class_name": "VarianceScaling", "config": {"mode": "fan_avg", "scale": 1.0, "distribution": "normal", "seed": 3014}}, "bias_regularizer": null, "units": 50, "trainable": true, "bias_initializer": {"class_name": "Zeros", "config": {}}, "name": "D1_1", "use_bias": true, "activity_regularizer": null, "kernel_constraint": null, "kernel_regularizer": {"class_name": "L1L2", "config": {"l2": 9.999999747378752e-05, "l1": 0.0}}, "bias_constraint": null, "activation": "relu"}}, {"inbound_nodes": [], "class_name": "InputLayer", "name": "OnOff_C1", "config": {"batch_input_shape": [null, 1], "sparse": false, "name": "OnOff_C1", "dtype": "float32"}}, {"inbound_nodes": [[["C1_1", 0, 0, {}]]], "class_name": "Dense", "name": "C1_o", "config": {"kernel_initializer": {"class_name": "VarianceScaling", "config": {"mode": "fan_avg", "scale": 1.0, "distribution": "normal", "seed": 3014}}, "bias_regularizer": null, "units": 1, "trainable": true, "bias_initializer": {"class_name": "Zeros", "config": {}}, "name": "C1_o", "use_bias": true, "activity_regularizer": null, "kernel_constraint": null, "kernel_regularizer": {"class_name": "L1L2", "config": {"l2": 9.999999747378752e-05, "l1": 0.0}}, "bias_constraint": null, "activation": "relu"}}, {"inbound_nodes": [], "class_name": "InputLayer", "name": "OnOff_C2", "config": {"batch_input_shape": [null, 1], "sparse": false, "name": "OnOff_C2", "dtype": "float32"}}, {"inbound_nodes": [[["C2_1", 0, 0, {}]]], "class_name": "Dense", "name": "C2_o", "config": {"kernel_initializer": {"class_name": "VarianceScaling", "config": {"mode": "fan_avg", "scale": 1.0, "distribution": "normal", "seed": 3014}}, "bias_regularizer": null, "units": 1, "trainable": true, "bias_initializer": {"class_name": "Zeros", "config": {}}, "name": "C2_o", "use_bias": true, "activity_regularizer": null, "kernel_constraint": null, "kernel_regularizer": {"class_name": "L1L2", "config": {"l2": 9.999999747378752e-05, "l1": 0.0}}, "bias_constraint": null, "activation": "relu"}}, {"inbound_nodes": [], "class_name": "InputLayer", "name": "OnOff_C3", "config": {"batch_input_shape": [null, 1], "sparse": false, "name": "OnOff_C3", "dtype": "float32"}}, {"inbound_nodes": [[["C3_1", 0, 0, {}]]], "class_name": "Dense", "name": "C3_o", "config": {"kernel_initializer": {"class_name": "VarianceScaling", "config": {"mode": "fan_avg", "scale": 1.0, "distribution": "normal", "seed": 3014}}, "bias_regularizer": null, "units": 1, "trainable": true, "bias_initializer": {"class_name": "Zeros", "config": {}}, "name": "C3_o", "use_bias": true, "activity_regularizer": null, "kernel_constraint": null, "kernel_regularizer": {"class_name": "L1L2", "config": {"l2": 9.999999747378752e-05, "l1": 0.0}}, "bias_constraint": null, "activation": "relu"}}, {"inbound_nodes": [], "class_name": "InputLayer", "name": "OnOff_C4", "config": {"batch_input_shape": [null, 1], "sparse": false, "name": "OnOff_C4", "dtype": "float32"}}, {"inbound_nodes": [[["C4_1", 0, 0, {}]]], "class_name": "Dense", "name": "C4_o", "config": {"kernel_initializer": {"class_name": "VarianceScaling", "config": {"mode": "fan_avg", "scale": 1.0, "distribution": "normal", "seed": 3014}}, "bias_regularizer": null, "units": 1, "trainable": true, "bias_initializer": {"class_name": "Zeros", "config": {}}, "name": "C4_o", "use_bias": true, "activity_regularizer": null, "kernel_constraint": null, "kernel_regularizer": {"class_name": "L1L2", "config": {"l2": 9.999999747378752e-05, "l1": 0.0}}, "bias_constraint": null, "activation": "relu"}}, {"inbound_nodes": [], "class_name": "InputLayer", "name": "OnOff_B1", "config": {"batch_input_shape": [null, 1], "sparse": false, "name": "OnOff_B1", "dtype": "float32"}}, {"inbound_nodes": [[["B1_1", 0, 0, {}]]], "class_name": "Dense", "name": "B1_o", "config": {"kernel_initializer": {"class_name": "VarianceScaling", "config": {"mode": "fan_avg", "scale": 1.0, "distribution": "normal", "seed": 3014}}, "bias_regularizer": null, "units": 1, "trainable": true, "bias_initializer": {"class_name": "Zeros", "config": {}}, "name": "B1_o", "use_bias": true, "activity_regularizer": null, "kernel_constraint": null, "kernel_regularizer": {"class_name": "L1L2", "config": {"l2": 9.999999747378752e-05, "l1": 0.0}}, "bias_constraint": null, "activation": "relu"}}, {"inbound_nodes": [], "class_name": "InputLayer", "name": "OnOff_B3", "config": {"batch_input_shape": [null, 1], "sparse": false, "name": "OnOff_B3", "dtype": "float32"}}, {"inbound_nodes": [[["B3_1", 0, 0, {}]]], "class_name": "Dense", "name": "B3_o", "config": {"kernel_initializer": {"class_name": "VarianceScaling", "config": {"mode": "fan_avg", "scale": 1.0, "distribution": "normal", "seed": 3014}}, "bias_regularizer": null, "units": 1, "trainable": true, "bias_initializer": {"class_name": "Zeros", "config": {}}, "name": "B3_o", "use_bias": true, "activity_regularizer": null, "kernel_constraint": null, "kernel_regularizer": {"class_name": "L1L2", "config": {"l2": 9.999999747378752e-05, "l1": 0.0}}, "bias_constraint": null, "activation": "relu"}}, {"inbound_nodes": [], "class_name": "InputLayer", "name": "OnOff_D1", "config": {"batch_input_shape": [null, 1], "sparse": false, "name": "OnOff_D1", "dtype": "float32"}}, {"inbound_nodes": [[["D1_1", 0, 0, {}]]], "class_name": "Dense", "name": "D1_o", "config": {"kernel_initializer": {"class_name": "VarianceScaling", "config": {"mode": "fan_avg", "scale": 1.0, "distribution": "normal", "seed": 3014}}, "bias_regularizer": null, "units": 1, "trainable": true, "bias_initializer": {"class_name": "Zeros", "config": {}}, "name": "D1_o", "use_bias": true, "activity_regularizer": null, "kernel_constraint": null, "kernel_regularizer": {"class_name": "L1L2", "config": {"l2": 9.999999747378752e-05, "l1": 0.0}}, "bias_constraint": null, "activation": "relu"}}, {"inbound_nodes": [[["OnOff_C1", 0, 0, {}], ["C1_o", 0, 0, {}]]], "class_name": "Multiply", "name": "C1_out", "config": {"trainable": true, "name": "C1_out"}}, {"inbound_nodes": [[["OnOff_C2", 0, 0, {}], ["C2_o", 0, 0, {}]]], "class_name": "Multiply", "name": "C2_out", "config": {"trainable": true, "name": "C2_out"}}, {"inbound_nodes": [[["OnOff_C3", 0, 0, {}], ["C3_o", 0, 0, {}]]], "class_name": "Multiply", "name": "C3_out", "config": {"trainable": true, "name": "C3_out"}}, {"inbound_nodes": [[["OnOff_C4", 0, 0, {}], ["C4_o", 0, 0, {}]]], "class_name": "Multiply", "name": "C4_out", "config": {"trainable": true, "name": "C4_out"}}, {"inbound_nodes": [[["OnOff_B1", 0, 0, {}], ["B1_o", 0, 0, {}]]], "class_name": "Multiply", "name": "B1_out", "config": {"trainable": true, "name": "B1_out"}}, {"inbound_nodes": [[["OnOff_B3", 0, 0, {}], ["B3_o", 0, 0, {}]]], "class_name": "Multiply", "name": "B3_out", "config": {"trainable": true, "name": "B3_out"}}, {"inbound_nodes": [[["OnOff_D1", 0, 0, {}], ["D1_o", 0, 0, {}]]], "class_name": "Multiply", "name": "D1_out", "config": {"trainable": true, "name": "D1_out"}}, {"inbound_nodes": [[["C1_out", 0, 0, {}], ["C2_out", 0, 0, {}], ["C3_out", 0, 0, {}], ["C4_out", 0, 0, {}], ["B1_out", 0, 0, {}], ["B3_out", 0, 0, {}], ["D1_out", 0, 0, {}]]], "class_name": "Add", "name": "GJOA_TOTAL", "config": {"trainable": true, "name": "GJOA_TOTAL"}}], "name": "model_1", "output_layers": [["C1_PWH_out", 0, 0], ["C1_PDC_out", 0, 0], ["C2_PWH_out", 0, 0], ["C2_PDC_out", 0, 0], ["C3_PWH_out", 0, 0], ["C3_PDC_out", 0, 0], ["C4_PWH_out", 0, 0], ["C4_PDC_out", 0, 0], ["B1_PWH_out", 0, 0], ["B1_PDC_out", 0, 0], ["B3_PWH_out", 0, 0], ["B3_PDC_out", 0, 0], ["D1_PWH_out", 0, 0], ["D1_PDC_out", 0, 0], ["C1_out", 0, 0], ["C2_out", 0, 0], ["C3_out", 0, 0], ["C4_out", 0, 0], ["B1_out", 0, 0], ["B3_out", 0, 0], ["D1_out", 0, 0], ["GJOA_TOTAL", 0, 0]]}}