{"class_name": "Model", "config": {"name": "model_2", "layers": [{"name": "C1", "class_name": "InputLayer", "config": {"name": "C1", "batch_input_shape": [null, 4], "sparse": false, "dtype": "float32"}, "inbound_nodes": []}, {"name": "C2", "class_name": "InputLayer", "config": {"name": "C2", "batch_input_shape": [null, 3], "sparse": false, "dtype": "float32"}, "inbound_nodes": []}, {"name": "C3", "class_name": "InputLayer", "config": {"name": "C3", "batch_input_shape": [null, 4], "sparse": false, "dtype": "float32"}, "inbound_nodes": []}, {"name": "C4", "class_name": "InputLayer", "config": {"name": "C4", "batch_input_shape": [null, 4], "sparse": false, "dtype": "float32"}, "inbound_nodes": []}, {"name": "B1", "class_name": "InputLayer", "config": {"name": "B1", "batch_input_shape": [null, 4], "sparse": false, "dtype": "float32"}, "inbound_nodes": []}, {"name": "B3", "class_name": "InputLayer", "config": {"name": "B3", "batch_input_shape": [null, 4], "sparse": false, "dtype": "float32"}, "inbound_nodes": []}, {"name": "D1", "class_name": "InputLayer", "config": {"name": "D1", "batch_input_shape": [null, 3], "sparse": false, "dtype": "float32"}, "inbound_nodes": []}, {"name": "dense_22", "class_name": "Dense", "config": {"activation": "relu", "kernel_initializer": {"class_name": "VarianceScaling", "config": {"distribution": "normal", "scale": 1.0, "mode": "fan_avg", "seed": 2675}}, "kernel_regularizer": {"class_name": "L1L2", "config": {"l1": 0.0, "l2": 9.999999974752427e-07}}, "kernel_constraint": null, "bias_initializer": {"class_name": "Zeros", "config": {}}, "name": "dense_22", "bias_constraint": null, "activity_regularizer": null, "trainable": true, "bias_regularizer": null, "units": 20, "use_bias": true}, "inbound_nodes": [[["C1", 0, 0, {}]]]}, {"name": "dense_25", "class_name": "Dense", "config": {"activation": "relu", "kernel_initializer": {"class_name": "VarianceScaling", "config": {"distribution": "normal", "scale": 1.0, "mode": "fan_avg", "seed": 2675}}, "kernel_regularizer": {"class_name": "L1L2", "config": {"l1": 0.0, "l2": 9.999999974752427e-07}}, "kernel_constraint": null, "bias_initializer": {"class_name": "Zeros", "config": {}}, "name": "dense_25", "bias_constraint": null, "activity_regularizer": null, "trainable": true, "bias_regularizer": null, "units": 20, "use_bias": true}, "inbound_nodes": [[["C2", 0, 0, {}]]]}, {"name": "dense_28", "class_name": "Dense", "config": {"activation": "relu", "kernel_initializer": {"class_name": "VarianceScaling", "config": {"distribution": "normal", "scale": 1.0, "mode": "fan_avg", "seed": 2675}}, "kernel_regularizer": {"class_name": "L1L2", "config": {"l1": 0.0, "l2": 9.999999974752427e-07}}, "kernel_constraint": null, "bias_initializer": {"class_name": "Zeros", "config": {}}, "name": "dense_28", "bias_constraint": null, "activity_regularizer": null, "trainable": true, "bias_regularizer": null, "units": 20, "use_bias": true}, "inbound_nodes": [[["C3", 0, 0, {}]]]}, {"name": "dense_31", "class_name": "Dense", "config": {"activation": "relu", "kernel_initializer": {"class_name": "VarianceScaling", "config": {"distribution": "normal", "scale": 1.0, "mode": "fan_avg", "seed": 2675}}, "kernel_regularizer": {"class_name": "L1L2", "config": {"l1": 0.0, "l2": 9.999999974752427e-07}}, "kernel_constraint": null, "bias_initializer": {"class_name": "Zeros", "config": {}}, "name": "dense_31", "bias_constraint": null, "activity_regularizer": null, "trainable": true, "bias_regularizer": null, "units": 20, "use_bias": true}, "inbound_nodes": [[["C4", 0, 0, {}]]]}, {"name": "dense_34", "class_name": "Dense", "config": {"activation": "relu", "kernel_initializer": {"class_name": "VarianceScaling", "config": {"distribution": "normal", "scale": 1.0, "mode": "fan_avg", "seed": 2675}}, "kernel_regularizer": {"class_name": "L1L2", "config": {"l1": 0.0, "l2": 9.999999974752427e-07}}, "kernel_constraint": null, "bias_initializer": {"class_name": "Zeros", "config": {}}, "name": "dense_34", "bias_constraint": null, "activity_regularizer": null, "trainable": true, "bias_regularizer": null, "units": 20, "use_bias": true}, "inbound_nodes": [[["B1", 0, 0, {}]]]}, {"name": "dense_37", "class_name": "Dense", "config": {"activation": "relu", "kernel_initializer": {"class_name": "VarianceScaling", "config": {"distribution": "normal", "scale": 1.0, "mode": "fan_avg", "seed": 2675}}, "kernel_regularizer": {"class_name": "L1L2", "config": {"l1": 0.0, "l2": 9.999999974752427e-07}}, "kernel_constraint": null, "bias_initializer": {"class_name": "Zeros", "config": {}}, "name": "dense_37", "bias_constraint": null, "activity_regularizer": null, "trainable": true, "bias_regularizer": null, "units": 20, "use_bias": true}, "inbound_nodes": [[["B3", 0, 0, {}]]]}, {"name": "dense_40", "class_name": "Dense", "config": {"activation": "relu", "kernel_initializer": {"class_name": "VarianceScaling", "config": {"distribution": "normal", "scale": 1.0, "mode": "fan_avg", "seed": 2675}}, "kernel_regularizer": {"class_name": "L1L2", "config": {"l1": 0.0, "l2": 9.999999974752427e-07}}, "kernel_constraint": null, "bias_initializer": {"class_name": "Zeros", "config": {}}, "name": "dense_40", "bias_constraint": null, "activity_regularizer": null, "trainable": true, "bias_regularizer": null, "units": 20, "use_bias": true}, "inbound_nodes": [[["D1", 0, 0, {}]]]}, {"name": "dense_23", "class_name": "Dense", "config": {"activation": "relu", "kernel_initializer": {"class_name": "VarianceScaling", "config": {"distribution": "normal", "scale": 1.0, "mode": "fan_avg", "seed": 2675}}, "kernel_regularizer": {"class_name": "L1L2", "config": {"l1": 0.0, "l2": 9.999999974752427e-07}}, "kernel_constraint": null, "bias_initializer": {"class_name": "Zeros", "config": {}}, "name": "dense_23", "bias_constraint": null, "activity_regularizer": null, "trainable": true, "bias_regularizer": null, "units": 20, "use_bias": true}, "inbound_nodes": [[["dense_22", 0, 0, {}]]]}, {"name": "dense_26", "class_name": "Dense", "config": {"activation": "relu", "kernel_initializer": {"class_name": "VarianceScaling", "config": {"distribution": "normal", "scale": 1.0, "mode": "fan_avg", "seed": 2675}}, "kernel_regularizer": {"class_name": "L1L2", "config": {"l1": 0.0, "l2": 9.999999974752427e-07}}, "kernel_constraint": null, "bias_initializer": {"class_name": "Zeros", "config": {}}, "name": "dense_26", "bias_constraint": null, "activity_regularizer": null, "trainable": true, "bias_regularizer": null, "units": 20, "use_bias": true}, "inbound_nodes": [[["dense_25", 0, 0, {}]]]}, {"name": "dense_29", "class_name": "Dense", "config": {"activation": "relu", "kernel_initializer": {"class_name": "VarianceScaling", "config": {"distribution": "normal", "scale": 1.0, "mode": "fan_avg", "seed": 2675}}, "kernel_regularizer": {"class_name": "L1L2", "config": {"l1": 0.0, "l2": 9.999999974752427e-07}}, "kernel_constraint": null, "bias_initializer": {"class_name": "Zeros", "config": {}}, "name": "dense_29", "bias_constraint": null, "activity_regularizer": null, "trainable": true, "bias_regularizer": null, "units": 20, "use_bias": true}, "inbound_nodes": [[["dense_28", 0, 0, {}]]]}, {"name": "dense_32", "class_name": "Dense", "config": {"activation": "relu", "kernel_initializer": {"class_name": "VarianceScaling", "config": {"distribution": "normal", "scale": 1.0, "mode": "fan_avg", "seed": 2675}}, "kernel_regularizer": {"class_name": "L1L2", "config": {"l1": 0.0, "l2": 9.999999974752427e-07}}, "kernel_constraint": null, "bias_initializer": {"class_name": "Zeros", "config": {}}, "name": "dense_32", "bias_constraint": null, "activity_regularizer": null, "trainable": true, "bias_regularizer": null, "units": 20, "use_bias": true}, "inbound_nodes": [[["dense_31", 0, 0, {}]]]}, {"name": "dense_35", "class_name": "Dense", "config": {"activation": "relu", "kernel_initializer": {"class_name": "VarianceScaling", "config": {"distribution": "normal", "scale": 1.0, "mode": "fan_avg", "seed": 2675}}, "kernel_regularizer": {"class_name": "L1L2", "config": {"l1": 0.0, "l2": 9.999999974752427e-07}}, "kernel_constraint": null, "bias_initializer": {"class_name": "Zeros", "config": {}}, "name": "dense_35", "bias_constraint": null, "activity_regularizer": null, "trainable": true, "bias_regularizer": null, "units": 20, "use_bias": true}, "inbound_nodes": [[["dense_34", 0, 0, {}]]]}, {"name": "dense_38", "class_name": "Dense", "config": {"activation": "relu", "kernel_initializer": {"class_name": "VarianceScaling", "config": {"distribution": "normal", "scale": 1.0, "mode": "fan_avg", "seed": 2675}}, "kernel_regularizer": {"class_name": "L1L2", "config": {"l1": 0.0, "l2": 9.999999974752427e-07}}, "kernel_constraint": null, "bias_initializer": {"class_name": "Zeros", "config": {}}, "name": "dense_38", "bias_constraint": null, "activity_regularizer": null, "trainable": true, "bias_regularizer": null, "units": 20, "use_bias": true}, "inbound_nodes": [[["dense_37", 0, 0, {}]]]}, {"name": "dense_41", "class_name": "Dense", "config": {"activation": "relu", "kernel_initializer": {"class_name": "VarianceScaling", "config": {"distribution": "normal", "scale": 1.0, "mode": "fan_avg", "seed": 2675}}, "kernel_regularizer": {"class_name": "L1L2", "config": {"l1": 0.0, "l2": 9.999999974752427e-07}}, "kernel_constraint": null, "bias_initializer": {"class_name": "Zeros", "config": {}}, "name": "dense_41", "bias_constraint": null, "activity_regularizer": null, "trainable": true, "bias_regularizer": null, "units": 20, "use_bias": true}, "inbound_nodes": [[["dense_40", 0, 0, {}]]]}, {"name": "OnOff_C1", "class_name": "InputLayer", "config": {"name": "OnOff_C1", "batch_input_shape": [null, 1], "sparse": false, "dtype": "float32"}, "inbound_nodes": []}, {"name": "dense_24", "class_name": "Dense", "config": {"activation": "relu", "kernel_initializer": {"class_name": "VarianceScaling", "config": {"distribution": "normal", "scale": 1.0, "mode": "fan_avg", "seed": 2675}}, "kernel_regularizer": {"class_name": "L1L2", "config": {"l1": 0.0, "l2": 9.999999974752427e-07}}, "kernel_constraint": null, "bias_initializer": {"class_name": "Zeros", "config": {}}, "name": "dense_24", "bias_constraint": null, "activity_regularizer": null, "trainable": true, "bias_regularizer": null, "units": 1, "use_bias": true}, "inbound_nodes": [[["dense_23", 0, 0, {}]]]}, {"name": "OnOff_C2", "class_name": "InputLayer", "config": {"name": "OnOff_C2", "batch_input_shape": [null, 1], "sparse": false, "dtype": "float32"}, "inbound_nodes": []}, {"name": "dense_27", "class_name": "Dense", "config": {"activation": "relu", "kernel_initializer": {"class_name": "VarianceScaling", "config": {"distribution": "normal", "scale": 1.0, "mode": "fan_avg", "seed": 2675}}, "kernel_regularizer": {"class_name": "L1L2", "config": {"l1": 0.0, "l2": 9.999999974752427e-07}}, "kernel_constraint": null, "bias_initializer": {"class_name": "Zeros", "config": {}}, "name": "dense_27", "bias_constraint": null, "activity_regularizer": null, "trainable": true, "bias_regularizer": null, "units": 1, "use_bias": true}, "inbound_nodes": [[["dense_26", 0, 0, {}]]]}, {"name": "OnOff_C3", "class_name": "InputLayer", "config": {"name": "OnOff_C3", "batch_input_shape": [null, 1], "sparse": false, "dtype": "float32"}, "inbound_nodes": []}, {"name": "dense_30", "class_name": "Dense", "config": {"activation": "relu", "kernel_initializer": {"class_name": "VarianceScaling", "config": {"distribution": "normal", "scale": 1.0, "mode": "fan_avg", "seed": 2675}}, "kernel_regularizer": {"class_name": "L1L2", "config": {"l1": 0.0, "l2": 9.999999974752427e-07}}, "kernel_constraint": null, "bias_initializer": {"class_name": "Zeros", "config": {}}, "name": "dense_30", "bias_constraint": null, "activity_regularizer": null, "trainable": true, "bias_regularizer": null, "units": 1, "use_bias": true}, "inbound_nodes": [[["dense_29", 0, 0, {}]]]}, {"name": "OnOff_C4", "class_name": "InputLayer", "config": {"name": "OnOff_C4", "batch_input_shape": [null, 1], "sparse": false, "dtype": "float32"}, "inbound_nodes": []}, {"name": "dense_33", "class_name": "Dense", "config": {"activation": "relu", "kernel_initializer": {"class_name": "VarianceScaling", "config": {"distribution": "normal", "scale": 1.0, "mode": "fan_avg", "seed": 2675}}, "kernel_regularizer": {"class_name": "L1L2", "config": {"l1": 0.0, "l2": 9.999999974752427e-07}}, "kernel_constraint": null, "bias_initializer": {"class_name": "Zeros", "config": {}}, "name": "dense_33", "bias_constraint": null, "activity_regularizer": null, "trainable": true, "bias_regularizer": null, "units": 1, "use_bias": true}, "inbound_nodes": [[["dense_32", 0, 0, {}]]]}, {"name": "OnOff_B1", "class_name": "InputLayer", "config": {"name": "OnOff_B1", "batch_input_shape": [null, 1], "sparse": false, "dtype": "float32"}, "inbound_nodes": []}, {"name": "dense_36", "class_name": "Dense", "config": {"activation": "relu", "kernel_initializer": {"class_name": "VarianceScaling", "config": {"distribution": "normal", "scale": 1.0, "mode": "fan_avg", "seed": 2675}}, "kernel_regularizer": {"class_name": "L1L2", "config": {"l1": 0.0, "l2": 9.999999974752427e-07}}, "kernel_constraint": null, "bias_initializer": {"class_name": "Zeros", "config": {}}, "name": "dense_36", "bias_constraint": null, "activity_regularizer": null, "trainable": true, "bias_regularizer": null, "units": 1, "use_bias": true}, "inbound_nodes": [[["dense_35", 0, 0, {}]]]}, {"name": "OnOff_B3", "class_name": "InputLayer", "config": {"name": "OnOff_B3", "batch_input_shape": [null, 1], "sparse": false, "dtype": "float32"}, "inbound_nodes": []}, {"name": "dense_39", "class_name": "Dense", "config": {"activation": "relu", "kernel_initializer": {"class_name": "VarianceScaling", "config": {"distribution": "normal", "scale": 1.0, "mode": "fan_avg", "seed": 2675}}, "kernel_regularizer": {"class_name": "L1L2", "config": {"l1": 0.0, "l2": 9.999999974752427e-07}}, "kernel_constraint": null, "bias_initializer": {"class_name": "Zeros", "config": {}}, "name": "dense_39", "bias_constraint": null, "activity_regularizer": null, "trainable": true, "bias_regularizer": null, "units": 1, "use_bias": true}, "inbound_nodes": [[["dense_38", 0, 0, {}]]]}, {"name": "OnOff_D1", "class_name": "InputLayer", "config": {"name": "OnOff_D1", "batch_input_shape": [null, 1], "sparse": false, "dtype": "float32"}, "inbound_nodes": []}, {"name": "dense_42", "class_name": "Dense", "config": {"activation": "relu", "kernel_initializer": {"class_name": "VarianceScaling", "config": {"distribution": "normal", "scale": 1.0, "mode": "fan_avg", "seed": 2675}}, "kernel_regularizer": {"class_name": "L1L2", "config": {"l1": 0.0, "l2": 9.999999974752427e-07}}, "kernel_constraint": null, "bias_initializer": {"class_name": "Zeros", "config": {}}, "name": "dense_42", "bias_constraint": null, "activity_regularizer": null, "trainable": true, "bias_regularizer": null, "units": 1, "use_bias": true}, "inbound_nodes": [[["dense_41", 0, 0, {}]]]}, {"name": "C1_out", "class_name": "Multiply", "config": {"name": "C1_out", "trainable": true}, "inbound_nodes": [[["OnOff_C1", 0, 0, {}], ["dense_24", 0, 0, {}]]]}, {"name": "C2_out", "class_name": "Multiply", "config": {"name": "C2_out", "trainable": true}, "inbound_nodes": [[["OnOff_C2", 0, 0, {}], ["dense_27", 0, 0, {}]]]}, {"name": "C3_out", "class_name": "Multiply", "config": {"name": "C3_out", "trainable": true}, "inbound_nodes": [[["OnOff_C3", 0, 0, {}], ["dense_30", 0, 0, {}]]]}, {"name": "C4_out", "class_name": "Multiply", "config": {"name": "C4_out", "trainable": true}, "inbound_nodes": [[["OnOff_C4", 0, 0, {}], ["dense_33", 0, 0, {}]]]}, {"name": "B1_out", "class_name": "Multiply", "config": {"name": "B1_out", "trainable": true}, "inbound_nodes": [[["OnOff_B1", 0, 0, {}], ["dense_36", 0, 0, {}]]]}, {"name": "B3_out", "class_name": "Multiply", "config": {"name": "B3_out", "trainable": true}, "inbound_nodes": [[["OnOff_B3", 0, 0, {}], ["dense_39", 0, 0, {}]]]}, {"name": "D1_out", "class_name": "Multiply", "config": {"name": "D1_out", "trainable": true}, "inbound_nodes": [[["OnOff_D1", 0, 0, {}], ["dense_42", 0, 0, {}]]]}, {"name": "GJOA_TOTAL", "class_name": "Add", "config": {"name": "GJOA_TOTAL", "trainable": true}, "inbound_nodes": [[["C1_out", 0, 0, {}], ["C2_out", 0, 0, {}], ["C3_out", 0, 0, {}], ["C4_out", 0, 0, {}], ["B1_out", 0, 0, {}], ["B3_out", 0, 0, {}], ["D1_out", 0, 0, {}]]]}], "input_layers": [["C1", 0, 0], ["C2", 0, 0], ["C3", 0, 0], ["C4", 0, 0], ["B1", 0, 0], ["B3", 0, 0], ["D1", 0, 0], ["OnOff_C1", 0, 0], ["OnOff_C2", 0, 0], ["OnOff_C3", 0, 0], ["OnOff_C4", 0, 0], ["OnOff_B1", 0, 0], ["OnOff_B3", 0, 0], ["OnOff_D1", 0, 0]], "output_layers": [["C1_out", 0, 0], ["C2_out", 0, 0], ["C3_out", 0, 0], ["C4_out", 0, 0], ["B1_out", 0, 0], ["B3_out", 0, 0], ["D1_out", 0, 0], ["GJOA_TOTAL", 0, 0]]}, "keras_version": "2.0.1", "backend": "theano"}