{"config": {"layers": [{"config": {"dtype": "float32", "sparse": false, "batch_input_shape": [null, 4], "name": "C1"}, "inbound_nodes": [], "class_name": "InputLayer", "name": "C1"}, {"config": {"dtype": "float32", "sparse": false, "batch_input_shape": [null, 3], "name": "C2"}, "inbound_nodes": [], "class_name": "InputLayer", "name": "C2"}, {"config": {"dtype": "float32", "sparse": false, "batch_input_shape": [null, 4], "name": "C3"}, "inbound_nodes": [], "class_name": "InputLayer", "name": "C3"}, {"config": {"dtype": "float32", "sparse": false, "batch_input_shape": [null, 4], "name": "C4"}, "inbound_nodes": [], "class_name": "InputLayer", "name": "C4"}, {"config": {"dtype": "float32", "sparse": false, "batch_input_shape": [null, 4], "name": "B1"}, "inbound_nodes": [], "class_name": "InputLayer", "name": "B1"}, {"config": {"dtype": "float32", "sparse": false, "batch_input_shape": [null, 4], "name": "B3"}, "inbound_nodes": [], "class_name": "InputLayer", "name": "B3"}, {"config": {"dtype": "float32", "sparse": false, "batch_input_shape": [null, 3], "name": "D1"}, "inbound_nodes": [], "class_name": "InputLayer", "name": "D1"}, {"config": {"trainable": true, "bias_constraint": null, "bias_regularizer": null, "bias_initializer": {"config": {}, "class_name": "Zeros"}, "name": "dense_1", "use_bias": true, "kernel_constraint": null, "activation": "relu", "kernel_regularizer": {"config": {"l2": 9.999999974752427e-07, "l1": 0.0}, "class_name": "L1L2"}, "activity_regularizer": null, "units": 20, "kernel_initializer": {"config": {"distribution": "normal", "scale": 1.0, "mode": "fan_avg", "seed": 1235}, "class_name": "VarianceScaling"}}, "inbound_nodes": [[["C1", 0, 0, {}]]], "class_name": "Dense", "name": "dense_1"}, {"config": {"trainable": true, "bias_constraint": null, "bias_regularizer": null, "bias_initializer": {"config": {}, "class_name": "Zeros"}, "name": "dense_4", "use_bias": true, "kernel_constraint": null, "activation": "relu", "kernel_regularizer": {"config": {"l2": 9.999999974752427e-07, "l1": 0.0}, "class_name": "L1L2"}, "activity_regularizer": null, "units": 20, "kernel_initializer": {"config": {"distribution": "normal", "scale": 1.0, "mode": "fan_avg", "seed": 1235}, "class_name": "VarianceScaling"}}, "inbound_nodes": [[["C2", 0, 0, {}]]], "class_name": "Dense", "name": "dense_4"}, {"config": {"trainable": true, "bias_constraint": null, "bias_regularizer": null, "bias_initializer": {"config": {}, "class_name": "Zeros"}, "name": "dense_7", "use_bias": true, "kernel_constraint": null, "activation": "relu", "kernel_regularizer": {"config": {"l2": 9.999999974752427e-07, "l1": 0.0}, "class_name": "L1L2"}, "activity_regularizer": null, "units": 20, "kernel_initializer": {"config": {"distribution": "normal", "scale": 1.0, "mode": "fan_avg", "seed": 1235}, "class_name": "VarianceScaling"}}, "inbound_nodes": [[["C3", 0, 0, {}]]], "class_name": "Dense", "name": "dense_7"}, {"config": {"trainable": true, "bias_constraint": null, "bias_regularizer": null, "bias_initializer": {"config": {}, "class_name": "Zeros"}, "name": "dense_10", "use_bias": true, "kernel_constraint": null, "activation": "relu", "kernel_regularizer": {"config": {"l2": 9.999999974752427e-07, "l1": 0.0}, "class_name": "L1L2"}, "activity_regularizer": null, "units": 20, "kernel_initializer": {"config": {"distribution": "normal", "scale": 1.0, "mode": "fan_avg", "seed": 1235}, "class_name": "VarianceScaling"}}, "inbound_nodes": [[["C4", 0, 0, {}]]], "class_name": "Dense", "name": "dense_10"}, {"config": {"trainable": true, "bias_constraint": null, "bias_regularizer": null, "bias_initializer": {"config": {}, "class_name": "Zeros"}, "name": "dense_13", "use_bias": true, "kernel_constraint": null, "activation": "relu", "kernel_regularizer": {"config": {"l2": 9.999999974752427e-07, "l1": 0.0}, "class_name": "L1L2"}, "activity_regularizer": null, "units": 20, "kernel_initializer": {"config": {"distribution": "normal", "scale": 1.0, "mode": "fan_avg", "seed": 1235}, "class_name": "VarianceScaling"}}, "inbound_nodes": [[["B1", 0, 0, {}]]], "class_name": "Dense", "name": "dense_13"}, {"config": {"trainable": true, "bias_constraint": null, "bias_regularizer": null, "bias_initializer": {"config": {}, "class_name": "Zeros"}, "name": "dense_16", "use_bias": true, "kernel_constraint": null, "activation": "relu", "kernel_regularizer": {"config": {"l2": 9.999999974752427e-07, "l1": 0.0}, "class_name": "L1L2"}, "activity_regularizer": null, "units": 20, "kernel_initializer": {"config": {"distribution": "normal", "scale": 1.0, "mode": "fan_avg", "seed": 1235}, "class_name": "VarianceScaling"}}, "inbound_nodes": [[["B3", 0, 0, {}]]], "class_name": "Dense", "name": "dense_16"}, {"config": {"trainable": true, "bias_constraint": null, "bias_regularizer": null, "bias_initializer": {"config": {}, "class_name": "Zeros"}, "name": "dense_19", "use_bias": true, "kernel_constraint": null, "activation": "relu", "kernel_regularizer": {"config": {"l2": 9.999999974752427e-07, "l1": 0.0}, "class_name": "L1L2"}, "activity_regularizer": null, "units": 20, "kernel_initializer": {"config": {"distribution": "normal", "scale": 1.0, "mode": "fan_avg", "seed": 1235}, "class_name": "VarianceScaling"}}, "inbound_nodes": [[["D1", 0, 0, {}]]], "class_name": "Dense", "name": "dense_19"}, {"config": {"trainable": true, "bias_constraint": null, "bias_regularizer": null, "bias_initializer": {"config": {}, "class_name": "Zeros"}, "name": "dense_2", "use_bias": true, "kernel_constraint": null, "activation": "relu", "kernel_regularizer": {"config": {"l2": 9.999999974752427e-07, "l1": 0.0}, "class_name": "L1L2"}, "activity_regularizer": null, "units": 20, "kernel_initializer": {"config": {"distribution": "normal", "scale": 1.0, "mode": "fan_avg", "seed": 1235}, "class_name": "VarianceScaling"}}, "inbound_nodes": [[["dense_1", 0, 0, {}]]], "class_name": "Dense", "name": "dense_2"}, {"config": {"trainable": true, "bias_constraint": null, "bias_regularizer": null, "bias_initializer": {"config": {}, "class_name": "Zeros"}, "name": "dense_5", "use_bias": true, "kernel_constraint": null, "activation": "relu", "kernel_regularizer": {"config": {"l2": 9.999999974752427e-07, "l1": 0.0}, "class_name": "L1L2"}, "activity_regularizer": null, "units": 20, "kernel_initializer": {"config": {"distribution": "normal", "scale": 1.0, "mode": "fan_avg", "seed": 1235}, "class_name": "VarianceScaling"}}, "inbound_nodes": [[["dense_4", 0, 0, {}]]], "class_name": "Dense", "name": "dense_5"}, {"config": {"trainable": true, "bias_constraint": null, "bias_regularizer": null, "bias_initializer": {"config": {}, "class_name": "Zeros"}, "name": "dense_8", "use_bias": true, "kernel_constraint": null, "activation": "relu", "kernel_regularizer": {"config": {"l2": 9.999999974752427e-07, "l1": 0.0}, "class_name": "L1L2"}, "activity_regularizer": null, "units": 20, "kernel_initializer": {"config": {"distribution": "normal", "scale": 1.0, "mode": "fan_avg", "seed": 1235}, "class_name": "VarianceScaling"}}, "inbound_nodes": [[["dense_7", 0, 0, {}]]], "class_name": "Dense", "name": "dense_8"}, {"config": {"trainable": true, "bias_constraint": null, "bias_regularizer": null, "bias_initializer": {"config": {}, "class_name": "Zeros"}, "name": "dense_11", "use_bias": true, "kernel_constraint": null, "activation": "relu", "kernel_regularizer": {"config": {"l2": 9.999999974752427e-07, "l1": 0.0}, "class_name": "L1L2"}, "activity_regularizer": null, "units": 20, "kernel_initializer": {"config": {"distribution": "normal", "scale": 1.0, "mode": "fan_avg", "seed": 1235}, "class_name": "VarianceScaling"}}, "inbound_nodes": [[["dense_10", 0, 0, {}]]], "class_name": "Dense", "name": "dense_11"}, {"config": {"trainable": true, "bias_constraint": null, "bias_regularizer": null, "bias_initializer": {"config": {}, "class_name": "Zeros"}, "name": "dense_14", "use_bias": true, "kernel_constraint": null, "activation": "relu", "kernel_regularizer": {"config": {"l2": 9.999999974752427e-07, "l1": 0.0}, "class_name": "L1L2"}, "activity_regularizer": null, "units": 20, "kernel_initializer": {"config": {"distribution": "normal", "scale": 1.0, "mode": "fan_avg", "seed": 1235}, "class_name": "VarianceScaling"}}, "inbound_nodes": [[["dense_13", 0, 0, {}]]], "class_name": "Dense", "name": "dense_14"}, {"config": {"trainable": true, "bias_constraint": null, "bias_regularizer": null, "bias_initializer": {"config": {}, "class_name": "Zeros"}, "name": "dense_17", "use_bias": true, "kernel_constraint": null, "activation": "relu", "kernel_regularizer": {"config": {"l2": 9.999999974752427e-07, "l1": 0.0}, "class_name": "L1L2"}, "activity_regularizer": null, "units": 20, "kernel_initializer": {"config": {"distribution": "normal", "scale": 1.0, "mode": "fan_avg", "seed": 1235}, "class_name": "VarianceScaling"}}, "inbound_nodes": [[["dense_16", 0, 0, {}]]], "class_name": "Dense", "name": "dense_17"}, {"config": {"trainable": true, "bias_constraint": null, "bias_regularizer": null, "bias_initializer": {"config": {}, "class_name": "Zeros"}, "name": "dense_20", "use_bias": true, "kernel_constraint": null, "activation": "relu", "kernel_regularizer": {"config": {"l2": 9.999999974752427e-07, "l1": 0.0}, "class_name": "L1L2"}, "activity_regularizer": null, "units": 20, "kernel_initializer": {"config": {"distribution": "normal", "scale": 1.0, "mode": "fan_avg", "seed": 1235}, "class_name": "VarianceScaling"}}, "inbound_nodes": [[["dense_19", 0, 0, {}]]], "class_name": "Dense", "name": "dense_20"}, {"config": {"dtype": "float32", "sparse": false, "batch_input_shape": [null, 1], "name": "OnOff_C1"}, "inbound_nodes": [], "class_name": "InputLayer", "name": "OnOff_C1"}, {"config": {"trainable": true, "bias_constraint": null, "bias_regularizer": null, "bias_initializer": {"config": {}, "class_name": "Zeros"}, "name": "dense_3", "use_bias": true, "kernel_constraint": null, "activation": "linear", "kernel_regularizer": {"config": {"l2": 9.999999974752427e-07, "l1": 0.0}, "class_name": "L1L2"}, "activity_regularizer": null, "units": 1, "kernel_initializer": {"config": {"distribution": "normal", "scale": 1.0, "mode": "fan_avg", "seed": 1235}, "class_name": "VarianceScaling"}}, "inbound_nodes": [[["dense_2", 0, 0, {}]]], "class_name": "Dense", "name": "dense_3"}, {"config": {"dtype": "float32", "sparse": false, "batch_input_shape": [null, 1], "name": "OnOff_C2"}, "inbound_nodes": [], "class_name": "InputLayer", "name": "OnOff_C2"}, {"config": {"trainable": true, "bias_constraint": null, "bias_regularizer": null, "bias_initializer": {"config": {}, "class_name": "Zeros"}, "name": "dense_6", "use_bias": true, "kernel_constraint": null, "activation": "linear", "kernel_regularizer": {"config": {"l2": 9.999999974752427e-07, "l1": 0.0}, "class_name": "L1L2"}, "activity_regularizer": null, "units": 1, "kernel_initializer": {"config": {"distribution": "normal", "scale": 1.0, "mode": "fan_avg", "seed": 1235}, "class_name": "VarianceScaling"}}, "inbound_nodes": [[["dense_5", 0, 0, {}]]], "class_name": "Dense", "name": "dense_6"}, {"config": {"dtype": "float32", "sparse": false, "batch_input_shape": [null, 1], "name": "OnOff_C3"}, "inbound_nodes": [], "class_name": "InputLayer", "name": "OnOff_C3"}, {"config": {"trainable": true, "bias_constraint": null, "bias_regularizer": null, "bias_initializer": {"config": {}, "class_name": "Zeros"}, "name": "dense_9", "use_bias": true, "kernel_constraint": null, "activation": "linear", "kernel_regularizer": {"config": {"l2": 9.999999974752427e-07, "l1": 0.0}, "class_name": "L1L2"}, "activity_regularizer": null, "units": 1, "kernel_initializer": {"config": {"distribution": "normal", "scale": 1.0, "mode": "fan_avg", "seed": 1235}, "class_name": "VarianceScaling"}}, "inbound_nodes": [[["dense_8", 0, 0, {}]]], "class_name": "Dense", "name": "dense_9"}, {"config": {"dtype": "float32", "sparse": false, "batch_input_shape": [null, 1], "name": "OnOff_C4"}, "inbound_nodes": [], "class_name": "InputLayer", "name": "OnOff_C4"}, {"config": {"trainable": true, "bias_constraint": null, "bias_regularizer": null, "bias_initializer": {"config": {}, "class_name": "Zeros"}, "name": "dense_12", "use_bias": true, "kernel_constraint": null, "activation": "linear", "kernel_regularizer": {"config": {"l2": 9.999999974752427e-07, "l1": 0.0}, "class_name": "L1L2"}, "activity_regularizer": null, "units": 1, "kernel_initializer": {"config": {"distribution": "normal", "scale": 1.0, "mode": "fan_avg", "seed": 1235}, "class_name": "VarianceScaling"}}, "inbound_nodes": [[["dense_11", 0, 0, {}]]], "class_name": "Dense", "name": "dense_12"}, {"config": {"dtype": "float32", "sparse": false, "batch_input_shape": [null, 1], "name": "OnOff_B1"}, "inbound_nodes": [], "class_name": "InputLayer", "name": "OnOff_B1"}, {"config": {"trainable": true, "bias_constraint": null, "bias_regularizer": null, "bias_initializer": {"config": {}, "class_name": "Zeros"}, "name": "dense_15", "use_bias": true, "kernel_constraint": null, "activation": "linear", "kernel_regularizer": {"config": {"l2": 9.999999974752427e-07, "l1": 0.0}, "class_name": "L1L2"}, "activity_regularizer": null, "units": 1, "kernel_initializer": {"config": {"distribution": "normal", "scale": 1.0, "mode": "fan_avg", "seed": 1235}, "class_name": "VarianceScaling"}}, "inbound_nodes": [[["dense_14", 0, 0, {}]]], "class_name": "Dense", "name": "dense_15"}, {"config": {"dtype": "float32", "sparse": false, "batch_input_shape": [null, 1], "name": "OnOff_B3"}, "inbound_nodes": [], "class_name": "InputLayer", "name": "OnOff_B3"}, {"config": {"trainable": true, "bias_constraint": null, "bias_regularizer": null, "bias_initializer": {"config": {}, "class_name": "Zeros"}, "name": "dense_18", "use_bias": true, "kernel_constraint": null, "activation": "linear", "kernel_regularizer": {"config": {"l2": 9.999999974752427e-07, "l1": 0.0}, "class_name": "L1L2"}, "activity_regularizer": null, "units": 1, "kernel_initializer": {"config": {"distribution": "normal", "scale": 1.0, "mode": "fan_avg", "seed": 1235}, "class_name": "VarianceScaling"}}, "inbound_nodes": [[["dense_17", 0, 0, {}]]], "class_name": "Dense", "name": "dense_18"}, {"config": {"dtype": "float32", "sparse": false, "batch_input_shape": [null, 1], "name": "OnOff_D1"}, "inbound_nodes": [], "class_name": "InputLayer", "name": "OnOff_D1"}, {"config": {"trainable": true, "bias_constraint": null, "bias_regularizer": null, "bias_initializer": {"config": {}, "class_name": "Zeros"}, "name": "dense_21", "use_bias": true, "kernel_constraint": null, "activation": "linear", "kernel_regularizer": {"config": {"l2": 9.999999974752427e-07, "l1": 0.0}, "class_name": "L1L2"}, "activity_regularizer": null, "units": 1, "kernel_initializer": {"config": {"distribution": "normal", "scale": 1.0, "mode": "fan_avg", "seed": 1235}, "class_name": "VarianceScaling"}}, "inbound_nodes": [[["dense_20", 0, 0, {}]]], "class_name": "Dense", "name": "dense_21"}, {"config": {"trainable": true, "name": "C1_out"}, "inbound_nodes": [[["OnOff_C1", 0, 0, {}], ["dense_3", 0, 0, {}]]], "class_name": "Multiply", "name": "C1_out"}, {"config": {"trainable": true, "name": "C2_out"}, "inbound_nodes": [[["OnOff_C2", 0, 0, {}], ["dense_6", 0, 0, {}]]], "class_name": "Multiply", "name": "C2_out"}, {"config": {"trainable": true, "name": "C3_out"}, "inbound_nodes": [[["OnOff_C3", 0, 0, {}], ["dense_9", 0, 0, {}]]], "class_name": "Multiply", "name": "C3_out"}, {"config": {"trainable": true, "name": "C4_out"}, "inbound_nodes": [[["OnOff_C4", 0, 0, {}], ["dense_12", 0, 0, {}]]], "class_name": "Multiply", "name": "C4_out"}, {"config": {"trainable": true, "name": "B1_out"}, "inbound_nodes": [[["OnOff_B1", 0, 0, {}], ["dense_15", 0, 0, {}]]], "class_name": "Multiply", "name": "B1_out"}, {"config": {"trainable": true, "name": "B3_out"}, "inbound_nodes": [[["OnOff_B3", 0, 0, {}], ["dense_18", 0, 0, {}]]], "class_name": "Multiply", "name": "B3_out"}, {"config": {"trainable": true, "name": "D1_out"}, "inbound_nodes": [[["OnOff_D1", 0, 0, {}], ["dense_21", 0, 0, {}]]], "class_name": "Multiply", "name": "D1_out"}, {"config": {"trainable": true, "name": "GJOA_TOTAL"}, "inbound_nodes": [[["C1_out", 0, 0, {}], ["C2_out", 0, 0, {}], ["C3_out", 0, 0, {}], ["C4_out", 0, 0, {}], ["B1_out", 0, 0, {}], ["B3_out", 0, 0, {}], ["D1_out", 0, 0, {}]]], "class_name": "Add", "name": "GJOA_TOTAL"}], "input_layers": [["C1", 0, 0], ["C2", 0, 0], ["C3", 0, 0], ["C4", 0, 0], ["B1", 0, 0], ["B3", 0, 0], ["D1", 0, 0], ["OnOff_C1", 0, 0], ["OnOff_C2", 0, 0], ["OnOff_C3", 0, 0], ["OnOff_C4", 0, 0], ["OnOff_B1", 0, 0], ["OnOff_B3", 0, 0], ["OnOff_D1", 0, 0]], "name": "model_1", "output_layers": [["C1_out", 0, 0], ["C2_out", 0, 0], ["C3_out", 0, 0], ["C4_out", 0, 0], ["B1_out", 0, 0], ["B3_out", 0, 0], ["D1_out", 0, 0], ["GJOA_TOTAL", 0, 0]]}, "backend": "theano", "class_name": "Model", "keras_version": "2.0.1"}