{"config": {"layers": [{"config": {"name": "A", "dtype": "float32", "batch_input_shape": [null, 1], "sparse": false}, "name": "A", "class_name": "InputLayer", "inbound_nodes": []}, {"config": {"name": "B", "dtype": "float32", "batch_input_shape": [null, 1], "sparse": false}, "name": "B", "class_name": "InputLayer", "inbound_nodes": []}, {"config": {"name": "C", "dtype": "float32", "batch_input_shape": [null, 1], "sparse": false}, "name": "C", "class_name": "InputLayer", "inbound_nodes": []}, {"config": {"name": "D", "dtype": "float32", "batch_input_shape": [null, 1], "sparse": false}, "name": "D", "class_name": "InputLayer", "inbound_nodes": []}, {"config": {"name": "dense_1", "activity_regularizer": null, "bias_regularizer": null, "kernel_initializer": {"config": {"seed": 3014, "mode": "fan_avg", "distribution": "normal", "scale": 1.0}, "class_name": "VarianceScaling"}, "activation": "relu", "bias_constraint": null, "bias_initializer": {"config": {}, "class_name": "Zeros"}, "kernel_regularizer": {"config": {"l1": 0.0, "l2": 0.0010000000474974513}, "class_name": "L1L2"}, "use_bias": true, "kernel_constraint": null, "units": 10, "trainable": true}, "name": "dense_1", "class_name": "Dense", "inbound_nodes": [[["A", 0, 0, {}]]]}, {"config": {"name": "dense_3", "activity_regularizer": null, "bias_regularizer": null, "kernel_initializer": {"config": {"seed": 3014, "mode": "fan_avg", "distribution": "normal", "scale": 1.0}, "class_name": "VarianceScaling"}, "activation": "relu", "bias_constraint": null, "bias_initializer": {"config": {}, "class_name": "Zeros"}, "kernel_regularizer": {"config": {"l1": 0.0, "l2": 0.0010000000474974513}, "class_name": "L1L2"}, "use_bias": true, "kernel_constraint": null, "units": 10, "trainable": true}, "name": "dense_3", "class_name": "Dense", "inbound_nodes": [[["B", 0, 0, {}]]]}, {"config": {"name": "dense_5", "activity_regularizer": null, "bias_regularizer": null, "kernel_initializer": {"config": {"seed": 3014, "mode": "fan_avg", "distribution": "normal", "scale": 1.0}, "class_name": "VarianceScaling"}, "activation": "relu", "bias_constraint": null, "bias_initializer": {"config": {}, "class_name": "Zeros"}, "kernel_regularizer": {"config": {"l1": 0.0, "l2": 0.0010000000474974513}, "class_name": "L1L2"}, "use_bias": true, "kernel_constraint": null, "units": 10, "trainable": true}, "name": "dense_5", "class_name": "Dense", "inbound_nodes": [[["C", 0, 0, {}]]]}, {"config": {"name": "dense_7", "activity_regularizer": null, "bias_regularizer": null, "kernel_initializer": {"config": {"seed": 3014, "mode": "fan_avg", "distribution": "normal", "scale": 1.0}, "class_name": "VarianceScaling"}, "activation": "relu", "bias_constraint": null, "bias_initializer": {"config": {}, "class_name": "Zeros"}, "kernel_regularizer": {"config": {"l1": 0.0, "l2": 0.0010000000474974513}, "class_name": "L1L2"}, "use_bias": true, "kernel_constraint": null, "units": 10, "trainable": true}, "name": "dense_7", "class_name": "Dense", "inbound_nodes": [[["D", 0, 0, {}]]]}, {"config": {"name": "OnOff_A", "dtype": "float32", "batch_input_shape": [null, 1], "sparse": false}, "name": "OnOff_A", "class_name": "InputLayer", "inbound_nodes": []}, {"config": {"name": "dense_2", "activity_regularizer": null, "bias_regularizer": null, "kernel_initializer": {"config": {"seed": 3014, "mode": "fan_avg", "distribution": "normal", "scale": 1.0}, "class_name": "VarianceScaling"}, "activation": "relu", "bias_constraint": null, "bias_initializer": {"config": {}, "class_name": "Zeros"}, "kernel_regularizer": {"config": {"l1": 0.0, "l2": 0.0010000000474974513}, "class_name": "L1L2"}, "use_bias": true, "kernel_constraint": null, "units": 1, "trainable": true}, "name": "dense_2", "class_name": "Dense", "inbound_nodes": [[["dense_1", 0, 0, {}]]]}, {"config": {"name": "OnOff_B", "dtype": "float32", "batch_input_shape": [null, 1], "sparse": false}, "name": "OnOff_B", "class_name": "InputLayer", "inbound_nodes": []}, {"config": {"name": "dense_4", "activity_regularizer": null, "bias_regularizer": null, "kernel_initializer": {"config": {"seed": 3014, "mode": "fan_avg", "distribution": "normal", "scale": 1.0}, "class_name": "VarianceScaling"}, "activation": "relu", "bias_constraint": null, "bias_initializer": {"config": {}, "class_name": "Zeros"}, "kernel_regularizer": {"config": {"l1": 0.0, "l2": 0.0010000000474974513}, "class_name": "L1L2"}, "use_bias": true, "kernel_constraint": null, "units": 1, "trainable": true}, "name": "dense_4", "class_name": "Dense", "inbound_nodes": [[["dense_3", 0, 0, {}]]]}, {"config": {"name": "OnOff_C", "dtype": "float32", "batch_input_shape": [null, 1], "sparse": false}, "name": "OnOff_C", "class_name": "InputLayer", "inbound_nodes": []}, {"config": {"name": "dense_6", "activity_regularizer": null, "bias_regularizer": null, "kernel_initializer": {"config": {"seed": 3014, "mode": "fan_avg", "distribution": "normal", "scale": 1.0}, "class_name": "VarianceScaling"}, "activation": "relu", "bias_constraint": null, "bias_initializer": {"config": {}, "class_name": "Zeros"}, "kernel_regularizer": {"config": {"l1": 0.0, "l2": 0.0010000000474974513}, "class_name": "L1L2"}, "use_bias": true, "kernel_constraint": null, "units": 1, "trainable": true}, "name": "dense_6", "class_name": "Dense", "inbound_nodes": [[["dense_5", 0, 0, {}]]]}, {"config": {"name": "OnOff_D", "dtype": "float32", "batch_input_shape": [null, 1], "sparse": false}, "name": "OnOff_D", "class_name": "InputLayer", "inbound_nodes": []}, {"config": {"name": "dense_8", "activity_regularizer": null, "bias_regularizer": null, "kernel_initializer": {"config": {"seed": 3014, "mode": "fan_avg", "distribution": "normal", "scale": 1.0}, "class_name": "VarianceScaling"}, "activation": "relu", "bias_constraint": null, "bias_initializer": {"config": {}, "class_name": "Zeros"}, "kernel_regularizer": {"config": {"l1": 0.0, "l2": 0.0010000000474974513}, "class_name": "L1L2"}, "use_bias": true, "kernel_constraint": null, "units": 1, "trainable": true}, "name": "dense_8", "class_name": "Dense", "inbound_nodes": [[["dense_7", 0, 0, {}]]]}, {"config": {"name": "A_out", "trainable": true}, "name": "A_out", "class_name": "Multiply", "inbound_nodes": [[["OnOff_A", 0, 0, {}], ["dense_2", 0, 0, {}]]]}, {"config": {"name": "B_out", "trainable": true}, "name": "B_out", "class_name": "Multiply", "inbound_nodes": [[["OnOff_B", 0, 0, {}], ["dense_4", 0, 0, {}]]]}, {"config": {"name": "C_out", "trainable": true}, "name": "C_out", "class_name": "Multiply", "inbound_nodes": [[["OnOff_C", 0, 0, {}], ["dense_6", 0, 0, {}]]]}, {"config": {"name": "D_out", "trainable": true}, "name": "D_out", "class_name": "Multiply", "inbound_nodes": [[["OnOff_D", 0, 0, {}], ["dense_8", 0, 0, {}]]]}, {"config": {"name": "Total_production", "trainable": true}, "name": "Total_production", "class_name": "Add", "inbound_nodes": [[["A_out", 0, 0, {}], ["B_out", 0, 0, {}], ["C_out", 0, 0, {}], ["D_out", 0, 0, {}]]]}], "name": "model_1", "input_layers": [["A", 0, 0], ["B", 0, 0], ["C", 0, 0], ["D", 0, 0], ["OnOff_A", 0, 0], ["OnOff_B", 0, 0], ["OnOff_C", 0, 0], ["OnOff_D", 0, 0]], "output_layers": [["A_out", 0, 0], ["B_out", 0, 0], ["C_out", 0, 0], ["D_out", 0, 0], ["Total_production", 0, 0]]}, "keras_version": "2.0.1", "class_name": "Model", "backend": "theano"}