{"keras_version": "2.0.1", "class_name": "Model", "config": {"input_layers": [["A", 0, 0], ["B", 0, 0], ["C", 0, 0], ["D", 0, 0]], "output_layers": [["A_out", 0, 0], ["B_out", 0, 0], ["C_out", 0, 0], ["D_out", 0, 0], ["Total_production", 0, 0]], "name": "model_1", "layers": [{"class_name": "InputLayer", "config": {"dtype": "float32", "batch_input_shape": [null, 1], "sparse": false, "name": "A"}, "inbound_nodes": [], "name": "A"}, {"class_name": "InputLayer", "config": {"dtype": "float32", "batch_input_shape": [null, 1], "sparse": false, "name": "B"}, "inbound_nodes": [], "name": "B"}, {"class_name": "InputLayer", "config": {"dtype": "float32", "batch_input_shape": [null, 1], "sparse": false, "name": "C"}, "inbound_nodes": [], "name": "C"}, {"class_name": "InputLayer", "config": {"dtype": "float32", "batch_input_shape": [null, 1], "sparse": false, "name": "D"}, "inbound_nodes": [], "name": "D"}, {"class_name": "Dense", "config": {"activation": "relu", "bias_initializer": {"class_name": "Zeros", "config": {}}, "name": "dense_1", "units": 10, "activity_regularizer": null, "use_bias": true, "trainable": true, "kernel_regularizer": {"class_name": "L1L2", "config": {"l2": 0.0010000000474974513, "l1": 0.0}}, "bias_regularizer": null, "kernel_constraint": null, "bias_constraint": null, "kernel_initializer": {"class_name": "VarianceScaling", "config": {"distribution": "normal", "scale": 1.0, "seed": 3014, "mode": "fan_avg"}}}, "inbound_nodes": [[["A", 0, 0, {}]]], "name": "dense_1"}, {"class_name": "Dense", "config": {"activation": "relu", "bias_initializer": {"class_name": "Zeros", "config": {}}, "name": "dense_2", "units": 10, "activity_regularizer": null, "use_bias": true, "trainable": true, "kernel_regularizer": {"class_name": "L1L2", "config": {"l2": 0.0010000000474974513, "l1": 0.0}}, "bias_regularizer": null, "kernel_constraint": null, "bias_constraint": null, "kernel_initializer": {"class_name": "VarianceScaling", "config": {"distribution": "normal", "scale": 1.0, "seed": 3014, "mode": "fan_avg"}}}, "inbound_nodes": [[["B", 0, 0, {}]]], "name": "dense_2"}, {"class_name": "Dense", "config": {"activation": "relu", "bias_initializer": {"class_name": "Zeros", "config": {}}, "name": "dense_3", "units": 10, "activity_regularizer": null, "use_bias": true, "trainable": true, "kernel_regularizer": {"class_name": "L1L2", "config": {"l2": 0.0010000000474974513, "l1": 0.0}}, "bias_regularizer": null, "kernel_constraint": null, "bias_constraint": null, "kernel_initializer": {"class_name": "VarianceScaling", "config": {"distribution": "normal", "scale": 1.0, "seed": 3014, "mode": "fan_avg"}}}, "inbound_nodes": [[["C", 0, 0, {}]]], "name": "dense_3"}, {"class_name": "Dense", "config": {"activation": "relu", "bias_initializer": {"class_name": "Zeros", "config": {}}, "name": "dense_4", "units": 10, "activity_regularizer": null, "use_bias": true, "trainable": true, "kernel_regularizer": {"class_name": "L1L2", "config": {"l2": 0.0010000000474974513, "l1": 0.0}}, "bias_regularizer": null, "kernel_constraint": null, "bias_constraint": null, "kernel_initializer": {"class_name": "VarianceScaling", "config": {"distribution": "normal", "scale": 1.0, "seed": 3014, "mode": "fan_avg"}}}, "inbound_nodes": [[["D", 0, 0, {}]]], "name": "dense_4"}, {"class_name": "Dense", "config": {"activation": "relu", "bias_initializer": {"class_name": "Zeros", "config": {}}, "name": "A_out", "units": 1, "activity_regularizer": null, "use_bias": true, "trainable": true, "kernel_regularizer": {"class_name": "L1L2", "config": {"l2": 0.0010000000474974513, "l1": 0.0}}, "bias_regularizer": null, "kernel_constraint": null, "bias_constraint": null, "kernel_initializer": {"class_name": "VarianceScaling", "config": {"distribution": "normal", "scale": 1.0, "seed": 3014, "mode": "fan_avg"}}}, "inbound_nodes": [[["dense_1", 0, 0, {}]]], "name": "A_out"}, {"class_name": "Dense", "config": {"activation": "relu", "bias_initializer": {"class_name": "Zeros", "config": {}}, "name": "B_out", "units": 1, "activity_regularizer": null, "use_bias": true, "trainable": true, "kernel_regularizer": {"class_name": "L1L2", "config": {"l2": 0.0010000000474974513, "l1": 0.0}}, "bias_regularizer": null, "kernel_constraint": null, "bias_constraint": null, "kernel_initializer": {"class_name": "VarianceScaling", "config": {"distribution": "normal", "scale": 1.0, "seed": 3014, "mode": "fan_avg"}}}, "inbound_nodes": [[["dense_2", 0, 0, {}]]], "name": "B_out"}, {"class_name": "Dense", "config": {"activation": "relu", "bias_initializer": {"class_name": "Zeros", "config": {}}, "name": "C_out", "units": 1, "activity_regularizer": null, "use_bias": true, "trainable": true, "kernel_regularizer": {"class_name": "L1L2", "config": {"l2": 0.0010000000474974513, "l1": 0.0}}, "bias_regularizer": null, "kernel_constraint": null, "bias_constraint": null, "kernel_initializer": {"class_name": "VarianceScaling", "config": {"distribution": "normal", "scale": 1.0, "seed": 3014, "mode": "fan_avg"}}}, "inbound_nodes": [[["dense_3", 0, 0, {}]]], "name": "C_out"}, {"class_name": "Dense", "config": {"activation": "relu", "bias_initializer": {"class_name": "Zeros", "config": {}}, "name": "D_out", "units": 1, "activity_regularizer": null, "use_bias": true, "trainable": true, "kernel_regularizer": {"class_name": "L1L2", "config": {"l2": 0.0010000000474974513, "l1": 0.0}}, "bias_regularizer": null, "kernel_constraint": null, "bias_constraint": null, "kernel_initializer": {"class_name": "VarianceScaling", "config": {"distribution": "normal", "scale": 1.0, "seed": 3014, "mode": "fan_avg"}}}, "inbound_nodes": [[["dense_4", 0, 0, {}]]], "name": "D_out"}, {"class_name": "Add", "config": {"trainable": true, "name": "Total_production"}, "inbound_nodes": [[["A_out", 0, 0, {}], ["B_out", 0, 0, {}], ["C_out", 0, 0, {}], ["D_out", 0, 0, {}]]], "name": "Total_production"}]}, "backend": "theano"}