{"backend": "theano", "class_name": "Model", "keras_version": "2.0.1", "config": {"input_layers": [["A", 0, 0], ["B", 0, 0], ["C", 0, 0], ["D", 0, 0], ["OnOff_A", 0, 0], ["OnOff_B", 0, 0], ["OnOff_C", 0, 0], ["OnOff_D", 0, 0]], "name": "model_1", "output_layers": [["A_out", 0, 0], ["B_out", 0, 0], ["C_out", 0, 0], ["D_out", 0, 0], ["Total_production", 0, 0]], "layers": [{"class_name": "InputLayer", "name": "A", "inbound_nodes": [], "config": {"batch_input_shape": [null, 1], "name": "A", "dtype": "float32", "sparse": false}}, {"class_name": "InputLayer", "name": "B", "inbound_nodes": [], "config": {"batch_input_shape": [null, 1], "name": "B", "dtype": "float32", "sparse": false}}, {"class_name": "InputLayer", "name": "C", "inbound_nodes": [], "config": {"batch_input_shape": [null, 1], "name": "C", "dtype": "float32", "sparse": false}}, {"class_name": "InputLayer", "name": "D", "inbound_nodes": [], "config": {"batch_input_shape": [null, 1], "name": "D", "dtype": "float32", "sparse": false}}, {"class_name": "Dense", "name": "A_0", "inbound_nodes": [[["A", 0, 0, {}]]], "config": {"activity_regularizer": null, "units": 10, "activation": "relu", "bias_constraint": null, "kernel_constraint": null, "kernel_regularizer": {"class_name": "L1L2", "config": {"l2": 9.999999747378752e-05, "l1": 0.0}}, "bias_regularizer": null, "bias_initializer": {"class_name": "Zeros", "config": {}}, "name": "A_0", "use_bias": true, "kernel_initializer": {"class_name": "VarianceScaling", "config": {"mode": "fan_avg", "distribution": "normal", "scale": 1.0, "seed": 3014}}, "trainable": true}}, {"class_name": "Dense", "name": "B_0", "inbound_nodes": [[["B", 0, 0, {}]]], "config": {"activity_regularizer": null, "units": 10, "activation": "relu", "bias_constraint": null, "kernel_constraint": null, "kernel_regularizer": {"class_name": "L1L2", "config": {"l2": 9.999999747378752e-05, "l1": 0.0}}, "bias_regularizer": null, "bias_initializer": {"class_name": "Zeros", "config": {}}, "name": "B_0", "use_bias": true, "kernel_initializer": {"class_name": "VarianceScaling", "config": {"mode": "fan_avg", "distribution": "normal", "scale": 1.0, "seed": 3014}}, "trainable": true}}, {"class_name": "Dense", "name": "C_0", "inbound_nodes": [[["C", 0, 0, {}]]], "config": {"activity_regularizer": null, "units": 10, "activation": "relu", "bias_constraint": null, "kernel_constraint": null, "kernel_regularizer": {"class_name": "L1L2", "config": {"l2": 9.999999747378752e-05, "l1": 0.0}}, "bias_regularizer": null, "bias_initializer": {"class_name": "Zeros", "config": {}}, "name": "C_0", "use_bias": true, "kernel_initializer": {"class_name": "VarianceScaling", "config": {"mode": "fan_avg", "distribution": "normal", "scale": 1.0, "seed": 3014}}, "trainable": true}}, {"class_name": "Dense", "name": "D_0", "inbound_nodes": [[["D", 0, 0, {}]]], "config": {"activity_regularizer": null, "units": 10, "activation": "relu", "bias_constraint": null, "kernel_constraint": null, "kernel_regularizer": {"class_name": "L1L2", "config": {"l2": 9.999999747378752e-05, "l1": 0.0}}, "bias_regularizer": null, "bias_initializer": {"class_name": "Zeros", "config": {}}, "name": "D_0", "use_bias": true, "kernel_initializer": {"class_name": "VarianceScaling", "config": {"mode": "fan_avg", "distribution": "normal", "scale": 1.0, "seed": 3014}}, "trainable": true}}, {"class_name": "InputLayer", "name": "OnOff_A", "inbound_nodes": [], "config": {"batch_input_shape": [null, 1], "name": "OnOff_A", "dtype": "float32", "sparse": false}}, {"class_name": "Dense", "name": "A_o", "inbound_nodes": [[["A_0", 0, 0, {}]]], "config": {"activity_regularizer": null, "units": 1, "activation": "relu", "bias_constraint": null, "kernel_constraint": null, "kernel_regularizer": {"class_name": "L1L2", "config": {"l2": 9.999999747378752e-05, "l1": 0.0}}, "bias_regularizer": null, "bias_initializer": {"class_name": "Zeros", "config": {}}, "name": "A_o", "use_bias": true, "kernel_initializer": {"class_name": "VarianceScaling", "config": {"mode": "fan_avg", "distribution": "normal", "scale": 1.0, "seed": 3014}}, "trainable": true}}, {"class_name": "InputLayer", "name": "OnOff_B", "inbound_nodes": [], "config": {"batch_input_shape": [null, 1], "name": "OnOff_B", "dtype": "float32", "sparse": false}}, {"class_name": "Dense", "name": "B_o", "inbound_nodes": [[["B_0", 0, 0, {}]]], "config": {"activity_regularizer": null, "units": 1, "activation": "relu", "bias_constraint": null, "kernel_constraint": null, "kernel_regularizer": {"class_name": "L1L2", "config": {"l2": 9.999999747378752e-05, "l1": 0.0}}, "bias_regularizer": null, "bias_initializer": {"class_name": "Zeros", "config": {}}, "name": "B_o", "use_bias": true, "kernel_initializer": {"class_name": "VarianceScaling", "config": {"mode": "fan_avg", "distribution": "normal", "scale": 1.0, "seed": 3014}}, "trainable": true}}, {"class_name": "InputLayer", "name": "OnOff_C", "inbound_nodes": [], "config": {"batch_input_shape": [null, 1], "name": "OnOff_C", "dtype": "float32", "sparse": false}}, {"class_name": "Dense", "name": "C_o", "inbound_nodes": [[["C_0", 0, 0, {}]]], "config": {"activity_regularizer": null, "units": 1, "activation": "relu", "bias_constraint": null, "kernel_constraint": null, "kernel_regularizer": {"class_name": "L1L2", "config": {"l2": 9.999999747378752e-05, "l1": 0.0}}, "bias_regularizer": null, "bias_initializer": {"class_name": "Zeros", "config": {}}, "name": "C_o", "use_bias": true, "kernel_initializer": {"class_name": "VarianceScaling", "config": {"mode": "fan_avg", "distribution": "normal", "scale": 1.0, "seed": 3014}}, "trainable": true}}, {"class_name": "InputLayer", "name": "OnOff_D", "inbound_nodes": [], "config": {"batch_input_shape": [null, 1], "name": "OnOff_D", "dtype": "float32", "sparse": false}}, {"class_name": "Dense", "name": "D_o", "inbound_nodes": [[["D_0", 0, 0, {}]]], "config": {"activity_regularizer": null, "units": 1, "activation": "relu", "bias_constraint": null, "kernel_constraint": null, "kernel_regularizer": {"class_name": "L1L2", "config": {"l2": 9.999999747378752e-05, "l1": 0.0}}, "bias_regularizer": null, "bias_initializer": {"class_name": "Zeros", "config": {}}, "name": "D_o", "use_bias": true, "kernel_initializer": {"class_name": "VarianceScaling", "config": {"mode": "fan_avg", "distribution": "normal", "scale": 1.0, "seed": 3014}}, "trainable": true}}, {"class_name": "Multiply", "name": "A_out", "inbound_nodes": [[["OnOff_A", 0, 0, {}], ["A_o", 0, 0, {}]]], "config": {"trainable": true, "name": "A_out"}}, {"class_name": "Multiply", "name": "B_out", "inbound_nodes": [[["OnOff_B", 0, 0, {}], ["B_o", 0, 0, {}]]], "config": {"trainable": true, "name": "B_out"}}, {"class_name": "Multiply", "name": "C_out", "inbound_nodes": [[["OnOff_C", 0, 0, {}], ["C_o", 0, 0, {}]]], "config": {"trainable": true, "name": "C_out"}}, {"class_name": "Multiply", "name": "D_out", "inbound_nodes": [[["OnOff_D", 0, 0, {}], ["D_o", 0, 0, {}]]], "config": {"trainable": true, "name": "D_out"}}, {"class_name": "Add", "name": "Total_production", "inbound_nodes": [[["A_out", 0, 0, {}], ["B_out", 0, 0, {}], ["C_out", 0, 0, {}], ["D_out", 0, 0, {}]]], "config": {"trainable": true, "name": "Total_production"}}]}}