{"keras_version": "2.0.1", "backend": "theano", "config": {"input_layers": [["A", 0, 0], ["B", 0, 0], ["C", 0, 0], ["D", 0, 0]], "output_layers": [["A_out", 0, 0], ["B_out", 0, 0], ["C_out", 0, 0], ["D_out", 0, 0], ["Total_production", 0, 0]], "layers": [{"inbound_nodes": [], "class_name": "InputLayer", "config": {"batch_input_shape": [null, 1], "dtype": "float32", "sparse": false, "name": "A"}, "name": "A"}, {"inbound_nodes": [], "class_name": "InputLayer", "config": {"batch_input_shape": [null, 1], "dtype": "float32", "sparse": false, "name": "B"}, "name": "B"}, {"inbound_nodes": [], "class_name": "InputLayer", "config": {"batch_input_shape": [null, 1], "dtype": "float32", "sparse": false, "name": "C"}, "name": "C"}, {"inbound_nodes": [], "class_name": "InputLayer", "config": {"batch_input_shape": [null, 1], "dtype": "float32", "sparse": false, "name": "D"}, "name": "D"}, {"inbound_nodes": [[["A", 0, 0, {}]]], "class_name": "Dense", "config": {"name": "A_0", "kernel_constraint": null, "trainable": true, "units": 10, "kernel_initializer": {"class_name": "VarianceScaling", "config": {"mode": "fan_avg", "distribution": "normal", "scale": 1.0, "seed": 3014}}, "activation": "relu", "use_bias": true, "activity_regularizer": null, "bias_regularizer": null, "kernel_regularizer": {"class_name": "L1L2", "config": {"l1": 0.0, "l2": 9.999999747378752e-05}}, "bias_initializer": {"class_name": "Zeros", "config": {}}, "bias_constraint": null}, "name": "A_0"}, {"inbound_nodes": [[["B", 0, 0, {}]]], "class_name": "Dense", "config": {"name": "B_0", "kernel_constraint": null, "trainable": true, "units": 10, "kernel_initializer": {"class_name": "VarianceScaling", "config": {"mode": "fan_avg", "distribution": "normal", "scale": 1.0, "seed": 3014}}, "activation": "relu", "use_bias": true, "activity_regularizer": null, "bias_regularizer": null, "kernel_regularizer": {"class_name": "L1L2", "config": {"l1": 0.0, "l2": 9.999999747378752e-05}}, "bias_initializer": {"class_name": "Zeros", "config": {}}, "bias_constraint": null}, "name": "B_0"}, {"inbound_nodes": [[["C", 0, 0, {}]]], "class_name": "Dense", "config": {"name": "C_0", "kernel_constraint": null, "trainable": true, "units": 10, "kernel_initializer": {"class_name": "VarianceScaling", "config": {"mode": "fan_avg", "distribution": "normal", "scale": 1.0, "seed": 3014}}, "activation": "relu", "use_bias": true, "activity_regularizer": null, "bias_regularizer": null, "kernel_regularizer": {"class_name": "L1L2", "config": {"l1": 0.0, "l2": 9.999999747378752e-05}}, "bias_initializer": {"class_name": "Zeros", "config": {}}, "bias_constraint": null}, "name": "C_0"}, {"inbound_nodes": [[["D", 0, 0, {}]]], "class_name": "Dense", "config": {"name": "D_0", "kernel_constraint": null, "trainable": true, "units": 10, "kernel_initializer": {"class_name": "VarianceScaling", "config": {"mode": "fan_avg", "distribution": "normal", "scale": 1.0, "seed": 3014}}, "activation": "relu", "use_bias": true, "activity_regularizer": null, "bias_regularizer": null, "kernel_regularizer": {"class_name": "L1L2", "config": {"l1": 0.0, "l2": 9.999999747378752e-05}}, "bias_initializer": {"class_name": "Zeros", "config": {}}, "bias_constraint": null}, "name": "D_0"}, {"inbound_nodes": [[["A_0", 0, 0, {}]]], "class_name": "Dense", "config": {"name": "A_out", "kernel_constraint": null, "trainable": true, "units": 1, "kernel_initializer": {"class_name": "VarianceScaling", "config": {"mode": "fan_avg", "distribution": "normal", "scale": 1.0, "seed": 3014}}, "activation": "relu", "use_bias": true, "activity_regularizer": null, "bias_regularizer": null, "kernel_regularizer": {"class_name": "L1L2", "config": {"l1": 0.0, "l2": 9.999999747378752e-05}}, "bias_initializer": {"class_name": "Zeros", "config": {}}, "bias_constraint": null}, "name": "A_out"}, {"inbound_nodes": [[["B_0", 0, 0, {}]]], "class_name": "Dense", "config": {"name": "B_out", "kernel_constraint": null, "trainable": true, "units": 1, "kernel_initializer": {"class_name": "VarianceScaling", "config": {"mode": "fan_avg", "distribution": "normal", "scale": 1.0, "seed": 3014}}, "activation": "relu", "use_bias": true, "activity_regularizer": null, "bias_regularizer": null, "kernel_regularizer": {"class_name": "L1L2", "config": {"l1": 0.0, "l2": 9.999999747378752e-05}}, "bias_initializer": {"class_name": "Zeros", "config": {}}, "bias_constraint": null}, "name": "B_out"}, {"inbound_nodes": [[["C_0", 0, 0, {}]]], "class_name": "Dense", "config": {"name": "C_out", "kernel_constraint": null, "trainable": true, "units": 1, "kernel_initializer": {"class_name": "VarianceScaling", "config": {"mode": "fan_avg", "distribution": "normal", "scale": 1.0, "seed": 3014}}, "activation": "relu", "use_bias": true, "activity_regularizer": null, "bias_regularizer": null, "kernel_regularizer": {"class_name": "L1L2", "config": {"l1": 0.0, "l2": 9.999999747378752e-05}}, "bias_initializer": {"class_name": "Zeros", "config": {}}, "bias_constraint": null}, "name": "C_out"}, {"inbound_nodes": [[["D_0", 0, 0, {}]]], "class_name": "Dense", "config": {"name": "D_out", "kernel_constraint": null, "trainable": true, "units": 1, "kernel_initializer": {"class_name": "VarianceScaling", "config": {"mode": "fan_avg", "distribution": "normal", "scale": 1.0, "seed": 3014}}, "activation": "relu", "use_bias": true, "activity_regularizer": null, "bias_regularizer": null, "kernel_regularizer": {"class_name": "L1L2", "config": {"l1": 0.0, "l2": 9.999999747378752e-05}}, "bias_initializer": {"class_name": "Zeros", "config": {}}, "bias_constraint": null}, "name": "D_out"}, {"inbound_nodes": [[["A_out", 0, 0, {}], ["B_out", 0, 0, {}], ["C_out", 0, 0, {}], ["D_out", 0, 0, {}]]], "class_name": "Add", "config": {"trainable": true, "name": "Total_production"}, "name": "Total_production"}], "name": "model_1"}, "class_name": "Model"}