{"config": {"layers": [{"config": {"dtype": "float32", "name": "A", "batch_input_shape": [null, 1], "sparse": false}, "class_name": "InputLayer", "inbound_nodes": [], "name": "A"}, {"config": {"dtype": "float32", "name": "B", "batch_input_shape": [null, 1], "sparse": false}, "class_name": "InputLayer", "inbound_nodes": [], "name": "B"}, {"config": {"dtype": "float32", "name": "C", "batch_input_shape": [null, 1], "sparse": false}, "class_name": "InputLayer", "inbound_nodes": [], "name": "C"}, {"config": {"dtype": "float32", "name": "D", "batch_input_shape": [null, 1], "sparse": false}, "class_name": "InputLayer", "inbound_nodes": [], "name": "D"}, {"config": {"kernel_initializer": {"config": {"scale": 1.0, "mode": "fan_avg", "seed": 3014, "distribution": "normal"}, "class_name": "VarianceScaling"}, "bias_constraint": null, "trainable": true, "activation": "relu", "kernel_constraint": null, "bias_regularizer": null, "name": "dense_1", "kernel_regularizer": {"config": {"l2": 0.0010000000474974513, "l1": 0.0}, "class_name": "L1L2"}, "activity_regularizer": null, "use_bias": true, "bias_initializer": {"config": {}, "class_name": "Zeros"}, "units": 10}, "class_name": "Dense", "inbound_nodes": [[["A", 0, 0, {}]]], "name": "dense_1"}, {"config": {"kernel_initializer": {"config": {"scale": 1.0, "mode": "fan_avg", "seed": 3014, "distribution": "normal"}, "class_name": "VarianceScaling"}, "bias_constraint": null, "trainable": true, "activation": "relu", "kernel_constraint": null, "bias_regularizer": null, "name": "dense_3", "kernel_regularizer": {"config": {"l2": 0.0010000000474974513, "l1": 0.0}, "class_name": "L1L2"}, "activity_regularizer": null, "use_bias": true, "bias_initializer": {"config": {}, "class_name": "Zeros"}, "units": 10}, "class_name": "Dense", "inbound_nodes": [[["B", 0, 0, {}]]], "name": "dense_3"}, {"config": {"kernel_initializer": {"config": {"scale": 1.0, "mode": "fan_avg", "seed": 3014, "distribution": "normal"}, "class_name": "VarianceScaling"}, "bias_constraint": null, "trainable": true, "activation": "relu", "kernel_constraint": null, "bias_regularizer": null, "name": "dense_5", "kernel_regularizer": {"config": {"l2": 0.0010000000474974513, "l1": 0.0}, "class_name": "L1L2"}, "activity_regularizer": null, "use_bias": true, "bias_initializer": {"config": {}, "class_name": "Zeros"}, "units": 10}, "class_name": "Dense", "inbound_nodes": [[["C", 0, 0, {}]]], "name": "dense_5"}, {"config": {"kernel_initializer": {"config": {"scale": 1.0, "mode": "fan_avg", "seed": 3014, "distribution": "normal"}, "class_name": "VarianceScaling"}, "bias_constraint": null, "trainable": true, "activation": "relu", "kernel_constraint": null, "bias_regularizer": null, "name": "dense_7", "kernel_regularizer": {"config": {"l2": 0.0010000000474974513, "l1": 0.0}, "class_name": "L1L2"}, "activity_regularizer": null, "use_bias": true, "bias_initializer": {"config": {}, "class_name": "Zeros"}, "units": 10}, "class_name": "Dense", "inbound_nodes": [[["D", 0, 0, {}]]], "name": "dense_7"}, {"config": {"dtype": "float32", "name": "OnOff_A", "batch_input_shape": [null, 1], "sparse": false}, "class_name": "InputLayer", "inbound_nodes": [], "name": "OnOff_A"}, {"config": {"kernel_initializer": {"config": {"scale": 1.0, "mode": "fan_avg", "seed": 3014, "distribution": "normal"}, "class_name": "VarianceScaling"}, "bias_constraint": null, "trainable": true, "activation": "relu", "kernel_constraint": null, "bias_regularizer": null, "name": "dense_2", "kernel_regularizer": {"config": {"l2": 0.0010000000474974513, "l1": 0.0}, "class_name": "L1L2"}, "activity_regularizer": null, "use_bias": true, "bias_initializer": {"config": {}, "class_name": "Zeros"}, "units": 1}, "class_name": "Dense", "inbound_nodes": [[["dense_1", 0, 0, {}]]], "name": "dense_2"}, {"config": {"dtype": "float32", "name": "OnOff_B", "batch_input_shape": [null, 1], "sparse": false}, "class_name": "InputLayer", "inbound_nodes": [], "name": "OnOff_B"}, {"config": {"kernel_initializer": {"config": {"scale": 1.0, "mode": "fan_avg", "seed": 3014, "distribution": "normal"}, "class_name": "VarianceScaling"}, "bias_constraint": null, "trainable": true, "activation": "relu", "kernel_constraint": null, "bias_regularizer": null, "name": "dense_4", "kernel_regularizer": {"config": {"l2": 0.0010000000474974513, "l1": 0.0}, "class_name": "L1L2"}, "activity_regularizer": null, "use_bias": true, "bias_initializer": {"config": {}, "class_name": "Zeros"}, "units": 1}, "class_name": "Dense", "inbound_nodes": [[["dense_3", 0, 0, {}]]], "name": "dense_4"}, {"config": {"dtype": "float32", "name": "OnOff_C", "batch_input_shape": [null, 1], "sparse": false}, "class_name": "InputLayer", "inbound_nodes": [], "name": "OnOff_C"}, {"config": {"kernel_initializer": {"config": {"scale": 1.0, "mode": "fan_avg", "seed": 3014, "distribution": "normal"}, "class_name": "VarianceScaling"}, "bias_constraint": null, "trainable": true, "activation": "relu", "kernel_constraint": null, "bias_regularizer": null, "name": "dense_6", "kernel_regularizer": {"config": {"l2": 0.0010000000474974513, "l1": 0.0}, "class_name": "L1L2"}, "activity_regularizer": null, "use_bias": true, "bias_initializer": {"config": {}, "class_name": "Zeros"}, "units": 1}, "class_name": "Dense", "inbound_nodes": [[["dense_5", 0, 0, {}]]], "name": "dense_6"}, {"config": {"dtype": "float32", "name": "OnOff_D", "batch_input_shape": [null, 1], "sparse": false}, "class_name": "InputLayer", "inbound_nodes": [], "name": "OnOff_D"}, {"config": {"kernel_initializer": {"config": {"scale": 1.0, "mode": "fan_avg", "seed": 3014, "distribution": "normal"}, "class_name": "VarianceScaling"}, "bias_constraint": null, "trainable": true, "activation": "relu", "kernel_constraint": null, "bias_regularizer": null, "name": "dense_8", "kernel_regularizer": {"config": {"l2": 0.0010000000474974513, "l1": 0.0}, "class_name": "L1L2"}, "activity_regularizer": null, "use_bias": true, "bias_initializer": {"config": {}, "class_name": "Zeros"}, "units": 1}, "class_name": "Dense", "inbound_nodes": [[["dense_7", 0, 0, {}]]], "name": "dense_8"}, {"config": {"trainable": true, "name": "A_out"}, "class_name": "Multiply", "inbound_nodes": [[["OnOff_A", 0, 0, {}], ["dense_2", 0, 0, {}]]], "name": "A_out"}, {"config": {"trainable": true, "name": "B_out"}, "class_name": "Multiply", "inbound_nodes": [[["OnOff_B", 0, 0, {}], ["dense_4", 0, 0, {}]]], "name": "B_out"}, {"config": {"trainable": true, "name": "C_out"}, "class_name": "Multiply", "inbound_nodes": [[["OnOff_C", 0, 0, {}], ["dense_6", 0, 0, {}]]], "name": "C_out"}, {"config": {"trainable": true, "name": "D_out"}, "class_name": "Multiply", "inbound_nodes": [[["OnOff_D", 0, 0, {}], ["dense_8", 0, 0, {}]]], "name": "D_out"}, {"config": {"trainable": true, "name": "Total_production"}, "class_name": "Add", "inbound_nodes": [[["A_out", 0, 0, {}], ["B_out", 0, 0, {}], ["C_out", 0, 0, {}], ["D_out", 0, 0, {}]]], "name": "Total_production"}], "input_layers": [["A", 0, 0], ["B", 0, 0], ["C", 0, 0], ["D", 0, 0], ["OnOff_A", 0, 0], ["OnOff_B", 0, 0], ["OnOff_C", 0, 0], ["OnOff_D", 0, 0]], "output_layers": [["A_out", 0, 0], ["B_out", 0, 0], ["C_out", 0, 0], ["D_out", 0, 0], ["Total_production", 0, 0]], "name": "model_1"}, "class_name": "Model", "keras_version": "2.0.1", "backend": "theano"}