{"config": {"output_layers": [["A_out", 0, 0], ["B_out", 0, 0], ["C_out", 0, 0], ["D_out", 0, 0], ["Total_production", 0, 0]], "input_layers": [["A", 0, 0], ["B", 0, 0], ["C", 0, 0], ["D", 0, 0]], "layers": [{"config": {"batch_input_shape": [null, 1], "dtype": "float32", "name": "A", "sparse": false}, "name": "A", "class_name": "InputLayer", "inbound_nodes": []}, {"config": {"batch_input_shape": [null, 1], "dtype": "float32", "name": "B", "sparse": false}, "name": "B", "class_name": "InputLayer", "inbound_nodes": []}, {"config": {"batch_input_shape": [null, 1], "dtype": "float32", "name": "C", "sparse": false}, "name": "C", "class_name": "InputLayer", "inbound_nodes": []}, {"config": {"batch_input_shape": [null, 1], "dtype": "float32", "name": "D", "sparse": false}, "name": "D", "class_name": "InputLayer", "inbound_nodes": []}, {"config": {"kernel_initializer": {"config": {"distribution": "normal", "seed": 3014, "scale": 1.0, "mode": "fan_avg"}, "class_name": "VarianceScaling"}, "kernel_regularizer": {"config": {"l1": 0.0, "l2": 0.0010000000474974513}, "class_name": "L1L2"}, "trainable": true, "activation": "relu", "bias_constraint": null, "kernel_constraint": null, "bias_regularizer": null, "name": "dense_1", "use_bias": true, "units": 10, "bias_initializer": {"config": {}, "class_name": "Zeros"}, "activity_regularizer": null}, "name": "dense_1", "class_name": "Dense", "inbound_nodes": [[["A", 0, 0, {}]]]}, {"config": {"kernel_initializer": {"config": {"distribution": "normal", "seed": 3014, "scale": 1.0, "mode": "fan_avg"}, "class_name": "VarianceScaling"}, "kernel_regularizer": {"config": {"l1": 0.0, "l2": 0.0010000000474974513}, "class_name": "L1L2"}, "trainable": true, "activation": "relu", "bias_constraint": null, "kernel_constraint": null, "bias_regularizer": null, "name": "dense_2", "use_bias": true, "units": 10, "bias_initializer": {"config": {}, "class_name": "Zeros"}, "activity_regularizer": null}, "name": "dense_2", "class_name": "Dense", "inbound_nodes": [[["B", 0, 0, {}]]]}, {"config": {"kernel_initializer": {"config": {"distribution": "normal", "seed": 3014, "scale": 1.0, "mode": "fan_avg"}, "class_name": "VarianceScaling"}, "kernel_regularizer": {"config": {"l1": 0.0, "l2": 0.0010000000474974513}, "class_name": "L1L2"}, "trainable": true, "activation": "relu", "bias_constraint": null, "kernel_constraint": null, "bias_regularizer": null, "name": "dense_3", "use_bias": true, "units": 10, "bias_initializer": {"config": {}, "class_name": "Zeros"}, "activity_regularizer": null}, "name": "dense_3", "class_name": "Dense", "inbound_nodes": [[["C", 0, 0, {}]]]}, {"config": {"kernel_initializer": {"config": {"distribution": "normal", "seed": 3014, "scale": 1.0, "mode": "fan_avg"}, "class_name": "VarianceScaling"}, "kernel_regularizer": {"config": {"l1": 0.0, "l2": 0.0010000000474974513}, "class_name": "L1L2"}, "trainable": true, "activation": "relu", "bias_constraint": null, "kernel_constraint": null, "bias_regularizer": null, "name": "dense_4", "use_bias": true, "units": 10, "bias_initializer": {"config": {}, "class_name": "Zeros"}, "activity_regularizer": null}, "name": "dense_4", "class_name": "Dense", "inbound_nodes": [[["D", 0, 0, {}]]]}, {"config": {"kernel_initializer": {"config": {"distribution": "normal", "seed": 3014, "scale": 1.0, "mode": "fan_avg"}, "class_name": "VarianceScaling"}, "kernel_regularizer": {"config": {"l1": 0.0, "l2": 0.0010000000474974513}, "class_name": "L1L2"}, "trainable": true, "activation": "relu", "bias_constraint": null, "kernel_constraint": null, "bias_regularizer": null, "name": "A_out", "use_bias": true, "units": 1, "bias_initializer": {"config": {}, "class_name": "Zeros"}, "activity_regularizer": null}, "name": "A_out", "class_name": "Dense", "inbound_nodes": [[["dense_1", 0, 0, {}]]]}, {"config": {"kernel_initializer": {"config": {"distribution": "normal", "seed": 3014, "scale": 1.0, "mode": "fan_avg"}, "class_name": "VarianceScaling"}, "kernel_regularizer": {"config": {"l1": 0.0, "l2": 0.0010000000474974513}, "class_name": "L1L2"}, "trainable": true, "activation": "relu", "bias_constraint": null, "kernel_constraint": null, "bias_regularizer": null, "name": "B_out", "use_bias": true, "units": 1, "bias_initializer": {"config": {}, "class_name": "Zeros"}, "activity_regularizer": null}, "name": "B_out", "class_name": "Dense", "inbound_nodes": [[["dense_2", 0, 0, {}]]]}, {"config": {"kernel_initializer": {"config": {"distribution": "normal", "seed": 3014, "scale": 1.0, "mode": "fan_avg"}, "class_name": "VarianceScaling"}, "kernel_regularizer": {"config": {"l1": 0.0, "l2": 0.0010000000474974513}, "class_name": "L1L2"}, "trainable": true, "activation": "relu", "bias_constraint": null, "kernel_constraint": null, "bias_regularizer": null, "name": "C_out", "use_bias": true, "units": 1, "bias_initializer": {"config": {}, "class_name": "Zeros"}, "activity_regularizer": null}, "name": "C_out", "class_name": "Dense", "inbound_nodes": [[["dense_3", 0, 0, {}]]]}, {"config": {"kernel_initializer": {"config": {"distribution": "normal", "seed": 3014, "scale": 1.0, "mode": "fan_avg"}, "class_name": "VarianceScaling"}, "kernel_regularizer": {"config": {"l1": 0.0, "l2": 0.0010000000474974513}, "class_name": "L1L2"}, "trainable": true, "activation": "relu", "bias_constraint": null, "kernel_constraint": null, "bias_regularizer": null, "name": "D_out", "use_bias": true, "units": 1, "bias_initializer": {"config": {}, "class_name": "Zeros"}, "activity_regularizer": null}, "name": "D_out", "class_name": "Dense", "inbound_nodes": [[["dense_4", 0, 0, {}]]]}, {"config": {"trainable": true, "name": "Total_production"}, "name": "Total_production", "class_name": "Add", "inbound_nodes": [[["A_out", 0, 0, {}], ["B_out", 0, 0, {}], ["C_out", 0, 0, {}], ["D_out", 0, 0, {}]]]}], "name": "model_1"}, "backend": "theano", "keras_version": "2.0.1", "class_name": "Model"}